unet/checkpoints/one_loss/epoch_97.pth (torch, 508787 bytes, 85 tensors)

weight f4 [8, 1, 3]
0.94893986 -0.17782483 3.8715265 0.6664596 -4.47043 -0.67880595 -1.5246036 2.0545955
0.9083217 -4.8365173 -0.38890398 0.9114229 1.0322466 -3.2382488 -0.62717104 0.8615051
4.88807 -0.035866458 -1.6686261 1.4270308 -2.0024712 3.590866 -0.17961548 -1.171205
00000000: b9ed 723f b617 36be 17c7 7740 199d 2a3f
00000010: c30d 8fc0 3ac6 2dbf 3626 c3bf 7e7e 0340
00000020: c587 683f c0c4 9ac0 6c1e c7be 0353 693f
00000030: a820 843f 783f 4fc0 488e 20bf 998b 5c3f
00000040: 126b 9c40 b5e8 12bd 8a95 d5bf f2a8 b63f
00000050: 7d28 00c0 c0d0 6540 1fed 37be 0cea 95bf

bias f4 [8]
0.15185314 0.0192286 -0.036572184 0.43434203 -0.1553961 0.23442005 -0.32246003 0.3187306
00000000: 647f 1b3e 4c85 9d3c b7cc 15bd 1462 de3e
00000010: 2820 1fbe cf0b 703e 7b19 a5be a830 a33e

weight f4 [8]
1.5346919 2.0922225 2.1750672 2.2661488 0.8027677 3.3156662 1.1728463 2.4460363
00000000: c970 c43f f9e6 0540 4d34 0b40 9508 1140
00000010: 2f82 4d3f e033 5440 d41f 963f dc8b 1c40

bias f4 [8]
-2.1144052 0.3604812 1.6926898 2.3533304 3.5777485 -0.12348916 -0.6608823 -0.22769997
00000000: 6a52 07c0 fe90 b83e 0faa d83f f79c 1640
00000010: d5f9 6440 e2e7 fcbd 952f 29bf 2e2a 69be

running_mean f4 [8]
0.5930785 -0.03445971 0.020853685 0.3939079 -0.19378579 0.25339794 -0.5820614 0.294368
00000000: fed3 173f a025 0dbd 59d5 aa3c 4cae c93e
00000010: c86f 46be 60bd 813e fa01 15bf 67b7 963e

running_var f4 [8]
1.1690475e+06 1.1969012e+06 171204.48 1.1533278e+06 511150.7 1.8470954e+06 309738.9 400284.97
00000000: bcb4 8e49 2a1b 9249 1f31 2748 7ec9 8c49
00000010: d695 f948 bb79 e149 5d3d 9748 9f73 c348

weight f4 [16, 8, 3]
0.23410591 -1.7855474 -3.809004 1.2212042 1.2619697 -1.514024 -1.3536808 1.369612
1.0166857 1.9652547 4.0215197 0.9217929 2.8117201 1.4384946 -1.9050372 -2.99723
-1.7546765 -0.114883944 0.6996438 -1.5276779 1.4864817 0.6097714 -0.6167723 -0.779209
0.5466769 1.978023 0.23697066 0.28029016 1.3437517 -0.8797727 1.2557665 0.9242822
0.28934205 -2.5390286 -0.31267253 0.93899727 -0.5182605 0.83288133 -1.9820249 4.590321
2.278742 2.232813 -0.9054357 -0.8077347 1.3410041 -0.77888507 2.1971848 0.57321525
-1.5795093 1.3954096 -2.1089845 0.26247498 0.9302491 0.08707884 -0.9436835 -2.1310778
1.1516539 -4.2951765 0.55904925 0.77126753 0.5993288 1.3566593 -1.0580782 0.87217563
-1.4024891 0.040904578 -1.8629339 1.2274984 1.8356228 1.9036999 -0.12505893 -2.2515419
4.1886525 1.4170039 -0.69278234 2.7495832 3.3338048 0.70917445 -0.45902324 0.25221682
-1.5841494 0.9448337 3.4442024 0.49728677 1.8129927 2.138989 0.37469405 -1.0908761
0.5828687 -2.560205 0.115308486 2.1467845 -0.5251057 -0.8117791 -1.4778647 1.3916419
2.360171 -2.4036522 -3.02011 -1.6491629 -3.1086793 -1.1633697 -0.5334746 -1.4818012
-2.2526052 -1.0195531 -1.0515846 -0.048041902 0.68021804 -0.62440187 0.5782263 1.7611617
0.11357322 -1.2919648 0.017806668 -2.6863992 -1.5569867 2.589026 1.6605924 0.42895797
2.1419048 -0.6031622 -2.3724673 2.656543 1.6189885 3.0304582 -0.46933058 -0.5222707
-2.153906 0.7822707 2.4814696 0.93025786 2.0659432 1.517966 2.3184314 -0.2653308
-0.16134845 -1.9064056 0.34880346 1.3471444 -0.20785579 1.5601884 1.3219248 1.1283652
0.85564303 -1.0400127 1.3756791 -4.155565 1.2964724 -0.08342129 -2.8611956 -0.4125539
0.03390971 -1.2710981 -2.758727 0.5684498 -2.4627523 1.1784251 0.46515727 -0.23138264
-0.6493354 -0.38232785 0.9307386 2.1817064 -2.1886373 0.61275035 -2.2556193 -2.0890594
1.7897086 0.83948576 -0.42010438 0.15333636 -2.9994838 0.4962502 -0.86977243 1.9265479
-3.4912205 -0.82966566 1.0936718 -0.64466125 0.29008266 -3.0014598 -0.058528177 2.1771297
1.5488912 -1.2437282 -2.6663134 1.0115621 0.59918815 -0.1778738 1.8266662 0.47484863
1.3927566 -2.2436771 1.5127136 -0.5942162 0.84142035 0.28616104 -1.1732309 -3.9046211
0.24825738 -2.947451 -0.27612072 0.43846 -0.6726295 1.3401189 2.294139 -0.2536409
-0.8700354 -4.2518578 -0.9950716 -2.148641 1.419726 1.8593738 -0.44868538 0.10404069
-3.5907092 -1.2021984 -0.2962121 0.2078759 -0.46812275 3.438491 -0.509278 -0.755715
-2.4591231 -2.4692912 0.50784355 -0.95982426 0.70556116 0.8885148 3.951704 0.050093148
-1.8515581 -2.957625 -1.7726946 1.751742 -0.21882321 1.7588462 0.110331215 -0.21253957
-0.03282095 0.60670084 -0.020752283 2.03139 2.0870025 2.392035 -0.47475344 -0.8391872
-0.337334 0.54649574 1.9694743 1.9422357 1.7677046 1.6821638 1.8122474 0.1379595
00000000: 76b9 6f3e d18c e4bf b9c6 73c0 6b50 9c3f
00000010: 3988 a13f 8acb c1bf 6a45 adbf 724f af3f
00000020: c222 823f 778d fb3f 4ab0 8040 9ffa 6b3f
00000030: 39f3 3340 9720 b83f 42d8 f3bf 9ed2 3fc0
00000040: 3d99 e0bf 4648 ebbd db1b 333f f38a c3bf
00000050: 0845 be3f fa19 1c3f cae4 1dbf 3e7a 47bf
00000060: 04f3 0b3f dc2f fd3f 70a8 723e 3182 8f3e
00000070: 0e00 ac3f c938 61bf f5bc a03f c29d 6c3f
00000080: a424 943e 727f 22c0 9d16 a0be 2062 703f
00000090: b8ac 04bf b637 553f feb2 fdbf e9e3 9240
000000a0: e9d6 1140 68e6 0e40 a2ca 67bf b4c7 4ebf
000000b0: 06a6 ab3f 0365 47bf ad9e 0c40 3cbe 123f
000000c0: 5c2d cabf c89c b23f 9af9 06c0 1f63 863e
000000d0: ce24 6e3f 6456 b23d 3e95 71bf 9463 08c0
000000e0: 6569 933f 1672 89c0 da1d 0f3f ca71 453f
000000f0: 9d6d 193f 03a7 ad3f 1b6f 87bf e746 5f3f
00000100: c384 b3bf 8f8b 273d 9e74 eebf ab1e 9d3f
00000110: b0f5 ea3f 70ac f33f 730f 00be 4319 10c0
00000120: 7109 8640 6260 b53f 2f5a 31bf 2cf9 2f40
00000130: 0f5d 5540 758c 353f 1805 ebbe 9022 813e
00000140: 68c5 cabf 9fe0 713f d06d 5c40 5f9c fe3e
00000150: 2510 e83f 32e5 0840 e6d7 bf3e d4a1 8bbf
00000160: e236 153f 66da 23c0 db26 ec3d eb64 0940
00000170: 546d 06bf c1d0 4fbf ac2a bdbf 5221 b23f
00000180: 0b0d 1740 70d5 19c0 7b49 41c0 c517 d3bf
00000190: 9af4 46c0 4ce9 94bf cb91 08bf a9ab bdbf
000001a0: af2a 10c0 b780 82bf 539a 86bf 96c7 44bd
000001b0: c522 2e3f cdd8 1fbf a406 143f bf6d e13f
000001c0: 1499 e83d 1a5f a5bf 4adf 913c f7ed 2bc0
000001d0: 574b c7bf 9ab2 2540 4b8e d43f 61a0 db3e
000001e0: f814 0940 d768 1abf 81d6 17c0 cd04 2a40
000001f0: 043b cf3f 07f3 4140 194c f0be 88b3 05bf
00000200: 99d9 09c0 e542 483f 66d0 1e40 6125 6e3f
00000210: 6a38 0440 b64c c23f 2e61 1440 70d9 87be
00000220: 8738 25be 1905 f4bf 5e96 b23e 3a6f ac3f
00000230: 26d8 54be 41b4 c73f d534 a93f 456e 903f
00000240: 6c0b 5b3f 231f 85bf 4116 b03f 63fa 84c0
00000250: cff2 a53f c8d8 aabd d41d 37c0 443a d3be
00000260: e8e4 0a3d 58b3 a2bf fc8e 30c0 ed85 113f
00000270: bc9d 1dc0 a2d6 963f 1829 ee3e 92ef 6cbe
00000280: d83a 26bf 7ac0 c3be e344 6e3f 14a1 0b40
00000290: a212 0cc0 35dd 1c3f 115c 10c0 26b3 05c0
000002a0: 2c15 e53f 8ae8 563f ec17 d7be 3504 1d3e
000002b0: 8bf7 3fc0 8214 fe3e 68a9 5ebf 1f99 f63f
000002c0: 2870 5fc0 f864 54bf 70fd 8b3f 8508 25bf
000002d0: b785 943e eb17 40c0 3ebb 6fbd 1856 0b40
000002e0: 1142 c63f 7c32 9fbf e1a4 2ac0 de7a 813f
000002f0: 6564 193f 8d24 36be 33d0 e93f 5c1f f33e
00000300: d945 b23f 6898 0fc0 99a0 c13f 8e1e 18bf
00000310: 5367 573f b383 923e 6e2c 96bf 50e5 79c0
00000320: 2f37 7e3e 0aa3 3cc0 b25f 8dbe d47d e03e
00000330: 7231 2cbf 0489 ab3f 2cd3 1240 38dd 81be
00000340: a4ba 5ebf 380f 88c0 03bd 7ebf 5683 09c0
00000350: 95b9 b53f f6ff ed3f 17ba e5be 4913 d53d
00000360: 2ece 65c0 a3e1 99bf 1da9 97be 6cdd 543e
00000370: c9ad efbe 3d10 5c40 0b60 02bf 8a76 41bf
00000380: 4662 1dc0 de08 1ec0 0902 023f 0bb7 75bf
00000390: a89f 343f b575 633f b8e8 7c40 792e 4d3d
000003a0: dbff ecbf ba49 3dc0 a8e7 e2bf 1539 e03f
000003b0: 3113 60be df21 e13f 55f5 e13d f9a3 59be
000003c0: 436f 06bd bf50 1b3f b100 aabc 4b02 0240
000003d0: 7391 0540 1a17 1940 e212 f3be f9d4 56bf
000003e0: 0bb7 acbe 25e7 0b3f bc17 fc3f 2e9b f83f
000003f0: 2544 e23f 2551 d73f b9f7 e73f 4145 0d3e

bias f4 [16]
-1.3016002 0.9061071 -0.0073335413 0.80208635 1.6456302 1.2223147 1.0295376 -0.43588665
2.192775 -0.2515246 -0.31722844 0.66243666 1.0309145 1.3923693 3.4257648 1.3164669
00000000: d69a a6bf a3f6 673f 344e f0bb 8855 4d3f
00000010: 03a4 d23f cf74 9c3f e3c7 833f 892c dfbe
00000020: 6d56 0c40 d5c7 80be c46b a2be 7395 293f
00000030: 02f5 833f 2839 b23f bb3f 5b40 fd81 a83f

weight f4 [16]
1.5558465 2.034946 1.2170142 1.8731207 1.7278379 1.223021 0.92206407 0.97859794
1.2723757 1.2496467 1.0090934 1.8350325 2.2125106 2.281538 1.5966307 1.7359711
00000000: fa25 c73f 8e3c 0240 1fc7 9b3f 6bc2 ef3f
00000010: cb29 dd3f f48b 9c3f 640c 6c3f 6585 7a3f
00000020: 35dd a23f 6cf4 9f3f f929 813f 58e2 ea3f
00000030: c699 0d40 b804 1240 655e cc3f 4d34 de3f

bias f4 [16]
1.5472417 -1.5575068 0.6715601 0.21352121 0.70081306 0.32449234 0.42866746 3.5581527
3.7046683 1.1675642 -0.2070242 -0.439408 -0.25373 0.7352471 0.644472 1.162304
00000000: 040c c63f 625c c7bf 5deb 2b3f 4ea5 5a3e
00000010: 7c68 333f dc23 a63e 4d7a db3e c6b8 6340
00000020: 4919 6d40 be72 953f 27fe 53be 16fa e0be
00000030: e6e8 81be 2739 3c3f 1efc 243f 61c6 943f

running_mean f4 [16]
21.051935 7.6239815 -7.6372967 28.35161 -12.211009 34.341747 -23.76578 -13.841067
-8.44094 3.29273 30.497087 24.887112 -9.911082 0.61843234 -2.3528898 7.6520023
00000000: 5d6a a841 a8f7 f340 bc64 f4c0 19d0 e241
00000010: 4b60 43c1 f35d 0942 5120 bec1 0375 5dc1
00000020: 170e 07c1 17bc 5240 09fa f341 ce18 c741
00000030: cb93 1ec1 9551 1e3f bf95 16c0 34dd f440

running_var f4 [16]
608.44275 699.3676 107.977455 723.7386 197.15767 637.8984 105.5221 165.4396
289.99832 335.27936 658.6578 273.6116 958.5767 312.28964 110.10783 1052.9474
00000000: 561c 1844 87d7 2e44 75f4 d742 45ef 3444
00000010: 5d28 4543 7f79 1f44 510b d342 8a70 2543
00000020: c9ff 9043 c2a3 a743 19aa 2444 49ce 8843
00000030: e9a4 6f44 1325 9c43 3537 dc42 519e 8344

weight f4 [16, 16, 3]
-3.3597765 0.8046715 -0.3152079 2.0185852 1.3057591 -1.2222981 -2.9536197 -1.5310047
-0.66315204 0.28318262 0.25358635 0.12199069 -0.115536876 0.8487477 2.0208778 0.2237173
-1.5865784 -0.43869632 -1.0129251 0.4949887 1.5176363 0.56998825 1.1716523 -1.1500149
-1.1753837 0.26521972 3.3609524 -0.018399913 0.032745637 0.8333663 0.08928577 -0.88904387
-0.685567 -0.7244621 -1.1246686 -2.8099043 2.562972 1.8904414 -0.5583678 -1.0120406
-1.5559981 -3.5847476 -1.942316 0.18837494 -1.1183552 0.1961108 1.5126729 1.0641716
-3.0623598 0.3775729 1.0340586 -1.8861556 -1.1423874 0.8274579 -1.4392804 0.8621704
-0.4297449 -0.33443066 0.77550036 1.1463526 4.0254197 0.34848484 -0.48443985 -0.16766405
0.37272125 0.3793397 -0.92360127 0.49627155 -0.053976353 -1.0596948 -2.0055115 -2.3493443
-0.63810164 1.4040858 -1.6709639 -1.325908 0.9241338 -2.5373325 0.007988624 0.6175667
0.46776816 -1.5543524 1.3549591 -1.1283163 1.574373 -0.22808574 -0.1596584 -5.1450515
-1.219899 -0.98040545 -4.4317894 -0.6239206 -2.348957 -0.8460616 1.9787421 0.33208492
-1.8698956 -3.2669609 -1.0503507 4.1879725 0.55185246 -2.2760148 -1.6752822 0.55551237
-0.98681986 -0.943373 -1.5978383 -1.6538334 0.55127823 -0.067842156 1.4359176 0.43868458
-1.5033045 -0.5220389 -3.017157 2.1517875 0.44832882 0.7669943 1.0640138 0.008369967
-2.3032408 1.0580041 1.2903107 -2.992221 -2.0991254 0.38860542 0.43532115 -1.704153
-0.003204717 -1.9129814 0.67028844 -2.3911467 3.7155926 1.6996078 -1.4285554 0.50693244
0.009874644 -0.6633321 0.20236477 0.40471077 -0.8082452 -1.3524817 -1.8238311 -1.616146
0.024736105 -0.43108022 0.830427 -2.1673625 0.5578186 1.4272765 0.8507874 -0.6456741
-3.8231192 -0.29075986 0.5643848 0.6511198 0.8504953 0.6572249 -1.0939306 -0.17815399
1.3034052 0.6970418 1.024926 -0.97743845 -1.1141505 -0.6762925 -1.2435613 -0.6636354
1.5447851 0.23331693 -6.2984376 1.2598374 0.22045502 -2.0765333 -0.8162936 1.4743626
0.26250052 0.7185601 1.1051828 -0.33742353 -2.7129452 0.23138674 1.9050382 0.21008636
0.43249983 3.8155181 -1.1100461 -0.6581185 -3.1580229 0.63533497 1.3261155 0.27164903
0.92689306 1.0373429 -0.68712616 -0.34751463 -2.3698478 -0.6161653 -3.0514202 0.29096183
-1.376351 1.7860332 1.8792417 -2.7867653 0.15918253 -0.12985992 0.3856711 1.7136611
1.4480337 -2.6728866 -2.7916322 0.72376716 -0.39458445 -0.38389495 -1.5662196 -1.0955241
-1.4608464 -0.59158736 -1.7635114 -0.74788177 -0.6176685 -3.2707756 1.7885886 0.8738655
-2.775841 1.691838 0.23833323 -2.8543766 -0.018686676 -2.1954334 -1.0117247 -1.5869768
-0.8348633 0.025051797 -1.4245013 -2.6357687 0.21484677 0.806101 1.1683662 -1.7032311
-2.323744 0.67779255 1.7935005 2.1522245 0.8844105 -2.3526154 1.2047757 -0.34790885
-0.10648386 -0.96457833 2.1448164 2.652731 2.0902517 0.61255515 -0.09013644 -0.83441114
00000000: 9406 57c0 f4fe 4d3f ee62 a1be 8030 0140
00000010: 1d23 a73f 4474 9cbf 1b08 3dc0 f6f7 c3bf
00000020: 55c4 29bf 50fd 903e 12d6 813e 41d6 f93d
00000030: 999e ecbd 8747 593f 1056 0140 2616 653e
00000040: 0015 cbbf ce9c e0be 88a7 81bf 296f fd3e
00000050: e841 c23f c0ea 113f b4f8 953f b033 93bf
00000060: f972 96bf e1ca 873e d819 5740 6abb 96bc
00000070: 4a20 063d 7e57 553f 75db b63d 6198 63bf
00000080: 5281 2fbf 5976 39bf 24f5 8fbf 79d5 33c0
00000090: bc07 2440 fcf9 f13f 31f1 0ebf 8c8a 81bf
000000a0: f22a c7bf 816c 65c0 d09d f8bf 5ce5 403e
000000b0: 4326 8fbf 45d1 483e 449f c13f c636 883f
000000c0: b4fd 43c0 3c51 c13e 085c 843f 8c6d f1bf
000000d0: c039 92bf 48d4 533f 573a b8bf 33b7 5c3f
000000e0: 8607 dcbe 7f3a abbe 3187 463f afbb 923f
000000f0: 3dd0 8040 9b6c b23e 8008 f8be 20b0 2bbe
00000100: 52d5 be3e d038 c23e 2271 6cbf 4e17 fe3e
00000110: 4f16 5dbd 14a4 87bf 4d5a 00c0 a85b 16c0
00000120: a15a 23bf 15b9 b33f 25e2 d5bf 5ab7 a9bf
00000130: 0894 6c3f a863 22c0 b8e2 023c da18 1e3f
00000140: 4f7f ef3e 05f5 c6bf 4d6f ad3f ab6c 90bf
00000150: 0e85 c93f 4f8f 69be 7e7d 23be 43a4 a4c0
00000160: a725 9cbf dafb 7abf 38d1 8dc0 43b9 1fbf
00000170: 5055 16c0 7e97 58bf 6c47 fd3f 0907 aa3e
00000180: bd58 efbf e315 51c0 e471 86bf df03 8640
00000190: 3446 0d3f 3aaa 11c0 a66f d6bf 0f36 0e3f
000001a0: 3aa0 7cbf e580 71bf f785 ccbf d0b0 d3bf
000001b0: 9220 0d3f d4f0 8abd 26cc b73f 449b e03e
000001c0: 486c c0bf 57a4 05bf 1a19 41c0 e3b6 0940
000001d0: 5b8b e53e bd59 443f 9b31 883f 3022 093c
000001e0: 4c68 13c0 ae6c 873f e728 a53f 8d80 3fc0
000001f0: 1258 06c0 4af7 c63e 6ae2 de3e af21 dabf
00000200: 3b06 52bb 93dc f4bf 0698 2b3f 8c08 19c0
00000210: 45cc 6d40 c08c d93f e7da b6bf 53c6 013f
00000220: 42c9 213c 22d0 29bf b638 4f3e 4036 cf3e
00000230: 28e9 4ebf 1f1e adbf 4c73 e9bf dfdd cebf
00000240: 5fa3 ca3c 8cb6 dcbe dd96 543f 11b6 0ac0
00000250: 33cd 0e3f ffb0 b63f 34cd 593f e64a 25bf
00000260: fcad 74c0 7ade 94be 867b 103f caaf 263f
00000270: 0fba 593f e43f 283f eb05 8cbf 006e 36be
00000280: fbd5 a63f 5571 323f c630 833f 6839 7abf
00000290: 7c9c 8ebf 8121 2dbf 042d 9fbf 02e4 29bf
000002a0: 85bb c53f a2ea 6e3e cd8c c9c0 5a42 a13f
000002b0: f6be 613e ece5 04c0 9ef8 50bf eab7 bc3f
000002c0: 7866 863e 8ef3 373f a176 8d3f c7c2 acbe
000002d0: e5a0 2dc0 a5f0 6c3e 4bd8 f33f e120 573e
000002e0: 9e70 dd3e 7331 7440 fe15 8ebf 747a 28bf
000002f0: 0c1d 4ac0 50a5 223f 27be a93f 9515 8b3e
00000300: dd48 6d3f a7c7 843f 80e7 2fbf 70ed b1be
00000310: 96ab 17c0 02bd 1dbf 784a 43c0 f3f8 943e
00000320: 452c b0bf bc9c e43f fe8a f03f 5d5a 32c0
00000330: bf00 233e 00fa 04be af76 c53e 3f59 db3f
00000340: 2b59 b93f 9310 2bc0 1aaa 32c0 ce48 393f
00000350: f906 cabe e18d c4be e279 c8bf 223a 8cbf
00000360: 04fd babf 4572 17bf beba e1bf 2e75 3fbf
00000370: 861f 1ebf 6354 51c0 79f0 e43f a6b5 5f3f
00000380: 61a7 31c0 268e d83f a00d 743e 1bae 36c0
00000390: cd14 99bc fb81 0cc0 3280 81bf 0e22 cbbf
000003a0: 9ab9 55bf 6d39 cd3c 0f56 b6bf 6fb0 28c0
000003b0: cb00 5c3e a35c 4e3f 068d 953f 7a03 dabf
000003c0: 39b8 14c0 d083 2d3f 6d91 e53f 0cbe 0940
000003d0: ba68 623f 4091 16c0 1736 9a3f 1c21 b2be
000003e0: 3614 dabd 9bee 76bf ac44 0940 58c6 2940
000003f0: afc6 0540 6ad0 1c3f 7499 b8bd f89b 55bf

bias f4 [16]
-0.39971185 1.2959819 0.5373197 -0.5180157 1.510605 1.2985834 -0.8307215 0.6318057
0.7218473 -0.6369141 -1.5895901 -0.5551211 1.0893437 -2.042944 -0.059563946 -1.6071792
00000000: 08a7 ccbe bce2 a53f c98d 093f ad9c 04bf
00000010: 815b c13f fb37 a63f 2aaa 54bf 05be 213f
00000020: fcca 383f cd0c 23bf b077 cbbf 6b1c 0ebf
00000030: 9d6f 8b3f 98bf 02c0 53f9 73bd 0cb8 cdbf

weight f4 [16]
1.4546398 2.7880704 2.6442375 2.0514057 2.651483 2.4801328 2.10785 0.9350784
2.1114354 1.927024 2.3195362 2.8289537 2.2222326 2.7774515 2.4916825 1.9914653
00000000: a331 ba3f bf6f 3240 303b 2940 3b4a 0340
00000010: e6b1 2940 7fba 1e40 04e7 0640 4c61 6f3f
00000020: c221 0740 b9a8 f63f 4873 1440 940d 3540
00000030: 0f39 0e40 c4c1 3140 ba77 1f40 56e8 fe3f

bias f4 [16]
2.1138349 -0.2513691 0.3661869 -0.5210849 0.6324331 0.87809265 0.43110237 1.877347
0.40530798 1.2787997 0.054368008 0.4837706 -0.31973425 -1.138146 0.59431094 -0.68512976
00000000: 1249 0740 73b3 80be d97c bb3e d265 05bf
00000010: 23e7 213f aeca 603f 73b9 dc3e e84c f03f
00000020: 8784 cf3e b5af a33f fdb0 5e3d c8b0 f73e
00000030: 35b4 a3be c5ae 91bf c324 183f aa64 2fbf

running_mean f4 [16]
-4.935555 -46.50173 -24.073015 -27.166515 -49.70622 38.956936 -78.07481 -25.311504
-40.028618 22.384789 -21.29344 42.31003 -21.675827 -14.9347105 23.098867 -68.72799
00000000: 11f0 9dc0 c601 3ac2 8995 c0c1 0655 d9c1
00000010: 2bd3 46c2 e7d3 1b42 4d26 9cc2 f67d cac1
00000020: 4e1d 20c2 0c14 b341 f758 aac1 793d 2942
00000030: 1868 adc1 93f4 6ec1 7bca b841 bb74 89c2

running_var f4 [16]
354.62225 328.57214 1448.5334 485.55396 400.49423 848.8099 1445.0303 669.27734
1139.9226 365.36325 430.18585 916.92267 740.1689 421.19885 466.8155 304.23163
00000000: a64f b143 3c49 a443 1211 b544 e8c6 f243
00000010: 433f c843 d533 5444 f8a0 b444 c051 2744
00000020: 867d 8e44 7fae b643 ca17 d743 0d3b 6544
00000030: cf0a 3944 7499 d243 6268 e943 a61d 9843

weight f4 [32, 16, 3]
-0.00043044545 -1.8288145 0.08559612 1.0498329 -0.34189686 -1.1308126 1.55747 -1.1033345
0.50553197 0.6133146 -0.19976747 -2.3128395 -3.3104327 -0.75836575 -0.8451748 -1.4050738
-1.8783593 -1.6861767 1.0382293 -1.4574872 -1.5483153 -1.0632838 0.84386754 -0.94321895
0.1759079 -0.3816043 -0.87970215 0.55257595 -1.3399141 -3.910629 -4.7902856 0.9075576
-1.4518806 -0.46711588 -1.8006915 -3.3877442 -1.162622 -2.6639168 -2.424617 -1.2692982
-1.0426571 0.05386971 -0.7680133 -1.5324389 1.285484 -1.6305107 0.63766915 -0.19521877
-1.0403471 -0.38816726 0.89522237 -1.8766396 0.59739506 -0.032719348 -1.6910571 -0.24555168
-0.058057807 -1.0981055 -0.84369856 0.68393505 -1.8380309 -3.0852435 1.1983911 -0.2735753
0.20158742 1.8679305 -0.06433008 1.386627 0.5901902 1.5081125 1.7387189 1.0343897
0.4036376 2.268723 1.0936288 -1.6715957 0.33689275 0.0078085363 -0.50789523 0.7431888
-0.8149502 -2.9613929 -0.5553253 -0.5190448 0.8810516 1.3421688 3.2024975 -0.08767351
1.7071971 4.132852 -2.0544024 -0.4344091 -0.30137393 -1.8008773 -2.1081672 1.2648935
-0.74577785 -1.9271425 -0.9769574 -1.2548901 -0.22635327 1.5981389 -1.7902423 -2.224711
-1.9067978 -2.3235092 0.6445725 0.12951247 -0.36774012 -2.071225 -1.9015 -2.0979543
0.21000893 2.0909615 0.5079238 0.08708488 0.3417881 1.9042143 1.1377386 -0.023813061
0.9091368 0.9373695 -0.95249176 -0.5985444 -3.2179759 0.08750702 -1.0947424 2.4184198
0.35086468 -3.1949668 -2.2814307 -1.2522018 -1.1079466 0.97344226 2.3461156 0.18005034
0.60533416 2.5504913 -1.8136438 -2.8514411 1.0802573 -2.4674838 -1.4352854 -0.544546
2.487363 1.1006552 -2.7657084 0.055526122 -1.0354898 1.7836807 2.4465165 0.55378145
-2.9326334 1.1431808 -2.2122 1.7887605 -3.363763 -0.4435541 1.2660067 1.8886352
2.032755 -2.0002866 0.56932485 -2.240019 -0.30719185 -2.7498975 -1.2275097 1.2341701
-1.3224629 -0.61166257 -2.0922294 0.40794763 -0.08376389 1.5382843 -1.7920172 -0.24579759
1.2735268 0.42673942 0.14674155 2.9863498 -0.04460754 -0.5785556 -1.3544248 0.07764343
0.2915936 -2.193766 0.5487973 -1.2326326 -2.0439377 -1.2063859 0.20977755 -2.3981547
-1.8799616 -1.3888353 -2.7967477 -1.5575637 0.576233 -0.36172384 -1.0592813 0.2522411
0.79166025 0.042906653 -0.7673993 0.9826455 -1.9023077 -3.6859844 -1.6210293 -3.7619457
0.15820949 1.1917794 0.23719564 -0.5134051 -0.24601333 0.334772 -2.2772782 -3.3501925
1.0973642 0.8608982 -1.0501966 -2.6183684 -4.5664144 0.88673574 -1.6997896 -0.66755533
0.66783655 -1.294554 0.36426106 -0.4186801 0.56038195 -0.11444035 0.7089222 -0.6298616
-0.5185324 4.301079 0.08217823 1.081332 0.69434196 -1.6366445 -2.2434437 1.76723
-4.5798316 0.7284165 -0.24458945 0.27215794 -2.9747179 -0.0010354 -3.786381 0.29250264
1.269992 0.6918953 -1.6171254 -0.1400524 0.07193237 0.8141177 -2.482 -0.5214169
00000000: 69ad e1b9 9816 eabf 054d af3d ed60 863f
00000010: 1b0d afbe 78be 90bf 2d5b c73f 113a 8dbf
00000020: 8b6a 013f 3002 1d3f d88f 4cbe 9005 14c0
00000030: 21de 53c0 4224 42bf 605d 58bf 75d9 b3bf
00000040: 146e f0bf a3d4 d7bf b3e4 843f f18e babf
00000050: 322f c6bf af19 88bf b407 583f cc76 71bf
00000060: 3321 343e a461 c3be 2934 61bf 9e75 0d3f
00000070: 4e82 abbf bf47 7ac0 054a 99c0 b255 683f
00000080: 39d7 b9bf d029 efbe 0f7d e6bf cdd0 58c0
00000090: ccd0 94bf 9d7d 2ac0 ed2c 1bc0 5d78 a2bf
000000a0: ca75 85bf 7ca6 5c3d 859c 44bf f526 c4bf
000000b0: bd8a a43f 93b4 d0bf 493e 233f 6ee7 47be
000000c0: 182a 85bf dcbd c6be 4b2d 653f ba35 f0bf
000000d0: e2ee 183f b904 06bd 8f74 d8bf e671 7bbe
000000e0: 06ce 6dbd b98e 8cbf a1fc 57bf 5e16 2f3f
000000f0: 9944 ebbf a174 45c0 e164 993f 1012 8cbe
00000100: ef6c 4e3e 5918 ef3f 7dbf 83bd fe7c b13f
00000110: b416 173f d509 c13f 578e de3f e266 843f
00000120: 96a9 ce3e c232 1140 07fc 8b3f d9f6 d5bf
00000130: 357d ac3e c0de ff3b 6c05 02bf 9f41 3e3f
00000140: 94a0 50bf 7687 3dc0 cd29 0ebf 1fe0 04bf
00000150: 998c 613f 30cc ab3f b8f5 4c40 2b8e b3bd
00000160: 6f85 da3f 5340 8440 547b 03c0 df6a debe
00000170: af4d 9abe 2683 e6bf 36ec 06c0 08e8 a13f
00000180: 4ceb 3ebf 9bac f6bf e119 7abf 3da0 a0bf
00000190: 27c9 67be d18f cc3f a926 e5bf aa61 0ec0
000001a0: f311 f4bf 60b4 14c0 b402 253f eb9e 043e
000001b0: 6f48 bcbe f38e 04c0 5a64 f3bf e244 06c0
000001c0: 950c 573e 50d2 0540 4b07 023f 8f59 b23d
000001d0: dafe ae3e 4bbd f33f 6ba1 913f 9c13 c3bc
000001e0: 30bd 683f 73f7 6f3f 80d6 73bf 353a 19bf
000001f0: 51f3 4dc0 e136 b33d 8520 8cbf 64c7 1a40
00000200: 89a4 b33e 567a 4cc0 f602 12c0 2648 a0bf
00000210: 32d1 8dbf 8333 793f c226 1640 1e5f 383e
00000220: 2ef7 1a3f 403b 2340 7b25 e8bf 037e 36c0
00000230: df45 8a3f 41eb 1dc0 6fb7 b7bf 5e67 0bbf
00000240: f530 1f40 45e2 8c3f 5e01 31c0 5c6f 633d
00000250: ee8a 84bf a64f e43f ba93 1c40 9fc4 0d3f
00000260: 44b0 3bc0 c053 923f af94 0dc0 1bf6 e43f
00000270: e547 57c0 8619 e3be 820c a23f ccbe f13f
00000280: a818 0240 b204 00c0 46bf 113f 795c 0fc0
00000290: 4048 9dbe 52fe 2fc0 0a1f 9dbf 49f9 9d3f
000002a0: 7746 a9bf eb95 1cbf 16e7 05c0 83de d03e
000002b0: 678c abbd 80e6 c43f d260 e5bf 5db2 7bbe
000002c0: ed02 a33f 977d da3e 6b43 163e 5b20 3f40
000002d0: 65b6 36bd 381c 14bf cb5d adbf 8503 9f3d
000002e0: c24b 953e aa66 0cc0 fb7d 0c3f e8c6 9dbf
000002f0: e0cf 02c0 da6a 9abf edcf 563e 5e7b 19c0
00000300: 95a2 f0bf 5bc5 b1bf eafd 32c0 3f5e c7bf
00000310: 0284 133f de33 b9be 8896 87bf bf25 813e
00000320: 3faa 4a3f e3be 2f3d 4874 44bf a88e 7b3f
00000330: d27e f3bf 2be7 6bc0 e37d cfbf b8c3 70c0
00000340: ab01 223e 3a8c 983f 6ae3 723e 846e 03bf
00000350: ebea 7bbe 3c67 ab3e edbe 11c0 8e69 56c0
00000360: 6e76 8c3f d363 5c3f d86c 86bf 5993 27c0
00000370: 1120 92c0 1d01 633f b592 d9bf e8e4 2abf
00000380: 56f7 2a3f f2b3 a5bf 6d80 ba3e 3d5d d6be
00000390: 3175 0f3f b45f eabd ed7b 353f 9c3e 21bf
000003a0: 8abe 04bf 70a2 8940 0f4d a83d 1669 8a3f
000003b0: 65c0 313f 917d d1bf 9594 0fc0 9834 e23f
000003c0: fb8d 92c0 8179 3a3f a875 7abe 4958 8b3e
000003d0: c761 3ec0 42b6 87ba 1154 72c0 e8c2 953e
000003e0: 198f a23f 0d20 313f f7fd cebf e569 0fbe
000003f0: 4751 933d 056a 503f 17d9 1ec0 947b 05bf

bias f4 [32]
-0.18077043 -0.91525745 1.274961 -0.44343174 0.46318543 0.5230446 0.09782102 -0.20633079
0.040748365 1.1738061 -0.08091778 -0.124742284 0.15799186 0.9777182 0.2818804 -1.041898
0.22914016 0.85623854 1.8088763 0.49940315 1.6890777 0.089769036 1.969508 0.25874165
-1.0994529 1.9661711 1.618383 -1.5586518 0.92376244 -1.0195693 3.6142962 -0.010243355
00000000: e21b 39be 504e 6abf ec31 a33f 7c09 e3be
00000010: a426 ed3e 40e6 053f 6356 c83d 6148 53be
00000020: c2e7 263d 473f 963f 39b8 a5bd e278 ffbd
00000030: 9ec8 213e bd4b 7a3f a152 903e ea5c 85bf
00000040: b8a3 6a3e 7332 5b3f 4289 e73f c5b1 ff3e
00000050: b333 d83f d4d8 b73d d718 fc3f c979 843e
00000060: dfba 8cbf 7fab fb3f 2d27 cf3f e781 c7bf
00000070: b27b 6c3f 3f81 82bf a150 6740 bfd3 27bc

weight f4 [32]
2.4406168 1.8515408 2.1476278 2.2387273 2.2403886 2.0852373 2.1174614 1.5823562
1.4421091 1.666718 2.2746384 2.0891812 2.2682724 1.0760818 2.3507671 1.6550816
2.6394138 2.3817089 1.5698303 1.198218 2.170976 0.09787598 1.966789 2.1901042
2.3281004 1.6816342 1.6406257 1.9060113 1.6329113 2.4722464 2.1793156 1.7153299
00000000: 1133 1c40 4aff ec3f bc72 0940 4f47 0f40
00000010: 8762 0f40 8774 0540 7d84 0740 a68a ca3f
00000020: 0897 b83f 0457 d53f ad93 1140 25b5 0540
00000030: 602b 1140 0cbd 893f f872 1640 b7d9 d33f
00000040: 28ec 2840 eb6d 1840 33f0 c83f 355f 993f
00000050: 45f1 0a40 3473 c83d bebf fb3f ab2a 0c40
00000060: 99ff 1440 ca3f d73f 0600 d23f 2ef8 f33f
00000070: 3d03 d13f 4939 1e40 e879 0b40 ee8f db3f

bias f4 [32]
-0.30730075 -1.4751627 0.33530343 0.6153483 -0.3861774 0.25914776 -1.4857615 -1.695311
-2.285044 -0.8203898 -1.5854572 0.85992587 -0.13584042 1.4155201 -0.34246904 -0.8314466
1.074695 -0.61287546 1.7600001 -0.27615517 0.5157573 -1.1064947 -0.19108507 -0.22693616
-0.09055181 -2.4126654 1.8801363 -0.3100931 -0.5119243 -0.7623858 -0.75965434 1.1081991
00000000: 8656 9dbe 22d2 bcbf e4ac ab3e 7787 1d3f
00000010: 0bb9 c5be 04af 843e 6f2d bebf f3ff d8bf
00000020: 293e 12c0 1105 52bf 43f0 cabf 1a24 5c3f
00000030: c019 0bbe c32f b53f 1a58 afbe afd9 54bf
00000040: 9b8f 893f 68e5 1cbf af47 e13f 3664 8dbe
00000050: ac08 043f 9ea1 8dbf ceab 43be f461 68be
00000060: 3a73 b9bd 1c69 1ac0 4ea8 f03f 86c4 9ebe
00000070: 790d 03bf b72b 43bf b578 42bf 78d9 8d3f

running_mean f4 [32]
-48.880966 1.3918375 -26.855215 -10.035321 -45.184147 -36.19367 32.373993 21.15217
27.274181 -21.77672 -0.5619801 6.815845 -8.054803 -9.153197 -22.24492 30.153955
-15.311728 -17.13048 -21.960459 21.23552 -35.860336 -2.5383728 34.90147 -31.4065
-2.8569531 27.830095 -21.39058 1.9969604 13.978672 -23.611914 -12.872828 -2.4139428
00000000: 1c86 43c2 bb27 b23f 7bd7 d6c1 ad90 20c1
00000010: 91bc 34c2 51c6 10c2 f87e 0142 a537 a941
00000020: 8631 da41 b936 aec1 eedd 0fbf 671b da40
00000030: 79e0 00c1 7f73 12c1 99f5 b1c1 4d3b f141
00000040: d6fc 74c1 390b 89c1 05af afc1 58e2 a941
00000050: fc70 0fc2 b374 22c0 1b9b 0b42 8340 fbc1
00000060: 52d8 36c0 09a4 de41 e81f abc1 669c ff3f
00000070: a4a8 5f41 33e5 bcc1 1af7 4dc1 0a7e 1ac0

running_var f4 [32]
981.6324 619.1923 778.9835 675.4561 618.0201 686.8072 657.1056 710.5689
455.7232 783.1343 490.48056 893.3715 1085.1931 620.75824 490.8293 533.96
817.4661 351.66748 1438.3817 446.30392 462.2595 251.89798 672.93536 1193.7424
780.1708 565.5538 1054.4856 656.577 728.39026 715.23694 480.05878 946.509
00000000: 7968 7544 4fcc 1a44 f2be 4244 31dd 2844
00000010: 4981 1a44 a9b3 2b44 c246 2444 69a4 3144
00000020: 92dc e343 98c8 4344 833d f543 c757 5f44
00000030: 2ea6 8744 8730 1b44 276a f543 717d 0544
00000040: d55d 4c44 70d5 af43 37cc b344 e726 df43
00000050: 3721 e743 e2e5 7b43 dd3b 2844 c237 9544
00000060: ee0a 4344 7163 0d44 8acf 8344 ee24 2444
00000070: fa18 3644 2acf 3244 8607 f043 93a0 6c44

weight f4 [32, 32, 3]
0.98337084 0.420012 0.76404303 1.2752718 -0.64582163 -2.4764216 2.9076614 -0.23948434
-2.1037924 2.0163019 -0.32135668 -0.6360204 -3.1786494 1.4125543 -1.8979472 0.5820685
1.8985593 -1.0051066 2.24739 1.3895886 1.533211 0.9339155 -0.10538406 -3.4737449
-2.002294 -2.452778 -0.765356 3.47982 1.0602182 -3.2225444 0.39323163 0.16550878
-0.83216655 2.6465335 2.4101787 -1.4663676 1.5383872 0.32758972 -1.4842767 3.3650734
-1.2625711 -0.15063366 1.020015 1.598549 -1.6363988 1.7975097 -0.057211995 0.52367693
0.50516254 -2.6063282 -4.7660656 -0.73692375 0.5761865 2.1482162 -0.9695041 0.9237187
-0.27253532 1.0343498 -0.30984363 -0.37579155 2.381915 0.69787335 -0.7782316 0.3732511
-0.5777926 -0.91578627 1.0694383 -1.9499621 -1.5490919 0.1969296 0.24338911 0.6109765
-1.1863513 0.10110865 0.7081798 2.032147 0.16291818 0.081480004 -0.4242054 -1.1720896
-2.1291714 1.6553636 -0.22193834 -1.6685492 1.1087255 0.2524327 -0.22814612 1.4834968
0.7359238 2.7516005 -0.28664243 0.61745524 -2.4177134 -1.090256 0.23821731 0.5828877
2.5087714 0.78525686 1.8808805 0.4640711 0.04626981 4.066812 -1.9011467 -0.13798523
0.21506315 0.75098985 -0.3856553 -0.8832957 0.56074566 0.47698566 4.02272 0.21640822
-0.8285317 0.8583888 1.319663 0.9925499 -2.6541183 -1.7609901 -0.9577366 -0.10692493
2.2680376 0.1524775 -0.58471453 -1.0443255 0.933754 1.3966581 -1.3992748 -2.742206
-3.7996626 -0.75649315 1.1086612 -0.06613933 -2.0364864 -0.0066104988 3.3336062 -0.94604445
-0.38481393 -2.8468153 0.32978714 -0.99963236 0.9701006 -0.73898065 0.8356213 -2.011483
-0.731339 -0.48121193 -1.4465964 -0.15469667 1.2867839 4.5482955 -0.71406114 -1.8336768
1.0495609 -1.7750604 -1.9267117 0.08189752 2.3844445 1.1362143 -1.6052123 0.11130364
-0.32692552 -0.6584024 0.39996108 -1.0575451 -3.6067827 -3.8135345 -0.5524534 2.9108438
0.8153051 -1.3795767 -5.6917624 2.9080832 -0.27134192 -0.9118598 -1.4914483 -1.4828931
1.4546428 1.224222 -2.4655466 -0.7402751 -1.0050938 -0.6501849 -1.2819686 2.4236736
0.7639032 -6.2515078 -1.266593 -1.7725602 0.15562221 0.85579 -0.939995 0.1163007
2.11057 0.9629575 0.22842538 -0.087329745 -0.9884808 1.7924052 2.2580876 -0.77344435
-0.2722842 -2.6817431 0.5450505 -0.9242871 1.882031 -1.1926227 -1.9098346 -1.7975186
-1.2781918 0.8920861 0.5281341 -0.052852497 -0.7768824 -0.08029164 1.8783649 1.7271217
-2.686659 0.43842822 1.7491732 -1.3389622 0.4096383 1.1372035 0.53605783 -1.0980268
0.50074387 -0.08660061 0.78428507 1.0609233 -1.4360195 0.803846 4.125153 4.114233
-2.550335 0.37760943 -1.8985617 -2.9808354 -1.0146297 -0.4055674 -0.25507495 1.0848634
0.031669136 -0.52354413 -0.17514554 2.581571 0.44956836 -4.3493805 1.4320693 -2.699206
2.9260035 -1.1279129 -1.1357087 4.090619 -0.32457587 0.3503539 -0.15027064 -0.86231035
00000000: 31be 7b3f d00b d73e 5398 433f 1b3c a33f
00000010: 9154 25bf b17d 1ec0 2017 3a40 623b 75be
00000020: 89a4 06c0 170b 0140 dd88 a4be 3cd2 22bf
00000030: fe6e 4bc0 94ce b43f efef f2bf 7102 153f
00000040: fe03 f33f 55a7 80bf 3dd5 0f40 0ade b13f
00000050: 4240 c43f 1615 6f3f 99d3 d7bd d651 5ec0
00000060: 9625 00c0 51fa 1cc0 5fee 43bf 5fb5 5e40
00000070: 3bb5 873f 2b3e 4ec0 a855 c93e 227b 293e
00000080: de08 55bf ce60 2940 5e40 1a40 efb1 bbbf
00000090: dfe9 c43f d7b9 a73e c7fc bdbf 5d5d 5740
000000a0: ee9b a1bf b63f 1abe da8f 823f 419d cc3f
000000b0: 8475 d1bf cc14 e63f 2057 6abd b10f 063f
000000c0: 5552 013f 15ce 26c0 9c83 98c0 09a7 3cbf
000000d0: f580 133f 607c 0940 6c31 78bf d478 6c3f
000000e0: c089 8bbe 9365 843f d3a3 9ebe c067 c0be
000000f0: 4c71 1840 d4a7 323f 303a 47bf c51a bf3e
00000100: 37ea 13bf f870 6abf 5be3 883f 5c98 f9bf
00000110: a548 c6bf eaa7 493e ff3a 793e f568 1c3f
00000120: 5cda 97bf 0d12 cf3d 454b 353f b20e 0240
00000130: 06d4 263e fdde a63d 7331 d9be 0807 96bf
00000140: 5844 08c0 f4e2 d33f ce43 63be 0593 d5bf
00000150: b8ea 8d3f dc3e 813e 239f 69be 39e3 bd3f
00000160: 8165 3c3f 391a 3040 ccc2 92be 8c11 1e3f
00000170: d1bb 1ac0 828d 8bbf 3def 733e 2138 153f
00000180: b68f 2040 9806 493f b1c0 f03f ba9a ed3e
00000190: 6a85 3d3d 5323 8240 c658 f3bf 004c 0dbe
000001a0: 8439 5c3e df40 403f 9d74 c5be ab1f 62bf
000001b0: 078d 0f3f 7737 f43e 1fba 8040 1e9a 5d3e
000001c0: a71a 54bf 5ebf 5b3f b8ea a83f c017 7e3f
000001d0: 13dd 29c0 2068 e1bf 3a2e 75bf 75fb dabd
000001e0: 8727 1140 1023 1c3e daaf 15bf 75ac 85bf
000001f0: 810a 6f3f b1c5 b23f 701b b3bf 4e80 2fc0
00000200: ac2d 73c0 89a9 41bf 9ce8 8d3f 0f74 87bd
00000210: cb55 02c0 e29c d8bb ce59 5540 f82f 72bf
00000220: 5506 c5be 3932 36c0 dcd9 a83e e8e7 7fbf
00000230: 8358 783f d62d 3dbf 47eb 553f 23bc 00c0
00000240: 0839 3bbf 6961 f6be 122a b9bf ce68 1ebe
00000250: 56b5 a43f a38b 9140 b6cc 36bf ecb5 eabf
00000260: 0358 863f 2e35 e3bf 7d9e f6bf e3b9 a73d
00000270: bd9a 1840 786f 913f 9977 cdbf 2af3 e33d
00000280: c862 a7be 0f8d 28bf b3c7 cc3e a35d 87bf
00000290: 87d5 66c0 f310 74c0 966d 0dbf 444b 3a40
000002a0: d6b7 503f f895 b0bf eb22 b6c0 091e 3a40
000002b0: 54ed 8abe a56f 69bf c7e7 bebf 71cf bdbf
000002c0: bc31 ba3f 4eb3 9c3f 84cb 1dc0 ab82 3dbf
000002d0: eaa6 80bf 8572 26bf 8c17 a4bf 781d 1b40
000002e0: 298f 433f 5a0c c8c0 b81f a2bf 41e3 e2bf
000002f0: 6e5b 1f3e 0e15 5b3f 83a3 70bf 102f ee3d
00000300: 9413 0740 6284 763f 58e8 693e f0d9 b2bd
00000310: 140d 7dbf 896d e53f 8284 1040 7300 46bf
00000320: d668 8bbe aea1 2bc0 6e88 0b3f 149e 6cbf
00000330: 64e6 f03f dca7 98bf 7675 f4bf 1715 e6bf
00000340: ca9b a3bf c15f 643f cc33 073f dc7b 58bd
00000350: c4e1 46bf f16f a4bd 436e f03f 5312 dd3f
00000360: 39f2 2bc0 aa79 e03e e8e4 df3f 1d63 abbf
00000370: 1cbc d13e e28f 913f 163b 093f 248c 8cbf
00000380: c030 003f a95b b1bd e8c6 483f 56cc 873f
00000390: 7dcf b7bf dac8 4d3f 4101 8440 cca7 8340
000003a0: b038 23c0 0656 c13e 1204 f3bf 02c6 3ec0
000003b0: 63df 81bf 88a6 cfbe 2f99 82be cedc 8a3f
000003c0: 7fb7 013d fd06 06bf 5a59 33be 7638 2540
000003d0: d32d e63e 202e 8bc0 0c4e b73f cbbf 2cc0
000003e0: a443 3b40 735f 90bf e75e 91bf 5ae6 8240
000003f0: cf2e a6be 9661 b33e 8ce0 19be 5fc0 5cbf

bias f4 [32]
-0.40735143 -1.0783961 0.0959437 -3.3372133 1.1725318 -0.8195771 -0.9189446 0.22403094
-1.5614382 -0.92283595 -0.51485837 -0.6085434 0.9641758 1.1131707 1.838029 1.1037599
-0.13378307 -0.9238694 0.7902036 -0.20924741 -0.5112297 0.38485748 2.2670789 -0.11303295
-1.0749664 -0.06387336 -0.82922864 0.24201839 1.1691097 -0.80137163 0.8909481 1.0361357
00000000: 5e90 d0be e208 8abf 217e c43d e794 55c0
00000010: 8615 963f cecf 51bf f43f 6bbf 5e68 653e
00000020: 35dd c7bf fa3e 6cbf c2cd 03bf 80c9 1bbf
00000030: 3ad4 763f 617c 8e3f 8944 eb3f 0148 8d3f
00000040: 6efe 08be b482 6cbf c84a 4a3f f444 56be
00000050: f3df 02bf 0a0c c53e d217 1140 d27d e7bd
00000060: 8098 89bf 09d0 82bd 5448 54bf abd3 773e
00000070: 63a5 953f b126 4dbf 2d15 643f 18a0 843f

weight f4 [32]
1.8159583 2.6053553 1.6054046 2.4750092 2.0793839 1.939278 2.8182743 2.3554757
2.588662 1.3067924 2.4788768 2.071372 1.4566681 2.88233 2.689992 2.5293522
2.420031 2.1463618 1.8795793 3.019693 1.5551134 1.7541423 2.8557415 2.681912
2.0581737 2.5317774 2.5474987 2.0000885 1.4799247 2.3429723 1.7669611 2.3350856
00000000: 5271 e83f 24be 2640 e67d cd3f 8d66 1e40
00000010: a014 0540 433a f83f 9b5e 3440 1dc0 1640
00000020: a3ac 2540 f944 a73f eba5 1e40 5c91 0440
00000030: 1a74 ba3f 1878 3840 d428 2c40 e8e0 2140
00000040: cae1 1a40 fe5d 0940 0e96 f03f a642 4140
00000050: f50d c73f bc87 e03f 78c4 3640 72a4 2b40
00000060: 1eb9 0340 a408 2240 380a 2340 7301 0040
00000070: 2c6e bd3f 42f3 1540 c82b e23f 0b72 1540

bias f4 [32]
-0.61162066 -0.32339066 -2.7111557 1.1124943 -1.38418 0.5649053 1.1892475 -1.1895144
-1.215964 -2.5620034 -0.1795785 -1.1181115 -2.1479082 0.5346174 -0.37879857 -0.120438814
-0.37121686 -0.81727576 -1.5013314 0.1938313 -1.9235445 0.014214149 0.22869343 -1.0096644
0.9865778 -0.0035700009 -1.0509747 -0.41192898 -2.5637386 -0.44041783 -2.0916119 -0.34899458
00000000: 2c93 1cbf 7693 a5be 9383 2dc0 3766 8e3f
00000010: cf2c b1bf a29d 103f 4339 983f 0242 98bf
00000020: b5a4 9bbf ddf7 23c0 6de3 37be 471e 8fbf
00000030: 5477 09c0 b0dc 083f e3f1 c1be a0a8 f6bd
00000040: 2310 bebe fc38 51bf a12b c0bf b67b 463e
00000050: b536 f6bf 76e2 683c 9c2e 6a3e af3c 81bf
00000060: 5d90 7c3f adf6 69bb 5786 86bf 5be8 d2be
00000070: 4b14 24c0 727e e1be f8dc 05c0 6baf b2be

running_mean f4 [32]
-2.4887393 -26.792059 20.858932 10.080218 -43.040337 5.4760575 -25.422098 -14.383132
-87.67486 27.01398 -18.09006 2.2196605 -8.776725 -51.189278 -20.919846 -5.086826
-44.82729 -11.7824135 -39.6502 -56.376602 30.579481 -15.49351 -41.170536 -53.03237
3.412223 -13.643434 -72.20344 -5.0955124 23.211885 -0.29812545 41.600872 -27.335968
00000000: 8147 1fc0 2356 d6c1 18df a641 9348 2141
00000010: 4e29 2cc2 dd3b af40 7560 cbc1 4f21 66c1
00000020: 8759 afc2 a21c d841 71b8 90c1 eb0e 0e40
00000030: 776d 0cc1 d2c1 4cc2 d85b a7c1 47c7 a2c0
00000040: 254f 33c2 c484 3cc1 ce99 1ec2 a481 61c2
00000050: c7a2 f441 6be5 77c1 a1ae 24c2 2621 54c2
00000060: dd61 5a40 814b 5ac1 2968 90c2 700e a3c0
00000070: f1b1 b941 e6a3 98be 4b67 2642 10b0 dac1

running_var f4 [32]
1287.2709 868.747 784.1651 1083.2313 628.3498 1265.616 1913.0315 1296.755
984.388 639.7878 1069.382 1227.6273 833.8278 2022.3263 2470.4487 1337.892
1273.3435 889.38434 556.9162 1118.971 1024.6611 1678.6038 1227.2256 906.061
1341.126 1285.6627 944.2695 1096.8265 575.85254 1090.9341 486.31177 1030.7682
00000000: abe8 a044 cf2f 5944 910a 4444 6767 8744
00000010: 6316 1d44 b633 9e44 0221 ef44 2918 a244
00000020: d518 7644 6bf2 1f44 39ac 8544 1374 9944
00000030: fb74 5044 71ca fc44 2e67 1a45 8b3c a744
00000040: fe2a 9f44 9958 5e44 a33a 0b44 12df 8b44
00000050: 2815 8044 52d3 d144 3867 9944 e783 6244
00000060: 08a4 a744 35b5 a044 3f11 6c44 731a 8944
00000070: 90f6 0f44 e45d 8844 e827 f343 95d8 8044

weight f4 [64, 32, 3]
-3.2581198 -2.103943 -0.037301138 0.16110955 1.3915341 3.0563853 0.49219984 1.1077383
-2.1065633 1.057126 2.3389766 0.97772807 -0.65772367 0.16240919 2.276273 0.7778583
-1.6953105 -4.5128016 -0.93689436 -0.85187995 -0.88108695 1.2528932 -1.2731234 -0.11243239
0.23490143 0.29474157 1.7328188 0.6789014 0.6103321 0.18297754 -0.7544131 0.2945408
1.1576022 -0.67906344 0.8023198 -1.3635114 0.25735903 -0.51549286 -0.10584936 -0.57534564
-2.0328884 0.63391715 -1.1136103 -1.7970904 1.4619454 1.3270272 1.2876494 -0.40658253
-1.1891803 -2.8016517 1.7936704 -2.0000567 -0.40661612 1.6864976 -0.30246603 -1.3823495
-0.20577782 -1.7364417 -0.07980078 -0.1178717 0.62431693 0.5696472 1.0526607 -4.321897
1.3737947 1.9088539 -1.3091415 -1.2684443 -0.60213006 -1.3596582 -1.4042603 -2.0454376
1.7536615 -2.8798664 -0.967501 -6.1835885 -1.472142 -4.323598 0.037821803 0.25326082
-0.98434114 -0.7248469 -2.909117 -6.5391517 -2.691041 0.62669647 -1.6080239 1.1211277
0.90959233 -0.50896716 1.5400836 0.66207784 2.24185 -2.813152 1.0015688 -1.2216064
-3.2806609 1.6574392 -0.07547121 2.1463318 -2.127283 1.1920131 1.4845276 -1.7686138
0.77311075 1.6204336 0.0017287147 -1.8979905 0.4595354 1.5308992 0.9618616 1.7687294
-0.14656723 0.0066884807 -2.6914527 -2.9074285 -1.0375023 -4.405106 -3.0869174 -2.1044145
0.36840263 0.58017164 -1.0112393 2.2047296 1.1264966 1.2426094 1.9058013 -0.47892454
-0.4508291 -0.65115297 -2.979668 0.17481408 0.5752311 0.6264008 -0.4290834 -4.338258
1.0269121 -2.4751341 1.6397575 0.10235409 0.36930123 -1.9098977 -0.59376043 -3.7274897
-5.5205474 -2.6674285 -1.7957338 -0.83580935 -0.6699234 0.59888345 -0.12798126 0.9254188
0.27130398 -1.9279524 2.529474 -1.0850301 -0.42812836 0.7495602 -0.42212313 -1.0930182
1.1946316 -0.79616064 -0.96419996 -0.36095265 -1.0550927 -0.65464246 -2.7152631 -3.0291176
-1.2646018 0.35961005 -3.4904323 -2.9158046 -0.3339153 1.2031655 -1.2266237 0.37140748
1.3297911 -2.04818 -0.7149987 0.5029067 2.178246 1.1563007 0.78338724 0.80365616
-2.6235592 -1.6370047 2.7306201 0.8221877 -2.2084477 1.4839934 -1.5965565 -2.3245068
-0.36601472 -0.40281013 0.9019155 -1.5230738 -0.8012969 -1.9883531 2.0287695 1.0144085
-2.758957 2.222292 -0.8983138 0.8293884 -2.1380658 0.0039234417 -0.024225056 1.7339411
0.07579463 -0.41429606 1.1240845 0.32465684 0.742177 -1.1243411 -0.01297339 1.9564235
-0.86887306 0.633475 -0.6270559 0.06406643 -0.7761774 0.8066629 1.5143844 1.1112695
1.1123972 2.8304775 -0.1379803 2.436655 -0.07291549 1.6706027 1.6257716 0.67162365
1.8372232 -0.9600028 -0.101959206 -2.692255 -0.25882497 -2.0380514 0.67625433 -1.5979165
-0.021144085 0.6131084 -0.41160926 1.6046208 2.246373 -1.2258246 0.40778586 0.6574413
-0.7499316 -2.213936 2.090369 0.48117572 2.8664448 2.4982486 3.9449 -0.9752082
00000000: 0985 50c0 01a7 06c0 14c9 18bd e7f9 243e
00000010: ca1d b23f d19b 4340 9e01 fc3e 5eca 8d3f
00000020: efd1 06c0 e84f 873f cbb1 1540 634c 7a3f
00000030: 9460 28bf 984e 263e 75ae 1140 b921 473f
00000040: efff d8bf df68 90c0 4fd8 6fbf ce14 5abf
00000050: ea8e 61bf ce5e a03f b5f5 a2bf f442 e6bd
00000060: 008a 703e 5ee8 963e 02cd dd3f 7bcc 2d3f
00000070: b93e 1c3f 775e 3b3e 3821 41bf 0dce 963e
00000080: 4f2c 943f 1ad7 2dbf d564 4d3f 8b87 aebf
00000090: 90c4 833e 57f7 03bf 8dc7 d8bd da49 13bf
000000a0: d81a 02c0 6548 223f c88a 8ebf 0f07 e6bf
000000b0: 0721 bb3f 07dc a93f b2d1 a43f 962b d0be
000000c0: 0f37 98bf 434e 33c0 fe96 e53f ee00 00c0
000000d0: fd2f d0be 27df d73f d4dc 9abe d4f0 b0bf
000000e0: 6cb7 52be b943 debf 976e a3bd b866 f1bd
000000f0: 3cd3 1f3f 66d4 113f 96bd 863f fb4c 8ac0
00000100: 81d8 af3f 5355 f43f f391 a7bf 625c a2bf
00000110: 3225 1abf 4809 aebf cdbe b3bf 73e8 02c0
00000120: fb77 e03f bb4f 38c0 25ae 77bf f5df c5c0
00000130: 266f bcbf ea5a 8ac0 09eb 1a3d 67ab 813e
00000140: c8fd 7bbf 918f 39bf f92e 3ac0 bb40 d1c0
00000150: 043a 2cc0 2e6f 203f bad3 cdbf 1d81 8f3f
00000160: 0bdb 683f ac4b 02bf 7621 c53f ef7d 293f
00000170: 787a 0f40 af0a 34c0 6833 803f 995d 9cbf
00000180: 59f6 51c0 f826 d43f a690 9abd 805d 0940
00000190: 6825 08c0 e393 983f 0005 be3f f061 e2bf
000001a0: 96ea 453f 5e6a cf3f 0a96 e23a 5af1 f2bf
000001b0: 3948 eb3e 81f4 c33f 903c 763f ba65 e23f
000001c0: b815 16be 0b2b db3b c340 2cc0 4f13 3ac0
000001d0: e0cc 84bf a1f6 8cc0 0e90 45c0 baae 06c0
000001e0: 459f bc3e 2186 143f 4a70 81bf 4a1a 0d40
000001f0: 0a31 903f d30d 9f3f 4cf1 f33f 9935 f5be
00000200: 12d3 e6be f6b1 26bf e1b2 3ec0 7602 333e
00000210: 5842 133f ce5b 203f d2b0 dbbe 02d3 8ac0
00000220: db71 833f 9968 1ec0 93e3 d13f 059f d13d
00000230: 0d15 bd3e 8777 f4bf af00 18bf 318f 6ec0
00000240: 53a8 b0c0 26b7 2ac0 9bda e5bf 9af7 55bf
00000250: 1a80 2bbf 6d50 193f 850d 03be 3fe8 6c3f
00000260: 5be8 8a3e 25c7 f6bf e7e2 2140 44e2 8abf
00000270: a433 dbbe 2de3 3f3f 8620 d8be 05e8 8bbf
00000280: b0e9 983f 2fd1 4bbf cfd5 76bf c9ce b8be
00000290: 470d 87bf a696 27bf dfc6 2dc0 10dd 41c0
000002a0: 79de a1bf cf1e b83e 3e63 5fc0 8b9c 3ac0
000002b0: f2f6 aabe 5401 9a3f 0102 9dbf 1f29 be3e
000002c0: 9836 aa3f 6215 03c0 280a 37bf 7ebe 003f
000002d0: 6268 0b40 a901 943f 118c 483f 69bc 4d3f
000002e0: 65e8 27c0 5f89 d1bf 7bc2 2e40 e57a 523f
000002f0: 3557 0dc0 7ff3 bd3f f75b ccbf b8c4 14c0
00000300: 4866 bbbe 213d cebe efe3 663f 15f4 c2bf
00000310: cb21 4dbf 5b82 febf 5cd7 0140 23d8 813f
00000320: c092 30c0 083a 0e40 e5f7 65bf cc52 543f
00000330: 12d6 08c0 3790 803b a073 c6bc c8f1 dd3f
00000340: 373a 9b3d 9d1e d4be 00e2 8f3f 6c39 a63e
00000350: 50ff 3d3f 69ea 8fbf 578e 54bc 166c fa3f
00000360: 776e 5ebf 6b2b 223f bc86 20bf 4335 833d
00000370: 90b3 46bf 7681 4e3f 59d7 c13f 143e 8e3f
00000380: 0863 8e3f 8b26 3540 b54a 0dbe 28f2 1b40
00000390: b754 95bd 4fd6 d53f 4919 d03f 87ef 2b3f
000003a0: 212a eb3f bec2 75bf fdcf d0bd e84d 2cc0
000003b0: b584 84be 6f6f 02c0 011f 2d3f 8788 ccbf
000003c0: 5c36 adbc acf4 1c3f 73be d2be 3764 cd3f
000003d0: 93c4 0f40 d2e7 9cbf 4fc9 d03e 134e 283f
000003e0: 84fb 3fbf 21b1 0dc0 9bc8 0540 aa5c f63e
000003f0: d573 3740 4ee3 1f40 3e79 7c40 3fa7 79bf

bias f4 [64]
-1.1189004 -0.35792825 -0.8869678 -1.0953518 0.3358096 -1.0541949 0.2523046 -1.4887847
-0.5334059 -0.46178177 1.0707053 -0.5422023 0.97589785 -0.20139982 1.4926234 0.36406255
-1.0239451 1.9006573 0.25053665 -1.4094725 -0.37414747 1.5847692 -1.1805625 -0.12826739
1.0833627 -0.6546316 -0.7969995 0.2279552 -0.52094847 1.2645861 -0.12607484 1.0267522
-0.10039381 -0.37002167 0.44597846 -0.1790686 -0.10841563 -0.1347572 -0.68934774 -1.752813
-0.47478262 0.34743994 -0.25567567 1.0466781 0.209281 -1.9185729 0.26851392 -0.695044
-0.27713105 -0.14975601 -0.38112554 -0.47814286 1.2429105 -0.40863994 0.8760833 -0.12856005
-0.9037348 -0.91431886 -1.0889643 2.6495965 -1.537005 -0.121125534 0.09900917 1.838691
00000000: 2138 8fbf 5f42 b7be 5210 63bf 7d34 8cbf
00000010: 3cef ab3e dcef 86bf 122e 813e 7f90 bebf
00000020: 4a8d 08bf a96e ecbe df0c 893f c5cd 0abf
00000030: 71d4 793f c13b 4ebe 490e bf3f 6866 ba3e
00000040: a210 83bf bd48 f33f 5746 803e 9869 b4bf
00000050: 4290 bfbe b8d9 ca3f ac1c 97bf 8758 03be
00000060: a1ab 8a3f f095 27bf 2908 4cbf 176d 693e
00000070: e15c 05bf f5dd a13f c319 01be 9e6c 833f
00000080: 459b cdbd 7b73 bdbe 4a57 e43e c25d 37be
00000090: 0409 debd cbfd 09be 1879 30bf 2d5c e0bf
000000a0: b516 f3be a6e3 b13e ece7 82be 8cf9 853f
000000b0: c24d 563e cc93 f5bf a87a 893e 67ee 31bf
000000c0: 1fe4 8dbe a459 19be e322 c3be 24cf f4be
000000d0: b117 9f3f 4139 d1be ff46 603f 3fa5 03be
000000e0: 2a5b 67bf cd10 6abf 2f63 8bbf fd92 2940
000000f0: 94bc c4bf aa10 f8bd 52c5 ca3d 3a5a eb3f

weight f4 [64]
2.6698437 2.9255998 1.885705 2.2483525 1.1833518 2.1870625 1.5263531 1.4687078
1.9366171 1.8676795 2.0708838 1.9401625 2.0415647 1.557168 1.8313798 2.6253467
2.1341848 1.9312605 2.1405692 1.6686704 2.0802746 1.4287263 1.471722 1.5949872
1.41461 1.7306101 2.2137434 2.0152907 1.1423696 1.9446497 1.9366966 1.8121593
2.1447787 1.9400666 1.6472577 1.5549188 1.6889327 2.1435173 2.460647 1.342709
1.4052662 1.7450001 1.4635819 2.0741305 1.9207805 1.8987559 1.4697647 2.4303446
1.8954377 1.6556866 1.6827137 2.3012044 2.2012951 1.9708167 1.617915 1.6051319
2.1799414 1.8440669 1.793157 2.4660385 2.1517265 1.3878156 2.338271 2.0307343
00000000: b8de 2a40 073d 3b40 c85e f13f 02e5 0f40
00000010: 1278 973f d5f8 0b40 8a5f c33f 9efe bb3f
00000020: 12e3 f73f 1f10 ef3f 5c89 0440 3f57 f83f
00000030: ffa8 0240 4851 c73f a76a ea3f ae05 2840
00000040: 7c96 0840 8b33 f73f 16ff 0840 fe96 d53f
00000050: 3823 0540 81e0 b63f 6361 bc3f 8a28 cc3f
00000060: f111 b53f a284 dd3f f9ad 0d40 86fa 0040
00000070: 2b39 923f 48ea f83f ade5 f73f d6f4 e73f
00000080: 0e44 0940 1a54 f83f 57d9 d23f 9407 c73f
00000090: f22e d83f 632f 0940 3e7b 1d40 e3dd ab3f
000000a0: c3df b33f 2a5c df3f a756 bb3f 8ebe 0440
000000b0: 23dc f53f 6f0a f33f 4021 bc3f c48a 1b40
000000c0: b49d f23f 8aed d33f 2a63 d73f ef46 1340
000000d0: 05e2 0c40 b943 fc3f d717 cf3f f674 cd3f
000000e0: 2984 0b40 620a ec3f 2b86 e53f 93d3 1d40
000000f0: e3b5 0940 f1a3 b13f 3ba6 1540 8df7 0140

bias f4 [64]
-0.8744553 -1.8801081 -1.1937315 -0.7823102 -2.9072561 -1.5165836 -0.014304624 0.016236356
-0.74235207 -0.7302479 -0.76996005 0.49492288 -0.2593938 -1.7594448 -1.5041951 -1.366544
-0.011050521 -0.8679524 -1.1725659 -1.9640563 -0.61646986 -0.3018658 -2.3796945 -1.5778016
-0.071534224 -0.44401821 -1.0146841 -1.3371147 -0.7630216 -0.1311131 -0.96322596 -2.1669214
-1.8115829 -0.021693002 -1.543922 -2.7681632 -1.640974 -1.4526211 0.0075874897 -2.2344656
-0.5493496 0.085841484 0.5600495 -1.2808907 -1.6020527 0.7418229 -1.1692412 -0.19464512
-2.4785135 -0.16186827 -2.524302 -0.4304209 -0.23448923 -0.74758774 -1.3458353 -1.4807777
-1.4624603 -0.57498753 -0.01455235 -0.6019976 -0.25179633 1.0657717 -1.105271 -0.7444388
00000000: 4ddc 5fbf 62a7 f0bf 32cc 98bf 7b45 48bf
00000010: 7c10 3ac0 691f c2bf f15d 6abc 1b02 853c
00000020: c90a 3ebf 87f1 3abf 1a1c 45bf 8866 fd3e
00000030: 44cf 84be 7d35 e1bf 7789 c0bf eaea aebf
00000040: 3f0d 35bc 2132 5ebf a416 96bf 3266 fbbf
00000050: f8d0 1dbf 278e 9abe ea4c 18c0 67f5 c9bf
00000060: 8980 92bd 5b56 e3be 2be1 81bf 9326 abbf
00000070: 6255 43bf 8342 06be fa95 76bf d7ae 0ac0
00000080: f3e1 e7bf 86b5 b1bc 3c9f c5bf 9629 31c0
00000090: 700b d2bf 7def b9bf 7aa0 f83b 7c01 0fc0
000000a0: 2da2 0cbf a9cd af3d 675f 0f3f 3af4 a3bf
000000b0: 1010 cdbf 1be8 3d3f b2a9 95bf 0d51 47be
000000c0: f79f 1ec0 ccc0 25be 2a8e 21c0 2160 dcbe
000000d0: f21d 70be e961 3fbf 5544 acbf 208a bdbf
000000e0: e631 bbbf 6232 13bf fb6c 6ebc 841c 1abf
000000f0: 73eb 80be 356b 883f 8579 8dbf 8b93 3ebf

running_mean f4 [64]
-34.434525 -51.849873 17.194344 -19.071613 0.16744627 -8.125619 -4.3433914 -1.5056361
-10.192908 -28.870983 4.5012264 -42.231808 -0.52245367 -10.9880295 9.431289 11.883615
-32.156246 0.047125142 -7.2888765 -0.89161736 -13.235912 0.8853046 -21.858982 -0.5422689
3.1946714 4.7050185 -24.61293 -16.361671 -11.139167 1.5063015 -7.861425 -26.964865
9.405354 0.3624749 -17.71806 36.596134 -8.317558 -0.10601636 -26.873869 15.615536
-31.843826 -6.7842174 -20.424072 -21.602009 7.02922 -21.900454 4.8907394 -6.7301164
-2.9519024 -5.5216713 -12.05326 -28.753674 -35.58278 6.4563794 -2.2858613 -20.375053
-33.728077 2.335027 -46.665653 10.262983 -30.992598 -6.970926 -20.44427 11.943318
00000000: f4bc 09c2 4566 4fc2 048e 8941 aa92 98c1
00000010: 0977 2b3e 8902 02c1 10fd 8ac0 afb8 c0bf
00000020: 2716 23c1 c6f7 e6c1 0c0a 9040 5fed 28c2
00000030: 86bf 05bf f8ce 2fc1 8fe6 1641 4923 3e41
00000040: ff9f 00c2 4b06 413d 7a3e e9c0 0941 64bf
00000050: 4cc6 53c1 52a3 623f 32df aec1 22d2 0abf
00000060: 7f75 4c40 838f 9640 48e7 c4c1 b4e4 82c1
00000070: 073a 32c1 7dce c03f cb90 fbc0 0bb8 d7c1
00000080: 547c 1641 4f96 b93e 96be 8dc1 7162 1242
00000090: b814 05c1 1b1f d9bd affd d6c1 3cd9 7941
000000a0: 28c0 fec1 4f18 d9c0 8064 a3c1 ead0 acc1
000000b0: 5fef e040 2134 afc1 f080 9c40 1d5d d7c0
000000c0: f8eb 3cc0 88b1 b0c0 27da 40c1 8607 e6c1
000000d0: c454 0ec2 a99a ce40 8d4b 12c0 1c00 a3c1
000000e0: 8de9 06c2 1571 1540 a1a9 3ac2 2e35 2441
000000f0: d7f0 f7c1 d311 dfc0 dd8d a3c1 d517 3f41

running_var f4 [64]
965.04425 639.3528 769.4771 525.45746 331.32983 691.589 1051.145 646.6031
558.5722 402.74643 785.5585 1371.5956 629.7779 602.5306 583.9472 847.73157
731.71545 652.99445 989.97723 460.62988 842.361 535.086 438.324 445.0869
439.50534 532.8496 731.3581 778.29913 910.84186 838.14716 805.03613 728.772
652.7004 650.59607 576.3857 455.74222 574.1866 731.3831 1357.2502 457.1663
510.55533 863.09686 1132.8334 673.53973 544.40564 1175.9254 784.3573 955.1572
403.76428 555.04254 538.22076 832.87695 1216.7614 967.7198 751.5051 777.4419
530.2232 911.3578 690.1133 852.97235 655.0555 667.9569 676.4789 711.8495
00000000: d542 7144 94d6 1f44 895e 4044 475d 0344
00000010: 38aa a543 b2e5 2c44 a464 8344 99a6 2144
00000020: 9fa4 0b44 8b5f c943 be63 4444 0f73 ab44
00000030: c971 1d44 f5a1 1644 9ffc 1144 d2ee 5344
00000040: caed 3644 a53f 2344 8b7e 7744 a050 e643
00000050: 1b97 5244 81c5 0544 7929 db43 208b de43
00000060: afc0 db43 6036 0544 ebd6 3644 2593 4244
00000070: e1b5 6344 6b89 5144 5042 4944 6831 3644
00000080: d32c 2344 26a6 2244 af18 1044 01df e343
00000090: f18b 0f44 85d8 3644 02a8 a944 4995 e443
000000a0: 1547 ff43 33c6 5744 ab9a 8d44 8b62 2844
000000b0: f619 0844 9dfd 9244 de16 4444 10ca 6e44
000000c0: d4e1 c943 b9c2 0a44 218e 0644 2038 5044
000000d0: 5d18 9844 11ee 7144 54e0 3b44 485c 4244
000000e0: 498e 0444 e6d6 6344 4087 2c44 3b3e 5544
000000f0: 8dc3 2344 3efd 2644 a61e 2944 5ef6 3144
