unet/checkpoints/one_loss/epoch_65.pth (torch, 508787 bytes, 85 tensors)

weight f4 [8, 1, 3]
000000 5f 9b 71 3f 22 be e4 bb fd 2c 3f 40 cb 05 1c 3f
       0.943777 -0.0069806734 2.9871209 0.6094634
000010 02 2b 64 c0 56 6d d6 be ea ab a3 bf eb b1 d3 3f
       -3.565125 -0.41880292 -1.2786839 1.6538671
000020 6f 5d 40 3f f6 75 7c c0 eb a9 b5 be 77 49 3c 3f
       0.7514257 -3.9446998 -0.354812 0.735496
000030 6e c5 61 3f 4a 08 26 c0 30 65 48 be 39 fc 4f 3f
       0.8819188 -2.594256 -0.1956985 0.81244236
000040 d7 63 74 40 dc 6e 9d be 59 e1 c5 bf f2 34 5a 3f
       3.8185937 -0.30748641 -1.5459396 0.8523704
000050 74 51 e4 bf 8a f7 44 40 19 7a d6 3c ba 05 5d bf
       -1.7837358 3.0776086 0.026181268 -0.86336863

bias f4 [8]
000000 d7 e7 27 3e 46 2a e7 3d 01 88 72 3e 4f df db 3e
       0.16397034 0.1128736 0.23684694 0.42943808
000010 0f c4 3f be d2 bf b7 3d c6 38 a2 be ff 0d 22 3e
       -0.18727134 0.08972134 -0.3168394 0.15825652

weight f4 [8]
000000 c1 09 9a 3f b6 c7 f4 3f f3 8b fb 3f 10 0e fc 3f
       1.2034227 1.9123447 1.9652084 1.9691792
000010 4f 34 06 3f 0a eb 32 40 be 34 4a 3f 26 56 09 40
       0.52423567 2.7955956 0.7898673 2.145883

bias f4 [8]
000000 36 be da bf c7 67 b7 3e 72 fe c9 3f ac 76 f6 3f
       -1.7089298 0.35821363 1.5780776 1.9254966
000010 f3 99 e7 3f 8e 7d f6 bd 6a 0f 3d bf ba a3 5c be
       1.8093857 -0.120356664 -0.73851645 -0.21546832

running_mean f4 [8]
000000 8e 80 d9 bc d1 90 b6 3d 16 0b 99 3e 0f 6d 2c 3f
       -0.026550557 0.0891434 0.2989127 0.6735391
000010 ba d3 73 be e5 c1 45 3d 7a 83 0b be be a4 84 bc
       -0.23811236 0.048280615 -0.13624373 -0.016191836

running_var f4 [8]
000000 c0 d8 44 49 84 c2 27 49 4c cb de 47 a8 41 41 49
       806284.0 687144.25 114070.59 791578.5
000010 8a ad 75 48 9d 4c 82 49 91 86 a1 48 b7 b1 a1 48
       251574.16 1.0674116e+06 330804.53 331149.72

weight f4 [16, 8, 3]
000000 e0 c4 66 3e 0a 8b ae bf 44 2a 5a c0 17 8c b5 3f
       0.2253604 -1.3636181 -3.4088297 1.4183377
000010 c8 4a 7b 3f c4 dd 9e bf 5a 7d 92 bf c8 e2 6d 3f
       0.9816098 -1.2411427 -1.1444504 0.92924166
000020 60 7c 61 3f bc c5 be 3f b8 b1 53 40 da 99 25 3f
       0.88080406 1.4904094 3.307722 0.64687884
000030 aa d5 03 40 bf ee 82 3f f6 1c d1 bf 53 53 23 c0
       2.059916 1.022911 -1.6336963 -2.5519607
000040 bf f5 cc bf 44 cf 15 be 1e a8 04 3f a5 de a4 bf
       -1.6012496 -0.14629847 0.51819026 -1.2880446
000050 bb 99 87 3f 6e 76 2e 3f 68 9b 3a bf 06 8f 29 bf
       1.059379 0.6814946 -0.7289338 -0.6623386
000060 c1 70 3f 3f c8 da b9 3f 12 28 80 be 5d 6c 8d 3e
       0.74781424 1.4519892 -0.2503057 0.27621737
000070 b8 17 8e 3f f5 97 2e bf 4d ec a3 3f 7b 19 3a 3f
       1.1100988 -0.6820062 1.2806488 0.7269513
000080 5c 21 07 3f 69 36 e9 bf 49 9b 57 3e 1b 99 59 3f
       0.5278528 -1.821973 0.2105533 0.84999245
000090 83 bd e6 bd eb 3b 66 3f 24 24 85 bf 22 63 6b 40
       -0.11266615 0.8993518 -1.0401654 3.6779256
0000a0 1c d0 f8 3f 0a 67 f5 3f bd 59 f8 3e 64 38 ef be
       1.943851 1.917207 0.48505965 -0.4672271
0000b0 d9 22 89 3f 93 61 97 be be e6 01 40 07 37 62 3f
       1.071376 -0.2956663 2.0297084 0.88365215
0000c0 18 51 db bf 8b 39 10 3f 00 77 eb bf 3c 80 50 3e
       -1.7134123 0.56337804 -1.8395691 0.20361418
0000d0 71 19 37 3f ef b9 b3 bd 0a 68 67 bf 3f 2d ce bf
       0.71523196 -0.087756984 -0.90393126 -1.6107558
0000e0 ae 06 4a 3f 04 26 58 c0 cf 1c 9f 3e 20 39 4c 3f
       0.7891644 -3.3773203 0.31076667 0.79774666
0000f0 32 53 5c 3f 33 51 80 3f 86 61 e2 be 0a c2 48 3f
       0.86064446 1.002478 -0.4421503 0.7842108
000100 95 f2 bf bf 5e aa e8 bd 48 fd a8 bf 8a 5b dd 3e
       -1.4995905 -0.1136062 -1.3202295 0.432339
000110 c6 2e ba 3f f1 02 b9 3f 8f 2b 26 3d 6c 71 0c c0
       1.4545524 1.4454023 0.040568884 -2.1944227
000120 a7 57 3d 40 4d f1 83 3f 2d 08 e0 bd 28 d1 18 40
       2.9584749 1.0308014 -0.109390594 2.387766
000130 de 6b 30 40 81 4c 57 3f 97 af c9 be 1a d5 59 bc
       2.7565837 0.8410111 -0.39391777 -0.013295436
000140 82 40 99 bf 06 dd 4b 3f 0a c9 23 40 74 19 3d 3f
       -1.1972811 0.7963413 2.5591455 0.73866963
000150 d0 2d 98 3f 18 d0 cf 3f b4 7d cd 3e d0 62 8b bf
       1.1888981 1.623538 0.40134966 -1.088953
000160 ba a9 cb 3e 84 b9 0c c0 82 d0 c3 bc 87 93 ed 3f
       0.3977793 -2.198823 -0.023903135 1.8560647
000170 d6 57 0f bf d8 dc e7 be fe b9 ac bf 38 8d 9e 3f
       -0.559934 -0.45285678 -1.349426 1.2386847
000180 03 bd ec 3f 2a fa e6 bf b9 0d e6 bf 2d 30 98 bf
       1.8495182 -1.8045094 -1.7972938 -1.1889702
000190 9c 92 03 c0 8c c1 7c bf f5 35 f1 be 23 ef b6 bf
       -2.0558233 -0.9873283 -0.47111478 -1.4291729
0001a0 ff 9b fe bf dc aa b4 bf 1c 4b 68 bf 22 c1 a2 be
       -1.9891356 -1.4114642 -0.9073961 -0.31787974
0001b0 5c 2b 51 3e 28 0e 0d bf 94 be b7 bd fc 1f c4 3f
       0.20426697 -0.55099726 -0.08971897 1.5322261
0001c0 3b 5b 46 3e 7b 13 88 bf f3 57 c6 3c f6 18 06 c0
       0.19370739 -1.0630945 0.02421186 -2.0952735
0001d0 36 76 72 bf 16 92 0a 40 37 7f 97 3f 44 2f 97 3e
       -0.94711626 2.1651664 1.1835698 0.29528248
0001e0 b2 f6 05 40 13 84 c9 be 2a 67 cb bf e0 0e 1a 40
       2.093182 -0.39358577 -1.5890858 2.407158
0001f0 2f 20 cf 3f 1c 2b 30 40 d1 7d 3f 3d 03 41 17 bf
       1.6181697 2.7526312 0.046750847 -0.59083575
000200 68 df ad bf db 05 29 3f f6 69 ec 3f fb 67 65 3f
       -1.3583803 0.6602456 1.8469837 0.89611787
000210 54 bf bb 3f a1 82 78 3f fd 56 e7 3f 9f 0a b5 be
       1.4667764 0.97074324 1.8073422 -0.35359666
000220 7e 94 43 3e 46 0b a4 bf a9 1b a4 3d 2e c1 ab 3f
       0.19099614 -1.281594 0.08013088 1.3418329
000230 1c 70 1b 3c 2d 66 66 3f da df 62 3f af 88 8b 3f
       0.009487178 0.8999966 0.8862282 1.0901088
000240 1e be 70 3f ae dd e2 be 6e 50 b3 3f 0c 47 53 c0
       0.94040096 -0.44309753 1.400892 -3.3012114
000250 89 e6 63 3f 3c e6 dd 3c 91 f1 09 c0 fb f0 50 bf
       0.89023644 0.027087323 -2.155369 -0.81617707
000260 a2 5a 1c be 77 cb be bf 07 a0 13 c0 5f b7 c4 3e
       -0.15268949 -1.4905843 -2.3066423 0.3842115
000270 34 88 13 c0 68 3a 26 3f 80 b7 cc 3e af 01 bd 3d
       -2.3051882 0.6493287 0.3998375 0.09228837
000280 34 80 fa be bc a9 82 be b5 d9 12 3f 65 1d bb 3f
       -0.48925936 -0.25520122 0.57363445 1.4618345
000290 a7 01 b2 bf e4 5f 62 3f 6b 22 ca bf 18 93 be bf
       -1.3906754 0.8842757 -1.5791754 -1.488864
0002a0 9f 93 a0 3f f9 f4 7a 3f 2f 95 b9 3e 8b 46 9e 3e
       1.254505 0.9803005 0.3624663 0.30913195
0002b0 53 d5 11 c0 1e 7c f8 3e b3 e7 fd be 2b 3c d4 3f
       -2.2786453 0.48532194 -0.49590835 1.6580862
0002c0 11 22 33 c0 6b 6b f9 be af a3 8a 3f c3 c5 71 bf
       -2.7989542 -0.48714766 1.0831202 -0.94442385
0002d0 e4 93 20 3f 0c f3 08 c0 f9 b5 51 be 80 d2 e4 3f
       0.62725663 -2.1398344 -0.20479573 1.787674
0002e0 99 24 af 3f da 6d d1 be 7a d5 11 c0 59 d4 99 3f
       1.3683044 -0.40904123 -2.2786546 1.2017928
0002f0 2a 11 fd 3e 0d 3f 94 3e fc 92 bc 3f aa 88 a3 3e
       0.49427158 0.28954354 1.4732356 0.31940204
000300 42 90 81 3f 8f fe 00 c0 27 ac c0 3f 43 ea d3 be
       1.0122149 -2.015537 1.5052537 -0.41389665
000310 35 d4 36 3f fa 3f a9 3e 6e 4a 81 bf fa 60 62 c0
       0.7141755 0.33056623 -1.0100839 -3.537169
000320 0f ef ef 3d ab 5d 23 c0 81 3a 35 be a4 dd 5c 3e
       0.11715519 -2.552592 -0.17698099 0.21568924
000330 60 44 8f be 9f 11 1f 3f 49 b2 c4 3f 65 7c 91 bc
       -0.27981853 0.6213626 1.5366908 -0.017759511
000340 74 c5 35 bf b5 c4 61 c0 e6 3e 96 bf 4a 5c 95 bf
       -0.71004415 -3.527631 -1.1737945 -1.1668789
000350 c5 a7 21 3f 13 2b be 3f 18 10 db bd 93 46 db 3c
       0.6314662 1.4856895 -0.10696429 0.02676705
000360 fa f4 17 c0 db 73 2d bf 62 64 0c bf 33 d3 0f bd
       -2.3743272 -0.67754906 -0.5484067 -0.035113525
000370 c7 ce 96 3c d2 43 2b 40 91 fd 13 bf 2c dc 01 bf
       0.018409146 2.6760144 -0.57808787 -0.5072658
000380 40 44 0b c0 8b 2a 0b c0 36 a9 bb 3e 6c fe 04 bf
       -2.1760406 -2.1744716 0.36652535 -0.51950717
000390 fa 21 a9 3d e9 1e 31 3f 4e 7a 52 40 01 57 bb 3d
       0.08258434 0.6918779 3.288715 0.09147454
0003a0 f8 00 d0 bf 87 fc 1b c0 b6 71 d1 bf 59 a3 92 3f
       -1.6250296 -2.437288 -1.6362827 1.14561
0003b0 ee 6f cf 3d 82 29 b6 3f 4f 42 d9 3e 41 7b 19 be
       0.10128771 1.4231417 0.42433402 -0.14988424
0003c0 47 fe 21 3e 11 8b f4 3e 4b 9c 43 bd fe 00 fe 3f
       0.15819655 0.4776235 -0.047756474 1.9844053
0003d0 08 ab fb 3f 9e cc 07 40 d8 1f 2b be 89 8b c6 be
       1.966157 2.1218638 -0.16711366 -0.38778332
0003e0 64 98 a0 be 0e f3 3e 3f 02 be e4 3f c7 5e cc 3f
       -0.31366265 0.7458962 1.7870486 1.5966424
0003f0 cf 4b af 3f dc 4f 87 3f 4d 0d ce 3f b2 5b 18 be
       1.369501 1.0571246 1.6097809 -0.14878729

bias f4 [16]
000000 60 24 52 bf 4e 1d bb 3f 98 eb 83 3d ce d3 25 3e
       -0.82086754 1.4618318 0.0644142 0.16194078
000010 b5 1f 6b 3f ff 33 7e 3f 12 24 2b 3f 16 18 03 bf
       0.91845256 0.9929809 0.66851914 -0.5120863
000020 fb f3 65 3f 81 1a 30 be d5 80 02 3f 1e c9 4a be
       0.8982541 -0.1719761 0.5097783 -0.19803283
000030 7c bf 02 3e 2f 88 d3 3f da 77 19 40 46 23 8b 3f
       0.12768358 1.6525935 2.3979402 1.087014

weight f4 [16]
000000 2e b6 b3 3f 2b 92 e4 3f 42 69 94 3f 66 7a d8 3f
       1.4039972 1.7857107 1.1594622 1.6912353
000010 33 18 d3 3f 00 32 8d 3f f0 a8 29 3f 60 f3 55 3f
       1.649176 1.1030884 0.66273403 0.83574486
000020 18 eb 98 3f de 34 9a 3f 7a 3a 82 3f ec 9f e2 3f
       1.1946745 1.2047384 1.0174096 1.7705054
000030 5c 1c e4 3f 06 59 07 40 a3 63 c1 3f 6e 46 c6 3f
       1.7821155 2.1148086 1.5108532 1.5490243

bias f4 [16]
000000 a0 c6 a7 3f 9e b0 a7 bf 24 08 f1 3e 2e e5 8b 3e
       1.310749 -1.3100774 0.47076523 0.27323288
000010 6e e6 1e 3f 1c 07 43 3e e3 db 05 3f 21 28 08 40
       0.6207036 0.19045681 0.52288646 2.1274493
000020 4a f7 5d 40 0a 3e 70 3f 34 d5 71 be a2 61 8f be
       3.4682183 0.93844664 -0.23616487 -0.28004175
000030 75 b8 a0 be 2e b9 26 3f d2 57 bf 3e af e8 75 3f
       -0.3139073 0.6512631 0.3737169 0.9605817

running_mean f4 [16]
000000 15 d8 28 41 bf 7f 5f 41 a4 d7 be c0 28 90 63 41
       10.552754 13.968688 -5.9638233 14.222694
000010 2c 78 52 c1 a1 21 98 41 20 b0 91 c1 4e 93 93 c0
       -13.154339 19.01642 -18.210999 -4.6117315
000020 22 bb 39 c1 2d f6 81 c0 73 f3 95 41 5b 59 6f 41
       -11.608187 -4.0613008 18.743872 14.959315
000030 fe c1 60 3f f3 4f d4 40 59 81 af c0 9f ca d4 40
       0.8779601 6.6347594 -5.4845395 6.649734

running_var f4 [16]
000000 a1 10 98 43 6e c5 a1 43 2a 1b 83 42 da 7d ba 43
       304.1299 323.54242 65.553055 372.98322
000010 b1 89 d5 42 ca b7 89 43 c5 26 65 42 cd cf aa 42
       106.76893 275.43585 57.28786 85.40586
000020 d1 c7 0a 43 43 e4 10 43 29 7a a1 43 24 0c 1b 43
       138.78053 144.89165 322.95438 155.04742
000030 27 33 ee 43 5e 53 14 43 b8 d5 5e 42 e8 56 05 44
       476.39963 148.32565 55.70871 533.3579

weight f4 [16, 16, 3]
000000 48 7f 28 c0 e2 03 a4 3e 6f 03 65 be 8e 4f d1 3f
       -2.6327686 0.32034212 -0.22364591 1.6352403
000010 0b 54 80 3f 2b 30 89 bf 7b 27 05 c0 ba d0 d4 bf
       1.0025648 -1.0717825 -2.0805347 -1.6626198
000020 6d 0e 7d bf 16 06 a5 be 13 b8 8c 3d 17 06 18 3d
       -0.98850137 -0.32231206 0.06871047 0.037115183
000030 bc 5c b6 bd 2e 55 3c 3f a6 c5 c6 3f 49 45 3b be
       -0.089044064 0.73567474 1.5529068 -0.18288149
000040 3c 3c 93 bf 3b 6d dc be bd a4 29 bf 4f 68 3e be
       -1.1502757 -0.43052086 -0.66266996 -0.18594478
000050 b8 0e 82 3f 0b 0a 91 3e d9 7e 1a 3f bf a9 7e bf
       1.0160742 0.28327975 0.60349804 -0.9947776
000060 44 ac 36 bf f2 fc da 3e 17 fa 3c 40 90 ae 0d be
       -0.71356606 0.42771107 2.9527643 -0.13836122
000070 fe 48 d9 bc bb b8 d8 3e ad 85 3e be fb 20 43 bf
       -0.026524063 0.42328438 -0.18605681 -0.762222
000080 7e 7b 0e bf 6d 66 35 bf 7a 17 4a bf 9d a2 1d c0
       -0.55657184 -0.70859414 -0.7894207 -2.4630501
000090 ba db f3 3f 94 b9 cc 3f 02 dc ea be 48 99 14 bf
       1.905143 1.5994134 -0.45870978 -0.5804639
0000a0 94 b6 c5 bf 1e aa 43 c0 b2 53 c8 bf 69 d7 b8 bd
       -1.5446343 -3.0572581 -1.5650542 -0.09025461
0000b0 74 55 5e bf 98 78 1d bd 95 27 7d 3f 6d 6d 34 3f
       -0.8684914 -0.038445085 0.9888852 0.7047947
0000c0 a9 51 24 c0 d6 b8 9a 3e 8d 0c 4a 3f eb 17 d3 bf
       -2.5674841 0.30219144 0.789254 -1.6491674
0000d0 98 ad 49 bf f2 5f 04 3f ec dc ad bf 32 3d ff 3e
       -0.7878051 0.517089 -1.3583045 0.49851376
0000e0 5c 48 2a bf 1e c8 c8 be 12 b9 fd 3e 7c 41 6f 3f
       -0.6651666 -0.39215177 0.4955526 0.93459296
0000f0 ef 4e 53 40 51 13 af 3e f7 d5 1b bf 78 71 65 bb
       3.3016927 0.34194425 -0.6087336 -0.003501026
000100 f0 c2 e9 3e 5d 13 bb 3e fc ca d6 be 5e cd 08 3f
       0.45656538 0.3653821 -0.4195174 0.53438365
000110 53 a0 9d 3e 8f 91 15 bf 10 cb c2 bf d3 8e f0 bf
       0.3078638 -0.5842523 -1.521822 -1.8793586
000120 ce 86 80 bf dc 02 6f 3f 6d da b8 bf b5 07 5a bf
       -1.0041139 0.9336374 -1.4441658 -0.8516801
000130 bb 45 6d 3f 00 1e 23 c0 6d 51 3c 3d 43 e1 20 3f
       0.92684525 -2.548706 0.04597609 0.6284372
000140 a5 69 c2 3e df 2c ac bf da 11 75 3f a3 3d 9f bf
       0.37971225 -1.3451194 0.95730364 -1.2440685
000150 55 9e 95 3f 1c eb f8 bd 82 3f 80 be 76 00 91 c0
       1.1688944 -0.121542186 -0.25048453 -4.5313063
000160 49 47 73 bf 49 d9 29 bf 26 9a 68 c0 28 ea 84 be
       -0.9503065 -0.66347176 -3.6344085 -0.25959897
000170 55 c8 0b c0 59 84 1b bf a9 84 c3 3f f7 34 68 3e
       -2.1841023 -0.6074882 1.527486 0.22676454
000180 fb 9f c3 bf 29 e1 2b c0 96 c6 94 bf 94 bc 66 40
       -1.5283197 -2.6856177 -1.1623104 3.60526
000190 2e 8b 2a 3f cf 13 ce bf d3 85 bb bf 21 db 0e 3f
       0.6661862 -1.6099795 -1.4650215 0.55803114
0001a0 63 95 4b bf 24 10 91 bf 44 e5 c5 bf 47 43 53 bf
       -0.7952482 -1.1333051 -1.5460591 -0.8252453
0001b0 78 6c a3 3e 8f 70 69 3e c1 92 ae 3f b7 7c 8f 3d
       0.31918693 0.22796844 1.3638536 0.07006209
0001c0 13 48 a5 bf 6a 53 50 be 93 99 1a c0 98 af b3 3f
       -1.291262 -0.2034432 -2.4156234 1.4037962
0001d0 55 13 95 3e b0 69 1e 3f 9d 9f 5c 3f 21 20 48 3f
       0.29116312 0.61880016 0.8618105 0.78174025
0001e0 b7 72 00 c0 64 40 f9 3e ea f3 8e 3f 3a e8 1b c0
       -2.0070016 0.4868194 1.1168187 -2.436049
0001f0 0d af f2 bf 41 9a e1 3e 41 cc 75 3e b4 65 3e bf
       -1.8959671 0.44063 0.24003698 -0.74373937
000200 0f 44 57 3e 80 34 87 bf 99 db 5b 3f ab fe 00 c0
       0.21022056 -1.0562897 0.85881954 -2.0155437
000210 3e b2 21 40 23 78 c1 3f f9 6a 85 bf 02 9c ea 3e
       2.526504 1.5114788 -1.042327 0.4582215
000220 46 11 39 be a2 4d 19 bf 90 a8 6f 3e 3a 21 c0 3e
       -0.18072996 -0.59884083 0.23404145 0.3752535
000230 e3 5b 29 bf c8 fb bf bf eb e3 e5 bf b5 19 9f bf
       -0.66155833 -1.4998713 -1.796018 -1.242972
000240 dc 9e c8 3b a3 19 7b be 6f bb 41 3f df bf e0 bf
       0.006122453 -0.24521498 0.75676626 -1.7558554
000250 b4 15 d8 3e 7c 8b 8c 3f 63 dd 41 3e 2f 23 2f bf
       0.42204058 1.0980067 0.18932109 -0.6841306
000260 68 a9 2c c0 a9 86 97 be 91 45 90 3e 05 35 b0 3e
       -2.6978397 -0.29594925 0.28178075 0.3441545
000270 b9 56 0f 3f db 98 cc 3e 94 09 65 bf 99 b1 ab be
       0.55991703 0.3996037 -0.8946774 -0.33533934
000280 c8 db 72 3f 68 76 03 3f 63 b9 35 3f 73 18 f3 be
       0.9486661 0.5135255 0.70986 -0.4747959
000290 27 3f 4a bf fe 97 3a bf b2 ad 98 bf 99 47 0c bc
       -0.7900261 -0.7288817 -1.1928008 -0.008561992
0002a0 2d b0 b4 3f f3 e5 2c 3f 37 20 b0 c0 0b 50 88 3f
       1.4116265 0.67538375 -5.5039325 1.0649427
0002b0 62 bb 53 3e 04 59 d7 bf 99 fc 49 bf 77 b0 88 3f
       0.2067695 -1.682404 -0.7890106 1.0678853
0002c0 28 c1 8e 3e 7f 95 c1 3e e2 cd 34 3f 47 b0 9a be
       0.27881742 0.3780937 0.7062665 -0.30212614
0002d0 22 d7 0c c0 1f b4 55 bd 1f 51 b2 3f 37 ff 43 3d
       -2.2006307 -0.05217373 1.3931006 0.047850814
0002e0 5e a1 fa 3e 25 f8 32 40 87 a3 9c bf cc 6f 76 bf
       0.48951238 2.7963955 -1.2237405 -0.9626434
0002f0 a1 0c 2c c0 9c f0 35 3f 3c be 67 3f ff e6 39 3e
       -2.6882708 0.71070266 0.9052465 0.18154524
000300 c0 9a 1a 3f 1a c5 83 3f e7 1f e5 be ce f7 ce be
       0.6039238 1.0294526 -0.44750902 -0.40423435
000310 46 cf d2 bf 81 a5 44 bf 76 76 10 c0 09 ac db bd
       -1.6469505 -0.7681504 -2.2572303 -0.107261725
000320 81 ee 7e bf c1 4d b1 3f 3d 3a 9c 3f 26 8f 0f c0
       -0.9958268 1.3851854 1.2205273 -2.243112
000330 ec 8b 1b 3f c5 eb f1 3b ff c8 e4 bc 8a 83 be 3f
       0.6076038 0.0073828422 -0.027927874 1.4883893
000340 fd f2 79 3f 63 c1 04 c0 c9 51 d4 bf 1e 9d 7e 3f
       0.97636396 -2.0743034 -1.6587459 0.9945849
000350 73 34 37 bd b0 ea 15 bf c0 d0 97 bf 6d 2e ad bf
       -0.044727754 -0.5856123 -1.186058 -1.3529793
000360 56 20 ae bf 41 9d 82 be ab 07 ae bf c5 2a 61 be
       -1.3603618 -0.255106 -1.359609 -0.21988972
000370 04 e7 de be 91 66 25 c0 2a 30 cf 3f ca b5 fc 3e
       -0.43535626 -2.5843852 1.6186574 0.49357444
000380 b1 38 04 c0 0b 1b d6 3f 25 22 93 3e ef 00 22 c0
       -2.0659602 1.6727003 0.28736988 -2.531307
000390 1b a0 7a bc a2 23 df bf 43 a0 82 bf 1a 14 c6 bf
       -0.015296961 -1.7432749 -1.0205158 -1.5474885
0003a0 9f be f9 be 15 56 9d 3e fe 4d 8c bf ae 06 11 c0
       -0.48778245 0.30729738 -1.0961301 -2.2660327
0003b0 9f ee 0d bf 37 cb 3b 3f 6d 3b 44 3f 0d 0f bf bf
       -0.5544223 0.73356956 0.76653177 -1.4926468
0003c0 0e 94 de bf eb ca cc 3e 39 06 b5 3f 47 d9 dc 3f
       -1.7388933 0.39998564 1.4142524 1.7253808
0003d0 96 f5 46 3f a7 00 f5 bf 90 95 7a 3f db 1d b0 be
       0.77718484 -1.9140824 0.97884464 -0.34397778
0003e0 3b a0 87 3e eb 61 3b bf 12 98 dd 3f 9e 33 1a 40
       0.26489434 -0.73196286 1.7312033 2.4094005
0003f0 bd 64 d8 3f c7 15 13 3f 50 b0 11 be 60 3c 35 bf
       1.6905743 0.57455105 -0.14227414 -0.7079525

bias f4 [16]
000000 80 a8 93 3e 31 8e e1 3d 97 e2 0b bf e9 af aa be
       0.28839493 0.11013449 -0.54642624 -0.33337334
000010 f8 44 a5 3f 73 68 93 3f ec fe cc be d5 d8 69 bd
       1.2911673 1.151625 -0.4003824 -0.057091553
000020 0d 28 04 3f 61 3a 41 3f c9 8d 14 c0 0e 2d 51 bf
       0.5162361 0.75479704 -2.3211539 -0.81709373
000030 ad 82 13 3f ef a4 dc bf ab 01 e2 bf 8c d8 9d bf
       0.5762127 -1.7237834 -1.7656759 -1.233171

weight f4 [16]
000000 e1 6a 9d 3f 52 e9 11 40 c3 35 0c 40 e5 a7 de 3f
       1.2298242 2.2798657 2.1907814 1.7394987
000010 84 ea 14 40 c0 44 0b 40 e2 62 dd 3f a3 b3 48 3f
       2.3268137 2.1760712 1.7295802 0.78399104
000020 9d 7d dd 3f d6 0e c9 3f a3 77 03 40 69 74 1b 40
       1.7303959 1.5707653 2.054177 2.42898
000030 5d 15 fa 3f e7 97 1d 40 76 ac 0c 40 4e 4b d9 3f
       1.953777 2.4623964 2.1980262 1.6976106

bias f4 [16]
000000 dc 28 e7 3f 3f be 67 be 59 51 55 3e 27 9c db be
       1.8059344 -0.22631167 0.20831813 -0.42892572
000010 a2 b9 e3 3e 4c c4 67 3f 95 61 83 3e 39 7d c6 3f
       0.44477564 0.905339 0.25660387 1.5506965
000020 e5 5f c2 3e f9 4c 7e 3f 05 b8 34 3e 81 c0 ec 3e
       0.37963787 0.993362 0.17648323 0.4624062
000030 c6 87 4d be 23 94 43 bf b5 97 d0 3e b2 93 35 bf
       -0.20071325 -0.76397914 0.40740743 -0.7092849

running_mean f4 [16]
000000 99 e0 be c0 35 5c 05 c2 30 57 95 c1 d6 09 93 c1
       -5.9649167 -33.340046 -18.667572 -18.379803
000010 03 30 04 c2 6d 59 ce 41 c8 29 6e c2 d2 94 b4 c1
       -33.046886 25.793665 -59.540802 -22.572666
000020 53 1d 9c c1 d1 26 77 41 7d 6d 5d c1 38 0b d7 41
       -19.514318 15.446977 -13.839231 26.880478
000030 f1 24 4f c1 a4 ca 2e c1 94 43 31 41 03 17 49 c2
       -12.946519 -10.924473 11.078999 -50.272472

running_var f4 [16]
000000 b7 24 50 43 71 a3 46 43 df f3 52 44 3a 33 87 43
       208.14342 198.63844 843.8105 270.4002
000010 26 9d 6b 43 19 32 e6 43 54 0d 43 44 a1 a2 cd 43
       235.61386 460.3914 780.20825 411.27054
000020 ff 71 26 44 c5 88 73 43 4a 2e 80 43 63 44 fc 43
       665.7812 243.53426 256.36163 504.53427
000030 f0 c9 e2 43 f2 7e 7f 43 c5 c9 80 43 aa 17 1d 43
       453.57764 255.49588 257.57632 157.09244

weight f4 [32, 16, 3]
000000 3d dc 3f bf ff a6 b3 bf 3b 75 73 bd 94 c3 53 3f
       -0.7494543 -1.4035338 -0.05943797 0.82720304
000010 14 9d 6d 3e 80 0a f4 bf 2e 68 92 3f 57 a5 68 bf
       0.23204452 -1.9065704 1.1438043 -0.9087729
000020 a7 0c 32 3f 1f a9 0a 3e 8c 2d 6b 3e ac 66 bd bf
       0.69550556 0.13541077 0.22966594 -1.4796958
000030 4b f0 26 c0 e2 5f 84 bf 28 0c 93 be 1b 7c ab bf
       -2.6084163 -1.0341761 -0.28720212 -1.3397249
000040 f8 71 a6 bf 84 a1 c2 bf b5 88 3d 3f 16 75 af bf
       -1.300353 -1.5205541 0.74036723 -1.3707607
000050 24 12 30 bf bb 14 83 bf 3e 3e 0f 3f 9b 86 56 bf
       -0.6877768 -1.0240701 0.5595435 -0.8379914
000060 78 41 9d be 43 7e bc bd 9f 82 a5 be 7d bb ce 3e
       -0.3071401 -0.0920377 -0.32326218 0.40377417
000070 63 9b b5 bf 5f e7 55 c0 1c 80 4e c0 02 0d 11 3f
       -1.4188045 -3.3422468 -3.2265692 0.56660473
000080 d2 b8 8e bf 2e a3 f7 be 28 62 0a c0 2e 77 44 c0
       -1.1150153 -0.48366684 -2.162241 -3.0697742
000090 65 ee fb bf 2a 5e 0c c0 c3 52 01 c0 ca 33 39 bf
       -1.9682127 -2.1932473 -2.0206764 -0.7234465
0000a0 e6 ec af bf 4e ad b0 3d d9 5b 4b bf f7 2c 61 bf
       -1.3744171 0.08626805 -0.79437023 -0.87959236
0000b0 7c 18 64 3f 9a 80 86 bf 9f ee 95 3e b2 89 b8 3d
       0.8909986 -1.0507996 0.29283616 0.09010638
0000c0 c0 ee 30 bf 24 4e a2 bd 7d b0 4a 3e 16 9c f7 bf
       -0.69114304 -0.079250604 0.19793887 -1.9344509
0000d0 76 74 4b 3f 4b de 72 3e 15 5f 75 bf 44 6c 3a bf
       0.7947458 0.2371761 -0.9584821 -0.7282145
0000e0 1a f1 ea bd 90 cb 88 bf c0 ec db bd de d7 71 3f
       -0.11471768 -1.0687122 -0.10738516 0.9447001
0000f0 51 4f c1 bf c9 4b fa bf b4 15 8c 3f 63 6d c2 be
       -1.510233 -1.9554378 1.0944123 -0.3797408
000100 48 19 82 3e 17 d8 c2 3f 60 f9 85 bd 8c 14 e7 3e
       0.25409913 1.5222195 -0.06541705 0.45132864
000110 ed 63 71 3f 68 41 49 3f e0 1e 98 3f df c5 ac 3f
       0.942931 0.78615427 1.1884422 1.3497885
000120 d1 ce 4b 3f e3 45 e6 3f d0 14 61 3f 01 0a b3 bf
       0.7961245 1.7990078 0.8792238 -1.3987428
000130 f6 1f 2e 3e f2 03 95 be 42 2c c2 be d3 e2 17 3f
       0.1700438 -0.29104573 -0.3792439 0.5933048
000140 ab 37 7b be 77 07 17 c0 27 4e 31 bf ea 5c 04 bf
       -0.24532954 -2.3598306 -0.69259876 -0.51704276
000150 03 a7 17 3f a2 f5 9a 3f ff 56 2c 40 ee 91 ad 3e
       0.59239215 1.2106211 2.6928098 0.33900398
000160 ba ee ac 3f 3d 01 58 40 36 fb b3 bf 5f cf a7 be
       1.3510354 3.3750756 -1.4061038 -0.327754
000170 c1 1c 53 bd 9f a3 17 c0 ae 07 61 bf 87 0a 53 3f
       -0.051541094 -2.3693616 -0.87902343 0.8243794
000180 d0 23 13 bf c2 60 a2 bf 8d 0a d2 bf 39 b2 a7 bf
       -0.5747652 -1.2685778 -1.640947 -1.3101264
000190 ef 67 db bd 00 61 db 3f 6f 37 99 bf 18 61 02 c0
       -0.10713183 1.7138977 -1.1970042 -2.0371761
0001a0 58 54 a3 bf 64 70 ec bf 41 3c ba 3e c2 89 74 3e
       -1.2760115 -1.8471799 0.36374095 0.23880675
0001b0 a0 e5 27 bf 36 a3 f3 bf db 5a ae bf 4c 2b f2 bf
       -0.65584755 -1.9034183 -1.3621477 -1.8919463
0001c0 25 7c 6b bd b7 8c b4 3f d1 ee f7 3b 8c 80 b9 3d
       -0.05749144 1.4105443 0.007566311 0.090577215
0001d0 ef c4 81 3e 6f 9c aa 3f 1a ac 4f 3f 98 38 a6 3e
       0.2534556 1.332899 0.8112198 0.32465053
0001e0 ca 06 7e 3f bf f8 a5 3f f3 9f 01 bf 7a 81 80 bf
       0.9922911 1.2966536 -0.5063469 -1.0039513
0001f0 38 3e 16 c0 51 d6 c1 3e 76 bf 76 bf 3d 6a cb 3f
       -2.3475475 0.37858823 -0.96385896 1.5891796
000200 a6 45 2b 3e e2 02 1e c0 b2 16 ee bf e9 52 81 bf
       0.16725788 -2.468926 -1.8600676 -1.0103427
000210 db 36 25 bf f5 19 96 3f e9 a4 f3 3f f2 3b 87 3e
       -0.6453683 1.1726671 1.9034702 0.26412922
000220 25 f4 1a 3f 39 0f 0e 40 79 e0 af bf 70 fa 12 c0
       0.60528785 2.219679 -1.3740379 -2.2965355
000230 d1 33 6d 3f e6 d8 d7 bf 4c 8e a0 bf f3 ef 09 3e
       0.9265719 -1.6863067 -1.2543426 0.1347044
000240 e9 cf f0 3f 00 23 27 3f 8b 35 14 c0 db 1a a3 be
       1.8813449 0.6528778 -2.315768 -0.31856427
000250 84 a8 3d bf d6 0a 9c 3f c4 e9 05 40 ab 1c 84 3e
       -0.7408526 1.2190807 2.092393 0.25803122
000260 ac ae 0e c0 b4 30 fe 3e 6c 7f 0f c0 55 92 9c 3f
       -2.2294111 0.49646533 -2.2421522 1.2232157
000270 24 1a 24 c0 8d 11 db be 6b cf 7e 3f 95 8e ac 3f
       -2.5640955 -0.42786828 0.99535245 1.3481013
000280 54 03 f2 3f 3c c0 c3 bf a2 dc 4c 3f 29 13 f0 bf
       1.8907266 -1.529304 0.8002416 -1.8755847
000290 42 8a 9f 3e 94 7f 09 c0 a7 ee a1 bf 36 7a 9c 3f
       0.3116017 -2.1484118 -1.2650956 1.2224796
0002a0 03 c2 87 bf 4b 55 16 bf 53 6b db bf c0 2e 21 be
       -1.0606083 -0.58723897 -1.7142128 -0.1574049
0002b0 a1 f8 8d 3d 94 b3 53 3f 32 e5 9f bf 77 9c eb 3d
       0.06932188 0.8269589 -1.249182 0.11504453
0002c0 c2 fd 8a 3f 26 8e fa 3e d5 8b 00 3e a5 dd 33 40
       1.0858691 0.48936576 0.12553342 2.810403
0002d0 14 be ee be 6e 77 15 bf 64 f9 64 bf 5e 5b 33 3e
       -0.46629393 -0.5838536 -0.8944304 0.17515323
0002e0 1c 28 17 3e 8e 40 ee bf 97 f1 0a 3f 0b d4 6d bf
       0.14761394 -1.861345 0.54274887 -0.92901677
0002f0 83 6f 00 c0 9e ea 30 bf 0e 02 22 be 78 5a 1c c0
       -2.0068061 -0.69108 -0.15821096 -2.4430218
000300 be c2 c5 bf 04 96 96 bf 1f 17 12 c0 07 21 a2 bf
       -1.5450056 -1.1764531 -2.2826612 -1.2666329
000310 fd 9d 03 bf 4f b5 8b be 8c 56 64 bf eb e7 92 3e
       -0.51412946 -0.27286765 -0.8919456 0.28692564
000320 dc d6 82 3f fc 2f 24 3e f9 bf b7 be bc 6f 4c 3f
       1.022182 0.1603393 -0.3588865 0.79857993
000330 c1 27 0c c0 db ec 45 c0 61 d1 d4 bf cf 06 40 c0
       -2.1899264 -3.0925815 -1.6626397 -3.0004156
000340 3b 8e 2e be 6b ba 59 3f ba 54 a1 3e 57 06 03 bf
       -0.17046444 0.85050076 0.31509954 -0.5118155
000350 e7 d0 b0 be 15 5c 18 3f c9 f5 ad bf a1 ee 47 c0
       -0.3453438 0.59515506 -1.3590633 -3.1239398
000360 41 b3 90 3f 5c 62 68 3e eb 9d a9 bf 8a 51 17 c0
       1.1304704 0.22693771 -1.3251318 -2.3643517
000370 26 ff 7c c0 bb 82 5f 3f 4d d6 be bf 79 01 4a be
       -3.953073 0.87308854 -1.490915 -0.19727124
000380 45 c4 14 3f bb f4 62 bf af aa 8e 3e ec 1c 08 bf
       0.58111984 -0.8865468 0.27864596 -0.5316913
000390 e6 02 ac be 4c 6a 93 be 0b b5 16 3f ed d7 17 bf
       -0.3359596 -0.28792036 0.5887 -0.5931385
0003a0 ce f8 7b be 14 93 4d 40 0b ed a1 3d 54 b3 4c 3f
       -0.2460663 3.212102 0.079065405 0.79961133
0003b0 d3 47 35 3f 75 d8 aa bf 0b 98 b6 bf fe c9 ad 3f
       0.7081272 -1.3347307 -1.426515 1.3577268
0003c0 b4 a3 6d c0 86 a4 6c 3f 04 a2 1f 3d a3 69 b2 bd
       -3.7131166 0.9243854 0.03897287 -0.08711555
0003d0 d7 4e 13 c0 1b 46 a9 3e d3 11 3c c0 c9 f6 9d 3e
       -2.301687 0.330613 -2.938588 0.30852345
0003e0 7f 04 8f 3f e8 2d 75 3f 80 e6 bf bf 00 68 6f be
       1.1173247 0.9577317 -1.4992218 -0.23379517
0003f0 18 17 e9 be d1 80 43 3f 9a 25 02 c0 65 6e ab be
       -0.45525432 0.76368433 -2.033545 -0.33482662

bias f4 [32]
000000 ba ab b7 3e b8 fe 0c bf 6d 7b 28 3f 06 44 de bc
       0.35873204 -0.5507617 0.6581333 -0.027132045
000010 e1 cb 2d 3f c0 d9 c8 3e 19 3a 0c bf 93 10 89 be
       0.6788922 0.3922863 -0.5477615 -0.26770458
000020 67 c0 02 be 4a bd 16 3f 5d cc 43 bd 58 ed 18 3f
       -0.12768708 0.5888258 -0.047802318 0.5973716
000030 ee 21 31 be de fa 56 3f 4e e1 30 3e d5 1b 08 be
       -0.172981 0.8397654 0.17273447 -0.13291867
000040 54 78 a9 3e b5 76 46 3f aa 9a ef 3f 7e 3b b8 3d
       0.33099616 0.7752488 1.8719075 0.08995722
000050 ab 8b 82 3f d4 d8 b7 3d 2b 68 b7 3f e7 fc 8b be
       1.0198873 0.089769036 1.4328665 -0.27341387
000060 a2 bc 4a bf 70 b7 b2 3f a8 21 5e 3f b6 0e a3 bf
       -0.7919408 1.3962231 0.86770105 -1.2738864
000070 a2 10 76 3f 34 8f 3e bf d8 cd 1e 40 95 95 2c 3f
       0.9611913 -0.7443726 2.4813137 0.67415744

weight f4 [32]
000000 b0 a8 fa 3f 92 aa c1 3f 78 68 eb 3f 44 51 00 40
       1.9582729 1.5130179 1.8391256 2.00496
000010 78 4b fa 3f bb 30 f4 3f 10 0f d7 3f ad aa c3 3f
       1.9554281 1.9077371 1.6801472 1.5286461
000020 a0 f8 9f 3f 43 99 ae 3f 75 47 fc 3f 39 d3 fb 3f
       1.2497749 1.3640522 1.9709307 1.9673835
000030 fb ee 00 40 c9 63 32 3f 8c 06 0b 40 0b 07 b4 3f
       2.0145862 0.6968351 2.1722746 1.4064649
000040 93 8d 16 40 17 5c 04 40 b5 e2 bc 3f 0c 0e 6e 3f
       2.352391 2.0681207 1.4756685 0.92990184
000050 68 a5 05 40 34 73 c8 3d 1d a7 dd 3f f2 2b 00 40
       2.0882206 0.09787598 1.7316624 2.0026822
000060 0f 16 07 40 d6 a3 b2 3f ab d8 d0 3f d0 69 cf 3f
       2.1107213 1.3956249 1.6316122 1.6204166
000070 64 d2 b2 3f 19 56 02 40 10 a2 00 40 29 1e c8 3f
       1.3970456 2.036505 2.0098915 1.5634204

bias f4 [32]
000000 32 8f 7c be 00 ce 9f bf 58 d3 b9 3e e7 e1 27 3f
       -0.24664 -1.2484741 0.36294055 0.65579075
000010 1c 0a eb bc 5a a2 7c 3e d4 6f a0 bf 3b 90 d9 bf
       -0.028691344 0.24671307 -1.2534127 -1.6997141
000020 ad c1 e7 bf d1 55 59 bf 14 12 a1 bf d4 19 25 3f
       -1.810598 -0.8489657 -1.2583642 0.64492536
000030 c7 96 c0 bb 8a 08 99 3f 37 9f 27 be ea eb 10 bf
       -0.005877349 1.1955731 -0.1636933 -0.56609976
000040 c1 48 61 3f e4 b5 09 bf 03 f7 c4 3f b5 d5 df bd
       0.8800164 -0.5379317 1.5387882 -0.10929433
000050 ca a8 c9 3e 9e a1 8d bf 3c be a7 be 08 07 e2 bd
       0.39386588 -1.1064947 -0.32762325 -0.11036497
000060 f9 ed 7e 3d 65 22 0c c0 76 9b e8 3f e5 b4 ca be
       0.062238667 -2.1895993 1.8172443 -0.39591137
000070 e9 de cd be 75 87 24 bf 18 3b 42 bf ba e8 49 3f
       -0.4020913 -0.6426919 -0.7587142 0.7887074

running_mean f4 [32]
000000 d2 d4 17 c2 a5 fa 30 40 a4 18 93 c1 a0 01 e3 c0
       -37.957832 2.7652981 -18.387032 -7.0939484
000010 8d c6 02 c2 0b 30 c5 c1 a8 06 a0 41 64 15 5e 41
       -32.693897 -24.648458 20.00325 13.880222
000020 a6 c6 ac 41 10 ae 86 c1 3a 2e 5d be a5 3a cc 40
       21.596996 -16.834991 -0.21599665 6.3821588
000030 f5 52 d6 c0 83 69 18 c1 09 aa 79 c1 d4 03 a0 41
       -6.6976266 -9.52576 -15.6040125 20.00187
000040 fd 41 fa c0 a8 d4 2f c1 2c ae 61 c1 92 df 63 41
       -7.820555 -10.989418 -14.105022 14.242083
000050 77 ef ca c1 51 d1 e4 bf 8e 7d bb 41 d9 09 ba c1
       -25.366926 -1.7876378 23.436306 -23.254808
000060 28 72 d7 3f 46 51 ac 41 a5 fe 85 c1 cd df d3 3f
       1.6831713 21.539684 -16.749338 1.6552674
000070 b1 91 1d 41 6f 4d 68 c1 a5 18 11 c1 c9 d6 6b c0
       9.848069 -14.518905 -9.068517 -3.6849844

running_var f4 [32]
000000 e2 b3 22 44 60 c2 9c 43 6a 59 ca 43 fa 42 a2 43
       650.81067 313.51855 404.69855 324.52325
000010 18 cc b5 43 50 5c bc 43 07 d4 bc 43 35 c6 b6 43
       363.59448 376.7212 377.65646 365.5485
000020 b3 bb 78 43 4c af b1 43 6e 12 93 43 56 d2 f8 43
       248.7332 355.3695 294.14398 497.64325
000030 56 30 03 44 00 44 a9 43 55 a4 80 43 11 2d 86 43
       524.75525 338.53125 257.28384 268.35208
000040 bc b4 e1 43 65 b3 42 43 26 50 5f 44 ff cb 58 43
       451.412 194.70076 893.2523 216.79686
000050 53 2a 72 43 50 ee 3c 43 c5 8f 95 43 02 ad 2f 44
       242.16533 188.93091 299.1232 702.70325
000060 05 c8 a7 43 e4 51 7d 43 88 e7 0b 44 d6 0d c3 43
       335.56265 253.31989 559.6177 390.1081
000070 50 0e ce 43 b1 41 d9 43 f0 2c 5f 43 32 18 08 44
       412.11182 434.5132 223.17554 544.37805

weight f4 [32, 32, 3]
000000 6c bf 11 3f a2 3a 83 bc c3 6f ce 3e 93 ac 70 3f
       0.5693271 -0.01601917 0.40319642 0.9401333
000010 e6 5f ab bf fe 1c e5 bf a0 cb 0b 40 a1 fb d4 be
       -1.3388641 -1.7899473 2.1843033 -0.41598228
000020 ff bc d2 bf a2 0d d7 3f b7 5e 97 3d 8c 43 86 bf
       -1.6463927 1.6801035 0.07391112 -1.0489364
000030 64 8f 06 c0 23 47 10 3f bc 95 a6 bf c0 c7 bb 3e
       -2.1025019 0.56358546 -1.3014445 0.36675835
000040 12 ef 7d 3f 54 9a 1d bf b4 1c 02 40 c1 68 9b 3f
       0.9919292 -0.6156361 2.033002 1.2141343
000050 79 5a aa 3f 88 3c 98 3f 90 a7 37 bf fe f4 55 c0
       1.330886 1.1893473 -0.71740055 -3.3430781
000060 69 75 d0 bf 18 3a 90 bf 79 a0 79 be 4d 01 2f 40
       -1.6285831 -1.1267729 -0.24377622 2.7344544
000070 3f ce 72 3f 58 d5 07 c0 44 a6 81 3e 93 77 c0 be
       0.94845957 -2.1223965 0.25322163 -0.37591228
000080 b7 d6 d5 be 7f 5b 28 40 cc b5 f9 3f c7 52 4a bf
       -0.41765377 2.6305845 1.9508605 -0.7903256
000090 9b 26 a5 3f 84 8b 83 3e 7d 21 8b bf 24 4b b3 3f
       1.2902406 0.2569238 -1.0869595 1.4007306
0000a0 92 fa 15 bf df aa 28 be 2d de ae 3f a2 cf ba 3f
       -0.58585465 -0.16471432 1.3661553 1.4594615
0000b0 e9 e2 88 bf 7b 9f 39 3f fe ef b8 bd f1 6d ac 3d
       -1.0694247 0.7250897 -0.0903015 0.08419407
0000c0 68 23 ce 3e 44 00 b8 bf ee 81 8c c0 ee 9e 8d bf
       0.40261388 -1.4375081 -4.3908606 -1.1064126
0000d0 3f 02 f7 3e 44 21 f0 3f ec ec 5c bf f0 bb 6e 3e
       0.482439 1.8760152 -0.86299014 0.2331388
0000e0 96 4f ee bd d2 fd 80 3f c6 a4 78 be 8e ec de be
       -0.116362736 1.007746 -0.24281606 -0.43539852
0000f0 46 54 dc 3f 24 35 3b 3f c4 8a 0d bf c5 1a bf 3e
       1.7213218 0.7312796 -0.55289865 0.3732511
000100 37 ea 13 bf f8 70 6a bf 56 89 52 3d 73 56 c0 bf
       -0.5777926 -0.91578627 0.051400505 -1.5026382
000110 dc 81 f9 bf c7 d9 a7 3e 91 23 a7 3e e9 cf 0e 3f
       -1.9492755 0.32783338 0.32644323 0.55785996
000120 50 d3 25 bf d5 1d 00 bf 88 8d 7d bd fa 9c 66 3f
       -0.6477556 -0.5004552 -0.061902553 0.9008328
000130 3b be 79 3e 73 74 bd 3d 68 4f c2 bb 25 b3 82 bf
       0.24388973 0.092507266 -0.005929876 -1.021092
000140 8f 86 eb bf be 91 ae 3f 90 c2 1a 3e 9b e5 9b bf
       -1.8400439 1.3638227 0.15113282 -1.2179445
000150 60 22 29 3f cc 68 8b 3e fa e6 95 3e c0 42 4b 3f
       0.6606808 0.2722839 0.29277784 0.7939873
000160 d0 68 83 3f 97 8b 1d 40 b9 61 91 be cb ba 56 3f
       1.0266361 2.461645 -0.2839487 0.83878773
000170 49 4e 15 c0 1b 4e 77 bf c8 02 4e be 17 38 f6 3e
       -2.3329031 -0.96603554 -0.20118248 0.48089668
000180 94 4d fb 3f 61 b4 7e 3f 18 60 d2 3f ad ba ea 3e
       1.963305 0.99493986 1.6435575 0.45845547
000190 eb 7b 85 bf b1 18 59 40 c1 33 9f bf c0 c1 21 bf
       -1.0428442 3.392132 -1.2437669 -0.63186264
0001a0 b3 65 5d 3e 9f 42 08 3f 6a 71 c3 bd aa 57 84 bf
       0.21620826 0.53226656 -0.095431164 -1.0339253
0001b0 da 79 dd 3e 53 9c c1 3e b9 00 5e 40 f5 6e 8b 3e
       0.43257028 0.37814578 3.468794 0.2723309
0001c0 39 ae 0d bf 00 35 0b 3e e0 87 57 3f 0c 61 11 3f
       -0.5534397 0.13594437 0.84191704 0.56788707
0001d0 6c 62 d1 bf 70 a0 e3 bf f9 cc ef bf 74 41 4e bd
       -1.6358161 -1.7783337 -1.8734428 -0.05035539
0001e0 23 d4 f6 3f e7 3e 42 3f f3 a0 85 bf 2c 34 2c bf
       1.9283489 0.7587723 -1.0439743 -0.6726711
0001f0 15 10 d9 bb ad e6 ac 3f 6c 4c 1b bf 42 1f 20 c0
       -0.0066242316 1.3507897 -0.60663486 -2.5019078
000200 4e 62 48 c0 ab ed 01 bf e7 0a 82 3f 01 b3 63 be
       -3.131 -0.5075328 1.0159577 -0.22236253
000210 c1 3b ca bf 6b 07 cd be 2f 4c 3c 40 78 6a 56 bf
       -1.5799485 -0.40044722 2.9421499 -0.8375621
000220 66 89 36 bf 78 0e 26 c0 26 af 08 3f 46 80 f6 be
       -0.71303403 -2.594633 0.53392255 -0.4814474
000230 74 8b 71 3f 88 34 83 be 9f 6e 8c 3f 7b f2 07 c0
       0.94353414 -0.25626016 1.0971259 -2.1241748
000240 f8 6e e3 be da b8 0c bf 5f 9d 97 bf 8b 98 1d 3e
       -0.444206 -0.5496956 -1.1844901 0.15390222
000250 29 b0 a1 3f 9a c5 60 40 ab d0 57 3d 3d a0 d4 bf
       1.2631885 3.5120606 0.052689236 -1.6611401
000260 1a 43 4c 3f 02 dc a2 bf a5 99 d9 bf cd dd 82 3d
       0.7978989 -1.2723391 -1.7000014 0.063899614
000270 b7 3c 0b 40 60 e2 8a 3f 85 d9 ab bf 2a f3 e3 3d
       2.1755807 1.0850334 -1.3425757 0.11130364
000280 c8 62 a7 be 0f 8d 28 bf 42 34 01 3f df 21 7a be
       -0.32692552 -0.6584024 0.50470364 -0.24426983
000290 60 c6 41 c0 8e a8 47 c0 76 b7 a6 be ea eb 1c 40
       -3.0277328 -3.1196628 -0.32561845 2.451899
0002a0 c1 6f 05 3f 4b a9 9b bf 74 2c 9f c0 e9 58 25 40
       0.5212365 -1.2161039 -4.9741764 2.5835516
0002b0 53 ca a6 3e 7a 6b 33 bf df 05 c7 bf 76 69 82 bf
       0.32576236 -0.7008587 -1.5548667 -1.0188434
0002c0 f0 90 91 3f 42 2e 48 3f 81 05 33 c0 4e 65 52 bf
       1.1372356 0.78195584 -2.797211 -0.8218583
0002d0 f3 fa 65 bf 66 08 f3 be 95 d9 1e bf ac 22 bd 3f
       -0.89836043 -0.47467345 -0.62050754 1.4776206
0002e0 6f 66 22 bd f4 67 90 c0 7a 89 9f bf 65 7c b6 bf
       -0.03964847 -4.5126896 -1.246383 -1.4256712
0002f0 cc 9e c5 3e 2e be 1a bd 58 c2 4b bf 5d ca b8 3e
       0.38597715 -0.037779026 -0.7959342 0.3609189
000300 bc 7f 97 3f 01 95 86 3e b6 0b 97 bf f2 f0 cd be
       1.1835856 0.26285556 -1.1800449 -0.4022289
000310 47 56 8e bf 73 b7 85 3f ee e3 dc 3f c8 95 2c bf
       -1.112008 1.0446609 1.7257059 -0.6741605
000320 0d ac c9 be c3 bd 06 c0 1c 0f 9b 3e 8d ad b9 bf
       -0.39389077 -2.1053321 0.30284965 -1.4506088
000330 e7 9a 54 3f 39 8c 2b bf 0f dd ff bf a7 5a b6 bf
       0.8304886 -0.6701084 -1.9989337 -1.4246415
000340 ae 40 7d bf 1f 12 52 3f ea 53 44 bf 41 cf cb 3c
       -0.9892682 0.820589 -0.7669054 0.0248791
000350 dc 36 87 bf 11 56 6c be b1 09 a6 3f 59 2a e5 3e
       -1.0563617 -0.23079707 1.2971708 0.4475887
000360 2d 75 fb bf 12 59 64 3d 66 31 8e 3f d4 f2 92 bf
       -1.9645134 0.055749007 1.1108825 -1.1480355
000370 54 aa a7 3e 81 db 9d 3f 1c fb e2 3d d1 41 45 3d
       0.32747138 1.2332612 0.110830516 0.04815847
000380 97 66 75 3e 07 72 01 bf ef c5 47 3f 34 d7 53 3f
       0.23964916 -0.50564617 0.780364 0.8275025
000390 4d 76 7b bf 33 02 2d 3f da 43 70 40 19 df 2a 40
       -0.9822739 0.6758148 3.7541413 2.6698668
0003a0 03 5c 8b bf 07 cc 0b 3e d8 eb 6c bf c2 72 1a c0
       -1.0887455 0.13652049 -0.9254737 -2.4132543
0003b0 fa f8 6e bf 15 36 23 be eb 72 a4 3d 08 3d 36 3f
       -0.9334866 -0.159386 0.08029731 0.71186876
0003c0 92 93 25 3f f7 8b 5c bf 2c c5 52 3e b0 c0 17 40
       0.646783 -0.8615107 0.20583028 2.3711357
0003d0 a5 2e 10 bf 41 ca 37 c0 6a 1a 9a 3f e4 97 1a c0
       -0.56321174 -2.8717196 1.2039311 -2.4155207
0003e0 00 07 dd 3f ea 0d 9b bf b6 f1 0a bf f7 4d 4d 40
       1.7267761 -1.2113621 -0.5427507 3.2078836
0003f0 48 a1 e3 be ba 30 af 3e b9 79 38 bf 5f c0 5c bf
       -0.44458985 0.34216863 -0.72060734 -0.86231035

bias f4 [32]
000000 6b da d0 be 97 1f 1b bf 69 ae 89 3e aa 10 40 c0
       -0.4079164 -0.6059508 0.26890877 -3.001017
000010 05 d1 52 3f 3c 26 34 bd 33 6b e5 be b5 b8 2c 3f
       0.8235019 -0.043981776 -0.4480835 0.6746934
000020 dc 85 09 bf 76 34 0f bf 8d 79 cc bf 19 a3 2c bf
       -0.5371988 -0.55939424 -1.5974594 -0.6743637
000030 57 13 6c 3f d6 4e 4b 3f bc b0 ae 3f 0d b2 ef 3e
       0.9221701 0.7941717 1.3647685 0.4681553
000040 f3 00 d5 3e b5 db 7a be 5e a6 93 3e 9f dd 47 3e
       0.41602287 -0.24497874 0.28837866 0.19518135
000050 80 73 8a bf e4 f2 93 3e 2d c5 cc 3f 5f 23 e1 be
       -1.0816498 0.28896248 1.5997673 -0.43972299
000060 2a 1e 3b bf 99 8a 8b be 05 fd 3f 3e fa 19 55 be
       -0.730929 -0.2725418 0.18748863 -0.2081069
000070 36 4a 68 3f db aa c0 be f3 d6 ab 3e b5 88 a6 3f
       0.90738237 -0.37630352 0.3356243 1.301047

weight f4 [32]
000000 b9 da c0 3f 4a 13 11 40 7b 08 ad 3f 3e 9f fc 3f
       1.5066749 2.2668023 1.3518213 1.9736097
000010 40 fc ef 3f 90 36 d0 3f dd 75 18 40 78 72 fe 3f
       1.8748856 1.6266651 2.3821938 1.9878683
000020 f2 a1 0d 40 3c 1b 98 3f 67 e7 01 40 34 19 cb 3f
       2.2130094 1.1883311 2.0297487 1.5867066
000030 f7 5f 83 3f c9 2d 1a 40 00 48 11 40 87 5e 12 40
       1.0263661 2.4090445 2.2700195 2.2870195
000040 46 36 08 40 ae 88 f8 3f 07 24 c5 3f 3a 66 27 40
       2.1283126 1.9416711 1.540162 2.6156144
000050 8c a3 ab 3f 82 be ba 3f 6d 02 0f 40 25 5f 15 40
       1.3409286 1.4589388 2.234523 2.3339322
000060 ef a6 f0 3f 0b d3 10 40 4c ba 0a 40 71 02 e5 3f
       1.8800944 2.262881 2.1676207 1.789137
000070 84 28 a1 3f 63 91 06 40 37 49 bd 3f 63 08 06 40
       1.2590489 2.1026237 1.4787968 2.094262

bias f4 [32]
000000 35 9c f7 be e8 76 0e bf 84 a2 0a c0 20 9f 6f 3f
       -0.48361364 -0.55650187 -2.1661692 0.9360218
000010 65 7d ac bf 89 d7 03 3f d0 5e 8e 3f d4 79 92 bf
       -1.3475767 0.51500756 1.1122684 -1.1443429
000020 48 34 8f bf 43 88 07 c0 3f 10 dd be d7 e9 77 bf
       -1.118783 -2.1176918 -0.43176457 -0.96841186
000030 26 4c f3 bf d0 f9 8b 3e 63 d6 96 be 7a 61 2f 3d
       -1.9007614 0.2733903 -0.2946044 0.04281757
000040 4d 4c a7 be 0a 5b 48 bf 3a 56 c3 bf 2d ce ec 3d
       -0.326754 -0.78263915 -1.5260689 0.115627624
000050 32 17 da bf 5e 26 20 3e 96 03 81 3e a1 3b 70 bf
       -1.7038329 0.15639636 0.25198048 -0.93840986
000060 cd 59 6e 3f ab 5f 5d bd 82 da 3d bf 95 83 d6 be
       0.93105775 -0.054046314 -0.7416154 -0.41897264
000070 0a 2a 11 c0 23 7e 9c be 3d d3 d2 bf 88 c1 92 be
       -2.2681909 -0.30564985 -1.6470715 -0.28663278

running_mean f4 [32]
000000 1c c5 dc c0 f0 44 a7 c1 2b c9 2d 41 84 8c cc 40
       -6.899061 -20.90866 10.861613 6.392153
000010 6f 1d f2 c1 33 6d ea 40 5d 66 db c1 2f 05 4f c1
       -30.264372 7.32583 -27.424982 -12.938766
000020 5d 57 85 c2 6d ee cb 41 83 e6 b3 c1 3d 7b 17 40
       -66.67063 25.491419 -22.487555 2.3668969
000030 d7 de 67 bf 6c 83 23 c2 2d a6 6f c1 ff 7e dd c0
       -0.905744 -40.87834 -14.97807 -6.9217525
000040 1b 7b 09 c2 9e 34 ed c0 b4 3b d2 c1 22 ba 2a c2
       -34.37022 -7.412673 -26.279152 -42.68177
000050 38 3d f7 41 40 4e 54 c1 bd 62 ff c1 7d 16 27 c2
       30.904892 -13.269104 -31.923212 -41.77196
000060 96 40 13 40 61 d3 16 c1 b8 ff 44 c2 67 19 2d bc
       2.300817 -9.426606 -49.249725 -0.010565138
000070 8d a6 a1 41 1c b0 14 40 9a e5 f1 41 3d 76 aa c1
       20.206324 2.3232489 30.23711 -21.307734

running_var f4 [32]
000000 63 5e 49 44 f6 f4 04 44 84 b9 e3 43 21 8b 26 44
       805.4748 531.8275 455.44934 666.1739
000010 fe 10 ab 43 7b 80 32 44 61 df 8b 44 a1 14 39 44
       342.13275 714.0075 1118.9806 740.3223
000020 1f da 18 44 99 d5 bc 43 4b df 2e 44 8b d0 39 44
       611.40814 377.66873 699.48895 743.2585
000030 5f 85 e3 43 19 da 7a 44 9c 57 aa 44 a7 da 52 44
       455.04196 1003.4078 1362.7378 843.41644
000040 89 8c 46 44 73 e2 00 44 96 5c 8f 43 82 24 2b 44
       794.19586 515.53827 286.72333 684.57043
000050 24 21 0d 44 5f e1 5b 44 a0 cb 1f 44 d8 d8 03 44
       564.5178 879.5214 639.18164 527.3882
000060 25 2c 1d 44 9c 73 3d 44 f6 a5 02 44 2b 0b 1c 44
       628.68976 757.8064 522.59314 624.1745
000070 58 6e 97 43 e3 0f 10 44 88 89 93 43 2c eb 21 44
       302.86206 576.2482 295.07446 647.67456

weight f4 [64, 32, 3]
000000 14 7c 28 c0 d8 1d 01 c0 cf 1c 10 bf 77 00 c6 3e
       -2.6325731 -2.0174465 -0.5629396 0.3867223
000010 43 4c 9b 3f 01 59 13 40 51 4f 00 3f 9a b5 a2 3f
       1.2132648 2.3023074 0.5012103 1.271167
000020 a4 5e a9 be d6 b9 a0 3f bb f5 df 3f a8 ac 1e 3f
       -0.33080018 1.2556713 1.7496866 0.619822
000030 80 5d e8 be 1e 67 9c be 6f 26 12 40 22 77 89 3f
       -0.45383835 -0.30547422 2.2835958 1.0739481
000040 e7 7c 40 bf e2 6a 6f c0 ea ba 1c bf 5c 90 e1 be
       -0.75190586 -3.7408986 -0.6122271 -0.4405545
000050 83 1b 98 bf 5e eb 81 3f e5 6d 30 bd 70 fa de bd
       -1.1883396 1.0149953 -0.043073554 -0.10887611
000060 fc a7 30 3f 0c bf 9d be f9 56 d2 3f c1 a8 c5 be
       0.69006324 -0.3080982 1.6432792 -0.38605312
000070 d6 0b 26 3f 79 d8 38 3f a2 82 ad be 41 4f d3 3d
       0.6486181 0.7220531 -0.33888727 0.10317851
000080 c5 9e 55 3f fb 87 83 be 95 68 4a 3f e5 76 90 bf
       0.8344539 -0.25689682 0.7906583 -1.1286284
000090 ba 41 bf bb 2f 9b 24 bf 99 44 d5 3e 1d bf 64 bf
       -0.0058366926 -0.6429929 0.41653898 -0.89354116
0000a0 dc e3 fb bf 4b 9d b1 3e 22 d2 a7 bf d3 1d cf bf
       -1.9678912 0.34690318 -1.3111002 -1.6180977
0000b0 9c d1 82 3f be fb 1d 3f 4c 03 b3 3f 3c 1a 65 be
       1.0220218 0.61712253 1.3985381 -0.22373289
0000c0 12 63 ab bf 4f b3 0c c0 b3 a0 92 3f 64 c7 e8 bf
       -1.3389609 -2.1984441 1.1455292 -1.8185849
0000d0 5a ca 25 bf 68 d4 87 3f ae ac 7e 3e 42 53 b4 bf
       -0.6476189 1.0611696 0.2487056 -1.4087908
0000e0 b5 d7 3f be ab ca b2 bf b4 ee 05 bf 45 54 46 3d
       -0.1873463 -1.3968099 -0.5231736 0.04842021
0000f0 aa 54 51 3e 56 f5 12 3f c9 8e b9 3f 86 be 59 c0
       0.20442453 0.574056 1.44967 -3.4022536
000100 be 55 18 3f 57 47 14 40 6e 5c 2a bf e3 c8 73 bf
       0.5950583 2.3168542 -0.66547287 -0.95228404
000110 29 db 51 be 1b 6f bc bf c8 b2 ab bf ee 65 ee bf
       -0.20493759 -1.4721407 -1.3413935 -1.8624856
000120 8b 11 a6 3f 2d 2f e4 bf 8b 84 68 bf 7a f5 a6 c0
       1.2974104 -1.7826897 -0.90827245 -5.2174654
000130 96 31 e9 bf 9e 29 6f c0 d3 c6 d2 be 3b c8 60 3e
       -1.8218257 -3.736915 -0.41167316 0.21951382
000140 ec 1d 54 be 26 7c a3 bf ce dd 35 c0 a8 22 80 c0
       -0.2071454 -1.2772262 -2.841663 -4.0042305
000150 14 ed fe bf 70 ec d7 bd 0b 20 b5 bf 96 cc 9b 3f
       -1.99161 -0.10543144 -1.4150404 1.217181
000160 bf f2 34 3f 3e 37 94 be 0f ad 4a 3f 7e da bb 3f
       0.706829 -0.28948396 0.79170316 1.4676054
000170 d9 6f ec 3f 9c c8 a6 bf 0d 1a 59 3f b6 b5 34 bf
       1.8471633 -1.3029971 0.84805375 -0.7058977
000180 17 70 4e c0 b2 ac ae 3f 77 8b fd be 89 72 a4 3f
       -3.2255914 1.3646452 -0.49520466 1.2847453
000190 1a 7c bc bf e8 31 c0 3e 8d 4d 8c 3f f4 51 0a bf
       -1.4725373 0.37538075 1.0961167 -0.540313
0001a0 a5 d1 18 3e dd dd 8a 3f a8 ed 4e be 70 cd d1 bf
       0.14923723 1.0848957 -0.20207846 -1.639082
0001b0 6d e5 16 3f 36 e7 bb 3f 06 53 4f 3f 9c ee ac 3f
       0.58943826 1.4679935 0.8098606 1.3510318
0001c0 04 6b 39 bd af 19 b9 3d 5c ce 12 c0 7e b0 0e c0
       -0.045268074 0.09038102 -2.2938452 -2.2295222
0001d0 ba 90 61 bf 28 26 69 c0 11 79 18 c0 10 fa e9 bf
       -0.8811146 -3.6429539 -2.3823893 -1.8279438
0001e0 e5 fa a4 3e 43 ca 69 3f 48 d3 a1 bf f4 6d b9 3f
       0.32222667 0.9132425 -1.2642603 1.448668
0001f0 0c 61 57 3f 7b ec 43 3f 3a 71 a6 3f d9 1a 8f be
       0.84132457 0.76532716 1.3003304 -0.2795017
000200 bf f6 fb bd d3 92 84 bf 4e 51 44 c0 39 cf a8 3d
       -0.123029225 -1.0357307 -3.0674624 0.082426496
000210 8d 2a 9b 3f dc 89 ca 3e b9 dc ce 3c b5 3b 64 c0
       1.212236 0.39558303 0.025251733 -3.5661442
000220 c9 30 42 3f 5f d3 0e c0 cc 95 e5 3f c6 f9 83 be
       0.7585569 -2.231651 1.7936339 -0.257765
000230 83 26 e8 3d 55 f4 c1 bf ee 90 65 be 17 67 1f c0
       0.113354705 -1.5152689 -0.22418568 -2.490667
000240 9b f3 90 c0 4c 60 2f c0 b2 87 bb bf 95 d3 8d bf
       -4.529737 -2.7402525 -1.4650786 -1.1080195
000250 f7 dc 64 bf f5 37 e4 3e 95 78 82 be 60 d7 3c 3f
       -0.89399666 0.44573942 -0.25482622 0.73766136
000260 0b a5 9e 3e a9 da de bf b1 4a 1c 40 e9 da 7e bf
       0.30985293 -1.741048 2.4420588 -0.9955278
000270 e9 a5 e2 be 19 7f 2f 3f b8 93 8b 3e 79 1d 8d bf
       -0.44267204 0.6855331 0.27261138 -1.1024619
000280 1a 2f a7 3f 90 a1 ab bf 83 d6 57 bf 39 6f 17 bf
       1.3061249 -1.340868 -0.84311694 -0.5915409
000290 d5 68 e8 be 30 cc 92 bf 81 fd 1e c0 f9 fd 19 c0
       -0.4539248 -1.1468563 -2.4842227 -2.4061263
0002a0 f3 55 d7 bf 4c 66 bc 3d bd 7c 34 c0 e4 2b 0f c0
       -1.6823105 0.09199199 -2.8201134 -2.2370539
0002b0 d0 ab 42 be f0 f4 49 3f 0b d5 2c bf cc 54 2c 3b
       -0.19010854 0.7888937 -0.6751258 0.002629566
0002c0 db ec 5f 3f 9e a5 ae bf 07 b2 a6 be e7 4d c9 3e
       0.8747079 -1.3644292 -0.325577 0.39317247
0002d0 98 42 28 40 2b d1 5c 3f f1 76 81 3f 8f 75 51 3f
       2.6290646 0.86256665 1.0114423 0.81820005
0002e0 1e 22 fb bf 96 39 62 bf 2d de 14 40 ff 70 50 3e
       -1.9619787 -0.8836912 2.3260605 0.20355605
0002f0 6c cb 04 c0 70 52 56 3f bf d8 7a bf a7 75 b3 bf
       -2.074916 0.8371954 -0.9798698 -1.402028
000300 df 2a 8d be 58 43 a8 bd 0b a4 34 3f c7 58 c2 bf
       -0.2757177 -0.0821597 0.7056281 -1.5183343
000310 ce 97 c4 be 34 57 d4 bf 77 9c cf 3f 94 86 83 3f
       -0.38397068 -1.6589112 1.6219624 1.0275445
000320 04 90 d5 bf 00 ed 0b 40 f4 3f 94 be 14 7b bc 3e
       -1.6684575 2.1863403 -0.28955042 0.3681265
000330 39 db ed bf 1b 41 bd 3e 12 28 ac 3e 43 9c 61 3f
       -1.8582526 0.36963734 0.3362432 0.8812906
000340 5f fa d6 3e 72 55 3e bf 16 fe 81 3f 7e 0c a0 3e
       0.41987893 -0.7434913 1.0155666 0.3125953
000350 14 e6 d3 3d ff 58 9d bf 6f 34 5b bd ea 59 c5 3f
       0.10346618 -1.2292784 -0.0535168 1.5418065
000360 82 da 61 bf ae 56 b3 3e 01 12 37 bf 20 3e e4 3d
       -0.8822404 0.3502707 -0.71511847 0.11144662
000370 72 3b a7 bf b9 a6 99 3f 03 b6 a5 3f c1 fc df 3e
       -1.3065016 1.2004005 1.294617 0.43747523
000380 b0 06 8a be fc d6 2d 40 98 28 65 be 53 ce 0c 40
       -0.26958227 2.7162466 -0.22378767 2.200093
000390 0c bc ad be 2a 82 a0 3f 55 8c 55 3f 3d d2 da 3e
       -0.3393253 1.2539723 0.83417255 0.42738524
0003a0 5a 00 02 40 e1 fc 98 bf 7d 94 25 3e 87 9f a8 bf
       2.0312715 -1.1952173 0.16169925 -1.3173684
0003b0 02 58 b1 3d 01 96 c9 bf 4c 6d d0 3e 73 ce a0 bf
       0.08659364 -1.5748903 0.40708387 -1.2563003
0003c0 33 1a 91 3e c0 41 78 3f 05 a8 53 bf 79 53 88 3f
       0.283403 0.96975327 -0.8267825 1.0650474
0003d0 c0 12 17 40 37 76 89 bf b2 8b 4b 3f 2e 91 3f 3f
       2.3605194 -1.0739201 0.79510033 0.748309
0003e0 b0 f8 30 bf f7 d5 00 c0 55 8c 07 40 4d d3 78 3e
       -0.69129467 -2.0130594 2.1179402 0.24299355
0003f0 68 89 23 40 1e 91 0e 40 d7 d9 45 40 a6 cd 4c bf
       2.5552616 2.2276073 3.091421 -0.80001295

bias f4 [64]
000000 19 53 f4 bf 6c d3 45 bf 8b 06 af bf 3e 55 6a bf
       -1.9087859 -0.7727573 -1.3673872 -0.9153632
000010 54 7e a1 3e fc 8d 38 bf 30 cc 91 3e da 7e 81 bf
       0.31541693 -0.7209165 0.28476095 -1.0116837
000020 04 fd 04 bf ad f1 96 bf 03 fd 3e 3f 56 0a 7b bf
       -0.5194857 -1.1792504 0.74604815 -0.98062646
000030 7c bb 7c 3f 5b d3 db 3d 99 71 15 3f bc 8c db 3c
       0.9872358 0.10733672 0.5837646 0.026800506
000040 a5 1b fe be b7 dc f0 3f 75 2c 4d 3f ce 5d 99 bf
       -0.49630466 1.8817357 0.8014596 -1.1981752
000050 ec e5 33 be 90 56 b8 3f c7 2f 2a bf 24 ef cb be
       -0.17568177 1.4401417 -0.6647915 -0.39830887
000060 f3 cf 79 3f b1 38 7c be ef 91 82 bf 99 57 39 3f
       0.9758293 -0.24631001 -1.0200785 0.7239929
000070 ae 38 e3 bd 46 03 83 3f 53 62 d2 be 9a 2f 8a 3f
       -0.11094795 1.0235374 -0.4109064 1.0795777
000080 53 67 36 3e 9d 9d 27 bf 29 d4 4a 3f e7 ac 9b be
       0.17812853 -0.65474874 0.7922998 -0.30405352
000090 f0 3b 81 be c9 72 ea be 09 e8 76 be c5 95 cf bf
       -0.2524104 -0.457907 -0.24111952 -1.6217581
0000a0 93 aa bb be 39 e9 a6 3d 8d 05 ce bc 84 cc 9c 3e
       -0.36653575 0.081499524 -0.025149131 0.30624783
0000b0 22 63 50 3e 1e 19 01 c0 86 81 70 3e 6f e9 b0 be
       0.20350316 -2.017158 0.2348691 -0.34553096
0000c0 2b 44 bd be 36 e2 2b bf 7b 85 99 be 9d 76 fe 3e
       -0.3696607 -0.67142045 -0.2998465 0.4969987
0000d0 25 8d c9 3f 2c 50 8f be 2b 71 41 3f 5d f8 03 bf
       1.5746199 -0.27990854 0.75563306 -0.5155085
0000e0 3a 9e ab be 8f 55 17 bf 52 39 60 bf 78 fc fe 3f
       -0.33519155 -0.5911493 -0.87587464 1.9920797
0000f0 5b 9e a0 bf aa 46 de bd 13 a0 db be 02 3f aa 3f
       -1.2548326 -0.10853322 -0.42895564 1.3300478
