unet/checkpoints/one_loss/epoch_72.pth (torch, 508787 bytes, 85 tensors)

weight f4 [8, 1, 3]
000000 71 2e 45 3f eb ff 93 3d 2d f5 52 40 f1 51 00 3f
       0.7702399 0.07226547 3.2962143 0.5012503
000010 20 eb 6d c0 d3 53 26 bf 21 0d ad bf 3b 74 d6 3f
       -3.717476 -0.64971656 -1.3519632 1.6754221
000020 66 c3 5a 3f 24 dd 83 c0 0a 8d c3 be 16 7a 43 3f
       0.85454404 -4.1207447 -0.38193542 0.76358163
000030 45 45 76 3f 3a ed 28 c0 91 1d df be a3 25 51 3f
       0.96199447 -2.6394792 -0.43577245 0.81698054
000040 64 a1 81 40 60 42 85 be 69 64 ca bf 43 14 5e 3f
       4.050951 -0.26027203 -1.5811893 0.86749667
000050 5c be f0 bf ac 0f 47 40 80 1e a2 bc 95 fc 79 bf
       -1.8808093 3.1103315 -0.019789934 -0.97651035

bias f4 [8]
000000 ba 19 2a 3e 67 e7 2d 3d 4f 0f 40 3e 72 76 d4 3e
       0.16611376 0.04245701 0.1875584 0.41496617
000010 c0 05 3c be 69 a3 f6 3d 71 61 a6 be 34 d3 27 3e
       -0.18361568 0.12042887 -0.32496217 0.16389161

weight f4 [8]
000000 dc 6f a5 3f e6 fa eb 3f 90 32 f8 3f c6 fe 02 40
       1.2924762 1.8435943 1.939043 2.0468001
000010 49 da 04 3f b6 09 3b 40 14 1e 7d 3f 4a 9a 10 40
       0.51895577 2.9224677 0.9887402 2.259417

bias f4 [8]
000000 54 1e da bf a7 08 ca 3e f7 da d1 3f ec 6c 05 40
       -1.7040505 0.39459726 1.6394948 2.084773
000010 7e 45 18 40 e1 80 24 be d5 e8 04 bf 90 41 8d be
       2.3792415 -0.16064788 -0.51917773 -0.27589083

running_mean f4 [8]
000000 b3 49 36 3e 7b ff 48 3c 1b e1 87 3e 41 f4 1c 3f
       0.17801552 0.012267943 0.2653893 0.613102
000010 f9 63 6e be a2 69 9e 3d c9 bb 90 be 6b 6a f4 3a
       -0.23280324 0.077349916 -0.2826827 0.0018647438

running_var f4 [8]
000000 f9 2e 71 49 3d 51 60 49 b7 d3 f6 47 aa d3 5a 49
       987887.56 918803.8 126375.43 896314.6
000010 ea 94 9a 48 b2 41 99 49 a7 f6 b1 48 98 51 a9 48
       316583.3 1.2554782e+06 364469.22 346764.75

weight f4 [16, 8, 3]
000000 49 a7 b9 3d d6 08 cf bf 3b f5 69 c0 ae 27 c3 3f
       0.0906511 -1.6174572 -3.6555927 1.5246484
000010 58 d7 84 3f ef 9c 95 bf 96 d5 96 bf 76 fa 48 3f
       1.0378218 -1.1688517 -1.1783931 0.78507173
000020 c5 49 63 3f 0c 4b da 3f ac 9d 63 40 bd 0c 40 3f
       0.8878444 1.7054152 3.5564985 0.7501944
000030 9f 78 1b 40 4e f2 93 3f 77 ce b9 bf ba 5c 27 c0
       2.4292371 1.155832 -1.4516133 -2.6150346
000040 c3 52 d7 bf e1 e6 6b be 09 58 e8 3e 45 c2 9c bf
       -1.6822132 -0.23037292 0.45379665 -1.2246786
000050 ce 55 78 3f c2 f2 20 3f c3 45 2c bf c1 84 41 bf
       0.9700593 0.6287042 -0.6729395 -0.7559319
000060 72 31 4d 3f a9 18 b0 3f b1 0e 45 3d c4 6a 84 3e
       0.8015357 1.3757526 0.048109714 0.25862706
000070 dc 05 a7 3f 0a c5 14 bf 13 ee 9d 3f 47 37 55 3f
       1.3048663 -0.5811316 1.233828 0.8328747
000080 c6 d7 08 3f 98 ad fd bf c4 f9 e2 3d a2 4e 70 3f
       0.53454244 -1.9818602 0.11082795 0.93869984
000090 b7 c1 c8 bd 23 1e 6e 3f a3 23 8e bf 05 19 73 40
       -0.09802573 0.93014735 -1.1104625 3.798402
0000a0 88 96 03 40 ae a7 f7 3f 0b 58 f8 3e 09 e8 1a bf
       2.0560627 1.9348047 0.4850467 -0.6051031
0000b0 12 8f b0 3f 86 b9 cf be e3 a1 06 40 1a 76 53 3f
       1.3793662 -0.4057123 2.1036308 0.82602084
0000c0 64 50 d7 bf b8 ec 14 3f a6 ab f0 bf 9c 5a 8c 3e
       -1.6821408 0.58173704 -1.8802383 0.2741288
0000d0 ce a6 58 3f ba cd 04 be d1 2f 84 bf da 80 cd bf
       0.84629524 -0.12969103 -1.0327092 -1.6054947
0000e0 cd 25 51 3f 2c d5 60 c0 68 cf ea 3e 1d 0e 58 3f
       0.81698304 -3.513011 0.45861363 0.84396535
0000f0 fd d9 76 3f 3a 0c 8a 3f d5 86 2c bf 90 09 4d 3f
       0.96426374 1.0784981 -0.6739324 0.80092716
000100 e5 2a af bf 80 f9 8d bc 33 35 a3 bf 50 2e 1e 3f
       -1.3684965 -0.017330885 -1.275061 0.6178942
000110 b4 97 e9 3f 4f f6 ce 3f d6 52 8a bd 80 d7 07 c0
       1.8249421 1.6168917 -0.06754081 -2.122528
000120 c9 85 50 40 28 d2 93 3f 00 e6 7c be 52 42 1e 40
       3.2581656 1.154851 -0.24697113 2.4727979
000130 76 8e 3b 40 c1 34 23 3f db dc d1 be 9a de 75 3d
       2.9305701 0.6375237 -0.40988812 0.060026743
000140 c5 7c b3 bf ef 68 45 3f ce 18 34 40 97 2b 04 3f
       -1.4022452 0.7711324 2.814014 0.5162901
000150 2b 1e ad 3f e9 ee e0 3f 4b 52 c4 3d dc 4c 8b bf
       1.3524832 1.757291 0.09586009 -1.0882831
000160 84 65 0b 3f b1 a7 14 c0 a6 0c a6 bb 51 37 df 3f
       0.54451776 -2.322735 -0.005067426 1.7438756
000170 8d 19 e0 be cc 57 be be 04 87 ae bf fc 7e a1 3f
       -0.43769494 -0.3717636 -1.3634953 1.2616878
000180 60 e2 03 40 c6 5a ee bf fd 45 04 c0 19 8d 95 bf
       2.0606918 -1.8621452 -2.0667717 -1.1683685
000190 b2 12 13 c0 5f ca 53 bf bd d5 ea be b0 38 b5 bf
       -2.298016 -0.8273067 -0.45866194 -1.4157925
0001a0 ac cc 09 c0 7f 93 9e bf 1e f0 4c bf 1d 0c 73 be
       -2.1531172 -1.2388762 -0.8005389 -0.2373509
0001b0 ab 51 21 3f bc d3 15 bf 89 b7 02 3e bf 4b c3 3f
       0.6301524 -0.58526206 0.12765326 1.5257491
0001c0 8a ac 68 3e 05 72 97 bf 2f 23 e9 3d 05 ad 13 c0
       0.22722068 -1.1831671 0.11383664 -2.3074353
0001d0 6c a4 1d bf 94 e3 0f 40 2e c6 9d 3f 17 23 d8 3e
       -0.6157901 2.2482653 1.2326105 0.4221427
0001e0 e2 4e 1e 40 7c 54 cb be 7e f6 f0 bf 2f 2a 20 40
       2.4735646 -0.39712894 -1.8825223 2.5025747
0001f0 f5 1e d7 3f c0 43 30 40 3f b6 3c bd 93 d5 2e bf
       1.6806322 2.7541351 -0.04607224 -0.6829464
000200 f3 fe c0 bf 60 95 39 3f 67 65 01 40 ab 58 6d 3f
       -1.5077804 0.72493553 2.021814 0.9271342
000210 59 ab d6 3f 8e 5f 8c 3f e7 59 eb 3f 3e 44 c2 be
       1.6771041 1.0966661 1.8386811 -0.3794269
000220 89 cf 39 3e 16 2b b0 bf 0c c2 39 3e bd 89 9e 3f
       0.18145575 -1.3763149 0.1814043 1.2385784
000230 9f 3f 2b bb 7f 6a 95 3f 3e a2 56 3f c2 b4 80 3f
       -0.002613045 1.1673125 0.8384131 1.0055163
000240 66 40 66 3f 2e f3 10 bf ae b6 80 3f ed 21 5e c0
       0.89942014 -0.5662106 1.005575 -3.4708207
000250 05 ae 71 3f c7 68 13 3e 3c a8 09 c0 84 27 61 bf
       0.9440616 0.14395438 -2.1508932 -0.8795092
000260 79 40 31 be c6 65 9c bf 53 5d 1d c0 fe 7a d6 3e
       -0.1730975 -1.2218559 -2.458821 0.4189071
000270 6b 58 1c c0 0d c9 38 3f 99 e0 0a 3f a1 f0 8d 3d
       -2.4428966 0.7218178 0.5424896 0.06930662
000280 b2 8a 14 bf 46 71 5a be 0c b7 26 3f 5c c8 f9 3f
       -0.5802413 -0.21332273 0.6512306 1.951427
000290 e1 f9 c5 bf 1a fa 79 3f ba a6 dd bf 4e 0c d8 bf
       -1.5466882 0.9764725 -1.7316506 -1.6878755
0002a0 ed d5 a9 3f c5 50 5d 3f 8a 73 af 3e de 62 36 3e
       1.326841 0.8645137 0.34267837 0.17811152
0002b0 34 45 1e c0 e8 86 b3 3e 1d 8e 0d bf 78 90 db 3f
       -2.4729738 0.35063863 -0.5529497 1.7153463
0002c0 3a 13 38 c0 7d 91 1f bf 1d eb 73 3f 3a 19 68 bf
       -2.8761735 -0.6233137 0.9528063 -0.9066349
0002d0 79 ab eb 3e da 3b 15 c0 8c 0e 94 be a2 46 f6 3f
       0.4602926 -2.331778 -0.28917348 1.9240305
0002e0 52 e6 cf 3f c3 81 2a bf 01 db 17 c0 14 54 8d 3f
       1.6242163 -0.6660425 -2.372742 1.1041284
0002f0 4c 1c c3 3e 46 f2 9a 3e c6 36 c3 3f 71 2b 92 3e
       0.38107526 0.30262965 1.525109 0.28548768
000300 d4 06 a5 3f 72 3c fd bf bc 12 d1 3f 59 2a ce be
       1.2892709 -1.9784071 1.6333842 -0.40266684
000310 a1 9b 25 3f 8a cf f1 3e 0d 2c 6d bf 2e 4e 56 c0
       0.64690596 0.47228652 -0.9264534 -3.3485217
000320 c4 3e 57 3d 67 97 34 c0 56 c9 9c be a5 43 74 3e
       0.052550092 -2.8217409 -0.30622357 0.2385393
000330 35 4e 7f be d4 d2 16 3f c0 ac 06 40 6f 97 8f 3c
       -0.24932177 0.5891545 2.1042938 0.017528264
000340 76 9f 20 bf ee 65 6b c0 93 05 88 bf 7e 23 96 bf
       -0.6274332 -3.6780963 -1.0626701 -1.1729581
000350 5e 1f 51 3f 58 10 d1 3f c1 a3 19 be 78 39 17 3e
       0.8168849 1.6333113 -0.15003873 0.14768016
000360 9b ca 20 c0 96 28 51 bf 56 6d 19 bf 87 cf d0 3d
       -2.512366 -0.81702554 -0.5993246 0.10195833
000370 f5 3c 8f be c5 b9 2e 40 1d 8c 9c be f8 a0 2a bf
       -0.27976194 2.7300885 -0.30575648 -0.6665187
000380 77 40 11 c0 2b 91 10 c0 bf 14 d7 3e 7e 29 37 bf
       -2.2695596 -2.2588603 0.42008016 -0.7154769
000390 df 02 a6 3e be 06 22 3f e4 be 4d 40 74 83 e3 3d
       0.32424065 0.6329154 3.214776 0.11109057
0003a0 7d 66 e1 bf ee f2 1f c0 b4 ab e4 bf be ee aa 3f
       -1.7609402 -2.4992023 -1.78649 1.3354108
0003b0 30 c4 5d bd aa dd ba 3f a4 4c a3 3e 6b 80 a1 be
       -0.054142177 1.4598897 0.3189441 -0.31543288
0003c0 f3 c0 39 3e f0 79 0b 3f 9f 13 84 bd 00 7a f5 3f
       0.1814001 0.54482937 -0.06449055 1.9177856
0003d0 16 82 0a 40 21 6d 01 40 2b a4 ea be 83 c1 0a bf
       2.1641898 2.0222857 -0.45828375 -0.54201525
0003e0 de 11 88 be a0 58 08 3f da 71 dc 3f 5e fc da 3f
       -0.26576132 0.5326023 1.7222245 1.7108266
0003f0 a6 c8 c0 3f dc d1 ab 3f de df ba 3f 06 aa 02 bc
       1.5061233 1.3423419 1.4599569 -0.007975107

bias f4 [16]
000000 86 82 2f bf 17 82 84 3f fc c0 68 3e d7 88 67 3e
       -0.6855854 1.03522 0.22729868 0.22610794
000010 42 a0 69 3f 98 c4 7b 3f e9 65 5d 3f c7 fa ca be
       0.9126016 0.98346853 0.8648363 -0.39644453
000020 85 9c 75 3f 10 87 f3 bd a2 df b3 bd 19 47 01 bf
       0.95941955 -0.118909955 -0.08782889 -0.5049911
000030 f2 1b 04 3f 81 27 a2 3f f8 f2 15 40 39 db 87 3f
       0.5160514 1.2668306 2.3429546 1.0613776

weight f4 [16]
000000 a0 ba bd 3f 22 83 e7 3f 70 93 97 3f 0c 05 d6 3f
       1.4822578 1.8086894 1.1841869 1.672029
000010 89 c1 d6 3f 1b ee 8d 3f 2e ce 3a 3f a4 3d 5d 3f
       1.6777812 1.1088289 0.72970855 0.8642218
000020 8d 83 98 3f 91 7a 98 3f 5e 72 83 3f 9c 76 dd 3f
       1.1915146 1.1912404 1.0269277 1.7301822
000030 c6 c3 f2 3f 4c 40 08 40 36 cd c6 3f 42 f5 bd 3f
       1.8965995 2.1289244 1.5531375 1.4840472

bias f4 [16]
000000 47 b6 a6 3f 80 85 ab bf d0 53 a7 3e fd 05 a2 3e
       1.3024377 -1.3400116 0.3268113 0.31645194
000010 bf f8 2f 3f 58 76 a3 3d 32 d3 1d 3f cf 6a 1a 40
       0.6873893 0.07981557 0.61650383 2.412769
000020 a3 af 6a 40 f5 e5 7f 3f 9c a3 60 be bb 0a a3 be
       3.66697 0.9996026 -0.21937412 -0.31844124
000030 51 0e 8b be 1e 5a 46 3f a6 e3 ce 3e 53 2d 7e 3f
       -0.2715936 0.7748126 0.40408057 0.9928791

running_mean f4 [16]
000000 d0 e3 69 41 c1 c0 58 41 67 8b 9a c0 3a e9 85 41
       14.618118 13.547059 -4.829517 16.73888
000010 5a c8 48 c1 f6 c8 b8 41 ac 35 9a c1 3f 6c f3 c0
       -12.548914 23.098125 -19.276207 -7.6069636
000020 85 23 1f c1 fb ed 34 c0 b7 13 a6 41 e9 0c 83 41
       -9.946172 -2.8270252 20.759626 16.381304
000030 57 1e a1 be e9 03 c0 40 d8 0c 91 c0 52 20 01 41
       -0.3146846 6.0004773 -4.532818 8.070391

running_var f4 [16]
000000 ba 84 ca 43 f7 9a bb 43 d1 86 8f 42 2d f6 c9 43
       405.03693 375.21066 71.76331 403.92325
000010 55 eb e5 42 a5 53 aa 43 97 01 6f 42 39 ea e6 42
       114.95963 340.65347 59.751553 115.457466
000020 63 87 0b 43 8b cb 1f 43 17 60 b7 43 c5 b9 30 43
       139.52885 159.79509 366.7507 176.72566
000030 c3 66 0a 44 6c 73 3b 43 86 a1 6b 42 0c 2d 20 44
       553.60565 187.45087 58.907738 640.70386

weight f4 [16, 16, 3]
000000 b5 37 33 c0 32 8f ed 3e 49 1f 02 be b0 ed d1 3f
       -2.800275 0.46398312 -0.12707247 1.6400661
000010 7e 35 89 3f 1a 19 8e bf d4 6e 0a c0 06 35 c2 bf
       1.071945 -1.110141 -2.1630144 -1.5172431
000020 cb 92 5a bf 31 9d c2 bd a9 41 94 3e e2 2d b1 3d
       -0.8538024 -0.09502638 0.28956345 0.086513296
000030 c5 51 05 be 30 d8 53 3f c1 48 ca 3f 7c a6 86 3d
       -0.13019474 0.8275175 1.5803453 0.06574723
000040 90 5d 8f bf 61 f8 a3 be ca e0 11 bf 22 84 c7 3d
       -1.1200428 -0.32025436 -0.56983626 0.09741999
000050 08 10 92 3f 96 63 ce 3e 45 5f 29 3f ad b8 8f bf
       1.1411142 0.40310353 0.66160995 -1.1228234
000060 1c a2 48 bf 14 25 ea 3e 47 ea 48 40 b7 4d f9 bb
       -0.7837236 0.45731413 3.1392992 -0.0076081413
000070 5d 11 ab bd 73 16 f2 3e e7 56 dc 3d ef 1f 20 bf
       -0.08352921 0.47282752 0.10758763 -0.62548727
000080 cd ea 03 bf 0f 6d 02 bf 4b db 39 bf 31 f9 2d c0
       -0.5153015 -0.5094766 -0.7260024 -2.7183344
000090 75 0e 00 40 e4 74 d3 3f d6 9c 08 bf 0d 46 2a bf
       2.0008824 1.6520047 -0.5336431 -0.6651314
0000a0 c0 d5 c5 bf 52 0a 49 c0 83 c9 e2 bf 34 5e 02 3d
       -1.5455856 -3.141255 -1.7717746 0.03182812
0000b0 b6 79 8c bf 62 13 10 3e 2f aa 9a 3f 09 9e 58 3f
       -1.0974643 0.14069894 1.2083186 0.8461614
0000c0 da f4 27 c0 cd 1f af 3e ba 59 66 3f 6d 23 c7 bf
       -2.6243196 0.3420395 0.8998066 -1.5557686
0000d0 9c 86 41 bf 9f e5 0a 3f ae c9 a1 bf 81 8c 6b 3f
       -0.7559602 0.54256624 -1.2639673 0.92011267
0000e0 d3 24 ba be fe 82 d6 be 40 f9 16 3f 9d fa 85 3f
       -0.3635622 -0.41896814 0.58974075 1.0467106
0000f0 d8 1c 63 40 8c 89 c5 3e 36 b9 01 bf 86 73 7f bd
       3.5486355 0.38581502 -0.50673234 -0.06236603
000100 28 e8 db 3e a2 fe fc 3e cd 5e d8 be c3 65 6a 3f
       0.4295056 0.4941302 -0.42259827 0.91561526
000110 96 4a 1c 3e f7 6e e5 be 45 d2 d3 bf 0f 9b fc bf
       0.15262827 -0.44811222 -1.6548544 -1.973482
000120 2c 03 59 bf bd c2 99 3f 39 47 c0 bf 30 ec 3a bf
       -0.84770465 1.2012554 -1.5021735 -0.73016644
000130 2f ae 78 3f 2e d9 17 c0 14 a7 ac bc 7a 20 30 3f
       0.97140783 -2.3726306 -0.021075763 0.68799555
000140 86 dd 01 3f 0d 46 c1 bf 10 8b 97 3f c7 f6 96 bf
       0.5072864 -1.5099503 1.1839314 -1.179406
000150 2b 75 a4 3f f5 14 2b be 8b 16 85 be e5 4a 90 c0
       1.2848257 -0.16707213 -0.2599376 -4.5091424
000160 c8 39 77 bf ce 56 2c bf be 18 6f c0 c7 8e 8e bd
       -0.9657254 -0.67319953 -3.7358851 -0.06960826
000170 8a 34 19 c0 b2 f4 29 bf d4 22 d0 3f e0 e6 a5 3e
       -2.3938317 -0.66389 1.6260629 0.32402706
000180 26 23 da bf e5 1f 3b c0 28 e9 8c bf dd 50 66 40
       -1.7041976 -2.9238217 -1.1008654 3.5986855
000190 c1 e9 07 3f d5 8a e6 bf 61 75 be bf bf 35 30 3f
       0.53091055 -1.8011118 -1.4879571 0.6883201
0001a0 51 c5 41 bf 52 d2 90 bf 91 d4 df bf 66 63 88 bf
       -0.75691706 -1.1314185 -1.7486745 -1.0655334
0001b0 4e 2f be 3e a9 6c b8 3d 55 1a 8e 3f 2c 4c cf 3c
       0.37145466 0.090051 1.1101786 0.025304876
0001c0 2a 38 b5 bf 56 72 8b be df 4f 23 c0 6d bf e6 3f
       -1.4157765 -0.2723567 -2.55175 1.8027169
0001d0 c0 28 a9 3e 97 24 3b 3f 71 ba 30 3f 10 7b 15 3f
       0.33038902 0.73102707 0.69034487 0.58390903
0001e0 a5 5a 0a c0 50 b4 29 3f 67 2c 8d 3f e4 74 2c c0
       -2.1617825 0.6629076 1.1029176 -2.6946344
0001f0 bb 2f f5 bf 5a 8a b4 3e aa 03 83 3e 1f bb 6b bf
       -1.9155191 0.35261804 0.25588733 -0.920824
000200 b3 15 71 3e 6f 30 9f bf dd 5b 2c 3f e2 da 0f c0
       0.23543434 -1.2436656 0.6732767 -2.2477345
000210 7b 61 2c 40 0b d7 b8 3f 52 9e 8d bf 02 f0 f5 3e
       2.6934497 1.4440626 -1.106394 0.48034674
000220 1d 96 56 be d9 99 16 bf 0e ba 1a bb b6 19 b7 3e
       -0.20955701 -0.588285 -0.0023609432 0.35761803
000230 b1 e1 43 bf 6f 52 b7 bf e2 15 ee bf e9 c1 ab bf
       -0.7651625 -1.4322032 -1.8600428 -1.3418552
000240 c2 2a e0 bc 78 e6 be be 22 49 54 3f f1 d1 e8 bf
       -0.027364139 -0.3728521 0.8292409 -1.8189069
000250 40 0e df 3e 34 8a a0 3f 0e 53 08 3f b3 2a 02 bf
       0.4356556 1.2542176 0.5325173 -0.50846404
000260 34 14 28 c0 76 41 ac be 48 ab c9 3e ec d1 db 3e
       -2.626233 -0.33643693 0.3938849 0.42933595
000270 07 e9 38 3f f3 47 dc 3e 2c 21 6f bf f5 2a 9c be
       0.7223057 0.43023643 -0.9340999 -0.30501524
000280 73 2c 8b 3f 67 a0 11 3f 6c 67 74 3f fd b5 ae be
       1.087294 0.5688538 0.9547031 -0.3412322
000290 f1 c1 41 bf bf ef e9 be b8 92 49 bf 01 5f 30 be
       -0.75686556 -0.45690724 -0.787395 -0.17223741
0002a0 58 f6 c0 3f c1 0e 2a 3f 23 b2 af c0 9c d8 a9 3f
       1.5075178 0.6642876 -5.490495 1.3269229
0002b0 72 14 bf 3e 26 18 f3 bf e6 39 5b bf 50 57 99 3f
       0.37320286 -1.8991745 -0.8563522 1.1979771
0002c0 d1 f1 8d 3e 4a 07 b6 3e 9c 2d 53 3f 98 51 7e be
       0.27723554 0.35552436 0.8249147 -0.24835813
0002d0 b5 64 11 c0 90 cf 50 3d ab 94 c4 3f e0 85 44 3e
       -2.2717717 0.050979197 1.535787 0.19191694
0002e0 11 cb 22 3f 12 b9 46 40 c4 08 7a bf 0f 1f 54 bf
       0.63591105 3.1050458 -0.97669625 -0.8285989
0002f0 11 a3 3a c0 cc 42 1b 3f 7c fb 70 3f 7a 5d 87 3e
       -2.9162028 0.606488 0.94133735 0.26438504
000300 7e 29 05 3f 87 4e 89 3f 20 ff ec be d8 d3 e2 be
       0.5201644 1.072709 -0.46288395 -0.4430225
000310 56 af 00 c0 22 f7 72 bf f6 9d 15 c0 e2 fd 89 3d
       -2.0107017 -0.94908345 -2.3377662 0.067378774
000320 8e 5e 99 bf e7 d7 ac 3f aa b8 af 3f 2a a5 12 c0
       -1.1981981 1.3503388 1.372823 -2.2913308
000330 bc 6a 05 3f a4 a2 c9 bd e3 48 f5 bb 3c a1 b9 3f
       0.5211599 -0.09845474 -0.0074854954 1.450233
000340 29 e8 89 3f fa d1 08 c0 32 cb ef bf bc 98 88 3f
       1.0773975 -2.137816 -1.8733885 1.0671611
000350 6b a6 50 be a9 fc eb be 56 10 ac bf 3b 83 99 bf
       -0.20375983 -0.46091202 -1.3442485 -1.1993173
000360 0b 97 8f bf aa fa 44 be e9 d5 b6 bf 6a 5b 21 be
       -1.121797 -0.19236246 -1.428403 -0.15757528
000370 ae 4e 92 be 23 38 29 c0 23 dd c4 3f 04 cb 0b 3f
       -0.28575653 -2.6440513 1.5379986 0.5460665
000380 88 37 0d c0 00 97 cb 3f 26 f6 85 3e 7b 2d 27 c0
       -2.2065144 1.5905457 0.2616436 -2.612151
000390 d9 f8 aa bd c1 53 01 c0 f7 d4 8d bf 4c 46 ce bf
       -0.08348245 -2.020737 -1.1080617 -1.6115203
0003a0 6a 09 26 bf 14 4c 8f 3e 79 50 a2 bf a9 a8 2c c0
       -0.64858115 0.2798773 -1.2680808 -2.6977942
0003b0 db 07 ff 3c 38 3e 27 3f 0c 6b 5f 3f b2 ee c2 bf
       0.031131675 0.65329313 0.87272716 -1.5229094
0003c0 10 0a fc bf 65 92 00 3f aa d3 ce 3f fe ec e5 3f
       -1.9690571 0.5022338 1.6158345 1.7962949
0003d0 f8 fa 55 3f 4b a1 f7 bf 57 6e 76 3f e6 d3 af 3b
       0.8358607 -1.9346098 0.96262115 0.0053658364
0003e0 1a 5a 99 3e ae b1 61 bf a9 d7 da 3f b9 dd 1a 40
       0.29951555 -0.8816174 1.7097064 2.4197829
0003f0 ca 55 d1 3f 11 12 17 3f 93 7e 8e bd 77 bd 4f bf
       1.6354306 0.5901194 -0.06957736 -0.81148475

bias f4 [16]
000000 2c 64 5e 3e 04 ff 49 3f ae 9f aa bd 78 e1 e1 be
       0.217179 0.7890475 -0.08331238 -0.44117332
000010 02 0c ca 3f a3 70 86 3f 0f a1 c0 be 85 d1 ab 3d
       1.5784914 1.0503124 -0.37622878 0.08389572
000020 99 5b cc 3e 18 38 7f 3f a2 82 ea bf 59 c4 06 bf
       0.39913633 0.9969497 -1.8321116 -0.5264335
000030 fc c7 52 3f 2d 97 ce bf 06 8a ac bf 55 4f bc bf
       0.823364 -1.6139885 -1.3479621 -1.471171

weight f4 [16]
000000 f3 ed 9f 3f e2 2f 1c 40 48 94 11 40 f3 3a ee 3f
       1.2494491 2.4404225 2.2746754 1.861174
000010 7d 82 18 40 ee ec 10 40 ef f0 e7 3f bb f7 63 3f
       2.3829644 2.264461 1.8120402 0.8904988
000020 8c d4 f0 3f b4 7e e1 3f 69 28 fb 3f e5 4e 1e 40
       1.8814864 1.7616792 1.9621707 2.4735653
000030 b9 88 03 40 65 dc 1d 40 45 47 10 40 0e 20 d1 3f
       2.05522 2.4665768 2.25435 1.6337907

bias f4 [16]
000000 29 89 f2 3f c7 72 9d be 9b 8e a0 3e de 5e bd be
       1.8948108 -0.3075163 0.313588 -0.3698644
000010 0d 33 22 3f 66 4a 56 3f 16 66 5f 3e 94 b2 c7 3f
       0.6335915 0.83707273 0.21816286 1.5601373
000020 26 45 0c 3f ad 78 8b 3f d6 90 40 3e 20 17 ef 3e
       0.5479301 1.0896202 0.1880525 0.4669733
000030 9a 9b 26 be bc 79 72 bf cc 1d fa 3e eb 76 5f bf
       -0.16270295 -0.94717 0.48850858 -0.8729083

running_mean f4 [16]
000000 bf 31 36 c0 6a b8 f3 c1 d5 da b1 c1 04 4d 6e c1
       -2.8467863 -30.465046 -22.231852 -14.893803
000010 ee a4 0a c2 d1 6d d9 41 96 56 78 c2 ff b7 91 c1
       -34.661064 27.178621 -62.084557 -18.214842
000020 38 88 a2 c1 7a 22 98 41 3e 14 70 c1 a5 dd e0 41
       -20.316513 19.016834 -15.004942 28.108225
000030 41 48 34 c1 15 af 23 c1 b3 e5 6e 41 45 97 54 c2
       -11.26764 -10.230245 14.931079 -53.147724

running_var f4 [16]
000000 fe 7b 55 43 b0 56 62 43 29 db 73 44 63 21 8c 43
       213.48434 226.33862 975.4244 280.26083
000010 8b ba 8e 43 54 71 03 44 82 57 48 44 7c eb ed 43
       285.45737 525.77075 801.3673 475.83972
000020 11 bb 5f 44 90 de 68 43 f9 7a 85 43 7f 99 09 44
       894.9229 232.86938 266.96072 550.3984
000030 d4 a9 03 44 df f1 8f 43 12 28 95 43 c8 72 30 43
       526.65356 287.88962 298.31305 176.44836

weight f4 [32, 16, 3]
000000 6d 94 0e bf e9 ba c9 bf 9a 82 44 be 0a d1 86 3f
       -0.5569523 -1.5760165 -0.19190446 1.0532544
000010 fa 40 4d 3e 1e 3c ea bf 6b 20 92 3f e5 b9 75 bf
       0.20044318 -1.8299596 1.1416143 -0.9598678
000020 6f 0f 11 3f c5 16 26 3d e0 6a 2d 3e 6d 8e ec bf
       0.56664175 0.04054906 0.16935301 -1.8480965
000030 aa 86 39 c0 27 38 72 bf ec 04 2a bf ac bd 9d bf
       -2.8988442 -0.9461693 -0.6641376 -1.2323508
000040 8e 59 a1 bf 6e d8 d0 bf 11 66 38 3f 00 f5 99 bf
       -1.2605455 -1.6316049 0.7203074 -1.2027893
000050 6c 9b 71 bf 7a 5a 96 bf e3 06 17 3f 68 3b 69 bf
       -0.9437778 -1.1746361 0.58994883 -0.9110627
000060 92 66 77 be 20 b2 75 3c 31 22 dc be 6c 1f 98 3e
       -0.24160221 0.014996082 -0.42994836 0.29711473
000070 8c f7 8f bf d9 40 60 c0 68 ef 6f c0 e1 75 23 3f
       -1.124742 -3.503958 -3.7489872 0.63851744
000080 4f da a4 bf 98 d6 0b bf a9 65 fb bf 21 e4 49 c0
       -1.2879122 -0.5462432 -1.9640399 -3.154549
000090 18 06 d2 bf 68 c7 e6 bf 46 33 fa bf 4b 6a 62 bf
       -1.640811 -1.8029604 -1.9546897 -0.8844344
0000a0 2a 47 92 bf 14 2d 06 3c 85 ae 49 bf 98 34 98 bf
       -1.1427968 0.008189458 -0.7878192 -1.189105
0000b0 50 95 6a 3f cc 0b 8f bf ed 40 eb 3e e2 a7 9e bd
       0.9163408 -1.1175475 0.45947972 -0.07746865
0000c0 24 ae 1f bf 26 42 7e 3d 2a 9c 07 3f 62 0f 0d c0
       -0.6237509 0.062074803 0.5297266 -2.204064
0000d0 22 6b 86 3f e6 b5 2b 3e 9e d3 5b bf 9c 2a e2 be
       1.0501444 0.16768607 -0.8586978 -0.44173133
0000e0 45 80 64 bd 52 bc 4e bf 5a 65 00 be 8f 52 5c 3f
       -0.05578639 -0.80756104 -0.12538663 0.86063474
0000f0 3f f8 ad bf 80 63 09 c0 0b e2 8b 3f 8c dd e4 be
       -1.3591384 -2.146698 1.0928358 -0.44700277
000100 3c 99 78 3e 35 99 d9 3f d2 21 65 3b ac bd 36 3f
       0.24277204 1.699988 0.0034962785 0.71383166
000110 d7 e9 44 3f cd 35 58 3f 78 7a 93 3f 27 40 88 3f
       0.7691931 0.84457093 1.152175 1.0644578
000120 46 05 03 3f b0 a4 fe 3f 2b f9 86 3f ee 0d ca bf
       0.5117992 1.9894009 1.054479 -1.5785501
000130 1e 9f 47 3e 7a db ec be f1 a2 89 be a1 86 03 3f
       0.19494292 -0.46261197 -0.26882127 0.513773
000140 45 95 e1 be 70 98 1b c0 31 15 3e bf 4b 4c 23 bf
       -0.44059196 -2.431179 -0.74251086 -0.6378829
000150 01 3e 8a 3e 91 a4 94 3f 86 db 46 40 84 3f 90 3c
       0.2700043 1.1612722 3.1071486 0.017608412
000160 61 71 a7 3f 21 e1 61 40 47 44 b8 bf c6 53 08 be
       1.3081475 3.5293658 -1.4395837 -0.13313207
000170 67 12 1b be 1e 14 06 c0 09 6d 9d bf d2 c0 32 3f
       -0.15143739 -2.0949779 -1.22989 0.6982547
000180 aa 40 33 bf 14 99 ad bf 6a ca b2 bf b4 05 b0 bf
       -0.70020545 -1.3562341 -1.3968022 -1.375174
000190 e6 c8 a6 be b6 c8 e8 3f 81 d8 b5 bf 27 eb 02 c0
       -0.32575148 1.8186252 -1.4206697 -2.0456026
0001a0 ab 28 b9 bf 33 5f 13 c0 8e be d1 3c 64 b0 a6 3e
       -1.4465536 -2.3026855 0.025603559 0.3255645
0001b0 6d e5 db be 2e 16 02 c0 cc 31 ad bf e3 e3 01 c0
       -0.42948475 -2.0326037 -1.3530822 -2.029534
0001c0 b7 36 dd bd b5 d1 c1 3f 82 dc 5e bc c7 5a 4f 3e
       -0.10801452 1.5142123 -0.013602378 0.20249473
0001d0 73 81 7f 3d ea 33 c9 3f 8a 8c 7b 3f 36 65 60 3e
       0.06237931 1.5718968 0.9826132 0.21913609
0001e0 9c 5e 5e 3f 39 83 ab 3f a1 11 2b bf bd c2 4f bf
       0.8686311 1.3399421 -0.66823775 -0.8115652
0001f0 65 03 25 c0 07 b8 3a 3d 3c 31 81 bf 22 8f b4 3f
       -2.5783322 0.04558566 -1.009315 1.4106181
000200 13 04 3c 3e c5 64 22 c0 32 4c fb bf f0 77 8e bf
       0.18360929 -2.5374005 -1.9632628 -1.1130352
000210 dd f4 5f bf 68 ed 93 3f 9e 09 02 40 e3 45 c7 3c
       -0.87483007 1.1556826 2.031837 0.024325317
000220 50 8c 27 3f 26 ed 0a 40 72 f9 d4 bf 28 1e 0e c0
       0.65448475 2.1707244 -1.6638625 -2.2205906
000230 6f 94 4e 3f e3 61 02 c0 7f 77 97 bf 45 cb 20 3d
       0.8069524 -2.0372245 -1.1833342 0.039256353
000240 43 2c 04 40 5f 29 27 3f e2 ab 0f c0 15 69 8f be
       2.0652015 0.652975 -2.244866 -0.2800986
000250 96 d0 04 bf 3f 15 96 3f f9 05 10 40 a1 78 9b 3e
       -0.51880777 1.1725234 2.2503645 0.3036547
000260 81 1a 10 c0 bb e8 14 3f 29 30 0b c0 10 da bd 3f
       -2.2516177 0.5816762 -2.1748145 1.4832172
000270 92 2f 2a c0 db d2 c1 be 9e 8d 87 3f 55 ec d2 3f
       -2.6591535 -0.37856182 1.0590093 1.6478373
000280 ef 23 f0 3f 56 d4 f0 bf 5c 92 32 3f 7f 37 e1 bf
       1.8760966 -1.88148 0.69754577 -1.7595061
000290 f5 d5 ef 3d e3 b4 1e c0 05 0a aa bf 98 86 8f 3f
       0.11710731 -2.4797904 -1.3284308 1.121295
0002a0 2d 44 81 bf 48 c1 66 bf 4e 40 f3 bf e3 dc 7f bd
       -1.0098931 -0.90138674 -1.9003999 -0.062466513
0002b0 fa 38 3a be 2b d2 a1 3f a1 2a af bf 29 03 49 3e
       -0.18185797 1.2642263 -1.3684884 0.19630112
0002c0 0e ed 88 3f 55 25 d2 3e fb ab 02 3c 34 c5 33 40
       1.0697343 0.41044107 0.007975574 2.8089113
0002d0 49 e9 8f be e4 b5 03 bf 42 85 8d bf 2d 2c 67 3e
       -0.2810767 -0.5144942 -1.1056292 0.22575445
0002e0 98 11 54 3b c2 37 f3 bf 16 17 21 3f 9b b4 72 bf
       0.003235912 -1.9001391 0.6292585 -0.9480683
0002f0 4a 40 f9 bf e9 88 5e bf 1e 76 07 3e f2 ed 03 c0
       -1.9472744 -0.8692766 0.13228652 -2.061398
000300 44 4e a9 bf 6d 84 8d bf 8c 0d 16 c0 63 f5 9e bf
       -1.322701 -1.1056038 -2.3445768 -1.2418636
000310 1b 26 ae be 2f ea 02 bf ae 4a 0a bf ba 2f b7 3e
       -0.34013447 -0.51138586 -0.540202 0.357786
000320 dc b5 84 3f 7e 2a d3 3b 3b 60 22 bf e0 3d 9d 3f
       1.0367999 0.0064442744 -0.63428086 1.2284508
000330 ca 2b 09 c0 37 57 4b c0 be 6f ce bf 5e 19 42 c0
       -2.1432977 -3.1771982 -1.6127851 -3.0327983
000340 5a 4f bf bc 45 1b 87 3f 6b 87 6f 3e f3 98 f2 be
       -0.023353267 1.0555197 0.23391502 -0.47382316
000350 f0 3b db be 0f 4a e3 3e 25 a4 db bf 7e dd 3f c0
       -0.42819166 0.4439244 -1.7159468 -2.9978938
000360 4f 23 9c 3f 77 bd 98 3e 66 4f 84 bf f9 a9 1f c0
       1.2198275 0.2983205 -1.033673 -2.4947493
000370 84 69 6e c0 21 ef 61 3f ec 78 cf bf 81 8a 01 bf
       -3.7251902 0.88255507 -1.6208777 -0.50601965
000380 b2 9d 3a 3f 72 8f 95 bf 4e 0d cd 3e 5d 94 07 bf
       0.72896874 -1.1684401 0.40049213 -0.5296076
000390 23 dc e8 bd 11 be 3f be 85 a6 36 3f e7 bf 68 bf
       -0.11370113 -0.18724848 0.7134784 -0.9091782
0003a0 d2 e5 8a be 75 55 69 40 85 db 57 bc 69 c9 50 3f
       -0.27128464 3.645841 -0.013174896 0.8155733
0003b0 53 8e 30 3f ca ae 8e bf c5 48 e4 bf 42 53 c2 3f
       0.6896717 -1.1147091 -1.7834707 1.5181658
0003c0 54 8b 7d c0 f8 2a 4e 3f f6 df f2 bd 8e a8 42 3e
       -3.961629 0.80534315 -0.118591234 0.19009611
0003d0 0a c0 1a c0 fa c9 16 3e 92 13 3c c0 99 46 b8 3e
       -2.4179711 0.14725485 -2.9386945 0.35991362
0003e0 80 13 98 3f 87 09 7b 3f bd 90 a2 bf 80 6f bd bd
       1.1880951 0.9806141 -1.2700421 -0.092497826
0003f0 14 a5 17 bd 45 da 69 3f 74 76 17 c0 da b5 76 be
       -0.037022665 0.9134868 -2.3666048 -0.24092808

bias f4 [32]
000000 83 b7 45 3e d7 86 14 bf 15 51 7a 3f d4 65 fb bd
       0.19308285 -0.5801825 0.9777997 -0.122752815
000010 7c c9 e1 3e d9 36 f2 3e 26 a4 ea be cb 8e 03 bf
       0.44099033 0.4730747 -0.4582836 -0.5138976
000020 94 4b f0 3c 81 41 82 3f 5b a8 5c be 9a 78 eb 3e
       0.029332913 1.017624 -0.21548598 0.4599045
000030 c2 66 ad be 1c 17 51 3f 87 1c 86 bd 37 22 86 be
       -0.3386746 0.8167589 -0.0654841 -0.2619798
000040 40 51 00 3f 1e 14 3c 3f 4e 45 00 40 52 28 05 3f
       0.5012398 0.73468196 2.00423 0.5201465
000050 9f 76 aa 3f d4 d8 b7 3d 5c 72 d8 3f b7 40 fe bd
       1.331745 0.089769036 1.69099 -0.12414687
000060 25 4d 66 bf eb 74 ce 3f 4e 54 80 3f c4 d8 a5 bf
       -0.89961463 1.612943 1.0025728 -1.2956777
000070 bd f4 36 3f 01 8c e6 be 99 9f 3f 40 06 f7 05 3f
       0.7146719 -0.4502869 2.994116 0.5233005

weight f4 [32]
000000 44 af fa 3f 96 83 d8 3f e2 f9 01 40 35 e2 f8 3f
       1.9584737 1.6915157 2.0308766 1.9444033
000010 14 a3 02 40 64 0f f0 3f 0b 46 de 3f ae fa bb 3f
       2.0412035 1.8754697 1.7365125 1.4685876
000020 e1 1d 9b 3f 7b c7 ba 3f c8 a1 01 40 a4 cc 03 40
       1.2118493 1.4592127 2.0254993 2.0593653
000030 3d cb 05 40 32 b0 61 3f 67 0b 0d 40 f0 f4 b9 3f
       2.0905297 0.8815948 2.203821 1.4527874
000040 18 d6 15 40 80 b5 0b 40 4d 6d ab 3f dd 41 81 3f
       2.3411922 2.182953 1.3392731 1.0098225
000050 48 43 06 40 34 73 c8 3d f7 7b df 3f 33 c8 01 40
       2.0978565 0.09787598 1.7459706 2.0278442
000060 12 35 0c 40 2c da bf 3f ba ac d3 3f c0 3c dd 3f
       2.1907392 1.4988456 1.6537087 1.7284164
000070 06 b7 c2 3f 8f b8 04 40 56 c3 02 40 d1 b5 c4 3f
       1.5212104 2.0737646 2.0431724 1.5367986

bias f4 [32]
000000 64 fb c5 be 0b f3 a0 bf 00 10 bc 3e f8 66 15 3f
       -0.38668358 -1.2574171 0.36730957 0.5836024
000010 c1 4f 71 be 2c 24 29 3e 23 db a8 bf b5 2e e6 bf
       -0.2356558 0.16517705 -1.3191875 -1.7983004
000020 89 0b fe bf a6 98 45 bf 30 a2 aa bf 0a fb 23 3f
       -1.984727 -0.7718605 -1.3330746 0.6405493
000030 9f 68 0a bd 80 19 a3 3f 65 fd 88 be c4 46 12 bf
       -0.03379118 1.2742157 -0.26755825 -0.5713923
000040 95 bd 85 3f 34 5d f1 be c5 87 c0 3f 43 3e 51 be
       1.0448481 -0.4714142 1.5041434 -0.20433907
000050 5e e8 06 3f 9e a1 8d bf 0c d4 96 be 82 2e ec bd
       0.52698314 -1.1064947 -0.29458654 -0.11532308
000060 55 2f 5f bd 7d e5 0a c0 77 bb f1 3f 75 24 57 be
       -0.0544885 -2.1702569 1.8885335 -0.21010001
000070 3a 95 03 bf 6f 65 2a bf 6e 7e 19 bf 47 59 58 3f
       -0.51399577 -0.66561025 -0.5995854 0.84511226

running_mean f4 [32]
000000 0b 4a 25 c2 cd 29 60 40 f3 fc a7 c1 53 3f f6 c0
       -41.322308 3.5025513 -20.99851 -7.69523
000010 79 fd 05 c2 10 cc d9 c1 fc df ae 41 68 cb 77 41
       -33.49753 -27.22464 21.859367 15.48716
000020 56 e4 c4 41 15 ed 9a c1 ac 92 30 3d d8 dc b7 40
       24.611492 -19.365763 0.043108627 5.7457085
000030 d2 79 f3 c0 95 6d 11 c1 a6 7a 8a c1 78 61 b0 41
       -7.6086206 -9.089253 -17.309887 22.047592
000040 93 42 25 c1 2b 95 5b c1 6c ca 6b c1 cb e5 88 41
       -10.328753 -13.723918 -14.736919 17.112204
000050 cd 58 dc c1 7d 53 25 c0 1a 1c cc 41 f0 3b e8 c1
       -27.54336 -2.5832207 25.513721 -29.029266
000060 b4 59 8e be d8 f7 a8 41 1c ff 90 c1 fd 38 d1 3f
       -0.27802813 21.121017 -18.124565 1.6345516
000070 12 7d 12 41 ab ff 7e c1 8d c5 1a c1 6e 5b 52 c0
       9.155535 -15.937419 -9.67323 -3.2868304

running_var f4 [32]
000000 2e 4d 28 44 15 c1 af 43 44 60 eb 43 a0 c1 ac 43
       673.20593 351.50845 470.75208 345.5127
000010 da 83 db 43 c8 21 ef 43 2c ef e2 43 df 3b ce 43
       439.0301 478.26392 453.86853 412.46774
000020 44 31 90 43 e7 eb ce 43 b0 33 af 43 ae 68 0d 44
       288.3849 413.843 350.4038 565.6356
000030 b3 26 1f 44 88 60 b1 43 11 88 a5 43 37 f0 92 43
       636.6047 354.75415 331.06302 293.87668
000040 3c 4d 00 44 91 4f 5b 43 b0 c8 62 44 e2 a6 6e 43
       513.2068 219.3108 907.13574 238.65189
000050 4b 40 74 43 2c 15 4e 43 20 fd a4 43 2f 31 3d 44
       244.25114 206.0827 329.97754 756.7685
000060 44 56 d2 43 ac af 94 43 b0 ac 15 44 0b 78 cd 43
       420.67395 297.37244 598.69824 410.93784
000070 52 b8 cd 43 e5 21 e7 43 25 5b 84 43 9d a9 15 44
       411.44 462.2648 264.71207 598.6502

weight f4 [32, 32, 3]
000000 2f 32 0e 3f de c4 49 3e 06 b7 aa 3e 02 b7 85 3f
       0.55545324 0.19704005 0.3334276 1.0446475
000010 4f 2b d2 bf 55 88 f6 bf da bd 21 40 c8 29 00 bf
       -1.6419467 -1.9260355 2.5272126 -0.50063753
000020 f7 2a e3 bf 97 92 e1 3f 24 be 94 bd ee ba 84 bf
       -1.7747487 1.7622861 -0.07262829 -1.0369546
000030 4f 6e 09 c0 63 52 46 3f e2 42 d4 bf 3e 4e e1 3e
       -2.1473577 0.7746946 -1.6582911 0.44005007
000040 64 12 a7 3f 6b c8 49 bf 5d 39 00 40 bf f9 96 3f
       1.3052487 -0.7882144 2.0035012 1.1794966
000050 c1 5d 98 3f bd a0 a1 3f 9f c8 56 bf 8d 31 6c c0
       1.1903611 1.2627178 -0.83899873 -3.6905243
000060 0e e5 c2 bf 0a 5e bd bf 13 31 a1 be 55 71 25 40
       -1.5226152 -1.4794323 -0.31482753 2.5850422
000070 47 55 5d 3f ec f7 25 c0 6d 7c 8f 3e 7f fa 49 be
       0.8645825 -2.593257 0.28024617 -0.19724463
000080 ac 4d 55 be 05 0f 25 40 14 8a 04 40 04 20 7b bf
       -0.2083041 2.5790417 2.0709276 -0.98095727
000090 4f f3 a6 3f 7e 75 16 3e 2f 08 ad bf ee c5 e7 3f
       1.3043002 0.14693257 -1.3518122 1.8107278
0000a0 c8 86 2f bf 89 3b f7 be c3 f6 c4 3f 9d 41 b3 3f
       -0.68565035 -0.4828761 1.5387806 1.4004399
0000b0 35 ed 5a bf f0 56 95 3f 5c 08 96 be 63 da 2d 3e
       -0.855182 1.1667156 -0.29303253 0.16977839
0000c0 e2 a2 1e 3f 2e 71 fe bf c8 a5 89 c0 c1 35 7d bf
       0.6196729 -1.987829 -4.301487 -0.98910147
0000d0 d0 11 cc 3e c5 08 ea 3f 1a e3 55 bf 44 ad b6 3e
       0.3985734 1.8283926 -0.83549654 0.35679066
0000e0 e9 7f 95 be 1f c4 86 3f 43 d0 9a be 31 60 f2 be
       -0.2919915 1.0528601 -0.30237016 -0.47339013
0000f0 bc 42 fe 3f 62 be 17 3f 88 23 11 bf c5 1a bf 3e
       1.9864116 0.59274876 -0.5669484 0.3732511
000100 37 ea 13 bf f8 70 6a bf 55 eb 16 3f 31 e7 d3 bf
       -0.5777926 -0.91578627 0.5895284 -1.6554929
000110 2c d9 c4 bf 28 29 f3 3e ca ec 74 3e b0 4a aa 3e
       -1.5378776 0.47492337 0.23918453 0.33260107
000120 40 ab 02 bf 27 e3 b9 be 0f 29 c9 3e 05 20 92 3f
       -0.51042557 -0.36306116 0.39289138 1.1416022
000130 fb 7b 0a 3e 6f 91 95 3d da 10 d0 3d 22 4e 83 bf
       0.13523857 0.0730313 0.10159464 -1.0258219
000140 6c 00 00 c0 fa ce c9 3f 1a 77 ad 3e b5 4d 8b bf
       -2.0000257 1.5766289 0.3387993 -1.0883089
000150 e4 13 1d 3f f5 53 89 3e fd 3b 3f be b7 40 94 3f
       0.61358476 0.26821867 -0.18675227 1.1582249
000160 9b 28 16 3f 27 63 25 40 30 b8 8e be c3 60 0b 3f
       0.5865571 2.5841768 -0.278749 0.5444452
000170 03 28 22 c0 4b 50 69 bf 67 7b 94 be 63 d0 06 3f
       -2.5336921 -0.9113814 -0.290004 0.5266172
000180 b0 e8 0d 40 5f 70 73 3f ba 95 d0 3f 77 8d bc 3e
       2.217327 0.9509334 1.6295693 0.3682668
000190 ca 07 80 bf 75 ee 63 40 cc 67 ab bf d9 f7 ff be
       -1.0002377 3.5614293 -1.3391051 -0.4999378
0001a0 09 2d 04 3e 76 98 13 3f 41 42 89 be 6b 9e 89 bf
       0.12907805 0.5765451 -0.2680836 -1.075147
0001b0 6d ca 91 3e 0e ce cf 3c 36 ec 69 40 f1 42 11 3e
       0.2847475 0.02536681 3.6550422 0.14185692
0001c0 89 16 11 bf d4 93 c6 3e 85 c0 87 3f e6 26 1b 3f
       -0.5667501 0.3878466 1.0605627 0.6060623
0001d0 35 89 e7 bf c7 56 d6 bf a4 8b c8 bf 92 a0 5c be
       -1.8088747 -1.6745232 -1.5667615 -0.21545628
0001e0 b6 67 f2 3f ca 7c 50 3f 26 48 87 bf f0 6e fc be
       1.89379 0.81440413 -1.0568893 -0.4930339
0001f0 94 85 21 3d fa 1a ae 3f b8 7f 6c bf f6 d8 28 c0
       0.03943403 1.3601983 -0.92382383 -2.6382422
000200 d5 5d 47 c0 07 9b a7 be fc 4d 8a 3f 8e 92 44 be
       -3.115102 -0.32735464 1.0805049 -0.19196531
000210 98 4e b8 bf 10 58 91 be b7 b6 3b 40 b0 a1 4b bf
       -1.4398985 -0.283875 2.933027 -0.7954359
000220 70 69 f5 be b5 90 25 c0 d7 f4 4f 3f 13 4d 02 bf
       -0.47932005 -2.5869572 0.8123297 -0.50898856
000230 70 d2 5c 3f b3 e8 47 bf e2 5c 96 3f 50 e8 f8 bf
       0.862586 -0.78089446 1.1747096 -1.9445896
000240 29 fb fa be 71 d4 43 bf 41 25 aa bf 08 2a 84 3e
       -0.49019745 -0.76496035 -1.3292619 0.25813317
000250 08 d1 a5 3f 65 8e 76 40 55 33 9d bd 69 de c2 bf
       1.2954416 3.852441 -0.076758064 -1.5224124
000260 08 9e 58 3f 80 a3 a2 bf 9f 3e c1 bf a1 57 3d 3d
       0.84616137 -1.2706146 -1.5097235 0.046226148
000270 c3 55 0b 40 7a b6 76 3f 9f 89 df bf 2a f3 e3 3d
       2.1771095 0.9637219 -1.7463874 0.11130364
000280 c8 62 a7 be 0f 8d 28 bf 7a 25 03 3d 6e 61 db be
       -0.32692552 -0.6584024 0.032018162 -0.4284777
000290 63 8f 55 c0 12 68 4b c0 8f 84 91 be 95 3b 25 40
       -3.3368766 -3.178227 -0.28421447 2.5817616
0002a0 52 af 1d 3f cb 04 76 bf b6 45 a7 c0 6d 2c 2d 40
       0.6159564 -0.96101063 -5.2272596 2.7058365
0002b0 0e 48 0c 3f 65 ec 58 bf 90 cd ba bf fe f5 8a bf
       0.54797447 -0.8473571 -1.4593983 -1.0856321
0002c0 04 1e a2 3f c4 54 30 3f f1 92 33 c0 08 80 59 bf
       1.266541 0.6887934 -2.8058436 -0.84960985
0002d0 05 11 70 bf 75 b4 11 bf 20 1b 46 bf 77 ac 08 40
       -0.9377597 -0.5691598 -0.7738514 2.1355264
0002e0 b1 ee 5e 3e f6 82 98 c0 57 9e a7 bf 5c 46 c3 bf
       0.21770741 -4.7659864 -1.3095196 -1.5255847
0002f0 0a 32 54 3e 07 c6 7b 3e 30 10 46 bf 2a 35 df 3e
       0.20722213 0.2458726 -0.7736845 0.43595248
000300 92 e1 d4 3f 2f 48 cd 3e a8 77 2f bf ae e4 8d be
       1.6631339 0.40094134 -0.68541956 -0.2771353
000310 ba 7d 8e bf 03 6b a0 3f d3 ba eb 3f d6 bb 16 bf
       -1.1132119 1.2532657 1.8416389 -0.58880365
000320 d9 a6 11 bf fc c8 1a c0 a4 78 7b 3e b5 72 99 bf
       -0.56895214 -2.418517 0.2455774 -1.1988131
000330 3b aa 62 3f 75 8c 1d bf 3b 4b 0c c0 29 76 bb bf
       0.88541 -0.61542445 -2.1920917 -1.4645435
000340 1a 55 94 bf d3 03 75 3f 0a 8b d7 be 79 bd df 3c
       -1.1588471 0.9570896 -0.42098266 0.027312027
000350 ce 1a 85 bf 62 19 c3 bd 0d ef 82 3f ce 6c 92 3f
       -1.0398805 -0.09526326 1.0229203 1.1439455
000360 94 d9 1c c0 a1 ef 36 be fd e4 9e 3f 1b f5 b6 bf
       -2.45078 -0.17864849 1.2413632 -1.429355
000370 bb 33 34 3e 21 f5 92 3f c5 a4 14 3e b6 94 e1 3a
       0.17597859 1.1481057 0.1451598 0.0017210457
000380 d9 a8 00 3f a1 a3 b4 be 09 b9 30 3f 3e 09 59 3f
       0.5025764 -0.3528109 0.6903234 0.8477973
000390 d3 08 a3 bf 69 c1 09 3f 70 d9 67 40 98 48 48 40
       -1.2737068 0.53810745 3.6226463 3.1294308
0003a0 02 0c e6 bf 0b 10 be 3e 08 21 93 bf 53 e5 24 c0
       -1.7972414 0.37121615 -1.1494455 -2.5764968
0003b0 6c 82 90 bf 2c 58 a6 be 57 d3 0d be bf 8d 4f 3f
       -1.1289802 -0.32489145 -0.13850151 0.8107566
0003c0 e9 87 b8 3e b3 27 31 bf 7a 41 23 3e 3b b1 0c 40
       0.3604119 -0.692012 0.15942946 2.1983173
0003d0 cd f1 60 be 00 15 66 c0 07 34 b3 3f 31 bb 1e c0
       -0.2196724 -3.5950317 1.4000252 -2.4801753
0003e0 80 50 f0 3f c3 53 a5 bf 3c 09 18 bf f8 45 5e 40
       1.8774567 -1.2916187 -0.5938909 3.4730206
0003f0 21 24 60 be 57 18 4d 3e c6 2e bc be 5f c0 5c bf
       -0.21888782 0.20028816 -0.36754435 -0.86231035

bias f4 [32]
000000 bc 8d fa be 48 cc 84 bf 83 5d 9c 3e c9 42 40 c0
       -0.4893626 -1.0374842 0.30540094 -3.0040762
000010 0a 02 7b 3f 1a 9d 02 be d6 28 6e be 1f 9b 38 3f
       0.98049986 -0.12755242 -0.23257765 0.72111696
000020 da 4b 05 bf a9 00 10 bf 11 d9 9d bf ac cb 58 bf
       -0.52068865 -0.5625101 -1.2331868 -0.8468578
000030 bb 57 7b 3f d8 ed 7e 3f 47 0a cb 3f 0e a3 1b 3f
       0.9818074 0.9958167 1.5862511 0.60795677
000040 d9 16 75 3e dd 83 0d bf 21 b5 aa 3e 1f 29 90 bd
       0.23934497 -0.5527933 0.33341315 -0.07039093
000050 e4 66 89 bf c5 2d eb 3e ee fb ef 3f ad e8 9d be
       -1.0734525 0.45933357 1.8748758 -0.3084158
000060 75 68 58 bf 8d 4d b6 be 55 39 8f bd 0f 23 4a be
       -0.8453439 -0.35606042 -0.06993357 -0.19739936
000070 a7 17 96 3f e8 8a f9 be 2d 06 a4 3e ad 14 8c 3f
       1.1725968 -0.4873879 0.32035962 1.094381

weight f4 [32]
000000 c1 ad b9 3f 13 55 13 40 03 ee bc 3f 30 de 06 40
       1.450615 2.3020675 1.4760135 2.1073112
000010 8a 06 f0 3f 8e e0 e5 3f b4 de 21 40 25 e0 09 40
       1.8751996 1.7959154 2.5292177 2.1543057
000020 bd 99 15 40 9d 03 a3 3f eb 48 0d 40 b3 38 e5 3f
       2.3375084 1.2735478 2.2075756 1.7907928
000030 cb 4b 96 3f 6a 28 24 40 2e 37 13 40 e3 25 0f 40
       1.174188 2.5649667 2.300243 2.2366874
000040 e1 60 14 40 14 3d 01 40 8d 2c d0 3f cf 0c 2e 40
       2.318413 2.019353 1.6263596 2.7195318
000050 a1 a7 b1 3f 82 b1 bd 3f 93 97 1a 40 d2 90 14 40
       1.3879281 1.4819796 2.4155014 2.3213391
000060 ae ac e8 3f c6 71 0b 40 f9 43 0c 40 c5 b5 f2 3f
       1.8177698 2.1788192 2.1916487 1.8961722
000070 3f 24 98 3f 44 ac 0c 40 60 f8 bf 3f b2 29 0d 40
       1.1886061 2.1980143 1.4997673 2.2056699

bias f4 [32]
000000 63 3d fa be 7d 32 e9 be 6f 3b 0f c0 1b c7 75 3f
       -0.4887496 -0.45546332 -2.2380025 0.96006936
000010 fa a6 b9 bf 49 2b 1b 3f 73 a9 93 3f 42 a0 97 bf
       -1.4504082 0.6061292 1.1536087 -1.1845782
000020 a5 73 7e bf 14 bd 0d c0 94 79 af be 89 df 6b bf
       -0.9939521 -2.2146654 -0.34272444 -0.9213796
000030 17 ab ef bf ab d7 b4 3e a9 1d 95 be 6b 81 93 bd
       -1.8724087 0.35320792 -0.2912419 -0.07202419
000040 a8 38 d2 be c8 87 27 bf ff 6f a4 bf bf 43 26 3e
       -0.4105885 -0.6544156 -1.2846678 0.1623678
000050 20 ab e0 bf 7e 6b 98 3d 3e 8d 42 3e e4 23 83 bf
       -1.7552223 0.074423775 0.18999192 -1.0245328
000060 0a ff 6e 3f 4e 43 26 be 4f 95 59 bf 66 0c 81 be
       0.9335791 -0.16236612 -0.8499345 -0.25204772
000070 8c 21 1a c0 22 54 8d be 02 20 da bf 42 6d c6 be
       -2.4082975 -0.2760325 -1.7041018 -0.38755232

running_mean f4 [32]
000000 6c 62 d7 c0 42 f7 a9 c1 99 c2 29 41 c8 8a 18 41
       -6.7307644 -21.245731 10.610009 9.533882
000010 9b 53 05 c2 d4 04 eb 40 30 65 d1 c1 0d 58 27 c1
       -33.331646 7.3443394 -26.174408 -10.458997
000020 9b 31 8f c2 59 6b d1 41 bf a6 c8 c1 e5 61 05 40
       -71.596886 26.177416 -25.081419 2.0841
000030 83 55 0f c0 3d cb 2b c2 54 70 9a c1 37 b4 c3 c0
       -2.2395942 -42.948475 -19.304848 -6.115749
000040 c9 5d 0b c2 7f a3 ee c0 33 8a f9 c1 24 93 2d c2
       -34.841587 -7.457458 -31.19248 -43.393692
000050 de 62 03 42 19 d4 6e c1 63 90 04 c2 18 03 2f c2
       32.84655 -14.926782 -33.141003 -43.75302
000060 b3 2c 4a 40 00 98 db c0 47 ea 4f c2 0e 06 fd be
       3.1589782 -6.8623047 -51.978786 -0.49418682
000070 f0 69 c6 41 4b 9f d3 be f2 71 f4 41 47 12 a1 c1
       24.801727 -0.41332468 30.555637 -20.133924

running_var f4 [32]
000000 d4 53 5a 44 8d 08 0d 44 b8 c4 f6 43 6a 43 28 44
       873.3098 564.1336 493.53687 673.05334
000010 55 ef ef 43 12 c2 41 44 bc db 90 44 30 8c 54 44
       479.86978 775.03235 1158.8667 850.1904
000020 58 e5 2b 44 c1 63 df 43 eb 05 52 44 51 44 54 44
       687.5835 446.77933 840.09247 849.06744
000030 5b 0e 03 44 23 92 8c 44 01 8d cb 44 4a 25 71 44
       524.2243 1124.5668 1628.4064 964.58264
000040 59 5a 57 44 66 c4 09 44 30 8e a5 43 0c a2 2c 44
       861.4117 551.0687 331.11084 690.532
000050 78 88 06 44 e0 8b 81 44 e3 87 56 44 04 2c 18 44
       538.1323 1036.3711 858.1232 608.68774
000060 e6 c2 45 44 50 52 4e 44 e7 5f 09 44 90 e8 3a 44
       791.0453 825.28613 549.4985 747.6338
000070 0b e7 a6 43 c4 f5 2a 44 1f 69 b0 43 bc fa 23 44
       333.80502 683.8401 352.82126 655.9177

weight f4 [64, 32, 3]
000000 eb cf 32 c0 e3 40 ff bf 0f 09 ed be 9f dd c5 3e
       -2.7939403 -1.9941677 -0.46295974 0.38645646
000010 ce dd 9e 3f 4a cc 1e 40 dd e9 ee 3e 91 b9 64 3f
       1.241144 2.4812188 0.466628 0.8934565
000020 2b 2f 83 bf 10 b5 85 3f 7f ec 05 40 b0 e8 57 3f
       -1.024877 1.0445881 2.0925596 0.8433943
000030 b3 b8 23 bf 0b 91 a7 be c0 9e 05 40 f9 28 85 3f
       -0.63953704 -0.32727847 2.0878143 1.0403129
000040 21 9f 8b bf 93 0b 7e c0 f7 d2 d3 be 2d dc 0d bf
       -1.0907937 -3.9694564 -0.4137189 -0.55414087
000050 53 0b 72 bf a4 c1 91 3f b4 6f e1 be d7 04 b2 3e
       -0.9454853 1.138722 -0.44030535 0.34769318
000060 a1 a6 e2 3e b1 ab 60 be a8 97 c8 3f 39 4b 75 bc
       0.44267753 -0.21940495 1.5671282 -0.014971548
000070 aa cb 2c 3f e7 1e f1 3e bf 47 e9 be 0a 84 6f 3e
       0.67498267 0.4709389 -0.4556255 0.23390213
000080 c7 fa 4f 3f 46 22 a5 be 8a 37 3c 3f 5a bb 93 bf
       0.8124203 -0.3225271 0.73522246 -1.154155
000090 21 22 1a 3e 77 8d 33 bf 15 fe e8 3a bb a5 5e bf
       0.15052082 -0.70137733 0.0017775918 -0.86971635
0000a0 af 27 d8 bf 8d aa b4 3e 23 78 c2 bf 41 fc c9 bf
       -1.688711 0.3528637 -1.5192913 -1.5780107
0000b0 f8 d8 43 3f 96 42 57 3f f8 d7 ae 3f ca e3 ac be
       0.76502943 0.8408598 1.3659658 -0.3376754
0000c0 6e a5 c0 bf d2 8d 23 c0 12 e1 90 3f 05 b1 c8 bf
       -1.5050485 -2.555531 1.1318686 -1.5679022
0000d0 bc 1c 21 bf e3 eb aa 3f 5e dc 3d bd 45 fa b7 bf
       -0.6293447 1.3353237 -0.046352737 -1.4373251
0000e0 f7 9e e9 3d 64 48 c8 bf ee a7 bb be 36 6c 58 3d
       0.11407273 -1.5647092 -0.36651558 0.052837573
0000f0 02 48 e1 3e ea b5 35 3f a7 a3 a6 3f 4f cb 77 c0
       0.4400025 0.70980704 1.3018693 -3.871784
000100 6d 0a 3d 3f ea d0 11 40 52 b2 80 bf ce e4 66 bf
       0.73844033 2.278376 -1.0054419 -0.9019288
000110 fa 18 81 be b6 87 cf bf d0 6f a5 bf f0 17 ec bf
       -0.25214368 -1.6213291 -1.2924747 -1.8444805
000120 3e 69 b8 3f 0e 09 02 c0 1c d3 32 bf 84 8d ad c0
       1.4407117 -2.0318027 -0.6985338 -5.423525
000130 55 a8 c5 bf 52 bd 76 c0 ee 6a 05 bf fd aa a5 3e
       -1.5441996 -3.8553052 -0.52116287 0.32357016
000140 7f 87 1a be 7d 83 9a bf 2d 90 3b c0 44 af 97 c0
       -0.1509075 -1.2071377 -2.9306748 -4.7401447
000150 52 c7 f8 bf 7f 74 3b 3e 5b 78 d0 bf 48 7d aa 3f
       -1.9435828 0.18306158 -1.628673 1.3319483
000160 52 50 2e 3f 46 91 a7 be 27 1e a7 3f 5d 2e d5 3f
       0.6809131 -0.32728022 1.3056077 1.6654774
000170 f7 71 fa 3f 59 a3 d7 bf 7f 25 7d 3f 58 c3 70 bf
       1.9566029 -1.6846725 0.9888534 -0.9404807
000180 7f bf 4a c0 92 b6 a6 3f 2d 1d 88 be 28 1a cf 3f
       -3.167938 1.3024466 -0.2658476 1.6179857
000190 de 0b e0 bf ce 57 00 3f 5f 2d bd 3f c2 9b 61 bf
       -1.7503622 0.5013398 1.4779471 -0.8812829
0001a0 ed 5e 16 3e f7 33 94 3f 07 65 0a 3d 95 de da bf
       0.14684649 1.1578358 0.033787753 -1.7099177
0001b0 0e 88 fa 3e ab 3c b0 3f 17 74 1b 3f ca 61 bd 3f
       0.48931926 1.3768514 0.60724014 1.4795468
0001c0 e2 65 ba 3d a5 71 3a 3e ea b7 1d c0 b3 09 17 c0
       0.09101464 0.18207414 -2.4643502 -2.359967
0001d0 42 8a 4e bf 18 8f 5c c0 a1 3a 09 c0 66 3d f0 bf
       -0.80679715 -3.4462337 -2.1442034 -1.8768737
0001e0 1c 2a 19 3e 89 fc f6 3e 40 81 98 bf f5 04 c9 3f
       0.1495747 0.48239544 -1.1914444 1.5704638
0001f0 c1 06 56 3f b0 f9 7c 3f d9 d1 a5 3f d0 74 29 3e
       0.83604056 0.9881849 1.2954665 0.16548467
000200 be 70 9d be 65 3f 61 bf 28 5b 46 c0 e5 81 9e bc
       -0.30750078 -0.8798736 -3.0993137 -0.019349048
000210 7a 0f 91 3f 3e 86 30 3f 17 fc 27 bf 0b e1 79 c0
       1.1332848 0.6895484 -0.65619034 -3.9043605
000220 60 ef 6f 3f 19 37 15 c0 54 42 eb 3f b2 06 a5 be
       0.9372463 -2.331488 1.8379617 -0.3223167
000230 11 fc 54 3e 1b 7a b6 bf 3d 84 13 bf e8 e5 22 c0
       0.2079928 -1.4256014 -0.57623655 -2.5452824
000240 ec ce 99 c0 74 ac 3a c0 a4 db ad bf 37 79 8a bf
       -4.806509 -2.9167757 -1.3582654 -1.0818242
000250 8c 73 49 bf 45 a9 14 3f b7 f2 00 bf 4d ec 1f 3f
       -0.78691936 0.58070785 -0.50370353 0.6246994
000260 f3 0c ef 3e e5 16 ea bf b3 77 1e 40 8d aa 61 bf
       0.46689567 -1.8288237 2.4760559 -0.88150865
000270 c9 07 ab be 87 22 70 3f 98 2d 4f 3e ce db a8 bf
       -0.33404377 0.93802685 0.20232236 -1.3192079
000280 c1 17 82 3f 65 49 c8 bf fb f4 81 bf bf 20 37 bf
       1.0163499 -1.5647398 -1.0152887 -0.7153434
000290 1c 8d a4 be e4 a1 20 bf 05 34 2b c0 91 f0 17 c0
       -0.32138908 -0.62747025 -2.67505 -2.374058
0002a0 05 b5 c0 bf 18 7d 1e 3d 47 e4 48 c0 76 3a 14 c0
       -1.5055243 0.038693517 -3.138933 -2.3160682
0002b0 6a dd 48 be 52 ec 8a 3f bc 39 8b bf 6d d2 8e bd
       -0.19615713 1.0853369 -1.0876994 -0.06973729
0002c0 28 83 6c 3f db 31 c7 bf dc 84 cb be 75 64 ff 3e
       0.9238763 -1.556209 -0.397498 0.4988133
0002d0 72 89 1f 40 34 7f 8c 3f 4c a8 71 3f 6c 5a 59 3f
       2.492764 1.0976319 0.94397426 0.849036
0002e0 00 a5 08 c0 62 3c 96 bf b4 9a 12 40 7d 40 ff 3d
       -2.1350708 -1.1737177 2.2906923 0.12463472
0002f0 e7 c5 f5 bf 27 6a 6c 3f 06 57 9a bf eb 4d 05 c0
       -1.920102 0.92349476 -1.2057807 -2.0828807
000300 34 dc a5 be 87 f8 cf 3c dc 79 f9 3e 65 55 a5 bf
       -0.32394564 0.025387062 0.48725784 -1.2916685
000310 34 61 cb be 4e d7 db bf d4 1b dc 3f a3 2a 6d 3f
       -0.39722598 -1.7175081 1.7195992 0.92643183
000320 53 09 f5 bf 93 05 f2 3f 3e 3c a3 be ee b5 03 3f
       -1.914347 1.8907951 -0.318819 0.5144948
000330 f1 eb e4 bf f1 fb 88 3d 99 08 8a 3e 39 27 99 3f
       -1.7884504 0.06688679 0.26959684 1.1965095
000340 4d 68 03 3f 16 9c 26 bf 8a 73 72 3f 03 16 cd 3e
       0.51331025 -0.6508192 0.9470755 0.40055856
000350 4f 6f 06 3f ce 5b 4e bf d9 b5 90 3e 06 06 c4 3f
       0.52513593 -0.8060883 0.2826374 1.5314338
000360 c4 5d 20 bf 20 42 2d 3d d0 99 75 bf 2f 30 49 be
       -0.62643075 0.04229939 -0.95937824 -0.19647287
000370 31 ac 87 bf 7e 2f 88 3f d3 97 f3 3f c9 a6 06 3f
       -1.0599424 1.0639493 1.9030708 0.52598244
000380 cc fe cb be 60 04 34 40 9b bb 3a 3d 83 e0 13 40
       -0.39842832 2.812767 0.04558907 2.310578
000390 65 49 ec be cd 8a aa 3f a3 48 a0 3f 13 da 33 3e
       -0.46149746 1.3323609 1.2522167 0.17563657
0003a0 31 a4 00 40 08 c2 9b bf a2 86 e2 3e db 14 c0 bf
       2.0100214 -1.2168589 0.44243342 -1.5006365
0003b0 b7 ce 7c be 58 06 db bf ce 9b 1f 3f b9 8d ba bf
       -0.2468823 -1.7111311 0.62347114 -1.45745
0003c0 a1 71 1e 3e 89 89 a4 3f d2 3f 00 bf 28 4d a3 3f
       0.15473033 1.2854472 -0.5009738 1.2757921
0003d0 35 77 10 40 56 d5 8b bf 9d 07 2b 3f 80 b3 00 3f
       2.2572758 -1.092448 0.6680849 0.50273895
0003e0 62 f2 4b bf 2f 78 09 c0 b3 1e 12 40 db b7 28 3e
       -0.7966672 -2.1479604 2.2831237 0.16476385
0003f0 f8 80 1e 40 33 6b 16 40 7c 6f 62 40 97 b5 99 bf
       2.4766216 2.350293 3.5380545 -1.2008542

bias f4 [64]
000000 a1 7b d7 bf 4a 0c 61 bf 17 5f 92 bf ce d0 8c bf
       -1.6834604 -0.87909377 -1.1435269 -1.1001222
000010 c2 83 b2 3e 43 90 0b bf 6d 62 b7 3e c6 c5 8a bf
       0.34866148 -0.54517 0.3581728 -1.0841606
000020 f1 3c 23 bf c0 9c 63 bf dd be 7e 3f 63 04 3e bf
       -0.63764864 -0.88911057 0.99509984 -0.74225444
000030 47 c0 6e 3f 67 be 2a 3e 3f 14 40 3f 2c d8 33 3d
       0.9326214 0.16674195 0.75030893 0.04390733
000040 a6 45 35 bf bb 5e 03 40 e1 2b f6 3e ba 52 9a bf
       -0.708094 2.052657 0.48080352 -1.2056496
000050 a2 eb 3c be e9 b2 bf 3f e1 5b 33 bf df 25 a8 be
       -0.18449262 1.4976474 -0.7006207 -0.32841393
000060 a4 66 24 3f 81 79 1a bf fb 60 aa bf 74 78 24 3f
       0.6421912 -0.6034165 -1.3310846 0.64246297
000070 5f b8 5b be 2a 5a 9f 3f 93 3a c3 be 7a 0f b2 3f
       -0.2145705 1.2449391 -0.38130626 1.3910973
000080 40 55 b9 3d b7 8e 27 bf e0 20 37 3f e4 69 3e be
       0.09049463 -0.6545214 0.7153454 -0.18595082
000090 b2 0a 78 be 7a e8 f9 be 15 a3 ae be b9 63 c3 bf
       -0.2422283 -0.48810178 -0.34108797 -1.5264808
0000a0 bf c7 a7 be c5 c0 1f bd 34 30 e0 3c 75 50 88 3e
       -0.32769582 -0.0390022 0.027366735 0.26623884
0000b0 d8 1d b9 3e e2 49 12 c0 d3 64 7a 3e e7 b2 d6 be
       0.3615558 -2.2857594 0.24452524 -0.41933367
0000c0 93 16 5c be d6 2d 40 bf 77 ba 79 be 92 cc 06 3e
       -0.21492986 -0.7506994 -0.24387537 0.13163975
0000d0 5e fd af 3f 05 d0 1d bf d9 d9 4d 3f a6 dc 1b bf
       1.3749197 -0.6164554 0.80410534 -0.6088356
0000e0 4b 58 5e be 96 c3 42 bf 3e f4 82 bf 99 c0 0c 40
       -0.21713369 -0.7607969 -1.0230787 2.1992552
0000f0 a3 8a c5 bf cc 34 85 3d 6b 73 ee bd 60 49 a7 3f
       -1.5432934 0.06504211 -0.11643108 1.3069267
