unet/checkpoints/one_loss/epoch_100.pth (torch, 508787 bytes, 85 tensors)

weight f4 [8, 1, 3]
00000000: 2135 713f 2d21 9dbd 3b6c 8040 9bbd 383f
00000010: 4394 8ec0 d5cc 40bf 9645 b9bf f0d3 0a40
00000020: 82a2 7b3f fd4c 9bc0 6fec f4be 9a54 6f3f
00000030: 43e8 833f 2a4e 53c0 c9f8 29bf a7dc 713f
00000040: f207 9d40 102c 0dbd aef2 ecbf b098 b13f
00000050: f2da fabf 497d 6640 f034 74be 4cbe 9cbf
0.94221693 -0.076723434 4.0132117 0.72164315 -4.4555984 -0.7531255 -1.4474361 2.1691856
0.9829484 -4.853148 -0.47836635 0.93488467 1.0305256 -3.3016458 -0.6639524 0.94477314
4.90722 -0.03446585 -1.851156 1.3874722 -1.9598067 3.6013968 -0.23848319 -1.2245574

bias f4 [8]
00000000: 97dc 1f3e 7ace 2e3d 378f 563c d163 f13e
00000010: 789a 17be e471 753e 6f47 adbe 30c5 8c3e
0.15611492 0.04267738 0.0130956685 0.47146466 -0.14805019 0.23969227 -0.33843562 0.27494192

weight f4 [8]
00000000: 8a73 b83f dca5 0440 8594 1140 4efd 1540
00000010: 2655 5b3f 663d 5540 2c16 823f 5c62 2540
1.441026 2.0726233 2.27469 2.3435855 0.856768 3.3318725 1.0163016 2.5841284

bias f4 [8]
00000000: 812b 0bc0 b02d c73e 8f38 d13f 53e0 1640
00000010: ff9e 6c40 8bf7 15be a294 1ebf 924d 8cbe
-2.1745303 0.38902044 1.6345385 2.3574417 3.6972044 -0.14645211 -0.61945546 -0.2740293

running_mean f4 [8]
00000000: c1c3 ac3e 6fb0 cd3c d0b7 c93c 8a33 db3e
00000010: bffa 1fbe 4fd2 833e 243d e7be eecc 953e
0.33743098 0.025108544 0.024623781 0.4281276 -0.15622996 0.2574639 -0.45163834 0.2925791

running_var f4 [8]
00000000: d320 9e49 06be 8a49 70d6 4248 b53e 8a49
00000010: f30a f648 61e0 e049 4dfb a348 be77 bd48
1.2953864e+06 1.1365768e+06 199513.75 1.1325026e+06 503895.6 1.8421881e+06 335834.4 388029.94

weight f4 [16, 8, 3]
00000000: 1983 9f3e 1c6b f5bf 634f 79c0 b136 9d3f
00000010: 0e21 963f 19e0 b4bf a4ba b9bf cb80 bb3f
00000020: 2512 7e3f 62e8 fc3f c4fb 8540 859f 673f
00000030: ff0e 3840 131a b53f 9b6b dcbf fb28 48c0
00000040: ba82 ebbf a250 1fbe aa82 233f 5f46 abbf
00000050: bc07 af3f 8d9b 3f3f afcd 49bf 6745 4ebf
00000060: 62eb b63e 07e4 0240 aa44 373e d20e 383e
00000070: 2f1a a63f 0121 6ebf c1fe 983f 342d 6c3f
00000080: 6b10 0a3f 267f 24c0 7bb0 b6be a771 603f
00000090: 3956 07bf 9a0c 613f 7e0d 11c0 ca2d 9440
000000a0: ed21 0840 ef22 2240 7403 6abf 06f7 5abf
000000b0: a0df a13f d481 44bf bd1d 0840 40b9 e13e
000000c0: 56cf e1bf debf 983f ed09 0fc0 785a c83e
000000d0: d602 863f 7003 a03e 8ab7 99bf 32de 07c0
000000e0: 18d1 7d3f fc8f 8bc0 21a1 323f dcdd 4f3f
000000f0: 0719 3a3f 887a bc3f cd06 67bf d98b 503f
00000100: 647b b7bf bd49 b23c 50c8 d6bf 4bc2 b13f
00000110: 795b fd3f c077 f13f 6230 b6bd a09e 0dc0
00000120: 6c9f 8740 212b b33f 8a04 31bf e1e3 2d40
00000130: 5057 6240 b51c 1b3f 8faf d5be 0a16 ae3e
00000140: 72fd cdbf 8f7b 4c3f b34c 5d40 71d0 033f
00000150: 4961 f63f c7eb 1340 f23c 353e 5249 90bf
00000160: 29cc 2d3f 7576 27c0 4505 3b3e 5ccf 0240
00000170: 8ce2 c7be 5267 06bf 640a c2bf 0cfa ba3f
00000180: ce09 1240 9ee6 1fc0 4845 39c0 3bd7 afbf
00000190: 7044 43c0 de06 89bf 36f7 1abf 10e9 c9bf
000001a0: 8fb9 14c0 824b 70bf 789b 5ebf 5731 633d
000001b0: 2749 663f ab23 08bf 23f1 2b3f 3ef3 e83f
000001c0: 8a1d fd3d 3245 afbf 3337 483e 304f 1dc0
000001d0: 5c24 bbbf 95f5 3240 374d e33f a738 ce3e
000001e0: 133d 0d40 861a 28bf e079 15c0 0ce6 1d40
000001f0: d866 e83f 7680 4740 a62b 9dbe 0b51 f7be
00000200: c5cf 0cc0 58df 6b3f 7a48 1240 d282 893f
00000210: 4b11 e53f 7b4e da3f 8d03 1c40 0c0f 62be
00000220: b990 08bd b20a fabf 60b3 003f 8f28 a93f
00000230: a343 58be 1977 d43f ed70 bf3f bd9e 9d3f
00000240: d3d8 843f a751 a2bf dbe9 c93f beca 87c0
00000250: 5638 963f e194 d7bd 64dd 41c0 1dbf b4bd
00000260: 97c3 e7bc 8b79 aebf f566 2dc0 4fff c93e
00000270: ecb0 1ec0 31ec 723f 5d0c 043f 3b11 e1be
00000280: 2fde edbe ecce a7be c1b4 683f 1ce9 1440
00000290: 2bb9 0cc0 efa3 263f 51f2 1bc0 e3d4 f7bf
000002a0: 0ef6 de3f ac68 0f3f e1e4 8ebe 1bf0 283e
000002b0: ca49 40c0 760f 093f 0518 64bf 7e62 f63f
000002c0: d3a5 5fc0 a16d 61bf 021e 823f ac93 26bf
000002d0: b421 903e 5b0a 43c0 577b febc 25dd 1740
000002e0: d625 d33f 4cd7 a8bf 5729 29c0 fdd0 863f
000002f0: e963 033f 4dfe ccbd f81c ff3f eb71 0e3f
00000300: ba72 af3f ae9a 11c0 2fa0 c53f eaed 00bf
00000310: 8669 473f da01 6a3e 0280 87bf e6d0 81c0
00000320: 7ac9 be3e 3c0d 40c0 37fb 93be 2987 cf3e
00000330: 8de1 3fbf ab1c ab3f 962d 1440 5f8f fdbd
00000340: 12e3 4ebf 0be9 89c0 692a 8fbf 3907 05c0
00000350: e256 b73f a254 f43f dc21 94be a5d2 ce3d
00000360: bfd6 67c0 2191 9bbf 4b88 3ebe f12f 403e
00000370: 3672 1ebf 04ab 5c40 01ed 09bf 4e77 21bf
00000380: 45f3 1bc0 5fa6 2cc0 9bd2 e23e 2503 96bf
00000390: ab19 363f 7fd2 3a3f 8f34 7940 ac65 123d
000003a0: d85c d7bf a3a0 3bc0 a411 f1bf c197 d83f
000003b0: b9b6 56be 7cef e23f 7bc3 223e 11f2 39be
000003c0: 71da cdbb 8654 4a3f 3d1d 0a3e 6f0d 0140
000003d0: fb91 0340 de7d 1e40 ebcf e3be 764f 37bf
000003e0: 8946 84be d81a 3c3f 9708 0140 5681 fe3f
000003f0: 64a5 de3f e2e9 d63f fa6e eb3f aa07 153e
0.31154707 -1.9173312 -3.8954704 1.2282315 1.1728837 -1.4130889 -1.4510083 1.464868
0.99246436 1.9758418 4.186983 0.9047778 2.8759153 1.4148582 -1.7220339 -3.1275012
-1.839927 -0.15558103 0.6387125 -1.338085 1.3674235 0.74846727 -0.78829473 -0.8057465
0.35726458 2.0451677 0.17897287 0.17974404 1.2976741 -0.9301911 1.1952745 0.92256474
0.539313 -2.5702605 -0.3568152 0.8767342 -0.5286594 0.87909853 -2.2664485 4.6305895
2.1270707 2.5333822 -0.9141152 -0.8553318 1.264637 -0.767606 2.126815 0.44086647
-1.7641399 1.1933553 -2.2349808 0.39131522 1.0469615 0.31252623 -1.2009137 -2.1229367
0.99147177 -4.361326 0.69777113 0.81197906 0.7269444 1.4724894 -0.9024475 0.8146339
-1.4334531 0.021763677 -1.677988 1.3887419 1.979354 1.886467 -0.08895947 -2.2128067
4.2382107 1.3997537 -0.6914755 2.7170336 3.5365791 0.6059068 -0.41735503 0.3400119
-1.609297 0.79876035 3.4578063 0.5148993 1.9248439 2.3112657 0.1769903 -1.1272376
0.6788965 -2.616605 0.18263729 2.0439062 -0.3904003 -0.52501404 -1.5159421 1.4607558
2.2818484 -2.4984508 -2.8948536 -1.3737558 -3.051052 -1.0705221 -0.60533464 -1.577425
-2.3238256 -0.93865216 -0.86955976 0.055466976 0.8995537 -0.53179425 0.6716482 1.8199232
0.1235915 -1.3692992 0.19552307 -2.4579582 -1.4620471 2.7962391 1.7757939 0.40277597
2.2068527 -0.6566547 -2.3355637 2.467166 1.8156385 3.1172156 -0.30697364 -0.48304018
-2.2001812 0.9213767 2.2856736 1.0743048 1.7895902 1.70552 2.4377167 -0.22076052
-0.033341143 -1.9534514 0.50273705 1.3215503 -0.21119551 1.6598846 1.4956337 1.2314068
1.037867 -1.2681168 1.5774492 -4.243499 1.1735942 -0.10526443 -3.0291376 -0.088255145
-0.028291507 -1.3630842 -2.709409 0.39452597 -2.4795485 0.9489165 0.51581365 -0.43958458
-0.46458575 -0.32775056 0.9090081 2.3267279 -2.1988018 0.6509389 -2.4366648 -1.9361843
1.741884 0.5601909 -0.27908996 0.16497843 -3.0045037 0.53539217 -0.8909915 1.9248807
-3.494496 -0.88057905 1.0165408 -0.6506908 0.28150713 -3.047507 -0.031064672 2.3728726
1.6495922 -1.3190703 -2.6431482 1.0532528 0.51324326 -0.100094415 1.9930716 0.55642575
1.3706887 -2.275066 1.5439509 -0.5036303 0.7789539 0.22852269 -1.058594 -4.0567503
0.3726309 -3.0008078 -0.289026 0.40532807 -0.7495354 1.3368124 2.3152823 -0.123808615
-0.8081523 -4.3096976 -1.1184818 -2.0785658 1.432339 1.9088328 -0.28932083 0.10098771
-3.622482 -1.2153665 -0.18606679 0.18768288 -0.6189302 3.447938 -0.53877264 -0.6307267
-2.436723 -2.6976545 0.44301304 -1.171971 0.71132916 0.7297744 3.893833 0.035741493
-1.6825209 -2.9316795 -1.8833508 1.6921312 -0.2096814 1.7729335 0.15894882 -0.18158747
-0.0062821438 0.7903522 0.13487716 2.016445 2.055785 2.4764323 -0.44494566 -0.7160562
-0.25835064 0.7347846 2.0161493 1.988322 1.7394223 1.6790125 1.8393242 0.14553705

bias f4 [16]
00000000: f5b4 9fbf 1d4f 453f ec86 353e 3e32 613e
00000010: 8e01 d93f ecf0 5e3f 56b3 8b3f ecb8 7dbe
00000020: cbf4 f93f 6b0b d6be 912b c2bd 7ef1 3e3f
00000030: 8b0e 6f3f 8c14 dc3f 9365 7340 d372 a63f
-1.2477099 0.7707384 0.1772725 0.21991822 1.69536 0.8708637 1.0914104 -0.24777573
1.952783 -0.41805586 -0.09480966 0.7458724 0.93381566 1.719377 3.8030746 1.3003792

weight f4 [16]
00000000: 51ee c33f 1969 0040 5f9c ab3f e724 ee3f
00000010: ab98 f33f 37bb 993f 49fd 7f3f 6313 7a3f
00000020: 5ec1 ae3f 2bc3 a43f 9d49 843f e404 ec3f
00000030: 2114 0640 1f7f 1940 3f73 d23f 46aa d23f
1.5307103 2.0064147 1.3407096 1.8605012 1.9030966 1.2010258 0.9999586 0.9768583
1.3652761 1.287206 1.0334965 1.8438993 2.0949786 2.3983839 1.644142 1.6458213

bias f4 [16]
00000000: cb02 b93f dd57 c3bf e48f 2f3f 77a4 753e
00000010: f297 2e3f b683 963e 3c74 013f 44ba 6e40
00000020: 7de4 6240 cd55 8e3f d3e0 83be 3d5c 0abf
00000030: b67f 61be 3843 513f 67ad 3d3f 1e7e 903f
1.4453977 -1.5261189 0.68578935 0.2398852 0.682006 0.29397362 0.50567985 3.7301188
3.5451958 1.1119934 -0.25757465 -0.54046994 -0.22021374 0.8174319 0.74092716 1.1288488

running_mean f4 [16]
00000000: 9895 b641 e9b9 ca40 663a ccc0 89b8 e641
00000010: 94f2 12c1 531f 1242 49d3 cac1 fa1c 61c1
00000020: 6e54 02c1 b177 2140 9cf7 0342 b7e0 de41
00000030: 7ec6 65c1 fd6e 3bbe 7be7 eabf 903d 0e41
22.823044 6.335194 -6.3821287 28.840105 -9.184223 36.53059 -25.353167 -14.069574
-8.145613 2.5229304 32.991806 27.859724 -14.36096 -0.18304057 -1.8351892 8.89003

running_var f4 [16]
00000000: 6588 2544 96b3 3b44 5e59 fe42 6b2c 3744
00000010: a625 2743 ca62 1e44 3394 e142 edda 2b43
00000020: 7048 8c43 8a59 8f43 8f40 2a44 abad 8a43
00000030: 2d8d 8444 32a3 bb43 8e75 e542 3a3a 8e44
662.13116 750.806 127.174545 732.69403 167.14706 633.5436 112.78945 171.85518
280.56592 286.69952 681.0087 277.35678 1060.4117 375.27496 114.7296 1137.8196

weight f4 [16, 16, 3]
00000000: 8a7b 4bc0 37b1 6c3f 11d8 c1be a852 f23f
00000010: 382e 993f 9bf3 b6bf 3b98 51c0 748e bbbf
00000020: a22b 32bf c48b f03e cfef 8a3e 0f76 dd3d
00000030: e3d9 babe 3b88 513f 68ed f33f 6731 b53e
00000040: 6f38 cfbf 4280 fabe 1e6e 83bf 9675 393f
00000050: bcec cf3f 0ff7 f03e 0e02 8f3f 2c5c 9dbf
00000060: db02 9cbf 27c7 ec3e 56e9 5f40 1ccb c03d
00000070: c146 573d a755 653f 77e0 403e 787e 56bf
00000080: 4f26 51bf 6754 66bf 8da9 91bf b7bb 3bc0
00000090: 0d3f 1d40 10b2 e53f b974 3fbf 934d 76bf
000000a0: 1553 dabf 3589 70c0 ac1e f6bf 7b26 873e
000000b0: 8e6c 8fbf bf81 b13e aa51 d63f f9a3 8f3f
000000c0: 2b2a 43c0 48a9 943e 8198 803f a78e 04c0
000000d0: 4fe7 9abf 36a8 5f3f 2aff b4bf 61d6 563f
000000e0: f263 a8be eb38 9fbe c5ff 323f ff7d 933f
000000f0: 379b 8540 afbf ce3e c551 f0be bfbf 43be
00000100: 24c5 913e db4d c23e 4eda 43bf 241d 113f
00000110: fe49 05bd e11f 7ebf c932 05c0 1d76 17c0
00000120: bb5a 07bf 39f7 b83f 93da e1bf bad1 a3bf
00000130: 9c70 5c3f c9be 25c0 c080 eb3c 438a 0d3f
00000140: 49d4 f73e 207f cfbf ef10 a13f d43a 95bf
00000150: c4dd c33f 460c 99be 8e28 ebbd e9ef a7c0
00000160: 2902 8bbf 1445 79bf d0cf 8fc0 8042 8dbe
00000170: 5db5 27c0 50aa 5cbf 50ef ee3f d9b8 843e
00000180: 176e f8bf 2823 55c0 6a5b 72bf 4f16 8940
00000190: db89 dd3e 815b 17c0 cbce debf 8fac 193f
000001a0: 4a92 75bf 4bdd 37bf e5ff c2bf ec46 b5bf
000001b0: 1928 053f d085 903c 376c ab3f 12fd 113f
000001c0: 6ea3 a9bf 2598 bcbe d52d 53c0 88d1 0f40
000001d0: 59c1 5f3e 09f8 273f 5930 963f 2777 86be
000001e0: 156e 18c0 2c2f 983f 649f a03f bc01 4dc0
000001f0: b108 01c0 4f5f d53e 80bf 1b3f 2e75 c0bf
00000200: 1391 883e f20b edbf 9ac5 6d3f 3aba 19c0
00000210: f4cf 7540 defb d53f 08fe bcbf 90ae f03e
00000220: 039e 29ba 2568 12bf 6c07 f73d bf7e d93e
00000230: 561a 77bf 8594 a7bf 5280 d3bf 3b71 cebf
00000240: 8167 debd b49c 10bf 4bb6 403f 15d8 01c0
00000250: 14ef 223f 3831 ba3f 2ae7 563f 0299 04bf
00000260: 3f2b 83c0 537f e2be 7a81 f53e 9f68 1e3f
00000270: 15cd 593f c157 703f 9c1d 95bf 9144 afbe
00000280: f72e 9c3f 0c55 263f d9e4 973f 5fd9 4fbf
00000290: be8e 8bbf 8182 a8be 3bb5 95bf 7242 3bbf
000002a0: fa16 c43f 8dec f53e 20b0 d1c0 bea9 973f
000002b0: 5289 af3e db0e 10c0 f37f 83bf 5e1f bc3f
000002c0: f80a 8f3e cd8a 163f 090e 8c3f 73eb 9fbe
000002d0: 141f 27c0 2816 893e c368 f23f e776 fd3e
000002e0: cc62 963e 5fb9 7240 2b04 94bf aee3 16bf
000002f0: 56bf 54c0 2105 ed3e 4ed2 aa3f 52ce 313e
00000300: 92c1 483f dbea 723f f7cd 42bf c420 f5be
00000310: b7fc 22c0 2c38 10bf 9f48 47c0 ef84 323e
00000320: 9a99 c9bf f1f9 da3f 8567 f23f 69ec 34c0
00000330: 7cc3 6d3e c4c5 74be bf2b c93e 8e63 d23f
00000340: 893f be3f 8aad 2ac0 7387 3cc0 d6d4 603f
00000350: 0e5a aabe 530c b5be edeb d0bf 6b27 7abf
00000360: 54ed b4bf 369a 26bf 4416 d6bf ddf4 31bf
00000370: 3da8 09bf bde6 50c0 042a df3f 6f56 643f
00000380: 081c 36c0 8df2 cf3f 4436 743e 7b4b 3fc0
00000390: 14fa 1abd ce41 11c0 34e9 73bf 8fea e7bf
000003a0: 2658 55bf 8e92 5f3e 6f17 a9bf a798 3fc0
000003b0: 847c 353e 0a0f 3e3f e296 903f c5e6 dbbf
000003c0: 909d 1dc0 f508 213f 521b e93f e221 0940
000003d0: 1ad1 483f d353 19c0 b9df 6b3f 8a0e 8dbe
000003e0: 61bc 0abd b9ca 76bf dba8 0f40 0f56 3040
000003f0: 9800 0a40 7609 253f b17d 02bd 25a7 5bbf
-3.1794152 0.9245791 -0.37860158 1.8931475 1.196723 -1.4293092 -3.2749164 -1.4652848
-0.6959783 0.46981633 0.27136084 0.108135335 -0.3649436 0.81848496 1.9056826 0.35389253
-1.6189097 -0.48925978 -1.026798 0.72445047 1.6244121 0.4706349 1.1172502 -1.2293754
-1.2188371 0.4624569 3.4986167 0.0941374 0.05255771 0.8958382 0.18835627 -0.83786726
-0.8169908 -0.8997254 -1.1379868 -2.9333322 2.4569733 1.7944965 -0.7478748 -0.9621212
-1.7056605 -3.7583745 -1.922811 0.26396546 -1.1205003 0.346693 1.6743672 1.1221915
-3.0494487 0.290354 1.004654 -2.0712068 -1.210184 0.87366045 -1.414037 0.83920866
-0.32888752 -0.31098112 0.69921523 1.1522826 4.175197 0.40380618 -0.46937385 -0.19116114
0.2847072 0.37950024 -0.7650498 0.5668509 -0.032541268 -0.99267393 -2.0812247 -2.366584
-0.5287282 1.4450446 -1.7644829 -1.2798378 0.8610933 -2.5897696 0.028747916 0.55289096
0.48404148 -1.621067 1.2583293 -1.1658578 1.5302052 -0.29892176 -0.114823446 -5.248036
-1.0860034 -0.9737103 -4.4941177 -0.27589798 -2.6204445 -0.86197376 1.8666782 0.25922278
-1.9408597 -3.3302708 -0.94670737 4.283973 0.43269238 -2.36496 -1.7406858 0.6002893
-0.95926344 -0.7182204 -1.5234343 -1.4162269 0.5201431 0.017641932 1.33924 0.5702678
-1.3253 -0.36834827 -3.2996724 2.2471638 0.218511 0.65612847 1.1733505 -0.2626278
-2.3817189 1.1889396 1.2548642 -3.2032309 -2.0161555 0.41674277 0.6083908 -1.503576
0.26673183 -1.851927 0.9287964 -2.4019914 3.8408175 1.6717489 -1.4765024 0.4700818
-0.0006470384 -0.5719016 0.120619625 0.42479512 -0.9652456 -1.30922 -1.6523535 -1.6128305
-0.108595856 -0.5648911 0.75278157 -2.0288136 0.63646054 1.454627 0.8394648 -0.5179597
-4.099029 -0.44237766 0.47950345 0.6187839 0.85078555 0.938839 -1.1649661 -0.34232
1.2201833 0.6497352 1.1866714 -0.81191057 -1.0902936 -0.32912067 -1.1695932 -0.7314826
1.5319512 0.48032036 -6.5527496 1.1848676 0.34284455 -2.2509067 -1.0273422 1.4697073
0.27938056 0.58805543 1.0941783 -0.3123432 -2.6112719 0.26774716 1.8938221 0.49504778
0.2937225 3.7925642 -1.1563772 -0.5894116 -3.3241782 0.46292976 1.334543 0.17363861
0.78420365 0.9488961 -0.7609553 -0.4787656 -2.5466745 -0.5633571 -3.1138074 0.17433523
-1.575 1.7107526 1.8937842 -2.8269293 0.23219103 -0.23903567 0.39291188 1.6436632
1.4863139 -2.666842 -2.9457672 0.8782476 -0.3327183 -0.35360965 -1.6321999 -0.977164
-1.4134927 -0.6507906 -1.6725545 -0.69514257 -0.53772336 -3.2640831 1.7434697 0.8919439
-2.845461 1.6245896 0.23848826 -2.988982 -0.03783615 -2.2696414 -0.95277715 -1.8118457
-0.8333763 0.2183325 -1.3210276 -2.9936922 0.1772328 0.742417 1.1296046 -1.71798
-2.4627419 0.6290429 1.8211462 2.142693 0.78444064 -2.3957412 0.9213825 -0.27550155
-0.03387106 -0.9640308 2.2446811 2.7552526 2.1562862 0.6446756 -0.03185815 -0.8580192

bias f4 [16]
00000000: 9668 aabe 2f16 b13f 13bf c53e 761e cbbe
00000010: 5294 9f3f ecb1 bb3f cc56 59bf e36d 213f
00000020: e534 6b3f 94b1 e7be 130f d6bf 447d 8abf
00000030: 178f 823f fb0f f1bf 0684 933e 69e6 e7bf
-0.33282918 1.3834895 0.3862234 -0.39671677 1.2467139 1.4663672 -0.84898067 0.630583
0.91877586 -0.4525267 -1.672335 -1.0819478 1.0199918 -1.8833002 0.28811663 -1.8117191

weight f4 [16]
00000000: 90ea be3f 7447 3240 23de 2d40 5f6d 0040
00000010: 0310 2140 0042 1f40 f9a8 0540 1306 663f
00000020: e7d6 1740 6ebd fe3f 1045 1140 035b 3740
00000030: a695 1140 2a76 3740 c326 2040 765f 0140
1.4915333 2.7856112 2.7166831 2.0066755 2.5166023 2.4884033 2.0884383 0.8985302
2.3724916 1.9901559 2.2698402 2.86493 2.2747588 2.8665872 2.5023658 2.0214515

bias f4 [16]
00000000: daf2 0940 e050 5abe 894b b73e 86d6 f8be
00000010: 880b 183f 89a7 743f 827a b23e 311b 0340
00000020: 5748 0b3f 374e 9d3f f1b6 983d 7f72 ec3e
00000030: bd79 69be 2fd7 91bf a4bd 1f3f a8e6 50bf
2.1554475 -0.21319914 0.35799816 -0.48601168 0.59392595 0.9556814 0.3485909 2.0485346
0.54407257 1.2289494 0.07456768 0.46181104 -0.22800346 -1.1393794 0.62398744 -0.81601954

running_mean f4 [16]
00000000: b8ac 83c0 ca76 3dc2 3319 bec1 e635 d1c1
00000010: 0a01 4ac2 5f89 1442 74ab 9cc2 e559 cbc1
00000020: d6c4 2ec2 d791 c041 cf83 ccc1 69df 2342
00000030: 9040 9bc1 7527 87c1 e9fa ca41 ecf6 8bc2
-4.114834 -47.366005 -23.762304 -26.151318 -50.501015 37.13415 -78.33487 -25.418894
-43.692223 24.07121 -25.56436 40.968174 -19.406525 -16.894266 25.372515 -69.98227

running_var f4 [16]
00000000: 2f60 b043 165c a543 8c0e a844 2e71 f143
00000010: d0e8 ca43 ca63 5c44 c641 b844 ea8f 3244
00000020: 4763 8544 8803 ce43 26d8 e643 6bc0 5544
00000030: 031d 5a44 a561 c343 4073 e843 e6a6 9c43
352.75143 330.71942 1344.4546 482.88422 405.81885 881.5592 1474.0554 714.24866
1067.1024 412.0276 461.68866 855.00653 872.4533 390.76285 464.9004 313.3039

weight f4 [32, 16, 3]
00000000: 9019 46bd 3aca f2bf 3084 793e 6b8b 773f
00000010: bac0 42be d1d9 bdbf ad7f ca3f 1fda 7abf
00000020: f389 363f 3785 363f 4f7d 80bd c59a 15c0
00000030: 55bc 4ec0 6f43 53bf 0fd7 62bf 16c2 a7bf
00000040: 53bc f8bf 7272 dcbf b2fc 9f3f de63 b5bf
00000050: ec30 cabf 281f 7dbf 79f9 473f 626a 81bf
00000060: dfd9 243e ffcb efbe ca1f 94bf 6c80 c83e
00000070: c2f8 a4bf 53bb 83c0 699c 93c0 0d8c 8c3f
00000080: d7fc cabf 8e7f 17bf ea89 ecbf 61eb 62c0
00000090: b2ed a4bf 8a17 1dc0 c1d9 2dc0 c6dd aebf
000000a0: 4425 adbf eea0 903b 2218 10bf 48b7 b7bf
000000b0: 87a2 bf3f ffd6 d5bf 67b1 643f c3b0 7dbe
000000c0: c0cc 61bf 907d c5be 11e4 8a3f 4211 e1bf
000000d0: c725 2b3f 7723 2c3f fe6b c4bf 74e8 4dbe
000000e0: 2ab9 4fbd e938 73bf b39b 41bf 0d27 643f
000000f0: 9d1f eabf 5b3c 3ac0 cacf b83f b628 6fbe
00000100: 1b81 8c3e 844e 0440 a6f5 6d3e f9b5 bb3f
00000110: 3af1 0b3f 8c44 b73f 18ce db3f 0857 773f
00000120: c6cf dc3e 3672 0b40 abca 873f 4279 abbf
00000130: 8754 053f d066 3dbe 6994 07bf d461 3c3f
00000140: d324 5cbf 6aa6 37c0 4f7f 11bf 14e7 07bf
00000150: 3dee 6f3f 4cc8 9b3f 1f5b 5f40 5ac8 78bd
00000160: db2d 0140 d2aa 8840 d32d 0ac0 8a4c 0dbf
00000170: 6da5 bfbe f103 dbbf 5cff f3bf f68c b93f
00000180: 7568 1cbf 7950 febf 54c2 85bf f474 bbbf
00000190: bbcc 5fbe 52d2 f43f 950c debf 3313 0fc0
000001a0: 799a 02c0 ca95 20c0 06dd c33e 2e38 8a3e
000001b0: d7de 13bf 8a07 00c0 4f13 cebf cf35 08c0
000001c0: 49ef 943e f71a 0340 4cac 133f 3137 ecbc
000001d0: 3955 1b3e a0b9 f53f 25ad 833f 9256 833d
000001e0: ba24 843f 99bf 9b3f 6c1b 98bf c99a 2fbf
000001f0: ead2 45c0 668c c33b 38c3 a2bf 94ea 0a40
00000200: 5e8d 983e 8c6c 5ac0 1b3f 17c0 4c31 98bf
00000210: ff4f 94bf c31c 863f 6523 1a40 ba76 d03d
00000220: 3a01 2b3f c28f 1e40 ac7a ecbf 479f 46c0
00000230: 798d 7c3f addf 11c0 9fc5 dabf 6747 3abf
00000240: 9028 2040 e84b 973f 2cbd 32c0 2e6a 2f3e
00000250: 5031 90bf 1ea8 e13f bfe3 1940 efc0 083f
00000260: 95ef 45c0 6536 923f ed0a 08c0 bd48 e43f
00000270: b154 56c0 ca50 8ebe c1d7 953f e723 f53f
00000280: 5c88 0440 187f f3bf c9c5 113f 76a0 12c0
00000290: cd2c 8abe 4ad3 30c0 0d5d 94bf d988 a23f
000002a0: 3840 b8bf 8d0d 32bf 732c f3bf 48d2 d73e
000002b0: 44f7 0bbe ecbe dd3f cb76 f7bf cd17 1abe
000002c0: 7e58 9f3f d93c 0a3f eb0a aa3e 3be2 4240
000002d0: 8ed5 003e 059c 38bf c911 afbf 2545 353e
000002e0: c4a5 803e dac3 0cc0 3751 173f e2aa abbf
000002f0: 81a6 08c0 acce afbf e17c 953e 6d76 1ac0
00000300: 797c f0bf 647b a8bf a92b 33c0 c3f9 b4bf
00000310: 65d7 643e bb27 07be eb73 8cbf 1602 d13e
00000320: f665 633f d243 133e c027 4bbf 95b8 b33f
00000330: b921 fcbf c6f5 67c0 5af8 ccbf d80a 73c0
00000340: 427f 193c 63d7 993f 8c87 773e c061 09bf
00000350: b73a a8be a11b 883e 3a6f 1fc0 fe4b 5bc0
00000360: 825e 973f f8ea 683f 408b 83bf 3794 0ac0
00000370: 7338 96c0 06a2 4c3f dd8f d6bf 1e77 38bf
00000380: 97a2 673f b6c6 91bf 6093 bf3e d15e 14bf
00000390: 47a3 2e3f d244 b0be 2fc0 513f 0a8b 3abf
000003a0: 8f24 29bf d9d4 8a40 ac66 f43d 083a b63f
000003b0: 9837 233f d581 fbbf 230a 0dc0 1e72 d43f
000003c0: 1224 91c0 5c45 5b3f eb7c edbc d026 383e
000003d0: 8eec 3ec0 2a80 a5be e55e 72c0 66af d83e
000003e0: 80cc a23f a456 2a3f c05b cbbf 54bc 80be
000003f0: 73ab 203e 3a14 803f 0990 1dc0 9e1e 2cbf
-0.048364222 -1.8967965 0.24366832 0.9669711 -0.19018832 -1.4832097 1.5820214 -0.97989076
0.71304244 0.7129702 -0.06273901 -2.3375714 -3.2302449 -0.8252477 -0.88609403 -1.3106105
-1.9432472 -1.7222426 1.2498991 -1.4171102 -1.579618 -0.98875666 0.7811504 -1.011059
0.16098736 -0.46835324 -1.1572201 0.39160478 -1.2888415 -4.1166167 -4.612843 1.098024
-1.5858411 -0.5917901 -1.8479588 -3.5456164 -1.2885039 -2.4545617 -2.7164156 -1.366143
-1.3526998 0.0044137156 -0.56286824 -1.4352808 1.4971474 -1.6706237 0.89333194 -0.2477446
-0.8820305 -0.3857236 1.085085 -1.7583392 0.6685452 0.67241615 -1.5345457 -0.20108205
-0.050713696 -0.95008713 -0.75628203 0.89122087 -1.8290898 -2.9099338 1.4438412 -0.23355374
0.2744225 2.0672922 0.23238239 1.4664909 0.5466496 1.4317794 1.717227 0.96617174
0.4312727 2.178846 1.0608724 -1.339638 0.52082103 -0.18496251 -0.5296083 0.73586774
-0.8599369 -2.869532 -0.5683488 -0.5308697 0.937229 1.2170501 3.4899366 -0.060737945
2.0184238 4.270852 -2.159047 -0.55194914 -0.37430897 -1.7110578 -1.9062304 1.4496143
-0.6109689 -1.9868308 -1.0449929 -1.4645066 -0.21855442 1.9126685 -1.734759 -2.2355468
-2.0406783 -2.5091424 0.38254565 0.26995987 -0.577619 -2.0004601 -1.6099643 -2.1282842
0.2908881 2.0485208 0.5768478 -0.028834911 0.15169229 1.9197273 1.0287215 0.06412996
1.0323708 1.2167846 -1.1883368 -0.6859556 -3.0909982 0.0059676645 -1.2715826 2.1705675
0.29795355 -3.4128752 -2.3632267 -1.1890044 -1.1586913 1.0477527 2.4084103 0.10178895
0.66798747 2.4775243 -1.8474936 -3.1034715 0.9865337 -2.279277 -1.7091559 -0.727652
2.5024757 1.182004 -2.7927961 0.17130348 -1.1265049 1.762943 2.4045255 0.53419393
-3.092748 1.142285 -2.1256669 1.7834698 -3.3489192 -0.27796012 1.1706468 1.9151582
2.0708227 -1.9023161 0.5694242 -2.2910438 -0.26987305 -2.762896 -1.1590897 1.2698013
-1.4394598 -0.69551927 -1.899794 0.4215262 -0.13668543 1.732389 -1.9333128 -0.15048142
1.2448881 0.53999096 0.33211455 3.045058 0.12581465 -0.72113067 -1.3677303 0.17702158
0.2512647 -2.1994538 0.591083 -1.3411524 -2.1351626 -1.3734946 0.29196838 -2.4134781
-1.8787986 -1.3162656 -2.7995398 -1.4138721 0.22347791 -0.1319875 -1.0972875 0.40821904
0.88827455 0.1438134 -0.7935753 1.4040705 -1.9697791 -3.6243758 -1.6013291 -3.7975368
0.0093687195 1.2018856 0.24172801 -0.5366478 -0.32857296 0.2658358 -2.4911637 -3.4265132
1.1825716 0.90983534 -1.0276871 -2.1652963 -4.694391 0.7993473 -1.6762654 -0.7205676
0.9048247 -1.1388767 0.37417126 -0.5795718 0.6821789 -0.34427506 0.81933874 -0.72868407
-0.6607141 4.3384824 0.119336456 1.423646 0.63756704 -1.9648997 -2.2037437 1.6597326
-4.535653 0.8565271 -0.02899023 0.17983556 -2.9831882 -0.32324344 -3.787042 0.42321318
1.2718658 0.66538453 -1.5887375 -0.25143683 0.15690403 1.0006173 -2.4619162 -0.6723422

bias f4 [32]
00000000: 3877 ddbe f878 77bf 8e62 9d3f 5492 68be
00000010: 4a39 0a3f 3d10 a13e bc7e 6c3e 888c 84be
00000020: c5eb 2a3d 3108 893f 88b8 93be 087f 53bd
00000030: b112 963e 6808 853f 8d81 093f eb54 81bf
00000040: a265 a33e 94f7 513f 9e80 e33f 1493 1d3f
00000050: 187e cc3f d4d8 b73d d476 0840 cbe6 3b3e
00000060: c47d 79bf cb95 0540 eca1 b43f 0c8f ebbf
00000070: c4f1 5d3f e95b 70bf a973 5840 f037 80be
-0.4325502 -0.9666896 1.2295702 -0.2271207 0.53993666 0.314577 0.2309522 -0.25888467
0.041728754 1.0705625 -0.28851724 -0.05163482 0.29311135 1.039319 0.53713304 -1.010404
0.31913477 0.820184 1.7773626 0.6155255 1.5975981 0.089769036 2.1322527 0.1834976
-0.9745753 2.0872676 1.4111915 -1.840303 0.8669703 -0.93890244 3.3820593 -0.25042677

weight f4 [32]
00000000: 23ab 1c40 2716 ea3f a48e 0c40 71aa 0e40
00000010: 8cf2 1540 750c 0140 8b37 0540 ec6a cf3f
00000020: e64d bd3f 3ea9 df3f 9985 1440 d0c8 0940
00000030: 2280 0e40 1409 803f 7aca 1940 3671 ce3f
00000040: cce1 2740 9a43 1340 e0a8 c33f fa18 973f
00000050: df29 0e40 3473 c83d 8c95 fd3f b3a4 1640
00000060: d87f 1540 f44d c73f 91e2 e03f 5175 fd3f
00000070: e717 cd3f b468 1940 517f 1640 9683 e43f
2.4479454 1.828801 2.196206 2.229153 2.342929 2.0163853 2.081515 1.6204505
1.4789398 1.7473524 2.3206542 2.1528816 2.2265706 1.000277 2.4029832 1.6128299
2.6231565 2.301001 1.5285912 1.1804497 2.2213056 0.09787598 1.9811263 2.3538024
2.335928 1.5570664 1.7569143 1.9801427 1.602292 2.3970156 2.3515208 1.7852657

bias f4 [32]
00000000: 6830 75be 8515 c7bf 75b7 df3e 99b1 1e3f
00000010: 83b0 47be a6b8 6f3e bf4d babf 2672 e2bf
00000020: 1ca6 12c0 efb2 79bf a0e0 cfbf e578 413f
00000030: 9ef9 eebd 7102 c33f d61d 94be 77b1 67bf
00000040: a17a 873f c5f6 22bf 8278 0140 2c5a b4be
00000050: 442d e63e 9ea1 8dbf 9264 10be 0f9f 40be
00000060: d582 acbd 6ec3 1cc0 6729 f83f 1747 89be
00000070: 0ea4 01bf 6680 5dbf bd5c 2ebf 8228 893f
-0.23944247 -1.5553442 0.43694654 0.6198974 -0.19500928 0.23410282 -1.4554976 -1.7691085
-2.2913885 -0.97538656 -1.6240425 0.75575095 -0.116687045 1.523512 -0.28929013 -0.90505165
1.0584298 -0.6365779 2.0229802 -0.35225046 0.4495641 -1.1064947 -0.14100865 -0.18810676
-0.08423392 -2.449428 1.9387635 -0.2681205 -0.5064095 -0.86524045 -0.6811026 1.0715487

running_mean f4 [32]
00000000: c850 4ac2 72a4 c140 7e97 d6c1 7fd1 11c1
00000010: 9479 32c2 bc67 12c2 db9a 0342 64bf a841
00000020: 0165 ee41 1731 c0c1 6d40 983f 3d05 f340
00000030: c17c dec0 b49e 04c1 eabe b1c1 e9b2 ef41
00000040: d42d 71c1 73a1 9bc1 b0f8 b0c1 ac03 ae41
00000050: f1b1 15c2 dbc6 56c0 aa61 0f42 9c73 06c2
00000060: 0b55 0cc0 866f c841 9b90 aec1 1251 963f
00000070: a8ef 7541 301a c8c1 5a72 45c1 d034 25c0
-50.578888 6.051324 -26.82397 -9.1136465 -44.61873 -36.601303 32.901226 21.093452
29.799318 -24.02397 1.1894661 7.5943894 -6.9527287 -8.288746 -22.21822 29.962358
-15.0736885 -19.453833 -22.12143 21.751793 -37.42377 -3.3558872 35.845375 -33.6129
-2.1926906 25.054455 -21.820608 1.1743491 15.37101 -25.012787 -12.340418 -2.5813484

running_var f4 [32]
00000000: 8d67 9044 9df0 2544 2265 5244 d056 3744
00000010: 6330 1a44 e896 3f44 9f16 3344 cf35 3044
00000020: 91b2 f343 c383 4a44 f910 0b44 a57a 6b44
00000030: 7562 9644 c8ce 3144 a3f2 fe43 ff22 1044
00000040: 5513 5944 3c8c b443 190b c044 ebf7 0344
00000050: b801 e443 e560 8743 a3c0 2e44 cff6 a144
00000060: ad2b 6044 df42 1e44 3100 8d44 c22b 3444
00000070: daf5 3644 72d4 5c44 e68f 0844 1464 8144
1155.236 663.7596 841.5802 733.35645 616.75604 766.3579 716.35345 704.84076
487.39505 810.0588 556.2652 941.9163 1203.0768 711.23096 509.8956 576.5468
868.30206 361.09558 1536.3468 527.8737 456.01343 270.757 699.00995 1295.7128
896.68243 633.04486 1128.006 720.6837 731.84143 883.31946 546.2484 1035.1274

weight f4 [32, 32, 3]
00000000: f5f5 943f 4829 b33e 0088 093f 3ccb a73f
00000010: 8b0a 0cbf 03a7 25c0 cd0f 3440 6a57 8cbd
00000020: 0441 12c0 d1ed f33f 7892 27be b669 3bbf
00000030: 282e 54c0 1248 a13f 7933 08c0 6cbf 143f
00000040: d5e8 e03f aad0 80bf c1a5 1340 e3ae b43f
00000050: 6946 c03f 6fb1 413f d3fe 283d 870f 54c0
00000060: 595c 09c0 040c 20c0 f7b8 68bf 2b4d 6340
00000070: a7af 783f e780 59c0 b8fc 013f 0651 c13e
00000080: 92fc 72bf 4966 3240 b576 1740 03bb a8bf
00000090: 3873 be3f c317 ab3e ac5d bfbf 2f21 6a40
000000a0: 79f3 acbf 993f 0ebe 5e8d 903f a2c3 d03f
000000b0: 421a d0bf bfca db3f 59b0 5a3e 98d8 063f
000000c0: 8b8b d03e 732e 21c0 3874 9bc0 e9fe 76bf
000000d0: e917 283f 9a81 0b40 4c0e 84bf ecff 6b3f
000000e0: e669 dabd a39c 9d3f f89b 98be d68a 73be
000000f0: 30b4 2340 35e3 6b3f d734 79bf c51a bf3e
00000100: 37ea 13bf f870 6abf d533 a83f e13f ffbf
00000110: 576d c3bf 0d96 113e ebef 733e 3b76 0e3f
00000120: 0b9a aabf 50d7 8b3a 7f15 473f e46b 0140
00000130: 8270 843e 746b 123d f023 0ebf 4c4e 68bf
00000140: 4736 13c0 8808 d73f 17b1 64be aa99 d6bf
00000150: 0c32 8c3f d892 893e 6bc7 e2be 600a da3f
00000160: 9352 423f 3666 2240 c862 efbd de2b 103f
00000170: 6c51 17c0 82d9 a0bf 47e7 b93e 2941 df3e
00000180: 30cb 2640 14b4 203f 6032 0b40 dc0b 7c3e
00000190: ab56 41be 9e4c 8540 ce0e 01c0 52c3 fdbe
000001a0: ae50 f23e cf17 433f 423e b4be fbc6 62bf
000001b0: de43 3f3f 89e6 ab3e a325 8340 1fbd 883e
000001c0: 1a79 3dbf db3b 793f f4eb 973f 5ddc 543f
000001d0: 9fbc 3bc0 84cc fabf f0ed 75bf 7db9 bdbd
000001e0: 13f4 1340 d8c7 423f a5b2 c9be de26 98bf
000001f0: 63fd 5a3f c328 b43f 1b8f 98bf 7f41 2ac0
00000200: 8084 72c0 ad56 55bf 05d5 903f d031 e5bd
00000210: 65bd 01c0 12c0 54bd 0bbc 5a40 5032 80bf
00000220: 68a5 c1be dcaa 2ec0 0ce0 5f3e 694a 84bf
00000230: b165 8a3f 2493 2ebf 41a0 963f 4a2b 00c0
00000240: 277d 52bf ff35 d7be 6516 b0bf c47e 193d
00000250: 2429 a23f 6731 9740 cff1 2fbf b8e1 e6bf
00000260: 539f 9f3f c11c bbbf b7de ecbf bf5a 2b3e
00000270: f0ef 0d40 51b5 b73f 2e82 dabf 2af3 e33d
00000280: c862 a7be 0f8d 28bf a3c9 ec3e 24fb 6bbf
00000290: 8aa8 62c0 da54 81c0 90ed 3fbf 5fe2 3040
000002a0: 2521 453f 0845 a9bf 41e2 b2c0 ed91 3e40
000002b0: 3151 773d 21f1 6abf db7a d4bf 6b48 cabf
000002c0: c9cf c53f 5a77 883f 7abd 19c0 9168 2dbf
000002d0: 58bd 83bf b22c 3abf 9b83 aabf 485b 1f40
000002e0: db0e 0e3f 9ff5 c2c0 1722 bebf 16d7 e6bf
000002f0: 6d3a f13e 8422 713f 42ea 71bf 42b5 383e
00000300: d7c8 fa3f bebf 6d3f 5c4f 79bc 9bd8 a1be
00000310: 7dec 98bf 8943 c03f d3f9 1440 1a76 86bf
00000320: 5fa8 b2be 11fc 27c0 98f6 2a3f 7226 59bf
00000330: ae27 fa3f c192 b1bf fa3b 03c0 58f1 d5bf
00000340: ed8b a3bf fac7 593f e861 e93e ca02 acbe
00000350: 4d00 9dbf 8b7b b3be dc45 ce3f 85ed ce3f
00000360: 3d0a 30c0 e135 b03e d151 c33f d9aa bbbf
00000370: 0d4c bd3e ec3c 9a3f e771 213f 2448 8abf
00000380: b6a9 453e ebfa e7bd 4322 5d3f c0d8 813f
00000390: dc33 c3bf ac0d 4d3f 67ca 8740 9b2b 8540
000003a0: f96b 1cc0 53b6 983e 1c0b f0bf afae 41c0
000003b0: afba 81bf e404 04bf dc37 0cbe 22fc 803f
000003c0: 3e87 b5bb ac55 06bf 9a9f 9ebe 5d83 2c40
000003d0: 8d64 043f 6abe 8bc0 a486 c63f 7e56 25c0
000003e0: 9f86 4840 4f34 65bf a3b7 86bf 2e18 7f40
000003f0: fd99 11bf 63f6 183f 2103 2ebe 5fc0 5cbf
1.163756 0.34992433 0.53723145 1.3108897 -0.5470359 -2.5883186 2.8134644 -0.068526104
-2.2852182 1.9056951 -0.16364467 -0.7320818 -3.3153172 1.2600119 -2.1281416 0.58104587
1.7571055 -1.0063679 2.3069918 1.4115871 1.5021487 0.7566137 0.041258644 -3.3134477
-2.1462615 -2.5007334 -0.90907234 3.551585 0.97143024 -3.3984926 0.50776243 0.37757128
-0.9491664 2.787493 2.3666203 -1.3182071 1.4878912 0.33416566 -1.4950461 3.6582754
-1.3511802 -0.13891448 1.1293142 1.6309702 -1.6258013 1.7171248 0.21356334 0.52674246
0.40731463 -2.51846 -4.857937 -0.9648271 0.65661484 2.1797853 -1.0316863 0.9218738
-0.1066473 1.2313427 -0.29806495 -0.2378343 2.5578728 0.92143565 -0.9734625 0.3732511
-0.5777926 -0.91578627 1.3140818 -1.9941369 -1.5267743 0.14217396 0.2382199 0.55649155
-1.332826 0.0010669027 0.77767175 2.0222101 0.25867087 0.035747007 -0.55523586 -0.9074447
-2.3001878 1.6799479 -0.2233318 -1.6765645 1.0952773 0.26869845 -0.4429277 1.7034416
0.7590725 2.5374885 -0.11688763 0.56316936 -2.3643446 -1.2566378 0.36309263 0.436044
2.6061516 0.6277478 2.1749496 0.24613899 -0.18880717 4.1656027 -2.0165286 -0.4956308
0.4732718 0.76208204 -0.3520375 -0.8858487 0.7471293 0.33574322 4.0983443 0.26706788
-0.7401291 0.9735696 1.1868882 0.8314875 -2.9333875 -1.9593663 -0.9606619 -0.09263895
2.311772 0.7608619 -0.39394107 -1.1886861 0.8554289 1.407494 -1.1918672 -2.6602476
-3.7893372 -0.8333538 1.1315008 -0.111911416 -2.0271847 -0.051940985 3.4177272 -1.0015354
-0.37821507 -2.7291784 0.21862811 -1.0335208 1.0812284 -0.6819327 1.1767656 -2.0026422
-0.8222222 -0.42033383 -1.3756834 0.03747441 1.2668805 4.7247806 -0.68728346 -1.8037634
1.2470497 -1.461815 -1.8505467 0.16733836 2.2177696 1.4352208 -1.7070978 0.11130364
-0.32692552 -0.6584024 0.46247587 -0.92180085 -3.5415368 -4.041608 -0.74971867 2.7638166
0.770037 -1.3224192 -5.590119 2.9776566 0.060380165 -0.91774184 -1.6599993 -1.580335
1.5454036 1.0661423 -2.4021897 -0.6773768 -1.0292158 -0.7272445 -1.3321413 2.4899464
0.5549142 -6.092483 -1.4854153 -1.8034389 0.47114888 0.9419329 -0.94498074 0.18037894
1.9592541 0.928707 -0.015216675 -0.3161057 -1.194717 1.502061 2.327748 -1.0504792
-0.34894082 -2.62476 0.6678252 -0.8482429 1.9543359 -1.3872911 -2.0505357 -1.6714277
-1.2777077 0.85070765 0.4558251 -0.33595878 -1.2265717 -0.35055193 1.6115069 1.6166235
-2.750625 0.34416106 1.5259343 -1.4661514 0.36972085 1.2049842 0.63064426 -1.0803266
0.19303021 -0.11327156 0.86380404 1.0144272 -1.5250201 0.80098987 4.2434573 4.161573
-2.4440901 0.29826602 -1.875339 -3.0262868 -1.0135096 -0.5156996 -0.13693184 1.0076945
-0.0055398038 -0.52474475 -0.3098114 2.6955178 0.5171593 -4.366994 1.5509839 -2.583404
3.1332166 -0.8953294 -1.0524791 3.9858508 -0.5687559 0.59750956 -0.16993381 -0.86231035

bias f4 [32]
00000000: 4751 adbe 7008 58bf 6952 053e 73fb 45c0
00000010: fb4d 403f c05d 27bf 508e 2fbf cc4b 993e
00000020: c93e e3bf a57a 78bf 6839 f8be 3a39 1bbf
00000030: 78f1 5d3f 2d47 873f 737e ee3f 6480 803f
00000040: d29b 2ebd 6c1a 78bf 88f1 533f cd56 25be
00000050: 096b 18bf 93d2 973e 96c9 1140 e40f cdbd
00000060: 2f5c 84bf 7e17 2bbc 38d5 4cbf fa94 933e
00000070: b069 943f 27d5 56bf 48f7 3d3f 24f8 683f
-0.33851072 -0.84387875 0.13019718 -3.0934722 0.7511899 -0.65377426 -0.68576527 0.2994064
-1.7753536 -0.9706214 -0.48481297 -0.60634196 0.8669658 1.0568596 1.8632339 1.0039182
-0.04262907 -0.96915317 0.8279042 -0.16146393 -0.5953832 0.29652843 2.2779288 -0.100127965
-1.0340632 -0.010442613 -0.80012846 0.28824598 1.1594753 -0.83918995 0.74205446 0.9100363

weight f4 [32]
00000000: 9dcf ed3f eb20 2840 a054 d93f 9891 1f40
00000010: 4a03 0240 a4ad 0040 3162 3c40 ec83 1d40
00000020: e112 2740 966a bd3f 9ae6 1e40 f36e 0540
00000030: 2d3d ba3f d034 3a40 1057 2d40 48ee 2140
00000040: 55a0 1340 7552 0d40 ca77 e83f 5117 4040
00000050: d91d bb3f 479f eb3f 2641 4140 da24 2e40
00000060: b7c4 0240 9d3f 2940 b3de 2340 862c 0440
00000070: c725 bd3f 5bf5 1240 6ae0 de3f 3c09 1e40
1.8578984 2.6270092 1.697895 2.4932613 2.0314507 2.0105982 2.9434931 2.4611769
2.6105273 1.4798152 2.4828248 2.0848968 1.4549919 2.9094734 2.7084389 2.5301685
2.306661 2.2081578 1.8161557 3.0014231 1.4618484 1.8407983 3.0196013 2.7209992
2.0432565 2.6445076 2.5604675 2.0652175 1.4777154 2.2962253 1.7412236 2.4693136

bias f4 [32]
00000000: 1a6b 21bf d2c0 bfbe 24f7 29c0 72dd 7e3f
00000010: 862f c9bf 3e23 2c3f fe17 a03f a174 91bf
00000020: 40f0 98bf 2ae7 1ec0 a728 44be 15a3 78bf
00000030: 35c7 10c0 82e4 173f d377 acbe 0898 7cbe
00000040: 35d0 aebe 0b3a 47bf f1a9 d5bf 77e5 153e
00000050: 5267 ffbf c4db 90bc 964e 623e 094d 8ebf
00000060: 0bbe 7c3f 229c b2bd 9622 7ebf 8731 a6be
00000070: 5702 29c0 bf0a f7be 0789 0ac0 13dd d0be
-0.6305405 -0.37451798 -2.6557093 0.9955665 -1.5717628 0.67241275 1.2507322 -1.1363717
-1.1948318 -2.4828591 -0.19156133 -0.97123843 -2.2621586 0.5933305 -0.3368517 -0.2466737
-0.34143224 -0.7782294 -1.6692487 0.14638315 -1.9953406 -0.017682917 0.2210029 -1.1117259
0.9872748 -0.08721186 -0.99271524 -0.3245966 -2.6407678 -0.48250386 -2.1646135 -0.40793666

running_mean f4 [32]
00000000: 085f 95c0 b60e d6c1 8ec3 a941 c65f 5641
00000010: 1eec 33c2 5a12 0041 dd42 b7c1 bd53 8dc1
00000020: ef2e b7c2 fc0b db41 93a2 c4c1 1855 f140
00000030: 75d7 dbc0 f5da 51c2 388b b0c1 0ff6 bcc0
00000040: 950b 38c2 22b8 4ac1 377e 30c2 6f38 65c2
00000050: dd80 0242 abf9 88c1 9445 32c2 3723 63c2
00000060: e444 a940 f4c1 1fc1 f188 90c2 c074 e5c0
00000070: ea49 a941 36f8 b0bd fb82 2742 4fe6 dfc1
-4.6678505 -26.757183 21.220486 13.398382 -44.980583 8.00448 -22.907648 -17.665888
-91.59167 27.380852 -24.579382 7.5416374 -6.870051 -52.463825 -22.067978 -5.9050364
-46.01131 -12.669954 -44.123257 -57.30511 32.625843 -17.121908 -44.567947 -56.78439
5.2896595 -9.984852 -72.26746 -7.1705017 21.16109 -0.086410925 41.87791 -27.987455

running_var f4 [32]
00000000: 64c5 a944 7296 5d44 4aa5 4344 8d0a 9c44
00000010: 8159 3044 f66f a344 0824 f444 862b b644
00000020: af55 8544 2aae 2944 a24c 8544 1e9e a744
00000030: 5c61 3244 12f3 ff44 71fe 1945 c524 bb44
00000040: bfa9 b344 e486 5644 635c 0944 49b2 8144
00000050: 137e 6a44 1c00 d544 e18e bd44 c46b 7a44
00000060: c6c2 ae44 4ff5 ad44 6da4 8744 d09d 9744
00000070: dab0 2544 063d 8b44 d03c 0244 2389 8944
1358.1685 886.3507 782.58264 1248.3297 705.3985 1307.4988 1953.126 1457.3601
1066.6776 678.7213 1066.3948 1340.9412 713.52124 2047.596 2463.9026 1497.149
1437.3046 858.10767 549.44354 1037.5714 937.9699 1704.0034 1516.465 1001.68384
1398.0867 1391.6659 1085.1383 1212.9316 662.7633 1113.907 520.9502 1100.2855

weight f4 [64, 32, 3]
00000000: 0225 5cc0 04c6 0ac0 20a3 8fbe 55ab d93d
00000010: a789 d53f a7cd 5640 15e4 023f b87b 833f
00000020: eaf9 fcbf 717c 4d3f 3345 1d40 0805 853f
00000030: 4f5c 48bf 5b89 db3c b9f5 1840 2a11 513f
00000040: 1baf d8bf 0e28 8ec0 a31d 84bf 569b 2cbf
00000050: 8907 50bf e055 a43f e1df b1bf ec51 843d
00000060: 1495 b1bd c198 823d e6e4 cc3f 6d44 e33e
00000070: 9ade c63e f47b 7dbe 0276 43bf 0dc2 233e
00000080: 3e25 a13f d78d f0be b836 5c3f 41f4 a7bf
00000090: 9e1c a33e 5027 a3be 1843 f63c 909b 15bf
000000a0: 447f edbf 96f0 363f eecb 79bf 4af0 f8bf
000000b0: 1d74 bc3f 502d a83f 805f b13f 3bab 01be
000000c0: 3403 94bf c9af 1fc0 a5e6 eb3f 869e e2bf
000000d0: 9e5f 02bf 4234 e33f fab3 89be 57de ccbf
000000e0: 9213 273d 989c ecbf 9b45 afbe d454 8cbd
000000f0: c7eb 653f b15d 653f 98c2 9b3f 9cc2 8bc0
00000100: ebda b93f e984 0640 1fee adbf 2a2b 9cbf
00000110: cbe8 15bf f29b b8bf b1da b1bf 7825 07c0
00000120: fb50 f63f bfe4 38c0 679d 63bf 1c0c c0c0
00000130: 154d c2bf 51e5 8ec0 a5f1 48be c943 3fbc
00000140: 1540 a8bf b75d 19bf 3dc0 33c0 4931 d0c0
00000150: d012 46c0 8be4 013f 5564 f9bf c9f3 9f3f
00000160: f903 5e3f 4e73 73be 59f1 c03f 7c9f 5a3f
00000170: d75e 1840 b157 2ec0 8057 7b3f 8c69 a7bf
00000180: 0824 59c0 019f bf3f b373 85bd f732 0d40
00000190: 13d7 0fc0 68e7 9e3f a4f5 b03f 9f25 f5bf
000001a0: c32f 473f 06ae bb3f ff61 763d 7815 e5bf
000001b0: b345 103f f087 ed3f 8f95 513f 911e ee3f
000001c0: 7fd1 cc3d 6f2a 74bb 5a45 37c0 4f40 36c0
000001d0: 1598 62bf 6c7e 8ac0 a99b 3bc0 d51d 09c0
000001e0: f60e 813e e69f eb3e d331 7bbf 0e71 2240
000001f0: 75f8 b13f 7324 c63f b4a2 e53f 76da 82be
00000200: fba1 37bf 368e 21bf f4d1 4bc0 8017 153e
00000210: a5ea ff3e 8513 813f 0d5b 11bf bf58 8bc0
00000220: a68e 5f3f f7f9 17c0 31ca c13f 828d 6b3e
00000230: fe41 113f 8d24 ebbf 7ee2 17bf fd7e 78c0
00000240: 1f5d b5c0 36a2 2bc0 84c6 e9bf 5bb0 26bf
00000250: 8271 3dbf 904e 1a3f 8e7f 28be 5ebb 8c3f
00000260: 2d39 043f df17 ffbf 464b 2340 53df a3bf
00000270: b09b d9be 8b34 523f f6c8 ccbd 5559 9ebf
00000280: 2ec8 8b3f 7870 4abf 8f82 9ebf 516d 1bbf
00000290: 5c5b 34bf 8429 4abf 784b 2fc0 e2ff 30c0
000002a0: 24a0 94bf 9e44 853e db88 6ac0 d8eb 38c0
000002b0: 7bf8 9dbe d440 a23f b65c 9cbf b593 ee3e
000002c0: 668a b43f 5fd6 dbbf 8f36 0cbf 6170 493f
000002d0: abb7 1640 420c 9b3f 5895 aa3f 3791 523f
000002e0: 8a3d 25c0 8812 e3bf ee46 3540 c476 4c3f
000002f0: 16a4 f0bf 0b15 bc3f 1bec f3bf 1732 21c0
00000300: e4e5 05bf 3e9a 6abf adc3 4a3f 4286 b9bf
00000310: 0f83 8cbf 7863 f0bf ee81 0940 6d99 793f
00000320: fc14 43c0 9043 1140 a4cb 53bf 4ef6 8d3f
00000330: b0e4 febf 972b ce3d 3def 1cbe 8b05 0340
00000340: 15a2 183d d642 1fbe 18e5 783f 619b b83e
00000350: 9f46 6b3f 5cd4 93bf 646d 00be dce8 0240
00000360: cddc 54bf 51e6 113f c918 7ebf 65dd b2bc
00000370: 136c 79bf 55f7 503f 8016 d43f d5f7 a93f
00000380: 2dbf 863f d3e3 2840 c06e b0be f670 0740
00000390: 2cee 30be a169 b13f 5514 b13f 6f8b 343f
000003a0: 40c8 ec3f b8ee acbf 1c28 1abe e6a5 31c0
000003b0: 7c0a d7be 1e4f 18c0 c99f 413e a463 babf
000003c0: 0e2a c3be 3762 103f d66d 8cbe 0f12 d23f
000003d0: d7c7 1940 2809 a0bf e9e5 f93e 9975 7f3f
000003e0: 443c 6ebf ec42 0dc0 4bde 1840 6b45 c33e
000003f0: 2ec7 4940 ef1f 2740 2e6a 7b40 14c0 94bf
-3.4397588 -2.168336 -0.28054142 0.10628382 1.6682633 3.356302 0.51129276 1.0272131
-1.9763768 0.8026801 2.4573486 1.039216 -0.7826585 0.026798895 2.3899977 0.81666815
-1.6928438 -4.4423895 -1.0321544 -0.67424524 -0.812615 1.2838707 -1.3896447 0.06460938
-0.086710125 0.06376792 1.6007354 0.44388142 0.38841707 -0.24754316 -0.7635194 0.15991993
1.258949 -0.46983215 0.86020994 -1.3121415 0.3185777 -0.3186593 0.03006129 -0.58440495
-1.8554463 0.71460855 -0.97576797 -1.944833 1.4722935 1.3138828 1.3857269 -0.12662975
-1.1563478 -2.495104 1.8429762 -1.7704628 -0.5092715 1.7750323 -0.26895124 -1.6005353
0.040790148 -1.8485289 -0.34232792 -0.06852117 0.8981289 0.89596087 1.216876 -4.367506
1.4519933 2.1018622 -1.3588294 -1.2200673 -0.5855834 -1.4422591 -1.3894864 -2.111662
1.9243463 -2.8889616 -0.8891205 -6.001478 -1.5179774 -4.4654927 -0.1962343 -0.011673876
-1.3144556 -0.5990862 -2.8086083 -6.5060163 -3.0948982 0.50739354 -1.9483744 1.2496272
0.8672481 -0.23774454 1.5073653 0.85399604 2.3807886 -2.7241023 0.9818039 -1.3079085
-3.3928242 1.4970399 -0.065162085 2.2062356 -2.247502 1.241437 1.3824964 -1.9152106
0.77807254 1.4662483 0.06015205 -1.7897177 0.5635635 1.855711 0.81868833 1.8603078
0.10000896 -0.0037256738 -2.863608 -2.847675 -0.8851331 -4.3279324 -2.9313757 -2.1424458
0.25206727 0.4602043 -0.981229 2.5381503 1.3903948 1.5479873 1.7940278 -0.25557297
-0.7173154 -0.6310762 -3.1846895 0.14559746 0.49983707 1.0084082 -0.5677956 -4.3545833
0.8732704 -2.3746316 1.5139829 0.230032 0.5674132 -1.837053 -0.59329975 -3.8827507
-5.6676173 -2.6817756 -1.8263707 -0.6511285 -0.74001324 0.60276127 -0.16454908 1.099468
0.51649743 -1.992916 2.5514693 -1.2802528 -0.42501593 0.82111424 -0.09999268 -1.2371012
1.0920465 -0.79077864 -1.2383593 -0.6071368 -0.70451903 -0.789696 -2.7389812 -2.7656178
-1.1611371 0.26028913 -3.664603 -2.8893948 -0.30853638 1.2676034 -1.2215793 0.46597067
1.4104736 -1.7174796 -0.5477075 0.786871 2.3549602 1.2113116 1.3326826 0.8225283
-2.581881 -1.774003 2.8324542 0.7986872 -1.8800075 1.4693922 -1.9056429 -2.5186822
-0.5230391 -0.91641605 0.7920483 -1.4494097 -1.0977496 -1.8780355 2.1485553 0.97499734
-3.0481558 2.2697487 -0.82732606 1.1090791 -1.991354 0.10066908 -0.15325637 2.0472133
0.03726395 -0.1555284 0.9722457 0.36056045 0.91904634 -1.1549182 -0.12541729 2.0454626
-0.83149415 0.5699206 -0.9925657 -0.021834085 -0.97430533 0.816274 1.6569366 1.3278757
1.0527092 2.6389053 -0.34459496 2.1162696 -0.17278355 1.386036 1.383433 0.7052526
1.8498611 -1.3510351 -0.15054363 -2.7757506 -0.42000186 -2.379829 0.1890861 -1.4561658
-0.38118023 0.56399864 -0.27427548 1.6411761 2.4028223 -1.2502794 0.4880822 0.99788815
-0.9306071 -2.2072096 2.3885677 0.381389 3.152782 2.611324 3.9283557 -1.1621118

bias f4 [64]
00000000: 2ccc 80bf 7421 ffbe 3023 52bf 86a9 82bf
00000010: 3b5c f13e c780 80bf 77ad 983e 49a5 c0bf
00000020: ee4e 11bf 8fd3 21bf 62ab 943f d316 00bf
00000030: 5ff6 863f 0c7c 8fbd f78d d33f 70d1 7a3e
00000040: 30d1 61bf 66b1 f63f 71d4 1d3e 347a b5bf
00000050: 14e9 f0be e099 c73f f9c3 9abf a4c5 29be
00000060: 2d36 603f 1e00 39bf f468 66bf 872a f93d
00000070: 3627 08bf 5ac1 9d3f 4a00 22be e1cd 883f
00000080: 9467 fdbb 42d7 6bbe 54cf 883e 292f e6be
00000090: 4336 72be bc96 cebd 198c 29bf 541a e4bf
000000a0: f4f3 e7be 83cb a53e 3e1b b5be d431 883f
000000b0: a07d 943d af1f f4bf 1152 693e acf1 5abf
000000c0: 4954 a5be 940e 7ebe 0e8e febe 7757 0bbf
000000d0: c3b6 853f 50ad c4be e4f3 3c3f 4761 34be
000000e0: d036 4abf e4ad 74bf fa39 76bf 466b 2940
000000f0: 1dc1 bcbf 020e 8b3d da8c fc3d e89c e43f
-1.0062308 -0.4983021 -0.8208494 -1.0207984 0.4714068 -1.00393 0.29819843 -1.5050441
-0.5676106 -0.6321344 1.1614802 -0.50034827 1.0543936 -0.07006082 1.6527699 0.24493957
-0.8820982 1.9272888 0.15413071 -1.4177918 -0.47052824 1.5593834 -1.2091056 -0.165793
0.87582666 -0.72265804 -0.90003896 0.121663146 -0.5318483 1.2324631 -0.15820423 1.0687829
-0.0077332947 -0.23031333 0.2672068 -0.44957855 -0.23653512 -0.10087344 -0.662294 -1.7820535
-0.4530331 0.3238183 -0.35372347 1.0640206 0.072505236 -1.9072169 0.22785212 -0.8552501
-0.32290867 -0.24810249 -0.49717754 -0.54430336 1.04464 -0.38413477 0.7380965 -0.17615233
-0.7898989 -0.95577836 -0.96182215 2.6471725 -1.4746433 0.06789781 0.12331553 1.7860384

weight f4 [64]
00000000: e234 2a40 ecf3 3640 8178 df3f 5865 1540
00000010: e333 993f 1183 0d40 bae4 dc3f 81a7 ba3f
00000020: 0d0a f03f 5d14 ea3f 2488 0e40 0556 f53f
00000030: 644b 0040 2b3c d43f 00ba f13f ea43 2c40
00000040: f994 0c40 c625 f03f df75 0b40 7bc1 d33f
00000050: c3d6 0540 e8fc b73f 9d65 cb3f c290 cb3f
00000060: 836c b03f 6ca3 d33f dc82 1340 04d5 0440
00000070: 9ce9 a03f 3cdb fa3f 9fb0 f53f 6fca eb3f
00000080: f79c 0b40 512b 0740 dff7 ce3f 155e da3f
00000090: ad9c cd3f 125d 0740 4cfa 1840 0fd4 b23f
000000a0: 4e78 ae3f e256 eb3f f0cc bf3f c897 0e40
000000b0: a384 fa3f 48ad f53f 4ea5 c13f a77c 2240
000000c0: 8921 fd3f eaa5 d43f b638 de3f fa86 1440
000000d0: 0e5e 0940 3917 fb3f e530 d23f 6ae9 cb3f
000000e0: 933c 1740 f585 f93f c62a e53f a81e 1840
000000f0: 1d20 0c40 3ea4 cc3f 7496 1840 5ce5 0540
2.6594777 2.8586378 1.745865 2.3343105 1.196896 2.2111247 1.7257302 1.4582368
1.8753067 1.8287464 2.2270594 1.9166876 2.0046015 1.6580862 1.8884888 2.6916451
2.1965926 1.8761528 2.1790693 1.654342 2.091233 1.4374056 1.5890385 1.5903552
1.3783115 1.6534247 2.304862 2.0755014 1.2571292 1.9598155 1.9194525 1.8421153
2.1814554 2.1120188 1.6169394 1.7059962 1.6063439 2.1150556 2.390277 1.3970965
1.3630464 1.838589 1.4984417 2.228014 1.9571728 1.9193506 1.5128572 2.5388582
1.9775859 1.6613133 1.7361057 2.3207383 2.1463656 1.9616462 1.6421171 1.5930607
2.3630722 1.9494005 1.7903678 2.376871 2.18946 1.5987623 2.384183 2.092124

bias f4 [64]
00000000: ed5a 61bf 8483 f7bf b1b8 b2bf 2a07 1dbf
00000010: d436 3bc0 cc9a c2bf e539 563e f637 11bd
00000020: ae6c 53bf eef6 5abf e5ce 1dbf e1e9 e03e
00000030: 8d5c dfbe a3f3 d8bf 2273 bfbf 6fed abbf
00000040: 443c f0bc 303d 42bf ea24 9abf 9fd3 f4bf
00000050: 9464 11bf 20c9 fdbd 9d29 14c0 7a6b d7bf
00000060: 9261 e43d 0970 debe 1cd8 7abf 047a aabf
00000070: 098a 1bbf 5e82 3fbe 266f 87bf 87ec 0ec0
00000080: e25d d8bf d7f1 02be 5749 cebf ac56 2cc0
00000090: b7e5 dcbf 6155 bcbf d858 0e3e 3130 0cc0
000000a0: 39e0 09bf 2074 093e 024f 253f 2aef 9abf
000000b0: 92b1 c9bf a7a6 553f 1b25 8bbf 4282 03be
000000c0: 3c8e 1dc0 c9ce 9cbe 5506 24c0 5458 f4be
000000d0: fe0e 3dbe 51b0 2dbf fd6f aebf fe26 c6bf
000000e0: 3b73 b6bf e262 0cbf 550b 0cbd 45e3 15bf
000000f0: b453 8abe 964c 873f 69a4 89bf 00fc 4fbf
-0.88029367 -1.933701 -1.3962613 -0.61339056 -2.9252214 -1.520349 0.20920523 -0.03545376
-0.8258771 -0.85533035 -0.6164382 0.43928435 -0.43625298 -1.6949352 -1.4957011 -1.3431834
-0.029325612 -0.75874615 -1.2042515 -1.9127082 -0.56794095 -0.12391877 -2.3150399 -1.6829674
0.111514226 -0.4344485 -0.97986007 -1.3318486 -0.607575 -0.18702075 -1.0580795 -2.2331865
-1.6903651 -0.12787567 -1.6116132 -2.69279 -1.7257603 -1.4713556 0.13901079 -2.1904414
-0.5385776 0.13423204 0.6457368 -1.2104237 -1.5757315 0.83457416 -1.0870699 -0.12842658
-2.4618063 -0.30626515 -2.5628865 -0.4772364 -0.1846275 -0.6784716 -1.3627926 -1.548065
-1.4253916 -0.54838383 -0.034190495 -0.5854991 -0.27016985 1.0570247 -1.0753299 -0.81243896

running_mean f4 [64]
00000000: 9964 09c2 76d5 53c2 712d 8241 6aff 9ec1
00000010: 597e 84be 255f 18c1 9918 a1c0 07e3 6c3f
00000020: 2e65 44c1 734b f5c1 980a b240 63c6 37c2
00000030: 3e05 43bc 0254 1fc1 45c8 4b41 41b3 4541
00000040: 3c31 04c2 26e9 253f 22c4 fac0 966b 263f
00000050: 704f 4bc1 839b 2e40 c06d b9c1 8b5d fd3f
00000060: d56a d13f ef04 b940 926b d3c1 3ba2 71c1
00000070: 5ef1 3cc1 4f7a 6140 4578 f9c0 81d6 d9c1
00000080: af68 1641 e2ce 8140 9880 95c1 25fb 0b42
00000090: 1e8e 06c1 d1ec b03f 1e92 c9c1 5dff 7c41
000000a0: 24f6 07c2 ca13 09c1 657f c0c1 e7d9 bac1
000000b0: 29f6 2741 d34c bdc1 861a e640 42a5 e5c0
000000c0: b68b 39c0 28b2 c8c0 8ddd 5ec1 c0c5 03c2
000000d0: e32e 16c2 0edd 1941 5dcb cf3e b42d 9fc1
000000e0: 9d21 05c2 5d75 b63f 30a6 35c2 9be1 2a41
000000f0: ed61 f2c1 f9cc 02c1 20ae a2c1 5aac 4b41
-34.34824 -52.958458 16.272188 -19.874714 -0.25877646 -9.523229 -5.0342526 0.92533916
-12.274702 -30.66184 5.563793 -45.943737 -0.011903105 -9.95801 12.736394 12.356263
-33.04808 0.6480888 -7.836442 0.65007913 -12.706894 2.7282417 -23.178589 1.9794172
1.6360728 5.7818522 -26.427525 -15.102107 -11.808928 3.5230901 -7.7959313 -27.229738
9.4005575 4.0565042 -18.68779 34.99526 -8.409697 1.3822271 -25.196346 15.812345
-33.99037 -8.567331 -24.062204 -23.356398 10.497598 -23.662512 7.1907377 -7.176423
-2.8991523 -6.2717476 -13.92909 -32.943115 -37.545788 9.616468 0.4058484 -19.897316
-33.282825 1.4254566 -45.412292 10.680079 -30.297815 -8.175042 -20.335022 12.729578

running_var f4 [64]
00000000: c45b 8544 55b2 1844 b754 3844 b85e 0444
00000010: 1e71 ac43 7cfd 3444 0441 9044 df8f 2744
00000020: 4387 1544 e456 d643 d26d 4c44 8fa6 ad44
00000030: 9865 2444 93ac 1f44 fed1 2444 b646 6744
00000040: 3155 4044 4fef 3644 cb11 7544 9777 ec43
00000050: 9b05 6b44 c1b9 1a44 5c1d db43 0de3 fd43
00000060: b240 f043 0c11 1344 34ce 5044 86ff 5344
00000070: b137 6a44 7f50 4844 00ac 6944 7f24 4d44
00000080: f234 2644 fc70 1e44 3f82 1744 f34f fc43
00000090: e340 2144 774d 4244 cce8 b444 1441 0044
000000a0: 0df0 f543 ad43 6144 6644 9044 ab5e 3344
000000b0: fd16 2644 0c6e 9f44 b2ab 3044 4b41 6d44
000000c0: 440d d843 0b02 1e44 7467 0744 8b3d 6a44
000000d0: ad5a a044 8674 7444 eb70 3a44 7db1 4a44
000000e0: 326f 0d44 87bb 6044 bfd9 2a44 ad58 5544
000000f0: 7716 1d44 d686 2c44 b999 3844 415b 4b44
1066.8677 610.78644 737.32367 529.48 344.88373 723.9607 1154.0317 670.248
598.11346 428.67883 817.71594 1389.205 657.5874 638.6965 659.2811 925.10486
769.3311 731.7392 980.278 472.9343 940.0876 618.9024 438.22937 507.77383
480.50543 588.26636 835.2219 847.99255 936.8702 801.25775 934.6875 820.57025
664.8273 633.7654 606.0351 504.6246 645.01385 777.2104 1447.2749 513.01685
491.8754 901.05743 1154.1375 717.4792 664.3592 1275.439 706.68274 949.0202
432.10364 632.0319 541.61646 936.9616 1282.8336 977.8207 745.76434 810.77325
565.7374 898.9301 683.4023 853.38556 628.351 690.1068 738.4019 813.42584
