unet/checkpoints/one_loss/epoch_79.pth (torch, 508787 bytes, 85 tensors)

weight f4 [8, 1, 3]
000000 5f 94 6f 3f bd 41 ba be 9e 18 54 40 77 bc 1d 3f
       0.9358577 -0.3637828 3.3140025 0.616157
000010 17 c6 79 c0 31 75 21 bf 29 f5 b1 bf 37 87 e8 3f
       -3.9027154 -0.63069445 -1.3902942 1.8166264
000020 a9 69 60 3f 8b 1c 89 c0 ad 76 bb be e6 02 60 3f
       0.87661225 -4.2847342 -0.3661398 0.8750442
000030 0a 8c 83 3f 13 d3 35 c0 5a 3d d4 be 06 40 41 3f
       1.0277112 -2.841008 -0.41453058 0.75488317
000040 1d 7a 8c 40 3b df 1f be b8 17 dd bf a7 ba 46 3f
       4.3899064 -0.156125 -1.7272863 0.7762856
000050 67 48 03 c0 63 4c 56 40 1b 08 01 bd f2 78 78 bf
       -2.051294 3.3484123 -0.03150187 -0.9705955

bias f4 [8]
000000 74 c2 1f 3e 0b e4 dc 3c 3c ce 06 3e 97 1e d1 3e
       0.15601522 0.026964208 0.1316461 0.4084365
000010 7e c1 05 be 65 46 0a 3e 09 5c a7 be d1 21 33 3e
       -0.13062093 0.13503416 -0.32687405 0.17493369

weight f4 [8]
000000 84 58 a8 3f 01 50 f6 3f bc 96 03 40 9c 88 05 40
       1.3152013 1.9243165 2.056075 2.086463
000010 90 6f 07 3f ba 7a 41 40 91 43 7a 3f c0 bc 1a 40
       0.52904606 3.0231156 0.9775935 2.4177704

bias f4 [8]
000000 3f 74 fa bf bb 70 9b 3e f4 44 cc 3f 87 74 0b 40
       -1.9566725 0.30359444 1.5958543 2.1789873
000010 1e 1c 3d 40 c7 59 58 be 9e 27 ec be c0 1d 50 be
       2.9548411 -0.21127997 -0.46123976 -0.20323849

running_mean f4 [8]
000000 c8 98 d0 3e 30 db 88 3c 3a 6e f3 3d 52 b7 8b 3e
       0.40741563 0.01670608 0.118862584 0.272883
000010 1c af dd bd 18 33 21 3e 74 37 08 bf c1 9a 84 3e
       -0.10824415 0.15742147 -0.53209615 0.25899318

running_var f4 [8]
000000 78 7d 55 49 2f 09 61 49 8a fa 16 48 6e 44 64 49
       874455.5 921746.94 154602.16 934982.9
000010 37 ca 9e 48 d8 fe b3 49 5d 5a f0 48 0c a2 bf 48
       325201.72 1.474523e+06 492242.9 392464.38

weight f4 [16, 8, 3]
000000 59 a7 9a 3e 2d 95 ca bf ab 69 69 c0 a8 e1 b2 3f
       0.302058 -1.5826775 -3.6470745 1.3975115
000010 96 15 9f 3f 85 f2 ad bf ce 7e a3 bf 48 15 98 3f
       1.2428463 -1.3589636 -1.2773073 1.1881495
000020 fb 3c 6f 3f c2 09 bf 3f a8 79 67 40 9c 9b 66 3f
       0.93452424 1.4924853 3.6168003 0.9008119
000030 d3 dc 2f 40 0e ed 99 3f 5d 40 d6 bf 6f 1a 33 c0
       2.747853 1.2025468 -1.6738392 -2.7984884
000040 a4 55 c5 bf 1f f1 de bd 7b 91 1b 3f e2 44 c4 bf
       -1.541676 -0.10885834 0.6076886 -1.5333521
000050 5d d7 8f 3f 19 0c 1e 3f 18 d5 3d bf 62 1b 1e bf
       1.1237599 0.6173721 -0.7415328 -0.6176053
000060 09 e3 3d 3f f1 27 f9 3f fb c2 de 3d b8 00 b5 3e
       0.74174553 1.9465314 0.10877033 0.3535211
000070 ac 92 a7 3f be b3 31 bf 88 8d a9 3f cb 48 5b 3f
       1.3091636 -0.6941489 1.3246317 0.8565795
000080 1b 0c d0 3e 7e a6 09 c0 f4 d7 9d 3d 8c 46 7c 3f
       0.40634236 -2.1507869 0.077072054 0.98545146
000090 1a 6f 88 be f7 3d 63 3f 37 ab b5 bf 3b c8 7a 40
       -0.26647264 0.88766426 -1.4192876 3.918471
0000a0 22 57 07 40 45 b2 03 40 96 83 18 bd d5 b5 1a bf
       2.1146932 2.0577557 -0.037234865 -0.60433704
0000b0 e6 f0 c0 3f 38 f9 3a bf 61 4c 02 40 f2 8e 3a 3f
       1.5073516 -0.7303653 2.0359118 0.7287437
0000c0 5d f1 a6 bf 3f 31 1e 3f d9 2e 04 c0 03 42 12 3e
       -1.3042408 0.61793894 -2.0653594 0.14282994
0000d0 9c f2 62 3f ff c2 52 3a d3 49 95 bf 1c c5 e0 bf
       0.8865144 0.0008039921 -1.1663154 -1.7560153
0000e0 33 d2 57 3f 78 c0 72 c0 ca 54 e1 3e 2a 26 64 3f
       0.84305114 -3.7929974 0.4401 0.89120734
0000f0 ce d8 55 3f af 99 94 3f 55 1f 29 bf e3 22 15 3f
       0.8353394 1.16094 -0.66063434 0.5825636
000100 ab bc bd bf 10 d8 01 be 88 ca bf bf 72 0a 42 3f
       -1.4823202 -0.12680078 -1.4983683 0.7579719
000110 89 b8 d7 3f f4 f7 cc 3f ee a1 a0 be b0 f1 13 c0
       1.6853191 1.6013169 -0.31373543 -2.3116264
000120 7e 65 76 40 6c 69 a8 3f d5 97 04 bf 34 61 21 40
       3.8499446 1.3157172 -0.5179418 2.5215578
000130 3e 73 51 40 d1 25 f3 3e 9a 6f c6 be 9c c3 35 3e
       3.2726588 0.4748979 -0.3875702 0.177504
000140 aa c3 c6 bf d2 be 4c 3f 1b 7d 3c 40 22 74 0c 3f
       -1.5528462 0.7997867 2.9451358 0.54864705
000150 db 7b a3 3f 35 c8 ff 3f 08 13 4f bc 1d e2 77 bf
       1.2772173 1.9982973 -0.012638815 -0.96829396
000160 52 fc 29 3f 2b a9 17 c0 0c e7 10 3e ac 32 dd 3f
       0.66400635 -2.3697002 0.14150637 1.7281089
000170 c8 b9 a8 be b1 e6 93 be 61 d6 97 bf 8d 73 bd 3f
       -0.3295424 -0.2888694 -1.1862298 1.4800888
000180 e1 83 06 40 8a 7b ef bf 48 d5 0c c0 f1 e2 b7 bf
       2.1017992 -1.8709576 -2.2005177 -1.4366132
000190 17 76 1f c0 52 13 53 bf e6 fb 03 bf 28 65 a6 bf
       -2.4915826 -0.82451355 -0.5155624 -1.299962
0001a0 02 4b 0e c0 bb 63 a0 bf b1 71 84 bf ce 3f 7a be
       -2.223328 -1.2530435 -1.0347196 -0.24438402
0001b0 ff d8 14 3f 07 c8 0f bf 52 df 88 3e b4 b7 da 3f
       0.5814361 -0.5616459 0.2673288 1.7087312
0001c0 01 ce 3f 3e 94 aa 8c bf 55 cc a3 3e 8f 88 18 c0
       0.18730928 -1.0989556 0.3199183 -2.3833349
0001d0 78 c6 55 bf d0 ac 1d 40 e3 5f b7 3f 77 3a cc 3e
       -0.83505964 2.4636726 1.4326137 0.39888355
0001e0 84 2d 12 40 91 3f c6 be c7 1b 02 c0 93 cb 1d 40
       2.284028 -0.38720372 -2.0329454 2.4655502
0001f0 92 cb dc 3f 32 3b 3c 40 25 e5 3f be cf a6 04 bf
       1.7249625 2.941113 -0.18739755 -0.5181703
000200 7a 5d e8 bf 51 1e 59 3f 3f e9 03 40 89 07 64 3f
       -1.8153527 0.84811884 2.0611112 0.89074
000210 bc a6 c9 3f eb 07 a4 3f a6 cb 01 40 d7 5a 84 be
       1.5754008 1.2814916 2.0280547 -0.25850555
000220 a2 d8 dc 3d d2 be c1 bf 68 9f d2 3e 7d 63 9e 3f
       0.10783507 -1.5136359 0.41137242 1.2374111
000230 05 87 01 bd ad 50 a2 3f bb 48 96 3f fa 34 95 3f
       -0.031622905 1.268087 1.1740946 1.1656792
000240 22 be 94 3f 3e aa c8 be ab aa 68 3f e4 8e 66 c0
       1.1620524 -0.39192384 0.9088542 -3.6024714
000250 2a 15 a2 3f a8 54 4c be a9 59 26 c0 04 23 1b bf
       1.2662709 -0.19954169 -2.5992224 -0.60600305
000260 8d e3 e3 3d ad 6f b6 bf e8 38 1d c0 6d 57 1d 3f
       0.11127386 -1.4252831 -2.4565983 0.61461526
000270 44 29 18 c0 de d4 7b 3f 05 72 8c 3e eb 4e 30 3e
       -2.3775187 0.98371685 0.2743074 0.17217605
000280 58 25 d7 be fc 8f f3 bc 54 1f 62 3f 08 b0 d2 3f
       -0.4202068 -0.029731743 0.8832905 1.645997
000290 fa 30 d2 bf 9c 91 8a 3f e3 c6 e3 bf 29 5e da bf
       -1.6421196 1.0825686 -1.779507 -1.7059985
0002a0 2f 25 c3 3f 81 2d 81 3f 7d ba a3 3e 61 26 7e 3e
       1.5245723 1.0092012 0.31978217 0.24819328
0002b0 6e ab 2a c0 fa e5 aa 3e 49 17 54 bf 94 a8 e8 3f
       -2.6667132 0.33378583 -0.8284803 1.8176446
0002c0 69 63 44 c0 ef c8 43 bf 2c 7e 98 3f ae 49 5a bf
       -3.0685675 -0.76478475 1.1913505 -0.85268676
0002d0 aa 71 05 3f 68 6a 1d c0 cc ba 9f be ab 2c f7 3f
       0.5212656 -2.4596195 -0.31197202 1.9310507
0002e0 8a 71 ad 3f 5a 3d 6b bf 16 12 2d c0 fe 73 8d 3f
       1.3550274 -0.9189049 -2.7042289 1.1051023
0002f0 38 58 b5 3e 7e 15 15 3e a2 3e be 3f b1 fc 83 3d
       0.35418868 0.1455898 1.4862864 0.064446814
000300 13 a0 b9 3f 70 90 0e c0 da e1 d0 3f 8b fd e9 be
       1.4501976 -2.2275658 1.6318924 -0.4570125
000310 87 3f 3b 3f 86 88 d3 3e f0 cd 81 bf 28 05 60 c0
       0.7314381 0.41315097 -1.0140972 -3.5003147
000320 89 9f b3 3d a0 26 33 c0 39 34 96 be 54 04 c5 3e
       0.08770663 -2.7992325 -0.29336718 0.38479865
000330 ec b3 ba be 83 d9 60 3f 87 d3 1d 40 00 06 b6 bd
       -0.36465394 0.87831897 2.4660356 -0.08887863
000340 fa cb 2f bf d1 d3 7c c0 cf 70 71 bf 95 3c c1 bf
       -0.6867062 -3.9504282 -0.9431276 -1.5096613
000350 a9 68 65 3f 5a 07 cc 3f 9f 14 5a be 8d 2e 9e 3e
       0.89612824 1.5939744 -0.21296929 0.3089489
000360 36 ba 4a c0 8f 50 7a bf a3 c8 ca be 7e 8f 7a 3e
       -3.1676154 -0.9777917 -0.396062 0.244688
000370 b1 1e b5 be 8e ed 3c 40 f6 f2 a4 be 0c 40 48 bf
       -0.35374978 2.9519992 -0.32216614 -0.7822273
000380 90 ae 09 c0 03 fb 11 c0 a2 cb fa 3e da 11 43 bf
       -2.1512794 -2.2809455 0.48983485 -0.76199114
000390 16 f7 15 3f 65 a8 32 3f 74 ef 65 40 25 dd 49 3e
       0.5858015 0.697882 3.59274 0.19713266
0003a0 9a 78 f4 bf 55 4f 33 c0 46 75 dc bf 67 b4 c7 3f
       -1.9099305 -2.801717 -1.7223289 1.560193
0003b0 a5 92 5a be 5c 74 bd 3f 4b da c4 3e 4c 67 af be
       -0.21345003 1.4801135 0.38447794 -0.34258497
0003c0 70 9e 07 3e 5e 35 25 3f 14 cb 76 ba e2 7e fc 3f
       0.13244033 0.64534557 -0.0009414416 1.9726222
0003d0 a8 67 0d 40 5b b0 13 40 1f 82 cc be ce 50 00 bf
       2.2094517 2.307639 -0.39943025 -0.501233
0003e0 91 03 ce be 93 97 0a 3f ea 78 dc 3f 3d 8f d8 3f
       -0.40237096 0.54137534 1.72244 1.6918713
0003f0 09 4c c0 3f d7 ad b8 3f 13 e4 e2 3f ba db 32 3e
       1.5023204 1.4428052 1.7725853 0.17466632

bias f4 [16]
000000 a6 c0 32 bf 60 fd 70 3f bc d8 e0 3d 1b ef 06 be
       -0.6982521 0.9413662 0.10978839 -0.13177149
000010 a8 47 ca 3f 98 16 96 3f 1c 58 2a 3f 25 e4 0a bf
       1.5803118 1.1725645 0.66540694 -0.5425437
000020 2c ef 7c 3f 01 3f 96 be a8 a2 1c 3e 64 15 67 bf
       0.9880245 -0.29344943 0.15296423 -0.90267015
000030 78 27 53 3f 58 99 c2 3f 70 6b 17 40 5c 5a b8 3f
       0.824821 1.5203047 2.3659325 1.4402575

weight f4 [16]
000000 e4 30 bc 3f cc 58 f5 3f 43 1c a9 3f 6b d5 e7 3f
       1.470242 1.9167724 1.321175 1.8112005
000010 8b 73 d9 3f 9f 84 9d 3f eb 8c 41 3f 69 1e 53 3f
       1.6988386 1.2306098 0.7560565 0.8246828
000020 54 4c 97 3f 41 d3 93 3f f5 5c 8c 3f 89 e9 e2 3f
       1.1820168 1.1548845 1.0965868 1.7727519
000030 b2 f4 ff 3f 3c 5a 0d 40 1d f6 c9 3f 8b bc c9 3f
       1.999655 2.2086325 1.5778233 1.5760664

bias f4 [16]
000000 e7 97 b2 3f 6f cd b2 bf 8d da ea 3e 48 13 80 3e
       1.3952607 -1.3968943 0.45869866 0.2501471
000010 bb 2e 1f 3f d8 fe 17 3e 5e 71 cd 3e 16 2b 2c 40
       0.6218068 0.14843309 0.40125555 2.6901298
000020 5a 34 70 40 b4 1c 97 3f 08 cb 7f be 66 66 d6 be
       3.7531953 1.1805634 -0.24979794 -0.41875
000030 b9 90 88 be 8b 09 3f 3f 97 ea 20 3f 9e 8a 79 3f
       -0.26672915 0.74623936 0.62857956 0.9747714

running_mean f4 [16]
000000 f4 66 8b 41 14 47 34 41 ed f9 cc c0 f6 59 9c 41
       17.42527 11.267353 -6.4055085 19.543926
000010 00 02 39 c1 b5 14 db 41 88 53 a1 c1 4f 3d 1f c1
       -11.562988 27.38511 -20.165787 -9.952468
000020 7c 52 fa c0 a3 20 4b 3f 32 ee c9 41 72 5a 90 41
       -7.822569 0.79346675 25.241306 18.044163
000030 36 85 6d c0 21 62 81 40 9f 45 86 c0 24 e3 04 41
       -3.7112556 4.0432286 -4.1959987 8.305454

running_var f4 [16]
000000 6b 6d cc 43 de ca db 43 40 65 c3 42 3e 38 d2 43
       408.85483 439.5849 97.697754 420.4394
000010 dd 0a 1b 43 41 41 b0 43 05 c0 84 42 64 39 c1 42
       155.04243 352.5098 66.37504 96.61209
000020 6e d2 2d 43 48 69 3c 43 99 71 c3 43 c4 74 3c 43
       173.82199 188.41125 390.88748 188.45612
000030 89 6b 1d 44 7c 00 4a 43 22 e6 90 42 3c 1b 34 44
       629.68024 202.00189 72.44948 720.42554

weight f4 [16, 16, 3]
000000 51 df 3f c0 1a 13 13 3f 79 af 26 be 9a fe ef 3f
       -2.9980052 0.5745102 -0.16277875 1.8749573
000010 ff 26 9c 3f 7e f5 8d bf 2a b4 23 c0 fa e5 d2 bf
       1.2199401 -1.1090543 -2.5578713 -1.6476433
000020 3d c3 55 bf ad 38 3f bd 24 61 81 3e 58 e4 d5 3d
       -0.83501035 -0.04668491 0.25269425 0.10443944
000030 df 67 08 be 7d e6 4f 3f ee 60 e8 3f c0 69 09 3d
       -0.13320874 0.8121107 1.815458 0.033548117
000040 3b 65 a6 bf 92 b4 cf be cb 7a 68 bf 01 a3 34 3e
       -1.2999643 -0.40567452 -0.9081237 0.17640306
000050 b7 74 89 3f 44 02 d1 3e 9e 05 5c 3f 16 4b 6d bf
       1.0738744 0.4082204 0.8594607 -0.926927
000060 50 83 72 bf 04 67 d3 3e db a9 4d 40 52 59 58 be
       -0.94731617 0.41289532 3.2134922 -0.21127823
000070 eb ad 2b be d4 cb 24 3f 6f 10 57 3d b8 fc 3c bf
       -0.16765563 0.6437352 0.052505907 -0.7382312
000080 6e 9e 2a bf b1 c1 36 bf 12 85 3f bf a0 47 2a c0
       -0.66647995 -0.713893 -0.74812424 -2.6606216
000090 02 ec 10 40 95 3e e2 3f a8 11 05 bf a0 5f 40 bf
       2.2644048 1.7675349 -0.51980066 -0.7514591
0000a0 b7 c8 bd bf ca 15 4d c0 00 01 e5 bf 5e 36 5d 3e
       -1.4826878 -3.204455 -1.789093 0.2160277
0000b0 8d 6c 86 bf fa 8d d3 3d 02 8b a0 3f 82 ac 68 3f
       -1.0501877 0.10329814 1.2542422 0.90888226
0000c0 9d 65 2e c0 29 a1 d5 3e e4 9c 6e 3f 4b 9f d8 bf
       -2.724952 0.41724518 0.93208146 -1.6923612
0000d0 f3 40 62 bf a4 9c 41 3f 5e 2f b8 bf 50 91 6f 3f
       -0.88380355 0.7562964 -1.4389455 0.93581104
0000e0 d4 43 c3 be af 89 b2 be 4c 51 50 3f 82 06 93 3f
       -0.38137686 -0.3487067 0.8137405 1.1486361
0000f0 bd f6 68 40 1d b8 40 3e d2 b4 07 bf 5b 6d 8b 3d
       3.6400597 0.18820234 -0.53010285 0.06807967
000100 da 91 11 3f eb d2 09 3f 12 e0 01 bf 17 00 1b 3f
       0.56863177 0.5383746 -0.5073253 0.6054701
000110 00 c0 3b be 76 f4 2e bf f3 3c d1 bf c4 27 0a c0
       -0.18334961 -0.6834177 -1.6346725 -2.158677
000120 67 d4 55 bf 8b a1 8a 3f 3b bb e6 bf 9a b9 5a bf
       -0.83527225 1.0830549 -1.8025888 -0.85439456
000130 07 72 4f 3f 44 59 28 c0 95 1b b9 3d 6a c8 41 3f
       0.81033367 -2.6304483 0.09038464 0.7569643
000140 a1 e6 2b 3f 90 85 bc bf ac ab ba 3f a1 96 8b bf
       0.67148787 -1.472826 1.458364 -1.0905343
000150 af f3 a1 3f 9c 68 04 be b2 93 3f 3d 01 48 98 c0
       1.2652491 -0.1293053 0.046771713 -4.7587895
000160 94 c7 6d bf 05 6d 34 bf d8 82 7b c0 36 71 df be
       -0.9288266 -0.7047885 -3.929861 -0.4364106
000170 16 b8 15 c0 0b 8d 17 bf 3f 19 ec 3f 6b e3 af 3e
       -2.3393607 -0.5919959 1.8445204 0.34353194
000180 35 3e e1 bf 3c be 35 c0 0e ca 82 bf 26 f2 7a 40
       -1.7597109 -2.839736 -1.0217912 3.9210296
000190 c8 48 20 3f 2b 77 e7 bf 49 28 bc bf 94 f7 3a 3f
       0.62611055 -1.8083242 -1.4699794 0.73034024
0001a0 06 08 70 bf 8d 73 8c bf 6d df dc bf 72 4e b0 bf
       -0.9376224 -1.0972763 -1.7255684 -1.377394
0001b0 58 4e 13 3f 36 fa e1 3d 83 0c ac 3f 06 7f 43 3e
       0.5754142 0.11034052 1.3441318 0.19091424
0001c0 e6 e9 c1 bf 2b 2e fe be c5 7d 1d c0 71 19 02 40
       -1.5149505 -0.49644598 -2.4608014 2.0328028
0001d0 64 5a a4 3e af 14 17 3f e6 da 54 3f 4a 0e b5 3e
       0.32100213 0.59015936 0.8314651 0.35362464
0001e0 78 26 09 c0 74 55 52 3f dd 9a 89 3f 85 fc 3c c0
       -2.142973 0.8216164 1.0750386 -2.9529126
0001f0 79 dd 06 c0 fa 82 a6 3e 51 32 b8 3e a6 0a 93 bf
       -2.1072676 0.32521802 0.35975888 -1.1487625
000200 ac a5 72 3d f0 b4 b3 bf 2a 3c 4c 3f 75 02 0f c0
       0.05924003 -1.4039593 0.79779303 -2.234525
000210 bd e2 3d 40 a2 1a cc 3f 86 82 93 bf 90 77 1e 3f
       2.966964 1.5945628 -1.1524208 0.6190119
000220 a3 05 b1 3d f3 f3 15 bf 41 6c bd 3d 78 9c 27 3e
       0.08643653 -0.5857536 0.092491634 0.16368282
000230 49 24 48 bf 62 72 a7 bf 16 49 f1 bf ca 21 c1 bf
       -0.78180367 -1.3081782 -1.8850429 -1.5088437
000240 5f 74 59 be 19 d4 11 bf 4f 24 48 3f 8f 4a ff bf
       -0.21235798 -0.5696426 0.781804 -1.9944628
000250 3d 48 f2 3e d3 3c a0 3f f5 61 f0 3e e0 47 25 bf
       0.47320738 1.2518562 0.46949735 -0.645628
000260 42 b2 39 c0 2d 09 b8 be 89 d6 cd 3e 23 db db 3e
       -2.901505 -0.359445 0.4020274 0.42940626
000270 8b 4a 0f 3f b7 6d ea 3e db 79 89 bf db bf 93 be
       0.5597312 0.4578683 -1.0740312 -0.28857312
000280 60 50 95 3f b8 31 07 3f 12 0a 33 3f e6 6e be be
       1.1665154 0.5281024 0.6993724 -0.37193984
000290 83 1f 98 bf 7c d2 c9 be 25 b6 4d bf 91 74 59 be
       -1.1884617 -0.394184 -0.80356055 -0.21235873
0002a0 ed 53 a8 3f b9 b5 06 3f 3a 7a bf c0 38 ea 9c 3f
       1.3150612 0.52621037 -5.98367 1.2258978
0002b0 fa 7a da 3e bb de f9 bf 9a 43 72 bf 26 1d 9c 3f
       0.4267195 -1.9521097 -0.946344 1.2196395
0002c0 de 20 47 3e 2a bf 01 3f 9e 3d 43 3f 84 1d 8a be
       0.19446132 0.5068232 0.76265895 -0.26975644
0002d0 1c c6 19 c0 fb 7c 64 3d e9 e7 d7 3f b7 f3 7b 3e
       -2.4027166 0.055783253 1.6867648 0.24604689
0002e0 60 18 f6 3e f9 fc 5b 40 83 ea 96 bf d4 80 83 be
       0.48065472 3.4373152 -1.1790317 -0.25684226
0002f0 98 2b 44 c0 f8 74 f5 3e 3c 05 86 3f a9 22 62 3e
       -3.0651608 0.47940803 1.0470347 0.22083534
000300 ba 67 04 3f 4a 57 8e 3f 40 0e f4 be 83 fe 80 be
       0.51720774 1.1120389 -0.47667122 -0.25194177
000310 e5 89 0f c0 d1 ed 12 bf f2 30 2a c0 bc 6b c1 3d
       -2.2427914 -0.5739413 -2.6592374 0.09444377
000320 82 fb 89 bf ea fb b0 3f 88 e6 bc 3f 45 55 20 c0
       -1.0779879 1.3826878 1.4757853 -2.5052044
000330 15 90 d5 3e 34 f6 6e bd 07 99 7e 3e 08 b6 ba 3f
       0.41711488 -0.058340266 0.24863063 1.4586802
000340 9a a6 92 3f b5 ec 18 c0 41 1b 19 c0 7e 21 86 3f
       1.1457093 -2.3894475 -2.3922884 1.0478971
000350 90 ad aa be 88 58 f5 be e6 af ce bf 42 f3 88 bf
       -0.33335543 -0.47919106 -1.614743 -1.0699236
000360 ff 47 9c bf ed d2 d3 be 16 1c bf bf a1 3e e4 be
       -1.2209471 -0.4137186 -1.4930446 -0.44579032
000370 74 21 e6 be e1 4f 39 c0 89 a0 c7 3f c1 d7 22 3f
       -0.44947398 -2.8955004 1.5595866 0.63610464
000380 39 30 1a c0 11 07 d5 3f 00 e9 04 3e b5 ea 31 c0
       -2.4091933 1.6642781 0.12979507 -2.7799504
000390 17 18 8c bd 00 4e 0c c0 2a 65 5f bf f0 7a d7 bf
       -0.06840532 -2.1922607 -0.8726374 -1.6834393
0003a0 23 c4 37 bf 94 75 28 3e 81 66 85 bf 92 9f 27 c0
       -0.71783656 0.16451102 -1.0421907 -2.6191144
0003b0 0b 1f 5e be dd 77 27 3f 57 48 5f 3f aa de c7 bf
       -0.2169153 0.6541727 0.87219757 -1.5614827
0003c0 3b ea 09 c0 cc 45 0e 3f ec 2f d6 3f 75 e9 ec 3f
       -2.1549213 0.5557525 1.6733375 1.8508745
0003d0 58 52 52 3f 29 9f f9 bf 52 45 84 3f c6 a2 67 be
       0.82156897 -1.9501697 1.0333655 -0.22620687
0003e0 48 a1 5a 3e b2 c2 63 bf 0b ab f8 3f f6 21 1e 40
       0.21350586 -0.88968956 1.9427198 2.4708228
0003f0 14 d4 e8 3f 61 cd 1d 3f 2c 9c f1 bc 8e cd 30 bf
       1.8189721 0.6164151 -0.029493414 -0.6906365

bias f4 [16]
000000 c8 7f d3 be 98 89 c9 3f 81 d1 d1 3c 28 fe df be
       -0.41308427 1.5745115 0.025612595 -0.43748593
000010 e6 b1 06 40 b6 bd 5d 3f 25 06 ee be 89 06 a8 3e
       2.104608 0.866176 -0.46489063 0.32817486
000020 8b a2 6e 3e bb f9 4c 3f 1f 03 a6 bf f2 e5 80 bf
       0.23304193 0.8006856 -1.2969702 -1.0070174
000030 28 97 1a 3f d5 7b f3 bf ec ce 33 bf 30 f5 ea bf
       0.60386896 -1.9022166 -0.7023761 -1.8356075

weight f4 [16]
000000 c2 81 b0 3f dc f0 2d 40 d0 57 1e 40 71 e9 f5 3f
       1.3789599 2.717826 2.4741096 1.9211866
000010 ad ee 20 40 ec 41 09 40 a8 32 f1 3f 0b 27 52 3f
       2.5145676 2.1446486 1.8843584 0.82090825
000020 0a e4 fb 3f 30 3f df 3f 0b 68 07 40 70 41 21 40
       1.9678967 1.7441158 2.1157253 2.519619
000030 69 4f 02 40 a0 1b 26 40 70 3a 13 40 82 59 dc 3f
       2.0360968 2.595436 2.3004417 1.7214816

bias f4 [16]
000000 81 ee f5 3f c6 5c 56 be c9 27 d9 3e 09 0d 92 be
       1.9213411 -0.20933828 0.42413166 -0.2852557
000010 ed f0 21 3f 1b fc 74 3f 3e 5b b1 3e d2 bc db 3f
       0.6325825 0.9569718 0.34639925 1.7166998
000020 6b 99 1e 3f 19 5b 8a 3f 3c a9 a9 3d a2 0a cd 3e
       0.6195285 1.0809051 0.08284232 0.40047175
000030 9f ed b2 be b9 e9 8d bf 21 8f ee 3e 45 92 4d bf
       -0.34946916 -1.1086951 0.46593574 -0.80301315

running_mean f4 [16]
000000 a8 3b 93 c0 0a 95 16 c2 1e 48 b5 c1 d2 6e a9 c1
       -4.6010323 -37.645546 -22.660213 -21.179111
000010 43 71 23 c2 cd 1f ec 41 a8 63 85 c2 20 c5 b6 c1
       -40.860607 29.515528 -66.69464 -22.846252
000020 2b dc eb c1 da b0 9b 41 c4 c6 6c c1 70 49 f5 41
       -29.482504 19.461353 -14.798527 30.660858
000030 4e 09 98 c1 5d 0d 77 c1 6f 55 8a 41 90 74 69 c2
       -19.004543 -15.4407625 17.291716 -58.36383

running_var f4 [16]
000000 7b b3 8a 43 07 89 7c 43 86 b5 91 44 cc 2c b0 43
       277.4022 252.53526 1165.6726 352.34998
000010 2a b2 98 43 dc be 1c 44 87 41 64 44 f2 16 fe 43
       305.3919 626.9822 913.02386 508.17926
000020 29 5f 57 44 73 cb 9c 43 c9 48 a2 43 71 9e 2b 44
       861.4869 313.58945 324.56863 686.47565
000030 46 f3 04 44 1d 5c 94 43 5d e3 a3 43 3f 58 56 43
       531.80115 296.71964 327.77628 214.34471

weight f4 [32, 16, 3]
000000 b8 c1 ce be d2 cb ea bf 84 66 2a bb 94 73 6f 3f
       -0.4038217 -1.8343451 -0.0026001045 0.93535733
000010 14 7b a8 3d 44 0b de bf 09 8a a6 3f 8b c3 7d bf
       0.082266 -1.7347188 1.3010875 -0.991265
000020 8f ea 0c 3f 75 34 24 3e 68 9a 08 3e 7e 27 f4 bf
       0.5504541 0.16035636 0.13340151 -1.9074552
000030 37 b0 33 c0 97 b2 82 bf 4f 38 19 bf f4 a7 92 bf
       -2.8076303 -1.0210751 -0.59851545 -1.1457505
000040 dd ac b0 bf 75 35 e1 bf 2f b2 71 3f 29 a1 85 bf
       -1.3802754 -1.7594439 0.9441251 -1.0439807
000050 f3 69 88 bf 95 90 9e bf db d3 2f 3f a1 b8 4f bf
       -1.0657333 -1.2387873 0.6868264 -0.81141096
000060 ad 90 13 be c1 d0 84 3d 7b ff 0c bf 71 aa 03 3f
       -0.14410658 0.06485129 -0.5507733 0.5143195
000070 41 ff 7e bf 2d 28 84 c0 31 39 80 c0 da 0a 59 3f
       -0.99608237 -4.1299043 -4.0069814 0.84782183
000080 a4 44 a4 bf 06 e2 31 bf 5d 45 06 c0 cd 08 51 c0
       -1.2833447 -0.6948551 -2.0979836 -3.2661622
000090 50 ad ac bf bb e5 04 c0 de 55 d9 bf d3 b4 8b bf
       -1.3490391 -2.0765216 -1.697933 -1.0914558
0000a0 10 a1 62 bf a7 c9 97 3e 4b 27 47 bf 7a 25 b5 bf
       -0.8852701 0.29646036 -0.7779433 -1.4152062
0000b0 3f 24 7b 3f 83 df b0 bf 71 65 00 3f e0 a9 1c bd
       0.9810218 -1.381821 0.5015479 -0.038247943
0000c0 79 4d 41 bf b8 3a 11 bd 4b 85 00 3f 29 17 14 c0
       -0.7550884 -0.03545639 0.5020339 -2.3139136
0000d0 59 c1 73 3f 2c 7e 9d 3e 4b f4 93 bf 7b 56 38 be
       0.952169 0.30760324 -1.1558927 -0.1800174
0000e0 44 7d 82 3e 17 95 7a bf e5 84 c8 be 70 75 81 3f
       0.25486195 -0.97883743 -0.3916389 1.0113964
0000f0 85 10 d4 bf f0 81 19 c0 30 a0 87 3f 57 84 f6 be
       -1.6567541 -2.3985558 1.059576 -0.48147842
000100 f0 8e b1 3e e3 0e e5 3f 4e 70 15 be 0c b3 8f 3f
       0.34679365 1.7895168 -0.14593622 1.1226516
000110 f0 df 60 3f e8 26 9a 3f f8 51 b4 3f 24 1d a2 3f
       0.878417 1.2043123 1.4087515 1.2665143
000120 53 bb e5 3e 29 ea 0b 40 e5 e9 67 3f 8c f3 be bf
       0.4486948 2.186167 0.9059127 -1.4918075
000130 f1 95 b0 3e 26 ab c5 be 51 2f b4 be 0d 51 4a 3f
       0.34489396 -0.38607138 -0.3519235 0.79029924
000140 6e 64 b1 be 2f fc 1f c0 8e a0 1f bf cb 15 e5 be
       -0.34646934 -2.499767 -0.6235436 -0.4474319
000150 a7 71 01 3f 48 2b 99 3f c9 07 3e 40 39 d8 4a 3e
       0.50564045 1.1966333 2.9692252 0.19809045
000160 63 48 c5 3f a5 c4 74 40 a3 d0 bb bf 8d d7 63 be
       1.5412716 3.8245022 -1.4673046 -0.22250195
000170 ac 2b 14 3c fc 2d 05 c0 75 22 9e bf db 2b 76 3f
       0.009043615 -2.0809317 -1.2354265 0.9616067
000180 1a 22 10 bf ec 97 b3 bf 10 ba af bf 01 08 92 bf
       -0.56302035 -1.4030738 -1.3728657 -1.1408693
000190 77 e2 9b be 84 5f f5 3f 0e e8 b5 bf f1 b0 05 c0
       -0.30446216 1.9169774 -1.4211442 -2.0889246
0001a0 67 c4 e7 bf 72 a9 17 c0 af be af 3e 1d 18 00 3e
       -1.8106812 -2.3697171 0.34325168 0.12509198
0001b0 b7 94 1f bf 7e 90 ec bf 60 c4 db bf d8 8f fb bf
       -0.62336296 -1.8481596 -1.7169304 -1.9653273
0001c0 f0 ab f6 3d a6 13 dc 3f 2a c1 7f 3d ad 4d 02 3e
       0.12044513 1.7193496 0.062440075 0.12724943
0001d0 03 ff 97 3d de 6e dc 3f 45 6c 82 3f cf a5 4d 3e
       0.074216865 1.7221334 1.0189291 0.20082782
0001e0 6e 85 5e 3f 70 43 aa 3f 62 2e 6e bf 24 51 f0 be
       0.8692235 1.330183 -0.93039525 -0.46936905
0001f0 81 ab 2b c0 26 e9 b8 3c e1 3f 96 bf 73 62 e7 3f
       -2.6823428 0.022572111 -1.1738244 1.8076919
000200 41 ad 75 3e 80 1a 2f c0 10 34 01 c0 32 cd 9b bf
       0.23991872 -2.7359924 -2.0188026 -1.2171996
000210 bb 07 5d bf ff c9 8e 3f 5c 2a 0a 40 98 cb a0 3d
       -0.8633992 1.1155394 2.1588354 0.078513324
000220 37 6a 15 3f 7b e3 17 40 aa 6c c4 bf 49 29 3b c0
       0.58365196 2.3732593 -1.5345662 -2.9243948
000230 c1 15 7f 3f 5a ce fd bf cf 71 ae bf d3 a4 1f 3e
       0.9964257 -1.9828598 -1.3628482 0.15590219
000240 8a ea 0f 40 7f 23 61 3f 0e b7 15 c0 da 65 1b bc
       2.2486901 0.8794479 -2.3392978 -0.0094847325
000250 cd 60 76 bf a5 95 d3 3f 60 c7 18 40 de 07 b5 3e
       -0.96241456 1.6530043 2.387169 0.35357565
000260 69 ae 20 c0 c6 75 50 3f d2 d3 07 c0 54 e9 d3 3f
       -2.5106452 0.8142971 -2.1223035 1.6555581
000270 e9 05 2d c0 f8 24 a9 be 64 4a 9f 3f f7 dc d0 3f
       -2.7034857 -0.33036017 1.2444577 1.6317433
000280 5e 5e f4 3f 66 25 e8 bf 64 8e 37 3f 8d 4a e8 bf
       1.9091299 -1.8136413 0.71701646 -1.8147751
000290 85 ae a1 3d 4f cd 1c c0 61 ba ab bf 04 d3 a6 3f
       0.07894615 -2.450031 -1.3416253 1.3033147
0002a0 6c 97 99 bf 6a 4f 57 bf 83 81 e6 bf cc af d5 3d
       -1.1999335 -0.8410555 -1.8008274 0.10433921
0002b0 4b 70 32 be f6 8a ad 3f 56 53 be bf c8 72 9f 3e
       -0.17425649 1.3558033 -1.4869182 0.3114226
0002c0 bb da aa 3f 9a c1 05 3f cc 06 2c 3d 4f 74 37 40
       1.3348001 0.5224854 0.04199867 2.866474
0002d0 7b 22 79 be 82 de 2c bf dd 3a 82 bf 0c 88 3f 3d
       -0.2432956 -0.6752702 -1.0174214 0.046760604
0002e0 03 bd 4e 3d 79 66 fe bf d0 8a 45 3f 2e 14 8c bf
       0.050473224 -1.9875022 0.77164936 -1.0943658
0002f0 27 91 00 c0 5a a5 10 bf e3 96 2b be 9f 1e e8 bf
       -2.0088594 -0.56502306 -0.16756777 -1.8134345
000300 d5 e1 d4 bf 87 26 90 bf 97 af 1a c0 05 d5 bd bf
       -1.6631418 -1.1261758 -2.4169672 -1.4830633
000310 ad 6f ab bd a6 8c 19 bf 68 6c 4e bf 7c bb a9 3e
       -0.0837091 -0.5998024 -0.80634165 0.33150852
000320 eb 68 81 3f 1f b1 02 3e 58 04 5d bf 0e ee ad 3f
       1.0110143 0.12762879 -0.86334753 1.3588274
000330 65 dd 0c c0 1f 0d 46 c0 a7 1d b5 bf 69 f4 49 c0
       -2.2010128 -3.0945508 -1.4149674 -3.1555426
000340 4e 71 ed bd 73 a9 86 3f 74 e0 2f 3e a6 fd ed be
       -0.11593877 1.0520462 0.17175466 -0.4648258
000350 58 fc ca be 1e 8e f5 3e e9 36 ee bf 90 8d 42 c0
       -0.39645648 0.4795999 -1.8610507 -3.0398903
000360 a8 90 9b 3f 74 46 fe 3e ae 81 a5 bf 7c 37 13 c0
       1.215352 0.49663126 -1.29302 -2.3002615
000370 ae 80 83 c0 a6 03 60 3f cf 41 d1 bf 63 5e 07 bf
       -4.109458 0.8750557 -1.6348208 -0.528784
000380 f8 5d 48 3f 86 ff 94 bf cb 83 7c 3e c0 5c f3 be
       0.78268385 -1.164048 0.2465965 -0.475317
000390 ae 1b 3e 3d 0e 6b f4 bd 2b 3d 2f 3f f1 2c 4a bf
       0.046413116 -0.119344816 0.6845271 -0.78974825
0003a0 78 b9 03 bf 91 83 79 40 82 87 6c be 3d 96 8f 3f
       -0.5145488 3.8986552 -0.23098567 1.1217724
0003b0 1a 8e 15 3f 78 f7 c2 bf b3 91 f6 bf 78 86 cd 3f
       0.58419955 -1.5231771 -1.9263214 1.6056662
0003c0 26 21 86 c0 ea 3b f4 3e 39 9f ac bd 5d 21 53 3e
       -4.1915464 0.4770196 -0.08428807 0.20618196
0003d0 5f 2a 35 c0 d3 ac bf 3e 45 82 60 c0 cb 1f ab 3e
       -2.8307111 0.37436542 -3.507951 0.33422694
0003e0 19 d4 84 3f 90 9d 3e 3f 07 b0 8e bf cf 44 eb be
       1.0377227 0.7445917 -1.1147469 -0.45950934
0003f0 f5 df 54 be 9e 65 48 3f e6 18 26 c0 cc 53 f9 be
       -0.20788558 0.78280056 -2.5952697 -0.48696744

bias f4 [32]
000000 45 a2 83 3e 34 5a 89 bf 33 e4 a0 3f 6a a3 6b be
       0.2570974 -1.0730653 1.2569641 -0.23011556
000010 92 fd 27 3f 49 67 12 3f 85 f2 38 bf eb ac e3 be
       0.6562129 0.5718885 -0.72245055 -0.44467863
000020 3f 12 bd 3a d7 0d 9d 3f ac e8 96 be 2b f9 0c 3e
       0.0014424993 1.2269849 -0.2947439 0.13766925
000030 ca b1 be be c2 a0 65 3f d2 0a 2e 3e 4b 76 24 bf
       -0.37245017 0.8969842 0.16996315 -0.64243
000040 3f 03 48 3f a4 16 3d 3f 9e 65 08 40 3f 4e d5 3e
       0.78129953 0.7386267 2.1312022 0.4166126
000050 f2 50 a8 3f d4 d8 b7 3d e9 c3 05 40 04 ea 9d bd
       1.3149703 0.089769036 2.0900824 -0.077106506
000060 7d 56 2d bf de a0 d4 3f 10 5e aa 3f f7 e8 85 bf
       -0.67710096 1.6611593 1.3309956 -1.046172
000070 83 65 58 3f 9e 30 bb be 59 89 74 40 99 52 da 3e
       0.84529895 -0.3656053 3.820883 0.42641142

weight f4 [32]
000000 92 b3 0d 40 26 73 ce 3f 12 4c 05 40 4d f3 02 40
       2.214085 1.612889 2.082768 2.0461
000010 92 3a 02 40 0f 3f f9 3f 89 b5 ee 3f 0c 36 c5 3f
       2.0348248 1.9472369 1.864915 1.5407119
000020 ad 16 ab 3f cb 15 b2 3f f1 ca 08 40 4b 3b 02 40
       1.3366295 1.3912901 2.1373866 2.034869
000030 b9 a5 09 40 4a 70 65 3f 3d 1a 16 40 32 a2 ca 3f
       2.15074 0.89624465 2.3453515 1.5830748
000040 08 a0 22 40 a5 3b 12 40 61 46 aa 3f e6 72 87 3f
       2.5410175 2.2848904 1.3302728 1.0581939
000050 88 6f 09 40 34 73 c8 3d 2a 6f f3 3f a1 14 0a 40
       2.1474323 0.09787598 1.90183 2.157509
000060 93 6e 10 40 4c 1e bf 3f bf ba d9 3f 39 eb ea 3f
       2.256749 1.4931121 1.7010115 1.8353034
000070 82 d6 ce 3f 97 d7 01 40 94 80 07 40 1b 68 c8 3f
       1.6159213 2.0287836 2.1172228 1.565677

bias f4 [32]
000000 be 03 ab be 43 ad c6 bf 1b ca cc 3e 5b d2 fd 3e
       -0.33401293 -1.5521625 0.39997944 0.4957455
000010 17 3e 3f be 48 3b 3c 3e 43 29 9d bf 7b fe e1 bf
       -0.18676029 0.18381989 -1.2278217 -1.7655786
000020 4f b0 09 c0 d7 ce 3e bf 5b 59 ae bf e5 71 59 3f
       -2.151386 -0.7453436 -1.3621019 0.84939414
000030 20 93 b4 bd b2 ba ab 3f 5d f5 be be 6e d2 20 bf
       -0.08817124 1.341635 -0.37296572 -0.6282109
000040 85 b7 82 3f 71 57 f3 be e9 e4 cb 3f 1f c9 80 be
       1.0212256 -0.4752765 1.5929233 -0.25153443
000050 83 c6 02 3f 9e a1 8d bf e1 2d 66 be 52 7d 40 be
       0.51084155 -1.1064947 -0.22478439 -0.18797806
000060 84 16 76 bd 01 7f 15 c0 0c 3a e4 3f f4 98 9e be
       -0.060080066 -2.3358767 1.7830215 -0.3097607
000070 9e d2 f0 be 70 bb 15 bf 22 ba f2 be 41 c6 65 3f
       -0.47035688 -0.5848913 -0.47407633 0.89755636

running_mean f4 [32]
000000 11 6b 27 c2 55 54 8d 40 4b 8e b2 c1 fa a1 df c0
       -41.854557 4.4165444 -22.319479 -6.9885225
000010 ed 42 15 c2 2a 28 ef c1 66 9f ce 41 35 07 93 41
       -37.315357 -29.894611 25.827831 18.37852
000020 bc 85 ca 41 14 3f b2 c1 1c 05 84 3f 9b db a5 40
       25.3153 -22.2808 1.0314059 5.1830573
000030 4c a7 e2 c0 55 73 1a c1 4d 6a 70 c1 6a 95 da 41
       -7.082922 -9.653157 -15.025952 27.322956
000040 d5 88 29 c1 6c 68 69 c1 b0 92 8b c1 aa 39 a0 41
       -10.595906 -14.587994 -17.446625 20.028156
000050 f6 6f fe c1 33 c5 32 c0 17 3f fa 41 27 49 ef c1
       -31.804668 -2.793286 31.280806 -29.910719
000060 0f 19 40 bf 9a 7b c3 41 1d 3a 8e c1 e8 38 53 40
       -0.75038236 24.435352 -17.778376 3.3003483
000070 2a e7 2a 41 f9 a8 78 c1 39 40 15 c1 3a 86 63 c0
       10.681437 -15.541253 -9.328179 -3.5550675

running_var f4 [32]
000000 a0 56 2d 44 a3 d7 be 43 39 d3 10 44 6d 14 dd 43
       693.3535 381.68466 579.30035 442.15958
000010 f9 27 da 43 55 df ff 43 76 ae 0b 44 8c 3a d7 43
       436.3123 511.74478 558.72595 430.4574
000020 78 3d a5 43 32 c4 0f 44 55 93 bb 43 0a 82 1c 44
       330.48022 575.06555 375.15103 626.03186
000030 7f b1 45 44 d0 f4 e5 43 ea 5e c2 43 a7 13 b5 43
       790.7734 459.9126 388.74152 362.15353
000040 a4 66 19 44 00 00 79 43 80 90 8d 44 c7 89 92 43
       613.60376 249.0 1132.5156 293.0764
000050 2a 36 9b 43 0a 57 5c 43 9b 9f d2 43 85 26 59 44
       310.42316 220.34 421.24692 868.60187
000060 eb ce f7 43 89 be c6 43 b2 9e 42 44 e8 f6 e6 43
       495.61655 397.48856 778.4796 461.92896
000070 3a d2 01 44 86 80 06 44 f3 bb 9d 43 53 81 26 44
       519.2848 538.0082 315.46835 666.0207

weight f4 [32, 32, 3]
000000 88 cf 72 3f eb eb 82 3d c3 30 6b 3e 74 9d 42 3f
       0.9484792 0.06392654 0.2296782 0.76021504
000010 00 c5 9d bf bb dc 0f c0 7f 29 29 40 83 d3 d8 be
       -1.2325745 -2.2478473 2.6431577 -0.4234887
000020 cb db 1a c0 b4 8c cc 3f 50 4d 86 be 8b 1e 71 bf
       -2.419665 1.5980439 -0.2623086 -0.9418723
000030 e4 e2 27 c0 8c 13 89 3f 8f a9 e7 bf 3c fb e1 3e
       -2.6232233 1.070909 -1.809862 0.4413699
000040 39 15 c8 3f 10 aa 5c bf 0c b8 06 40 5b af 84 3f
       1.5631477 -0.86196995 2.1049833 1.0366014
000050 36 d4 99 3f 07 53 5d 3f 9b a8 4c bf 6f 47 7a c0
       1.2017887 0.86454815 -0.7994477 -3.91061
000060 bd ae fe bf 91 a3 bb bf 96 e5 88 be 23 8d 31 40
       -1.9897076 -1.4659292 -0.2673766 2.7742393
000070 55 6b 8a 3f 87 be 2f c0 12 10 66 3e 0f 63 46 be
       1.0814005 -2.7460039 0.22467068 -0.19373725
000080 3e 50 ef be 54 fd 2c 40 48 92 01 40 15 5d 86 bf
       -0.46740907 2.702962 2.0245533 -1.0497156
000090 de 38 bd 3f 02 8e c2 3e e7 38 94 bf 34 65 16 40
       1.478298 0.37998968 -1.1579865 2.349927
0000a0 46 52 3d bf 47 e7 d4 be 45 22 b4 3f de da bd 3f
       -0.73953664 -0.415827 1.4072958 1.4832418
0000b0 89 c9 80 bf 62 64 a1 3f 72 a2 d2 bd 82 be e7 3e
       -1.0061504 1.2608759 -0.1028489 0.45262533
0000c0 ae d6 ae 3e 96 ca 0f c0 8a fe 94 c0 20 af 6c bf
       0.34148163 -2.2467399 -4.6560717 -0.9245472
0000d0 56 65 a5 3e d5 52 f6 3f 8b b7 83 bf 94 c9 e6 3e
       0.32303876 1.9244028 -1.0290388 0.45075667
0000e0 9a e8 48 be dc 54 a3 3f b2 03 48 be fd 40 50 be
       -0.1961998 1.2760272 -0.1953266 -0.20337291
0000f0 ff 34 0c 40 7d 36 00 3f 96 f4 b7 be c5 1a bf 3e
       2.1907346 0.5008314 -0.35928792 0.3732511
000100 37 ea 13 bf f8 70 6a bf 9e 43 3d 3f 31 17 e5 bf
       -0.5777926 -0.91578627 0.739313 -1.7897702
000110 50 db d5 bf 34 c7 d1 3e 1e 4a 9f 3e 97 76 15 3f
       -1.6707554 0.40972292 0.31111234 0.5838408
000120 2c a1 01 bf 9c 3e 65 be bb fe 81 3e bd 0f ba 3f
       -0.50636554 -0.22387165 0.25389656 1.4536053
000130 b1 6a 93 3e b6 2b 7a 3e c9 6a 4a be c1 24 66 bf
       0.28792337 0.24430737 -0.19767298 -0.8989983
000140 39 7d 0e c0 3b a0 b1 3f 34 63 43 3e 5d c4 b4 bf
       -2.226393 1.3877023 0.19080812 -1.4122425
000150 72 49 48 3f 8d 48 ed 3e 7c 98 5e be ef 5e ce 3f
       0.7823707 0.46344414 -0.21737856 1.6122721
000160 01 3a 89 3e a5 6d 18 40 3d c0 9d be 1e c7 47 3f
       0.26802066 2.3816922 -0.3081073 0.78038204
000170 88 77 1c c0 1a ae 42 bf 00 72 39 bd 61 bd c8 3e
       -2.4447956 -0.7604691 -0.045274734 0.39206985
000180 bb 36 1d 40 d6 29 61 3f d5 f7 c0 3f ce 4e b0 3e
       2.4564655 0.8795446 1.5075632 0.34435123
000190 da fd 5a bf b6 1e 63 40 3c 65 b5 bf 4d b7 1e bf
       -0.85543597 3.5487494 -1.4171519 -0.61998445
0001a0 d0 ec 3a 3e a8 70 30 3f ad a0 a2 be 8b b4 7c bf
       0.182544 0.689219 -0.3176321 -0.98712987
0001b0 a6 d0 d8 3e 4e 12 08 be 14 d9 5a 40 8c 31 4a 3e
       0.42346686 -0.13288233 3.4194994 0.19745463
0001c0 ad f9 64 bf aa 77 06 3f 64 dc 8a 3f a6 89 0c 3f
       -0.89443475 0.5252634 1.0848508 0.54897535
0001d0 e4 89 14 c0 60 3b cd bf 74 ed be bf bc 25 af bd
       -2.3209162 -1.6033745 -1.4916215 -0.08552119
0001e0 8e d4 00 40 bf f4 3b 3f 6a 11 90 bf dc 87 35 bf
       2.0129733 0.7342033 -1.1255314 -0.7091043
0001f0 a1 44 f6 3e 48 ee c8 3f ed f8 7b bf 4e b4 34 c0
       0.48099235 1.5697718 -0.98426706 -2.823505
000200 91 8a 5c c0 19 0f 03 bf c5 53 98 3f a5 88 00 3d
       -3.4459574 -0.5119491 1.1900564 0.031380314
000210 6b 2f ea bf d8 39 64 be 2c 91 43 40 7b 96 57 bf
       -1.8295721 -0.2228769 3.0557356 -0.8421399
000220 91 a5 08 bf ed ba 1c c0 a0 89 34 3f 7d c3 1b bf
       -0.53377634 -2.448909 0.705225 -0.60845166
000230 2e 1b 4a 3f 74 f2 4a bf 07 cc 6e 3f 14 fb 06 c0
       0.7894772 -0.79276204 0.9328007 -2.1090746
000240 93 b9 90 be cc 9e d0 be bf 43 b0 bf ac c2 46 3e
       -0.28266582 -0.40746152 -1.3770674 0.19410199
000250 97 48 5a 3f 3c 62 8c 40 93 8d 1d bd 86 bb d8 bf
       0.85267013 4.3869915 -0.038465094 -1.6932228
000260 90 2e 6f 3f 8e fd 9f bf b7 9c cc bf 87 2e 7c bd
       0.93430424 -1.2499254 -1.5985326 -0.06156781
000270 7f c8 13 40 54 e4 98 3f 5b 8e b9 bf 2a f3 e3 3d
       2.3091123 1.194468 -1.4496568 0.11130364
000280 c8 62 a7 be 0f 8d 28 bf e5 4d 8d 3e 83 81 32 bf
       -0.32692552 -0.6584024 0.2759849 -0.6972887
000290 03 ce 66 c0 f6 6f 6a c0 7d 1c ad be 6f 0d 22 40
       -3.606324 -3.6630836 -0.33810797 2.53207
0002a0 f5 fc 73 3f af bb a9 bf 83 89 ab c0 8d 37 2d 40
       0.95307857 -1.3260401 -5.360536 2.7065156
0002b0 3b 45 80 bc 6b 49 2c bf 32 71 b0 bf 99 95 96 bf
       -0.015658012 -0.67299527 -1.3784544 -1.1764404
0002c0 84 57 bb 3f e9 d4 70 3f 3c 3c 2b c0 6c 20 71 bf
       1.4636083 0.94074875 -2.6755514 -0.94190097
0002d0 7e aa 62 bf 73 6b 1b bf 1d c8 8a bf 39 fa 0e 40
       -0.885414 -0.6071083 -1.084232 2.2340224
0002e0 cf dc 0c 3f 14 b0 a0 c0 9b a2 a0 bf 2a c7 cc bf
       0.5502443 -5.021494 -1.2549623 -1.599828
0002f0 00 60 bd 3e 1c 98 0c 3f 4b f4 0f bf 33 53 07 3f
       0.36987305 0.549196 -0.56232136 0.52861327
000300 ae 92 bb 3f 4d 21 79 3e b3 88 0c bf 8e 6d c3 be
       1.4654138 0.2432911 -0.54896086 -0.3816952
000310 ef 42 8b bf 7c 62 cf 3f be ed e4 3f 55 65 35 bf
       -1.0879802 1.620193 1.7885053 -0.70857745
000320 75 6f 16 be 7b 2e 26 c0 21 f4 76 3e 96 79 98 bf
       -0.14690955 -2.596587 0.24116565 -1.1912105
000330 02 c2 5d 3f 4d 8f 85 bf 0f 6d ed bf 7f 21 ce bf
       0.8662416 -1.0434357 -1.8548907 -1.6103972
000340 14 19 af bf 64 0f 73 3f 7c 6e c1 3d 34 78 ab 3d
       -1.3679528 0.9494536 0.09444901 0.08372536
000350 17 cf 03 bf 44 5c 58 3e 40 85 c4 3f c5 b3 93 3f
       -0.5148787 0.21128947 1.5353165 1.1539236
000360 08 6e 28 c0 7a ca 84 be 99 cd 89 3f 6c e9 a1 bf
       -2.6317158 -0.25935727 1.0765868 -1.264936
000370 c4 c2 d1 3e 47 f5 89 3f c1 e1 30 3e 8f 19 26 bf
       0.40968907 1.0777978 0.17273618 -0.6488275
000380 c7 8b d4 3e bc a8 3c bd c2 98 4d 3f 33 85 6e 3f
       0.41512892 -0.046059355 0.80311215 0.93171996
000390 99 6d bc bf 94 23 51 3f 15 e4 78 40 d9 af 61 40
       -1.4720947 0.8169491 3.888921 3.526358
0003a0 5b 2d 08 c0 e9 2c 16 3e c4 4f d3 bf 15 50 33 c0
       -2.1277683 0.1466557 -1.6508718 -2.8017628
0003b0 c0 fa 8d bf 39 3c 02 bf 82 3a db be 1f 88 7e 3f
       -1.1092148 -0.5087314 -0.42818075 0.99426454
0003c0 15 b2 30 bb 80 e0 40 bf 34 13 53 bd 8c 6d fe 3f
       -0.0026961614 -0.7534256 -0.051531985 1.9877181
0003d0 ad bc 37 3d 28 52 55 c0 7b 49 c5 3f b7 97 1d c0
       0.04485767 -3.3331394 1.541305 -2.462385
0003e0 b0 42 1f 40 1a fb 9f bf 4d cc 5f bf 92 4b 79 40
       2.4884453 -1.2498505 -0.87421113 3.8952374
0003f0 61 aa d2 be e7 cb 5c be cf 05 52 be 5f c0 5c bf
       -0.41145614 -0.21562158 -0.20510028 -0.86231035

bias f4 [32]
000000 c3 0b 3e bf 8e b8 74 bf 40 a0 22 3e 08 31 3f c0
       -0.74236697 -0.9559411 0.15881443 -2.9873676
000010 a3 15 84 3f 64 ca 09 bf 5c ce 92 be 2e 8a a6 3e
       1.0319103 -0.5382445 -0.28673065 0.32527298
000020 0c 1b 1a bf 1d 58 35 bf 62 20 41 bf 6a 4a 6d bf
       -0.6019752 -0.70837575 -0.7544004 -0.9269167
000030 bc c8 71 3f 2e 68 65 3f 30 50 e8 3f 14 ee ef 3e
       0.9444692 0.8961209 1.8149471 0.46861327
000040 66 b8 0b 3e 70 60 3c bf 64 4a fa 3e 40 0f c7 be
       0.13644561 -0.7358465 0.4888488 -0.38878822
000050 8e 99 76 bf 2a fc 9d 3e 0e f4 f6 3f ed 8b fa be
       -0.96328056 0.30856448 1.929323 -0.4893488
000060 a5 dd 6f bf ab 82 a6 be 29 96 0d bc 69 ed c5 bd
       -0.9369758 -0.32521567 -0.008641758 -0.09664423
000070 2e 8c 9c 3f b3 53 30 bf 05 65 9c 3e 98 2f c0 3f
       1.223028 -0.68877715 0.30545822 1.5014524

weight f4 [32]
000000 db 77 c4 3f 10 56 1e 40 fd 07 b5 3f 4c 3f 0c 40
       1.5349077 2.4740028 1.4143063 2.1913633
000010 21 bb fb 3f 52 42 e4 3f bd c1 2d 40 cf 7a 0e 40
       1.9666482 1.7832739 2.7149498 2.2262456
000020 25 80 18 40 03 07 ac 3f b3 9a 13 40 09 87 ed 3f
       2.3828213 1.343964 2.306317 1.8556834
000030 8d 5b 9b 3f 97 31 28 40 62 28 18 40 5c b3 12 40
       1.2137314 2.6280267 2.3774648 2.2921972
000040 45 a4 13 40 64 a1 02 40 d5 0e d8 3f 33 2f 36 40
       2.3069012 2.0411005 1.6879526 2.8466308
000050 ea 21 b4 3f 92 af c7 3f 34 82 20 40 fb 28 22 40
       1.407285 1.5600455 2.507947 2.5337512
000060 74 96 ec 3f 58 35 10 40 06 c1 14 40 50 51 fb 3f
       1.8483415 2.2532558 2.3242812 1.963419
000070 85 d0 a4 3f c0 9f 09 40 02 d4 c8 3f 3f c3 0c 40
       1.2876135 2.1503754 1.56897 2.1994169

bias f4 [32]
000000 37 06 22 bf 5f c2 0d bf eb 37 25 c0 96 42 72 3f
       -0.63290733 -0.5537471 -2.581538 0.9463285
000010 26 c5 bc bf 4e 9a f1 3e 4b 67 91 3f bb 77 91 bf
       -1.4747665 0.47188038 1.1359648 -1.1364664
000020 59 8d a6 bf e9 73 0a c0 47 58 9d be 45 07 7f bf
       -1.3011886 -2.1633246 -0.30731413 -0.9962047
000030 10 2a 07 c0 d6 85 e1 3e 38 27 3e be f5 9f 73 be
       -2.1119423 0.4404742 -0.18569648 -0.23791488
000040 67 c8 c4 be 4a 1f 4f bf 74 32 ce bf f5 6c e1 3d
       -0.38434145 -0.8090712 -1.6109147 0.1100711
000050 35 20 eb bf 2e a7 ba bd ae 02 86 3e c0 10 8f bf
       -1.8369204 -0.09113918 0.2617392 -1.1176987
000060 20 0b 73 3f 96 91 af bd a1 24 74 bf 55 f4 c5 be
       0.9493885 -0.0857269 -0.9536839 -0.38662973
000070 58 9c 17 c0 8a ec df be 3e d0 f4 bf a9 9d ed be
       -2.3689175 -0.43735152 -1.912605 -0.46409348

running_mean f4 [32]
000000 ab 35 f8 c0 f7 24 aa c1 29 41 4d 41 19 6e 07 41
       -7.7565513 -21.26805 12.828408 8.464379
000010 3e a5 11 c2 7c 5d ec 40 38 f6 ba c1 53 f1 43 c1
       -36.41137 7.3864117 -23.370224 -12.246417
000020 7d 64 97 c2 e6 1e c3 41 db ca b7 c1 1b 4e a9 40
       -75.696266 24.390087 -22.97405 5.2907844
000030 47 c6 32 c0 ef 17 3d c2 3f 01 96 c1 65 7a b1 c0
       -2.793352 -47.273373 -18.750608 -5.5461907
000040 09 63 13 c2 72 52 2e c1 e1 9a 0c c2 22 ca 3c c2
       -36.846714 -10.895128 -35.15125 -47.197395
000050 2e 06 05 42 87 34 9c c1 0b 98 0b c2 ca 33 43 c2
       33.256035 -19.525648 -34.89848 -48.800575
000060 5f 98 b2 40 42 2f 48 c1 00 7d 75 c2 4c 87 94 c0
       5.5811 -12.511538 -61.37207 -4.6415157
000070 fa b0 b9 41 2d d2 e0 be ad 3c fe 41 07 f4 98 c1
       23.211414 -0.4391035 31.779627 -19.119154

running_var f4 [32]
000000 24 18 8a 44 15 d7 3f 44 31 46 15 44 57 98 4d 44
       1104.7544 767.36066 597.09674 822.3803
000010 de f8 e8 43 72 f9 6d 44 af 0a b7 44 48 75 8a 44
       465.94427 951.8976 1464.3339 1107.665
000020 92 18 33 44 24 37 e6 43 63 89 4f 44 ac c1 62 44
       716.3839 460.4308 830.14667 907.0261
000030 69 ff ff 43 c8 67 c6 44 0b 73 e0 44 aa 9d 77 44
       511.9954 1587.2432 1795.5951 990.4635
000040 e4 7c 84 44 d7 b0 30 44 f9 9f b0 43 40 50 66 44
       1059.9028 706.7631 353.2498 921.2539
000050 7f d3 33 44 f0 31 a0 44 15 ea 70 44 ad 4b 38 44
       719.3046 1281.5605 963.65753 737.18243
000060 83 ce 59 44 34 d9 77 44 6b 00 46 44 35 15 42 44
       871.22675 991.3938 792.00653 776.33136
000070 8a 99 c4 43 ae cf 48 44 ef 36 c5 43 12 bf 40 44
       393.19952 803.245 394.42917 770.9855

weight f4 [64, 32, 3]
000000 b0 a8 40 c0 ef 4f 00 c0 db ae 10 be b9 55 cf 3e
       -3.0102959 -2.0048788 -0.14129202 0.4049509
000010 f2 c2 d2 3f 20 ee 29 40 81 bc 9e 3e 9b a2 98 3f
       1.6465743 2.655159 0.31003192 1.1924623
000020 63 14 ad bf a3 c7 87 3f 62 2a ff 3f 17 23 43 3f
       -1.3521847 1.0607799 1.9934809 0.7622542
000030 cf bb 1e bf 2d 19 e8 bd 08 f5 10 40 11 5d 90 3f
       -0.62005323 -0.11332927 2.2649555 1.1278402
000040 81 a4 95 bf f9 65 82 c0 65 5b 1f bf aa df 17 bf
       -1.1690828 -4.074948 -0.6224883 -0.5932566
000050 d2 bb 7f bf a0 e4 ba 3f 14 fe d3 be c9 21 64 be
       -0.99895966 1.4601021 -0.41404784 -0.22278513
000060 cc 4d 16 3f e0 c5 8d 3c 11 09 c4 3f ee 87 b7 bd
       0.5871246 0.017306268 1.5315267 -0.089614734
000070 2d ef e2 3e a2 cd 63 3e 22 45 3f bf 36 2e 07 3e
       0.44323102 0.22246411 -0.74714863 0.13201222
000080 6c b5 80 3f ca 22 a7 be df 78 20 3f f2 d3 8c bf
       1.0055366 -0.3264373 0.62684435 -1.100218
000090 18 c1 4a 3e 96 d2 b8 be 81 4a 20 be c9 c4 44 bf
       0.19800222 -0.36098164 -0.15653421 -0.7686277
0000a0 70 b0 f8 bf 0d d1 e2 3e 92 1f ca bf 5a 22 e1 bf
       -1.9428844 0.44300118 -1.5790884 -1.7588608
0000b0 eb dd 4f 3f 39 28 60 3f 64 6a b7 3f af 20 cc bc
       0.81197995 0.87561375 1.4329343 -0.024917929
0000c0 b3 b5 c7 bf a0 bb 1b c0 93 18 cb 3f 3b 8a e6 bf
       -1.5602325 -2.4333267 1.5866874 -1.8010935
0000d0 2c 2e f4 be cf 8a a4 3f fe 34 f6 be 3c c3 cc bf
       -0.47691476 1.2854861 -0.48087305 -1.5997081
0000e0 80 40 97 bd cd b6 c5 bf d4 f1 a5 be 21 57 d9 bd
       -0.07385349 -1.5446411 -0.32411063 -0.10612322
0000f0 3b 5e f1 3e ba 54 23 3f ed fa 94 3f 67 20 81 c0
       0.47142205 0.6380116 1.1639076 -4.0352054
000100 f5 97 73 3f 08 6f 11 40 ac 7c 99 bf 84 b7 64 bf
       0.95153743 2.2724018 -1.1991172 -0.8934252
000110 d9 63 87 be a3 82 95 bf fe 79 a3 bf 86 ae 21 c0
       -0.26443365 -1.1680492 -1.2771604 -2.526277
000120 a5 2d c2 3f 91 50 02 c0 14 12 45 bf d2 c7 ba c0
       1.517018 -2.0361674 -0.7698071 -5.836892
000130 d2 59 ce bf 1b e6 7a c0 4b 00 2c bf 5d 71 95 3e
       -1.6121161 -3.9202945 -0.6718795 0.29188052
000140 28 d8 81 be 00 7b 77 bf a6 05 40 c0 2b 59 a6 c0
       -0.25360227 -0.9667206 -3.0003448 -5.198385
000150 21 02 2d c0 74 72 22 3e 43 65 dd bf 11 22 a1 3f
       -2.703255 0.15863973 -1.7296528 1.2588521
000160 e4 3e 57 3f b2 89 c9 bc 9d 25 bd 3f 13 96 0f 3f
       0.8408034 -0.024601791 1.4777104 0.5608837
000170 10 4f db 3f 28 05 08 c0 0b 03 50 3f 9c 43 38 bf
       1.7133503 -2.1253147 0.81254643 -0.71978164
000180 88 f2 36 c0 23 9b c1 3f 89 d1 ee be 2d c2 f7 3f
       -2.858553 1.5125469 -0.46644238 1.9356133
000190 ea e2 02 c0 cc 0a 6a 3f 2c e1 c3 3f 71 4b 17 bf
       -2.0450997 0.91422725 1.5303092 -0.5909949
0001a0 de 84 26 be 94 39 97 3f fc e2 19 3e fc 48 fc bf
       -0.16261622 1.1814446 0.15027994 -1.9709773
0001b0 a9 86 f4 3e 62 4e d1 3f 12 af 32 3f 83 b0 ce 3f
       0.47758988 1.6352046 0.69798386 1.6147617
0001c0 7f d9 11 bd f0 9a 13 3d a8 2c 26 c0 ab 97 1b c0
       -0.03560781 0.03603643 -2.5964756 -2.431132
0001d0 33 81 87 bf 66 f0 64 c0 65 20 22 c0 bb fc df bf
       -1.0586303 -3.5771728 -2.5332272 -1.7499002
0001e0 b5 0f e6 3e 75 1e 22 3f 27 e4 8f bf 14 79 cc 3f
       0.4493386 0.63327724 -1.1241502 1.597445
0001f0 ef 58 68 3f 03 dd 89 3f ef a0 bc 3f 95 32 57 be
       0.907607 1.0770572 1.4736613 -0.2101539
000200 0b 4a 98 be e8 a0 49 bf de 37 4f c0 3f 7e fa 3c
       -0.2974399 -0.7876115 -3.2377849 0.030577777
000210 f5 a1 a0 3f 7e 26 8f 3f bc 14 0e bf 48 11 82 c0
       1.2549425 1.1183622 -0.5550039 -4.0646095
000220 89 87 63 3f 8b ca 10 c0 30 d5 e6 3f f7 45 a2 be
       0.88878685 -2.2623622 1.803381 -0.31694004
000230 60 59 b9 3e 83 5f c5 bf 54 b7 c0 be 21 51 21 c0
       0.36201 -1.5419773 -0.37639868 -2.5205767
000240 7d b4 a9 c0 55 18 3d c0 01 fa ef bf 73 01 6c bf
       -5.3032823 -2.95461 -1.874817 -0.9218971
000250 fe 23 74 bf 73 10 38 3f 72 d2 8c be 3e 5e 3e 3f
       -0.9536742 0.719001 -0.27504307 0.7436255
000260 8c 22 e3 3d 1d 95 d6 bf 74 b0 17 40 c3 41 96 bf
       0.11090574 -1.6764256 2.3701448 -1.1738819
000270 91 0f 1b be 6f 92 6d 3f 3d f3 4e 3d 70 21 a0 bf
       -0.15142657 0.92801565 0.05052494 -1.2510204
000280 98 a9 8e 3f d7 de b6 bf c0 60 98 bf 8e 90 1f bf
       1.1145506 -1.4286755 -1.1904526 -0.6232995
000290 2d e7 3d bf b0 dd 97 be 89 90 13 c0 5e 00 3c c0
       -0.7418087 -0.29661322 -2.3056967 -2.9375224
0002a0 72 e2 d5 bf a6 97 15 3e 7b e0 53 c0 5f 6f 09 c0
       -1.6709731 0.1460863 -3.3105762 -2.1474226
0002b0 d0 e3 84 be 6b c6 5e 3f 91 c8 77 bf 93 80 44 3e
       -0.25955057 0.8702151 -0.96790415 0.19189672
0002c0 92 5b 84 3f 19 31 e1 bf 3f 20 18 bf df 34 25 3f
       1.0340445 -1.7593108 -0.59424204 0.645338
0002d0 85 2f 0a 40 81 b6 b0 3f 04 26 5d 3f 9a 43 46 3f
       2.1591504 1.3805696 0.8638613 0.774469
0002e0 82 da 12 c0 a5 9d c0 bf 83 f4 14 40 a5 ab ac 3e
       -2.2945867 -1.5048109 2.3274238 0.33724704
0002f0 60 13 ba bf 9f 62 5f 3f da 16 aa bf 82 3d 00 c0
       -1.4537163 0.8725986 -1.3288224 -2.0037541
000300 76 cf 82 be 21 0c ff bd 08 4a e5 3e 5c ad b8 bf
       -0.25548905 -0.12453485 0.44783044 -1.4427905
000310 3b 9a 09 bf 08 d5 cb bf 76 6f b3 3f b1 b7 69 3f
       -0.5375096 -1.5924387 1.401839 0.91295916
000320 7b 75 22 c0 f1 c0 0e 40 10 86 de be 69 4a 27 3f
       -2.5384204 2.2305262 -0.43461657 0.65347916
000330 cb 85 d0 bf c2 13 14 3e a5 34 79 3e 59 3d a6 3f
       -1.629083 0.14460662 0.24336489 1.2987472
000340 b2 15 bd 3e e6 c7 1f bf 1c 8d 89 3f e6 c0 fd 3e
       0.36930615 -0.62414396 1.0746188 0.49561232
000350 79 88 1f 3f 0f 02 3f bf 58 94 e0 3d c9 d1 c2 3f
       0.62317616 -0.74612516 0.10965794 1.5220271
000360 58 3b 82 bf d8 8b a1 3e 5d 6d 3b bf b4 cf 34 be
       -1.017436 0.31552005 -0.7321375 -0.17657357
000370 c7 31 8a bf db ce ae 3f e1 bf e0 3f f5 e3 4b 3f
       -1.0796441 1.3656877 1.7558557 0.7964471
000380 f6 db 0e 3f 58 b0 3a 40 97 12 49 bd 57 6c 18 40
       0.55804384 2.9170132 -0.049089994 2.3816125
000390 c5 e6 e8 be e1 9a c9 3f 7a 88 ad 3f 87 94 9c 3e
       -0.45488563 1.575039 1.3557274 0.30582067
0003a0 52 d6 09 40 a9 22 87 bf 1f ed 07 be c8 1a e6 bf
       2.153706 -1.0557452 -0.13274048 -1.7976923
0003b0 38 37 ea be 82 18 bc bf 50 0e 10 3f f9 de c8 bf
       -0.45745254 -1.4694979 0.5627184 -1.5693046
0003c0 08 03 96 3e 66 68 8d 3f 2f d8 e0 be 03 a6 e1 3f
       0.29299188 1.1047485 -0.43914935 1.7628788
0003d0 bb fa 0c 40 5f 02 8d bf e3 58 18 3f 88 9f ba 3e
       2.2028034 -1.1016349 0.5951063 0.36449838
0003e0 0a fe 53 bf 40 71 cb bf b5 27 11 40 03 19 9f 3e
       -0.8280951 -1.5893936 2.2680485 0.3107377
0003f0 6c 2c 38 40 6e ea 28 40 cd bd 5e 40 5d a4 83 bf
       2.8777113 2.6393085 3.4803345 -1.0284535

bias f4 [64]
000000 20 79 b1 bf 78 3a 73 bf 82 f4 34 bf a4 83 a6 bf
       -1.386509 -0.9501109 -0.7068559 -1.3008924
000010 4b d3 ef 3e 98 b7 31 bf fa 38 82 3e 4f 95 a4 bf
       0.4684089 -0.69420767 0.25434095 -1.2858065
000020 4b 5f ea be 32 18 69 bf 15 1c 7b 3f 19 04 51 bf
       -0.45775828 -0.91052544 0.98089725 -0.8164688
000030 c9 47 3c 3f eb 9c bb bd a1 28 5b 3f 12 98 aa 3b
       0.73547035 -0.09160789 0.8560887 0.0052061165
000040 b7 30 52 bf 47 ef f3 3f 66 48 0b 3e 91 22 af bf
       -0.8210558 1.9057397 0.13601837 -1.3682424
000050 5f 3b 87 be 80 74 9a 3f e2 39 71 bf 4e 50 45 be
       -0.26412484 1.2066803 -0.9422895 -0.19268915
000060 48 aa 46 3f 37 d3 bf be 56 c6 af bf 01 89 96 3e
       0.7760358 -0.37465832 -1.3732402 0.294014
000070 9c 4a 4e be ac fa ad 3f 13 00 24 bf 4a b3 86 3f
       -0.20145649 1.3592124 -0.64062613 1.0523465
000080 38 1c c3 bd 21 0d 8e be 7e 3a 14 3f 12 58 1a be
       -0.09526867 -0.27744392 0.5790175 -0.15072659
000090 71 1b 2b be 1b 73 f1 be f1 a3 e4 be 73 da e5 bf
       -0.16709687 -0.4715813 -0.44656327 -1.795729
0000a0 f0 ab b2 be e4 5b 24 3d e1 02 66 be a1 d6 b5 3e
       -0.34896803 0.040126696 -0.22462036 0.3551531
0000b0 02 6d 7d 3d 20 e4 1a c0 75 a6 85 3e 3c ab cd be
       0.061871536 -2.4201736 0.2610356 -0.40169704
0000c0 b1 77 9c be d2 9c fa bd 34 33 1d be 4e d2 bf 3e
       -0.30560067 -0.12236942 -0.15351564 0.37465137
0000d0 99 91 b8 3f 9f 15 c8 be b0 9b 24 3f f0 84 b8 be
       1.4419433 -0.39078996 0.6430006 -0.36038923
0000e0 99 78 19 bf c7 1c 25 bf 2f f2 8c bf 08 c9 16 40
       -0.5994964 -0.64497036 -1.1011409 2.35602
0000f0 ef b8 b9 bf 5b 8f 25 3e 10 80 89 be 9f a9 a5 3f
       -1.4509562 0.16167967 -0.26855516 1.2942389
