unet/checkpoints/one_loss/epoch_46.pth (torch, 508787 bytes, 85 tensors)

weight f4 [8, 1, 3]
0	0x3f31a470	0.69391537
1	0xbcb61c70	-0.022230357
2	0x4022e3ea	2.5451608
3	0x3ef6533b	0.48110375
4	0xc03a99aa	-2.915629
5	0xbf1401f4	-0.5781548
6	0xbf86ae5c	-1.052196
7	0x3fb4e150	1.413126
8	0x3f34f351	0.7068377
9	0xc05a4223	-3.4102867
10	0xbe948bb7	-0.29012844
11	0x3f0662b8	0.5249438
12	0x3f575b5f	0.84123796
13	0xc002b314	-2.04218
14	0xbdc41538	-0.0957436
15	0x3f2a2ac3	0.664715
16	0x40529596	3.29038
17	0xbe8ae0a1	-0.27124503
18	0xbfa23cf3	-1.267485
19	0x3f0ffd0f	0.5624551
20	0xbfd48597	-1.6603268
21	0x401e85c9	2.4769156
22	0xbd7bd30e	-0.061480574
23	0xbf64dcc9	-0.8939939

bias f4 [8]
0	0x3e25b4b0	0.16182208
1	0x3d4a994e	0.04946261
2	0x3db03644	0.086041
3	0x3eeac3f6	0.4585263
4	0xbe38fc8f	-0.18065093
5	0x3da03ec2	0.0782447
6	0xbea5a192	-0.3234983
7	0x3d9c21f0	0.076236606

weight f4 [8]
0	0x3f8475ba	1.0348427
1	0x3fd09aba	1.6297219
2	0x3fda4005	1.7050787
3	0x3fe42954	1.7825112
4	0x3e269699	0.16268386
5	0x40210d36	2.5164313
6	0x3f8aedc3	1.0853809
7	0x400084eb	2.0081127

bias f4 [8]
0	0xbfcd4d2c	-1.6039176
1	0x3eba9101	0.36438754
2	0x3fb9c696	1.4513729
3	0x3fc9aaea	1.5755284
4	0x3f5d00fc	0.8632963
5	0xbd008ac3	-0.031382333
6	0xbf133298	-0.57499075
7	0xbe21d0bb	-0.1580228

running_mean f4 [8]
0	0x3d914a6a	0.070942715
1	0x3ce58614	0.028018035
2	0x3e0f4aae	0.13993332
3	0x3f28397d	0.6571272
4	0xbe6bdaae	-0.23032638
5	0x3d2a1cbc	0.04153131
6	0xbe5a1b79	-0.21299542
7	0xbd62749b	-0.055286985

running_var f4 [8]
0	0x491251d1	599325.06
1	0x4909b5f9	564063.56
2	0x47b9b0d3	95073.65
3	0x4919c3cf	629820.94
4	0x4802a550	133781.25
5	0x494afa29	831394.56
6	0x48a38f86	334972.2
7	0x483f5882	195938.03

weight f4 [16, 8, 3]
0	0x3f1cd9d0	0.61269855
1	0xbf33dcdf	-0.702589
2	0xc04bbccb	-3.183398
3	0x3fa7489d	1.3069035
4	0x3f8652a0	1.0493965
5	0xbf583cf6	-0.8446802
6	0xbf5c7790	-0.8611994
7	0x3f2901be	0.66018283
8	0x3f4dee02	0.80441296
9	0x3fadf5a4	1.3590589
10	0x4027714d	2.6162903
11	0x3f276605	0.65390044
12	0x3f5790ba	0.8420521
13	0x3f696164	0.9116423
14	0xbfa0f0a4	-1.2573438
15	0xc015646e	-2.3342547
16	0xbf9e618a	-1.2373517
17	0xbce487ca	-0.02789678
18	0x3f3da3b6	0.7407793
19	0xbf801ba7	-1.0008439
20	0x3f5069e3	0.8141157
21	0x3ec56a9c	0.385579
22	0xbf80bde1	-1.0057946
23	0xbf0754e8	-0.5286393
24	0x3f82e5d6	1.022639
25	0x3f92ed7b	1.1478723
26	0xbe916e62	-0.28404528
27	0x3ea58fb0	0.32336187
28	0x3f50b5b4	0.81527257
29	0xbeeead33	-0.46616516
30	0x3f7f8c27	0.9982323
31	0x3f27ca87	0.6554341
32	0x3ef7c755	0.48394266
33	0xbfcd89c3	-1.6057667
34	0x3e426960	0.1898551
35	0x3f4c2552	0.79744446
36	0x3eacd1fe	0.3375396
37	0x3f45c46a	0.7725283
38	0xbf038520	-0.5137501
39	0x404eaed6	3.2294211
40	0x3fda6627	1.7062424
41	0x3fc5ecc7	1.5462884
42	0x3e0d679e	0.13809058
43	0xbe7b1c76	-0.24522576
44	0x3f0c201b	0.5473649
45	0x3d95907a	0.07302947
46	0x3fdc3dc4	1.7206349
47	0x3f31897d	0.69350415
48	0xbfbb8204	-1.4649053
49	0x3f247ba2	0.6425115
50	0xbfbd6f16	-1.4799526
51	0x3e2c5769	0.1683022
52	0x3f084a4a	0.53238356
53	0x3e81b7e5	0.25335613
54	0xbf1f4c32	-0.6222564
55	0xbf7f2d57	-0.9967856
56	0x3f458342	0.7715341
57	0xc03969f5	-2.897092
58	0xbc6ec83a	-0.014574105
59	0x3f1dffb6	0.6171831
60	0x3f2748f8	0.65345716
61	0x3f2b2309	0.66850334
62	0x3ce88376	0.028382998
63	0x3f3b1b11	0.73088175
64	0xbfa79c85	-1.3094641
65	0x3e62d836	0.2215279
66	0xbf9b5cc6	-1.2137687
67	0x3ed9376d	0.424251
68	0x3f5f216b	0.87160367
69	0x3f8771ec	1.0581641
70	0x3e01afd5	0.12664731
71	0xbfedf64f	-1.8590792
72	0x400a55d6	2.161489
73	0x3f284294	0.6572659
74	0xbd8ffe8d	-0.070309736
75	0x4008d4c5	2.1379864
76	0x401255c6	2.2864852
77	0x3ec8b49e	0.392003
78	0xbe584bce	-0.21122667
79	0x3eadfd50	0.33982325
80	0xbf9aeff6	-1.210448
81	0x3f04fd16	0.5194868
82	0x400ad799	2.169409
83	0x3f4d5f48	0.8022351
84	0x3f5e64d9	0.8687263
85	0x3fb3ceb2	1.4047453
86	0xbe0a9102	-0.13531879
87	0xbf848be5	-1.0355192
88	0x3ec9d69a	0.3942154
89	0xc009fde4	-2.1561213
90	0x3e192687	0.14956103
91	0x3fa0a6b9	1.255088
92	0x3d2d0087	0.04223683
93	0xbe2b98a4	-0.16757447
94	0xbfacd49c	-1.3502383
95	0x3f4244d1	0.75886256
96	0x3fce1c15	1.610232
97	0xbf9db69b	-1.2321352
98	0xbfa62096	-1.2978694
99	0xbf46ac7d	-0.77606946
100	0xbfce5b05	-1.6121527
101	0xbf3be465	-0.7339538
102	0xbeb28d2e	-0.34873337
103	0xbf9e69b8	-1.2376013
104	0xbfd9334d	-1.6968781
105	0xbf93fc8d	-1.1561447
106	0xbf48e950	-0.78481007
107	0xbeea1214	-0.45716918
108	0xbca492a7	-0.02008946
109	0xbf642f68	-0.89134836
110	0xbf14cd28	-0.58125544
111	0x3fadf6e8	1.3590975
112	0x3e779bc8	0.2418052
113	0xbf4aa988	-0.79164934
114	0xbd57691e	-0.052590482
115	0xbfa7aad0	-1.3099003
116	0xbfac718d	-1.3472153
117	0x4002e9eb	2.0455272
118	0x3f85b077	1.0444478
119	0x3e6061a9	0.21912254
120	0x3fb7cc5b	1.4359239
121	0xbdf22e1f	-0.11825203
122	0xbfa27a08	-1.2693491
123	0x3fe7d140	1.8110733
124	0x3fd1d6c1	1.6393663
125	0x40096cb3	2.1472595
126	0x3e844803	0.2583619
127	0xbefa3793	-0.48870525
128	0xbfc7beba	-1.560508
129	0x3eff03b0	0.498075
130	0x3f97881c	1.1838412
131	0x3f798e42	0.97482693
132	0x3f8fad11	1.1224691
133	0x3f65e55f	0.8980312
134	0x3f89b39e	1.075794
135	0xbf17844f	-0.5918626
136	0x3e7bec9a	0.24601975
137	0xbf82144a	-1.0162442
138	0x3e9e4239	0.309099
139	0x3f8f7420	1.1207314
140	0x3eac2078	0.33618522
141	0x3f680826	0.90637434
142	0x3ed83fd0	0.42236185
143	0x3f4e8b68	0.8068147
144	0x3f8171e9	1.0112888
145	0x3e04d2c5	0.12971027
146	0x3f58abc5	0.846371
147	0xc040a924	-3.0103235
148	0x3f09c763	0.53819865
149	0xbe949693	-0.2902113
150	0xbfe793c1	-1.8091966
151	0xbf211ef1	-0.6293784
152	0xbd669f13	-0.05630405
153	0xbfa19aae	-1.262533
154	0xbfea4ea4	-1.8305249
155	0x3e634fce	0.22198412
156	0xc0028fd1	-2.0400279
157	0x3e8718a9	0.26386002
158	0x3e0cf137	0.13763891
159	0xbe90382c	-0.28167856
160	0xbe7e71cb	-0.24848096
161	0xbe88f22f	-0.2674727
162	0xbe322bf1	-0.17399575
163	0xbe1ef56c	-0.15523309
164	0xbfe725e0	-1.8058434
165	0x3f305e5e	0.6889399
166	0xbfcad61c	-1.5846591
167	0xbf22e256	-0.6362661
168	0x3f8e0291	1.1094533
169	0x3f45a6a0	0.77207375
170	0x3ef57bf5	0.47946134
171	0x3e98b9cc	0.29829252
172	0xbfe42ffd	-1.7827145
173	0x3ee2f1a2	0.44324976
174	0xbea6588c	-0.3248943
175	0x3fbcd0ad	1.4751183
176	0xc014755b	-2.3196628
177	0xbe37643b	-0.17909329
178	0x3f6d61b9	0.9272724
179	0xbf7dcc11	-0.99139506
180	0x3f164a0a	0.58706725
181	0xbfbe1b7b	-1.4852136
182	0xbe868c84	-0.2627908
183	0x3fccc9ce	1.5999086
184	0x3fa3fd61	1.28117
185	0xbd97f53b	-0.07419821
186	0xbff4da88	-1.912919
187	0x3f8fd6e4	1.1237454
188	0x3f260b20	0.64860725
189	0x3f180d12	0.59394944
190	0x3f9638a6	1.1736038
191	0x3e5fc0d4	0.21850902
192	0x3f8b3f62	1.0878718
193	0xbfeb590a	-1.8386548
194	0x3fa4047f	1.2813872
195	0xbeb56eb1	-0.35436013
196	0x3f0ee9fa	0.5582577
197	0x3f0798f1	0.52967745
198	0xbf870af7	-1.0550221
199	0xc0384853	-2.8794143
200	0xbe8cea99	-0.27522734
201	0xbff32af0	-1.8997478
202	0xbd271b67	-0.040797617
203	0x3e040a4e	0.12894556
204	0x3db39398	0.08768386
205	0xbaf69a95	-0.001881438
206	0x3f3ef8b1	0.7459822
207	0xbe4809f7	-0.19535051
208	0xbf322afd	-0.69596845
209	0xc04f6c5c	-3.2409887
210	0xbfbe73de	-1.487911
211	0xbf53a60b	-0.82675236
212	0x3e9a5868	0.30145574
213	0x3fa3ed69	1.2806827
214	0xbe2d4820	-0.16922045
215	0xbdb07fba	-0.08618112
216	0xc015af77	-2.3388345
217	0xbf48302f	-0.7819852
218	0xbf1b9824	-0.60779023
219	0x3e11cb9e	0.1423783
220	0xbe8f2a66	-0.27962035
221	0x400b2495	2.1741078
222	0xbed6cd97	-0.41953728
223	0xbf0f7b47	-0.5604748
224	0xbfe798c0	-1.8093491
225	0xbff41394	-1.9068475
226	0x3ef4adc8	0.47788835
227	0xbf368d9b	-0.7130982
228	0x3eac6b3d	0.33675566
229	0x3c6b0321	0.014344008
230	0x40081cf7	2.1267679
231	0x3e5ab9b3	0.21359901
232	0xbfac81b6	-1.3477085
233	0xbfe2fb06	-1.7732856
234	0xbfb066c2	-1.3781359
235	0x3f911670	1.1334972
236	0x3d6ae7ad	0.05734985
237	0x3f76c546	0.96394765
238	0x3f16d33a	0.58916056
239	0xbee45db5	-0.44602743
240	0xbc2136e4	-0.009839747
241	0x3e2a9402	0.16658023
242	0xbda0ef74	-0.07858172
243	0x3fe6c3a3	1.8028454
244	0x3fafe420	1.3741493
245	0x40046862	2.068871
246	0x3c24dba6	0.010062134
247	0xbe71f88a	-0.23629966
248	0xbf94e5b5	-1.1632601
249	0x3e9502bd	0.29103652
250	0x3fb90872	1.4455702
251	0x3f6c1211	0.9221507
252	0x3fbdb949	1.482217
253	0x3edeeea3	0.4354144
254	0x3fcb0c3f	1.5863112
255	0xbe5216dd	-0.20516534

bias f4 [16]
0	0x3ddd6f56	0.10812251
1	0x3fafd844	1.3737874
2	0xbd46051b	-0.048344713
3	0x3ee380fa	0.4443434
4	0x3f5eca4f	0.8702745
5	0x3f943826	1.1579635
6	0x3f8b8714	1.0900598
7	0xbf6bac84	-0.9206011
8	0xbfa565d4	-1.29217
9	0xbf1236e0	-0.5711498
10	0x3eadc67f	0.33940503
11	0x3e86e6f1	0.2634807
12	0x3ef51081	0.47864154
13	0x400c52a3	2.1925437
14	0x40034e7e	2.0516658
15	0x3f495a6a	0.78653586

weight f4 [16]
0	0x3fa087ff	1.2541503
1	0x3fd56262	1.6670649
2	0x3f8075b5	1.0035921
3	0x3fb5b390	1.4195423
4	0x3fd0da4c	1.6316619
5	0x3f86c389	1.0528423
6	0x3f5e5a7e	0.8685683
7	0x3f4fed89	0.81221825
8	0x3f9d94e3	1.2311062
9	0x3f518b17	0.8185286
10	0x3f5b37c3	0.8563196
11	0x3fdd9d7f	1.7313689
12	0x3fcf8e27	1.6215256
13	0x3ff5cafd	1.9202572
14	0x3facf8a2	1.3513377
15	0x3fb19bd6	1.3875682

bias f4 [16]
0	0x3f9db8b7	1.2321995
1	0xbfaecf71	-1.3657056
2	0x3f0ed49d	0.5579317
3	0x3e1ea174	0.15491277
4	0x3f412278	0.7544322
5	0x3e6760bb	0.22595493
6	0x3e179a80	0.14805031
7	0x3fad4a0f	1.3538226
8	0x403cff92	2.9530988
9	0x3f3fc7bc	0.74914145
10	0xbe3b7954	-0.18308002
11	0xbea815ac	-0.32829034
12	0xbee9e7b3	-0.45684585
13	0x3ee9b63f	0.45646855
14	0x3f0e882f	0.5567655
15	0x3f6ff6c8	0.93735933

running_mean f4 [16]
0	0x40dbcbf1	6.868645
1	0x4146952c	12.411419
2	0xc08bc845	-4.368197
3	0x40fcdbf8	7.9018517
4	0xc122b399	-10.168847
5	0x41271375	10.44225
6	0xc15acd50	-13.675125
7	0xbf923d59	-1.1424972
8	0xc1568149	-13.406564
9	0xc0e4722c	-7.138937
10	0x410c17d8	8.755821
11	0x410c2644	8.759342
12	0x40b6bacd	5.710303
13	0x410b29d5	8.697713
14	0xc01cd1b5	-2.4502995
15	0x40b2937d	5.580504

running_var f4 [16]
0	0x4332a0c9	178.62807
1	0x4351210c	209.12909
2	0x41dc5a0f	27.543974
3	0x4350124c	208.07147
4	0x4293fa7d	73.989235
5	0x430e3f81	142.24806
6	0x421e5ee3	39.592663
7	0x4262333e	56.55004
8	0x42c9e688	100.95026
9	0x42761a0c	61.525436
10	0x431c5f9c	156.37347
11	0x429b3001	77.59376
12	0x4383e7bf	263.81052
13	0x429111da	72.53487
14	0x41d82cbc	27.021843
15	0x439789d7	303.07687

weight f4 [16, 16, 3]
0	0xc006eb9b	-2.1081302
1	0x3e1bfafe	0.15232465
2	0xbe13cebb	-0.1443433
3	0x3fb77614	1.433291
4	0x3f6f858f	0.9356317
5	0xbf5841f3	-0.8447563
6	0xc0062d1d	-2.0965035
7	0xbfa4fe90	-1.2890186
8	0xbfb0dace	-1.3816774
9	0xbe5e5117	-0.21710621
10	0xbd9aad33	-0.075525664
11	0xbde3886d	-0.111100055
12	0x3d2aa83e	0.041664355
13	0x3f6a92bd	0.91630155
14	0x3f9208a0	1.1408882
15	0x3d62dcc4	0.05538632
16	0xbf570aeb	-0.84001034
17	0xbe9c2340	-0.30495644
18	0xbefb69a1	-0.49104026
19	0xbf0d15df	-0.551115
20	0x3eeec404	0.46633923
21	0x3e46aacc	0.19401091
22	0x3ef3c7e9	0.47613457
23	0xbf864d79	-1.0492393
24	0xbf1de124	-0.6167166
25	0x3f0852d8	0.5325141
26	0x40083610	2.1282997
27	0xbe627190	-0.22113633
28	0x3d64576c	0.055747434
29	0x3e7ca72c	0.24673146
30	0xbd80a2d6	-0.062810585
31	0xbf0677ff	-0.5252685
32	0xbebbd700	-0.3668747
33	0xbf0702ca	-0.5273863
34	0xbedd77cd	-0.43255463
35	0xbffa784b	-1.956796
36	0x3fc8c9fd	1.5686642
37	0x3fb630b5	1.4233614
38	0xbea07731	-0.31340936
39	0xbe793b87	-0.24339114
40	0xbfb499f7	-1.4109486
41	0xc023eb17	-2.5612237
42	0xbfbff3a7	-1.4996232
43	0xbdfa976f	-0.12235915
44	0xbf0bdab7	-0.5463061
45	0xbe7207ad	-0.2363574
46	0x3f2c00f3	0.6718895
47	0x3ef02030	0.46899557
48	0xc017244d	-2.3615906
49	0x3d8b29b7	0.06795066
50	0x3f375e83	0.7162859
51	0xbfa4c80e	-1.2873552
52	0xbf24ebe4	-0.6442244
53	0xbe012e17	-0.12615238
54	0xbfaff9bc	-1.3748088
55	0x3f477d36	0.7792543
56	0xbf26c514	-0.6514447
57	0xbed38ef4	-0.41320002
58	0x3ede6927	0.434396
59	0x3f63f3dc	0.89043975
60	0x403d0cae	2.953899
61	0x3ee9e8ab	0.45685324
62	0xbec07fa9	-0.37597397
63	0x3d454abe	0.048166983
64	0x3f134ea9	0.575419
65	0x3f208c17	0.6271376
66	0xbc9fccb9	-0.019506799
67	0x3f36e05d	0.714361
68	0x3ed5d5e4	0.41764748
69	0xbea726da	-0.3264683
70	0xbf8aac0e	-1.0833757
71	0xbfde8a95	-1.7386042
72	0xbf82b2f8	-1.0210867
73	0x3f60c08c	0.87793803
74	0xbfb4d8a0	-1.4128609
75	0xbf08de44	-0.5346415
76	0x3f39f101	0.7263337
77	0xbffc99c1	-1.9734422
78	0xbc15777f	-0.009122728
79	0x3f25162b	0.6448695
80	0x3f15122b	0.5823085
81	0xbf5cd20c	-0.86258006
82	0x3f36ccd7	0.7140631
83	0xbf49d084	-0.78833795
84	0x3fa0127c	1.2505641
85	0xbd2916bc	-0.041281447
86	0xbec9fc28	-0.39450192
87	0xc086b3fb	-4.2094703
88	0xbf3b09ca	-0.7306181
89	0xbf0b633a	-0.5444828
90	0xc02e9259	-2.7276824
91	0xbe6aed3f	-0.22942065
92	0xc0012e44	-2.0184488
93	0xbed5ea16	-0.41780156
94	0x3f85dcb4	1.0457978
95	0x3eb099e3	0.34492406
96	0xbfaca142	-1.3486712
97	0xbfde4b48	-1.7366724
98	0xbf9ea28e	-1.2393358
99	0x40345afd	2.8180535
100	0x3f4ee4be	0.8081778
101	0xbfcc2108	-1.594758
102	0xbfa8c42c	-1.3184867
103	0x3f2721c6	0.6528591
104	0xbf247071	-0.6423407
105	0xbf89efde	-1.0776327
106	0xbfa73a48	-1.3064661
107	0xbf1b058a	-0.60555327
108	0x3dd25e3c	0.1027188
109	0x3f0c9393	0.5491268
110	0x3fab7875	1.3396136
111	0x3e36da32	0.17856672
112	0xbf8d8334	-1.1055665
113	0xbe197b07	-0.14988337
114	0xbfd91858	-1.6960554
115	0x3f665488	0.89972734
116	0xbd65eeaf	-0.05613583
117	0x3f168e2d	0.58810693
118	0x3f5a3446	0.8523601
119	0x3f0ba731	0.5455199
120	0xbfebedfe	-1.8432004
121	0x3ed846f5	0.42241636
122	0x3f7e5696	0.9935087
123	0xbfdd378e	-1.7282579
124	0xbfcfc3f6	-1.6231678
125	0x3efdb2df	0.4955053
126	0x3eaa70aa	0.3328908
127	0xbe9a0c4f	-0.30087516
128	0x3de00132	0.10937728
129	0xbf17e66a	-0.5933596
130	0x3f8631b9	1.0483924
131	0xc004af74	-2.0732088
132	0x3fe07ba3	1.7537731
133	0x3fc6ba03	1.5525516
134	0xbf6b917a	-0.92018855
135	0x3eaba35b	0.33523068
136	0xbdae4270	-0.08508766
137	0xbf0aa858	-0.5416312
138	0x3e341af3	0.17588405
139	0x3e829344	0.2550298
140	0xbf4527d1	-0.7701388
141	0xbf9b7efb	-1.2148126
142	0xbf9d35ed	-1.2282082
143	0xbf8d2da6	-1.1029556
144	0xbdabae0f	-0.083828084
145	0xbe8fcf70	-0.2808795
146	0x3f4fbb35	0.8114503
147	0xbf97c736	-1.1857669
148	0x3f06388c	0.52430034
149	0x3f608c9d	0.8771456
150	0x3e973ced	0.2953867
151	0xbf38dc65	-0.72211295
152	0xc00f0ad5	-2.2350361
153	0xbed3a746	-0.41338557
154	0x3f1d6524	0.61482453
155	0x3ec1debb	0.37865242
156	0x3ee88007	0.45410177
157	0x3eb70f76	0.35753983
158	0xbf064c99	-0.5246063
159	0x3d93a13d	0.07208488
160	0x3f9b45f0	1.2130718
161	0x3f0422d2	0.5161563
162	0x3fb87f23	1.4413799
163	0xbf33cafb	-0.702316
164	0xbf83e0df	-1.0303
165	0xbeb0ffd9	-0.34570196
166	0xbf419255	-0.7561391
167	0xbc6c23f0	-0.014412865
168	0x3faf42bc	1.3692241
169	0x3f26326a	0.64920676
170	0xc0837b25	-4.1087823
171	0x3fb5bd58	1.4198408
172	0x3ed2d21e	0.41175932
173	0xbfa85387	-1.315049
174	0xbe647ce1	-0.22313263
175	0x3fa59dfd	1.2938839
176	0x3eb6afd3	0.35681018
177	0x3f7b26d0	0.981061
178	0x3eab90d1	0.33508924
179	0xbd95ffe3	-0.07324197
180	0xbfc0c204	-1.5059209
181	0x3e63fd20	0.22264528
182	0x3f8ddd54	1.1083169
183	0x3dda4c68	0.106591046
184	0x3ec62220	0.3869791
185	0x40116238	2.2716198
186	0xbf9e1287	-1.2349404
187	0xbf7cfa48	-0.988194
188	0xc018d745	-2.388139
189	0x3f790766	0.97276914
190	0x3f1ac44e	0.6045579
191	0x3e9db9ff	0.30805966
192	0x3f0ac903	0.5421297
193	0x3f5d03e0	0.8633404
194	0xbf1a94f8	-0.6038356
195	0xbf36072d	-0.711047
196	0xbfaa2a29	-1.3294116
197	0xbf29f6ec	-0.663924
198	0xc005957c	-2.0872488
199	0x3e23a91a	0.15982476
200	0xbf97d9e9	-1.1863376
201	0x3f931077	1.14894
202	0x3f6079f7	0.87686104
203	0xbfe3837e	-1.7774503
204	0x3f107cf0	0.5644064
205	0xbc854f6f	-0.016273228
206	0xbd8e6455	-0.069527306
207	0x3fa9e9b0	1.3274441
208	0x3f586902	0.8453523
209	0xbfc09a0c	-1.5047011
210	0xbf848ea0	-1.0356026
211	0x3f9f7b74	1.245955
212	0x3e5130a7	0.20428716
213	0xbf403e41	-0.7509499
214	0xbf84b5a4	-1.0367932
215	0xbf3d0cc5	-0.7384761
216	0xbfb17dab	-1.3866476
217	0xbd93554c	-0.071940035
218	0xbf9902bd	-1.1953961
219	0xbd1265b1	-0.03574151
220	0xbe7e3180	-0.2482357
221	0xbfec350c	-1.8453689
222	0x3fa15fb2	1.2607329
223	0x3ea9c478	0.33157706
224	0xbfc7cc4c	-1.5609221
225	0x3fb27d19	1.3944427
226	0x3e3b552e	0.18294212
227	0xc00a81ee	-2.1641803
228	0x3dc3b786	0.09556489
229	0xbf909f36	-1.1298587
230	0xbf4bcef3	-0.79612654
231	0xbfafa771	-1.3722974
232	0xbeb0c606	-0.3452608
233	0x3e11de6f	0.14245008
234	0xbf52a821	-0.82287794
235	0xc00c41ff	-2.191528
236	0xbec8ab2e	-0.391931
237	0x3f355af4	0.7084191
238	0x3f274ccb	0.6535155
239	0xbfa20d22	-1.2660258
240	0xbfba29de	-1.4544027
241	0x3ece8680	0.4033699
242	0x3f8a6817	1.0813016
243	0x3fc99f02	1.575165
244	0x3f551fc0	0.8325157
245	0xbfce6320	-1.6124
246	0x3f327455	0.6970876
247	0xbe1b13d4	-0.15144283
248	0xbe47f6c3	-0.19527726
249	0xbf0abf7a	-0.5419842
250	0x3fb3b32f	1.4039057
251	0x40064046	2.097673
252	0x3fad725a	1.3550522
253	0x3ef1037d	0.47072974
254	0xbd4ab6f4	-0.049490884
255	0xbf1b418c	-0.6064689

bias f4 [16]
0	0x3e8b9ddb	0.27268872
1	0xbb9b5321	-0.0047401343
2	0xbf945cb8	-1.1590796
3	0xbe2b8ac6	-0.16752157
4	0x3f6ff005	0.93725616
5	0x3f9011a9	1.125539
6	0xbe9e31ac	-0.30897272
7	0x3e490757	0.19631706
8	0x3f3ad2d5	0.72977954
9	0x3fafc3e6	1.3731658
10	0xbf82cb5c	-1.021831
11	0xbf835a8d	-1.0262009
12	0x3cf304dd	0.029665405
13	0xbe74426a	-0.2385346
14	0xbfc60b61	-1.5472223
15	0xbf889b66	-1.0672424

weight f4 [16]
0	0x3f872925	1.0559431
1	0x4004697f	2.068939
2	0x400137d2	2.019032
3	0x3fc1ea50	1.5149632
4	0x400584a2	2.0862203
5	0x3ff727c2	1.9309008
6	0x3fd566af	1.6671962
7	0x3f172204	0.5903628
8	0x3fbeb70b	1.489961
9	0x3fba270f	1.454317
10	0x3fe73b3b	1.8064951
11	0x40061598	2.095068
12	0x3fd15645	1.6354452
13	0x4004df15	2.0761158
14	0x3ff7201e	1.9306676
15	0x3fc55a2b	1.5418142

bias f4 [16]
0	0x3fcf0224	1.6172528
1	0xbdee2aeb	-0.1162928
2	0x3e880821	0.26568702
3	0xbda504c5	-0.0805755
4	0x3ed95cef	0.42453715
5	0x3f59aea4	0.85032105
6	0x3e100a40	0.1406641
7	0x3fb9f608	1.4528208
8	0x3ebcc526	0.36869162
9	0x3f46696a	0.775046
10	0x3e52cbbd	0.20585532
11	0x3f2ee8ac	0.6832378
12	0x3c24b438	0.010052733
13	0xbf51b1e6	-0.81912076
14	0x3eb527a7	0.35381815
15	0xbf1fce36	-0.6242403

running_mean f4 [16]
0	0xc0f38794	-7.6103
1	0xc1b0b433	-22.087988
2	0xc17080a1	-15.031404
3	0xc0e91383	-7.283632
4	0xc1b5dfbb	-22.734243
5	0x4191dd28	18.232986
6	0xc236186b	-45.523846
7	0xc1b12b2c	-22.14608
8	0xc14ced77	-12.807975
9	0x4142660c	12.149914
10	0xc118c97a	-9.549189
11	0x4199066b	19.128134
12	0xc1037323	-8.21561
13	0xc0e44713	-7.133676
14	0x40a20cd1	5.0640645
15	0xc20d4514	-35.31746

running_var f4 [16]
0	0x42f3c50b	121.88485
1	0x42f4f2e6	122.47441
2	0x43d997ba	435.18536
3	0x431f30ea	159.19107
4	0x42f93f77	124.623955
5	0x438307e0	262.06152
6	0x43ce7e53	412.9869
7	0x4391fd22	291.9776
8	0x43e291cc	453.13904
9	0x433365b3	179.39726
10	0x431ee038	158.87585
11	0x4381dfa0	259.74707
12	0x4381a8ef	259.3198
13	0x43151cac	149.112
14	0x431f43b6	159.2645
15	0x43060235	134.00862

weight f4 [32, 16, 3]
0	0xbe85b046	-0.26111048
1	0xbf81b59a	-1.0133545
2	0xbe2d95fd	-0.16951747
3	0x3f1d281a	0.61389315
4	0x3eac5acc	0.33663023
5	0xbfe0de0b	-1.7567762
6	0x3f7ded58	0.9919028
7	0xbf46c36b	-0.77641934
8	0x3f4884b4	0.7832749
9	0xbe65b5fb	-0.22432701
10	0x3f2de079	0.67920643
11	0xbfc8e88e	-1.569597
12	0xc00c8a2c	-2.1959333
13	0xbf58e5d9	-0.8472572
14	0xbec52a21	-0.38508704
15	0xbf8a63d0	-1.081171
16	0xbf3d4a5b	-0.7394158
17	0xbfc57c4f	-1.5428561
18	0x3e969abb	0.29414925
19	0xbf801f89	-1.0009624
20	0x3e012c02	0.12614444
21	0xbf2c560e	-0.6731881
22	0x3e960e35	0.29307714
23	0xbf429b4b	-0.7601821
24	0xbb908414	-0.004410276
25	0xbe1a77b4	-0.15084726
26	0xbf33cdaf	-0.70235723
27	0x3df1a00e	0.11798106
28	0xbf88a395	-1.0674921
29	0xc01a2f41	-2.4091341
30	0xc018f437	-2.3899057
31	0x3f1bdd07	0.60884136
32	0xbf24b77a	-0.64342463
33	0xbf811abf	-1.0086287
34	0xc01483ea	-2.3205514
35	0xc040944a	-3.0090508
36	0xbff04e18	-1.8773832
37	0xbfa668dc	-1.300075
38	0xbfd7eef8	-1.6869802
39	0xbf30ca6e	-0.69058883
40	0xbfda4047	-1.7050866
41	0xbdf37828	-0.11888152
42	0xbf1f4b93	-0.6222469
43	0xbea42815	-0.3206183
44	0x3f0c2c36	0.5475496
45	0xbf195be3	-0.59905833
46	0x3e32b57f	0.17452048
47	0xbd11a860	-0.035560966
48	0xbf1ae9e0	-0.60513115
49	0xbd55e141	-0.052216772
50	0x3d7e6c59	0.062115047
51	0xbfb900a8	-1.4453325
52	0x3f6b9526	0.9202446
53	0x3e1bf2a2	0.15229276
54	0xbf2bc6f8	-0.6710048
55	0xbf51f296	-0.8201078
56	0x3d0f6844	0.035011545
57	0xbf278d44	-0.6544993
58	0x3db8abec	0.090171665
59	0x3f52f10f	0.82399076
60	0xbf6a149f	-0.91437715
61	0xbfd032c4	-1.6265492
62	0x3e970e96	0.29503316
63	0xbe9bdc8f	-0.3044171
64	0x3ea6ccf7	0.3257825
65	0x3fc50081	1.5390779
66	0x3e955e99	0.29173735
67	0x3e6f598a	0.23374
68	0x3f711d3a	0.9418522
69	0x3f6ad8e8	0.9173722
70	0x3f607bab	0.876887
71	0x3f3db425	0.74103004
72	0x3e8179fb	0.25288376
73	0x3fb33ac1	1.4002305
74	0x3f51b4c4	0.8191645
75	0xbf8cbdb5	-1.0995394
76	0x3ec0ab0a	0.37630492
77	0xbe8f8487	-0.28030798
78	0xbf0cac77	-0.5495066
79	0x3f37ccc2	0.7179681
80	0xbe4c25cc	-0.19936293
81	0xbfe9896b	-1.8245062
82	0xbf085d9e	-0.5326785
83	0xbe8c7e30	-0.27440023
84	0x3f1cd41e	0.61261165
85	0x3f62696c	0.8844211
86	0x4016eebe	2.3583217
87	0x3f0da8f8	0.5533595
88	0x3f9cd9e4	1.2253995
89	0x403fcf92	2.997044
90	0xbf7f1790	-0.9964533
91	0xbec96354	-0.39333594
92	0x3dc6097d	0.096697785
93	0xc013362f	-2.300182
94	0xbde916a2	-0.1138127
95	0x3f1ada01	0.604889
96	0xbeb5df86	-0.35522097
97	0xbf73dc93	-0.95258445
98	0xbfe6f90f	-1.8044757
99	0xbfb4eaee	-1.4134195
100	0x3df7e71d	0.12104628
101	0x3fa300f3	1.2734665
102	0xbf5346b9	-0.8252979
103	0xbfe75dc7	-1.8075494
104	0xbf759ced	-0.95942575
105	0xbfd66783	-1.6750339
106	0x3e55371a	0.20821801
107	0xbd2d623f	-0.042330023
108	0xbeb721ef	-0.35768077
109	0xbfa8e74e	-1.3195589
110	0xbf9d731e	-1.2300756
111	0xbfe145f7	-1.7599477
112	0xbe5981db	-0.21240942
113	0x3f9e444d	1.2364594
114	0x3e3457a2	0.17611554
115	0xbdfe2a26	-0.12410383
116	0x3e25f1bf	0.162055
117	0x3fb2a271	1.3955823
118	0x3f2fae2f	0.6862516
119	0x3e28628a	0.1644384
120	0x3f7fe7b5	0.9996293
121	0x3f7ad181	0.9797593
122	0xbeb6a368	-0.35671544
123	0xbf8c87c3	-1.0978931
124	0xbfe76217	-1.807681
125	0x3ef89a5a	0.4855526
126	0xbf498d66	-0.7873138
127	0x3f969ebe	1.1767194
128	0x3e07bc78	0.13255489
129	0xc00b0c61	-2.1726305
130	0xbfba5023	-1.4555706
131	0xbf147693	-0.5799343
132	0xbf1b3162	-0.6062223
133	0x3f48e398	0.7847228
134	0x3fbbabd1	1.4661809
135	0x3dd8f299	0.10593147
136	0x3ee49113	0.44641933
137	0x3ffeadf0	1.9896832
138	0xbf5d310f	-0.8640298
139	0xc00614f7	-2.0950296
140	0x3f162ffe	0.5866698
141	0xbf95bd2f	-1.1698359
142	0xbf4888a0	-0.78333473
143	0x3f236a8c	0.6383445
144	0x3fbf1612	1.492861
145	0x3f05a00a	0.52197325
146	0xbff083b2	-1.879019
147	0xbf0910f1	-0.53541476
148	0xbea317b9	-0.31854036
149	0x3f8d266b	1.1027349
150	0x3fdb4663	1.7130855
151	0x3dd2f055	0.10299746
152	0xbfdac667	-1.7091798
153	0x3f241790	0.64098454
154	0xc004992b	-2.0718486
155	0x3f564412	0.8369762
156	0xc01273ea	-2.2883248
157	0xbe3d66b9	-0.18496217
158	0x3f86cd5e	1.0531423
159	0x3f9cc315	1.2247034
160	0x3fbca370	1.4737377
161	0xbf93723f	-1.151924
162	0x3f58baf4	0.8466027
163	0xbfda14d9	-1.7037612
164	0x3f177de5	0.59176475
165	0xbfe78874	-1.8088517
166	0xbf754787	-0.9581227
167	0x3f82983b	1.0202707
168	0xbf719006	-0.9436039
169	0xbed4e9d2	-0.4158464
170	0xbfb1b65f	-1.388378
171	0xbe4eda5e	-0.20200488
172	0x3e937504	0.28800213
173	0x3f773112	0.9655925
174	0xbf963bf1	-1.1737043
175	0xbe2dae8a	-0.16961113
176	0x3f685a2c	0.9076259
177	0x3e7df2ed	0.247997
178	0x3d6c7885	0.057732124
179	0x401f6dd7	2.491079
180	0xbf06b3c7	-0.5261807
181	0xbe9e2e9c	-0.30894935
182	0xbf13f676	-0.57797945
183	0x3e80d25f	0.251605
184	0x3dedba2a	0.116077736
185	0xbfcdacba	-1.6068337
186	0x3ea6b1d6	0.32557553
187	0xbf32ebe8	-0.69891214
188	0xbfd2be95	-1.6464411
189	0xbe43f5ea	-0.19136778
190	0xbfa4c69e	-1.2873113
191	0xc00f16ce	-2.235767
192	0xbf97d450	-1.1861668
193	0xbf101669	-0.56284195
194	0xbfe83961	-1.8142511
195	0xbf185de9	-0.59518296
196	0xbf1f5d66	-0.6225189
197	0xbe08b1f7	-0.13349138
198	0xbf031a81	-0.51212317
199	0x3ea685a8	0.32523847
200	0x3f8572e1	1.0425683
201	0x3d992739	0.07478184
202	0xbecf845b	-0.40530667
203	0x3f117cfd	0.5683134
204	0xc00f27f1	-2.2368128
205	0xc038951f	-2.8841016
206	0xbfa09fec	-1.2548804
207	0xc01e367c	-2.4720755
208	0xbf0ac35a	-0.5420433
209	0x3f62aa78	0.88541365
210	0x3f35fe93	0.71091574
211	0xbf4c28f9	-0.7975002
212	0xbf0a633c	-0.5405767
213	0x3f6f7b25	0.9354728
214	0xbf9b2ca7	-1.2123002
215	0xc0418aeb	-3.0241039
216	0x3f69ec23	0.9137594
217	0x3ebb5ac2	0.3659268
218	0xbf7265e8	-0.94686747
219	0xbfe4d3b1	-1.7877103
220	0xc04be964	-3.18612
221	0x3eb71410	0.35757494
222	0xbf945569	-1.1588565
223	0xbecf406e	-0.40478843
224	0x3ec809ca	0.39069968
225	0xbf8f9685	-1.121781
226	0xbede982d	-0.43475476
227	0xbf153964	-0.58290696
228	0xbed04397	-0.40676567
229	0xbdd4c16b	-0.10388454
230	0x3ed4834a	0.41506416
231	0xbe5ca42a	-0.21546999
232	0xbde64f85	-0.11245636
233	0x40275ca1	2.6150286
234	0xbdd3d3e6	-0.10343151
235	0x3f14f78e	0.5819024
236	0x3f1b7768	0.60729074
237	0xbf869863	-1.0515255
238	0xbf6550c5	-0.8957637
239	0x3f636ce4	0.8883803
240	0xc043ff3b	-3.062453
241	0x3f0aa3d0	0.5415621
242	0x3b974a2c	0.0046169963
243	0xbdc08b29	-0.09401543
244	0xc0135af1	-2.3024256
245	0xbdf1aba1	-0.11800314
246	0xc0173aa0	-2.3629532
247	0x3eac9e22	0.33714396
248	0x3f6c1cbc	0.92231345
249	0x3f891f41	1.0712663
250	0xbfb3a390	-1.403429
251	0xbf143b6f	-0.5790319
252	0xbedd2696	-0.431935
253	0x3f5d87bc	0.8653524
254	0xbfe28c9f	-1.7699164
255	0xbef9106a	-0.48645335

bias f4 [32]
0	0x3f0ebc46	0.5575603
1	0x3c80511e	0.01566368
2	0x3ea60eea	0.32433254
3	0x3e320960	0.17386389
4	0x3f4f8927	0.8106865
5	0x3f177851	0.59167963
6	0x3eef9951	0.4679666
7	0xbe953794	-0.29143965
8	0xbf42099e	-0.75795925
9	0x3fa56f40	1.2924576
10	0x3e14dc9f	0.14537285
11	0x3bf47064	0.007459687
12	0xbe90085a	-0.28131372
13	0x3f05ad88	0.5221791
14	0xbe592b28	-0.21207869
15	0xbf6ace17	-0.9172072
16	0xbd701fe9	-0.058624182
17	0x3f370057	0.71484894
18	0x3fc83ecf	1.5644168
19	0xbf0eaf9d	-0.55736715
20	0x3f8b9686	1.0905311
21	0x3db7d4c4	0.08976129
22	0x3dc71d57	0.09722393
23	0xbdecad6b	-0.11556514
24	0xbf60d6b8	-0.87827635
25	0x3fbbc8d0	1.4670658
26	0x3e660176	0.22461495
27	0xbf5df3bb	-0.8670003
28	0x3f857cde	1.0428731
29	0xbe35e365	-0.17762525
30	0x40054cb9	2.0828078
31	0x3f660d57	0.89864105

weight f4 [32]
0	0x3fe5c7fb	1.7951654
1	0x3fb93630	1.4469662
2	0x3fe2f69b	1.7731508
3	0x3ffd014d	1.9766022
4	0x3fe61fce	1.7978456
5	0x3fd377e1	1.6520959
6	0x3fb44ddf	1.4086264
7	0x3fb5e47c	1.4210353
8	0x3f81c63b	1.013862
9	0x3f99a263	1.2002681
10	0x3fd24496	1.6427181
11	0x3ff5e188	1.9209452
12	0x3ff6df35	1.9286867
13	0x3f1a3816	0.6024183
14	0x4001632b	2.0216777
15	0x3fa0215d	1.2510182
16	0x400157c0	2.0209808
17	0x3ffdd018	1.982913
18	0x3fa02e19	1.2514068
19	0x3f57c08a	0.84278166
20	0x3fcb408a	1.5879071
21	0x3e06f40d	0.13179035
22	0x3fb82b35	1.4388186
23	0x3fdf437a	1.7442467
24	0x40026cfc	2.0379019
25	0x3fa1cbd9	1.2640334
26	0x3fb89e59	1.4423324
27	0x3fc6716e	1.5503366
28	0x3fa0fb78	1.2576742
29	0x3fd93ee8	1.6972322
30	0x3ff68047	1.9257897
31	0x3fb26e85	1.3939978

bias f4 [32]
0	0xbde82d8a	-0.11336811
1	0xbf8a5d5c	-1.0809741
2	0x3eea7c14	0.4579779
3	0x3f23434c	0.6377456
4	0xbdec92fb	-0.11551472
5	0x3e30c1c2	0.17261413
6	0xbf886496	-1.0655696
7	0xbfc669fd	-1.5501095
8	0xbfdb2a40	-1.7122269
9	0xbf4c9712	-0.79918015
10	0xbf9274b2	-1.1441863
11	0x3f2a0ba1	0.66423994
12	0xbdb1d4c6	-0.086831614
13	0x3f8ee343	1.1163105
14	0xbe690085	-0.22754104
15	0xbf127e2a	-0.5722376
16	0x3f8d5c3d	1.1043774
17	0xbea37057	-0.31921646
18	0x3fb10ed0	1.3832645
19	0xbe4b6075	-0.19861014
20	0x3ed04112	0.40674645
21	0xbf8baa1f	-1.0911292
22	0xbe05fa88	-0.13083851
23	0x3c812b3e	0.01576769
24	0x3a5d0997	0.000843191
25	0xbff8c0a3	-1.9433788
26	0x3fd5cf5c	1.6703906
27	0xbe9ce1df	-0.30641076
28	0xbeeb5f30	-0.4597106
29	0xbf32487d	-0.6964186
30	0xbedd7e33	-0.43260345
31	0x3f5159a2	0.81777394

running_mean f4 [32]
0	0xc1e7c7ca	-28.972553
1	0x40508fe2	3.258782
2	0xc16ae488	-14.680794
3	0xc08c38c4	-4.3819294
4	0xc1ca85fe	-25.315426
5	0xc1971e06	-18.88966
6	0x4190e1cd	18.110254
7	0x4152e918	13.181908
8	0x419e7474	19.806862
9	0xc16c0a84	-14.752567
10	0xbf8fc519	-1.1232024
11	0x40a6f6e5	5.2176385
12	0xc0999aa5	-4.8001275
13	0xc1205d2d	-10.022748
14	0xc14691ad	-12.410565
15	0x417199e0	15.100067
16	0xc1032f42	-8.199038
17	0xc1216f85	-10.089726
18	0xc11a6fb0	-9.652267
19	0x411c0252	9.7505665
20	0xc19300c0	-18.375366
21	0xbfc359e7	-1.5261811
22	0x4183d299	16.47783
23	0xc157ffa3	-13.499911
24	0x3fa21050	1.2661228
25	0x41a1a9b2	20.207859
26	0xc17e89b0	-15.908615
27	0x4097875f	4.735275
28	0x412786b0	10.470383
29	0xc12bab7b	-10.729365
30	0xc11a3155	-9.637044
31	0xbf0382db	-0.51371545

running_var f4 [32]
0	0x43e7b5e6	463.42108
1	0x432bbf64	171.74762
2	0x4361dba2	225.85794
3	0x43439384	195.57623
4	0x4381aa5f	259.33102
5	0x434f9d11	207.61354
6	0x43406ebc	192.43256
7	0x437325fc	243.14838
8	0x43244b5d	164.29439
9	0x4351ecc6	209.9249
10	0x43104d52	144.30203
11	0x4389dd5d	275.7294
12	0x438be066	279.7531
13	0x4354b1c6	212.69443
14	0x43127365	146.45076
15	0x433547c9	181.28041
16	0x437c663f	252.3994
17	0x43276219	167.3832
18	0x440bee89	559.7271
19	0x430bdcd5	139.86263
20	0x42f4dbd6	122.42937
21	0x4319555f	153.33348
22	0x4325925b	165.5717
23	0x43ceb308	413.39868
24	0x43813228	258.39185
25	0x432a56bb	170.33879
26	0x43a8cdc7	337.60764
27	0x435ae11b	218.87932
28	0x4360be6e	224.74387
29	0x4383fa5c	263.95593
30	0x433c4227	188.2584
31	0x43b04e95	352.61392

weight f4 [32, 32, 3]
0	0x3e4e2817	0.2013248
1	0xbeee19e7	-0.46504137
2	0x3f1909fb	0.59780854
3	0x3e8d1310	0.27553606
4	0xbf92fb50	-1.1482944
5	0xbff98eb5	-1.9496676
6	0x3ff3d10c	1.9048171
7	0x3d983b4b	0.07433184
8	0xbfde8825	-1.7385298
9	0x3fa11d55	1.2587076
10	0x3d9fa5ef	0.07795321
11	0xbf8055f3	-1.002623
12	0xbfdf4900	-1.7444153
13	0x3f31ff43	0.69530123
14	0xbf82ec7c	-1.0228419
15	0x3e0ff723	0.14059119
16	0x3f4a5ddd	0.79049474
17	0xbe63bd5d	-0.22240205
18	0x3fd05d78	1.6278524
19	0x3f6d63bb	0.927303
20	0x3f6deeec	0.9294269
21	0x3f486ebd	0.78293973
22	0xbf88f79e	-1.0700567
23	0xc03663bd	-2.8498375
24	0xbfbfb4c6	-1.4977043
25	0xbf209ff1	-0.6274405
26	0xbe8d2383	-0.27566156
27	0x400da5b9	2.21324
28	0x3eef7244	0.46766865
29	0xbff6e30a	-1.9288037
30	0xbf708ae4	-0.9396193
31	0xbf1e48a3	-0.61829585
32	0xbee3087a	-0.44342405
33	0x400c17d0	2.1889534
34	0x3fd3603f	1.6513747
35	0xbf6872eb	-0.9080035
36	0x3f9ad438	1.2096014
37	0x3ca60ff2	0.020271275
38	0xbf86da11	-1.0535299
39	0x3f964e79	1.1742698
40	0xbf39ab08	-0.725266
41	0xbe5ee867	-0.21768342
42	0x3fa44293	1.2832817
43	0x3fb14cf6	1.3851612
44	0xbf84845d	-1.0352894
45	0xbf0b68c5	-0.5445674
46	0x3ebfc304	0.37453473
47	0xbba6ebdc	-0.0050940346
48	0x3ee193d3	0.44058093
49	0xbfc5f032	-1.5463927
50	0xc0658f95	-3.5868886
51	0xbf90393e	-1.1267469
52	0x3c4a73ed	0.01235674
53	0x3fc52b18	1.5403776
54	0xbf2cc974	-0.67494893
55	0x3e4e4fc1	0.20147611
56	0x3d64ff1b	0.05590735
57	0x3f6b47ab	0.9190623
58	0xbee63706	-0.44963855
59	0xbf0cc9f6	-0.5499567
60	0x3fbe9c19	1.4891387
61	0x3e4f379a	0.20236054
62	0xbf65f75c	-0.89830565
63	0x3ebf58ff	0.37372586
64	0xbf13f02d	-0.57788354
65	0xbf6a694b	-0.91566914
66	0xbdcdf2d8	-0.100560844
67	0xbf68f49d	-0.9099825
68	0xbf6e4e18	-0.9308791
69	0x3e6ee334	0.23328859
70	0x3e3e6c55	0.18596013
71	0x3e4ddafe	0.2010307
72	0xbee7e79a	-0.45293885
73	0xbe9402b4	-0.28908312
74	0x3ebc6add	0.3680028
75	0x3ee35dd6	0.4440753
76	0x3ef272ab	0.4735311
77	0xbf1104bd	-0.56647855
78	0x3ee6599d	0.44990245
79	0xbf64d94e	-0.8939408
80	0xbfcf196b	-1.6179632
81	0x3f3afbb8	0.7304034
82	0xbf1f6e8a	-0.62278044
83	0xbf62b681	-0.8855973
84	0x3f4adbc8	0.7924161
85	0x3de38d5a	0.11110945
86	0x3e37ca09	0.17948164
87	0x3eca814a	0.39551765
88	0x3f27b1bb	0.6550557
89	0x3fbce13f	1.475624
90	0x3ed49c78	0.41525626
91	0x3f1213d7	0.57061523
92	0xbfd13272	-1.634352
93	0xbedbb01f	-0.42907807
94	0xbef64f89	-0.48107556
95	0x3e1679cb	0.14694898
96	0x3fccfce3	1.6014675
97	0x3f9310b4	1.1489472
98	0x3fe1f8df	1.7654074
99	0x3f983868	1.1892214
100	0xbf43605d	-0.76318914
101	0x403f95f5	2.9935277
102	0xbf750012	-0.9570323
103	0xbedf1477	-0.435703
104	0x3e17b540	0.14815235
105	0x3ef4b559	0.47794607
106	0xbd6ac758	-0.057319015
107	0xbf7af95e	-0.98036754
108	0xbe60ee74	-0.21965963
109	0x3f0eb276	0.5574106
110	0x4027f198	2.6241207
111	0x3e1dc421	0.15406848
112	0xbe9e2b2a	-0.30892307
113	0x3de51d5c	0.111872405
114	0x3ef412e1	0.47670653
115	0x3ede323b	0.43397698
116	0xbf4214fd	-0.75813276
117	0xbf867d74	-1.0507035
118	0xbf97c376	-1.1856525
119	0x3ee92ed6	0.45543545
120	0x3f96e1ce	1.178766
121	0x3f1db446	0.616032
122	0xbf9066bb	-1.1281351
123	0xbedf0cd1	-0.43564466
124	0xbcda9980	-0.026684523
125	0x3f3a9b3d	0.72893125
126	0xbf039bb2	-0.5140945
127	0xbfeaaa9f	-1.833332
128	0xc0407ecf	-3.0077398
129	0xbf041bd5	-0.5160497
130	0x3f54c0f1	0.83106905
131	0xbe8133be	-0.2523479
132	0xbfd4ecd8	-1.6634779
133	0xbe25fbfb	-0.16209404
134	0x402cd63d	2.700576
135	0xbf3ae2a7	-0.73002094
136	0xbf414c21	-0.7550679
137	0xc01b3163	-2.4248893
138	0x3f486562	0.782797
139	0xbe13aec7	-0.14422141
140	0x3f9dd0c8	1.232934
141	0xbe1a33e4	-0.15058857
142	0x3f2ea350	0.68217945
143	0xc006c36d	-2.1056778
144	0xbecc013e	-0.39844698
145	0xbf7bc583	-0.98348254
146	0xbf5fe860	-0.8746395
147	0x3f0ed7da	0.55798113
148	0x3fb43592	1.4078848
149	0x405250ae	3.2861743
150	0x3dbcf288	0.09225947
151	0xbf944d8b	-1.1586164
152	0x3e0495c4	0.12947756
153	0xbf8c45e6	-1.0958831
154	0xbf9c766d	-1.2223641
155	0x3e517490	0.20454621
156	0x3fe14c81	1.7601472
157	0x3f8cd517	1.100253
158	0xbfdc8d83	-1.7230686
159	0x3de7bb43	0.11315014
160	0xbea77b04	-0.3271104
161	0xbf28afad	-0.6589306
162	0x3f2b2b82	0.6686326
163	0xbc825241	-0.015908362
164	0xc0344056	-2.8164268
165	0xc012a15a	-2.291098
166	0x3daf6960	0.085650206
167	0x400bcdae	2.1844287
168	0x3f234535	0.63777477
169	0xbf4bd58c	-0.7962272
170	0xc080a87e	-4.020568
171	0x3fb76ea1	1.4330636
172	0x3ef0d4e9	0.47037438
173	0xbf6d8c0b	-0.92791814
174	0xbf90c90b	-1.1311353
175	0xbf0ea0bd	-0.5571402
176	0x3f31daed	0.6947468
177	0x3ee3f577	0.44523212
178	0xc01a8fbc	-2.4150229
179	0xbec216dc	-0.37908065
180	0xbf6a4552	-0.91512024
181	0xbe9dd10c	-0.30823553
182	0xbeb8f2f8	-0.3612287
183	0x3f46f6ae	0.77720153
184	0x3e819159	0.25306204
185	0xc066ef87	-3.6083696
186	0xbfab7260	-1.339428
187	0xbf5b732f	-0.8572263
188	0x3e9792a2	0.2960406
189	0x3e23226f	0.15931104
190	0xbece97aa	-0.40350085
191	0xbe84825a	-0.258807
192	0x3f9bbe3e	1.2167432
193	0xbdb0eaa4	-0.08638504
194	0xbfa2862b	-1.2697195
195	0xbf06ac30	-0.5260649
196	0xbf216fcf	-0.6306123
197	0x3f3971a4	0.72439027
198	0x3f997718	1.198947
199	0xbe8de09d	-0.2771043
200	0xbe4f7272	-0.20258501
201	0xbff282d8	-1.894618
202	0xbe0e391a	-0.1388897
203	0xbf763c8b	-0.9618613
204	0x3e41cb0b	0.18925111
205	0xbe3af702	-0.18258289
206	0xbfd7b6f1	-1.6852704
207	0xbfd59011	-1.668459
208	0xbf0388bb	-0.5138051
209	0x3f871fc8	1.0556574
210	0xbf0ea921	-0.5572682
211	0xbe28c020	-0.1647954
212	0xbec345ef	-0.38139293
213	0xbe70a802	-0.2350159
214	0x3fcb587d	1.588638
215	0x3f819ef7	1.0126637
216	0xbf3c5aaf	-0.7357587
217	0x3d169c84	0.03677036
218	0x3fa7b87c	1.3103175
219	0xbf45a5bb	-0.7720601
220	0xbb25b705	-0.002528609
221	0x3f9a6beb	1.2064184
222	0xbf71df7a	-0.94481623
223	0x3e6bf2ec	0.23041886
224	0x3f1e7fcd	0.6191376
225	0xbedc6af2	-0.43050343
226	0x3eb7f4e2	0.35929018
227	0x3f52aeef	0.8229818
228	0xbf17aea3	-0.5925085
229	0x3f0e28ab	0.55530804
230	0x404f7a68	3.241846
231	0x3ffd5452	1.9791358
232	0xbeea35db	-0.45744213
233	0x3ef4d580	0.47819138
234	0xbf5b634a	-0.8569838
235	0xbffa499c	-1.9553714
236	0xbf8c443d	-1.0958325
237	0xbef7ef69	-0.48424843
238	0x3e469ad8	0.19395006
239	0x3ec1d5cf	0.37858436
240	0x3f086274	0.5327523
241	0xbcbb3cae	-0.022856083
242	0x3eac1f21	0.336175
243	0x3fafe41f	1.3741492
244	0xbeb1ce2d	-0.34727612
245	0xbfd65c29	-1.6746875
246	0x3f15fde4	0.5859053
247	0xc007d808	-2.1225605
248	0x3f0e67f3	0.55627364
249	0xbfa6b1fb	-1.3023065
250	0xbee16676	-0.44023484
251	0x40396b63	2.8971794
252	0x3c5fe8be	0.01366633
253	0xbe0c8d90	-0.13725877
254	0xbf993e18	-1.1972075
255	0xbf5c9b6f	-0.8617467

bias f4 [32]
0	0xbea70d6c	-0.32627428
1	0xbef095c3	-0.4698926
2	0x3e8034e9	0.25040367
3	0xbfbf0818	-1.4924345
4	0x3f1b41c7	0.60647243
5	0xbd7d7a8d	-0.06188445
6	0xbf0bda1d	-0.5462969
7	0x3f579390	0.8420954
8	0xbebc733b	-0.36806664
9	0xbe20c69d	-0.15700765
10	0xbfb108af	-1.3830775
11	0xbf32c6cd	-0.69834596
12	0x3f22cb7b	0.63591737
13	0x3f9c0eea	1.2192051
14	0x3f7062e8	0.9390092
15	0x3f8246d4	1.0177865
16	0x3de00d6b	0.10940059
17	0xbf26cda0	-0.6515751
18	0x3e8a9cab	0.27072653
19	0xbe930660	-0.287158
20	0xbf901cdc	-1.1258807
21	0x3c9c9274	0.019112803
22	0x3fa16bd2	1.2611029
23	0xbd243557	-0.04008993
24	0xbe46f915	-0.19430955
25	0xbe896431	-0.26834252
26	0x3f85b35c	1.0445361
27	0xbed1a638	-0.40947127
28	0x3e684516	0.22682604
29	0xbe9e0159	-0.30860403
30	0x3eaeffa7	0.34179422
31	0x3fb1f799	1.3903686

weight f4 [32]
0	0x3fbcd377	1.4752034
1	0x3fff7312	1.9956992
2	0x3f91984c	1.1374602
3	0x3fec5cb3	1.846579
4	0x3fd029a6	1.626271
5	0x3fadfd9d	1.3593022
6	0x400ab35c	2.1671972
7	0x3ff27d21	1.8944436
8	0x4001ec23	2.0300376
9	0x3f7e3a12	0.9930736
10	0x3ff4aa36	1.9114444
11	0x3fabb856	1.341563
12	0x3f8785c9	1.0587703
13	0x4003380b	2.0502956
14	0x4002485f	2.0356672
15	0x40035f3f	2.0526884
16	0x3fe788ac	1.8088584
17	0x3fd7c464	1.6856809
18	0x3fb317f5	1.3991686
19	0x40171237	2.3604867
20	0x3fa7b815	1.3103052
21	0x3f9750c7	1.1821526
22	0x4000bc61	2.0114977
23	0x40090fb3	2.1415832
24	0x3fc445f7	1.5333852
25	0x4000926b	2.0089366
26	0x3fec1bb9	1.844596
27	0x3fe35971	1.776167
28	0x3f83c3e1	1.0294152
29	0x3ff4003f	1.9062575
30	0x3fa12e4e	1.2592256
31	0x3feef7c2	1.866936

bias f4 [32]
0	0xbf0c1273	-0.5471565
1	0xbf053e85	-0.5204852
2	0xbff7f463	-1.9371456
3	0x3f5b874b	0.85753316
4	0xbf9c26a8	-1.2199297
5	0x3ea7e21e	0.327897
6	0x3f8708a4	1.0549512
7	0xbf76401c	-0.96191573
8	0xbf594da6	-0.8488411
9	0xbfe2629e	-1.7686346
10	0xbe680fe0	-0.22662306
11	0xbf43353e	-0.76253116
12	0xbfd3166c	-1.6491218
13	0x3e8234f0	0.25431013
14	0xbe2365e6	-0.1595684
15	0xbd72b4c6	-0.05925443
16	0xbeb4974d	-0.35271683
17	0xbf38e742	-0.7222787
18	0xbf8f912b	-1.1216177
19	0x3e67cae1	0.22635986
20	0xbfbfb65b	-1.4977525
21	0x3e4260ca	0.18982235
22	0x3e2258e1	0.15854217
23	0xbf59bb34	-0.85051274
24	0x3f587243	0.8454935
25	0xbe20db38	-0.15708625
26	0xbf4bfd68	-0.7968354
27	0xbe4d1aa4	-0.20029694
28	0xbff3d7de	-1.9050252
29	0xbea1b047	-0.315798
30	0xbfb385f1	-1.4025251
31	0xbe90fef7	-0.28319523

running_mean f4 [32]
0	0xc115bbac	-9.358318
1	0xc162b9d1	-14.170365
2	0x41109fc5	9.039006
3	0x41174068	9.453224
4	0xc1fd516c	-31.664757
5	0x4090b426	4.521991
6	0xc1ca2661	-25.26874
7	0xc12b62ed	-10.711652
8	0xc2693c9a	-58.30918
9	0x41b31686	22.385998
10	0xc18e90b0	-17.820648
11	0xbfac603c	-1.3466868
12	0x40a2ebc2	5.091279
13	0xc2058058	-33.375336
14	0xc1529d96	-13.163473
15	0x400e3199	2.2217772
16	0xc1c6aa55	-24.83317
17	0xc01c890e	-2.4458652
18	0xc1d250a5	-26.289377
19	0xc20c665a	-35.099953
20	0x41aac6f2	21.347141
21	0xc193c876	-18.472881
22	0xc1c3762d	-24.432703
23	0xc1d387ca	-26.441303
24	0x40b8f5e3	5.7800155
25	0xc102cb5b	-8.174647
26	0xc227e916	-41.977623
27	0x3fa1f807	1.2653817
28	0x41965a9b	18.79424
29	0x40558b0c	3.3366117
30	0x41bdd2f5	23.728006
31	0xc13eeb0f	-11.932387

running_var f4 [32]
0	0x44072fa2	540.74426
1	0x439552a2	298.64557
2	0x438880d0	273.00635
3	0x43aba2ac	343.27087
4	0x43760069	246.0016
5	0x43de89eb	445.07748
6	0x44303de0	704.9668
7	0x43fe0c63	508.09677
8	0x43b10f7c	354.12097
9	0x43653145	229.19246
10	0x43df3e47	446.48654
11	0x4404d5a7	531.3383
12	0x438afd26	277.97772
13	0x44231ae7	652.42035
14	0x44674960	925.1465
15	0x43f9e55d	499.7919
16	0x440b5f14	557.4856
17	0x43976d4e	302.85394
18	0x434f659a	207.39688
19	0x43c8fcec	401.97595
20	0x438e5d30	284.72803
21	0x44218888	646.1333
22	0x43ca6d87	404.85568
23	0x43b415e4	360.17102
24	0x43b354d0	358.6626
25	0x43d48af7	425.08566
26	0x43c465c6	392.7951
27	0x43d04b9b	416.59067
28	0x43465faf	198.37376
29	0x43ab7a74	342.95667
30	0x4338ed82	184.92776
31	0x43c96be2	402.84283

weight f4 [64, 32, 3]
0	0xc017f7b2	-2.3744931
1	0xbfd92b86	-1.6966407
2	0xbf8c22bb	-1.0948099
3	0x3eb08b88	0.34481454
4	0x3fa6179d	1.2975956
5	0x3fc63c9f	1.548725
6	0x3f3ecca6	0.7453102
7	0x3f801690	1.0006886
8	0x3fb8a41d	1.4425083
9	0x3fb1c37c	1.3887782
10	0x3fde5798	1.7370481
11	0x3ec66094	0.38745558
12	0xbdaa9460	-0.083290815
13	0xbebc650a	-0.36795837
14	0x3fad020a	1.3516247
15	0x3f1b262e	0.6060513
16	0xbf91214f	-1.133829
17	0xc0795149	-3.8955863
18	0x3af03cbf	0.0018328651
19	0xbea2bc7f	-0.31784436
20	0xbf9be162	-1.2178156
21	0x3fd61363	1.6724666
22	0x3e539f9c	0.20666355
23	0x3db7efba	0.08981271
24	0x3f4557db	0.7708718
25	0xbf169f23	-0.58836573
26	0x3f86ebb2	1.0540679
27	0xbf25f6bf	-0.6482963
28	0x3f0354c2	0.51301205
29	0x3f5b75b3	0.8572647
30	0x3d885180	0.0665617
31	0xbe8e7dc7	-0.27830335
32	0x3f07632f	0.5288572
33	0xbeecb119	-0.46228865
34	0x3eceb891	0.40375188
35	0xbede15e5	-0.4337608
36	0xbec11f6d	-0.37719288
37	0xbf36f603	-0.71469134
38	0x3e298c50	0.16557431
39	0xbefcc977	-0.49372455
40	0xbffae918	-1.9602385
41	0x3ef0237d	0.46902075
42	0xbf9839ff	-1.1892699
43	0xbf7f32d8	-0.99686956
44	0x3f4fadb7	0.8112444
45	0x3fa66641	1.2999955
46	0x3fe4c246	1.7871788
47	0x3d11caef	0.035593923
48	0xbfa944cc	-1.322412
49	0xbfa5a7c3	-1.2941822
50	0xbda4bdd6	-0.08044021
51	0xbfcfd924	-1.6238141
52	0xbe9e78f8	-0.30951667
53	0x3f268fc0	0.65063095
54	0x3f3e02d7	0.74223083
55	0xbe75c7f3	-0.24002056
56	0x3e715f57	0.23571526
57	0xbf8f7f7f	-1.1210784
58	0xbdddd8b1	-0.10832346
59	0x3f04561b	0.51693887
60	0xbef86b95	-0.4851958
61	0x3e88ee7b	0.26744446
62	0x3f8d5207	1.1040658
63	0xc03b058b	-2.9222133
64	0xbe56c48e	-0.20973417
65	0x40162e1f	2.346565
66	0xbf619b93	-0.8812801
67	0xbe537bc0	-0.20652676
68	0xbd90ffc3	-0.07080033
69	0xbfe63115	-1.7983729
70	0xbf405020	-0.7512226
71	0xbfa4a285	-1.2862097
72	0x3fba0bf8	1.4534903
73	0xbf94921a	-1.1607087
74	0xbf0ae4b8	-0.5425525
75	0xc08cc51f	-4.3990626
76	0xbfb5fa4e	-1.4217012
77	0xc04d2c43	-3.2058265
78	0xbdb3fecc	-0.08788833
79	0x3d2ffab1	0.042963687
80	0x3de62447	0.11237388
81	0xbfaaace7	-1.3334016
82	0xc02681b7	-2.6016672
83	0xc05fa788	-3.4946003
84	0xbfcddcdd	-1.6083027
85	0xbeaa224b	-0.33229288
86	0xbf9b3b07	-1.2127389
87	0x3f81b52f	1.0133418
88	0x3eb5f220	0.3553629
89	0xbe7fe4bb	-0.24989597
90	0x3f1c925d	0.6116083
91	0x3f1a1434	0.6018708
92	0x3fab62e0	1.3389549
93	0xbed51a7e	-0.41621774
94	0x3f2f599d	0.68496114
95	0xbe8a65c3	-0.27030763
96	0xc049ba57	-3.1519983
97	0x3f50bb9e	0.8153628
98	0xbe384b2a	-0.17997423
99	0x3f7284aa	0.9473368
100	0xbf85b719	-1.0446502
101	0x3f823c17	1.0174588
102	0x3fa1ef1e	1.2651098
103	0x3f48eb73	0.78484267
104	0xbe66b071	-0.22528245
105	0x3f23a31f	0.6392078
106	0x3b7d6161	0.0038662779
107	0xbf944bf7	-1.1585683
108	0x3f4f2b98	0.80925894
109	0x3fa26537	1.2687138
110	0x3f96ebc0	1.1790695
111	0x3f29d825	0.66345435
112	0xbdcc41f0	-0.09973514
113	0x3e2937ef	0.16525243
114	0xbfff4b98	-1.9944944
115	0xbfc8ea60	-1.5696526
116	0xbf7f767d	-0.99790174
117	0xc064d9d1	-3.5757945
118	0xc017cd41	-2.3719027
119	0xbfd2d241	-1.6470414
120	0x3d2ae706	0.041724227
121	0x3f3542cd	0.70805055
122	0xbf53af23	-0.8268911
123	0x3f7d7533	0.99006957
124	0x3f629d15	0.8852094
125	0x3fa39609	1.2780162
126	0x3f7a9b60	0.97893333
127	0xbd97f6e2	-0.07420136
128	0xbd6b05f8	-0.05737874
129	0xbf7a80f3	-0.9785301
130	0xc025d5ec	-2.5911818
131	0xbed68c83	-0.41904077
132	0x3f295501	0.6614533
133	0x3f58a8de	0.8463267
134	0x3f2a7776	0.6658853
135	0xc04311f7	-3.0479715
136	0x3ec136c6	0.377371
137	0xc00ae350	-2.170124
138	0x3fdb425b	1.7129625
139	0x3d0f4940	0.034981966
140	0x3e3c46fd	0.18386455
141	0xbfc9b0ed	-1.5757118
142	0xbd6cf94e	-0.057854943
143	0xbfe7ad0e	-1.8099687
144	0xc05a7152	-3.4131665
145	0xc00bdc6b	-2.1853282
146	0xbf7830be	-0.96949375
147	0xbf14b4ea	-0.5808855
148	0xbf095067	-0.5363831
149	0x3ee72df2	0.4515224
150	0xbe2757c7	-0.16342078
151	0x3efde10b	0.49585757
152	0xbdde7b99	-0.10863418
153	0xbf956c18	-1.1673613
154	0x400793e2	2.118401
155	0xbebbe748	-0.3669989
156	0xbea6c826	-0.32574576
157	0x3f121583	0.57064074
158	0x3f6b51eb	0.9192187
159	0xbfe18564	-1.7618833
160	0x3f8e8d73	1.1136917
161	0xbf9416a3	-1.1569408
162	0xbec23e60	-0.37938213
163	0xbf756d8c	-0.9587028
164	0xbf0693f5	-0.52569515
165	0xbfb27b61	-1.3943902
166	0xc0000043	-2.000016
167	0xc00acd55	-2.1687825
168	0xbfecf69f	-1.8512763
169	0xbe240e2a	-0.16021028
170	0xc01367fb	-2.3032215
171	0xbfd6d515	-1.6783777
172	0xbf194f7f	-0.59886926
173	0x3f6a6da8	0.9157357
174	0xbed3918e	-0.41321987
175	0xbd758092	-0.059937067
176	0x3f76156f	0.96126455
177	0xbfa486f9	-1.285369
178	0xbe86384e	-0.26214832
179	0x3ea82ede	0.32848257
180	0x4005ffe6	2.0937438
181	0x3f2efacc	0.68351436
182	0xbe119b30	-0.14219356
183	0x3f81d4fe	1.0143125
184	0xbfa0ff12	-1.2577841
185	0xbf40e318	-0.7534652
186	0x3ff68464	1.9259152
187	0xbcddb7ea	-0.027065236
188	0xbfd9b6c0	-1.7008896
189	0x3f4c09b1	0.7970229
190	0xbf3162df	-0.6929149
191	0xbf996787	-1.1984719
192	0xbe850455	-0.25979868
193	0x3daf993b	0.08574148
194	0x3ed8bc37	0.42331097
195	0xbfa42ded	-1.2826515
196	0x3ea5e15e	0.32398504
197	0xbf5f1356	-0.8713888
198	0x3fbcbb2e	1.4744623
199	0x3f22d5a3	0.63607234
200	0xbfa4cad9	-1.2874404
201	0x3ff5db2e	1.9207513
202	0xbe900d2b	-0.28135046
203	0x3cc274f3	0.023737406
204	0xbfdd91ab	-1.7310079
205	0xbe0dcb54	-0.13847095
206	0x3e31a7f8	0.17349231
207	0x3e9aa4aa	0.30203754
208	0x3ec01e27	0.37523004
209	0xbf878e82	-1.0590365
210	0x3eecfa48	0.462847
211	0x3dba6b97	0.091025524
212	0xbe1aaa2f	-0.15103982
213	0xbf37fdce	-0.7187165
214	0x3e670964	0.22562176
215	0x3f52858d	0.8223503
216	0xbf603b2e	-0.875903
217	0xbd96bd72	-0.073603526
218	0xbf47b0ac	-0.78003955
219	0xbd741e3a	-0.05959914
220	0xbeed4a26	-0.46345633
221	0x3ef6ae44	0.4817983
222	0x3f6a8ad2	0.91618073
223	0xbf4d3fd9	-0.8017555
224	0xbd818f5a	-0.0632617
225	0x403d6f1c	2.9599066
226	0x3e458bf5	0.1929167
227	0x400afd50	2.171711
228	0xbf28faa5	-0.66007453
229	0x3f3fc6b7	0.7491259
230	0x3f116f0e	0.5681008
231	0xbe0ca198	-0.13733518
232	0x3ff450fb	1.9087213
233	0xbf30d2ac	-0.6907146
234	0x3f5f9149	0.8733106
235	0xbf76a065	-0.9633849
236	0x3f272fbc	0.6530721
237	0xbfd82965	-1.6887633
238	0x3eb53c12	0.35397393
239	0xbf3cd13b	-0.7375676
240	0x3eac43e1	0.33645537
241	0x3f5ebd2f	0.8700742
242	0xbee4216a	-0.44556743
243	0x3f238280	0.63871
244	0x4026a1db	2.6036289
245	0xbf24137b	-0.64092225
246	0x3f16a75a	0.5884911
247	0x3f5c1493	0.85968894
248	0xbe3c8473	-0.184099
249	0xbfc78d4e	-1.5589998
250	0x3fd9cd9d	1.7015873
251	0xbe0ae846	-0.13565168
252	0x40059f31	2.0878413
253	0x3ff65a42	1.9246294
254	0x4017fb51	2.3747141
255	0xbf31edd6	-0.69503534

bias f4 [64]
0	0xbff1f57b	-1.890304
1	0xbf6cfcbc	-0.9257314
2	0xbfd9916b	-1.6997503
3	0xbf36f721	-0.7147084
4	0x3ee72f62	0.45153338
5	0xbedd3c69	-0.43210152
6	0x3f08113e	0.5315131
7	0xbf067f78	-0.5253825
8	0xbe5afc8f	-0.21385406
9	0xbf81a040	-1.012703
10	0x3f14eb29	0.58171326
11	0xbec68c9f	-0.3877916
12	0x3f9efbe8	1.2420626
13	0x3d59d401	0.0531807
14	0x3edcc945	0.43122306
15	0x3e28d010	0.1648562
16	0x3dfdc8ef	0.12391841
17	0x3fdedf98	1.7411985
18	0x3e80fbca	0.251921
19	0xbf671dc2	-0.9027978
20	0xbef26d68	-0.47349095
21	0x3f91fa2d	1.1404473
22	0xbf0e395d	-0.5555628
23	0x3ef5513d	0.47913542
24	0x3f35b2aa	0.70975745
25	0xbe458822	-0.19290212
26	0xbebfe2e8	-0.37477803
27	0x3e9d1b6b	0.3068498
28	0xbe12ab73	-0.14323215
29	0x3f3aa478	0.7290721
30	0xbe88f324	-0.26748002
31	0x3fa45ed2	1.2841437
32	0x3e22b536	0.15889439
33	0xbf4e0f61	-0.80492216
34	0x3f0eed48	0.5583081
35	0xbe919ec7	-0.2844145
36	0x3eac6150	0.33667994
37	0xbf4cd583	-0.80013293
38	0xbf1a93b4	-0.6038163
39	0xbfd83f36	-1.689429
40	0xbf0ce8ad	-0.55042535
41	0x3e642a1d	0.2228169
42	0x3d90a2da	0.070623115
43	0x3ddb5067	0.10708695
44	0x3ea20dc6	0.31651133
45	0xbfbe476f	-1.486555
46	0x3ec4d400	0.38442993
47	0xbefc3c99	-0.49264982
48	0xbf128dd0	-0.5724764
49	0xbe6abed0	-0.22924352
50	0xbeeb2e46	-0.4593374
51	0x3f1ac464	0.6045592
52	0x3f8a58c5	1.080834
53	0xbebf4dfd	-0.37364188
54	0x3f444ab0	0.76676464
55	0xbf3d2807	-0.738892
56	0x3ddb6014	0.10711685
57	0xbf07efb1	-0.53100115
58	0xbe048680	-0.12941933
59	0x3f6bd23b	0.9211766
60	0xbf05d294	-0.5227444
61	0xbba41536	-0.0050074114
62	0xbe3a5a9b	-0.18198626
63	0x3f85a034	1.0439515

weight f4 [64]
0	0x4012d821	2.2944415
1	0x401842bc	2.3790731
2	0x3fbbca78	1.4671164
3	0x4008a1b4	2.1348696
4	0x3f71d334	0.94462895
5	0x3fddc2f3	1.7325119
6	0x3fa16599	1.260913
7	0x3f67d981	0.9056626
8	0x3fb985fe	1.4494016
9	0x3fcfe2d1	1.6241094
10	0x3fd9e006	1.7021492
11	0x3fdb85e2	1.7150233
12	0x3fe5680b	1.7922376
13	0x3f95a631	1.1691343
14	0x3fd019e7	1.6257905
15	0x4001a541	2.0257113
16	0x3ff01110	1.8755207
17	0x3fd8eec1	1.6947862
18	0x3ff37d4c	1.9022613
19	0x3fc9e11a	1.577182
20	0x3ff1fa0f	1.8904437
21	0x3f8c2b64	1.0950742
22	0x3f342196	0.7036375
23	0x3fac3688	1.3454142
24	0x3fb728aa	1.4309285
25	0x3fa998d2	1.3249762
26	0x3ff42bf4	1.9075913
27	0x3fc915f3	1.5709823
28	0x3f81ce10	1.014101
29	0x3fca6e32	1.5814879
30	0x3fb10f27	1.3832749
31	0x3fbc3cc4	1.4706044
32	0x3fc030d0	1.5014896
33	0x3fb9957a	1.4498742
34	0x3f9658a7	1.1745805
35	0x3f5553b2	0.83330834
36	0x3f9f66af	1.2453212
37	0x3fbdccab	1.4828085
38	0x400b1ccb	2.1736324
39	0x3f938d59	1.1527511
40	0x3f6a91a6	0.9162849
41	0x3fd64ace	1.6741579
42	0x3f38002a	0.7187525
43	0x3fd0445a	1.6270859
44	0x3fb50be0	1.4144249
45	0x3fcced4d	1.6009918
46	0x3f7af67a	0.98032343
47	0x40002a83	2.0025947
48	0x3fcc35d7	1.5953931
49	0x3fc56e09	1.5424205
50	0x3f98df03	1.1943058
51	0x4008170c	2.1264067
52	0x3fe81b07	1.8133248
53	0x3fa0dc7f	1.256729
54	0x3f963571	1.1735059
55	0x3f9d2835	1.2277895
56	0x3fe4f7b5	1.7888094
57	0x3fbfa4fe	1.4972227
58	0x3fc10c30	1.5081844
59	0x40086315	2.1310475
60	0x3fe9dcdf	1.827053
61	0x3f9eba4a	1.2400601
62	0x3fda8ac9	1.7073604
63	0x3fe5eeec	1.7963538
