unet/checkpoints/one_loss/epoch_53.pth (torch, 508787 bytes, 85 tensors)

weight f4 [8, 1, 3]
000000 28 cd 52 3f fb eb 33 3e 85 0f 29 40 3f 6e e3 3e
       0.82344294 0.17570488 2.6415722 0.4442005
000010 15 37 4e c0 ee 6c 10 bf 78 50 8d bf ad d1 c3 3f
       -3.222112 -0.56416214 -1.1040182 1.5298363
000020 47 97 3f 3f 67 09 65 c0 ae ed e1 be 87 f4 23 3f
       0.74840206 -3.5786989 -0.44126648 0.64044994
000030 2c 39 4e 3f 77 69 0f c0 f2 4b 08 be eb ad 3c 3f
       0.8055599 -2.240812 -0.13310221 0.7370288
000040 03 e6 5b 40 90 58 bc be 19 8e b7 bf d4 26 20 3f
       3.4359138 -0.36786318 -1.434024 0.62559247
000050 9b 2d d8 bf 96 8a 26 40 97 5a c9 bd 2e af 71 bf
       -1.6888918 2.6022086 -0.09831732 -0.9440793

bias f4 [8]
000000 d7 a5 21 3e 28 9c 2c bc b6 fc 66 bd a9 b9 f2 3e
       0.15785919 -0.010535277 -0.056393348 0.47407272
000010 f6 4e 38 be db bb 0a 3e 79 d4 b3 be cf c3 f0 3d
       -0.17998871 0.13548224 -0.3512304 0.117560975

weight f4 [8]
000000 fb a7 86 3f 22 0a e4 3f e4 a5 e6 3f a2 d9 e3 3f
       1.0520014 1.7815592 1.8019376 1.7800791
000010 53 a5 6d 3e 85 0c 27 40 03 8f 64 3f 56 c9 08 40
       0.23207597 2.6101391 0.8928072 2.1372886

bias f4 [8]
000000 26 db d2 bf b6 e9 b7 3e 22 90 bb 3f 5f 94 e7 3f
       -1.6473129 0.35920495 1.4653361 1.8092154
000010 e4 85 a2 3f 4f 96 35 be 0a ae 1e bf 89 4e ab bc
       1.269711 -0.1773312 -0.6198431 -0.020911472

running_mean f4 [8]
000000 bf 02 68 3e fa 76 15 bd 4c 8b c5 bb 6b 8d 11 3f
       0.22657298 -0.036490418 -0.0060285684 0.5685641
000010 8f 12 4f be cd 57 dd 3d be 5d c0 be 17 04 db 3c
       -0.20221923 0.10807762 -0.3757152 0.026735349

running_var f4 [8]
000000 10 6f 30 49 35 ab 1f 49 e0 93 cb 47 e9 3b 2f 49
       722673.0 654003.3 104231.75 717758.56
000010 67 27 27 48 1a 79 4c 49 2d 2a a5 48 cd 7f 44 48
       171165.61 837521.6 338257.4 201215.2

weight f4 [16, 8, 3]
000000 b3 29 2e 3f 09 f1 4b bf b9 69 54 c0 18 a3 b1 3f
       0.6803238 -0.79664665 -3.3189528 1.3877897
000010 7d a0 8d 3f 16 d4 67 bf a6 34 81 bf 83 1a 55 3f
       1.1064602 -0.9055799 -1.0094192 0.8324358
000020 c0 ef 39 3f 98 ce af 3f c8 95 3b 40 86 e3 3c 3f
       0.72631454 1.3734922 2.931017 0.73784673
000030 0a 0c 9a 3f 60 81 7e 3f a0 98 a2 bf 58 2e 1e c0
       1.2034924 0.9941616 -1.2702827 -2.4715786
000040 4c 9c a6 bf 7b 72 d3 bd f5 3b 21 3f 9a 54 88 bf
       -1.3016448 -0.1032457 0.6298211 -1.0650818
000050 c7 c1 6e 3f b7 29 26 3f 45 fc 53 bf c8 aa 12 bf
       0.9326443 0.649074 -0.8280681 -0.5729184
000060 bb 32 69 3f 6c df 99 3f 27 92 99 be 19 d3 95 3e
       0.91093034 1.2021308 -0.29994318 0.29262617
000070 b6 a5 6b 3f 11 21 22 bf 11 93 88 3f 81 48 31 3f
       0.9204973 -0.63331705 1.0669881 0.6925126
000080 06 cc 01 3f cb fa d7 bf af a3 67 3e aa d4 4c 3f
       0.5070194 -1.6873411 0.22621034 0.80012
000090 d9 b6 99 3e 4e 70 5d 3f 2a 52 29 bf 20 c4 62 40
       0.30022314 0.8649949 -0.66141 3.5432205
0000a0 da ef e2 3f 3f 5e ca 3f 1b 8c ad 3e 78 48 b3 be
       1.7729447 1.5810012 0.33895954 -0.35016227
0000b0 bf 6e 02 3f da 45 8f 3d 9d 3c f1 3f 24 52 2a 3f
       0.50950235 0.06995745 1.8846623 0.66531587
0000c0 8d 30 b8 bf 4b 58 da 3e 78 3e d3 bf 2c 15 1c 3e
       -1.4389817 0.42645487 -1.6503439 0.15242451
0000d0 6f f3 31 3f c9 bd a4 bd 10 56 41 bf 63 b6 9a bf
       0.69512075 -0.08044011 -0.75521946 -1.208691
0000e0 3d 7e 4b 3f 5b 4d 40 c0 61 92 5c 3d a5 92 4c 3f
       0.794895 -3.0047214 0.053850535 0.7991126
0000f0 b7 ab 57 3f b3 d5 67 3f c9 47 38 be b8 d5 53 3f
       0.8424639 0.90560454 -0.17996134 0.82747984
000100 89 cc ae bf 26 0e 7c 3d ae c3 8e bf d2 bb e3 3d
       -1.3656169 0.06153693 -1.1153467 0.11119808
000110 d1 e5 9a 3f a2 ba ac 3f 5f 33 17 3e d3 aa f5 bf
       1.2101384 1.3494456 0.1476569 -1.9192756
000120 56 a1 1d 40 33 ad 4c 3f 71 cd b3 3d 30 1a 13 40
       2.4629722 0.7995178 0.08779419 2.2984734
000130 4f d8 21 40 8f fc f3 3e f5 1f 77 be b9 65 c4 3e
       2.5288274 0.47653624 -0.24133284 0.38358858
000140 f9 14 9b bf 3a e0 3a 3f 79 fa 19 40 b4 7c 55 3f
       -1.2115775 0.7299839 2.4059126 0.83393407
000150 02 58 54 3f ec aa c2 3f 33 1c ab 3d 90 da 88 bf
       0.8294679 1.5208411 0.08354988 -1.06917
000160 47 5d 8b 3e 6f ad 07 c0 cf e8 2a 3e 32 42 b0 3f
       0.27219602 -2.1199605 0.16690372 1.3770201
000170 a3 fc 9a bd fd cc ac be 4c 1f b5 bf af 6a 3c 3f
       -0.07567718 -0.33750144 -1.4150176 0.73600286
000180 60 6c d7 3f bb 54 b7 bf 12 97 bc bf 50 28 59 bf
       1.6829948 -1.4322733 -1.4733603 -0.84827137
000190 4b c3 d5 bf ab 6d 4b bf 0e f9 b1 be 10 48 9d bf
       -1.6700224 -0.79464215 -0.34760326 -1.2287617
0001a0 1b bb f9 bf 25 7c b2 bf 74 da 17 bf 53 39 cb be
       -1.9510225 -1.3944136 -0.5931771 -0.39692172
0001b0 ea 7a 83 bd a9 0a 45 bf 97 03 e7 be a3 99 ab 3f
       -0.06419928 -0.7696939 -0.45119926 1.3406261
0001c0 73 57 9a 3e cd db 79 bf 2d c7 0c 3d 05 71 c9 bf
       0.30144843 -0.97601014 0.034369636 -1.5737616
0001d0 e6 71 95 bf af 00 01 40 c8 54 94 3f d5 b3 ab 3e
       -1.1675384 2.0156667 1.1588373 0.33535638
0001e0 9b 23 e3 3f 52 8b b8 be 2b a1 c4 bf e3 9e 06 40
       1.7745241 -0.36043793 -1.5361685 2.1034477
0001f0 d7 16 d5 3f 4c 63 1f 40 be 73 84 3e 55 af f4 be
       1.6647595 2.4904356 0.25869554 -0.47790018
000200 13 b8 be bf e8 36 d3 3e 5d 4b ba 3f 4c 71 7c 3f
       -1.4899925 0.41252828 1.4554249 0.9861038
000210 1a ba 9d 3f d0 f8 7c 3f b0 42 b6 3f 53 0e fe be
       1.2322419 0.9881716 1.4239101 -0.49620304
000220 5b 39 6b 3e 61 be 93 bf 42 a0 7e 3d a5 06 9f 3f
       0.22971098 -1.1542474 0.062164553 1.2423903
000230 ef 7d 3d 3e d0 05 3b 3f f5 7e 15 3f 04 97 5e 3f
       0.18505071 0.73055744 0.58396846 0.8694918
000240 ae 9f 38 3f 32 8c 3b be 3b 97 95 3f b0 24 42 c0
       0.7211865 -0.18315199 1.1686777 -3.0334892
000250 f3 9b 52 3f 7e 20 3e bd ba 3f e7 bf 79 ab 78 bf
       0.8226921 -0.046417706 -1.8066323 -0.97136647
000260 7f 61 55 3e a7 a9 8d bf d9 88 ff bf e6 3a 0b 3f
       0.20837973 -1.1067399 -1.9963638 0.54386747
000270 95 13 11 c0 7c fc 28 3f e4 0c 4c 3e 14 f7 b6 bd
       -2.2668202 0.6601026 0.19926792 -0.08933845
000280 0a 25 27 bf 5a 4f a6 be a5 0d 96 3e 90 19 45 3f
       -0.6529089 -0.32482415 0.29307285 0.7699213
000290 03 22 b3 bf 41 90 39 3f 6d fa c0 bf 11 85 a8 bf
       -1.3994755 0.7248574 -1.5076424 -1.3165609
0002a0 04 99 8f 3f a0 82 61 3f ed 87 f1 3e ad 26 92 3e
       1.1218572 0.8808994 0.47174016 0.28545132
0002b0 04 8a f1 bf 72 74 ce 3e b6 22 03 bf 07 52 c1 3f
       -1.8870244 0.40323216 -0.5122484 1.5103158
0002c0 5e d7 2b c0 af 26 d8 be 0c 66 81 3f 90 de 6b bf
       -2.68502 -0.42217013 1.0109267 -0.9213648
0002d0 02 d9 11 3f 45 0b c3 bf a4 40 ce be 70 4d cd 3f
       0.5697175 -1.5237814 -0.40283692 1.6039257
0002e0 d5 5e 9f 3f 87 48 32 be f1 0e 0b c0 dc b0 8b 3f
       1.2450815 -0.1741048 -2.172787 1.0913348
0002f0 40 ff c2 3e ee 96 1b 3f a5 cb 8e 3f ab 36 4b 3e
       0.38085365 0.60777175 1.1155897 0.19845073
000300 ed 8d 90 3f 9d 21 f8 bf 09 74 8a 3f c4 c2 02 bf
       1.1293312 -1.9385258 1.0816661 -0.5107844
000310 0e 3e 37 3f 48 6c db 3e d3 62 9d bf 28 22 3c c0
       0.7157906 0.4285605 -1.2295784 -2.9395847
000320 b9 30 94 bd b9 78 0d c0 08 b2 da bd 20 9e 11 3e
       -0.072358556 -2.2104933 -0.10678488 0.14220476
000330 82 68 ac 3d 80 61 5c 3e 31 33 5f 3f bb 18 c5 be
       0.08418371 0.21521568 0.87187487 -0.3849543
000340 8f 6e 38 bf 88 1d 4f c0 e7 3f 9c bf 8f 47 89 bf
       -0.720437 -3.2361774 -1.2207001 -1.0724963
000350 10 f3 fa 3e 63 73 bf 3f a5 32 fe be 40 d1 b2 3e
       0.49013567 1.4957088 -0.49648014 0.3492527
000360 57 85 13 c0 7e 22 0b bf c9 2c df be 83 9f 52 3e
       -2.3050134 -0.54349506 -0.43588856 0.20568661
000370 13 f3 62 be c3 22 1e 40 f5 0d 22 bf 66 20 71 be
       -0.22163038 2.4708717 -0.63302547 -0.23547515
000380 c1 fe fc bf b2 b0 f1 bf 45 68 18 3f 2b f5 34 bf
       -1.9765245 -1.8882048 0.595341 -0.70686597
000390 e4 61 d7 3e 07 94 66 3d a7 19 2f 40 9a 43 cc bb
       0.42066872 0.056293514 2.7359407 -0.0062336447
0003a0 84 8c b6 bf 92 f4 f8 bf b7 86 d7 bf 01 a2 99 3f
       -1.4261632 -1.9449637 -1.6837987 1.2002565
0003b0 7b fe 8c be ee 29 9b 3f d2 40 e3 3e 31 49 ac be
       -0.27537903 1.2122171 0.4438539 -0.3364959
0003c0 63 29 b4 3d fc 75 9a 3e 6d 0e 58 be b1 64 01 40
       0.087969564 0.3016814 -0.21099253 2.0217707
0003d0 aa d1 da 3f 60 29 01 40 74 e5 c8 bd 7e 0c 27 be
       1.7095234 2.0181503 -0.0980939 -0.16313359
0003e0 61 14 3e bf ef 9e b5 3e e4 e7 d9 3f cf 6d a6 3f
       -0.74249846 0.3547282 1.7023892 1.3002261
0003f0 b8 95 c6 3f cf 91 27 3f bb 7f c4 3f d7 a8 41 be
       1.551444 0.6545686 1.535148 -0.18912064

bias f4 [16]
000000 03 4b 48 be f2 aa d6 3f 8f 41 7e 3e bb d5 8f 3e
       -0.19559865 1.6770918 0.24829696 0.2809275
000010 7b 01 6b 3f 17 8e 46 3f 28 ec 62 3f ee 92 35 bf
       0.91799134 0.7756056 0.88641596 -0.7092732
000020 1b 04 00 bf cb e5 8b be 19 2e 6b 3e 7a 5c 9c 3e
       -0.50006264 -0.27323756 0.22966804 0.30539304
000030 16 db 8d 3d bb 23 10 40 eb a1 2e 40 6d 4d 87 3f
       0.06926553 2.2521808 2.7286327 1.0570503

weight f4 [16]
000000 bf e0 a8 3f f2 e5 d8 3f bd ee 97 3f 8b f3 c6 3f
       1.3193587 1.6945174 1.1869732 1.5543073
000010 56 96 da 3f ac fc 7d 3f c1 3a 21 3f 3c 43 54 3f
       1.7077129 0.9921367 0.62980276 0.8291509
000020 12 a0 9f 3f ac 45 91 3f f9 fd 71 3f 2f 04 df 3f
       1.2470725 1.1349387 0.94528157 1.7423152
000030 7e 71 d9 3f ec 43 f6 3f 50 ec b7 3f 81 f1 b4 3f
       1.698776 1.9239478 1.4368992 1.4136201

bias f4 [16]
000000 e9 c9 93 3f 2f 76 b0 bf 08 f2 a1 3e a6 b2 26 3e
       1.1545993 -1.3786067 0.31629968 0.16279086
000010 6d 94 24 3f 4e 6d 12 3e a2 0a ee 3e e2 6b d1 3f
       0.6428898 0.14299509 0.46492487 1.6361048
000020 68 af 41 40 20 6c 68 3f 42 29 3a be 62 5c 8a be
       3.026331 0.90789986 -0.18179801 -0.27023607
000030 3c 6e c5 be ff ac 29 3f d4 88 e9 3e e4 02 71 3f
       -0.38560665 0.66279596 0.45612204 0.94145036

running_mean f4 [16]
000000 c5 9f 13 41 af 21 53 41 08 19 83 c0 6d 23 2e 41
       9.226506 13.195724 -4.0968056 10.883649
000010 21 76 31 c1 d6 bf 5f 41 b9 7e 68 c1 c8 9e 41 c0
       -11.09134 13.984335 -14.530938 -3.0253162
000020 a7 64 4a c1 f9 33 9d c0 24 7c 57 41 39 5e 32 41
       -12.649573 -4.9125943 13.467808 11.148004
000030 39 4e 4f 40 f6 53 13 41 aa 3a 80 c0 1d be f0 40
       3.2391493 9.207998 -4.007161 7.523207

running_var f4 [16]
000000 19 27 58 43 0c dd 77 43 e3 2a 1a 42 fb 54 88 43
       216.15273 247.86346 38.54188 272.6639
000010 23 cd a6 42 cb 61 35 43 51 29 2a 42 9a 20 5f 42
       83.40066 181.382 42.540348 55.781837
000020 9c 18 cb 42 a8 f5 a1 42 76 2b 59 43 40 58 cc 42
       101.548065 80.9798 217.16977 102.17236
000030 66 38 a1 43 6a e8 bc 42 14 86 11 42 21 17 c5 43
       322.4406 94.45393 36.380936 394.1807

weight f4 [16, 16, 3]
000000 9a 6e 0b c0 09 0d 52 3e 83 69 5c bc ff c7 b2 3f
       -2.1786256 0.20512785 -0.01345289 1.3967284
000010 09 78 80 3f 3d 04 5c bf f7 9e 19 c0 76 3b cc bf
       1.0036632 -0.8594397 -2.4003274 -1.5955646
000020 7b 9e 8f bf 6a 33 cf bd 76 7c 5c bd b1 18 d2 bd
       -1.1220239 -0.10117228 -0.053829633 -0.10258616
000030 fe b3 ce bd 31 1f 72 3f c4 dd 96 3f 4a 44 6d 3d
       -0.100929245 0.94578844 1.1786427 0.057926454
000040 2b 9f 85 bf 5a ad a8 be 3c 10 07 bf 6d ca c5 be
       -1.0439199 -0.32944757 -0.52759147 -0.38631
000050 59 86 3a 3f 1c 41 75 3e d5 e7 28 3f 40 86 80 bf
       0.7286125 0.23950619 0.6597875 -1.004097
000060 0a 99 47 bf c0 4a 00 3f 88 0d 16 40 f3 8c 83 be
       -0.77967894 0.5011406 2.344576 -0.25693473
000070 d0 49 93 3d c8 3c 81 3e 0c fa 6a 3b 41 30 3f bf
       0.07191813 0.25241685 0.0035854606 -0.74683005
000080 82 d1 f7 be a8 19 12 bf 12 38 1b bf f1 b5 0b c0
       -0.4840203 -0.570704 -0.6063243 -2.1829798
000090 5e 8b d7 3f bf 40 c1 3f 83 95 c7 be aa 7c e9 be
       1.6839406 1.5097884 -0.38981256 -0.45602924
0000a0 5b 59 c4 bf f1 0b 29 c0 a8 95 e8 bf fe bb 14 3e
       -1.5339769 -2.6413538 -1.8170671 0.14524838
0000b0 1d 15 17 bf b0 31 eb bd f2 22 46 3f 2c c7 04 3f
       -0.5901659 -0.114840865 0.7739707 0.5186641
0000c0 0b 86 1d c0 e5 f6 58 3e 46 e6 66 3f ff 70 b6 bf
       -2.4613063 0.21187933 0.9019512 -1.4253234
0000d0 c7 7c 2b bf 3b 4c 84 3e 00 f3 ba bf ec b2 3e 3f
       -0.6698727 0.2583941 -1.4605408 0.74491763
0000e0 44 44 07 bf 4b 62 f8 be 69 6e 02 3f 97 56 88 3f
       -0.5283854 -0.48512492 0.5094972 1.0651425
0000f0 a6 92 4c 40 71 1e cc 3e 0b 0c bc be 6d fc 9d bc
       3.1964507 0.39866975 -0.36727938 -0.019285405
000100 1a d0 11 3f cf 07 29 3f 9a 2f 9d bd 57 a5 e0 3e
       0.5695816 0.6602754 -0.07675095 0.43876144
000110 9e a1 72 3e 91 6d be be 86 a0 98 bf 5a 5b dc bf
       0.23694465 -0.37192968 -1.1923988 -1.7215378
000120 c0 d3 74 bf 9d 31 6d 3f 21 29 ad bf 15 4e fc be
       -0.95635605 0.9265383 -1.3528177 -0.49278322
000130 86 3d 83 3f 7c 33 0b c0 e1 0a 16 be 72 2c 21 3f
       1.025315 -2.1750174 -0.14652587 0.62958443
000140 07 25 26 3f 5c 7d 85 bf bb 8f 85 3f c7 cb 3d bf
       0.6490025 -1.0428882 1.0434488 -0.74139065
000150 8a 76 9d 3f f7 7a 84 bd df 86 72 be 6e 13 89 c0
       1.23018 -0.06468766 -0.23684262 -4.283622
000160 9f 84 1c bf b9 55 04 bf 01 db 49 c0 fe eb c5 be
       -0.61139864 -0.516933 -3.153992 -0.3865661
000170 b8 ed e6 bf 9d aa 06 bf 43 3c 9a 3f 04 fe c4 3e
       -1.8041296 -0.52604085 1.204964 0.3847505
000180 33 bd ce bf f2 85 0e c0 f2 43 87 bf 2a 17 44 40
       -1.6151489 -2.2269254 -1.056761 3.0639138
000190 bf 41 3d 3f 1b 58 ce bf da 0f bf bf 60 ed 27 3f
       0.73928446 -1.6120638 -1.4926713 0.6559658
0001a0 d9 86 12 bf 91 1b 9c bf 47 aa aa bf d7 03 21 bf
       -0.5723701 -1.2195913 -1.3333215 -0.62896484
0001b0 27 75 47 3e b8 ad ed 3e c3 78 aa 3f 55 63 29 3d
       0.19478284 0.464216 1.3318104 0.041354496
0001c0 c9 a6 91 bf c0 7f ea bc 76 0e db bf a2 3e 84 3f
       -1.1379024 -0.02862537 -1.7113788 1.0331614
0001d0 d9 9b 62 3e 54 4f ef 3e 0b 66 8f 3f 85 09 3e 3f
       0.22129764 0.4674021 1.1203016 0.74233276
0001e0 e2 bc ff bf 7e ca 08 3f 8f 57 87 3f ed 29 08 c0
       -1.9979517 0.5343398 1.0573596 -2.127559
0001f0 03 cc d2 bf 6b d1 01 3f 85 5b b9 3e a0 6e 05 bf
       -1.646851 0.5071017 0.36202636 -0.52121925
000200 de 05 f3 3d 23 78 26 bf 69 68 74 3f 63 4f 06 c0
       0.118663535 -0.65027064 0.9547182 -2.0985954
000210 58 11 05 40 2b 55 c6 3f c0 71 78 bf c5 ca 87 3e
       2.0791836 1.5494741 -0.9704857 0.26521888
000220 7b f2 ce bd 53 93 1d bf 15 a9 a2 3e 66 fd c8 3d
       -0.10104843 -0.61552924 0.31769624 0.09813957
000230 0e b1 36 bf 09 76 aa bf 9b de ae bf 81 3d 86 bf
       -0.71363914 -1.3317271 -1.3661684 -1.048752
000240 55 0b 52 be ef 20 c9 be 70 5f 3e 3f 61 7b ba bf
       -0.20512135 -0.3928294 0.74364376 -1.4568902
000250 7a e7 11 3f f1 35 84 3f 3c f2 f8 3e ee f4 f3 be
       0.5699383 1.0328962 0.4862231 -0.47647804
000260 df 20 06 c0 bc 48 fa be d2 53 be 3e 0f 14 b2 3e
       -2.0957563 -0.48883617 0.37173325 0.34780928
000270 98 0a 2c 3f 38 71 ee 3e 66 b3 20 bf 91 fc 1f be
       0.67203665 0.46570754 -0.6277374 -0.1562369
000280 ee 67 89 3f 29 92 af 3e 46 ab 94 3f ac ab 62 bf
       1.0734842 0.342912 1.1614769 -0.885432
000290 f1 b8 22 bf 79 a4 be be 8a 3c 4d bf 9f 83 0a 3c
       -0.6356345 -0.37234858 -0.801705 0.0084542325
0002a0 9c 5e c6 3f 7e 64 21 3f 24 be 95 c0 e4 b2 c4 3f
       1.5497622 0.63043964 -4.6794605 1.5367093
0002b0 a8 56 9d 3e 41 22 ed bf e3 b2 eb be 03 93 96 3f
       0.30730176 -1.8526078 -0.46034917 1.1763614
0002c0 54 fe 88 3e 26 69 3f 3f 3d d8 fd 3e ca 1d 19 be
       0.26756537 0.7476982 0.4957904 -0.1495277
0002d0 a3 c7 dc bf ef f5 92 3e c6 55 aa 3f d3 ff 55 3e
       -1.7248424 0.28703257 1.3307426 0.2089837
0002e0 8a 84 28 3f 52 ca 21 40 6f 09 80 bf 8f a1 4f bf
       0.6582724 2.5279737 -1.0002879 -0.81105894
0002f0 28 50 0e c0 80 3a 49 3f 3c 51 1f 3f e5 14 3d 3e
       -2.2236423 0.7860489 0.6223333 0.18465002
000300 ba 4c e8 3e 18 af 71 3f 0a 7f 13 bf 3b d4 13 bf
       0.45371038 0.94407797 -0.5761572 -0.57745713
000310 5f 46 c6 bf 61 4e 1e bf e9 32 06 c0 cb 7b 8a 3e
       -1.5490226 -0.61838347 -2.0968573 0.27047572
000320 a8 13 94 bf 1c 9b 99 3f 31 d1 69 3f 29 e1 fb bf
       -1.1568499 1.2000461 0.91334826 -1.9678088
000330 2c f7 42 3f ec e3 3d ba d9 5f da 3d a4 92 a6 3f
       0.76158404 -0.0007243741 0.10662813 1.3013501
000340 58 21 56 3f 57 72 db bf 50 cd a5 bf d4 cd a2 3f
       0.8364463 -1.7144269 -1.2953281 1.2719064
000350 a8 4d 65 3e 80 09 0c bf 5e 94 a2 bf 70 b8 64 bf
       0.22392905 -0.54701996 -1.2701528 -0.8934393
000360 4f cf 9d bf e2 6b eb 3c 9f 1e 8a bf b8 cd 8a bd
       -1.232889 0.028737966 -1.0790595 -0.06777519
000370 c8 5b d3 be 7c 77 0e c0 d2 c8 a6 3f 98 24 b1 3e
       -0.4128096 -2.2260427 1.3030035 0.3459823
000380 8b c0 de bf 83 fe b7 3f 9e af 78 3e 19 85 14 c0
       -1.740251 1.4374546 0.24285743 -2.3206236
000390 6c 12 44 3e d9 52 b7 bf 2b 6e 75 bf 78 85 ba bf
       0.19147652 -1.4322158 -0.9587123 -1.4571981
0003a0 91 0e ca be 0c 98 2d 3e c5 54 72 bf 83 b2 21 c0
       -0.39464238 0.16952533 -0.946606 -2.5265205
0003b0 ed 42 74 be 44 55 2e 3f 7f 5f 31 3f f5 22 af bf
       -0.23853655 0.68098855 0.6928634 -1.3682543
0003c0 30 1b b3 bf 4f c9 ea 3e 76 dd ad 3f d1 60 d3 3f
       -1.3992672 0.4585671 1.358321 1.6513921
0003d0 3a 5d 46 3f 73 81 c9 bf 1f d2 40 3f d9 b3 38 be
       0.77486 -1.574263 0.7532062 -0.18037356
0003e0 64 f7 87 bd 1d 18 19 bf e7 e3 c4 3f 69 36 10 40
       -0.06638983 -0.5980242 1.538205 2.253321
0003f0 58 7e b6 3f ed b0 e5 3e 26 de 05 be 2a 1b 30 bf
       1.4257307 0.44861546 -0.13073024 -0.6879145

bias f4 [16]
000000 fb b2 1b 3f 41 6b b5 be f5 43 e1 be 2c 18 9a be
       0.6081998 -0.3543339 -0.4399716 -0.30096567
000010 3a 07 9a 3f f6 50 be 3f e8 3b 76 be dc 61 03 3f
       1.2033455 1.4868457 -0.2404629 0.51321197
000020 ac 3a 5a 3f 9a 44 de 3f 7a 99 f6 bf fa 94 fa be
       0.85245776 1.7364686 -1.9265587 -0.48941785
000030 95 62 26 3f 9c 2c 36 bf 25 0c ee bf 83 91 a9 bf
       0.64994174 -0.7116182 -1.8597456 -1.3247532

weight f4 [16]
000000 05 7f 9e 3f bc 64 03 40 06 de 05 40 43 7c c4 3f
       1.2382513 2.0530233 2.0916762 1.5350422
000010 3a bd 0c 40 cd a3 02 40 a2 07 d4 3f 6a 51 05 3f
       2.1990495 2.0412476 1.6564829 0.52077353
000020 ca 73 c1 3f 65 73 cd 3f cb 8f f5 3f 35 c0 0c 40
       1.5113461 1.6050841 1.9184507 2.1992314
000030 b5 1e dc 3f 81 44 0e 40 fd ff 03 40 a7 f7 d1 3f
       1.7196871 2.2229311 2.0624993 1.6403702

bias f4 [16]
000000 60 a3 cf 3f 33 f2 88 bc 02 ad 10 3e 03 fd 8f be
       1.6221733 -0.016717052 0.14128497 -0.2812272
000010 8f 9e 03 3f 8d b7 55 3f 5d bc 30 3e 0f ef c7 3f
       0.51413816 0.834832 0.17259355 1.561983
000020 64 37 e1 3e 40 5c 58 3f 71 35 2e 3e a8 dd fc 3e
       0.43987572 0.8451576 0.17012574 0.4938786
000030 6d 6b 99 be 41 85 4d bf 17 6f 01 3f 2c 92 53 bf
       -0.29964772 -0.80281454 0.50560135 -0.82644916

running_mean f4 [16]
000000 bf b1 db c0 cc c3 bc c1 e7 14 75 c1 ee 0f 0a c1
       -6.8654475 -23.595604 -15.317603 -8.628889
000010 57 2b c1 c1 30 25 9c 41 d2 a0 50 c2 58 9b a6 c1
       -24.146162 19.518158 -52.15705 -20.825851
000020 7c 1d 63 c1 1b 1c 78 41 8e 1c 35 c1 11 c1 ba 41
       -14.194698 15.506862 -11.319471 23.34427
000030 bd 95 34 c1 4f a2 19 c1 e2 13 f1 40 c1 c6 1f c2
       -11.286557 -9.602126 7.533677 -39.944096

running_var f4 [16]
000000 24 e7 0d 43 88 d8 1c 43 f8 1b 0d 44 10 17 3d 43
       141.9029 156.84583 564.437 189.09009
000010 5f a6 28 43 70 cb b0 43 cd df 1a 44 b5 1a bf 43
       168.64989 353.58936 619.4969 382.20865
000020 08 d9 02 44 5d 9e 17 43 a5 41 45 43 b0 12 9f 43
       523.3911 151.6186 197.25642 318.146
000030 c6 19 98 43 2d 6a 3b 43 1b ad 38 43 86 eb 0d 43
       304.20135 187.41475 184.6762 141.92001

weight f4 [32, 16, 3]
000000 f7 51 ce be ab d8 85 bf 7e 94 30 be c7 c8 50 3f
       -0.4029691 -1.0456747 -0.17244145 0.8155636
000010 c3 38 ed 3e 19 4c 07 c0 52 aa 82 3f 4f fc 3c bf
       0.46332368 -2.1140196 1.0208228 -0.7382249
000020 ac 08 42 3f d1 2a 15 be a4 f0 cd 3e 1b f4 c6 bf
       0.7579448 -0.14567114 0.40222657 -1.5543245
000030 3b 6d 2c c0 75 b1 61 bf 6d 3e ec be 25 3f 96 bf
       -2.694167 -0.881614 -0.46141377 -1.173802
000040 72 14 8b bf d5 ef bd bf bb ef 9e 3e 85 c5 88 bf
       -1.0865614 -1.4838816 0.31042275 -1.0685278
000050 56 4e 1c be ff 2b 59 bf 40 f8 cb 3e 14 19 33 bf
       -0.15264258 -0.8483276 0.39837837 -0.6996014
000060 fd d3 c1 bc b7 30 cc bd e5 ca e7 be 98 89 91 3e
       -0.023660654 -0.09970229 -0.45271984 0.28425288
000070 37 86 a4 bf a0 d2 33 c0 32 1c 32 c0 58 3f db 3e
       -1.2853459 -2.8097305 -2.782971 0.42821765
000080 b7 70 6c bf 59 8f 69 bf 2d 07 16 c0 23 c9 3b c0
       -0.9235949 -0.91234356 -2.344188 -2.9341514
000090 f1 66 df bf 20 94 d0 bf ad 49 d2 bf 65 7f 1b bf
       -1.745329 -1.6295204 -1.6428734 -0.60741264
0000a0 f0 7d e9 bf fb de 7e 3e c1 88 29 bf ce 80 ed be
       -1.8241558 0.24889748 -0.66224295 -0.46387333
0000b0 c7 7e 07 3f d8 df 21 bf 40 ea 80 3e d2 71 10 be
       0.5292782 -0.63232183 0.2517872 -0.14105919
0000c0 31 22 0b bf a6 cb d5 3d 7f 84 c8 3e c8 f2 bb bf
       -0.54349047 0.104392335 0.39163586 -1.4683466
0000d0 c6 22 5d 3f eb 3d 1f 3f 95 31 1f bf 98 3a 0c bf
       0.86381185 0.62203854 -0.6218503 -0.54776907
0000e0 33 a4 25 3e dc 7f 57 bf fb 9a 54 bc 88 03 82 3f
       0.16175918 -0.8417947 -0.012976403 1.0157328
0000f0 42 92 a1 bf c5 a9 d2 bf d2 88 5f 3f 86 e6 d3 be
       -1.2622759 -1.645806 0.87318146 -0.41386813
000100 75 25 21 3e 7c f2 c4 3f 16 e8 38 3f c1 b7 f2 3e
       0.15736945 1.53865 0.72229135 0.47405818
000110 dc b7 90 3f ca 9a 64 3f 38 74 74 3f c4 cd 63 3f
       1.130611 0.8929869 0.95489836 0.8898585
000120 60 94 43 3e 63 44 d0 3f 42 50 58 3f 0d 1d 9b bf
       0.1909957 1.627087 0.84497464 -1.211824
000130 86 cc b4 3e 90 d8 02 bf be 7f 1b bf 23 14 60 3f
       0.3531229 -0.511117 -0.60741794 0.87530726
000140 8d 41 cf 3c 25 5b fb bf 0f 96 0e bf da 34 01 bf
       0.025299812 -1.963719 -0.5569772 -0.5047127
000150 a6 f8 04 3f ad d7 45 3f 28 cd 2d 40 6f ef c6 3e
       0.5194191 0.7728222 2.7156467 0.38854548
000160 7f 67 ae 3f 64 b6 49 40 44 b5 80 bf 40 52 47 be
       1.3625335 3.1517572 -1.0055318 -0.1946497
000170 2f 44 fe 3d a0 33 1f c0 54 c5 73 be f6 83 bf 3f
       0.12415349 -2.487526 -0.23805743 1.4962146
000180 10 ab e3 be 2c 15 8a bf 0a e2 ca bf 9b 7d c8 bf
       -0.44466448 -1.0787711 -1.5850232 -1.5663332
000190 e3 77 0e bd 99 c0 c2 3f b5 15 66 bf 48 50 ed bf
       -0.0347823 1.5215026 -0.8987687 -1.8540125
0001a0 23 c5 91 bf 47 f9 d6 bf 32 ad 7b 3e 5e 7c 1d bd
       -1.1388286 -1.6794823 0.24577788 -0.038448684
0001b0 32 03 46 bf 4e cb b6 bf aa 0e ca bf 0e 45 e0 bf
       -0.77348626 -1.4280794 -1.5785725 -1.7521074
0001c0 ee 01 58 be b3 44 a5 3f 5d c0 c2 3e 72 4d 34 be
       -0.21094486 1.291159 0.38037387 -0.17607668
0001d0 de 6a bc 3d 2e 16 b1 3f 09 2b 5d 3f fb 1b d4 3e
       0.09200071 1.3834894 0.8639379 0.41427597
0001e0 31 93 90 3f a4 ad 89 3f d6 0b bc bd 7c ad 91 bf
       1.1294919 1.0756116 -0.09181945 -1.1381068
0001f0 11 ff f6 bf 6c 04 84 3e b4 70 60 bf 36 5e a3 3f
       -1.929659 0.25784624 -0.8767197 1.2763126
000200 c8 2d d2 3d c7 b5 13 c0 b2 ec b2 bf be 1d 3e bf
       0.10262638 -2.3079698 -1.3978484 -0.7426413
000210 2c c0 f2 be ae c9 5c 3f 54 67 df 3f ba 86 8b 3d
       -0.4741224 0.8624524 1.7453408 0.068128064
000220 55 37 ec 3e b9 c1 04 40 1e 6d 6b bf 3c ec 08 c0
       0.46135965 2.074324 -0.91963375 -2.1394186
000230 6e 9a 2e 3f 3a 25 b3 bf fa 4e ac bf 5d ae 54 3f
       0.6820439 -1.3995736 -1.3461602 0.8307856
000240 d7 dc dc 3f ce a9 36 3f 6e 98 01 c0 ca 08 cc be
       1.7254895 0.7135285 -2.0249286 -0.39850456
000250 cc bc 2c bf b7 bc 83 3f 80 5d ed 3f c0 4d 0b 3e
       -0.6747558 1.0291966 1.8544159 0.13603878
000260 00 25 f7 bf b8 7e 22 3f 83 56 0e c0 ec 62 4d 3f
       -1.9308167 0.6347461 -2.2240303 0.8022907
000270 53 77 14 c0 47 0f e2 bd 0f a8 86 3f a2 0d a2 3f
       -2.319783 -0.1103807 1.0520037 1.266041
000280 6e 43 c2 3f 79 d3 99 bf 9f 1f 34 3f 6d 32 f1 bf
       1.5176828 -1.2017661 0.7036075 -1.8843514
000290 4e f1 ea 3e 25 c3 e8 bf 03 14 8d bf 10 c1 92 3f
       0.45887226 -1.8184553 -1.1021732 1.1465168
0002a0 28 a3 88 bf c5 ed ae be 7a 75 be bf 0a c2 ab bc
       -1.0674791 -0.3416578 -1.4879601 -0.020966548
0002b0 cb 43 c5 3e 88 ac 58 3f b0 a4 a2 bf d0 1e 40 be
       0.38528284 0.8463826 -1.2706509 -0.18761754
0002c0 57 73 62 3f fe 61 d8 3e 42 eb 29 3e 86 92 1f 40
       0.88457245 0.42262262 0.1659365 2.493318
0002d0 9c 82 fa be 6a be 0f bf bc bd 44 bf 50 f2 79 3e
       -0.48927772 -0.56149924 -0.7685201 0.24408841
0002e0 55 b5 bc 3d 82 45 e8 bf 0b 36 d0 3e 8b 2f 2c bf
       0.09214274 -1.8146212 0.40666232 -0.67260045
0002f0 f0 1f fa bf 70 40 31 bf ec c8 6d bf 38 9a 2c c0
       -1.9540997 -0.6923895 -0.9288471 -2.6969128
000300 c7 60 a6 bf 4e f2 60 bf ef e5 0a c0 f8 53 22 bf
       -1.2998284 -0.8786973 -2.170284 -0.63409376
000310 2c 53 1c bf 32 8e c0 bc 28 c7 44 bf 7a 4c 49 3e
       -0.6106441 -0.023505304 -0.7686639 0.1965808
000320 91 b8 71 3f 65 ae 99 3d 64 1a ae be 36 56 13 3f
       0.9442225 0.07503966 -0.3400451 0.5755342
000330 5d 7e 1a c0 fe f1 30 c0 31 bc b4 bf fb 5a 20 c0
       -2.4139626 -2.76477 -1.4119931 -2.505553
000340 d4 e0 9a be c3 a4 7e 3f 6c 1f 36 3f fe 2d 51 bf
       -0.30249655 0.99470156 0.71141696 -0.81710804
000350 d0 30 ac be 16 c7 6c 3f 54 74 90 bf 1f 78 40 c0
       -0.3363099 0.9249128 -1.12855 -3.0073316
000360 b5 cd a4 3f 77 d7 72 3e 92 c0 91 bf 6f 8b 10 c0
       1.2875277 0.23715006 -1.1386893 -2.2585104
000370 f2 c8 56 c0 62 9d 4f 3f 20 50 b5 bf 34 2f 9e be
       -3.3560147 0.8109952 -1.4165077 -0.30895388
000380 5c 14 ba 3e b3 37 91 bf 3b 0b 0c be 1b c0 e6 be
       0.36343658 -1.1345123 -0.13676159 -0.4506844
000390 c7 53 3d be fa cd ff bd b9 8c e9 3e b3 2a 52 be
       -0.1848899 -0.12490459 0.45615175 -0.20524101
0003a0 a7 f6 8a bd 8b aa 39 40 d4 0d a7 bc d3 db 12 3f
       -0.067853265 2.901034 -0.020392336 0.57366675
0003b0 42 1d c1 3e b5 d9 72 bf 45 d5 8b bf 10 03 87 3f
       0.37717634 -0.94863445 -1.092446 1.054781
0003c0 b8 40 5f c0 4f f6 41 3f 1b 0e 03 3e b9 c0 ed be
       -3.488325 0.7576646 0.1279835 -0.46436098
0003d0 90 1f 0f c0 eb 85 96 3d 10 bd 26 c0 69 1b 5e 3e
       -2.2363014 0.073497616 -2.6052895 0.21690144
0003e0 d1 01 82 3f 91 64 8c 3f 6c d1 b9 bf fd b3 ec be
       1.0156804 1.096819 -1.4517035 -0.4623107
0003f0 16 8d e8 be fd 56 40 3f 9f ae ff bf 98 05 10 bf
       -0.4542014 0.75132734 -1.9975165 -0.56258535

bias f4 [32]
000000 e3 cb af 3e 38 fc 16 3e 7c b6 1f 3f 77 e4 df 3e
       0.3433524 0.14744651 0.62387824 0.43728992
000010 f4 e2 57 3f 01 a7 1b 3f 42 62 df 3e 85 f3 6e be
       0.8433068 0.608017 0.43629652 -0.23335083
000020 2d 27 25 bf 54 0d 6a 3f 25 82 2e 3e 65 b6 91 3e
       -0.645129 0.9142659 0.17041834 0.28459468
000030 9f ba b0 be f8 db 34 3f e3 79 0d bd 2b 2c 1c bf
       -0.3451738 0.70648146 -0.03454007 -0.61004895
000040 22 cd cf 3e cb f1 61 3f ad 19 ee 3f 16 19 2f be
       0.4058619 0.8825957 1.8601586 -0.17099413
000050 d2 49 83 3f d4 d8 b7 3d ff 88 f9 3e 22 ea 0a bf
       1.0256903 0.089769036 0.48737332 -0.5426351
000060 ae b9 9e bf b0 4d 97 3f a4 68 90 3e 3e 65 59 bf
       -1.2400415 1.1820583 0.28204834 -0.8492011
000070 14 53 95 3f 7f 94 00 bf c1 07 10 40 34 57 66 3f
       1.1665978 -0.5022659 2.2504733 0.8997681

weight f4 [32]
000000 04 6f e9 3f ab 6a b3 3f 8a 4b e8 3f 62 e0 f1 3f
       1.8237004 1.4016927 1.8148053 1.8896601
000010 1f 00 ee 3f f4 dd e9 3f 93 5c c1 3f 2a e3 bc 3f
       1.8593787 1.827086 1.5106376 1.4756825
000020 c6 80 85 3f 7f c2 a6 3f 36 d8 e3 3f 42 1d ee 3f
       1.0429924 1.3028105 1.7800357 1.8602679
000030 7a 3f f4 3f 99 68 37 3f f9 a5 09 40 cc 13 9f 3f
       1.9081872 0.7164398 2.1507552 1.2427917
000040 67 c0 09 40 69 12 07 40 1d a9 99 3f 13 4f 6b 3f
       2.1523683 2.1104987 1.2004734 0.9191753
000050 b2 e7 fa 3f 34 73 c8 3d 5b e9 cd 3f c4 04 e4 3f
       1.9601958 0.09787598 1.608684 1.7813954
000060 7b 7d f7 3f 61 bf a8 3f 8c ba c5 3f ed 5a d2 3f
       1.9335169 1.3183404 1.5447555 1.6433998
000070 57 1a a6 3f 83 9b e5 3f a1 ec f9 3f f7 f6 bc 3f
       1.2976788 1.7938083 1.9525338 1.4762868

bias f4 [32]
000000 78 3a 99 be a1 90 8a bf 36 2a bd 3e 58 6c 24 3f
       -0.2992742 -1.0825387 0.36946267 0.6422782
000010 ab 34 07 be 14 38 d7 3d f4 d3 97 bf 8d 9e da bf
       -0.13203685 0.10508743 -1.1861558 -1.7079636
000020 0b b7 eb bf 17 88 2f bf 17 00 9f bf b8 43 3e 3f
       -1.8415235 -0.6856703 -1.2421902 0.7432208
000030 30 df 11 be 19 1c 7f 3f e6 0d c5 be 66 9c 1b bf
       -0.14245296 0.9965225 -0.38487166 -0.6078552
000040 b3 b1 8b 3f 42 3e d6 be 8e 9b c6 3f 36 55 d3 bd
       1.0913604 -0.41844374 1.5516222 -0.10318987
000050 b7 a4 d0 3e 9e a1 8d bf f9 6b 9b be c4 75 5e be
       0.40750667 -1.1064947 -0.30355814 -0.21724612
000060 43 b0 4e bc 21 5b 00 c0 e3 69 d4 3f ab 50 92 be
       -0.012615266 -2.005562 1.6594814 -0.2857717
000070 5d bf c3 be 1c 25 44 bf a9 66 e9 be 83 2b 55 3f
       -0.38231936 -0.76619124 -0.45586136 0.8326952

running_mean f4 [32]
000000 0d 51 ff c1 ad cb a9 40 23 6d 70 c1 1d 55 99 c0
       -31.914576 5.306113 -15.026645 -4.79164
000010 68 f1 dd c1 05 79 ac c1 3d 8b 9d 41 7c 18 5f 41
       -27.742874 -21.559092 19.692987 13.943478
000020 e7 06 b0 41 b4 bb 5f c1 3b 6f 9e bf d3 e5 9b 40
       22.00337 -13.983326 -1.2377695 4.8718047
000030 6a e1 dd c0 76 bd 06 c1 d6 ca 60 c1 8d 9d 89 41
       -6.9337664 -8.421255 -14.0495205 17.20193
000040 16 95 f7 c0 85 b8 22 c1 1c 27 2b c1 3d a1 2f 41
       -7.736949 -10.170049 -10.697048 10.976865
000050 c3 40 a6 c1 84 d6 ce bf 3f a6 9e 41 1d b4 91 c1
       -20.781622 -1.6159215 19.831175 -18.212946
000060 78 0e 1c 40 4b 0f b1 41 ee 50 80 c1 38 85 e6 3f
       2.438383 22.132467 -16.039516 1.8009405
000070 03 9e 48 41 20 81 4b c1 d9 21 19 c1 1d a8 71 3d
       12.538577 -12.719025 -9.570764 0.058998216

running_var f4 [32]
000000 5e 9c 0a 44 eb 16 34 43 07 5e 98 43 df 8c 7c 43
       554.44324 180.08952 304.7346 252.55028
000010 71 f9 97 43 ea 19 93 43 50 d1 7c 43 31 93 83 43
       303.94876 294.20245 252.81763 263.14993
000020 90 7f 39 43 90 20 7d 43 2c ee 35 43 a5 8d a3 43
       185.49829 253.1272 181.93036 327.1066
000030 60 a7 a5 43 67 48 9c 43 f0 91 49 43 dd 83 49 43
       331.30762 312.56564 201.57007 201.51509
000040 bd e6 99 43 56 05 3a 43 08 c0 32 44 65 ac 12 43
       307.80264 186.02084 715.0005 146.67342
000050 22 bd 39 43 e1 3a 2d 43 d8 a0 4b 43 ae da 02 44
       185.7388 173.23 203.6283 523.4169
000060 3d 4e 87 43 cc 2e 58 43 91 5d e7 43 4f a4 87 43
       270.61124 216.1828 462.731 271.28366
000070 b7 ca 75 43 ae 87 a4 43 42 db 38 43 df 4f c1 43
       245.79185 329.06 184.85648 386.624

weight f4 [32, 32, 3]
000000 4a b5 b8 3e eb 74 f6 be 92 24 bd 3e 72 76 8e 3e
       0.36075813 -0.48136076 0.36941963 0.27824742
000010 9f e8 ba bf 47 55 f6 bf 6d 15 03 40 b7 0a 72 bc
       -1.460224 -1.9244775 2.0481827 -0.014773062
000020 ba 4f c2 bf 9c 42 be 3f b8 e0 9d bc 55 df 8b bf
       -1.5180581 1.4864078 -0.019272193 -1.092753
000030 48 40 fe bf 9a 36 0f 3f 79 6e af bf 26 20 27 3e
       -1.9863367 0.5594269 -1.3705589 0.16320857
000040 35 77 52 3f b8 da bf be 21 5e e4 3f a1 46 79 3f
       0.82213145 -0.37471557 1.7841226 0.97373396
000050 14 b1 6a 3f 5f 53 48 3f 21 2f 88 bf 79 ca 54 c0
       0.9167645 0.78252214 -1.0639383 -3.324858
000060 6e 0b 8b bf 3f 7d e8 be e5 56 f4 3c 48 3a 0f 40
       -1.0862863 -0.45408055 0.02982659 2.2379322
000070 2f 44 dc 3e 7a 21 0d c0 60 70 c3 bd ed 62 22 bf
       0.4302077 -2.2051682 -0.09542918 -0.634322
000080 8b a5 98 be ba 93 1a 40 0c 68 dd 3f 07 7c 5b bf
       -0.298138 2.4152665 1.7297378 -0.85736126
000090 b1 9d 88 3f e6 6f b3 3d b9 04 88 bf 49 36 a3 3f
       1.0673124 0.08761577 -1.0626441 1.2750942
0000a0 e6 41 92 be 0d ca 20 be f9 aa a0 3f 2c b3 a3 3f
       -0.28565902 -0.15702076 1.2552177 1.2789054
0000b0 c3 8a 85 bf 6b fb 36 be 71 2c 95 3d 96 bc 01 3e
       -1.0432972 -0.17869346 0.07283867 0.12669596
0000c0 ff ea e8 3e a5 e1 c3 bf b8 eb 80 c0 9c 96 8d bf
       0.45491788 -1.5303236 -4.0287743 -1.1061587
0000d0 84 d1 2a 3e d1 78 ce 3f aa 1f 13 bf d2 48 c6 3e
       0.16681486 1.613062 -0.5747019 0.38727432
0000e0 77 fb 31 3e 56 04 69 3f 3f aa a9 be e7 c5 a2 be
       0.17381082 0.9102224 -0.331377 -0.31791613
0000f0 8e f1 cc 3f f6 7a 25 3f 93 3e 01 bf c5 1a bf 3e
       1.6011217 0.6464075 -0.50486106 0.3732511
000100 37 ea 13 bf f8 70 6a bf f7 c3 68 3e 75 8e 9d bf
       -0.5777926 -0.91578627 0.22731005 -1.23091
000110 7d ca dc bf 03 42 8e 3e 66 4f a9 3e e1 05 16 3f
       -1.7249295 0.27784738 0.3306839 0.5860272
000120 e5 81 02 bf 99 83 1b be 26 d0 86 3e 91 a8 56 3f
       -0.50979453 -0.1518692 0.2633068 0.8385096
000130 72 4c 09 3f 38 17 0a be ab 26 10 3c 0a 82 62 bf
       0.5363227 -0.1348542 0.008798282 -0.88479674
000140 e7 b4 d2 bf e3 72 86 3f 7d fb bf be a6 74 97 bf
       -1.6461457 1.0503811 -0.37496558 -1.1832473
000150 cd 25 43 3f 11 88 8a 3e af 12 bd 3d a7 30 12 3f
       0.76229554 0.27056935 0.09232079 0.5710549
000160 ea 85 70 3f 2b 94 bd 3f 8f 99 28 3e 8e 86 53 3f
       0.93954337 1.4810842 0.16464828 0.8262719
000170 99 4c e2 bf 3a 14 08 bf 1c 12 15 be 3e 28 e1 3e
       -1.7679626 -0.53155863 -0.1455769 0.43976015
000180 f2 6e e7 3f 19 68 8e 3f fd 13 cc 3f ac 5e 97 3f
       1.8080733 1.1125518 1.59436 1.1825767
000190 84 5a 9f bf d8 4f 35 40 43 44 6e bf 9f b4 4f bf
       -1.2449498 2.8329983 -0.9307291 -0.8113498
0001a0 9e b8 13 be 61 bc fa 3e 68 d4 bb 3c e8 00 6d bf
       -0.14425895 0.48971847 0.022928432 -0.9257951
0001b0 6e 34 3a ba ce 35 ff 3e 81 c1 39 40 9b 7a 89 3e
       -0.00071031495 0.49845737 2.9024355 0.26851353
0001c0 30 61 9d be 7d f4 3d 3e b9 9c d4 3e f6 9f c6 3e
       -0.3073821 0.18550296 0.4152582 0.38793916
0001d0 27 19 7e bf d2 43 96 bf 45 c0 a2 bf 44 54 11 3e
       -0.9925713 -1.1739447 -1.2714926 0.14192301
0001e0 81 c4 98 3f 99 16 2b 3f cc 08 92 bf 93 60 e5 be
       1.1934968 0.66831356 -1.1408935 -0.44800243
0001f0 5c 79 ae 3c ca 33 6b 3f 5f 0b 36 bf de 7a f7 bf
       0.021298103 0.918759 -0.711111 -1.9334371
000200 27 32 48 c0 d9 ec 0b bf d1 6e 78 3f 78 33 39 be
       -3.128061 -0.54658276 0.9704409 -0.1808604
000210 8f a2 ce bf 7b 7c a1 be 3c 8c 34 40 67 cc 13 bf
       -1.6143359 -0.31540284 2.8210592 -0.5773377
000220 78 b1 58 bf db 47 27 c0 76 66 8c 3f 55 9e d4 be
       -0.84645796 -2.6137607 1.0968769 -0.41527048
000230 ba 1a aa 3f 51 ad c9 be c0 13 54 3f c2 6f 13 c0
       1.3289406 -0.39390042 0.82842636 -2.3036962
000240 dd a1 65 be bd db 4a bf a3 8c 82 bf ba 9d 7c 3e
       -0.22425027 -0.79241544 -1.0199169 0.24669543
000250 cd f7 a0 3f 70 26 5e 40 75 89 63 3e 75 60 ac bf
       1.2575623 3.471096 0.22220404 -1.3466936
000260 13 ec a3 3e 98 f3 89 bf 0c 8f b6 bf d1 ef bd 3d
       0.32016048 -1.0777464 -1.4262404 0.09274257
000270 bf 65 03 40 b9 e6 9f 3f 2e 7f d1 bf 2a f3 e3 3d
       2.053085 1.2492286 -1.6366937 0.11130364
000280 c8 62 a7 be 0f 8d 28 bf 0a 36 46 3f 11 0d 85 be
       -0.32692552 -0.6584024 0.7742621 -0.2598653
000290 ad 5c 3e c0 18 83 23 c0 fc fd 38 3d 1b 87 0e 40
       -2.9744065 -2.5548763 0.045164093 2.2269962
0002a0 31 00 5f 3f 1d 69 83 bf b2 e0 8a c0 ed 98 cc 3f
       0.8710967 -1.0266453 -4.3399286 1.5984169
0002b0 b2 a9 da 3e 2a 2c 4c bf c1 5c 89 bf 21 6e 3a bf
       0.42707592 -0.7975489 -1.0731431 -0.72824293
0002c0 d0 9d 2b 3f e9 02 3a 3f bc 81 27 c0 1b e5 81 bf
       0.6703768 0.7266069 -2.6172934 -1.0148042
0002d0 be 83 8f bf fb 19 bc be 07 6f f6 be 28 ff 8c 3f
       -1.121208 -0.36738572 -0.48131582 1.1015368
0002e0 3f be 7d be c7 38 76 c0 c1 8d a7 bf 7b 11 79 bf
       -0.24779604 -3.8472154 -1.3090135 -0.972923
0002f0 92 f3 d1 3e 9e 45 62 3e a4 ae 39 bf 71 2c c1 ba
       0.41006142 0.2209687 -0.72532105 -0.0014737976
000300 27 b7 7d 3f fe ec 7b bd 86 d9 97 bf 83 7f df be
       0.99107593 -0.06150531 -1.1863258 -0.4365197
000310 34 c0 77 bf cf 7e 85 3f 66 9d b9 3f c2 33 0c bf
       -0.96777654 1.0429324 1.4501159 -0.54766476
000320 1b ea 4d bc 6d aa de bf b6 fc 87 3d c2 ed c9 bf
       -0.012568022 -1.739576 0.06639998 -1.5775683
000330 7b 8d 72 3e b1 e1 35 bf b3 ad 02 c0 98 d1 c1 bf
       0.23686783 -0.710475 -2.0418518 -1.5142088
000340 ce 82 51 bf 99 a5 87 3f ea f9 0c bf a7 6f 4b bd
       -0.8184022 1.0597411 -0.5506884 -0.049667027
000350 81 96 35 bf 29 e2 c6 bd 46 51 b0 3f 84 03 e4 3e
       -0.70932776 -0.097111054 1.3774803 0.44533932
000360 66 8f 69 bf 19 78 a5 bd 57 9c 81 3f 51 7b 56 bf
       -0.91234434 -0.080795474 1.0125836 -0.83781916
000370 48 ec d1 3d 90 99 a9 3f f0 6a 41 bf 6a a2 eb 3e
       0.10250145 1.3249989 -0.755538 0.4602235
000380 4a ed 1c 3f 58 12 cb be c9 ba 04 3f 26 b0 3c 3f
       0.61299574 -0.39662433 0.5184751 0.7370628
000390 6d a0 64 bf 7b a5 33 3f 7c 8c 55 40 15 50 1c 40
       -0.8930729 0.7017438 3.3366995 2.4423878
0003a0 09 7a 44 bf fd 00 05 3f 06 95 49 bf 24 49 12 c0
       -0.7674871 0.51954633 -0.78743017 -2.2857141
0003b0 59 cd 95 bf ba d3 ac be 5d 43 06 3e 8a f7 f5 3e
       -1.1703292 -0.33755285 0.13111635 0.4804042
0003c0 d8 8f 2c 3f 52 99 26 bf 3e ce 59 3e 56 3f f4 3f
       0.6740699 -0.650777 0.21270081 1.9081829
0003d0 95 e7 e2 be ae 90 18 c0 7d 1e 87 3f 0e 47 06 c0
       -0.44317308 -2.3838305 1.0556179 -2.0980868
0003e0 1e ac a4 3f c0 1a b5 bf ff a9 2f bf c1 8f 38 40
       1.2865026 -1.4148788 -0.6861877 2.883774
0003f0 05 5f 80 3e 1f f8 55 3d 51 9c 79 bf 5f c0 5c bf
       0.25072494 0.05223858 -0.97504145 -0.86231035

bias f4 [32]
000000 ce f8 8a be 5d 59 4f bf 3a c6 aa 3e 2b 77 02 c0
       -0.27142948 -0.8099573 0.3335436 -2.0385234
000010 0b 63 2a 3f d4 5a a1 be 5b 3c b4 be f2 52 42 3f
       0.6655738 -0.3151461 -0.35202298 0.75907815
000020 d3 7b bf be 97 1f c2 be 2a 57 ac bf 01 9b 58 bf
       -0.37399158 -0.37914726 -1.34641 -0.8461152
000030 c4 ef 54 3f 66 24 72 3f 45 f0 8c 3f 4a 0c 67 3f
       0.83178353 0.9458679 1.1010824 0.90253127
000040 b4 d3 58 3e d6 2f f8 be 4d 95 6e 3e 42 b1 bc be
       0.21174508 -0.48473996 0.23299141 -0.36853987
000050 02 cd b6 bf a2 46 65 3d 91 c6 d0 3f 7b 27 db bd
       -1.4281313 0.055975564 1.6310598 -0.1070089
000060 2a 98 9d be 38 1f d6 bd 8b cf 3c 3f 64 d8 00 bf
       -0.30780154 -0.10455173 0.73754185 -0.50330186
000070 5d 00 ae 3e 08 52 37 3d f3 47 e8 3e 94 85 b9 3f
       0.33984652 0.044755965 0.45367393 1.449389

weight f4 [32]
000000 3e 28 b1 3f fe 59 01 40 a5 50 94 3f e7 29 01 40
       1.3840406 2.0211177 1.1587111 2.0181825
000010 12 5f db 3f a2 e7 c9 3f eb 09 10 40 71 ac fc 3f
       1.7138388 1.5773814 2.2506053 1.9740125
000020 74 fe 04 40 09 df 8e 3f af 73 ff 3f 8f 40 ba 3f
       2.0780306 1.1161815 1.9957179 1.4550952
000030 92 ef 80 3f 46 e1 0d 40 78 ed 05 40 02 50 09 40
       1.0073111 2.2168746 2.092619 2.1455083
000040 c3 39 01 40 b0 b0 e5 3f a2 81 ac 3f dc 7f 20 40
       2.0191505 1.7944546 1.3477061 2.507804
000050 bb 0b ad 3f 72 98 99 3f e5 bd 0c 40 98 64 08 40
       1.3519205 1.1999648 2.1990902 2.1311398
000060 7e b7 cf 3f a2 7f 02 40 1f da f4 3f a3 6c e8 3f
       1.6227872 2.03904 1.9129065 1.8158153
000070 3a 6b 96 3f f8 f2 fa 3f da a0 af 3f cc 52 f8 3f
       1.1751473 1.9605398 1.3720963 1.9400268

bias f4 [32]
000000 aa 43 05 bf f7 dd f3 be 12 2a 0f c0 11 91 52 3f
       -0.5205637 -0.47630283 -2.2369428 0.82252604
000010 4e 6e a3 bf d0 00 c3 3e d7 a1 8d 3f f7 f3 80 bf
       -1.2768037 0.38086557 1.1065015 -1.0074452
000020 28 c4 7d bf 2b e4 e2 bf 30 98 b3 be 48 ac 44 bf
       -0.99127436 -1.7725881 -0.35077047 -0.7682538
000030 fb ee e3 bf 18 c0 ea 3e f4 ee aa be c0 93 13 be
       -1.7807306 0.4584968 -0.33385432 -0.14411831
000040 b3 e9 d6 be 57 00 32 bf 20 fd a0 bf e8 49 32 3e
       -0.41975173 -0.6953177 -1.2577248 0.17411005
000050 d7 6d c2 bf 35 33 5c 3d 16 81 77 3e 1d ce 63 bf
       -1.518977 0.053759772 0.24170336 -0.8898638
000060 14 f3 7b 3f 82 2f 0e be d6 90 34 bf 7d bf b3 be
       0.9841778 -0.1388531 -0.705335 -0.3510703
000070 98 4e 03 c0 d5 b4 ad be 96 c5 c0 bf 17 7e c0 be
       -2.051672 -0.33927026 -1.5060298 -0.375962

running_mean f4 [32]
000000 2a 1d f0 c0 3b 5a 80 c1 46 36 1a 41 ed e5 01 41
       -7.50356 -16.044058 9.63825 8.118634
000010 6a a7 ea c1 5f 8c de 40 0e ba e0 c1 95 44 65 c1
       -29.331745 6.954635 -28.090847 -14.329244
000020 f4 0f 67 c2 f0 0e bc 41 d1 e7 93 c1 fe 10 df 3e
       -57.76558 23.507294 -18.488192 0.43567652
000030 b1 a7 56 40 2b b9 09 c2 46 86 4d c1 d3 90 61 bf
       3.353985 -34.43083 -12.845282 -0.8811161
000040 10 8a f4 c1 0a 5e 89 c0 c6 01 ba c1 80 57 15 c2
       -30.567413 -4.2927294 -23.250866 -37.33545
000050 1c 75 c2 41 a0 22 5f c1 5d a2 d3 c1 76 b2 08 c2
       24.307182 -13.945953 -26.454279 -34.17428
000060 80 17 c2 40 a0 4e e5 c0 59 02 30 c2 1f fe 29 3f
       6.0653687 -7.165848 -44.002293 0.66403383
000070 b8 70 be 41 ec b0 8c 40 f6 ba ce 41 e9 08 8e c1
       23.805038 4.396597 25.84129 -17.75435

running_var f4 [32]
000000 fd 84 13 44 58 2c c8 43 56 06 a1 43 1f 06 d2 43
       590.07794 400.34644 322.0495 420.04782
000010 be 41 a1 43 15 6d fd 43 a5 6e 42 44 49 93 0c 44
       322.5136 506.8522 777.7288 562.30133
000020 40 43 ce 43 5d 36 91 43 3b e5 06 44 d2 c2 05 44
       412.5254 290.4247 539.5817 535.04407
000030 dc 2f 97 43 1a 9f 35 44 cf 19 8c 44 3c f2 0a 44
       302.3739 726.48596 1120.8065 555.7849
000040 75 c4 10 44 68 49 a3 43 6a a0 82 43 2f a1 be 43
       579.06964 326.5735 261.25323 381.25925
000050 47 70 b9 43 59 90 2b 44 70 0b d5 43 85 e2 c4 43
       370.87717 686.25543 426.08936 393.76968
000060 5d 16 de 43 0b d2 0c 44 4e 24 c2 43 48 df e9 43
       444.1747 563.2819 388.28363 467.7444
000070 9a af 54 43 1c 36 cc 43 3c a0 73 43 31 01 ef 43
       212.68594 408.42273 243.62592 478.0093

weight f4 [64, 32, 3]
000000 7f f8 0a c0 62 f4 c2 bf d4 67 8b bf 2f 49 b5 3e
       -2.171417 -1.523083 -1.0891061 0.35407397
000010 cd 54 9b 3f 5f 51 e6 3f 38 6b 31 3f e5 04 83 3f
       1.2135254 1.7993582 0.6930423 1.0235869
000020 7d 4f 7f 3f 4d 20 a6 3f b9 6d ea 3f 04 28 a2 3e
       0.99730664 1.2978607 1.8314735 0.31671154
000030 69 4b b2 be fa 84 a1 be 96 3f e1 3f 5e d3 4a 3f
       -0.34823158 -0.31546766 1.759753 0.7922877
000040 fe 2b 34 bf 82 62 73 c0 de 76 c1 be 97 b1 d5 be
       -0.70379627 -3.8028874 -0.37786 -0.41737053
000050 0f c6 ab bf dd 7c cb 3f 22 99 86 3d 77 cc e0 bd
       -1.3419818 1.589748 0.065721765 -0.109764986
000060 f8 b8 df 3e c4 4e 0f bf bc bc 98 3f 26 14 3e bf
       0.43695807 -0.5597956 1.1932597 -0.74249494
000070 18 f4 36 3f d5 29 25 3f fd b7 14 be 60 5d 11 be
       0.7146621 0.64516956 -0.14523311 -0.14195776
000080 49 a3 20 3f b3 90 76 be f3 33 19 3f 48 0b 05 bf
       0.62749153 -0.24078636 0.59844893 -0.5197034
000090 67 24 48 bf d5 8a 2b bf 21 6b 76 3e 5e bd 41 bf
       -0.78180546 -0.67008716 0.24064304 -0.75679576
0000a0 88 cd dd bf 9b 63 c9 3e 5c bf a0 bf fe 1b ae bf
       -1.7328348 0.39333805 -1.2558398 -1.3602293
0000b0 ae cb 57 3f 44 29 99 3f 61 05 d3 3f 51 c2 b1 be
       0.84295166 1.1965718 1.6486017 -0.34718564
0000c0 d1 03 bf bf 2a 85 de bf 8b 1e da 3e 2a 33 d2 bf
       -1.492304 -1.7384388 0.42601427 -1.6421864
0000d0 2c 3c 43 bf 70 da 4a 3f 49 f6 18 3f f5 94 c2 be
       -0.7626369 0.7923956 0.597508 -0.3800427
0000e0 4a cd bd bd e0 8d 94 bf 52 1f a9 be 5d 47 f1 bc
       -0.092676714 -1.1605797 -0.33031708 -0.029452974
0000f0 16 ab 03 bf 4c eb ec 3e 2d 9c b0 3f 60 46 41 c0
       -0.5143293 0.46273267 1.3797661 -3.0199203
000100 92 95 63 be 83 cf 20 40 04 12 5d bf 84 7a f9 be
       -0.22225025 2.5126655 -0.86355615 -0.48726285
000110 56 f4 9f be ae aa c9 bf 88 bb 9a bf c5 90 c4 bf
       -0.312411 -1.5755212 -1.208848 -1.535668
000120 cf 5c 9c 3f 95 c5 b7 bf 24 c7 1e bf ab 9d 9f c0
       1.2215823 -1.4357172 -0.62022614 -4.9879966
000130 0a 1a a5 bf 11 cc 65 c0 ce 1b b9 be 60 0e 08 bc
       -1.2898571 -3.5905802 -0.36154026 -0.0083042085
000140 d9 0f 9b be b3 0f aa bf 31 69 1e c0 11 f0 60 c0
       -0.30285528 -1.3286041 -2.4751704 -3.5146525
000150 f2 fc ce bf 3b a0 eb be 83 c1 b1 bf cc 1e b0 3f
       -1.6170943 -0.46020684 -1.388718 1.3759398
000160 10 1e 06 3f 61 22 79 be f7 04 10 3f a4 90 54 3f
       0.5238962 -0.24329521 0.56257576 0.83033204
000170 68 c8 ce 3f a7 63 ee be ad 23 63 3f 76 aa 34 bf
       1.6154909 -0.46560404 0.8872631 -0.705726
000180 07 f5 2d c0 d3 05 8e 3f a5 ef 81 bc be 06 85 3f
       -2.7180803 1.1095527 -0.015861342 1.0392683
000190 19 ab 93 bf c8 89 27 3f 1c 62 ad 3f 5e 38 8f 3e
       -1.153659 0.6544461 1.3545566 0.27972692
0001a0 1e fa c8 bc e0 d4 25 3f 91 1a f4 3c 72 d6 76 bf
       -0.024533328 0.64777946 0.029797824 -0.9642097
0001b0 e3 c7 1b 3f 00 a5 b9 3f 1e 20 a7 3f e2 71 71 3f
       0.6085188 1.4503479 1.3056676 0.94314396
0001c0 eb 69 e4 bd 19 ac 50 3d cd 10 14 c0 0a a3 fa bf
       -0.11153015 0.050945375 -2.3135254 -1.9581006
0001d0 bb ad 7a bf 7e c6 6e c0 57 94 f7 bf ef 80 db bf
       -0.9792134 -3.730865 -1.9342145 -1.7148722
0001e0 8c b2 58 3c d3 b9 29 3f bf 1c 79 bf 50 79 d3 3f
       0.013226163 0.6629917 -0.9730949 1.6521397
0001f0 9c 74 44 3f 5e 11 62 3f 58 21 82 3f 3b fb e6 bd
       0.7674043 0.8830775 1.0166426 -0.11278387
000200 39 c7 51 be 03 4c 8f bf 7c 99 38 c0 45 40 2a 3d
       -0.20486154 -1.1195072 -2.884368 0.0415652
000210 44 55 b0 3f a3 cf 08 3f dc 40 7b 3e 70 a2 63 c0
       1.3776021 0.5344183 0.2453646 -3.5567894
000220 46 db 49 3f 14 3d 03 c0 0c 6d e0 3f 92 9c af be
       0.7885021 -2.050603 1.7533278 -0.3429914
000230 93 d0 96 bd 9a f5 b0 bf ff 95 f3 be 28 b4 1c c0
       -0.07364001 -1.3824952 -0.47575375 -2.4484959
000240 df 99 75 c0 b2 90 18 c0 33 36 c6 bf 24 0a 6b bf
       -3.8375165 -2.3838315 -1.548529 -0.9181235
000250 c5 e6 e1 be d5 ad 10 3f f2 1e 0b bf 2c 0c 50 3f
       -0.44121376 0.56515247 -0.54344094 0.8126857
000260 10 da 62 3e 65 2d bb bf 9c 98 07 40 4f d6 11 bf
       0.22153497 -1.4623228 2.1186895 -0.56967634
000270 80 04 ac bc 77 40 83 3f 31 c5 4f 3f c7 2f bd bf
       -0.02099824 1.0254048 0.81160265 -1.4780205
000280 01 9c a1 3f fa cb 95 bf b5 5f 33 bf af 79 23 bf
       1.2625734 -1.1702874 -0.7006791 -0.6385755
000290 b2 c4 b9 be 97 c9 c1 bf 83 ce 01 c0 92 7a 0c c0
       -0.3628288 -1.5139645 -2.0282295 -2.194981
0002a0 4f 93 e3 bf 4f 85 ef bd fe 6d 10 c0 22 3c dc bf
       -1.777933 -0.116953485 -2.2567134 -1.7205851
0002b0 6b 36 ae be 57 57 80 3f ff b9 37 bf c1 28 7b be
       -0.34025893 1.0026654 -0.7176818 -0.24527265
0002c0 f6 26 53 3f 92 0b af bf 99 91 cf be 67 a3 ac 3e
       0.82481325 -1.3675406 -0.4054077 0.33718416
0002d0 7e 66 13 40 55 e7 e3 3e 36 95 5c 3f d2 f0 80 3f
       2.3031306 0.4451243 0.8616518 1.0073493
0002e0 38 e1 bb bf ef 26 40 bf 27 48 14 40 7c 8e 9c bd
       -1.4678106 -0.7505941 2.3169038 -0.07644364
0002f0 57 eb c3 bf f8 03 33 3f c7 ce 84 bf a5 37 ba bf
       -1.5306195 0.6992793 -1.0375603 -1.4548231
000300 3b cb 03 bf ac 04 4d bd 54 0c c0 3e 47 6e ae bf
       -0.5148198 -0.050053284 0.37509406 -1.3627404
000310 9c ac b7 3d 26 67 a1 bf 9b 08 cf 3f fc f2 e3 3e
       0.089684695 -1.2609603 1.6174501 0.4452132
000320 54 ef 93 bf 37 e1 0f 40 94 ee 15 be 76 13 79 3e
       -1.1557412 2.248121 -0.14641792 0.2432383
000330 25 37 e1 bf cc bb eb 3d 67 df 33 3e 58 57 5c 3f
       -1.7594954 0.11510429 0.1756569 0.86070776
000340 2f 45 e7 3e 36 c7 69 bf 8b 3b 5d 3f 37 ab d7 3e
       0.4516997 -0.91319597 0.8641898 0.42122814
000350 40 d0 6e 3d 7c 4b 52 bf e8 ff b1 3c 54 05 9c 3f
       0.05830407 -0.8214643 0.02172847 1.2189126
000360 4d db 15 bf 02 d8 d6 3d 7e 4a 48 bf fa 4b 82 3e
       -0.5853775 0.10490419 -0.78238666 0.2544859
000370 55 b1 1a bf 93 62 72 3f 02 f5 8f 3f 34 75 e4 be
       -0.6042684 0.9468166 1.1246645 -0.4462067
000380 c9 13 09 be 9b 6f 2f 40 df 93 00 3d 50 50 06 40
       -0.13386454 2.7411869 0.03139102 2.098652
000390 a3 a4 9c be a0 50 7d 3f 89 2f 16 3f ec e7 0d be
       -0.30594358 0.9895115 0.5866628 -0.13858002
0003a0 25 e7 d9 3f 5c 1e 48 bf 9b d9 31 3f 8f 0a 75 bf
       1.7023665 -0.78171325 0.69472665 -0.95719236
0003b0 82 90 e5 3e 87 29 cb bf 0c 3a fc 3e 2a 25 85 bf
       0.44836813 -1.5872048 0.49263036 -1.0401967
0003c0 f8 31 98 3e 64 e4 91 3f f2 8e 0c bf 30 30 5d 3f
       0.29725623 1.1397824 -0.5490562 0.86401653
0003d0 9e 9a 25 40 f6 9a 46 bf d3 fb 6b 3f 1c 9b 66 3f
       2.587562 -0.775802 0.9218113 0.9008043
0003e0 4b 4b 94 be 04 70 dd bf f0 db ff 3f 42 b8 b8 3d
       -0.28963694 -1.729981 1.9988995 0.090195194
0003f0 9c 83 10 40 df 1d 10 40 56 de 21 40 33 54 75 bf
       2.2580328 2.2518232 2.5291953 -0.958316

bias f4 [64]
000000 7b fc 06 c0 c6 63 97 bf 8c 74 bd bf d8 1e 2e bf
       -2.1091602 -1.1827323 -1.4801192 -0.68015814
000010 7a b7 8a 3e fc 79 2c bf ec cf 42 3f 6d a0 17 bf
       0.27093107 -0.67373633 0.76098514 -0.59229165
000020 3d 07 a5 bd dd f7 9d bf bf bb 04 3f ce 95 21 bf
       -0.08058021 -1.2341267 0.5184898 -0.6311921
000030 80 66 9f 3f 5c b3 31 3e ea a6 3f 3f 88 20 31 3b
       1.2453156 0.17353576 0.74864066 0.0027027447
000040 c0 32 5e 3d 5b f8 ca 3f 5a e4 0c 3f 4a 9a 86 bf
       0.054247618 1.5857042 0.55035937 -1.0515835
000050 b9 a6 04 be fb fe 87 3f 0d 88 26 bf eb fb ac 3e
       -0.12954225 1.0624689 -0.65051347 0.33785948
000060 d7 e6 47 3f ee 07 23 be 9b 7e 4a bf 1d 76 b7 3e
       0.7808661 -0.15920994 -0.79099435 0.358323
000070 41 02 02 be bf d2 ef 3e 77 cc 30 bf 84 e2 58 3f
       -0.12696172 0.46840474 -0.6906199 0.84720635
000080 1e 63 95 3e d2 d6 3a bf f1 86 13 3f 2d c7 28 be
       0.29177183 -0.7298404 0.5762778 -0.1648223
000090 d3 e1 70 3e 14 58 c7 be 09 3a d7 be 9a 59 e6 bf
       0.23523645 -0.38934386 -0.42036465 -1.7996094
0000a0 86 07 cc be 19 46 7f 3e a3 ae 17 3e fc 48 98 3e
       -0.3984949 0.24929084 0.14812712 0.29743183
0000b0 65 27 0b 3e 75 55 98 bf 63 9e b3 3e ec bc 86 bf
       0.13589247 -1.190108 0.35081777 -1.0526404
0000c0 7c 5a d2 be 6e 1b 9c be 6a 43 68 be bf 64 34 3f
       -0.4108466 -0.30489677 -0.22681966 0.70466226
0000d0 16 45 ac 3f fc 87 f4 be a3 f9 38 3f f0 cd b9 be
       1.3458583 -0.47759998 0.72255915 -0.3628993
0000e0 ae b6 b2 3e dc 85 44 bf c4 99 d0 bd 8d e4 a6 3f
       0.34905 -0.76766753 -0.101855785 1.3038498
0000f0 e0 74 8d bf 0e 64 57 3d 9a 78 5d be 5f 40 9f 3f
       -1.1051292 0.052585654 -0.21628037 1.244152
