unet/checkpoints/one_loss/epoch_12.pth (torch, 508787 bytes, 85 tensors)

weight f4 [8, 1, 3]
000000 43 74 f4 be 6d b8 67 bf 4e 23 5b 3f 5c e4 27 bf
       -0.4774495 -0.90515786 0.85600746 -0.65582824
000010 37 24 d5 bf 1e b6 bb bd c7 61 4a 3e 55 c4 da bd
       -1.6651677 -0.091655955 0.19763862 -0.106819786
000020 e5 07 34 c0 0a ea 9e 3e c2 b1 91 3e b7 a4 d5 3f
       -2.8129818 0.31037933 0.2845593 1.6690892
000030 1b 8b a6 be f8 2c 67 bf af bb 5f bf 0c 21 b1 bf
       -0.32528004 -0.9030299 -0.8739576 -1.383821
000040 da 07 25 be 7f 41 33 bf 10 eb 79 3f cc 99 2b bf
       -0.16116276 -0.70021814 0.976243 -0.6703155
000050 3c 0b 30 bd b3 f1 ba 3f 62 1c 23 3e 2d 4d 16 3f
       -0.042979464 1.4605011 0.15928796 0.5871151

bias f4 [8]
000000 0b 19 f9 bd 65 fa 27 3d 19 e3 42 3e 60 d6 64 3e
       -0.1216298 0.04101028 0.19031943 0.22347403
000010 da e9 e0 be 31 7a 04 3e a9 fe 29 3e 54 1e 4f bf
       -0.43928415 0.12937237 0.16601051 -0.8090565

weight f4 [8]
000000 11 56 52 3f f3 ac 97 3f 0b db b2 3f 24 59 bb 3f
       0.82162577 1.1849655 1.3973097 1.4636579
000010 32 13 fd 3f 5d df a3 3f 7b a8 47 3f f2 dd c8 3f
       1.9771483 1.280254 0.77991456 1.5692732

bias f4 [8]
000000 fe a7 69 3f 03 0c 86 bd e2 18 ec be df 5d f9 3e
       0.9127196 -0.0654526 -0.46112734 0.4870443
000010 f0 0f f4 3d b5 2b 1b be 1c 3b af 3e 96 cf fd bd
       0.11917102 -0.15153392 0.34224784 -0.123931095

running_mean f4 [8]
000000 e7 84 d6 bd 88 49 24 3c dd 14 bc 3d db 1d 98 3e
       -0.10474568 0.010027297 0.09183667 0.29710278
000010 a1 5a f5 be 83 97 37 3d 0b 44 53 3e 11 3c 38 bf
       -0.47920707 0.044822227 0.20631425 -0.71966654

running_var f4 [8]
000000 47 d9 50 47 2f c5 bc 48 f5 34 0a 49 da 03 a6 48
       53465.277 386601.47 566095.3 339998.8
000010 9c b4 87 48 96 bf 9d 48 9a bb 04 47 84 cf 99 48
       277924.88 323068.7 33979.6 315004.12

weight f4 [16, 8, 3]
000000 2a 50 65 bf 67 3d 8c bc 9a 29 ae bf 71 c6 04 3e
       -0.89575446 -0.017119123 -1.3606446 0.12966324
000010 d4 96 26 bf db b9 ed be 49 0d 40 be 08 3c 06 bf
       -0.65073895 -0.4643086 -0.18755068 -0.5243535
000020 cd f0 16 bf b8 5d 4d be 88 e3 3b 3e e2 63 fc be
       -0.5896118 -0.20055282 0.18348515 -0.49294955
000030 d1 1d 7e bf b4 a0 70 bf f5 97 6b be 31 19 c7 bf
       -0.99264246 -0.93995214 -0.23007186 -1.5554563
000040 b1 fd 62 be ea dd 4c bf e3 c4 65 3c 5e cd 68 3e
       -0.22167088 -0.80026114 0.014023992 0.22734591
000050 fc 44 73 be d2 c5 91 3e e9 ed a7 3e 28 cd 25 bf
       -0.23756784 0.28471237 0.327987 -0.6476617
000060 a3 40 84 3f f6 e2 ab bf 27 f0 67 3e 2e 77 35 3e
       1.0332226 -1.3428638 0.22650205 0.17721245
000070 49 0e be be 33 65 00 3f 5b 3f be be a3 60 a7 3e
       -0.37120274 0.5015442 -0.3715771 0.32690915
000080 d9 9d 29 bf 28 2a 2c 3f 93 75 89 be c8 a6 2f bf
       -0.6625648 0.67251825 -0.26847515 -0.68613863
000090 15 54 b2 be 28 7b 10 3f 66 83 53 be c1 07 b1 be
       -0.34829774 0.5643792 -0.20655593 -0.34576228
0000a0 b6 65 ab 3e 81 c6 28 bf 0b b5 d7 bd fe 6f 3c bf
       0.33476037 -0.6592789 -0.10532578 -0.73608387
0000b0 aa 41 a6 3f a5 6a 9d be 73 9f 42 bf dc ee fc 3e
       1.2988789 -0.30745426 -0.7602455 0.49400985
0000c0 11 37 c2 be 23 e7 60 be bb a5 bb be a0 2d 7c bf
       -0.37932637 -0.21963172 -0.3664988 -0.9850712
0000d0 4f be 82 3e 58 6d bc bd 41 7a 09 3f ce d3 6e bd
       0.2553582 -0.09200543 0.5370217 -0.05830746
0000e0 6e 9e 2e 3e 96 42 79 3f c9 af 61 3f 4d 15 63 3f
       0.17052624 0.9736723 0.8815885 0.8870438
0000f0 42 3d f8 be 14 83 31 be 0c a7 d7 bd a4 8b d5 be
       -0.48484236 -0.17335159 -0.105299085 -0.417081
000100 92 f1 07 bf fe 1d 24 3e f6 4a 52 be 06 19 f2 bd
       -0.5310298 0.16027066 -0.20536408 -0.11821179
000110 15 f9 32 be 5a a4 dc 3e 17 e8 5f 3f be 84 8f 3f
       -0.1747783 0.4309414 0.87463516 1.1212385
000120 59 67 4e bf 7a f0 3a bd 69 11 56 bf bd b2 52 be
       -0.80626446 -0.045639493 -0.83620316 -0.20575996
000130 60 9d 03 3e 49 37 d1 3c 16 df 03 be 80 84 33 be
       0.12853003 0.025539057 -0.1287807 -0.17531013
000140 a4 a3 f6 3f 7d c9 22 be 63 3a aa be d4 c4 52 bf
       1.9268689 -0.15897174 -0.3324767 -0.82331586
000150 95 a2 c7 bd a7 26 03 3e 2a 51 d9 3f db 69 ba 3d
       -0.09747807 0.12807713 1.6977894 0.091022216
000160 fa e0 d9 be 74 72 84 3f cd 0b a2 3e bf 44 27 3e
       -0.42554456 1.0347428 0.31649628 0.16334818
000170 f1 ba 94 be f0 9c ea 3e 73 4e 3b bf dc f8 a1 be
       -0.29048875 0.4582286 -0.7316658 -0.31635177
000180 ee 51 de 3e 38 aa 34 bf dc 8f 92 bf 22 f6 8a 3d
       0.43421882 -0.70572233 -1.1450152 0.06785227
000190 89 5c b3 be 9e 80 e6 be d0 5e a6 3d e5 a4 21 bf
       -0.35031536 -0.45020002 0.08123553 -0.63142234
0001a0 c7 a8 c6 be 32 45 37 3f 5a 2d ed bc 4b 16 83 bf
       -0.38800642 0.7158996 -0.02895229 -1.0241178
0001b0 3a b8 d8 be 4c 01 15 bf 3c e4 d5 be 83 85 20 3e
       -0.42328054 -0.58205104 -0.41775692 0.1567593
0001c0 4e 46 ea be 36 4a 56 3e d1 f2 59 3d df 8e de 3e
       -0.45756763 0.20926747 0.053210083 0.43468377
0001d0 1c 4e 80 3e b5 1e 08 3f bb d9 45 3f c5 52 5a be
       0.25059593 0.53171855 0.77285355 -0.21320637
0001e0 ea 07 8f 3d b5 cf 3e bf 45 4a 11 3e 62 5c 17 bf
       0.06983931 -0.74535686 0.14188488 -0.5912534
0001f0 bf ef 11 bf a0 f1 8a 3e a8 35 0d be ff 04 30 3f
       -0.5700645 0.2713747 -0.1379 0.68757623
000200 d4 0c ff 3e 9f 9c df 3e f3 2f 99 3e 92 2e 44 3f
       0.49814475 0.4367418 0.29919395 0.7663356
000210 cb 6b 1f bf e5 cc 8a be 44 96 3c 3e 70 fd 99 3e
       -0.62273854 -0.27109447 0.18416697 0.3007617
000220 1b 3c 13 be 34 0c 5f 3e 6b 80 77 bf 9e 31 d2 be
       -0.14378397 0.21781999 -0.96680325 -0.4105348
000230 a7 e8 7b 3f 62 72 6b bf 10 01 d6 3c 49 cd 40 3f
       0.98401874 -0.9197141 0.026123554 0.7531324
000240 ee aa a6 bf a9 aa a4 be 4f 7b fc 3d 2e 01 d6 bf
       -1.3020914 -0.32161453 0.12328207 -1.671911
000250 b3 7c af 3e 57 10 e4 3e 0f 26 02 3f c0 49 fe 3e
       0.34274825 0.44543716 0.5083932 0.49665642
000260 e8 28 b7 be 58 86 fb 3e 82 d3 36 be 13 eb 5e 3e
       -0.35773396 0.49125934 -0.17854121 0.21769361
000270 b4 82 d1 be cc 8e bd 3e 90 77 0a be 02 2a 52 bd
       -0.4092003 0.37023008 -0.13522172 -0.051309593
000280 98 a0 41 bf ef d0 86 3e 57 48 a2 bf 1b da b9 3f
       -0.7563567 0.2633128 -1.2678326 1.4519686
000290 c2 99 1a 3f cf d1 e1 3e 0e d2 30 3e 22 9d 46 3e
       0.60390866 0.44105384 0.1726763 0.19395879
0002a0 b7 c5 76 3f 4c 28 ce be f9 9f 80 bf f6 75 c3 3e
       0.9639544 -0.4026512 -1.004882 0.38175935
0002b0 65 44 14 bf 99 c0 57 bf af cc 8f bf 65 4f ef be
       -0.5791686 -0.84278256 -1.123434 -0.4674026
0002c0 8a c2 91 bc cc b9 10 3d 58 e8 9e 3d 9d a7 b1 3e
       -0.017792959 0.03533344 0.0775916 0.3469819
0002d0 6d 6a 8d bd c0 5d a8 be bf 13 65 bf cf e2 99 3e
       -0.06905065 -0.32884026 -0.89483255 0.30055854
0002e0 db 53 fb 3e 3e a4 27 bf d4 55 8c bf e9 35 df bf
       0.49087414 -0.6548499 -1.0963693 -1.7438327
0002f0 6f 7e 30 be c8 2a 68 bf 48 61 b3 bd 99 f7 06 3f
       -0.1723573 -0.9069028 -0.08758789 0.52721554
000300 eb 60 8a 3e a6 71 3d bf 39 b1 ad 3e ea a0 8d be
       0.27027068 -0.7400154 0.33924273 -0.2766183
000310 0f d7 81 bf ce 05 ec bd 70 08 58 bf c0 8f b4 3d
       -1.0143756 -0.11524545 -0.84387875 0.08816481
000320 cd 50 48 bf 5d 14 c2 3d 23 80 bc be 3e ab 10 3f
       -0.7824829 0.0947654 -0.3681651 0.56511295
000330 36 ec f8 be cb 26 f0 be 44 dc 22 bf 4b ad 0d be
       -0.48617715 -0.46904597 -0.6361735 -0.13835637
000340 d7 5d 81 be d7 eb 8a bf fc ee 5e 3d 97 06 4b bf
       -0.25266907 -1.0853223 0.054427132 -0.7930693
000350 d0 63 b4 3d 64 a4 14 be b0 e0 3e bf a4 97 ae 3e
       0.088081 -0.14515835 -0.74561596 0.34100068
000360 f9 70 16 3e c8 fa 91 be 04 09 0a 3f 05 5f 50 bd
       0.14691533 -0.28511643 0.53920007 -0.050871868
000370 7b c8 fe 3e e5 d8 6b bb 87 73 62 3f 45 3c ac bd
       0.4976233 -0.0035987434 0.8845753 -0.08409933
000380 ff 3b c5 bf ff 35 57 3f 22 33 72 3f 93 7c 2d 3f
       -1.5408934 0.84066767 0.9460927 0.6776821
000390 e1 43 ea 3e 21 18 96 3e c3 6d 52 bf 35 aa 6c 3f
       0.45754912 0.29315284 -0.82198733 0.92447215
0003a0 7b 53 55 be fe 9b 19 be c4 3e cb 3d 46 46 6c 3b
       -0.20832627 -0.15000913 0.09924081 0.0036052628
0003b0 5c 7f 47 bf ee 5b 08 3f b3 fe 7d 3f 3e b3 52 3f
       -0.7792871 0.53265274 0.99216765 0.8230475
0003c0 24 9d 8c 3f 9e db 77 3f 91 e8 8f 3f f6 5e 94 3f
       1.0985456 0.96819484 1.1242849 1.159148
0003d0 28 e1 95 3e 25 e6 30 3a 45 56 9a bd b1 a5 87 be
       0.29273343 0.00067481614 -0.07535986 -0.264936
0003e0 7f 5c 89 bf fd f2 c1 be 24 74 c6 be d8 ea c7 3e
       -1.0731353 -0.37880698 -0.38760483 0.3904636
0003f0 da 23 4e 3f 42 31 09 3f 5b 00 07 bf a0 25 c2 3f
       0.80523455 0.53590786 -0.5273492 1.5167732

bias f4 [16]
000000 3f 96 0e 3f 9d 5c 85 3c 4d c2 99 bd ea ba 67 be
       0.5569801 0.016279513 -0.07507763 -0.22629896
000010 7c 0a d1 3e a8 9b 47 bf 16 8f 93 be 47 59 a0 bd
       0.4082831 -0.7797189 -0.28820103 -0.07829528
000020 fb 6d 2e 3f 0e f6 77 3e 85 31 3c 3f 65 4f 69 3d
       0.68136567 0.24214956 0.7351306 0.056960482
000030 87 80 a3 3e 05 a3 1e bf e5 18 07 bf 64 df 8e be
       0.31933996 -0.619675 -0.5277236 -0.2790481

weight f4 [16]
000000 e0 b9 90 3f 55 a9 5d 3f 2e 24 bf 3f 15 2b b0 3f
       1.1306725 0.86586505 1.4932916 1.3763148
000010 e1 5d 6a 3f cb b9 17 3f f0 cf 2e 3f 6f ad 91 3f
       0.915495 0.5926787 0.6828604 1.1381053
000020 df eb 22 3f 2d be c1 3f 5e 49 5f 3f 99 7b 8d 3e
       0.6364116 1.5136162 0.87221324 0.2763336
000030 27 a7 57 3f ba 51 1e 3f 14 40 d2 3f 66 e7 b2 3f
       0.8423943 0.61843455 1.6425805 1.3976867

bias f4 [16]
000000 34 3f c8 3e 4b db 63 be 08 bd 47 3f 80 66 84 3f
       0.3911072 -0.22251622 0.78022814 1.034378
000010 90 67 69 3c ae fe 36 be 46 1c 83 3f 0f 65 0d 3f
       0.014245883 -0.1787059 1.0243003 0.5523233
000020 83 f3 06 3d 2a 58 a3 3f e4 07 00 40 3f 90 0f 3f
       0.032947075 1.276128 2.0004816 0.5607948
000030 da e2 b6 be 5f d1 ce 3d f2 b2 7f be 38 13 9e be
       -0.3571995 0.10098528 -0.24970606 -0.30874038

running_mean f4 [16]
000000 3c 17 ad c0 03 d9 52 bf 40 ed a7 3f c0 fa 8c bf
       -5.409086 -0.82362384 1.3119278 -1.1014023
000010 c0 c1 fe bf d4 49 48 bf 31 4e 81 bf 59 44 6b c0
       -1.9902878 -0.7823765 -1.0101987 -3.6760466
000020 69 68 29 c0 ef 71 65 40 3c fd 9f 40 59 3d a4 3e
       -2.6469977 3.585079 4.9996624 0.32078055
000030 5d 0f 6b bf 76 01 82 c0 e9 6e 9d 40 25 05 9f 40
       -0.9182032 -4.0626783 4.919789 4.969378

running_var f4 [16]
000000 bc c0 1e 42 2e bd e8 40 04 5e 05 42 52 c0 9e 41
       39.688217 7.273093 33.341812 19.843906
000010 98 63 80 41 11 47 ee 40 9f 81 30 41 d6 85 83 41
       16.04863 7.446175 11.031646 16.44035
000020 99 33 be 41 e4 75 93 41 c3 ae 8f 41 b6 e9 1f 41
       23.775194 18.432564 17.960333 9.994558
000030 df 18 e3 40 a7 50 ad 41 d1 9b a8 42 2d b6 ba 42
       7.096786 21.664381 84.30433 93.35581

weight f4 [16, 16, 3]
000000 18 e9 57 bf 64 59 12 bf b1 1a bc 3e 68 cc 1b bf
       -0.8434005 -0.5716765 0.36739114 -0.60858774
000010 c3 45 8b be 52 e3 7e be 82 c2 2c bf 03 07 14 3f
       -0.2720166 -0.24891403 -0.67484295 0.578232
000020 b2 eb 5e 3f e1 69 b8 be 60 61 13 bf 79 55 a6 3d
       0.8707839 -0.3601828 -0.5757046 0.08121771
000030 5e 47 54 bf e7 f5 98 be 12 d1 4a 3f 79 8a ee be
       -0.829214 -0.2987511 0.79225266 -0.4659002
000040 22 ad 10 3f 1d f6 96 bd a4 ee 23 bf c9 0f f3 be
       0.5651418 -0.07371161 -0.6403601 -0.4747298
000050 05 36 e3 3e d4 8f 2f be 9d 24 1a 3f 07 20 a9 3c
       0.4437715 -0.1714471 0.6021212 0.020645155
000060 3d 44 9d 3e 5f ba 81 3e 29 e8 03 bf 07 97 80 bf
       0.30716124 0.25337502 -0.51526123 -1.004609
000070 48 2f e8 3e e4 d9 f0 3e 85 fd a0 be d4 0d 91 be
       0.45348573 0.47041237 -0.3144342 -0.28330863
000080 c7 ac 64 be 45 19 f6 be 64 57 55 3e 52 4a 9d 3d
       -0.22331534 -0.48066154 0.20834118 0.07680191
000090 22 88 ba bc b0 e1 92 3b a5 17 11 be 02 ee 57 3f
       -0.022769991 0.0044824705 -0.14169176 0.84347546
0000a0 34 74 ab 3e 95 37 28 bf c7 4b 1f bf ee 13 91 be
       0.33487093 -0.6570981 -0.62225 -0.28335518
0000b0 7f 2c 53 3e 0b bf 4d bf 6e a1 5a be 00 5c 80 3e
       0.20622443 -0.80369633 -0.21350643 0.2507019
0000c0 f8 e7 ae be 6d 3a 0d 3f 88 93 7c 3e 5d b7 b7 be
       -0.34161353 0.55167276 0.24665654 -0.35882083
0000d0 7b 91 bb bf 64 38 84 bf bf 59 0f 3c 50 50 87 3e
       -1.4653772 -1.0329709 0.0087494245 0.2642846
0000e0 bb 89 23 3f 18 ac 4e bf 00 14 8e bf d0 1d d6 bf
       0.63882035 -0.80731344 -1.1099854 -1.6727848
0000f0 f6 9c ea 3d 38 97 d4 3b 67 87 9e bd 49 86 29 bf
       0.11455719 0.0064877532 -0.0774067 -0.6622053
000100 12 4f d5 3c f4 d4 b7 3d 1e 18 7a bf 01 56 2b 3d
       0.02603868 0.089761645 -0.9769305 0.041830067
000110 b0 48 8d 3e 17 e6 8d 3d ff 44 2e 3d 0d ac a5 3f
       0.2759452 0.06928652 0.04254627 1.2943131
000120 6f 7e 1d bf e0 f9 5e 3e 4a 25 e5 3e 92 fb 4a bd
       -0.6152105 0.21775007 0.44755012 -0.049556322
000130 4b 60 06 be 32 66 d4 3e 67 33 2f bf 3d 46 a7 bf
       -0.1312267 0.4148422 -0.6843781 -1.306831
000140 76 a4 1e bf a9 f8 dc 3d 5a 56 ea bc 44 af 2b 3f
       -0.619697 0.10789616 -0.028605629 0.6706431
000150 49 59 a2 bf 05 ee e4 bd 42 62 2a bf 54 2f 08 bd
       -1.2683498 -0.11178211 -0.6655618 -0.03324826
000160 e5 c5 e0 3e 95 7a 2d 3f ca 2d 28 bf d1 8c a2 be
       0.43900982 0.6776517 -0.6569487 -0.3174806
000170 55 bd 66 be 40 fc 43 bf e2 9b ca be d9 ed 3c be
       -0.22533162 -0.7655678 -0.39572054 -0.18450107
000180 fd d6 2a 3e 43 d0 04 3f 56 c2 b8 bd 14 dc 2a bf
       0.16683574 0.5188028 -0.09021442 -0.6674206
000190 f1 74 b7 bd d5 49 22 bc 01 91 d4 3f c8 df d9 3e
       -0.08957852 -0.009905298 1.6606752 0.42553544
0001a0 6a 58 03 bf 5b 31 ee be 9a dd 15 bd 6b 7b 7c 3e
       -0.51306784 -0.4652203 -0.03658829 0.24656455
0001b0 6a c8 8e 3f 3a 09 cb 3e 9f 72 1e be ae b8 b1 3c
       1.1154912 0.39655477 -0.15473412 0.021694507
0001c0 6a 26 80 be 86 81 27 3e 3f 48 93 3f bf 2b ba be
       -0.25029308 0.16358003 1.1506423 -0.363615
0001d0 9c f6 da be 23 22 2c 3e 90 50 0d bf e8 21 38 bf
       -0.42766273 0.16809897 -0.55201054 -0.71926737
0001e0 1d 48 0c be dd d4 e7 bd 48 c9 d4 be 2e 0c af 3f
       -0.13699384 -0.11319897 -0.41559815 1.3675592
0001f0 e5 14 b5 3e cb 38 20 bf 9a 71 82 be f2 e8 0a bf
       0.35367504 -0.6258666 -0.25477296 -0.54261696
000200 cd 59 e4 be 2b c6 fc 3d 10 d9 32 be c2 1f b8 be
       -0.44599763 0.12342485 -0.17465615 -0.3596173
000210 fd cb ee be 42 dc 02 3e 77 41 4b 3e 19 1d ac be
       -0.46640006 0.12779334 0.19849192 -0.3361595
000220 f1 d4 81 3d ad 81 fa 3e 62 fc 8c be 6b 55 ce bc
       0.063394435 0.4892706 -0.27536303 -0.025187215
000230 a3 95 3c 3e 71 91 75 be f3 f6 13 be 67 34 f2 3d
       0.18416457 -0.23981263 -0.14449672 0.11826401
000240 46 17 2f 3e 63 5d aa be 87 20 7b 3e 54 ab 55 bf
       0.17098722 -0.33274373 0.24524127 -0.8346455
000250 00 9e 4b be aa 08 55 bf 2b 8a 04 3f 97 4e 39 bf
       -0.19884491 -0.83216345 0.5177333 -0.72385544
000260 45 91 6a be c5 72 2d be 68 3c d2 bd 36 80 8a bf
       -0.22906978 -0.16938312 -0.10265428 -1.0820377
000270 c6 37 e3 3e a3 11 10 bf 29 17 07 bf 37 77 d3 bf
       0.4437849 -0.5627691 -0.52769715 -1.6520756
000280 73 6d 19 bf e3 8e 2a 3e 75 b6 e8 be 0b 45 05 bf
       -0.5993263 0.1665607 -0.45451704 -0.52058476
000290 18 49 80 bf c7 16 1c bf b3 28 16 bf e0 54 16 3f
       -1.0022306 -0.60972255 -0.5865585 0.5872326
0002a0 58 82 1a bf 2e 36 27 be 80 26 dc 3e 5b 66 5a 3f
       -0.6035514 -0.16329262 0.42998123 0.8531243
0002b0 9c 60 0a bf 13 50 3b bf ac 97 aa 3e 0c d6 15 3e
       -0.54053664 -0.7316906 0.3331884 0.14632434
0002c0 54 f7 1d bf 7d e5 50 bf 3f 5c 6c be f9 fc 98 be
       -0.6170552 -0.8160017 -0.23082064 -0.29880503
0002d0 ee f5 98 3e 72 ba 5f be 1f 15 97 bf 6c aa 8c bf
       0.2987513 -0.21848467 -1.1803321 -1.0989509
0002e0 3f 5e 68 3c 10 a4 70 3f e2 a2 b0 3e 34 b2 60 be
       0.014182626 0.9400034 0.3449927 -0.21942979
0002f0 78 d8 7e bf 45 ae fc 3e 27 9a 37 3d d6 db 2f bf
       -0.99549055 0.49351707 0.044824746 -0.6869482
000300 ac f7 3d bf ff c4 ca bf 75 fa ec bf f0 86 cb be
       -0.7420604 -1.5841368 -1.8513933 -0.39751387
000310 74 f1 ea 3c 1d 24 dc bd e0 f0 18 bf a9 ef 46 bf
       0.028679587 -0.107490756 -0.59742546 -0.7770944
000320 fa ab 22 be f1 a0 5f 3e a0 e2 68 be 31 01 cf 3e
       -0.15885916 0.21838738 -0.227427 0.40430596
000330 dd 42 1f 3c 3e ea 89 bd e9 da eb be 78 2b 02 c0
       0.009720531 -0.06734131 -0.46065453 -2.0339031
000340 ea 29 ab bd 6d 9c d6 3d f0 59 2c 3f 27 b1 5b bf
       -0.08357604 0.104790546 0.67324734 -0.8581719
000350 c5 0f 1a 3e b3 69 0b c0 4b 2f bd bc 49 3d 66 bf
       0.15045078 -2.1783264 -0.02309384 -0.89937264
000360 11 86 6c bf e4 fc c7 bd 5e 2c 87 bf ae eb 67 be
       -0.9239207 -0.09765032 -1.0560415 -0.22648498
000370 0e 24 cd be 8c 39 c2 3e 6e 8e 56 be 52 ab e2 3d
       -0.4006657 0.3793453 -0.2095277 0.11067833
000380 0f 75 09 bd d4 07 01 bf 33 bc c0 be 1b 7e bd 3d
       -0.0335589 -0.5040257 -0.37643585 0.09252568
000390 a2 8c 3d bf 48 75 bc bf 83 58 76 3f 88 82 23 bf
       -0.74042714 -1.4723291 0.9622881 -0.6387105
0003a0 cc e5 f5 bc d7 f1 49 bf 3e e3 29 be 4e 68 13 bf
       -0.030016802 -0.78884643 -0.16590592 -0.5758103
0003b0 4d ee 15 3f 81 c6 2c 3e 42 98 1f bf f9 fd cb 3e
       0.58566743 0.16872598 -0.623417 0.39842203
0003c0 60 4f 19 bf e7 16 9c 3b 66 7b d6 3e 4e 94 84 3e
       -0.5988674 0.0047634724 0.4189102 0.25894397
0003d0 52 6c 69 bf ae 1b 17 be 43 ab f9 be fd 30 97 3e
       -0.9118091 -0.14756653 -0.48763475 0.29529563
0003e0 b9 9a 75 3f 75 1d 47 3e 22 31 84 be 2a ad c8 bf
       0.95939213 0.1944483 -0.25818735 -1.5677845
0003f0 1a 12 be be 34 9f 19 bf 3f a3 9f 3e 19 dd 38 bd
       -0.37123185 -0.6000855 0.31179234 -0.04513273

bias f4 [16]
000000 45 0a 05 3e 4f 99 46 bf e7 69 28 3f 91 e0 99 bf
       0.12992199 -0.7757768 0.65786594 -1.2021657
000010 b5 5b ce 3d 71 6a 22 3f 96 d6 19 be f0 20 54 3e
       0.100760855 0.63443667 -0.15023264 0.2071569
000020 55 81 81 3d 73 ca 0c 3f 91 cd be bd 85 2f 8d 3f
       0.06323496 0.54996413 -0.093165524 1.1030127
000030 e7 5f 0d 3f 32 3e 93 3e 63 be 28 bf 44 c7 12 3f
       0.5522446 0.2875839 -0.6591551 0.57335305

weight f4 [16]
000000 be d9 11 3f 5d 51 a1 3f 57 67 de 3f e8 78 c2 3f
       0.56972873 1.2602955 1.7375287 1.5193148
000010 a7 58 98 3f ac 00 ef 3f 9b ae 2e 3f 9e ee 7c 3f
       1.1902055 1.867208 0.68235177 0.988016
000020 9e ad 73 3f 41 39 81 3f d1 a6 ea 3f bc ac 80 3f
       0.95186794 1.0095598 1.8332158 1.0052714
000030 94 19 9e 3f a9 10 8e 3f d9 07 89 3f a7 2e f8 3e
       1.2351556 1.1098834 1.070552 0.48473093

bias f4 [16]
000000 5e 88 6e be 6e 6f 21 bc 6a 9f 42 3f 18 64 91 3e
       -0.23294207 -0.009853227 0.76024497 0.28396678
000010 6c ef 39 3e 39 d2 13 3f e5 1b 77 3f 65 e9 87 bf
       0.18157738 0.5774265 0.9652694 -1.0618101
000020 de 3d 4c bd 29 00 d2 3e 6e 85 8b 3e e9 17 5b bf
       -0.04986369 0.41015747 0.27250236 -0.8558336
000030 31 fc ed 3e a3 85 60 3d 2f e5 7c bf 56 c1 3a bf
       0.4648147 0.054814946 -0.98787206 -0.7295126

running_mean f4 [16]
000000 49 88 8e c0 7c 50 32 c1 55 57 a8 3e 2e 61 2f c1
       -4.4541364 -11.1446495 0.3287913 -10.9612255
000010 bb 22 32 c1 4b 8f 52 40 c5 48 3a c1 c3 7a 93 40
       -11.133479 3.289996 -11.642766 4.6087356
000020 4d 5d c4 3f 72 cb 18 40 52 5c e8 c0 95 f6 3a 40
       1.5340973 2.3874173 -7.2612696 2.9213002
000030 b0 cd 88 3f c9 00 84 40 bd a2 f8 40 52 7e 9b 40
       1.0687771 4.125096 7.7698655 4.85917

running_var f4 [16]
000000 88 ba a1 41 78 d9 dd 42 5c 7c 15 42 df f6 a0 41
       20.21608 110.92474 37.371445 20.120543
000010 08 a8 36 42 17 d9 12 42 7b e2 3a 42 9a a7 0d 42
       45.664093 36.712 46.721172 35.413673
000020 2e 90 1d 42 9c 43 8c 42 19 c6 03 42 51 e9 b8 41
       39.3908 70.13205 32.943455 23.113924
000030 4f b0 a2 42 66 04 09 42 08 1d 30 42 bc d9 64 41
       81.34435 34.254295 44.02835 14.303158

weight f4 [32, 16, 3]
000000 e8 a9 84 bf 10 af c5 3d 37 e0 cd be 34 0f 53 bf
       -1.0364351 0.09652531 -0.40210125 -0.82445073
000010 bc 74 3e 3e 40 84 dd 3e 5d ef 8c bd f8 0b f7 be
       0.18599218 0.4326496 -0.068815924 -0.4825132
000020 6b 1d 16 3f 9a ba 40 3f aa 23 19 3e 06 8c 8c bc
       0.5863864 0.7528473 0.14955011 -0.017156612
000030 8f 9a e7 3d c0 33 b0 be d6 6e e7 be 9f 35 f5 3e
       0.113087766 -0.34414482 -0.4520175 0.47892472
000040 c9 e9 9e 3e fe 9d 05 be dc b3 5d bf 0e ff 0d bf
       0.3103774 -0.1304855 -0.8660257 -0.5546731
000050 b0 a5 95 3f f9 cf 32 be a4 5e 88 bd 1b d7 21 be
       1.1691189 -0.17462148 -0.06658676 -0.15804712
000060 a5 f8 ff 3e e4 23 7d 3d 45 aa 66 3e cf a5 00 bf
       0.49994388 0.061801806 0.2252589 -0.50253004
000070 32 cd a5 bf c3 7c ab bf c3 ba c4 bf 43 a4 1d c0
       -1.2953246 -1.3397449 -1.5369495 -2.4631507
000080 4a f3 c4 be 4a 55 f4 be 30 be 43 be be 55 a2 be
       -0.38466865 -0.4772132 -0.1911552 -0.3170604
000090 6a 95 b8 bc b2 10 a7 3e 73 97 0e 3f 10 ec 28 3f
       -0.022532184 0.32629925 0.55699843 0.659852
0000a0 74 83 54 3e 4f 80 9d 3e 2a e2 e9 be fe 7f 7f bf
       0.2075327 0.30761954 -0.45680362 -0.99804676
0000b0 69 ba 23 bf d6 c4 18 3f 36 74 8b 3e c4 0e 20 bf
       -0.63956314 0.5967535 0.272371 -0.6252253
0000c0 65 24 f7 bb c7 82 32 bf 22 f1 b9 be dc bb c4 bc
       -0.0075421804 -0.697308 -0.36316782 -0.02401536
0000d0 69 f9 d9 be bc 70 ba 3e 44 11 71 bf cf e8 62 bf
       -0.42573097 0.36414135 -0.9416697 -0.8863649
0000e0 eb 08 38 3e 2c 7d 24 bf a6 89 60 be df 29 2d 3f
       0.17972152 -0.642535 -0.21927509 0.67642015
0000f0 d8 ff 9e 3e 39 b8 d1 be d0 12 20 bf df 03 e9 bc
       0.31054568 -0.40960863 -0.62528706 -0.028444229
000100 5d e5 3a be 48 7c 59 be d0 b7 49 bf ee 3e c9 be
       -0.18251558 -0.21238816 -0.787961 -0.39305824
000110 15 3c 9d 3f 45 7a 38 3f 91 81 1c 3f 6d 88 28 bf
       1.228396 0.7206157 0.611352 -0.6583317
000120 da 6f 37 bf 96 48 e7 3e a5 b4 cc be 34 f7 ca 3e
       -0.71655047 0.45172566 -0.3998157 0.39641726
000130 74 17 10 be d5 52 a7 bd 48 8b de 3f f8 7a ee be
       -0.14071447 -0.08170096 1.7386255 -0.46578193
000140 09 4e 9b bf ec 0f fa 3e e4 82 dd bd a5 04 66 bf
       -1.213319 0.48840272 -0.10815981 -0.89850837
000150 96 a4 89 bf 0a f1 28 bf c4 c8 07 be e3 ca 8c bf
       -1.0753353 -0.65992796 -0.1326018 -1.0999416
000160 a0 91 12 3f ff 00 99 3e 4e 0a 2d 3f 31 cc bf 3e
       0.57253456 0.29883572 0.6759385 0.37460473
000170 00 a0 ff 3e e7 fb d9 be 8d 60 1b 3f 64 d1 a9 be
       0.49926758 -0.42575 0.606942 -0.33167565
000180 7b 21 5f be bb af 0c be 8b ca 2e be 98 6d 05 3e
       -0.21790116 -0.13738911 -0.17069452 0.13030088
000190 bd 24 b8 3e d1 e0 9a 3e 0e 57 26 bf ec ce f9 be
       0.3596553 0.30249646 -0.64976585 -0.4879068
0001a0 f6 a7 ff 3e 35 e1 0c bf b5 69 90 be c7 4f cb 3e
       0.49932832 -0.5503114 -0.28205648 0.39709303
0001b0 86 58 24 bc a9 4d 34 3f 2c cf 10 3f 16 28 47 bf
       -0.010030871 0.70431 0.5656612 -0.7779554
0001c0 5a e6 ac be bc 22 b7 be 53 cf 36 bf cf bb a1 3a
       -0.33769494 -0.35768688 -0.714101 0.0012339297
0001d0 cf f7 8e 3e cf 42 77 3f 4f 61 f8 3d 7a 11 55 be
       0.27923438 0.96586317 0.12127935 -0.20807448
0001e0 9b de a5 be 60 18 f3 bd dc 29 b6 be f2 37 8b 3e
       -0.32396397 -0.118698835 -0.3557881 0.2719112
0001f0 9c ae 7c 3f 5f 19 25 3f ec d7 e6 3f 80 12 88 be
       0.9870393 0.6449184 1.8034644 -0.26576614
000200 21 8b 67 bf 77 00 24 3e 04 20 04 3f 20 69 c4 be
       -0.9044667 0.16015802 0.5161135 -0.38361454
000210 1c 02 f6 be 9e 39 8c be f5 2e 54 be 7c ed 8f be
       -0.48048484 -0.27387708 -0.20721038 -0.28110874
000220 18 22 d3 3d 68 54 12 bf 63 4d 83 3f b8 8f 37 3f
       0.10309237 -0.57160044 1.0257992 0.7170367
000230 7a f5 c7 3e 02 80 06 be 94 18 1e 3f 4d 7b 09 bf
       0.3905447 -0.13134769 0.61756253 -0.5370377
000240 54 ae 94 3e 5e 35 8d be 10 a0 ad be 13 1f e6 be
       0.29039252 -0.27579778 -0.3391118 -0.44945583
000250 1d 96 5f bf 09 21 85 bf 74 3c cf be ef e6 39 bd
       -0.8733843 -1.0400707 -0.4047581 -0.04538625
000260 07 db a0 be c7 2f 80 bf fe 2e 1b bf 2f 74 92 bf
       -0.31417105 -1.001458 -0.6061858 -1.1441706
000270 6d be 04 bf 59 d1 70 bf a1 5d aa be fa e9 db 3d
       -0.51853067 -0.9406944 -0.33274558 0.10737987
000280 de f0 39 bf 3f b0 1c bf a1 d2 e2 be a3 07 fb bd
       -0.7263316 -0.6120643 -0.44301322 -0.12257316
000290 74 81 8e be d7 74 c5 3d 76 2d 03 3e a1 a4 53 bd
       -0.2783314 0.09641426 0.1281031 -0.051670674
0002a0 92 0b 25 3f ce 52 b8 3e a7 15 02 3d f4 e4 b0 bf
       0.6447078 0.36000675 0.03175893 -1.3819871
0002b0 1f c5 85 bf f1 20 47 bf 8c c0 20 bf ec 32 d4 be
       -1.0450782 -0.7778464 -0.62793803 -0.414451
0002c0 c0 c7 eb bd 9f 34 5e 3e a3 df df be 7e f4 ff be
       -0.11512709 0.21699761 -0.4372531 -0.4999122
0002d0 98 04 42 3f 73 57 2b 3e ca ee a4 be 42 b6 80 3e
       0.7578826 0.16732578 -0.32213432 0.25139052
0002e0 9e 47 6f 3e 81 88 bf be 20 2e 32 bf b0 8b 94 bf
       0.23367164 -0.37408832 -0.6960163 -1.1605129
0002f0 16 1c f6 be b6 ea 6c be e8 23 82 bc 6c 38 a1 be
       -0.48068303 -0.2313641 -0.015886262 -0.3148836
000300 03 83 5d bf 3c f8 3a 3e c4 4e b7 be 56 9f 73 bf
       -0.86528033 0.18258756 -0.3580228 -0.95165
000310 6a d9 70 be 2b c9 d7 be e3 94 46 bf 37 fb f0 be
       -0.23520437 -0.42145666 -0.77570933 -0.47066662
000320 7d 4e c3 3e 28 a4 ad 3e dd 55 31 3d 0b 23 1f 3f
       0.3814582 0.33914304 0.043294776 0.62162846
000330 72 8d 86 3f d6 61 ca be ef ac bf bf 81 e5 ff 3e
       1.0511916 -0.39527768 -1.497465 0.49979785
000340 7a 7f be 3f 31 d6 c0 3e 22 b6 89 bf 95 ef e2 be
       1.4882653 0.37663415 -1.0758708 -0.44323412
000350 25 d8 00 3f b3 c7 0c bf 38 9b 8c 3d c5 af 4d bf
       0.5032981 -0.54992217 0.06865543 -0.8034633
000360 44 75 13 be 65 3a 0b bd d9 47 5c be 65 ca 4a 3f
       -0.14400202 -0.033991236 -0.21511783 0.7921508
000370 65 f9 0c 3c bf 50 5e bf 2c 15 93 be d2 96 74 be
       0.008604382 -0.8684196 -0.2872709 -0.23885658
000380 f6 4f c8 3f dc b9 21 3e 7e ab 1f 3e 3f 36 9a be
       1.5649402 0.15793556 0.15592763 -0.3011951
000390 7d eb 67 bf 4f 3b 93 3e 32 16 1d bf e5 5b 7e be
       -0.905937 0.28756186 -0.6136199 -0.24839742
0003a0 d5 13 0a 3f 74 cf 49 3e 92 0c 47 be 2a 61 2e bf
       0.5393651 0.19708043 -0.19438389 -0.6811701
0003b0 fd a4 86 bf 48 b8 bf 3e 8e 71 11 bf bb cd 1a be
       -1.05191 0.37445283 -0.56813896 -0.15117542
0003c0 ce 84 7d be 36 c0 23 3d 2a 4a e6 3c a5 c1 23 3f
       -0.24757692 0.03997823 0.028111536 0.63967353
0003d0 06 9c 7c 3e 74 97 ae 3d dd c1 0e bf 71 3f e6 3d
       0.24668893 0.08524981 -0.5576456 0.11242569
0003e0 56 d7 1c 3e e5 b2 d5 3c 83 e2 0f 3f d6 2e 3b 3f
       0.15316519 0.02608628 0.56205004 0.7311834
0003f0 e1 72 b8 be 60 bf 92 3e c3 2d 75 3e ea 79 e8 3e
       -0.36025146 0.28661633 0.23943238 0.45405513

bias f4 [32]
000000 e2 d1 9c 3c 4e 8b 23 bf c9 a8 45 bf 0e 0c c4 bd
       0.019143049 -0.6388444 -0.7721067 -0.09572612
000010 4e c8 da be 6d 3e 15 bf 61 a9 b6 3e 24 6d 35 3e
       -0.42730945 -0.5829838 0.356761 0.17717415
000020 e3 3e 15 bf 02 b8 89 3f 43 76 b5 3b d5 1c 56 bf
       -0.5829908 1.075928 0.0055377795 -0.83637744
000030 ca 08 9a be 15 e4 a8 be fc e1 9b be ec 13 32 3f
       -0.3008483 -0.32986513 -0.3044585 0.6956165
000040 d8 69 c3 bf 8a 86 fd 3e 2c 71 14 3e c4 03 c1 be
       -1.5266676 0.49516708 0.14496297 -0.37698185
000050 f4 82 4d bf 79 8e ab 3f d6 82 08 3f 54 34 16 3f
       -0.80277944 1.3402854 0.5332464 0.58673596
000060 be b6 0d 3f 41 64 80 be f3 01 e3 3d 67 00 e9 bc
       0.5535697 -0.25076488 0.11084356 -0.028442575
000070 28 1a a9 bf da 60 cd be 2b 6f b0 3d 7c 09 38 be
       -1.3211107 -0.40112954 0.086149536 -0.17972368

weight f4 [32]
000000 7d 62 28 3f 3f e9 8c 3f 25 66 76 3f 2b 79 01 3f
       0.6577528 1.1008681 0.9624961 0.5057551
000010 40 81 bd 3f 8f 71 85 3f ec f2 00 3f eb 0d 39 3f
       1.4805069 1.042528 0.5037067 0.7228686
000020 45 0d 86 3f d7 b6 b0 3f cb b0 25 3f d1 d5 ac 3f
       1.04728 1.3805798 0.6472289 1.3502752
000030 ed 3e 9a 3f 17 73 bc 3e c2 71 bd 3f 6a e6 63 3f
       1.2050453 0.36806557 1.4800341 0.8902346
000040 0f 9b c7 3f cf e7 b0 3f 92 50 a0 3f 4f 93 94 3f
       1.5594195 1.3820742 1.2524588 1.1607455
000050 7f a7 be 3f 7a 63 c2 3f 77 e2 b6 3f 38 27 bd 3f
       1.4894866 1.5186608 1.4287862 1.4777594
000060 1c ab 67 3f ae d8 bd 3f b3 57 c8 3f cc be 8c 3f
       0.9049547 1.483175 1.5651764 1.0995727
000070 51 02 00 40 69 77 57 3f e3 bd 98 3f 27 c7 d0 3f
       2.0001414 0.8416658 1.1932949 1.6310776

bias f4 [32]
000000 af ba 68 3e 05 99 ab 3e 6d 47 f5 be 5c a2 33 3d
       0.22727464 0.33515182 -0.47906056 0.04385601
000010 d0 4c aa 3d 0e 37 ae bf 76 50 28 bf 4e 42 07 bf
       0.08315432 -1.3610551 -0.65747774 -0.5283555
000020 76 52 4c 3e ee 49 34 3e 26 3d 02 bf a1 ee db bc
       0.19953331 0.17606327 -0.50874555 -0.026847186
000030 03 d1 8c 3e 0e cf da be 21 14 82 3d 58 c1 be 3f
       0.27503213 -0.42736095 0.063514955 1.4902754
000040 2f 9c 24 3e 02 6f 4e be 14 f5 d4 3e 92 54 dd bd
       0.16075204 -0.20159534 0.4159323 -0.10807146
000050 20 65 83 bd ff 96 2d 3f 4c a9 5c 3f 65 79 1f be
       -0.064157724 0.67808527 0.86195827 -0.15573652
000060 9e 7e f3 bd ba 31 da be b7 96 9a 3e 02 3d 7c bf
       -0.11889385 -0.42616063 0.3019311 -0.9853059
000070 76 e0 76 bf d6 de a6 bf 0d 24 fb 3e c9 79 1e bf
       -0.9643625 -1.3036754 0.49050942 -0.6190458

running_mean f4 [32]
000000 99 21 7f c0 94 e0 8e c0 1e c5 ee bf 13 02 17 c1
       -3.9864256 -4.4649143 -1.8653905 -9.438006
000010 19 66 9b bf a8 c6 d2 40 ee d9 19 40 99 ac 8e c0
       -1.2140533 6.58675 2.4039264 -4.458569
000020 95 fb b4 c0 61 f2 47 40 96 87 bc 3f 11 45 79 c0
       -5.6557107 3.1241686 1.4728878 -3.8948405
000030 e0 29 8e 40 70 cc c7 3e ac 4a 44 40 63 22 50 c0
       4.4426117 0.3902316 3.0670576 -3.2520988
000040 26 b7 f0 c0 53 26 eb 3f 10 07 31 c0 cf 52 89 40
       -7.522357 1.8371071 -2.766056 4.2913585
000050 5c 05 c3 bf df c2 7f c0 6c 21 00 c1 7b 69 45 be
       -1.523601 -3.996269 -8.00816 -0.19278519
000060 cb 4f c4 c0 4b 98 19 c0 66 1a 01 c1 62 c0 f0 40
       -6.1347404 -2.3999202 -8.068945 7.523484
000070 70 4e 49 40 07 db 36 40 92 b9 67 c0 4d 1b b1 3f
       3.1454124 2.8571184 -3.6207013 1.3836457

running_var f4 [32]
000000 fc 28 93 42 26 b6 a8 41 43 f5 0f 42 b1 99 f2 41
       73.58005 21.08894 35.989513 30.325045
000010 04 37 ab 41 07 f5 ba 41 20 41 ba 41 59 02 62 41
       21.401863 23.369642 23.2818 14.125573
000020 2e 12 23 42 5c 1c 22 42 ce 53 2b 42 38 82 47 42
       40.767754 40.527695 42.83184 49.877167
000030 be 49 65 42 b4 a8 03 42 69 48 1b 42 66 dc 95 42
       57.322014 32.91475 38.820713 74.930466
000040 00 8f b1 41 25 a2 31 42 19 01 4c 42 c7 f8 98 41
       22.194824 44.408344 51.001072 19.121473
000050 2f 80 ea 41 d4 a4 09 42 c3 1a 47 42 4c bb b4 41
       29.31259 34.410965 49.776134 22.591454
000060 53 ed c8 41 c5 3a 71 42 4a 8a 18 42 f3 56 d4 41
       25.115881 60.307392 38.135048 26.542456
000070 55 86 ea 41 dc b9 28 41 2a 51 55 42 f5 7d 01 42
       29.315592 10.545376 53.32926 32.373005

weight f4 [32, 32, 3]
000000 bd a6 7d 3f 1f 7f 07 3f 69 c4 18 3f a3 e9 9c bf
       0.9908255 0.52928346 0.596747 -1.22588
000010 a4 16 ed 3e 8e 89 09 bf d4 d4 55 bf f6 29 da 3e
       0.46306336 -0.53725517 -0.83527875 0.4261014
000020 ea 25 c0 be b3 4a 9f 3f a8 b5 b1 3e c1 1e 41 3d
       -0.37528926 1.2444671 0.34708905 0.04714847
000030 c9 37 dd 3e 5e 1c 41 3f 9d cf 17 3f e0 3d 0c 3c
       0.43206623 0.7543391 0.5930117 0.008559674
000040 9a 22 54 3f a7 b9 0b 3f 84 cd b8 be a7 9b eb 3e
       0.828653 0.5458016 -0.36094296 0.4601719
000050 5c af 89 3e 2c c8 76 3f 7c 21 08 3f f3 90 ea 3e
       0.268916 0.9639919 0.53176093 0.45813712
000060 b0 4c a3 bf 37 04 46 bf a1 8c a1 bf b0 9c af be
       -1.2757778 -0.7735018 -1.2621042 -0.3429923
000070 7b dd 25 3e 38 12 69 3e 0a 4d bd 3e 43 32 58 bc
       0.1619777 0.22760856 0.3697284 -0.013195577
000080 79 83 29 3e 96 74 99 bf ab 00 f6 be 74 bf 20 be
       0.16554059 -1.1988704 -0.48047385 -0.15698034
000090 b8 05 02 3f e0 75 a1 bd b7 39 95 be 65 0a 3e 3f
       0.50789976 -0.07883811 -0.29145595 0.7423461
0000a0 ce b2 d4 3e cb 7a 34 3e 7f b9 68 3f e4 38 21 3f
       0.41542667 0.17624967 0.90908045 0.62977433
0000b0 21 75 56 3e 64 19 05 c0 19 84 80 bf cc b9 b6 bf
       0.20943119 -2.0796747 -1.0040313 -1.4275451
0000c0 6c b4 90 3f 8e 0b 63 3e a9 8e 91 be 4d a5 9e be
       1.130506 0.22172377 -0.28429154 -0.3098549
0000d0 d8 d6 27 3f d3 9a fb bd 64 14 ec bf 55 a6 db be
       0.655622 -0.1228539 -1.8443723 -0.4290034
0000e0 cb 06 38 bf 87 a3 59 bf f9 cd 7c bf 39 48 7b bf
       -0.71885365 -0.8501515 -0.9875179 -0.9815708
0000f0 1a 66 e9 be e3 08 1d bd 9b ec 25 3e 8f 71 57 bf
       -0.4558571 -0.038338553 0.16203539 -0.8415765
000100 35 cb 35 3d f7 6c c2 be 39 fc e6 be 4c a5 7f bf
       0.044383246 -0.3797376 -0.45114306 -0.998616
000110 0b 87 c8 bf 8a f8 11 bf c4 96 23 3f 0f 6f ff be
       -1.5666212 -0.57019866 0.63901925 -0.49889418
000120 46 02 d1 3b 81 2c 30 bd b5 4a 8d be 61 8f c8 bf
       0.006378445 -0.043011192 -0.2759606 -1.5668756
000130 e4 32 0b bd a6 b2 04 bc 6e e0 76 3b 83 f2 6b 3e
       -0.03398408 -0.008099234 0.0037670392 0.2304173
000140 f7 8a 8d be 23 ed 6c be cb fd b8 be 41 b0 c3 3d
       -0.27645084 -0.23137335 -0.3613113 0.09555102
000150 cf bc 9a bd 0c 0c 9f be a9 e8 a7 bf 33 57 8b be
       -0.07555544 -0.3106388 -1.3117877 -0.27214965
000160 ba 64 42 be bb 25 41 3e 4e 8d 25 bf a3 b7 da 3e
       -0.18983737 0.1886205 -0.6466874 0.4271823
000170 85 a8 9c be 05 5d 95 3e fc c3 4b bb 2a 3e 32 bf
       -0.3059732 0.2917253 -0.0031092158 -0.69626105
000180 1b 55 55 3d f2 a8 94 3e c9 f6 81 3e ee d1 1c 3f
       0.052083116 0.29035145 0.25383595 0.6125783
000190 15 18 f3 be a4 40 78 bf a3 42 d6 3d 06 c0 ae bf
       -0.4747931 -0.96973634 0.10461929 -1.3652351
0001a0 cb 65 34 bf 86 80 59 bf fc 6b 98 bc 5c d2 38 be
       -0.70467824 -0.84961736 -0.018606178 -0.18048996
0001b0 99 80 d6 3e ea 2a 8e be f3 ea 07 bf 6b f7 d1 be
       0.41894987 -0.27767116 -0.5309288 -0.41009077
0001c0 50 d7 94 be 4c bf 00 3f 39 ef 3f be 86 cf 1d bf
       -0.2907052 0.50291896 -0.187436 -0.6164478
0001d0 84 a6 55 bf 92 f0 51 be af 24 d6 3b 71 12 7e be
       -0.8345721 -0.20501927 0.0065351347 -0.24811722
0001e0 cf bc 40 3e ec 9a 82 be 4a ad ea be 64 d6 10 3f
       0.18822025 -0.2550882 -0.45835334 0.56577134
0001f0 24 7d 5c 3e df 58 81 bf 07 1c 9a bf 19 67 38 be
       0.21532112 -1.0105246 -1.2039803 -0.18008079
000200 f5 d7 cc 3e fb 78 2f 3f ab 5c ff bd 79 4f 55 bf
       0.40008512 0.68543977 -0.12468847 -0.8332439
000210 a8 47 f7 bf e1 2f 4f be fa 01 7d 3f 0f 30 4e 3d
       -1.9318743 -0.20233108 0.9883114 0.0503388
000220 6d cf 93 3d 8f e1 da 3c 1f dd 97 bf 00 1e af 3c
       0.07217298 0.026718883 -1.1864356 0.02137661
000230 b4 5d fd 3e 0e 9f 26 be 8b f8 3b bf b7 d2 d0 3d
       0.49485552 -0.16271612 -0.7342612 0.10196441
000240 d7 15 58 be ad 77 b0 3d 38 ef c4 3e 73 21 d7 3c
       -0.21102081 0.08616576 0.3846376 0.026261067
000250 8f 4b bc bf 3a f0 cf 3e eb 09 4d 3f fe 27 84 be
       -1.4710559 0.40612966 0.8009326 -0.25811762
000260 75 dc 11 bf da 1a 7a 3e 97 8c da bd 0f 86 aa be
       -0.56977016 0.24424306 -0.10671347 -0.33305404
000270 6e 7e dd 3f 16 84 18 3f 58 10 39 bf 54 2f 4d 3f
       1.7304208 0.5957655 -0.72290564 0.8015034
000280 eb 0d 0b be fe 70 c6 bf e7 c4 9e be d2 ef df be
       -0.13579528 -1.5503232 -0.310096 -0.43737656
000290 c2 ad 23 bf c7 fc ad be a5 e2 7f bf b3 1d 84 bf
       -0.6393701 -0.33981916 -0.9995521 -1.0321563
0002a0 3c e1 23 3f 7b 25 8d 3e b0 d9 fa be 2d 82 8a 3f
       0.64015555 0.27567658 -0.48994207 1.0820976
0002b0 ef e8 bf be 88 3e 1e 3e 09 6d 0e 3f b7 1e ee be
       -0.37482402 0.15453541 0.55635124 -0.4650781
0002c0 fa 70 b7 bf eb a8 14 bf d6 e1 b1 3e 93 c7 de 3d
       -1.4331353 -0.5807025 0.34742612 0.108779095
0002d0 8d 6e 0a c0 45 75 8b bf d9 4c 7d bc 99 d4 ea be
       -2.1629975 -1.0895163 -0.015460216 -0.45865324
0002e0 50 4c 5f 3e 44 a9 c0 be 5f 82 ce be 02 e8 8e bf
       0.21806455 -0.3762914 -0.4033384 -1.1164553
0002f0 1f 6d 68 bf aa 42 cd be 65 49 72 bf 0a 51 00 3f
       -0.90791506 -0.40089923 -0.9464324 0.50123656
000300 ae f2 fd bc 18 27 b9 3e 24 41 0b 3f 32 20 d4 be
       -0.030999508 0.3616264 0.5439627 -0.41430813
000310 24 c3 3d bf d4 dc d7 be 40 61 9c be 96 57 da be
       -0.74125886 -0.42160666 -0.30542946 -0.42644948
000320 6e 66 92 be c6 83 b1 3e aa ee 01 3e 49 4a ee 3e
       -0.28593773 0.34670848 0.126887 0.4654105
000330 c4 6c 38 be 91 8d b4 3d 21 1b 34 3f d9 d7 30 3d
       -0.18010241 0.08816064 0.70353895 0.0431746
000340 ee c2 23 3e 42 f2 3f bf f0 e7 88 3e ae 11 b0 3e
       0.15992329 -0.7497903 0.26739454 0.3438849
000350 4a 2a a2 bd e2 fb c9 bc 98 67 90 be b0 b1 19 3e
       -0.07918222 -0.02465624 -0.28204036 0.15009189
000360 34 49 2e bf 9d 9a b6 bd fb b1 a5 3d 3d dc d6 be
       -0.6808045 -0.08916209 0.08090588 -0.41964903
000370 26 d1 30 3f 17 1b b2 3f 97 da 09 3f 8d 1d c5 be
       0.69069135 1.3914517 0.53849167 -0.38499108
000380 2b 6c e7 3e c5 5b 5d 3e a6 d8 22 3f 8a 0a f0 3e
       0.45199713 0.21617039 0.6361183 0.4688304
000390 fb af 7a 3f 21 aa fd be 49 91 ec 3e 3c d9 bc 3d
       0.97924775 -0.4954386 0.46204594 0.09221122
0003a0 aa 09 51 be ed a9 99 3f 51 20 ef 3e 24 57 32 be
       -0.20413843 1.2004982 0.46704343 -0.17416054
0003b0 06 75 76 3f b9 ea 1c bd 3d a3 ac 3e aa f7 eb 3e
       0.96272314 -0.038309786 0.3371829 0.4608739
0003c0 7b 79 d4 3e f1 23 72 be 44 41 7a 3f 26 e1 8e 3e
       0.41498932 -0.23646523 0.9775584 0.2790615
0003d0 36 11 ac bd fb f5 4d be 2e 42 c4 3d 3e be 40 3f
       -0.0840172 -0.20113365 0.09582935 0.75290287
0003e0 83 2c e3 3e a9 ec bd 3e 2a 83 b2 3d d4 62 55 3d
       0.44369897 0.3709462 0.08716424 0.052096203
0003f0 f2 ab 7d bc 56 89 b0 bd f9 51 1f bf 40 8f e4 3e
       -0.0154828895 -0.08619945 -0.62234455 0.4464054

bias f4 [32]
000000 5b 86 97 be 39 7e a1 bd 8e b7 b7 be 49 3f a6 3e
       -0.29594693 -0.07885403 -0.3588223 0.32470158
000010 dc 25 2d 3e 69 51 1f 3e 1d 87 22 bf dd 48 bd bc
       0.16908973 0.155584 -0.63487417 -0.023106033
000020 14 7f d2 be 3a 00 10 3e 4f c3 57 be 11 d7 3e bf
       -0.41112578 0.14062586 -0.21070598 -0.74546915
000030 d5 81 0b 3d a8 a4 4c 3e dc 78 a4 bd 29 9f 43 3e
       0.034059364 0.19984686 -0.080308646 0.19103684
000040 ff 12 14 3f df 86 42 be b4 f1 11 be 25 a3 1c 3e
       0.57841486 -0.18996762 -0.14252359 0.1529661
000050 75 c5 06 bf 85 e8 3f bf fa 99 eb 3d 4a b1 0b 3e
       -0.52645046 -0.7496417 0.11503978 0.13641849
000060 95 00 4e be ea 5f 52 3e da 99 ae 3e 7d ea 01 3f
       -0.2011741 0.20544401 0.34101754 0.50748426
000070 54 b7 26 be 9b 76 14 bf 38 d5 8b 3d 73 21 eb bb
       -0.16280872 -0.5799348 0.068277776 -0.0071756183

weight f4 [32]
000000 10 c0 80 3f 29 66 43 3f 60 d5 69 3f da fc 4e 3f
       1.0058613 0.7632776 0.9134121 0.8085457
000010 53 94 b4 3f 29 f8 42 3f 78 bf 84 3f 2d 92 d1 3f
       1.4107765 0.7615991 1.0370932 1.6372734
000020 28 e0 84 3f 6b a4 d6 3f 9c 76 7b 3f ae 1f b4 3f
       1.0380907 1.6768926 0.9822786 1.4072168
000030 ac 49 ad 3f 84 dc 85 3f 56 1e 9b 3f 19 df 57 3f
       1.3538108 1.0457921 1.2118633 0.84324795
000040 1d fb 95 3f ea a5 85 3f 48 f0 70 3f 27 c7 6f 3f
       1.1717259 1.0441258 0.9411664 0.9366326
000050 61 52 79 3f 54 55 a4 3f 0c 30 d1 3f 11 83 06 3f
       0.97391325 1.283854 1.6342788 0.5254374
000060 50 d4 6f 3f 67 77 ac 3f 52 dc e1 3f 2d f7 b6 3f
       0.9368334 1.3473939 1.7645361 1.4294182
000070 f4 80 2e 3f d8 db 6c 3f d1 c9 c7 3f 3d af ea 3f
       0.68165517 0.92522955 1.5608464 1.8334728

bias f4 [32]
000000 d7 b2 5f 3f 68 70 7a bb 3d d3 a6 bf cd 33 14 3f
       0.8738226 -0.0038213972 -1.3033215 0.5789154
000010 f9 b9 28 3f 9e 88 22 bf 9e c3 8b bf 18 99 8e 3f
       0.6590877 -0.6348971 -1.0919073 1.114047
000020 e0 a8 c1 be 8d d5 99 be 79 35 b1 3f 94 27 fb be
       -0.37824154 -0.3004574 1.3844444 -0.49053633
000030 cf bb bd 3e 23 1b 81 be 03 13 53 3f 0d 3a 48 bf
       0.3705735 -0.25216016 0.82450885 -0.7821358
000040 0a b3 1c bf 88 f9 17 bf 1e 60 81 bf ea a2 c5 be
       -0.6121069 -0.5936513 -1.0107458 -0.38600856
000050 10 18 91 be 7f d9 26 bf f4 32 eb bd 75 6f ca bf
       -0.2833867 -0.6517562 -0.11484328 -1.5815264
000060 7f 53 88 bf 65 0f 1a be 5d 02 7d 3f 48 a4 d9 3d
       -1.0650481 -0.15044935 0.9883173 0.10627037
000070 8d 6c 89 bc cc 00 74 bf d7 68 d7 be 2e 3b e1 bd
       -0.016775394 -0.95313716 -0.42072174 -0.10997616

running_mean f4 [32]
000000 58 44 92 c1 02 55 56 c1 b4 8c 63 41 2e 4f 45 c1
       -18.283371 -13.395754 14.221851 -12.331831
000010 94 ca 92 c0 63 e2 fc c0 33 39 55 41 fd dc 03 c1
       -4.587229 -7.902635 13.326465 -8.241452
000020 9b 87 c0 c1 df 10 4f 3e c0 34 2d c1 3a 23 2d 3f
       -24.066214 0.2022128 -10.825378 0.67631876
000030 49 55 6e c1 d8 10 08 c1 27 d2 e4 c0 f3 e8 9a 41
       -14.895822 -8.504112 -7.1506534 19.363745
000040 a6 1d 87 3f 45 9b 8c c1 8e 51 06 41 1d f7 10 40
       1.0555923 -17.575815 8.394911 2.2650826
000050 5c d0 29 40 50 d0 2e c0 64 e8 c7 40 ac e5 9c 3f
       2.6533422 -2.7314644 6.247118 1.225759
000060 4b c4 88 40 a9 6c be 40 96 89 67 c1 49 1f d5 c0
       4.2739615 5.950764 -14.47109 -6.660069
000070 f7 7a c4 40 d1 8c 81 40 57 08 a0 c1 ad 3e c1 40
       6.1400104 4.0484395 -20.004072 6.038901

running_var f4 [32]
000000 ac e7 c8 42 d1 3c a3 43 3f bd 9a 42 42 38 91 42
       100.452484 326.47513 77.36962 72.60988
000010 0c 63 6f 43 f5 c5 cc 42 16 03 99 42 c7 ef 02 43
       239.3869 102.386635 76.50603 130.93663
000020 58 d3 2f 43 37 91 a3 42 35 58 73 43 e3 95 e5 42
       175.82556 81.78362 243.34456 114.79275
000030 d3 ad a8 43 53 57 79 43 cd a8 77 43 1f ea ac 42
       337.358 249.34111 247.65938 86.45727
000040 8e ab d9 42 1c 7d 10 43 50 b7 90 42 1e bf 09 43
       108.83507 144.48871 72.35803 137.74655
000050 77 e9 d5 42 6d d8 f2 42 12 7f b2 42 1d 05 b2 42
       106.955986 121.42271 89.248184 89.00999
000060 16 83 e7 42 ae 0e df 42 f1 62 8e 43 85 cf da 42
       115.75603 111.52867 284.77298 109.40531
000070 d6 29 3d 43 96 6e c7 42 ba 30 16 43 b6 45 07 43
       189.16342 99.71599 150.19034 135.27231

weight f4 [64, 32, 3]
000000 aa 6d 8e bf 83 91 38 bf 3a 7f 97 bf 2c 1d a8 3f
       -1.1127217 -0.72097033 -1.1835701 1.3133903
000010 7c 79 6a 3e 35 1b 22 3f 11 7b 63 3f f0 a9 53 3f
       0.22897905 0.63322765 0.8885966 0.8268118
000020 39 95 57 bf 01 4e 15 bf 38 e0 39 bf 86 45 ae be
       -0.8421207 -0.5832215 -0.72607756 -0.34037417
000030 ff b6 b4 bf 52 76 f0 bf 5d 53 5b bf ca 42 01 3f
       -1.4118346 -1.8786108 -0.8567408 0.5049254
000040 88 69 12 bf a4 ed 26 bf 91 b4 f3 3d 08 93 22 3f
       -0.5719228 -0.6520636 0.11899675 0.635056
000050 df ad 9a 3d 9d fa 20 c0 3f 72 42 be f8 92 c1 bf
       0.075526945 -2.5152962 -0.18988894 -1.5122976
000060 95 3c 66 bf 61 16 3f bf 54 5e bf 3e 90 88 d4 3e
       -0.8993619 -0.7464352 0.37376654 0.4151044
000070 f9 76 4d bf 74 88 c4 be 34 8f 9e bd a5 b9 52 3e
       -0.8025966 -0.38385355 -0.077421576 0.2057863
000080 1c 2a 69 3f 35 90 8c 3f 77 0d 3f be b5 56 bc bd
       0.9107988 1.0981508 -0.1865748 -0.091962256
000090 9f 66 29 3e 3d 72 d4 be 0c 00 d2 3e 00 19 8b bf
       0.16543053 -0.41493407 0.4101566 -1.0867004
0000a0 f5 60 17 bf 79 ac 07 3f 4f 15 1e bf 5d 37 b2 3e
       -0.5913232 0.5299755 -0.61751264 0.34807864
0000b0 27 f9 52 3b 68 a9 4e 3f 44 55 6e 3f a3 00 48 3e
       0.0032191963 0.80727243 0.93098855 0.19531493
0000c0 d4 2e 50 3f f8 46 ec be 8d d8 b0 bd 6d 4b 8d 3e
       0.81321454 -0.46147895 -0.08635054 0.27596608
0000d0 51 e5 a4 be 30 d7 f7 3e 34 93 a7 3e 69 ff 80 be
       -0.32206205 0.48406363 0.32729495 -0.25194862
0000e0 8f bd 65 3f fa 52 a8 3e 90 d4 38 be 68 a7 eb be
       0.8974237 0.32875806 -0.18049836 -0.46026158
0000f0 b9 06 dc be 71 7c 04 bf 06 50 b9 3e 9e bb bf 3e
       -0.4297388 -0.5175238 0.36193866 0.37447828
000100 91 92 6d 3e 72 0a f8 be 41 49 46 be d9 f7 75 3e
       0.23200442 -0.4844547 -0.19363882 0.24020328
000110 33 37 4a bf 32 b9 a0 3e 1e f5 18 be f2 8d 6c be
       -0.7899048 0.31391293 -0.14937255 -0.23101023
000120 9e f0 bd 3e c8 04 3f 3e b1 41 6f be a2 61 c6 3f
       0.3709764 0.18654168 -0.23364903 1.5498545
000130 bd a7 85 3e 2b 58 ee 3e b8 35 99 bf 67 12 ac 3e
       0.26104537 0.46551642 -1.1969519 0.3360779
000140 31 2c b5 3f 9b 61 90 3d af 98 6d 3e 36 c6 7b be
       1.4154111 0.07049867 0.23202775 -0.2458733
000150 bc 97 8a 3f 7e 4d b8 be 1f 53 81 bf 6b 9d 80 bd
       1.0827556 -0.35996622 -1.0103492 -0.06280025
000160 f6 bc 00 3f 97 49 5a 3f 0b 62 04 c0 ce 88 7a bc
       0.5028833 0.8526854 -2.068484 -0.015291406
000170 65 58 82 3f 51 ca 46 be 7f 5c ba 3e 42 a2 59 bf
       1.0183226 -0.19413115 0.36398694 -0.8501321
000180 57 8b 7b bf 21 c4 eb bd fa a8 a1 bf 4a b2 16 3f
       -0.9825949 -0.11512018 -1.2629693 0.588658
000190 c4 da 14 be 0a 48 bc 3d 08 3b 88 bd d9 69 a6 3e
       -0.14536577 0.09193428 -0.06651884 0.3250263
0001a0 0b 5a 28 bf 5d 4e 6b bf e6 61 38 bf e5 8a ae 3d
       -0.65762395 -0.9191645 -0.7202438 0.08522586
0001b0 41 a6 31 bf 49 13 2f bf 48 2f 22 3c fa e4 b0 3e
       -0.6939431 -0.683888 0.009898968 0.34549695
0001c0 42 3c 25 bf 59 da 38 3f f7 60 aa bd b3 b9 a2 bd
       -0.6454507 0.7220817 -0.08319276 -0.079455756
0001d0 6f a8 07 bf 9c 6d d3 3e 8e 40 a4 be fb 2e 80 bf
       -0.52991384 0.41294563 -0.320805 -1.0014337
0001e0 f2 78 bc bd 45 d9 ac be 8d a2 b4 be cb 95 07 bf
       -0.09202756 -0.33759513 -0.35280266 -0.5296294
0001f0 90 e5 a0 3e 5b 35 07 bf 43 3e 8b bc 7a 50 a7 3e
       0.31425142 -0.5281579 -0.016997462 0.32678586
000200 02 32 83 3f dd 67 fa 3f 7c 36 d3 be 0e 1b d8 bf
       1.0249636 1.9562947 -0.41252506 -1.6883256
000210 cd b2 b6 3e 73 90 36 be 13 3f f9 bd 39 55 3e bf
       0.3568329 -0.1782854 -0.121702336 -0.7434879
000220 63 c0 40 bf f4 49 9b be 9c 0b 2b be 98 f8 45 be
       -0.7529356 -0.3032986 -0.16703647 -0.19333112
000230 14 76 82 be c4 d4 56 be 0a 80 a4 3e 1b 24 5b be
       -0.2548071 -0.20979601 0.32128936 -0.21400492
000240 66 87 f4 3f 72 65 88 bf 9d 62 b7 bf 2f 6a 9d be
       1.910382 -1.0655959 -1.4326969 -0.30745074
000250 f8 6a e2 bc b2 d7 f8 3e 1b 80 65 bd 72 90 88 3c
       -0.027638897 0.48602062 -0.056030374 0.01667044
000260 0a 92 25 3e 52 a8 8a 3f 56 72 c4 be 9a 88 7e bf
       0.1616899 1.0832617 -0.3836848 -0.9942719
000270 32 a4 ec bc ae 7a 35 3e df ed ae bd d1 02 a2 be
       -0.028886888 0.1772258 -0.08541464 -0.31642774
000280 a8 c8 27 bc d2 7b 8c 3e dc 57 99 be 1a 87 e9 be
       -0.010240711 0.27438217 -0.29949844 -0.45610887
000290 fc 5b 0d bf 92 7e 90 3e 9f 6e 56 be 11 fd 11 bf
       -0.5521848 0.28221565 -0.20940636 -0.57026774
0002a0 23 42 19 3e 3e 4c a3 be ee 17 3b bf fe 96 a9 3f
       0.14966635 -0.31894106 -0.7308339 1.3249204
0002b0 9c 95 04 3f f7 99 29 3e 23 26 04 be d2 3a 6a bc
       0.51790786 0.16562639 -0.12905173 -0.01429625
0002c0 21 74 87 3f 98 b5 d0 be 9b 8d a5 bd 20 20 92 bb
       1.0582315 -0.40763545 -0.0808365 -0.004459396
0002d0 51 72 9d bd 7d 48 90 be 26 d0 64 be 30 9c 9c 3e
       -0.0768782 -0.28180304 -0.22345027 0.30587912
0002e0 b5 69 09 3d 2b 4b 9a 3e 46 f7 5a 3e 42 6c 25 bf
       0.033548076 0.30135474 0.2138339 -0.64618313
0002f0 ba e5 33 3f 2a 64 89 bd 3e ab 9f be 55 a1 9d bd
       0.7027241 -0.06708558 -0.31185335 -0.07696787
000300 88 98 ae 3f 14 02 89 3f bd 64 03 3f 3c 50 5d bf
       1.3640299 1.0703759 0.5132559 -0.8645055
000310 4d 6c b1 bd 65 43 7d bf b5 2f 63 3e d4 f6 80 3d
       -0.08663235 -0.9893096 0.22186168 0.06297079
000320 04 c6 f7 be fc a7 08 bf f0 37 12 bf fa 1e fd 3e
       -0.4839326 -0.53381324 -0.57116604 0.49437696
000330 f6 00 d0 be 20 ed d9 be 5c 64 8c bf 8a 85 6f be
       -0.40625733 -0.42563725 -1.0968127 -0.23390785
000340 23 0a 5f bf 78 19 c6 3c c9 f7 87 be f0 b1 48 be
       -0.8712484 0.024182066 -0.26556233 -0.19599128
000350 71 82 4c be 24 0a 06 3f 06 14 34 be b4 b0 de 3e
       -0.19971634 0.52359223 -0.17585763 0.4349419
000360 12 9f 62 3f f7 db 5d 3f 5b f2 81 be 17 ce 65 ba
       0.8852397 0.86663765 -0.25380215 -0.00087663665
000370 95 e8 1b 3c e8 ad f9 be 0b 5c da bf 4d 32 e2 be
       0.009515901 -0.48765492 -1.7059339 -0.44179
000380 4a 1e de bf fd c0 43 3f 1e f7 d8 3e be f4 33 bf
       -1.7352993 0.7646635 0.42376035 -0.7029532
000390 31 ba ab 3e 7e d4 19 3f 8a f6 fe bd 5c 2c 8c bd
       0.3354049 0.6008986 -0.12449367 -0.068443984
0003a0 39 e2 ea 3e a4 50 21 bf 63 5e c6 bf 5d 90 92 be
       0.4587572 -0.6301367 -1.5497555 -0.28625765
0003b0 1e 46 b7 be 84 65 95 3d 52 cc f1 3d de a0 21 bf
       -0.35795683 0.07294753 0.11806549 -0.6313609
0003c0 6a 7e 34 3f f1 54 e4 3e 97 69 22 bf 98 f4 66 3f
       0.7050539 0.44596055 -0.6344237 0.9021697
0003d0 fe 95 15 3f ca ee 36 bf e8 3b 77 3e db 2a 80 be
       0.58431995 -0.71458113 0.24143946 -0.25032696
0003e0 88 fc 84 be e3 fc b1 3e 56 74 9d bd e8 cb be be
       -0.25973916 0.3476325 -0.07688205 -0.37264943
0003f0 05 67 f0 3e 16 77 86 be e8 8a 36 be 9a d7 39 3f
       0.46953598 -0.2626273 -0.17826426 0.72594607
