unet/checkpoints/one_loss/epoch_83.pth (torch, 508787 bytes, 85 tensors)

weight f4 [8, 1, 3]
1.0890154 0.15958752 3.3301096 0.5961618 -4.079097 -0.5676487 -1.4223317 1.8665442
0.8357005 -4.4104195 -0.28499123 0.8939407 1.1031287 -2.8305666 -0.53985727 0.7409972
4.512892 -0.09689779 -1.661671 0.9390848 -2.0542054 3.4148116 -0.09659674 -0.97513485
00000000: db64 8b3f e96a 233e 8420 5540 0f9e 183f
00000010: f687 82c0 6d51 11bf f70e b6bf ecea ee3f
00000020: 78f0 553f 2822 8dc0 5fea 91be 4cd9 643f
00000030: 5233 8d3f 0128 35c0 1634 0abf feb1 3d3f
00000040: 9c69 9040 5972 c6bd a3b1 d4bf dd67 703f
00000050: 1a78 03c0 468c 5a40 83d4 c5bd 70a2 79bf

bias f4 [8]
0.16184159 0.008082859 0.12066538 0.4731473 -0.1422494 0.13518143 -0.3269575 0.19124427
00000000: cdb9 253e f86d 043c 691f f73d 5d40 f23e
00000010: d4a9 11be 006d 0a3e f966 a7be 8ad5 433e

weight f4 [8]
1.3888589 1.9630328 2.1002622 2.1583343 0.6327499 3.1259618 0.9963132 2.44054
00000000: 21c6 b13f a944 fb3f b26a 0640 2622 0a40
00000010: e6fb 213f c20f 4840 620e 7f3f cf31 1c40

bias f4 [8]
-1.9472355 0.258905 1.5994397 2.0963035 3.18219 -0.15123612 -0.50582653 -0.14003243
00000000: 033f f9bf 328f 843e 71ba cc3f d629 0640
00000010: 00a9 4b40 a4dd 1abe d97d 01bf a964 0fbe

running_mean f4 [8]
0.18281633 -0.027832083 0.18942332 0.6609102 -0.1965407 0.10490043 -0.30134675 0.038074527
00000000: 3434 3b3e 1c00 e4bc 30f8 413e 6931 293f
00000010: f741 49be 09d6 d63d 1f4a 9abe 09f4 1b3d

running_var f4 [8]
1.1479409e+06 987714.4 137172.64 920491.06 351311.12 1.5338869e+06 437502.84 399421.75
00000000: 2721 8c49 2624 7149 29f5 0548 b1ba 6049
00000010: e489 ab48 f73d bb49 db9f d548 b807 c348

weight f4 [16, 8, 3]
0.16154388 -1.5741518 -3.772615 1.2916707 1.1526036 -1.3127377 -1.2303 1.0826476
1.1043351 1.6692319 3.6442485 0.91894215 2.7329965 1.3183733 -1.6874138 -2.7944813
-1.8397261 -0.05118372 0.5314764 -1.4473975 1.2152709 0.6529355 -0.71920604 -0.88330567
0.66748786 2.104471 0.053275105 0.34698662 1.351039 -0.7011109 1.2697545 0.76430905
0.4682668 -2.2251167 -0.05223074 1.0156863 -0.33365336 0.9580397 -1.5511347 4.1134324
2.086033 2.089921 -0.11932483 -0.61301994 1.3655047 -0.68943125 2.0578613 0.66269636
-1.7008768 0.81535566 -2.2227392 0.08906313 0.8619482 -0.12857667 -0.9204912 -1.8225669
0.9867377 -3.8871355 0.44167674 0.80084896 0.6411688 1.2458899 -0.9454887 0.7217094
-1.4903555 -0.035744384 -1.5163592 0.6776154 1.6354836 1.6370019 -0.18083519 -2.4360251
3.8712692 1.2312926 -0.572894 2.5712037 3.2015703 0.5647373 -0.43783537 0.0801855
-1.5125992 0.682169 3.0393658 0.58884287 1.5754346 1.957352 0.2093945 -1.0946026
0.59731066 -2.5131505 0.012968929 1.9010711 -0.51548123 -0.40401298 -1.3798784 1.4675496
2.3101149 -1.9684783 -2.2453082 -1.5254819 -2.5882363 -0.87248725 -0.6054653 -1.4925722
-2.1629126 -1.248037 -1.0826869 0.0027386302 0.6851696 -0.4784907 0.37951872 1.6806952
0.05547753 -1.2138166 0.264093 -2.4827943 -0.906716 2.4918518 1.4501154 0.29477185
2.3744228 -0.49579978 -2.0865567 2.3923862 1.7546613 3.0705361 -0.22343871 -0.54571
-1.8545716 0.8029166 2.0963125 0.9241139 1.6073867 1.3234847 2.1886606 -0.33273956
0.15345438 -1.5904479 0.44110373 1.2581607 -0.15687132 1.2417926 1.1477203 1.306122
1.1056043 -0.52002877 0.9106916 -3.772155 1.2806311 -0.020802887 -2.6353817 -0.4513116
-0.14823373 -1.4329883 -2.5866969 0.58045745 -2.2760308 1.0489966 0.5791058 -0.022528052
-0.4814695 -0.2206525 0.98136294 1.7958969 -1.4178238 0.8712784 -1.951673 -1.7613006
1.5020789 1.2658116 0.37959516 0.2677685 -2.7788587 0.4366246 -0.69391656 1.8251531
-3.1003163 -0.8047525 1.204432 -0.9868296 0.41403005 -2.5925968 -0.29783642 1.970908
1.3342148 -0.8984632 -2.7367454 1.1669598 0.41592595 -0.08378916 1.5517703 0.08812966
1.5234927 -2.1974943 1.3487892 -0.44388717 0.6942841 0.31460947 -1.1507778 -3.684211
0.15096776 -2.8047879 -0.23296282 0.4310041 -0.3128645 1.0306689 2.3467443 -0.23566866
-0.89225096 -3.952652 -0.97948647 -1.6707067 1.0466926 1.5838174 -0.42320335 0.18203722
-3.189974 -0.8891125 -0.28477207 0.18640153 -0.47973055 3.153049 -0.5241952 -0.6836986
-2.2751546 -2.3467033 0.4848665 -0.9060394 0.76769465 0.6202121 3.6842744 0.02497378
-1.876316 -2.6479058 -1.8521237 1.606563 -0.24335723 1.3860312 0.1691049 -0.25776312
0.0619083 0.627527 -0.04926396 2.0179265 2.1538742 2.3575175 -0.5171395 -0.536963
-0.2970629 0.48151422 1.8227055 1.8013785 1.6654371 1.4275396 1.8273828 0.083240256
00000000: c26b 253e ce7d c9bf 8672 71c0 7755 a53f
00000010: 8488 933f ca07 a8bf 787a 9dbf 3294 8a3f
00000020: da5a 8d3f 64a9 d53f 5e3b 6940 cb3f 6b3f
00000030: 6ae9 2e40 75c0 a83f 2dfd d7bf c8d8 32c0
00000040: 257c ebbf 05a6 51bd d60e 083f 5244 b9bf
00000050: ff8d 9b3f c826 273f e31d 38bf 5220 62bf
00000060: 7ce0 2a3f a7af 0640 ff36 5a3d 3ba8 b13e
00000070: d9ee ac3f 017c 33bf 5187 a23f c2a9 433f
00000080: aac0 ef3e 5068 0ec0 e7ef 55bd 0202 823f
00000090: 9dd4 aabe 1742 753f 958b c6bf 3da1 8340
000000a0: 9181 0540 44c1 0540 9460 f4bd e0ee 1cbf
000000b0: dcc8 ae3f 917e 30bf 00b4 0340 78a6 293f
000000c0: 55b6 d9bf 26bb 503f 5c41 0ec0 bb66 b63d
000000d0: a3a8 5c3f 9aa9 03be 50a5 6bbf df49 e9bf
000000e0: d89a 7c3f d4c6 78c0 7423 e23e 7004 4d3f
000000f0: a323 243f 5279 9f3f 8c0b 72bf f2c1 383f
00000100: f8c3 bebf b468 12bd 0f18 c2bf 3478 2d3f
00000110: 8757 d13f 4789 d13f dc2c 39be d6e7 1bc0
00000120: e0c2 7740 ff9a 9d3f 2ea9 12bf 9a8e 2440
00000130: 87e6 4c40 a092 103f f52b e0be 4c38 a43d
00000140: da9c c1bf a1a2 2e3f f884 4240 68be 163f
00000150: d7a7 c93f 838a fa3f 836b 563e f01b 8cbf
00000160: 5ae9 183f 75d7 20c0 a17b 543c 4c56 f33f
00000170: 94f6 03bf cada cebe db9f b0bf aad8 bb3f
00000180: ecd8 1340 19f7 fbbf 21b3 0fc0 fe42 c3bf
00000190: aaa5 25c0 535b 5fbf c6ff 1abf 9b0c bfbf
000001a0: 296d 0ac0 adbf 9fbf 7c95 8abf 977a 333b
000001b0: 4667 2f3f bcfc f4be 4750 c23e 0521 d73f
000001c0: 683c 633d 585e 9bbf 3337 873e 1ae6 1ec0
000001d0: 8a1e 68bf 807a 1f40 629d b93f 56ec 963e
000001e0: 8bf6 1740 78d9 fdbe 258a 05c0 db1c 1940
000001f0: be98 e03f aa83 4440 1ecd 64be a7b3 0bbf
00000200: 9a62 edbf f18b 4d3f fc29 0640 bb92 6c3f
00000210: d9be cd3f f267 a93f 0413 0c40 d75c aabe
00000220: 2523 1d3e cc93 cbbf 59d8 e13e 690b a13f
00000230: e0a2 20be 0ff3 9e3f 80e8 923f 012f a73f
00000240: 7184 8d3f 9b20 05bf 1623 693f fd6a 71c0
00000250: b8eb a33f d16a aabc 18aa 28c0 5012 e7be
00000260: 95ca 17be 296c b7bf 718c 25c0 dc98 143f
00000270: 7daa 11c0 8545 863f 4740 143f c08c b8bc
00000280: 2c83 f6be bbf2 61be 9a3a 7b3f f3df e53f
00000290: 407b b5bf 1a0c 5f3f 6cd0 f9bf 4c72 e1bf
000002a0: 1f44 c03f 1d06 a23f 4c5a c23e f418 893e
000002b0: d2d8 31c0 428d df3e 84a4 31bf 9e9e e93f
000002c0: 956b 46c0 4304 4ebf d42a 9a3f dda0 7cbf
000002d0: bffb d33e 1bed 25c0 047e 98be b746 fc3f
000002e0: 8dc7 aa3f af01 66bf d626 2fc0 f05e 953f
000002f0: 3ff4 d43e a799 abbd 69a0 c63f 537d b43d
00000300: cf01 c33f bfa3 0cc0 20a5 ac3f 2e45 e3be
00000310: 9abc 313f 7e14 a13e b04c 93bf 1dca 6bc0
00000320: 4b97 1a3e a581 33c0 ce8d 6ebe 92ac dc3e
00000330: c72f a0be f5ec 833f 0f31 1640 2053 71be
00000340: 8f6a 64bf 40f8 7cc0 a0bf 7abf b8d9 d5bf
00000350: 06fa 853f 87ba ca3f 1cae d8be f767 3a3e
00000360: 8928 4cc0 e09c 63bf a5cd 91be 0be0 3e3e
00000370: 3e9f f5be 8ecb 4940 a831 06bf df06 2fbf
00000380: 229c 11c0 6330 16c0 6c40 f83e 33f2 67bf
00000390: a387 443f 38c6 1e3f 27cb 6b40 d095 cc3c
000003a0: 1f2b f0bf 4a77 29c0 6412 edbf dba3 cd3f
000003b0: a332 79be 7869 b13f d629 2d3e 87f9 83be
000003c0: 8f93 7d3d 9ca5 203f 02c9 49bd b525 0140
000003d0: 13d9 0940 91e1 1640 4163 04bf 6876 09bf
000003e0: a118 98be 0889 f63e 6a4e e93f 9293 e63f
000003f0: 0b2d d53f 9eb9 b63f aee7 e93f de79 aa3d

bias f4 [16]
-0.63500464 0.8554299 -0.2741755 0.24350983 1.5832711 1.2462938 0.5386866 -0.42689773
1.0867733 -0.35558328 -0.17220585 -0.94270635 0.8705353 1.5073489 2.7003386 1.2158788
00000000: aa8f 22bf 74fd 5a3f bb60 8cbe a45a 793e
00000010: a1a8 ca3f 8e86 9f3f 5de7 093f 5792 dabe
00000020: 631b 8b3f 030f b6be bb56 30be 3455 71bf
00000030: 67db 5e3f cff0 c03f 59d2 2c40 eba1 9b3f

weight f4 [16]
1.4399053 1.9556466 1.2750714 1.7418991 1.7506717 1.2107062 0.8213611 0.9169909
1.2868432 1.2750376 1.0589476 1.7488848 2.016887 2.156771 1.574514 1.6734936
00000000: d14e b83f a152 fa3f 8a35 a33f 8df6 de3f
00000010: 0316 e03f 6cf8 9a3f b944 523f eabf 6a3f
00000020: 47b7 a43f 6f34 a33f 988b 873f 75db df3f
00000030: ad14 0140 8908 0a40 ad89 c93f 0a35 d63f

bias f4 [16]
1.3837085 -1.4767741 0.5711939 0.30795157 0.70914274 0.19543044 0.21060786 3.0250332
3.6630297 1.0037786 -0.24205117 -0.41768903 -0.27256963 0.70586866 0.6937975 1.0700369
00000000: 5c1d b13f ef06 bdbf c339 123f d4ab 9d3e
00000010: 618a 353f eb1e 483e 96a9 573e 259a 4140
00000020: 146f 6a40 d17b 803f 43dc 77be 56db d5be
00000030: 3f8e 8bbe cfb3 343f b79c 313f f8f6 883f

running_mean f4 [16]
17.897703 11.358128 -7.4436827 21.099566 -10.773127 28.923649 -20.120659 -11.290585
-7.8792768 1.3362161 26.208588 19.150537 -5.2553964 3.064072 -3.8894932 6.310216
00000000: 7f2e 8f41 e4ba 3541 a632 eec0 e9cb a841
00000010: ba5e 2cc1 a263 e741 1cf7 a0c1 3ca6 34c1
00000020: 0923 fcc0 2109 ab3f 30ab d141 4d34 9941
00000030: 352c a8c0 c119 4440 75ed 78c0 4aed c940

running_var f4 [16]
477.24002 486.30338 95.50519 498.22778 148.95892 407.6683 74.7242 119.846886
228.7159 226.3768 462.98746 201.66959 722.0175 221.4767 79.43922 799.54535
00000000: b99e ee43 d526 f343 a802 bf42 281d f943
00000010: 7cf5 1443 8bd5 cb43 ca72 9542 9bb1 ef42
00000020: 45b7 6443 7660 6243 657e e743 6aab 4943
00000030: 1f81 3444 097a 5d43 e1e0 9e42 e7e2 4744

weight f4 [16, 16, 3]
-2.9290886 0.7654617 -0.12517364 1.6773937 1.1092108 -1.2802072 -2.8470387 -1.511084
-0.77177364 -0.013405602 0.26003262 0.19928092 -0.13444631 0.87668186 1.8407748 0.0086787
-1.3942547 -0.35426307 -0.8719997 0.23264296 1.2204304 0.2808537 0.8115045 -1.111978
-0.8717441 0.5385795 3.401898 -0.073968396 0.041770034 0.77612233 0.019041503 -0.81081414
-0.58612615 -0.7453766 -0.8648306 -2.66268 2.1591234 1.6315608 -0.6815472 -0.886737
-1.5691211 -3.3920374 -1.8263005 0.13212353 -0.9687692 0.17281152 1.4116943 1.0494016
-2.7723868 0.3182184 0.91699713 -1.6496382 -0.9611116 0.71199006 -1.3411896 0.8966433
-0.4535877 -0.38304782 0.71638024 1.0691471 3.8390534 0.27940077 -0.51833874 -0.068078876
0.44588313 0.38910642 -0.5853431 0.5672387 -0.13495566 -0.592321 -1.7500315 -2.2994058
-0.5491918 1.1975636 -1.669264 -1.0108238 0.7930063 -2.7032857 0.04083111 0.66419166
0.59632134 -1.4115593 1.2353581 -1.1475092 1.3855853 -0.16013852 -0.13235958 -4.737029
-1.202836 -0.97130835 -4.207297 -0.43226683 -2.3174162 -0.5808212 1.7597239 0.38056323
-1.7421863 -2.7899942 -0.9823284 4.034763 0.6210504 -1.9758909 -1.5784177 0.7295544
-0.89407533 -1.0578518 -1.6124682 -1.4482846 0.4483991 0.027809467 1.4275451 0.36490113
-1.4475467 -0.49887788 -2.5686057 1.9260913 0.24332902 0.67352104 0.9725161 0.27465874
-2.1262336 0.8943608 1.070489 -2.8138814 -2.1497643 0.26145688 0.42153642 -1.2194974
0.14252053 -1.3754505 0.85353076 -2.1906667 3.2401905 1.6647637 -1.2208608 0.59171826
0.102601916 -0.5832246 -0.0050638374 0.04041262 -0.90492886 -1.2880362 -1.8349382 -1.5696481
-0.073648356 -0.60256225 0.7861472 -2.186829 0.39237353 1.3106643 0.41934818 -0.7388808
-3.1715736 -0.31709275 0.46351847 0.5581934 0.5953492 0.43061268 -1.0457156 -0.2722697
1.2563467 0.64877594 0.838908 -0.5078814 -1.1349589 -0.42188084 -1.035054 -0.6111182
1.332601 0.52580774 -5.970977 1.0951911 0.32011712 -2.0140605 -0.8456223 1.3507309
0.34406227 0.48834434 0.79531425 -0.14448611 -2.5280318 0.015334982 1.7423532 0.21215077
0.4040908 3.4456213 -1.0573483 -0.6113856 -3.0639355 0.56012875 1.204607 0.210635
0.48745653 1.0242351 -0.45694578 -0.29076844 -2.3709495 -0.6113994 -2.5747783 0.32342133
-1.1498473 1.3737764 1.5201942 -2.537109 0.5123734 -0.029601065 0.35227218 1.4317971
1.1998637 -2.4785562 -2.4675443 1.2540934 -0.24630903 -0.42794934 -1.7092965 -1.0787429
-1.2312247 -0.44852445 -1.5082301 -0.55373055 -0.47081748 -2.9625986 1.5622693 0.7181822
-2.4812686 1.5904057 0.13789925 -2.7949178 -0.074499145 -2.171453 -0.9271648 -1.6844035
-0.71483356 0.08652416 -1.2213589 -2.8740947 -0.09883102 0.6141614 0.92575383 -1.5962726
-2.0947533 0.72299755 1.9127603 1.9674939 0.9626093 -1.8017527 1.1841888 -0.23806074
0.18952876 -0.9423524 2.0251799 2.4800901 1.9521284 0.56668335 -0.0020850296 -0.77731264
00000000: 3076 3bc0 4cf5 433f 852d 00be d6b4 d63f
00000010: 9ffa 8d3f d4dd a3bf e235 36c0 336b c1bf
00000020: f592 45bf 2ca3 5bbc ff22 853e 4c10 4c3e
00000030: 4bac 09be 396e 603f 829e eb3f 1b31 0e3c
00000040: f076 b2bf f861 b5be 5f3b 5fbf f539 6e3e
00000050: 1037 9c3f 0ecc 8f3e c2be 4f3f 4c55 8ebf
00000060: 9f2a 5fbf 59e0 093f b2b8 5940 be7c 97bd
00000070: 0e17 2b3d f4af 463f edfc 9b3c 8491 4fbf
00000080: 5d0c 16bf 00d1 3ebf 8a65 5dbf 5969 2ac0
00000090: 142f 0a40 fcd6 d03f e179 2ebf 3201 63bf
000000a0: f6d8 c8bf 2417 59c0 37c4 e9bf 644b 073e
000000b0: 4201 78bf 81f5 303e 66b2 b43f cb52 863f
000000c0: c96e 31c0 86ed a23e 53c0 6a3f 5827 d3bf
000000d0: 690b 76bf fb44 363f 1aac abbf 6a8a 653f
000000e0: a63c e8be d81e c4be b264 373f d0d9 883f
000000f0: 0db3 7540 9e0d 8f3e d9b1 04bf f06c 8bbd
00000100: cb4a e43e f538 c73e 0cd9 15bf 8e36 113f
00000110: d131 0abe 59a2 17bf 0801 e0bf 7729 13c0
00000120: d597 0cbf c449 993f 71aa d5bf ad62 81bf
00000130: 7602 4b3f a202 2dc0 863e 273d 7708 2a3f
00000140: 84a8 183f faad b4bf 3720 9e3f 95e1 92bf
00000150: dc5a b13f 5afb 23be 4589 07be be95 97c0
00000160: 88f6 99bf aaa7 78bf 2da2 86c0 1452 ddbe
00000170: 8c50 14c0 b3b0 14bf a23e e13f 2fd9 c23e
00000180: f6ff debf 448f 32c0 e079 7bbf c71c 8140
00000190: 29fd 1e3f fee9 fcbf 9709 cabf 14c4 3a3f
000001a0: 1fe2 64bf b067 87bf 5c65 cebf 6461 b9bf
000001b0: 9194 e53e aed0 e33c ccb9 b63f 52d4 ba3e
000001c0: 3649 b9bf ec6c ffbe 0964 24c0 298a f63f
000001d0: 3e2b 793e e06b 2c3f d1f6 783f 12a0 8c3e
000001e0: 3614 08c0 d4f4 643f c905 893f a216 34c0
000001f0: bd95 09c0 addd 853e 9fd3 d73e 7e18 9cbf
00000200: e7f0 113e c30e b0bf fe80 5a3f e233 0cc0
00000210: 485f 4f40 fa16 d53f 2b45 9cbf d97a 173f
00000220: f420 d23d 354e 15bf 8cee a5bb b487 253d
00000230: 6ba9 67bf 5fde a4bf 41df eabf 3bea c8bf
00000240: f3d4 96bd 8541 1abf f140 493f 02f5 0bc0
00000250: 2fe5 c83e d9c3 a73f ceb4 d63e 4b27 3dbf
00000260: 10fb 4ac0 fb59 a2be 4b52 ed3e c3e5 0e3f
00000270: ce68 183f 4479 dc3e 02da 85bf ef66 8bbe
00000280: f8cf a03f 2e16 263f adc2 563f 8404 02bf
00000290: 5546 91bf c400 d8be a67c 84bf 3e72 1cbf
000002a0: ab92 aa3f 569b 063f 3e12 bfc0 392f 8c3f
000002b0: 64e6 a33e 5ee6 00c0 b47a 58bf c0e4 ac3f
000002c0: ee28 b03e 4508 fa3e b799 4b3f 2bf4 13be
000002d0: 46cb 21c0 943f 7b3c 6e05 df3f 0d3e 593e
000002e0: fde4 ce3e 0f85 5c40 3057 87bf c483 1cbf
000002f0: 8517 44c0 9964 0f3f 9030 9a3f b4b0 573e
00000300: e793 f93e 231a 833f ccf4 e9be 9adf 94be
00000310: a3bd 17c0 ac84 1cbf 2bc9 24c0 7b97 a53e
00000320: 322e 93bf e8d7 af3f b995 c23f fe5f 22c0
00000330: e72a 033f ef7d f2bc 055d b43e 2145 b73f
00000340: 2295 993f aaa0 1ec0 3fec 1dc0 2286 a03f
00000350: 6f38 7cbe 2d1c dbbe 3aca dabf 3f14 8abf
00000360: c598 9dbf ffa4 e5be af0d c1bf 49c1 0dbf
00000370: fd0e f1be 379b 3dc0 71f8 c73f cada 373f
00000380: 1bcd 1ec0 6a92 cb3f 7635 0d3e efdf 32c0
00000390: 0293 98bd 16f9 0ac0 ac5a 6dbf 899a d7bf
000003a0: 55ff 36bf 9433 b13d 7d55 9cbf 2bf1 37c0
000003b0: eb67 cabd ae39 1d3f 34fe 6c3f a952 ccbf
000003c0: 7010 06c0 5e16 393f 54d5 f43f d7d6 fb3f
000003d0: 906d 763f d59f e6bf 8093 973f 32c6 73be
000003e0: d413 423e 023e 71bf 8c9c 0140 ccb9 1e40
000003f0: 58df f93f 2912 113f fea4 08bb f6fd 46bf

bias f4 [16]
-0.65256304 1.4122835 0.14881389 -0.5110067 1.9269968 1.106364 -0.50160915 0.30161163
0.34807813 0.37258518 -1.50059 -1.2185022 0.58199507 -1.8308481 -0.59421724 -1.7066816
00000000: 5f0e 27bf b5c5 b43f ab62 183e 56d1 02bf
00000010: d5a7 f63f 569d 8d3f 7569 00bf d76c 9a3e
00000020: 4c37 b23e 7cc3 be3e 5513 c0bf e1f7 9bbf
00000030: a1fd 143f 3b59 eabf 9f1e 18bf 8b74 dabf

weight f4 [16]
1.3780898 2.6478648 2.5441961 1.9111065 2.426024 2.2273057 1.9533731 0.8682158
1.9563049 1.7679781 2.1364958 2.5890682 2.1325366 2.68444 2.3351915 1.875498
00000000: 3f65 b03f 9e76 2940 1cd4 2240 239f f43f
00000010: fa43 1b40 2d8c 0e40 2108 fa3f 6443 5e3f
00000020: 3368 fa3f 1b4d e23f 59bc 0840 4bb3 2540
00000030: 7b7b 0840 ddcd 2b40 c773 1540 5210 f03f

bias f4 [16]
1.9824688 -0.18786247 0.3178881 -0.64369696 0.6567718 0.9699569 0.3049012 1.754504
0.51294035 1.0129303 0.13844754 0.4432745 -0.3638925 -1.1142646 0.6261256 -0.77159184
00000000: 8ac1 fd3f 055f 40be 3bc2 a23e 53c9 24bf
00000010: 3222 283f 184f 783f 031c 9c3e 9693 e03f
00000020: 0f50 033f b3a7 813f 31c5 0d3e e0f4 e23e
00000030: 1e50 babe 39a0 8ebf c449 203f 0b87 45bf

running_mean f4 [16]
-3.9465847 -38.609867 -20.912762 -24.903498 -42.506393 35.057796 -69.94118 -25.037115
-30.60941 18.771408 -21.113241 33.403446 -17.023565 -12.297274 18.456038 -61.5368
00000000: d894 7cc0 8170 1ac2 564d a7c1 5d3a c7c1
00000010: 8c06 2ac2 2f3b 0c42 e2e1 8bc2 034c c8c1
00000020: 12e0 f4c1 d82b 9641 ebe7 a8c1 219d 0542
00000030: 4330 88c1 a2c1 44c1 f7a5 9341 af25 76c2

running_var f4 [16]
275.3579 265.2904 1165.5071 383.00754 288.75208 660.1809 1124.5314 506.09402
1007.3725 299.10376 364.94394 678.8469 571.6538 364.10187 366.34103 238.60822
00000000: d0ad 8943 2ca5 8443 3ab0 9144 f780 bf43
00000010: 4460 9043 940b 2544 0191 8c44 090c fd43
00000020: d7d7 7b44 488d 9543 d378 b643 34b6 2944
00000030: d8e9 0e44 0a0d b643 a72b b743 b49b 6e43

weight f4 [32, 16, 3]
-0.3297895 -1.904786 0.011826771 1.0067351 0.14877494 -1.5472353 1.3811715 -0.9838098
0.7220268 0.39903522 0.123305984 -1.9327272 -2.815042 -1.1658489 -0.6198658 -1.1728336
-1.6259543 -1.8706415 1.1243861 -1.0702738 -1.1858044 -1.18242 0.7872285 -0.8869964
0.035508096 -0.15047517 -0.57556665 0.46285746 -1.1487187 -3.8941991 -4.043166 1.0235865
-1.4406021 -0.53643703 -2.0727007 -3.2867608 -1.1868795 -1.9704021 -1.9682078 -1.1253785
-0.9980451 0.21265866 -0.86097264 -1.4017835 1.0924442 -1.4394478 0.6286067 -0.025007974
-1.0983974 -0.32247636 0.49706662 -2.2954354 0.70576155 0.120605096 -1.46455 -0.29838124
0.11228194 -0.97582227 -0.57224864 1.0284191 -1.5943708 -2.415187 1.1751921 -0.45551455
0.22408277 1.7327946 -0.18319578 1.2548397 1.0334831 1.2083158 1.6943977 1.246387
0.43070787 2.0503545 1.2529165 -1.5379206 0.3711542 -0.24559607 -0.43882936 0.76508874
-0.3841034 -2.51527 -0.49171153 -0.49531004 0.6207086 1.0663671 3.1057823 0.09155147
1.5240278 3.8642044 -1.6239917 -0.27068663 -0.1722439 -2.3132408 -1.407738 1.2663201
-0.7276819 -1.5355147 -1.2296139 -1.1252229 -0.50551814 1.9947051 -1.4984611 -1.9166027
-1.7120663 -2.5364263 0.37725905 0.16061467 -0.44653773 -2.1300917 -1.3445837 -2.0431488
0.1838306 1.8222318 0.43460232 0.3179039 0.20233656 1.7527744 0.990503 0.15414353
0.8240089 1.328714 -0.8595939 -0.62205017 -2.9309251 0.0118002985 -1.209413 1.8225218
0.15395989 -2.7838936 -2.1532824 -1.2735909 -0.813531 1.0208808 2.0957108 0.22984648
0.7051138 2.352188 -1.649127 -2.9026368 0.8102924 -2.223413 -1.4249357 0.13516273
2.2422972 1.0091286 -2.3619823 -0.0021136783 -0.8561855 1.5492814 2.363097 0.49690923
-2.6067133 0.8807721 -2.138176 1.6252555 -3.0197966 -0.3890295 1.1772826 1.6784453
1.9535862 -1.9451169 0.4274171 -1.8405682 -0.088372126 -2.5844688 -1.3286381 1.3135213
-1.3427216 -0.7544322 -1.9985536 0.2611257 -0.21352838 1.4027324 -1.396279 0.18622781
1.2028977 0.5518752 0.016464984 2.9203057 -0.164806 -0.59077793 -1.1000361 -0.015175618
-0.00544856 -1.9820706 0.8730542 -1.057161 -2.010518 -0.56950086 0.17054032 -2.011965
-1.7945888 -1.2835728 -2.6280515 -1.4174061 -0.17855766 -0.6397816 -0.881962 0.44374824
0.8830407 0.14102699 -0.7883175 1.1425083 -2.1609619 -3.0745053 -1.402317 -3.2496738
0.013383194 1.1454961 0.103250444 -0.42882624 -0.4789775 0.35509396 -2.0135248 -3.235967
0.90748286 0.4402491 -1.3104091 -2.040112 -4.202624 1.1033797 -1.6794537 -0.555713
0.754714 -0.8858058 0.5563934 -0.34132057 0.07510837 -0.25726193 0.6622648 -0.77931076
-0.5633559 4.100325 -0.027902622 1.001739 0.6178812 -1.5385636 -2.0216277 1.672448
-4.25565 0.61673695 -0.031389404 -0.06935019 -2.9707298 0.40193015 -3.553322 0.29362816
1.0234553 0.7684544 -1.351039 -0.46433026 -0.104660705 0.57259655 -2.6641757 -0.45368993
00000000: 2bda a8be 07d0 f3bf 13c5 413c b2dc 803f
00000010: 7558 183e ce0b c6bf 3aca b03f f6da 7bbf
00000020: c0d6 383f 584e cc3e d987 fc3d 9b63 f7bf
00000030: a629 34c0 893a 95bf 86af 1ebf 691f 96bf
00000040: 451f d0bf 2e71 efbf e2eb 8f3f bbfe 88bf
00000050: 70c8 97bf 8a59 97bf cf87 493f 3212 63bf
00000060: f070 113d 2a16 1abe 5658 13bf a7fb ec3e
00000070: 3709 93bf 8f3a 79c0 9e61 81c0 e204 833f
00000080: a665 b8bf f053 09bf 21a7 04c0 4a5a 52c0
00000090: abeb 97bf 2336 fcbf 3cee fbbf 670c 90bf
000000a0: e27f 7fbf 31c3 593e b468 5cbf a46d b3bf
000000b0: 36d5 8b3f d33f b8bf 5eec 203f 86dd ccbc
000000c0: 4998 8cbf 9f1b a5be 847f fe3e 6ae8 12c0
000000d0: caac 343f ceff f63d 6076 bbbf 6dc5 98be
000000e0: 13f4 e53d 7dcf 79bf e37e 12bf 3da3 833f
000000f0: 5814 ccbf 6c92 1ac0 b26c 963f 3439 e9be
00000100: f475 653e 37cc dd3f ad97 3bbe 969e a03f
00000110: 2d49 843f 18aa 9a3f 06e2 d83f 9c89 9f3f
00000120: be85 dc3e 0239 0340 915f a03f 95da c4bf
00000130: ec07 be3e 897d 7bbe 3eae e0be dbdc 433f
00000140: 33a9 c4be 2ffa 20c0 9dc1 fbbe 4799 fdbe
00000150: c2e6 1e3f b87e 883f 23c5 4640 567f bb3d
00000160: 5813 c33f 204f 7740 f6de cfbf 7097 8abe
00000170: b460 30be 230c 14c0 c230 b4bf c716 a23f
00000180: 5c49 3abf bf8b c4bf fd63 9dbf 4e07 90bf
00000190: a369 01bf 7f52 ff3f 93cd bfbf 3d53 f5bf
000001a0: fd24 dbbf cf54 22c0 1928 c13e 2c78 243e
000001b0: 98a0 e4be 6c53 08c0 521b acbf f3c2 02c0
000001c0: 173e 3c3e e43e e93f 3284 de3e 4dc4 a23e
000001d0: 5131 4f3e e95a e03f 9b91 7d3f cdd7 1d3e
000001e0: 3ff2 523f 4d13 aa3f 590e 5cbf ae3e 1fbf
000001f0: 4794 3bc0 0a56 413c 0cce 9abf 6548 e93f
00000200: a9a7 1d3e 502b 32c0 61cf 09c0 0705 a3bf
00000210: 9143 50bf 39ac 823f 2020 0640 e05c 6b3e
00000220: 5782 343f 408a 1640 9816 d3bf cdc4 39c0
00000230: 536f 4f3f 664c 0ec0 4b64 b6bf 1968 0a3e
00000240: cc81 0f40 202b 813f b82a 17c0 a385 0abb
00000250: f92e 5bbf da4e c63f fb3c 1740 e36a fe3e
00000260: 64d4 26c0 487a 613f e0d7 08c0 5f08 d03f
00000270: 5944 41c0 e02e c7be 32b1 963f 4cd7 d63f
00000280: 1d0f fa3f 97f9 f8bf 6ad6 da3e bd97 ebbf
00000290: 72fc b4bd f067 25c0 d010 aabf 7721 a83f
000002a0: 4dde abbf 7822 41bf 9bd0 ffbf 45b2 853e
000002b0: 2fa7 5abe bc8c b33f 45b9 b2bf 81b2 3e3e
000002c0: 8df8 993f b147 0d3f 93e1 863c 4ae6 3a40
000002d0: e7c2 28be 393d 17bf fccd 8cbf 28a3 78bc
000002e0: d689 b2bb 7db4 fdbf 7b80 5f3f 0d51 87bf
000002f0: 54ac 00c0 cfca 11bf 1fa2 2e3e 09c4 00c0
00000300: 16b5 e5bf 1d4c a4bf ff31 28c0 906d b5bf
00000310: d2d7 36be bac8 23bf 43c8 61bf f832 e33e
00000320: f50e 623f 6169 103e 2dcf 49bf b63d 923f
00000330: 334d 0ac0 b2c4 44c0 207f b3bf a8fa 4fc0
00000340: 2f45 5b3c 9e9f 923f f874 d33d 1d8f dbbe
00000350: 8a3c f5be e0ce b53e 97dd 00c0 151a 4fc0
00000360: cc50 683f 5468 e13e 7cbb a7bf 3291 02c0
00000370: e57b 86c0 8c3b 8d3f 57f8 d6bf 3543 0ebf
00000380: f034 413f 2bc4 62bf cc6f 0e3f 92c1 aebe
00000390: 6bd2 993d d6b7 83be 308a 293f e980 47bf
000003a0: 1838 10bf dd35 8340 0a94 e4bc fc38 803f
000003b0: 762d 1e3f a7ef c4bf 5962 01c0 c712 d63f
000003c0: 492e 88c0 79e2 1d3f 2d92 00bd 7907 8ebd
000003d0: 7020 3ec0 cac9 cd3e a169 63c0 6e56 963e
000003e0: 9500 833f 6db9 443f d9ee acbf b2bc edbe
000003f0: 5a58 d6bd b095 123f db81 2ac0 0c4a e8be

bias f4 [32]
0.099255145 -0.9387133 0.9780057 -0.11970593 0.7009622 0.63730025 -0.69076854 -0.38640502
0.106760904 1.3796465 -0.25347823 0.19566524 -0.47069296 1.0746894 0.22233695 -0.65414846
0.54794896 0.589466 2.2301505 0.28985912 1.5149972 0.089769036 2.2300296 -0.3938566
-0.7891357 1.5203134 1.3538904 -1.2613734 0.8885286 -0.35052136 4.0364676 0.54834044
00000000: 4846 cb3d 844f 70bf 955e 7a3f 6228 f5bd
00000010: 4272 333f 1c26 233f 35d6 30bf e1d6 c5be
00000020: 76a5 da3d 4298 b03f e6c7 81be 785c 483e
00000030: abfe f0be 6c8f 893f 4cac 633e 4676 27bf
00000040: 6246 0c3f 3ee7 163f c9ba 0e40 6a68 943e
00000050: 6eeb c13f d4d8 b73d ceb8 0e40 93a7 c9be
00000060: cc04 4abf a199 c23f 484c ad3f af74 a1bf
00000070: 9c76 633f 8977 b3be be2a 8140 0a60 0c3f

weight f4 [32]
2.30652 1.6687816 2.0391967 2.0215838 2.125746 1.9983017 1.9281417 1.5243598
1.3479548 1.4613764 2.2133284 2.1247413 2.1143017 0.92755175 2.2800462 1.6026341
2.4363375 2.247946 1.3605846 1.0968513 2.0255558 0.09787598 1.8776264 2.1593328
2.320856 1.4610449 1.7354507 1.7915618 1.6498758 2.178324 2.0724425 1.6932396
00000000: 069e 1340 a39a d53f 3382 0240 a161 0140
00000010: 390c 0840 5ac8 ff3f 59cd f63f 391e c33f
00000020: c889 ac3f 620e bb3f 2ca7 0d40 c3fb 0740
00000030: b850 0740 0874 6d3f 47ec 1140 1d23 cd3f
00000040: f4ec 1b40 59de 0f40 a327 ae3f a065 8c3f
00000050: b5a2 0140 3473 c83d 1056 f03f 8232 0a40
00000060: e888 1440 8503 bb3f 4023 de3f e651 e53f
00000070: 212f d33f a969 0b40 e6a2 0440 13bc d83f

bias f4 [32]
-0.28831127 -1.5453767 0.4582033 0.6080535 -0.20295592 0.15178277 -1.3106513 -1.9139036
-2.1216147 -0.8462895 -1.4412487 0.6788572 0.00329564 1.3005795 -0.36373082 -0.6961257
1.1734512 -0.55945057 1.7708735 -0.28068653 0.5179703 -1.1064947 -0.34751827 -0.25602978
-0.07557475 -2.3917882 1.6781062 -0.27943984 -0.48383856 -0.7819867 -0.4643081 0.99847835
00000000: 899d 93be e7ce c5bf 9f99 ea3e 65a9 1b3f
00000010: add3 4fbe f16c 1b3e 6cc3 a7bf cbfa f4bf
00000020: 89c8 07c0 6ea6 58bf d67a b8bf 96c9 2d3f
00000030: aafb 573b 6479 a63f ed3a babe 4b35 32bf
00000040: a633 963f 2738 0fbf fcab e23f 25b6 8fbe
00000050: b499 043f 9ea1 8dbf eaed b1be 5616 83be
00000060: efc6 9abd 0f13 19c0 2fcc d63f bd12 8fbe
00000070: b0b9 f7be 4830 48bf cbb9 edbe 479c 7f3f

running_mean f4 [32]
-42.703373 3.1212585 -23.0457 -7.7287745 -38.431976 -30.563622 26.204975 19.629257
24.174982 -20.649767 1.0889828 5.451169 -6.782291 -11.17015 -16.844627 28.268082
-10.408079 -15.950226 -19.46295 19.922812 -32.54 -2.6240969 27.86142 -30.562792
0.7258312 24.602882 -18.858465 1.0304493 10.482962 -18.295164 -10.200128 -2.9320564
00000000: 41d0 2ac2 b3c2 4740 985d b8c1 1f52 f7c0
00000010: 58ba 19c2 4c82 f4c1 caa3 d141 b808 9d41
00000020: 5d66 c141 b932 a5c1 ca63 8b3f fa6f ae40
00000030: 8708 d9c0 efb8 32c1 ccc1 86c1 0825 e241
00000040: 7e87 26c1 2034 7fc1 1fb4 9bc1 eb61 9f41
00000050: f628 02c2 34f1 27c0 30e4 de41 9980 f4c1
00000060: 13d0 393f b4d2 c441 23de 96c1 c3e5 833f
00000070: 36ba 2741 7f5c 92c1 b933 23c1 d0a6 3bc0

running_var f4 [32]
741.5445 411.41907 609.7542 444.0396 411.9366 556.12134 548.18915 535.74963
408.1439 578.96515 364.79694 684.3099 819.6394 476.54492 426.7797 449.51328
617.95 313.4011 1065.8351 356.15405 341.12906 214.70114 483.16028 997.8596
566.5485 477.07935 855.7369 545.49207 554.6746 503.145 374.77298 689.34863
00000000: d962 3944 a4b5 cd43 4570 1844 1205 de43
00000010: e3f7 cd43 c407 0b44 1b0c 0944 faef 0544
00000020: 6b12 cc43 c5bd 1044 0266 b643 d513 2b44
00000030: ece8 4c44 c045 ee43 cd63 d543 b3c1 e043
00000040: cd7c 1a44 57b3 9c43 b93a 8544 b813 b243
00000050: 8590 aa43 7eb3 5643 8494 f143 0477 7944
00000060: 1ba3 0d44 288a ee43 29ef 5544 7e5f 0844
00000070: 2dab 0a44 8f92 fb43 f162 bb43 5056 2c44

weight f4 [32, 32, 3]
0.9733646 0.11944003 0.15291587 0.960826 -0.9363166 -2.18675 2.7334228 -0.7215695
-2.0017118 1.7221692 -0.2939716 -0.6980259 -2.716813 1.2175673 -1.7462643 0.47593272
1.7480253 -0.9118389 2.3272603 1.1616025 1.1399869 1.1282133 -0.58505654 -3.5571036
-1.8633549 -1.6200558 -0.21712159 2.961587 1.1934601 -2.8795896 0.37088698 0.02870569
-0.3028159 2.7921445 2.1126149 -1.3243544 1.578185 0.40411487 -1.2648277 2.442234
-0.9626136 -0.58589643 1.4098722 1.7590785 -1.292759 1.4935309 0.18768986 0.5035099
0.44768217 -2.2482252 -4.414277 -1.0523628 0.25522628 1.8091718 -1.10631 0.6540966
-0.37356412 1.14913 -0.0021443309 -0.3679053 2.158702 0.59178585 -0.564041 0.3732511
-0.5777926 -0.91578627 1.0068066 -1.7390109 -1.1542931 0.16111608 0.22093041 0.48235115
-0.6945719 -0.14356163 0.63326937 1.6666943 0.4941767 0.15520504 -0.32275575 -1.115639
-2.2067351 1.7980424 0.30671757 -1.2051716 0.9586727 0.48478192 -0.34416512 1.7907349
0.25317731 2.610261 -0.25009474 0.78115594 -2.34412 -1.0721614 -0.14318393 0.28367272
2.2776096 0.77274215 1.7890801 0.5872979 -0.8058173 3.780168 -1.3650678 -0.6196319
0.11782954 0.42025003 -0.46828318 -1.0669413 0.41305128 0.06973239 3.6122358 0.31827876
-0.8125397 0.48399675 1.1678531 0.91545147 -2.1282167 -1.6765869 -1.4177605 -0.011174028
1.8974354 0.659607 -1.1173421 -0.81363297 0.556434 1.713813 -1.0259264 -2.932623
-3.5509682 -0.52327424 1.1984596 0.12517855 -1.6661931 -0.3074193 3.2289414 -0.7256178
-0.59739804 -2.5229483 0.4923754 -0.84319067 0.8841218 -0.70531833 0.9718629 -2.0042217
-0.5807509 -0.5630224 -1.5469673 0.037831444 1.0709988 4.270191 -0.30293995 -1.9057968
1.0117946 -1.3211884 -1.9968824 0.109757364 2.0811474 0.911768 -1.5350199 0.11130364
-0.32692552 -0.6584024 0.21389431 -0.7276695 -3.6279485 -3.462682 -0.5758675 2.6002855
0.6913383 -1.411571 -5.7169213 2.9115567 -0.15814987 -0.83686143 -1.1826334 -1.3829266
1.3696223 0.9149202 -2.6615007 -0.8622681 -1.0787264 -0.6049454 -0.8495154 2.261811
0.7129957 -5.135529 -1.2874084 -1.9009631 0.3781549 0.6331891 -0.8040391 0.53022754
1.6087437 0.31195298 -0.78647816 -0.17471948 -0.68894035 1.5704285 1.9916296 -0.60351056
-0.25030288 -2.4371512 0.2651016 -0.82431227 0.9359195 -0.99922323 -2.1085787 -1.6755445
-1.1965988 0.8310658 0.095848344 0.06145297 -0.260415 0.20736119 1.6983992 1.4227501
-2.5889096 -0.1409764 1.3918579 -1.0918216 0.3672153 1.1746712 0.36411223 -0.67010534
0.41484344 -0.21900658 0.72211397 1.0074233 -1.4038529 0.7681828 3.9426293 3.733557
-2.3574736 0.30646452 -1.7336382 -2.8736324 -1.0946648 -0.4983821 -0.37476334 1.1021304
0.06755329 -0.7716764 0.017269522 2.0938065 -0.19205135 -3.665469 1.5199478 -2.5231164
2.385357 -1.2522556 -0.78875375 4.0856977 -0.37929812 -0.15760499 0.15043502 -0.86231035
00000000: 6c2e 793f f99c f43d fa95 1c3e b1f8 753f
00000010: 72b2 6fbf b6f3 0bc0 66f0 2e40 c7b8 38bf
00000020: 0c1c 00c0 0a70 dc3f 7283 96be d3b1 32bf
00000030: 44e0 2dc0 3fd9 9b3f 9785 dfbf 74ad f33e
00000040: 4bbf df3f 466e 69bf d5f1 1440 64af 943f
00000050: 17eb 913f 4b69 903f 44c6 15bf 96a7 63c0
00000060: 6a82 eebf fd5d cfbf 1f55 5ebe a48a 3d40
00000070: 4dc3 983f 324b 38c0 e6e4 bd3e 3228 eb3c
00000080: b00a 9bbe 7fb2 3240 1535 0740 7284 a9bf
00000090: f701 ca3f 25e8 ce3e e0e5 a1bf 904d 1c40
000000a0: d86d 76bf 4ffd 15bf b176 b43f 7c29 e13f
000000b0: 2079 a5bf 052c bf3f c531 403e 06e6 003f
000000c0: 9936 e53e ece2 0fc0 c241 8dc0 d3b3 86bf
000000d0: 05ad 823e f192 e73f 919b 8dbf e072 273f
000000e0: cc43 bfbe b116 933f e787 0cbb 155e bcbe
000000f0: 2c28 0a40 477f 173f fe64 10bf c51a bf3e
00000100: 37ea 13bf f870 6abf 0adf 803f e997 debf
00000110: e0bf 93bf 9dfb 243e 953b 623e bbf6 f63e
00000120: 77cf 31bf d201 13be f11d 223f 3d56 d53f
00000130: ba04 fd3e 12ee 1e3e 3e40 a5be 42cd 8ebf
00000140: 263b 0dc0 4126 e63f 160a 9d3e 1043 9abf
00000150: 936b 753f 5635 f83e 6936 b0be cd36 e53f
00000160: 75a0 813e 840e 2740 6b0c 80be d6f9 473f
00000170: 1006 16c0 963c 89bf cf9e 12be 8d3d 913e
00000180: 5bc4 1140 6ed2 453f 9400 e53f 2859 163f
00000190: 0b4a 4ebf 46ee 7140 8bba aebf 32a0 1ebf
000001a0: 9d50 f13d 032b d73e d0c2 efbe 8891 88bf
000001b0: 757b d33e dbcf 8e3d df2e 6740 6ff5 a23e
000001c0: 9a02 50bf 6cce f73e 367c 953f 075b 6a3f
000001d0: b434 08c0 669a d6bf 2d79 b5bf 4513 37bc
000001e0: 2adf f23f 01dc 283f 1105 8fbf 404a 50bf
000001f0: 7572 0e3f 395e db3f 8e51 83bf 18b0 3bc0
00000200: 1043 63c0 4df5 05bf 2067 993f ce2e 003e
00000210: d145 d5bf 1066 9dbe faa6 4e40 17c2 39bf
00000220: 14ef 18bf fc77 21c0 a118 fc3e 58db 57bf
00000230: ce55 623f be8f 34bf 02cc 783f 2b45 00c0
00000240: 17ac 14bf 3c22 10bf 0603 c6bf 25f5 1a3d
00000250: 7d16 893f 68a5 8840 f21a 9bbe 26f1 f3bf
00000260: 7c82 813f b41c a9bf d899 ffbf 78c8 e03d
00000270: 8531 0540 a169 693f 887b c4bf 2af3 e33d
00000280: c862 a7be 0f8d 28bf 1c07 5b3e 8c48 3abf
00000290: 4f30 68c0 959c 5dc0 0d6c 13bf 146b 2640
000002a0: 8cfb 303f 5cae b4bf 05f1 b6c0 f256 3a40
000002b0: 0af2 21be 8d3c 56bf 8860 97bf bd03 b1bf
000002c0: c94f af3f 3638 6a3f 0756 2ac0 9abd 5cbf
000002d0: b513 8abf b4dd 1abf d779 59bf 83c1 1040
000002e0: e386 363f 4156 a4c0 ccc9 a4bf c252 f3bf
000002f0: 859d c13e ae18 223f 82d5 4dbf febc 073f
00000300: 50eb cd3f 4db8 9f3e a256 49bf aae9 32be
00000310: 655e 30bf cd03 c93f b8ed fe3f ab7f 1abf
00000320: b327 80be 49fa 1bc0 66bb 873e 2106 53bf
00000330: 6c98 6f3f 18cd 7fbf f4f2 06c0 3e78 d6bf
00000340: 262a 99bf bac0 543f 234c c43d 1cb6 7b3d
00000350: 1d55 85be 7e56 543e 2565 d93f ad1c b63f
00000360: b2b0 25c0 1e5c 10be 6628 b23f cfc0 8bbf
00000370: a503 bc3e a05b 963f eb6c ba3e 068c 2bbf
00000380: 5c66 d43e 4343 60be 76dc 383f 3ff3 803f
00000390: 74b1 b3bf a1a7 443f 0a54 7c40 99f2 6e40
000003a0: d9e0 16c0 ebe8 9c3e dbe7 ddbf 98e9 37c0
000003b0: fa1d 8cbf f02b ffbe fbe0 bfbe 9c12 8d3f
000003c0: 6159 8a3d 968c 45bf d078 8d3c ed00 0640
000003d0: 1ca9 44be 0b97 6ac0 a68d c23f bd7a 21c0
000003e0: b0a9 1840 e949 a0bf c4eb 49bf 09be 8240
000003f0: 5d33 c2be 3463 21be a30b 1a3e 5fc0 5cbf

bias f4 [32]
-0.6761714 -0.83310443 0.2087011 -3.2034092 0.8656096 -0.74238 -0.34926468 0.35588244
-0.70054364 -0.78106713 -0.71028197 -0.823464 0.79808235 0.89227676 1.698292 0.60757506
-0.23527168 -0.7195884 0.93675727 -0.35929704 -0.72977483 0.3580799 2.0617177 -0.4079516
-1.0351373 -0.24188943 -0.15387602 -0.39795914 1.4696851 -0.6199327 0.50873864 1.2996099
00000000: 9219 2dbf 5546 55bf beb5 553e a804 4dc0
00000010: 9798 5d3f 9e0c 3ebf d2d2 b2be 3936 b63e
00000020: d456 33bf 04f4 47bf 0ad5 35bf 89ce 52bf
00000030: 204f 4c3f 406c 643f a261 d93f 0a8a 1b3f
00000040: 0feb 70be f236 38bf 53cf 6f3f c8f5 b7be
00000050: 86d2 3abf 4056 b73e 2ff3 0340 08df d0be
00000060: 617f 84bf ddb1 77be ad91 1dbe 4dc1 cbbe
00000070: a41e bc3f e9b3 1ebf b23c 023f 9e59 a63f

weight f4 [32]
1.7137753 2.4336317 1.4197503 2.2131631 1.9475754 1.9500505 2.7444918 2.2908366
2.4302983 1.3780943 2.4111388 1.9060644 1.3300343 2.631515 2.4597404 2.3728216
2.3054821 2.0759244 1.7141006 2.933836 1.3794396 1.5810648 2.5432024 2.595969
1.895621 2.4203818 2.3365595 1.9745389 1.381711 2.2185786 1.5475389 2.2370634
00000000: fd5c db3f 9fc0 1b40 61ba b53f 77a4 0d40
00000010: 274a f93f 419b f93f c1a5 2f40 119d 1240
00000020: 028a 1b40 6565 b03f 1950 1a40 ebf9 f33f
00000030: 903e aa3f be6a 2840 636c 1d40 4fdc 1740
00000040: 058d 1340 f2db 0440 a667 db3f f8c3 3b40
00000050: 7a91 b03f 5560 ca3f d4c3 2240 5b24 2640
00000060: b5a3 f23f 89e7 1a40 318a 1540 b1bd fc3f
00000070: e8db b03f 31fd 0d40 c115 c63f 0c2c 0f40

bias f4 [32]
-0.61625385 -0.46903396 -2.656917 1.043474 -1.4574602 0.5605009 1.1462978 -1.1863259
-1.2122514 -2.185322 -0.40951365 -0.9183631 -2.0858989 0.49208352 -0.20908666 -0.03913842
-0.30251566 -0.7588651 -1.4677143 0.07022776 -1.9040543 -0.008509953 0.20805073 -1.074607
0.8471079 -0.09959015 -0.83404785 -0.28575617 -2.3405354 -0.4091001 -1.8887979 -0.4198778
00000000: d0c2 1dbf 3825 f0be ee0a 2ac0 8e90 853f
00000010: 0e8e babf fd7c 0f3f e3b9 923f 87d9 97bf
00000020: 0e2b 9bbf 51dc 0bc0 c6ab d1be d819 6bbf
00000030: 5e7f 05c0 5ff2 fb3e d01a 56be 9c4f 20bd
00000040: 55e3 9abe fc44 42bf 10de bbbf 92d3 8f3d
00000050: 0db8 f3bf 546d 0bbc 400b 553e b98c 89bf
00000060: 10dc 583f ecf5 cbbd 2984 55bf a24e 92be
00000070: 55cb 15c0 9175 d1be 21c4 f1bf 39fa d6be

running_mean f4 [32]
-6.4204235 -25.602255 15.682876 10.772254 -37.98281 5.7473574 -22.390417 -8.100075
-75.709 24.733702 -22.068857 4.9639096 -3.3400097 -48.86105 -18.584433 -5.725415
-37.610153 -7.1573205 -36.043205 -48.081768 31.609495 -16.481018 -37.010277 -48.12091
10.773512 -10.644164 -64.57083 -6.6425514 23.804958 2.2286098 32.714264 -17.925964
00000000: 1c74 cdc0 6bd1 ccc1 0fed 7a41 275b 2c41
00000010: 66ee 17c2 5aea b740 931f b3c1 e899 01c1
00000020: 026b 97c2 9fde c541 058d b0c1 59d8 9e40
00000030: b8c2 55c0 b771 43c2 ebac 94c1 9a36 b7c0
00000040: cc70 16c2 c508 e5c0 3e2c 10c2 bb53 40c2
00000050: 3fe0 fc41 20d9 83c1 860a 14c2 d07b 40c2
00000060: 4e60 2c41 7f4e 2ac1 4424 81c2 c88f d4c0
00000070: 8e70 be41 8ba1 0e40 68db 0242 6068 8fc1

running_var f4 [32]
1047.3232 738.2679 579.708 890.52014 528.08923 1054.732 1546.98 962.6405
804.7272 538.2705 826.14105 999.43665 590.4755 1445.1222 2010.2393 1026.8928
1056.8646 665.9389 416.5176 822.2373 679.41583 1233.7233 967.4891 722.1777
926.8343 1048.5443 816.23987 894.6617 499.75485 731.78284 448.58884 826.514
00000000: 58ea 8244 2591 3844 50ed 1044 4aa1 5e44
00000010: b605 0444 6dd7 8344 5c5f c144 fea8 7044
00000020: 8a2e 4944 5091 0644 0789 4e44 f2db 7944
00000030: 6f9e 1344 e9a3 b444 a847 fb44 925c 8044
00000040: ab1b 8444 177c 2644 4142 d043 308f 4d44
00000050: 9dda 2944 2537 9a44 4ddf 7144 5f8b 3444
00000060: 65b5 6744 6b11 8344 5a0f 4c44 59aa 5f44
00000070: 9fe0 f943 1af2 3644 5f4b e043 e5a0 4e44

weight f4 [64, 32, 3]
-3.0299528 -1.686782 -0.055002954 0.5480382 1.4926034 2.7267253 0.31104118 1.2033832
-1.5457765 0.93958515 2.0424151 0.65963316 -0.6050143 -0.18830305 2.162836 1.0706717
-1.4151717 -4.222793 -0.7912612 -0.628495 -1.2034799 1.530282 -0.9700838 -0.096964456
0.51918936 0.04231457 1.5170853 0.06664685 0.40904725 0.30887216 -0.44737753 0.1006012
1.1269484 -0.29694253 0.7838311 -1.0138705 0.12614729 0.22789672 0.04451744 -0.99821955
-1.7945079 0.6792934 -1.4866663 -1.8703241 0.9653754 1.4686359 1.6637281 -0.032444686
-1.4768462 -2.2522554 1.4998671 -1.9732716 -0.65260404 1.5252963 -0.4617921 -1.4348019
-0.24997881 -1.6578982 -0.6887025 0.10133353 0.3919624 0.6219524 1.220822 -3.931333
1.1935799 2.4600813 -1.3675548 -0.85278124 -0.15656659 -1.4196379 -0.9286858 -2.2623446
1.6333501 -2.2684703 -0.7020804 -5.904442 -1.2785485 -4.157638 -0.60666066 0.09663287
-0.5616218 -0.7958743 -2.8712072 -5.4062295 -2.8121197 0.5167838 -1.41777 1.3745713
0.8229436 -0.10601762 1.3032124 0.8577432 2.0995157 -2.1592278 0.7180197 -0.68710244
-3.0694072 1.4459482 -0.36848542 1.8840443 -1.9395871 1.0093321 1.5232761 -0.9365344
0.22379878 1.188927 0.13618644 -1.8681436 0.2831115 1.6838279 1.0491918 1.7899114
-0.15228133 0.15746315 -2.6280675 -2.4282255 -1.0303814 -3.9154804 -2.5310726 -1.9021417
0.28522515 0.61628264 -0.8965547 1.7003988 0.9398767 1.3263445 1.5255517 -0.050801773
-0.3982616 -0.9270873 -2.959194 -0.12972803 1.0509185 0.9254354 -0.41885605 -4.2518954
0.8606466 -2.191776 1.7856437 -0.41192785 0.5253543 -1.6502043 -0.7173759 -2.646365
-5.328244 -2.9639251 -1.8930211 -1.3182592 -0.8397774 0.49127978 -0.4857912 0.7769268
0.2502264 -1.6275272 2.4294531 -1.3104116 -0.299281 0.7895268 -0.07666763 -1.387099
1.1728209 -1.2102807 -0.9049571 -0.5209568 -0.6459117 -0.13143982 -2.5117967 -3.0780642
-1.5708294 0.40219706 -3.2480218 -2.3469243 -0.2859071 0.92157567 -1.0153188 0.29009774
1.0714711 -1.6948342 -0.5386106 0.62858814 2.1411455 1.1534914 0.89018124 0.64635646
-2.3629405 -1.7842307 2.4326222 0.34656987 -1.7435755 0.8005628 -1.2841821 -2.2355247
-0.23211832 -0.11081651 0.3886121 -1.5355353 -0.62649477 -1.8341771 1.68416 0.932438
-2.5767748 2.1124094 -0.2702729 0.69637537 -1.7509162 0.072523065 0.034677826 1.2277708
0.18846516 -0.6069739 1.1191279 0.4008085 0.68948483 -0.81076175 0.13070236 1.4934939
-1.1676245 0.37046322 -0.76679635 -0.17524706 -1.2705652 0.80147713 1.7394545 0.7120711
0.49739513 3.0788832 0.094429724 2.4085398 -0.43138036 1.321097 1.2517797 0.32490638
2.2240653 -1.1858379 -0.07224169 -1.7916558 -0.50078076 -1.3767104 0.5208055 -1.6451241
0.18015313 0.7733236 -0.38662663 1.6318908 2.2938843 -1.1915491 0.17789759 0.35636717
-1.0027918 -1.8431668 2.2604165 0.5378675 2.9265845 2.6221087 3.6687999 -1.1241497
00000000: bfea 41c0 79e8 d7bf c74a 61bd 3b4c 0c3f
00000010: a10d bf3f ab82 2e40 ca40 9f3e 7608 9a3f
00000020: 01dc c5bf a788 703f eeb6 0240 b8dd 283f
00000030: 38e2 1abf 84d2 40be e86b 0a40 c50b 893f
00000040: 5924 b5bf 1f21 87c0 1890 4abf 0ce5 20bf
00000050: a10b 9abf 48e0 c33f 6957 78bf 4d95 c6bd
00000060: 98e9 043f 0b52 2d3d da2f c23f 257e 883d
00000070: a46e d13e 7e24 9e3e ab0e e5be 0008 ce3d
00000080: d83f 903f da08 98be 28a9 483f 82c6 81bf
00000090: c12c 013e c25d 693e eb57 363d 518b 7fbf
000000a0: 6fb2 e5bf 2ce6 2d3f 154b bebf c866 efbf
000000b0: d822 773f 43fc bb3f 0bf5 d43f b8e4 04bd
000000c0: 4c09 bdbf f424 10c0 a5fb bf3f 2a94 fcbf
000000d0: 0f11 27bf e93c c33f 0470 ecbe 97a7 b7bf
000000e0: 72fa 7fbe 0236 d4bf cf4e 30bf f487 cf3d
000000f0: 4caf c83e 4638 1f3f e543 9c3f f69a 7bc0
00000100: 3ac7 983f f971 1d40 090c afbf df4f 5abf
00000110: fe52 20be b2b6 b5bf 5abe 6dbf 41ca 10c0
00000120: 9e11 d13f 9e2e 11c0 8bbb 33bf 30f1 bcc0
00000130: 7aa7 a3bf 5f0b 85c0 1d4e 1bbf 74e7 c53d
00000140: 72c6 0fbf 6bbe 4bbf dcc1 37c0 d5ff acc0
00000150: c5f9 33c0 f14b 043f 7d79 b5bf f4f1 af3f
00000160: 6fac 523f c41f d9bd aacf a63f 0f95 5b3f
00000170: 775e 0640 ca30 0ac0 24d0 373f f2e5 2fbf
00000180: 2b71 44c0 d514 b93f 1faa bcbe 5d28 f13f
00000190: 6444 f8bf cb31 813f b6fa c23f b8c0 6fbf
000001a0: 822b 653e c32e 983f 7574 0b3e 541f efbf
000001b0: fef3 903e ac87 d73f eb4b 863f d11b e53f
000001c0: a3ef 1bbe 053e 213e 4232 28c0 0c68 1bc0
000001d0: 8ae3 83bf 3b97 7ac0 18fd 21c0 6179 f3bf
000001e0: 0809 923e b3c4 1d3f 9c84 65bf aba6 d93f
000001f0: c29b 703f a8c5 a93f 4745 c33f 8515 50bd
00000200: f2e8 cbbe 9855 6dbf 6f63 3dc0 6dd7 04be
00000210: 7f84 863f 56e9 6c3f 4d74 d6be 870f 88c0
00000220: 5653 5c3f 0f46 0cc0 f98f e43f 35e8 d2be
00000230: 9f7d 063f e539 d3bf f2a5 37bf 0b5e 29c0
00000240: fa80 aac0 f3b0 3dc0 844e f2bf b8bc a8bf
00000250: a7fb 56bf 0689 fb3e a0b9 f8be ade4 463f
00000260: ad1d 803e d052 d0bf 297c 1b40 91bb a7bf
00000270: 5c3b 99be 6e1e 4a3f eb03 9dbd 768c b1bf
00000280: ff1e 963f 7aea 9abf 45ab 67bf 6d5d 05bf
00000290: 785a 25bf 2998 06be 47c1 20c0 01ff 44c0
000002a0: f010 c9bf c6ec cd3e 97df 4fc0 0234 16c0
000002b0: 6a62 92be 62ec 6b3f f7f5 81bf b187 943e
000002c0: f725 893f 54f0 d8bf 62e2 09bf 27eb 203f
000002d0: 8708 0940 9ba5 933f ebe2 633f 9e77 253f
000002e0: 6b3a 17c0 ac61 e4bf 15b0 1b40 9b71 b13e
000002f0: 7b2d dfbf aff1 4c3f 1460 a4bf d612 0fc0
00000300: 6db0 6dbe c4f3 e2bd 2af8 c63e 6c8c c4bf
00000310: f661 20bf 51c6 eabf 8e92 d73f 42b4 6e3f
00000320: e1e9 24c0 b731 0740 3661 8abe a845 323f
00000330: 061e e0bf f986 943d 560a 0e3d 9827 9d3f
00000340: 03fd 403e a462 1bbf 953f 8f3f c636 cd3e
00000350: 1482 303f 158e 4fbf d7d6 053e cf2a bf3f
00000360: b874 95bf 5bad bd3e c44c 44bf f773 33be
00000370: e1a1 a2bf 9b2d 4d3f 72a6 de3f 4b4a 363f
00000380: 93aa fe3e 6c0c 4540 5f64 c13d 8425 1a40
00000390: e3dd dcbe b519 a93f 513a a03f 215a a63e
000003a0: 1657 0e40 89c9 97bf 73f3 93bd fa54 e5bf
000003b0: 2b33 00bf 0c38 b0bf 8253 053f 6d93 d2bf
000003c0: 107a 383e 89f8 453f edf3 c5be cce1 d03f
000003d0: 00cf 1240 ae84 98bf c92a 363e c275 b63e
000003e0: 7b5b 80bf e4ec ebbf aaaa 1040 afb1 093f
000003f0: 294d 3b40 a1d0 2740 9ecd 6a40 23e4 8fbf

bias f4 [64]
-1.123527 -0.7457683 -0.8389623 -0.9475055 0.4522822 -0.8356796 0.083260305 -1.3003496
-0.31646472 -0.6693165 1.0790373 -0.87441826 0.78377193 -0.1723679 1.2681807 0.12087155
-0.86300284 1.9917125 -0.004501013 -1.3348835 -0.26331848 1.2569686 -0.9821542 -0.0823684
0.6546366 -0.5160082 -0.9472183 0.22468035 -0.38375095 1.1406993 -0.44894633 1.0647377
-0.24549384 -0.40595013 0.56215477 0.020392297 -0.10475041 -0.28609785 -0.6100434 -1.829516
-0.48430374 0.022792617 -0.119420186 0.44376504 0.33135533 -2.3803654 0.29303542 -0.32365653
-0.44845098 -0.06562558 -0.20843971 0.1078958 1.4926513 -0.40979964 0.48165932 -0.4091857
-0.5675325 -0.79343736 -1.196603 2.3156214 -1.4724436 -0.100844026 -0.19511391 1.4929767
00000000: bccf 8fbf acea 3ebf 3cc6 56bf b88f 72bf
00000010: 8891 e73e 19ef 55bf 6184 aa3d db71 a6bf
00000020: aa07 a2be 5358 2bbf e51d 8a3f e0d9 5fbf
00000030: 47a5 483f 3681 30be bf53 a23f 818b f73d
00000040: c1ed 5cbf 6ff0 fe3f 3c7d 93bb 76dd aabf
00000050: aed1 86be 59e4 a03f 756e 7bbf c4b0 a8bd
00000060: 4496 273f 1d19 04bf e67c 72bf 9b12 663e
00000070: 017b c4be 6f02 923f 4bdc e5be 5349 883f
00000080: bd62 7bbe b2d8 cfbe 60e9 0f3f bf0d a73c
00000090: 6287 d6bd 6b7b 92be ce2b 1cbf 952d eabf
000000a0: a9f6 f7be 95b7 ba3c 9292 f4bd 2c35 e33e
000000b0: 68a7 a93e e857 18c0 bd08 963e 4fb6 a5be
000000c0: 5e9b e5be b466 86bd 3871 55be 79f8 dc3d
000000d0: 330f bf3f 42d1 d1be 0d9c f63e ca80 d1be
000000e0: cf49 11bf b61e 4bbf 492a 99bf 2433 1440
000000f0: 0879 bcbf 5087 cebd f1cb 47be dc19 bf3f

weight f4 [64]
2.5605898 2.593152 1.7166804 2.1663818 1.2036822 2.1479762 1.4875302 1.2845122
1.709541 1.8548046 1.9443533 1.8362936 1.9565768 1.553875 1.7929577 2.5450847
2.0764532 1.7391051 2.1838021 1.6111734 2.0148292 1.2633724 1.3966445 1.5070735
1.3290987 1.560006 2.1677291 1.9911792 1.137369 1.8351433 1.9064474 1.7254037
2.0227163 1.8336895 1.4986134 1.5019643 1.5340711 1.9700468 2.2467372 1.3113866
1.3576996 1.7425075 1.3139793 2.0860164 1.733179 1.825439 1.287559 2.4063735
1.8979764 1.7217659 1.6469762 2.185375 2.045009 1.8598437 1.4983416 1.5144794
2.140548 1.8518986 1.7384826 2.2739687 2.0895472 1.4201344 2.1464536 1.9737706
00000000: b4e0 2340 34f6 2540 2fbc db3f 00a6 0a40
00000010: 4212 9a3f 7178 0940 6467 be3f e56a a43f
00000020: 3dd2 da3f 3d6a ed3f 92e0 f83f ab0b eb3f
00000030: 1c71 fa3f 60e5 c63f a37f e53f abe2 2240
00000040: 9ce4 0440 ff9a de3f 6ac3 0b40 ee3a ce3f
00000050: f6f2 0040 30b6 a13f 3fc5 b23f c9e7 c03f
00000060: e81f aa3f 47ae c73f 13bc 0a40 f6de fe3f
00000070: 4f95 913f fae5 ea3f 7806 f43f 07da dc3f
00000080: 2f74 0140 56b6 ea3f 90d2 bf3f 5e40 c03f
00000090: 715c c43f 7e2a fc3f 8bca 0f40 84db a73f
000000a0: 1ac9 ad3f 7c0a df3f 7930 a83f 4b81 0540
000000b0: cfd8 dd3f fca7 e93f bcce a43f 0602 1a40
000000c0: e4f0 f23f d362 dc3f 1ed0 d23f 2fdd 0b40
000000d0: 6de1 0240 5c0f ee3f a8c9 bf3f 76da c13f
000000e0: bdfe 0840 030b ed3f 9986 de3f b488 1140
000000f0: 24bb 0540 f7c6 b53f 7f5f 0940 84a4 fc3f

bias f4 [64]
-0.7219259 -1.7697202 -1.3073369 -0.6272616 -2.4646382 -1.3119227 0.118693516 0.098632336
-0.7469353 -0.70756775 -0.49220592 0.43523723 -0.23440516 -1.3662219 -1.4994699 -1.190147
0.07733247 -0.63790023 -1.0798477 -1.9098569 -0.41922727 -0.3017918 -2.132361 -1.4149191
-0.09682024 -0.41277835 -0.8469286 -1.3639218 -0.6466392 -0.06683046 -0.8323052 -2.0826619
-1.7342291 -0.063838445 -1.3690318 -2.5097342 -1.7076818 -1.2048525 0.019874796 -2.0838492
-0.60338 0.13663864 0.620698 -1.0526735 -1.5736035 0.7465668 -1.0518895 -0.094390586
-2.1970894 -0.33294675 -2.370415 -0.32162982 0.021390226 -0.6905955 -1.4436847 -1.2900361
-1.3996656 -0.6175975 -0.0063796174 -0.60630584 -0.31326845 0.9033173 -0.89662606 -0.7710943
00000000: 23d0 38bf 3186 e2bf d156 a7bf 3794 20bf
00000010: a2bc 1dc0 15ed a7bf 9615 f33d c0ff c93d
00000020: 2737 3fbf 2923 35bf 6a02 fcbe 6ad7 de3e
00000030: e807 70be 5ce0 aebf a1ee bfbf bd56 98bf
00000040: 7c60 9e3d 6e4d 23bf 7338 8abf 3176 f4bf
00000050: f5a4 d6be 7484 9abe 9a78 08c0 121c b5bf
00000060: b149 c6bd af57 d3be 50d0 58bf fd94 aebf
00000070: 268a 25bf 69de 88bd f411 55bf 554a 05c0
00000080: 38fb ddbf bbbd 82bd 6f3c afbf 7c9f 20c0
00000090: 5195 dabf 9b38 9abf 78d0 a23c c95d 05c0
000000a0: 1d77 1abf 00eb 0b3e 10e6 1e3f 01be 86bf
000000b0: d76b c9bf 001f 3f3f 51a4 86bf da4f c1bd
000000c0: 1d9d 0cc0 ff77 aabe e1b4 17c0 aaac a4be
000000d0: 8e3a af3c deca 30bf a9ca b8bf e71f a5bf
000000e0: 3e28 b3bf df1a 1ebf 1c0c d1bb dc36 1bbf
000000f0: b964 a0be cd3f 673f 4989 65bf 7066 45bf

running_mean f4 [64]
-28.546104 -47.927937 16.42042 -17.651619 1.2824175 -7.3038597 -6.6264052 1.9855827
-10.220581 -25.106943 3.0282404 -38.21125 -4.9271784 -11.373276 12.307403 14.249934
-28.210964 0.7884298 -5.979009 3.206481 -12.015993 -1.3166137 -17.872599 1.1023444
2.4091759 7.6669836 -23.534658 -11.366531 -8.328993 4.5680165 -6.470032 -22.574114
9.202922 0.8122991 -16.260302 31.246313 -7.1257915 -0.46686926 -26.013117 13.1464
-28.235107 -5.103571 -16.98743 -20.492449 9.407094 -19.508734 8.24661 -5.46546
-6.992838 -6.1667185 -7.4599314 -28.18801 -32.796154 7.8731546 0.55810153 -18.255053
-27.61038 1.6109561 -41.876408 10.532452 -28.821798 -5.2034717 -19.367064 6.709509
00000000: 6c5e e4c1 35b6 3fc2 055d 8341 8436 8dc1
00000010: 4226 a43f 38b9 e9c0 830b d4c0 9327 fe3f
00000020: 8087 23c1 05db c8c1 b1ce 4140 52d8 18c2
00000030: 72ab 9dc0 f0f8 35c1 1feb 4441 bbff 6341
00000040: 0eb0 e1c1 89d6 493f 0b54 bfc0 fc36 4d40
00000050: 8241 40c1 cc86 a8bf 15fb 8ec1 9f19 8d3f
00000060: f02f 1a40 ee57 f540 fb46 bcc1 50dd 35c1
00000070: 8e43 05c1 312d 9240 810a cfc0 c997 b4c1
00000080: 2b3f 1341 d5f2 4f3f 1915 82c1 73f8 f941
00000090: 7c06 e4c0 7d09 efbe dd1a d0c1 a857 5241
000000a0: 80e1 e1c1 7450 a3c0 42e6 87c1 89f0 a3c1
000000b0: 7583 1641 e311 9cc1 1df2 0341 0ce5 aec0
000000c0: 54c5 dfc0 c255 c5c0 c2b7 eec0 0b81 e1c1
000000d0: 432f 03c2 e2f0 fb40 bedf 0e3f 590a 92c1
000000e0: 0fe2 dcc1 cf33 ce3f 7181 27c2 ec84 2841
000000f0: 0b93 e6c1 d782 a6c0 bfef 9ac1 4cb4 d640

running_var f4 [64]
842.00006 476.69116 546.80334 461.99863 283.7469 576.4615 945.7253 524.51825
435.5946 315.7175 690.8035 1046.6924 460.69055 574.0776 466.7189 691.796
588.6898 587.34436 729.2906 327.277 707.9271 439.30197 364.21317 428.24173
333.9482 437.78232 587.0002 615.38904 777.9614 582.7604 671.24994 583.0515
539.023 470.0357 520.1094 379.56628 475.08383 657.2021 1112.2993 464.13153
395.81754 719.382 896.75433 483.43552 457.04425 1014.98047 606.8839 700.6632
372.5487 509.44232 401.33392 745.3206 914.71655 673.6022 519.85333 680.1313
447.37903 711.7923 545.54877 628.6035 519.0825 556.35724 574.919 602.29614
00000000: 0180 5244 7858 ee43 6ab3 0844 d3ff e643
00000010: 9adf 8d43 891d 1044 6b6e 6c44 2b21 0344
00000020: 1ccc d943 d7db 9d43 6db3 2c44 28d6 8244
00000030: 6458 e643 f784 0f44 055c e943 f2f2 2c44
00000040: 262c 1344 0ad6 1244 9952 3644 75a3 a343
00000050: 56fb 3044 a7a6 db43 491b b643 f11e d643
00000060: 5ff9 a643 23e4 da43 03c0 1244 e6d8 1944
00000070: 887d 4244 aab0 1144 ffcf 2744 4cc3 1144
00000080: 79c1 0644 9204 eb43 0007 0244 7cc8 bd43
00000090: bb8a ed43 ef4c 2444 9409 8b44 d610 e843
000000a0: a5e8 c543 73d8 3344 4730 6044 bfb7 f143
000000b0: aa85 e443 c0be 7d44 92b8 1744 722a 2f44
000000c0: 3c46 ba43 9eb8 fe43 beaa c843 8554 3a44
000000d0: dcad 6444 8a66 2844 9df6 0144 6708 2a44
000000e0: 84b0 df43 b5f2 3144 1f63 0844 a026 1d44
000000f0: 48c5 0144 dd16 0b44 d1ba 0f44 f492 1644
