unet/checkpoints/one_loss/epoch_20.pth (torch, 508787 bytes, 85 tensors)

weight f4 [8, 1, 3]
00000000: 653e 1cbf 4ee8 7fbf 6a44 853f 6a5c 3abf
00000010: 426b fdbf 7484 0ebe 8d9e e63e e687 10be
00000020: c4a1 54c0 a908 603e a589 a83e af7e 1040
00000030: e614 c3be 44bf 8abf 6957 8bbf ea1b c8bf
00000040: 6676 adbe 7a3a 54bf b2fe 7d3f 2477 81bf
00000050: 0b02 6bbc 0e84 de3f 0bbf 2f3e 4839 313f
-0.61032706 -0.99963844 1.0411503 -0.7279726 -1.9798357 -0.13917714 0.4504284 -0.14114341
-3.3223734 0.21878304 0.32917514 2.2577322 -0.38101882 -1.083962 -1.088605 -1.5633519
-0.33879393 -0.8290173 0.9921676 -1.0114484 -0.014343749 1.738405 0.17162721 0.6922803

bias f4 [8]
00000000: f339 7bbe 8ac5 9e3d 2936 3c3e 1067 ae3e
00000010: 49fb eebe 96d1 083e b9ab bc3d 38c7 43bf
-0.24533825 0.07752521 0.18380035 0.34063005 -0.4667609 0.133612 0.09212441 -0.7647586

weight f4 [8]
00000000: fda5 803f 8e8b a13f 5785 d63f cacd cc3f
00000010: 1f34 0340 54c6 b63f 9881 7a3f 5426 e63f
1.0050656 1.2620714 1.6759442 1.6000302 2.0500562 1.4279275 0.97853994 1.7980447

bias f4 [8]
00000000: 22b4 8e3f 8a8d 21be 354d edbe 2622 f93e
00000010: 45e5 363e deff 60be 6ba8 003f df2e fdbd
1.1148722 -0.15776649 -0.46347967 0.48658866 0.17860897 -0.21972606 0.50256985 -0.123624556

running_mean f4 [8]
00000000: a706 26be c60c 993d e2dc a5bd d497 043f
00000010: 28cf 0bbf ab78 a63d ca21 ac3d a0b2 39bf
-0.16213475 0.074731395 -0.08098771 0.5179417 -0.5461297 0.08128484 0.08404882 -0.72538185

running_var f4 [8]
00000000: 9627 8447 74b9 f948 536e 3149 8d97 fc48
00000010: 6915 bf48 439a db48 9198 2c47 799b cc48
67663.17 511435.62 726757.2 517308.4 391339.28 449746.1 44184.566 419035.78

weight f4 [16, 8, 3]
00000000: 07cf 42bf 8279 8abe 341a d8bf be61 0f3f
00000010: 5d0c 9fbf fe5b dcbe beb4 dabe 58ba efbe
00000020: c6e3 debe fc8b 45be 9966 b13e f33b 1fbf
00000030: e24a 81bf 4001 b2bf cf03 83be 3ae9 0ec0
00000040: 25fe 1e3e b408 9abf ecef 2c3d 899d 2f3e
00000050: 12c1 b2be 24fc 353e 5e23 0b3f f72d 2cbf
00000060: 528b e13f d27e d7bf db5f cc3e 8c03 1a3e
00000070: 45bd c0be 03b0 de3e f02f d5be 37ba 403e
00000080: db01 20bf 4302 4d3f 9394 07bf e144 5ebf
00000090: b8e2 80be ac26 273f 35e0 8bbe 5455 e3be
000000a0: 2f4c ad3e 7e38 47bf fd56 b4be 5232 3cbf
000000b0: eaaa c13f 465f 11bf faea 90bf 0692 223f
000000c0: 226c dabe 9994 fbbe 6dae 1dbe c718 81bf
000000d0: c49d 5c3d 3ee4 59bb 0a99 533f e3fc 773d
000000e0: 5279 053f 9b28 653f a3ef aa3f 2248 b13f
000000f0: 7238 40bf 53f1 64be 6ddb 45be 49c4 28be
00000100: 59fa 28bf 3f4e 8b3e 1b4b fdbd c0d9 82be
00000110: 04a0 c7be 8475 ed3e 7a52 943f b51f 973f
00000120: 01ae 6cbf e21a 54bd 89c5 95bf 2370 21be
00000130: e5ac 943e 7803 59bd a3e0 c33c b63f 89be
00000140: 7bf7 2340 426b 593e de85 02bf 63e5 55bf
00000150: 2816 9a3d 2ab2 c13d 222e f63f a55f ff3e
00000160: 87e9 48bf 75ab ba3f b4d3 193e af91 893e
00000170: a48a b2bd 3b16 663f 536e 73bf c5ab 113d
00000180: ba8f 283f 2bc6 30bf 1614 88bf a813 a53e
00000190: c6c9 1fbf 1cdc 04bf 704d 113f 342d 26bf
000001a0: 5565 29bf 36fc 8d3f 4032 dc3c 7c10 aabf
000001b0: b6ee 1dbf 0c5b 35bf 9fd3 48bf f715 d03e
000001c0: 1180 08bf 36f5 763e 3e78 97be 8797 013f
000001d0: 61fe 233e b8f5 db3e 3874 9c3f ca4a a1be
000001e0: b583 693e 890a 42bf a86b bc3d c253 67bf
000001f0: e7e6 38bf e67f b93e 835a f5bd b41e 8a3f
00000200: c210 c13e b44a 3e3f 63ce b93e 52e8 383f
00000210: 086f 3bbf ae68 a7be ecc0 0c3e 0b5b 8c3e
00000220: 218d 81be e213 493e 82e6 83bf 6a66 2ebf
00000230: 1fce c23f deb9 93bf 8b4c 363d 56f2 903f
00000240: caff bfbf 5ab2 f5be f96f b03e 9635 fcbf
00000250: f195 ef3e 0710 3a3f 403c 383f 4765 6e3f
00000260: 91ae 1abf 6bf5 d53e 007b 48be 752c a93c
00000270: 2e1e cabe a64b 173f 1457 2cbc 2274 0cbe
00000280: bd55 60bf 2529 eb3e f6f8 d4bf 27d6 fb3f
00000290: 9ffb 103f 19f2 263f db42 833e 23dd 3dbc
000002a0: fada bd3f 0dd1 6abe 4cd8 bfbf e63e 393f
000002b0: 50a2 13bf 969c 57bf 0f60 d2bf 19c5 39bf
000002c0: 69fa 3f3e bde4 a2bd a0c6 2a3e 87a9 0f3f
000002d0: 5422 073e 0918 a0be 6370 69bf 41bc 963e
000002e0: 83c3 683f 9a6c e9be 68c7 82bf 73a7 d7bf
000002f0: 710d 35be 803a a5bf a749 f83d 5805 453f
00000300: 1ab2 1a3f 2c3a 96bf 0cb4 b53d a46f b7bd
00000310: 2bf5 a5bf 6cd7 cbbe 2410 b5bf afda c63d
00000320: b42a 7ebf 4272 a83e b9ed fbbe ac0e 223f
00000330: b672 d4be aae8 49bf af93 2bbf d48d edbe
00000340: 06d7 c6bd 3ba0 cebf 8772 cf3c ce5b 5abf
00000350: 5c5b be3e 46aa 2bbe 4d1b 55bf 09f7 173f
00000360: b7db ce3e 27ca b9be 954a 1c3f c04c bcbd
00000370: da67 143f 988e 2d3e 5b89 8e3f 0794 a13d
00000380: 78c6 03c0 0ada 133f 77d7 be3f 5f5d 223f
00000390: 8b91 e03e ad4a 103f a5bf 5fbf 1fda 763f
000003a0: 2fe4 37bd bc10 49be 7754 883d 652d 7c3e
000003b0: 0d88 b2bf 2644 f83e 0ae6 ad3f a897 173f
000003c0: 1fc4 bf3f a579 b63f cb17 2a3f fc4b dc3f
000003d0: c05a 733e 9219 dbbe 6cf7 fabe 93e3 2ebf
000003e0: 0d73 17bf 66ec 32bf 20aa 32bf afe0 0e3f
000003f0: 7bcd 8d3f 7d6c 013f 1d55 cfbe 94c2 e73f
-0.7609715 -0.27045828 -1.6882997 0.5600852 -1.2425648 -0.43038934 -0.4271602 -0.46821856
-0.43533152 -0.19291681 0.34648588 -0.6220085 -1.0100977 -1.3906631 -0.25588843 -2.232985
0.15526636 -1.2033906 0.042220995 0.17149939 -0.34912926 0.17771965 0.5435084 -0.67257637
1.7620642 -1.6835577 0.39916882 0.15040416 -0.376444 0.4349366 -0.41638136 0.18821035
-0.6250283 0.80081576 -0.5296108 -0.8682385 -0.25172973 0.65293384 -0.27319494 -0.44401038
0.33847186 -0.77820575 -0.35222617 -0.7351428 1.5130284 -0.56786 -1.1321709 0.63504064
-0.42660624 -0.4913681 -0.1539857 -1.0085686 0.053861395 -0.0033247615 0.82655394 0.060543906
0.52138245 0.89515084 1.3354381 1.3850138 -0.7508613 -0.22357683 -0.19321986 -0.16481127
-0.66007 0.27208135 -0.12367841 -0.25556755 -0.3898927 0.4637872 1.158767 1.1806551
-0.9245301 -0.05178345 -1.1700908 -0.15765433 0.29038158 -0.052981824 0.023910826 -0.2680642
2.56198 0.21232322 -0.50985515 -0.8355314 0.07523757 0.0945781 1.9232829 0.49877658
-0.78481334 1.4583575 0.15022165 0.2686896 -0.0871785 0.8987767 -0.95090216 0.035564203
0.6584431 -0.6905238 -1.063113 0.3224156 -0.62417257 -0.5189836 0.56758785 -0.64912724
-0.66170245 1.1092594 0.02687943 -1.3286281 -0.6169237 -0.7084205 -0.7844791 0.40641758
-0.53320414 0.24116978 -0.29583925 0.5062184 0.16015007 0.42960906 1.2222967 -0.31502372
0.22804148 -0.75797325 0.09200221 -0.9036218 -0.7222733 0.3623039 -0.11980154 1.079062
0.37708098 0.7433274 0.36290273 0.7222949 -0.73216295 -0.32697052 0.13745469 0.2741321
-0.25302985 0.19636491 -1.030472 -0.6812502 1.5219153 -1.1541097 0.04450659 1.1323955
-1.4999936 -0.47987634 0.34460428 -1.9703853 0.46794084 0.72680706 0.71966934 0.93123287
-0.6042262 0.41788802 -0.19578171 0.020651082 -0.3947615 0.59099805 -0.010518808 -0.13716176
-0.87630826 0.45929828 -1.6638477 1.9674729 0.56633943 0.6521316 0.25636944 -0.011588368
1.4832451 -0.22931309 -1.4987884 0.723616 -0.57669544 -0.84223306 -1.6435565 -0.7256637
0.18747868 -0.079537846 0.16677332 0.56118053 0.13196689 -0.31268337 -0.91187114 0.294405
0.9092333 -0.4559067 -1.0217104 -1.6847976 -0.17680909 -1.2908478 0.12123423 0.7696128
0.6042801 -1.1736503 0.08872232 -0.08956841 -1.2965444 -0.3981279 -1.4145551 0.09709679
-0.9928391 0.32899672 -0.49204805 0.6330364 -0.41493767 -0.7887064 -0.6702222 -0.4639727
-0.09708981 -1.6142648 0.025323166 -0.8529633 0.37179077 -0.16764173 -0.8324478 0.5936132
0.40402004 -0.36287042 0.61051303 -0.091943264 0.57970965 0.16948926 1.1135668 0.07889562
-2.0589886 0.57754576 1.4909505 0.63423723 0.4386104 0.56363946 -0.874018 0.96426576
-0.044895347 -0.1963529 0.066567354 0.24626692 -1.3947769 0.48489493 1.3585827 0.59215784
1.4981726 1.4255873 0.66442555 1.7210689 0.23765087 -0.42792946 -0.49016893 -0.68316
-0.5915993 -0.69891965 -0.6979084 0.5581159 1.1078333 0.50556165 -0.40494624 1.8106256

bias f4 [16]
00000000: 231a 143f f59c ce3d e0c6 b13d 2674 21bf
00000010: 8717 213f d292 cbbf bcfc 3abf 29d5 a63d
00000020: 80e5 3c3f 5d89 213f 0122 413f 6d25 ba3d
00000030: d8b6 cb3e 3136 c7be 813e 81bf 36d7 b9be
0.5785238 0.10088531 0.086805105 -0.63067853 0.62926525 -1.5904181 -0.7304189 0.08146126
0.7378769 0.63100225 0.7544251 0.0908917 0.39787936 -0.38908532 -1.00972 -0.36297005

weight f4 [16]
00000000: 78a3 8a3f 38d9 833f 0eec d13f 9f33 9e3f
00000010: bb51 a23f 6247 5b3f d646 643f 834a af3f
00000020: cf9e 123f 7884 ca3f 7629 6f3f 7273 a53e
00000030: 0e67 683f bc6d 4c3f a34e ce3f 0b62 bb3f
1.0831137 1.0300665 1.6400163 1.2359504 1.2681192 0.85655797 0.8917059 1.3694614
0.5727357 1.5821676 0.9342264 0.3231464 0.9078225 0.7985494 1.6117748 1.4639295

bias f4 [16]
00000000: e5c7 c03e 0355 0dbe f607 473f 1982 b63f
00000010: f6ae 003e 06b3 aabe baab b73f 03e9 4e3f
00000020: ad86 e03c d729 cd3f 23be 1740 a138 893f
00000030: 29f7 9bbd 0581 a53d 23ab d4be e934 e3be
0.37652507 -0.1380196 0.7774652 1.4258453 0.12566742 -0.3333971 1.4349282 0.808243
0.027407968 1.6028394 2.37098 1.0720407 -0.076155014 0.08081249 -0.41536817 -0.44376305

running_mean f4 [16]
00000000: 7eab f4c0 03f0 38bf 03d1 0740 71c0 1bbf
00000010: adfa 04c0 ff40 a2bf 12e2 98bf 06eb 67c0
00000020: 0f74 83c0 8def 9940 071d c040 ace0 783d
00000030: 573e f83c 09cc a5c0 ffa7 ba40 0cca e140
-7.645934 -0.7224123 2.122132 -0.6084052 -2.0778 -1.2676085 -1.1943991 -3.6237197
-4.1079173 4.810492 6.0035434 0.06076114 0.030303163 -5.1811566 5.8330073 7.055914

running_var f4 [16]
00000000: 8317 9442 bf9a 9941 2e72 5f42 7369 1642
00000010: f58b cb41 2967 8b41 34d0 9d41 9f89 fb41
00000020: fe05 7842 d8f8 e741 a19c 0142 649a 9241
00000030: 2188 8441 284f 1e42 8ad5 1543 6960 2b43
74.04592 19.20056 55.861504 37.602978 25.443338 17.425371 19.726662 31.442198
62.00585 28.996506 32.402958 18.325386 16.56647 39.5773 149.83414 171.3766

weight f4 [16, 16, 3]
00000000: 44ea b5bf 8098 7cbf 99d1 2d3f 85e0 8dbf
00000010: 0c3d f7be 92a7 bfbe b7fd 96bf ae43 a53e
00000020: 3376 8c3f 49cc a3be 0a12 0dbf c1c8 553e
00000030: 3ae1 a1bf 514c 83bf e3f1 613f 07a5 71bf
00000040: 371f 313e 0bae cd3e 1541 3abf 2110 68bf
00000050: 52ea 7f3f 27bd 07bf 6856 3f3f bbd6 873e
00000060: e243 10be b2cd e5bd 9d39 35bf 2664 d0bf
00000070: 3102 983e 974e 353f eac1 b4be bce3 bbbd
00000080: f0bf 34be e4a3 9cbf 3e64 343e 6c9f 103e
00000090: 8fea 903e c687 4dbe 493e 073d 9763 573e
000000a0: bb76 393e 7035 36bf a197 37bf b69a 02be
000000b0: 9aa9 9a3e cc6f 90bf ae20 f5bd 677f c33e
000000c0: e614 5dbf bb75 513f 1e59 523f 14be 40bf
000000d0: 2dc3 bcbf 67ac bfbf 718b 98bd 296f 9c3e
000000e0: 49bc 723f 57a0 8ebf 017d c8bf 3442 03c0
000000f0: fbe7 8b3e 1e1b 9fbd c96c dfbd decd 8fbf
00000100: 7971 963e 8144 eebd 41c6 43bf 0d69 babe
00000110: c3a6 9b3e 52bc f9be 709e a03e 1818 853f
00000120: f080 bcbf 6f95 8b3e 67a2 103f 3359 1bbd
00000130: 1285 96be 048e 0e3f f703 f0be 8eba d7bf
00000140: 21d5 83bf f098 ad3d 0025 0cbf 5a53 153f
00000150: 4d21 b2bf b0b2 01bc 17f7 78bf a94a a9be
00000160: 7a6c 233f c8a1 7d3f c041 14bf c0f8 f3bd
00000170: 29a7 09bd 8e7d 51bf 824b 62be 17f1 79bd
00000180: 9325 203d 5451 073f 518c 87be d14d aebf
00000190: e798 b6be ae38 9c3d 4452 0d40 1016 f03e
000001a0: 4a3f 20bf eefe 5dbf 7a53 31bc fe1f b13e
000001b0: f803 9d3f dd4f 083f 5e86 50be 678a 38be
000001c0: 9f0a 26bf 6e94 b03d 760d b63f 8e3d 30bf
000001d0: befc 51bf 59fe 3ebd e461 6fbf a77e 50bf
000001e0: 558b 1bbe 0c46 48bd c61e 02bf 1c56 c23f
000001f0: 3ba1 9d3e 6f3e 40bf 4a74 2fbf b795 dcbe
00000200: 908f 03bf 6e58 e9be e65d e4be e236 a2be
00000210: b330 dfbe e112 5b3e ff55 b33e da49 1bbf
00000220: 345c 9dbe 541b c53e 6787 9abe aa75 b7bd
00000230: 019a be3e f5d9 8abe ab40 2ebe bddf 833e
00000240: eb3e 443e a4d4 8fbe 230e d93e fa53 bcbf
00000250: 21f7 80bb b9f3 aabf d48e 003f 9cab 5bbf
00000260: 2f1d 82be 00a8 83be c5d8 6dbe b5e3 9abf
00000270: 8148 023f 4e22 38bf 1ff1 33be 33b1 13c0
00000280: f58e 37bf 0bba abbe 147d c5be cccf 16bf
00000290: b611 b0bf 2220 84bf 9bcb 43bf 7751 263f
000002a0: 5c91 84bf d84e 853d 4ec2 b83e e261 9c3f
000002b0: af0b 17bf 4a9f 77bf 5318 b03e 7fe9 633e
000002c0: e5bb 30bf f866 79bf 3e29 84be a5d9 1ebf
000002d0: 4704 843e 9a6b acbd d2a5 b7bf 14e7 debf
000002e0: 9496 aa3d f7a9 8d3f 4530 ff3e 2804 00be
000002f0: 80c2 92bf 8436 213f 4488 533e ac02 55bf
00000300: 8444 d3be 3082 c8bf 7206 00c0 0de2 0ebf
00000310: 56a3 8fbe 9d8d 18bf 61ad 12bf 5db5 57bf
00000320: 374c 9abd 934a a7bd 2ae0 c9be 38e3 c33e
00000330: ac99 ff3d 6caa 90be 7b46 aabf 7bdc 14c0
00000340: 9c5f 60be 9034 e63e 3040 8c3f c69e a7bf
00000350: 3e5d 73bd ee56 25c0 827e a33e f54d c5bf
00000360: 8e52 82bf e175 cb3d 870d 8abf 2ada d63d
00000370: bb86 91bf e953 1e3f 80af 8e3c fd77 4a3e
00000380: 7beb 93be bf94 52bf d94d 3abf 7799 3ebe
00000390: 8620 eebe c16c debf 7dc9 a03f a1e6 43bf
000003a0: 7f5d 14bc 334c 8ebf 7776 1bbd 8f5c 23bf
000003b0: 2e42 603f fac2 013f a96d 64bf 3c96 533f
000003c0: d958 eabe 041a 263e 08f5 463f eb27 bbbd
000003d0: f8e0 6dbf 8f8e c53c 19ce 18bf f319 c43e
000003e0: 72db ac3f b122 2c3e 2bec 93be a6a2 babf
000003f0: af4d f4be b9a5 21bf 6bca 563f 07a5 82be
-1.4212117 -0.98670197 0.67897946 -1.1084143 -0.48288763 -0.37432534 -1.1796178 0.32278198
1.0973572 -0.31991795 -0.5510565 0.20877363 -1.2646859 -1.0257665 0.88259715 -0.94392437
0.17297064 0.40171847 -0.7275556 -0.9064961 0.9996692 -0.53023 0.7474122 0.26531014
-0.14088395 -0.11220874 -0.70791036 -1.6280563 0.29689172 0.70823044 -0.35304195 -0.09174296
-0.17651343 -1.2237515 0.17616364 0.14123315 0.28303954 -0.20071325 0.033018384 0.21034084
0.18111698 -0.7117529 -0.7171574 -0.1275433 0.3020752 -1.1284118 -0.11969124 0.38183138
-0.86360013 0.8182027 0.8216723 -0.75290036 -1.4747063 -1.4974488 -0.07448471 0.30553558
0.9481855 -1.1142682 -1.5663148 -2.0509157 0.27325425 -0.07768844 -0.10909421 -1.1234701
0.29383448 -0.1163416 -0.76474386 -0.36408272 0.30400667 -0.4877649 0.31370878 1.0397978
-1.4726849 0.27262446 0.56497806 -0.037926864 -0.293984 0.5568545 -0.46878025 -1.6853807
-1.0299417 0.08476436 -0.5474396 0.5833031 -1.3916413 -0.007916138 -0.9725203 -0.33064774
0.638374 0.99074984 -0.57912827 -0.1191268 -0.033606682 -0.81832206 -0.22099116 -0.061020937
0.039098334 0.5285847 -0.2647424 -1.3617498 -0.3566353 0.07627998 2.208146 0.46891832
-0.6259657 -0.86717117 -0.010823125 0.3459472 1.2266836 0.5324686 -0.20363757 -0.18021546
-0.64859957 0.08622061 1.4222858 -0.68843925 -0.8202628 -0.046629284 -0.93508744 -0.81443256
-0.1518987 -0.048894927 -0.50828207 1.5182528 0.30787072 -0.75095266 -0.6853682 -0.43082973
-0.51390934 -0.4557528 -0.4460289 -0.31682497 -0.43591842 0.2139392 0.35026547 -0.60659564
-0.30734408 0.38497412 -0.3018143 -0.089579895 0.3722687 -0.27119413 -0.17016856 0.25756636
0.19164626 -0.2809192 0.42393598 -1.4713128 -0.00393571 -1.3355628 0.5021794 -0.8580873
-0.2541289 -0.2571411 -0.23227222 -1.2100741 0.5089188 -0.71927345 -0.17572449 -2.3076904
-0.7170251 -0.33540377 -0.3857199 -0.5891082 -1.3755405 -1.0322306 -0.7648255 0.64968055
-1.035686 0.06509179 0.36085743 1.2217371 -0.590022 -0.9672743 0.34393558 0.2225704
-0.69036704 -0.9742274 -0.25812715 -0.6205085 0.25784513 -0.08418961 -1.4347479 -1.741427
0.08329502 1.1067494 0.49841514 -0.12501585 -1.1465607 0.6297381 0.2065745 -0.832072
-0.4126321 -1.566473 -2.0003934 -0.55813676 -0.28054303 -0.59591085 -0.57295805 -0.84261113
-0.07534068 -0.08168521 -0.39428836 0.38259292 0.124804825 -0.28255022 -1.3302759 -2.325957
-0.21911472 0.44961977 1.0957088 -1.3095329 -0.059415095 -2.5834308 0.31932455 -1.5414416
-1.0181444 0.09934593 -1.0785378 0.1049083 -1.1369241 0.61846787 0.01741767 0.19772334
-0.28890595 -0.8225822 -0.72775036 -0.1861323 -0.46509188 -1.7376939 1.2561489 -0.76523787
-0.009055494 -1.1117004 -0.037954774 -0.6381311 0.8760098 0.50688136 -0.8922983 0.82651114
-0.4577091 0.16220862 0.7771764 -0.09138473 -0.929214 0.024115829 -0.5968948 0.38301048
1.3504469 0.16810109 -0.2889112 -1.4580886 -0.47715518 -0.631435 0.83902615 -0.2551653

bias f4 [16]
00000000: 719e 683f 98b3 19bf c075 0a3f 2e1c b5bf
00000010: e76e 613f 2546 b03f f89e 1bbf 7159 c73d
00000020: 3481 1e3f 4527 a33e 23d5 35bf 06d6 943f
00000030: bcec f03e f6a4 5fbd c689 24bf ac92 e83e
0.9086676 -0.60039663 0.5408592 -1.4149225 0.8805985 1.3771406 -0.6078944 0.097338565
0.619159 0.31865898 -0.71028346 1.1627815 0.47055614 -0.05460068 -0.64272726 0.45424402

weight f4 [16]
00000000: bd58 4f3f e3d6 be3f 7d8f ea3f 67c1 cb3f
00000010: dff5 923f 703f fd3f 3c87 5c3f cc44 8e3f
00000020: ff19 8a3f f983 863f 0713 f43f 40d7 953f
00000030: f8cf b13f 96d7 9d3f 104e 993f 2a83 5a3f
0.8099478 1.4909328 1.8325039 1.5918397 1.1481284 1.9784985 0.8614385 1.1114745
1.0789183 1.0509025 1.9068307 1.1706314 1.3891592 1.2331417 1.1976948 0.8535639

bias f4 [16]
00000000: 3dc0 37be 64e5 92bb 528b 503f 3a46 de3e
00000010: 5b18 aa3e aaac 163f 608b 8e3f 1364 95bf
00000020: 52e7 c33c d4b7 153f 929e 863e 8182 5cbf
00000030: 7730 273f ea44 11bc c051 a0bf dd0c 87bf
-0.17944427 -0.004482912 0.81462586 0.43412954 0.33221707 0.58857214 1.1136284 -1.1671165
0.023914013 0.58483624 0.26292855 -0.86136633 0.65308326 -0.008866528 -1.2524948 -1.05508

running_mean f4 [16]
00000000: 61a2 18c1 b15b 99c1 74c6 89c0 bbb4 92c1
00000010: 9957 83c1 04f0 d540 46f6 80c1 46b1 0741
00000020: 37d3 6f3f 1b16 ba3f dfe3 3dc1 985f b140
00000030: 0494 f4bf 97fe d540 e405 4d41 f5dd 0e41
-9.539643 -19.169771 -4.305475 -18.338247 -16.417772 6.685549 -16.12025 8.48078
0.93681663 1.4537996 -11.868133 5.542919 -1.9107671 6.687328 12.813938 8.929189

running_var f4 [16]
00000000: 7047 ef41 b1a1 1a43 8c61 6242 ed42 3442
00000010: 635a a742 ccd0 6e42 a337 7042 aa7b 4d42
00000020: 244f 7642 1430 0843 8b97 4b42 0e0f 2942
00000030: 9a77 2243 a510 3642 44e5 8642 dd43 0c42
29.909882 154.6316 56.59526 45.065357 83.67654 59.703903 60.054333 51.370766
61.577286 136.1878 50.89799 42.2647 162.4672 45.516254 67.447784 35.066273

weight f4 [32, 16, 3]
00000000: 2e47 d9bf 2728 723e 7fc7 cebf 8f59 afbf
00000010: 27d5 893e 1f5c 183f 9797 3dbd 1707 2cbf
00000020: 963c 603f 8474 433f f9d4 013c 9db1 ea3e
00000030: a600 c23d 895d a0be 27b5 36bf 4fe1 5f3e
00000040: c2d8 c53e 6c8d 06bd 97ec c1bf b2a2 7bbf
00000050: e223 f03f 8665 883e ed09 b13d 7071 c7bc
00000060: a358 523f 10a3 48be ada7 c0be 7d2e 4dbe
00000070: 1f28 babf 33b8 f3bf 8839 84bf b7f5 46c0
00000080: 53d3 1fbf 7f8c 6cbf eb5b 20bf a6fe 91be
00000090: 6ece 62bd dc23 e039 20ad e03e cf40 633f
000000a0: 75f0 0c3e 7af6 143f 83db 2fbe e038 92bf
000000b0: a0d1 29bf cec1 a53f bc60 783e 7a1c a7be
000000c0: 1200 0d3f 947f 00bf 2c6e ccbd 50c2 df3d
000000d0: 8a0f 15bf 6b3a 523e 9315 b1bf 2647 6bbf
000000e0: 1a6b 94bd f174 12bf a618 cbbe e7be 543f
000000f0: 2b6f 303f 9af5 71bf f15e b9bf 24d5 cdbe
00000100: af55 ba3e d5d5 85bd b99e 45bf 2ed7 44bf
00000110: b9cf a33f f487 5e3f 83bd d13f 40b6 66bf
00000120: b063 15bf d45a 503f 226f 57bf f1b2 f83e
00000130: 491b 84be 3740 a9bd 3a6b f73f 8c8b 20bf
00000140: aabf bfbf 30e8 833f d996 733e 7167 b4bf
00000150: 3309 88bf 4324 5ebf 1c8d 27bc c844 b8bf
00000160: fd2d 9a3f 494d ebbd bd20 643f a755 213f
00000170: 2a6c 663f 0f3f 76ba 13b2 393e 4e44 57bf
00000180: a628 52be 46e5 abbe 9cdd 2b3e f5ed 3b3e
00000190: e60f d03e 6c91 db3d 9db9 81bf 2610 24bf
000001a0: d602 213f 63cc 69bf 85d5 113c 421a cd3e
000001b0: 76c4 0e3e dea8 0f3f 33bd 883d 8a5a a4bf
000001c0: df04 2bbd e6ca b6be 0de2 83bf 4b71 0dbd
000001d0: ae8a ad3c 65d4 9d3f e979 ff3e afad 8bbf
000001e0: de69 67bf fbf9 133c 37b6 6dbf b055 a83e
000001f0: 5cf2 a23f e8b8 433f 6f2a f83f ba50 00bf
00000200: 2484 8ebf 5cee 9dbd 90d4 513f 8808 b6bf
00000210: 3a04 2fbf 71f3 bebe f018 b6be 8697 953c
00000220: f237 ad3e 9913 28bf 8bdc a03f 9047 413f
00000230: 3103 043f 334e dfbe 56f9 133e 88cd e5bf
00000240: fbac c83e 49f8 19be 5ef7 133e aee7 9dbe
00000250: 38e4 51bf f095 a8bf 8c07 2fbf 0269 eabd
00000260: 0570 e7be 9628 5bbf d53c a2bf 5565 8bbf
00000270: 2753 4abf e86d bcbf 8517 923e e727 99be
00000280: 58cc 6cbf b744 22bf e713 373e 53f2 d2bd
00000290: d7f9 05bf 0366 243f de2a 363f d053 be3e
000002a0: bdb0 6f3f cf02 e03e 91b0 15bd 395a 20c0
000002b0: 6f36 d9bf 4b31 5ebf 2d4b 19bf 0712 2ebf
000002c0: 2ca6 6cbe 5db8 933d 422e debe c8e0 17bf
000002d0: 9d80 ba3f 9cfe 0c3f 9d47 00bf 5fe0 7b3d
000002e0: 90c6 7a3e 069a 22bf a7c4 24bf 0646 babf
000002f0: 5844 2fbf 7760 4dbc 8d2a 32be df01 fb3e
00000300: 3216 0dbf 5280 c5be bbf0 a9be 8324 a8bf
00000310: f143 18bf e914 70be d68f 4abf 143f 13bf
00000320: 8b32 0a3f 4534 3e3f 86e4 663e 40af 123f
00000330: a1a2 ba3f e32c d8be 7715 cebf 7330 3e3f
00000340: 841c fd3f f4d0 a43e 98c6 8fbf 78b8 3fbf
00000350: 1290 8a3f f32d 43bf 517f 853e 31c5 1abf
00000360: ce2b a63e ce56 edbd 93ce bebe 4878 8c3f
00000370: c8cd 25bd 02ec 80bf 97a8 f8be 6dd5 c2be
00000380: 763d d13f ae69 a33e 9d3c 2d3e c908 eb3d
00000390: 56a3 5cbf b9c3 903e 1d87 98be 8a9a 133d
000003a0: 9cd6 7d3f 2e20 fa3d 4b89 ddbe 2293 6dbf
000003b0: acd1 dabf e538 1b3f bea9 7cbf 5422 18bc
000003c0: 78b0 1cbf abdb cb3e 6fd6 3f3d d2c3 513f
000003d0: 80b2 243f 57da 1a3f acdf 4cbf 3695 0b3f
000003e0: aac0 ba3e 27f7 833e f4b7 413f 9226 6d3e
000003f0: 5f29 83bf a935 4c3d 09ed 803e 9172 3d3f
-1.6974847 0.2364813 -1.6154631 -1.3699206 0.26920435 0.59515566 -0.046287145 -0.6719832
0.87592447 0.76349664 0.007924312 0.45838633 0.0947278 -0.31321362 -0.71370167 0.21863292
0.38641936 -0.032849714 -1.5150326 -0.9829513 1.876095 0.26639956 0.08644471 -0.024346083
0.821665 -0.19593453 -0.37627926 -0.20037265 -1.4543494 -1.9040588 -1.0330057 -3.1087472
-0.6243183 -0.9240188 -0.62640256 -0.28514594 -0.055372648 0.00042751327 0.43882084 0.88770765
0.13763602 0.58188593 -0.17173581 -1.1423607 -0.6633549 1.294977 0.24255651 -0.32638913
0.5507823 -0.5019467 -0.09981951 0.10925734 -0.58226836 0.20530097 -1.3834709 -0.9190544
-0.072469905 -0.5720969 -0.39667243 0.83103794 0.6891963 -0.94515383 -1.4482099 -0.40201676
0.36393496 -0.06534926 -0.77195317 -0.7689084 1.2797767 0.869262 1.6385959 -0.9012184
-0.58355236 0.8138859 -0.8415395 0.4857402 -0.25802067 -0.08264201 1.9329598 -0.6271293
-1.4980366 1.0305233 0.23788013 -1.4094068 -1.0627807 -0.8677408 -0.010226514 -1.439599
1.2045285 -0.1148935 0.89112455 0.6302132 0.90008795 -0.0009393552 0.18134336 -0.840886
-0.20523319 -0.3357336 0.16783756 0.18352492 0.4063713 0.107210964 -1.013477 -0.6408714
0.6289495 -0.91327494 0.008901005 0.40059096 0.13942131 0.56117046 0.06676712 -1.284013
-0.041752692 -0.35701674 -1.030336 -0.034531873 0.021184292 1.2330443 0.49897698 -1.0912379
-0.90395916 0.009031768 -0.9285616 0.32877874 1.2730212 0.7645402 1.938795 -0.5012318
-1.1134076 -0.07711479 0.8196497 -1.4221354 -0.68365824 -0.37295106 -0.355659 0.018260729
0.33831745 -0.65654904 1.2567304 0.7549982 0.5156737 -0.4361435 0.14450583 -1.7953348
0.39194474 -0.1503612 0.14449832 -0.3084082 -0.8198886 -1.3170757 -0.6837089 -0.1144581
-0.45202652 -0.85608804 -1.2674814 -1.0890299 -0.7903313 -1.4721041 0.2853357 -0.29913256
-0.92499304 -0.633861 0.17878686 -0.10300126 -0.5233435 0.6421816 0.7115916 0.3717332
0.93629056 0.43752143 -0.03654534 -2.5055068 -1.6969737 -0.86793965 -0.59880334 -0.6799626
-0.23110265 0.07212899 -0.43394667 -0.59327364 1.45705 0.55076003 -0.50109273 0.061493274
0.24489808 -0.6351627 -0.6436257 -1.455262 -0.6846366 -0.012535206 -0.17399044 0.49024865
-0.5511199 -0.38574463 -0.33191475 -1.3136142 -0.5947867 -0.23445477 -0.79125726 -0.57518125
0.5398337 0.74298507 0.22548112 0.5729866 1.458088 -0.42221746 -1.61003 0.7429268
1.9774327 0.3219067 -1.1232481 -0.7489085 1.0825217 -0.7624199 0.26073697 -0.6045714
0.32455295 -0.11588822 -0.3726698 1.0974207 -0.04047945 -1.0072024 -0.48566124 -0.38053456
1.6346881 0.31916565 0.16917653 0.11476285 -0.8618673 0.28274325 -0.29790583 0.03603605
0.9915559 0.12213169 -0.4326881 -0.9280263 -1.7095237 0.6063369 -0.98696506 -0.009285528
-0.6120677 0.3981603 0.04683536 0.81939423 0.6433487 0.6048941 -0.80028796 0.5452455
0.36475116 0.257745 0.75671315 0.23159245 -1.0247 0.04985586 0.25180843 0.7400294

bias f4 [32]
00000000: a2c8 103e 52d9 d93d 4099 87bf c757 94be
00000010: df21 34be 7d34 52bf ecc9 d23e 61fc d93e
00000020: 50fb 82bf d137 033f a0d3 75be 0114 e3be
00000030: 04cd b3be a80f 2abf eafc 543e 4f18 a23e
00000040: d9ad a8bf 3842 5b3f 8cb9 a83e 2101 bdbe
00000050: 3feb 9bbf dba5 7d3f 517c a63f 5ea1 4c3d
00000060: e248 0f3f a9ab db3e 041d 5c3e f57d a63d
00000070: 7c7d 9abf a141 b1bf 86eb d2bd 74c0 0dbf
0.14139035 0.10637154 -1.0593643 -0.2897322 -0.17591046 -0.8211134 0.4116968 0.42575362
-1.0232944 0.51257044 -0.2400651 -0.443512 -0.35117352 -0.6643014 0.20799604 0.3165917
-1.3178054 0.85647917 0.3295406 -0.36914924 -1.2181166 0.990812 1.3006688 0.04995858
0.55970585 0.42904404 0.21495444 0.08129493 -1.2069545 -1.3848153 -0.10298829 -0.55371785

weight f4 [32]
00000000: 9129 503f f2c3 993f c13f 823f 3e39 2a3f
00000010: 3105 c73f bd2c 723f 8368 063f 2332 543f
00000020: 24d6 983f 7732 ad3f 6390 1e3f 82e2 ca3f
00000030: ccf7 b03f 8409 ca3e 0974 b93f 75e5 693f
00000040: a86e e83f e138 bb3f 82b5 c43f bc89 973f
00000050: 7813 ae3f 99e4 c03f 4d0f ca3f 3c2a ec3f
00000060: 1146 483f 19c8 e33f eda3 d13f 039f 863f
00000070: 66dd 0d40 1649 613f 9ae1 9e3f 94e2 ef3f
0.81313425 1.2012923 1.0175706 0.66493595 1.5548459 0.94599515 0.5250322 0.82889
1.194035 1.3531026 0.61939067 1.5850375 1.3825622 0.39460385 1.4488536 0.9136575
1.815877 1.4626733 1.5367892 1.1838908 1.3599691 1.5069762 1.578592 1.8450389
0.7823191 1.779544 1.6378151 1.0517277 2.216638 0.88002145 1.2412598 1.8741021

bias f4 [32]
00000000: 31e6 b53d 650c 953e f816 90be a384 543e
00000010: 8721 08be f9aa e9bf 0869 28bf e5f0 2abf
00000020: f019 b93e 4728 acbd 9235 0fbf 15c7 cfbd
00000030: cd13 5a3e 99e1 88be c059 e53c c1e4 d53f
00000040: e7e3 20bd adb2 15be f1f6 dc3e f319 c1bd
00000050: 78c9 f43c 6043 173f 3296 8d3f 62f6 0abf
00000060: 0fb3 89be 4248 0fbf 37d2 693e 809f 92bf
00000070: c47b 97bf a569 d8bf 0ebf 9e3e 77c3 29bf
0.08881796 0.2911102 -0.28142524 0.20753722 -0.1329404 -1.8255302 -0.65785265 -0.66773826
0.361526 -0.0840612 -0.55941117 -0.10145394 0.21296616 -0.26734617 0.027996898 1.6710435
-0.039279845 -0.1461894 0.4315715 -0.094287775 0.029881224 0.5908718 1.1061461 -0.542822
-0.26894423 -0.5596963 0.22834097 -1.1454926 -1.1834645 -1.690724 0.31005138 -0.6631388

running_mean f4 [32]
00000000: 7bd2 b8c0 d6e1 c1c0 f74c a0c0 0565 4dc1
00000010: dc76 d33e 880c 2041 8012 7040 f454 84c0
00000020: af81 ffc0 98bd b240 3034 8a3f 3a4b b8c0
00000030: 199c a440 91b3 5cbf 7c25 a640 4e32 9fc0
00000040: 3060 eec0 4207 3340 4c0f c5bf b384 b040
00000050: b2b6 99c0 045a b9c0 b286 21c1 1b91 6ebf
00000060: a249 c4c0 185a 65bf 1c31 1ac1 a96e 2b41
00000070: 0c57 b240 75f6 8c40 a957 8dc0 7488 a13f
-5.7756934 -6.058818 -5.009395 -12.837163 0.4130162 10.003059 3.7511292 -4.1353703
-7.9845805 5.585644 1.0797176 -5.759183 5.144055 -0.86211497 5.1920757 -4.9748907
-7.4492416 2.797318 -1.5395293 5.5161986 -4.8035517 -5.792238 -10.095385 -0.93190163
-6.1339884 -0.895906 -9.63699 10.714517 5.573126 4.405085 -4.4169507 1.2619767

running_var f4 [32]
00000000: 7d99 c142 0476 2c42 f1ea 8042 0cf6 8942
00000010: 2a36 3142 110f c741 9605 4842 3de1 2b42
00000020: 854e 5942 56c7 a842 564a a142 296e bb42
00000030: c910 ae42 528e 4f42 d487 8d42 384c 0343
00000040: d5fd 0d42 3d38 9f42 238e a242 c71d 4c42
00000050: 1a1a 9442 796d 7c42 84d5 8942 d757 1e42
00000060: a1e8 5042 b4a8 8e42 f4a7 ae42 a7b8 3b42
00000070: 3e72 5c42 f919 ca41 d602 f042 8cc7 5342
96.79978 43.11525 64.45887 68.98056 44.302895 24.882357 50.005455 42.96996
54.32668 84.38933 80.64519 93.71516 87.03278 51.888985 70.76529 131.29773
35.497883 79.60984 81.27761 51.02908 74.05098 63.106907 68.91702 39.58578
52.227177 71.3295 87.32803 46.930325 55.111565 25.262682 120.00554 52.94487

weight f4 [32, 32, 3]
00000000: 8edd bd3f 7209 193f e237 543f 4201 babf
00000010: 3c9d e43e 436d 09bf 35c2 50bf a931 f03e
00000020: ab32 b6be 5c45 bb3f b05e dd3e 8f0b 053f
00000030: d84f 2b3f 35dd 2d3f 7d40 c03d 5f07 00bd
00000040: 5c90 763f e402 3d3f 2695 11bf 20c2 ea3e
00000050: 29c7 3f3e 27bd 9c3f 52a9 1a3f f570 0c3f
00000060: d469 fabf 9b45 58bf cd0e a3bf 1703 d5be
00000070: 0a6c f33d 329d 38be e896 113f 83f2 d1bc
00000080: cac3 133d 9f6d 05c0 c2d5 9cbe a3d0 d1be
00000090: d983 1e3f 4305 1dbe d80b 2bbf 32ea 773f
000000a0: b403 0d3f a410 0b3e 36b7 683f 9e80 283f
000000b0: 5218 f5bb bca9 0fc0 0596 78bf 041c cbbf
000000c0: 4769 b23f 6ee9 323d a4b2 febe 98f8 89be
000000d0: bfa6 633f 92bb 82be 0659 2ac0 4bf1 cebe
000000e0: d504 63bf 8815 a9bf 0b81 08c0 2780 d3bf
000000f0: 7bb3 14bf 2641 b7bd 6a28 15be 1c65 8abf
00000100: d1b9 8f3d 6302 ddbe 376f 70be ea99 6bbf
00000110: a5f6 cdbf 9c07 cbbe ed2d 853f 03dd 3abf
00000120: b355 d5bd 95fb 873d f66a 03bf a8a9 f5bf
00000130: 72c7 313e 30ec 6bbd c313 bcbe d72e f53e
00000140: e4ff 87be 3b32 0fbe d697 c4be 0e35 ed3d
00000150: a456 b0be 1834 bdbe 651d dabf 3f5e abbe
00000160: 2df6 51be c52e fc3d c4e0 21bf 2829 1c3f
00000170: 7f99 a6be 2969 e53d 1ffa 68bd c281 76bf
00000180: eb8b 933d 13a0 463f 15b2 6c3f a769 1a3f
00000190: b488 2ebf ad09 a9bf 5e91 ef3d 4ad2 fdbf
000001a0: 9f18 dbbf ee56 78bf f2d9 9e3e c9e6 a7be
000001b0: 5ee7 253f b84f c1bd 9c83 e2ba 492e 20bf
000001c0: a52c 84bf fad8 443f ab4f 26be a4bd 47bf
000001d0: cdec 83bf 2cee 69bc 7fcb 983e 61fc ebbe
000001e0: 0147 9b3e 7b1c ecbe 6d1f 86bf 2cf9 0b3f
000001f0: 43de 823e 930b 63bf daec 71bf 97e7 e4bd
00000200: 34e0 f63e 66d7 993e 7c6b 62be 220e 8dbf
00000210: 0481 1ec0 e685 b4be ad94 853f 0919 ac3d
00000220: 468d ac3d a478 71bd eee4 d0bf 09ec 26be
00000230: 3399 fc3e 445d 60bf a1d1 7cbf 0c52 e7be
00000240: 51e9 5fbe 3112 bb3d 91c9 283f 98d8 1abd
00000250: 0dc7 f0bf 0886 883e f27e 653f e2f1 84be
00000260: 5df8 12bf ee1b 11bf 7699 61be 8129 6dbf
00000270: 7528 dd3f 37fe 233f 5c2d 29bf 181a 843f
00000280: d13f 133e 7797 b3bf bcf7 3e3c 99e9 8fbe
00000290: 77a4 b8bf 4aee 42bf 1b17 a4bf a8dd 72bf
000002a0: 2d1f 883f 0be8 f23e aea2 c6be 421c 723f
000002b0: 9022 b3be ce15 d9bc 36bd 833f 9a57 94be
000002c0: 1573 91bf 17a9 21bf bb45 783e 93bf 213e
000002d0: d219 2fc0 473e d7bf 372a bfbe 69d1 16bf
000002e0: f05d 473d f924 29bf cccf d0be b8e4 77bf
000002f0: 1d61 e8bf c1f1 44bf d22f b2bf 0a58 cd3e
00000300: 8ff3 193d ad72 b53e c618 0bbd e236 f9be
00000310: 3524 23bf fc8d 38bf 5e32 44bf 215b c7be
00000320: 623b b2be eedd 223f 9a5b 1f3f 219d ee3e
00000330: 275b c83d bdf5 82bd f965 fa3e b198 423e
00000340: 66c2 3f3e 1914 76bf 2418 873e f264 0b3f
00000350: 34e7 34be e9f7 9e3e 49de 91bd 0a09 1b3d
00000360: 1af1 b5bf 1315 9e3e 37e9 fe3d 7992 9bbe
00000370: 3336 543f 32e1 a43f 59ec 683f ab30 bebe
00000380: 1592 363f b29c f23e b41a 263f bfa2 4f3e
00000390: 34d9 be3f 431b d7be 3ee4 603f 2af3 573e
000003a0: 8032 18bb 0be2 c93f b6b8 5e3f c008 26bd
000003b0: 73bd a63f a9c8 e13c f1c6 e23e c95b 2d3f
000003c0: 6117 493f b45b 24be e59e 443f 425b ce3e
000003d0: 098b d13d 4068 bfbd d914 073e 6428 493f
000003e0: b42e 9a3d 3f97 a4bc d045 00bf 1e02 83bf
000003f0: afc7 803e ca9a a1be f7f2 1abf 0583 9f3e
1.4833238 0.5978004 0.8289777 -1.4531634 0.4465121 -0.53682345 -0.81546336 0.46912888
-0.35585532 1.4630542 0.43236303 0.5197076 0.66918707 0.6791566 0.093873 -0.03125703
0.96314025 0.73832536 -0.5686821 0.4585123 0.18728317 1.2245225 0.6041461 0.5485986
-1.9563546 -0.8448121 -1.2738892 -0.4160392 0.11885841 -0.18028715 0.5687089 -0.025628334
0.03607539 -2.0848157 -0.30631834 -0.4097949 0.61919934 -0.15334038 -0.6681495 0.9684173
0.55083776 0.13580567 0.9090456 0.65821254 -0.007479706 -2.2447348 -0.9710391 -1.5867925
1.3938378 0.043679647 -0.49745667 -0.26947474 0.8892631 -0.2553373 -2.6616836 -0.40418467
-0.8867925 -1.3209696 -2.1328762 -1.6523484 -0.58086365 -0.08947973 -0.14566198 -1.0812106
0.070178635 -0.43165883 -0.23479925 -0.9203173 -1.6090895 -0.39654243 1.040464 -0.7299349
-0.104167365 0.06639782 -0.51335084 -1.91924 0.17361239 -0.057598293 -0.36733827 0.47887298
-0.26562417 -0.13984005 -0.38397092 0.11582385 -0.34441102 -0.36953807 -1.704022 -0.33470342
-0.20504065 0.12313608 -0.6323359 0.610003 -0.32538983 0.11201698 -0.05687916 -0.96291745
0.072044216 0.77588004 0.9245923 0.6031746 -0.6817734 -1.3206078 0.116976485 -1.98298
-1.7116889 -0.97007644 0.31025654 -0.32793263 0.64806163 -0.09439033 -0.0017281654 -0.62570626
-1.0326124 0.7689358 -0.16241328 -0.78023744 -1.0306641 -0.014277976 0.29842755 -0.46090987
0.3032761 -0.4611548 -1.047834 0.5467708 0.25560197 -0.88689536 -0.9450203 -0.11176985
0.48217928 0.30047148 -0.22111315 -1.1019938 -2.4766245 -0.35258406 1.0435997 0.084032126
0.08425383 -0.058952942 -1.6319864 -0.16300978 0.49335632 -0.8764231 -0.9875737 -0.45179784
-0.21866347 0.09134329 0.65932566 -0.037804216 -1.8810745 0.26664758 0.8964683 -0.25965792
-0.5741022 -0.5668324 -0.22031197 -0.92641455 1.7277972 0.64059776 -0.6608484 1.0320463
0.14379813 -1.4030598 0.011655744 -0.28107908 -1.4425191 -0.7614485 -1.2819551 -0.9486947
1.0634514 0.4744266 -0.3879599 0.9457437 -0.34987307 -0.026499655 1.0292118 -0.28973085
-1.1363245 -0.63148636 0.2424535 0.15795736 -2.735951 -1.681588 -0.37336895 -0.58913285
0.04867357 -0.6607204 -0.40783536 -0.9683337 -1.8154637 -0.7693139 -1.3920844 0.4010623
0.03758579 0.35439053 -0.033959173 -0.48674685 -0.6372712 -0.7209165 -0.76639354 -0.38936713
-0.3481093 0.6361989 0.6224915 0.46604255 0.09783011 -0.06394527 0.48905924 0.1900356
0.18726501 -0.96124417 0.26385605 0.54450905 -0.17666322 0.31048515 -0.07122476 0.037850417
-1.4214203 0.30875453 0.12446826 -0.30385187 0.828952 1.2881224 0.9098564 -0.37146506
0.71316653 0.47385174 0.64884496 0.20276926 1.4910035 -0.42012987 0.8784827 0.21088853
-0.002322346 1.5772108 0.87000597 -0.04053569 1.3026565 0.027561503 0.44292405 0.6771818
0.785513 -0.16050607 0.76804954 0.40304 0.10231597 -0.09346056 0.13191546 0.78577256
0.07528439 -0.020091651 -0.50106525 -1.0235021 0.25152346 -0.31563407 -0.60526985 0.31154647

bias f4 [32]
00000000: 292b 35bf a1c9 14be a703 08bf 77bd 833e
00000010: 0afa a0be 5fcc 82be a05b 84bf dc7c ba3c
00000020: 3de6 f4be dcbf 133f 3f4d bcbd 1a40 73bf
00000030: 53ea babe 2b41 193f cd98 433f e5ee d83d
00000040: 8c48 093e 69bd 67bd 61eb 83bd f4a8 1e3f
00000050: cadd 73bf 963d fabe ef42 e7bc e459 4a3e
00000060: 31a0 98be b632 083f 0b1a b53d 3bbd f93e
00000070: 1e9e 7d3d 76da 1abf 7371 f4be c0a3 d7be
-0.7076898 -0.1453004 -0.53130573 0.25730488 -0.31440765 -0.25546548 -1.0340462 0.022764616
-0.47831908 0.5771463 -0.09194421 -0.95019686 -0.365069 0.59865063 0.7640503 0.105924405
0.1340658 -0.05657712 -0.06441379 0.6197655 -0.952603 -0.4887511 -0.028230159 0.19760853
-0.29809716 0.5320238 0.08842858 0.48777184 0.06191837 -0.60489595 -0.47742805 -0.4211712

weight f4 [32]
00000000: 6528 a23f f0ec 6f3f b42f 903f c702 6e3f
00000010: 2837 d23f fe5c a23f 829f 783f aea2 e73f
00000020: 1f62 b23f c050 e23f af89 6b3f c76b b13f
00000030: 5567 ab3f 91af 933f 56ee 953f ca39 8c3f
00000040: 8b30 9c3f 9f16 bb3f 5e6b 803f 8be1 683f
00000050: 9289 723f d139 ae3f 8135 ea3f dc19 ed3e
00000060: 5e5e 673f 2f42 d53f d3c0 d83f f53d db3f
00000070: 3568 1f3f 8a5f a33f 3352 df3f 9cad 0040
1.2668577 0.9372091 1.1264558 0.9297299 1.6423082 1.2684629 0.9711839 1.8096521
1.3936194 1.7680893 0.92006963 1.3861016 1.339091 1.1537954 1.1713359 1.0955136
1.2202314 1.4616278 1.0032766 0.9096915 0.94741166 1.3611394 1.8297578 0.46308792
0.9037837 1.6660823 1.6933845 1.7128283 0.6226838 1.2763531 1.744696 2.0105963

bias f4 [32]
00000000: 21d2 7f3f 816c 3f3d 5938 bcbf 9080 4f3f
00000010: 30f6 433f 5a66 babe 82da 9cbf cf46 853f
00000020: a259 0abf 1213 dbbd adea b33f 1249 11bf
00000030: 8a5f b43e 3fcd a9be a1ca 733f 6425 8cbf
00000040: 45e5 2fbf 1702 30bf 40fc 8ebf 735d 24bf
00000050: 758b 66be cb8e 47bf f5b7 1cbd ba26 f0bf
00000060: 9daa 9cbf 25a5 a1be 28f2 893f c04a 643d
00000070: 75c0 bfbd 47e6 5fbf d988 e5be 137a b9bd
0.99930006 0.046734337 -1.4704696 0.81055546 0.7654753 -0.36406213 -1.2254183 1.0412234
-0.5404302 -0.10696997 1.4055992 -0.5675212 0.3522914 -0.33164403 0.9523106 -1.0948911
-0.6870921 -0.6875319 -1.117073 -0.6420509 -0.22514136 -0.7795226 -0.038261373 -1.8761818
-1.2239567 -0.31571308 1.0777025 0.05573535 -0.0936288 -0.8746075 -0.4483097 -0.09056487

running_mean f4 [32]
00000000: 2955 d6c1 fb35 a6c1 f3ba 8b41 1736 56c1
00000010: 1847 0ebf 2149 50c1 815d 6b41 e67a 39c1
00000020: 4587 d2c1 3039 333f bc77 47c1 3586 1b40
00000030: 29ee aac1 4ac4 57c1 99d8 02c1 2ee4 b641
00000040: 3643 f33f 728b b3c1 cc86 0041 eb75 0e40
00000050: 0b05 70c0 4ca7 49c0 9280 c940 400f 9dc0
00000060: 887d 7c40 b19c f140 1d53 84c1 31f0 f5c0
00000070: 3e2d 4941 6d48 a540 8a1a d8c1 950e 0641
-26.791582 -20.776358 17.466284 -13.388206 -0.5557723 -13.017854 14.710328 -11.5925045
-26.31605 0.70009136 -12.466732 2.4300663 -21.36629 -13.485422 -8.17788 22.861416
1.9004886 -22.443089 8.032909 2.2259471 -3.7503078 -3.150836 6.2969446 -4.9081116
3.9451618 7.5503774 -16.540583 -7.6855702 12.573545 5.165091 -27.012959 8.37856

running_var f4 [32]
00000000: 51d8 3543 050e 0244 b2d2 0443 90f3 d942
00000010: 013e a843 5a37 2b43 e7b9 ce42 0014 2243
00000020: 3c28 5f43 cffc 2a43 9fc6 ab43 e88e 2443
00000030: 7876 ec43 52fe d343 cd76 9d43 0c91 0343
00000040: 75d5 1a43 367d 8143 c25e f242 3c6c 4443
00000050: f256 5443 c93a 5643 850b 2543 8bd4 8942
00000060: b004 1643 1086 0a43 7ffa ea43 4381 2c43
00000070: e8dc 5443 176f 0643 b586 7743 e8e7 2a43
181.84499 520.21906 132.82303 108.97571 336.4844 171.21622 103.36309 162.07812
223.15717 170.98753 343.55173 164.55823 472.92554 423.98688 314.92813 131.56659
154.83382 258.9782 121.185074 196.42279 212.33963 214.22963 165.045 68.91512
150.01831 138.52368 469.957 172.50493 212.86292 134.43394 247.5262 170.90588

weight f4 [64, 32, 3]
00000000: 699d bebf 5efe 86bf 3f53 8ebf c266 f33f
00000010: df6d 103e 2c80 313f bbb8 903f 0d25 4e3f
00000020: 4a5a a0bf ef5f 8abf 64c3 bfbf f89f 443d
00000030: 761e bcbf 9d74 e7bf 929e 98bf e435 163f
00000040: 0019 2fbf 0e57 bdbf 0d91 d43e 1c3c 693d
00000050: 0c89 0abd 3d3b 68c0 ee03 09bf dd32 c4bf
00000060: 8962 96bf 6ee4 22bf 2cb6 5f3f b734 483f
00000070: f9f4 aebf 4441 8cbe 47e5 223e 9848 fb3e
00000080: 0ed8 8b3f 8edb a53f 8c4d 5bbd 77b7 25be
00000090: 8d79 c83e cbe8 05bf e1d6 023f 3c3b a3be
000000a0: 186b b13d 9535 7f3f e464 23bf 4b69 653e
000000b0: 0299 2d3e 381a 5d3f dae4 5a3f ff91 81bd
000000c0: 2606 813f f498 26bf 329c 23be d811 d03e
000000d0: 15d5 62bf d914 823f 13ab 953e aeff 67be
000000e0: 3eb0 4f3f 46a9 023f 283f 283d f4f7 84bf
000000f0: e3a2 febe 6a1a 3cbf 0b17 583e 9e44 67be
00000100: 8e40 a9be 6cab e7be 99d4 36be 428f 54be
00000110: 02a3 80bf a844 343f 5208 70bf 3ec5 45bf
00000120: 3f3f bd3e e98a 0bbf 1a85 89bf 85ac d63f
00000130: 5a64 133f 2ca4 133f 2099 c0bf 6477 873e
00000140: 2a75 bf3f d141 0abc cd70 4a3e de6a 46bf
00000150: 1820 9b3f 27d1 24bf eee0 a6bf f7b5 86be
00000160: 1956 d13e 43f4 833e 4cc2 16c0 5cda ba3e
00000170: 64da bc3f 1038 50bf c9ee fc3d 90dc 57bf
00000180: 1e7f b1bf 95dd 693c 50b0 9fbf 23c3 9e3f
00000190: 680d 82be 5d98 47be 4922 1dbe e1fc 443d
000001a0: 8adb 04bf 91d3 28bf 326f 56be a9d9 463d
000001b0: 0ff3 66bf 4c97 56bf dde1 b7bd 792f 5f3e
000001c0: de8e a5be 3a3a ff3f 21b7 c8bd a1da 47be
000001d0: 651e a6be 5906 733e eb9e a33d 31de cfbf
000001e0: bdab d1bc 8a4e 833e 4dc7 83be fd01 abbf
000001f0: 5e3b 093f 0fb7 4fbf 1ba0 5a3d 83c2 323e
00000200: b958 813f 9091 1140 fecb 3ebf 8cf2 03c0
00000210: 596d 8e3f 6dac 6abe 775b b4be 6da7 79bf
00000220: 31c4 52bf 01cf 1bbf 886e 023e 2303 b4be
00000230: a594 d9be 0b89 78be 8854 e43e c4b2 7cbe
00000240: b7a2 1240 200e c7bf 4676 e3bf c64e fbbd
00000250: a919 393f 5a01 4b3f 36a9 923e ff23 f8bd
00000260: 12ac ca3e 2554 653f 6dca c7be e819 2cbf
00000270: 1bb9 94be a043 ae3e 2a66 243e ea9c afbd
00000280: 8861 d43e 371a 84be ed3a 01bf 357f c8be
00000290: 61a9 1ebf 5b50 6f3e acae c33c c8a9 75bf
000002a0: e8c3 d23e 55d9 1a3f 77f2 83bf 5883 c53f
000002b0: bdb7 223f 9b70 5f3d 0590 5dbe e30a abbc
000002c0: c20f 8b3f 9911 85be e529 bebd 0f04 fdbd
000002d0: 0de3 38bd 0d5b a8be fd55 12bf 88d3 9a3e
000002e0: cf1e 923e 7b18 cd3e 2d7a c83e c5b5 32bf
000002f0: cd13 c93f 9ec4 d0be 23e0 92be a5d0 aebe
00000300: f460 0c40 d64d 903f d36b 663e e8a0 53bf
00000310: 14b3 5bbe 7b1c 99bf b0ff babe b196 883e
00000320: 6f7f 5cbf 696e b1bd dbc5 77bf 4249 853e
00000330: 0d70 fc3c 8d6c 80be 2f9b 3abf a6e5 e8be
00000340: 44ff 1dbf 8109 75be 49ec c5be c59a 14be
00000350: edb3 34bf b7e4 6e3f eb2b d0be e208 aa3e
00000360: afbc 883f 69f7 d43f 2cb0 acbe 7b5d 3f3e
00000370: 0e6f a9be 5e34 abbe d04a e0bf 262a b0be
00000380: 2c88 08c0 2f5c bb3e d8be a93e 18cf 60bf
00000390: 32e4 dd3e 1b10 473f 221b f8be cd53 113f
000003a0: ee80 ba3e 6716 fcbe 90d9 e5bf ebd6 3fbd
000003b0: c2d0 2bbf 8ce7 823c 7ec1 1d3d ffdf 4dbf
000003c0: 6070 c03e 510f a13e 33d5 1ebf 9d61 8c3f
000003d0: 0ca9 343f a646 7cbf 564a 373d 9a38 46be
000003e0: 4527 06be 3fd8 673d c6e8 1fbe 0215 06bf
000003f0: 10d8 443f 6bae cdbe 76a1 16be 66cc 953f
-1.4891788 -1.0546377 -1.1119155 1.9015734 0.14104412 0.693362 1.1306375 0.80525285
-1.2527554 -1.0810527 -1.4981503 0.04800412 -1.4696796 -1.8082463 -1.1923392 0.5867598
-0.6839752 -1.4792192 0.41516915 0.05694209 -0.033822104 -3.6286156 -0.5352162 -1.5328022
-1.174882 -0.63629806 0.8738735 0.78205436 -1.366851 -0.27393544 0.15907775 0.49078822
1.092531 1.2957628 -0.05354075 -0.16183268 0.39155236 -0.5230834 0.5110913 -0.3188113
0.08663005 0.99691135 -0.6382582 0.22403447 0.16952899 0.8636813 0.8550545 -0.06326675
1.0080001 -0.6507714 -0.15977553 0.40638614 -0.8860639 1.0162612 0.29232082 -0.22656128
0.811283 0.5103954 0.041075855 -1.0388169 -0.49733648 -0.73477805 0.2110254 -0.22584769
-0.33057064 -0.45247972 -0.17854537 -0.20757774 -1.0049746 0.7041726 -0.93762696 -0.7725409
0.36962315 -0.54508835 -1.0743744 1.6771399 0.57575 0.5767238 -1.504673 0.26458275
1.4957631 -0.008438543 0.19769593 -0.77506816 1.2119169 -0.6438164 -1.3037393 -0.26310703
0.40886 0.25772294 -2.355609 0.3649472 1.4754148 -0.81335545 0.12350232 -0.84320927
-1.3866918 0.014274021 -1.2475681 1.2403301 -0.25400853 -0.19491716 -0.1534511 0.048092727
-0.5189749 -0.65947825 -0.20940855 0.04854742 -0.9021463 -0.8382461 -0.08978627 0.21795453
-0.32335562 1.9939644 -0.09800554 -0.19516994 -0.32445064 0.2373289 0.079892956 -1.6239682
-0.025594587 0.25645858 -0.25737992 -1.3359982 0.5360621 -0.811387 0.053375345 0.17457013
1.0105201 2.2745094 -0.7453002 -2.061679 1.112712 -0.22917338 -0.35226032 -0.97521096
-0.82330614 -0.6086274 0.12737477 -0.35158643 -0.4249622 -0.24271028 0.44595742 -0.24677569
2.2911813 -1.5551186 -1.7770469 -0.12270884 0.7230478 0.7929894 0.28644723 -0.12116241
0.39584404 0.8958152 -0.39021626 -0.6722703 -0.29047474 0.3403597 0.16054597 -0.08574851
0.4148066 -0.2580125 -0.5048054 -0.3915955 -0.619772 0.23370497 0.023887001 -0.9596219
0.4116509 0.6048787 -1.0308369 1.5430708 0.6356161 0.05455075 -0.2163697 -0.020879215
1.0864184 -0.25989988 -0.092853345 -0.1235429 -0.045138407 -0.32881966 -0.5716246 0.3023951
0.2853913 0.4005774 0.39155713 -0.6980861 1.5709168 -0.40775007 -0.28686628 -0.34143558
2.1934175 1.1273754 0.22502069 -0.826674 -0.21455032 -1.1961817 -0.365232 0.26677468
-0.8613195 -0.08663637 -0.9678628 0.26032454 0.030815149 -0.25082818 -0.7289304 -0.45487708
-0.6171763 -0.23929407 -0.38656834 -0.14512165 -0.70587045 0.9331774 -0.40658507 0.33209902
1.0682582 1.6638004 -0.33728158 0.18688004 -0.3309254 -0.3343839 -1.7522831 -0.34407157
-2.1333113 0.36593768 0.33153415 -0.87816 0.43338162 0.7775895 -0.484582 0.56768495
0.3642649 -0.49235842 -1.795702 -0.04683582 -0.67115414 0.01597955 0.038514607 -0.80419916
0.37585735 0.31456998 -0.62044066 1.0967289 0.70570445 -0.985453 0.044748627 -0.1935753
-0.13100918 0.056602713 -0.1561614 -0.52375805 0.76892185 -0.40172133 -0.1471003 1.1703002

bias f4 [64]
00000000: db4e a43c 2b5e bd3e 36b8 f03d cde2 983f
00000010: b19e 953e ecc8 793e 9e60 043f bf0b df3e
00000020: 37a3 c1bb 68cf 383f 7645 3d3f dd54 5ebe
00000030: 788a c6be b3e3 50bc 5145 0cbe a94b 7c3f
00000040: 0fec fd3e fbd9 46be ef2f 37bd 5623 433e
00000050: e772 f8be 3065 193e 54dd e9be b8e2 193f
00000060: 579f f5be 8a13 5c3f f1f1 eebd ecdb af3d
00000070: 26bf cebc 81dc a7bd 715f e4bd 5fe1 88be
00000080: 6529 edbe 5dab debd 9a3b 07bf 85a5 fbbe
00000090: 493e 4e3e 6202 153f 122e a5bf 186c 32bf
000000a0: 40cc ab3e e6b9 553f e706 65bf 4ec0 da3e
000000b0: 762a 44be 9815 f6bd 4779 413f 8bcf 3abf
000000c0: cabb 46bf 8e39 9abc e5e9 7b3d 6f73 773d
000000d0: d6c4 5bbd 05db fb3e c1b3 86bb f574 073d
000000e0: caca 263f 4431 0fbc f83b ad3d 5010 ca3e
000000f0: 3e98 9e3f 9c65 34bf caf3 e73e 51a8 3dbe
0.020057132 0.36985907 0.117538854 1.1944214 0.29222634 0.24393052 0.51709926 0.4356365
-0.0059093493 0.72191477 0.73934114 -0.2171206 -0.38777518 -0.0127496 -0.13698317 0.9855295
0.4959416 -0.1941909 -0.044723447 0.19056448 -0.48525164 0.14980006 -0.45676672 0.6011157
-0.4797313 0.85967314 -0.116672404 0.08586869 -0.025237631 -0.08196355 -0.111510165 -0.26734444
-0.46320644 -0.10872529 -0.5282532 -0.4914972 0.20140947 0.5820676 -1.2904685 -0.6969619
0.33554268 0.83486784 -0.8946366 0.42724842 -0.19156823 -0.120158374 0.7557568 -0.72972935
-0.77630293 -0.018826272 0.061502356 0.06041282 -0.053654514 0.49190536 -0.004110784 0.033070523
0.6515318 -0.008739773 0.08458704 0.3946557 1.2390211 -0.70467544 0.45303184 -0.18521239

weight f4 [64]
00000000: 8bd1 e03f 7ee2 8c3f 9bfb 883f 2a2c 0340
00000010: eafb f03f 8a64 713f d39e be3f 39cf 9e3f
00000020: 74f5 c43f f0d1 963f 1f36 c63f 440b c33f
00000030: 01cd ea3f a6da ac3f 1eb3 733f 4f51 b33f
00000040: e1c0 d43f 25ed 7e3f 4fd6 cb3d e3c3 9e3f
00000050: 6c0d cb3f 58d2 7c3f 8222 c03f b3c7 2a3f
00000060: 1ac1 903f 800b e23f 4aab f03f 9833 c73f
00000070: 8dd0 9a3f c4ea 8b3f 4971 4b3e d9cb fc3f
00000080: ce47 883f fc5a 4f3f dea6 c33f f75b d53f
00000090: ab4b f23f 9931 653f 423b 7b3f e2f7 783f
000000a0: df6f 7e3f 91b9 8f3f 9ff8 c03f 3cac 2a3f
000000b0: eb42 6c3f cb15 133f 3910 ba3f 0095 b53f
000000c0: 7f33 6d3f cb51 6b3f 6baa 2b3e 31ce c73e
000000d0: 462e 663f c726 f83f c7a5 253f c87e f73f
000000e0: df21 5f3f 502b 4f3f 6ff7 8e3f dd01 603f
000000f0: 0512 b93f 0d0b 8e3f 1a69 ac3f b843 b03f
1.7563947 1.100662 1.0701784 2.0495706 1.8826878 0.94294035 1.4892219 1.2406989
1.5387406 1.1782818 1.5485266 1.5237813 1.8343812 1.3504226 0.95195186 1.4009188
1.6621362 0.99580604 0.099529855 1.240353 1.5863471 0.9875846 1.5010531 0.66710967
1.130893 1.765976 1.8802273 1.556262 1.2094895 1.093102 0.19867434 1.9749709
1.0646913 0.80998206 1.5285299 1.666869 1.8929342 0.89528805 0.98137295 0.9725324
0.9938945 1.1228505 1.5075873 0.6666906 0.9228961 0.5745513 1.4536201 1.4186096
0.926567 0.9192168 0.16764228 0.390245 0.8991436 1.9386834 0.6470608 1.9335566
0.8716106 0.80925465 1.1169261 0.87502843 1.4458624 1.1097122 1.3469574 1.3770666

bias f4 [64]
00000000: 5d65 e63d 9655 60bf 2645 febe a3c9 39bf
00000010: aa7a 8d3e c28c d03e 4695 49be 62dc d83d
00000020: 3a20 fabe ec1c d5be 91b2 63be 5ee7 f8be
00000030: bbb7 9abf 8364 48be e345 88bf e93e ce3e
00000040: 4de4 70be cabc 50bf 00b5 a2bf 3a5f 55bf
00000050: 69f9 f4be 5b8b c53f 6b6b bb3f a949 673f
00000060: daeb 2bbf b441 7fbd cb57 a1be b44b b8be
00000070: 3dbb 6bbe 820d dcbe 0827 95bf 17bf a93e
00000080: a591 09bf 756e 3abf eaa8 68be d79a 14bf
00000090: 2218 1dbf 9117 80bf 479a a4bf 785b 9cbf
000000a0: 5517 d5be 84e2 f5be 3536 bcbb c7bb 57be
000000b0: 0efa 7cbf 9fe0 eebf 3065 be3f 22ce 07bf
000000c0: 57bd 28be 5420 26bf 8bed 0dbf 141f 80bf
000000d0: fbb2 fcbe a8a5 553f dc24 4cbe fa79 b03d
000000e0: a426 81bf 1685 20be b29a c63c 6ae2 80bf
000000f0: 407a b7be d73b c63f 4258 553f 603a 3dbe
0.11249802 -0.87630594 -0.4966213 -0.725733 0.27632648 0.4073239 -0.1968585 0.1058891
-0.48852712 -0.41623628 -0.22236086 -0.4861402 -1.208732 -0.19569592 -1.0646328 0.40282372
-0.2352459 -0.8153807 -1.2711487 -0.8334843 -0.47846535 1.5433153 1.4642156 0.9034677
-0.67156756 -0.06231852 -0.31512293 -0.35995257 -0.23020644 -0.42979056 -1.1652536 0.33153602
-0.5373786 -0.72824794 -0.22720686 -0.58048767 -0.6136495 -1.0007192 -1.2859582 -1.2215414
-0.41619363 -0.4802438 -0.0057437667 -0.21067725 -0.98819053 -1.8662299 1.487463 -0.5304891
-0.16478477 -0.6489308 -0.55440587 -1.0009484 -0.493553 0.83455896 -0.19935936 0.08617015
-1.0089917 -0.15675768 0.024243686 -1.0069096 -0.35835457 1.5487012 0.83337796 -0.184793

running_mean f4 [64]
00000000: 85bb 8bc1 03ae aec0 d25d 51c1 ba6a 8ac0
00000010: 9e6d b4bf 43b2 3e40 4594 b83f 7af6 c2c1
00000020: be02 1ec1 92ef d840 e3fd 5740 5af3 9fc1
00000030: 5365 f5c1 ddf9 0741 c7e8 2b41 1552 3b40
00000040: 96e7 b040 fb38 e740 5647 d040 cbd2 14c0
00000050: c8db dcc1 97fc 0a41 f6cf 93c1 1d80 5641
00000060: 931f bec1 c7e4 8dc1 1e80 1cc1 294c 89c0
00000070: a77d dac0 dd73 1dc1 1e82 2541 97b6 3ac1
00000080: 2979 5ac0 f974 9940 669c bebf 79d2 86be
00000090: b283 df40 ea8e b440 f1b4 1841 ed0e a5c1
000000a0: 244a 99c0 9843 36bf 369d 6c3f 0d98 a0bf
000000b0: 16da c740 aff5 8141 bf41 c0c0 fc74 47bf
000000c0: 8e20 8ac0 5309 5740 1829 c140 33ee 3241
000000d0: e557 6dc0 25b5 56c1 9df1 02c0 7c30 de40
000000e0: b79e c140 d084 9dc0 4021 f640 094d 0941
000000f0: 96a0 b840 df9a cdc0 ee67 58c1 12a7 29c1
-17.466562 -5.4587417 -13.085405 -4.325528 -1.4095953 2.9796302 1.4420248 -24.37035
-9.8756695 6.7792444 3.374871 -19.993824 -30.674475 8.498502 10.74433 2.926885
5.52827 7.2257056 6.508708 -2.3253658 -27.607315 8.686667 -18.476543 13.406278
-23.765417 -17.736708 -9.781279 -4.290547 -6.8278384 -9.840787 10.344267 -11.669578
-3.413645 4.795529 -1.4891479 -0.26332453 6.984826 5.6424456 9.544175 -20.632288
-4.7903004 -0.7119689 0.92427385 -1.2546402 6.245372 16.244963 -6.0080256 -0.7791288
-4.316474 3.359944 6.0362663 11.183154 -3.7084897 -13.419225 -2.045997 6.9434185
6.0506244 -4.9224625 7.691559 8.581307 5.769603 -6.425155 -13.525373 -10.603289
