unet/checkpoints/one_loss/epoch_48.pth (torch, 508787 bytes, 85 tensors)

weight f4 [8, 1, 3]
0.80849755 0.22443597 2.4948394 0.6873249 -2.907707 -0.43874836 -1.0908633 1.4691322
0.64657885 -3.3437376 -0.28698045 0.69113725 0.87655723 -2.0636244 -0.06769455 0.73349166
3.3185327 -0.22460027 -1.3660868 0.5617169 -1.6558975 2.6423392 0.09691624 -0.7883645
00000000: b2f9 4e3f 8bd2 653e 73ab 1f40 86f4 2f3f
00000010: df17 3ac0 a0a3 e0be 69a1 8bbf 860c bc3f
00000020: 3186 253f ccff 55c0 1aef 92be 5fee 303f
00000030: 0e66 603f 6c12 04c0 71a3 8abd 1cc6 3b3f
00000040: d762 5440 9dfd 65be efdb aebf aecc 0f3f
00000050: 73f4 d3bf 161c 2940 067c c63d 42d2 49bf

bias f4 [8]
0.15723896 0.052267388 0.052762024 0.4551905 -0.1686355 0.072376505 -0.33451107 0.089644976
00000000: 4003 213e 5416 563d fe1c 583d bb0e e93e
00000010: c9ae 2cbe 223a 943d 0945 abbe c997 b73d

weight f4 [8]
1.1366112 1.730075 1.8294848 1.716107 0.265669 2.515503 1.0728316 1.94602
00000000: 7a7c 913f 1973 dd3f 8f2c ea3f 65a9 db3f
00000010: c405 883e 00fe 2040 8c52 893f 2f17 f93f

bias f4 [8]
-1.4743723 0.36490268 1.4362434 1.6776328 1.0222715 -0.032101747 -0.5187999 -0.2007541
00000000: 3bb8 bcbf 86d4 ba3e d3d6 b73f acbc d63f
00000010: cbd9 823f 1f7d 03bd 12d0 04bf 7c92 4dbe

running_mean f4 [8]
0.06399645 0.024886869 0.092826195 0.59935737 -0.20908079 0.04047636 -0.23350702 -0.02008264
00000000: 9210 833d 8cdf cb3c a91b be3d 7c6f 193f
00000010: 4619 56be 8aca 253d 771c 6fbe 5984 a4bc

running_var f4 [8]
693837.3 449690.0 90275.41 567723.9 123887.98 867851.56 352356.78 280705.53
00000000: d564 2949 4093 db48 b451 b047 be9a 0a49
00000010: fdf7 f147 b9e0 5349 990c ac48 3110 8948

weight f4 [16, 8, 3]
0.7107782 -0.5592959 -3.0915864 1.2100269 1.0901806 -0.9464601 -0.9097275 0.78018963
0.8113401 1.4172643 2.57831 0.65101266 0.7643219 0.92611575 -1.3718468 -2.4459305
-1.1293523 0.06979456 0.7436102 -1.1449972 0.83724946 0.5647592 -1.0449003 -0.4616578
0.94737256 1.1725996 -0.43769118 0.37033302 0.87809384 -0.5361733 1.0447135 0.580869
0.5056554 -1.6340365 0.23067172 0.8467899 0.2981001 0.914595 -0.57801056 3.3761785
1.6475755 1.5494643 0.24032457 -0.24110422 0.51376736 0.038852233 1.7701931 0.6831921
-1.5823687 0.56521434 -1.571126 0.10224172 0.6135043 0.17668325 -0.74825823 -0.99333644
0.7903424 -2.8832822 -0.00080676866 0.68548465 0.7624902 0.7575741 -0.0829586 0.63256085
-1.4032124 0.1951767 -0.9960413 0.2931529 1.0979725 1.2057219 -0.061924282 -1.9565693
2.3511927 0.65286267 0.1460345 2.2003443 2.2983263 0.37413496 -0.36596048 0.24751963
-1.218101 0.6052234 2.280254 0.72511744 0.8916487 1.4258183 -0.13538948 -1.0790075
0.34893808 -2.2652845 0.109741315 1.1990019 -0.003765643 -0.26378027 -1.4428853 0.7455875
1.3830103 -1.3271631 -1.4118986 -0.76649314 -1.7063417 -0.8988765 -0.35183626 -1.3003196
-1.814764 -1.459799 -0.6735306 -0.5088862 0.01765685 -0.84666944 -0.5602229 1.2996432
0.21105854 -0.8647031 -0.1628242 -1.5518109 -1.3942646 1.8331765 1.0606489 0.115692034
1.7006978 -0.25297692 -1.2802057 1.8307867 1.4532502 2.5177243 0.40246135 -0.43169257
-1.6511366 0.51232916 1.2217244 0.72734076 1.0248696 0.7525744 1.4619188 -0.46199024
0.30997372 -1.0337777 0.099683344 1.2254087 0.10834286 0.8877002 0.6460017 0.8720678
0.8933111 0.064322226 0.9405456 -2.9119074 0.7035625 -0.0912424 -1.8583012 -0.7447331
-0.0628271 -1.1228098 -1.8280447 0.3585121 -1.9731234 0.36858526 0.20706715 -0.31035906
-0.32858047 -0.27513018 0.19159956 0.14102668 -1.5130143 0.77680755 -1.7880299 -0.877891
1.0532578 0.7330873 0.46353775 0.3171423 -1.9537258 0.3358016 -0.35546583 1.4790645
-2.4018893 -0.22637032 0.99347883 -0.9843655 0.62102926 -1.5515252 -0.24984626 1.53547
1.2348707 -0.24336489 -2.0792556 1.0977168 0.57190824 0.46323794 1.1188223 0.16012393
1.1119599 -1.7866491 1.2685666 -0.52733684 0.63676965 0.30870757 -0.94013804 -3.0055048
-0.29320374 -2.114273 -0.14733595 0.018067915 -0.062137075 0.13508888 0.5272144 -0.11588315
-0.46362716 -3.2075136 -1.3320178 -1.2338 0.6255152 1.3640858 -0.14118928 0.22054952
-2.1960032 -0.778513 -0.53715235 0.06900108 -0.21503875 2.4406075 -0.38468656 -0.52183026
-2.0737066 -1.7008586 0.49623075 -0.70781016 0.19734067 0.058475077 2.4680169 0.036942333
-1.3484896 -2.0155294 -1.3337141 1.1425208 0.041133944 0.836894 0.5122019 -0.39644247
-0.012056647 0.15967019 -0.14380312 1.7678099 1.3847218 2.281023 0.019384298 -0.21320975
-1.0988996 0.37085038 1.4343356 0.9478619 1.364639 0.4643438 1.7922251 -0.2535885
00000000: 8ff5 353f 042e 0fbf 8ddc 45c0 29e2 9a3f
00000010: 0a8b 8b3f 364b 72bf e7e3 68bf 82ba 473f
00000020: fcb3 4f3f eb68 b53f 0803 2540 c4a8 263f
00000030: 9aaa 433f ec15 6d3f ad98 afbf 208a 1cc0
00000040: 9e8e 90bf 73f0 8e3d 3d5d 3e3f 458f 92bf
00000050: fb55 563f 0f94 103f 4bbf 85bf 695e ecbe
00000060: 0287 723f be17 963f 0f19 e0be 4a9c bd3e
00000070: c2ca 603f a742 09bf 2cb9 853f d5b3 143f
00000080: a272 013f 1c28 d1bf 3535 6c3e 39c7 583f
00000090: 94a0 983e e622 6a3f 80f8 13bf 4f13 5840
000000a0: c1e3 d23f d954 c63f a517 763e 06e4 76be
000000b0: 4286 033f 8523 1f3d b095 e23f ade5 2e3f
000000c0: 0f8b cabf e3b1 103f a81a c9bf 1b64 d13d
000000d0: 9e0e 1d3f 74ec 343e da8d 3fbf 4c4b 7ebf
000000e0: e153 4a3f b287 38c0 547d 53ba ec7b 2f3f
000000f0: 8f32 433f 60f0 413f 33e6 a9bd 82ef 213f
00000100: 779c b3bf 67dc 473e 90fc 7ebf 2318 963e
00000110: 5d8a 8c3f 1855 9a3f 51a4 7dbd dd70 fabf
00000120: f179 1640 0222 273f 118a 153e 71d2 0c40
00000130: c717 1340 9e8e bf3e 2c5f bbbe c975 7d3e
00000140: bcea 9bbf ecef 1a3f aeef 1140 4ca1 393f
00000150: 1743 643f 3781 b63f 8aa3 0abe eb1c 8abf
00000160: 03a8 b23e 6cfa 10c0 0ec0 e03d e578 993f
00000170: 02c9 76bb 350e 87be 77b0 b8bf d3de 3e3f
00000180: 7b06 b13f 7be0 a9bf 18b9 b4bf e538 44bf
00000190: 6869 dabf c51c 66bf e223 b4be df70 a6bf
000001a0: 304a e8bf b2da babf 806c 2cbf 5e46 02bf
000001b0: 19a5 903c 54bf 58bf c56a 0fbf b55a a63f
000001c0: bb1f 583e 2f5d 5dbf 63bb 26be bda1 c6bf
000001d0: 4377 b2bf 87a5 ea3f 58c3 873f f2ef ec3d
000001e0: 77b0 d93f 3186 81be c8dd a3bf 3857 ea3f
000001f0: 1a04 ba3f 6522 2140 6a0f ce3e cf06 ddbe
00000200: 7258 d3bf 0128 033f 7761 9c3f 0133 3a3f
00000210: ed2e 833f b7a8 403f 2820 bb3f fc89 ecbe
00000220: e0b4 9e3e d452 84bf c826 cc3d 31da 9c3f
00000230: dde2 dd3d 5240 633f 5e60 253f d63f 5f3f
00000240: 09b0 643f 5fbb 833d 99c7 703f b15c 3ac0
00000250: ac1c 343f 4cdd babd d0dc edbf d4a6 3ebf
00000260: 7fab 80bd 3bb8 8fbf 5efd e9bf e68e b73e
00000270: 4f8f fcbf 35b7 bc3e 6909 543e 62e7 9ebe
00000280: b33b a8be dddd 8cbe ad32 443e 4c69 103e
00000290: 74aa c1bf dcdc 463f 2ade e4bf 77bd 60bf
000002a0: 27d1 863f 9cab 3b3f d254 ed3e 7a60 a23e
000002b0: b013 fabf 30ee ab3e 9eff b5be fc51 bd3f
000002c0: 8eb8 19c0 9fcd 67be a154 7e3f 61ff 7bbf
000002d0: c6fb 1e3f 6198 c6bf b3d7 7fbe 488a c43f
000002e0: 3e10 9e3f a534 79be 8612 05c0 fc81 8c3f
000002f0: 9468 123f 862d ed3e 9235 8f3f 87f7 233e
00000300: b454 8e3f ebb0 e4bf 6460 a23f 8cff 06bf
00000310: 5603 233f eb0e 9e3e e3ac 70bf 315a 40c0
00000320: cd1e 96be 4050 07c0 3cdf 16be 2a03 943c
00000330: 7283 7ebd bd54 0a3e 86f7 063f 2554 edbd
00000340: 8a60 edbe e747 4dc0 8f7f aabf 29ed 9dbf
00000350: c421 203f 5d9a ae3f ec93 10be bcd7 613e
00000360: 518b 0cc0 a14c 47bf d182 09bf 7050 8d3d
00000370: 1e33 5cbe ea32 1c40 a3f5 c4be ab96 05bf
00000380: 9cb7 04c0 bcb5 d9bf f511 fe3e 0c33 35bf
00000390: ac13 4a3e 9083 6f3d fdf3 1d40 d850 173d
000003a0: 4f9b acbf 6ffe 00c0 25b7 aabf 1f3e 923f
000003b0: 117c 283d af3e 563f aa1f 033f 82fa cabe
000003c0: 3e89 45bc 9580 233e 2041 13be 9847 e23f
000003d0: 903e b13f 48fc 1140 d2cb 9e3c a853 5abe
000003e0: bea8 8cbf 1ae0 bd3e 4f98 b73f 14a7 723f
000003f0: 7eac ae3f 78be ed3e a267 e53f 5ad6 81be

bias f4 [16]
-0.0927672 1.6355761 -0.037514135 0.25091714 1.0683855 0.8076045 1.1396514 -0.7145206
-1.1658981 -0.43028724 0.30344245 0.053851314 0.23194762 1.8576202 2.4078183 1.1267695
00000000: bbfc bdbd 8f5a d13f 6ca8 19bd 3678 803e
00000010: dbc0 883f 2bbf 4e3f 19e0 913f d2ea 36bf
00000020: 263c 95bf 9c4e dcbe cf5c 9b3e 3293 5c3d
00000030: ad83 6d3e 80c6 ed3f b219 1a40 fc39 903f

weight f4 [16]
1.2696619 1.6877846 1.0345564 1.448103 1.5731777 1.0554383 0.78881603 0.8490734
1.1594682 0.815554 0.9124784 1.6642171 1.6108387 1.9295717 1.3943771 1.3957974
00000000: 4884 a23f 5309 d83f 586c 843f 705b b93f
00000010: e35d c93f 9a18 873f d9ef 493f e05c 593f
00000020: 7469 943f 26c8 503f 2f98 693f 1105 d53f
00000030: f62f ce3f 35fc f63f f37a b23f 7da9 b23f

bias f4 [16]
1.289193 -1.4416914 0.5728589 0.1897229 0.5943594 0.2585418 0.48913616 1.3686439
3.1853185 0.8743123 -0.077090144 -0.3571416 -0.50076634 0.7288119 0.708787 0.9054191
00000000: 4704 a53f 5889 b8bf e2a6 123f b846 423e
00000010: f027 183f 975f 843e 0e70 fa3e b92f af3f
00000020: 42dc 4b40 eed2 5f3f 70e1 9dbd 44db b6be
00000030: 3932 00bf 6b93 3a3f 1173 353f 8cc9 673f

running_mean f4 [16]
7.2671795 12.826697 -4.6505013 8.228669 -12.011615 11.435646 -13.430488 -2.1282547
-14.116957 -6.8252454 10.201708 8.9133005 4.049252 8.528033 -2.2930098 6.2656813
00000000: bc8c e840 273a 4d41 e8d0 94c0 a1a8 0341
00000010: 932f 40c1 68f8 3641 47e3 56c1 5335 08c0
00000020: 0edf 61c1 6968 dac0 323a 2341 e19c 0e41
00000030: 7993 8140 d372 0841 acc0 12c0 7680 c840

running_var f4 [16]
174.91138 210.31894 34.574104 234.73314 81.163826 140.57368 36.706715 58.677727
81.000275 90.78814 176.5694 91.71449 301.24423 83.85816 36.15022 324.84796
00000000: 50e9 2e43 a651 5243 e24b 0a42 afbb 6a43
00000010: e153 a242 dd92 0c43 add3 1242 feb5 6a42
00000020: 2400 a242 8793 b542 c491 3043 d26d b742
00000030: 439f 9643 61b7 a742 d399 1042 8a6c a243

weight f4 [16, 16, 3]
-2.054239 0.19471675 -0.005893835 1.4416298 1.0162041 -0.8535847 -2.2747674 -1.3720504
-1.2683469 -0.076752454 -0.03720485 0.01784859 0.041966654 0.97023284 1.1745951 0.11648147
-0.8962332 -0.2521281 -0.5876477 -0.46562147 0.4571087 0.22494395 0.5916677 -1.0013396
-0.85559815 0.5306093 2.265625 -0.2357028 0.12703988 0.27287173 0.011508501 -0.63427204
-0.39344808 -0.5000776 -0.39217383 -1.9220719 1.6105145 1.4500433 -0.34241176 -0.361433
-1.4806999 -2.6250942 -1.4233607 0.19341102 -0.42992243 -0.13003862 0.73346096 0.53500855
-2.3665392 0.10696849 0.7790183 -1.351538 -0.595903 0.15789354 -1.3864808 0.7304397
-0.61984557 -0.403592 0.50302976 1.1034427 2.9366956 0.36754665 -0.4063643 0.02837984
0.6467169 0.71927446 0.014285858 0.59279484 0.10698668 -0.37935436 -1.1771309 -1.6945156
-1.0425953 0.80151737 -1.5637149 -0.5958002 0.7691432 -2.1221046 -0.045109842 0.6899869
0.72734475 -0.8413715 0.9692998 -0.8146293 1.2076646 0.024410341 -0.18202336 -4.2385826
-0.60267687 -0.6205464 -2.8614163 -0.19626708 -1.9317285 -0.39964178 1.1725421 0.2956669
-1.5730652 -1.835886 -1.1641006 2.8790767 0.72735995 -1.6038687 -1.284526 0.7869766
-0.7855894 -1.1513712 -1.3272455 -0.569058 0.20332432 0.59443456 1.3189777 0.11470351
-1.2064378 -0.13005193 -1.8327798 1.0942395 -0.13311782 0.6764518 0.87122005 0.778334
-1.9406496 0.5141901 0.939921 -1.7102693 -1.526784 0.40650654 0.33858028 -0.3928531
0.061219685 -0.5633689 0.99941546 -2.1577709 1.889922 1.4914397 -0.9024007 0.27543324
-0.26479685 -0.52461755 0.38239536 0.18129374 -0.51586163 -1.3034613 -1.2230262 -1.1619809
-0.21726787 -0.43977252 0.71402836 -1.2586316 0.55845076 0.9503364 0.19528095 -0.6005652
-2.1797714 -0.610036 0.37959683 0.3157857 0.43737563 0.2746933 -0.55293643 -0.22514693
1.0993451 0.40694368 1.3318533 -0.7904775 -0.94530666 -0.31745526 -0.7980588 -0.0058593927
1.3837622 0.6277805 -4.4195447 1.2224071 0.36038372 -1.5285332 -0.521185 1.1714745
0.29926154 0.69455284 0.37284955 -0.26809284 -1.5492449 0.2254513 1.1723976 0.12845296
0.40403166 2.307038 -1.1828848 -1.0814954 -2.535027 0.8087769 0.5737239 0.21037571
0.5018693 0.8900371 -0.50931364 -0.62401724 -1.4037414 -0.72658145 -2.0001879 0.23248695
-1.366697 1.1027007 0.8904365 -1.8499528 0.5561035 0.017127723 -0.102551915 1.2745394
0.8199054 -1.6187005 -1.0605812 1.354149 0.16951692 -0.81302184 -1.149249 -0.8414255
-1.1791682 0.14161392 -1.2662764 0.02693314 -0.12352077 -2.0900695 1.2374917 0.31771407
-1.6474987 1.4083554 0.14074588 -2.2229776 0.037285168 -1.418446 -0.9284476 -1.41435
-0.45956895 0.22508015 -0.6614885 -2.1775212 -0.45795566 0.72056776 0.7016023 -1.3313318
-1.4937732 0.3515019 1.2320291 1.5444666 0.77898294 -1.7165899 0.7012066 -0.17426565
-0.033993352 -0.5660141 1.4225273 2.1006453 1.2546587 0.39904007 -0.095876835 -0.6708345
00000000: a778 03c0 d463 473e 1221 c1bb 5387 b83f
00000010: fa12 823f 8784 5abf ca95 11c0 599f afbf
00000020: 3159 a2bf 6430 9dbd 1d64 18bd 3537 923c
00000030: 3ae5 2b3d 2e61 783f 2259 963f d68d ee3d
00000040: 8a6f 65bf ef16 81be 1470 16bf f065 eebe
00000050: 270a ea3e b557 663e 8977 173f e52b 80bf
00000060: 7b08 5bbf 03d6 073f 0000 1140 135c 71be
00000070: be16 023e d8b5 8b3e 278e 3c3c a75f 22bf
00000080: 0772 c9be 1605 00bf 02cb c8be 7406 f6bf
00000090: 5725 ce3f 059b b93f 9850 afbe bf0d b9be
000000a0: 9387 bdbf 8b01 28c0 af30 b6bf 8a0d 463e
000000b0: cb1e dcbe d828 05be 19c4 3b3f 52f6 083f
000000c0: 6175 17c0 4c12 db3d be6d 473f 32ff acbf
000000d0: 198d 18bf d8ae 213e 3478 b1bf 19fe 3a3f
000000e0: 33ae 1ebf 9ca3 cebe 8fc6 003f 9c3d 8d3f
000000f0: d2f2 3b40 132f bc3e fb0e d0be d77c e83c
00000100: 3d8f 253f 5f22 383f 3b0f 6a3c 67c1 173f
00000110: d51b db3d bc3a c2be 3aac 96bf e3e5 d8bf
00000120: c373 85bf 3e30 4d3f cf27 c8bf 5d86 18bf
00000130: 92e6 443f 90d0 07c0 19c5 38bd fba2 303f
00000140: 4433 3a3f 1f64 57bf 0824 783f 8c8b 50bf
00000150: c194 9a3f 32f8 c73c 5564 3abe 78a2 87c0
00000160: 0849 1abf 21dc 1ebf 7221 37c0 3dfa 48be
00000170: e142 f7bf d99d ccbe dc15 963f a761 973e
00000180: 335a c9bf 50fe eabf 4001 95bf cb42 3840
00000190: 4334 3a3f 924b cdbf 596b a4bf 4c77 493f
000001a0: 631c 49bf 2260 93bf 2ee3 a9bf c9ad 11bf
000001b0: 4034 503e dd2c 183f 43d4 a83f ade9 ea3d
000001c0: 8e6c 9abf 552c 05be 8798 eabf 0a10 8c3f
000001d0: 0a50 08be f22b 2d3f 4708 5f3f e640 473f
000001e0: 3567 f8bf f6a1 033f aa9e 703f 1bea dabf
000001f0: a86d c3bf a021 d03e 655a ad3e 0b24 c9be
00000200: 7ec1 7a3d f238 10bf b1d9 7f3f eb18 0ac0
00000210: f7e8 f13f 7fe7 be3f bb03 67bf 9605 8d3e
00000220: 7493 87be 564d 06bf 53c9 c33e 11a5 393e
00000230: 820f 04bf d2d7 a6bf 1f8c 9cbf cabb 94bf
00000240: 787b 5ebe dd29 e1be 90ca 363f d71a a1bf
00000250: a1f6 0e3f 3f49 733f bbf7 473e a4be 19bf
00000260: 6081 0bc0 522b 1cbf 845a c23e aaae a13e
00000270: b3ef df3e 9aa4 8c3e 3e8d 0dbf eb8c 66be
00000280: 57b7 8c3f ec5a d03e 2b7a aa3f bc5c 4abf
00000290: 9eff 71bf 7f89 a2be 954d 4cbf 2600 c0bb
000002a0: 1f1f b13f 39b6 203f e96c 8dc0 d677 9c3f
000002b0: 3784 b83e faa6 c3bf 616c 05bf e0f2 953f
000002c0: cf38 993e 37ce 313f 23e6 be3e 7743 89be
000002d0: a84d c6bf b5dc 663e 2011 963f 2c89 033e
000002e0: 3ddd ce3e 83a6 1340 c568 97bf 716e 8abf
000002f0: e23d 22c0 010c 4f3f 92df 123f bb6c 573e
00000300: 827a 003f 79d9 633f 6162 02bf 98bf 1fbf
00000310: ccad b3bf 3e01 3abf 1403 00c0 0f11 6e3e
00000320: edef aebf 4c25 8d3f a5f3 633f 41cb ecbf
00000330: cd5c 0e3f 704f 8c3c bd06 d2bd 1b24 a33f
00000340: 52e5 513f 9431 cfbf 20c1 87bf c154 ad3f
00000350: d895 2d3e 3322 50bf 971a 93bf a967 57bf
00000360: fcee 96bf 3d03 113e 5815 a2bf e3a2 dc3c
00000370: 75f8 fcbd b3c3 05c0 2166 9e3f 6bab a23e
00000380: 3de1 d2bf fd44 b43f b01f 103e 4445 0ec0
00000390: 55b8 183d a38f b5bf beae 6dbf 6c09 b5bf
000003a0: 9f4c ebbe 697b 663e 4f57 29bf 825c 0bc0
000003b0: 2a79 eabe 2177 383f 359c 333f 1569 aabf
000003c0: f633 bfbf 0ff8 b33e 21b3 9d3f 15b1 c53f
000003d0: 6d6b 473f 38b9 dbbf 4782 333f b272 32be
000003e0: 9d3c 0bbd 4de6 10bf 6015 b63f f970 0640
000003f0: a898 a03f fb4e cc3e 135b c4bd cfbb 2bbf

bias f4 [16]
0.18552126 -0.0971796 -0.85861325 -0.18734258 0.99516374 1.2248727 -0.18361482 0.24578932
0.79217434 1.6237129 -1.2327234 -1.013876 0.23563944 -0.19948238 -1.5117607 -1.1242537
00000000: 49f9 3d3e 1906 c7bd 14ce 5bbf bcd6 3fbe
00000010: 0dc3 7e3f a1c8 9c3f 8605 3cbe 32b0 7b3e
00000020: f0cb 4a3f d3d5 cf3f e1c9 9dbf b0c6 81bf
00000030: 774b 713e 1c45 4cbe 6081 c1bf 8ce7 8fbf

weight f4 [16]
1.1761266 2.159773 2.0767066 1.5115718 2.0754077 1.9244924 1.6898872 0.6110855
1.508475 1.5042508 1.858197 2.1388001 1.7310907 2.1266456 1.8662403 1.6112714
00000000: 518b 963f b939 0a40 c3e8 0440 2f7b c13f
00000010: 7bd3 0440 c455 f63f 394e d83f 1970 1c3f
00000020: b515 c13f 4a8b c03f 66d9 ed3f 1ae2 0840
00000030: 6194 dd3f f61a 0840 f6e0 ee3f 243e ce3f

bias f4 [16]
1.5881058 -0.093944766 0.21266004 -0.26405367 0.4029873 0.88891065 0.21792136 1.353684
0.3979738 0.86313957 0.14658685 0.5334824 -0.17732975 -0.7368992 0.2902142 -0.7938689
00000000: 0d47 cb3f 1d66 c0bd 8ec3 593e 0b32 87be
00000010: 5a54 ce3e a68f 633f c726 5f3e 8445 ad3f
00000020: 39c3 cb3e b7f6 5c3f dd1a 163e 4d92 083f
00000030: ee95 35be 6da5 3cbf f596 943e fe3a 4bbf

running_mean f4 [16]
-7.79355 -25.979017 -16.52421 -11.980191 -23.983028 17.58178 -50.040844 -22.84722
-12.083056 11.99969 -11.7215395 18.221304 -10.591541 -8.824077 4.1946955 -36.601604
00000000: c364 f9c0 07d5 cfc1 9531 84c1 ddae 3fc1
00000010: 3edd bfc1 7ca7 8c41 d329 48c2 1bc7 b6c1
00000020: 3354 41c1 bbfe 3f41 6d8b 3bc1 3bc5 9141
00000030: f476 29c1 6b2f 0dc1 f23a 8640 0b68 12c2

running_var f4 [16]
132.00124 128.26347 485.84937 156.58505 140.64821 297.47223 483.27106 260.32184
402.26788 156.91295 182.44318 288.79947 263.21884 170.72636 172.92549 90.50604
00000000: 5100 0443 7343 0043 b8ec f243 c695 1c43
00000010: f1a5 0c43 72bc 9443 b2a2 f143 3229 8243
00000020: 4a22 c943 b7e9 1c43 7471 3643 5566 9043
00000030: 039c 8343 f3b9 2a43 edec 2c43 1803 b542

weight f4 [32, 16, 3]
-0.32048023 -1.0023917 -0.2962154 0.67275196 0.25918305 -1.734555 1.0441306 -0.75189394
0.7680955 -0.25511277 0.83427817 -1.5312942 -2.357195 -0.81000143 -0.38532668 -1.1728194
-0.7640258 -1.5569774 0.29686263 -1.115102 0.18887195 -0.7567791 0.2637339 -0.756412
-0.062238317 -0.15589836 -0.5159726 0.028057115 -0.98685896 -2.5286694 -2.5385616 0.6430431
-0.68183553 -0.95391625 -2.2713945 -3.060355 -1.7788413 -1.6082301 -1.6208106 -0.73608
-1.8557884 0.20373969 -0.55051506 -0.46869472 0.54888344 -0.62081426 0.06863993 0.01749273
-0.51040417 0.04433272 0.130265 -1.4703748 0.9299522 0.30524284 -0.5307546 -0.6461168
0.010037384 -0.9229958 -0.047392525 0.7694254 -1.1072831 -1.7423097 0.53452027 -0.38414213
0.22729519 1.4937108 0.45252404 0.20376061 0.922116 0.89743763 0.83532584 0.8079515
0.16748175 1.5105461 0.71808714 -1.2306699 0.38524902 -0.37680814 -0.57908213 0.7003443
-0.22094554 -1.9477155 -0.61529964 -0.48946685 0.4908241 0.88210016 2.4956617 0.42100486
1.1879297 3.0108347 -0.84900033 -0.31746843 0.07342275 -2.6441143 -0.29427084 0.7972312
-0.34305808 -0.97564554 -1.6981786 -1.536013 0.20628901 1.5043871 -0.7858164 -1.7966491
-1.0279659 -1.7148526 0.24896798 -0.10626203 -0.58616585 -1.15581 -1.2350463 -1.696385
-0.10031698 1.2831955 0.1231865 -0.18689984 -0.024552932 1.3390628 0.67450994 0.3019519
1.0728501 1.2007511 -0.16422263 -1.104381 -1.6515963 0.53517246 -0.9135658 1.2224684
0.014809558 -2.1791177 -1.3934153 -0.63505656 -0.6061317 0.96806085 1.6542256 0.07688818
0.49741885 2.0043867 -0.84775656 -2.2436411 0.67028505 -1.3162112 -1.0409555 0.615491
1.5266099 0.56899273 -1.9890245 -0.37436002 -0.39150295 0.9918359 1.736301 0.0720609
-1.7577682 0.53678656 -2.0816796 1.0131642 -2.2427106 -0.23987155 1.135807 1.2397847
1.4387715 -1.1798668 0.8306344 -1.8113089 0.48862457 -1.8256086 -0.953131 1.0295371
-1.051093 -0.2619356 -1.5660455 -0.019484585 0.3777128 0.9334711 -1.2554854 -0.11182798
0.9442852 0.33891544 0.17907023 2.530489 -0.49932635 -0.40180096 -0.63684803 0.25196245
0.25788406 -1.5987531 0.36229947 -0.6881603 -1.7923163 -0.5280195 -0.9346601 -2.5589736
-1.2496774 -0.65841573 -1.9511653 -0.5133886 -0.4693654 -0.10413259 -0.6524631 0.21306045
0.98141533 0.08687994 -0.34222275 0.53026783 -2.3952942 -2.9117684 -1.3485608 -2.3610468
-0.34397587 1.0394068 0.84697497 -0.7962582 -0.4807607 0.80891603 -1.2259618 -3.0641544
0.9151646 0.3520041 -0.86129314 -1.9012893 -3.2518525 0.5682982 -1.3269815 -0.40850633
0.2873022 -1.1815802 -0.35975286 -0.38781825 -0.30126905 0.020647133 0.51224554 -0.17758495
0.07725105 2.8001726 -0.22153655 0.5170221 0.45882103 -1.0418679 -0.87169963 0.9827801
-3.2119298 0.64262855 -0.057062026 -0.09701477 -2.2668223 0.10110526 -2.5453565 0.25749236
0.836939 1.1565096 -1.5768645 -0.55839914 -0.57634205 0.93474275 -1.4573418 -0.5595573
00000000: fc15 a4be 5f4e 80bf 8ba9 97be 7939 2c3f
00000010: a4b3 843e e605 debf 12a6 853f 1f7c 40bf
00000020: e8a1 443f 249e 82be 4193 553f 7301 c4bf
00000030: 48dc 16c0 415c 4fbf 8a49 c5be f21e 96bf
00000040: 3297 43bf 094b c7bf 61fe 973e aabb 8ebf
00000050: a667 413e 46bc 41bf 2108 873e 38a4 41bf
00000060: 9bed 7ebd d2a3 1fbe c816 04bf 09d8 e53c
00000070: caa2 7cbf b8d5 21c0 cb77 22c0 799e 243f
00000080: c68c 2ebf db33 74bf 875e 11c0 dbdc 43c0
00000090: 12b1 e3bf 7cda cdbf b976 cfbf bd6f 3cbf
000000a0: 798a edbf 23a1 503e 8eee 0cbf c1f8 efbe
000000b0: a083 0c3f afed 1ebf 1793 8c3d ea4c 8f3c
000000c0: d9a9 02bf 3a96 353d 3064 053e 3e35 bcbf
000000d0: 5911 6e3f ca48 9c3e 89df 07bf e967 25bf
000000e0: d773 243c 7449 6cbf aa1e 42bd 10f9 443f
000000f0: 74bb 8dbf 0104 dfbf 52d6 083f 47ae c4be
00000100: 12c0 683e ea31 bf3f 3bb1 e73e 9fa6 503e
00000110: cb0f 6c3f 79be 653f ead7 553f e9d5 4e3f
00000120: 5680 2b3e 9359 c13f 8fd4 373f 9786 9dbf
00000130: 5c3f c53e ffec c0be ba3e 14bf c449 333f
00000140: 8c3f 62be be4e f9bf 4784 1dbf 669b fabe
00000150: 4c4d fb3e 51d1 613f ecb8 1f40 f38d d73e
00000160: 150e 983f 84b1 4040 1658 59bf 398b a2be
00000170: ab5e 963d 2b39 29c0 abaa 96be 5817 4c3f
00000180: 4fa5 afbe e8c3 79bf eb5d d9bf 139c c4bf
00000190: 6d3d 533e c28f c03f 432b 49bf 99f8 e5bf
000001a0: 6394 83bf 4a80 dbbf 76f1 7e3e e89f d9bd
000001b0: f70e 16bf 95f1 93bf ff15 9ebf 2523 d9bf
000001c0: fd72 cdbd c03f a43f 3449 fc3d ac62 3fbe
000001d0: 3b23 c9bc 6966 ab3f afac 2c3f 7099 9a3e
000001e0: 2753 893f 36b2 993f fa29 28be 5b5c 8dbf
000001f0: 8267 d3bf 1001 093f 73df 69bf d879 9c3f
00000200: caa3 723c aa76 0bc0 6f5b b2bf 1193 22bf
00000210: 722b 1bbf d6d2 773f aabd d33f 8d77 9d3d
00000220: afad fe3e df47 0040 9306 59bf d197 0fc0
00000230: cd97 2b3f 9c79 a8bf 083e 85bf d190 1d3f
00000240: f467 c33f 82a9 113f 5b98 febf 1eac bfbe
00000250: 1373 c8be f5e8 7d3f 1c3f de3f aa94 933d
00000260: 8cfe e0bf d86a 093f 3d3a 05c0 5daf 813f
00000270: 9288 0fc0 e3a0 75be 2062 913f 44b1 9e3f
00000280: aa29 b83f e005 97bf 75a4 543f f8d8 e7bf
00000290: 002d fa3e 8bad e9bf 6500 74bf dfc7 833f
000002a0: 378a 86bf 6c1c 86be 2e74 c8bf 239e 9fbc
000002b0: 9263 c13e f6f7 6e3f bfb3 a0bf 1106 e5bd
000002c0: adbc 713f 5386 ad3e 305e 373e 88f3 2140
000002d0: b4a7 ffbe dbb8 cdbe 7908 23bf 3901 813e
000002e0: 6109 843e f1a3 ccbf 517f b93e 462b 30bf
000002f0: 9f6a e5bf 492c 07bf e245 6fbf 39c6 23c0
00000300: 6ef5 9fbf ef8d 28bf c9bf f9bf 6f6d 03bf
00000310: a950 f0be 7843 d5bd d207 27bf 852c 5a3e
00000320: 093e 7b3f 1cee b13d d237 afbe a2bf 073f
00000330: 804c 19c0 6a5a 3ac0 a49d acbf 641b 17c0
00000340: 9b1d b0be 480b 853f 5ad3 583f 94d7 4bbf
00000350: 4426 f6be 1f15 4f3f 51ec 9cbf 1b1b 44c0
00000360: 3a48 6a3f e239 b43e b57d 5cbf 735d f3bf
00000370: 5a1e 50c0 fe7b 113f 88da a9bf be27 d1be
00000380: 4619 933e 053e 97bf 8731 b8be 1d90 c6be
00000390: f03f 9abe 2d24 a93c 8622 033f d4d8 35be
000003a0: cc35 9e3d 0736 3340 7ada 62be 8f5b 043f
000003b0: 97ea ea3e ed5b 85bf b527 5fbf 7a97 7b3f
000003c0: 4290 4dc0 4e83 243f dfb9 69bd aeaf c6bd
000003d0: 9e13 11c0 4610 cf3d 1fe7 22c0 0ad6 833e
000003e0: a241 563f 8208 943f b2d6 c9bf 3ff3 0ebf
000003f0: 278b 13bf 4d4b 6f3f 2d8a babf 263f 0fbf

bias f4 [32]
0.49284843 0.045953043 0.43415198 0.20890838 0.83895105 0.50642884 0.44135597 -0.21987082
-0.6012804 1.4375216 0.18271029 0.26117635 -0.20540513 0.6141022 -0.37336218 -0.64684296
-0.091445655 0.6068655 1.618968 -0.44266313 1.185485 0.089769036 0.119691096 -0.094854474
-0.93602556 1.3044469 0.5388657 -0.91780436 1.206074 -0.45563564 2.0971167 1.0131919
00000000: a156 fc3e 4239 3c3d 2b49 de3e 14ec 553e
00000010: 7fc5 563f 52a5 013f 69f9 e13e d125 61be
00000020: 83ed 19bf b500 b83f 6818 3b3e e8b8 853e
00000030: b955 52be cd35 1d3f 5429 bfbe 8097 25bf
00000040: dc47 bbbd 8a5b 1b3f 583a cf3f bea4 e2be
00000050: f9bd 973f d4d8 b73d 9b20 f53d 1043 c2bd
00000060: 5f9f 6fbf 1ef8 a63f 1af3 093f 3af5 6abf
00000070: a260 9a3f 1349 e9be 2937 0640 46b0 813f

weight f4 [32]
1.820713 1.4352946 1.763798 1.8260641 1.8367947 1.7537502 1.481351 1.4672871
1.0894101 1.2531334 1.6217138 1.8773044 2.0032258 0.69895303 2.10684 1.2498714
2.0698574 2.0413606 1.3075187 0.9094134 1.6717043 0.09787598 1.4248089 1.5857965
2.154896 1.2980862 1.502664 1.5896511 1.3677464 1.8227444 1.8500785 1.4490404
00000000: 200d e93f bcb7 b73f 22c4 e13f 78bc e93f
00000010: 171c eb3f e37a e03f e99c bd3f 10d0 bb3f
00000020: ca71 8b3f ad66 a03f 5194 cf3f 834b f03f
00000030: da34 0040 96ee 323f 77d6 0640 c9fb 9f3f
00000040: 8b78 0440 a7a5 0240 c65c a73f 51cf 683f
00000050: 68fa d53f 3473 c83d 2360 b63f 61fb ca3f
00000060: d1e9 0940 b027 a63f 4b57 c03f b079 cb3f
00000070: 5012 af3f b04f e93f 5fcf ec3f 287a b93f

bias f4 [32]
-0.107962415 -1.0156355 0.2511963 0.50438434 -0.02992035 0.16388538 -0.94478434 -1.6033424
-1.7436826 -0.7320231 -1.2762412 0.718235 -0.05279088 1.0812689 -0.25880545 -0.61934054
0.9849661 -0.40886956 1.3715811 -0.26269972 0.3775248 -1.1064947 -0.22975187 -0.23175578
0.19542804 -1.8777593 1.5916108 -0.42865846 -0.33782113 -0.6271398 -0.35392192 0.89545923
00000000: 661b ddbd 5800 82bf cd9c 803e 551f 013f
00000010: 861b f5bc 92d1 273e 63dd 71bf 533a cdbf
00000020: fe30 dfbf de65 3bbf df5b a3bf 40de 373f
00000030: 403b 58bd 0567 8a3f 2682 84be 1a8d 1ebf
00000040: bd26 7c3f 5a57 d1be f88f af3f 9480 86be
00000050: ee4a c13e 9ea1 8dbf 1344 6bbe 6351 6dbe
00000060: 4a1e 483e 6b5a f0bf e7b9 cb3f 1f79 dbbe
00000070: e4f6 acbe 3c8c 20bf 4135 b5be d13c 653f

running_mean f4 [32]
-29.132053 2.8123684 -13.453409 -3.6974244 -25.153595 -19.235804 18.239275 11.806859
18.411388 -13.226226 -3.305259 4.948462 -6.748517 -8.140289 -12.911443 15.821438
-7.088684 -10.882418 -9.6466055 9.24169 -17.282642 -1.1305183 16.633175 -15.921254
-0.2026047 18.195053 -14.881623 5.542637 10.685351 -10.312192 -10.017483 -0.38604733
00000000: 720e e9c1 d8fd 3340 2a41 57c1 9aa2 6cc0
00000010: 903a c9c1 ede2 99c1 09ea 9141 e5e8 3c41
00000020: 864a 9341 9f9e 53c1 5d89 53c0 cd59 9e40
00000030: daf3 d7c0 a03e 02c1 4595 4ec1 9c24 7d41
00000040: 80d6 e2c0 621e 2ec1 7f58 1ac1 f6dd 1341
00000050: da42 8ac1 d3b4 90bf be10 8541 75bd 7ec1
00000060: 9b77 4fbe 788f 9141 211b 6ec1 485d b140
00000070: 33f7 2a41 bdfe 24c1 9c47 20c1 ffa7 c5be

running_var f4 [32]
450.36734 172.47208 258.29254 234.06412 253.55145 204.09682 195.70235 233.9196
184.94058 236.60283 194.52596 296.77374 335.81067 223.26358 163.52205 202.15448
260.3866 189.37196 572.8157 156.30692 149.34633 163.74469 182.12624 411.27917
282.28577 194.54968 365.05264 182.51967 215.6741 254.08452 160.2579 307.49567
00000000: 052f e143 da78 2c43 7225 8143 6a10 6a43
00000010: 2c8d 7d43 c918 4c43 cdb3 4343 6beb 6943
00000020: caf0 3843 539a 6c43 a586 4243 0a63 9443
00000030: c4e7 a743 7a43 5f43 a585 2343 8c27 4a43
00000040: 7c31 8243 395f 3d43 3434 0f44 924e 1c43
00000050: a958 1543 a4be 2343 5120 3643 bca3 cd43
00000060: 9424 8d43 b88c 4243 bd86 b643 0985 3643
00000070: 92ac 5743 a315 7e43 0642 2043 72bf 9943

weight f4 [32, 32, 3]
0.2742959 -0.26748583 0.68619126 0.12984544 -1.2796819 -2.03638 1.9308133 0.3350413
-1.8017726 1.2713419 -0.1200259 -1.2959384 -1.833484 0.7767521 -0.8901965 0.2460663
0.79278225 -0.17703328 1.579108 0.8382677 0.7658064 0.64253896 -1.5064589 -3.158597
-1.2041509 -0.45308173 -0.091974966 2.0752642 0.38849774 -2.1893969 -0.7672981 -0.592474
-0.38475898 2.107316 1.594151 -1.1045064 1.17159 0.10709973 -1.1466194 1.160308
-0.39182475 -0.3172001 1.2116398 1.2728509 -1.0411546 -0.42433465 0.3781459 0.081007354
0.54791296 -1.6134245 -3.7274482 -0.86944103 0.08798805 1.6762263 -0.59961116 0.34952712
0.16246603 0.8333697 -0.49984336 -0.5258327 1.4934609 0.38776013 -0.95974505 0.3732511
-0.5777926 -0.91578627 -0.104106426 -1.0450345 -0.9785442 0.3022025 0.3685126 0.21102175
-0.4377966 -0.46798673 0.25356433 0.6509002 0.5537849 -0.42570677 0.2660727 -0.91451055
-1.8874555 0.9228652 -0.58837444 -1.0677695 0.7093458 0.13659568 -0.102462426 0.45240134
0.95162 1.5547498 0.22633632 0.60781354 -1.6512367 -0.39763978 -0.2793439 0.18973626
1.600161 0.9557285 1.8116947 1.0831699 -0.9534564 3.0027452 -0.94234586 -0.63793314
0.19166678 0.5238361 -0.1406241 -0.97439575 -0.26937413 0.5460084 2.7998405 -0.05734477
-0.101323985 0.17978944 0.56634057 0.35613272 -0.94000924 -1.1715373 -1.2755632 0.24483357
1.1118264 0.542749 -1.2820708 -0.34540623 -0.105611816 0.83371806 -0.72603756 -2.0289063
-3.2736645 -0.37755236 0.92823064 -0.4363877 -1.6154476 -0.20957251 2.6950262 -0.633429
-0.784201 -2.3202572 1.0295986 -0.2572786 1.1433423 -0.3918554 0.62460756 -2.1569154
-0.5282375 -1.0709822 -0.9198943 0.50806606 1.4375573 3.4663484 0.11167567 -1.1628056
0.2787332 -1.2653426 -1.3859036 0.19792657 1.7549186 1.0151193 -1.6116496 0.11130364
-0.32692552 -0.6584024 0.6769196 -0.22365107 -2.8838642 -2.2430701 0.10100378 2.0328293
0.74495095 -0.9271595 -4.0592666 1.2881894 0.4641139 -1.0801392 -1.0839357 -0.6304334
0.68266755 0.39095598 -2.5931437 -0.65345937 -0.889109 -0.36251393 -0.5244598 0.86512256
-0.097662866 -3.6046178 -1.3125317 -0.82682806 0.33852276 0.25100064 -0.559256 -0.101297714
0.9961629 -0.13850996 -0.9638542 -0.590712 -0.8804836 1.0603672 1.2192272 -0.5703102
0.051125847 -1.7929649 -0.1544522 -1.6793532 0.19245934 -0.6107309 -1.5975186 -1.5106101
-0.79107064 1.1590117 -0.53368515 -0.18798216 -0.7352524 -0.3102324 1.3852108 0.85422814
-0.6812871 -0.030293344 1.0216283 -0.90081716 0.06203923 1.075343 -0.8004028 0.06942376
0.58422285 -0.357506 0.49020895 0.5737918 -0.8858872 0.5942088 3.2901943 2.0828104
-0.31422457 0.68238807 -0.7800791 -1.8252861 -1.2639527 -0.3503461 0.061033115 0.2735501
0.5059819 -0.37585095 0.2716118 1.2364786 -0.25949818 -2.0563748 0.5987866 -2.1639776
1.0233523 -1.3513519 -0.66904676 2.8679345 0.1356889 0.15854673 -1.6261815 -0.86231035
00000000: 8370 8c3e e7f3 88be 3baa 2f3f 34f6 043e
00000010: 9ecc a3bf 0d54 02c0 e424 f73f 898a ab3e
00000020: 7ca0 e6bf 55bb a23f 24d0 f5bd 4fe1 a5bf
00000030: 9baf eabf 3ad9 463f ebe3 63bf cef8 7b3e
00000040: c7f3 4a3f 3648 35be 3620 ca3f b698 563f
00000050: e30b 443f 6f7d 243f a5d3 c0bf 7426 4ac0
00000060: 9e21 9abf 54fa e7be 5f5d bcbd 21d1 0440
00000070: 2de9 c63e 141f 0cc0 a66d 44bf 60ac 17bf
00000080: 21ff c4be 44de 0640 240d cc3f 7760 8dbf
00000090: a9f6 953f 1a57 db3d 6dc4 92bf f984 943f
000000a0: 419d c8be 0d68 a2be 0317 9b3f c7ec a23f
000000b0: 8e44 85bf 6442 d9be 579c c13e 2fe7 a53d
000000c0: 0644 0c3f b284 cebf 838e 6ec0 b093 5ebf
000000d0: 1433 b43d 958e d63f 1e80 19bf 38f5 b23e
000000e0: 7f5d 263e b757 553f 78eb ffbe f99c 06bf
000000f0: ba29 bf3f 7f88 c63e dab1 75bf c51a bf3e
00000100: 37ea 13bf f870 6abf c035 d5bd b1c3 85bf
00000110: df81 7abf 49ba 9a3e afad bc3e 1616 583e
00000120: e026 e0be f59b efbe 2fd3 813e 65a1 263f
00000130: d9c4 0d3f 3df6 d9be ae3a 883e 5d1d 6abf
00000140: 2498 f1bf e540 6c3f b59f 16bf acac 88bf
00000150: b097 353f bddf 0b3e d2d7 d1bd 26a1 e73e
00000160: 5e9d 733f 0b02 c73f b5c4 673e ab99 1b3f
00000170: b95b d3bf 7197 cbbe 2a06 8fbe 394a 423e
00000180: 13d2 cc3f 9faa 743f 9de5 e73f 50a5 8a3f
00000190: b815 74bf fa2c 4040 943d 71bf 964f 23bf
000001a0: 4c44 443e 1f1a 063f c4ff 0fbe 0072 79bf
000001b0: 68eb 89be 35c7 0b3f 9630 3340 59e2 6abd
000001c0: f382 cfbd b91a 383e b2fb 103f 0757 b63e
000001d0: 72a4 70bf eff4 95bf a845 a3bf a7b5 7a3e
000001e0: 5450 8e3f 99f1 0a3f e51a a4bf 16d9 b0be
000001f0: 024b d8bd 8c6e 553f 99dd 39bf 9ad9 01c0
00000200: b883 51c0 8b4e c1be 86a0 6d3f 356e dfbe
00000210: fdc6 cebf 2d9a 56be 4f7b 2c40 6728 22bf
00000220: 66c1 48bf 187f 14c0 e3c9 833f 05ba 83be
00000230: 0a59 923f 45a1 c8be 48e6 1f3f e70a 0ac0
00000240: 933a 07bf f215 89bf 317e 6bbf 9e10 023f
00000250: e101 b83f a7d8 5d40 37b6 e43d d0d6 94bf
00000260: 1eb6 8e3e bff6 a1bf 4a65 b1bf 43ad 4a3e
00000270: 2ca1 e03f 6eef 813f 894a cebf 2af3 e33d
00000280: c862 a7be 0f8d 28bf 9a4a 2d3f c904 65be
00000290: 3b91 38c0 768e 0fc0 12db ce3d e019 0240
000002a0: 1bb5 3e3f 535a 6dbf 83e5 81c0 64e3 a43f
000002b0: 56a0 ed3e 0042 8abf 68be 8abf 1564 21bf
000002c0: 4dc3 2e3f 622b c83e 11f6 25c0 1d49 27bf
000002d0: a69c 63bf 6d9b b9be ff42 06bf ac78 5d3f
000002e0: 7803 c8bd 0fb2 66c0 0a01 a8bf 01ab 53bf
000002f0: db52 ad3e 2883 803e 672b 0fbf 2d75 cfbd
00000300: 8804 7f3f 8ed5 0dbe 26bf 76bf e738 17bf
00000310: 6067 61bf 1dba 873f a30f 9c3f d9ff 11bf
00000320: 5669 513d e07f e5bf b828 1ebe 0cf5 d6bf
00000330: 1014 453e dc58 1cbf 7d7b ccbf ac5b c1bf
00000340: 9b83 4abf 7f5a 943f 979f 08bf 657e 40be
00000350: 8039 3cbf c8d6 9ebe 964e b13f b2ae 5a3f
00000360: d568 2ebf bf29 f8bc b7c4 823f f49b 66bf
00000370: d91c 7e3d d7a4 893f 33e7 4cbf 0b2e 8e3d
00000380: a18f 153f 070b b7be abfc fa3e 05e4 123f
00000390: 81c9 62bf 111e 183f 8b92 5240 c44c 0540
000003a0: 0be2 a0be fcb0 2e3f 44b3 47bf faa2 e9bf
000003b0: 34c9 a1bf 9060 b3be dcfd 793d c20e 8c3e
000003c0: 0888 013f 896f c0be b410 8b3e ee44 9e3f
000003d0: f2dc 84be a59b 03c0 144a 193f 9c7e 0ac0
000003e0: 35fd 823f 19f9 acbf a646 2bbf 3d8c 3740
000003f0: 08f2 0a3e 135a 223e b726 d0bf 5fc0 5cbf

bias f4 [32]
-0.3872837 -0.39075515 0.3206726 -1.6722817 0.8014185 -0.08661205 -0.50743467 0.8914881
-0.37562358 -0.06316337 -1.5810523 -0.7346494 0.6573075 1.0367128 0.9924549 1.1148603
-0.01854134 -0.37433898 0.3805057 -0.32070693 -1.225066 0.07555421 1.4374704 -0.0575931
-0.054437865 -0.13675885 0.9449734 -0.48934776 0.20661213 -0.23571719 0.31028435 1.1495949
00000000: 0d4a c6be 0f11 c8be 332f a43e 540d d6bf
00000010: c329 4d3f a961 b1bd 3de7 01bf 9038 643f
00000020: bc51 c0be cc5b 81bd ec5f cabf fc11 3cbf
00000030: 4e45 283f 01b3 843f 8611 7e3f beb3 8e3f
00000040: 02e4 97bc 5ca9 bfbe a5d1 c23e b333 a4be
00000050: f6ce 9cbf 2abc 9a3d 08ff b73f bee6 6bbd
00000060: 3dfa 5ebd 830a 0cbe c7e9 713f ca8b fabe
00000070: 2192 533e d95f 71be 97dd 9e3e ed25 933f

weight f4 [32]
1.3718802 2.043485 1.1240977 1.8076165 1.6890591 1.3748412 2.2514184 1.9145896
1.9904406 1.0891793 1.9801701 1.372711 1.0575454 2.1717625 1.9806297 2.0135424
1.996122 1.7054924 1.3311863 2.454715 1.3651345 1.1754705 1.9769448 2.0932293
1.5570985 2.0172963 1.826951 1.7752103 1.007016 1.9675014 1.3280002 1.8293213
00000000: c599 af3f 75c8 0240 6fe2 8f3f fa5f e73f
00000010: 1733 d83f ccfa af3f 3d17 1040 4611 f53f
00000020: c2c6 fe3f 3a6a 8b3f 3776 fd3f feb4 af3f
00000030: a65d 873f 28fe 0a40 4685 fd3f e1dd 0040
00000040: ed80 ff3f 934d da3f 5064 aa3f 0d1a 1d40
00000050: babc ae3f d175 963f 870c fd3f 78f7 0540
00000060: 014f c73f 621b 0140 88d9 e93f 173a e33f
00000070: e6e5 803f 16d7 fb3f e9fb a93f 3327 ea3f

bias f4 [32]
-0.70082176 -0.452907 -2.078238 0.83703065 -1.1468868 0.38267183 1.0535431 -1.0162067
-0.89570814 -1.8002309 -0.2925261 -0.7716646 -1.7094477 0.3540558 -0.19254708 -0.021180457
-0.3645414 -0.76314145 -1.2701806 0.07006847 -1.4237577 0.0776776 0.12955758 -0.89646715
0.8946768 -0.112211145 -0.9421484 -0.20110193 -2.0368328 -0.3260113 -1.4396005 -0.3038715
00000000: 0e69 33bf 6de3 e7be da01 05c0 a447 563f
00000010: 30cd 92bf 90ed c33e 80da 863f 1013 82bf
00000020: 214d 65bf f76d e6bf fbc5 95be d08b 45bf
00000030: 2fcf dabf cd46 b53e 102b 45be a382 adbc
00000040: 2ca5 babe 3d5d 43bf 4795 a2bf 0f80 8f3d
00000050: b13d b6bf 6f15 9f3d beaa 043e df7e 65bf
00000060: 8a09 653f f5ce e5bd a330 71bf aaed 4dbe
00000070: 785b 02c0 f4ea a6be d444 b8bf 0c95 9bbe

running_mean f4 [32]
-9.593034 -15.19644 9.965563 8.17361 -31.39705 5.034416 -23.250061 -9.048926
-59.39977 22.71282 -18.330076 0.33947292 3.6923883 -32.104656 -11.58988 -1.264257
-25.142208 -4.9871154 -27.141277 -36.61311 22.984303 -19.526049 -26.403454 -29.436348
7.167771 -7.7164145 -44.0403 2.672972 21.942883 3.490516 26.05391 -16.558651
00000000: 117d 19c1 9e24 73c1 f272 1f41 1bc7 0241
00000010: 292d fbc1 f019 a140 2000 bac1 67c8 10c1
00000020: 5d99 6dc2 dbb3 b541 ffa3 92c1 65cf ad3e
00000030: 1750 6c40 2b6b 00c2 2670 39c1 2cd3 a1bf
00000040: 3e23 c9c1 7396 9fc0 5621 d9c1 d373 12c2
00000050: dadf b741 5935 9cc1 463a d3c1 a47d ebc1
00000060: 615e e540 deec f6c0 4429 30c2 f911 2b40
00000070: 068b af41 9d64 5f40 686e d041 1e78 84c1

running_var f4 [32]
569.6361 363.50266 314.54807 376.85776 285.07684 435.72803 828.8744 540.84503
406.69998 247.29576 468.94183 530.30084 282.6168 612.76935 957.8221 487.76657
567.6054 330.4445 200.21349 442.57425 338.9347 638.6487 448.41742 369.68408
388.5811 468.4237 354.46152 433.98898 201.66927 405.79974 190.2537 451.72473
00000000: b668 0e44 57c0 b543 2746 9d43 cb6d bc43
00000010: d689 8e43 30dd d943 f637 4f44 1536 0744
00000020: 9959 cb43 b74b 7743 8e78 ea43 4193 0444
00000030: f34e 8d43 3d31 1944 9d74 6f44 1fe2 f343
00000040: bfe6 0d44 e538 a543 a736 4843 8149 dd43
00000050: a477 a943 84a9 1f44 6e35 e043 90d7 b843
00000060: 614a c243 3c36 ea43 133b b143 97fe d843
00000070: 55ab 4943 5ee6 ca43 f240 3e43 c4dc e143

weight f4 [64, 32, 3]
-2.2561178 -1.7615184 -0.92913693 0.39758584 1.2409446 1.6353375 0.7656353 0.99299425
1.4199275 1.5620134 1.6846322 0.183998 -0.15132919 -0.3603775 1.5024328 0.8041881
-0.8621798 -4.00255 -0.23376067 -0.38081604 -1.3024684 1.4696667 0.14150335 0.09486349
0.81938374 -0.4676495 1.2051798 -0.7026021 0.5600144 0.9462063 0.31800792 -0.11619663
0.5443568 -0.36997688 0.51211745 -0.62521386 -0.55233413 -0.554635 0.08551819 -0.54867625
-1.7775437 0.4239965 -1.0780091 -1.0555623 0.921785 1.3535008 1.6133056 -0.11924192
-1.2964727 -1.5270175 -0.013026634 -1.7064297 -0.21001247 0.7509856 0.69713926 -0.18373531
0.28920588 -1.3079715 -0.26584825 0.42070413 -0.31756043 0.47850183 1.2856303 -2.7612627
-0.22662175 2.4389868 -0.74650145 -0.3730564 0.025142407 -1.9587699 -0.84219444 -1.0743225
1.2436367 -1.1346146 -0.43080562 -4.649233 -1.4779273 -3.1401167 -0.27092457 -0.0537816
0.06118037 -0.9703674 -2.5241168 -3.6176229 -1.5837606 -0.55111414 -1.0287178 1.1736066
0.3692335 -0.35835335 0.45485374 0.5620331 1.6504312 -0.22555259 0.8266709 -0.60976505
-2.8273866 1.0821372 -0.25776622 0.96714073 -0.9896061 0.9964199 1.293691 0.5561588
-0.1239464 0.4592741 -0.09453162 -1.2551571 0.5806259 1.1474022 1.1266873 0.7479392
-0.16174158 -0.08508334 -2.20164 -1.805822 -1.1161336 -3.5822434 -2.1550977 -1.7877908
-0.048154455 0.5788435 -0.9251976 1.261507 0.6687285 1.1427766 0.8980972 0.01593756
-0.19141418 -1.133901 -2.7493103 -0.36215508 0.8139805 0.67857045 0.49151623 -3.1401308
0.5247163 -2.076631 1.7053406 -0.12932982 0.06257523 -1.2685099 0.010722874 -1.9923193
-3.6077416 -2.2710564 -1.2805912 -0.92299956 -0.42786026 0.3291292 -0.2652321 0.59492755
-0.07986953 -1.4152435 2.119391 -0.44990078 -0.23873444 0.7067025 0.7211325 -1.7680545
1.3323076 -1.2094548 -0.6296629 -0.82372755 -0.31615525 -1.3868183 -1.9479514 -2.2866204
-1.6902449 0.03335501 -2.220554 -1.7290212 -0.44497624 0.9331822 -0.66608536 -0.21228237
0.8823631 -1.3492482 -0.31351653 0.13950637 2.228492 0.5175723 0.24225338 0.96143425
-1.5527587 -0.78525716 2.136034 -0.12320406 -1.533544 0.824567 -0.81520724 -1.4462429
-0.4234879 -0.1209776 0.5210202 -1.4405706 0.43684208 -0.765052 1.6971288 0.5088977
-1.2356148 2.0355504 -0.2930804 0.1588094 -1.5962763 0.054053724 0.09724592 0.47783205
0.29372844 -1.115706 0.5531424 0.24308026 -0.22130801 -0.85262144 0.28842363 1.0874021
-0.5419341 0.23716941 -0.86026466 -0.034281444 -0.7693305 0.43048456 1.024453 -0.62120825
-0.11563218 2.9126005 -0.016715506 2.124824 -0.7236665 0.75310546 0.44075707 -0.15947998
1.9139725 -0.87982625 0.8709903 -0.7898272 0.6888758 -1.8122225 0.35227716 -0.65940803
0.36366633 0.8629539 -0.5915796 0.79413986 2.49778 -0.6283446 0.5346113 0.78378415
-0.3516731 -1.5377238 1.7647877 -0.054024536 2.197197 2.075574 2.4670079 -0.64231735
00000000: 3c64 10c0 6f79 e1bf ebdb 6dbf 5f90 cb3e
00000010: 46d7 9e3f bd52 d13f ad00 443f df34 7e3f
00000020: 2fc0 b53f 0ef0 c73f 07a2 d73f f969 3c3e
00000030: 0af6 1abe 6683 b8be b84f c03f 45df 4d3f
00000040: d1b7 5cbf e414 80c0 f55e 6fbe 52fa c2be
00000050: 49b7 a6bf 0a1e bc3f 41e6 103e ca47 c23d
00000060: 22c3 513f c16f efbe 5543 9a3f bbdd 33bf
00000070: 1b5d 0f3f 933a 723f efd1 a23e 80f8 edbd
00000080: f85a 0b3f 9c6d bdbe 211a 033f 040e 20bf
00000090: c565 0dbf 8ffc 0dbf 2924 af3d 0c76 0cbf
000000a0: 8d86 e3bf 1216 d93e 34fc 89bf aa1c 87bf
000000b0: 1afa 6b3f 843f ad3f cc80 ce3f 1c35 f4bd
000000c0: d1f2 a5bf 4f75 c3bf aa6d 55bc 4a6c dabf
000000d0: 820d 57be 9840 403f b877 323f 1c25 3cbe
000000e0: cb12 943e 9c6b a7bf 431d 88be 8866 d73e
000000f0: 4897 a2be 31fe f43e 898f a43f 87b8 30c0
00000100: 880f 68be 5c18 1c40 b81a 3fbf 4001 bfbe
00000110: 73f7 cd3c f9b8 fabf 0e9a 57bf 6683 89bf
00000120: 7d2f 9f3f 0d3b 91bf 8e92 dcbe 84c6 94c0
00000130: b92c bdbf acf7 48c0 a0b6 8abe 184a 5cbd
00000140: 4598 7a3d ff69 78bf 218b 21c0 2287 67c0
00000150: abb8 cabf d115 0dbf 06ad 83bf be38 963f
00000160: 2c0c bd3e 177a b7be 97e2 e83e 67e1 0f3f
00000170: 5441 d33f 42f7 66be b4a0 533f 9019 1cbf
00000180: e7f3 34c0 7983 8a3f eff9 83be 8996 773f
00000190: d356 7dbf 6015 7f3f ab97 a53f 6c60 0e3f
000001a0: 9cd7 fdbd fa25 eb3e cb99 c1bd fda8 a0bf
000001b0: e6a3 143f 13de 923f 4a37 903f f278 3f3f
000001c0: 969f 25be 2d40 aebd abe7 0cc0 2d25 e7bf
000001d0: 77dd 8ebf 7a43 65c0 1fed 09c0 54d6 e4bf
000001e0: 9b3d 45bd 162f 143f c0d9 6cbf 1079 a13f
000001f0: ca31 2b3f 8146 923f b3e9 653f 7c8f 823c
00000200: 1402 44be ab23 91bf b3f4 2fc0 646c b9be
00000210: 0761 503f cbb6 2d3f 04a8 fb3e e7f7 48c0
00000220: cf53 063f 86e7 04c0 9a48 da3f 096f 04be
00000230: 7127 803d 885e a2bf feae 2f3c 5204 ffbf
00000240: 3de5 66c0 fd58 11c0 6aea a3bf b349 6cbf
00000250: 8010 dbbe 9f83 a83e 80cc 87be 2c4d 183f
00000260: a392 a3bd b326 b5bf 1aa4 0740 6559 e6be
00000270: cd76 74be 74ea 343f 249c 383f 9c4f e2bf
00000280: 0e89 aa3f 6acf 9abf 9631 21bf cfdf 52bf
00000290: 1adf a1be 4383 b1bf 7956 f9bf fd57 12c0
000002a0: f259 d8bf 439f 083d 8f1d 0ec0 9150 ddbf
000002b0: edd3 e3be 07e5 6e3f 9284 2abf 8d60 59be
000002c0: 8ce2 613f 2ab4 acbf 3d85 a0be c2da 0e3e
000002d0: 9d9f 0e40 9e7f 043f 4511 783e 8e20 763f
000002e0: ccc0 c6bf 9d06 49bf c8b4 0840 6952 fcbd
000002f0: 2b4b c4bf d316 533f 6cb1 50bf 7d1e b9bf
00000300: 68d3 d8be 1bc3 f7bd 9461 053f 9e64 b8bf
00000310: c4a9 df3e 73da 43bf 843b d93f 1f47 023f
00000320: a028 9ebf 7546 0240 a20e 96be ee9e 223e
00000330: c852 ccbf 7067 5d3d de28 c73d 67a6 f43e
00000340: 9363 963e 74cf 8ebf be9a 0d3f 08ea 783e
00000350: 919e 62be 6645 5abf 43ac 933e fe2f 8b3f
00000360: 31bc 0abf 8adc 723e 4e3a 5cbf b36a 0cbd
00000370: d8f2 44bf 7968 dc3e 4721 833f 8107 1fbf
00000380: 90d0 ecbd 0c68 3a40 f5ee 88bc 1efd 0740
00000390: 3542 39bf 85cb 403f e9aa e13e b84e 23be
000003a0: 0dfd f43f 4b3c 61bf 38f9 5e3f 1e32 4abf
000003b0: 2a5a 303f e8f6 e7bf ac5d b43e f7ce 28bf
000003c0: 7932 ba3e 8cea 5c3f c371 17bf c04c 4b3f
000003d0: a1db 1f40 31db 20bf 49dc 083f 14a6 483f
000003e0: 7f0e b4be 22d4 c4bf 90e4 e13f d548 5dbd
000003f0: e09e 0c40 34d6 0440 75e3 1d40 e96e 24bf

bias f4 [64]
-2.0430553 -0.94786865 -1.6237239 -0.7650101 0.45023158 -0.59531236 0.5411146 -0.5747448
-0.50457007 -0.9135338 0.5405664 -0.3661062 1.338467 0.10999311 0.49113297 0.24529034
0.08555174 1.6742553 0.42840672 -0.9069083 -0.21729645 1.0827248 -0.61750656 0.36835408
0.8353081 -0.22169438 -0.5634477 0.39718905 -0.14629976 0.66056955 -0.43165144 1.1193855
0.12751481 -0.6267301 0.48833182 -0.2535537 0.33640724 -0.91935056 -0.5195137 -1.7101831
-0.3813297 0.20988174 0.035253648 0.19360739 0.4013009 -1.2957189 0.37281334 -0.6035266
-0.32455316 -0.28371865 -0.4135528 0.41328347 1.2120843 -0.35240734 0.9004146 -0.8024051
0.20197643 -0.6408085 -0.14690831 1.1173913 -0.724864 0.06339662 -0.22278427 1.1298838
00000000: 6bc1 02c0 85a7 72bf 2fd6 cfbf b4d7 43bf
00000010: c184 e63e 6466 18bf 7d86 0a3f 7a22 13bf
00000020: 812b 01bf 5add 69bf 8f62 0a3f 4672 bbbe
00000030: e352 ab3f 1144 e13d c875 fb3e 642d 7b3e
00000040: c035 af3d ff4d d63f 2058 db3e 242b 68bf
00000050: f682 5ebe ba96 8a3f e914 1ebf e898 bc3e
00000060: c0d6 553f da03 63be 1c3e 10bf 5d5c cb3e
00000070: 9bcf 15be 161b 293f 6b01 ddbe 0648 8f3f
00000080: 3e93 023e 6271 20bf a106 fa3e cad1 81be
00000090: 923d ac3e 8f5a 6bbf dafe 04bf 48e7 dabf
000000a0: a53d c3be 3deb 563e 2166 103d 0441 463e
000000b0: 5077 cd3e 1eda a5bf 64e1 be3e b880 1abf
000000c0: d52b a6be 9243 91be 31bd d3be e499 d33e
000000d0: 9425 9b3f bc6e b4be 9281 663f 6c6a 4dbf
000000e0: e9d2 4e3e 070c 24bf 226f 16be ae06 8f3f
000000f0: b090 39bf 16d6 813d 8f21 64be 08a0 903f

weight f4 [64]
2.2585535 2.4021177 1.571222 2.1587193 0.9247893 1.8400441 1.4636707 0.84844196
1.5376923 1.5359817 1.6319407 1.8776356 1.8207313 1.2870401 1.6471838 2.0521035
1.7533759 1.7207493 1.9163772 1.5341005 1.8045543 1.1610414 0.67137337 1.3673441
1.406496 1.428957 2.0005722 1.5630101 1.0754929 1.5815254 1.4269971 1.4336932
1.5624194 1.5632298 1.0875489 0.7722719 1.2579128 1.5124689 2.2600636 1.2105416
0.91807187 1.5482475 0.7003754 1.6117083 1.4273337 1.5942862 0.98899275 2.1644049
1.5701705 1.5187953 1.1739045 2.145708 1.7888808 1.4667913 1.2486992 1.2274568
1.703135 1.5094756 1.5225555 2.090068 1.8574756 1.3085991 1.6715333 1.735106
00000000: 248c 1040 4cbc 1940 cd1d c93f 7528 0a40
00000010: febe 6c3f 9186 eb3f 9059 bb3f 7e33 593f
00000020: 1ad3 c43f 0c9b c43f 6fe3 d03f 5d56 f03f
00000030: b90d e93f bbbd a43f ebd6 d23f aa55 0340
00000040: 9f6e e03f 8341 dc3f d94b f53f 685d c43f
00000050: a3fb e63f 019d 943f 20df 2b3f 2205 af3f
00000060: 1008 b43f 10e8 b63f 6009 0040 b710 c83f
00000070: c0a9 893f 6d6f ca3f d7a7 b63f 4283 b73f
00000080: 5cfd c73f ea17 c83f cd34 8b3f 9cb3 453f
00000090: 4903 a13f 9598 c13f e2a4 1040 07f3 9a3f
000000a0: c206 6b3f f92c c63f cd4b 333f 754c ce3f
000000b0: dfb2 b63f 9211 cc3f a12e 7d3f 9c85 0a40
000000c0: 59fb c83f e267 c23f 8142 963f 4853 0940
000000d0: 0cfa e43f d1bf bb3f 60d5 9f3f 4e1d 9d3f
000000e0: 5400 da3f 7f36 c13f 19e3 c23f adc3 0540
000000f0: c3c1 ed3f 2d80 a73f cef4 d53f f417 de3f

bias f4 [64]
-0.71192545 -1.6400313 -1.1130875 -0.2526551 -1.8954607 -1.1218518 0.14784761 0.2057182
-0.6448404 -0.8157591 -0.3910828 0.28335112 -0.10359689 -1.0653477 -1.3638155 -1.019544
-0.15156768 -0.54996264 -1.0150124 -1.3235798 -0.4010925 -0.2487474 -1.16591 -1.237632
0.38146186 -0.29209808 -0.6273703 -0.9015132 -0.5971649 0.118175656 -0.6388645 -1.8839717
-1.333287 -0.0040272838 -1.208368 -1.6424572 -1.4415699 -0.9808203 -0.004346316 -1.7755846
-0.41787666 0.14842683 0.34324494 -0.8540385 -1.1107333 0.50487155 -0.745281 -0.15024537
-1.8738924 -0.0934814 -2.0337014 -0.52813536 0.03824214 -0.41790998 -0.76827514 -1.1527178
-1.3385285 -0.4544305 -0.09797713 -0.35225543 -0.27460134 0.4915028 -0.46355614 -0.8138789
00000000: bf40 36bf 8cec d1bf a779 8ebf 025c 81be
00000010: 759e f2bf d798 8fbf 5d65 173e cba7 523e
00000020: 4314 25bf 97d5 50bf 013c c8be 6613 913e
00000030: 9b2a d4bd 505d 88bf 8291 aebf 6b80 82bf
00000040: 8f34 1bbe 5aca 0cbf edeb 81bf 106b a9bf
00000050: ff5b cdbe a3b7 7ebe 8a3c 95bf ba6a 9ebf
00000060: f84e c33e e18d 95be 579b 20bf 92c9 66bf
00000070: cddf 18bf 1406 f23d a08c 23bf fc25 f1bf
00000080: 26a9 aabf 4ef7 83bb cdab 9abf 0a3c d2bf
00000090: 5d85 b8bf 0a17 7bbf 8b6b 8ebb 5b46 e3bf
000000a0: eef3 d5be 34fd 173e cdbd af3e 44a2 5abf
000000b0: 822c 8ebf 433f 013f bcca 3ebf ecd9 19be
000000c0: b5db efbf 2d73 bfbd 2a28 02c0 e133 07bf
000000d0: caa3 1c3d 4cf8 d5be aead 44bf 428c 93bf
000000e0: e754 abbf 1dab e8be 3ca8 c8bd d35a b4be
000000f0: 8c98 8cbe 41a6 fb3e 3b57 edbe 5e5a 50bf

running_mean f4 [64]
-15.990718 -33.176495 8.848636 -11.347074 3.9478083 -6.862047 -2.1095088 5.351131
-4.288068 -18.432133 0.13927233 -22.420025 -0.27894694 -10.498023 5.530596 10.695296
-18.825266 0.7321403 0.60391396 0.42687947 -3.0766435 -0.1989872 -3.8699903 1.5372941
2.326862 3.7750614 -13.998532 -6.030934 -11.474132 3.8069878 -8.42706 -10.155721
11.458899 0.52704275 -13.871375 16.583195 -3.3927066 2.9549432 -17.531277 8.071203
-14.731386 -2.3735654 -7.7572136 -12.429402 4.763781 -14.752701 2.448626 -7.898957
-4.51112 -4.0000916 -10.816071 -21.045338 -24.31049 -1.6146942 -3.7436519 -14.896097
-20.818005 2.5115898 -30.444712 7.9531612 -20.448156 -3.03479 -10.385811 6.6299253
00000000: fbd9 7fc1 bbb4 04c2 0394 0d41 9d8d 35c1
00000010: e4a8 7c40 e495 dbc0 3102 07c0 773c ab40
00000020: da37 89c0 0275 93c1 689d 0e3e 365c b3c1
00000030: 22d2 8ebe e7f7 27c1 a4fa b040 ef1f 2b41
00000040: 259a 96c1 8c6d 3b3f 1b9a 1a3f f28f da3e
00000050: bae7 44c0 4dc3 4bbe ecad 77c0 0ec6 c43f
00000060: 4feb 1440 9b9a 7140 fdf9 5fc1 69fd c0c0
00000070: 0b96 37c1 b0a5 7340 3dd5 06c1 d57d 22c1
00000080: a657 3741 46ec 063f 27f1 5dc1 62aa 8441
00000090: 1b22 59c0 ca1d 3d40 0e40 8cc1 a623 0141
000000a0: c2b3 6bc1 7fe8 17c0 183b f8c0 d5de 46c1
000000b0: e570 9840 100b 6cc1 4ab6 1c40 41c4 fcc0
000000c0: 185b 90c0 c000 80c0 a00e 2dc1 da5c a8c1
000000d0: e27b c2c1 4dae cebf fe97 6fc0 6a56 6ec1
000000e0: 468b a6c1 e3bd 2040 c58e f3c1 4c80 fe40
000000f0: d395 a3c1 003a 42c0 482c 26c1 5928 d440

running_var f4 [64]
393.967 199.67012 295.7468 236.9671 135.36859 253.20302 364.45496 248.36314
220.09785 162.27428 288.87296 410.35645 204.8215 246.72527 171.14438 364.79877
270.7859 223.34247 293.33893 200.26878 333.01675 188.16954 191.48508 222.23016
168.80244 176.39372 268.91592 265.0428 376.8509 266.65472 315.50684 267.90433
254.45372 200.9161 257.0809 160.87794 193.81256 309.78516 520.5013 229.12569
167.04097 297.1686 295.8823 290.72406 227.30223 474.22195 281.7881 278.24338
169.83545 206.91808 204.3088 338.4716 476.17267 330.18286 290.66647 301.18576
199.3871 288.1065 239.57727 329.42227 239.4881 271.47552 295.5587 244.72144
00000000: c7fb c443 8dab 4743 97df 9343 94f7 6c43
00000010: 5c5e 0743 f933 7d43 3c3a b643 f75c 7843
00000020: 0d19 5c43 3746 2243 bd6f 9043 a02d cd43
00000030: 4ed2 4c43 abb9 7643 f624 2b43 3e66 b643
00000040: 9864 8743 ac57 5f43 62ab 9243 cf44 4843
00000050: 2582 a643 672b 3c43 2e7c 3f43 ec3a 5e43
00000060: 6dcd 2843 cb64 3043 3d75 8643 7a85 8443
00000070: ea6c bc43 ce53 8543 e0c0 9d43 c1f3 8543
00000080: 2774 7e43 86ea 4843 5b8a 8043 c1e0 2043
00000090: 04d0 4143 80e4 9a43 1520 0244 2d20 6543
000000a0: 7d0a 2743 9595 9443 eff0 9343 ae5c 9143
000000b0: 5f4d 6343 691c ed43 e0e4 8c43 271f 8b43
000000c0: e0d5 2943 07eb 4e43 0e4f 4c43 5d3c a943
000000d0: 1a16 ee43 6817 a543 4f55 9143 c797 9643
000000e0: 1963 4743 a20d 9043 c893 6f43 0db6 a443
000000f0: f47c 6f43 debc 8743 83c7 9343 b0b8 7443
