unet/checkpoints/one_loss/epoch_78.pth (torch, 508787 bytes, 85 tensors)

weight f4 [8, 1, 3]
0	0x3f5ebbc1	0.8700524
1	0xbe4f3537	-0.20235144
2	0x405b5305	3.426942
3	0x3f1a9530	0.6038389
4	0xc0764915	-3.8482106
5	0xbf2f22b5	-0.68412334
6	0xbfa9a9ad	-1.3254906
7	0x3fefe40b	1.8741468
8	0x3f60fda1	0.87887007
9	0xc088c5a9	-4.2741284
10	0xbeb75d37	-0.35813305
11	0x3f5bf7ae	0.85924804
12	0x3f80ee3d	1.0072705
13	0xc034b5a8	-2.8235874
14	0xbeea1f4f	-0.45727012
15	0x3f4e119b	0.80495614
16	0x4089d9f9	4.307858
17	0xbe4cd848	-0.2000438
18	0xbfc749a2	-1.5569346
19	0x3f5c3db6	0.86031663
20	0xc007f96f	-2.1245992
21	0x40512949	3.2681448
22	0xbd4dd709	-0.0502539
23	0xbf834b28	-1.0257311

bias f4 [8]
0	0x3e231559	0.15926112
1	0x3c3a0d9c	0.011355784
2	0x3da88bc9	0.08229787
3	0x3ed53171	0.41639283
4	0xbe1c3840	-0.15255833
5	0x3e16b509	0.14717497
6	0xbea593c0	-0.32339287
7	0x3e0f3062	0.139833

weight f4 [8]
0	0x3faa046b	1.3282598
1	0x3ff08d5e	1.8793142
2	0x4003ffd9	2.0624907
3	0x40090ecb	2.141528
4	0x3f03afc1	0.51440054
5	0x40471ac0	3.1110077
6	0x3f8129e4	1.0090909
7	0x40183397	2.3781488

bias f4 [8]
0	0xbff3adc8	-1.9037409
1	0x3eae1022	0.33996683
2	0x3fcafb15	1.5857874
3	0x40005a92	2.005528
4	0x40386ef0	2.881771
5	0xbe185045	-0.1487437
6	0xbf018ac3	-0.5060236
7	0xbd03dec9	-0.032194886

running_mean f4 [8]
0	0x3e89bb88	0.26900887
1	0xbcedac21	-0.029012742
2	0x3e1d6f7e	0.15374562
3	0x3f0eb246	0.55740774
4	0xbe469f4e	-0.19396707
5	0x3df8d625	0.1215022
6	0xbebbc2c5	-0.36672035
7	0x3ca7faa0	0.02050525

running_var f4 [8]
0	0x49718c97	989385.44
1	0x496ccb01	969904.06
2	0x4821194d	164965.2
3	0x49675d84	947672.25
4	0x48b02fac	360829.38
5	0x49b36b9f	1.4698119e+06
6	0x48ec16d9	483510.78
7	0x48c1249f	395556.97

weight f4 [16, 8, 3]
0	0x3e8c07b5	0.2734963
1	0xbfce8848	-1.613534
2	0xc06de282	-3.71695
3	0x3faa30d9	1.3296157
4	0x3fa13383	1.2593845
5	0xbfb5c04b	-1.4199308
6	0xbfa6d50e	-1.3033769
7	0x3f69e968	0.91371775
8	0x3f81e437	1.0147771
9	0x3fc8c4e2	1.5685084
10	0x40617130	3.5225334
11	0x3f6ed737	0.9329714
12	0x4028246e	2.6272235
13	0x3fa2b8b8	1.2712622
14	0xbfdf1125	-1.7427107
15	0xc02f1d2f	-2.7361562
16	0xbfce809d	-1.6133
17	0xbe2690a2	-0.1626611
18	0x3f22a87e	0.6353835
19	0xbfcc6806	-1.5969245
20	0x3f905d46	1.1278465
21	0x3f1e9613	0.61947745
22	0xbf2c890d	-0.6739662
23	0xbf23b2de	-0.63944805
24	0x3f38e40d	0.7222298
25	0x3ff288a2	1.8947947
26	0x3df77547	0.12082916
27	0x3eafb6b1	0.3431907
28	0x3fa258d5	1.2683359
29	0xbf3804e3	-0.71882457
30	0x3fabcd6e	1.3422067
31	0x3f5808d6	0.8438848
32	0x3f023276	0.5085825
33	0xc006a244	-2.103654
34	0x3e004357	0.12525688
35	0x3f72c40d	0.948304
36	0xbe97f041	-0.29675487
37	0x3f6ede6f	0.93308157
38	0xbfb9f6a5	-1.4528395
39	0x407b6484	3.92801
40	0x400306b9	2.0472853
41	0x400639ae	2.0972705
42	0xbd76020c	-0.060060546
43	0xbf21a294	-0.631387
44	0x3fb94c85	1.4476477
45	0xbf2a6c3f	-0.6657142
46	0x40049381	2.071503
47	0x3f216099	0.6303802
48	0xbfa786f0	-1.3088055
49	0x3f44cde2	0.7687665
50	0xc001bcbe	-2.027145
51	0x3e24b2a1	0.16083767
52	0x3f460572	0.7735206
53	0xbc171c19	-0.009223008
54	0xbf963b86	-1.1736915
55	0xbfcd833d	-1.6055676
56	0x3f546af8	0.8297572
57	0xc072b7a6	-3.792459
58	0x3ee7fa4f	0.45308158
59	0x3f447c36	0.7675203
60	0x3f606d00	0.8766632
61	0x3f80637e	1.0030363
62	0xbf426e38	-0.7594943
63	0x3f0d7975	0.55263454
64	0xbfc04930	-1.5022335
65	0x3c4c2065	0.012458895
66	0xbfcea53a	-1.6144173
67	0x3f56cf35	0.8390992
68	0x3fd9ce6c	1.701612
69	0x3fd28a75	1.6448504
70	0xbed6449b	-0.41849217
71	0xc013870c	-2.3051176
72	0x40786524	3.8811731
73	0x3f980751	1.1877233
74	0xbf164001	-0.5869141
75	0x401d9052	2.4619336
76	0x404bd15d	3.1846535
77	0x3f1b83f4	0.6074822
78	0xbed02bac	-0.4065832
79	0x3e2a9752	0.16659287
80	0xbfc52465	-1.5401732
81	0x3f4471c8	0.76736116
82	0x4036f3de	2.8586345
83	0x3f04c257	0.5185904
84	0x3fa67c17	1.3006619
85	0x3ff100ee	1.8828409
86	0x3e3c2a2c	0.18375462
87	0xbf842454	-1.0323586
88	0x3f397ce2	0.7245618
89	0xc015c474	-2.3401155
90	0x3e1cfff2	0.1533201
91	0x3fdf9158	1.746623
92	0xbeed43dc	-0.46340835
93	0xbeac167e	-0.3361091
94	0xbf9a6201	-1.2061158
95	0x3fd579e6	1.6677825
96	0x4005e363	2.0920036
97	0xbfef84d1	-1.8712407
98	0xc00f1742	-2.2357945
99	0xbfadf3f6	-1.3590076
100	0xc01758b3	-2.3647888
101	0xbf32d28c	-0.6985252
102	0xbf0a8186	-0.5410389
103	0xbfb37b89	-1.4022075
104	0xc010b7c1	-2.2612154
105	0xbf94ee05	-1.1635138
106	0xbf796967	-0.97426456
107	0xbdcd0d2b	-0.10012277
108	0x3f1b4d1b	0.6066453
109	0xbef41de5	-0.47679058
110	0x3eaca479	0.33719233
111	0x3fd4a6f2	1.6613448
112	0x3e0d398e	0.13791487
113	0xbf987f97	-1.1913937
114	0x3eb981af	0.36231753
115	0xc011d551	-2.2786448
116	0xbf330928	-0.69935846
117	0x401d5032	2.4580197
118	0x3fb744e5	1.43179
119	0x3ea7b1ec	0.3275293
120	0x4012a1e7	2.2911317
121	0xbecfbb8f	-0.40572783
122	0xc006772a	-2.1010232
123	0x40188664	2.3832026
124	0x3fee5bfb	1.862182
125	0x4039afcf	2.9013555
126	0xbe9fa7a6	-0.31182593
127	0xbf38d2fb	-0.7219693
128	0xbfd5dafa	-1.6707451
129	0x3f553ab4	0.832927
130	0x4000c26c	2.0118666
131	0x3f8b4f47	1.0883569
132	0x3fc7ab98	1.5599241
133	0x3fb85b4a	1.4402859
134	0x3ff76ac8	1.9329462
135	0xbebcb9c8	-0.3686049
136	0x3a8402f0	0.0010071676
137	0xbfbba0f5	-1.4658495
138	0x3f01cf13	0.50706595
139	0x3f941239	1.1568061
140	0xbdd114ca	-0.10209043
141	0x3f99ff38	1.2031012
142	0x3f82f01f	1.0229529
143	0x3f8c70e3	1.097195
144	0x3f8a4311	1.0801717
145	0xbea693b3	-0.3253456
146	0x3f61589b	0.88025826
147	0xc063f415	-3.5617726
148	0x3fa3211e	1.2744482
149	0x3d5c4c3f	0.05378365
150	0xc01ca7bc	-2.4477377
151	0xbf38086a	-0.7188784
152	0x3d7f1dd6	0.062284313
153	0xbfa44604	-1.2833867
154	0xc01e8838	-2.4770641
155	0x3f164e25	0.5871299
156	0xc01d4dba	-2.457869
157	0x3f8289d5	1.0198313
158	0x3eb93a03	0.36177072
159	0x3e132644	0.14370066
160	0xbf06a4ed	-0.52595407
161	0xbdd1618c	-0.10223684
162	0x3f67e96e	0.9059056
163	0x3ffe29fe	1.9856565
164	0xbfda56fc	-1.7057796
165	0x3f83ceff	1.0297545
166	0xbfded209	-1.7407848
167	0xbfe6b920	-1.8025246
168	0x3fb138d6	1.384547
169	0x3f8dbb77	1.1072835
170	0x3e27e93f	0.1639757
171	0x3e45ab62	0.19303659
172	0xc02c0801	-2.6879885
173	0x3ebbfbc0	0.36715508
174	0xbf376d1e	-0.71650875
175	0x3fd068ba	1.628196
176	0xc043a80d	-3.057132
177	0xbf439990	-0.7640619
178	0x3f8d9efe	1.1064146
179	0xbf5618b2	-0.8363143
180	0x3ecc4227	0.3989422
181	0xc0140b8d	-2.313205
182	0xbe894ead	-0.26817837
183	0x400515ad	2.079448
184	0x3f9f7dc6	1.2460258
185	0xbf66b075	-0.90113
186	0xc02e3f33	-2.7226074
187	0x3f8fb8d8	1.1228285
188	0x3ead782b	0.33880743
189	0x3e0b9beb	0.13633697
190	0x3fdb56ac	1.7135825
191	0xbdd43e02	-0.103633896
192	0x3facfb33	1.351416
193	0xc00bea4b	-2.186175
194	0x3fcfcd7b	1.6234583
195	0xbef27d9a	-0.4736145
196	0x3f2e5be9	0.68108994
197	0x3efbc126	0.49170798
198	0xbf509394	-0.81475186
199	0xc06d5f2e	-3.7089343
200	0x3cb4acad	0.022054994
201	0xc02cc1a0	-2.699318
202	0xbea78fa5	-0.3272678
203	0x3ea73949	0.32660893
204	0xbefa432a	-0.48879367
205	0x3f692278	0.9106822
206	0x401bfd91	2.4373515
207	0xbd3306d1	-0.043707673
208	0xbf48ff34	-0.7851441
209	0xc080734f	-4.0140758
210	0xbf88b8a1	-1.0681344
211	0xbfb40894	-1.4065118
212	0x3f5aadc4	0.85421395
213	0x3fb26888	1.393815
214	0xbd270a9c	-0.040781602
215	0x3e5369e4	0.20645863
216	0xc0434aa5	-3.051431
217	0xbf703c07	-0.93841594
218	0xbede9b5c	-0.43477905
219	0x3e667a86	0.22507676
220	0xbecd42bc	-0.40089977
221	0x403abbac	2.9177046
222	0xbef34ff9	-0.47521952
223	0xbf440a99	-0.7657867
224	0xc001e26e	-2.0294452
225	0xc01419a1	-2.3140643
226	0x3f05fbd9	0.52337414
227	0xbf47beee	-0.7802571
228	0x3f038ca8	0.513865
229	0x3f2852d8	0.6575141
230	0x4062a9f7	3.5416238
231	0x3dbf9950	0.09355414
232	0xbffbc565	-1.9669615
233	0xc0317dc1	-2.7733004
234	0xbfe7e4e8	-1.8116732
235	0x3fc1a0b3	1.5127167
236	0xbdfbce17	-0.12295168
237	0x3fb6adca	1.4271786
238	0x3e96ce44	0.29454243
239	0xbeb7650f	-0.3581929
240	0x3db24864	0.08705214
241	0x3f14e9df	0.5816936
242	0xbdd68f57	-0.10476559
243	0x3ff20558	1.8907881
244	0x4010f99a	2.2652345
245	0x40103504	2.2532358
246	0xbec48266	-0.38380736
247	0xbf3379e5	-0.7010787
248	0xbeba4c93	-0.36386546
249	0x3f1b989d	0.60779744
250	0x3fd5328c	1.6656051
251	0x3fe59511	1.7936116
252	0x3fb527f6	1.415282
253	0x3fc015a7	1.5006608
254	0x3fdddbba	1.733268
255	0x3dea9f60	0.114561796

bias f4 [16]
0	0xbf317619	-0.6932083
1	0x3f83febf	1.0312117
2	0x3e922c93	0.28549632
3	0xbda2220e	-0.07916652
4	0x3fcf27eb	1.6184057
5	0x3f9156e8	1.1354647
6	0x3f8094ed	1.0045449
7	0xbe7e0aaa	-0.24808756
8	0x3f7d7a0c	0.99014354
9	0xbead3316	-0.33828038
10	0x3df5b7c6	0.119979426
11	0xbf28a199	-0.6587158
12	0x3f17ba46	0.59268606
13	0x3fc9f199	1.5776855
14	0x40105a29	2.255503
15	0x3fbbcbc5	1.467156

weight f4 [16]
0	0x3fb622b7	1.4229344
1	0x3ff2268b	1.8918012
2	0x3fa09af3	1.2547287
3	0x3fdcada0	1.7240486
4	0x3fe71087	1.8051919
5	0x3f9905a0	1.1954842
6	0x3f31e604	0.694916
7	0x3f5251fd	0.82156354
8	0x3fa29dfe	1.2704465
9	0x3f97f184	1.187058
10	0x3f8af0e3	1.0854763
11	0x3fe4dce4	1.787991
12	0x3ffd5691	1.9792043
13	0x4009f56e	2.1556048
14	0x3fc9b264	1.5757565
15	0x3fd33f52	1.6503699

bias f4 [16]
0	0x3fb762ed	1.4327065
1	0xbfb0c4b2	-1.3810027
2	0x3ec25073	0.37952003
3	0x3eb40f78	0.35168052
4	0x3f194f2c	0.5988643
5	0x3e03365e	0.12813708
6	0x3ed07fea	0.4072259
7	0x4027bb99	2.620825
8	0x4067b231	3.620251
9	0x3f9d8dd6	1.230891
10	0xbe5e5531	-0.21712185
11	0xbe87a810	-0.2649541
12	0xbe9c89da	-0.30573922
13	0x3f4c8f5c	0.7990625
14	0x3f178819	0.59192044
15	0x3f6ae29a	0.91752017

running_mean f4 [16]
0	0x4176dbe9	15.428689
1	0x4146792b	12.404582
2	0xc0d412d6	-6.6272993
3	0x4197db71	18.98215
4	0xc11cc1ff	-9.797362
5	0x41d4f3aa	26.618977
6	0xc195bc9a	-18.71709
7	0xc1119ffc	-9.101559
8	0xc105736e	-8.340681
9	0xbdc8e21b	-0.09808751
10	0x41bffe58	23.999191
11	0x418738da	16.90276
12	0xc000d83d	-2.0131981
13	0x4051ad5f	3.2762067
14	0xc0964709	-4.6961713
15	0x40eb7552	7.3580713

running_var f4 [16]
0	0x43d62e6c	428.36267
1	0x43ea801e	469.00092
2	0x42b852b9	92.16157
3	0x43caa413	405.28183
4	0x43029dd8	130.61658
5	0x43bdb413	379.40683
6	0x427b5063	62.828503
7	0x42c36323	97.69363
8	0x4336b01e	182.68796
9	0x434b09d5	203.0384
10	0x43cd0029	410.00125
11	0x433d648b	189.39275
12	0x442399aa	654.401
13	0x434a9b94	202.60773
14	0x42958eb9	74.778755
15	0x443703fe	732.0624

weight f4 [16, 16, 3]
0	0xc03d113e	-2.9541774
1	0x3f0c871b	0.54893655
2	0xbda020fa	-0.0781879
3	0x3feead75	1.8646685
4	0x3f95d41d	1.1705357
5	0xbf8f3b14	-1.1189904
6	0xc01fe1e3	-2.498162
7	0xbfd2c8c3	-1.6467518
8	0xbf4c2861	-0.79749113
9	0xbc7b4dd4	-0.01533838
10	0x3e9b57fc	0.30340564
11	0x3e3768e9	0.17911114
12	0xbe43199a	-0.19052735
13	0x3f5683c4	0.8379481
14	0x3fdff7f9	1.749755
15	0x3dc8586a	0.09782489
16	0xbf9a4d99	-1.2054931
17	0xbea785e0	-0.32719326
18	0xbf5cd2e0	-0.8625927
19	0x3ddbba42	0.10728885
20	0x3f89d280	1.0767365
21	0x3ea194c4	0.31558812
22	0x3f59dcb2	0.8510238
23	0xbf784755	-0.96983844
24	0xbf7166b5	-0.94297343
25	0x3efc3118	0.49256206
26	0x4053f979	3.3121016
27	0xbe547e4a	-0.207513
28	0xbd8779f9	-0.06615061
29	0x3f392edd	0.7233713
30	0x3e1ca95f	0.15298985
31	0xbf2ea0f8	-0.6821437
32	0xbf1884a5	-0.595774
33	0xbf0c10a4	-0.5471289
34	0xbf36e173	-0.7143776
35	0xc0255b9e	-2.5837169
36	0x400f251b	2.2366397
37	0x3fdd97cd	1.7311951
38	0xbf0d77cc	-0.5526092
39	0xbf475770	-0.77867794
40	0xbfbdc239	-1.4824897
41	0xc04eb46f	-3.2297628
42	0xbfd5ac77	-1.6693257
43	0x3e6c07e0	0.23049879
44	0xbf8eec0d	-1.1165787
45	0x3e252f4e	0.16131327
46	0x3fa15ddf	1.2606772
47	0x3f7868f4	0.97035146
48	0xc03341d7	-2.8008935
49	0x3e871e03	0.26390085
50	0x3f5a2a40	0.8522072
51	0xbfd33310	-1.6499958
52	0xbf4964e6	-0.78669584
53	0x3f44ea5f	0.7692012
54	0xbfa1e488	-1.2647867
55	0x3f3f325d	0.74686223
56	0xbe17c7d1	-0.14822318
57	0xbedf9933	-0.4367157
58	0x3f33b8e8	0.7020402
59	0x3f87ae2c	1.0600028
60	0x406d4ea1	3.7079241
61	0x3e530321	0.20606662
62	0xbed8c294	-0.4233595
63	0xbc109c44	-0.008826319
64	0x3eeaa07e	0.4582557
65	0x3ee8b551	0.45450833
66	0xbe9c2b58	-0.3050182
67	0x3f1d2648	0.6138654
68	0x3d0e8548	0.034795076
69	0xbf2ae7f1	-0.66760164
70	0xbfb83ef5	-1.4394213
71	0xc00bcab1	-2.1842463
72	0xbf489394	-0.78350186
73	0x3f75dd0e	0.9604043
74	0xbfd51559	-1.664714
75	0xbf522a79	-0.8209606
76	0x3f2b77cb	0.66979665
77	0xc02d1baf	-2.7048147
78	0x3d78b563	0.06071986
79	0x3f2354c4	0.6380122
80	0x3f1cf5e4	0.613127
81	0xbfb90753	-1.445536
82	0x3fb10c27	1.3831834
83	0xbf8fe2fb	-1.1241144
84	0x3fa7f7cb	1.3122495
85	0xbdbbebde	-0.091758475
86	0x3d31c25c	0.043398246
87	0xc09ab5bc	-4.8346844
88	0xbf3ee8eb	-0.74574155
89	0xbf433e34	-0.7626679
90	0xc078d800	-3.8881836
91	0xbee7ac72	-0.45248753
92	0xc01f2fe5	-2.4872983
93	0xbf20a7ae	-0.6275586
94	0x3fd60471	1.6720105
95	0x3ea55bf0	0.32296705
96	0xbfe50629	-1.7892505
97	0xc0340a28	-2.81312
98	0xbf801139	-1.0005256
99	0x407d42ce	3.9572024
100	0x3f12f814	0.5740979
101	0xbfde0839	-1.7346259
102	0xbfc54209	-1.5410777
103	0x3f2e8f0e	0.68187034
104	0xbf88f55a	-1.0699875
105	0xbf93d6be	-1.1549909
106	0xbfdc75e3	-1.7223476
107	0xbfa46586	-1.2843482
108	0x3f153967	0.58290714
109	0x3d1d9533	0.038472366
110	0x3faea5f9	1.3644401
111	0x3deca882	0.11555578
112	0xbfc0188e	-1.5007493
113	0xbece863c	-0.40336788
114	0xc024cfb3	-2.575177
115	0x40003e8a	2.003817
116	0x3e1b76f1	0.15182091
117	0x3f155204	0.5832827
118	0x3f10a8c3	0.5650751
119	0x3ec3494d	0.38141862
120	0xc00a42d5	-2.160329
121	0x3f46e981	0.7770005
122	0x3f8d6bc1	1.1048509
123	0xc0395268	-2.8956547
124	0xc0054e7a	-2.0829148
125	0x3ec66664	0.38749993
126	0x3e86710c	0.26258123
127	0xbf9099fa	-1.129699
128	0x3e048118	0.1293987
129	0xbfc29f5f	-1.5204886
130	0x3f3959f9	0.7240291
131	0xc00c543a	-2.1926408
132	0x403bf4bd	2.9368126
133	0x3fc5a07b	1.54396
134	0xbf8ec511	-1.115389
135	0x3eeb7ea1	0.45995048
136	0x3bf90531	0.007599496
137	0xbf1a70c9	-0.60328346
138	0x3d3a68a0	0.045509934
139	0x3e055c5e	0.13023517
140	0xbf3906b7	-0.7227587
141	0xbfac6ec9	-1.3471309
142	0xbff15ea1	-1.8857003
143	0xbfba3c0f	-1.4549578
144	0xbe8a04ea	-0.26956874
145	0xbf01e8f3	-0.5074608
146	0x3f3a03a0	0.7266178
147	0xc0011d4c	-2.0174131
148	0x3eda7edf	0.4267492
149	0x3f9c35bf	1.2203902
150	0x3ee92ef0	0.45543623
151	0xbf11e186	-0.56984746
152	0xc03d10ea	-2.9541574
153	0xbeaaeb35	-0.33382574
154	0x3ef18d0a	0.47177917
155	0x3f0070a1	0.5017186
156	0x3ef69c52	0.48166138
157	0x3eead3c2	0.45864683
158	0xbf76b675	-0.9637216
159	0xbe80aa80	-0.2513008
160	0x3fa0a59a	1.2550538
161	0x3f20ad65	0.6276458
162	0x3f4b4a65	0.7941039
163	0xbf049a65	-0.5179809
164	0xbf8ffda4	-1.124928
165	0xbed9ab38	-0.42513442
166	0xbf62cc36	-0.8859285
167	0xbe3f178c	-0.18661326
168	0x3fa6927c	1.3013453
169	0x3efa7d31	0.48923638
170	0xc0be1f27	-5.941303
171	0x3fa0f542	1.2574847
172	0x3ea2db3d	0.3180789
173	0xc004629f	-2.0685194
174	0xbf6acc37	-0.9171786
175	0x3fb01264	1.3755612
176	0x3ea77a02	0.32710272
177	0x3ef789a7	0.48347208
178	0x3f5b0774	0.8555825
179	0xbe2bc117	-0.16772877
180	0xc0194232	-2.3946652
181	0x3d9c5dc5	0.076350726
182	0x3fd6bf39	1.6777107
183	0x3e8aee3a	0.27134877
184	0x3f098eee	0.5373372
185	0x4054b700	3.3236694
186	0xbf96d1cf	-1.1782779
187	0xbf03c3c2	-0.5147058
188	0xc03daf28	-2.9638157
189	0x3ef7122e	0.48256058
190	0x3f8947a2	1.0724986
191	0x3e7d2c81	0.24724008
192	0x3f0054cd	0.50129396
193	0x3f8ffa94	1.1248345
194	0xbf0d7857	-0.5526175
195	0xbe1b5178	-0.15167797
196	0xc005a416	-2.08814
197	0xbf03500b	-0.5129401
198	0xc0248fca	-2.5712762
199	0x3d2ab8dd	0.041680206
200	0xbf881730	-1.0632076
201	0x3fb1afba	1.3881752
202	0x3fbf1988	1.4929667
203	0xc01d2c4d	-2.455829
204	0x3ed2a3d2	0.4114061
205	0xbe04cb44	-0.12968165
206	0x3e8c18ea	0.27362758
207	0x3fbcf0df	1.4761008
208	0x3f943284	1.1577916
209	0xc015bed3	-2.339772
210	0xc014b38b	-2.3234584
211	0x3f6c9310	0.924119
212	0xbeaaa434	-0.33328402
213	0xbee8872f	-0.45415637
214	0xbfcfd809	-1.6237804
215	0xbf84c4aa	-1.0372517
216	0xbfa2386d	-1.267347
217	0xbf01aaa0	-0.5065098
218	0xbfc50b89	-1.5394145
219	0xbedec42d	-0.43509045
220	0xbf1cbff8	-0.6123042
221	0xc03d4016	-2.9570365
222	0x3fca538c	1.5806746
223	0x3f261d41	0.6488839
224	0xc017a8c5	-2.3696759
225	0x3fe0b450	1.7555027
226	0x3e4e066e	0.2011964
227	0xc02fae3c	-2.7450094
228	0x3c97a974	0.018513419
229	0xc0034795	-2.051244
230	0xbf4e7ae6	-0.8065628
231	0xbfd98d93	-1.699633
232	0xbf16182a	-0.5863062
233	0x3e5c1a6c	0.21494454
234	0xbf9bcac0	-1.2171249
235	0xc01b8175	-2.4297764
236	0xbd4a2546	-0.049351953
237	0x3f32b2e6	0.6980423
238	0x3f5d1d1b	0.86372536
239	0xbfcc9956	-1.5984294
240	0xc00b04b2	-2.1721616
241	0x3f116442	0.56793606
242	0x3fd776bd	1.6833111
243	0x3fe84a8a	1.8147748
244	0x3f5a5dc4	0.85299325
245	0xbff740a9	-1.9316608
246	0x3f81eb47	1.0149926
247	0xbe5283eb	-0.20558135
248	0x3e710085	0.23535354
249	0xbf6d0b90	-0.9259577
250	0x3ff64922	1.9241068
251	0x401c60d9	2.443411
252	0x3fe8135a	1.8130906
253	0x3f1fb83d	0.623905
254	0xbc5be3bb	-0.013420994
255	0xbf332d48	-0.6999097

bias f4 [16]
0	0xbedad745	-0.42742363
1	0x3fbdb389	1.4820415
2	0xbdf4a126	-0.11944799
3	0xbec94ff5	-0.39318815
4	0x400d08f2	2.203671
5	0x3f65fed2	0.8984195
6	0xbed4d824	-0.41571152
7	0x3eb69d65	0.35666957
8	0x3e44ea42	0.19229987
9	0x3f47a8ec	0.7799213
10	0xbfaa11dc	-1.32867
11	0xbf8582fb	-1.0430597
12	0x3f31c63f	0.69443125
13	0xbff87410	-1.941042
14	0xbf4ffddb	-0.8124673
15	0xbfd83ad0	-1.6892948

weight f4 [16]
0	0x3fa9388e	1.3220384
1	0x40324a7e	2.7857966
2	0x4018d0bc	2.3877401
3	0x3fe7ddfc	1.8114619
4	0x401cf08a	2.4521813
5	0x400f8060	2.2422104
6	0x3ff1a89b	1.8879579
7	0x3f670873	0.9024727
8	0x4002954b	2.0403621
9	0x3fdeb715	1.7399622
10	0x4008b26d	2.1358902
11	0x40208c1d	2.5085518
12	0x4004f08f	2.0771825
13	0x4025ee50	2.5926704
14	0x401202af	2.2814138
15	0x3fdea301	1.7393495

bias f4 [16]
0	0x3ff097a9	1.8796283
1	0xbe3c336b	-0.1837899
2	0x3ec3cb52	0.3824106
3	0xbeacc91f	-0.33747193
4	0x3f13b666	0.5770019
5	0x3f6674ed	0.90022165
6	0x3ed34fb2	0.4127174
7	0x3fd88fc1	1.691887
8	0x3f1e8227	0.61917347
9	0x3f826ffb	1.0190424
10	0xba510717	-0.0007973774
11	0x3eecba1a	0.46235734
12	0xbeaec115	-0.34131685
13	0xbf7c6e41	-0.98605734
14	0x3ed49b9f	0.4152498
15	0xbf30fe2d	-0.6913784

running_mean f4 [16]
0	0xc0786c8e	-3.8816257
1	0xc210b5c7	-36.177517
2	0xc1c419f1	-24.512667
3	0xc1a8f594	-21.119911
4	0xc21fbc73	-39.934032
5	0x41ed73df	29.681578
6	0xc2865c76	-67.18059
7	0xc1b703f2	-22.876926
8	0xc1dc8cf8	-27.568832
9	0x419bd736	19.480083
10	0xc16b5204	-14.707523
11	0x4200289b	32.039654
12	0xc185348d	-16.65066
13	0xc1670dc3	-14.44086
14	0x416c31a1	14.762116
15	0xc25f87c5	-55.882587

running_var f4 [16]
0	0x4381b67b	259.42563
1	0x43444b16	196.2933
2	0x448d1672	1128.7014
3	0x43b0454f	352.54147
4	0x4382ff39	261.99393
5	0x441365b5	589.5892
6	0x446f0db0	956.21387
7	0x44002628	512.5962
8	0x4458eedf	867.73236
9	0x43a6f0a1	333.8799
10	0x439ed14c	317.63513
11	0x44276dfa	669.7184
12	0x440286e9	522.108
13	0x43acc721	345.5557
14	0x43aad8df	341.6943
15	0x4359e3b7	217.88951

weight f4 [32, 16, 3]
0	0xbec2984e	-0.38006824
1	0xbfe4c694	-1.7873101
2	0xbbe7cf5f	-0.007074281
3	0x3f958cd6	1.1683605
4	0x3e0c67e0	0.137115
5	0xbfd93bae	-1.6971338
6	0x3fab327e	1.3374784
7	0xbf8a2442	-1.0792315
8	0x3f11e354	0.569875
9	0x3e2c5d1a	0.1683239
10	0x3d5f17db	0.05446611
11	0xbff77604	-1.933289
12	0xc02a1983	-2.657807
13	0xbf82c0cb	-1.0215086
14	0xbf0aa11e	-0.54152095
15	0xbf9475e5	-1.1598479
16	0xbfa0699a	-1.2532227
17	0xbfda1c74	-1.7039933
18	0x3f7cf359	0.9880882
19	0xbf981176	-1.1880329
20	0xbf86b6d1	-1.0524541
21	0xbf9894a0	-1.1920357
22	0x3f36fcb4	0.71479344
23	0xbf5bc421	-0.85846144
24	0xbe1dc166	-0.15405807
25	0x3d6e2634	0.058141902
26	0xbf156f90	-0.58373356
27	0x3ee7f226	0.45301932
28	0xbf6d500a	-0.92700255
29	0xc082a336	-4.082423
30	0xc07bb8a5	-3.9331448
31	0x3f554b7b	0.833183
32	0xbfa826e8	-1.3136873
33	0xbf42966a	-0.76010764
34	0xc0031e02	-2.0487065
35	0xc0552a98	-3.3307247
36	0xbfa748d8	-1.3069105
37	0xc0032dc2	-2.0496678
38	0xbfe29934	-1.7703004
39	0xbf758570	-0.95906734
40	0xbf6c99a1	-0.9242192
41	0x3e1bebd0	0.15226674
42	0xbf57072a	-0.83995306
43	0xbfb308bd	-1.3987042
44	0x3f7abc8b	0.97943944
45	0xbfb4f2d8	-1.413661
46	0x3ee47470	0.44620085
47	0x3a5f70f4	0.0008523606
48	0xbf5d15e1	-0.8636151
49	0xbdfe01d5	-0.12402693
50	0x3ecc0768	0.398494
51	0xc01b79ce	-2.4293094
52	0x3f870747	1.0549096
53	0x3e83415a	0.25635797
54	0xbf99fce2	-1.2030299
55	0xbe8eff5b	-0.27929196
56	0x3e70195c	0.23447174
57	0xbf593da2	-0.8485967
58	0xbe7127be	-0.23550317
59	0x3f942fb7	1.1577061
60	0xbfbbddb0	-1.4677029
61	0xc0160396	-2.3439689
62	0x3f9154a8	1.135396
63	0xbef9532e	-0.48696274
64	0x3ec03c4d	0.37546006
65	0x3fe7685c	1.8078723
66	0xbe1cdb4e	-0.15318033
67	0x3f81954e	1.0123689
68	0x3f5dc50e	0.86628807
69	0x3f9b5e4d	1.2138153
70	0x3fb17f1d	1.3866917
71	0x3fa21809	1.2663585
72	0x3ef668bc	0.4812678
73	0x40103595	2.2532704
74	0x3f5510df	0.8322887
75	0xbfb6e271	-1.4287854
76	0x3ed5d847	0.4176657
77	0xbe9b1de7	-0.3029625
78	0xbeb27d98	-0.34861445
79	0x3f461dc3	0.7738916
80	0xbe3f933e	-0.18708512
81	0xc016d291	-2.356602
82	0xbf0abb8e	-0.54192436
83	0xbebb76eb	-0.36614165
84	0x3eda95ad	0.4269232
85	0x3fa0bbcc	1.2557311
86	0x403cd77a	2.9506516
87	0x3e3149ea	0.17313352
88	0x3fcb6db8	1.5892859
89	0x4072433a	3.7853532
90	0xbfbe10f9	-1.484893
91	0xbdd7145d	-0.10501931
92	0x3b771534	0.0037701847
93	0xc00be3e9	-2.1857855
94	0xbf97be8b	-1.1855024
95	0x3f47eb18	0.780931
96	0xbf145243	-0.5793802
97	0xbfaf97a5	-1.3718153
98	0xbfa68335	-1.3008791
99	0xbfa74015	-1.3066431
100	0xbe8c050a	-0.27347594
101	0x3ff983b5	1.9493319
102	0xbfb67c8b	-1.4256757
103	0xbfffb714	-1.9977746
104	0xbfd38d08	-1.6527414
105	0xc011ce8d	-2.2782319
106	0x3eb24485	0.348179
107	0x3e38081b	0.17971842
108	0xbf110096	-0.5664152
109	0xbfea6081	-1.8310701
110	0xbfd94318	-1.69736
111	0xc0055cb4	-2.0837831
112	0x3d38b48f	0.04509407
113	0x3fca2241	1.5791703
114	0x3dd7d410	0.105384946
115	0x3e6df241	0.23236944
116	0x3dae022a	0.084965065
117	0x3fde8d18	1.7386808
118	0x3f84acfa	1.0365288
119	0x3dfed7c8	0.12443501
120	0x3f7c5c00	0.9857788
121	0x3fb2670c	1.3937697
122	0xbf6caa03	-0.9244692
123	0xbed54988	-0.41657662
124	0xc0349e08	-2.8221455
125	0x3dd107a3	0.10206535
126	0xbf962c76	-1.1732318
127	0x3fe9b6c0	1.8258896
128	0x3e5970d5	0.21234448
129	0xc0291411	-2.6418498
130	0xc007741e	-2.1164622
131	0xbf95691d	-1.1672703
132	0xbf803ced	-1.0018593
133	0x3f90a12f	1.1299189
134	0x4005e1c8	2.0919056
135	0x3c0f57e5	0.008748983
136	0x3f1311b6	0.574489
137	0x40152000	2.3300781
138	0xbfc2f397	-1.5230588
139	0xc0301509	-2.751284
140	0x3f83cc83	1.0296787
141	0xbff90dab	-1.9457296
142	0xbfab1abb	-1.3367532
143	0x3e453016	0.19256625
144	0x400f7dd8	2.242056
145	0x3f3aa905	0.72914153
146	0xc01e1656	-2.4701133
147	0xbd0c8da0	-0.03431475
148	0xbf69b5e6	-0.9129318
149	0x3fbe17ce	1.4851015
150	0x4014c564	2.3245478
151	0x3e4a15bc	0.19734854
152	0xc02596f1	-2.5873377
153	0x3f4cb2b0	0.79960155
154	0xc00cf846	-2.2026534
155	0x3fd3d233	1.6548523
156	0xc02e0522	-2.7190633
157	0xbe9a7c29	-0.30172852
158	0x3f97c874	1.1858048
159	0x3fd67afc	1.6756282
160	0x3ffd6dd3	1.9799141
161	0xbfe25bf5	-1.7684313
162	0x3f1e1c42	0.6176187
163	0xbfea64b1	-1.8311979
164	0x3d872311	0.06598485
165	0xc01e4fc5	-2.4736187
166	0xbfadb445	-1.3570639
167	0x3fa85867	1.3151978
168	0xbf88de79	-1.0692893
169	0xbf54704e	-0.82983863
170	0xbfed6006	-1.8544929
171	0x3d722c01	0.059123997
172	0xbdff1104	-0.12454417
173	0x3fac5f9c	1.3466678
174	0xbfc5835a	-1.543071
175	0x3e542bdb	0.20719855
176	0x3fa093d4	1.2545114
177	0x3ee3d8ef	0.44501445
178	0x3d65ca7d	0.05610131
179	0x40386d5c	2.8816748
180	0xbe6753b8	-0.2259053
181	0xbf11d517	-0.56965774
182	0xbf72f2a8	-0.94901514
183	0x3d6db3f7	0.058032956
184	0x3e08a31c	0.13343471
185	0xbfe754c6	-1.8072746
186	0x3f29cd0b	0.66328496
187	0xbf8d38a4	-1.103291
188	0xc009953e	-2.149734
189	0xbf2a6ce8	-0.6657243
190	0xbe56afe1	-0.2096553
191	0xbff1f129	-1.8901721
192	0xbfc4385d	-1.5329701
193	0xbf830c41	-1.0238115
194	0xc018ef63	-2.389611
195	0xbfb4dd03	-1.4129947
196	0xbe3599ae	-0.17734405
197	0xbf28d4a9	-0.65949494
198	0xbf39d579	-0.7259136
199	0x3ea5eb4e	0.32406086
200	0x3f768653	0.9629871
201	0x3c90d0f0	0.017677754
202	0xbf73be94	-0.95212674
203	0x3faec64c	1.3654265
204	0xc00f6a7d	-2.2408745
205	0xc050fdf1	-3.2654994
206	0xbfb23e9b	-1.3925356
207	0xc0424a6a	-3.0357919
208	0xbd8fff73	-0.07031145
209	0x3f89099a	1.0706055
210	0x3df40115	0.11914269
211	0xbf1dd580	-0.616539
212	0xbf01510c	-0.5051429
213	0x3ecbdbce	0.39816135
214	0xbff183f7	-1.8868397
215	0xc03f00a5	-2.9844143
216	0x3fad4bfd	1.3538815
217	0x3f077c61	0.5292416
218	0xbf9729e0	-1.1809654
219	0xc01103d8	-2.2658596
220	0xc0811f60	-4.03508
221	0x3f845bc5	1.0340506
222	0xbfe132c4	-1.7593617
223	0xbf3a97f0	-0.7288809
224	0x3f30ca5c	0.69058776
225	0xbf9f2179	-1.243209
226	0x3eb360a9	0.35034683
227	0xbed23cf6	-0.41062135
228	0x3e0822ee	0.13294575
229	0xbe107171	-0.14105774
230	0x3f2068cf	0.62659925
231	0xbf3a3cdc	-0.72749114
232	0xbefb4c57	-0.4908168
233	0x40772ac8	3.8619862
234	0xbe8d2c71	-0.2757297
235	0x3f8669e1	1.0501062
236	0x3effefea	0.49987727
237	0xbfce45c1	-1.6115037
238	0xbffe0d33	-1.9847778
239	0x3fbdf0e3	1.4839138
240	0xc07fd69f	-3.9974744
241	0x3f0125d7	0.50448364
242	0x3ba88ff3	0.005144113
243	0x3d7ea749	0.062171254
244	0xc04022c7	-3.0021226
245	0x3e91afc7	0.2845442
246	0xc0512e98	-3.2684689
247	0x3ee31e77	0.4435918
248	0x3f94dae3	1.1629299
249	0x3f3d97c6	0.7405971
250	0xbf8566d9	-1.0422012
251	0xbee40e89	-0.4454234
252	0xbe75e88d	-0.24014492
253	0x3f2f81e9	0.685576
254	0xc0279498	-2.6184444
255	0xbf112a6d	-0.5670536

bias f4 [32]
0	0x3db06c14	0.08614364
1	0xbf7e84a7	-0.9942116
2	0x3f87fda4	1.062428
3	0xbe6e2b3d	-0.23258682
4	0x3f005bc0	0.5014
5	0x3ea9789a	0.33099824
6	0xbf143b62	-0.5790311
7	0xbee065f3	-0.4382778
8	0xbd4fce58	-0.050733894
9	0x3f99fcc2	1.203026
10	0xbe5d9ba4	-0.21641403
11	0x3da4bfb5	0.08044378
12	0xbe7b5694	-0.24544746
13	0x3f62dbd9	0.8861671
14	0xbb3976fd	-0.0028299682
15	0xbeefc818	-0.46832347
16	0x3f3807c7	0.7188687
17	0x3f48e8d1	0.7848025
18	0x400b64c9	2.1780264
19	0x3ec8fd29	0.39255646
20	0x3fb9b69c	1.4508853
21	0x3db7d8d4	0.089769036
22	0x400488cb	2.0708492
23	0xbe5ca0c6	-0.21545705
24	0xbf373e66	-0.7157959
25	0x3fd2b0d2	1.6460211
26	0x3f92f6e2	1.1481593
27	0xbf86f407	-1.0543221
28	0x3f5a6c69	0.8532167
29	0xbec84b5a	-0.3911999
30	0x4069d3cc	3.653552
31	0x3ee197c6	0.44061106

weight f4 [32]
0	0x400e2c3e	2.2214503
1	0x3fd50df0	1.6644878
2	0x3ffe19e3	1.985165
3	0x40026c0f	2.0378454
4	0x40024963	2.0357292
5	0x3fe6ca35	1.8030459
6	0x3fecbec9	1.8495723
7	0x3fc6c111	1.5527669
8	0x3fab073a	1.336158
9	0x3fbe134d	1.484964
10	0x4002f86d	2.0464127
11	0x4008bcf4	2.1365328
12	0x40068286	2.1017165
13	0x3f717948	0.94325686
14	0x401adc36	2.4196906
15	0x3fc0a14b	1.5049223
16	0x401e84ea	2.4768624
17	0x40128e63	2.2899406
18	0x3fad589e	1.3542669
19	0x3f86cc9d	1.0531193
20	0x40052bdf	2.0808027
21	0x3dc87334	0.09787598
22	0x3ff634fb	1.9234918
23	0x40062b50	2.0963936
24	0x4011af55	2.2763264
25	0x3fbb54e3	1.463528
26	0x3fe08f86	1.75438
27	0x3fe5de3d	1.7958447
28	0x3fc3e809	1.5305187
29	0x4008b6df	2.1361616
30	0x40045e0e	2.0682406
31	0x3fc47171	1.534712

bias f4 [32]
0	0xbeb662a0	-0.3562212
1	0xbfbe601a	-1.4873078
2	0x3ec2eb3e	0.380701
3	0x3f071064	0.52759385
4	0xbe2374dd	-0.15962549
5	0x3e5bd557	0.21468101
6	0xbf98d1f7	-1.1939076
7	0xbfea0fa3	-1.8286022
8	0xc008db26	-2.1383758
9	0xbf2fac2b	-0.6862208
10	0xbfb9eaa8	-1.4524736
11	0x3f6149bb	0.8800313
12	0xbd7f2281	-0.062288765
13	0x3fa967df	1.3234824
14	0xbee3cc4e	-0.4449181
15	0xbf3d5572	-0.73958504
16	0x3f8b1fa0	1.0869026
17	0xbf04ed47	-0.51924556
18	0x3fcbf5b2	1.5934355
19	0xbe48ba0a	-0.19602218
20	0x3ec7138d	0.38882104
21	0xbf8da19e	-1.1064947
22	0xbe69bcda	-0.22825947
23	0xbdc97744	-0.09837201
24	0xbba69440	-0.0050835907
25	0xc016f246	-2.3585372
26	0x3fdcc30a	1.7247021
27	0xbe94ddfa	-0.29075605
28	0xbf254f72	-0.6457435
29	0xbf2241ee	-0.6338185
30	0xbee3d891	-0.44501165
31	0x3f522a87	0.8209614

running_mean f4 [32]
0	0xc2256be3	-41.35536
1	0x40b123fd	5.535643
2	0xc1abf967	-21.496778
3	0xc102726d	-8.152936
4	0xc2106655	-36.099934
5	0xc1f25ab3	-30.294287
6	0x41c748c0	24.910522
7	0x4192e80b	18.363302
8	0x41d045bc	26.03405
9	0xc1a2c1a4	-20.344551
10	0x404015a3	3.0013206
11	0x40d23bf6	6.5698195
12	0xc0e2a647	-7.0827975
13	0xc115fa11	-9.373551
14	0xc1813984	-16.153084
15	0x41da3580	27.276123
16	0xc1453cc2	-12.327333
17	0xc14c0e85	-12.753545
18	0xc187e1f9	-16.985338
19	0x4199f0bd	19.242548
20	0xc1fa4f00	-31.288574
21	0xc02b5c52	-2.6775098
22	0x41f5469c	30.659477
23	0xc1e6dbb8	-28.857285
24	0xbeb3dc32	-0.35128933
25	0x41beaa37	23.833113
26	0xc18520ee	-16.641079
27	0x401f0bf1	2.4851038
28	0x4115c045	9.359441
29	0xc1760a68	-15.377541
30	0xc127158e	-10.442762
31	0xc02139c9	-2.519152

running_var f4 [32]
0	0x442d678b	693.61786
1	0x43b79c08	367.219
2	0x44033c12	524.9386
3	0x43e8e9d4	465.82678
4	0x43ce03a1	412.02835
5	0x441534da	596.8258
6	0x4409c8f1	551.1397
7	0x43eedf0d	477.74258
8	0x439d01c3	314.01376
9	0x440aa996	554.6498
10	0x43b3c5ff	359.54684
11	0x4414dcc3	595.4494
12	0x443db199	758.77496
13	0x43ccb10a	409.38312
14	0x43a43870	328.44092
15	0x43b22171	356.26126
16	0x440d9535	566.33136
17	0x43833df0	262.4839
18	0x448e3dd4	1137.9321
19	0x438dd72d	283.68106
20	0x43a4eb9a	329.84064
21	0x4350cdc5	208.80379
22	0x43d7eba3	431.8409
23	0x4473e4ce	975.5751
24	0x440441b8	529.02686
25	0x43ad6806	346.81268
26	0x444ef294	827.7903
27	0x43ef7979	478.949
28	0x43f10ef1	482.11673
29	0x43e512f1	458.14798
30	0x439fb811	319.43802
31	0x442a72f8	681.7964

weight f4 [32, 32, 3]
0	0x3f6f9481	0.93585974
1	0xbcfaccb6	-0.030615192
2	0x3e1e4842	0.15457252
3	0x3f62b08d	0.88550645
4	0xbf8fb3c6	-1.1226737
5	0xc004cf10	-2.075138
6	0x4033ca32	2.809216
7	0xbed9a9b7	-0.42512295
8	0xc00e4062	-2.2226796
9	0x3fda2917	1.704379
10	0xbe79ad1b	-0.24382441
11	0xbf5d68aa	-0.8648783
12	0xc018989e	-2.384315
13	0x3f8421be	1.0322797
14	0xbfd74f3a	-1.6821053
15	0x3f062165	0.52394706
16	0x3fc960af	1.573263
17	0xbf4f3600	-0.8094177
18	0x4008a0aa	2.1348062
19	0x3f9b8d6f	1.2152537
20	0x3f9d0133	1.2265991
21	0x3f881f0a	1.0634472
22	0xbf0e5bb6	-0.5560869
23	0xc06e0673	-3.7191436
24	0xbfe4f5a3	-1.7887462
25	0xbfb2d6c0	-1.3971786
26	0xbe8dc679	-0.27690485
27	0x403be0ef	2.9356039
28	0x3f949efa	1.1611016
29	0xc022b7c7	-2.5424669
30	0x3d86105e	0.065460905
31	0xbe45d234	-0.19318467
32	0xbeb97aaf	-0.36226413
33	0x402e65de	2.7249675
34	0x4007b5f9	2.1204817
35	0xbf85b106	-1.0444648
36	0x3fbe5878	1.4870749
37	0x3eced411	0.4039617
38	0xbf8a5d52	-1.0809729
39	0x40193bea	2.3942819
40	0xbf7a5408	-0.9778447
41	0xbf02711d	-0.5095385
42	0x3faa4dcd	1.3304993
43	0x3fd36756	1.6515911
44	0xbf850893	-1.0393242
45	0x3fa38521	1.2775003
46	0xbe23dc48	-0.16002
47	0x3ef377da	0.47552377
48	0x3ee39e26	0.44456595
49	0xc00a5345	-2.1613324
50	0xc091954f	-4.549476
51	0xbf76d23f	-0.9641456
52	0x3eb60bf7	0.35556003
53	0x3fe6f0c9	1.8042232
54	0xbf80f469	-1.0074588
55	0x3ee19ff3	0.44067344
56	0xbe523d23	-0.20531134
57	0x3faf054f	1.3673495
58	0xbe7c399b	-0.2463135
59	0xbe60826f	-0.21924756
60	0x40069f3a	2.1034684
61	0x3f0e5a74	0.5560677
62	0xbea9117f	-0.3302116
63	0x3ebf1ac5	0.3732511
64	0xbf13ea37	-0.5777926
65	0xbf6a70f8	-0.91578627
66	0x3f4c26eb	0.79746884
67	0xbfc86ea5	-1.5658766
68	0xbfd366f9	-1.65158
69	0x3eb0b05f	0.3450956
70	0x3e688615	0.22707398
71	0x3f05852e	0.5215634
72	0xbf27f57a	-0.6560894
73	0xbe8ca8ae	-0.27472442
74	0x3ec249c3	0.379469
75	0x3fc47a57	1.5349835
76	0x3e6320f8	0.22180545
77	0x3e9dc049	0.30810764
78	0xbc38713c	-0.011257466
79	0xbf811d14	-1.0086999
80	0xc0089898	-2.1343136
81	0x3fc8897f	1.566696
82	0x3e4b034a	0.19825473
83	0xbfa04669	-1.2521487
84	0x3f7460e3	0.9546034
85	0x3f125b93	0.5717098
86	0xbe015fbc	-0.12634176
87	0x3fbeb109	1.4897777
88	0x3ea8cdfe	0.3296966
89	0x4019c31d	2.4025338
90	0xbea6382b	-0.32464728
91	0x3f3486e0	0.705183
92	0xc014f950	-2.3277168
93	0xbf418b9a	-0.7560364
94	0xbe516768	-0.20449603
95	0x3ea94be2	0.33065706
96	0x4017cc23	2.3718345
97	0x3f701827	0.93786854
98	0x3fb99768	1.449933
99	0x3ecf3d0c	0.40476263
100	0xbf6e911e	-0.9319018
101	0x4064a925	3.5728238
102	0xbfc0272e	-1.5011957
103	0xbf2c3cbc	-0.67280173
104	0xbdd05b64	-0.101736814
105	0x3f3e6b10	0.74382114
106	0xbe5d0bed	-0.2158658
107	0xbf727528	-0.94710016
108	0x3ee96728	0.45586514
109	0xbe34a28e	-0.17640135
110	0x405d4d32	3.4578366
111	0x3e916155	0.2839457
112	0xbf6910b7	-0.9104113
113	0x3f1e472e	0.6182736
114	0x3f82c71c	1.0217013
115	0x3f1df973	0.61708754
116	0xc0055b27	-2.0836885
117	0xbfc8daf3	-1.5691818
118	0xbfa83299	-1.3140441
119	0xbd4edf5e	-0.05050599
120	0x40025a68	2.036768
121	0x3f4ce6f1	0.8003989
122	0xbf93ce18	-1.154727
123	0xbf217dcd	-0.6308258
124	0x3eebd24f	0.4605889
125	0x3fd2bb27	1.6463364
126	0xbf813aa2	-1.0096018
127	0xc03d259c	-2.9554205
128	0xc05a5a69	-3.4117682
129	0xbf0901bc	-0.5351827
130	0x3f944e0a	1.1586316
131	0x3e425028	0.1897589
132	0xbfdedf0e	-1.7411821
133	0xbe8812b0	-0.26576757
134	0x40417070	3.0224876
135	0xbf420381	-0.75786597
136	0xbf0430f3	-0.5163719
137	0xc024eff0	-2.5771446
138	0x3f16e378	0.5894084
139	0xbf3c3da6	-0.7353157
140	0x3f7d6984	0.9898913
141	0xbf3cc20d	-0.737336
142	0x3f7b670e	0.98204124
143	0xc004c221	-2.0743487
144	0xbe89660d	-0.2683567
145	0xbf0d58a9	-0.5521341
146	0xbfa8b8e5	-1.3181425
147	0x3e87804a	0.26465064
148	0x3f41e1c2	0.75735104
149	0x40869e6b	4.206838
150	0xbdbb1228	-0.091343224
151	0xbfe40deb	-1.7816747
152	0x3f6adf17	0.9174666
153	0xbfaad04d	-1.3344818
154	0xbfd1877b	-1.636947
155	0x3c8bfcd0	0.017088324
156	0x401c3d1c	2.4412298
157	0x3f89d0c8	1.076684
158	0xbfc16e55	-1.5111796
159	0x3de3f32a	0.11130364
160	0xbea762c8	-0.32692552
161	0xbf288d0f	-0.6584024
162	0x3e4ef94d	0.20212288
163	0xbf27680c	-0.6539314
164	0xc05e9a00	-3.4781494
165	0xc0668f34	-3.6024904
166	0xbefe6ef5	-0.49694028
167	0x4022d74d	2.544391
168	0x3f82db14	1.0223107
169	0xbfaed65e	-1.365917
170	0xc0a57bda	-5.1713686
171	0x402dbc50	2.7146187
172	0x3d587104	0.052842155
173	0xbf2efa41	-0.6835061
174	0xbfb84824	-1.4397016
175	0xbf8d28e6	-1.1028106
176	0x3fb200b4	1.3906465
177	0x3f7b1d44	0.9809153
178	0xc02cd982	-2.7007756
179	0xbf9019b3	-1.1257843
180	0xbf7a7661	-0.9783688
181	0xbf0b8955	-0.5450643
182	0xbf5589c4	-0.8341334
183	0x400cca93	2.1998641
184	0x3eaec263	0.3413268
185	0xc0a68314	-5.2035007
186	0xbf7e4973	-0.99330825
187	0xbfd7efe2	-1.6870081
188	0x3ec52b87	0.3850977
189	0x3efd61be	0.49488634
190	0xbf22156d	-0.63313943
191	0x3ec7b981	0.39008716
192	0x3f9d2c22	1.2279093
193	0x3d5150f8	0.05110261
194	0xbf473f7c	-0.77831244
195	0xbeff2b86	-0.49837893
196	0xbf97875d	-1.1838185
197	0x3fb47d9a	1.410083
198	0x3fd88841	1.6916581
199	0xbf3cbb58	-0.73723364
200	0xbe5ae8ee	-0.21377918
201	0xc01e2ec0	-2.4716034
202	0x3e3f4c4d	0.1868145
203	0xbf91c509	-1.1388255
204	0x3f2ab972	0.6668922
205	0xbf83e367	-1.0303773
206	0xbff64043	-1.9238361
207	0xbfd8e9db	-1.6946367
208	0xbfb75343	-1.4322284
209	0x3f62ceac	0.88596606
210	0x3df904bc	0.12159106
211	0xbdde2083	-0.10846045
212	0xbf00fcd4	-0.50385785
213	0x3d75758d	0.05992656
214	0x3fb33c56	1.4002788
215	0x3faa1b65	1.328961
216	0xc022f7b3	-2.5463684
217	0xbebecdab	-0.37266287
218	0x3f893987	1.0720681
219	0xbfa030ce	-1.2514894
220	0x3eaaa31f	0.33327577
221	0x3f98316e	1.1890085
222	0x3e0f268f	0.13979553
223	0xbf1f5b6f	-0.6224889
224	0x3e9f18b3	0.31073532
225	0xbd3d0d05	-0.046154995
226	0x3f329efe	0.6977385
227	0x3f66ff26	0.90233076
228	0xbfb249c7	-1.3928765
229	0x3f4dfa7a	0.8046032
230	0x407e5f7b	3.9745777
231	0x40626174	3.537198
232	0xc006355d	-2.097007
233	0x3e547bb4	0.20750314
234	0xbfc9a7e6	-1.5754364
235	0xc02918a5	-2.6421292
236	0xbf9b1bad	-1.2117821
237	0xbef81db5	-0.48460165
238	0xbf055301	-0.5207978
239	0x3f6e64ac	0.93122363
240	0x3db129d1	0.08650554
241	0xbf57496c	-0.8409641
242	0xbeaf0bf3	-0.34188804
243	0x3ffde911	1.9836751
244	0xbe282fc1	-0.16424467
245	0xc0590b4d	-3.3913147
246	0x3fb1f2e1	1.3902246
247	0xc01ce270	-2.4513206
248	0x40139755	2.3061116
249	0xbfaa38f3	-1.329863
250	0xbf4141e2	-0.75491154
251	0x40725f68	3.7870731
252	0xbe5cdb7a	-0.21568099
253	0xbe83d0b4	-0.25745165
254	0xbe8dc083	-0.27685937
255	0xbf5cc05f	-0.86231035

bias f4 [32]
0	0xbf39ff3f	-0.726551
1	0xbf7abfe5	-0.9794906
2	0x3e5429c9	0.20719065
3	0xc03fb42c	-2.9953718
4	0x3f9511a9	1.1646014
5	0xbef52c0d	-0.4788517
6	0xbe0c3ce1	-0.13695098
7	0x3e9a716e	0.30164665
8	0xbf1461d2	-0.5796176
9	0xbf32bacc	-0.6981628
10	0xbf4fd90b	-0.81190556
11	0xbf6582b3	-0.89652556
12	0x3f6bd9cb	0.921292
13	0x3f80be9e	1.0058172
14	0x3fe1039a	1.7579224
15	0x3f053fe2	0.520506
16	0x3e0041aa	0.12525049
17	0xbf587f1e	-0.84568965
18	0x3eb55cbf	0.35422322
19	0xbeb75068	-0.35803533
20	0xbf7c935f	-0.9866237
21	0x3e8aba2e	0.2709517
22	0x40002794	2.0024157
23	0xbf296a47	-0.6617779
24	0xbf5337db	-0.82507104
25	0xbe9504e9	-0.2910531
26	0xbde3939c	-0.11112139
27	0xbdc15234	-0.09439507
28	0x3f940d89	1.1566631
29	0xbf182b39	-0.5944095
30	0x3ef750f2	0.48303944
31	0x3fc568e5	1.5422636

weight f4 [32]
0	0x3fd27779	1.644271
1	0x401b4ec1	2.4266818
2	0x3fac01d2	1.3438056
3	0x400f9667	2.2435548
4	0x3ff929f0	1.9465923
5	0x3feb21b5	1.8369662
6	0x40291025	2.6416104
7	0x4010daf0	2.263363
8	0x401a940d	2.4152863
9	0x3fa68958	1.3010664
10	0x400fdd2a	2.2478738
11	0x3fefdff4	1.874022
12	0x3f97d184	1.1860814
13	0x4026f3c6	2.6086287
14	0x4014c044	2.324235
15	0x4011d913	2.2788742
16	0x401411e8	2.313593
17	0x4003bf97	2.0585687
18	0x3fd41e54	1.6571755
19	0x40325d53	2.786946
20	0x3fb5b3d2	1.4195502
21	0x3fcc7d45	1.5975729
22	0x4020972f	2.5092275
23	0x4023e7c7	2.5610216
24	0x3ff22cb0	1.8919888
25	0x40125763	2.2865837
26	0x4013f94d	2.312091
27	0x4001e588	2.0296345
28	0x3fafbc06	1.3729255
29	0x4004fc02	2.0778813
30	0x3fcb30c0	1.5874252
31	0x4006b7a3	2.1049583

bias f4 [32]
0	0xbf1e7134	-0.61891484
1	0xbef961a0	-0.48707294
2	0xc0236a66	-2.553369
3	0x3f6683cb	0.9004485
4	0xbfbd62cf	-1.4795779
5	0x3f095de4	0.5365889
6	0x3f8ca6d1	1.0988408
7	0xbf892149	-1.0713283
8	0xbf995ada	-1.1980851
9	0xc0108aa0	-2.258461
10	0xbeaf14ec	-0.3419565
11	0xbf8016dc	-1.0006976
12	0xc0077b97	-2.1169183
13	0x3eba9f69	0.36449745
14	0xbe5d98e0	-0.21640348
15	0xbe34d222	-0.17658284
16	0xbe9db151	-0.30799344
17	0xbf4abac1	-0.79191214
18	0xbfc3bed7	-1.5292615
19	0x3e5669b3	0.20938759
20	0xbfe8f06b	-1.819837
21	0xbc1d3c39	-0.009596878
22	0x3eb2631a	0.34841233
23	0xbf8ebb45	-1.11509
24	0x3f569100	0.83815
25	0xbd36d969	-0.044640932
26	0xbf6c6689	-0.92343956
27	0xbe8e76b5	-0.2782494
28	0xc0100912	-2.2505536
29	0xbee436af	-0.4457297
30	0xbfdd03db	-1.7266802
31	0xbf0a7cc6	-0.5409664

running_mean f4 [32]
0	0xc09a24c9	-4.8169904
1	0xc1bab72f	-23.339445
2	0x4137b8f9	11.482659
3	0x40f81308	7.752323
4	0xc21133e6	-36.300682
5	0x40bbb60f	5.865974
6	0xc1babd76	-23.34251
7	0xc132843f	-11.157287
8	0xc2965d03	-75.18166
9	0x41b9d324	23.228096
10	0xc1a74c83	-20.91236
11	0x409b8cc7	4.8609347
12	0xbec6ccea	-0.38828212
13	0xc237f59b	-45.98985
14	0xc19a0ac9	-19.255266
15	0xc0ac650e	-5.387336
16	0xc210df47	-36.218044
17	0xc108d298	-8.5514145
18	0xc20d113e	-35.266838
19	0xc2417ab5	-48.36983
20	0x41fc37b8	31.527206
21	0xc19bd96e	-19.481167
22	0xc20ad11b	-34.704205
23	0xc236b230	-45.67401
24	0x40dd63c6	6.9184294
25	0xc125ea2f	-10.369674
26	0xc2733b83	-60.808117
27	0xc08c90d1	-4.392678
28	0x418dd5fb	17.729483
29	0x3fc285b8	1.5197058
30	0x41e18a76	28.192608
31	0xc1a9dbd3	-21.232336

running_var f4 [32]
0	0x44746c8a	977.6959
1	0x442d8581	694.086
2	0x440f4e18	573.2202
3	0x443f6b15	765.67316
4	0x43dac0a8	437.50513
5	0x445d57af	885.37006
6	0x44b0f942	1415.7893
7	0x4476bb2f	986.92474
8	0x44330447	716.06683
9	0x43c693f0	397.15576
10	0x4448623a	801.5348
11	0x4456c103	859.0158
12	0x4401db1b	519.4235
13	0x44b42fb5	1441.4908
14	0x44e25d88	1810.9229
15	0x44681053	928.25507
16	0x44778665	990.0999
17	0x441dae44	630.7229
18	0x43b96356	370.77606
19	0x444cbf0f	818.9853
20	0x442131d0	644.7783
21	0x448f96e2	1148.7151
22	0x446c8e3e	946.22253
23	0x44287b47	673.9262
24	0x444c2148	816.52
25	0x446bbce4	942.9514
26	0x44382a73	736.66327
27	0x444ad380	811.3047
28	0x43daa676	437.30048
29	0x443fbbda	766.9352
30	0x43bb0625	374.048
31	0x44367603	729.84393

weight f4 [64, 32, 3]
0	0xc03b9ce4	-2.9314508
1	0xbff765f0	-1.9327984
2	0xbe1e2203	-0.15442662
3	0x3ee3a22b	0.44459662
4	0x3fbc4776	1.4709308
5	0x4027161e	2.610725
6	0x3ea8d9cb	0.32978663
7	0x3f8fffb0	1.1249905
8	0xbfb2e56c	-1.3976264
9	0x3fb67ba9	1.4256488
10	0x3fef823e	1.8711622
11	0x3f61449d	0.8799532
12	0xbf36d5d0	-0.7142
13	0xbe35a2f3	-0.17737941
14	0x400b8efe	2.1806026
15	0x3f8b5a99	1.0887023
16	0xbf9750e9	-1.1821567
17	0xc089f7e1	-4.3115087
18	0xbf097f20	-0.537096
19	0xbf0ee18a	-0.55812895
20	0xbf926c0f	-1.1439227
21	0x3fb0f9a8	1.3826189
22	0xbed0c002	-0.4077149
23	0xbe237e31	-0.15966107
24	0x3eba7ec2	0.36424834
25	0xbdeb9f2e	-0.115049705
26	0x3fc85642	1.5651324
27	0xbd3089dd	-0.043100227
28	0x3f19bb31	0.60051256
29	0x3e566fed	0.20941134
30	0xbf4924dd	-0.78571874
31	0x3dfb0fa1	0.1225884
32	0x3f837380	1.0269623
33	0xbe8d9e45	-0.27659813
34	0x3f207e2c	0.62692523
35	0xbf9e9fe7	-1.2392548
36	0x3e194fa4	0.14971787
37	0xbf00011e	-0.50001705
38	0xbe0eabd9	-0.13932742
39	0xbf4ab887	-0.79187816
40	0xbff1c855	-1.8889261
41	0x3edf8d08	0.43662286
42	0xbfea92c5	-1.832604
43	0xbfe784b3	-1.8087372
44	0x3f55004a	0.83203566
45	0x3f77e8eb	0.9683978
46	0x3fc25f97	1.5185422
47	0xbd818f59	-0.063261695
48	0xbfd4cdaf	-1.662527
49	0xc01ecf59	-2.4814055
50	0x3fcca58b	1.598802
51	0xbfeadef9	-1.8349296
52	0xbef869e5	-0.4851829
53	0x3fac65be	1.3468549
54	0xbeb9c567	-0.3628342
55	0xbfc61d9e	-1.5477788
56	0xbdd86af6	-0.10567276
57	0xbfcd5e68	-1.6044436
58	0xbeafbbe8	-0.3432305
59	0xbdddffe8	-0.10839826
60	0x3ed9b46e	0.4252047
61	0x3f21417d	0.6299055
62	0x3f95f61c	1.1715732
63	0xc0809c57	-4.0190845
64	0x3f7b119f	0.9807376
65	0x40154d24	2.3328333
66	0xbf8f3391	-1.1187612
67	0xbf307a0d	-0.68936235
68	0xbe94e411	-0.2908025
69	0xbfa215b4	-1.2662873
70	0xbfa0b3cb	-1.2554868
71	0xc012b7ec	-2.2924757
72	0x3fb38634	1.402533
73	0xbffb1587	-1.9615945
74	0xbf36f270	-0.7146368
75	0xc0b72598	-5.723339
76	0xbfcb5e64	-1.5888181
77	0xc072127c	-3.7823782
78	0xbf0ae67e	-0.54257953
79	0x3ea09bf7	0.31368992
80	0xbed1981c	-0.40936363
81	0xbf5f8635	-0.8731416
82	0xc044a5dc	-3.0726233
83	0xc0a4272e	-5.1297827
84	0xc01fd5f9	-2.4974349
85	0x3e05db4b	0.13071935
86	0xbfd476dd	-1.6598774
87	0x3fa3a933	1.278601
88	0x3f51c354	0.8193867
89	0xbe944329	-0.2895749
90	0x3fcc7827	1.5974168
91	0x3f3aa690	0.72910404
92	0x3ff9ab78	1.9505453
93	0xc0013ae2	-2.019219
94	0x3f5d5bdf	0.8646831
95	0xbf22d0b8	-0.6359973
96	0xc037b44d	-2.8703797
97	0x3fa2171a	1.26633
98	0xbe9fa3e3	-0.31179723
99	0x3fd606f0	1.6720867
100	0xc008ea27	-2.1392915
101	0x3f2684f8	0.65046644
102	0x3fb71502	1.4303286
103	0xbf33ca99	-0.70231014
104	0xbe9acbbe	-0.30233568
105	0x3fadd25a	1.3579819
106	0x3e5661ec	0.20935792
107	0xbfe8f6f2	-1.8200362
108	0x3ed8d656	0.42351025
109	0x3fcd841a	1.6055939
110	0x3f4e0b7d	0.8048628
111	0x3fcff8f7	1.6247853
112	0x3e14bb65	0.1452461
113	0x3e7abf9c	0.24487156
114	0xc0199455	-2.3996785
115	0xc020f135	-2.514722
116	0xbf62ea0c	-0.8863838
117	0xc06a6f59	-3.6630461
118	0xc01a87c3	-2.4145362
119	0xbfebea96	-1.8430965
120	0x3eb355c3	0.35026368
121	0x3f1b3ae1	0.6063672
122	0xbf81328b	-1.009355
123	0x3fdcfa90	1.7263966
124	0x3f67b6c5	0.9051326
125	0x3f8e9537	1.1139287
126	0x3fa3dff4	1.280272
127	0xbd92e9ad	-0.07173476
128	0xbeb80323	-0.35939893
129	0xbf5cd2cb	-0.86259145
130	0xc0540d96	-3.3133292
131	0xbdd71e89	-0.10503871
132	0x3f84e0b5	1.0381075
133	0x3f86532c	1.0494132
134	0xbee73205	-0.4515535
135	0xc089cd03	-4.306276
136	0x3f54461c	0.8291948
137	0xc0163830	-2.3471794
138	0x3fda8d91	1.7074453
139	0xbe98e00c	-0.29858434
140	0x3f0d0dd7	0.5509924
141	0xbfb49790	-1.4108753
142	0xbf259d08	-0.64692736
143	0xc02b5378	-2.6769695
144	0xc0ab4f11	-5.3534017
145	0xc0418d0d	-3.024234
146	0xbfd2dc10	-1.6473408
147	0xbf75e070	-0.9604559
148	0xbf59076f	-0.8477697
149	0x3f396d5c	0.72432494
150	0xbe56d2a2	-0.20978788
151	0x3ee8b1c4	0.45448124
152	0x3e0ec688	0.13942921
153	0xbfe9b22c	-1.8257499
154	0x40175fe9	2.365229
155	0xbf84f5fa	-1.0387566
156	0xbda5f63c	-0.08103606
157	0x3f7429ea	0.95376456
158	0x3d99cfca	0.07510336
159	0xbfabb2d1	-1.3413945
160	0x3f83a151	1.0283605
161	0xbfb4438e	-1.4083116
162	0xbf9b57dd	-1.2136189
163	0xbf3d1422	-0.73858845
164	0xbf026e76	-0.509498
165	0xbed3ab9d	-0.41341868
166	0xc022514d	-2.5362122
167	0xc02e756b	-2.7259166
168	0xbfc3ec5c	-1.5306506
169	0x3d8f7d4d	0.07006321
170	0xc050aec3	-3.2606666
171	0xc0111ba7	-2.2673128
172	0xbe88fd40	-0.26755714
173	0x3f712396	0.94194925
174	0xbf81cb22	-1.0140116
175	0x3dea3bfa	0.11437221
176	0x3f79fedf	0.9765453
177	0xbfd61c75	-1.6727434
178	0xbec17e51	-0.37791684
179	0x3f39e612	0.72616684
180	0x401131a4	2.2686548
181	0x3f92ae47	1.1459435
182	0x3f617cea	0.8808123
183	0x3f2e2209	0.68020684
184	0xc0170da4	-2.3602076
185	0xbfc4d1e5	-1.5376555
186	0x4013a834	2.3071413
187	0x3df5cc6d	0.12001882
188	0xbfcd1df4	-1.6024766
189	0x3f539d2a	0.8266169
190	0xbf9a60b8	-1.2060766
191	0xc008620a	-2.1309838
192	0xbe921242	-0.28529555
193	0xbe2cf2ac	-0.16889447
194	0x3ec95418	0.3932197
195	0xbfb601c5	-1.421929
196	0xbf139333	-0.57646483
197	0xbfbead2f	-1.4896601
198	0x3fb22855	1.3918558
199	0x3f81379f	1.0095099
200	0xc01bcd7c	-2.4344168
201	0x400b1ca7	2.1736238
202	0xbec3ad65	-0.38218227
203	0x3f419717	0.7562117
204	0xbfe3ff74	-1.7812333
205	0x3d1a4352	0.037661858
206	0x3e1de36a	0.15418783
207	0x3fa2cdf1	1.2719098
208	0x3ea7b7cb	0.3275741
209	0xbf31617e	-0.69289386
210	0x3f927356	1.1441448
211	0x3f17caa7	0.592936
212	0x3f3537d2	0.707883
213	0xbf3491c6	-0.7053493
214	0x3ddd68a6	0.10810976
215	0x3fb7f469	1.4371463
216	0xbf76ca56	-0.9640249
217	0x3e8decb5	0.27719656
218	0xbf47ec3b	-0.78094834
219	0xbe3ec032	-0.18628004
220	0xbf948bcf	-1.1605166
221	0x3f910a01	1.1331178
222	0x3fde3da8	1.7362566
223	0x3f48ce78	0.78440046
224	0x3ee8e03a	0.4548357
225	0x4030743a	2.757094
226	0xbdaa0b46	-0.083029315
227	0x4015615a	2.3340669
228	0xbefbf43f	-0.49209782
229	0x3fcfe67f	1.6242217
230	0x3fb6ed31	1.4291135
231	0x3ea89f34	0.32933962
232	0x40065be0	2.0993576
233	0xbf83510e	-1.0259111
234	0xbdb5a235	-0.08868829
235	0xbff7538a	-1.9322369
236	0xbf0eceed	-0.55784494
237	0xbfbfa579	-1.4972373
238	0x3f198af5	0.59977657
239	0xbfb638e3	-1.423611
240	0x3ebb0013	0.36523494
241	0x3f96c47a	1.177871
242	0xbeeb8892	-0.46002632
243	0x3fe0754f	1.75358
244	0x40167b3a	2.3512712
245	0xbfadfcb2	-1.3592741
246	0x3f0ad5be	0.54232395
247	0x3ee75d10	0.4518819
248	0xbf7f7095	-0.9978116
249	0xbfca47dc	-1.580318
250	0x40179eec	2.3690748
251	0x3dfe4573	0.1241559
252	0x403da2eb	2.9630687
253	0x4025f420	2.5930252
254	0x405f6624	3.4906092
255	0xbf85bbf1	-1.044798

bias f4 [64]
0	0xbfbc7443	-1.472298
1	0xbf4b6214	-0.7944653
2	0xbf69db5c	-0.9135034
3	0xbfac9060	-1.348156
4	0x3ed6195e	0.4181623
5	0xbf29296a	-0.6607882
6	0x3e8eabdb	0.2786549
7	0xbfa5f07a	-1.2964013
8	0xbeec4e50	-0.46153498
9	0xbf5757e6	-0.841185
10	0x3f8c036d	1.0938545
11	0xbf5a433b	-0.85258836
12	0x3f554679	0.8331066
13	0xbde82d44	-0.11336759
14	0x3f7044d0	0.93855
15	0xbd5e8097	-0.05432185
16	0xbf274890	-0.65345097
17	0x3ff9a42b	1.9503225
18	0x3dfe9b59	0.12431974
19	0xbfa89af2	-1.3172286
20	0xbe9344f3	-0.28763542
21	0x3fa216e0	1.2663231
22	0xbf6bf1fe	-0.92166126
23	0xbe859336	-0.26088876
24	0x3f2c30bc	0.6726186
25	0xbee85f73	-0.45385322
26	0xbfad5be5	-1.3543669
27	0x3ea50b3d	0.32235137
28	0xbe6b73ab	-0.22993343
29	0x3fae517a	1.3618615
30	0xbef8aed3	-0.4857088
31	0x3f8184fc	1.0118709
32	0xbde15791	-0.1100303
33	0xbea1cdb9	-0.31602266
34	0x3f17f093	0.5935146
35	0xbdfc5c8e	-0.12322341
36	0xbe0cd957	-0.13754784
37	0xbf0f9a8b	-0.5609519
38	0xbee390e2	-0.44446474
39	0xbfdad6c1	-1.7096788
40	0xbebb4f6b	-0.3658403
41	0x3d7c3ec8	0.06158331
42	0xbe4e97d2	-0.20175102
43	0x3e66ff3a	0.22558299
44	0x3e68d5cd	0.22737809
45	0xc01f449d	-2.4885628
46	0x3e750156	0.23926291
47	0xbed34c84	-0.41269314
48	0xbea73ca8	-0.32663465
49	0xbe398b21	-0.1811948
50	0xbe3cb386	-0.18427858
51	0x3e9c1bba	0.30489904
52	0x3fca25d8	1.5792799
53	0xbed0bffc	-0.40771472
54	0x3f37af32	0.717517
55	0xbea90f2e	-0.33019394
56	0xbf2b9745	-0.67027694
57	0xbf2fe0ba	-0.6870228
58	0xbf8d5f2c	-1.1044669
59	0x400fba0c	2.2457304
60	0xbfbaa57f	-1.4581755
61	0x3e3083d1	0.17237784
62	0xbe76e3d1	-0.24110343
63	0x3f9ea87c	1.2395167

weight f4 [64]
0	0x402170a0	2.522499
1	0x402ad458	2.6692104
2	0x3fd5cd44	1.6703267
3	0x40146ee1	2.3192675
4	0x3f8e915f	1.1138114
5	0x4003f276	2.0616736
6	0x3fc1f900	1.5154114
7	0x3fa87bdd	1.31628
8	0x3fd88baa	1.6917622
9	0x3fe8836c	1.8165107
10	0x4003283b	2.0493305
11	0x3fe8df2c	1.8193107
12	0x3fe7d473	1.8111709
13	0x3fc2d491	1.522112
14	0x3ff26ff6	1.8940418
15	0x4018592f	2.3804433
16	0x3ff57e20	1.9179115
17	0x3fee7a5e	1.8631094
18	0x400795b6	2.1185126
19	0x3fcc9c7d	1.5985256
20	0x4006fe24	2.1092615
21	0x3fb1fdf3	1.3905624
22	0x3f9ad908	1.2097483
23	0x3fb8f98c	1.4451156
24	0x3fafbdaa	1.3729756
25	0x3fcc787d	1.597427
26	0x400907ce	2.1411014
27	0x3ff83353	1.9390663
28	0x3f8f4b92	1.1194937
29	0x3feafb01	1.835785
30	0x3feaff34	1.8359132
31	0x3fd7b4bf	1.6852034
32	0x3ffd3a6f	1.9783458
33	0x3fe88edc	1.8168597
34	0x3fbc208d	1.4697434
35	0x3fb45c80	1.4090729
36	0x3fcbbe3c	1.591743
37	0x4001d526	2.0286345
38	0x40137d65	2.3045285
39	0x3fa1462e	1.2599542
40	0x3f92e786	1.1476905
41	0x3fd452c9	1.6587764
42	0x3f95d5d6	1.1705883
43	0x3ff83330	1.9390621
44	0x3fed6793	1.8547233
45	0x3feaef0b	1.83542
46	0x3fba7b26	1.4568832
47	0x40113a4d	2.2691834
48	0x3fec4a28	1.8460131
49	0x3fd94157	1.6973065
50	0x3fc1ce13	1.5141014
51	0x400dac82	2.213654
52	0x40064ba3	2.0983665
53	0x3fdbedff	1.7182006
54	0x3fbcce36	1.475043
55	0x3fbd95bf	1.4811324
56	0x4003f76e	2.061977
57	0x3fd65307	1.6744088
58	0x3fc98f1d	1.57468
59	0x400b19b5	2.173444
60	0x3ff2025d	1.8906971
61	0x3fa9ca6b	1.3264898
62	0x40071a34	2.1109743
63	0x3ffd3b30	1.9783688
