unet/checkpoints/one_loss/epoch_36.pth (torch, 508787 bytes, 85 tensors)

weight f4 [8, 1, 3]
0	0xbf44fecf	-0.7695131
1	0xbf98b797	-1.1931027
2	0x3fadfb53	1.3592323
3	0xbfaa3bcf	-1.3299502
4	0xc002a59f	-2.0413587
5	0x3c8c58c4	0.01713217
6	0x3f6b4a6c	0.91910434
7	0x3d2cd69d	0.04219686
8	0xc06c57a3	-3.692849
9	0x3e56802e	0.20947334
10	0x3e82f777	0.25579426
11	0x404a5215	3.16126
12	0xbf27f8ab	-0.6561381
13	0xbfb580f2	-1.4179976
14	0xbfa3b278	-1.2788839
15	0xbfe93a96	-1.8221004
16	0xbdf9edb1	-0.12203539
17	0xbf9a95a6	-1.2076919
18	0x3fa0fed2	1.2577765
19	0xbfacf6f3	-1.3512863
20	0x3d1f0d18	0.038830847
21	0x4016092c	2.3443098
22	0x3eb8c4b9	0.36087587
23	0x3f2703c4	0.6524012

bias f4 [8]
0	0xbec8517a	-0.39124662
1	0x3dc0956e	0.094035015
2	0x3e13d1a2	0.14435437
3	0x3e840a5c	0.25789154
4	0xbf04f7d0	-0.5194063
5	0x3dd4be88	0.103879035
6	0xbc1e4ecb	-0.00966234
7	0xbf3550fb	-0.7082669

weight f4 [8]
0	0x3fa27cae	1.2694299
1	0x3fac0f04	1.3442082
2	0x4008e817	2.1391656
3	0x3ff38baf	1.9027003
4	0x400a9bad	2.1657517
5	0x3fca7d89	1.581956
6	0x3f8bd577	1.0924519
7	0x40026ebe	2.0380092

bias f4 [8]
0	0x3fac4fc3	1.3461841
1	0xbe2911f2	-0.16510752
2	0xbf55c301	-0.8350068
3	0x3f4b857a	0.79500544
4	0x3e83ac5b	0.25717434
5	0xbe872a28	-0.2639935
6	0x3f4e32dc	0.80546355
7	0xbeb778b8	-0.3583429

running_mean f4 [8]
0	0xbeb2f908	-0.3495562
1	0x3e0d6d7d	0.13811298
2	0x3d97d04a	0.07412775
3	0x3e947701	0.28997043
4	0xbf0477e8	-0.5174546
5	0x3e14cd91	0.14531542
6	0xbd423752	-0.04741604
7	0xbf460043	-0.7734415

running_var f4 [8]
0	0x47cffe98	106493.19
1	0x49302dc8	721628.5
2	0x4931f500	728912.0
3	0x495cc41e	904257.9
4	0x4925d9fa	679327.6
5	0x4915915d	612629.8
6	0x4788eb6b	70102.836
7	0x492efc7b	716743.7

weight f4 [16, 8, 3]
0	0xbfa4b151	-1.2866613
1	0xbd08d0cb	-0.033402245
2	0xbfbdb4f3	-1.4820846
3	0x3f7565d2	0.9585849
4	0xbfdd1961	-1.727337
5	0xbf190f2e	-0.5978879
6	0xbf39dccc	-0.72602534
7	0xbe688284	-0.22706038
8	0xbe137530	-0.14400172
9	0xbe9d924f	-0.30775687
10	0x3f64a9f4	0.8932183
11	0xbf4fd985	-0.81191283
12	0xbf7c33f8	-0.985168
13	0xc013616b	-2.302821
14	0xbe48ec47	-0.19621383
15	0xc055ac06	-3.3386245
16	0x3cc83c21	0.024442734
17	0xbfc6a6a1	-1.5519601
18	0x3f764a71	0.9620734
19	0x3d60fc74	0.054928258
20	0xbf1254a5	-0.5716041
21	0x3e4c5c07	0.1995698
22	0x3f41416c	0.7549045
23	0xbf264510	-0.6494913
24	0x4007b6da	2.1205354
25	0xc025081f	-2.5786207
26	0x3f0c1ab5	0.5472825
27	0xbd26dcc2	-0.040737875
28	0xbf09819f	-0.5371341
29	0x3ef58d69	0.4795945
30	0xbf282d21	-0.6569386
31	0x3e8adc76	0.27121323
32	0xbf4a420e	-0.7900704
33	0x3f807671	1.0036145
34	0xbf2d6a83	-0.6774065
35	0xbf9aa9d0	-1.2083073
36	0xbef128e7	-0.4710152
37	0x3f2ffad3	0.687421
38	0xbe8096e2	-0.25115114
39	0xbf1d38fb	-0.6141507
40	0x3edf141b	0.43570027
41	0xbf84d84e	-1.0378511
42	0xbf12e131	-0.57374865
43	0xbf94982c	-1.1608939
44	0x3fea688d	1.8313156
45	0xbf599849	-0.84997994
46	0xbfba56b6	-1.4557712
47	0x3f28acfc	0.65888953
48	0xbecf4882	-0.40485007
49	0xbf3a60de	-0.7280406
50	0x3d9034e4	0.07041338
51	0xbf9c9e27	-1.2235764
52	0xbe1369cf	-0.14395832
53	0x3e040c9f	0.1289544
54	0x3f9300ac	1.148458
55	0x3f5f8a8e	0.8732079
56	0x3f9e7be6	1.2381561
57	0x3fa0e26a	1.2569096
58	0x3fd8d43d	1.693977
59	0x3fe3df98	1.780261
60	0xbf8caa7e	-1.098953
61	0xbf123466	-0.57111204
62	0xbebc464f	-0.3677239
63	0xbf02e106	-0.5112461
64	0xbf9a470e	-1.2052934
65	0x3f178115	0.5918134
66	0xbdf0f3ed	-0.11765275
67	0xbe24fce3	-0.16112094
68	0xbf3486fa	-0.7051846
69	0x3f035a82	0.5130998
70	0x3facd157	1.3501385
71	0x3fbf7538	1.4957647
72	0xbfa725ee	-1.305845
73	0x3e7216ff	0.23641585
74	0xbfc84c99	-1.5648376
75	0xbe36983e	-0.17831513
76	0x3e584042	0.21118262
77	0x3eac8de9	0.3370202
78	0xbea9ad0c	-0.33139837
79	0xbe032755	-0.12807973
80	0x404f63de	3.2404704
81	0xbe40f27a	-0.18842497
82	0xbf48f4fd	-0.7849882
83	0xbf993876	-1.1970356
84	0xbb999546	-0.0046869842
85	0x3e4c1851	0.19931151
86	0x402b3840	2.6753082
87	0x3e4f5175	0.20245917
88	0xbf2ddd92	-0.67916214
89	0x3ff37f6a	1.9023259
90	0x3ee404d4	0.44534934
91	0x3f51741d	0.818178
92	0xbd8bf93f	-0.06834649
93	0x3f8bca47	1.0921105
94	0xbf98de94	-1.1942925
95	0xbe15a4a9	-0.14613594
96	0x3f91d1e3	1.1392177
97	0xbf9667e9	-1.1750461
98	0xbf4c76eb	-0.79868954
99	0x3eae7f24	0.34081376
100	0xbf6d3fc6	-0.92675436
101	0xbf09d184	-0.5383532
102	0x3f671174	0.90261006
103	0xbf00fa9f	-0.5038242
104	0xbf179776	-0.59215486
105	0x3fd71d9e	1.6805913
106	0x3e410fcc	0.18853682
107	0xbff7ca41	-1.9358598
108	0xbfb31311	-1.3990194
109	0xbf83e9b8	-1.03057
110	0xbf760d9e	-0.9611453
111	0x3ee97f34	0.4560486
112	0xbf3beea4	-0.7341101
113	0x3ecc790b	0.39936098
114	0xbe1d817b	-0.15381424
115	0x3f35ff0a	0.71092284
116	0x3e2be52d	0.16786642
117	0x3eeee154	0.46656287
118	0x3fc3deb4	1.5302339
119	0xbf128eec	-0.5724933
120	0x3ece2dc9	0.40269306
121	0xbf97b785	-1.1852881
122	0x3d6874d2	0.056752034
123	0xbfa89203	-1.3169559
124	0xbf918609	-1.1369029
125	0x3f183105	0.594498
126	0xbf1d6cb5	-0.61494
127	0x3fd4d7b5	1.6628329
128	0x3f6399a7	0.8890633
129	0x3f609763	0.87731
130	0x3ea8e051	0.3298364
131	0x3f9daf0a	1.2319043
132	0xbf6726bf	-0.90293497
133	0xbec9db54	-0.39425147
134	0x3ef9116a	0.48646098
135	0x3cd743e4	0.02627749
136	0xbecaba31	-0.39595178
137	0x3e86da53	0.26338443
138	0xbf882d86	-1.0638893
139	0xbf8ae471	-1.0850965
140	0x3fdc6db9	1.7220985
141	0xbfdd5efc	-1.7294612
142	0xbe1df1b6	-0.15424237
143	0x3fd390b8	1.652854
144	0xbfbd30a5	-1.478047
145	0xbf59c480	-0.8506546
146	0x3ef46ac8	0.47737718
147	0xc00eeaf1	-2.2330897
148	0x3f141340	0.57841873
149	0x3f676be6	0.90399015
150	0x3f6307e7	0.88683933
151	0x3f683b32	0.90715325
152	0xbf3528f3	-0.7076561
153	0x3f08892d	0.53334314
154	0xbf31fc03	-0.69525164
155	0xbe7c7a6a	-0.24656072
156	0xbea074a8	-0.31339002
157	0x3f3fff00	0.74998474
158	0x3d7bcbe4	0.061473742
159	0xbe157d4c	-0.14598578
160	0xbf7f34c9	-0.9968992
161	0x3f572206	0.8403629
162	0xc0349772	-2.8217435
163	0x403d9794	2.9623766
164	0x3e6c3f4a	0.23071018
165	0x3f1b98b8	0.60779905
166	0x3ed6556b	0.41862044
167	0xbe86117a	-0.2618521
168	0x4002429d	2.0353158
169	0xbe0561f5	-0.13025649
170	0xbfd95a07	-1.6980599
171	0x3f9730c8	1.1811762
172	0xbf172e7a	-0.5905529
173	0xbfa852b8	-1.3150244
174	0xbfd84301	-1.6895448
175	0xbfe7320a	-1.8062146
176	0xbcdccc6f	-0.02695295
177	0xbd3c0d10	-0.045910895
178	0x3c62538f	0.013813867
179	0x3f5ae02a	0.854983
180	0x3ecc92ed	0.39955845
181	0xbf0d6465	-0.55231315
182	0xbfa29a90	-1.2703419
183	0x3e1b2dc5	0.15154178
184	0x3f8d295d	1.1028248
185	0xbee836f3	-0.45354423
186	0xbf8e256f	-1.1105174
187	0xbfa85dc1	-1.3153611
188	0xbe9db9c5	-0.30805793
189	0xbfe0ed47	-1.7572411
190	0x3ee19985	0.4406244
191	0x3f9f594e	1.2449129
192	0x3eb4e1a2	0.35328394
193	0xc00c29f9	-2.1900618
194	0x3eb6f0a4	0.3573047
195	0xbd96d477	-0.07364743
196	0xbfc2f767	-1.5231751
197	0xbf46b164	-0.77614427
198	0xc004163f	-2.0638578
199	0x3e5169b0	0.20450473
200	0xbfdf2c22	-1.7435343
201	0x3e88d134	0.2672211
202	0xbf883b89	-1.0643169
203	0x3f74224b	0.95364827
204	0xbea3a334	-0.31960452
205	0xbf4e3b3f	-0.8055915
206	0xbeb887c9	-0.36041096
207	0xbfc6e44c	-1.5538421
208	0x3d031f8a	0.0320125
209	0xbfdbb161	-1.7163507
210	0x3f151f9a	0.58251345
211	0xbf7cf978	-0.9881816
212	0x3f1b9efa	0.60789454
213	0x3dac97de	0.08427404
214	0xbfcc065d	-1.5939442
215	0x3f1ed92e	0.6205014
216	0x3f1d751c	0.6150682
217	0xbeec5c9c	-0.46164405
218	0x3f1947a9	0.5987497
219	0x3ce60509	0.028078573
220	0x3efe28bc	0.49640453
221	0x3eacb97f	0.33735272
222	0x3fbb7f1c	1.4648166
223	0x3f05954c	0.52180934
224	0xc030d66e	-2.7630877
225	0x3f4f7afe	0.81047046
226	0x400ec818	2.2309628
227	0x3f187f77	0.59569496
228	0x3efd614b	0.4948829
229	0x3f137d52	0.576131
230	0xbf952b74	-1.1653886
231	0x3faa6132	1.3310912
232	0xbea0dfa2	-0.31420618
233	0xbea8b72e	-0.32952255
234	0x3d084ce9	0.033276472
235	0xbd24939a	-0.040179826
236	0xbff5bd9b	-1.9198488
237	0x3f2ce765	0.6754058
238	0x3fbf8a50	1.4964085
239	0x3f6d31aa	0.92653906
240	0x40066e25	2.1004727
241	0x3f901850	1.125742
242	0x3ee61a3d	0.44941893
243	0x400d390b	2.2066066
244	0x3e5ff847	0.21872054
245	0xbf4c678d	-0.79845506
246	0xbefb46b7	-0.4907739
247	0xbf4305ef	-0.7618093
248	0xbf654e36	-0.89572465
249	0xbf71e947	-0.9449658
250	0xbf7509f2	-0.957183
251	0x3f52b474	0.823066
252	0x3fad8531	1.3556272
253	0x3eeef388	0.46670175
254	0xbf29a977	-0.6627421
255	0x401e8c47	2.4773118

bias f4 [16]
0	0x3fe3f427	1.7808884
1	0x3ef04107	0.46924612
2	0xbf0a8247	-0.5410504
3	0x3e3e6dc0	0.18596554
4	0x3f877e7c	1.0585475
5	0xc00c2a88	-2.190096
6	0xbf0f3bc7	-0.5595059
7	0x3f944e7c	1.1586452
8	0x3e44ead4	0.19230205
9	0x3f1199dc	0.56875396
10	0x3ecbe01e	0.39819425
11	0x3e7427bc	0.23843282
12	0x3f8da071	1.1064588
13	0xbf29601d	-0.6616228
14	0xbfefdee8	-1.87399
15	0xbdc6d4d3	-0.09708562

weight f4 [16]
0	0x3faa7df7	1.3319691
1	0x3fa7c0b6	1.3105686
2	0x3fd7d17d	1.6860806
3	0x3fcbcd5c	1.5922046
4	0x3fdc53be	1.7213056
5	0x3f892acc	1.0716186
6	0x3f92b3c3	1.1461109
7	0x3fced1c3	1.6157764
8	0x3f5b745f	0.85724443
9	0x3febdb13	1.8426231
10	0x3f8c2830	1.0949764
11	0x3f0ca89a	0.54944766
12	0x3f8e67e4	1.1125455
13	0x3f64d3e3	0.89385813
14	0x3fd3e739	1.6554939
15	0x3fb7ba6d	1.4353768

bias f4 [16]
0	0x3e28ffba	0.16503802
1	0xbd93a83d	-0.07209823
2	0x3f218691	0.6309596
3	0x3f9c85bc	1.2228312
4	0x3e9f1cef	0.31076762
5	0xbf57a8ae	-0.8424176
6	0x3fdfb362	1.7476618
7	0x3f4cca80	0.7999649
8	0xbe125e41	-0.14293768
9	0x3fc5123e	1.5396192
10	0x40384692	2.8793073
11	0x400afa4e	2.1715274
12	0xbe9a1d13	-0.30100307
13	0x3da8f40d	0.08249674
14	0xbf0db44f	-0.55353254
15	0xbee06d7b	-0.43833527

running_mean f4 [16]
0	0xc1052e1b	-8.323756
1	0xc0219c1a	-2.5251527
2	0x40506817	3.2563531
3	0xbefc0f55	-0.49230447
4	0xc00f8ea9	-2.2430823
5	0xbfd279db	-1.6443437
6	0xc013a09c	-2.3066778
7	0xc0480c2f	-3.1257436
8	0xc0f315c3	-7.5964065
9	0x40c31289	6.0960126
10	0x40eec791	7.461861
11	0xc0071605	-2.110719
12	0xc009d97d	-2.1538994
13	0xc1002fb0	-8.011642
14	0x40c8a392	6.269967
15	0x414d6063	12.836032

running_var f4 [16]
0	0x431123db	145.14006
1	0x424c0684	51.006363
2	0x42f808d8	124.01727
3	0x42b88159	92.25263
4	0x42524d17	52.575283
5	0x424208c0	48.508545
6	0x42371835	45.77364
7	0x42924e36	73.152756
8	0x42eced3f	118.46337
9	0x42871864	67.54764
10	0x42787845	62.11745
11	0x42428e4d	48.638966
12	0x4255a7c6	53.41384
13	0x4283ad94	65.83902
14	0x437d5dcb	253.36638
15	0x43be9465	381.15933

weight f4 [16, 16, 3]
0	0xc020b695	-2.511144
1	0xbfb24dc8	-1.3929987
2	0x3fab9707	1.3405465
3	0xbfc71135	-1.5552126
4	0x3f5f90bb	0.87330216
5	0xbe4f2ed9	-0.20232715
6	0xbf9519c1	-1.1648484
7	0x3e9279e3	0.28608617
8	0x3f9f41f5	1.2442003
9	0xbf608d06	-0.87715185
10	0xbf87cf07	-1.0610055
11	0x3ee7c175	0.45264784
12	0xc01b16da	-2.4232697
13	0xbf03c5f7	-0.51473945
14	0x3fe19884	1.7624669
15	0xbfb5a8fc	-1.4192195
16	0x3f419db1	0.75631243
17	0x3eee655b	0.46561703
18	0xbf61b2c6	-0.8816341
19	0xbfb832c8	-1.4390497
20	0x3fcc42f8	1.5957937
21	0xbf0fbb66	-0.5614532
22	0x3ea4f32c	0.32216775
23	0x3f1920a3	0.59815425
24	0xbf46456a	-0.7744967
25	0x3f4bcfc1	0.7961388
26	0xbfd5f5cd	-1.6715637
27	0xbfd47ccb	-1.6600584
28	0x3f2a66e7	0.66563267
29	0x3f6380e3	0.8886854
30	0xbf3540da	-0.7080208
31	0x3d337def	0.04382127
32	0xbe9d9fd6	-0.30786008
33	0xc041ebb0	-3.0300102
34	0x3ed0615b	0.40699276
35	0xbf1fac10	-0.6237192
36	0x3f2f28bb	0.68421525
37	0xbf447c03	-0.76751727
38	0x3e6ac4fd	0.22926708
39	0x3f31d86c	0.6947086
40	0x3e8fbe6d	0.2807497
41	0xbf8d259a	-1.10271
42	0xbf691b49	-0.9105726
43	0x3f2b5a97	0.66935104
44	0x3f3c2b5a	0.7350365
45	0xbfba03a4	-1.4532361
46	0x3ee7612c	0.45191324
47	0x3f250df2	0.64474404
48	0xbf932ac8	-1.1497431
49	0x3f85abe1	1.0443078
50	0x3f87cc54	1.0609231
51	0xbf441dac	-0.76607776
52	0xbfd2e1db	-1.6475176
53	0xc003931a	-2.0558534
54	0xbd8d130b	-0.06888398
55	0x3f08f1a2	0.534937
56	0x3fb64faf	1.4243068
57	0xbfa22875	-1.2668597
58	0xc0107800	-2.2573242
59	0xc0293dbf	-2.6443937
60	0x3e938039	0.28808764
61	0x3e23d386	0.15998659
62	0x3e02d1a6	0.12775287
63	0xbfb824c6	-1.4386222
64	0x3f6e9cf0	0.9320822
65	0xbd339459	-0.043842647
66	0xbee9611a	-0.45581895
67	0xbde1bf80	-0.11022854
68	0x3f06e0ab	0.52686566
69	0xbe86167e	-0.26189035
70	0x3e65e722	0.22451451
71	0x3f541d75	0.8285745
72	0xbfccc65e	-1.5998037
73	0x3f49d013	0.7883312
74	0x3e33ceda	0.17559376
75	0x3dc143f3	0.094367884
76	0xbeccd4ab	-0.40006003
77	0x3f967924	1.1755719
78	0xbe8f1899	-0.27948454
79	0xc02c0e77	-2.6883829
80	0xbfbcaf90	-1.4741077
81	0x3e86ffff	0.26367185
82	0xbfdec1fd	-1.740295
83	0x3fa212c4	1.2661977
84	0xbfb357c7	-1.4011163
85	0x3f05f348	0.5232434
86	0xbfc275d0	-1.5192204
87	0xbc311823	-0.010808977
88	0x3f7b4d7e	0.9816512
89	0x3ece342e	0.40274185
90	0xbf725f10	-0.94676304
91	0xbe00859a	-0.12550965
92	0x3e475a29	0.19467987
93	0xbfd9732f	-1.6988276
94	0xbe363577	-0.17793833
95	0x3d52e811	0.051490847
96	0xbe29ed35	-0.16594394
97	0x3f4637ba	0.7742878
98	0x3ed0a9dd	0.40754595
99	0xbfec3bbc	-1.845573
100	0xbf1fca3b	-0.62417954
101	0x3f072ee2	0.5280591
102	0x4044edcb	3.0770137
103	0x3f4901a1	0.7851811
104	0xbf332e67	-0.6999268
105	0xbfa4f801	-1.2888185
106	0x3cf14d68	0.029455855
107	0x3acb1a9e	0.0015495603
108	0x3fcb3040	1.58741
109	0x3ee09b8f	0.43868682
110	0xbeccbf00	-0.3998947
111	0xbeca39cd	-0.39497223
112	0xbf5a91a8	-0.85378504
113	0x3c896f5e	0.016776737
114	0x400d72fa	2.2101426
115	0xbf126f6b	-0.5720126
116	0xbf8f9b3b	-1.1219248
117	0xbd8e7333	-0.06955566
118	0xbfb582f1	-1.4180585
119	0xbf5fb95e	-0.8739222
120	0xbe33513c	-0.17511457
121	0x3e85d1bc	0.26136577
122	0xbea193b3	-0.31557998
123	0x3ff734f0	1.931303
124	0x3f0bedee	0.54659927
125	0xbf72821a	-0.9472977
126	0xbf15fd3c	-0.5858953
127	0xbf63889e	-0.88880336
128	0xbf3cac09	-0.73700005
129	0xbf843c59	-1.0330917
130	0xbfc4b62b	-1.5368093
131	0x3daedb52	0.08537926
132	0xbeece38b	-0.46267352
133	0x3edb897b	0.42878327
134	0x3ed5e078	0.4177282
135	0xbf13243f	-0.5747718
136	0xbebb8b76	-0.36629838
137	0x3f544541	0.82918173
138	0xbdcbe27a	-0.09955306
139	0xbd895b24	-0.06706837
140	0x3f19a2c0	0.6001396
141	0xbddc9757	-0.10771053
142	0x3c49f841	0.012327255
143	0x3eb65cda	0.35617715
144	0x3e134645	0.14382274
145	0xbf556762	-0.83360875
146	0x3f2c3716	0.67271554
147	0xbff744c5	-1.9317862
148	0xbeb72daf	-0.3577704
149	0xc003db11	-2.0602458
150	0x3f2742a5	0.65336066
151	0xbf91fc10	-1.1405048
152	0xbe8a25b2	-0.26981884
153	0xbeb166ca	-0.34648734
154	0xbc92cfa4	-0.017921276
155	0xbfaccdca	-1.3500302
156	0x3f4c7d57	0.79878753
157	0xbf934d80	-1.1508026
158	0xbd385e83	-0.04501201
159	0xc0243666	-2.5658202
160	0xbe3949d1	-0.18094565
161	0xbf119bd5	-0.56878406
162	0x3e40353e	0.1877031
163	0xbe5fca3f	-0.21854495
164	0xc016367b	-2.3470752
165	0xbf9a7f18	-1.2070036
166	0xbf73405e	-0.9502009
167	0x3f59bf31	0.8505736
168	0xbffd041b	-1.9766878
169	0xbea39fcd	-0.31957856
170	0x3e6e06c7	0.23244773
171	0x3fcc0c24	1.5941205
172	0xbf6c3332	-0.9226562
173	0xbfa0276d	-1.2512032
174	0x3e803575	0.25040784
175	0x3f03e82c	0.5152614
176	0xbf373c7b	-0.7157666
177	0xbfc3af7b	-1.5287927
178	0xbf13e5b7	-0.5777239
179	0xbfb8137e	-1.4380949
180	0x3d50a0ab	0.050934475
181	0x3f61db7b	0.88225526
182	0xbff5b4e4	-1.9195828
183	0xc025e323	-2.5919883
184	0x3f04c059	0.51856
185	0x3f63245d	0.8872736
186	0x3f0b87df	0.545042
187	0xbe44443e	-0.19166657
188	0xbfc0796a	-1.5037053
189	0x3f30492c	0.6886165
190	0x3ed97f81	0.4248009
191	0xbf7e7f18	-0.9941268
192	0x3dc2e19c	0.09515688
193	0xbfedabb0	-1.856802
194	0xc030c8d9	-2.7622588
195	0xbfc31ac2	-1.5242541
196	0x3e612a89	0.21988882
197	0xbe99c83e	-0.30035585
198	0xbeb43546	-0.35196894
199	0xbfcf2002	-1.6181643
200	0xbdf2686c	-0.11836323
201	0xbd833d43	-0.06408169
202	0xbed7360c	-0.42033422
203	0x3ed98194	0.42481673
204	0x3eb951b7	0.36195156
205	0xbf2ec887	-0.6827473
206	0xbffa862a	-1.9572194
207	0xc058d7d5	-3.3881733
208	0xbef0c7ce	-0.4702744
209	0x3f916d5b	1.1361498
210	0x3f97d09a	1.1860535
211	0xbf73b09e	-0.9519137
212	0xbedb0b4e	-0.42782062
213	0xc03cbfed	-2.9492142
214	0xbd239a7a	-0.039942242
215	0xbfd6613b	-1.6748422
216	0xbff5fbd8	-1.9217482
217	0x3f19e7a6	0.6011909
218	0xbe70d810	-0.23519921
219	0x3ed946c0	0.4243679
220	0xbff10fa9	-1.8832904
221	0x3f88095d	1.0627857
222	0xbd6ed13d	-0.058305014
223	0x3f0efa74	0.5585091
224	0xbef69ad2	-0.48164994
225	0xbf9cd190	-1.2251453
226	0x3bffc433	0.007805371
227	0xbfb936b4	-1.4469819
228	0xbeedd8e3	-0.46454534
229	0xc00c7cc4	-2.195115
230	0x3facce75	1.3500506
231	0xbf495ac7	-0.7865414
232	0x3f1f0998	0.62124014
233	0xbfb584f7	-1.4181203
234	0xbc80f680	-0.01574254
235	0xbf5e8b31	-0.8693114
236	0x3f7576fa	0.9588467
237	0x3f2730aa	0.6530863
238	0xbf95d88a	-1.1706707
239	0x3f846261	1.0342523
240	0x3e02712c	0.12738484
241	0xbe184ae6	-0.14872321
242	0x3f6058d2	0.8763553
243	0xbdd78441	-0.10523272
244	0xbfb2c611	-1.3966695
245	0x3f0680a8	0.52540064
246	0xbf61f077	-0.88257545
247	0x3f071415	0.5276502
248	0x3fdad10d	1.7095047
249	0x3eac6214	0.33668578
250	0xbe64142d	-0.22273321
251	0xbfd95815	-1.6980006
252	0xbf72f6fe	-0.9490813
253	0xbf917de3	-1.1366543
254	0x3fba2d10	1.4545002
255	0xbf67decd	-0.9057434

bias f4 [16]
0	0x3fa79f03	1.3095402
1	0xbf5dcbf1	-0.86639315
2	0x3f150a26	0.5821861
3	0xc009f677	-2.155668
4	0x3ee8f108	0.45496392
5	0x3f4888c0	0.78333664
6	0xbf967ba1	-1.1756479
7	0xbee6300c	-0.44958532
8	0x3f45c6c4	0.7725642
9	0xbde0b227	-0.1097148
10	0xbe9bdbb6	-0.30441064
11	0x3ff4fa3f	1.9138869
12	0xbef47285	-0.4774362
13	0xbeac93a0	-0.3370638
14	0xbf0994dc	-0.53742766
15	0x3ee4605d	0.4460477

weight f4 [16]
0	0x3f8d644a	1.1046231
1	0x3fd390d4	1.6528573
2	0x3ff92f5a	1.9467576
3	0x3ff2622c	1.893621
4	0x3fcc45ca	1.5958798
5	0x400f0213	2.2345016
6	0x3f879b4b	1.0594267
7	0x3fafd404	1.3736577
8	0x3fbdeb71	1.4837476
9	0x3fac15fc	1.3444209
10	0x4007cb7f	2.1217954
11	0x3fa0f24a	1.2573941
12	0x3fcba505	1.5909735
13	0x3fb9756d	1.448896
14	0x3fb0d11d	1.3813816
15	0x3fa7ea86	1.3118446

bias f4 [16]
0	0x3c97f8dd	0.018551284
1	0xbd8a9024	-0.06765774
2	0x3f5e104b	0.8674361
3	0x3de4071c	0.111341685
4	0x3f1a9f0f	0.60398954
5	0x3f4453c9	0.76690346
6	0x3fa05e18	1.2528715
7	0xbf950765	-1.1642882
8	0x3cdb64f9	0.026781546
9	0x3e9d68e5	0.3074409
10	0x3ec1eaef	0.37874553
11	0xbf97a805	-1.184815
12	0x3f6fe84a	0.9371382
13	0xbee5b4f3	-0.44864616
14	0xbf986ce3	-1.190823
15	0xbfb727ed	-1.4309059

running_mean f4 [16]
0	0xc1886891	-17.051058
1	0xc1cb6859	-25.425951
2	0xc1132b97	-9.198142
3	0xc1eb6663	-29.424994
4	0xc1cd003c	-25.625114
5	0x4105522f	8.332564
6	0xc1d1884d	-26.191553
7	0x40f76463	7.731004
8	0xc0c47431	-6.1391835
9	0xbff506d1	-1.9142705
10	0xc19144c5	-18.158579
11	0x40e72be4	7.2241077
12	0xc106ac82	-8.417116
13	0x40b92713	5.78602
14	0x41ddef96	27.741985
15	0x41b4f328	22.618729

running_var f4 [16]
0	0x42711d82	60.278816
1	0x43bb5f90	374.74658
2	0x43063606	134.21103
3	0x42996254	76.69205
4	0x4334b994	180.72491
5	0x43014b40	129.29395
6	0x42dbfb80	109.99121
7	0x42a3fcfa	81.994095
8	0x42b04f75	88.15519
9	0x4377d340	247.8252
10	0x42e2c3da	113.38252
11	0x42dc79bf	110.237785
12	0x43d4d652	425.67438
13	0x42bb21f9	93.56635
14	0x430a9fbb	138.62395
15	0x428976c3	68.73196

weight f4 [32, 16, 3]
0	0xbfd87447	-1.6910485
1	0x3e3abec3	0.18236832
2	0xc024eca5	-2.5769436
3	0xbfbdc18d	-1.4824692
4	0x3eddf9c1	0.4335461
5	0x3fa8b328	1.3179674
6	0x3efb65a9	0.49100998
7	0xbf906c6a	-1.1283085
8	0x3fc29ca8	1.5204058
9	0x3f646e67	0.8923096
10	0xbe434c8e	-0.19072172
11	0x3f3b959d	0.73275167
12	0x3d6649ff	0.056222912
13	0xbe523e1e	-0.20531508
14	0xbfcdc13e	-1.6074598
15	0x3b04a81e	0.0020241807
16	0x3f0105cd	0.50399476
17	0x3e4a8898	0.19778669
18	0xc01e9f01	-2.4784548
19	0xbfe140a8	-1.7597857
20	0x4022ce5d	2.5438454
21	0x3e448a79	0.19193448
22	0xbe5ad0ca	-0.21368709
23	0x3e6ba16f	0.23010801
24	0x3f2d4a47	0.67691463
25	0x3d077919	0.033074472
26	0xbfb63efd	-1.4237972
27	0xbde4a141	-0.11163569
28	0xbf96c165	-1.1777769
29	0xc024a297	-2.5724237
30	0xbeb517f8	-0.3536985
31	0xc068eff5	-3.6396458
32	0xbf8a0cf2	-1.07852
33	0xbf83ad17	-1.0287198
34	0xbfb5b5cb	-1.4196104
35	0xbe9954d8	-0.29947543
36	0xbeb7bd25	-0.35886493
37	0xbe9d1684	-0.3068124
38	0xbdef7404	-0.1169205
39	0x3f88e1d2	1.0693915
40	0xbe83c6c4	-0.25737584
41	0x3f6e0b3a	0.9298588
42	0xbf0d63ca	-0.5523039
43	0xbfbeec1d	-1.4915806
44	0xbe86e243	-0.263445
45	0x3f95653d	1.167152
46	0x3e4cc9b5	0.1999882
47	0xbfc952f0	-1.5728436
48	0x3e8ec494	0.27884352
49	0xbf491526	-0.78547895
50	0x3f3cffc9	0.738278
51	0x3e851985	0.25996032
52	0xbf84298e	-1.0325181
53	0x3e6a260d	0.22866078
54	0xbfa3affb	-1.278808
55	0xbf563e8c	-0.8368919
56	0xbe3aaf6c	-0.1823098
57	0xbf1d3f97	-0.61425155
58	0xbe89eb49	-0.2693732
59	0x3f89dc7f	1.0770415
60	0x3f2f8234	0.6855805
61	0xbffb3e0a	-1.9628308
62	0xbfa1094f	-1.2580966
63	0xbf5a8273	-0.853553
64	0x3eee9591	0.46598485
65	0xbdb9f41a	-0.09079762
66	0xbdd35696	-0.10319249
67	0xbf9e92cf	-1.2388552
68	0x3fdd575b	1.7292284
69	0x3f8b65c2	1.0890429
70	0x3ff494e6	1.910794
71	0xbfdd363a	-1.7282174
72	0xbf7a3c46	-0.9774822
73	0x3fb07b4e	1.378763
74	0xbf9926d2	-1.1964972
75	0x3e8f09ae	0.27937073
76	0xbf4e6483	-0.8062212
77	0xbe9f6540	-0.31131935
78	0x4021dcc5	2.5290997
79	0xbf09723c	-0.5368993
80	0xc00326bd	-2.0492394
81	0x3e9bfcbf	0.30466267
82	0xbed5beda	-0.4174717
83	0xbfd696cd	-1.6764771
84	0xbfcb5d5d	-1.5887867
85	0xbf950b3e	-1.1644056
86	0x3c2fa579	0.010720604
87	0xbfd0ee63	-1.632275
88	0x3ffdfae1	1.9842187
89	0xbf1abccc	-0.6044433
90	0x3f5b9b80	0.8578415
91	0x3f2abccf	0.6669435
92	0x3f864b83	1.0491794
93	0xbda08929	-0.07838661
94	0x3f8ca1b2	1.0986845
95	0xbf8a215d	-1.0791432
96	0xbeb596f8	-0.35466743
97	0xbf21f078	-0.6325755
98	0x3f1a0e79	0.60178334
99	0x3ee825db	0.4534138
100	0x3f3df6a8	0.7420449
101	0x3e24bb6f	0.16087125
102	0xbfa18c1d	-1.2620884
103	0xbf38e1c3	-0.72219485
104	0x3f1146bb	0.5674855
105	0xbfdb45b5	-1.7130648
106	0x3ec3d395	0.38247362
107	0x3eed8158	0.46387744
108	0xbf40a36e	-0.75249374
109	0x3eb24079	0.34814814
110	0x3eb7452e	0.35794967
111	0xbfe7716c	-1.8081489
112	0x3eeeb5b5	0.46623006
113	0xbee60bbe	-0.44930834
114	0xbf60adbf	-0.87765115
115	0xbe7679f5	-0.2406996
116	0xbe96b67a	-0.29436094
117	0x3f893cbf	1.0721663
118	0x3f9c9694	1.2233453
119	0xc0018206	-2.023561
120	0xc001206b	-2.0176036
121	0xbf164a21	-0.5870686
122	0xbfab5f38	-1.3388433
123	0xbeca9b40	-0.3957157
124	0x3fd23489	1.6422282
125	0x3f18df52	0.5971576
126	0x40142f5a	2.31539
127	0xbeefd6e7	-0.46843645
128	0xbfc30cf5	-1.5238329
129	0xbf7c21fc	-0.98489356
130	0x3f9c4219	1.2207671
131	0xc01093c6	-2.2590194
132	0xbf89a717	-1.0754117
133	0xbf3121e5	-0.69192344
134	0xbf6a243e	-0.9146155
135	0xbd7f5e08	-0.062345535
136	0xbecbedee	-0.39829963
137	0xbf6b8c3b	-0.9201085
138	0x3fa72408	1.3057871
139	0x3f2501e0	0.64455986
140	0x3e5fa8af	0.21841691
141	0xbf723edf	-0.94627184
142	0xbf821f4e	-1.0165803
143	0xc0055571	-2.08334
144	0x3e4c6a04	0.19962317
145	0x3f689b11	0.9086161
146	0x3f405598	0.75130606
147	0xbe14fc72	-0.14549425
148	0xbece9160	-0.40345287
149	0xbfee6b6f	-1.8626536
150	0xbfb6e07b	-1.4287256
151	0xbeef8a54	-0.46785223
152	0xbef74dc0	-0.48301506
153	0xbfcad4e8	-1.5846224
154	0xbf5b643c	-0.8569982
155	0xbfb04b9b	-1.3773073
156	0xbfd978ab	-1.698995
157	0xbf33034f	-0.69926924
158	0x3ed6bec7	0.41942427
159	0xbed0e943	-0.40802965
160	0xbf8f2bdd	-1.1185261
161	0xbf61d120	-0.88209724
162	0x3ea4be2c	0.3217634
163	0x3cd1feef	0.025634257
164	0xbf6ee2d6	-0.93314874
165	0x3f869958	1.0515547
166	0x3f33dd27	0.70259327
167	0x3f10ff02	0.5663911
168	0x3fa2d21a	1.2720368
169	0x3fb38313	1.4024376
170	0x3ed36201	0.4128571
171	0xc08a636a	-4.3246355
172	0xbfff4ff6	-1.9946277
173	0xbf99933f	-1.1998061
174	0xbc71b110	-0.014751688
175	0xbf5b7040	-0.85718155
176	0xbeb0475f	-0.34429452
177	0x3e57b47a	0.2106494
178	0xbe5ffa9f	-0.21872948
179	0xbfcbe37a	-1.5928795
180	0x3fed428e	1.8535936
181	0x3f427350	0.759572
182	0xbf93964f	-1.1530246
183	0xbd886c0a	-0.06661232
184	0x3db53202	0.08847429
185	0x3d156073	0.036468934
186	0xbf1326ff	-0.5748138
187	0xbfffe7b1	-1.9992582
188	0xbf59e5f8	-0.8511653
189	0xbe960942	-0.29303938
190	0x3f509ce0	0.8148937
191	0x3f8b3083	1.087418
192	0xbead138f	-0.33803985
193	0xbea8bd0b	-0.32956728
194	0xbe8550e5	-0.2603828
195	0xbfec9cb5	-1.8485323
196	0xbf2881ac	-0.65822864
197	0x3d268526	0.040654324
198	0xbf476871	-0.7789374
199	0xbf6e4554	-0.93074536
200	0x3e952cb9	0.29135683
201	0x3fa1ecaa	1.2650349
202	0x3e6ef738	0.23336494
203	0x3f1ffd0e	0.62495506
204	0x4012ba67	2.292627
205	0xbf05afdf	-0.52221483
206	0xc0000289	-2.0001547
207	0x3e911682	0.28337485
208	0x40282d6d	2.6277726
209	0x3f3989b4	0.72475743
210	0xbf9c70cb	-1.2221922
211	0xbf662409	-0.89898735
212	0x3f991f1c	1.1962619
213	0xbf5a14f6	-0.85188234
214	0x3e013b64	0.12620312
215	0xbf96f339	-1.1792976
216	0x3e7d6ffd	0.24749751
217	0x3ec1353f	0.37735936
218	0xbe64ee79	-0.22356595
219	0x3fa31a99	1.2742492
220	0x3c1561aa	0.009117523
221	0xbfb6224f	-1.422922
222	0xbf0f47e6	-0.55969083
223	0xbe4b19b7	-0.19834028
224	0x3fcb3313	1.5874962
225	0x3ee9e653	0.45683536
226	0x3ddce9a8	0.10786754
227	0x3f00f808	0.50378466
228	0xbf89c0cc	-1.0761962
229	0x3f297e41	0.66208273
230	0xbe59209b	-0.21203844
231	0x3e64fd11	0.22362162
232	0x3fc38094	1.5273614
233	0xbe254a7a	-0.16141692
234	0xbf4bd3d0	-0.79620075
235	0xbf848ff1	-1.0356427
236	0xc02936c5	-2.6439679
237	0x3f040257	0.5156607
238	0xbf513337	-0.8171877
239	0x3e9da211	0.3078771
240	0xbfc194fe	-1.5123594
241	0x3e96ff8b	0.2949184
242	0x3ebf26d6	0.37334317
243	0x3f1b0a47	0.60562557
244	0x3f4201de	0.757841
245	0x3f8a4145	1.0801169
246	0xbfa93aa3	-1.322102
247	0x3f23f1a8	0.64040613
248	0x3df1788c	0.117905706
249	0x3d5c03c5	0.053714532
250	0xbe117c7e	-0.14207646
251	0xbf2068a8	-0.6265969
252	0xbfc5f691	-1.5465871
253	0x3f2e5e56	0.68112695
254	0x3e656721	0.22402622
255	0x3f3f4370	0.74712276

bias f4 [32]
0	0x3aad970e	0.001324387
1	0x3f8134c5	1.0094229
2	0xbf5a37fa	-0.85241663
3	0xbedbe2d1	-0.42946485
4	0x3e61155a	0.21980801
5	0xbfa7e80b	-1.3117689
6	0x3f8b0b3e	1.0862806
7	0x3f2ba145	0.6704295
8	0xbe8725dd	-0.26396075
9	0x3f763154	0.9616902
10	0xbf7711d7	-0.96511596
11	0xbf8663a4	-1.0499158
12	0xbdcbe205	-0.09955219
13	0xbf3dcf48	-0.7414441
14	0x3eecebc8	0.46273637
15	0xbf13994f	-0.57655805
16	0xbf175607	-0.5911564
17	0x3fae0d45	1.35978
18	0x3f1b0ae1	0.60563475
19	0xbe3aaaa0	-0.18229151
20	0xbf6cf83d	-0.9256628
21	0x3f92a87a	1.1457665
22	0x3fbd6c01	1.4798585
23	0x3dce3e94	0.100705296
24	0xbe7281aa	-0.23682275
25	0xbf1326a1	-0.5748082
26	0x3edadb2a	0.42745334
27	0xbea533be	-0.3226604
28	0xbfc629dd	-1.5481526
29	0xbf417ac1	-0.7557793
30	0xbd2d5c1f	-0.04232418
31	0xbf046f28	-0.5173211

weight f4 [32]
0	0x3fa7d4df	1.3111838
1	0x3fa5f64c	1.2965789
2	0x3fa212f5	1.2662035
3	0x3f91d0aa	1.1391804
4	0x3fe02816	1.7512233
5	0x3f94adde	1.161556
6	0x3f30468a	0.68857634
7	0x3f644180	0.89162445
8	0x3f97982d	1.1843315
9	0x3fc1777a	1.5114586
10	0x3f5f5575	0.8723977
11	0x3ff20b80	1.890976
12	0x3fd7c8c6	1.6858146
13	0x3f2b316b	0.6687228
14	0x3fbcd85a	1.4753525
15	0x3f62a0f8	0.8852687
16	0x3fed143b	1.8521799
17	0x3fbef6be	1.491905
18	0x3fcb903b	1.5903391
19	0x3fafa3b1	1.372183
20	0x3fbbd6f9	1.467498
21	0x3fc91da6	1.5712173
22	0x3fee4ef2	1.8617842
23	0x40163038	2.346693
24	0x3f44f74d	0.7693985
25	0x3ff596fc	1.9186702
26	0x3fd02895	1.6262385
27	0x3f68156f	0.90657705
28	0x401b12ec	2.42303
29	0x3f8d67b4	1.1047273
30	0x3fb9b8a9	1.4509479
31	0x400c15d5	2.1888325

bias f4 [32]
0	0x3dfde9a1	0.12398077
1	0x3edb7c86	0.4286844
2	0xbe4f7f8a	-0.20263496
3	0x3ebf4542	0.37357527
4	0xbec29c0e	-0.38009685
5	0xc000055a	-2.0003266
6	0xbf0282f0	-0.50981045
7	0xbf8cc2d8	-1.0996962
8	0x3f3240f5	0.69630367
9	0xbdcb8aa7	-0.09938555
10	0xbf6c50c6	-0.9231075
11	0x3b5d7e0f	0.003379706
12	0xbc4c79ef	-0.012480243
13	0xbe23ce23	-0.15996604
14	0xbebf1e7c	-0.37327945
15	0x400f7f93	2.2421615
16	0xbdc65657	-0.09684437
17	0xbe6c16ff	-0.23055647
18	0x3eff7376	0.49892777
19	0xbd4751bf	-0.048661944
20	0xbd716a48	-0.05893925
21	0x3f0a9f81	0.54149634
22	0x3fb25fd0	1.393549
23	0xbf4e7475	-0.8064645
24	0xbebcb753	-0.36858615
25	0xbf09378e	-0.53600395
26	0x3e9e5bb3	0.30929336
27	0xbfc8e2e0	-1.5694237
28	0xbf9ecc44	-1.2406087
29	0xbfef106c	-1.8676887
30	0x3e668f00	0.22515488
31	0xbf861e01	-1.0477906

running_mean f4 [32]
0	0xc12f3eb6	-10.95281
1	0xc10275c9	-8.153756
2	0xc1347023	-11.277377
3	0xc1692112	-14.570574
4	0x3f977b84	1.1834569
5	0x40e2bc0b	7.0854545
6	0x40da08c5	6.8135705
7	0xc07c427e	-3.9415584
8	0xc13b2587	-11.696662
9	0x412530fc	10.324459
10	0x3f12ecf1	0.57392794
11	0xc1141bb0	-9.25676
12	0x406f02ac	3.734538
13	0x408e856f	4.4537883
14	0x40f1773a	7.545804
15	0xc0e25fb5	-7.074183
16	0xc1384707	-11.517341
17	0x3e3fd70a	0.18734375
18	0x3f90b0bf	1.1303939
19	0x407328d5	3.7993672
20	0xc0b61e85	-5.6912255
21	0xc107772b	-8.466594
22	0xc18991e1	-17.19623
23	0xc016b00f	-2.3544958
24	0xc0ed7dc7	-7.4216037
25	0xc094ee53	-4.6540923
26	0xc1364677	-11.392203
27	0x415c2518	13.759056
28	0x40938eef	4.611198
29	0x4087a4d1	4.238869
30	0xc0acbf62	-5.398362
31	0x4095d961	4.6827855

running_var f4 [32]
0	0x431b8d24	155.55133
1	0x428f8b63	71.77224
2	0x43241105	164.06648
3	0x4334bfb4	180.74884
4	0x42cb454c	101.635345
5	0x426003cb	56.003704
6	0x42d88194	108.25308
7	0x426b9079	58.891087
8	0x431ff0f2	159.9412
9	0x432dd62f	173.83665
10	0x42fc2c8d	126.08701
11	0x434858be	200.34665
12	0x431859e8	152.3512
13	0x4299a960	76.83081
14	0x43236de0	163.4292
15	0x433d56cf	189.3391
16	0x42990326	76.50615
17	0x434a95ae	202.58469
18	0x43270aec	167.04266
19	0x42bbf389	93.975655
20	0x43034ff5	131.31233
21	0x42cd2683	102.57522
22	0x432caa34	172.66486
23	0x42a2ff3b	81.4985
24	0x42ca64e3	101.197044
25	0x434021bd	192.13179
26	0x432c9f67	172.62267
27	0x42e566c3	114.70071
28	0x4300e26a	128.88443
29	0x424609ee	49.509697
30	0x436c7035	236.43831
31	0x42cb075b	101.514366

weight f4 [32, 32, 3]
0	0x401467a2	2.3188252
1	0x3ef6392f	0.48090503
2	0x3fb65659	1.4245101
3	0xbff7cbab	-1.935903
4	0x3ed4b75e	0.41546148
5	0xbef092e3	-0.46987066
6	0xbf0ea065	-0.5571349
7	0x3f2e7e15	0.68161136
8	0x3b76014a	0.003753739
9	0x3fdc5c9e	1.7215765
10	0x3d3505f5	0.044195134
11	0x3e54a6ed	0.20766802
12	0x3fb44a32	1.4085143
13	0x3fd5a0b8	1.6689672
14	0xbe5cb32d	-0.21552725
15	0xbf283291	-0.6570216
16	0x3f78a486	0.9712604
17	0x3fcf74de	1.620754
18	0xbf71e5b8	-0.9449115
19	0x3eaa3418	0.3324287
20	0x3f0d717f	0.55251306
21	0x3fba3860	1.4548454
22	0x3f988bf7	1.1917714
23	0xbeb1d7b5	-0.34734884
24	0xc007f066	-2.1240478
25	0xbf8570e1	-1.0425073
26	0xbfa9b271	-1.3257581
27	0xbea3fd5e	-0.3202924
28	0x3f0ded06	0.55439794
29	0xbe7caf95	-0.24676354
30	0x3f9243b1	1.1426908
31	0x3efef79d	0.4979829
32	0x3cd646df	0.02615684
33	0xc02216e2	-2.5326467
34	0xbf123d1b	-0.5712449
35	0xbea4339b	-0.32070622
36	0x3ecb5222	0.397111
37	0xbe4bd041	-0.19903661
38	0xbf847673	-1.0348648
39	0x3fa57ab9	1.2928077
40	0x3f2f1a67	0.6839966
41	0xbf0b10f8	-0.5432277
42	0x3fad57bf	1.3542403
43	0x3f9f5c70	1.2450085
44	0x3e3a6712	0.1820338
45	0xc024418a	-2.5665002
46	0xbf8cef86	-1.1010597
47	0xbffafbc6	-1.9608085
48	0x3fdc4071	1.7207166
49	0xbd92b336	-0.07163088
50	0xbf7aaf35	-0.97923595
51	0xbef6942a	-0.48159915
52	0x3f7b8cfd	0.98262006
53	0xbecd60b6	-0.40112847
54	0xc04391fa	-3.0557847
55	0xbeb9bdf3	-0.36277732
56	0xbf725b85	-0.946709
57	0xbf908c86	-1.1292884
58	0xc025aa39	-2.5885146
59	0xc018dbe9	-2.3884223
60	0xbf09aafb	-0.5377652
61	0x3d852588	0.06501299
62	0xbf026223	-0.50930995
63	0xbf9683c0	-1.1758957
64	0x3ef47464	0.4774505
65	0xbef4c909	-0.47809628
66	0x3e20590b	0.15658967
67	0xbf59397a	-0.8485333
68	0xc00b2506	-2.1741347
69	0xbe6e7da5	-0.23290117
70	0x3fb9e5cd	1.4523255
71	0xbf827577	-1.0192097
72	0xbe872349	-0.26394108
73	0x3daf74cb	0.08567198
74	0xbf818a38	-1.0120306
75	0xc033eefd	-2.8114617
76	0xbe7f01bc	-0.24903005
77	0xbe975695	-0.29558244
78	0xbe44e0d7	-0.19226395
79	0x3f8b7fca	1.0898373
80	0xbec5c14a	-0.3862403
81	0xbe02a009	-0.12756361
82	0xbec59544	-0.38590443
83	0x3e95fd17	0.29294655
84	0xbf4aa67b	-0.7916028
85	0xbf0384c1	-0.5137444
86	0xbfe65076	-1.7993305
87	0xbf895bdd	-1.073116
88	0xbebcea54	-0.36897528
89	0x3da09446	0.07840781
90	0xbf1e03c2	-0.61724484
91	0x3f801d15	1.0008875
92	0xbec28729	-0.37993744
93	0xbe06e3aa	-0.13172784
94	0xbec5ab6b	-0.38607344
95	0xbfd128fe	-1.6340635
96	0x3e680ccb	0.2266113
97	0x3e616d2c	0.22014302
98	0x3f61b353	0.8816425
99	0x3e8e463e	0.27787966
100	0xbf77b400	-0.96759033
101	0xbfc8fbbb	-1.5701822
102	0x3e2dbb60	0.16966009
103	0xc02e2e57	-2.7215784
104	0xbfe19ff7	-1.7626942
105	0xbf83c00f	-1.0292987
106	0x3f8b4e60	1.0883293
107	0xbf3eef23	-0.74583644
108	0x3f873821	1.0564004
109	0xbee43fa2	-0.44579798
110	0xbe5ff8a8	-0.21872199
111	0xbdc3db01	-0.09563256
112	0xbf91cc0e	-1.1390398
113	0x3f7b408d	0.9814537
114	0xbd8d7fe6	-0.0690916
115	0xbf528158	-0.8222861
116	0xbf9ba673	-1.2160171
117	0xbf0b6a94	-0.544595
118	0xbe5bdc8d	-0.21470852
119	0xbd951edc	-0.072812766
120	0x3f759953	0.9593708
121	0xbeda46d9	-0.42632177
122	0xbf80f1a2	-1.007374
123	0x3f0d5c04	0.5521853
124	0x3e1cfe70	0.15331435
125	0xbf9c86ce	-1.2228639
126	0xbfeb8e51	-1.8402807
127	0x3ef8f4a9	0.4862416
128	0x3fa5b4fa	1.2945855
129	0xbe8e5cdc	-0.2780522
130	0xbf508d1c	-0.81465316
131	0xbff8469d	-1.939655
132	0xc04e1133	-3.2197998
133	0xbf0077b0	-0.5018263
134	0x3fb67222	1.425358
135	0x3e0769ae	0.13223907
136	0x3ebf97f6	0.37420624
137	0x3ea090d7	0.31360504
138	0xc0313f1b	-2.7694767
139	0xbe885868	-0.2662995
140	0x3f651d76	0.8949808
141	0xbf997c5d	-1.1991078
142	0xbf8581d7	-1.0430249
143	0xbf6556fe	-0.89585865
144	0x3dbb75c8	0.09153324
145	0x3f3f4bef	0.7472524
146	0x3f8658f4	1.0495896
147	0x3e8dfa2e	0.27729934
148	0xc01c4d85	-2.4422314
149	0x3f577504	0.84162927
150	0x3e8381c3	0.25684938
151	0xbeb8a694	-0.3606459
152	0xbf726c77	-0.94696754
153	0xbf47b36d	-0.78008157
154	0xbed2506a	-0.41076976
155	0xc003fec5	-2.062425
156	0x3fb37cab	1.4022421
157	0x3eb7ef0e	0.35924572
158	0xbf87ca22	-1.0608561
159	0x3fa204f6	1.2657764
160	0xbd703717	-0.058646288
161	0xbf9af2c8	-1.2105341
162	0x3f1ea883	0.6197588
163	0xbe694fe0	-0.22784376
164	0xbfdf396f	-1.7439402
165	0xbf5ac7c0	-0.85461044
166	0xbec138ba	-0.3773859
167	0xbff4fc20	-1.9139442
168	0x3fb85a1e	1.4402502
169	0x3f8b46ad	1.0880944
170	0xbecf495e	-0.40485662
171	0x3e93f767	0.2889969
172	0xbf7f5087	-0.9973225
173	0xbf347662	-0.7049314
174	0x3fa43932	1.2829955
175	0xbf305ae6	-0.688887
176	0xbfb75b42	-1.4324725
177	0xbedd3579	-0.4320486
178	0x3f43b659	0.76450115
179	0x3ed63f22	0.41845042
180	0xc045b6b8	-3.0892773
181	0xc04e9dff	-3.2283933
182	0xbeb4ada3	-0.35288724
183	0xbf41a857	-0.7564749
184	0x3f567185	0.8376697
185	0xbec206c0	-0.37895775
186	0xbee9e61c	-0.45683372
187	0xbf938c01	-1.1527101
188	0xc01bf56c	-2.4368544
189	0xbf5ca4d1	-0.8618899
190	0xbfea7e46	-1.8319786
191	0x3f1748d2	0.5909549
192	0xbf28012e	-0.656268
193	0x3fb53b2b	1.4158682
194	0x3f29aaa7	0.6627602
195	0xbe036ed9	-0.12835254
196	0xbe6a21b6	-0.22864422
197	0xbf5b39cc	-0.85635066
198	0xbee85aef	-0.45381877
199	0xbf4bfbe0	-0.79681206
200	0xbf95c306	-1.1700141
201	0x3e34920c	0.17633837
202	0x3f2f213a	0.68410075
203	0x3f58b683	0.8465349
204	0x3e548194	0.20752555
205	0x3ee657e6	0.44988936
206	0x3f390935	0.72279674
207	0x3f9433ea	1.1578343
208	0xbdde6145	-0.108583964
209	0xbfe9d0d6	-1.8266857
210	0x3f709066	0.93970335
211	0x3f8146fa	1.0099785
212	0xbf47c2f8	-0.78031874
213	0x3eb7db88	0.35909677
214	0x3fa2abdd	1.2708699
215	0xbe97809e	-0.29590315
216	0xbfe62b5d	-1.7981983
217	0x3f89d0d9	1.076686
218	0x3e9dd051	0.30822995
219	0xbf2a6378	-0.6655803
220	0x3f2605bc	0.648525
221	0x3f98f804	1.1950688
222	0x3f3e156b	0.7425143
223	0xbfb1e29d	-1.3897282
224	0x3f3bbd82	0.7333604
225	0x3f7ae328	0.9800286
226	0x3faf2ebf	1.3686141
227	0x3f205a5e	0.6263789
228	0x3fddc92f	1.7327021
229	0xbf7ffcaf	-0.9999494
230	0x3f557ff6	0.8339838
231	0x3e006f5a	0.12542477
232	0xbeb805f5	-0.35942045
233	0x3fb4c3e4	1.4122281
234	0x3f99906a	1.1997197
235	0xbf331fca	-0.6997038
236	0x3fc0d28f	1.5064257
237	0x3e9cf631	0.3065658
238	0x3f5598a8	0.8343606
239	0x3f7e220c	0.992707
240	0x3f21365d	0.62973577
241	0xbe85b846	-0.26117152
242	0x3f212d3a	0.62959635
243	0x3f96adcc	1.1771789
244	0xbdd3d513	-0.10343375
245	0xbecb96a0	-0.39763355
246	0x3ea79cfb	0.32736954
247	0x3eada7b0	0.33916998
248	0xbe26da88	-0.162943
249	0xbf954a60	-1.1663322
250	0xbee460a0	-0.4460497
251	0xbfb48229	-1.4102222
252	0x3f1f2412	0.62164414
253	0xbe5143b3	-0.20435981
254	0xbf207da8	-0.62691736
255	0x3eda4250	0.42628717

bias f4 [32]
0	0xbf8bcc80	-1.0921783
1	0xbdc958a5	-0.09831361
2	0xbf510075	-0.8164132
3	0x3f41bf50	0.75682545
4	0xbf7eec63	-0.9957945
5	0xbeec4b3d	-0.46151152
6	0xbf9ddb17	-1.2332486
7	0xbf844a82	-1.0335238
8	0xbf0b2034	-0.54346013
9	0xbe845a50	-0.25850153
10	0xbf0842dd	-0.53227025
11	0xbf3e1bcc	-0.74261165
12	0xbf570ec3	-0.840069
13	0x3f0e33a1	0.5554753
14	0x3fe9e84e	1.8274019
15	0xbd2b06b6	-0.041754447
16	0x3ed8b8c3	0.42328462
17	0x3e9e85f7	0.30961582
18	0xbda76001	-0.08172608
19	0x3f38c1ca	0.721707
20	0xbf7579a2	-0.9588872
21	0xbf6aa687	-0.9166035
22	0xbdb7e895	-0.089799084
23	0x3e5e5dd6	0.21715483
24	0x3e0a5719	0.13509788
25	0x3f4340e0	0.76270866
26	0x3ca683bf	0.020326493
27	0x3df25d3b	0.118341886
28	0x3f1f2037	0.6215853
29	0xbf9f40da	-1.2441666
30	0xbf5e9678	-0.8694835
31	0xbf908abe	-1.1292341

weight f4 [32]
0	0x3fa8ccca	1.3187497
1	0x3f906e78	1.1283712
2	0x3fa7e01e	1.311527
3	0x3f98156f	1.1881541
4	0x3ff1617f	1.8857878
5	0x4011bf98	2.277319
6	0x3f9e530d	1.2369095
7	0x3ffd8a26	1.9807785
8	0x3fd89691	1.6920949
9	0x40081a60	2.1266098
10	0x3f882399	1.0635864
11	0x3fbbf2b9	1.4683448
12	0x3fc3ebdd	1.5306355
13	0x3fd079f9	1.6287223
14	0x3fb3c8e9	1.4045688
15	0x3fafc16b	1.3730901
16	0x3fabd03e	1.3422925
17	0x3ff9e198	1.9521971
18	0x3f9570fb	1.1675104
19	0x3f8cd1de	1.1001546
20	0x3f83cb14	1.029635
21	0x3fe91944	1.8210835
22	0x4002b45c	2.0422583
23	0x3f404bdf	0.7511577
24	0x3f816ae2	1.0110743
25	0x4009328a	2.1437097
26	0x4001571f	2.0209424
27	0x40023e01	2.0350344
28	0x3f330683	0.6993181
29	0x3fa67533	1.3004516
30	0x3ff7989c	1.9343448
31	0x3ffb4245	1.9629599

bias f4 [32]
0	0x3f9a1509	1.203767
1	0x3c334db0	0.010943815
2	0xc0067adb	-2.1012485
3	0x3f7bfcd3	0.98432654
4	0x3f43ddf8	0.7651057
5	0xbf4443e0	-0.7666607
6	0xbfb55ebf	-1.4169539
7	0x3f9ccc9c	1.2249942
8	0xbf205055	-0.62622577
9	0xbec36d70	-0.38169432
10	0x3fc7a3bb	1.5596842
11	0xbf346384	-0.7046435
12	0x3ea636b9	0.32463625
13	0xbf09ffb1	-0.5390578
14	0x3f4bdee6	0.7963699
15	0xbfbc4eb4	-1.4711518
16	0xbf47ddca	-0.780728
17	0xbf62456e	-0.8838719
18	0xbfa4781d	-1.2849156
19	0xbf1a62d6	-0.6030706
20	0xbeb4b527	-0.35294458
21	0xbf7ff7ee	-0.99987686
22	0xbd91290d	-0.07087908
23	0xc0142a23	-2.3150718
24	0xbfb19d53	-1.3876137
25	0xbeefa281	-0.46803668
26	0x3f953b85	1.1658789
27	0xbe0bca21	-0.13651325
28	0xbe8d240a	-0.27566558
29	0xbf94bb26	-1.1619613
30	0xbef4d948	-0.47822022
31	0xbe2ba0ec	-0.16760606

running_mean f4 [32]
0	0xc20feb67	-35.979885
1	0xc2068da1	-33.63831
2	0x41bfd906	23.980968
3	0xc1973df0	-18.905243
4	0x404f14df	3.2356489
5	0xc1a7ff23	-20.999578
6	0x419b7aed	19.435022
7	0xc196f50c	-18.869652
8	0xc20732b6	-33.799522
9	0xc0a2c425	-5.0864434
10	0xc15a0599	-13.626367
11	0x3f65e826	0.89807355
12	0xc1c19e9a	-24.202442
13	0xc173728f	-15.215468
14	0xc0229719	-2.5404723
15	0x41d9db1c	27.231987
16	0x403afb1d	2.9215767
17	0xc1ac205e	-21.515804
18	0x40df0988	6.9699135
19	0xc0bad2e3	-5.838243
20	0xc151f7df	-13.123015
21	0xc01cfb49	-2.4528372
22	0x40daf5d1	6.842507
23	0xc040fd3c	-3.0154562
24	0xbf579842	-0.842167
25	0x3e33bd1c	0.17552608
26	0xc16b02d3	-14.6881895
27	0xc14e0974	-12.877308
28	0x41971157	18.883467
29	0x3f7728ae	0.9654645
30	0xc21d2401	-39.28516
31	0x410f89d2	8.971148

running_var f4 [32]
0	0x438f90ab	287.13022
1	0x446206dc	904.1072
2	0x435ef620	222.96143
3	0x432c7f2d	172.49678
4	0x440f775c	573.865
5	0x4394e4f9	297.78885
6	0x4343a8a5	195.65877
7	0x43a7a76e	335.30804
8	0x43c5d93b	395.6971
9	0x437130a9	241.19008
10	0x43bf7c3e	382.97064
11	0x43a494ea	329.1634
12	0x443eff50	763.98926
13	0x4448c72c	803.11206
14	0x44062d14	536.70435
15	0x43334a84	179.29108
16	0x4394d43a	297.65802
17	0x43add4d7	347.6628
18	0x434ae476	202.89243
19	0x43e4190a	456.19562
20	0x43ac1b74	344.21448
21	0x43b9c994	371.57483
22	0x4371fcfe	241.98825
23	0x43336ace	179.4172
24	0x4396a478	301.2849
25	0x43768bd6	246.54623
26	0x4443e7ab	783.6198
27	0x439c410a	312.50812
28	0x43d938ae	434.4428
29	0x4336c25e	182.75925
30	0x43db1f6d	438.2455
31	0x43a2ae44	325.36145

weight f4 [64, 32, 3]
0	0xc00e7af6	-2.226255
1	0xbf423b10	-0.7587137
2	0xbf9e3531	-1.2359983
3	0x40246297	2.5685174
4	0xbe363b84	-0.17796141
5	0x3f3efa23	0.7460043
6	0x3f891df3	1.0712265
7	0x3fa7bb33	1.3104004
8	0xc0209613	-2.5091598
9	0xbff1a499	-1.8878356
10	0xbfe1dc80	-1.7645416
11	0xbf11298e	-0.5670403
12	0xbfad6bca	-1.354852
13	0xc011ddb4	-2.2791567
14	0xbfa83ad6	-1.3142955
15	0x3fab397f	1.3376921
16	0xbf60e10b	-0.8784339
17	0xc013c031	-2.3086054
18	0x3e28dec1	0.16491224
19	0x3f354f09	0.70823723
20	0xbe2b036d	-0.16700526
21	0xc0798157	-3.8985193
22	0x3d3cdb4a	0.046107568
23	0xbfd6e1a6	-1.6787612
24	0xc00d1687	-2.2045
25	0xbd8eb0c0	-0.06967306
26	0x3f35d871	0.7103339
27	0x3fa61b62	1.2977107
28	0xc000f601	-2.015015
29	0xbdd235f6	-0.102641985
30	0x3e354395	0.17701562
31	0x3f80a5fd	1.0050656
32	0x3fb2f0b5	1.3979708
33	0x3f8f31a0	1.1187019
34	0xbdea7965	-0.114489354
35	0xbdebe030	-0.1151737
36	0x3e8526ce	0.26006168
37	0xbf6ab44e	-0.91681373
38	0x3ed50840	0.41607857
39	0xbe392bef	-0.18083166
40	0x3f8389da	1.0276444
41	0x4015067d	2.328521
42	0xbf53caa8	-0.82731104
43	0x3d2685a6	0.0406548
44	0x3e9f065b	0.31059536
45	0x3f772a9c	0.9654939
46	0x3fa33ac2	1.2752306
47	0xbe195ea9	-0.14977516
48	0x3f0be8e6	0.5465225
49	0xbf7aa582	-0.97908795
50	0xbd517d79	-0.05114505
51	0xbe49c6e5	-0.19704778
52	0xbfac07b1	-1.3439847
53	0x3f88a2af	1.0674647
54	0x3deb121e	0.11478065
55	0x3eec0a10	0.46101427
56	0x3fd1bff7	1.6386708
57	0x3f2e68e5	0.68128806
58	0x3df0017a	0.11719032
59	0xbfe4cb89	-1.7874614
60	0xbf7413a6	-0.9534248
61	0xbf626a0a	-0.8844305
62	0x3ca74fe5	0.020423839
63	0xbf72c89c	-0.94837356
64	0xbf19b315	-0.6003888
65	0xbf1e4f4a	-0.61839736
66	0xbf3e26be	-0.74277866
67	0xbd3e5703	-0.0464697
68	0xbfcf91af	-1.6216334
69	0x3ee493d9	0.4464405
70	0xbfaac40f	-1.3341082
71	0x3ef770c2	0.48328215
72	0x3f075df8	0.5287776
73	0xbe1aafc5	-0.15106113
74	0xbfb0358f	-1.3766345
75	0x3fe11e5a	1.7587388
76	0x3f631188	0.88698626
77	0x3eec3401	0.46133426
78	0xbfdbfbc2	-1.7186205
79	0x3df69c41	0.12041522
80	0x400c3e0d	2.1912873
81	0xbe8f29b1	-0.27961496
82	0xbe309441	-0.17244054
83	0xbff19c7c	-1.887588
84	0x3fcc1245	1.5943075
85	0xbf4cd488	-0.80011797
86	0xbfd78fdc	-1.6840777
87	0x3ed71fde	0.420165
88	0x3e4a440f	0.19752525
89	0xbdab483b	-0.08363386
90	0xc02e082d	-2.719249
91	0xbee4d6ef	-0.4469523
92	0x3fb2ae0c	1.3959365
93	0xbfc4b401	-1.5367433
94	0x3e48137d	0.19538684
95	0xbf7b8008	-0.98242235
96	0xbfcf5813	-1.6198753
97	0x3e87d5f1	0.26530412
98	0x3e065582	0.13118556
99	0x3f905319	1.1275359
100	0xbf37fdc7	-0.7187161
101	0x3dcdca7f	0.10048389
102	0x3e2ece11	0.17070796
103	0xbe95f759	-0.29290274
104	0xbeedff7b	-0.4648398
105	0xbf1e3750	-0.6180315
106	0x3e97fe17	0.29686043
107	0x3ed4a4f8	0.4153211
108	0xbfd0cec8	-1.6313105
109	0xbf187b24	-0.595629
110	0x3e349d87	0.17638217
111	0x3faeabec	1.3646216
112	0x3e247905	0.1606179
113	0x405a62f0	3.4122887
114	0x3ea93d4c	0.33054578
115	0x3e8c6e33	0.27427825
116	0xbe525840	-0.20541477
117	0x3f137935	0.5760682
118	0x3f152def	0.58273214
119	0xbfe8a921	-1.8176614
120	0xbfa9a8d2	-1.3254645
121	0x3e939db5	0.28831258
122	0xbf0b9fbc	-0.5454061
123	0xbf6cbc56	-0.9247488
124	0x3f15e8cc	0.58558345
125	0xbf74f519	-0.9568649
126	0x3ebff4cb	0.3749145
127	0xbdceed3f	-0.10103845
128	0x3fa1530f	1.2603472
129	0x403711b3	2.8604553
130	0xbfa2dce0	-1.2723656
131	0xc013b661	-2.3080065
132	0x3f9b98dd	1.2156025
133	0xbe9f21e1	-0.31080535
134	0xbf072c56	-0.52802026
135	0xbf174a99	-0.590982
136	0xbfa88fb8	-1.316886
137	0xbf44d039	-0.7688022
138	0x3eaf0a4b	0.3418754
139	0xbe2f6f4c	-0.171323
140	0xbdb4823c	-0.08813903
141	0xbf185934	-0.59511113
142	0x3fa35713	1.2760948
143	0xbea8470d	-0.32866707
144	0x403592df	2.8370893
145	0xc00913c4	-2.1418314
146	0xc0136ddb	-2.30358
147	0xbf5496a3	-0.83042353
148	0x3f2754bf	0.6536369
149	0x3f6656ca	0.8997618
150	0x3f416c0e	0.75555503
151	0xbf080d49	-0.5314527
152	0x3e25bbb5	0.16184886
153	0x3f8e5830	1.1120663
154	0xbf70fe72	-0.9413825
155	0xbec023d8	-0.37527347
156	0xbea1b0f7	-0.31580326
157	0x3f26c089	0.65137535
158	0xbeb665bd	-0.35624495
159	0x3e38b065	0.18036039
160	0x3f3c5d41	0.73579794
161	0x3d790a88	0.06080106
162	0xbf7aa957	-0.9791464
163	0x3de8f125	0.1137412
164	0xbf839fcd	-1.0283142
165	0xbf9cc804	-1.224854
166	0x3f1c97be	0.6116904
167	0xbf5b9f27	-0.8578972
168	0x3eb9cdfc	0.36289966
169	0x3fa8a06f	1.317396
170	0xbf111328	-0.56669855
171	0x3fc96eb4	1.5736909
172	0x3f92b136	1.146033
173	0xbf0be0b7	-0.5463976
174	0x3df8e032	0.12152137
175	0x3d88b3aa	0.06674893
176	0x3fabeaa0	1.3430977
177	0xbddf3283	-0.10898306
178	0xbf785f51	-0.9702044
179	0xbf45588c	-0.77088237
180	0xbf80d041	-1.0063554
181	0xbef93de4	-0.4868003
182	0xbf85b29e	-1.0445135
183	0x3f64d357	0.8938498
184	0x3f492327	0.78569263
185	0x3f5b7392	0.8572322
186	0x3f5d9f46	0.86571157
187	0xc00d3cef	-2.206844
188	0x3fbfefe0	1.4995079
189	0xbec5a4d0	-0.38602304
190	0xbec4cd85	-0.3843805
191	0xbf3a5a03	-0.72793597
192	0x402ad26a	2.6690927
193	0x3f8613e0	1.0474815
194	0xbe0a41ed	-0.13501711
195	0xbe903b7f	-0.28170392
196	0xbdd8a63f	-0.10578584
197	0xbf93c03f	-1.1543044
198	0xbe9496af	-0.29021212
199	0x3e4adc34	0.19810563
200	0xbf7e856d	-0.9942234
201	0xbcd179a5	-0.0255707
202	0xbfb9d8d9	-1.4519302
203	0x3e94206e	0.28930992
204	0xbeaf3f57	-0.34228012
205	0xbddd19fd	-0.107959725
206	0xbf867bb5	-1.0506502
207	0xbea859ba	-0.32880956
208	0xbf599bd0	-0.85003376
209	0xbda6f25e	-0.081516966
210	0xbfa3254d	-1.2745758
211	0xbf69ce9b	-0.9133088
212	0xbf8970de	-1.0737569
213	0x3f843ab1	1.0330411
214	0xbed76209	-0.42066982
215	0x3efbbc69	0.49167183
216	0x3f394a98	0.72379446
217	0x401b6ec7	2.4286363
218	0xbf9dddb3	-1.2333282
219	0x3ed83f1c	0.4223565
220	0xbf49aa85	-0.7877582
221	0xbf4f81a3	-0.81057185
222	0xc039a4ab	-2.9006755
223	0xbef9e7f8	-0.4880979
224	0xc030be87	-2.7616289
225	0xbeafc09d	-0.3432664
226	0x3f0b77cb	0.54479665
227	0xbf86cf4f	-1.0532016
228	0x3f099b8b	0.53752965
229	0x3f941e58	1.157176
230	0xbf137535	-0.5760072
231	0x3fb46407	1.4093026
232	0x3f1eb7f2	0.6199943
233	0xbf48fa0f	-0.7850656
234	0xc021e433	-2.5295532
235	0x3ecc79d4	0.39936697
236	0xbfc137ae	-1.5095117
237	0x3e014cc7	0.12626944
238	0xbe3edc8d	-0.18638821
239	0xc002a93c	-2.0415792
240	0xbd63320e	-0.055467658
241	0x3ee72c27	0.45150873
242	0xbf49f64a	-0.7889143
243	0x3fa63b12	1.2986777
244	0x3f047faf	0.5175733
245	0xbf813a43	-1.0095905
246	0x3eaf1d17	0.3420188
247	0x3e1b114f	0.15143321
248	0x3c456cc1	0.012049855
249	0xbf44b04e	-0.7683152
250	0xbf28970a	-0.6585547
251	0xbf0852de	-0.53251445
252	0x3fa59b8e	1.2938097
253	0xbf2ceaef	-0.6754598
254	0x3e2c8d01	0.16850664
255	0x3f901559	1.1256515

bias f4 [64]
0	0x3f23c3eb	0.6397082
1	0x3f476f76	0.7790445
2	0xbe1f812c	-0.15576619
3	0x3f97d27b	1.1861109
4	0x3e5452db	0.20734732
5	0xbd75bcfb	-0.05999468
6	0x37756b22	1.4628082e-05
7	0xbe4067ef	-0.18789648
8	0x3d4ee3d5	0.050510246
9	0x3f171ea7	0.59031147
10	0x3e8f4352	0.2798105
11	0xbed0984e	-0.407412
12	0xbeb6de76	-0.357166
13	0x3eff1bc6	0.49825877
14	0xbf4376a0	-0.7635288
15	0x3d8b258b	0.0679427
16	0x3faea137	1.3642949
17	0xbae6916a	-0.0017590944
18	0xbd372fef	-0.044723447
19	0xbecbecf1	-0.3982921
20	0xbe83a0d1	-0.2570863
21	0x3f002f54	0.50072217
22	0xbf1889bf	-0.59585184
23	0x3f8f856b	1.1212591
24	0xbf4c5a6a	-0.7982546
25	0x3fb12671	1.3839856
26	0xbe96f656	-0.29484814
27	0xbf60d420	-0.8782368
28	0xbef1e081	-0.47241595
29	0xbcbc725c	-0.02300375
30	0xbde24f0a	-0.11050232
31	0xbf2613a3	-0.64873713
32	0xbf827f7e	-1.0195158
33	0xbeb16709	-0.34648922
34	0xbe26ba71	-0.16282059
35	0xbeb31978	-0.3498037
36	0x3e8d700f	0.27624556
37	0x3f4f0bfb	0.80877656
38	0xbf8b0bdc	-1.0862994
39	0xbf23b2bf	-0.6394462
40	0xbd5b9f63	-0.0536188
41	0x3f9031b6	1.126517
42	0xbf94a9df	-1.161434
43	0x3ec28ee5	0.37999645
44	0xbf08122e	-0.5315274
45	0x3d7be726	0.061499737
46	0x3eadab3a	0.33919698
47	0xbf8ab964	-1.0837827
48	0xbf918b17	-1.1370572
49	0x3e38bcd1	0.18040778
50	0x3d7c9fec	0.06167595
51	0x3cb4f937	0.022091491
52	0xbec29c66	-0.38009948
53	0x3e7379c3	0.23776917
54	0x3da190f9	0.078889795
55	0xbe79cef8	-0.24395359
56	0x3f1de6c4	0.61680245
57	0xbd2255a5	-0.03963246
58	0xbefd9de3	-0.4953452
59	0x3f61ba78	0.88175154
60	0x3fcabb79	1.5838462
61	0xbeb72fc0	-0.35778618
62	0x3f421df1	0.75826937
63	0x3ede43f4	0.4341122

weight f4 [64]
0	0x401127c7	2.2680528
1	0x3fbb48c8	1.4631586
2	0x3f84fc88	1.0389566
3	0x400d8c5e	2.2116923
4	0x401c5c38	2.4431286
5	0x3f98fb81	1.1951753
6	0x3fccbe8e	1.5995653
7	0x3fa6f449	1.30433
8	0x3fca7c6d	1.5819222
9	0x3fa75743	1.3073505
10	0x3fd403ac	1.656362
11	0x3fd3caf1	1.6546308
12	0x3ff196a1	1.8874093
13	0x3fda5c4d	1.7059418
14	0x3f6dd273	0.92899245
15	0x3fa5c632	1.295111
16	0x3ff20724	1.8908429
17	0x3f64ac46	0.8932537
18	0x3dcbd64f	0.099529855
19	0x3f9e6cf2	1.2376997
20	0x3fe8c2bb	1.8184427
21	0x3f8a4c45	1.0804526
22	0x3fc4f6b8	1.5387793
23	0x3f530592	0.82430375
24	0x3fce2690	1.6105518
25	0x40104f54	2.2548418
26	0x400e4203	2.222779
27	0x3ffe0b82	1.9847262
28	0x3f9e3dc8	1.2362604
29	0x3fba8f71	1.4575025
30	0x3df28783	0.11842253
31	0x402ba78b	2.682101
32	0x3f9ab646	1.2086875
33	0x3f803877	1.0017232
34	0x3fd3e67e	1.6554716
35	0x3ff1a915	1.8879725
36	0x400f48cf	2.238819
37	0x3f6d9ed5	0.92820483
38	0x3f663ae4	0.8993361
39	0x3f9d9238	1.2310247
40	0x3fabf17f	1.3433074
41	0x3f7a62ee	0.97807205
42	0x3fac662e	1.3468683
43	0x3f1224d2	0.57087433
44	0x3fb42cfd	1.4076229
45	0x3f660675	0.898536
46	0x3fe75065	1.807141
47	0x3fbca0ab	1.4736532
48	0x3f8af386	1.0855567
49	0x3f3547df	0.7081279
50	0x3dd5c18b	0.10437306
51	0x3ed5f54c	0.4178871
52	0x3f83fefc	1.031219
53	0x40042d38	2.06526
54	0x3f2b7118	0.6696944
55	0x3fe9299e	1.8215826
56	0x3fa32058	1.2744246
57	0x3ef80da0	0.48447895
58	0x3f859cc5	1.0438467
59	0x3f969294	1.1763482
60	0x3fd16bf9	1.6361076
61	0x3fbd2afc	1.4778743
62	0x3fa7869b	1.3087953
63	0x3fec271b	1.8449434
