unet/checkpoints/one_loss/epoch_60.pth (torch, 508787 bytes, 85 tensors)

weight f4 [8, 1, 3]
0	0x3f0f5ecd	0.5600403
1	0xbda02b6a	-0.078207806
2	0x404957f9	3.1459944
3	0x3f123728	0.5711541
4	0xc055432b	-3.3322246
5	0xbf1a2bfd	-0.6022337
6	0xbf9926ea	-1.1965001
7	0x3fce4f59	1.6117965
8	0x3f3d5a12	0.7396556
9	0xc07400f8	-3.8125591
10	0xbea4ab29	-0.32161835
11	0x3f2f0f0e	0.68382347
12	0x3f4c5ff0	0.7983389
13	0xc01dbd08	-2.4646626
14	0xbe426fc4	-0.18987948
15	0x3f4d99c2	0.8031274
16	0x406a5718	3.6615658
17	0xbe90d2c7	-0.2828581
18	0xbfc32da2	-1.5248301
19	0x3f29bc4c	0.66302943
20	0xbfe3d590	-1.7799549
21	0x4035d9dc	2.841422
22	0xbd10e560	-0.035375
23	0xbf72883c	-0.9473913

bias f4 [8]
0	0x3e31f9a2	0.17380384
1	0x3d03e642	0.032202013
2	0x3eaa8f9e	0.33312696
3	0x3ee1c1ab	0.4409307
4	0xbe55535f	-0.20832585
5	0x3e14af62	0.14520028
6	0xbead3d7c	-0.3383597
7	0x3e1c6985	0.15274628

weight f4 [8]
0	0x3f99eb70	1.2024975
1	0x3fe5e0f8	1.795928
2	0x3ff50b95	1.914416
3	0x3feb5319	1.8384734
4	0x3ea87612	0.3290258
5	0x402d407c	2.7070608
6	0x3f7b152a	0.9807917
7	0x400989eb	2.1490428

bias f4 [8]
0	0xbfd7673b	-1.6828378
1	0x3e7758d3	0.24154978
2	0x3fbd7511	1.4801351
3	0x40008628	2.0081882
4	0x3fc84523	1.5646099
5	0xbddeef3d	-0.10885475
6	0xbf08e912	-0.5348064
7	0xbe4ee3d5	-0.20204099

running_mean f4 [8]
0	0xbc84390d	-0.016140485
1	0xbcd88c70	-0.026434153
2	0x3eee0718	0.46489787
3	0x3f6edc46	0.9330486
4	0xbe9f6511	-0.31131795
5	0x3d432f41	0.047652487
6	0xbd89de10	-0.06731808
7	0xbe51880d	-0.20462056

running_var f4 [8]
0	0x49350303	741424.2
1	0x4927c2a6	687146.4
2	0x47e5fd69	117754.82
3	0x49373ec5	750572.3
4	0x4868a1a6	238214.6
5	0x497855ac	1.01717875e+06
6	0x48bddffd	388863.9
7	0x4889a381	281884.03

weight f4 [16, 8, 3]
0	0x3f001720	0.50035286
1	0xbf9fba6a	-1.2478764
2	0xc0654a2c	-3.582652
3	0x3fac78bd	1.3474346
4	0x3f94bd65	1.1620299
5	0xbf8fca3e	-1.1233594
6	0xbf978c98	-1.1839781
7	0x3f4cd23c	0.8000829
8	0x3f472e08	0.77804613
9	0x3fc15222	1.510319
10	0x4040ffcf	3.0156133
11	0x3f4c68b5	0.7984727
12	0x3fc52431	1.540167
13	0x3f902cef	1.1263713
14	0xbfc56d63	-1.5424007
15	0xc0179457	-2.368429
16	0xbfb39ac7	-1.4031609
17	0xbded868b	-0.11597928
18	0x3f34159e	0.70345485
19	0xbf9c5290	-1.2212696
20	0x3f880cd0	1.062891
21	0x3f62fc1b	0.8866593
22	0xbf0c70ed	-0.5485981
23	0xbf2514b2	-0.64484704
24	0x3f4f8c6f	0.8107366
25	0x3fbad483	1.4596103
26	0xbe51445d	-0.20436235
27	0x3eaa1e4b	0.33226237
28	0x3f893e81	1.07222
29	0xbf24e8aa	-0.6441752
30	0x3f5ae9f3	0.8551323
31	0x3f7dff83	0.99218005
32	0x3f57617e	0.84133136
33	0xbff3535a	-1.9009812
34	0x3e9f6114	0.31128752
35	0x3f52dcf3	0.8236839
36	0x3f1228ef	0.5709371
37	0x3f3f6598	0.74764395
38	0xbf80ce2b	-1.0062917
39	0x4058445b	3.379172
40	0x3fefcb94	1.8734002
41	0x4000c07a	2.0117478
42	0x3f11dd94	0.56978726
43	0xbed7d5f7	-0.4215543
44	0x3f255dde	0.64596355
45	0x3d63158e	0.055440478
46	0x3fcf3f0b	1.6191114
47	0x3f423092	0.7585536
48	0xbfc9d303	-1.5767521
49	0x3f19e7cf	0.60119337
50	0xbfd70611	-1.6798726
51	0x3e31ff14	0.17382461
52	0x3f504025	0.81347877
53	0xbd0873cf	-0.03331357
54	0xbf685cf2	-0.90766823
55	0xbfa8b668	-1.3180666
56	0x3f5046f3	0.8135826
57	0xc04d1671	-3.2044947
58	0x3e6c57e0	0.23080397
59	0x3f5e71ce	0.868924
60	0x3f4c4f5e	0.79808605
61	0x3f81a58e	1.0128648
62	0xbec70032	-0.38867337
63	0x3f46adf3	0.77609175
64	0xbfb517c3	-1.4147877
65	0xbd07ea13	-0.033182215
66	0xbf873ae1	-1.0564843
67	0x3e90e5fd	0.28300467
68	0x3fb262e9	1.3936435
69	0x3fb16a69	1.3860599
70	0xbc557a43	-0.013029638
71	0xc00a08d0	-2.1567879
72	0x403441a2	2.816506
73	0x3f5cd2b1	0.8625899
74	0xbcdc4c18	-0.026891753
75	0x4015dd8f	2.3416479
76	0x402a9245	2.6651776
77	0x3f26afe7	0.65112156
78	0xbe5d1eff	-0.21593855
79	0x3d36903f	0.044571158
80	0xbfa9eed1	-1.3276006
81	0x3f48607a	0.7827221
82	0x4020ffa1	2.5156024
83	0x3f506dae	0.8141736
84	0x3f7d16a7	0.9886269
85	0x3fcd1f49	1.6025172
86	0x3e175461	0.14778282
87	0xbf924f01	-1.143036
88	0x3eba598b	0.3639644
89	0xc00eecf7	-2.2332132
90	0x3debcccb	0.115136705
91	0x3fc0120f	1.5005511
92	0xbdd994d2	-0.10624088
93	0xbed4bc65	-0.41549984
94	0xbfa6e26c	-1.3037848
95	0x3f78df2c	0.97215533
96	0x3ff5a0c4	1.9189687
97	0xbfcc3074	-1.5952287
98	0xbfccf5a3	-1.6012462
99	0xbf6a8c58	-0.916204
100	0xbfdfaabd	-1.747398
101	0xbf563f5e	-0.8369044
102	0xbeab7458	-0.334872
103	0xbfaa856e	-1.332197
104	0xbff60c62	-1.9222529
105	0xbfb596c9	-1.4186641
106	0xbf5153bf	-0.8176841
107	0xbe4ab38c	-0.19795054
108	0x3d02a353	0.03189404
109	0xbf1f4025	-0.6220725
110	0xbe39ab15	-0.18131669
111	0x3fc1976e	1.5124338
112	0x3eb29da5	0.34885898
113	0xbf8803a7	-1.0626115
114	0x3d0ca591	0.034337584
115	0xbfdc924f	-1.723215
116	0xbf916e2c	-1.1361747
117	0x4009d744	2.1537638
118	0x3fa15277	1.2603291
119	0x3e86d696	0.2633559
120	0x3ff97a40	1.9490433
121	0xbebbafde	-0.36657614
122	0xbfc58edf	-1.5434226
123	0x40165479	2.3489058
124	0x3fc3efa3	1.5307506
125	0x402dc524	2.7151575
126	0x3d189ec2	0.03726078
127	0xbf1507db	-0.5821511
128	0xbfaf31a9	-1.368703
129	0x3ebd38d3	0.36957416
130	0x3fdb8be5	1.7152067
131	0x3f4fac80	0.8112259
132	0x3fc85bca	1.5653012
133	0x3f5d0560	0.86336327
134	0x3fd1879c	1.636951
135	0xbef000cf	-0.46875617
136	0x3e25eea9	0.16204323
137	0xbf983400	-1.1890869
138	0xbd35f182	-0.044419773
139	0x3fb1d1d5	1.3892161
140	0x3d971263	0.07376554
141	0x3f82b2f4	1.0210862
142	0x3f23d16b	0.6399142
143	0x3f75cb53	0.96013373
144	0x3f885fd6	1.0654247
145	0x3df7690c	0.12080583
146	0x3fd41d39	1.6571418
147	0xc0454af1	-3.082699
148	0x3f5feb42	0.8746835
149	0x3e52a9a8	0.20572531
150	0xc001e449	-2.0295584
151	0xbf329a90	-0.69767094
152	0x3e0aaa69	0.13541569
153	0xbfaa8c23	-1.3324016
154	0xc00749d0	-2.1138802
155	0x3ef6d62d	0.48210278
156	0xc00ffe35	-2.2498906
157	0x3f076337	0.52885765
158	0x3e9ff422	0.31240946
159	0x3d3eef11	0.04661471
160	0xbec8b38c	-0.39199483
161	0xbdbb2724	-0.09138325
162	0x3ec13fc1	0.37743953
163	0x3fac0175	1.3437945
164	0xbfceef7f	-1.6166838
165	0x3f54a499	0.83063656
166	0xbfd5e942	-1.671181
167	0xbfac1fe0	-1.3447227
168	0x3fa63563	1.2985042
169	0x3f5a034e	0.8516129
170	0x3eed42ca	0.4634002
171	0x3eab4e40	0.33458138
172	0xc00a8e4d	-2.1649354
173	0x3ebb0d96	0.36533803
174	0xbeeaccac	-0.45859277
175	0x3fcbef4e	1.5932405
176	0xc0329d41	-2.790848
177	0xbe28becf	-0.16479038
178	0x3f90b059	1.1303817
179	0xbf81c861	-1.0139276
180	0x3f0c2069	0.54736954
181	0xbffb3390	-1.9625111
182	0xbed725fd	-0.4202117
183	0x3fd036cb	1.6266721
184	0x3fa98479	1.3243552
185	0xbec4cfe8	-0.3843987
186	0xc00fd9b9	-2.2476637
187	0x3f8d95ec	1.1061378
188	0x3f261c4e	0.6488694
189	0x3e72822f	0.23682474
190	0x3f94293e	1.1575086
191	0x3e411faf	0.18859743
192	0x3fa01cea	1.2508824
193	0xbff46434	-1.909308
194	0x3fb5d61c	1.4205966
195	0xbf028313	-0.50981253
196	0x3f38af4c	0.7214248
197	0x3eac70be	0.33679765
198	0xbf655f72	-0.89598763
199	0xc0556c2a	-3.3347268
200	0x3d2ef2cc	0.042712018
201	0xc01c6aa7	-2.4440095
202	0xbe250849	-0.16116442
203	0x3e88f4ad	0.26749173
204	0xbe9c1520	-0.30484867
205	0x3ee81950	0.45331812
206	0x3fa1570e	1.2604692
207	0xbe005f1f	-0.12536286
208	0xbf210fa1	-0.6291447
209	0xc05da359	-3.463095
210	0xbfa21cd0	-1.2665043
211	0xbf986559	-1.1905929
212	0x3f0c90dc	0.5490854
213	0x3fb08b8d	1.3792588
214	0xbe3951c4	-0.18097597
215	0x3ea7f92a	0.32807285
216	0xc00c1c47	-2.189226
217	0xbf099f99	-0.5375915
218	0xbeee6b63	-0.46566305
219	0x3d8781ce	0.06616555
220	0xbe28a2d7	-0.16468368
221	0x40282fa2	2.6279073
222	0xbf364f1d	-0.7121447
223	0xbeb83fc2	-0.35986143
224	0xbfff4891	-1.994402
225	0xc00809db	-2.1256015
226	0x3f05be1b	0.522432
227	0xbf2bc977	-0.67104286
228	0x3ec71530	0.38883352
229	0x3e901d1a	0.28147203
230	0x403cec2b	2.9519145
231	0xbddf8331	-0.10913695
232	0xbfbb67a6	-1.4641006
233	0xc00bfdf7	-2.1873758
234	0xbfd81f07	-1.6884469
235	0x3f9eb427	1.2398728
236	0xbdcb3e0c	-0.09923944
237	0x3faee36d	1.3663155
238	0x3e286ee0	0.16448545
239	0x3ba9882c	0.0051737037
240	0x3e122002	0.14270023
241	0x3eb91982	0.36152273
242	0xbdef469b	-0.11683389
243	0x3ffa0804	1.9533696
244	0x3feefc70	1.8670788
245	0x3ffd7455	1.9801127
246	0xbe02a30b	-0.12757508
247	0xbee8f7ad	-0.45501462
248	0xbee0b75c	-0.43889892
249	0x3ef28ed6	0.473746
250	0x3fdc7daf	1.7225856
251	0x3fb9d929	1.4519397
252	0x3fc309f2	1.523741
253	0x3f59a26e	0.85013473
254	0x3fb75e20	1.43256
255	0xbe6627f4	-0.22476178

bias f4 [16]
0	0xbf5d9ff2	-0.8657218
1	0x3fad3b9d	1.3533818
2	0x3ed7c3ab	0.4214147
3	0x3e0a3ca1	0.1349969
4	0x3f80f390	1.0074329
5	0x3f516d04	0.8180697
6	0x3f25226d	0.64505655
7	0xbf1f93fc	-0.6233518
8	0x3d11238a	0.035434283
9	0xbe8848bd	-0.26617995
10	0x3ece28a8	0.40265393
11	0xbe0c35e9	-0.1369244
12	0x3eb3bc15	0.35104433
13	0x401e34cb	2.4719722
14	0x4024baf0	2.5739098
15	0x3fbdf603	1.4840702

weight f4 [16]
0	0x3fb516da	1.4147599
1	0x3fd2b2a6	1.6460769
2	0x3faedaf0	1.3660564
3	0x3fca966f	1.5827159
4	0x3fd6c4ab	1.6778768
5	0x3f8b9f79	1.0908042
6	0x3f2ce035	0.6752961
7	0x3f5ce682	0.86289227
8	0x3f977341	1.1832048
9	0x3fa08b1a	1.254245
10	0x3f7ce420	0.9878559
11	0x3fda23e9	1.7042209
12	0x3fd75cce	1.6825197
13	0x3ffd5952	1.9792883
14	0x3fb79762	1.4343073
15	0x3fbed345	1.4908224

bias f4 [16]
0	0x3fa39dcc	1.2782531
1	0xbfb5cb76	-1.4202716
2	0x3ef8d682	0.48601156
3	0x3e8a81f9	0.27052286
4	0x3f2feefe	0.6872405
5	0x3e10a319	0.14124717
6	0x3f1b4db1	0.6066542
7	0x4004947f	2.0715635
8	0x4059667a	3.3968797
9	0x3f5c1e6b	0.85983914
10	0xbe4ff78f	-0.2030928
11	0xbea6483e	-0.3247699
12	0xbe8964cc	-0.26834714
13	0x3f21bb17	0.631761
14	0x3f122cd3	0.57099646
15	0x3f6daee8	0.9284501

running_mean f4 [16]
0	0x411b1ffe	9.695311
1	0x41629768	14.161964
2	0xc09e14ed	-4.9400544
3	0x413f0c36	11.940481
4	0xc138babd	-11.54559
5	0x4179c37f	15.610229
6	0xc1788753	-15.533038
7	0xc083d972	-4.1202936
8	0xc1498bcc	-12.59663
9	0xc0b72ff5	-5.724604
10	0x41751eee	15.320051
11	0x4136d0dd	11.425992
12	0x3fd73f76	1.6816242
13	0x41078ebb	8.472346
14	0xc05fd52b	-3.4973857
15	0x40d963d3	6.7934356

running_var f4 [16]
0	0x437afaa7	250.97911
1	0x4396185b	300.19028
2	0x42571f56	53.7806
3	0x439f3310	318.39893
4	0x42bb47b8	93.640076
5	0x435220ae	210.12766
6	0x421c4ff0	39.078064
7	0x427be2c5	62.971455
8	0x42e87730	116.23279
9	0x42d3b6bb	105.856895
10	0x43782b5a	248.16934
11	0x42f8248a	124.071365
12	0x43cf6a02	414.8282
13	0x42fca369	126.31916
14	0x4238867d	46.131336
15	0x43e39a75	455.2067

weight f4 [16, 16, 3]
0	0xc02a1be7	-2.657953
1	0x3e9f5fdc	0.31127822
2	0x3d576e41	0.05259538
3	0x3fbee5a5	1.4913832
4	0x3f7fde17	0.9994826
5	0xbf7fdf32	-0.99949944
6	0xc014cd56	-2.3250327
7	0xbfb8f454	-1.4449563
8	0xbf7e7582	-0.9939805
9	0xbe8d8b13	-0.27645168
10	0x3d5c92c8	0.05385092
11	0x3c51efcd	0.012813521
12	0x3c10d1d3	0.0088390885
13	0x3f747632	0.9549285
14	0x3fa9d775	1.3268877
15	0xbda79c4f	-0.081841104
16	0xbf8cd36e	-1.1002023
17	0xbec3a9ec	-0.38215578
18	0xbf1d734b	-0.6150405
19	0xbeb317ae	-0.34979004
20	0x3f627ec7	0.88474697
21	0x3e88cb3f	0.26717564
22	0x3f0cd215	0.5500806
23	0xbf8feea4	-1.1244702
24	0xbf3b1b71	-0.7308875
25	0x3f17924a	0.59207594
26	0x402fed95	2.7488759
27	0xbd278f4a	-0.040908135
28	0x3df91580	0.12162304
29	0x3ea1495a	0.31501275
30	0xbe047165	-0.12933882
31	0xbf4d5adf	-0.80216783
32	0xbef31490	-0.47476625
33	0xbf2dadcf	-0.67843336
34	0xbf3fe48f	-0.7495813
35	0xc00be9a5	-2.1861355
36	0x3fe579ea	1.792783
37	0x3fc3feaa	1.5312092
38	0xbef67f1e	-0.48143858
39	0xbf27d559	-0.6555992
40	0xbfc6458b	-1.5489973
41	0xc0332023	-2.7988365
42	0xbfc9585d	-1.5730091
43	0x3d7841eb	0.06060974
44	0xbf5ea6df	-0.86973375
45	0xbe2f5041	-0.17120458
46	0x3f5dbaf7	0.8661341
47	0x3f30ed43	0.6911203
48	0xc01fcd9a	-2.496924
49	0x3e52d63a	0.20589533
50	0x3f61fe7e	0.8827895
51	0xbfd1c690	-1.6388721
52	0xbf40172f	-0.75035375
53	0x3ec8a37f	0.39187238
54	0xbf9eab2e	-1.239599
55	0x3f09f5e9	0.53890854
56	0xbf226f46	-0.6345104
57	0xbed11fca	-0.40844566
58	0x3f03065d	0.51181585
59	0x3f6b552e	0.9192685
60	0x4053bd4a	3.3084283
61	0x3ea30f0c	0.31847417
62	0xbea8b61d	-0.3295144
63	0x3cc5c446	0.024141442
64	0x3efbb455	0.4916102
65	0x3ef1cc41	0.47226146
66	0xbea6de8a	-0.3259166
67	0x3ece4e18	0.40293956
68	0x3e9efc9d	0.31052104
69	0xbedd234f	-0.43191
70	0xbfbd17a2	-1.4772837
71	0xbfec6fa6	-1.8471572
72	0xbf6935f0	-0.9109793
73	0x3f40b19a	0.75271
74	0xbfb69bcf	-1.4266299
75	0xbf1da1eb	-0.6157519
76	0x3f801af9	1.0008231
77	0xc01b92c7	-2.4308336
78	0xbc6f896f	-0.014620169
79	0x3f249f76	0.6430582
80	0x3efb5c5c	0.49093902
81	0xbf8c9c81	-1.0985261
82	0x3f75d184	0.9602282
83	0xbf9115fe	-1.1334836
84	0x3f9535a8	1.1657
85	0xbc800106	-0.015625488
86	0xbe9ff6dc	-0.31243026
87	0xc08b64d4	-4.356058
88	0xbf6b746a	-0.9197451
89	0xbf2a312f	-0.664813
90	0xc05aa4fb	-3.4163196
91	0xbea7d51f	-0.32779786
92	0xc00d8559	-2.211264
93	0xbf1c4176	-0.61037385
94	0x3fa3b83b	1.2790598
95	0x3ea572c4	0.32314122
96	0xbfcbd9b1	-1.5925809
97	0xc02b5bf6	-2.6774879
98	0xbf8119fb	-1.0086054
99	0x40563b73	3.3473785
100	0x3f2880d1	0.6582156
101	0xbfc64ccc	-1.5492187
102	0xbfce51d7	-1.6118726
103	0x3f44fd29	0.7694879
104	0xbf46f17f	-0.77712244
105	0xbf9ab59f	-1.2086676
106	0xbfbade0c	-1.4599013
107	0xbf346a40	-0.70474625
108	0x3e625ac7	0.22104941
109	0x3e918773	0.28423652
110	0x3f94e7c7	1.1633233
111	0xbd3486d7	-0.044073906
112	0xbf9bc953	-1.2170814
113	0xbe084390	-0.13307023
114	0xc00187c8	-2.0239124
115	0x3fb22008	1.3916025
116	0x3e58e4fe	0.21181104
117	0x3f17adec	0.5924976
118	0x3f3ef92d	0.7459896
119	0x3f366fb1	0.7126418
120	0xbffdf5c3	-1.9840626
121	0x3f0e72e3	0.55644053
122	0x3f81be05	1.0136114
123	0xc01a66d1	-2.4125254
124	0xbfe2b40f	-1.77112
125	0x3eb5f5ea	0.3553918
126	0x3e5128fc	0.2042579
127	0xbf186155	-0.59523517
128	0x3e63c9ab	0.22244899
129	0xbf74cbaa	-0.95623267
130	0x3f5791a4	0.84206605
131	0xc004324e	-2.0655704
132	0x40138ad4	2.3053484
133	0x3fbdc538	1.4825811
134	0xbf7fab63	-0.9987089
135	0x3ebe7121	0.37195686
136	0xbe325104	-0.17413718
137	0xbf097508	-0.536942
138	0x3eb4df48	0.353266
139	0x3ecbf290	0.39833498
140	0xbf52e9ef	-0.82388204
141	0xbfbda2cc	-1.4815307
142	0xbfd47eb6	-1.6601169
143	0xbf8dd530	-1.1080685
144	0xbe6bbe3c	-0.23021787
145	0xbea030dd	-0.3128728
146	0x3f483773	0.7820961
147	0xbfc3cdbd	-1.5297161
148	0x3f136558	0.57576513
149	0x3f80c51d	1.0060154
150	0x3e8131d6	0.25233334
151	0xbf35ea10	-0.71060276
152	0xc023a111	-2.5567057
153	0xbeecfc31	-0.46286157
154	0x3eb990aa	0.36243182
155	0x3eb3b964	0.3510238
156	0x3ed86481	0.42264178
157	0x3f036b9d	0.5133608
158	0xbf474bc4	-0.77849984
159	0xbe8a8337	-0.27053234
160	0x3f833465	1.0250365
161	0x3ef38e55	0.47569528
162	0x3f7aa9a0	0.9791508
163	0xbf47c374	-0.7803261
164	0xbf52742e	-0.82208526
165	0xbf135d9e	-0.57564723
166	0xbf7e37a3	-0.99303645
167	0xbcfeee2d	-0.03111943
168	0x3fbad91b	1.4597505
169	0x3f41119b	0.7541749
170	0xc0a0f42d	-5.0298066
171	0x3fb1bbb3	1.3885406
172	0x3e8f4900	0.27985382
173	0xbfdcce2f	-1.7250422
174	0xbf3e5d46	-0.74361074
175	0x3f913b61	1.1346246
176	0x3e8203c5	0.253935
177	0x3f126729	0.5718866
178	0x3f15176a	0.5823885
179	0xbea9a538	-0.33133864
180	0xbff3a21c	-1.9033847
181	0x3e26695d	0.1625113
182	0x3fac9e7e	1.3485868
183	0x3e3a619c	0.18201298
184	0x3efc6526	0.4929592
185	0x402cb3ea	2.698481
186	0xbfb33544	-1.400063
187	0xbf47880a	-0.77941954
188	0xc0208cf5	-2.5086033
189	0x3f35187f	0.70740503
190	0x3f595b1b	0.8490464
191	0x3e12b515	0.1432689
192	0x3f21fd8b	0.632775
193	0x3f879230	1.0591488
194	0xbeac2eb5	-0.33629385
195	0xbe89275e	-0.26787847
196	0xbfc58d91	-1.5433828
197	0xbf45a4ad	-0.772044
198	0xc0177c09	-2.3669455
199	0xbd383af7	-0.04497811
200	0xbf891402	-1.0709231
201	0x3fafddf0	1.3739605
202	0x3f9bbb37	1.2166508
203	0xc001c099	-2.0273802
204	0x3f035b21	0.51310927
205	0x3dbe01b5	0.09277669
206	0x3d56ffbf	0.052489992
207	0x3fbc506c	1.4712043
208	0x3f82ddd0	1.0223942
209	0xbfede61c	-1.8585849
210	0xbfecc947	-1.8498925
211	0x3f833f3e	1.0253675
212	0xbe2adb3d	-0.16685195
213	0xbf2ecf27	-0.6828484
214	0xbf8c5c06	-1.0965583
215	0xbf96fea5	-1.1796461
216	0xbfd17a04	-1.6365361
217	0xbe959b1c	-0.29219902
218	0xbfa3e211	-1.2803365
219	0xbe8b7cb1	-0.2724357
220	0xbe9c3a84	-0.30513394
221	0xc02375ad	-2.5540574
222	0x3fc35742	1.5261004
223	0x3f056f3d	0.5212286
224	0xbfef041f	-1.8673133
225	0x3fce189e	1.6101263
226	0x3e7720e1	0.24133636
227	0xc014e54c	-2.3264952
228	0x3e904abd	0.2818202
229	0xbfb51e38	-1.4149847
230	0xbf7dad96	-0.99092996
231	0xbfb5183e	-1.4148023
232	0xbf03e2ed	-0.51518136
233	0x3e45174f	0.19247173
234	0xbf77ea8d	-0.9684227
235	0xc00f6509	-2.2405417
236	0xbea56a28	-0.32307553
237	0x3f303d7b	0.6884381
238	0x3f34e07f	0.70655054
239	0xbfb07f1d	-1.3788792
240	0xbfc48b34	-1.5354981
241	0x3ee20fab	0.4415258
242	0x3fa477f5	1.2849108
243	0x3fd865c4	1.6906056
244	0x3f4dc354	0.8037617
245	0xbfddb7ac	-1.7321677
246	0x3f80321e	1.0015295
247	0xbd5a699d	-0.053323377
248	0x3d495994	0.049157694
249	0xbf23d25a	-0.63992846
250	0x3fd2f0d6	1.6479747
251	0x400f438e	2.2384982
252	0x3fca6646	1.5812461
253	0x3f08a171	0.5337134
254	0xbe2e9073	-0.1704729
255	0xbf272462	-0.6528989

bias f4 [16]
0	0x3eb082fa	0.34474927
1	0x3dcac736	0.09901278
2	0xbf27c951	-0.6554156
3	0xbda98903	-0.08278086
4	0x3f99d3f0	1.2017803
5	0x3f8853aa	1.0650532
6	0xbece229a	-0.40260774
7	0x3e87b74f	0.2650704
8	0x3f100bab	0.56267804
9	0x3f91dad3	1.1394905
10	0xc011dc22	-2.2790608
11	0xbecdc5e5	-0.40190044
12	0x3f5e407a	0.86817133
13	0xbfae3a8a	-1.3611615
14	0xbfd47db3	-1.660086
15	0xbf9238f0	-1.1423626

weight f4 [16]
0	0x3f94323c	1.157783
1	0x401127aa	2.268046
2	0x400d48a6	2.207559
3	0x3fcdde11	1.6083394
4	0x4007e7c3	2.1235206
5	0x4006b93a	2.1050553
6	0x3ff20104	1.890656
7	0x3f332429	0.6997705
8	0x3fd7df3f	1.6865004
9	0x3fc971a4	1.5737805
10	0x3ffa77de	1.956783
11	0x40143450	2.315693
12	0x3fed27bf	1.8527755
13	0x40147350	2.319538
14	0x40066900	2.1001587
15	0x3fd6afe0	1.6772423

bias f4 [16]
0	0x3fdc1ccb	1.7196287
1	0xbe4e9f0e	-0.20177862
2	0x3eab3bc2	0.3344403
3	0xbeabdd81	-0.33567432
4	0x3f2cb6cc	0.67466426
5	0x3f6cf20a	0.9255682
6	0x3e9ba6fd	0.3040084
7	0x3fced008	1.6157236
8	0x3ec1ed3d	0.3787631
9	0x3f7eea91	0.9957667
10	0x3d215382	0.03938628
11	0x3ee4514b	0.44593272
12	0xbe9b0731	-0.30278924
13	0xbf586c36	-0.84540117
14	0x3ed85273	0.42250404
15	0xbf3b1339	-0.73076206

running_mean f4 [16]
0	0xc0ccfdb8	-6.4059715
1	0xc1f634c7	-30.77577
2	0xc19784b6	-18.9398
3	0xc1749e7a	-15.288691
4	0xc1fd717c	-31.680412
5	0x41c03ef0	24.030731
6	0xc2625020	-56.578247
7	0xc19e0d47	-19.756483
8	0xc17db9de	-15.857878
9	0x416dec0c	14.870129
10	0xc15cd6f1	-13.802476
11	0x41b3cfe5	22.476511
12	0xc1227b20	-10.15506
13	0xc11a0d8d	-9.628308
14	0x4141da32	12.11577
15	0xc249f97c	-50.493637

running_var f4 [16]
0	0x4328f928	168.97327
1	0x43274fec	167.3122
2	0x442ca260	690.5371
3	0x435bf7ed	219.96846
4	0x433cdf2c	188.87177
5	0x43d2ce66	421.6125
6	0x442ac39d	683.05646
7	0x43b0bed1	353.49075
8	0x4418b6fb	610.8591
9	0x43354bad	181.29561
10	0x434c0e74	204.05646
11	0x43cf9edc	415.2411
12	0x43b8d552	369.66656
13	0x435adec2	218.87015
14	0x4338192e	184.09836
15	0x4343aace	195.6672

weight f4 [32, 16, 3]
0	0xbf3c23a9	-0.73491913
1	0xbfa207ce	-1.2658632
2	0xbe795d37	-0.24351965
3	0x3f8012ce	1.0005739
4	0x3eac01d4	0.33595145
5	0xbffca031	-1.9736387
6	0x3f8c6e64	1.0971189
7	0xbf5d12e2	-0.8635694
8	0x3f3b8143	0.7324411
9	0x3daae2a6	0.08344011
10	0x3ec886a5	0.39165226
11	0xbfab845d	-1.3399769
12	0xc027f811	-2.6245158
13	0xbf6d7069	-0.9274965
14	0xbe79ecdc	-0.24406761
15	0xbf95606a	-1.1670048
16	0xbfa5a7ce	-1.2941835
17	0xbfc9558d	-1.5729233
18	0x3f186d1c	0.5954149
19	0xbfa918f2	-1.3210738
20	0xbed57213	-0.41688594
21	0xbf7ed39c	-0.9954164
22	0x3f0bdb0d	0.5463112
23	0xbf648681	-0.89267737
24	0xbe37463a	-0.17897883
25	0xbd823eb3	-0.06359615
26	0xbe83df3d	-0.25756255
27	0x3f3aa641	0.72909933
28	0xbfb10a5b	-1.3831285
29	0xc0365780	-2.8490906
30	0xc042fc36	-3.0466437
31	0x3f301eb6	0.6879686
32	0xbf6d242b	-0.9263331
33	0xbf321c45	-0.69574386
34	0xc0057bae	-2.0856738
35	0xc03d2379	-2.95529
36	0xbffc723c	-1.9722362
37	0xbff8540c	-1.9400649
38	0xbfe18b8c	-1.7620711
39	0xbf19f1e0	-0.60134697
40	0xbfc17912	-1.5115073
41	0x3e62b83a	0.2214059
42	0xbf46e569	-0.776938
43	0xbf6b0930	-0.91810894
44	0x3f527e18	0.82223654
45	0xbf9990c9	-1.199731
46	0x3da59921	0.08085848
47	0x3de707a2	0.11280753
48	0xbf1a9bda	-0.6039406
49	0xbd19f618	-0.03758821
50	0x3e4f3d34	0.20238191
51	0xbff28992	-1.8948233
52	0x3f34981f	0.7054462
53	0x3efb5f6c	0.4909624
54	0xbf5687bd	-0.8380087
55	0xbed9cc88	-0.42538857
56	0x3db91f8a	0.09039219
57	0xbf9543f1	-1.1661359
58	0xbe9fb51c	-0.31192863
59	0x3f69042b	0.91021985
60	0xbfae8c62	-1.3636591
61	0xbffeee6a	-1.9916508
62	0x3f1bf383	0.60918444
63	0xbed3a99f	-0.41340348
64	0x3e5ea35a	0.21742001
65	0x3fd07b68	1.6287661
66	0x3e646f81	0.2230816
67	0x3ef31e36	0.47483987
68	0x3f89d346	1.07676
69	0x3f4e06d7	0.80479187
70	0x3f85efec	1.0463843
71	0x3f994dfd	1.1976925
72	0x3ee77aa9	0.4521077
73	0x3feb6e9e	1.8393133
74	0x3f33ca9f	0.7023105
75	0xbfa6b270	-1.3023205
76	0x3e9d3bd9	0.30709723
77	0xbeed6deb	-0.46372923
78	0xbeda1fd4	-0.42602408
79	0x3f241846	0.6409954
80	0xbd2af445	-0.04173686
81	0xc00b1ca3	-2.1736228
82	0xbf27aef3	-0.65501326
83	0xbf1ed8f0	-0.6204977
84	0x3f062ed4	0.52415204
85	0x3f6499b0	0.8929701
86	0x4036a5fe	2.8538814
87	0x3e6b2202	0.22962192
88	0x3fa32b59	1.2747604
89	0x405268d3	3.287648
90	0xbf7c44e1	-0.985426
91	0xbe788c5e	-0.24272296
92	0xbd7b1eb3	-0.061308574
93	0xc01019e7	-2.251581
94	0xbf59484e	-0.84875953
95	0x3f83026d	1.0235115
96	0xbf11d34e	-0.5696305
97	0xbf90faaf	-1.1326503
98	0xbfd17b5d	-1.6365772
99	0xbfdd0342	-1.7266619
100	0xbdbc60d4	-0.09198156
101	0x3fd1cf7a	1.6391442
102	0xbf9f9ea1	-1.2470285
103	0xc000958c	-2.0091276
104	0xbf9b39b5	-1.2126986
105	0xbfef16d1	-1.8678838
106	0x3d88854f	0.066660516
107	0xbcb83d5e	-0.0224902
108	0xbeede7e4	-0.4646598
109	0xbfe6fd82	-1.8046114
110	0xbfb1ee0f	-1.3900775
111	0xbff4e742	-1.9133074
112	0xbe4341b2	-0.1906803
113	0x3fac12f9	1.344329
114	0x3d88b50f	0.06675159
115	0xbe272030	-0.16320872
116	0x3e896658	0.26835895
117	0x3fb56036	1.4169986
118	0x3f845d60	1.0340996
119	0x3ea1097b	0.31452546
120	0x3f8b3eb0	1.0878506
121	0x3f9205ab	1.140798
122	0xbea64171	-0.32471803
123	0xbf958391	-1.1680776
124	0xc00ac7a1	-2.1684344
125	0x3ef3109e	0.47473615
126	0xbf7efb6c	-0.9960239
127	0x3fb083b2	1.379019
128	0xbc22ac7d	-0.00992882
129	0xc017d46f	-2.372341
130	0xbfbd6381	-1.4795991
131	0xbf79486e	-0.97376144
132	0xbf01da2b	-0.5072352
133	0x3f4fc417	0.81158584
134	0x3fe11ee8	1.7587557
135	0x3d85e655	0.06538073
136	0x3ece5b1d	0.4030389
137	0x40065eda	2.0995393
138	0xbf951a4a	-1.1648648
139	0xc0111aa3	-2.2672508
140	0x3f2ef0b1	0.68336016
141	0xbfcb345e	-1.5875356
142	0xbfc1bcef	-1.5135783
143	0x3ed4e07f	0.41577527
144	0x3fe99626	1.8248947
145	0x3f360a9f	0.71109957
146	0xc00cde99	-2.2010863
147	0xbf044cbc	-0.5167959
148	0xbef9d180	-0.48792648
149	0x3fae70ac	1.3628135
150	0x3ffd3367	1.9781312
151	0x3e5b3be8	0.21409571
152	0xc0060183	-2.0938423
153	0x3f252b87	0.6451954
154	0xc001ccd0	-2.0281258
155	0x3f631ebd	0.8871878
156	0xc01c277f	-2.4399107
157	0xbe32e4c7	-0.17470084
158	0x3f797469	0.9744325
159	0x3fa7dff3	1.3115219
160	0x3fe1b31d	1.7632786
161	0xbfae6cd4	-1.3626962
162	0x3f4cb0bf	0.79957193
163	0xbfe484bb	-1.7853006
164	0x3f0db531	0.553546
165	0xc00041ff	-2.004028
166	0xbf901a19	-1.1257964
167	0x3f930a6a	1.1487553
168	0xbf9159e1	-1.1355554
169	0xbec16337	-0.37771007
170	0xbfe59285	-1.7935339
171	0xbe41b96d	-0.1891839
172	0x3e532f5a	0.20623532
173	0x3f8dc219	1.1074859
174	0xbfacf3c5	-1.3511893
175	0x3df260b0	0.11834848
176	0x3f6b7344	0.91972756
177	0x3ee253cd	0.4420456
178	0x3e1618d7	0.14657913
179	0x402b010f	2.6719396
180	0xbee39d57	-0.44455978
181	0xbf0cf91a	-0.550676
182	0xbf406cfc	-0.75166297
183	0x3ea50c8b	0.32236132
184	0x3e6f322d	0.23358984
185	0xbfe3ca8f	-1.7796191
186	0x3ee3f43b	0.4452227
187	0xbf48e039	-0.78467137
188	0xc005d198	-2.0909176
189	0xbf347a54	-0.7049916
190	0xbe19fa4c	-0.15036887
191	0xc01a8b36	-2.4147468
192	0xbfad61d3	-1.3545479
193	0xbf739bac	-0.9515941
194	0xc00cece3	-2.2019584
195	0xbf917642	-1.1364214
196	0xbec8fa8a	-0.39253646
197	0xbe39b993	-0.18137197
198	0xbf53e82a	-0.8277613
199	0x3ea8d31d	0.32973567
200	0x3f8743c2	1.0567553
201	0x3d2ad40c	0.04170613
202	0xbe67b0ee	-0.22626087
203	0x3f22b30c	0.63554454
204	0xc00a7c64	-2.1638422
205	0xc03c1e2d	-2.9393418
206	0xbfce76e8	-1.6130037
207	0xc02ec701	-2.7308962
208	0xbe32964d	-0.17440148
209	0x3f5aa8f1	0.85414034
210	0x3ef299cf	0.47382972
211	0xbf1fc2b8	-0.6240649
212	0xbeafc5c3	-0.34330568
213	0x3f354fbc	0.7082479
214	0xbf9a826b	-1.207105
215	0xc0450b1c	-3.078803
216	0x3fa59641	1.2936479
217	0x3e7422e9	0.23841442
218	0xbf9b8802	-1.2150881
219	0xc0113633	-2.268933
220	0xc0702fa7	-3.7529085
221	0x3f75ac6e	0.9596623
222	0xbfc265c9	-1.5187312
223	0xbe070f3b	-0.13189404
224	0x3ec905f9	0.3926237
225	0xbf8f57e4	-1.1198697
226	0x3d834f42	0.064116016
227	0xbf0f4880	-0.5597
228	0xbe8fbf31	-0.28075555
229	0xbdf53eeb	-0.11974891
230	0x3f0966d8	0.5367255
231	0xbef14d58	-0.4712932
232	0xbe059269	-0.13044132
233	0x4046f37b	3.1086109
234	0x3e6ba28b	0.23011224
235	0x3f1c4c2e	0.6105374
236	0x3f12ad0c	0.572953
237	0xbfb4b58a	-1.4117901
238	0xbfc459db	-1.5339922
239	0x3f92a69e	1.1457098
240	0xc06529a4	-3.5806665
241	0x3f4e720b	0.80642766
242	0xbd5243bb	-0.051334124
243	0xbd783b5f	-0.060603496
244	0xc010554f	-2.2552068
245	0x3e441e76	0.19152245
246	0xc0344284	-2.8165598
247	0x3e9fc6ac	0.31206262
248	0x3f844798	1.0334349
249	0x3f906b98	1.1282835
250	0xbfae2078	-1.3603659
251	0xbe8d4531	-0.2759185
252	0xbea06249	-0.31324986
253	0x3f7643ce	0.9619721
254	0xc000b4fa	-2.011046
255	0xbedbad31	-0.42905572

bias f4 [32]
0	0x3eb9e915	0.3631064
1	0xbe3d924b	-0.18512838
2	0x3f0f952a	0.5608698
3	0x3e7cae6f	0.24675916
4	0x3f68512b	0.9074885
5	0x3f18944e	0.59601295
6	0xbcc6d061	-0.024269285
7	0xbe10a75b	-0.14126341
8	0xbe26fd82	-0.16307643
9	0x3f41eadc	0.7574899
10	0xbac4b16a	-0.0015006487
11	0x3ef09038	0.4698503
12	0xbd86f0c8	-0.06588894
13	0x3f5912fb	0.84794587
14	0x3f03d630	0.514987
15	0xbea4bead	-0.32176724
16	0x3e247284	0.16059309
17	0x3f2664a3	0.6499731
18	0x3fd744d4	1.681788
19	0x3d920097	0.07129019
20	0x3f084816	0.53234994
21	0x3db7d8d4	0.089769036
22	0x3f7b27b8	0.9810748
23	0xbf068a6a	-0.52554953
24	0xbf4eae50	-0.8073473
25	0x3f830882	1.0236971
26	0x3f0bfddf	0.5468425
27	0xbf8936af	-1.0719813
28	0x3f831924	1.0242047
29	0xbf14f63d	-0.5818823
30	0x4000833d	2.0080101
31	0x3f81b628	1.0133715

weight f4 [32]
0	0x3ff80d6f	1.93791
1	0x3fb9eaf7	1.452483
2	0x3fe3d861	1.7800409
3	0x3ffab53f	1.9586562
4	0x4004ea51	2.0768015
5	0x3fdc1345	1.719338
6	0x3fd36844	1.6516194
7	0x3fb87c86	1.4413002
8	0x3f8c3f50	1.0956821
9	0x3fa6bdf5	1.302672
10	0x3ff114c9	1.8834468
11	0x3ff63cb7	1.9237279
12	0x4001e901	2.0298464
13	0x3f3f3c55	0.74701434
14	0x400c443b	2.1916645
15	0x3fad17d2	1.3522894
16	0x4016f78d	2.3588593
17	0x40087156	2.1319175
18	0x3fa572c7	1.2925652
19	0x3f746e15	0.9548047
20	0x3ffd27ed	1.9777809
21	0x3dc87334	0.09787598
22	0x3fd90561	1.6954767
23	0x3ff56360	1.9170952
24	0x4003bc9f	2.0583875
25	0x3fb054a1	1.3775827
26	0x3fd3c702	1.6545107
27	0x3fd48bc2	1.6605151
28	0x3fa977db	1.3239702
29	0x3ffe9a3a	1.9890816
30	0x3fe91d96	1.8212154
31	0x3fbe243c	1.4854808

bias f4 [32]
0	0xbea13c96	-0.31491536
1	0xbf9d0e18	-1.2269926
2	0x3ef07178	0.4696157
3	0x3f0870b5	0.5329698
4	0xbe05bba0	-0.13059855
5	0x3dff38b8	0.1246199
6	0xbf940ba4	-1.1566052
7	0xbfdc4578	-1.72087
8	0xbfe8dcdc	-1.8192401
9	0xbf509752	-0.81480896
10	0xbfa75338	-1.3072271
11	0x3f31f0f0	0.69508266
12	0x3b4b070d	0.0030979544
13	0x3f93da86	1.1551063
14	0xbe9b0383	-0.30276117
15	0xbf0cd60f	-0.5501413
16	0x3f5b13bb	0.8557698
17	0xbeca9853	-0.3956934
18	0x3fcc8e32	1.5980895
19	0xbe2e61e7	-0.17029534
20	0x3ec1643f	0.37771794
21	0xbf8da19e	-1.1064947
22	0xbe190333	-0.14942627
23	0xbe005191	-0.12531115
24	0x3d86eeec	0.065885395
25	0xbfffba63	-1.9978756
26	0x3fdccdd3	1.7250313
27	0xbe803a62	-0.25044543
28	0xbede421c	-0.43409812
29	0xbf2280a0	-0.63477516
30	0xbf203be1	-0.6259137
31	0x3f580ea6	0.8439735

running_mean f4 [32]
0	0xc20a818c	-34.62651
1	0x4044a5d8	3.0726223
2	0xc1922310	-18.26712
3	0xc0a68fb2	-5.205041
4	0xc1f37864	-30.433784
5	0xc1abd37d	-21.478266
6	0x41a59e65	20.702341
7	0x414929d7	12.572715
8	0x41b1524c	22.165184
9	0xc17eb540	-15.9192505
10	0xbc469f5b	-0.012122954
11	0x40afb645	5.4909997
12	0xc0c6d7a4	-6.2138233
13	0xc1021b29	-8.131631
14	0xc162615e	-14.148771
15	0x41a1a2de	20.204525
16	0xc0db9407	-6.8618197
17	0xc102e40d	-8.180676
18	0xc13b5a45	-11.709538
19	0x41498647	12.595283
20	0xc1b8acb5	-23.08433
21	0xbfde354f	-1.7360018
22	0x41a4a106	20.578625
23	0xc1aad8c2	-21.355839
24	0x3f4224a2	0.7583715
25	0x41ae765d	21.807795
26	0xc197dd63	-18.983099
27	0x3ff8c0c6	1.943383
28	0x41359d09	11.350839
29	0xc1628d44	-14.159489
30	0xc12da163	-10.851901
31	0xbfa23fda	-1.2675736

running_var f4 [32]
0	0x44024840	521.1289
1	0x438053c8	256.65454
2	0x43b304e1	358.03812
3	0x439139a6	290.45038
4	0x43b0af7e	353.37103
5	0x43a14c09	322.59402
6	0x439d8085	315.00406
7	0x43958270	299.01904
8	0x43456d12	197.42606
9	0x43a9879e	339.0595
10	0x43426f0a	194.43375
11	0x43cec5fe	413.5468
12	0x43df2f2a	446.36847
13	0x4387ee4b	271.86166
14	0x4361ca83	225.79106
15	0x434f0be0	207.04639
16	0x43c89f7b	401.24594
17	0x434ad160	202.81787
18	0x443ca27f	754.539
19	0x4330e57f	176.89647
20	0x43404884	192.28326
21	0x4338facf	184.97972
22	0x438251d2	260.63922
23	0x4417a1fc	606.531
24	0x43bef460	381.90918
25	0x4344ef5f	196.93504
26	0x43eaec3e	469.84564
27	0x43aacd03	341.60165
28	0x43aaa978	341.32397
29	0x43c918b7	402.19308
30	0x4349fd10	201.98853
31	0x43e4d0ca	457.63116

weight f4 [32, 32, 3]
0	0x3eb15b38	0.34639907
1	0x3d281100	0.041031837
2	0x3e6f4961	0.23367836
3	0x3ece3dba	0.4028147
4	0xbfb7a95e	-1.4348562
5	0xbfeb0065	-1.8359495
6	0x3ff48820	1.9104042
7	0xbe8fb4fa	-0.28067762
8	0xbfc19579	-1.512374
9	0x3fbbc335	1.4668947
10	0xbd2c7438	-0.042103022
11	0xbf5b07d6	-0.8555883
12	0xc01683b6	-2.351789
13	0x3f4396a9	0.76401764
14	0xbfa4d2ec	-1.2876868
15	0x3ee9a7f4	0.4563595
16	0x3f838525	1.0275007
17	0xbeade2cc	-0.33962095
18	0x3feeb996	1.8650386
19	0x3f8bb3e4	1.0914273
20	0x3f7ceed6	0.98801935
21	0x3f3ac3d5	0.72955066
22	0xbf776b99	-0.96648556
23	0xc05388e5	-3.3052304
24	0xbf9760a9	-1.1826373
25	0xbf6e31f8	-0.93044996
26	0x3ddce865	0.10786513
27	0x401cc738	2.4496593
28	0x3f10adda	0.56515276
29	0xc015315a	-2.3311372
30	0x3e172c6d	0.14763041
31	0xbee8f030	-0.4549575
32	0xbe13b729	-0.14425339
33	0x402bc6fb	2.6840198
34	0x3fe93b96	1.8221309
35	0xbf874d1b	-1.0570406
36	0x3fae2a1c	1.3606601
37	0x3ea712e9	0.32631615
38	0xbf9a3af7	-1.2049245
39	0x3fb879d6	1.4412181
40	0xbeb8ffff	-0.3613281
41	0xbeda9071	-0.42688325
42	0x3fb6662e	1.4249933
43	0x3fa5f179	1.2964317
44	0xbf866379	-1.0499107
45	0x3e8d8836	0.27642983
46	0x3e9e2a5c	0.30891693
47	0x3eb76d10	0.35825396
48	0x3e987db7	0.29783413
49	0xbfd18491	-1.6368581
50	0xc0807262	-4.0139627
51	0xbf764d90	-0.962121
52	0x3f0a2fa9	0.53978974
53	0x3fdd2982	1.7278292
54	0xbf16e6f2	-0.58946145
55	0x3eb38724	0.35064042
56	0xbd03892a	-0.03211323
57	0x3f88e78f	1.0695666
58	0xbe777feb	-0.2416989
59	0xbe4d711e	-0.20062682
60	0x3fcb1637	1.5866154
61	0x3f6988a6	0.91224134
62	0xbf1d7336	-0.6150392
63	0x3ebf1ac5	0.3732511
64	0xbf13ea37	-0.5777926
65	0xbf6a70f8	-0.91578627
66	0x3e11d755	0.14242299
67	0xbfcae224	-1.5850263
68	0xbfe083ae	-1.7540185
69	0x3ecf6019	0.40503004
70	0x3eef1d76	0.46702164
71	0x3e219cec	0.15782517
72	0xbf196b71	-0.5992957
73	0xbe5fd6bb	-0.21859257
74	0x3e89ab9b	0.26888737
75	0x3f779a69	0.96719986
76	0x3edc4c93	0.43027171
77	0x3e5ef1e9	0.21771969
78	0xbdd8d33f	-0.10587167
79	0xbf9c5e3e	-1.221626
80	0xc004889a	-2.0708375
81	0x3f8853b3	1.0650543
82	0xbd8dbbe7	-0.06920605
83	0xbf90249b	-1.1261171
84	0x3f3560a6	0.708506
85	0x3e86929d	0.26283732
86	0xbe35bd2e	-0.17747948
87	0x3f1b7858	0.60730505
88	0x3f9de684	1.2335973
89	0x4010be9f	2.2616346
90	0x3d8f9975	0.070116915
91	0x3f5b27bf	0.8560752
92	0xc00488ce	-2.07085
93	0xbf2b2268	-0.66849375
94	0xbe508014	-0.20361358
95	0x3e9e77c9	0.30950764
96	0x3fdbba74	1.7166276
97	0x3f623cfa	0.8837429
98	0x3fc6c8ac	1.552999
99	0x3f48b245	0.7839702
100	0xbf833e7c	-1.0253444
101	0x4055a3c3	3.3381202
102	0xbf86bd0d	-1.0526444
103	0xbf50eeb6	-0.81614244
104	0x3e33b332	0.17548826
105	0x3f131ef7	0.57469124
106	0xbddd353a	-0.10801168
107	0xbf8e7a22	-1.1131022
108	0xbe3d8eb1	-0.18511464
109	0x3edd0ad2	0.43172318
110	0x404c8204	3.1954355
111	0x3e234fca	0.15948406
112	0xbe842e11	-0.25816396
113	0x3ca0e635	0.019641021
114	0x3f248f59	0.6428123
115	0x3f08ea34	0.53482366
116	0xbf9d7a5e	-1.2302969
117	0xbfc370cd	-1.5268799
118	0xbfe887ec	-1.816648
119	0x3e827121	0.25476936
120	0x3fc89565	1.5670592
121	0x3f69eaf9	0.91374165
122	0xbf6b8383	-0.91997546
123	0xbeca68bf	-0.3953304
124	0x3e23fde9	0.16014828
125	0x3f9315a6	1.1490982
126	0xbf614193	-0.87990683
127	0xc00973dc	-2.1476965
128	0xc04b8d30	-3.1804924
129	0xbeaed9ed	-0.3415064
130	0x3f886ccb	1.0658201
131	0xbe7092c3	-0.23493485
132	0xbfb5fa59	-1.4217025
133	0xbe3e7b25	-0.18601663
134	0x403c84fd	2.945617
135	0xbf28775c	-0.6580713
136	0xbf4cebda	-0.8004738
137	0xc0311f94	-2.7675524
138	0x3f5369ec	0.825835
139	0xbef1aa17	-0.4720008
140	0x3faebfad	1.3652245
141	0xbeb9d78d	-0.36297265
142	0x3f9e6d81	1.2377168
143	0xc00bba5b	-2.1832492
144	0xbee85a6b	-0.45381483
145	0xbf3d138a	-0.7385794
146	0xbf94ca40	-1.1624222
147	0x3e8221af	0.25416324
148	0x3f8cf8b4	1.1013398
149	0x405cb405	3.4484875
150	0xbb83ab64	-0.004018234
151	0xbfc0bb9e	-1.5057256
152	0x3ee47882	0.4462319
153	0xbf9de999	-1.2336913
154	0xbfb1ff76	-1.3906085
155	0x3d4edd93	0.05050428
156	0x401431b8	2.3155346
157	0x3f530fc4	0.8244593
158	0xbfc0bbce	-1.5057313
159	0x3de3f32a	0.11130364
160	0xbea762c8	-0.32692552
161	0xbf288d0f	-0.6584024
162	0x3efc0c3d	0.49228087
163	0xbea6c446	-0.3257162
164	0xc038465c	-2.8792944
165	0xc036dc2f	-2.857189
166	0x3e099c55	0.13438542
167	0x4019fbcf	2.4059942
168	0x3f3ba778	0.7330241
169	0xbf943844	-1.1579671
170	0xc09794c5	-4.7369103
171	0x400c20a6	2.1894927
172	0x3f3a9725	0.7288688
173	0xbf31d269	-0.69461685
174	0xbf97885b	-1.1838487
175	0xbf5b9875	-0.85779506
176	0x3f6253b0	0.88408947
177	0x3f2d4523	0.6768362
178	0xc0387849	-2.8823416
179	0xbf3499e4	-0.7054732
180	0xbf82df59	-1.022441
181	0xbe4adfb5	-0.198119
182	0xbf021b41	-0.50822836
183	0x3fac1045	1.3442465
184	0xbdf98e9e	-0.12185405
185	0xc0934900	-4.602661
186	0xbf806e37	-1.0033635
187	0xbf942d7e	-1.1576383
188	0x3e572484	0.21010023
189	0x3e1947e6	0.14968833
190	0xbf4c4d6e	-0.7980565
191	0x3e066ae9	0.1312672
192	0x3f963320	1.1734352
193	0x3db7f19b	0.089816295
194	0xbf896d37	-1.0736455
195	0xbf00a21a	-0.5024735
196	0xbf91b309	-1.1382762
197	0x3f667734	0.9002564
198	0x3fb46eb6	1.4096286
199	0xbf00209b	-0.5004975
200	0xbed4c4ee	-0.41556495
201	0xbff98c85	-1.9496008
202	0x3e42c66b	0.19021003
203	0xbfc8860a	-1.5665905
204	0x3f0a38ba	0.5399281
205	0xbead8461	-0.3389006
206	0xbff5e05d	-1.9209095
207	0xbf9c4335	-1.220801
208	0xbf4a5401	-0.7903443
209	0x3f7e6792	0.99376786
210	0xbf6c817e	-0.9238509
211	0xbe25e7f3	-0.16201763
212	0xbf963c1b	-1.1737093
213	0xbe41a209	-0.18909468
214	0x3f929c8a	1.1454022
215	0x3e887d3c	0.26658046
216	0xbfa06b1b	-1.2532686
217	0xbda1b25d	-0.07895348
218	0x3f9bd1c9	1.2173396
219	0xbf9105aa	-1.1329854
220	0x3dee390b	0.11631974
221	0x3fae2b46	1.3606956
222	0xbe5c7293	-0.21528082
223	0x3f09eefd	0.5388029
224	0x3f1df814	0.6170666
225	0xbee2fee1	-0.44335082
226	0x3ef35834	0.4752823
227	0x3f25ffea	0.6484362
228	0xbf6a0cf4	-0.91426015
229	0x3f32091d	0.69545156
230	0x40639b29	3.5563452
231	0x402bc660	2.6839828
232	0xbf790d53	-0.97285956
233	0x3edfbf9b	0.4370087
234	0xbf0928ef	-0.53578085
235	0xc01e0cdb	-2.4695346
236	0xbf95b484	-1.1695714
237	0xbda78184	-0.08179
238	0x3e9c7d24	0.30564225
239	0x3f188616	0.595796
240	0x3f17b6d7	0.59263366
241	0xbf2d6aef	-0.6774129
242	0x3e273e13	0.16332273
243	0x4007e02c	2.1230574
244	0xbea86c55	-0.3289515
245	0xc02b57ee	-2.6772418
246	0x3fab4f7a	1.3383629
247	0xc006ed42	-2.108231
248	0x3fd256bf	1.6432723
249	0xbf8a204b	-1.0791105
250	0xbf1c4115	-0.6103681
251	0x4044b20a	3.0733666
252	0x3defde14	0.1171228
253	0x3eb87202	0.3602448
254	0xbf02836a	-0.5098177
255	0xbf5cc05f	-0.86231035

bias f4 [32]
0	0xbe76bb0f	-0.24094795
1	0xbf3e06eb	-0.74229306
2	0x3ebd62e4	0.3698951
3	0xc033057e	-2.7972102
4	0x3f46368c	0.7742698
5	0xbe6142ac	-0.2199809
6	0x3c006456	0.007836422
7	0x3f509d09	0.81489617
8	0xbf3ccf9f	-0.73754305
9	0xbed19ebe	-0.40941423
10	0xbfb8be23	-1.4433025
11	0xbf7279d1	-0.9471713
12	0x3f764781	0.96202856
13	0x3f3c63b7	0.7358965
14	0x3f90caf4	1.1311936
15	0x3f253421	0.6453267
16	0x3e478761	0.19485237
17	0xbe225aa9	-0.15854897
18	0x3eae1e5a	0.3400753
19	0xbb4f635c	-0.0031644916
20	0xbfac3c10	-1.345583
21	0x3cca7ed5	0.024718681
22	0x3fe1e558	1.7648115
23	0xbe354f85	-0.17706116
24	0xbea10cc7	-0.3145506
25	0xbd346f99	-0.04405174
26	0x3d9d61ab	0.07684644
27	0xbe504931	-0.2034042
28	0x3ec84b55	0.39119974
29	0xbe085bbd	-0.13316245
30	0x3e44e6a7	0.19228612
31	0x3fb4e857	1.4133404

weight f4 [32]
0	0x3fbff745	1.4997336
1	0x400ed40b	2.231692
2	0x3fa1430b	1.2598585
3	0x400cffd8	2.2031155
4	0x3fde0d12	1.7347739
5	0x3fc692d3	1.5513557
6	0x40126115	2.2871754
7	0x4005f9fd	2.093383
8	0x400ac865	2.168481
9	0x3f99020c	1.195375
10	0x4006535c	2.0988379
11	0x3fcf260b	1.6183485
12	0x3f9123e0	1.1339073
13	0x400f67b3	2.2407043
14	0x40077516	2.1165214
15	0x4008a6e0	2.1351852
16	0x3ffc0790	1.9689808
17	0x3ff4edef	1.9135112
18	0x3fcc0463	1.5938839
19	0x4026874c	2.6020079
20	0x3fa7a74c	1.309793
21	0x3fa93ed9	1.3222305
22	0x40114336	2.2697272
23	0x400e1de2	2.220574
24	0x3fe1952d	1.762365
25	0x400bd039	2.184584
26	0x3fff34be	1.9937971
27	0x3fe9779f	1.823963
28	0x3f953171	1.1655713
29	0x3ffd66c2	1.9796984
30	0x3fa51079	1.2895652
31	0x3ffaed47	1.9603661

bias f4 [32]
0	0xbee7ada0	-0.45249653
1	0xbee64d9c	-0.44981086
2	0xc00afdad	-2.1717331
3	0x3f5fea7f	0.8746719
4	0xbfad8ea8	-1.355916
5	0x3f2460eb	0.64210385
6	0x3f932683	1.1496128
7	0xbf8034a1	-1.0016061
8	0xbf818660	-1.0119133
9	0xc0000809	-2.0004904
10	0xbea1fd43	-0.31638536
11	0xbf63c783	-0.88976306
12	0xbfdf137a	-1.7427819
13	0x3eb1ac65	0.3470184
14	0xbe89fe7d	-0.26951972
15	0xbc197fe9	-0.009368875
16	0xbf055bbb	-0.52093095
17	0xbf49a8cc	-0.7877319
18	0xbfa9aad0	-1.3255253
19	0x3e646e22	0.22307637
20	0xbfd6b47b	-1.6773828
21	0x3da4d74d	0.08048878
22	0x3e8d49ee	0.27595466
23	0xbf77583a	-0.96619
24	0x3f662433	0.89898986
25	0xbda26ad4	-0.07930532
26	0xbf4376a8	-0.7635293
27	0xbe8b6554	-0.27225745
28	0xc005a2eb	-2.0880687
29	0xbedff57b	-0.43741974
30	0xbfda01f2	-1.7031844
31	0xbed2dfa5	-0.41186252

running_mean f4 [32]
0	0xc0e40113	-7.125131
1	0xc19c4e03	-19.538092
2	0x416750e4	14.457249
3	0x410dd693	8.864886
4	0xc1fe6db4	-31.803566
5	0x4112d13a	9.176081
6	0xc1cd1ac7	-25.638075
7	0xc142e7dc	-12.181606
8	0xc282901a	-65.28145
9	0x41bff10b	23.992697
10	0xc1aa347d	-21.275629
11	0x40c6ed79	6.2164884
12	0x40099a18	2.1500301
13	0xc224535b	-41.0814
14	0xc16e7456	-14.903402
15	0xc054b340	-3.3234406
16	0xc1ec5803	-29.542974
17	0xc0b2b612	-5.5847254
18	0xc1e61b7e	-28.763424
19	0xc229d6aa	-42.459633
20	0x41ec7960	29.559265
21	0xc17eae1a	-15.917505
22	0xc1f94aca	-31.161518
23	0xc21a6332	-38.59687
24	0x40d5b72b	6.6786094
25	0xc12a2c70	-10.635849
26	0xc241d325	-48.456196
27	0x3fd24ad9	1.6429092
28	0x4183a1c1	16.453981
29	0x404baf17	3.1825616
30	0x41eafd96	29.373821
31	0xc1861fcf	-16.765532

running_var f4 [32]
0	0x443875d5	737.8411
1	0x43e41bb5	456.21646
2	0x43aa74d5	340.91275
3	0x43fcb6bb	505.42758
4	0x438f88ff	287.07028
5	0x44155291	597.2901
6	0x4477e899	991.63434
7	0x443b29aa	748.651
8	0x43fb92c1	503.1465
9	0x4396fb8b	301.96518
10	0x4409b4c0	550.8242
11	0x4428b3b3	674.8078
12	0x43bb75ee	374.92133
13	0x4465835f	918.0527
14	0x448da556	1133.1667
15	0x4444d0aa	787.2604
16	0x44389a21	738.40826
17	0x43d1f7f9	419.9373
18	0x437d5fbb	253.37395
19	0x43fee85f	509.8154
20	0x43dbd82c	439.68884
21	0x443f7d16	765.95447
22	0x44173b5f	604.9277
23	0x440759cd	541.40314
24	0x440424cf	528.57513
25	0x441e19a1	632.40045
26	0x43c7b366	399.40155
27	0x440ac46b	555.06903
28	0x438f910a	287.13312
29	0x440129b1	516.6514
30	0x437c0b1d	252.04341
31	0x44055eaf	533.47943

weight f4 [64, 32, 3]
0	0xc01467d2	-2.3188367
1	0xbfd8d784	-1.694077
2	0xbf61f75b	-0.8826806
3	0x3ee696ec	0.4503702
4	0x3fb03ea4	1.3769116
5	0x400c0099	2.1875365
6	0x3f2a3385	0.6648486
7	0x3f9fc7b1	1.2482816
8	0x3e9263df	0.2859182
9	0x3f98bf2a	1.1933339
10	0x3fea0e08	1.8285532
11	0x3f37f770	0.71861935
12	0xbefc5a89	-0.49287823
13	0xbf073516	-0.5281538
14	0x3ffaa16d	1.9580513
15	0x3f67912e	0.904559
16	0xbf3d035d	-0.73833257
17	0xc074c905	-3.8247693
18	0xbf23439d	-0.63775045
19	0xbeeb8b3d	-0.46004668
20	0xbf8b4e22	-1.0883219
21	0x3fcd5669	1.6041995
22	0x3df5bac1	0.11998511
23	0xbd64de11	-0.05587584
24	0x3f491f36	0.7856325
25	0xbed60eb9	-0.41808107
26	0x3fb91c84	1.4461827
27	0xbf4634f0	-0.77424526
28	0x3f16ae17	0.5885939
29	0x3f573c90	0.84076786
30	0xbe9cbf28	-0.3061459
31	0x3d81b756	0.06333797
32	0x3f5b29f4	0.8561089
33	0xbf186dd2	-0.5954257
34	0x3f36a69d	0.7134798
35	0xbf31e0b2	-0.6948348
36	0xbf21478a	-0.62999785
37	0xbf8c537e	-1.096298
38	0x3ec615ab	0.38688406
39	0xbf6185aa	-0.8809458
40	0xbfd03dea	-1.6268895
41	0x3ebe4382	0.3716088
42	0xbfa477de	-1.284908
43	0xbfb42732	-1.4074461
44	0x3f5b8180	0.85744476
45	0x3f60c1f1	0.8779593
46	0x3fc7c362	1.5606501
47	0xbebd9168	-0.37025
48	0xbfc7fa7f	-1.562332
49	0xc0041dba	-2.0643144
50	0x3f8984f0	1.0743694
51	0xbfb5b3f2	-1.419554
52	0xbf0a7fbb	-0.5410115
53	0x3f43f5ca	0.7654692
54	0x3f1f1d14	0.62153745
55	0xbf7fe3e5	-0.99957114
56	0xbe96f3cd	-0.2948288
57	0xbfac1751	-1.3444616
58	0xbe8f6223	-0.2800456
59	0xbe15ef55	-0.14642079
60	0x3e0d5e6f	0.13805555
61	0x3f0214bf	0.50812906
62	0x3fc1b35e	1.5132864
63	0xc039bd2e	-2.9021716
64	0x3e2615ca	0.1621925
65	0x402b81a2	2.6797872
66	0xbf3d51d9	-0.73953015
67	0xbf46328b	-0.7742087
68	0xbe838587	-0.2568781
69	0xbfb9b769	-1.4509097
70	0xbfc8fe09	-1.5702525
71	0xbfe9a5d0	-1.8253727
72	0x3fc4d78d	1.5378281
73	0xbfcab44d	-1.5836273
74	0xbf30b4cc	-0.69025874
75	0xc0a1593b	-5.0421424
76	0xbfaf1d84	-1.3680882
77	0xc072e9d2	-3.7955213
78	0xbee75728	-0.45183682
79	0x3cc008c2	0.023441676
80	0xbe3a353a	-0.18184367
81	0xbfa4e8b2	-1.2883513
82	0xc0325e1d	-2.7869942
83	0xc07c9508	-3.9465961
84	0xbfb41d3b	-1.407142
85	0xbf2a5900	-0.66542053
86	0xbfd5ba5f	-1.6697501
87	0x3f8f568e	1.1198289
88	0x3f2578db	0.64637536
89	0xbe4a40d1	-0.19751288
90	0x3f7eb2c2	0.9949151
91	0x3fa2a3b2	1.2706206
92	0x3fd511fc	1.6646113
93	0xbf90132a	-1.1255848
94	0x3f4af92b	0.7928645
95	0xbf168d7a	-0.58809626
96	0xc0480c95	-3.125768
97	0x3f88b7b2	1.0681059
98	0xbec48de0	-0.38389492
99	0x3fa4a4a7	1.2862748
100	0xbfba1cb6	-1.4540012
101	0x3f2d07cc	0.6759002
102	0x3f98ed4f	1.1947421
103	0x3c0d3c68	0.008620359
104	0xbc1e730d	-0.009670985
105	0x3f6fc88d	0.9366539
106	0xbcd00977	-0.025395138
107	0xbf946626	-1.1593673
108	0x3f15783f	0.58386606
109	0x3fb5d229	1.4204761
110	0x3f7f7a4d	0.9979599
111	0x3f7a89cb	0.97866505
112	0xbddd48e9	-0.10804922
113	0x3eda50e6	0.42639846
114	0xc011ef98	-2.2802486
115	0xc005b779	-2.0893233
116	0xbf79f91f	-0.97645754
117	0xc0632c05	-3.5495617
118	0xc0100cb3	-2.250775
119	0xbfd4b2a4	-1.6617017
120	0x3e395752	0.18099716
121	0x3f460b2f	0.77360815
122	0xbf88bc92	-1.0682547
123	0x3fa0305d	1.2514759
124	0x3ef8e23c	0.48610103
125	0x3f522db7	0.82101005
126	0x3fba5e83	1.4560093
127	0xbe191995	-0.14951165
128	0xbeb8fa9d	-0.36128703
129	0xbf9b81c4	-1.2148976
130	0xc04bf0f7	-3.1865823
131	0xbe0eb959	-0.13937892
132	0x3fb12010	1.383791
133	0x3d3373d5	0.043811638
134	0x3df2a56d	0.11847959
135	0xc0668c8d	-3.6023285
136	0x3f891d03	1.0711979
137	0xc0075d1d	-2.1150582
138	0x3fe00aac	1.7503257
139	0xbe95435c	-0.29152954
140	0x3e458952	0.19290665
141	0xbf9d3f31	-1.228491
142	0xbf162bc8	-0.58660555
143	0xc01b4d25	-2.4265835
144	0xc0839e7a	-4.1130953
145	0xc026adcd	-2.604358
146	0xbfbd2ceb	-1.4779333
147	0xbf37883d	-0.7169226
148	0xbf1686e9	-0.58799607
149	0x3f09428c	0.5361717
150	0xbe63ea9b	-0.22257464
151	0x3f4b7a95	0.7948392
152	0x3e221166	0.1582695
153	0xbfb91711	-1.4460164
154	0x40146f7a	2.319304
155	0xbf5d7bac	-0.86516833
156	0x3afed5a7	0.0019442335
157	0x3f67dccc	0.90571284
158	0x3f2508bc	0.6446645
159	0xbf9b7384	-1.2144628
160	0x3f935fa9	1.1513568
161	0xbfb13881	-1.3845369
162	0xbf35f0e0	-0.7107067
163	0xbf2eb542	-0.6824533
164	0xbe462b81	-0.19352533
165	0xbfa76859	-1.3078719
166	0xc017bd4b	-2.3709285
167	0xc00ac5f0	-2.1683311
168	0xbfe8e17e	-1.8193815
169	0x3c49f3f9	0.012326234
170	0xc0291c6c	-2.6423597
171	0xc00f556f	-2.2395895
172	0xbe76ce36	-0.241021
173	0x3f7a4039	0.97754246
174	0xbf3b15bf	-0.73080057
175	0xbdc8a1df	-0.097964995
176	0x3f553d50	0.8329668
177	0xbfab8f3b	-1.3403085
178	0xbf25cd45	-0.6476634
179	0x3f123398	0.57109976
180	0x4020f241	2.514786
181	0x3f190077	0.59766334
182	0x3ee21d2b	0.44162878
183	0x3f5b9a3f	0.85782236
184	0xbfcacb34	-1.5843263
185	0xbf549272	-0.8303596
186	0x4014aeaf	2.3231618
187	0xbd972451	-0.07379974
188	0xc0002ab2	-2.002606
189	0x3f796925	0.9742606
190	0xbf7d74f4	-0.9900658
191	0xbfcf733e	-1.6207044
192	0xbed32c51	-0.41244748
193	0xbd972830	-0.07380712
194	0x3f178597	0.59188217
195	0xbfbbf8de	-1.4685323
196	0xbe4ca794	-0.19985801
197	0xbfcaa026	-1.5830123
198	0x3fed0833	1.8518127
199	0x3f46b0ec	0.7761371
200	0xbfcbe7c9	-1.593011
201	0x4014cf31	2.325146
202	0xbeb322aa	-0.34987384
203	0x3eaf9c96	0.34299153
204	0xc0040260	-2.062645
205	0x3dae07a2	0.084975496
206	0x3c109d12	0.008826511
207	0x3f5c70c0	0.8610954
208	0x3ec8d9df	0.39228722
209	0xbf36974e	-0.7132462
210	0x3f54782a	0.82995856
211	0x3e2dd8de	0.1697726
212	0x3eca9088	0.39563394
213	0xbf80eb4d	-1.0071808
214	0x3d5f0d64	0.05445613
215	0x3f97c0f4	1.185576
216	0xbf36febd	-0.7148245
217	0x3e003921	0.12521793
218	0xbf5b26b0	-0.8560591
219	0xbde6e3fb	-0.112739526
220	0xbf99aa90	-1.2005177
221	0x3f83c407	1.0294198
222	0x3fa70657	1.304881
223	0x3e18e002	0.14929202
224	0xbe4342a1	-0.19068386
225	0x402fba8f	2.7457616
226	0xbac920b4	-0.0015344829
227	0x400b7d49	2.1795218
228	0xbe7f198f	-0.24912094
229	0x3f66e1bc	0.90188193
230	0x3f16f748	0.5897107
231	0xbd8cf31a	-0.068823054
232	0x40058be8	2.0866642
233	0xbf72446f	-0.9463567
234	0x3ed8fa0b	0.42378268
235	0xbf8f8204	-1.1211553
236	0xbdf259ae	-0.11833511
237	0xbf92aae4	-1.1458402
238	0x3ed5f7b9	0.4179056
239	0xbf7f16ca	-0.9964415
240	0x3e8f35cf	0.2797074
241	0x3f8b526f	1.0884532
242	0xbf0cfef3	-0.5507652
243	0x3fabe72f	1.3429927
244	0x400e7858	2.2260952
245	0xbf908d16	-1.1293056
246	0x3f7851fb	0.9700009
247	0x3f3f28f2	0.7467185
248	0xbf2f871b	-0.6856553
249	0xbfdb83ea	-1.7149632
250	0x400c5fc0	2.193344
251	0x3d8cfd58	0.06884259
252	0x400da1bc	2.2129965
253	0x4003009f	2.046913
254	0x40362f1a	2.8466249
255	0xbf5a0b48	-0.85173464

bias f4 [64]
0	0xbfd75138	-1.6821661
1	0xbf6250fb	-0.88404816
2	0xbfa64c69	-1.2992069
3	0xbef6d355	-0.4820811
4	0x3eac8f95	0.33703294
5	0xbf057776	-0.5213541
6	0x3f25ed08	0.64814806
7	0xbf208890	-0.6270838
8	0xbf109c03	-0.56488055
9	0xbf9640e4	-1.1738553
10	0x3f154a43	0.5831644
11	0xbf36884f	-0.7130174
12	0x3f8f3d3e	1.1190565
13	0x3e959cd8	0.29221225
14	0x3f536f8d	0.8259209
15	0xbc48ad69	-0.012248375
16	0xbeabbbc6	-0.33541697
17	0x3feb7558	1.8395185
18	0x3ef8550d	0.4850239
19	0xbf5914d4	-0.84797406
20	0xbf068f33	-0.52562255
21	0x3faf226a	1.3682377
22	0xbf3493d6	-0.7053808
23	0x3e4b3cf3	0.19847469
24	0x3f87fd5b	1.0624193
25	0xbe0b84e3	-0.13624911
26	0xbf8ca4f8	-1.0987844
27	0x3f0d9c1f	0.55316347
28	0xbdf29b6d	-0.11846051
29	0x3f613c21	0.87982374
30	0xbefa7d49	-0.4892371
31	0x3f95f3bd	1.1715008
32	0xbdb3f17a	-0.087862924
33	0xbf332064	-0.699713
34	0x3f38bd0a	0.7216345
35	0xbd5bc252	-0.053652115
36	0x3bec9105	0.007219436
37	0xbf1263b7	-0.571834
38	0xbed7e3fd	-0.4216613
39	0xbfe4d2c5	-1.7876822
40	0xbe43c723	-0.19118933
41	0x3f0cbefc	0.5497892
42	0x3e685c7a	0.22691527
43	0x3f16d57e	0.58919513
44	0x3e8d96a9	0.27654007
45	0xbfcae43b	-1.58509
46	0x3e8ba0ac	0.2727102
47	0xbf26d69b	-0.6517121
48	0xbeeba3b8	-0.46023345
49	0xbf16896f	-0.5880346
50	0xbea56857	-0.32306167
51	0x3f442379	0.76616627
52	0x3fb8b1cb	1.4429258
53	0xbed649ee	-0.4185328
54	0x3f5a1bc7	0.85198635
55	0xbf0a3c5c	-0.5399835
56	0x3d533af7	0.051569905
57	0xbf204be7	-0.6261582
58	0xbf19d6a2	-0.6009313
59	0x3fe15dc5	1.7606741
60	0xbf8ca9a9	-1.0989276
61	0xbe3ce081	-0.18445016
62	0xbe8160e6	-0.2526924
63	0x3fa48ab5	1.285483

weight f4 [64]
0	0x4013b5cd	2.3079712
1	0x401c2095	2.4394886
2	0x3fd07662	1.6286128
3	0x400df183	2.2178657
4	0x3f7b0f78	0.9807048
5	0x3feecb99	1.8655883
6	0x3fa23e62	1.2675288
7	0x3f8134fa	1.0094292
8	0x3fce1690	1.6100636
9	0x3fdbe043	1.7177814
10	0x3ff95202	1.9478152
11	0x3fed9e62	1.856396
12	0x3ff42a2d	1.9075371
13	0x3f95d4ad	1.1705528
14	0x3fd860cb	1.6904539
15	0x400fc596	2.2464347
16	0x3ff81785	1.9382178
17	0x3fe3966d	1.7780281
18	0x3ff645ff	1.9240111
19	0x3fc16e6f	1.5111827
20	0x3ff624f3	1.9230026
21	0x3f954053	1.1660255
22	0x3f6ff281	0.93729407
23	0x3fa8d63e	1.3190382
24	0x3fb4b6e4	1.4118314
25	0x3fae745c	1.362926
26	0x3ff134fd	1.8844296
27	0x3fe23076	1.7671039
28	0x3f87c3e8	1.0606661
29	0x3fddb93e	1.7322156
30	0x3fc9653e	1.5734022
31	0x3fc991f9	1.5747672
32	0x3fe76035	1.8076235
33	0x3fe6188d	1.7976242
34	0x3fa97fe8	1.3242159
35	0x3f901487	1.1256264
36	0x3fb3b241	1.4038774
37	0x3fd8900d	1.6918961
38	0x400d9cf7	2.2127054
39	0x3f9e4ed6	1.2367809
40	0x3f727daa	0.94723
41	0x3fca3e3e	1.5800245
42	0x3f6b6590	0.9195185
43	0x3fedae39	1.8568794
44	0x3fcdc26b	1.6074957
45	0x3feb0989	1.8362285
46	0x3f9605e7	1.1720551
47	0x4010da19	2.2633116
48	0x3fce94c6	1.6139152
49	0x3fcb7277	1.5894307
50	0x3fafee46	1.374459
51	0x400ed0ba	2.2314897
52	0x3ff2a4ee	1.8956583
53	0x3fd538b1	1.6657926
54	0x3f9f4d64	1.2445493
55	0x3fae02cb	1.3594602
56	0x3fed0381	1.8516694
57	0x3fc7e524	1.5616803
58	0x3fc8f988	1.5701151
59	0x4009427a	2.1446824
60	0x3fea7894	1.8318048
61	0x3f9d8414	1.2305932
62	0x3ff059b1	1.8777372
63	0x3ff3a44d	1.9034516
