unet/checkpoints/one_loss/epoch_34.pth (torch, 508787 bytes, 85 tensors)

weight f4 [8, 1, 3]
-0.7556165 -1.1133413 1.3544784 -1.4190108 -1.8295153 -0.111637615 0.7684807 0.10126165
-3.747855 0.21184114 0.24969794 3.0708737 -0.7222352 -1.2445469 -1.2835357 -1.8738259
-0.11527382 -1.0878476 1.3082607 -1.2421414 0.040201817 2.3117115 0.33532685 0.6026067
00000000: 1570 41bf f881 8ebf 8c5f ad3f 25a2 b5bf
00000010: 8f2d eabf 43a2 e4bd 27bb 443f 4562 cf3d
00000020: dbdc 6fc0 e2ec 583e d1b0 7f3e 3289 4440
00000030: 68e4 38bf 504d 9fbf e64a a4bf 87d9 efbf
00000040: ae14 ecbd 973e 8bbf 1675 a73f 7dfe 9ebf
00000050: a9aa 243d 15f3 1340 f6af ab3e 6f44 1a3f

bias f4 [8]
-0.35390544 0.09277567 0.15290748 0.24393493 -0.5187045 0.13531339 0.01395957 -0.6398388
00000000: 1833 b5be 2c01 be3d c793 1c3e 14ca 793e
00000010: d1c9 04bf 988f 0a3e aeb6 643c 7acc 23bf

weight f4 [8]
1.2347256 1.3792752 2.149788 1.9039624 2.1258361 1.5992022 0.9840721 1.9991642
00000000: 7d0b 9e3f 178c b03f 2096 0940 0ab5 f33f
00000010: b30d 0840 a8b2 cc3f 26ec 7b3f 9de4 ff3f

bias f4 [8]
1.3065302 -0.19764179 -0.8913102 0.6459567 0.21714503 -0.28831 0.73545647 -0.29130542
00000000: 623c a73f 9c62 4abe e82c 64bf 6b5d 253f
00000010: 445b 5e3e 5e9d 93be e046 3c3f fc25 95be

running_mean f4 [8]
-0.35566854 0.09801028 0.18244188 0.21950579 -0.50734586 0.15728688 0.007672769 -0.6608013
00000000: 301a b6be 9db9 c83d 0bd2 3a3e 20c6 603e
00000010: 6be1 01bf d00f 213e da6b fb3b 462a 29bf

running_var f4 [8]
96125.16 728249.2 751703.25 867278.5 651360.3 604668.3 63831.688 687201.3
00000000: 94be bb47 93cb 3149 7485 3749 e8bc 5349
00000010: 0506 1f49 c59f 1349 b057 7947 15c6 2749

weight f4 [16, 8, 3]
-1.229284 -0.06947064 -1.3427458 0.85072213 -1.8186932 -0.482465 -0.7616169 -0.2895972
-0.09296185 -0.42747685 0.87897336 -0.58955604 -1.133317 -2.1621392 -0.18476702 -3.3951955
0.11219987 -1.458495 0.83425534 0.18733394 -0.7098073 0.11670638 0.777466 -0.68264925
2.0856903 -2.58781 0.28660676 -0.0365505 -0.5761463 0.39163482 -0.7561129 0.18881938
-0.5813365 0.9963979 -0.7141461 -1.214804 -0.44215268 0.6452943 -0.21550913 -0.60156304
0.4095294 -1.0088902 -0.42050916 -1.0141621 1.8880252 -0.7288848 -1.4027828 0.6744677
-0.28572997 -0.8490371 0.22872458 -1.249205 -0.18514773 0.21739377 1.0466287 1.05704
1.353068 1.2378995 1.6173915 1.6542652 -1.1050842 -0.4918967 -0.24876802 -0.505719
-1.1540911 0.5432207 0.011636831 -0.22222055 -0.49705294 0.6209877 1.2623665 1.4144906
-1.3223499 0.19823885 -1.4762194 -0.21178988 0.21319841 0.41368428 -0.28843334 0.036550462
3.2351165 -0.08859533 -0.6356504 -1.0129937 -0.013124996 0.23847136 2.625367 0.22426677
-0.72635865 1.9280747 0.43178815 0.60867625 -0.09945276 1.099692 -1.1902605 -0.00665611
1.0168034 -1.1326349 -0.86103815 0.3770666 -0.84742767 -0.6060394 0.8223838 -0.51403624
-0.45531982 1.4547035 0.13349298 -1.9995195 -1.2851216 -1.0299532 -0.9218527 0.48272455
-0.73052174 0.43351665 -0.26985103 0.780079 0.017686522 0.2816012 1.5002258 -0.65501845
0.45882326 -1.110578 0.13112606 -1.2148147 -1.0679249 0.5867213 -0.5700814 1.6402501
0.64235234 0.99572647 0.46136796 1.2209142 -0.8535088 -0.34312516 0.4201664 0.11129859
-0.32271016 0.18068212 -0.8999016 -1.0506275 1.7532881 -1.5304099 -0.015550654 1.7443606
-1.6652766 -0.70011985 0.32802692 -2.1766534 0.6094263 0.8403238 0.80287844 0.88549
-0.6879334 0.49934837 -0.61642665 -0.40986177 -0.32934636 0.7174601 0.050659306 -0.18573564
-0.9266385 0.79238755 -2.5323153 2.9439316 0.2386154 0.78028303 0.5395132 -0.35466236
1.938395 -0.20036162 -1.6562324 1.0830281 -0.6540756 -1.3485622 -1.6929438 -1.9221722
-0.10129006 -0.14470895 -0.13565576 0.80181783 0.32068694 -0.5559006 -1.2156967 0.13727109
0.994452 -0.46763492 -1.1981214 -1.2275887 -0.3020029 -1.7923943 0.3064365 1.1212368
0.6310384 -1.9404985 0.32312888 0.27185583 -1.5003405 -0.75349087 -1.9764818 0.09742855
-1.4902457 0.2961259 -0.9697882 1.1124971 -0.15262206 -0.8221432 -0.40932646 -1.1122844
0.14543362 -1.635293 0.6205481 -0.7882483 0.46209514 0.17107159 -1.5755972 0.6785959
0.60158145 -0.4345307 0.62967503 -0.05343004 0.49914804 0.3562184 1.3698976 0.6579912
-2.828117 0.6978068 2.2176402 0.45564085 0.45627722 0.57750094 -1.1399082 1.2750247
-0.26912874 -0.3621322 0.0645594 0.088730246 -1.8377944 0.7290023 1.4357651 0.76199526
1.9610411 1.1462169 0.4949846 2.1697998 0.13704367 -0.7116867 -0.6149102 -0.77830654
-0.90550387 -1.012655 -0.9012048 0.7547115 1.2951099 0.5135363 -0.5981348 2.4749436
00000000: 2e59 9dbf 9f46 8ebd 18df abbf edc8 593f
00000010: f0ca e8bf a705 f7be 53f9 42bf 1646 94be
00000020: c862 bebd 3fde dabe 6604 613f 25ed 16bf
00000030: 8810 91bf 7d60 0ac0 9133 3dbe e24a 59c0
00000040: 0cc9 e53d f7af babf c291 553f 78d4 3f3e
00000050: eeb5 35bf c103 ef3d 0308 473f 1ac2 2ebf
00000060: f37b 0540 ae9e 25c0 1fbe 923e fab5 15bd
00000070: 537e 13bf 5c84 c83e 9d90 41bf de59 413e
00000080: 78d2 14bf ef13 7f3f 47d2 36bf b37e 9bbf
00000090: d661 e2be 0232 253f 6dae 5cbe 0900 1abf
000000a0: d6ad d13e 5023 81bf fa4c d7be 10d0 81bf
000000b0: cfaa f13f 3298 3abf 638e b3bf eaa9 2c3f
000000c0: 334b 92be 7f5a 59bf c736 6a3e f3e5 9fbf
000000d0: 5e97 3dbe 799c 5e3e eef7 853f 164d 873f
000000e0: 5531 ad3f 7e73 9e3f af06 cf3f f6be d33f
000000f0: 6673 8dbf e2d9 fbbe 0bbd 7ebe cd76 01bf
00000100: 42b9 93bf 8310 0b3f 68a8 3e3c c98d 63be
00000110: b97d febe 0df9 1e3f 3a95 a13f 070e b53f
00000120: c342 a9bf 20ff 4a3e c2f4 bcbf 72df 58be
00000130: af50 5a3e 6dce d33e 89ad 93be f0b5 153d
00000140: 260c 4f40 7871 b5bd fcb9 22bf c7a9 81bf
00000150: 390a 57bc d631 743e 0306 2840 30a6 653e
00000160: a4f2 39bf 27cb f63f 5613 dd3e 35d2 1b3f
00000170: e3ad cbbd b5c2 8c3f 755a 98bf 7f1b dabb
00000180: 9d26 823f 2efa 90bf ff6c 5cbf e00e c13e
00000190: 05f1 58bf 6625 1bbf bf87 523f e197 03bf
000001a0: ae1f e9be b933 ba3f 62b2 083e 41f0 ffbf
000001b0: dd7e a4bf 82d5 83bf 8afe 6bbf ac27 f73e
000001c0: 7903 3bbf e5f5 dd3e ea29 8abe 42b3 473f
000001d0: 53e3 903c 082e 903e 6607 c03f 4aaf 27bf
000001e0: e2ea ea3e 6b27 8ebf e945 063e 0c7f 9bbf
000001f0: c3b1 88bf 5e33 163f dbf0 11bf b7f3 d13f
00000200: 3471 243f eee7 7e3f 6c38 ec3e eb46 9c3f
00000210: 8d7f 5abf 1aae afbe 0d20 d73e 84f0 e33d
00000220: 443a a5be bc04 393e f45f 66bf f67a 86bf
00000230: bf6b e03f 79e4 c3bf 2cc8 7ebc 3547 df3f
00000240: c927 d5bf 0e3b 33bf 25f3 a73e 4a4e 0bc0
00000250: 5d03 1c3f 761f 573f 7189 4d3f 79af 623f
00000260: 671c 30bf 97aa ff3e 23ce 1dbf 67d9 d1be
00000270: 16a0 a8be 77ab 373f 2280 4f3d 7c31 3ebe
00000280: 2e38 6dbf e9d9 4a3f 7411 22c0 6069 3c40
00000290: 9857 743e a1c0 473f 891d 0a3f 4e96 b5be
000002a0: 541d f83f 992b 4dbe 6cff d3bf aaa0 8a3f
000002b0: 8071 27bf b09d acbf 62b2 d8bf bd09 f6bf
000002c0: 2a71 cfbd 952e 14be 58e9 0abe ef43 4d3f
000002d0: 1431 a43e 804f 0ebf f39b 9bbf cb90 0c3e
000002e0: 6894 7e3f d86d efbe 0b5c 99bf a021 9dbf
000002f0: 20a0 9abe 2d6d e5bf 3fe5 9c3e b084 8f3f
00000300: bc8b 213f 4162 f8bf 2671 a53e b030 8b3e
00000310: 280b c0bf c7e4 40bf 5bfd fcbf 9f88 c73d
00000320: 5fc0 bebf d09d 973e 0a44 78bf 4e66 8e3f
00000330: f548 1cbe fa77 52bf 3d93 d1be 565f 8ebf
00000340: 8dec 143e 4851 d1bf 3edc 1e3f a4ca 49bf
00000350: bc97 ec3e 642d 2f3e 2bad c9bf 76b8 2d3f
00000360: 3e01 1a3f cf7a debe 6232 213f 75d9 5abd
00000370: 5590 ff3e 4262 b63e ce58 af3f 1c72 283f
00000380: deff 34c0 77a3 323f d1ed 0d40 c249 e93e
00000390: 2b9d e93e 1ad7 133f 83e8 91bf 0234 a33f
000003a0: 3ecb 89be 6469 b9be b837 843d 34b8 b53d
000003b0: d93c ebbf e59f 3a3f 27c7 b73f 1f12 433f
000003c0: 6503 fb3f 3cb7 923f 9f6e fd3e 00de 0a40
000003d0: 2d55 0c3e 1931 36bf c16a 1dbf 193f 47bf
000003e0: 1acf 67bf ae9e 81bf 5cb5 66bf c634 413f
000003f0: 29c6 a53f 1d77 033f 5d1f 19bf 7a65 1e40

bias f4 [16]
1.783764 0.68042153 -0.22558421 0.13722973 1.2241645 -2.1920605 -0.41212425 1.2125626
-0.0794229 0.68285537 0.4398944 -0.118516035 1.3751036 -0.56877476 -1.5903821 0.0740725
00000000: 6152 e43f 1b30 2e3f 8cff 66be f385 0c3e
00000010: 6cb1 9c3f b84a 0cc0 f301 d3be 4035 9b3f
00000020: 79a8 a2bd 9ccf 2e3f d739 e13e 89b8 f2bd
00000030: 6503 b03f 399b 11bf a491 cbbf 53b3 973d

weight f4 [16]
1.2148995 1.2045918 1.6508495 1.4949524 1.6876781 1.0473211 1.1670606 1.5496403
0.85544276 1.8150392 1.1654664 0.5690695 1.0644051 0.9094395 1.5753117 1.4665753
00000000: d481 9b3f 1030 9a3f 094f d33f 9a5a bf3f
00000010: d605 d83f 9e0e 863f 3e62 953f 9d5a c63f
00000020: 4cfe 5a3f 3453 e83f 012e 953f 8aae 113f
00000030: 6d3e 883f 07d1 683f d0a3 c93f bdb8 bb3f

bias f4 [16]
0.2557518 -0.21478403 0.74674565 1.4099432 0.22848502 -0.7932003 1.7073058 0.88433087
-0.19018933 1.6947645 2.7281978 1.7991536 -0.21870199 0.11423894 -0.6113512 -0.41119188
00000000: e6f1 823e 58f0 5bbe b92a 3f3f 0579 b43f
00000010: faf7 693e 2d0f 4bbf ff88 da3f 8263 623f
00000020: fec0 42be 0bee d83f cb9a 2e40 aa4a e63f
00000030: 6af3 5fbe 1bf6 e93d 8381 1cbf be87 d2be

running_mean f4 [16]
-7.9529243 -2.283557 3.5419674 0.06489186 -2.702711 -0.6315521 -2.3137305 -3.5361931
-5.7813497 5.923474 6.8488984 -2.5762448 -1.4922706 -7.266146 6.868796 12.109013
00000000: 5b7e fec0 cc25 12c0 98af 6240 06e6 843d
00000010: 38f9 2cc0 66ad 21bf 2914 14c0 fd50 62c0
00000020: d100 b9c0 198d bd40 2d2a db40 32e1 24c0
00000030: b902 bfbf 4584 e8c0 2dcd db40 84be 4141

running_var f4 [16]
145.27394 45.800694 106.11131 81.11523 42.791855 41.76601 37.380352 63.594116
96.27341 54.637268 57.861053 46.2201 46.49399 50.081776 239.4022 348.0995
00000000: 2146 1143 e933 3742 fe38 d442 ff3a a242
00000010: dc2a 2b42 6510 2742 7b85 1542 6060 7e42
00000020: fc8b c042 908c 5a42 b871 6742 62e1 3842
00000030: d9f9 3942 bd53 4842 f766 6f43 bc0c ae43

weight f4 [16, 16, 3]
-2.2100294 -1.2682346 1.2675087 -1.4917127 0.8612949 -0.3086397 -1.1284982 0.3615042
1.2949222 -0.8799423 -1.0228713 0.60955286 -2.308481 -0.59651816 1.7680053 -1.434187
0.86248267 0.42604914 -0.87098163 -1.4255068 1.6032343 -0.571341 0.5383805 0.65306985
-0.6457915 0.64250755 -1.5365314 -1.6173377 0.6472762 0.84592384 -0.69668454 -0.07290982
-0.44808248 -2.7700555 0.26486644 -0.8390781 0.64292663 -0.56302124 0.31036124 0.74447894
0.37898803 -1.2138808 -0.875246 0.5236285 0.6571929 -1.4478124 0.35751006 0.57545316
-1.0911865 1.1342204 0.94020283 -0.7908017 -1.6419817 -1.9771304 -0.037021484 0.49266425
1.3195686 -1.3133425 -2.1275668 -2.6906416 0.32549858 0.17142542 0.02027972 -1.4080776
0.8212473 -0.0075149466 -0.67970496 -0.0011489829 0.44125235 -0.15596941 0.18235213 0.93746287
-1.6765522 0.5946391 0.26573306 0.110425994 -0.39884108 1.0468646 -0.34802592 -2.6803281
-1.3769269 0.23410532 -1.5746942 1.2033908 -1.4665084 0.48429552 -1.4183385 -0.21003807
0.77316356 0.36322165 -0.95478433 -0.15522572 0.111034736 -1.670212 -0.22554742 -0.016025018
-0.14788806 0.7039878 0.3020444 -1.7765353 -0.6973956 0.43067208 2.9766853 0.76451874
-0.6534172 -1.1047493 0.009847012 0.098986104 1.4784795 0.40249193 -0.2916735 -0.38737836
-0.8331992 0.036751926 2.4166033 -0.5179115 -0.79576623 -0.051295526 -1.2179396 -0.9219911
-0.10226585 0.24745359 -0.39911637 1.9168109 0.5755464 -0.93991417 -0.65695953 -0.82559454
-0.7994514 -0.9966344 -1.2235022 -0.090632886 -0.2608849 0.36018103 0.52334344 -0.5170376
-0.56003976 0.9305886 -0.18055953 -0.10688395 0.57452476 -0.1725193 -0.04109945 0.3876862
0.1927471 -0.6894273 0.70593065 -1.8533856 -0.22907858 -1.9831105 0.5733078 -1.1408573
-0.16144842 -0.364107 -0.20593658 -1.2483073 0.78676754 -1.1740173 -0.19912156 -2.7171674
-0.17775418 -0.4475274 0.11547175 -0.49755153 -2.167638 -1.2039922 -0.7598989 0.8917531
-1.5309254 -0.10273681 0.31317982 1.6780324 -0.8618547 -1.2162474 0.3695879 0.5948969
-0.67807376 -1.4801303 -0.40310276 -1.2420313 -0.07994862 0.7186716 -1.7561436 -2.414508
0.51889926 1.007502 0.6692031 -0.09654301 -1.445423 0.8233781 0.43107826 -0.9454555
0.01376529 -1.8849461 -2.6869512 -1.3373846 0.22982562 -0.42723534 -0.30250445 -1.4563988
-0.037204 0.013595992 -0.38268772 0.66749275 0.24152142 -0.5632699 -2.055631 -2.9906802
-0.28064397 1.117108 1.1128801 -0.8526326 -0.38163075 -2.905714 0.102239706 -1.8447353
-1.9189844 0.63365203 -0.47361743 0.38730207 -1.7348001 0.96782404 -0.059485942 0.5717198
-0.54561704 -1.1817908 0.04025395 -1.6226628 -0.4631498 -2.1272597 1.4245961 -0.8484604
0.5451549 -1.4431461 0.034851722 -0.8203409 0.96330315 0.74539393 -1.1112322 1.0162871
0.014969054 0.0097890245 0.8686797 -0.10689638 -1.310754 0.62749577 -0.9006215 0.5216626
1.7255965 0.34626034 -0.22131525 -1.6654811 -1.0062813 -1.2473192 1.2994707 -0.94845176
00000000: 1f71 0dc0 8355 a2bf ba3d a23f 71f0 bebf
00000010: d37d 5c3f 0606 9ebe a172 90bf 1417 b93e
00000020: 03c0 a53f e643 61bf 72ed 82bf a80b 1c3f
00000030: 27be 13c0 6ab5 18bf ff4d e23f 7193 b7bf
00000040: aacb 5c3f 1d23 da3e a7f8 5ebf 0277 b6bf
00000050: c836 cd3f 6743 12bf 4ed3 093f 962f 273f
00000060: 9752 25bf 607b 243f 10ad c4bf ec04 cfbf
00000070: e5b3 253f 778e 583f eb59 32bf be51 95bd
00000080: 116b e5be 9748 31c0 939c 873e d3cd 56bf
00000090: d796 243f 2922 10bf abe7 9e3e 2c96 3e3f
000000a0: b80a c23e 7260 9bbf 1f10 60bf 840c 063f
000000b0: cb3d 283f eb51 b9bf 8f0b b73e e650 133f
000000c0: 00ac 8bbf 222e 913f 22b1 703f fb71 4abf
000000d0: 752c d2bf 9c12 fdbf d7a3 17bd 7d3e fc3e
000000e0: a0e7 a83f 9b1b a8bf 0e2a 08c0 7933 2cc0
000000f0: c0a7 a63e 258a 2f3e a821 a63c e33b b4bf
00000100: 433d 523f f13f f6bb 2501 2ebf 7899 96ba
00000110: d4eb e13e 72b6 1fbe 84ba 3a3e 91fd 6f3f
00000120: 4399 d6bf 453a 183f 2a0e 883e 0627 e23d
00000130: e634 ccbe a9ff 853f 7430 b2be 7f8a 2bc0
00000140: 243f b0bf 4eb9 6f3e 948f c9bf b608 9a3f
00000150: 8cb6 bbbf 95f5 f73e 1e8c b5bf 3814 57be
00000160: 0cee 453f 30f8 b93e bf6c 74bf 7ef3 1ebe
00000170: 2e66 e33d 82c9 d5bf e7f5 66be e646 83bc
00000180: f86f 17be 8b38 343f 90a5 9a3e 8265 e3bf
00000190: 8588 32bf 0d81 dc3e 0382 3e40 80b7 433f
000001a0: 5a46 27bf 6d68 8dbf 5d55 213c 3ab9 ca3d
000001b0: d13e bd3f 6c13 ce3e 3b56 95be 7556 c6be
000001c0: 8b4c 55bf 3089 163d a1a9 1a40 d995 04bf
000001d0: 56b7 4bbf 421b 52bd 72e5 9bbf 9c07 6cbf
000001e0: c270 d1bd 7964 7d3e fb58 ccbe 0f5a f53f
000001f0: 0257 133f 379e 70bf 802e 28bf 2a5a 53bf
00000200: d9a8 4cbf 6f23 7fbf b89b 9cbf bc9d b9bd
00000210: b592 85be a669 b83e d6f9 053f 935c 04bf
00000220: c45e 0fbf 0e3b 6e3f 99e4 38be f9e5 dabd
00000230: 0e14 133f e6a8 30be e657 28bd ce7e c63e
00000240: 7f5f 453e 4f7e 30bf dfb7 343f bd3b edbf
00000250: 9393 6abe 91d6 fdbf 4dc4 123f 9d07 92bf
00000260: bc52 25be 3c6c babe 0ae1 52be 89c8 9fbf
00000270: 9969 493f 3346 96bf 86e6 4bbe 12e6 2dc0
00000280: 3105 36be 5022 e5be 747c ec3d 13bf febe
00000290: 95ba 0ac0 6b1c 9abf bc88 42bf ee49 643f
000002a0: 5df5 c3bf ad67 d2bd 1b59 a03e c4c9 d63f
000002b0: 82a2 5cbf ffad 9bbf a03a bd3e 2a4b 183f
000002c0: 3e96 2dbf e974 bdbf 7c63 cebe e2fa 9ebf
000002d0: 1abc a3bd ddfa 373f 50c9 e0bf 4d87 1ac0
000002e0: 95d6 043f d3f5 803f e550 2b3f 57b8 c5bd
000002f0: 9f03 b9bf e8c8 523f 4ab6 dc3e 5f09 72bf
00000300: d087 613c ea45 f1bf 02f7 2bc0 6b2f abbf
00000310: 6857 6b3e 97be dabe dde1 9abe 476b babf
00000320: 3963 18bd b9c1 5e3c a5ef c3be cee0 2a3f
00000330: 6451 773e 7532 10bf 758f 03c0 4e67 3fc0
00000340: 91b0 8fbe 65fd 8e3f db72 8e3f 2146 5abf
00000350: 1b65 c3be 38f7 39c0 0d63 d13d 4920 ecbf
00000360: 48a1 f5bf 0537 223f fc7d f2be 754c c63e
00000370: ee0d debf 51c3 773f 88a7 73bd 3b5c 123f
00000380: 8fad 0bbf ec44 97bf 53e1 243d 6ab3 cfbf
00000390: f821 edbe 0625 08c0 2a59 b63f b334 59bf
000003a0: 468f 0b3f 03b9 b8bf aec0 0e3d dc01 52bf
000003b0: 099b 763f 23d2 3e3f db3c 8ebf b215 823f
000003c0: c340 753c 2562 203c cb61 5e3f 7dec dabd
000003d0: c9c6 a7bf 90a3 203f 218f 66bf ae8b 053f
000003e0: 59e0 dc3f 0949 b13e 77a0 62be 7c2e d5bf
000003f0: d3cd 80bf 28a8 9fbf 0e55 a63f bccd 72bf

bias f4 [16]
1.1364765 -0.46357805 0.8018239 -1.9564494 0.46001133 0.99605995 -1.0274398 -0.59867126
0.33280885 0.25257805 -0.24166468 1.9185051 -0.36580032 -0.5681317 -0.7637303 0.6536132
00000000: 1078 913f 1a5a edbe 5544 4d3f ef6c fabf
00000010: 9b86 eb3e c9fd 7e3f 2683 83bf 8542 19bf
00000020: ec65 aa3e e951 813e f276 77be 9391 f53f
00000030: 2e4a bbbe 1471 11bf d483 43bf 3253 273f

weight f4 [16]
1.2143261 1.613462 1.9937769 1.864299 1.587669 2.2336183 1.0769061 1.3030318
1.3258278 1.2886207 2.1508105 1.2879059 1.603591 1.4693952 1.3837528 1.172837
00000000: 0a6f 9b3f ec85 ce3f 1534 ff3f 5aa1 ee3f
00000010: bd38 cb3f 9af3 0e40 0fd8 893f bfc9 a63f
00000020: bab4 a93f 86f1 a43f e1a6 0940 1ada a43f
00000030: 7842 cd3f 2415 bc3f d01e b13f 861f 963f

bias f4 [16]
-0.063131325 -0.04211713 0.91241765 0.23482402 0.53853756 0.83147496 1.135276 -1.1575108
0.0143438745 0.4401089 0.24294503 -1.1594042 0.78245056 -0.24766488 -1.0731947 -1.3221929
00000000: ff4a 81bd 0383 2cbd 3494 693f b575 703e
00000010: 99dd 093f 8bdb 543f b950 913f 5029 94bf
00000020: 9202 6b3c f455 e13e 95c6 783e 5b67 94bf
00000030: ae4e 483f dd9b 7dbe 725e 89bf 9e3d a9bf

running_mean f4 [16]
-16.010826 -24.266516 -5.1930046 -24.830473 -23.671093 9.054997 -24.080286 11.603337
-4.5793242 -2.6576316 -13.995153 6.541988 -6.013025 7.821308 23.752127 21.174694
00000000: 2c16 80c1 d321 c2c1 182d a6c0 cfa4 c6c1
00000010: 665e bdc1 45e1 1041 6da4 c0c1 45a7 3941
00000020: d389 92c0 a316 2ac0 26ec 5fc1 f757 d140
00000030: b36a c0c0 2848 fa40 5b04 be41 c665 a941

running_var f4 [16]
57.43658 353.41568 123.06952 76.13352 163.74377 114.705475 81.2915 94.72862
113.26416 236.4872 101.74066 84.491844 390.78476 109.45569 151.66162 59.537777
00000000: 0fbf 6542 35b5 b043 9823 f642 5d44 9842
00000010: 68be 2343 3469 e542 3f95 a242 0e75 bd42
00000020: 4087 e242 b97c 6c43 387b cb42 d3fb a842
00000030: 7364 c343 50e9 da42 60a9 1743 af26 6e42

weight f4 [32, 16, 3]
-1.4435759 0.023243183 -2.5672562 -1.5020752 0.3658476 1.276857 0.45760334 -0.9647484
1.4995743 0.931774 -0.21117257 0.6836515 -0.0617928 -0.17952168 -1.5560746 0.073001176
0.3651754 0.04573251 -2.475305 -1.7908356 2.5515668 0.273262 -0.18385357 -0.010776568
0.9002838 -0.110216096 -1.468535 -0.12505397 -1.0961937 -2.4056056 -0.30414814 -3.5213215
-1.1216911 -0.8877049 -1.5242779 -0.44269204 -0.25453582 -0.34127188 -0.03759598 1.0400796
-0.1758934 0.84498656 -0.31792146 -1.4725021 -0.2582107 1.241021 0.1303232 -1.2962861
0.19032799 -0.83167416 0.6903615 0.10126996 -1.2063618 0.29890057 -1.2143325 -0.7904684
-0.22282436 -0.61538905 -0.41906753 1.0659986 0.72365975 -1.7590184 -1.1596767 -0.7305373
0.5585683 -0.019420587 -0.13704416 -1.3280394 1.7003524 1.1059247 1.5981277 -1.4700545
-0.9762988 1.4700581 -1.036404 0.35466164 -0.7489036 -0.28597388 2.5578625 -0.6037168
-1.9407512 0.5137459 -0.37623066 -1.5050685 -1.6477222 -1.1704403 0.119220145 -1.5088717
2.1067493 -0.63836646 0.9141301 0.60490644 0.95232505 -0.034314953 1.030016 -0.94956017
-0.4223708 -0.47451365 0.5576823 0.53564274 0.8750112 0.48645452 -1.2112496 -0.7165286
0.7531924 -1.5339141 0.24207626 0.48039696 -0.67742693 0.5346 0.077575706 -1.8336862
0.31930074 -0.15239196 -0.8307217 -0.28505096 -0.3684521 0.9127412 1.0731956 -1.9232161
-1.6413538 -0.34960797 -1.3313557 -0.23287055 1.7082535 0.5955606 2.2512448 -0.5941214
-1.6434261 -0.92942345 1.2406223 -2.0896342 -0.90886325 -0.5226069 -0.7753515 -0.0048685493
-0.12407631 -0.8929801 1.3390273 0.7488565 0.2417764 -0.81075627 -0.93773574 -2.3770323
0.008342599 0.6345938 0.8438064 -0.32289213 -0.5940436 -1.9436929 -1.2928573 -0.5166993
-0.57113194 -1.4633453 -0.92110133 -1.3050379 -1.5954496 -1.0044557 0.7336578 -0.5328228
-1.0790184 -0.7969445 0.2843647 -0.18190497 -0.9786175 0.868705 0.7611331 0.59070957
1.3876661 1.1943864 0.32317913 -3.98769 -1.9358163 -1.075796 -0.3257587 -0.8818298
-0.23612307 0.09278431 -0.2959974 -1.5754856 1.8034179 0.72845364 -1.0868903 0.2784233
0.11647826 -0.073940456 -0.5094326 -1.9323366 -0.80300164 -0.051303785 0.57177377 1.0482002
-0.08824954 -0.4171425 -0.15997525 -1.7518517 -0.5777338 0.1786158 -0.8180849 -0.87713593
0.3947358 1.1700675 0.21235517 0.61540365 2.1175976 -0.5621067 -2.061955 0.50260663
2.446941 0.86021274 -1.3519183 -0.9081253 1.0276287 -0.8973692 0.17341952 -0.92683184
0.44754416 0.47626534 -0.17316717 1.2449626 0.0057261875 -1.4229292 -0.5373433 -0.24665016
1.5427238 0.43042997 0.0014077288 0.4491508 -0.9892215 0.7817958 -0.10159708 0.2397032
1.6232933 -0.011337355 -0.7082903 -1.1181462 -2.5599225 0.5937975 -0.5589349 0.28106874
-1.6235735 0.08767662 0.20930952 0.53375846 0.6147793 0.9221383 -1.2145084 0.67028534
0.13911268 0.11799627 0.12937644 -0.44887105 -1.6380193 0.570513 0.18087079 0.57449216
00000000: 18c7 b8bf 7d68 be3c ed4d 24c0 0044 c0bf
00000010: 6050 bb3e 0d70 a33f fc4a ea3e c0f9 76bf
00000020: 0df2 bf3f be88 6e3f 9f3d 58be c903 2f3f
00000030: 721a 7dbd 88d4 37be 742d c7bf a481 953d
00000040: 45f8 ba3e 0352 3b3d 666b 1ec0 1a3a e5bf
00000050: df4c 2340 ffe8 8b3e 1c44 3cbe 3490 30bc
00000060: 0079 663f fab8 e1bd f4f8 bbbf 260e 00be
00000070: 1350 8cbf 71f5 19c0 4eb9 9bbe 555d 61c0
00000080: 9393 8fbf a140 63bf 8a1b c3bf 88a8 e2be
00000090: 8552 82be 30bb aebe 3efe 19bd 5421 853f
000000a0: 661d 34be 0a51 583f 9ac6 a2be f37a bcbf
000000b0: 3134 84be c7d9 9e3f 7273 053e b4ec a5bf
000000c0: 57e5 423e 99e8 54bf 88bb 303f a066 cf3d
000000d0: 106a 9abf 7f09 993e 3f6f 9bbf 235c 4abf
000000e0: 122c 64be 238a 1dbf 0590 d6be a472 883f
000000f0: c441 393f 8427 e1bf 4970 94bf 7e04 3bbf
00000100: 55fe 0e3f ec17 9fbc 4e55 0cbe 32fd a9bf
00000110: 26a5 d93f f18e 8d3f 738f cc3f bf2a bcbf
00000120: b8ee 79bf dd2a bc3f e3a8 84bf 3696 b53e
00000130: 25b8 3fbf 2b6b 92be 05b4 2340 2f8d 1abf
00000140: 896a f8bf da84 033f 4ea1 c0be 16a6 c0bf
00000150: 90e8 d2bf fdd0 95bf b129 f43d b522 c1bf
00000160: fbd4 0640 fc6b 23bf 6e04 6a3f 26db 1a3f
00000170: 93cb 733f d68d 0cbd 90d7 833f 6016 73bf
00000180: fc40 d8be 74f3 f2be 44c4 0e3f e21f 093f
00000190: bc00 603f 9110 f93e 3a0a 9bbf 6b6e 37bf
000001a0: 38d1 403f 4c57 c4bf d7e2 773e 97f6 f53e
000001b0: da6b 2dbf 8cdb 083f 03e0 9e3d 3bb6 eabf
000001c0: 637b a33e a30c 1cbe 2daa 54bf 33f2 91be
000001d0: c1a5 bcbe 68a9 693f 795e 893f f22b f6bf
000001e0: e217 d2bf d1ff b2be dd69 aabf 9e75 6ebe
000001f0: 0da8 da3f a976 183f 6514 1040 5718 18bf
00000200: c95b d2bf b2ee 6dbf b6cc 9e3f 91bc 05c0
00000210: 43ab 68bf 91c9 05bf 707d 46bf 5a88 9fbb
00000220: b81b febd 589a 64bf 3f65 ab3f 0fb5 3f3f
00000230: 3c94 773e b98d 4fbf 730f 70bf 4c21 18c0
00000240: 65af 083c bd74 223f b203 583f 1e52 a5be
00000250: 3e13 18bf eeca f8bf 597c a5bf 6846 04bf
00000260: b435 12bf e64e bbbf 4ccd 6bbf 7b0b a7bf
00000270: b137 ccbf 0192 80bf ffd0 3b3f 1367 08bf
00000280: 461d 8abf 8e04 4cbf 4098 913e 4c45 3abe
00000290: ad86 7abf 7363 5e3f 9ed9 423f be38 173f
000002a0: 0b9f b13f a7e1 983f bc77 a53e 5036 7fc0
000002b0: d4c8 f7bf afb3 89bf d8c9 a6be 99bf 61bf
000002c0: 3fca 71be b305 be3d f98c 97be 83a9 c9bf
000002d0: 66d6 e63f f07b 3a3f 391f 8bbf 808d 8e3e
000002e0: 278c ee3d 186e 97bd 2d6a 02bf ce56 f7bf
000002f0: 8491 4dbf eb23 52bd c45f 123f 6d2b 863f
00000300: 2dbc b4bd b493 d5be 8dd0 23be ad3c e0bf
00000310: 5de6 13bf 0fe7 363e 036e 51bf fb8b 60bf
00000320: d01a ca3e c6c4 953f a273 593e 188b 1d3f
00000330: b886 0740 3ae6 0fbf 12f7 03c0 d4aa 003f
00000340: ae9a 1c40 e736 5c3f a90b adbf e67a 68bf
00000350: 5689 833f fdb9 65bf e394 313e da44 6dbf
00000360: 8224 e53e 0dd9 f33e bc52 31be ef5a 9f3f
00000370: bea2 bb3b 8b22 b6bf 558f 09bf dc91 7cbe
00000380: f977 c53f 5161 dc3e 8a83 b83a 18f7 e53e
00000390: 9f3d 7dbf c523 483f 2112 d0bd c174 753e
000003a0: 13c8 cf3f 50c0 39bc 8352 35bf 6a1f 8fbf
000003b0: c5d5 23c0 1d03 183f 5c16 0fbf 3ee8 8f3e
000003c0: 42d1 cfbf cd8f b33d 3c55 563e 65a4 083f
000003d0: 2d62 1d3f 4111 6c3f 0375 9bbf d297 2b3f
000003e0: 8e73 0e3e 07a8 f13d 427b 043e 6dd2 e5be
000003f0: 9eaa d1bf 240d 123f 3136 393e eb11 133f

bias f4 [32]
-0.060447987 0.6622931 -0.5317981 -0.27874038 -0.044738356 -1.1596663 1.0918788 0.6442628
-0.5135031 0.63114107 -0.7348576 -1.2241851 0.18504854 -0.5810334 0.60347015 -0.60740614
-0.7820072 1.4475489 0.8112267 -0.3273929 -0.9793149 1.103265 1.361408 0.20723386
0.041395042 -0.6620984 0.8736522 -0.2803578 -1.4005018 -0.82388836 0.024813395 -0.5741838
00000000: 4f98 77bd 0a8c 293f ec23 08bf 0fb7 8ebe
00000010: 913f 37bd f26f 94bf afc2 8b3f 68ee 243f
00000020: f074 03bf 7692 213f a11f 3cbf 19b2 9cbf
00000030: 5d7d 3d3e 9bbe 14bf 057d 1a3f f87e 1bbf
00000040: a031 48bf 4849 b93f 8eac 4f3f 0ba0 a7be
00000050: 62b4 7abf ca37 8d3f 9e42 ae3f 1d35 543e
00000060: d98d 293d 487f 29bf aca7 5f3f 0f8b 8fbe
00000070: a543 b3bf 59ea 52bf 7645 cb3c b6fd 12bf

weight f4 [32]
1.3125402 1.2128178 1.1834017 1.18741 1.6506294 1.1178302 0.6181236 0.9067274
1.3428749 1.5029479 0.89756244 1.8084242 1.6551098 0.55415493 1.5810219 0.92004687
1.8016723 1.4408981 1.5889035 1.3518156 1.511134 1.5928307 1.9520583 2.2031212
0.6664502 2.0212007 1.4502571 0.99462235 2.381615 1.0800807 1.3367224 2.1659727
00000000: 5101 a83f 9d3d 9b3f b579 973f 0dfd 973f
00000010: d347 d33f 0f15 8f3f 593d 1e3f 491f 683f
00000020: 53e3 ab3f 9960 c03f a7c6 653f 727a e73f
00000030: a3da d33f 19dd 0d3f ed5e ca3f 3188 6b3f
00000040: 339d e63f 596f b83f 3161 cb3f 4b08 ad3f
00000050: d76c c13f e0e1 cb3f 0cdd f93f f0ff 0c40
00000060: 7b9c 2a3f 5a5b 0140 06a2 b93f 929f 7e3f
00000070: 616c 1840 1640 8a3f b819 ab3f 4c9f 0a40

bias f4 [32]
0.22959903 0.46064916 -0.33644712 0.30199364 -0.39746216 -2.0265732 -0.52852124 -1.018329
0.67893213 -0.037411936 -0.8342538 -0.15676805 0.06237785 -0.26043957 -0.29095858 2.0891335
-0.24196067 -0.19423805 0.43306515 -0.2132544 -0.0074211834 0.62722534 1.3683081 -0.97883433
-0.50571126 -0.4071729 0.27157733 -1.305147 -1.3497039 -1.8156203 0.15198721 -1.0209239
00000000: 021c 6b3e 35da eb3e cc42 acbe e99e 9a3e
00000010: 2980 cbbe 60b3 01c0 2b4d 07bf 9b58 82bf
00000020: 7fce 2d3f 423d 19bd a891 55bf ce87 20be
00000030: eb7f 7f3d 5658 85be 86f8 94be 5db4 0540
00000040: 8ac4 77be 57e6 46be b7ba dd3e 5d5f 5abe
00000050: 662d f3bb d791 203f b824 af3f e394 7abf
00000060: 4b76 01bf f778 d0be 2f0c 8b3e 0f0f a7bf
00000070: 19c3 acbf 3f66 e8bf 89a2 1b3e a2ad 82bf

running_mean f4 [32]
-10.635584 -7.3895187 -8.813845 -16.141459 1.5587045 7.1777673 6.5651197 -4.0739384
-10.106217 8.770421 0.18509805 -10.024178 4.2100205 4.103165 5.7207637 -7.8061604
-10.908309 2.211754 1.356966 4.1194887 -4.746576 -7.7601185 -16.173285 -3.014195
-5.4124317 -2.6957092 -9.008774 13.448659 5.8957596 4.480594 -4.267103 3.4551694
00000000: 5a2b 2ac1 f076 ecc0 8205 0dc1 b521 81c1
00000010: a183 c73f 45b0 e540 7615 d240 b45d 82c0
00000020: 11b3 21c1 a553 0c41 588a 3d3e 0863 20c1
00000030: 7db8 8640 214d 8340 7f10 b740 11cc f9c0
00000040: 6f88 2ec1 618d 0d40 10b1 ad3f dad2 8340
00000050: f3e3 97c0 e452 f8c0 e362 81c1 92e8 40c0
00000060: a432 adc0 8086 2cc0 f023 10c1 b52d 5741
00000070: 10aa bc40 0761 8f40 1c8c 88c0 7f21 5d40

running_var f4 [32]
150.02058 61.40867 122.51492 179.46764 116.374466 55.078094 115.52023 63.577076
124.83114 153.43314 134.69005 216.5959 164.77306 69.86973 164.05835 197.35637
79.07635 204.86786 163.33253 91.68961 135.6823 100.45997 138.1963 81.584114
89.67413 179.00961 145.03638 127.660385 133.42357 41.64595 197.19194 107.20463
00000000: 4505 1643 7aa2 7542 a407 f542 b777 3343
00000010: babf e842 f84f 5c42 5c0a e742 ed4e 7e42
00000020: 8ba9 f942 e26e 1943 a7b0 0643 8d98 5843
00000030: e7c5 2443 4dbd 8b42 f00e 2443 3b5b 4543
00000040: 1727 9e42 2cde 4c43 2155 2343 1561 b742
00000050: abae 0743 81eb c842 4132 0a43 112b a342
00000060: 2859 b342 7602 3343 5009 1143 1e52 ff42
00000070: 6f6c 0543 7495 2642 2331 4543 c568 d642

weight f4 [32, 32, 3]
2.331187 0.698805 1.3246888 -2.0226743 0.3096082 -0.34130436 -0.69952756 0.5266288
-0.02209334 1.6833544 0.24236546 0.2701838 1.3760499 1.4688692 -0.3415246 -0.61303204
0.95030177 1.5290672 -0.79026556 0.35882503 0.486137 1.7634118 1.146093 -0.20971511
-2.2770994 -1.1433955 -1.39775 -0.309886 0.5166094 -0.26033315 1.1983523 0.32597038
0.06915061 -2.4413872 -0.6500423 -0.27864644 0.5409232 -0.20633739 -1.0874952 1.2141166
0.7676406 -0.42702782 1.3167816 1.1547608 0.14425004 -2.547741 -1.1249728 -1.8645146
1.5706824 -0.034218136 -0.99182177 -0.48450723 0.8901761 -0.43554875 -3.075973 -0.42020124
-1.026634 -1.231211 -2.473326 -2.1945875 -0.62500346 -0.09425022 -0.5386795 -1.0438099
0.2685303 -0.574642 0.082684316 -0.8888038 -2.1537025 -0.21137856 1.382388 -0.9318029
-0.25102296 0.03148211 -0.96338797 -2.7069998 -0.3446811 -0.3731643 -0.19020844 0.95882833
-0.35761893 0.008051202 -0.38921174 0.30311432 -0.49698016 -0.48423424 -1.7691437 -1.0602989
-0.34204897 0.1723589 -0.6997069 0.9167417 -0.39968476 -0.06533225 -0.3036858 -1.5299398
0.060148593 0.36338344 0.81995326 0.3002218 -0.97678304 -1.6294688 0.17530216 -2.5788667
-1.856372 -1.1019236 0.9537674 -0.9925492 0.9574056 -0.41531035 -0.23333871 -0.27514946
-1.365141 1.0889069 -0.13445641 -0.9288283 -1.1719904 -0.6935429 -0.06539059 -0.31771508
0.78339785 -0.3555563 -0.92873555 0.6209244 0.24223801 -1.2127168 -1.8097253 0.4415509
1.202959 -0.16607846 -0.58227706 -1.7401109 -3.1269596 -0.58882564 1.2043424 0.123207964
0.3337861 0.25559255 -2.6517816 -0.2648384 0.7523875 -1.0340015 -0.9773035 -0.87302035
-0.08497807 0.46652284 0.9381913 0.20949037 -2.4377706 0.6845308 0.34593627 -0.21993712
-0.9614374 -0.81506723 -0.36147174 -1.691948 1.5149652 0.42803076 -0.98638564 1.2959586
-0.01632497 -1.2828604 0.49788976 -0.2257579 -1.7379438 -0.6595638 -0.74062806 -1.8244907
1.343272 1.0683407 -0.47212243 0.40052584 -0.8946412 -0.7344475 1.3877779 -0.69090825
-1.4122303 -0.41395512 0.8107857 0.51086533 -3.1967595 -3.0959408 -0.32598853 -0.6093748
0.89290476 -0.4515036 -0.45006174 -1.1089696 -2.387062 -1.2011555 -1.7723598 0.6911199
-0.7793965 0.9884199 0.36442629 -0.14899415 0.0081555145 -0.699559 -0.44618872 -0.66507894
-0.8491976 0.35754722 0.4444509 0.6371063 0.2710124 0.34876934 0.6301971 1.3810169
0.131866 -1.6780381 1.0634551 1.1622703 -0.66360044 0.3363826 0.878042 -0.57766473
-1.6491137 1.0415398 0.56543595 -0.62912357 0.56405246 1.1253141 0.7567876 -1.2627815
0.6665775 0.93375325 1.2648337 0.7354492 1.6979383 -0.89893234 0.7621074 0.17232518
-0.63705873 1.2272718 1.2366297 -0.7045832 1.4283993 0.3598092 0.85407853 1.0384241
0.63269156 -0.26677498 0.47329447 1.1730626 0.06986352 -0.20181903 0.5091463 0.28303608
0.0441587 -1.1005456 -0.31917658 -1.5586574 0.66058487 -0.023109853 -0.59101754 0.6163703
00000000: 2b32 1540 e2e4 323f 678f a93f 7f73 01c0
00000010: f784 9e3e 72bf aebe 3d14 33bf 25d1 063f
00000020: 18fd b4bc 2878 d73f a72e 783e 8855 8a3e
00000030: 6722 b03f e803 bc3f 50dc aebe abef 1cbf
00000040: fa46 733f 79b8 c33f d84e 4abf eab7 b73e
00000050: f3e6 f83e 7ab7 e13f 2db3 923f 8fbf 56be
00000060: ffbb 11c0 c95a 92bf 79e9 b2bf 61a9 9ebe
00000070: 8340 043f 634a 85be 9c63 993f 97e5 a63e
00000080: d69e 8d3d b03f 1cc0 2c69 26bf bfaa 8ebe
00000090: f179 0a3f 1c4a 53be 0b33 8bbf 2c68 9b3f
000000a0: 1884 443f 64a3 dabe 4d8c a83f 34cf 933f
000000b0: 48b6 133e 300e 23c0 1cff 8fbf 6aa8 eebf
000000c0: 1f0c c93f 5128 0cbd 08e8 7dbf 5511 f8be
000000d0: 95e2 633f 3f00 dfbe bedc 44c0 9e24 d7be
000000e0: be68 83bf 5298 9dbf f94a 1ec0 1f74 0cc0
000000f0: 3a00 20bf 4206 c1bd e6e6 09bf 909b 85bf
00000100: ce7c 893e bd1b 13bf 6556 a93d a588 63bf
00000110: 43d6 09c0 9f73 58be 17f2 b03f a38a 6ebf
00000120: 1586 80be 63f3 003d 98a0 76bf 7c3f 2dc0
00000130: 0b7a b0be 640f bfbe 00c6 42be c675 753f
00000140: d419 b7be 30e9 033c c346 c7be cd31 9b3e
00000150: 2f74 febe 8ded f7be 4d73 e2bf e0b7 87bf
00000160: 0b21 afbe da7e 303e fe1f 33bf 96af 6a3f
00000170: 7ba3 ccbe eacc 85bd b57c 9bbe 11d5 c3bf
00000180: 5f5e 763d 650d ba3e 75e8 513f acb6 993e
00000190: 740e 7abf 6f92 d0bf 6982 333e 270c 25c0
000001a0: 999d edbf d50b 8dbf 1a2a 743f b417 7ebf
000001b0: 8918 753f 8fa3 d4be 58f0 6ebe 64e0 8cbe
000001c0: f1bc aebf 4d61 8b3f f1ae 09be b1c7 6dbf
000001d0: c803 96bf 078c 31bf 80eb 85bd 8dab a2be
000001e0: c38c 483f 7a0b b6be 9dc1 6dbf e7f4 1e3f
000001f0: 3e0d 783e 4e3a 9bbf 14a5 e7bf f612 e23e
00000200: 8ffa 993f 7910 2abe 1c10 15bf f4bb debf
00000210: 1b20 48c0 47bd 16bf e427 9a3f 7554 fc3d
00000220: 03e6 aa3e 07dd 823e cab6 29c0 e698 87be
00000230: 789c 403f 295a 84bf 9030 7abf 437e 5fbf
00000240: fb08 aebd 15dc ee3e 4e2d 703f a584 563e
00000250: 6f04 1cc0 693d 2f3f 8f1e b13e 3237 61be
00000260: c320 76bf 3fa8 50bf d312 b9be c191 d8bf
00000270: 61ea c13f d926 db3e c583 7cbf f9e1 a53f
00000280: f2bb 85bc c534 a4bf 68eb fe3e 142d 67be
00000290: f174 debf 2cd9 28bf cd99 3dbf e988 e9bf
000002a0: 56f0 ab3f 63bf 883f 08ba f1be b911 cd3e
000002b0: 3507 65bf c004 3cbf b5a2 b13f 5ddf 30bf
000002c0: f6c3 b4bf edf1 d3be a78f 4f3f 12c8 023f
000002d0: b597 4cc0 e523 46c0 f8e7 a6be fdff 1bbf
000002e0: 6895 643f 7b2b e7be 7e6e e6be b7f2 8dbf
000002f0: a0c5 18c0 77bf 99bf b0dc e2bf 3ced 303f
00000300: 8786 47bf 1609 7d3f 1596 ba3e ec91 18be
00000310: b59e 053c 4c16 33bf d972 e4be 9d42 2abf
00000320: 0465 59bf 6e10 b73e 128f e33e 6619 233f
00000330: 23c2 8a3e e591 b23e 9954 213f 29c5 b03f
00000340: e107 073e f4c9 d6bf 4c1f 883f 46c5 943f
00000350: b8e1 29bf 573a ac3e 5cc7 603f d6e1 13bf
00000360: 2816 d3bf 2d51 853f 69c0 103f 3e0e 21bf
00000370: be65 103f 4b0a 903f d5bc 413f d3a2 a1bf
00000380: d3a4 2a3f 740a 6f3f 12e6 a13f 6646 3c3f
00000390: 0b56 d93f 6e20 66bf 7819 433f 0376 303e
000003a0: 4816 23bf 3e17 9d3f e249 9e3f 915f 34bf
000003b0: cad5 b63f e938 b83e e4a4 5a3f 15eb 843f
000003c0: 13f8 213f bb96 88be a753 f23e ea26 963f
000003d0: 9b14 8f3d a6a9 4ebe 6957 023f 1bea 903e
000003e0: c1df 343d aede 8cbf 1d6b a3be 1682 c7bf
000003f0: 171c 293f e050 bdbc ed4c 17bf 72ca 1d3f

bias f4 [32]
-1.1031415 0.012870178 -0.69288325 0.5733841 -0.66905886 -0.52729183 -1.1973178 -0.67161155
-0.61363196 -0.24283682 -0.6399604 -0.63041556 -0.93502116 0.77067614 1.7279128 -0.09098309
0.42871648 0.11640978 -0.17091088 0.8617638 -1.1340842 -0.63963574 0.07662556 0.24522465
0.19065717 0.6044127 -0.16041605 0.2532315 0.6267534 -1.1247748 -1.012059 -1.1101979
00000000: be33 8dbf 70dd 523c cc60 31bf 4dc9 123f
00000010: 7147 2bbf 99fc 06bf b641 99bf bcee 2bbf
00000020: fc16 1dbf 37aa 78be 72d4 23bf ea62 21bf
00000030: 8c5d 6fbf 084b 453f 3f2c dd3f 5855 babd
00000040: ba80 db3e 4068 ee3d 4303 2fbe 8d9c 5c3f
00000050: ac29 91bf 2bbf 23bf dded 9c3d 2c1c 7b3e
00000060: a23b 433e caba 1a3f 1b44 24be 8fa7 813e
00000070: e972 203f 9ff8 8fbf 268b 81bf f71a 8ebf

weight f4 [32]
1.3647019 0.8899996 1.2808412 1.1729281 2.068374 2.2950568 1.0900054 2.0363753
1.6219447 2.0231855 0.9648701 1.5375621 1.4365243 1.521197 1.3015027 1.3546886
1.42307 1.96055 1.1203073 1.1277939 0.9346602 1.7462455 1.8691669 0.74398595
0.98388207 2.1699834 1.8831336 1.9854703 0.7480074 1.10072 2.0298955 1.9760388
00000000: 8dae ae3f 04d7 633f 9bf2 a33f 8222 963f
00000010: 3d60 0440 36e2 1240 4c85 8b3f f953 0240
00000020: e29b cf3f df7b 0140 ba01 773f d6ce c43f
00000030: 07e0 b73f 95b6 c23f a497 a63f 7066 ad3f
00000040: 2827 b63f 4df3 fa3f 3b66 8f3f 8d5b 903f
00000050: e445 6f3f f984 df3f dc40 ef3f dd75 3e3f
00000060: b2df 7b3f 02e1 0a40 860a f13f e423 fe3f
00000070: 6a7d 3f3f 65e4 8c3f cfe9 0140 d7ee fc3f

bias f4 [32]
1.0689199 -0.063834265 -2.1066587 0.87471026 0.76075065 -0.5535086 -1.3727485 1.0955534
-0.6736379 -0.28131083 1.6624781 -0.6861959 0.36881799 -0.62787455 0.98556095 -1.4779154
-0.74109095 -0.73132485 -1.3489853 -0.55381167 -0.42750093 -1.0380334 -0.19115882 -2.2190385
-1.3811991 -0.45078245 1.1394647 -0.1259832 -0.11850373 -1.2664706 -0.4512405 -0.07644568
00000000: 5ed2 883f 8abb 82bd 7fd3 06c0 03ed 5f3f
00000010: 8ec0 423f bdb2 0dbf 39b6 afbf 183b 8c3f
00000020: 8973 2cbf f907 90be 15cc d43f 89aa 2fbf
00000030: b6d5 bc3e 63bc 20bf b94d 7c3f 552c bdbf
00000040: 23b8 3dbf 1b38 3bbf 8dab acbf 9ac6 0dbf
00000050: 67e1 dabe 47de 84bf 23bf 43be ba04 0ec0
00000060: 22cb b0bf f5cc e6be fbd9 913f bd01 01be
00000070: 15b2 f2bd b51b a2bf ff08 e7be 8d8f 9cbd

running_mean f4 [32]
-35.332928 -30.776144 24.803408 -18.673119 0.43344823 -20.643698 16.479702 -18.216372
-33.478134 -5.3317723 -15.132797 2.203009 -25.896067 -18.731686 -2.1897535 26.815685
4.375703 -22.60978 7.084646 -3.6539764 -12.801528 -2.779147 6.792653 -0.020772954
1.097255 2.2993498 -15.305461 -12.82093 18.486534 3.6722536 -36.16668 7.678574
00000000: eb54 0dc2 8b35 f6c1 616d c641 8c62 95c1
00000010: edec dd3e 4b26 a5c1 6ed6 8341 21bb 91c1
00000020: 9ce9 05c2 e19d aac0 f01f 72c1 19fe 0c40
00000030: 252b cfc1 7eda 95c1 ec24 0cc0 8686 d641
00000040: c205 8c40 d4e0 b4c1 6cb5 e240 c0da 69c0
00000050: 0fd3 4cc1 8bdd 31c0 6a5d d940 0b2c aabc
00000060: da72 8c3f 8c28 1340 2be3 74c1 8722 4dc1
00000070: 6ce4 9341 3406 6b40 aeaa 10c2 e1b6 f540

running_var f4 [32]
352.2143 920.32275 189.44664 177.43399 483.87747 277.73288 163.87476 305.5162
449.36948 269.10617 373.56775 310.16272 779.5162 763.4715 493.1702 178.35724
250.63142 399.1006 233.94328 458.9231 310.3714 338.0973 253.75443 172.6368
319.3342 233.50098 855.5375 284.12704 415.45984 178.28532 366.51572 309.1877
00000000: 6e1b b043 a814 6644 5772 3d43 1a6f 3143
00000010: 51f0 f143 cfdd 8a43 f0df 2343 13c2 9843
00000020: 4baf e043 978d 8643 acc8 ba43 d414 9b43
00000030: 09e1 4244 2dde 3e44 c995 f643 745b 3243
00000040: a5a1 7a43 e08c c743 7bf1 6943 2876 e543
00000050: 8a2f 9b43 740c a943 22c1 7d43 05a3 2c43
00000060: c7aa 9f43 4080 6943 66e2 5544 4310 8e43
00000070: dcba cf43 0b49 3243 0342 b743 0798 9a43

weight f4 [64, 32, 3]
-2.0402677 -0.67007643 -1.1387099 2.7124715 -0.20049492 0.60201573 1.0482528 1.3517073
-2.1202095 -1.9199009 -1.6365687 -0.4916736 -1.488665 -2.4445386 -1.0558207 1.0799654
-0.9897487 -2.3976977 0.067800425 0.7044401 -0.19603218 -3.9308999 0.042753577 -1.5973488
-2.1489522 0.08890695 1.0262674 1.1586075 -2.043168 -0.036748003 -0.06870436 0.7622812
1.408818 1.1935213 -0.21362448 -0.21985137 0.52861357 -0.80449855 0.3758114 -0.42031476
0.63129956 2.4664173 -0.5385885 -0.0062223994 0.14134446 0.86010253 1.3558756 -0.31828904
0.7458746 -1.0189791 -0.38188624 -0.26507276 -1.0477749 1.0705717 0.07952878 0.5447428
1.614314 0.64185536 -0.039653763 -1.5829875 -0.9583085 -0.7122966 0.17259389 -1.0388794
-0.6383321 -0.7005542 -0.6600641 -0.14244044 -1.4348409 0.42649144 -1.0571843 0.2426952
0.53078234 -0.14401026 -1.2317488 1.7156126 0.60360837 0.5705056 -1.6888502 0.06999771
1.9427594 -0.0048227217 -0.26559186 -1.7732456 1.5891366 -0.75154305 -1.5585328 0.5547104
0.39580652 -0.024482295 -3.0922747 -0.28449577 1.6508608 -1.4830565 0.278079 -0.87597114
-1.7430204 0.34113878 -0.25638384 1.1759949 -0.5723701 0.096622765 0.14011252 -0.29924658
-0.69326866 -0.7861157 0.22210538 0.3708541 -1.6747409 -0.7436 0.011806486 1.0778352
0.0045707226 3.079719 0.20759374 0.017721606 -0.36390987 0.38854995 0.5360209 -1.7950118
-1.377181 0.48429883 -0.5028544 -0.8086333 0.5022874 -1.0724612 0.2621365 -0.123083785
1.2550592 2.791223 -1.3641907 -2.5627465 1.218168 -0.2273501 -0.46855414 -0.58549875
-1.5291624 -0.8018233 0.24977344 -0.12725861 -0.122733906 -0.59188443 1.042051 -0.53882927
2.7772775 -2.1479957 -2.507066 -0.8271411 0.6952148 0.7224765 1.0624346 -0.42783898
0.303167 1.0496264 -0.9792785 -0.41333202 -0.14904945 0.5042953 -0.18278435 0.027416024
0.8157301 -0.06310091 -0.91990435 0.07700468 -0.9724867 -0.97321224 0.26056123 -0.78160083
0.3288034 1.2123814 -0.6727865 1.6481287 1.1015913 -0.5706495 0.10496441 0.08968943
1.3151097 -0.14377561 -0.76709735 -0.5740459 -0.9362822 -0.5147255 -0.8501309 0.8890106
0.8193234 0.8789985 0.6707218 -2.2863123 1.4887 -0.4508459 -0.4425029 -0.6270571
2.5875382 1.0148007 -0.01861348 -0.2731233 -0.27281153 -1.1073167 -0.33767807 0.23630278
-0.87255085 0.18295527 -1.6107363 0.29329094 -0.39671493 -0.0057699056 -0.87318647 -0.57600033
-0.57717866 -0.12873006 -1.1295445 -0.98630553 -1.1734375 1.0346115 -0.51912796 0.33981958
0.73362553 2.5953531 -1.1851155 0.37452054 -0.81442493 -0.61977005 -2.7341242 -0.6021826
-2.708422 -0.3153853 0.48645237 -0.91363364 0.6121095 1.03681 -0.5379044 1.2036711
0.49143362 -0.5328118 -2.4260597 0.26522708 -1.4538985 0.06630184 -0.26298484 -1.9459946
0.09643853 0.3139072 -0.5883188 1.5054009 0.61661184 -0.7139723 0.37065527 0.16159281
-0.14040832 -0.8377248 -0.5318227 -0.4779953 1.2351654 -0.58301973 0.05155117 1.3601356
00000000: bf93 02c0 218a 2bbf 3fc1 91bf 2299 2d40
00000010: 8a4e 4dbe b41d 1a3f 262d 863f bf04 ad3f
00000020: 83b1 07c0 50bf f5bf 157b d1bf a4bc fbbe
00000030: 938c bebf 5273 1cc0 2225 87bf 4e3c 8a3f
00000040: 2c60 7dbf e173 19c0 f3da 8a3d 3056 343f
00000050: a9bc 48be dd93 7bc0 601e 2f3d ed75 ccbf
00000060: 6f88 09c0 d914 b63d bb5c 833f 404d 943f
00000070: 44c3 02c0 1385 16bd dfb4 8cbd dc24 433f
00000080: 2654 b43f 4ec5 983f 60c0 5abe b820 61be
00000090: 3853 073f 9ef3 4dbf 5a6a c03e 7f33 d7be
000000a0: d99c 213f c8d9 1d40 f0e0 09bf 45e5 cbbb
000000b0: 9abc 103e ae2f 5c3f 558d ad3f c8f6 a2be
000000c0: a3f1 3e3f e86d 82bf 9886 c3be 9eb7 87be
000000d0: 7d1d 86bf 7e08 893f fcdf a23d 4474 0b3f
000000e0: d7a1 ce3f a250 243f fc6b 22bd 569f cabf
000000f0: b553 75bf 1259 36bf 74bc 303e 00fa 84bf
00000100: bc69 23bf 8557 33bf f6f9 28bf e8db 11be
00000110: dea8 b7bf 165d da3e d151 87bf 1785 783e
00000120: 5ae1 073f 6d77 13be f2a9 9dbf 3299 db3f
00000130: 1486 1a3f a80c 123f 3e2c d8bf f65a 8f3d
00000140: 57ac f83f ec07 9ebb a8fb 87be b6f9 e2bf
00000150: d468 cb3f 2065 40bf 017e c7bf 8001 0e3f
00000160: 27a7 ca3e 188f c8bc d4e7 45c0 6ea9 91be
00000170: 684f d33f ccd4 bdbf 5f60 8e3e a53f 60bf
00000180: 4b1b dfbf bea9 ae3e be44 83be 0087 963f
00000190: d986 12bf 28e2 c53d a879 0f3e d936 99be
000001a0: 0e7a 31bf e13e 49bf 986f 633e 97e0 bd3e
000001b0: e95d d6bf 925c 3ebf fe6f 413c 81f6 893f
000001c0: 00c6 953b 1e1a 4540 7493 543e e72c 913c
000001d0: 6552 babe 05f0 c63e aa38 093f f2c2 e5bf
000001e0: 7847 b0bf 04f6 f73e 11bb 00bf 9802 4fbf
000001f0: e895 003f 6946 89bf c136 863e 5a13 fcbd
00000200: c8a5 a03f 66a3 3240 cd9d aebf 0a04 24c0
00000210: eeec 9b3f 77ce 68be 54e6 efbe 3fe3 15bf
00000220: 98bb c3bf 4b44 4dbf 9cc4 7f3e 1550 02be
00000230: ea5b fbbd bd85 17bf ed61 853f b7f0 09bf
00000240: eabe 3140 c378 09c0 c573 20c0 85bf 53bf
00000250: 99f9 313f 38f4 383f dbfd 873f b60d dbbe
00000260: b438 9b3e 285a 863f ffb1 7abf 41a0 d3be
00000270: 6ba0 18be 7f19 013f d22b 3bbe 9297 e03c
00000280: b0d3 503f 0d3b 81bd da7e 6bbf a1b4 9d3d
00000290: e3f4 78bf 7024 79bf 4868 853e fe16 48bf
000002a0: eb58 a83e 502f 9b3f bc3b 2cbf e2f5 d23f
000002b0: f200 8d3f 1616 12bf 95f7 d63d 18af b73d
000002c0: 8455 a83f ea39 13be 7e60 44bf acf4 12bf
000002d0: 31b0 6fbf 0dc5 03bf 2ea2 59bf 3396 633f
000002e0: 2ebf 513f 0c06 613f 6db4 2b3f f152 12c0
000002f0: b98d be3f 46d5 e6be bd8f e2be d086 20bf
00000300: 3a9a 2540 fde4 813f 4c7b 98bc d1d6 8bbe
00000310: f4ad 8bbe 8ebc 8dbf 24e4 acbe 5bf9 713e
00000320: 7e5f 5fbf a058 3b3e 9b2c cebf 3b2a 963e
00000330: 381e cbbe 7a11 bdbb 2689 5fbf c274 13bf
00000340: fbc1 13bf d0d1 03be ea94 90bf 857e 7cbf
00000350: 3333 96bf 266e 843f 92e5 04bf d5fc ad3e
00000360: e2ce 3b3f 441a 2640 ddb1 97bf 28c1 bf3e
00000370: 277e 50bf 40a9 1ebf e4fb 2ec0 a428 1abf
00000380: c956 2dc0 2f7a a1be 4910 f93e e5e3 69bf
00000390: 35b3 1c3f 31b6 843f 1ab4 09bf e511 9a3f
000003a0: 309d fb3e 5b66 08bf 9044 1bc0 d8cb 873e
000003b0: 5919 babf 42c9 873d f3a5 86be 5a16 f9bf
000003c0: 9081 c53d 72b8 a03e 109c 16bf fab0 c03f
000003d0: 46da 1d3f e3c6 36bf 87c6 bd3e 9678 253e
000003e0: 33c7 0fbe 2275 56bf 8825 08bf cdbb f4be
000003f0: e619 9e3f c840 15bf 5227 533d ec18 ae3f

bias f4 [64]
0.5450167 0.6949812 -0.22654474 1.39862 0.19264421 0.117607586 0.0075136144 -0.27112305
0.17537004 0.7463033 0.4243136 -0.44250008 -0.31795326 0.450796 -0.86151654 0.0895311
1.120847 -0.08762192 -0.044723447 -0.35150138 -0.20757134 0.57159597 -0.7620606 1.1510751
-0.6707057 1.1059396 -0.34921682 -0.84004194 -0.4392983 -0.044790342 -0.11050232 -0.54763705
-0.7574467 -0.29224995 -0.18247682 -0.4954616 0.12608407 0.66801614 -1.0396686 -0.4548171
0.038009755 1.1685052 -1.2633628 0.3832107 -0.44817498 0.2905259 0.4065691 -1.0703434
-1.0368124 0.1334584 0.061657455 0.024223158 -0.31796882 0.1646262 0.00026170857 -0.31044406
0.5866182 -0.15486607 -0.5823189 0.71823823 1.3109884 -0.61988544 0.6169918 0.63253844
00000000: 3786 0b3f 4aea 313f 58fb 67be fb05 b33f
00000010: 8644 453e 3fdc f03d c434 f63b a4d0 8abe
00000020: 3494 333e bc0d 3f3f a23f d93e 5f8f e2be
00000030: c5ca a2be bcce e63e 598c 5cbf 155c b73d
00000040: ea77 8f3f 1f73 b3bd ef2f 37bd fdf7 b3be
00000050: 958d 54be 1d54 123f 6716 43bf 6e56 933f
00000060: 5eb3 2bbf 6e8f 8d3f 8ccc b2be fd0c 57bf
00000070: b5eb e0be 1476 37bd 0a4f e2bd f131 0cbf
00000080: 07e8 41bf c9a1 95be 34db 3abe 25ad fdbe
00000090: 2f1c 013e 1b03 2b3f dc13 85bf c9dd e8be
000000a0: 1eb0 1b3d 9491 953f dfb5 a1bf 3134 c43e
000000b0: 3177 e5be d0bf 943e d329 d03e 0301 89bf
000000c0: 45b6 84bf 52a9 083e 878c 7c3d a56f c63c
000000d0: cfcc a2be c593 283e ee35 8939 86f2 9ebe
000000e0: 9c2c 163f 3695 1ebe da12 15bf 76de 373f
000000f0: 78ce a73f d0b0 1ebf 2df3 1d3f 0aee 213f

weight f4 [64]
2.2100387 1.4199171 1.0246981 2.149155 2.445241 1.037174 1.6307833 1.2955301
1.5649039 1.1135982 1.7195096 1.6949402 1.9152031 1.724062 0.9158344 1.3379352
1.8949057 0.94932985 0.099529855 1.2607882 1.8425281 1.1155403 1.6357672 0.8159788
1.6756767 2.2198625 2.2177577 1.9059929 1.2971328 1.4038746 0.11842253 2.7040455
1.1723939 1.036908 1.6680753 1.7782412 2.2029731 0.91520846 0.98977417 1.2339528
1.3643942 0.99061733 1.250621 0.4105242 1.3292317 0.8101771 1.7811471 1.4982558
1.107701 0.778379 0.12118053 0.3273204 1.0692977 1.931034 0.61466837 1.7949113
1.1666846 0.5353073 1.048618 1.0719717 1.6393261 1.45015 1.3728919 1.7884507
00000000: 4671 0d40 d8bf b53f 4f29 833f c18b 0940
00000010: d47e 1c40 1ec2 843f 82bd d03f eed3 a53f
00000020: c54e c83f 638a 8e3f e418 dc3f cdf3 d83f
00000030: 6025 f53f 10ae dc3f 2074 6a3f 7641 ab3f
00000040: 458c f23f 4807 733f 4fd6 cb3d 8261 a13f
00000050: f6d7 eb3f 06ca 8e3f d260 d13f fde3 503f
00000060: 937c d63f 3a12 0e40 beef 0d40 93f7 f33f
00000070: 7308 a63f 2ab2 b33f 8387 f23d 150f 2d40
00000080: 0111 963f 67b9 843f 7e83 d53f 689d e33f
00000090: 83fd 0c40 1a4b 6a3f d761 7d3f 2af2 9d3f
000000a0: 78a4 ae3f 1999 7d3f 5914 a03f 3a30 d23e
000000b0: 4424 aa3f c467 4f3f a1fc e33f d9c6 bf3f
000000c0: 25c9 8d3f d943 473f 7f2d f83d 8a96 a73e
000000d0: bfde 883f 1f2c f73f e85a 1d3f a7bf e53f
000000e0: ec55 953f e609 093f 1d39 863f 5e36 893f
000000f0: 70d5 d13f 849e b93f ecba af3f f4eb e43f

bias f4 [64]
0.07779389 -1.0910842 -0.5295965 -0.82265085 0.31576946 0.4287693 -0.2931426 -0.0016978846
-0.62151986 -0.5294226 -0.2218891 -0.363588 -1.5470768 -0.5404312 -1.1934842 0.36982232
-0.3468226 -0.7581654 -1.2711487 -1.0735301 -0.5923809 1.7869217 1.4082193 0.6162828
-1.0304857 -0.22721802 -0.5157562 -0.228764 -0.34156466 -0.7672063 -1.3179251 0.18789078
-0.54634154 -0.82495695 -0.46799478 -0.74134815 -0.81513155 -1.3188106 -1.6970298 -1.5274676
-0.60764545 -0.4694867 -0.35902593 -0.5341478 -1.0808417 -2.1557057 1.4346094 -0.8964728
-0.21736774 -0.74626815 -0.6055556 -1.1577985 -0.5091462 0.54457664 -0.25129035 0.10501283
-1.5112242 -0.17028667 0.0627781 -1.1358793 -0.6551006 2.2202976 0.8369692 -0.7962446
00000000: 6752 9f3d a6a8 8bbf a393 07bf 3f99 52bf
00000010: 89ac a13e a687 db3e c916 96be 8e8b deba
00000020: ed1b 1fbf 3d88 07bf e536 63be 3528 babe
00000030: 9d06 c6bf b359 0abf 17c4 98bf 5a59 bd3e
00000040: bb92 b1be 2117 42bf 00b5 a2bf 6f69 89bf
00000050: 46a6 17bf dab9 e43f 8840 b43f b6c4 1d3f
00000060: f5e6 83bf d7ab 68be 9908 04bf 1c41 6abe
00000070: 90e1 aebe a267 44bf c5b1 a8bf 7166 403e
00000080: 0add 0bbf 6130 53bf 039d efbe fec8 3dbf
00000090: 76ac 50bf c9ce a8bf 4638 d9bf 0f84 c3bf
000000a0: a78e 1bbf 9060 f0be 3fd2 b7be e9bd 08bf
000000b0: 0559 8abf 15f7 09c0 48a1 b73f 3e7f 65bf
000000c0: a695 5ebe 6e0b 3fbf b105 1bbf be32 94bf
000000d0: 6857 02bf 6069 0b3f 21a9 80be f710 d73d
000000e0: cb6f c1bf a15f 2ebe ce91 803d 7e64 91bf
000000f0: acb4 27bf 5b19 0e40 9d43 563f b0d6 4bbf

running_mean f4 [64]
-23.155384 -2.5251276 -22.826138 -6.341361 -0.87532425 2.4262538 -1.397443 -31.203232
-11.594164 6.791953 -0.26989874 -24.604809 -39.962208 7.245844 10.669679 1.3335531
4.46606 4.141107 7.331857 -2.5325534 -37.476418 12.377286 -20.130787 16.86429
-28.794605 -23.669046 -6.3079085 -11.855121 -13.474375 -13.026652 12.463042 -14.641196
-7.3905106 -0.263001 3.2300375 -4.844582 4.9609265 2.8694713 10.597734 -32.5023
-8.8606415 -7.4965596 -5.3020415 -5.029228 3.7079017 22.994764 -7.6221347 -4.9799695
-12.962697 1.6268396 7.070177 16.610035 -5.2056375 -15.254353 -4.5149 7.2514462
10.428801 -13.497158 9.423876 14.207844 0.42257854 -8.581557 -19.389149 -8.466941
00000000: 3a3e b9c1 b19b 21c0 ee9b b6c1 6eec cac0
00000010: 4015 60bf be47 1b40 6adf b2bf 38a0 f9c1
00000020: b281 39c1 ae57 d940 2b30 8abe a6d6 c4c1
00000030: 4dd9 1fc2 f4dd e740 01b7 2a41 deb1 aa3f
00000040: f7e9 8e40 f383 8440 939e ea40 5b15 22c0
00000050: dae7 15c2 5d09 4641 da0b a1c1 11ea 8641
00000060: 5a5b e6c1 355a bdc1 63da c9c0 93ae 3dc1
00000070: 0a97 57c1 2b6d 50c1 9f68 4741 5742 6ac1
00000080: 107f ecc0 11a8 86be efb8 4e40 d106 9bc0
00000090: e9bf 9e40 6ba5 3740 5290 2941 5b02 02c2
000000a0: 30c5 0dc1 d1e3 efc0 53aa a9c0 70ef a0c0
000000b0: 434e 6d40 47f5 b741 87e8 f3c0 e95b 9fc0
000000c0: 3567 4fc1 483c d03f e43e e240 5ae1 8441
000000d0: 9594 a6c0 d411 74c1 107a 90c0 d90b e840
000000e0: 5edc 2641 5cf4 57c1 32c8 1641 5453 6341
000000f0: 375c d83e 0f4e 09c1 fa1c 9bc1 9778 07c1

running_var f4 [64]
328.29446 152.44923 194.13773 200.86359 289.30426 368.1358 176.01384 347.65244
182.74995 105.53287 262.28552 136.15602 124.5493 262.77924 257.59366 275.91092
288.9317 182.54881 41.889404 145.46977 233.61118 216.82524 190.06563 119.199554
189.84993 194.49432 195.27666 249.21843 233.32527 108.183716 96.88419 292.45752
145.6917 163.83217 253.43507 256.63037 180.07227 156.04814 151.15906 235.25749
245.97816 199.00339 193.28467 170.00746 177.00615 176.55534 223.71347 169.41843
400.19785 184.39207 156.965 209.89005 250.94875 224.27695 307.7637 202.37225
151.79106 202.43898 227.85661 173.56194 276.42227 236.42906 235.39783 328.19543
00000000: b125 a443 0173 1843 4223 4243 14dd 4843
00000010: f2a6 9043 6211 b843 8b03 3043 83d3 ad43
00000020: fdbf 3643 d410 d342 8c24 8343 f127 0843
00000030: 3e19 f942 be63 8343 fdcb 8043 99f4 8943
00000040: 4277 9043 7f8c 3643 c08e 2742 4378 1143
00000050: 769c 6943 43d3 5843 cd10 3e43 2c66 ee42
00000060: 95d9 3d43 8c7e 4243 d346 4343 eb37 7943
00000070: 4553 6943 105e d842 b5c4 c142 903a 9243
00000080: 13b1 1143 09d5 2343 616f 7d43 b050 8043
00000090: 8012 3443 530c 1c43 b828 1743 eb41 6b43
000000a0: 69fa 7543 de00 4743 e048 4143 e901 2a43
000000b0: 9301 3143 2b8e 3043 a6b6 5f43 1e6b 2943
000000c0: 5319 c843 5f64 3843 0af7 1c43 dae3 5143
000000d0: e1f2 7a43 e646 6043 c1e1 9943 4c5f 4a43
000000e0: 83ca 1743 6170 4a43 4bdb 6343 db8f 2d43
000000f0: 0d36 8a43 d76d 6c43 d865 6b43 0419 a443
