unet/checkpoints/one_loss/epoch_75.pth (torch, 508787 bytes, 85 tensors)

weight f4 [8, 1, 3]
000000 b9 05 1b 3f 89 26 94 be f4 c8 61 40 92 ff 1c 3f
       0.6055561 -0.2893565 3.5278902 0.6132747
000010 98 0a 75 c0 7d c6 04 bf 88 b5 a4 bf 89 f0 eb 3f
       -3.8287716 -0.5186537 -1.2867899 1.843278
000020 18 33 5c 3f 7b 96 86 c0 4a c2 a7 be a7 b1 4f 3f
       0.8601546 -4.205869 -0.32765418 0.8113045
000030 4a 22 8e 3f 07 87 2a c0 83 47 6c be 0d e6 3d 3f
       1.1104214 -2.6644914 -0.23074155 0.74179155
000040 39 8b 87 40 bf f6 78 be ae 51 cb bf 36 63 89 3f
       4.235745 -0.24312876 -1.5884302 1.0733402
000050 01 c2 e1 bf ca 95 4d 40 27 5e 87 bd 8d 73 7c bf
       -1.763733 3.2122674 -0.06609755 -0.98613816

bias f4 [8]
000000 c1 83 20 3e e4 cd 20 3d 5d 0f 7f 3d 86 4d d3 3e
       0.1567526 0.039258853 0.06227051 0.41270083
000010 a8 5a 18 be 58 3f 29 3e fa 05 a8 be 29 cc 18 3e
       -0.14878333 0.1652807 -0.3281706 0.14921631

weight f4 [8]
000000 58 e3 a8 3f ba 58 ef 3f 64 8a 00 40 57 83 0b 40
       1.319438 1.8698952 2.0084467 2.1798913
000010 02 31 18 3f b8 d4 39 40 bc 8c 90 3f 85 c4 13 40
       0.5944978 2.9036083 1.1292949 2.3088696

bias f4 [8]
000000 2b 5b ea bf 95 e3 a7 3e e6 c1 c6 3f 25 e6 fa 3f
       -1.8309072 0.3279082 1.5527923 1.9601485
000010 33 d6 23 40 47 c4 e8 bd cb f9 ff be 36 7c 4c be
       2.5599487 -0.11365562 -0.49995264 -0.19969258

running_mean f4 [8]
000000 e8 f8 8d 3e 38 e4 fb b9 e5 a1 09 3e 0e 1e 12 3f
       0.27728963 -0.00048044487 0.13440664 0.5707711
000010 ce b2 45 be cd 96 09 3e 0f 63 b3 be 96 34 6b 3c
       -0.1930649 0.13436432 -0.35036513 0.014355799

running_var f4 [8]
000000 c5 d4 54 49 4d 67 50 49 24 39 19 48 68 56 60 49
       871756.3 853620.8 156900.56 918886.5
000010 e3 a4 69 48 42 dd a3 49 74 9a 9b 48 8f b9 ad 48
       239251.55 1.3423762e+06 318675.62 355788.47

weight f4 [16, 8, 3]
000000 08 56 4e 3e ef ed ca bf c1 9b 74 c0 21 58 b9 3f
       0.20150006 -1.5853862 -3.8220065 1.448002
000010 af 3c 84 3f d0 94 a3 bf d0 1e ad bf b8 70 68 3f
       1.0331019 -1.2779789 -1.3525028 0.90796995
000020 ca 3d 62 3f 3d 82 d7 3f b7 db 64 40 d7 2a 3e 3f
       0.8837553 1.683662 3.5759103 0.7428412
000030 b5 f3 2a 40 6e 2f 8e 3f 8b bd bc bf 8e 04 2b c0
       2.6711247 1.1108224 -1.4745344 -2.672153
000040 5d 71 d1 bf fe 6f 6d be ed 80 f0 3e 73 9d ac bf
       -1.6362721 -0.23187253 0.46973363 -1.348555
000050 ea 22 85 3f 51 12 2d 3f 35 5e 25 bf 49 7b 26 bf
       1.040128 0.67606074 -0.64596874 -0.6503187
000060 b7 a6 44 3f e5 07 d7 3f 20 d7 89 3e 85 96 c9 3e
       0.76816887 1.6799284 0.2692194 0.3937265
000070 a6 cd aa 3f 79 38 0c bf 27 22 97 3f 5f 90 29 3f
       1.3344009 -0.5477367 1.1807297 0.6623592
000080 8f 75 23 3f aa 02 03 c0 38 11 7b 3e 97 cf 83 3f
       0.63851255 -2.0470376 0.24518287 1.0297726
000090 51 0a 39 be 24 0a 8f 3f 89 36 a9 bf 15 91 80 40
       -0.18070342 1.117497 -1.3219768 4.01771
0000a0 f6 ac f4 3f a8 52 f7 3f 80 2b a0 3e 6f 5d 04 bf
       1.9115283 1.93221 0.31283188 -0.5170507
0000b0 ad 92 b7 3f 3c 38 eb be 7c ca 0c 40 f1 52 06 3f
       1.4341637 -0.4594134 2.1998587 0.5247031
0000c0 31 66 ba bf e0 a7 13 3f d9 cb 05 c0 b6 0d 41 3e
       -1.4562436 0.5767803 -2.0905669 0.18852887
0000d0 9b 2d 4a 3f 37 34 0a be 37 33 8b bf f8 00 be bf
       0.7897584 -0.13496481 -1.0875005 -1.4844046
0000e0 b5 3e 6b 3f bb e5 6c c0 56 17 de 3e 17 62 42 3f
       0.9189256 -3.7015216 0.4337718 0.75930923
0000f0 53 66 67 3f c5 06 73 3f 57 8c 4f bf 1f b9 30 3f
       0.9039051 0.94932204 -0.81073517 0.6903247
000100 91 71 ab bf b3 9d 2d 3b 3e 4c b6 bf be fe 3d 3f
       -1.3394033 0.00264917 -1.4242017 0.7421683
000110 1a 50 e0 3f 82 86 e0 3f 82 11 88 be 53 a6 07 c0
       1.7524445 1.7541049 -0.26575857 -2.1195266
000120 eb 36 61 40 57 f6 98 3f 93 2b 1a bf 88 a6 27 40
       3.518977 1.1950177 -0.6022274 2.6195393
000130 1b d0 3c 40 01 38 10 3f 00 c1 06 bf 09 62 5b 3e
       2.9502017 0.56335455 -0.52638245 0.21424116
000140 75 fd a3 bf 0c 3a 3e 3f 54 f0 40 40 2c 57 e9 3e
       -1.2811724 0.7430732 3.0146685 0.4557432
000150 df b7 b6 3f 22 3f d9 3f 96 12 10 3e 66 8d 84 bf
       1.4274863 1.6972392 0.1406959 -1.0355651
000160 d9 06 2a 3f dc 90 10 c0 f5 18 82 3c 1a 80 e0 3f
       0.664167 -2.2588415 0.015881041 1.7539093
000170 9e 1a c8 be 42 2f e3 be 6f 02 a2 bf 2e 69 d1 3f
       -0.39082807 -0.44371992 -1.2656993 1.6360223
000180 85 92 0a 40 bc 43 e7 bf 42 a9 0d c0 23 46 ab bf
       2.1651928 -1.8067546 -2.2134557 -1.3380779
000190 8f bc 18 c0 c5 b0 29 bf 17 d9 e3 be b0 aa aa bf
       -2.3865087 -0.66285354 -0.44501564 -1.333334
0001a0 f7 21 0d c0 5a 11 9b bf 0a 2e 74 bf 5b b7 68 be
       -2.205198 -1.211467 -0.9538275 -0.22726195
0001b0 7b 91 ef 3e 58 ce 23 bf 4e 3c 52 3e dc d7 cc 3f
       0.4679068 -0.6398673 0.20530817 1.6003375
0001c0 0b 43 77 3e fb 64 88 bf ae 1a 76 3d 75 74 1b c0
       0.24146669 -1.0655817 0.060084037 -2.428983
0001d0 0c 1f 55 bf 44 3d 13 40 db 5f b4 3f 7b 9a e8 3e
       -0.832505 2.3006144 1.4091753 0.4543036
0001e0 d8 62 25 40 69 4d e2 be 05 90 02 c0 35 cc 14 40
       2.584158 -0.44199684 -2.0400403 2.3249638
0001f0 56 f7 e7 3f 37 37 36 40 ae 7a 5d be 45 a1 1a bf
       1.8122356 2.84712 -0.2162883 -0.6040233
000200 f5 65 cc bf f4 1a 5a 3f 89 f3 f4 3f a9 e2 81 3f
       -1.5968615 0.8519738 1.9136821 1.0147296
000210 c7 0e b9 3f 70 5f a2 3f ee 7c f5 3f 65 cd a5 be
       1.4457635 1.2685375 1.917875 -0.32383266
000220 bb 8f 42 3e aa d8 b4 bf e9 1c f0 3e 6c e5 96 3f
       0.19000141 -1.4128621 0.46897057 1.1788764
000230 03 8c ba bd 21 33 92 3f f0 b7 81 3f 13 8e a2 3f
       -0.09108736 1.1421853 1.0134258 1.2699608
000240 66 0e 5e 3f 77 1c d4 be 10 51 85 3f 29 6e 62 c0
       0.8674072 -0.41427967 1.0415363 -3.5379736
000250 5f fa 83 3f 92 1a 1c 3e 08 de 14 c0 1a 37 31 bf
       1.0310782 0.15244511 -2.3260517 -0.69224703
000260 58 4d b1 3d 09 fe 9c bf d3 90 1b c0 78 c9 d7 3e
       0.0865733 -1.2265025 -2.4307144 0.42145896
000270 d6 a8 1a c0 05 98 4a 3f 51 2b d6 3e 79 35 fc 3d
       -2.416555 0.79138213 0.41829923 0.123148866
000280 13 02 1f bf 46 4b 37 bd df 6f 3c 3f 6f 96 ff 3f
       -0.6211254 -0.04474952 0.736082 1.9967784
000290 7e f5 e4 bf 06 b3 8a 3f a2 44 de bf 9a af e7 bf
       -1.7887418 1.0835884 -1.7364695 -1.8100464
0002a0 a2 44 b9 3f 51 6c 90 3f d1 51 85 3e 1e eb 15 3e
       1.447407 1.1283056 0.26038983 0.14640471
0002b0 8d 7b 23 c0 e0 53 d9 3e 25 cd 1d bf fd a5 e4 3f
       -2.554416 0.42446804 -0.6164115 1.7863156
0002c0 35 2f 43 c0 94 1f 1d bf 95 c2 83 3f fb 3d 5c bf
       -3.0497563 -0.6137631 1.0293757 -0.86032075
0002d0 60 e4 c3 3e ff 34 1b c0 2b 87 18 be 84 82 e9 3f
       0.38260174 -2.4251096 -0.14895312 1.8242955
0002e0 b2 8f c4 3f bf 69 37 bf 7e f5 23 c0 3b d3 96 3f
       1.5356352 -0.7164573 -2.5618587 1.1783212
0002f0 6b 60 b5 3e b3 c2 f1 3c cc dd be 3f ec b7 c5 3e
       0.35425124 0.029511785 1.4911437 0.38616884
000300 7e 0c 9d 3f d6 84 08 c0 75 79 c7 3f f5 fc f7 be
       1.2269437 -2.1331077 1.5583941 -0.48435178
000310 11 4c 23 3f 38 fe 13 3f 90 dc 6a bf 4f 3a 60 c0
       0.63787943 0.5780978 -0.917428 -3.5035589
000320 a6 b4 d2 3c 40 77 34 c0 48 9a 96 be 61 4c 3c 3e
       0.025720906 -2.8197784 -0.29414582 0.18388511
000330 e7 cc c3 be 01 cc 30 3f e8 b5 0f 40 d9 e6 a2 bd
       -0.38242266 0.69061285 2.2454777 -0.07954187
000340 bb af 36 bf 3b 68 73 c0 6f 7c 8f bf 2a 72 a1 bf
       -0.71361893 -3.8032367 -1.1209849 -1.2612965
000350 7c ce 59 3f 1f ca c3 3f ab 28 a7 bd e8 2b 26 3e
       0.85080695 1.5296057 -0.08162054 0.16227686
000360 05 25 22 c0 12 48 39 bf 65 fa ac be c7 d2 02 3e
       -2.5335095 -0.72375596 -0.33784786 0.12775718
000370 a6 3d 86 be fb 28 34 40 d1 4a db be 7a 77 01 bf
       -0.2621891 2.8150012 -0.42830518 -0.5057293
000380 03 ec 0d c0 43 cd 1c c0 37 f3 c8 3e b4 94 3e bf
       -2.21753 -2.4500282 0.39248058 -0.7444565
000390 fa ac dd 3e 3f 96 14 3f c1 82 58 40 ca 18 bd 3d
       0.43296033 0.5804176 3.3829806 0.09233244
0003a0 fb 38 d3 bf 4c 34 26 c0 c3 c7 ec bf 4a e9 ad 3f
       -1.6501764 -2.596942 -1.8498462 1.3586819
0003b0 43 0e 5c be 15 8d bb 3f 79 eb ad 3e 5b f0 a5 bd
       -0.21489815 1.465243 0.33968714 -0.08102485
0003c0 52 e2 f7 3d 73 ae 00 3f 94 56 2d be 88 b0 ef 3f
       0.12103714 0.5026619 -0.16927558 1.8725748
0003d0 34 13 04 40 b8 3a 16 40 1f 10 d5 be 13 67 06 bf
       2.063672 2.347334 -0.41613862 -0.5250103
0003e0 64 0c c3 be 39 08 46 3f 98 f6 da 3f e2 74 c8 3f
       -0.3809539 0.77356297 1.7106504 1.566067
0003f0 2d b4 ad 3f e3 79 a3 3f d6 3e ed 3f 64 f9 a8 bd
       1.357061 1.2771572 1.8534801 -0.082506925

bias f4 [16]
000000 8b d2 2f bf 71 bb 55 3f 71 21 8e 3e c5 16 87 3d
       -0.6868064 0.8348914 0.2775989 0.0659614
000010 33 bb 97 3f cb 9f 8d 3f f2 f5 88 3f 58 f5 a3 be
       1.1854004 1.106439 1.0700057 -0.3202312
000020 36 3f 72 3f 8f 89 d7 be 5c 8e be 3d 27 a0 40 bf
       0.946277 -0.42097136 0.09304497 -0.75244373
000030 31 69 0b 3f 16 d1 c6 3f 5b 5f 10 40 40 32 b0 3f
       0.54457384 1.5532558 2.25582 1.3765335

weight f4 [16]
000000 c3 02 b6 3f 0a cc ee 3f 11 e6 9d 3f ce cb de 3f
       1.4219593 1.8656018 1.2335836 1.7405946
000010 dc 79 dc 3f e2 00 8e 3f 43 9b 35 3f 25 4e 6d 3f
       1.7224689 1.109402 0.70940036 0.92697364
000020 01 b7 a6 3f 2e fe a6 3f 5a 87 77 3f c7 a5 de 3f
       1.3024598 1.304632 0.96690905 1.7394341
000030 2d b0 f4 3f 2b 7f 06 40 fc 1d cc 3f 63 fe ba 3f
       1.9116265 2.1015117 1.594665 1.4608883

bias f4 [16]
000000 98 77 a8 3f 2e 20 b1 bf 63 b1 09 3f 3a 08 95 3e
       1.3161497 -1.3837945 0.53786296 0.2910784
000010 ec 37 4e 3f 8a d1 02 3e 32 86 0d 3f 23 8d 23 40
       0.8055408 0.12775245 0.5528289 2.5554893
000020 90 0a 63 40 65 16 6e 3f f7 36 87 be a7 82 c1 be
       3.5475197 0.9300292 -0.26409122 -0.37794992
000030 7f e0 bc be 3a ae 53 3f 0f 46 f8 3e e6 6e 75 3f
       -0.36890027 0.82687724 0.4849095 0.9587234

running_mean f4 [16]
000000 7c 3f 6c 41 d9 15 5b 41 e2 66 b2 c0 fb e7 8e 41
       14.765499 13.692834 -5.575059 17.863272
000010 47 69 3e c1 97 c7 c1 41 76 bd 94 c1 12 29 f7 c0
       -11.900702 24.222456 -18.59251 -7.7237635
000020 b0 1a 1e c1 60 59 f1 bf 87 89 ac 41 42 33 7c 41
       -9.8815155 -1.88554 21.567152 15.762514
000030 04 0d 28 be 75 b6 93 40 04 e0 87 c0 30 1c e5 40
       -0.16411215 4.6160226 -4.2460957 7.159691

running_var f4 [16]
000000 d5 d4 d3 43 bd db bc 43 98 b3 96 42 68 a1 ce 43
       423.66275 377.7167 75.35077 413.261
000010 e4 25 09 43 5c 64 b2 43 1d 4f 73 42 67 0f da 42
       137.14801 356.78406 60.82726 109.03008
000020 ea d6 23 43 00 09 24 43 48 b3 cd 43 32 64 21 43
       163.83951 164.03516 411.40063 161.39139
000030 b1 d7 10 44 20 40 5c 43 8f 0c 85 42 e7 d3 26 44
       579.3702 220.25049 66.52453 667.311

weight f4 [16, 16, 3]
000000 26 7c 35 c0 a1 b3 19 3f 01 ce 19 bd ac 1e e0 3f
       -2.8357024 0.60039717 -0.037549976 1.750936
000010 e3 c2 89 3f db 3c 98 bf e3 0c 0e c0 9e 2d d0 bf
       1.07626 -1.1893572 -2.2195365 -1.6263921
000020 cc e6 53 bf 47 ef 35 3c 5f 03 ca 3e e5 67 36 3e
       -0.82774043 0.011104411 0.39455697 0.1781307
000030 cf c0 c3 bc d2 83 57 3f e0 f7 d6 3f 40 6f 31 3e
       -0.02389565 0.84185517 1.6794395 0.17327595
000040 2b c5 8e bf b5 ce 8b be 60 e7 41 bf 87 51 de bb
       -1.1153921 -0.27306142 -0.75743675 -0.006784621
000050 dc 9d 8f 3f f9 e6 86 3e 11 18 37 3f 00 a2 78 bf
       1.122005 0.26348093 0.715211 -0.9712219
000060 81 83 55 bf 60 1e f2 3e b3 a1 4b 40 dd 8e f8 bd
       -0.83403784 0.472888 3.1817443 -0.12136624
000070 60 4c 29 be 5b 37 21 3f a0 f4 7a 3e f1 7c 17 bf
       -0.16533041 0.6297509 0.2450738 -0.5917502
000080 4c fb 01 bf 95 6f 0e bf d7 4e 29 bf 73 12 30 c0
       -0.50774074 -0.5563901 -0.66135925 -2.751126
000090 e1 1d 09 40 11 1f d8 3f 88 67 08 bf 29 21 49 bf
       2.1424487 1.6884481 -0.53282976 -0.78566223
0000a0 a5 0c c4 bf 35 41 49 c0 89 7b d1 bf d4 fa 03 3c
       -1.5316359 -3.144605 -1.6365825 0.008055408
0000b0 87 66 9f bf 33 b4 5b 3e 4d 4b a9 3f cb 32 73 3f
       -1.2453164 0.2145546 1.3226105 0.9499938
0000c0 66 32 2b c0 9b 9b ac 3e 5a 8e 70 3f 3f 68 c9 bf
       -2.674951 0.33712468 0.9396721 -1.5734938
0000d0 3a 88 56 bf 41 04 e7 3e d8 90 96 bf 62 ca 2d 3f
       -0.83801615 0.45120433 -1.1762953 0.67886937
0000e0 e0 b8 dc be 61 86 d4 be 4e 2b 37 3f 1d 2d 87 3f
       -0.43109798 -0.41508773 0.7155045 1.0560642
0000f0 5d 7d 6b 40 0a c3 ae 3e ff 1e 11 bf 2a 13 dc bc
       3.6795266 0.34133178 -0.5668792 -0.026864607
000100 05 af e4 3e 71 b9 e1 3e 4b da ef be d4 67 31 3f
       0.4466478 0.44086793 -0.46846232 0.69299054
000110 5f 7c ba 3d df 9a 20 bf c4 2d d4 bf 27 f3 11 c0
       0.09105753 -0.62736315 -1.6576467 -2.2804658
000120 bb da 2e bf 5b b4 87 3f b8 8b d7 bf e8 06 3b bf
       -0.68302506 1.0601915 -1.6839514 -0.73057413
000130 f3 e0 5b 3f 28 0d 28 c0 f1 36 a3 3d d6 46 28 3f
       0.8589012 -2.625803 0.079694636 0.6573309
000140 6a f6 0a 3f d7 d2 b4 bf 5a ed 95 3f 4e 87 a2 bf
       0.5428225 -1.4126843 1.1713059 -1.2697542
000150 4c a5 a7 3f e4 19 06 be ef a2 86 be ad d7 92 c0
       1.309732 -0.13095814 -0.26296183 -4.5888276
000160 2f 84 92 bf 4e 72 37 bf c4 9e 6c c0 e1 77 cd be
       -1.1446589 -0.7165879 -3.6971903 -0.40130523
000170 2c 39 1d c0 b4 1f 14 bf 34 e8 d1 3f 05 5b 8f 3e
       -2.4566145 -0.57860875 1.6398988 0.2799913
000180 52 50 cc bf aa cb 2f c0 a4 c6 70 bf e4 36 79 40
       -1.5962012 -2.7468057 -0.940531 3.8939753
000190 05 d7 22 3f 6b 7e df bf 1f 93 c2 bf 4c f0 36 3f
       0.63609344 -1.7460455 -1.5201148 0.71460414
0001a0 dd 22 4b bf 41 5c 90 bf 15 0a d0 bf 51 1f 8b bf
       -0.7935007 -1.1278154 -1.6253077 -1.0868932
0001b0 70 e8 03 3f a0 74 ad 3c b1 37 a7 3f e5 94 15 3d
       0.51526546 0.021173775 1.3063871 0.03651895
0001c0 6a 21 b2 bf be 07 87 be e9 c1 25 c0 9d 97 fc 3f
       -1.3916447 -0.26373094 -2.5899603 1.9733769
0001d0 cb 29 9e 3e ec fc 27 3f 16 a1 39 3f db 43 05 3f
       0.3089126 0.65620303 0.7251142 0.52056664
0001e0 bf 7c 08 c0 d2 59 41 3f dc 7e 95 3f 3b ea 27 c0
       -2.132614 0.7552768 1.167934 -2.6236713
0001f0 18 8b f5 bf 4e 93 e4 3e 32 1a 48 3e 04 11 78 bf
       -1.9183073 0.44643635 0.19541243 -0.96900964
000200 de e7 89 3e ae 34 aa bf 80 41 3e 3f 50 6f 15 c0
       0.26934713 -1.3297327 0.74318695 -2.334919
000210 f4 66 37 40 fa 7f c6 3f 2c 1b 86 bf 76 6f 0b 3f
       2.8656588 1.5507805 -1.0477042 0.5446695
000220 72 9b 01 3d be f3 22 bf 82 0b 0f 3e 5c 10 c8 3e
       0.031642385 -0.6365317 0.13969234 0.3907498
000230 fe ff 3a bf d8 01 ad bf cc e7 e2 bf 28 73 ad bf
       -0.73046863 -1.3516188 -1.7726989 -1.3550768
000240 19 06 42 bd dc f0 d1 be 69 44 3c 3f ee 62 f9 bf
       -0.047369096 -0.41004074 0.73541886 -1.9483316
000250 55 5b cd 3e 05 c0 a3 3f 4e f1 25 3f 8d 49 06 bf
       0.40108743 1.2792975 0.64821327 -0.5245598
000260 37 49 39 c0 9b 62 82 be 9a 89 b8 3e 56 dc d9 3e
       -2.8950937 -0.25465855 0.36042482 0.42550915
000270 65 66 0e 3f 5a 1a 9b 3e 39 23 7e bf bc c2 6d be
       0.5562499 0.30293542 -0.99272496 -0.23218817
000280 bc ba 8a 3f 7c 16 09 3f b7 c4 51 3f f7 d2 ed be
       1.0838237 0.53549933 0.8194079 -0.46450016
000290 10 64 87 bf 7e 60 be be cd 5f 50 bf b0 e4 ab be
       -1.0577412 -0.37182993 -0.8139618 -0.33572912
0002a0 a7 39 bf 3f fe 4a e5 3e bc d8 b9 c0 40 9a a7 3f
       1.4939469 0.44783777 -5.807707 1.3093948
0002b0 bc 78 66 3e ec 00 0b c0 67 ac 4e bf 59 98 96 3f
       0.22506994 -2.1719313 -0.80731815 1.1765243
0002c0 64 0b 6e 3e 4a 2a 13 3f 32 5a 30 3f 0f 7f 5e be
       0.23246533 0.57486403 0.6888763 -0.21728157
0002d0 18 ba 18 c0 10 b2 0c 3d 18 50 cc 3f d0 1f a4 3e
       -2.3863583 0.0343495 1.5961943 0.3205552
0002e0 0c d4 3b 3f 8e c6 4d 40 85 3e 85 bf cc b7 2a bf
       0.7337043 3.2152438 -1.0409704 -0.666867
0002f0 28 4f 2d c0 a8 94 1b 3f 11 14 76 3f f8 5a 79 3e
       -2.7079563 0.60773706 0.9612437 0.24351108
000300 c3 62 e5 3e 72 13 84 3f d2 e0 14 bf 2f 1a ad be
       0.44801912 1.0318434 -0.5815555 -0.3380904
000310 23 e7 fe bf 1b 40 3b bf 5c f8 20 c0 1c 0d 24 bd
       -1.9914287 -0.7314469 -2.5151587 -0.040051565
000320 02 a3 9f bf 4d 5b a8 3f 9a 09 b6 3f f4 86 18 c0
       -1.2471621 1.3152863 1.422168 -2.383237
000330 c3 65 ec 3e 14 93 c5 3c cf b9 23 3e c5 71 b8 3f
       0.46171388 0.024117984 0.15988849 1.440972
000340 7f 43 8f 3f 59 dc 0e c0 4b 15 05 c0 0c fd 61 3f
       1.1192473 -2.232199 -2.0794246 0.88276744
000350 54 e8 94 be a0 21 07 bf 68 69 c6 bf 37 e4 ac bf
       -0.29083502 -0.5278568 -1.5500917 -1.3507146
000360 42 e1 98 bf 4a dc c6 be 5f c5 b4 bf 68 75 95 be
       -1.1943743 -0.38839942 -1.4122733 -0.29191136
000370 d5 6b 08 bf fe 54 33 c0 48 26 c3 3f 15 84 18 3f
       -0.5328954 -2.8020625 1.5246058 0.5957654
000380 29 03 10 c0 62 96 cc 3f 1d 5d 23 3e 9a 87 2e c0
       -2.2501929 1.5983393 0.15953489 -2.7270265
000390 c2 8c 35 3c 06 43 f5 bf bd 15 81 bf 70 b8 cf bf
       0.011080923 -1.9161079 -1.0084759 -1.6228161
0003a0 44 0c 1d bf a9 1b d6 3d c8 39 af bf 6c f2 2b c0
       -0.6134684 0.104544945 -1.3689508 -2.6866713
0003b0 39 5a 0a be fd 98 1e 3f 94 d0 55 3f f6 44 c8 bf
       -0.1351098 0.6195219 0.8352139 -1.5646045
0003c0 b6 f2 03 c0 b4 f8 0c 3f b4 53 d5 3f 18 e3 e7 3f
       -2.061689 0.5506699 1.6666169 1.8116179
0003d0 3a 34 38 3f 15 c4 08 c0 0a a3 82 3f de 10 40 be
       0.7195469 -2.136968 1.0206006 -0.18756434
0003e0 6c 0b 9c 3e b4 78 6f bf 3c d9 ea 3f 2d a2 1e 40
       0.30477464 -0.93543553 1.8347545 2.4786484
0003f0 2a e6 e1 3f c1 1d 13 3f 5d 8e 0e bd 8d 66 46 bf
       1.7648365 0.57467276 -0.034803737 -0.7750023

bias f4 [16]
000000 40 c6 c7 3d 22 65 42 3f 5f 3e 54 be bb e4 0d bf
       0.0975461 0.75935566 -0.20726918 -0.5542714
000010 85 3b e7 3f b5 84 40 3f c1 16 d2 be 39 29 6e 3e
       1.8065039 0.75202495 -0.41032985 0.23257913
000020 ef 38 26 3e e9 b2 73 3f 15 31 ba bf 47 1d 58 bf
       0.16232656 0.9519487 -1.4546229 -0.84419674
000030 a7 67 29 3f 6b 6b d4 bf f9 88 9e bf f3 f0 e1 bf
       0.66173786 -1.6595281 -1.2385551 -1.7651657

weight f4 [16]
000000 63 58 ac 3f 63 78 27 40 49 24 1a 40 50 14 ea 3f
       1.3464473 2.6167228 2.4084647 1.8287449
000010 37 18 18 40 70 9f 13 40 10 5e ec 3f ad fa 63 3f
       2.376478 2.3066063 1.8466206 0.89054376
000020 34 36 f6 3f 34 69 da 3f f6 68 03 40 4b 83 1f 40
       1.9235291 1.7063355 2.0532813 2.4923885
000030 b5 99 fb 3f 5f 03 23 40 2f 4f 0f 40 b5 de df 3f
       1.9656283 2.5470808 2.239208 1.748984

bias f4 [16]
000000 fb 62 f4 3f 64 db a9 be e0 e9 c7 3e 87 8e f9 be
       1.9092706 -0.33175194 0.3904562 -0.48741552
000010 69 f4 fc 3e 49 5f 69 3f 52 9d 9d 3e ca 77 c4 3f
       0.4940522 0.9116102 0.30784088 1.5349057
000020 97 9f e2 3e f4 1e 80 3f 5c 41 9b 3d 44 93 dd 3e
       0.44262382 1.0009446 0.07580826 0.43276417
000030 a1 f7 b4 be ae d6 7f bf 32 bb 09 3f 83 b9 22 bf
       -0.35345176 -0.9993695 0.5380126 -0.6356432

running_mean f4 [16]
000000 c1 dc 59 c0 9a 29 0d c2 73 48 97 c1 d8 dd 98 c1
       -3.4040987 -35.290627 -18.910376 -19.108322
000010 e3 95 20 c2 1c 2e dc 41 9b 22 80 c2 96 d9 bb c1
       -40.146374 27.522514 -64.06759 -23.481243
000020 f7 7d d0 c1 17 3a 98 41 3e 99 79 c1 93 71 f0 41
       -26.061506 19.028364 -15.599913 30.055456
000030 17 ce 89 c1 df 05 46 c1 7e ba 70 41 9d 65 5f c2
       -17.22563 -12.376433 15.04553 -55.84923

running_var f4 [16]
000000 49 3e 52 43 32 9b 72 43 3f 6c 78 44 cc f1 a8 43
       210.2433 242.60623 993.69135 337.88904
000010 22 fa 8a 43 8d c3 0f 44 7c d6 5c 44 ef 31 05 44
       277.95416 575.0555 883.3513 532.7802
000020 b8 f7 56 44 05 02 81 43 53 7b 8d 43 66 6c 0a 44
       859.8706 258.01578 282.96347 553.6937
000030 de b4 05 44 0e b3 95 43 d7 90 99 43 e2 c0 39 43
       534.82605 299.39886 307.13156 185.75345

weight f4 [32, 16, 3]
000000 9a 3d e0 be da 2f d0 bf 8b 21 7d 3d 9f 9a 6b 3f
       -0.43796998 -1.6264603 0.061799567 0.9203281
000010 ad f0 ac 3e bd 6b cd bf ee ff a8 3f 2e e1 6d bf
       0.3377737 -1.6048504 1.3203104 -0.9292172
000020 1f a6 37 3f fc a4 6c 3e cb 74 ad bc 02 ea fb bf
       0.71737856 0.23109812 -0.021173855 -1.9680789
000030 95 73 34 c0 e1 91 9d bf 98 8d 01 bf 49 0e 9b bf
       -2.8195546 -1.2310144 -0.5060668 -1.2113734
000040 7c 54 aa bf 76 60 e4 bf 0d 1f 71 3f 4e 47 9e bf
       -1.3307033 -1.7841938 0.94188005 -1.236551
000050 db 8a 83 bf fc f5 9e bf 11 a8 0f 3f f2 7b 8a bf
       -1.027675 -1.2418818 0.56115824 -1.0819075
000060 ed 27 f0 bd 19 17 ac 3d 62 0e 20 bf 68 e7 b4 3e
       -0.11726365 0.08402843 -0.62521946 0.353328
000070 de 20 90 bf f3 df 5f c0 34 5b 6f c0 17 a4 3f 3f
       -1.126003 -3.4980438 -3.7399416 0.74859756
000080 0a d0 ac bf 33 63 f9 be 3f 70 fe bf 78 c7 55 c0
       -1.3500988 -0.48708495 -1.9878005 -3.3402996
000090 5b fc c6 bf 7c 9c fd bf 71 4b 04 c0 f6 0e 67 bf
       -1.5545763 -1.981338 -2.0671046 -0.90257204
0000a0 26 b3 84 bf 97 07 0d be 4c ef 30 bf 43 04 8a bf
       -1.0367172 -0.13772427 -0.6911514 -1.078255
0000b0 c4 23 85 3f 5a ea b1 bf 1d 73 03 3f ff fe 81 bd
       1.040154 -1.3899643 0.51347524 -0.06347465
0000c0 91 11 0f bf 0a 4d 2c bc 8f 92 b1 3e 60 31 13 c0
       -0.5588618 -0.010516414 0.34682128 -2.2998886
0000d0 5e b1 61 3f 1e 18 c6 3e 7d 37 5e bf 99 b8 97 be
       0.88161266 0.38690275 -0.8680342 -0.29633024
0000e0 b6 39 b8 3d 81 20 42 bf 22 4a 80 be 3f 73 82 3f
       0.089953825 -0.7583085 -0.2505656 1.019142
0000f0 88 93 ad bf 59 bf 12 c0 3c 2b 83 3f bc bc b9 be
       -1.3560648 -2.292929 1.0247569 -0.36276805
000100 fe fb cf 3e e3 17 ec 3f 36 00 2c be 49 5e 46 3f
       0.40621942 1.844479 -0.16796955 0.7748762
000110 17 cc 4d 3f 21 b3 76 3f 54 32 98 3f 04 dc 87 3f
       0.8038954 0.9636708 1.1890359 1.0614018
000120 31 82 07 3f ae 98 09 40 70 c2 79 3f 53 5a d4 bf
       0.5293303 2.1499438 0.97562313 -1.6590065
000130 40 e7 de 3e 60 5a a6 be 4d ac ca be 2c 9e 3b 3f
       0.43535805 -0.32490826 -0.3958458 0.73288226
000140 63 ec 4f be e1 2b 1b c0 ba 3e 1a bf c3 06 07 bf
       -0.20305018 -2.4245532 -0.60251963 -0.5274469
000150 eb d8 b7 3e 23 06 94 3f ea 5e 54 40 48 70 71 3c
       0.35907683 1.1564373 3.318293 0.014736243
000160 f5 33 b7 3f 7b 1c 73 40 04 69 96 bf 3e 10 96 be
       1.4312731 3.7986133 -1.1750798 -0.29309267
000170 69 31 8e 3c 15 e3 fc bf 77 1a 98 bf cd 66 36 3f
       0.017357545 -1.97568 -1.1883076 0.7125061
000180 37 9d cb be 69 f8 a6 bf 28 24 aa bf c7 e8 98 bf
       -0.39768383 -1.3044559 -1.3292284 -1.1946038
000190 f2 e5 f5 be 88 a9 fd 3f d2 22 a8 bf 80 25 f4 bf
       -0.48026997 1.9817362 -1.3135626 -1.9073944
0001a0 4d aa ce bf d9 01 0e c0 32 23 54 3e bd f0 ac 3e
       -1.6145722 -2.2188628 0.20716551 0.3377742
0001b0 28 1b 0b bf 9e 7a 01 c0 98 45 ce bf 63 d3 f7 bf
       -0.5433831 -2.023109 -1.6114988 -1.9361385
0001c0 94 af 75 3c c3 a2 ca 3f f0 29 26 bd 5f eb 11 3e
       0.014995474 1.5830921 -0.04056734 0.14249943
0001d0 b0 7a 12 3d 11 9a d0 3f 2a 53 73 3f ac 9a 71 3e
       0.035761535 1.6297017 0.95048773 0.23594159
0001e0 6a f4 88 3f 9a 07 a4 3f 27 0d 39 bf 84 bc 2a bf
       1.0699589 1.281482 -0.72285694 -0.666939
0001f0 ab 70 29 c0 41 7d 2d 3e 29 5c 97 bf 5a 9e d5 3f
       -2.6475017 0.16942312 -1.1825 1.668895
000200 8d 63 7e 3e 47 84 31 c0 24 09 03 c0 83 c7 8c bf
       0.24842663 -2.7736986 -2.047433 -1.0998386
000210 30 8b 4a bf d8 4a 89 3f 0a 45 08 40 cf a2 4d 3e
       -0.79118633 1.0725965 2.1292138 0.20081638
000220 f0 cb 0a 3f 95 5d 0f 40 3a 1d c5 bf e9 74 2e c0
       0.54217434 2.2400868 -1.5399544 -2.7258856
000230 70 62 5f 3f d3 c2 e1 bf 8d ef a9 bf 88 3b af 3d
       0.8725958 -1.7637581 -1.327623 0.085562766
000240 3c 1f 09 40 1a 0e 3d 3f ab ef 1a c0 95 51 a7 be
       2.1425314 0.7384964 -2.4208782 -0.3267943
000250 d0 d3 26 bf 52 6a a5 3f d8 03 12 40 45 c0 3c 3e
       -0.6516695 1.2923071 2.2814846 0.1843272
000260 6f 18 1b c0 7a aa 3a 3f 9e 4f 0e c0 ff 46 b5 3f
       -2.4233663 0.72916377 -2.2236094 1.4162291
000270 5b c0 30 c0 7f bd a7 be 2f 6b 82 3f f8 c3 d8 3f
       -2.7617404 -0.32761762 1.018896 1.6934805
000280 b7 37 f8 3f 4c 6a ea bf 82 34 2a 3f f7 17 f8 bf
       1.9392003 -1.8313689 0.6648637 -1.9382313
000290 b2 8f 38 3e 1f 3f 1e c0 11 9c 9c bf 7a c3 9c 3f
       0.18023565 -2.4726026 -1.2235128 1.2247155
0002a0 d1 d7 94 bf 17 b6 45 bf c1 3e e3 bf 20 bb 9c 3e
       -1.1628362 -0.7723097 -1.7753526 0.30611515
0002b0 46 b6 54 be f6 5f 9c 3f 83 98 c8 bf 22 88 65 3e
       -0.20772657 1.2216785 -1.5671543 0.22415212
0002c0 cd a1 86 3f d1 97 12 3f 5f f2 a9 3d b6 07 3b 40
       1.0518128 0.57262903 0.08298182 2.9223456
0002d0 22 39 a8 be dc 39 10 bf e4 e0 84 bf af ca 4b 3e
       -0.3285609 -0.56338286 -1.0381131 0.19901536
0002e0 a4 d4 7d bc ce b2 ea bf 7c 30 14 3f c8 05 71 bf
       -0.015492592 -1.8335817 0.5788648 -0.94149446
0002f0 02 06 fa bf 0c df 65 bf e0 7e 60 bd ff dc f5 bf
       -1.9533083 -0.8979347 -0.054808497 -1.9208068
000300 64 93 af bf 4e da 8d bf d4 c0 20 c0 c6 76 93 bf
       -1.3716855 -1.1082246 -2.5117693 -1.1520622
000310 f1 39 89 be f0 38 db be 73 4e f8 be 26 db c6 3e
       -0.26802018 -0.42816877 -0.48497352 0.38839072
000320 5d b8 84 3f b7 96 d0 3d 37 33 18 bf d9 4a 97 3f
       1.0368763 0.101849966 -0.5945315 1.1819717
000330 8c 75 13 c0 49 ff 55 c0 0b eb b5 bf f1 d6 42 c0
       -2.3040495 -3.3437064 -1.4212354 -3.044369
000340 a8 74 93 3d 15 cd 8e 3f 6a a5 7c 3e 1d b2 2d bf
       0.07199985 1.1156336 0.24672475 -0.67849904
000350 12 7e e9 be ff 09 8a 3e 27 1a f4 bf e3 77 49 c0
       -0.45603997 0.2696075 -1.9070481 -3.1479423
000360 26 e1 a5 3f 65 5b f5 3e 24 0d ac bf 04 00 1e c0
       1.2959335 0.4792129 -1.344151 -2.468751
000370 a9 fd 7a c0 2a 71 82 3f 29 f2 db bf cd 43 de be
       -3.9217322 1.0190785 -1.7183276 -0.43411103
000380 ea ac 44 3f 7f 52 97 bf 02 42 eb 3e 3e 7d fb be
       0.76826346 -1.1822051 0.45948797 -0.4911899
000390 37 61 59 3d 58 d2 08 be 92 67 15 3f f6 90 3e bf
       0.053071227 -0.1336149 0.5836116 -0.7443994
0003a0 a0 1a ae be 5a 43 64 40 64 87 80 bb 70 f6 5d 3f
       -0.34004688 3.5666108 -0.00392239 0.8670416
0003b0 25 c8 47 3f 7f 47 98 bf 8b dd e8 bf b9 03 c7 3f
       0.7803977 -1.1896819 -1.819261 1.5548011
0003c0 0c 7b 80 c0 3f e6 28 3f 13 01 e6 bd 22 78 ae 3d
       -4.0150204 0.6597633 -0.11230674 0.08519007
0003d0 f1 7a 38 c0 51 74 e4 3e ab c5 4f c0 21 a2 96 3e
       -2.8825037 0.44619992 -3.2464397 0.2942057
0003e0 fd 9f 8f 3f 1d bd 3c 3f 93 73 9f bf c6 32 ad be
       1.12207 0.73726064 -1.2457145 -0.338278
0003f0 65 3d 0f be 8e 6d 35 3f 0e 24 1d c0 d3 82 f5 be
       -0.13988264 0.7087029 -2.4553256 -0.47951373

bias f4 [32]
000000 22 e3 2e bd 71 9d 57 bf 12 ca 4b 3f 28 12 6e be
       -0.04269708 -0.8422461 0.7960521 -0.23249114
000010 fe a5 a2 3e 20 3e f8 3e 0c 56 ad be ed f1 a6 be
       0.31767267 0.48484898 -0.3385471 -0.3260645
000020 a5 5e 8a 3c f0 0a 90 3f ee 9c 0e 3d b6 bb b5 3e
       0.016890833 1.1253338 0.03481763 0.35494775
000030 80 a1 d4 be c5 c2 6d 3f 86 d4 8f bd 65 5f 05 bf
       -0.41529465 0.9287532 -0.070229575 -0.52098686
000040 31 37 2a 3f 93 65 29 3f 08 6e 0f 40 52 19 e8 3e
       0.66490465 0.66170615 2.2410908 0.45331818
000050 40 70 c8 3f d4 d8 b7 3d 90 24 ef 3f b9 2d 2f be
       1.5659256 0.089769036 1.8683033 -0.17107286
000060 5b 68 4e bf a5 dc db 3f dc 8f 93 3f a1 7a aa bf
       -0.80627984 1.717671 1.1528277 -1.3318673
000070 e6 0b 34 3f 3d fc 90 be e7 b1 4b 40 80 b3 11 3f
       0.70330656 -0.28317443 3.1827333 0.5691452

weight f4 [32]
000000 25 e9 09 40 69 ba d7 3f 8c 24 fb 3f d0 e7 f9 3f
       2.154855 1.6853763 1.9620528 1.9523869
000010 ff 72 fd 3f 6f f9 e5 3f dd 3f e8 3f e9 f8 c6 3f
       1.9800719 1.7966746 1.814449 1.5544711
000020 cf f8 a6 3f 6c cf b9 3f 67 5b 03 40 2a 4d 01 40
       1.304468 1.4516425 2.0524538 2.0203347
000030 e7 c2 07 40 27 4d 5c 3f 8d 2c 12 40 6a ce be 3f
       2.121271 0.86055225 2.2839692 1.4906743
000040 8f 7d 1b 40 a3 7c 0e 40 31 c4 b7 3f 2d 8e 88 3f
       2.4295385 2.2263572 1.4356748 1.0668389
000050 79 3c 06 40 34 73 c8 3d 72 a9 eb 3f 6f 4a 02 40
       2.097441 0.09787598 1.8411086 2.035793
000060 54 34 12 40 cb 94 bc 3f d2 37 cf 3f 67 17 ee 3f
       2.2844439 1.4732908 1.618891 1.8600892
000070 99 6a b6 3f 9f 7f 07 40 c6 e3 00 40 33 cf d2 3f
       1.4251281 2.1171644 2.0139022 1.6469482

bias f4 [32]
000000 e9 11 ac be c3 37 b2 bf 14 f5 9c 3e 1d dd 2a 3f
       -0.33607414 -1.3923267 0.3065573 0.6674364
000010 fc 98 27 bd 80 d4 6a 3e 9c 9d ac bf 3e 82 dc bf
       -0.04091738 0.22932625 -1.3485599 -1.7227247
000020 bc 6e 03 c0 57 e8 37 bf 9a 9d a8 bf a2 34 68 3f
       -2.0536337 -0.718389 -1.3173096 0.9070531
000030 9e ad 2f be 33 51 a9 3f 91 08 7d be b3 7c 1d bf
       -0.17156073 1.3227905 -0.24710299 -0.615184
000040 9f 91 84 3f 22 96 08 bf a1 b1 cd 3f ac 8b 64 be
       1.035694 -0.53354084 1.6069833 -0.22318906
000050 be f8 cf 3e 9e a1 8d bf 10 5c aa be ce cf 87 be
       0.40619463 -1.1064947 -0.33273363 -0.2652573
000060 27 2c 91 bd 55 93 16 c0 4b a8 da 3f fb 37 1a be
       -0.070884995 -2.3527424 1.7082609 -0.15060417
000070 6e 95 1b bf 23 80 27 bf 88 1f f2 be fd f9 63 3f
       -0.60774887 -0.65429896 -0.4728968 0.89053327

running_mean f4 [32]
000000 31 14 21 c2 c9 7d 83 40 14 d3 ac c1 ea 3b e7 c0
       -40.26972 4.1091046 -21.603065 -7.2260637
000010 a1 e9 09 c2 83 59 e2 c1 10 b3 b2 41 4d 27 91 41
       -34.478153 -28.293707 22.337433 18.14419
000020 73 30 c9 41 f5 62 91 c1 d4 c1 53 3f 23 dd b5 40
       25.148657 -18.173319 0.82717633 5.683244
000030 56 4a 04 c1 e6 cc 21 c1 14 62 80 c1 d5 62 be 41
       -8.268148 -10.112524 -16.04789 23.798258
000040 02 44 1b c1 a2 2f 51 c1 7a 59 6d c1 38 c8 93 41
       -9.704103 -13.074129 -14.834345 18.472763
000050 c5 15 e2 c1 26 92 09 c0 13 c1 e0 41 da aa ea c1
       -28.26063 -2.1495452 28.094275 -29.333424
000060 e7 3e 5a bf 0d 21 be 41 b3 ac 9e c1 ed c4 e5 3f
       -0.8525223 23.766138 -19.834326 1.7950722
000070 a7 94 04 41 c9 50 6d c1 d7 8d 27 c1 d1 3d 11 c0
       8.286292 -14.832223 -10.472129 -2.269398

running_var f4 [32]
000000 83 ec 28 44 0a 3c b3 43 e7 9f f9 43 8d a8 c5 43
       675.6955 358.46906 499.24924 395.3168
000010 71 ab d5 43 e2 d5 02 44 30 a2 d9 43 7c 6a e4 43
       427.3394 523.3419 435.2671 456.8319
000020 e9 d3 9a 43 cb 1b 07 44 ee 66 a2 43 5e bc 09 44
       309.65555 540.43427 324.80414 550.94324
000030 8c 90 24 44 b1 da bb 43 9e 7f 9a 43 1f a5 b2 43
       658.25854 375.70853 308.997 357.29
000040 44 07 08 44 2d 57 55 43 a9 8e 7d 44 b8 b3 8a 43
       544.1135 213.34053 1014.22906 277.40405
000050 ed 77 91 43 82 4e 47 43 1d a5 bf 43 e3 1f 45 44
       290.93692 199.30667 383.28995 788.4982
000060 b9 99 e2 43 13 a4 a1 43 cb 90 3a 44 e2 c9 de 43
       453.20096 323.28183 746.2624 445.5772
000070 06 db e6 43 5c cd e0 43 16 f4 9d 43 9b d8 13 44
       461.71112 449.60437 315.90692 591.38446

weight f4 [32, 32, 3]
000000 ea 99 3d 3f 35 ad d0 3c 94 cf ad 3e 94 49 64 3f
       0.7406298 0.025473217 0.33947432 0.8917477
000010 ff 0b a8 bf 80 62 f0 bf 89 30 26 40 3b 19 a6 be
       -1.3128661 -1.878006 2.5967124 -0.32441124
000020 64 87 ed bf cb 4b d9 3f 7d ea 11 be d1 22 79 bf
       -1.8556943 1.6976255 -0.14249606 -0.9731875
000030 88 e6 0d c0 a3 4f 67 3f 04 91 c5 bf 70 d5 e2 3e
       -2.2171955 0.9035589 -1.543488 0.44303465
000040 49 ed b8 3f 43 dc 62 bf 2e fb 03 40 75 cd a5 3f
       1.4447414 -0.8861734 2.0622058 1.2953326
000050 42 cb aa 3f fe 48 84 3f 74 a4 1e bf bf cf 62 c0
       1.3343279 1.0334775 -0.61969686 -3.5439298
000060 32 b5 f0 bf e7 31 dd bf 4a d6 a1 be fd 96 2a 40
       -1.8805296 -1.7280854 -0.31608802 2.6654656
000070 15 3d 85 3f 62 16 2c c0 c4 b0 0a 3e 8e 6d 6d be
       1.0409266 -2.6888661 0.13543993 -0.23186323
000080 83 67 a8 be 9f 30 28 40 12 40 08 40 41 11 7f bf
       -0.32891473 2.6279676 2.1289105 -0.996357
000090 a7 7c b4 3f 77 6a 84 3e 52 51 a9 bf c7 d4 0b 40
       1.4100541 0.25862476 -1.3227942 2.184862
0000a0 e7 67 66 bf 00 aa c5 be 95 68 a6 3f ab 0a b6 3f
       -0.9000229 -0.38606262 1.3000666 1.4222006
0000b0 20 79 6b bf fd a4 94 3f a0 2e a7 be f6 00 5d 3e
       -0.919817 1.161285 -0.3265276 0.21582398
0000c0 29 00 11 3f d5 d1 f5 bf b5 4c 90 c0 43 5d 66 bf
       0.5664087 -1.9204661 -4.5093637 -0.89986056
0000d0 0d 78 fc 3e c7 ae eb 3f 58 f8 66 bf cf 29 c3 3e
       0.4931034 1.8412713 -0.9022269 0.38117835
0000e0 9c a8 ad be 2e ed a0 3f 30 b3 69 be 84 91 ed be
       -0.339177 1.2572381 -0.22822261 -0.46400082
0000f0 7d ec 06 40 13 74 fa 3e f5 48 bc be c5 1a bf 3e
       2.108184 0.48916683 -0.36774412 0.3732511
000100 37 ea 13 bf f8 70 6a bf 04 8c 4f 3f 2a 29 c9 bf
       -0.5777926 -0.91578627 0.8107302 -1.5715687
000110 54 fb ce bf 9c 51 dc 3e 4f dc 70 3e 55 fa a8 3e
       -1.6170449 0.43031013 0.23521541 0.33003488
000120 ba 77 29 bf d9 6d 3f be e0 77 02 3f ff bf 91 3f
       -0.66198313 -0.18694247 0.50964165 1.1386718
000130 a6 0b 4b bd e3 68 86 3e 62 83 01 3c b4 cc 72 bf
       -0.049571656 0.26251897 0.007904859 -0.948436
000140 2c 99 05 c0 a3 bb cc 3f b4 57 0a 3f 3d 3a 9a bf
       -2.0874739 1.5994762 0.54040074 -1.2049023
000150 1a 72 53 3f e3 f6 bc 3e fc b7 30 be 21 5a bd 3f
       0.8259598 0.3690711 -0.17257684 1.479313
000160 3b d9 27 3f d0 64 27 40 f3 c7 08 be 42 26 1b 3f
       0.6556584 2.615528 -0.13357525 0.6060525
000170 99 3b 1f c0 c2 42 37 bf 60 ae 93 be 45 ca ee 3e
       -2.4880126 -0.7158624 -0.28843975 0.46638694
000180 fc 73 18 40 de fa 67 3f a0 13 c1 3f de 94 b6 3e
       2.3820791 0.9061717 1.5084114 0.35660452
000190 79 f2 3f bf a1 e7 62 40 15 ea b4 bf 4a 85 1c bf
       -0.7497936 3.5453875 -1.4133936 -0.6114088
0001a0 b8 0b 77 be f5 df 2f 3f d0 eb 9e be 79 47 89 bf
       -0.24125564 0.68701106 -0.31039286 -1.0724937
0001b0 b7 4c 70 3e b3 cd df bd 96 ce 59 40 ae 92 6c 3d
       0.23466764 -0.10927906 3.403234 0.057757072
0001c0 3a 4c 39 bf ea 20 10 3f 6c 02 83 3f df 98 28 3f
       -0.7238194 0.5630022 1.0235114 0.6585826
0001d0 fa df f8 bf bb b6 d3 bf f3 9a b8 bf 0c cb 64 be
       -1.9443352 -1.654014 -1.4422287 -0.22343081
0001e0 44 16 06 40 a7 df 15 3f 9b 55 8e bf 6b d0 02 bf
       2.095109 0.5854439 -1.1119875 -0.5109927
0001f0 af 5f 90 3e 6e 46 c1 3f f4 11 83 bf 4f eb 32 c0
       0.28198 1.5099618 -1.0239854 -2.795612
000200 62 66 61 c0 21 fc fb be 12 6c 96 3f 03 10 4b 3d
       -3.521874 -0.49215797 1.175173 0.049575817
000210 9c 05 d0 bf bd fa 2e be c0 5e 3e 40 ea f7 39 bf
       -1.6251712 -0.17087837 2.974533 -0.7264391
000220 92 59 fb be 94 b4 39 c0 71 cc f4 3e 84 c2 24 bf
       -0.49091774 -2.9016466 0.47812226 -0.6435931
000230 18 8d 82 3f c7 11 50 bf 87 5c 6d 3f 0a 5c fc bf
       1.0199308 -0.81277126 0.9271931 -1.9715588
000240 a7 d7 e2 be 8f a1 23 bf de ad b7 bf 5b 59 c2 3e
       -0.44305155 -0.63918394 -1.4349935 0.37958798
000250 54 2f 8c 3f 98 c5 80 40 bb 9b 2b be 4b d6 cf bf
       1.0951943 4.0241203 -0.16758625 -1.6237272
000260 ea 4c 5e 3f bd 3a b6 bf d0 33 c0 bf 5f 24 a7 bd
       0.8683611 -1.4236676 -1.5015812 -0.08161234
000270 ae fc 0c 40 68 ab 4e 3f d7 b2 cc bf 2a f3 e3 3d
       2.2029223 0.80730295 -1.5992078 0.11130364
000280 c8 62 a7 be 0f 8d 28 bf 6f 13 32 3e 4c 37 de be
       -0.32692552 -0.6584024 0.17390226 -0.43401563
000290 0d e1 5a c0 8b 3c 53 c0 de 89 c3 be d7 ff 2a 40
       -3.419986 -3.3005702 -0.38191122 2.6718652
0002a0 6b ed 54 3f f8 cd a5 bf 5c f4 ae c0 d6 6d 2d 40
       0.8317477 -1.2953482 -5.467329 2.7098289
0002b0 cb 4f 99 3e 61 21 0e bf 99 5c b9 bf 4e bf 87 bf
       0.2994369 -0.5551968 -1.4481384 -1.0605257
0002c0 7e c0 9c 3f 1e be 56 3f 0a 84 2b c0 f9 38 80 bf
       1.2246244 0.83883846 -2.679934 -1.0017387
0002d0 75 53 64 bf 2d 9e fe be 46 ac 73 bf 11 9b 0c 40
       -0.89189845 -0.49730054 -0.95184743 2.1969645
0002e0 10 3b a1 3e 2f bc 9c c0 83 42 6c bf eb 13 d2 bf
       0.31490374 -4.8979716 -0.9228899 -1.6412328
0002f0 da 60 b2 3e 17 d6 e8 3e a9 b7 2a bf 3a 6b ca 3e
       0.34839517 0.45475838 -0.66686493 0.39534932
000300 05 07 a9 3f f0 bf 5f 3d db 91 66 bf 15 d9 c7 be
       1.3205267 0.054626405 -0.9006631 -0.39032808
000310 2f 14 a4 bf f5 6a 95 3f 1b 35 de 3f 0f 57 2c bf
       -1.281866 1.1673266 1.7359957 -0.6732034
000320 d7 e2 f2 be e9 06 14 c0 7b d9 87 3e 1b 7a a1 bf
       -0.4743869 -2.3129218 0.26533112 -1.2615389
000330 85 a2 4f 3f fa e9 6e bf fe 9f f4 bf d5 4c c4 bf
       0.8110736 -0.9332577 -1.9111326 -1.5335947
000340 d0 59 a0 bf 29 23 65 3f d4 ab 42 3b 35 9b 1d 3e
       -1.2527409 0.89506775 0.0029704468 0.15391238
000350 68 a2 03 bf ac 80 d9 3d 21 ed b0 3f 8e 3c 89 3f
       -0.5141969 0.10620245 1.3822366 1.0721605
000360 0c c5 18 c0 78 70 78 be e1 a7 94 3f 04 4e a5 bf
       -2.3870268 -0.24261653 1.1613733 -1.2914433
000370 ed 41 b7 3e c8 ad a4 3f 5d dc c1 3e 0c bb ba be
       0.35792485 1.2865534 0.37863436 -0.3647083
000380 a9 32 52 3e 67 e4 e6 bd eb 3d 49 3f 49 91 7b 3f
       0.20527138 -0.11274033 0.78610104 0.9826856
000390 15 af 9e bf 55 23 40 3f 3b 4b 7c 40 b1 2a 50 40
       -1.2397181 0.7505391 3.9420917 3.2526057
0003a0 28 ea 02 c0 6f 93 a1 3e 5c 43 aa bf 9c 69 26 c0
       -2.0455418 0.31557795 -1.3301806 -2.600196
0003b0 35 0c 8d bf ee 9f 68 be 30 65 d3 be e5 a5 57 3f
       -1.101935 -0.22717258 -0.41288137 0.8423751
0003c0 ed a6 bc 3e 88 95 54 bf 2d f8 d8 be 1c 88 12 40
       0.36846104 -0.83040667 -0.42376843 2.2895575
0003d0 25 9f d7 bd 11 24 5e c0 0a 8b ad 3f 97 2c 1f c0
       -0.10528401 -3.4709513 1.3558056 -2.4870965
0003e0 35 3f 0b 40 73 bc a0 bf 60 fb 31 bf eb b2 70 40
       2.1757329 -1.255751 -0.6952419 3.7609203
0003f0 fc c5 02 bf 4a 31 ed bd 3d c6 e4 be 5f c0 5c bf
       -0.5108335 -0.11581667 -0.44682494 -0.86231035

bias f4 [32]
000000 69 ae 11 bf 53 b3 70 bf 4f c5 95 3e fa a2 40 c0
       -0.56906754 -0.9402363 0.29252097 -3.0099473
000010 51 16 82 3f ff 7f b9 be 21 d7 ce bd 77 1e e2 3e
       1.016306 -0.36230466 -0.10099626 0.44163868
000020 b8 51 06 bf 65 cc 22 bf 4d 47 6c bf 8d ab 3e bf
       -0.5246844 -0.6359313 -0.92296296 -0.74480516
000030 5e 83 6b 3f 80 f2 6d 3f c9 90 d2 3f 96 df 45 3f
       0.91997325 0.9294815 1.6450435 0.7729429
000040 48 aa 99 3e 47 50 22 bf 03 de 8a 3e fa a7 a4 be
       0.30012727 -0.63403744 0.27122506 -0.32159406
000050 6d cb 6c bf d4 eb b4 3e f1 39 cc 3f 9d ef e0 be
       -0.92497903 0.35336173 1.5955182 -0.4393281
000060 23 d6 54 bf 63 cd 0b bf f7 88 0a bd f4 8d db bd
       -0.83139247 -0.5461027 -0.033822026 -0.10720435
000070 1c 78 a3 3f e0 fa 24 bf c1 ec aa 3e 4a 26 b5 3f
       1.277103 -0.64445305 0.33383754 1.415231

weight f4 [32]
000000 0a 70 cf 3f 64 9f 15 40 94 80 b1 3f 72 cd 0d 40
       1.6206067 2.3378534 1.3867364 2.2156644
000010 33 81 eb 3f ce e4 e7 3f ed 06 21 40 57 34 0c 40
       1.8398803 1.8116701 2.5160477 2.1906946
000020 ac 44 19 40 f9 b2 9a 3f 3f 2a 0e 40 59 8e e9 3f
       2.3948164 1.2085868 2.2213285 1.8246566
000030 8e e7 99 3f cb 04 30 40 80 8f 15 40 63 72 12 40
       1.202379 2.7502925 2.3368835 2.2882316
000040 a7 aa 0d 40 7d cb fb 3f 68 21 cf 3f ba 22 35 40
       2.2135408 1.9671475 1.618207 2.8302445
000050 56 e1 b4 3f a7 2d c3 3f 70 f9 1b 40 23 a3 1c 40
       1.4131267 1.5248307 2.4370995 2.447457
000060 e4 c6 dd 3f 43 78 16 40 a0 dd 0f 40 38 02 f8 3f
       1.7326322 2.3510902 2.247902 1.9375677
000070 44 59 a2 3f d4 e5 0a 40 b4 3b be 3f c8 51 11 40
       1.2683492 2.1702776 1.486197 2.2706165

bias f4 [32]
000000 de 18 ed be f7 82 e2 be 9b 81 19 c0 3a fe 7b 3f
       -0.46308035 -0.44240543 -2.3985355 0.98434794
000010 2b 9b c7 bf 30 c3 f9 3e ce 51 8f 3f 6f ad 8b bf
       -1.5594229 0.4878173 1.119684 -1.0912303
000020 ac 77 6e bf d5 db 11 c0 38 23 c8 be f7 7f 5a bf
       -0.93151355 -2.2790425 -0.3908937 -0.8535151
000030 ca cf fe bf 78 b9 c9 3e 2b 3b a4 be 98 96 37 be
       -1.9907162 0.39399314 -0.32076392 -0.1792854
000040 08 14 f8 be b1 51 4a bf 26 78 c3 bf dc 04 41 3e
       -0.48452783 -0.790309 -1.5271041 0.1884951
000050 6c 2b e7 bf 14 6c 23 be 28 bd a8 3e c8 0c 80 bf
       -1.8060126 -0.15959197 0.32956815 -1.00039
000060 83 21 6e 3f da 6d ff bd 35 ff 5f bf 9b fc ab be
       0.93019885 -0.124721244 -0.8749879 -0.3359116
000070 87 35 16 c0 93 02 c0 be 66 35 d7 bf d6 1d 9e be
       -2.347017 -0.37501964 -1.6813171 -0.30882138

running_mean f4 [32]
000000 14 ea 80 c0 6e e6 bd c1 90 e5 36 41 2d 4c d5 40
       -4.028574 -23.737514 11.431046 6.665549
000010 1b 5e ea c1 c4 f8 85 40 95 66 c2 c1 38 36 d5 c0
       -29.29595 4.186617 -24.300089 -6.6628685
000020 6f 02 8c c2 5e 88 cc 41 09 37 bd c1 a6 51 4e 40
       -70.00475 25.566586 -23.651873 3.2237334
000030 b6 21 5d c0 f4 a0 2b c2 67 96 93 c1 06 ac 7e c0
       -3.4551826 -42.90718 -18.448439 -3.9792495
000040 40 8f 02 c2 38 96 02 c1 2f 53 01 c2 c1 59 36 c2
       -32.639893 -8.1616745 -32.331234 -45.58765
000050 ac 07 07 42 79 a0 62 c1 8f 8a 11 c2 ae 6e 39 c2
       33.757492 -14.164178 -36.38531 -46.358086
000060 ad de f6 40 f4 ed 14 c1 18 64 6d c2 3d 92 a5 3d
       7.714682 -9.308094 -59.347748 0.08084533
000070 4e 19 9c 41 a4 2d b0 be f9 5d ed 41 b7 5c a5 c1
       19.512356 -0.3440982 29.670885 -20.67027

running_var f4 [32]
000000 85 94 65 44 7e c7 2f 44 a3 bf 0d 44 d1 8a 47 44
       918.3206 703.11707 566.9943 798.169
000010 5d c8 f0 43 05 d1 58 44 ba af a0 44 af e6 5a 44
       481.56534 867.2659 1285.4915 875.60443
000020 6a 4a 35 44 d5 5f ef 43 fb 5b 50 44 9a f2 69 44
       725.1627 478.7487 833.4372 935.79065
000030 3a f0 f0 43 be 1c 9d 44 d2 53 be 44 7d 3a 70 44
       481.87677 1256.8982 1522.6194 960.9139
000040 2c 54 5f 44 68 8a 1b 44 44 42 b9 43 cc 47 3b 44
       893.3152 622.1626 370.5177 749.1218
000050 9c 4d 1d 44 2f 77 90 44 0e c5 76 44 45 e4 34 44
       629.21265 1155.7245 987.079 723.5667
000060 bb a6 52 44 6b 26 5b 44 be 3a 2e 44 d3 71 4b 44
       842.60516 876.6003 696.91785 813.7785
000070 31 d3 b7 43 18 96 39 44 35 a6 bb 43 3d c9 3a 44
       367.64993 742.3452 375.2985 747.14435

weight f4 [64, 32, 3]
000000 77 c1 3a c0 bf 95 05 c0 89 a8 e8 be 83 86 19 3f
       -2.9180582 -2.0872648 -0.45441082 0.59970874
000010 cf ec bb 3f 88 0e 27 40 00 a2 97 3e 9c 6d 72 3f
       1.4681643 2.610262 0.29615784 0.946985
000020 84 e2 b1 bf 2a b7 9c 3f 56 53 0b 40 b5 a6 85 3f
       -1.3897252 1.2243397 2.1769614 1.04415
000030 ff 56 2d bf b4 1a e0 be 16 1f 07 40 bb 7c 78 3f
       -0.6771087 -0.43770373 2.1112723 0.97065324
000040 05 c4 94 bf e2 80 7e c0 65 30 ed be 90 df 21 bf
       -1.162232 -3.9766164 -0.46325985 -0.63231754
000050 70 90 86 bf b2 3f 89 3f 46 48 5c be 48 7e 34 3e
       -1.0512829 1.0722563 -0.21511945 0.17626297
000060 a5 d0 82 3e 96 ce 2e be 50 78 ac 3f 70 e3 82 be
       0.25549808 -0.17070994 1.3474216 -0.25564146
000070 80 65 12 3f 66 93 31 3e cb f6 0b bf 92 a5 97 3d
       0.57186127 0.17341384 -0.5467345 0.07404627
000080 49 4c 8e 3f f7 8a f3 be 86 f0 23 3f 87 c2 82 bf
       1.111703 -0.4756696 0.64038885 -1.0215615
000090 34 ba 09 be 72 f6 26 bf 86 a0 70 be 09 9b 2e bf
       -0.13449937 -0.65219796 -0.23498735 -0.68205315
0000a0 fb c1 f4 bf d1 16 cc 3e 22 b7 ca bf bb 75 ce bf
       -1.9121698 0.39861158 -1.5837138 -1.6129678
0000b0 db c4 7f 3f bb fb 98 3f 99 ab b4 3f a5 fd 7d be
       0.9990975 1.1951822 1.4114867 -0.24803789
0000c0 e7 20 bf bf f0 5f 22 c0 6e 7c b9 3f 4f 3a e2 bf
       -1.4931916 -2.5371056 1.4491098 -1.7674044
0000d0 c3 7e f4 be 03 6f aa 3f 1a a7 1f be d7 04 d7 bf
       -0.47752962 1.3315128 -0.15591088 -1.6798352
0000e0 a6 5f e8 3e 18 8f c7 bf 58 50 1e be 9a ba d3 3d
       0.45385474 -1.5590544 -0.15460336 0.10338326
0000f0 c2 25 11 3f cf 04 34 3f f8 4e 9c 3f 07 cd 82 c0
       0.5669824 0.7031984 1.2211599 -4.0875278
000100 59 0f 6b 3f a7 7a 0d 40 94 57 99 bf 07 30 33 bf
       0.91820294 2.210611 -1.1979852 -0.6999516
000110 29 88 d7 be 58 96 a5 bf b0 18 81 bf d4 31 19 c0
       -0.4209607 -1.2936506 -1.0085659 -2.3936663
000120 da 7f c8 3f e7 1d e8 bf 1a 82 5a bf 31 76 aa c0
       1.5664017 -1.8134125 -0.8535477 -5.3269277
000130 4d 15 cd bf 1e 91 78 c0 1d 5c ed be fa 8b 77 3e
       -1.6022125 -3.8838573 -0.4635934 0.2417449
000140 b8 f5 8c bd d0 8a a8 bf 59 50 47 c0 8f 31 9d c0
       -0.06882805 -1.3167362 -3.114279 -4.9122996
000150 14 9e 1d c0 2c f7 0d 3e 1a 74 ed bf 21 e2 9f 3f
       -2.4627733 0.1386382 -1.8551056 1.2490884
000160 a7 c1 4a 3f ae 7e 1e be c0 68 9a 3f b0 f9 ad 3f
       0.7920174 -0.15478012 1.2063217 1.3591824
000170 b1 ec ce 3f 69 a0 cf bf 3b 4e 58 3f c4 fa 3a bf
       1.6165982 -1.6220828 0.8449437 -0.7303889
000180 f8 3f 48 c0 22 6f ce 3f 32 07 e7 be 6e e8 e7 3f
       -3.1289043 1.6127665 -0.45122677 1.8117807
000190 aa d2 f2 bf df 90 62 3f f6 0b b4 3f 62 d3 50 bf
       -1.897054 0.88502306 1.406615 -0.81572545
0001a0 86 54 01 be 0e 19 98 3f 24 d4 c1 bd 5e 7f ca bf
       -0.126299 1.1882646 -0.09464291 -1.5820119
0001b0 47 61 0a 3f 80 22 d6 3f 9e 99 45 3f 25 a9 ba 3f
       0.54054683 1.6729279 0.77187526 1.4582869
0001c0 ad 18 00 3e 6b 02 4a 3d 1e e2 18 c0 9e e6 1e c0
       0.12509413 0.049318712 -2.388801 -2.4828258
0001d0 71 3a 80 bf b5 b1 70 c0 4c be 16 c0 fd 77 ee bf
       -1.0017835 -3.7608464 -2.3553648 -1.8630368
0001e0 1c 45 43 3e 08 03 1f 3f be 60 80 bf d1 45 b0 3f
       0.19069332 0.62114 -1.0029523 1.3771306
0001f0 b8 ca 30 3f 2d e5 8c 3f e2 d9 ba 3f 91 6c 9a be
       0.69059324 1.1007439 1.4597743 -0.30160955
000200 00 bc 7e be 34 8c 5f bf a7 d3 4a c0 4c c1 05 be
       -0.24876404 -0.8732331 -3.1691682 -0.13062018
000210 16 f2 70 3f 1f cd 99 3f d4 5c c0 be 47 81 79 c0
       0.94119394 1.2015723 -0.37570822 -3.8985155
000220 d5 76 58 3f 3a ff 06 c0 e7 6a f3 3f 8d 9d 9f be
       0.84556323 -2.1093278 1.9016999 -0.3117489
000230 f5 cd 30 3e 39 8a bf bf 93 ce 91 be fe a6 2e c0
       0.17266066 -1.4964057 -0.28477916 -2.7289424
000240 f3 8e a1 c0 62 6d 39 c0 44 c1 e4 bf 9c df 8b bf
       -5.0487 -2.8973012 -1.787148 -1.0927615
000250 2f 52 44 bf 44 8c 37 3f 66 43 00 bf 0c b3 c8 3e
       -0.766879 0.71698403 -0.5010284 0.39199102
000260 51 a7 9a 3e 19 90 e8 bf bc 7d 1a 40 20 b1 77 bf
       0.30205777 -1.8168975 2.4139242 -0.96754646
000270 87 54 60 be b5 d1 72 3f ad 80 c6 3d a1 fa b0 bf
       -0.21907245 0.9485124 0.09692512 -1.3826486
000280 14 9a 91 3f 77 aa b7 bf 17 d5 7d bf 88 cb 04 bf
       1.1375146 -1.4348897 -0.99153274 -0.51873064
000290 51 6b 8b be 75 bf 09 bf 4e 65 17 c0 70 85 26 c0
       -0.27230313 -0.53807765 -2.3655581 -2.6018944
0002a0 90 3b c2 bf 70 dc 64 3e 1b 9d 49 c0 7b a1 1f c0
       -1.5174427 0.22349715 -3.150214 -2.494231
0002b0 47 15 5f be 00 d4 8f 3f a2 92 84 bf 87 98 bf bd
       -0.2178546 1.1236572 -1.0357249 -0.09355264
0002c0 6c 3d 54 3f 66 f5 cb bf 6d 84 27 bf b1 30 1e 3f
       0.8290622 -1.5934265 -0.6543644 0.6179305
0002d0 b8 b7 0d 40 99 d9 73 3f f8 6b 53 3f 6f e5 3f 3f
       2.2143383 0.952539 0.8258662 0.7495946
0002e0 7c d2 0a c0 92 63 c8 bf e2 82 01 40 6d 3c 2c 3e
       -2.169097 -1.5655386 2.0236135 0.16819926
0002f0 16 82 01 c0 45 f5 77 3f 51 7c a9 bf 58 08 05 c0
       -2.0235648 0.96858627 -1.3241063 -2.0786343
000300 5f 6c 0f bc 88 b4 1b 3e 06 46 f7 3e 52 0c c4 bf
       -0.008753865 0.15205586 0.4829561 -1.531626
000310 87 10 40 bf 75 51 cf bf 82 33 b9 3f 10 0f 4a 3f
       -0.7502522 -1.6196734 1.4468844 0.78929234
000320 ea 93 0e c0 38 60 05 40 62 12 d3 be ff 62 f1 3e
       -2.227778 2.0839977 -0.41224962 0.4714584
000330 e8 c8 ea bf 3c 3d a6 bd f1 06 51 3e 52 c9 96 3f
       -1.8342562 -0.08117148 0.20412804 1.1780188
000340 12 a4 b5 3e 0c 1f ca be 59 8c 8b 3f 2f d6 16 3f
       0.35476738 -0.39476812 1.0902206 0.5892057
000350 90 80 17 3f 69 95 1c bf 4d 6c 1f 3e 75 71 c7 3f
       0.59180546 -0.6116548 0.15568657 1.5581499
000360 12 d6 5a bf dc 50 ea 3d 6e 82 40 bf e2 91 95 be
       -0.85482895 0.11441204 -0.7519902 -0.29212862
000370 5b 73 91 bf b3 41 9d 3f 51 51 d8 3f ed 51 68 3f
       -1.1363329 1.2285675 1.6899816 0.9075001
000380 02 72 9f 3d 12 67 43 40 e3 5c b3 3d 1d 28 10 40
       0.07785417 3.053166 0.08757951 2.2524483
000390 83 35 bb be d1 c2 b2 3f 41 60 c0 3f 2f 58 b6 3e
       -0.36564264 1.3965703 1.5029374 0.35614154
0003a0 66 46 14 40 39 ae 68 bf ba c9 3d bd bb 11 e9 bf
       2.3167968 -0.9089084 -0.04633496 -1.8208536
0003b0 08 09 d1 be 0c 35 aa bf b5 d5 0e 3f bc ae be bf
       -0.40827203 -1.3297439 0.5579484 -1.4897075
0003c0 53 6e 8b 3e d6 d5 91 3f 00 5e bf be f5 81 99 3f
       0.27232608 1.1393383 -0.37376404 1.1992785
0003d0 5e c4 0d 40 16 f7 9c bf 1b 40 6a 3f 76 2e e7 3e
       2.2151103 -1.2262905 0.9150407 0.45152634
0003e0 29 ae 79 bf cb 82 f1 bf c1 89 10 40 ce b4 21 3e
       -0.9753137 -1.886804 2.2584078 0.15791628
0003f0 92 c5 21 40 8d a7 20 40 67 c1 68 40 f2 65 44 bf
       2.5276837 2.5102265 3.6368043 -0.76718056

bias f4 [64]
000000 d4 8e ce bf 40 ba 70 bf 3b 49 5a bf 38 cc 91 bf
       -1.6137338 -0.94034195 -0.8526799 -1.1390448
000010 95 bb 9c 3e f5 e1 07 bf 46 6d 84 3e 16 1f 9f bf
       0.30611864 -0.5307916 0.2586462 -1.2431362
000020 28 40 1f bf bc 2f 59 bf 6c 8d 8b 3f fa d1 5f bf
       -0.6220727 -0.8483846 1.0902534 -0.87429774
000030 ba 65 82 3f 0e 8d 25 bd 15 6c 67 3f 34 cd 3a 3d
       1.0187294 -0.040417723 0.90399295 0.045605853
000040 b2 4d bb be e0 bf 02 40 06 64 ca 3e d8 9d 8f bf
       -0.36582714 2.0429611 0.39529437 -1.1220045
000050 1d db b4 bd d0 19 b7 3f 91 b9 48 bf 24 34 c6 be
       -0.08830855 1.4304752 -0.7840815 -0.38711655
000060 71 91 2a 3f 90 99 0a bf 63 16 9f bf 88 a9 1a 3f
       0.66628176 -0.5414057 -1.2428707 0.60414934
000070 27 69 c9 be ca 18 ad 3f 09 ae d1 be 12 8a 9b 3f
       -0.39338037 1.352319 -0.4095309 1.2151511
000080 30 e3 dd bd 1a 82 4b bf a8 23 1a 3f 4a 9c fc bd
       -0.10834348 -0.79495394 0.6021066 -0.12334497
000090 29 9e 47 be 33 d6 ec be 07 48 de be 20 24 bb bf
       -0.19493927 -0.4625717 -0.43414328 -1.46204
0000a0 ed b9 ce be 65 2b 59 3d 46 5a 81 bd 39 1f 76 3e
       -0.40376225 0.0530199 -0.063160464 0.24035348
0000b0 5e e2 94 3e e0 f7 23 c0 ca ad 41 3e 59 ef 14 bf
       0.29078954 -2.562004 0.18913952 -0.58177716
0000c0 59 5f 07 be df 21 06 bf 31 27 1d be 36 b3 18 3e
       -0.13219966 -0.52395433 -0.15346982 0.14912114
0000d0 98 57 c9 3f ba 00 cf be ff 4c 41 3f 2c 2f e2 be
       1.5729856 -0.40430242 0.7550811 -0.44176614
0000e0 6d 6c 9e be 3b d7 51 bf 04 3c 76 bf 51 4b 0d 40
       -0.30942097 -0.8196904 -0.96185327 2.207722
0000f0 17 5f b3 bf 70 38 30 3e 2c 76 2f be a7 a1 8d 3f
       -1.4013394 0.17209029 -0.17134923 1.1064957
