unet/checkpoints/one_loss/epoch_22.pth (torch, 508787 bytes, 85 tensors)

weight f4 [8, 1, 3]
000000 b7 86 37 bf 99 a0 8a bf ba 9d 7e 3f 75 15 6f bf
       -0.71689934 -1.083026 0.9945942 -0.93392116
000010 ce 5f ed bf 52 1c 27 bd 9d e4 b0 3e e0 31 88 bd
       -1.8544862 -0.040798493 0.34549418 -0.06650138
000020 b2 6e 63 c0 84 5c 7f 3e f5 b6 99 3e 8a 5b 16 40
       -3.5536313 0.24937636 0.30022398 2.349337
000030 ed 15 0c bf 8d a9 89 bf 6d d6 88 bf 7a 31 bb bf
       -0.54720956 -1.0754868 -1.0690438 -1.4624474
000040 b8 a6 b1 be b5 68 7d bf dd 66 6a 3f 8d 9e 94 bf
       -0.3469751 -0.98987895 0.91563207 -1.1610886
000050 40 ac 0a 3d 88 ae de 3f 70 b8 31 3e 33 58 46 3f
       0.033855677 1.7397013 0.17355514 0.7747833

bias f4 [8]
000000 94 b2 5f be 48 de be 3d 52 d5 47 3e 53 7f cd 3e
       -0.21845466 0.093197405 0.19514969 0.40136203
000010 b8 b8 e6 be 31 78 e0 3d 0f bb 17 3e 11 09 48 bf
       -0.45062804 0.10960425 0.14817451 -0.78138834

weight f4 [8]
000000 db 41 8a 3f e8 28 9a 3f 46 aa e0 3f 70 07 dd 3f
       1.0801347 1.2043734 1.7551963 1.7267895
000010 a7 59 fe 3f 67 5d b6 3f 3b 71 7e 3f 04 74 df 3f
       1.987111 1.4247254 0.99391526 1.745728

bias f4 [8]
000000 b5 81 86 3f 86 86 2f be 54 0a 02 bf 2a d0 10 3f
       1.0508333 -0.1714116 -0.5079701 0.56567633
000010 74 2c 47 3e 9d 61 7d be 6e cf 2d 3f 48 34 c9 bd
       0.19450551 -0.24744268 0.6789464 -0.09824425

running_mean f4 [8]
000000 2f 0c 45 be 46 3b 3a 3e 59 e2 9c 3e 9b d8 93 3e
       -0.19242929 0.18186674 0.3064144 0.28876194
000010 8c 8b b7 be f9 ea 96 3e 8e b3 82 3d f1 12 7b bf
       -0.35848653 0.29476145 0.063819036 -0.9807578

running_var f4 [8]
000000 01 48 a3 47 a1 05 ee 48 db c2 3c 49 ec e9 00 49
       83600.01 487469.03 773165.7 528030.75
000010 03 7f c9 48 1c 22 dd 48 74 2f 27 47 fa 6d cf 48
       412664.1 452880.88 42799.453 424815.8

weight f4 [16, 8, 3]
000000 3f c9 50 bf cf b7 0a be 0a 36 e0 bf cd 89 27 3f
       -0.8155708 -0.1354668 -1.7516491 0.6544464
000010 66 09 a3 bf 33 e1 04 bf 12 20 6f be de 3d 14 bf
       -1.2737243 -0.51906127 -0.23352078 -0.579069
000020 ee f9 96 be 70 e1 99 be 3c de cb 3e 0b df 3d bf
       -0.29487556 -0.30054808 0.3981799 -0.7416846
000030 cc e7 59 bf e0 0f c2 bf 9b 38 92 be 75 d6 13 c0
       -0.8511932 -1.5161095 -0.28558812 -2.3099644
000040 aa a6 e8 3d 9a b8 93 bf f5 cc 5d 3e da 4f 02 3e
       0.11359914 -1.1540711 0.21660216 0.12725773
000050 8c 8f 19 bf 47 11 0f 3e e2 79 f3 3e d8 82 4f bf
       -0.5998466 0.13971435 0.47553927 -0.81059027
000060 ef 70 df 3f 13 09 f1 bf 7f 29 c2 3e 54 60 a4 3d
       1.745634 -1.8830894 0.37922284 0.08026186
000070 b8 25 cf be 9a dc d4 3e 84 9e d5 be af 97 3e 3e
       -0.40458465 0.41574556 -0.417225 0.1861255
000080 47 24 0e bf 2d 0b 5d 3f 90 6a 15 bf 03 8e 7e bf
       -0.55524105 0.8634518 -0.58365726 -0.9943544
000090 03 1f 91 be 71 99 25 3f f5 27 88 be 5e 99 e3 be
       -0.28343973 0.6468726 -0.26592985 -0.44452947
0000a0 8c 88 a2 3e 5e 40 4b bf da 5b 3e be bd 9c 52 bf
       0.31744802 -0.7939509 -0.18589726 -0.82270414
0000b0 5d 89 ce 3f 5f c2 e4 be 92 c0 9d bf 23 a2 22 3f
       1.613567 -0.44679543 -1.2324393 0.6352865
0000c0 23 8a 01 bf 63 bc 03 bf 97 b4 b2 3d b2 59 80 bf
       -0.50601405 -0.5145933 0.08725851 -1.0027373
0000d0 7f 95 8c 3d 07 b1 68 3d 83 ba 7a 3f 49 6e 89 3e
       0.068644516 0.05680945 0.97940844 0.26841953
0000e0 c9 23 37 3f cc 3f 46 3f d4 65 a6 3f 99 8c cd 3f
       0.7153898 0.77441096 1.2999825 1.6058532
0000f0 42 c0 39 bf 7e 03 6d be 5d ec 1c be 5c 5b 3b be
       -0.7255899 -0.23145863 -0.1532454 -0.1829657
000100 81 de 3e bf d0 eb cf 3e 64 da d4 bd d5 ab 59 be
       -0.74558264 0.40609598 -0.10393217 -0.21256955
000110 bd b0 0d bf be 63 f1 3e ff e1 8e 3f 7a 18 97 3f
       -0.55347806 0.4714641 1.1162719 1.1804345
000120 3c da 98 bf b8 0a 82 3d fe 20 80 bf 87 40 37 be
       -1.19416 0.06349701 -1.0010068 -0.17895709
000130 57 11 b9 3e 92 d1 02 ba eb 65 c1 3d 57 47 68 be
       0.36146042 -0.0004990335 0.094432674 -0.22683464
000140 24 d5 20 40 c9 dd 7c bb ff dc 3d bf c0 c6 5a bf
       2.513009 -0.0038584343 -0.7416534 -0.8545952
000150 60 2f a9 3d 5f 04 0e 3e 12 6e fc 3f 7d 14 e4 3e
       0.08260989 0.13868855 1.9721091 0.4454688
000160 20 e6 4a bf af a9 c7 3f ae b1 82 3e 45 ce d2 3e
       -0.7925739 1.5598658 0.25526184 0.41172996
000170 10 90 34 bd ad ab 56 3f 0c 3d 88 bf 9a 3a 0f be
       -0.0440827 0.83855706 -1.064363 -0.13987198
000180 e3 db 38 3f 3b 64 2b bf 15 02 a7 bf 29 d3 71 3e
       0.7221052 -0.66949815 -1.304751 0.23615707
000190 6d 28 36 bf 23 11 ea be 2a 81 1f 3f b2 bd c8 be
       -0.71155435 -0.457162 0.62306464 -0.39207226
0001a0 10 82 c4 be 48 0b 8e 3f 69 3a b9 3d d2 0e bd bf
       -0.3838048 1.1097193 0.09044344 -1.4770148
0001b0 dd d5 5b bf 27 95 47 bf f0 c6 2a bf 4b 30 74 3e
       -0.85873204 -0.77961963 -0.66709805 0.23846547
0001c0 71 7e 15 bf 3b a6 93 3e a0 02 02 bd 4b e8 1c 3f
       -0.5839606 0.2883776 -0.031740785 0.6129195
0001d0 eb 91 26 3e 9c 0f 0d 3f 8d 60 96 3f 6f f6 e6 be
       0.16266601 0.55101943 1.1748215 -0.4510989
0001e0 4e 49 20 3e c4 b0 6e bf aa 5f 75 3d af 41 61 bf
       0.15652964 -0.9323847 0.059905685 -0.8799085
0001f0 2e 79 3b bf cf e6 cb 3e 1e a7 7a be d2 2d 93 3f
       -0.7323178 0.3982453 -0.24477813 1.1498358
000200 13 d4 28 3f f5 60 46 3f 88 ab a1 3e 6d 6e 59 3f
       0.659486 0.77491695 0.3157618 0.8493412
000210 38 e3 34 bf 36 28 95 be a6 6c 8c 3e 94 65 8d 3e
       -0.7065921 -0.2913224 0.27426642 0.2761656
000220 4c 6c 37 be df 18 8e 3e 85 30 71 bf 24 2e 2e bf
       -0.17912406 0.2775335 -0.9421466 -0.68039155
000230 06 d2 d1 3f 43 4b 93 bf d6 3d 1d 3e 85 78 9b 3f
       1.6392219 -1.1507343 0.1535562 1.2146155
000240 03 51 ae bf 4d 87 c4 be 32 a5 0f 3f 97 d4 ea bf
       -1.3618473 -0.38384476 0.56111443 -1.8346127
000250 83 e6 0c 3f ed 25 4a 3f 0b 73 3e 3f 34 74 80 3f
       0.5503923 0.7896412 0.7439429 1.0035462
000260 eb 11 5f bf 2c 88 85 3e b0 af 70 be 59 46 af 3d
       -0.87136716 0.26080453 -0.2350452 0.085583396
000270 e2 c2 91 be 5a 8f 2a 3f 76 e0 2b bd eb 83 66 3d
       -0.28468996 0.6662499 -0.04196211 0.05627815
000280 da fa 4d bf ce ac 05 3f 16 0d 01 c0 c2 fe 05 40
       -0.80460894 0.52216804 -2.0164237 2.0936742
000290 c0 0e e6 3e 6f e8 08 3f 26 15 ea 3d d2 da c6 bd
       0.44933128 0.53479666 0.11429815 -0.097097054
0002a0 47 37 c2 3f 70 b7 7a be 6c 81 b8 bf 9b c0 22 3f
       1.5173119 -0.24484038 -1.4414496 0.6357514
0002b0 bc 46 2e bf 30 6f 89 bf 60 c5 db bf ad 06 83 bf
       -0.6807668 -1.0737057 -1.7169609 -1.0236412
0002c0 77 37 78 3e e7 e2 94 3b a3 9a 62 3d 38 4f 17 3f
       0.24239908 0.0045436504 0.055323254 0.59105253
0002d0 26 ad eb 3d bd 1d f4 be ad b2 84 bf 81 d5 14 3e
       0.11507635 -0.47678939 -1.0367028 0.1453457
0002e0 93 b1 37 3f 8e 7f 17 bf fe a6 8c bf 74 a7 d7 bf
       0.7175533 -0.5917901 -1.0988462 -1.6847978
0002f0 09 93 09 be 94 cc ad bf af 37 1e 3e d1 e1 5c 3f
       -0.13434996 -1.3578057 0.15450929 0.8628207
000300 b1 70 0f 3f 36 63 a5 bf 03 e8 ac 3e a1 48 fc bd
       0.5603133 -1.2920902 0.3377076 -0.1231854
000310 dd 15 b1 bf fe b5 ec be a9 81 c9 bf f5 41 17 3e
       -1.3834797 -0.462326 -1.5742694 0.14771254
000320 43 ab 53 bf 7b fc 78 3e 83 fe 4f bf 8f e8 43 3f
       -0.826832 0.24315064 -0.8124773 0.7652673
000330 4f 88 8a be 43 35 3b bf c9 22 0f bf 20 b7 1c bf
       -0.2705712 -0.73128146 -0.5591245 -0.61216927
000340 2e 83 22 be 3e a7 d4 bf 79 aa d8 bd 25 cf 2e bf
       -0.15870354 -1.6613538 -0.1057939 -0.6828483
000350 a6 9e da 3e d0 d9 83 be af 09 81 bf bf 39 0b 3f
       0.42699164 -0.25752115 -1.008108 0.5438499
000360 89 95 e6 3e 75 84 85 be de 1b 07 3f cd 6a fe bc
       0.4503596 -0.2607762 0.52776897 -0.031056786
000370 81 ed 25 3f 36 99 19 3e 47 c7 9a 3f 9c f9 e1 3d
       0.6481553 0.14999852 1.2092065 0.11033937
000380 db e9 09 c0 d0 b7 2a 3f 0a 9e c9 3f bd 9d 1e 3f
       -2.1548984 0.66686726 1.5751355 0.6195944
000390 8f 86 03 3f bd 96 18 3f 1b 06 62 bf 2a 6c 7a 3f
       0.51377195 0.5960501 -0.88290566 0.97821295
0003a0 aa 12 ef 3c 9b 61 1a be 5f b3 8b 3e 4b bc f5 3c
       0.029183704 -0.15076296 0.27285287 0.029997012
0003b0 21 a9 ba bf 2b 46 26 3f f9 32 a7 3f 8d 88 29 3f
       -1.4582864 0.6495082 1.3062431 0.66223985
0003c0 70 e1 d6 3f 90 8f 9c 3f 77 2d 2d 3f 08 58 ec 3f
       1.6787548 1.2231312 0.676475 1.8464365
0003d0 f9 46 0f 3e b1 ee e2 be 37 2c 36 bf a5 37 22 bf
       0.13991918 -0.44322732 -0.71161216 -0.63366157
0003e0 e1 38 0f bf ad e8 5a bf e6 15 45 bf 13 4f 06 3f
       -0.55946165 -0.85511285 -0.7698654 0.5246441
0003f0 71 44 8a 3f 91 49 07 3f 84 b2 ad be 23 8e f7 3f
       1.0802137 0.5284663 -0.3392526 1.9340252

bias f4 [16]
000000 d2 95 65 3f be ef ce 3e c0 ad 31 3d 79 b1 00 bf
       0.8968173 0.40417284 0.04337859 -0.502708
000010 2c a1 e6 3e 6a 14 dd bf b5 7b 1c bf bd cc 8e be
       0.4504484 -1.7271855 -0.6112626 -0.27890578
000020 6e 4d 35 3f 7a 0c 56 3f 19 92 5d 3f c9 f4 c3 bb
       0.70821273 0.8361279 0.8655105 -0.0059801084
000030 29 10 0a 3f 83 8d 9c bc cb 85 b3 bf ed 25 84 be
       0.5393091 -0.019110447 -1.4025205 -0.25810185

weight f4 [16]
000000 a6 60 8f 3f 2c 27 8b 3f d9 3b ce 3f d5 4a a3 3f
       1.120137 1.0871329 1.6112014 1.2757212
000010 72 8c a8 3f c4 34 6f 3f ea 1a 5e 3f fd f9 bd 3f
       1.316786 0.9343989 0.8675982 1.4841915
000020 ac 58 18 3f 88 ec d3 3f ed cb 71 3f ad 7d 8d 3e
       0.595103 1.6556559 0.9445179 0.27634946
000030 d0 35 60 3f 34 00 2d 3f 42 18 d5 3f 5c a4 bd 3f
       0.8758211 0.67578435 1.6648028 1.4815784

bias f4 [16]
000000 7e 13 76 3e 15 c3 48 bc b5 53 5c 3f ae 83 99 3f
       0.24030873 -0.012253542 0.86065227 1.199331
000010 d0 09 28 3e 74 b5 e1 be 22 fa c6 3f cd 8a 40 3f
       0.16409993 -0.4408375 1.5545084 0.75211793
000020 fa 05 06 3e 82 a8 c6 3f db 16 2b 40 bd d0 91 3f
       0.13088217 1.5520175 2.67327 1.1391827
000030 c2 57 f1 bd 6e 9a 7d 3e be 8d e2 be b6 db e6 be
       -0.117843166 0.24765942 -0.44248766 -0.450895

running_mean f4 [16]
000000 b0 79 f1 c0 c4 e3 24 bf 81 30 30 40 7b 9e 46 bf
       -7.5461044 -0.6441004 2.7529604 -0.7758557
000010 b3 80 0b c0 96 47 57 bf 72 74 3d bf e8 b0 a5 c0
       -2.1797302 -0.84093606 -0.74005806 -5.177845
000020 ff 26 88 c0 78 ac ab 40 ae 24 b5 40 82 b6 0e bf
       -4.2547603 5.3648033 5.6607275 -0.55747235
000030 8b 37 fc 3c d4 e2 a5 c0 37 7c ac 40 82 29 f0 40
       0.030788204 -5.183939 5.390163 7.505067

running_var f4 [16]
000000 51 eb 8e 42 9d 73 a7 41 07 76 72 42 ae fb 22 42
       71.4596 20.931452 60.61526 40.74578
000010 32 62 d1 41 e0 a2 b2 41 79 d4 9e 41 2c de 3c 42
       26.172947 22.329529 19.853746 47.216965
000020 6f 8b 60 42 9d 41 0d 42 e2 2c 24 42 7d b5 ab 41
       56.136166 35.314075 41.04383 21.463617
000030 d5 fc 8b 41 8b 17 11 42 32 e1 12 43 82 63 32 43
       17.498453 36.27299 146.87967 178.3887

weight f4 [16, 16, 3]
000000 21 20 bd bf ef 8d 64 bf b2 c9 49 3f 3b 21 88 bf
       -1.477543 -0.89279073 0.7882339 -1.0635141
000010 23 4f 7e be 43 62 fb be 8d da 9c bf e5 86 bc 3e
       -0.24834876 -0.49098405 -1.2254196 0.36821666
000020 31 23 7f 3f b3 e6 c5 be 8b 0f df be 57 d1 a9 3e
       0.9966307 -0.38652572 -0.43566546 0.33167526
000030 88 79 bb bf 43 fe 6d bf d3 5e 95 3f f3 bc 82 bf
       -1.4646463 -0.929661 1.1669563 -1.0213913
000040 21 b4 88 3e 54 02 80 3e a6 e9 5a bf b3 f8 78 bf
       0.26699927 0.25001776 -0.8551277 -0.97254485
000050 b9 2e 94 3f 86 51 3a bf cf 30 33 3f 49 3d 4d 3d
       1.1576759 -0.72780645 0.6999635 0.050107274
000060 83 df 19 be d6 63 97 3c 8d 4d 80 bf d6 e4 dc bf
       -0.15026669 0.018480223 -1.0023667 -1.7257335
000070 63 72 91 3e f0 2b 2c 3f 33 88 12 bf b0 90 36 be
       0.28407583 0.67254543 -0.57239074 -0.17828631
000080 a4 73 08 be ff 57 ca bf 4a 87 ad bd 5c 00 38 bd
       -0.13325363 -1.5808104 -0.0847307 -0.044922218
000090 ed 5a b2 3e a6 05 9d be cd 5d 2d bd d1 4a c6 3e
       0.34834996 -0.30668372 -0.042325784 0.38728955
0000a0 c5 10 b9 3e 3f 80 64 bf 93 45 30 bf 28 3e 0a 3e
       0.36145607 -0.8925819 -0.6885616 0.13500273
0000b0 09 a4 fd 3e 2e 59 88 bf 8f 8a 06 3e 0f 73 15 3f
       0.4953921 -1.0652215 0.13138793 0.5837869
0000c0 d9 5b 5f bf d8 8e 85 3f 25 2a 58 3f b2 a0 35 bf
       -0.87249523 1.0434217 0.8443931 -0.70948327
0000d0 96 80 bf bf 5b 6c c3 bf b3 e3 77 3d 72 67 e8 3e
       -1.4961116 -1.5267442 0.060519885 0.45391423
0000e0 8d 10 88 3f 9a 6a 91 bf d5 08 c0 bf 24 44 0b c0
       1.0630051 -1.1360657 -1.5002695 -2.176034
0000f0 0c 64 f4 3e cb f8 64 3d 31 d0 95 bb 79 81 98 bf
       0.4773258 0.05590133 -0.0045719375 -1.1914512
000100 ff 35 f3 3e c0 29 40 bd 6e c7 17 bf d6 81 81 be
       0.47502133 -0.046914816 -0.5928868 -0.2529437
000110 46 c5 01 3f 2d 05 2a bf d0 38 9a 3e d9 14 65 3f
       0.5069164 -0.6641415 0.3012147 0.89484936
000120 33 2c ca bf 12 07 7d 3e 03 20 f1 3e 4f 8c e2 3d
       -1.5794739 0.24709728 0.47094736 0.11061918
000130 55 89 6c be fe e5 2a 3f 5d 32 e5 be 67 dd f0 bf
       -0.23099263 0.6675719 -0.44764987 -1.8817567
000140 32 7e 93 bf 49 56 4d 3e 83 6b 3f bf d4 a4 2c 3f
       -1.1522887 0.20052446 -0.74773425 0.6743901
000150 7c 2e a7 bf a2 35 bb 3b 6a 2c 8b bf e4 ff 93 be
       -1.3061061 0.0057131806 -1.0872929 -0.28906167
000160 e1 37 42 3f f5 3b 44 3f ac ea 28 bf a7 07 c5 bd
       0.75866514 0.7665399 -0.6598308 -0.096206
000170 0a 51 fa 3c 80 0b 6d bf 4f d4 4f be 23 52 94 bb
       0.03055622 -0.9259567 -0.20295833 -0.004526393
000180 9a 50 ea 3b 92 70 fa 3e ea d6 52 be 4b 94 b7 bf
       0.0071507217 0.4891401 -0.20589796 -1.434213
000190 b1 ba b7 be b2 52 75 3e 93 ef 12 40 b9 cc 0c 3f
       -0.35884622 0.23957327 2.2958724 0.5499988
0001a0 43 e8 1c bf e8 22 54 bf e8 71 42 bb 80 5d ad 3e
       -0.61291903 -0.8286576 -0.0029669944 0.33860397
0001b0 43 6a 92 3f 80 e2 1f 3f 51 55 c0 ba 5a 76 48 be
       1.1438679 0.62454987 -0.0014673864 -0.19576398
0001c0 d2 29 13 bf 73 ae 49 3e b5 50 cc 3f cc 02 40 bf
       -0.5748569 0.19695453 1.596213 -0.7500427
0001d0 ab b8 4c bf 43 7b 18 bc ce d8 81 bf 66 32 69 bf
       -0.7996928 -0.009306732 -1.0144289 -0.91092527
0001e0 a3 93 1a be a8 f1 c3 ba 22 48 0a bf f6 2f d2 3f
       -0.15095381 -0.0014949339 -0.54016316 1.6420887
0001f0 d1 77 e9 3e 22 b2 3d bf af 17 22 bf 5c 57 e1 be
       0.45599225 -0.74099934 -0.6331739 -0.44011962
000200 e2 79 1f bf 93 cb ec be 52 d0 d6 be d9 cd c5 be
       -0.62295353 -0.46249065 -0.4195581 -0.38633612
000210 ae 9f f4 be fb 39 4c 3e 8a 4a d9 3e 23 90 f3 be
       -0.47778076 0.19943993 0.4243968 -0.47570905
000220 57 7c b1 be 94 53 00 3f f9 52 60 be d0 ba a5 bd
       -0.34665176 0.5012753 -0.21906652 -0.08092272
000230 e3 1c dd 3e d4 52 44 be 2a 39 15 be 54 22 a7 3e
       0.431861 -0.19172221 -0.14572588 0.32643378
000240 22 8b 93 3e 98 12 94 be d1 84 f0 3e 59 c3 b9 bf
       0.28817087 -0.28920436 0.4697633 -1.451274
000250 3f 47 12 be a9 4e ab bf 79 2c 22 3f 87 89 67 bf
       -0.1428499 -1.338338 0.6334911 -0.90444225
000260 3b 90 a7 be 2b d6 8b be 70 63 69 be cf b5 8b bf
       -0.32727227 -0.27311835 -0.22791839 -1.0914859
000270 ae 77 4a 3f ff ae 4c bf 2d c5 4d be 42 15 15 c0
       0.79088867 -0.7995452 -0.20094748 -2.3294225
000280 e2 21 4c bf f3 19 90 be e0 c1 51 be 3c c9 00 bf
       -0.797392 -0.28144798 -0.20484114 -0.5030706
000290 03 4f be bf 93 38 8a bf 55 9c 54 bf 59 a6 24 3f
       -1.4867862 -1.0798515 -0.83051044 0.64316326
0002a0 41 68 88 bf 2b 91 cc 3d 30 dc 9f 3e 90 44 b5 3f
       -1.0656816 0.09988626 0.31222677 1.4161549
0002b0 c0 f1 12 bf c8 98 90 bf 4d 26 62 3e 0c f6 6f 3e
       -0.5740013 -1.1296625 0.22084923 0.23433703
0002c0 86 41 3b bf 79 32 83 bf 6b f1 70 be 86 7c 37 bf
       -0.73146856 -1.0249778 -0.23529594 -0.7167438
0002d0 12 0c 7d 3e 63 61 6c 3e e1 cf a7 bf 8b 0c f3 bf
       0.24711636 0.23084025 -1.3110315 -1.8988203
0002e0 59 f1 06 3e 71 7a 97 3f 56 71 00 3f 66 e5 0a be
       0.13178004 1.1834241 0.50172937 -0.13564071
0002f0 bf 1e 99 bf f2 f7 22 3f 26 94 50 3e 7b 5a 61 bf
       -1.1962508 0.63659585 0.20369014 -0.8802869
000300 b9 37 eb be 13 9c c7 bf dd 1f 06 c0 d9 42 94 bf
       -0.4594095 -1.5594505 -2.0956948 -1.15829
000310 ab 80 af bb e4 e9 18 bf d1 b6 0a bf 0f 64 5a bf
       -0.0053559146 -0.5973189 -0.54185206 -0.8530893
000320 4b 03 d5 bd 02 65 85 be 29 65 93 be de 04 dc 3e
       -0.10401019 -0.26053625 -0.28788117 0.42972463
000330 c1 26 34 bd 68 42 58 be e8 55 a7 bf 2e 2a 27 c0
       -0.04398227 -0.21119082 -1.3073092 -2.6119494
000340 9b a2 5e 3a 24 9a d0 3e f1 b6 40 3f e9 37 7f bf
       0.0008492858 0.407426 0.75279146 -0.9969469
000350 99 81 47 be 73 3b 28 c0 ee b0 ae 3d 1c d2 ce bf
       -0.19483031 -2.6286285 0.085298404 -1.615787
000360 5a 89 a6 bf a7 d7 7d 3e 16 7f 93 bf b2 1f 6e 3e
       -1.3010666 0.24789296 -1.1523159 0.23254278
000370 7f c0 9e bf 76 1e 4e 3f 1e 3b ab 3d 15 23 34 3d
       -1.2402495 0.8051523 0.08360885 0.04397877
000380 8a 15 27 be a1 20 7e bf a7 ea 6f bf c6 51 f5 bd
       -0.1631681 -0.9926854 -0.93717426 -0.11978488
000390 ae a1 22 bf d6 3d d5 bf a0 23 93 3f 47 7e 64 bf
       -0.63527954 -1.6659496 1.1495247 -0.89255184
0003a0 af da ba 3d 23 2a af bf 74 9a ab 3d 11 99 27 bf
       0.09123742 -1.3684734 0.08379069 -0.65467936
0003b0 5f 76 7c 3f e1 de 17 3f 33 3f 65 bf 68 c1 70 3f
       0.9861812 0.5932446 -0.8954956 0.94045115
0003c0 01 f4 f1 be 9c be f7 3d ee 58 55 3f d5 75 5e 3e
       -0.47256473 0.12096903 0.8333882 0.21724637
0003d0 f9 fb 80 bf a2 ab c8 3c 29 dc 1a bf f5 bd d8 3e
       -1.0076896 0.024495903 -0.6049219 0.42332426
0003e0 1e 27 b9 3f dc e0 7e 3e 9c 10 43 be 74 4d c0 bf
       1.4465063 0.24890465 -0.19049305 -1.5023637
0003f0 7d e5 dd be f5 e0 63 bf 8e c1 63 3f c5 cb 56 be
       -0.43339148 -0.8901513 0.88967216 -0.2097617

bias f4 [16]
000000 22 96 95 3f 25 fc 46 bf 7f 8e 3a 3f 19 66 bc bf
       1.1686442 -0.7772849 0.7287368 -1.4718658
000010 70 2e 3a 3f b4 d1 a9 3f cf 4d 85 bf 26 cf e8 3d
       0.7272711 1.3267121 -1.041437 0.113676354
000020 f9 1f 52 3f 60 fb 41 3f 28 dc a6 be c7 4f a3 3f
       0.82080036 0.7577419 -0.3258984 1.2758721
000030 9c 30 98 3e 58 31 76 be e5 fb 27 bf 06 8c b1 3e
       0.29724586 -0.2404226 -0.65618736 0.34677142

weight f4 [16]
000000 b3 c6 45 3f 54 5d c6 3f d8 83 f5 3f 05 0c b8 3f
       0.77256316 1.5497231 1.918086 1.4378668
000010 c0 16 9a 3f e0 28 01 40 88 a0 5c 3f ef 7a 95 3f
       1.2038193 2.0181198 0.8618245 1.1678141
000020 2a 09 8f 3f bf aa 89 3f 26 cb fa 3f da 70 94 3f
       1.1174672 1.0755233 1.9593246 1.159694
000030 12 cf b1 3f 3e 5b 97 3f fd 11 9d 3f 2d e9 7e 3f
       1.3891318 1.182472 1.2271115 0.9957455

bias f4 [16]
000000 48 4b 9b be 94 49 9b bc b8 ac 4d 3f e2 4e fe 3e
       -0.30330873 -0.018955983 0.8034167 0.49669558
000010 e6 64 a2 3e 02 2a 26 3f 9d 13 9e 3f ce b9 8e bf
       0.31717604 0.6490785 1.2349735 -1.1150453
000020 06 bd 99 3d 02 ac 0d 3f 1a 72 12 3d 45 ea 53 bf
       0.075067565 0.5534059 0.035753347 -0.8277934
000030 0d 4a 1f 3f 15 bb 33 be 1d ac a3 bf a7 6e 9a bf
       0.6222237 -0.17551835 -1.27869 -1.2065018

running_mean f4 [16]
000000 18 ed 30 c1 25 05 96 c1 a6 03 7a c0 6f d6 93 c1
       -11.057884 -18.752512 -3.9064727 -18.479704
000010 76 ac 90 c1 e5 e5 f2 40 fb 0f 92 c1 18 f7 0a 41
       -18.08421 7.5905633 -18.257803 8.685326
000020 48 2f cb 3f ea f2 58 40 60 7c 5b c1 a8 0c f7 40
       1.5873804 3.3898263 -13.717865 7.720295
000030 16 5d e5 bf 4d 19 e6 40 a8 3c 6b 41 4e 52 38 41
       -1.7919033 7.1905885 14.702309 11.520094

running_var f4 [16]
000000 dc 42 e1 41 e6 70 3c 43 b0 0d 8b 42 48 46 26 42
       28.157646 188.44101 69.52673 41.568634
000010 80 93 c3 42 71 9f 8d 42 c8 e8 66 42 b0 f2 61 42
       97.788086 70.81141 57.727325 56.487
000020 01 d0 5e 42 94 19 17 43 c3 57 5e 42 fd 0b 74 42
       55.70313 151.09991 55.585705 61.011707
000030 3f 94 3d 43 17 3b 77 42 11 82 a9 42 83 75 10 42
       189.57909 61.807705 84.754036 36.114758

weight f4 [32, 16, 3]
000000 66 8f c9 bf 1e 70 dc 3e 1a 81 c1 bf 0a 32 b5 bf
       -1.5746887 0.4305429 -1.5117524 -1.4155896
000010 d2 ea a7 3e 3e ca 4d 3f 6a 64 50 3d fb fe 30 bf
       0.3279634 0.8038672 0.050877012 -0.6913907
000020 d2 a1 79 3f 92 45 52 3f 55 e5 83 3d 59 5f 19 3f
       0.97512543 0.82137406 0.06440226 0.59911114
000030 ea 23 a5 3e af 75 67 bd a3 6a 1f bf 16 37 5b 3e
       0.32253963 -0.056508716 -0.6227209 0.21407732
000040 14 72 9d 3e a4 29 f4 3d f1 50 cd bf 19 01 91 bf
       0.30751097 0.11922005 -1.6040326 -1.132846
000050 4c c8 f3 3f 36 90 cb 3e 24 6f d8 ba 64 ac 36 3e
       1.9045501 0.39758462 -0.0016512615 0.178392
000060 9a 3d 89 3f 14 be a3 be 25 26 26 bf 1c 5a f0 bd
       1.0721924 -0.31980956 -0.64901954 -0.11735937
000070 c5 db a5 bf 76 23 e7 bf 42 92 8e bf 85 de 5e c0
       -1.2957693 -1.8057697 -1.1138384 -3.4823315
000080 9b ba 36 bf ca 91 60 bf 6a 07 17 bf 4b 40 84 bd
       -0.7137849 -0.87722456 -0.5899569 -0.064575754
000090 7a 05 02 bd af 2e 64 be 12 5d 20 3e 6b cd 82 3f
       -0.031743504 -0.22283433 0.15660504 1.0218939
0000a0 4a d2 4c bd 0d e4 45 3f cd 87 c4 3d 58 ef a0 bf
       -0.050005235 0.773011 0.095962144 -1.2573042
0000b0 d5 19 1d bf ed 1f a9 3f df b1 06 3e 1a 3f 16 bf
       -0.6136754 1.3212868 0.1315379 -0.58690035
0000c0 f4 c6 00 3f a1 1c 34 bf e2 fe 09 3e 2d d9 e5 3d
       0.5030358 -0.70356184 0.13476136 0.112230636
0000d0 81 2a 4a bf e4 60 2b 3e 49 1f b6 bf 5b 8f 60 bf
       -0.78971106 0.1673618 -1.4228297 -0.87718743
0000e0 ad bc 60 be 6d ce 03 bf 8a 3c ff be 09 33 81 3f
       -0.21946974 -0.51486856 -0.49850875 1.00937
0000f0 71 e1 01 3f 39 c7 a4 bf c8 0c c3 bf 1b b9 00 bf
       0.5073462 -1.2873298 -1.5238276 -0.5028245
000100 65 f1 c9 3e 58 16 a5 bd 4f f9 15 bf 1f 93 4e bf
       0.39441982 -0.08060902 -0.5858354 -0.8069324
000110 fb ef a7 3f 96 98 89 3f 98 52 af 3f 48 95 a4 bf
       1.3120111 1.074969 1.3697081 -1.2858057
000120 8f 0b 45 bf d5 7c 57 3f 4e 4b 50 bf 31 83 ee 3e
       -0.7697076 0.84174854 -0.81364906 0.46584466
000130 db f1 c9 be 8c 6e 7c be c5 6a 02 40 8f 42 4f bf
       -0.39442334 -0.24651545 2.0377667 -0.80960935
000140 59 1c b0 bf a9 36 15 3f 7e e5 eb bd 44 83 dd bf
       -1.3758651 0.5828653 -0.115183815 -1.7305684
000150 b9 ef 89 bf c3 aa 59 bf 9d 60 86 3d 61 2c aa bf
       -1.0776283 -0.85026187 0.06561396 -1.3294793
000160 4f 47 98 3f 16 e2 98 be dc 2e 79 3f 1f e5 fd 3e
       1.1896762 -0.2985999 0.97337127 0.49588868
000170 3d 72 2b 3f 69 d0 48 be 44 9a ec 3e 27 7b 4b bf
       0.6697119 -0.19610752 0.46211445 -0.7948479
000180 9c 50 05 be 60 f3 bc be f1 11 8d 3e ec 39 97 3e
       -0.13019031 -0.3690443 0.2755275 0.29536378
000190 31 64 03 3f 4c 1b 4b 3e 25 5f 87 bf 84 6d e5 be
       0.51324755 0.19834632 -1.0575911 -0.44810116
0001a0 b8 b1 32 3f e3 af 91 bf 25 79 29 3e 38 b9 5f 3e
       0.6980243 -1.1381801 0.16550119 0.21847999
0001b0 06 bf 04 be f2 87 02 3f 4d ff 0a bc 17 ed 92 bf
       -0.12963495 0.50988686 -0.00848372 -1.1478604
0001c0 3c 70 e3 3d e8 58 da be b1 82 77 bf 34 0f 0d 3e
       0.111053914 -0.42645955 -0.96683794 0.13775331
0001d0 9d 3d e0 3a 76 7b b2 3f b1 0a 1b 3f 37 75 a7 bf
       0.0017108206 1.3943927 0.6056319 -1.3082646
0001e0 2b 21 90 bf 88 ae 15 3d d1 2f 11 bf 3b 22 32 3e
       -1.1260122 0.0365434 -0.5671359 0.1739587
0001f0 d0 9f a1 3f 29 41 11 3f 55 e5 05 40 99 b4 31 bf
       1.2626896 0.5674005 2.0921223 -0.69416195
000200 37 fe 8a bf 49 17 2a be ed c0 6b 3f f1 97 d3 bf
       -1.085883 -0.16610445 0.92091256 -1.6530744
000210 dd b6 22 bf c2 b3 a8 be 94 39 7c be e8 5e 7f 3e
       -0.6356028 -0.32949644 -0.2463134 0.24938548
000220 48 f9 a8 3e 25 e1 38 bf 19 0f a6 3f dc aa 3d 3f
       0.33002687 -0.72218543 1.2973357 0.74088836
000230 6a 46 bd 3e 92 5e eb be 2c ed 48 bb 77 e5 f8 bf
       0.36967784 -0.4597059 -0.0030658944 -1.9445027
000240 33 50 cd 3e 09 98 d5 bd e4 1a ae 3d 92 07 a7 be
       0.4010025 -0.10429389 0.08501223 -0.32622963
000250 4d 2a 4b bf 7e 50 be bf 13 87 64 bf 8d 6c 78 be
       -0.7936142 -1.4868314 -0.89268607 -0.24260159
000260 6f dc 0e bf 48 c7 7e bf 7b d4 9b bf 33 b7 88 bf
       -0.55805105 -0.9952283 -1.2174219 -1.0680908
000270 8a ad 79 bf 2a 0e 8f bf 68 a9 6f 3e a5 87 9d be
       -0.97530425 -1.1176198 0.23404467 -0.3076755
000280 a6 c4 80 bf ac 62 41 bf 39 91 1d 3e 45 c4 73 be
       -1.0060012 -0.75541186 0.1538743 -0.2380534
000290 20 dc 0f bf 81 ee 26 3f f7 4c 19 3f 22 8d a5 3e
       -0.5619526 0.6520768 0.59883064 0.32334238
0002a0 46 cc 57 3f ce d7 10 3f 54 59 00 3d 78 d0 23 c0
       0.8429607 0.5657929 0.03133519 -2.559599
0002b0 69 ef ce bf 49 e9 60 bf f0 ca 04 bf 53 b5 66 bf
       -1.6166812 -0.87855965 -0.5187216 -0.9012043
0002c0 ad 24 94 be e2 04 94 3d ba fc e0 be ab af 39 bf
       -0.2893423 0.07227494 -0.43942815 -0.72533673
0002d0 be d5 be 3f 4f 26 10 3f 5e 69 2f bf 71 d5 c3 3d
       1.4908979 0.56308454 -0.6852015 0.09562195
0002e0 cc 54 3e 3e 68 47 2a bf 4a c1 21 bf 6f 42 ba bf
       0.18587035 -0.6651521 -0.6318556 -1.4551524
0002f0 b0 aa 56 bf d2 49 fd be b1 f7 80 bd b8 f3 0c 3f
       -0.838542 -0.49470383 -0.062972434 0.55059385
000300 6f 58 05 bf 0e ec c7 be a8 e9 b4 be f2 16 b5 bf
       -0.52088064 -0.39047283 -0.35334516 -1.4147627
000310 c9 e5 16 bf 94 b3 57 be a6 20 35 bf fa 1e 17 bf
       -0.58944374 -0.21064597 -0.7075294 -0.5903164
000320 93 4f 14 3f 99 4d 6c 3f f3 ee 3e 3e 09 a3 19 3f
       0.5793392 0.92305905 0.1864584 0.60014397
000330 fb 86 c6 3f 77 18 de be 16 d0 cf bf 47 96 20 3f
       1.5509943 -0.4337804 -1.6235378 0.62729305
000340 c9 9b 02 40 37 ce d4 3e f7 23 85 bf 5b 11 71 bf
       2.0407584 0.4156358 -1.0401601 -0.9416711
000350 39 87 93 3f b1 d9 3e bf c8 af 74 3e 22 cf 3b bf
       1.1525642 -0.7455092 0.2389518 -0.73362935
000360 e3 37 68 3e dd a2 59 bd 7d 0c 9d be 53 db 82 3f
       0.22677569 -0.053133834 -0.3067359 1.0223182
000370 53 00 16 bd 5e 98 8e bf a4 7e f2 be 91 03 c2 be
       -0.036621403 -1.1140249 -0.47362244 -0.37893346
000380 d5 68 cf 3f 9c 78 5b 3e bf e1 0c 3e 8c b3 40 3e
       1.6203867 0.21432728 0.1375799 0.18818492
000390 14 3d 71 bf 26 ca 90 3e 07 b7 85 be 41 19 d6 3d
       -0.9423382 0.28279227 -0.261162 0.104540356
0003a0 a8 a9 84 3f d5 aa fc 3d 0c 0a 10 bf ea 84 6e bf
       1.0364275 0.12337271 -0.5626533 -0.9317156
0003b0 53 52 fb bf ef 8e 27 3f a2 e7 95 bf c5 7c df 3c
       -1.9634498 0.65452474 -1.1711314 0.027281174
0003c0 ee 6d 5d bf 73 5e 9b 3e 21 e1 bb 3d e4 da 2b 3f
       -0.86495864 0.30345497 0.09173799 0.67130876
0003d0 21 89 05 3f d4 92 e3 3e bb 56 77 bf 6f bf e9 3e
       0.5216237 0.44447958 -0.96616715 0.45653865
0003e0 ba b9 bf 3e 84 f3 5c 3e f8 e9 30 3f 1c c7 16 3e
       0.37446386 0.21577269 0.6910701 0.14724392
0003f0 3d d8 7d bf 30 85 8d 3e 4b 35 d4 3e 3c 11 2f 3f
       -0.9915808 0.27640676 0.4144691 0.6838567

bias f4 [32]
000000 22 dc 62 bd cc cf 05 3e a6 de 90 bf 15 dd e2 bd
       -0.055385716 0.1306755 -1.1317947 -0.11077324
000010 0d 88 2e 3e 22 33 57 bf d8 ed eb 3e 5a 9a 04 3f
       0.17044087 -0.840624 0.46079898 0.5179802
000020 e2 df 98 bf 66 47 c9 3e e9 a6 08 be e6 3d 00 bf
       -1.1943324 0.39312285 -0.13344921 -0.5009445
000030 73 42 de be 36 8c 33 bf 37 8c 6b 3e f5 e2 e9 bd
       -0.43410072 -0.7013582 0.23002706 -0.11420242
000040 a4 36 b9 bf c5 b4 8a 3f 8b d3 3d 3e 59 47 f6 be
       -1.44698 1.0836416 0.18537728 -0.4810131
000050 8f e5 84 bf 59 b5 4f 3f e8 cf 95 3f ef d3 64 3e
       -1.0382556 0.8113609 1.1704073 0.22346471
000060 b4 fa 39 3f 78 db 1a 3e 7c 9d e8 3c 36 11 76 bd
       0.7264817 0.15122783 0.028395407 -0.060075007
000070 ad ff 98 bf 4a 78 c5 bf d0 9b 61 be f6 a4 2c bf
       -1.1953026 -1.5427334 -0.22032094 -0.6743921

weight f4 [32]
000000 af f2 47 3f a8 47 b3 3f 99 a5 90 3f 7e 90 2e 3f
       0.7810468 1.4006243 1.1300536 0.6818923
000010 08 0b c8 3f cc ce 76 3f a3 21 18 3f f9 6a 47 3f
       1.5628366 0.96409297 0.59426326 0.778976
000020 a7 6e 96 3f 75 e9 b7 3f 75 41 3a 3f 16 f2 c0 3f
       1.1752518 1.436812 0.7275613 1.5073879
000030 2c 8c b2 3f 20 14 ea 3e b1 3d c0 3f cc d7 81 3f
       1.3949027 0.4571848 1.5018827 1.0143981
000040 6d 0f e1 3f 0f c6 af 3f 72 c2 c5 3f b3 4c 9a 3f
       1.7582833 1.3732318 1.5449965 1.2054657
000050 1b 39 aa 3f 91 42 d3 3f 5f fd c9 3f 13 eb 02 40
       1.3298677 1.650469 1.5780448 2.0455978
000060 0c 4c 4f 3f a6 71 e0 3f de f3 d2 3f 8f b6 73 3f
       0.80975413 1.7534683 1.6480672 0.9520044
000070 fb dc 12 40 ac 62 4c 3f c9 5a a1 3f f9 33 e9 3f
       2.2947376 0.7983806 1.260583 1.8218986

bias f4 [32]
000000 42 bd 33 3e b7 42 b3 3e ae 94 77 be d3 b5 ed 3d
       0.17552665 0.35011837 -0.2417781 0.11606946
000010 97 1b 90 be b1 46 e6 bf a6 9c 1d bf c2 c0 57 bf
       -0.2814605 -1.7990323 -0.6156715 -0.842785
000020 30 63 d1 3e d5 55 6c bd 87 ec 12 bf b1 84 29 be
       0.40895987 -0.057699043 -0.5739216 -0.16554524
000030 d8 05 a6 3e 38 19 bd be ee a5 07 be 36 8b d2 3f
       0.32426333 -0.36933303 -0.13246891 1.6448734
000040 31 05 81 be cf fa a5 be 7f a3 e3 3e 0d ba d3 bd
       -0.25199273 -0.32417914 0.44460675 -0.10338221
000050 31 52 9a bd 00 d6 00 3f 01 5d 99 3f 75 8b 18 bf
       -0.07535208 0.5032654 1.1981508 -0.59587795
000060 3a de 44 be b0 b4 04 bf 38 3b 9d 3e ac 73 a1 bf
       -0.19225398 -0.5183821 0.30709243 -1.2613425
000070 32 20 91 bf 32 6b eb bf 4d f1 93 3e 9c 19 49 bf
       -1.133795 -1.8392088 0.28895035 -0.785547

running_mean f4 [32]
000000 b6 f4 a7 c0 20 db db c0 6c 96 99 c0 09 72 5a c1
       -5.248622 -6.8704987 -4.799612 -13.652841
000010 67 29 59 3f 1c 85 08 41 da 98 8e 40 39 ac bc c0
       0.848288 8.532497 4.4561586 -5.8960233
000020 38 de 04 c1 8d 3e b0 40 fd 6b f7 3d b4 cc d5 c0
       -8.304253 5.5076356 0.12081144 -6.681238
000030 97 02 9d 40 6a 47 7d 3f af 06 a4 40 3f 44 b1 c0
       4.906566 0.98937094 5.125816 -5.539581
000040 69 7b 06 c1 49 27 dd 3f 9d 8e 5e bf 1a 87 98 40
       -8.405129 1.7277614 -0.8693636 4.766492
000050 c1 f0 b6 c0 27 9f b9 c0 44 73 33 c1 e5 d1 ea bf
       -5.716889 -5.800678 -11.215641 -1.8345305
000060 ee 24 a6 c0 17 05 86 bf 48 53 25 c1 82 25 2c 41
       -5.192008 -1.0470303 -10.332832 10.759157
000070 64 46 b9 40 bc 92 92 40 9c cb a1 c0 15 f5 c1 3e
       5.7898426 4.580412 -5.0561047 0.37882295

running_var f4 [32]
000000 19 91 bd 42 3a 2f 39 42 d8 e1 54 42 78 80 93 42
       94.783394 46.29612 53.22055 73.750916
000010 6c dc 46 42 d5 f5 d8 41 d2 61 2e 42 1c f9 c3 41
       49.715256 27.120035 43.595528 24.496635
000020 09 57 99 42 e2 44 b2 42 c8 34 8f 42 d6 05 eb 42
       76.66999 89.13454 71.60309 117.5114
000030 69 9f bb 42 6d 56 7e 42 14 25 92 42 9c eb 10 43
       93.81135 63.5844 73.07242 144.92035
000040 a8 ec 02 42 cb 89 b1 42 e3 d3 ab 42 5b 82 27 42
       32.73111 88.76913 85.91384 41.8773
000050 90 9c b8 42 ca 1e 6f 42 52 ed a5 42 98 d7 3a 42
       92.305786 59.780067 82.96352 46.71054
000060 6e 2e 6b 42 b3 b9 a3 42 c5 cf ba 42 32 5f 5b 42
       58.79534 81.86269 93.4058 54.842964
000070 d1 c0 84 42 39 6a e0 41 85 5a e5 42 c5 2f 77 42
       66.376595 28.051867 114.676796 61.79665

weight f4 [32, 32, 3]
000000 38 d7 d1 3f ac 6b 2c 3f 65 ab 64 3f d0 37 bf bf
       1.6393805 0.67351794 0.8932403 -1.4938908
000010 4f 81 f3 3e 46 85 18 bf c8 59 29 bf 64 87 22 3f
       0.47559592 -0.5957836 -0.6615262 0.6348784
000020 d4 b9 b4 be b7 7e b7 3f 86 67 cc 3e 27 1c dc 3e
       -0.35298026 1.4335545 0.39922732 0.4299023
000030 1d 86 80 3f 99 50 48 3f 13 01 29 3e ba bb 40 be
       1.0040928 0.7824798 0.16504316 -0.18821612
000040 de c8 52 3f 68 c7 36 3f e9 d9 06 bf 71 72 01 3f
       0.8233775 0.7139802 -0.52676255 0.5056525
000050 7e e1 85 3e e0 e1 c2 3f 42 8e 3e 3f 42 66 c7 3e
       0.261486 1.5225182 0.7443582 0.38945204
000060 65 19 ea bf ec c4 68 bf b6 d2 b5 bf 22 5c 85 be
       -1.8289 -0.9092548 -1.4204929 -0.26046854
000070 58 3e 73 3e b6 42 63 bd e5 f8 12 3f c6 e0 48 be
       0.23754251 -0.055483542 0.5741103 -0.19616994
000080 84 d4 13 bd 37 8f 0a c0 35 40 09 be a5 71 66 be
       -0.036091343 -2.1649911 -0.134034 -0.2250429
000090 ca 91 01 3f 0f 89 ae be a6 5a 38 bf be a2 92 3f
       0.5061308 -0.34088942 -0.7201332 1.1455915
0000a0 c3 9e 1b 3f 29 17 1b 3e 1c d5 7e 3f ab 0c 37 3f
       0.60789126 0.15145554 0.9954393 0.71503705
0000b0 03 2b 49 3d ec c7 17 c0 47 78 74 bf 40 f0 e0 bf
       0.049113285 -2.3715773 -0.9549603 -1.7573318
0000c0 ec 4d c3 3f 7a 82 7b bd e1 0f 11 bf 98 64 89 be
       1.5258155 -0.06140373 -0.56664854 -0.2683456
0000d0 04 ba 63 3f a2 87 b1 be 9a c4 26 c0 e1 57 5a be
       0.8895571 -0.34673792 -2.6057496 -0.21322586
0000e0 10 ef 51 bf bd 02 8e bf e5 55 07 c0 ce 6b fc bf
       -0.82005405 -1.1094586 -2.1146176 -1.9720399
0000f0 6d e4 0c bf f9 6f ec 3c 2d ea f9 bd c5 8c 8a bf
       -0.5503605 0.028861986 -0.122028686 -1.082421
000100 44 d3 52 3e f0 ac 0c bf bc 26 58 be 0c be 71 bf
       0.20588404 -0.5495138 -0.21108526 -0.94430614
000110 9f 66 dd bf 36 a2 c5 be f8 d4 9d 3f 1d 6e 41 bf
       -1.7296942 -0.3860032 1.2330618 -0.75558645
000120 5a b2 ae 3b 3d f8 8d 3d c8 14 f4 be f9 53 02 c0
       0.0053313198 0.06932113 -0.47672105 -2.0363753
000130 e7 8e 91 3e 17 27 e3 bd 22 c2 96 be 97 78 21 3f
       0.28429338 -0.1109144 -0.29444987 0.6307463
000140 30 1c 14 be fb 62 46 be 10 ef d7 be 19 6a 35 3e
       -0.14463878 -0.19373696 -0.42174578 0.17716254
000150 df 6e 0d bf 42 61 12 bf b2 19 d5 bf 6f 6d a8 be
       -0.552473 -0.57179654 -1.6648467 -0.3289599
000160 ad 57 16 be 44 aa 0d 3e 0f b4 0e bf c2 10 36 3f
       -0.14681883 0.13834482 -0.557435 0.7111932
000170 c1 b3 cb be be ac ae 3d b0 71 3b be c8 58 89 bf
       -0.3978558 0.08529042 -0.18305087 -1.0730219
000180 24 48 a0 3e 97 1a ac 3e da 18 2e 3f 19 4a d5 3e
       0.3130504 0.33614036 0.6800667 0.41658095
000190 4c e7 82 bf 39 58 b9 bf f7 4c 8f bd 42 90 06 c0
       -1.0226836 -1.4480048 -0.06997102 -2.1025548
0001a0 7e 03 d7 bf 2f 16 8c bf 53 a2 aa 3e 25 44 18 bf
       -1.6797941 -1.094427 0.3332697 -0.5947898
0001b0 83 b4 56 3f c4 b5 bc be 02 4b 47 be 3b 2b 44 bf
       0.8386919 -0.36857426 -0.19462207 -0.76628464
0001c0 43 34 90 bf ba 79 54 3f b4 aa a0 be 57 4a 6c bf
       -1.1265949 0.8299824 -0.31380236 -0.92300934
0001d0 1a 89 6d bf e0 40 18 be 8a 52 8f 3e a4 7d c8 be
       -0.92787325 -0.14868498 0.2799266 -0.39158356
0001e0 8b 2e d9 3e 5f 42 e0 be 5e 5f 59 bf a7 4b 34 3f
       0.42418322 -0.43800637 -0.84911144 0.70427936
0001f0 28 2d 94 3e c7 58 63 bf b7 0c 8a bf f7 16 1a 3e
       0.289407 -0.8880734 -1.078513 0.15047823
000200 8d d3 36 3f b1 0f 82 3e eb 21 46 be ea 35 87 bf
       0.7141655 0.25402597 -0.19348876 -1.0563328
000210 67 60 22 c0 4c 22 8e be 46 f9 9d 3f 39 52 ec 3d
       -2.537134 -0.2776054 1.2341697 0.1153912
000220 18 f0 e3 3d 39 d5 8a 3d cd 8a e2 bf 46 98 11 be
       0.111297786 0.0677895 -1.7698609 -0.14218244
000230 91 c7 2b 3f 39 b7 77 bf 1d d8 6e bf a0 da e0 be
       0.6710139 -0.9676395 -0.9329851 -0.43916798
000240 3d 00 92 bd 7f 23 b2 3c 42 ae 42 3f 6b 2f 86 be
       -0.07128952 0.021745441 0.76047146 -0.26208052
000250 20 79 f3 bf 0d 68 8b 3e 40 2d 56 3f 76 ff 6a be
       -1.902134 0.27227822 0.83662796 -0.22949013
000260 d7 29 1d bf 05 07 15 bf fb 6f 80 be 87 d1 57 bf
       -0.6139197 -0.58213836 -0.25085434 -0.8430409
000270 5e 5f d8 3f 51 16 05 3f 2c 19 33 bf 0f 45 82 3f
       1.6904104 0.5198718 -0.69960284 1.0177325
000280 29 be d4 3d d1 4e a2 bf c6 27 c8 3c 42 37 7a be
       0.10387833 -1.2680303 0.024433028 -0.24435142
000290 f2 54 ba bf a6 46 63 bf 21 ac 93 bf d8 76 95 bf
       -1.4557173 -0.88779676 -1.1536905 -1.1676893
0002a0 de 5d 9e 3f 3e b7 0f 3f ae 40 a7 be 29 75 47 3f
       1.2372396 0.5613898 -0.32666534 0.7791315
0002b0 ce 7b b9 be 98 ce 4a 3d d8 ed 8d 3f 87 1c e7 be
       -0.36227268 0.04951343 1.1088209 -0.45138952
0002c0 0e 35 9a bf 81 cc 1a bf 4a 74 ca 3e 69 41 a7 3e
       -1.2047441 -0.604683 0.39541847 0.3266709
0002d0 fc 51 3d c0 79 b5 ea bf 41 de 86 be 14 9d 0e bf
       -2.958129 -1.8336631 -0.2634144 -0.5570843
0002e0 90 32 7f 3e a4 a8 f9 be 8f 41 23 bf 38 cc 86 bf
       0.24921632 -0.48761475 -0.6377191 -1.0531073
0002f0 a7 b7 f4 bf 4a 8f 6b bf cd 35 b6 bf dd 28 0f 3f
       -1.9118546 -0.92015517 -1.4235169 0.5592173
000300 0d 88 ac bd bf 52 bd 3e 18 84 55 3e 86 0b d1 be
       -0.08424387 0.36977193 0.20851171 -0.40829104
000310 f0 46 1e bf ad b3 55 bf 56 6a 49 bf 09 c1 eb be
       -0.6182699 -0.8347729 -0.7867788 -0.46045712
000320 46 87 1d bf 10 02 1b 3f 8d 86 33 3f 8a 8f 01 3f
       -0.61534536 0.6055002 0.70127183 0.5060965
000330 49 58 24 3e 33 0b c8 bd 90 cf 33 3f 02 4f 9e 3e
       0.16049303 -0.09767761 0.7023859 0.30919653
000340 cb 1e 8b 3b ac 6b 99 bf 17 bc b0 3e 1a eb 09 3f
       0.004245614 -1.1985984 0.345185 0.5387436
000350 05 20 c0 be 77 98 0b 3e 49 eb 8d 3c ea dd 2f be
       -0.3752443 0.1363238 0.017324107 -0.17174497
000360 ea a7 bc bf 71 78 d2 3e bc 2d 6a 3d 2a 67 ab be
       -1.4738743 0.41107515 0.057172522 -0.33477145
000370 0f d4 32 3f 73 7a b3 3f d4 5a 4d 3f c2 34 35 bf
       0.69854826 1.4021744 0.8021672 -0.7078363
000380 c5 e8 0e 3f fa b7 16 3f 66 fb 31 3f f9 bb ae 3e
       0.5582393 0.58874476 0.6952423 0.34127787
000390 f4 08 bb 3f 47 d2 1d bf ee ba 4b 3f 87 17 86 3e
       1.4612107 -0.6164898 0.7958211 0.26189825
0003a0 0a 2b 1e be 6a 4e c0 3f 80 a7 73 3f 10 b5 83 be
       -0.15446106 1.502393 0.9517746 -0.25724077
0003b0 d5 4d a2 3f a3 37 47 3e a7 4c 0c 3f cb a3 34 3f
       1.2680002 0.19454817 0.5480446 0.7056243
0003c0 4f a6 52 3f 4d f8 c6 be 64 52 29 3f 50 08 f5 3e
       0.82285017 -0.38861313 0.66141343 0.47857904
0003d0 7c 37 6b bd 46 1b b5 be d3 f5 ad 3e e7 29 2a 3f
       -0.05742596 -0.3537237 0.33976611 0.6647019
0003e0 d0 7c 24 3e 2d 63 94 bc 94 85 0b bf f1 f8 8e bf
       0.16063237 -0.018113697 -0.545007 -1.1169721
0003f0 dc 06 8d 3e 19 3f b0 be 63 8a 2d bf 6c a6 c1 3e
       0.27544296 -0.3442314 -0.67789286 0.37822282

bias f4 [32]
000000 55 ce 4a bf 77 89 f8 bd 55 e8 d9 be 49 9a 9e 3e
       -0.7922109 -0.12135594 -0.42560068 0.30977085
000010 c2 f6 f1 be c2 9a a4 be a5 af 79 bf 9e d1 ba bc
       -0.47258574 -0.3214932 -0.9753364 -0.022805031
000020 07 0e f0 be b2 48 2a 3f ba 90 85 3c b7 b9 56 bf
       -0.46885702 0.66517174 0.016304363 -0.8387713
000030 08 bd ca be 6f 58 2a 3f 80 7e 5d 3f 25 ac 24 3f
       -0.39597344 0.6654119 0.8652115 0.6432517
000040 d6 65 6c bd 5d 42 46 3e 4c 2b 87 3c 33 a9 6a 3f
       -0.057714306 0.19361253 0.016500138 0.9166443
000050 c3 db 67 bf e3 c1 bc be 61 25 85 bd 26 29 38 3e
       -0.90569705 -0.36866674 -0.0650127 0.17984447
000060 db fd 98 be d7 ad 18 3f b3 f1 08 3d 4f 97 04 3f
       -0.29881176 0.5964026 0.033433627 0.5179338
000070 36 f5 b9 3d 29 69 1c bf 35 28 05 bf 32 f2 37 bf
       0.090799734 -0.6109796 -0.52014476 -0.71853936

weight f4 [32]
000000 c1 2b b4 3f cd f5 69 3f a5 ed 8b 3f 04 23 82 3f
       1.4075853 0.9139069 1.0931898 1.0166936
000010 b8 dd da 3f 4b 27 bd 3f 23 20 73 3f 2e f6 ee 3f
       1.7098913 1.4777616 0.9497091 1.8668878
000020 8f b1 a4 3f 20 6e e3 3f 53 c6 6d 3f f4 09 b4 3f
       1.2866687 1.7767982 0.92880744 1.4065537
000030 99 0a b2 3f 39 13 99 3f ae a9 84 3f e4 cf 96 3f
       1.3909484 1.1958991 1.0364282 1.1782193
000040 12 f7 a5 3f 2d f4 b7 3f 6d c1 80 3f 3d 9d 7a 3f
       1.2966025 1.4371392 1.0059029 0.97896177
000050 3a 25 59 3f 63 e2 ba 3f 20 aa ed 3f b4 f2 0f 3f
       0.8482243 1.4600338 1.8567543 0.5622971
000060 12 b1 7c 3f bd e2 e2 3f 2a 15 f7 3f 33 ac d6 3f
       0.9870769 1.7725445 1.9303334 1.6771301
000070 86 4b 2d 3f 0e cc 8e 3f 6a 1b de 3f 04 d5 f7 3f
       0.67693365 1.1156023 1.7352116 1.9361882

bias f4 [32]
000000 26 5f 76 3f dd 9b b0 bd b6 1d d4 bf b8 c4 32 3f
       0.96238935 -0.086234786 -1.6571567 0.6983142
000010 66 66 47 3f 01 33 0a bf c9 09 a0 bf 4f be 75 3f
       0.7789062 -0.53984076 -1.2502986 0.9599351
000020 c1 df 18 bf bf 65 15 be a0 0c ce 3f c5 3f 23 bf
       -0.5971642 -0.14589594 1.6097603 -0.6376918
000030 bf 14 c0 3e e7 82 d1 be c2 dc 7c 3f c3 82 8f bf
       0.37515828 -0.40920183 0.9877435 -1.121178
000040 cc 6b 32 bf cb 11 38 bf 45 bc a0 bf 5a 71 05 bf
       -0.69695735 -0.7190215 -1.2557455 -0.52126086
000050 b7 dd c5 be 02 a9 58 bf e0 e5 86 bd 8c aa f1 bf
       -0.38645718 -0.84632885 -0.06586814 -1.8880172
000060 e9 dc 98 bf 96 65 7c be 26 2d 6f 3f 7d 55 92 bd
       -1.1942416 -0.24648127 0.93428266 -0.07145212
000070 9d 2b 29 bd 8b 20 90 bf ea ee fb be 94 5d 5a be
       -0.04130136 -1.1259931 -0.49205714 -0.2132476

running_mean f4 [32]
000000 7b ae e1 c1 b0 a4 b8 c1 10 07 87 41 06 f3 55 c1
       -28.210196 -23.080414 16.878448 -13.371832
000010 4e 47 87 bf a8 13 52 c1 ac 8f 95 41 04 44 56 c1
       -1.0568635 -13.129799 18.695152 -13.391605
000020 bf e2 e9 c1 6c 59 7a 3f 7e 05 40 c1 3d 39 36 3f
       -29.235716 0.97792697 -12.001341 0.7118109
000030 20 37 9c c1 53 aa 85 c1 4d e5 fa c0 d2 fc bf 41
       -19.526917 -16.708166 -7.840491 23.998447
000040 4a b9 11 3d ed b7 bd c1 64 f3 1e 41 a8 30 df 3f
       0.035577096 -23.714808 9.934422 1.7436724
000050 97 ec 3b c0 36 c7 72 c0 78 19 fc 40 59 89 98 c0
       -2.9363153 -3.7934089 7.878109 -4.766766
000060 73 a6 4f 40 02 ac 8d 40 40 25 89 c1 ca 0f 0f c1
       3.2445343 4.427247 -17.143188 -8.941355
000070 12 35 6e 41 15 6c 7c 40 36 54 e9 c1 b0 94 cc 40
       14.887957 3.9440968 -29.166119 6.3931503

running_var f4 [32]
000000 96 8f 2d 43 eb 4a 17 44 8e e9 08 43 22 fb e6 42
       173.56088 605.1706 136.91232 115.49049
000010 c6 2e cb 43 5a 30 21 43 ad eb 01 43 e5 69 42 43
       406.36542 161.18887 129.92061 194.41365
000020 14 77 90 43 ee fd 28 43 36 74 a0 43 63 65 29 43
       288.9303 168.99191 320.9079 169.39604
000030 7a 8d f8 43 ba 84 ee 43 e4 8d a9 43 8d 1f 18 43
       497.1053 477.03693 339.10852 152.12325
000040 60 99 1e 43 c8 86 9b 43 51 ae ed 42 da 14 5c 43
       158.59912 311.05298 118.84046 220.08145
000050 41 7d 48 43 7a 3f 63 43 28 35 1d 43 92 4c 8b 42
       200.48927 227.24796 157.20764 69.64955
000060 d1 e2 19 43 6f ec 1c 43 d7 0c 02 44 45 e6 59 43
       153.886 156.92357 520.2006 217.89949
000070 3d fe 71 43 0d 81 22 43 0f 8c a4 43 ed 98 40 43
       241.99312 162.5041 329.0942 192.59737

weight f4 [64, 32, 3]
000000 6e 69 c2 bf d0 39 80 bf f4 81 8c bf b8 e9 fd 3f
       -1.5188425 -1.0017643 -1.0977159 1.983695
000010 fd c4 04 3d c3 42 3b 3f 95 f7 8b 3f 66 c5 86 3f
       0.032414425 0.73148745 1.0934931 1.0528991
000020 f4 ab af bf 01 2a 84 bf f0 0c c9 bf df 46 6e bd
       -1.3724351 -1.0325319 -1.5707073 -0.058173057
000030 f4 33 b8 bf ff 1e ec bf 40 ed b3 bf 25 61 d2 3e
       -1.4390855 -1.8446959 -1.4056778 0.4108974
000040 f5 2d 1e bf 3c 07 d5 bf 73 ce 80 3e 6f e5 4d 3e
       -0.61788875 -1.6642833 0.25157508 0.20107053
000050 5e 3a b1 bd e8 6a 62 c0 00 fb 0a bf 5a 22 bd bf
       -0.08653711 -3.537775 -0.54289246 -1.4776108
000060 60 45 a9 bf 3a bc 36 bf 25 2c 59 3f 4a b6 41 3f
       -1.3224297 -0.7138096 0.84832984 0.75668776
000070 e1 9f b7 bf 3e 27 7d be 40 e4 49 3e aa 1a 23 3f
       -1.4345666 -0.24722001 0.19715977 0.6371256
000080 a8 a3 9d 3f c9 0f bd 3f 80 86 20 be eb f9 24 3d
       1.2315569 1.4770442 -0.15676308 0.040277403
000090 03 2e d9 3e fb 49 12 bf 77 58 1f 3f 4f ef 94 be
       0.42417917 -0.57144135 0.6224436 -0.29088828
0000a0 da 90 27 3d f2 0b 6e 3f dc 5d 38 bf b8 36 42 3e
       0.040909626 0.9298698 -0.7201822 0.18966186
0000b0 f6 23 0e 3e d8 ab 41 3f 1d 08 a3 3f d9 28 bf be
       0.13880906 0.7565284 1.2736851 -0.37335852
0000c0 78 ce 9d 3f c2 00 51 bf bd 82 90 3c e0 f9 a8 3e
       1.2328634 -0.8164178 0.017640466 0.3300314
0000d0 a9 39 62 bf 90 0a 88 3f a1 33 7e 3e 9b 72 1d be
       -0.8836923 1.0628223 0.24824382 -0.1537575
0000e0 f6 af 75 3f 15 00 07 3f 15 e3 65 3d 3f 3e 7a bf
       0.9597162 0.527345 0.056124765 -0.9775123
0000f0 b3 52 ff be 36 a5 2d bf 79 c9 18 3e 9a 10 91 be
       -0.49867782 -0.67830217 0.14920606 -0.28332978
000100 89 a8 e2 be 36 0e c7 be 07 88 ac be 5f 73 ae bd
       -0.44269207 -0.3887803 -0.3369753 -0.08518099
000110 9b da 8d bf 5c 44 88 3f a5 d8 79 bf 0f 35 7f bf
       -1.1082338 1.0645862 -0.975962 -0.99690336
000120 96 37 32 3f 4a a1 19 bf fd 16 9b bf 1a 6d d1 3f
       0.6961607 -0.6001173 -1.211639 1.636142
000130 30 26 17 3f a7 23 08 3f 73 be c9 bf 14 b0 ac 3e
       0.59042645 0.531794 -1.5761245 0.33728087
000140 27 04 c8 3f 78 ec 14 be c1 b0 68 3d 98 5a 5d bf
       1.5626267 -0.1454333 0.05680919 -0.8646636
000150 74 a7 a2 3f 51 2a 2b bf 28 e2 9f bf 5f a9 19 be
       1.2707353 -0.66861445 -1.2490892 -0.15006016
000160 92 08 8c 3e 2d 10 ac 3e 84 98 1c c0 83 d4 8e 3e
       0.2735029 0.3360609 -2.4468088 0.2789651
000170 85 77 b3 3f f7 18 5b bf 72 d9 0d 3d 25 b8 4e bf
       1.402085 -0.8558497 0.0346312 -0.8074973
000180 02 12 96 bf 9c 54 a3 3e 24 26 91 bf 0f a7 90 3f
       -1.1724246 0.3190049 -1.1339765 1.1300982
000190 67 df 19 bf 76 07 d4 be 52 d4 ed be 53 a8 91 be
       -0.6010651 -0.41411942 -0.4645105 -0.28448734
0001a0 16 70 26 bf 36 34 0a bf b9 05 99 3c 4b d3 40 3e
       -0.6501478 -0.5398592 0.018679487 0.18830602
0001b0 4e ad 39 bf 3a 06 ca be 56 04 17 3b 88 45 12 3e
       -0.72530067 -0.39457875 0.0023043356 0.14284337
0001c0 1c c5 8c bd 38 e9 07 40 98 7e cd be 30 69 f8 be
       -0.06873533 2.1236095 -0.40135646 -0.48517752
0001d0 d2 22 d7 be 33 68 46 3f 26 51 e8 3e 04 c2 bf bf
       -0.42018753 0.77502745 0.4537441 -1.4981084
0001e0 b2 e1 c5 bd 75 61 da 3e e8 c6 be be f3 47 a1 bf
       -0.096621886 0.4265248 -0.37261128 -1.2600082
0001f0 43 5c 54 3f 94 24 93 bf ab 62 8c bd 7a cc 95 3e
       0.8295328 -1.1495538 -0.06854757 0.29257566
000200 97 3a bf 3f e1 f1 08 40 31 dc 81 bf 25 54 02 c0
       1.4939755 2.139763 -1.0145322 -2.0363858
000210 64 b4 8f 3f 8e 7c e5 be 16 98 10 bf 2a 46 67 bf
       1.1226926 -0.4482159 -0.56482065 -0.90341437
000220 c3 80 2c bf 4e 6c 0a bf 60 d3 3b bd cd 06 14 bf
       -0.67383975 -0.5407151 -0.04585588 -0.5782288
000230 9f dc 07 bf ec ce 00 bf 07 d5 b0 3e 6a ab 65 be
       -0.53071016 -0.5031574 0.34537527 -0.2242867
000240 bd 6b 0b 40 60 13 e2 bf ed d0 e5 bf 1b 09 da bd
       2.1784508 -1.7662163 -1.7954384 -0.10646268
000250 26 19 49 3f 75 ab 40 3f a0 d7 cd 3e 10 56 2a be
       0.78554 0.7526162 0.4020357 -0.16634393
000260 74 78 89 3d b6 ab 1c 3f 08 37 24 bf 02 d8 fa be
       0.06712428 0.6119951 -0.6414647 -0.48992926
000270 56 22 43 be 65 30 06 3f 41 05 46 be 99 e8 88 3c
       -0.19056067 0.52417594 -0.19337942 0.016712474
000280 a5 58 43 3f 84 51 24 3e c1 93 85 bf 18 eb 37 bf
       0.76307136 0.1604672 -1.0435716 -0.718431
000290 7c 32 4d bf f6 a0 b8 3d 39 c4 a2 3d d2 75 ff be
       -0.8015516 0.09015076 0.07947583 -0.49894577
0002a0 23 03 30 3f af 2d 8a 3f b4 25 2c bf 2a 62 b8 3f
       0.68754786 1.0795192 -0.6724503 1.4404957
0002b0 96 ae 44 3f 85 76 9f be 42 aa 86 be cc 11 90 bc
       0.76828897 -0.3114511 -0.2630177 -0.017586611
0002c0 44 a9 9e 3f 2e 2b c2 be cc 68 ca be a1 8a 0e bf
       1.2395406 -0.37923568 -0.3953308 -0.5568028
0002d0 47 e5 1c 3d 94 e5 21 3d ab d6 e6 be 70 4b 03 3f
       0.038304593 0.039525583 -0.45085654 0.51286983
0002e0 12 b2 08 be 6e 49 26 3e 11 0c f5 3e 98 5a 5d bf
       -0.13349178 0.16238949 0.47860768 -0.8646636
0002f0 f5 82 c4 3f e6 7d d5 bc 92 00 df 3c f8 56 b2 be
       1.5352465 -0.02606101 0.027221952 -0.34831977
000300 3c 6e 10 40 b6 63 a8 3f 13 61 c2 3e 85 7c 24 bf
       2.2567282 1.3155429 0.37964687 -0.642525
000310 a8 a2 e4 be 47 1b a3 bf a0 45 fb be f0 b1 a0 3d
       -0.44655347 -1.2742699 -0.49076557 0.07846439
000320 5b 78 7e bf 2b 1d db 3d e1 94 6d bf b9 24 d5 3e
       -0.994024 0.10698923 -0.92805296 0.4162958
000330 90 7f eb bd 27 66 00 bf 0d c9 8b bf f0 d7 f0 be
       -0.1149894 -0.5015587 -1.0920731 -0.47039747
000340 31 e0 12 bf 75 c7 87 bd 9c 88 12 bf 16 54 69 be
       -0.5737334 -0.0662984 -0.572397 -0.22785982
000350 d3 4a 33 bf d2 82 50 3f ff c9 93 be 34 d0 0a 3f
       -0.7003605 0.81449616 -0.28865048 0.5422394
000360 c0 fd 6a 3f 14 4f dd 3f 3c b4 1b bf 96 0b 11 3e
       0.9179344 1.7289758 -0.6082189 0.14164576
000370 88 2a ab be 82 90 c4 be 50 24 02 c0 d1 5e 10 bf
       -0.33430886 -0.383915 -2.0334663 -0.5639468
000380 cf 2a 05 c0 6c 04 ac 3e 6f e8 b9 3e e5 bf 3d bf
       -2.0807378 0.33597124 0.36310145 -0.7412093
000390 09 b6 19 3f fb d4 3e 3f f3 50 29 bf a2 07 13 3f
       0.6004339 0.7454373 -0.66139144 0.5743352
0003a0 93 51 ab 3e 30 e0 03 bf 85 7a ea bf 8e 81 7d be
       0.33460674 -0.5151396 -1.831864 -0.24756452
0003b0 aa 79 63 bf 16 e4 b2 39 0a 73 8a be 6e d5 83 bf
       -0.8885752 0.00034120743 -0.27040893 -1.0299509
0003c0 11 ee b7 3e 45 37 da 3e 3e 73 f6 be 2c 70 8d 3f
       0.35923818 0.42620292 -0.48134798 1.1049857
0003d0 87 76 4b 3f d4 85 88 bf 83 95 df 3d a6 2a 73 be
       0.79477733 -1.0665841 0.10917189 -0.23746738
0003e0 79 aa 27 be 70 81 49 3d af 0c 3e be 5d 30 8d be
       -0.16373624 0.049195707 -0.18559526 -0.2757596
0003f0 6d 37 49 3f 3a ea f3 be 5f 7f b8 bd 29 37 9f 3f
       0.786002 -0.47639638 -0.09008669 1.2438709

bias f4 [64]
000000 28 4f a1 bb 0a 3f b9 3e eb 35 0b 3e b8 9b 9e 3f
       -0.0049227662 0.36180907 0.13594787 1.2391272
000010 be 80 72 3d b4 9a 46 3e 33 20 68 3f 92 c4 a6 3e
       0.05920481 0.19394952 0.9067413 0.32571846
000020 2d 8a 8f bc 34 93 41 3f b9 52 5b 3f db 54 c4 be
       -0.017521942 0.7561524 0.856731 -0.3834599
000030 9e 25 5f be 03 3b 4b 3e c4 98 07 be b8 a5 4c 3f
       -0.21791694 0.1984673 -0.13241869 0.79940367
000040 72 ab 05 3f 4e 00 17 be ef 2f 37 bd d6 f6 c1 3c
       0.5221473 -0.1474621 -0.044723447 0.02367727
000050 5a c3 30 bf 8c 55 4c 3e 6a a7 c2 be d9 ac 24 3f
       -0.6904808 0.19954509 -0.38018352 0.64326245
000060 54 4b 16 bf 8a 79 84 3f 1b 47 f2 3d dc 56 8d bd
       -0.5870869 1.0349591 0.118299685 -0.06901333
000070 e5 82 01 be ca 58 e2 3d 6e 2f e4 bd 3d 3a 9e be
       -0.12647589 0.110520914 -0.11141859 -0.30903807
000080 93 12 02 bf 81 7c 66 be 32 34 bd be 3a 95 b1 be
       -0.5080959 -0.22508432 -0.36953884 -0.34684163
000090 ed f1 03 3e 50 e8 24 3f 44 e9 a1 bf d7 37 1d bf
       0.12885256 0.6441698 -1.2649312 -0.6141333
0000a0 20 e8 00 3f 68 fd 5d 3f e0 8b a4 bf 49 83 d5 3e
       0.50354195 0.8671479 -1.2855186 0.41701725
0000b0 03 06 ae bd 9e 27 85 bd b5 f5 2c 3f 2a 0a 28 bf
       -0.084972404 -0.06501697 0.6756242 -0.6564051
0000c0 5a dd 80 bf 11 6d 38 be 2c 44 7c 3d 0e fc 6e 3d
       -1.0067551 -0.18010356 0.06158845 0.058345847
0000d0 40 05 0c bd 98 cc fd 3e 2a 42 c0 bd 58 6a dd 3d
       -0.034184694 0.49570155 -0.0938762 0.10811299
0000e0 d7 7a 10 3f 02 db 99 bd 88 63 38 3e 12 02 ee 3e
       0.5643744 -0.075124756 0.18006718 0.46485955
0000f0 4b 28 aa 3f f7 bb 1d bf 20 e2 30 3f 4d 31 2a bd
       1.3293546 -0.61614937 0.6909504 -0.041550923
