unet/checkpoints/one_loss/epoch_7.pth (torch, 508787 bytes, 85 tensors)

weight f4 [8, 1, 3]
000000 39 d9 a0 be 45 ab 5f bf da 78 3d 3f dc 50 c1 be
       -0.31415728 -0.8737071 0.7401253 -0.37757003
000010 93 ac dd bf a6 d4 1f be 58 a7 b2 bd 1b 93 86 bd
       -1.731829 -0.15608463 -0.087233245 -0.06571027
000020 f9 2f 08 c0 0f ee 49 3e b2 4b bc 3e ae fe a9 3f
       -2.127928 0.19719718 0.367765 1.3280847
000030 fe 7c 94 be 3b ff 27 bf ae 6e 5f bf 2d 9c 84 bf
       -0.2900161 -0.65623826 -0.8727826 -1.0360161
000040 d5 e6 35 be 83 77 4d bf dd 89 27 3f 1a 71 2e bf
       -0.17763837 -0.80260485 0.6544474 -0.6814133
000050 b5 d4 76 bd 34 4e a3 3f 0a 04 0a 3e 71 5c 0e 3f
       -0.060261447 1.2758241 0.13478103 0.55609804

bias f4 [8]
000000 85 bb 11 be 34 b8 30 3d 4e b5 3c 3e d9 63 67 3e
       -0.1423169 0.04314442 0.18428537 0.22596683
000010 e8 9b a3 be 21 4b a3 3d e8 64 6b 3d a5 2b 2e bf
       -0.31954885 0.07973314 0.05746928 -0.68035346

weight f4 [8]
000000 b9 52 47 3f 97 ab 86 3f f7 fb 99 3f a0 bf a6 3f
       0.778606 1.0521115 1.2030019 1.3027229
000010 1c d8 d4 3f de 45 8c 3f fd e9 53 3f 1d 3b ba 3f
       1.6628451 1.0958822 0.8277891 1.454929

bias f4 [8]
000000 d9 66 46 3f 54 ae f3 bd cf de ad be 9d 5f cb 3e
       0.77500683 -0.11898485 -0.33959052 0.39721385
000010 ad 61 5b 3e cc 7e 15 bd 34 57 91 3e 2c ef 30 be
       0.21423979 -0.036497876 0.28386843 -0.17278737

running_mean f4 [8]
000000 8f cd d6 bd c4 57 91 3d 1d 9d 18 3e 6c 36 71 3e
       -0.10488426 0.07096818 0.14903684 0.23555917
000010 05 e7 9f be a6 54 22 3e 34 be 6a bb 3d 6f 47 bf
       -0.3123094 0.15852603 -0.0035818936 -0.7790411

running_var f4 [8]
000000 2a a8 18 47 ce 59 a3 48 81 45 af 48 d1 c5 59 48
       39080.164 334542.44 358956.03 222999.27
000010 12 20 3e 48 5d 87 6c 48 0e 94 90 46 de 11 68 48
       194688.28 242205.45 18506.027 237639.47

weight f4 [16, 8, 3]
000000 8e 2a 2b bf 3e 03 7c bd 2f a2 85 bf 27 14 94 3c
       -0.6686181 -0.06152653 -1.044012 0.018076016
000010 46 a5 c0 be c6 46 c1 be 34 f7 95 bd 14 be cf be
       -0.37626094 -0.37749308 -0.07322541 -0.40574706
000020 da e9 ba be 74 06 a8 bd f7 86 f8 bb 67 96 1d bf
       -0.3650654 -0.08204356 -0.0075844484 -0.6155762
000030 d0 37 53 bf 1e fd 0c bf c5 80 ac bd 55 70 85 bf
       -0.8250704 -0.55073726 -0.08422998 -1.0424906
000040 ef 4b 6d be e9 78 17 bf b6 ac 76 3d ec 1d 08 3c
       -0.23173498 -0.5916887 0.060223304 0.008307915
000050 55 92 1b 3e 42 3e bd 3e e8 e4 52 3e 86 d6 05 bf
       0.1519254 0.3696156 0.20595133 -0.5228046
000060 40 e4 7a 3f f8 ce 26 bf b8 f1 a6 bd f3 e8 7e 3e
       0.9800453 -0.6515956 -0.08151573 0.2489355
000070 f1 2e f2 be 43 3c c5 3e 9c 1e 07 bf 19 78 9e 3e
       -0.47301438 0.3852254 -0.5278108 0.30951002
000080 a3 1a e2 be 1f c3 19 3f 32 4c 35 3d 71 70 0c bf
       -0.44160947 0.60063356 0.04426212 -0.5485907
000090 33 12 9a be 18 44 c1 3e 6a ba f8 bd dd 4c 8c bd
       -0.3009201 0.37747264 -0.12144931 -0.06850598
0000a0 b0 01 3d 3e 8e 57 1f bf fa bd ab 3c e7 f5 0d bf
       0.18457675 -0.6224297 0.020964611 -0.5545334
0000b0 10 aa 7b 3f 93 c5 0d be 30 e1 f4 be 0f 95 f6 3e
       0.9830637 -0.138449 -0.47828054 0.48160598
0000c0 58 fa a5 be 41 de ec bd 99 fc a2 be 03 ae 1d bf
       -0.3241756 -0.11565829 -0.31833342 -0.61593646
0000d0 00 c5 eb 3d f9 85 3c bd 30 5e e6 3d 90 41 c0 bd
       0.11512184 -0.046026204 0.112484336 -0.09387505
0000e0 b2 e1 cc 3d c9 c5 28 3f 2b f0 44 3f 07 11 37 3f
       0.100039855 0.65926796 0.7692897 0.71510357
0000f0 48 ea a6 be 0e 0f ef bd a4 34 99 3a 76 46 6a be
       -0.32600617 -0.11672793 0.0011688662 -0.22878441
000100 71 4c 62 be 5a 19 6c bd 20 93 00 be a7 bd ce 3c
       -0.22099473 -0.057641365 -0.12556124 0.025236918
000110 7f 79 94 bd 0f 82 14 3f e2 96 4a 3f 24 66 68 3f
       -0.07249736 0.58010954 0.7913648 0.90780854
000120 af 80 53 bf 40 6d 01 3e 39 3a 23 bf df a9 bb be
       -0.8261823 0.12639332 -0.63760716 -0.3665304
000130 9d 4e 9b 3e b2 58 24 bc ea 4f 5e 3e b5 b7 a9 be
       0.30333415 -0.010030912 0.21710172 -0.3314797
000140 4d 4c a6 3f 53 85 89 bd 9e 26 6a be 6f 71 46 bf
       1.2992035 -0.06714883 -0.22866294 -0.77516836
000150 1f 11 94 bd f7 0f 1c 3e f0 21 b3 3f 13 f3 a4 bd
       -0.07229828 0.15240465 1.3994732 -0.08054175
000160 e7 cc a7 be 02 2b 7e 3f f6 70 99 3e e5 f9 09 3f
       -0.32773516 0.99284375 0.29968995 0.53896934
000170 d1 f4 59 be 68 c1 af 3e f9 11 0f bf 93 7a a2 be
       -0.21284796 0.34327245 -0.558868 -0.31734142
000180 bb 0b a1 3e e4 75 30 bf 67 05 49 bf 24 ad d6 3d
       0.31454262 -0.68929887 -0.7852387 0.10482243
000190 25 e8 bf be 28 5d 79 be 1d ad 92 be c7 42 87 be
       -0.374818 -0.24351943 -0.286477 -0.26418135
0001a0 9e e9 01 be c5 23 04 3f d6 df 94 bc 88 10 2e bf
       -0.12686774 0.5161708 -0.01817314 -0.67993975
0001b0 5b 0a 5d be 50 7c e9 be 01 89 97 be 4a f4 be 3e
       -0.21585982 -0.45602655 -0.29596713 0.37295753
0001c0 b7 00 cc be be 69 e0 3c 86 1b 69 be c3 14 db 3e
       -0.39844295 0.027394172 -0.22764406 0.42789277
0001d0 c9 78 3a 3e 15 94 c4 3e a9 6d 1d 3f d9 17 8a bd
       0.18210138 0.38394228 0.61495453 -0.0674283
0001e0 d4 5d 88 3d 67 44 f3 be bf d1 21 3d eb 80 05 bf
       0.06658521 -0.47513124 0.03950667 -0.5214984
0001f0 fa 51 1c bf 9c 2d 0c 3e c6 28 a0 be 70 38 e2 3e
       -0.61062586 0.13689274 -0.31281108 0.44183683
000200 41 24 98 3e 85 53 8c 3e 02 dc 51 3e f4 04 11 3f
       0.2971516 0.2740747 0.20494083 0.5664818
000210 ca 3b 2c bf bc 7d 98 be 76 c8 25 3e af f3 f7 3b
       -0.6727873 -0.29783428 0.16189751 0.007566891
000220 14 74 50 be a3 70 3e 3d f8 dd 1e bf 26 cc c7 3d
       -0.2035678 0.046494137 -0.6205745 0.09755735
000230 cf d7 51 3f da 25 57 bf 61 90 b0 3d c0 70 08 3f
       0.8196992 -0.8404213 0.08621288 0.5329704
000240 4f 9e 6f bf 8d ab 51 be a8 37 a1 3e ca 85 af bf
       -0.93600935 -0.20475598 0.31487775 -1.3712704
000250 54 c5 b8 3e 71 a8 8a 3e 06 80 ce 3e 20 8f 53 3e
       0.3608805 0.27081636 0.4033205 0.20660067
000260 a1 e7 8e be 98 cf 9e 3e c2 4a 35 be ff d2 53 3e
       -0.27911094 0.31017756 -0.17704299 0.20685957
000270 ad 0f 92 be 73 08 b4 3e 7b be 5f be 11 c8 b8 bb
       -0.28527585 0.35162696 -0.21850006 -0.005639084
000280 90 b7 16 bf 14 0c 21 3e 84 b8 6c bf ba fe 9c 3f
       -0.58873844 0.15727264 -0.9246905 1.2265236
000290 46 c0 02 3f da 1f 5d 3d 58 55 18 3e da 1d 39 3e
       0.51074636 0.053985454 0.14876306 0.18077794
0002a0 ff f2 32 3f c1 61 fd be ec 83 74 bf f6 0e 56 3e
       0.6990203 -0.49488643 -0.95513797 0.20904145
0002b0 6f 87 53 bf 5a 5b f1 be 04 d4 79 bf 43 15 e4 bd
       -0.8262853 -0.47140008 -0.97589135 -0.11136868
0002c0 26 c0 c3 bb 47 88 f1 3c fb ed 56 3d 9f 54 ed 3d
       -0.0059738336 0.029483927 0.05247305 0.11588406
0002d0 6b be 4a be fe 08 88 bd 3c 21 24 bf 79 04 92 3e
       -0.19799201 -0.0664234 -0.6411321 0.28519037
0002e0 7a fd c3 3e fd f8 31 bf 60 20 95 bf 3a bd a3 bf
       0.38279325 -0.6952055 -1.1650505 -1.2792122
0002f0 d2 ff 9e 3c 02 54 24 bf 47 5a 47 bd 13 0e c6 3e
       0.019409094 -0.64190686 -0.04867008 0.38682613
000300 38 c2 26 3e 3a b4 d8 be 00 55 27 3e 58 d5 b1 be
       0.16285026 -0.42325002 0.16341019 -0.3473308
000310 09 e2 77 bf 5a db b6 bd 74 10 58 bf 6d b0 02 3d
       -0.9682928 -0.08928557 -0.84400105 0.031906534
000320 05 1e fc be c5 67 42 3e 39 b0 67 be b0 b4 a6 3e
       -0.49241653 0.18984897 -0.22625817 0.3255973
000330 57 18 f4 be d4 ae b1 be 3d c6 16 bf 1e c5 9c bd
       -0.4767482 -0.34703696 -0.5889624 -0.076547846
000340 fd 6a 75 be 97 48 6e bf 33 6b 95 3d db fc 28 bf
       -0.23966594 -0.93079513 0.07295837 -0.66010827
000350 bc 9a 82 3d f9 f8 be bc 6b 9c 0b bf dd ea 9c 3e
       0.063771695 -0.023312079 -0.5453555 0.30647936
000360 e8 25 d2 bd 75 2f 2f be 10 2b 10 3f f1 89 9b 3d
       -0.10261136 -0.17107947 0.5631571 0.075946696
000370 e4 78 c6 3e d9 78 83 3d c3 54 09 3f 61 8e 8b 3d
       0.38764107 0.06419534 0.5364496 0.06814266
000380 22 28 a8 bf 58 f9 28 3f 02 06 1a 3f 8a 8d 14 3f
       -1.3137248 0.6600547 0.6016542 0.5802847
000390 83 12 e0 3e 2d 21 a5 3e 8e e6 2c bf 19 5a 2b 3f
       0.43764123 0.32251874 -0.675393 0.66934353
0003a0 11 f0 5d 3c 3e 04 66 be 3c 69 39 3e e8 e4 7c bd
       0.013546006 -0.22462556 0.1810655 -0.06174174
0003b0 f1 62 ea be bd 70 b3 3e 10 61 69 3f b9 a9 17 3f
       -0.4577861 0.3504695 0.9116373 0.5924335
0003c0 06 ef 9e 3f ca 43 35 3f 09 50 41 3f 1b 2b 85 3f
       1.2416694 0.7080656 0.7551275 1.040378
0003d0 78 c7 af 3e ba f1 9e bd cd 1a 87 3c bc 29 a2 be
       0.3433187 -0.077609494 0.016492272 -0.31672466
0003e0 f8 8f 55 bf 6d 3c 6a be 49 76 b8 be d2 5f 27 3e
       -0.83422804 -0.22874613 -0.36027744 0.16345146
0003f0 e0 20 15 3f bc e5 bc 3e a5 e0 ec be b9 17 84 3f
       0.5825329 0.36894023 -0.4626514 1.031974

bias f4 [16]
000000 4f 9b 71 3f 35 b0 d0 bc f9 c4 da 3d 17 c0 66 be
       0.9437761 -0.025474647 0.10682101 -0.22534214
000010 9b f1 85 3e 1d a7 58 bf b8 0c 27 bf ec e5 64 3d
       0.26160893 -0.84629995 -0.6525378 0.055883333
000020 3a b0 a4 3e bb c4 fd 3e d2 3c cc 3e 0c c3 31 be
       0.321657 0.49564156 0.39890152 -0.1735956
000030 e7 fb 42 3e 47 34 11 bf 1e fb 06 bf 35 7c b1 be
       0.19041406 -0.56720394 -0.52726924 -0.34665075

weight f4 [16]
000000 e5 21 80 3f f1 a0 23 3f 50 a0 b3 3f 2a 4d ab 3f
       1.0010344 0.6391745 1.4033298 1.3382924
000010 0a 66 55 3f dd 69 41 3f e0 d7 3e 3f 1f f8 8b 3f
       0.83358824 0.7555216 0.7454815 1.0935096
000020 40 2c 18 3f f0 e3 ba 3f a7 e5 3c 3f db 46 06 3f
       0.5944252 1.4600811 0.7378792 0.52451867
000030 60 c9 5f 3f b2 a6 07 3f 80 b5 c3 3f 91 cc a2 3f
       0.8741665 0.5298873 1.5289764 1.2718679

bias f4 [16]
000000 33 c8 98 3e 8d e5 01 be 45 58 31 3f 1c 28 51 3f
       0.2984024 -0.12685223 0.69275314 0.8170183
000010 1d 0c 66 3c e3 81 98 be 69 bf 4f 3f 32 fe c2 3e
       0.014040974 -0.29786596 0.81151444 0.3808456
000020 1e b7 57 3e dd 36 97 3f a3 ef b8 3f a7 c9 a6 3e
       0.21065947 1.1813618 1.4448131 0.32575724
000030 2d 3e 09 bf f6 26 cd 3d af bf a1 be 70 0a c3 be
       -0.536105 0.10017197 -0.31591555 -0.380939

running_mean f4 [16]
000000 16 c6 49 c0 92 79 0b 3e 24 a4 a1 3f da dc 03 bf
       -3.1527152 0.13620594 1.2628217 -0.5150887
000010 35 a3 a6 bf cc ea 8d bf 99 df 6d bf 91 63 3c c0
       -1.3018557 -1.1087279 -0.9291931 -2.943577
000020 d1 aa 0a c0 aa 9e 3c 40 ac a9 5e 40 21 26 a5 be
       -2.1666758 2.947184 3.479106 -0.32255653
000030 ba 16 d5 bf e1 b4 3e c0 01 3c 5c 40 50 c6 63 40
       -1.6647561 -2.97979 3.4411623 3.558979

running_var f4 [16]
000000 3e cb 7a 41 70 8c 84 40 95 f8 8d 41 07 e2 28 41
       15.67462 4.1421432 17.746378 10.555182
000010 01 06 c8 40 1c 16 a3 40 4d 74 9e 40 1e 12 25 41
       6.250733 5.096449 4.951697 10.316923
000020 06 5f 7a 41 8a 58 0d 41 e6 a6 13 41 d4 a7 2e 41
       15.648199 8.834116 9.228247 10.915974
000030 5f 7e c2 40 db fb 11 41 14 38 23 42 ef 13 30 42
       6.077926 9.123988 40.804764 44.019466

weight f4 [16, 16, 3]
000000 b6 8a c5 be 6f 2c 90 be 4e 42 db 3e a0 33 2f bf
       -0.3858239 -0.281589 0.42824024 -0.6843815
000010 d8 09 33 3e 2c ff 4e be ce 10 e6 be f1 79 09 3f
       0.17484224 -0.20214528 -0.44934696 0.5370169
000020 a6 8d 3e 3f d9 9b d5 be af f6 db be ed 5a 81 3e
       0.7443489 -0.41720465 -0.42961642 0.25264683
000030 62 af ed be be 4e ca bd 66 8d 1a 3f 59 3c ed be
       -0.4642287 -0.098783 0.60372007 -0.46335104
000040 4f 38 06 3f 73 31 53 bd a0 54 20 bf d9 30 95 be
       0.5242967 -0.05156083 -0.6262913 -0.2913883
000050 5a 2e da 3d 6e 34 03 be 5f f4 0c 3f f7 2f 22 3e
       0.10653372 -0.12812969 0.5506038 0.1583861
000060 01 43 5f 3e 47 58 c5 3e 7b dd 60 be 2c 65 38 bf
       0.21802904 0.38543913 -0.21959488 -0.72029376
000070 91 75 c6 3e 72 66 a4 3e b6 4a bd be 98 9e cd be
       0.3876157 0.3210941 -0.36971062 -0.4016006
000080 d7 bd 84 be 93 25 e0 be 20 45 86 3e b2 73 41 3d
       -0.25926086 -0.43778667 0.26224613 0.047229476
000090 ac d8 fe bc 54 79 bd 3e 9b 49 76 be 0e 57 e2 3e
       -0.031109177 0.3700663 -0.24051516 0.44207042
0000a0 60 a3 be 3e 62 c7 07 bf c0 a1 12 bf 02 6f 77 be
       0.3723402 -0.5303861 -0.5727806 -0.2416344
0000b0 3a 21 a8 3e fd cf 08 bf af 03 1d be 3f 07 b4 3e
       0.3283785 -0.53442365 -0.15333436 0.35161778
0000c0 89 26 b8 3c 20 9e a1 3e 99 e9 2e 3e 47 80 ce be
       0.022479312 0.31565952 0.17081298 -0.40332243
0000d0 0c b3 57 bf 9b 4c 65 bf d7 4d 4a bd cf b2 38 3e
       -0.8425758 -0.89570016 -0.04939064 0.1803696
0000e0 c0 6d f0 3e f4 8c d0 be 80 9b 88 bf 31 6a a6 bf
       0.46958733 -0.4073254 -1.0672455 -1.3001157
0000f0 ac 74 4c bc b7 3d 2a bd f3 79 78 be 1c 3f ec be
       -0.012478989 -0.041562762 -0.2426527 -0.461419
000100 54 2d 9f bb f2 c4 24 3e 16 c1 37 bf 50 6e fb bd
       -0.0048576985 0.16090754 -0.71779 -0.122769
000110 88 35 23 be a1 d2 16 bd 0b 7c bb 3e 20 b4 8b 3f
       -0.1593839 -0.036821965 0.36618075 1.0914345
000120 70 d9 b8 be 33 4e a1 3e e6 bf d6 3e 60 b3 cc bd
       -0.36103392 0.31504974 0.41943282 -0.099951506
000130 a5 0a 00 be 16 ca 88 3e aa 66 1f bf 8c 19 8a bf
       -0.1250406 0.2671668 -0.6226603 -1.0789046
000140 05 82 3f bf 57 a9 4b bc 2e 71 64 3d 7d f8 08 3f
       -0.7480777 -0.0124305105 0.055772 0.53504163
000150 c2 c8 65 bf 6d 27 c9 be 76 8e 4b bf 2b 72 f1 3d
       -0.8975946 -0.39287892 -0.79514253 0.11789354
000160 43 20 02 3f 38 03 f8 3e bd ea 06 bf 9a 68 ac be
       0.5083048 0.48439956 -0.5270193 -0.33673555
000170 ca f1 8e be 0e 37 d2 be f7 fd c3 be 4b b1 83 be
       -0.27918845 -0.41057628 -0.38279697 -0.257212
000180 72 90 72 3e 1e 5b 02 3f 36 83 cc 3d 17 59 c2 be
       0.23687914 0.50920284 0.09985964 -0.37958595
000190 c1 fc 5d be 64 c2 74 be bf 04 ac 3f 51 a8 ac 3e
       -0.21678449 -0.23902279 1.3438948 0.33722165
0001a0 30 ba 00 bf 7a cd 90 be 17 43 28 bc 28 97 89 3e
       -0.502841 -0.28281766 -0.010269902 0.26873136
0001b0 8e 50 33 3f bd bc 77 3e 7e f3 99 bd da bf b8 bc
       0.7004479 0.24193092 -0.075171456 -0.02255242
0001c0 c9 cf 03 bf db 9c b8 3c 29 b1 26 3f 31 df e6 be
       -0.5148893 0.022535732 0.65114075 -0.45092157
0001d0 51 f2 96 be 55 ac c2 3d 00 dd c8 be d1 11 e5 be
       -0.29481748 0.09505526 -0.3923111 -0.44740155
0001e0 bf 84 00 bd 66 17 41 be 65 04 b7 be cf 47 81 3f
       -0.031376597 -0.18856582 -0.3574554 1.0100039
0001f0 19 c0 9f 3e 69 03 13 bf f6 be 6c be e8 2f b4 be
       0.31201246 -0.5742708 -0.23119721 -0.351928
000200 a4 9c 74 be 8f 64 5b 3e d3 bd 58 be 5c 2e ee be
       -0.23887879 0.21425079 -0.21166162 -0.46519744
000210 97 dd cf be 3a 24 51 bd 1e 05 84 3e d1 bf bf be
       -0.40598747 -0.05105994 0.25785154 -0.37451032
000220 80 e4 33 be c6 a8 f0 3d 66 f6 3c be 3c 99 92 3c
       -0.17567635 0.11750941 -0.18453369 0.017895333
000230 f7 18 99 3d d7 b4 24 be 31 1e b9 bd 01 10 57 3d
       0.07475465 -0.1608461 -0.09038962 0.052505497
000240 9d 9b 95 3e 6d 57 8b be c6 c6 d8 3d 20 0f 2d bf
       0.29220286 -0.27215138 0.10584788 -0.67601204
000250 1e cb ae be 17 56 0d bf de 57 0b 3f eb c5 05 bf
       -0.3413934 -0.5520949 0.5443095 -0.52255124
000260 76 c3 77 be 09 95 64 be 90 b5 50 bd 42 84 5f bf
       -0.24195656 -0.22322477 -0.0509544 -0.87311184
000270 c7 0f 9a 3e a4 e1 5e be 63 fa aa be 80 cb c3 bf
       0.30090162 -0.21765763 -0.33394155 -1.5296478
000280 65 c7 18 bf 39 a3 9f 3d 8c 67 2b bf 2e a9 ee be
       -0.5967925 0.07794804 -0.66954875 -0.4661345
000290 92 d6 1f bf 09 f4 29 bf 32 24 0c bf f9 f0 bf 3e
       -0.62436783 -0.66387993 -0.5474273 0.37488535
0002a0 5d 21 ea be c0 d8 31 be 84 19 83 3e 1a ff 37 3f
       -0.4572858 -0.1736784 0.25605404 0.7187363
0002b0 aa fe dd be 69 3f a8 be ee d7 ab 3e 75 ad 62 bd
       -0.43358356 -0.32860878 0.3356318 -0.055341203
0002c0 9b 2b 0f bf 2d ba 4f bf 82 ec cc be ca 02 90 bd
       -0.5592591 -0.81143457 -0.4002419 -0.07031782
0002d0 c4 54 2d 3d cd 70 09 be 3d 19 3d bf 29 cf 63 bf
       0.042317167 -0.13421936 -0.73866636 -0.88987976
0002e0 98 9f a6 bc 99 9e 17 3f 74 3f 86 3e 0c 8d 6f be
       -0.020339772 0.59226376 0.26220286 -0.23393649
0002f0 2f 56 2c bf 76 3d b8 3e 19 9c 08 3c 3a 67 b9 be
       -0.67319006 0.3598439 0.008337998 -0.36211568
000300 30 bc 74 bf 33 e5 83 bf 84 49 a1 bf ae 2f 68 be
       -0.9559965 -1.0304321 -1.260056 -0.22674438
000310 9f 13 d9 3c b4 2f 7b be 40 86 0c bf e7 d3 38 bf
       0.026498614 -0.24529916 -0.5489235 -0.7219834
000320 25 a0 79 be dd 8a a1 3e f2 91 86 bc d0 77 8a 3e
       -0.24377497 0.31551257 -0.016427014 0.27044535
000330 e0 59 72 be 32 6d 9a 3c aa 3f 11 bf 2e c0 e8 bf
       -0.23667097 0.018850897 -0.5673777 -1.8183649
000340 22 22 c8 be 60 1a c1 be db 3c 7d 3d b8 f7 02 bf
       -0.3908854 -0.37715435 0.061825614 -0.5115924
000350 5d 4d b8 bd 9e 14 b5 bf 80 c7 9c be b2 45 76 bf
       -0.08999131 -1.4146917 -0.30620956 -0.96200097
000360 be e3 3d bf f1 9a b7 be fe fc 2d bf ab c2 8f bd
       -0.7417563 -0.35860398 -0.6796416 -0.07019552
000370 c4 25 33 bf d1 38 3a 3e 81 04 bd bc 65 85 93 be
       -0.699795 0.18185736 -0.023073437 -0.2881271
000380 7b 89 15 3e c9 c1 cf be de 93 16 bf eb c5 be bd
       0.14603226 -0.40577534 -0.5881938 -0.093150936
000390 a0 88 2f bf f8 e8 82 bf f7 00 ed 3d 9e 2a f2 be
       -0.6856785 -1.0227346 0.1157245 -0.4729814
0003a0 22 07 88 be 98 2f 84 be 33 93 af bd e5 5c c0 be
       -0.26567942 -0.2581756 -0.08572998 -0.37570873
0003b0 56 1b 0c 3f 5d 66 25 3d 12 4e c6 be e5 48 c0 3e
       0.5472921 0.040380824 -0.38731438 0.37555614
0003c0 6f 0b 07 bf 2c ff 00 be e5 48 51 3e ce 6f 30 3e
       -0.5275182 -0.1259734 0.20437963 0.1723015
0003d0 c5 65 39 bf 94 e2 25 3c 3e 28 e2 be 28 8d 8a 3e
       -0.72420913 0.010124821 -0.44171327 0.2706082
0003e0 c7 8d 37 3f 51 d1 53 3e e1 df 8b be 44 3f a4 bf
       0.7170071 0.20685317 -0.27319244 -1.2831807
0003f0 bb 7f bc be 1b e1 fd be 7f 1c 5c 3e 3d c3 63 be
       -0.368162 -0.49585804 0.21495245 -0.22242446

bias f4 [16]
000000 8e 2f 04 3f 82 34 53 bf a4 93 27 3f 60 9b 67 bf
       0.5163506 -0.82501996 0.65459657 -0.9047146
000010 ed 1b b8 be 3c ce 78 3f 2a 30 62 3d af ba a3 be
       -0.35958806 0.9718969 0.055221714 -0.31978366
000020 c6 7b 1b be b2 4f 7a 3e b5 8e 68 bd a6 00 40 3e
       -0.15183935 0.24444464 -0.05677672 0.18750247
000030 5c 64 1e 3f 11 ac 66 3e 3f 62 cc be ec 2c c0 3e
       0.61871886 0.22526576 -0.39918706 0.37534273

weight f4 [16]
000000 81 c6 01 3f 1e e6 96 3f 74 dd d5 3f 90 7b a0 3f
       0.5069352 1.1788976 1.6708207 1.2537708
000010 2f 4c 7d 3f c0 de e3 3f 49 be 1f 3f 38 00 67 3f
       0.9894437 1.7802353 0.6239973 0.9023471
000020 5e ea 47 3f ce f8 84 3f 1a 5e d4 3f d2 4b 72 3f
       0.7809199 1.0388429 1.6591218 0.9464694
000030 71 91 87 3f b5 bd 4e 3f 4c 19 8e 3f 2a 74 7b 3e
       1.059126 0.8075822 1.110147 0.24556032

bias f4 [16]
000000 d4 78 11 be 40 5e 77 bd be d8 1d 3f c1 36 00 3f
       -0.14206249 -0.06039262 0.6165885 0.5008355
000010 98 17 91 3d 1a ef f6 3e a4 69 49 3f 0e 52 6d bf
       0.07084578 0.48229295 0.7867682 -0.9270333
000020 8c 9e fd 3c 07 4c fb 3e bd 03 86 3e 0f 4d 22 bf
       0.03095939 0.49081442 0.26174727 -0.6339883
000030 7f 0b 1f 3f 0a 28 56 3c 7f 0c 77 bf 31 76 35 bf
       0.62126917 0.0130710695 -0.9650344 -0.7088347

running_mean f4 [16]
000000 4a ee f6 bf 80 3d 0c c1 8c 57 02 3f dd 3b 06 c1
       -1.929147 -8.765015 0.50914836 -8.389615
000010 da f9 1f c1 bb 3b 0f 40 c4 fe 03 c1 74 cb 5a 40
       -9.998499 2.2380207 -8.249699 3.4186678
000020 71 fd 17 40 ba 3f 31 3e a8 8f 95 c0 cc 86 02 bf
       2.3748438 0.17309466 -4.673786 -0.50986934
000030 b6 fd 54 3e 73 56 32 40 7d 07 c0 40 f3 49 d7 3e
       0.20799908 2.7865264 6.000914 0.42048606

running_var f4 [16]
000000 7a bf 4e 41 7e fb 7c 42 07 e4 6d 41 5e 94 34 41
       12.921747 63.245598 14.868171 11.286222
000010 d9 f4 29 42 18 7e a7 41 5f ff 8d 41 84 f9 a3 41
       42.48911 20.93657 17.749693 20.496834
000020 c2 49 fd 41 7f af 1d 42 33 b8 99 41 ac b4 17 41
       31.661015 39.421383 19.214941 9.481609
000030 e5 df 81 42 2f e1 b9 41 9a 1f b7 41 ee 75 d4 40
       64.937294 23.234953 22.89043 6.6393957

weight f4 [32, 16, 3]
000000 5e 65 e2 be 97 e7 d9 3d 6f 6c 12 bf b4 68 f3 be
       -0.44217962 0.106398754 -0.57196707 -0.4754082
000010 71 5b c5 bd 1e 94 86 bd 89 22 78 be 97 56 ba be
       -0.09636582 -0.0657122 -0.24231924 -0.36394188
000020 f2 ec 01 3f 17 0c d9 3e 47 60 c5 3d 81 80 e0 bd
       0.50752175 0.42392036 0.09637504 -0.1096201
000030 c9 d8 98 3d 97 80 d0 be ea 94 2a be 0e 10 09 3f
       0.074632235 -0.40723106 -0.16658369 0.5354012
000040 ae 6c 0f 3f e0 29 15 be ac 63 4b bf 6e 60 ea be
       0.5602521 -0.14566755 -0.7944896 -0.45776695
000050 2d 44 48 3f 52 57 f5 bd 95 52 09 3e a0 b4 e4 bd
       0.7822903 -0.11979546 0.13410409 -0.11167264
000060 57 5e aa 3e 71 8e b4 3e 71 73 d5 3e 03 2c c8 be
       0.332751 0.35264924 0.41689637 -0.39096078
000070 5b 63 83 bf 6d 47 99 bf d7 87 a0 bf fa 68 c8 bf
       -1.0264696 -1.1974922 -1.2541455 -1.5657036
000080 17 b0 04 be 55 09 83 be 31 f2 28 3e 6b 60 86 be
       -0.12957798 -0.25593057 0.16498639 -0.26245436
000090 03 5e 0b bc a7 5d 65 3e ca 19 a7 3e b6 34 90 3e
       -0.008506301 0.22399007 0.32636863 0.28165215
0000a0 c1 1d 5a 3e e8 1f c3 3e df ac 31 be b4 73 32 bf
       0.21300413 0.3811028 -0.17351101 -0.697078
0000b0 ba 51 07 bf 12 8b 54 3e 57 12 7a 3e 80 6e 88 bd
       -0.5285908 0.20756176 0.24421059 -0.06661701
0000c0 66 ad 12 3e 21 fe a5 be 55 25 73 be a0 e3 b6 be
       0.14323959 -0.32420447 -0.2374471 -0.3572054
0000d0 29 54 e7 be 72 b9 d4 3d 83 52 f8 be 7f 01 2f bf
       -0.45181397 0.103869334 -0.4850045 -0.6836166
0000e0 34 6a 45 3e 38 ee 1a bf ff 17 14 bd b7 17 fc 3e
       0.19278795 -0.6051974 -0.036155697 0.49236843
0000f0 89 90 92 3d c0 72 cd bd 72 c6 00 be b3 6c 1f be
       0.07156474 -0.100316525 -0.12575701 -0.15568809
000100 e3 32 46 be f4 a8 82 3c a7 e8 13 bf 03 34 87 be
       -0.19355349 0.015949704 -0.57776874 -0.2640687
000110 c6 d9 61 3f bb 04 ac 3e d7 ec 13 bd 57 97 76 be
       0.8822292 0.3359736 -0.03611454 -0.24081169
000120 f6 c0 d4 be 3c f0 77 3d 83 e2 95 be 2c 9f fe 3e
       -0.41553468 0.06053184 -0.29274377 0.49730814
000130 c7 e0 7c 3d bb 85 34 3b 58 a2 cc 3f 86 85 b4 be
       0.061737802 0.002754553 1.5987043 -0.3525812
000140 40 aa 56 bf fb 4e be 3e e6 f5 e5 bc e8 d4 18 bf
       -0.8385353 0.37169632 -0.028071355 -0.5969987
000150 ab 5c 3c bf 2c 05 44 bf f6 f4 bf be f8 47 52 bf
       -0.735789 -0.7657039 -0.37491578 -0.82141066
000160 ed e6 82 3e a0 56 c6 3e 27 6e 35 3f 5f d6 a6 3e
       0.25566807 0.38737965 0.70871204 0.32585427
000170 37 c1 a4 3e 1c 95 9f be 35 a1 0c 3f e4 53 c2 bc
       0.3217866 -0.3116845 0.5493348 -0.023721643
000180 4c 86 89 be ed 54 62 be 05 4b 3d be c2 6a 0d be
       -0.26860273 -0.22102709 -0.18485649 -0.13810256
000190 6c d7 db 3d b3 65 d7 3d 04 3c d6 be 99 ef ba be
       0.10734448 0.105174445 -0.41842663 -0.36510924
0001a0 25 c0 7c 3e ab d5 e9 be f5 7a 74 bd ed 4d d2 3e
       0.24682672 -0.45670828 -0.059687573 0.41075078
0001b0 6f 68 21 3e 62 00 01 3f 34 c9 e0 3e 4f fc 22 bf
       0.15762495 0.5039121 0.43903506 -0.6366624
0001c0 c4 4b 2e be 0d 05 19 bd bb 1f 18 bf 4c e0 7a be
       -0.1702109 -0.037358332 -0.59423417 -0.24499625
0001d0 a0 3f 9c 3e 23 b2 b0 3e 0c 45 9c 3a c3 76 ad bd
       0.30517292 0.34510908 0.0011922433 -0.084699176
0001e0 11 e0 68 be 45 ba 7b be cf 49 3f be 8f 74 c4 3e
       -0.22741725 -0.24582775 -0.186805 0.38370177
0001f0 f7 8e 28 3f 11 30 0c 3f 48 12 bf 3f f7 10 a6 be
       0.6584315 0.54760844 1.4927454 -0.32434818
000200 b4 b5 54 bf b7 97 43 3c c3 13 c1 3e 5e e8 6f be
       -0.83089757 0.011938027 0.3771039 -0.23428485
000210 6f 74 d7 be 70 fa d7 be d3 94 20 be c5 a6 90 be
       -0.4208102 -0.42183256 -0.15681772 -0.28252235
000220 ee a8 36 bd 15 7c 82 be 33 51 66 3f bc 9f 12 3f
       -0.044594698 -0.25485292 0.8996765 0.57274985
000230 26 b2 fc 3e f8 d8 ec be 37 cc 25 3f 85 b3 30 be
       0.49354666 -0.46259284 0.6476473 -0.17255981
000240 34 96 8f 3e 33 f4 0c be 20 fe af be 96 92 88 be
       0.28044283 -0.1376503 -0.3437357 -0.26674336
000250 e1 83 32 bf 9e a0 66 bf 2d e2 75 be 74 d4 d0 bd
       -0.6973248 -0.9008883 -0.2401206 -0.10196772
000260 62 f5 e8 bd 73 84 31 bf 7e 46 d4 be 4c 0a 90 bf
       -0.11374928 -0.69342726 -0.4146003 -1.1253142
000270 f6 6e 0b bf 3c eb 3f bf ca 8a bf be a4 f0 b2 3e
       -0.5446619 -0.74968314 -0.37410575 0.3494922
000280 3b 83 10 bf 43 67 b9 be fc 3b d1 be cc 08 91 bd
       -0.5645024 -0.36211595 -0.40866077 -0.07081756
000290 02 bd 59 be 2c 83 0f be 86 f1 f4 3d ef 97 29 bb
       -0.21263507 -0.14014882 0.119601294 -0.0025877913
0002a0 73 af bb 3e dc f5 b4 3e da 61 e6 3d 41 55 8d bf
       0.36657295 0.35343826 0.112491325 -1.1041642
0002b0 71 33 3e bf b9 3d 1c bf 4f 79 8f be 41 99 b3 be
       -0.74297243 -0.6103168 -0.2802224 -0.3507786
0002c0 a8 b7 4e 3d 50 31 24 3e c3 d6 95 be a2 aa 8c be
       0.050468117 0.16034436 -0.29265413 -0.27473933
0002d0 f6 e8 18 3f 2b a1 b4 3d 5e 35 92 bd 78 ce 9b 3e
       0.5973047 0.08819803 -0.07139085 0.3043096
0002e0 ce fc b1 3e 21 51 95 be 27 07 10 bf 55 e2 6d bf
       0.34763187 -0.2916346 -0.56260914 -0.9292348
0002f0 0b 45 9b be 69 30 14 be 3c 06 42 be f3 0b bf be
       -0.30326113 -0.14471592 -0.1894769 -0.37313804
000300 af 53 d8 be d0 8b de 3e 6a 6f 71 be 1d 78 47 bf
       -0.42251346 0.43466043 -0.23577657 -0.77917653
000310 a5 b7 8c bd 0f 0f 9e be f3 75 72 bf b6 78 c3 be
       -0.06870965 -0.30870864 -0.94711226 -0.38178033
000320 bb 0d d7 3e ab 62 d2 3e 54 1e 91 3d 18 8e 76 3e
       0.42002663 0.41090903 0.07085863 0.24077642
000330 fc 96 22 3f cc ea 1d bf d1 2a 73 bf 6e 66 17 3f
       0.63511634 -0.61686397 -0.9498721 0.5914067
000340 33 72 99 3f 94 a3 72 3d b0 49 91 bf 95 ec b9 be
       1.1987976 0.05923803 -1.1350613 -0.3631331
000350 55 7c d7 3e ff c8 75 be 03 a9 be 3d b0 66 06 bf
       0.42087045 -0.24002455 0.0930958 -0.5250044
000360 1a 74 6b bd 2a 42 1b 3b bd d1 55 bd e8 ee ea 3e
       -0.05748377 0.002369056 -0.052201975 0.45885396
000370 55 7c a6 bd 21 5e 2c bf dd 75 14 bf a7 46 a6 be
       -0.08129183 -0.6733113 -0.57992345 -0.32475778
000380 3b 1a 97 3f b8 c6 cb 3e 76 fe a3 3e 8e 73 95 be
       1.180488 0.39800048 0.32030076 -0.29189724
000390 78 fb 2f bf c4 cf a5 3e 8e eb c9 be 8c e7 8d be
       -0.68743086 0.32385075 -0.39437526 -0.2771572
0003a0 c6 e9 09 3e da 53 11 3e 50 d0 8a be 71 c4 a1 be
       0.13468084 0.14192143 -0.27112055 -0.31595185
0003b0 4e c5 0c bf 25 e4 0e 3f d7 29 c3 be b5 5a 03 be
       -0.54988563 0.5581687 -0.3811786 -0.1282757
0003c0 c1 ec d3 bd db f3 0b 3e cd b3 d1 3d bd 63 17 3f
       -0.103478916 0.13667242 0.102393724 0.59136564
0003d0 10 e5 3a 3e 01 44 e2 bc 6d 89 a5 be 44 4e c5 3d
       0.18251443 -0.027620317 -0.3233141 0.096340686
0003e0 69 20 89 3d f2 d3 d8 bd d2 18 11 3f 73 13 22 3f
       0.06695635 -0.105873 0.566785 0.6331093
0003f0 9d 54 89 be c9 18 e0 3e ba 62 da 3d 94 a5 cd 3e
       -0.26822367 0.4376891 0.10663362 0.4016539

bias f4 [32]
000000 bd 93 a3 be 50 95 21 be 1f d7 a3 be f9 c5 ff 3d
       -0.31948653 -0.15779614 -0.32000062 0.12488932
000010 93 57 60 be 20 d0 70 bf db 69 17 3f c6 8a 8d 3e
       -0.21908407 -0.94067574 0.591459 0.27644938
000020 5f 04 c7 be 6d df f5 3e d8 06 3e be 60 f2 5a bf
       -0.38870522 0.48022023 -0.18557298 -0.85526085
000030 d4 78 b3 be 41 9b c0 be 48 bd 20 bd 4f fe 36 3f
       -0.35053122 -0.3761845 -0.039243013 0.71481794
000040 72 24 86 bf c3 c3 ce 3e cc 39 91 bd 8e d3 62 be
       -1.0479872 0.4038373 -0.07091102 -0.22151014
000050 23 c2 3b bf 58 88 69 3f 07 42 37 3f e1 29 73 bc
       -0.73343104 0.9122367 0.71585125 -0.014841528
000060 09 54 9a 3e cf 49 57 be af a5 54 3d 9a 62 d9 3c
       0.3014224 -0.2102425 0.05191582 0.026536275
000070 07 c7 5b bf 77 67 9b be d1 a0 31 3e 48 79 1d bd
       -0.85850567 -0.30352375 0.17346503 -0.03844574

weight f4 [32]
000000 65 ac 0c 3f e9 f7 61 3f ef 07 79 3f e9 2b e4 3e
       0.54950553 0.88268906 0.9727773 0.4456475
000010 d7 13 ab 3f bf f9 87 3f 71 16 25 3f 51 77 36 3f
       1.336543 1.0623091 0.6448737 0.7127581
000020 6e 61 88 3f b5 4e a0 3f 98 ec 20 3f e0 53 a4 3f
       1.0654733 1.252402 0.62861013 1.2838097
000030 16 52 9c 3f f7 7a 09 3f 02 43 c8 3f 32 b3 9d 3f
       1.2212551 0.53703254 1.5645449 1.2320311
000040 aa 5b ca 3f ae 7b 9f 3f 53 92 91 3f d5 cf 88 3f
       1.5809224 1.2459619 1.137278 1.0688425
000050 91 8c b0 3f c5 59 c7 3f f6 cb 9c 3f d3 20 9a 3f
       1.3792897 1.557427 1.2249744 1.2041267
000060 98 68 57 3f cc 32 aa 3f 11 55 c6 3f f7 91 8a 3f
       0.8414397 1.3296752 1.549471 1.0825795
000070 d7 2d e1 3f 95 a5 5d 3f f9 b0 8f 3f fd 20 d1 3f
       1.7592114 0.86580783 1.1225883 1.6338192

bias f4 [32]
000000 65 e1 49 3d be 67 08 3d cd 3d 7d be 70 bb 59 3e
       0.04928722 0.03330206 -0.24730606 0.21262908
000010 73 e2 f1 bd 0d 37 86 bf e6 c1 f5 be c4 f2 ee be
       -0.1181077 -1.048555 -0.47999495 -0.4666959
000020 f8 43 58 3e 33 7c 83 3d 54 3e ec be 3c 08 53 3e
       0.21119678 0.064201735 -0.46141303 0.2060861
000030 01 31 17 3e 98 00 db bd 13 55 82 bc b1 ac 85 3f
       0.14764787 -0.106934726 -0.015909707 1.0443326
000040 31 22 bb 3d 5b 78 75 be 59 ab a2 3e 28 fe b2 be
       0.09137381 -0.23971693 0.31771353 -0.3495953
000050 5d b3 d6 bd ac a6 b5 3e 35 12 37 3f 37 51 0c be
       -0.104834296 0.35478723 0.71512157 -0.13702856
000060 fb 48 18 be ee 54 c7 be 8e b7 39 3e ee 9d 60 bf
       -0.1487159 -0.38931984 0.18136427 -0.8774098
000070 85 d6 7a bf e6 a2 7a bf fe 1a c4 3e 64 9f bd be
       -0.9798358 -0.97904813 0.38301843 -0.37035668

running_mean f4 [32]
000000 7c d7 49 c0 90 a5 35 c0 29 82 b2 bf 36 c1 c2 c0
       -3.1537771 -2.8382301 -1.3945972 -6.0860853
000010 50 01 ad bf 8f cc ad 40 0b fb 37 40 49 7e 97 c0
       -1.3516026 5.4312205 2.8746974 -4.7341657
000020 bc fa 9a c0 33 96 0b 40 65 1a dc 3e 5d e3 ad bf
       -4.843107 2.1810424 0.42988887 -1.3585011
000030 5b 13 59 40 5a a3 f6 bd 2a 8b 31 40 b1 a4 3f c0
       3.3918064 -0.120428756 2.774119 -2.994427
000040 d2 5c be c0 b7 09 e3 3e 99 c5 a9 bf 67 ef 0a 40
       -5.9488306 0.4434335 -1.3263427 2.170862
000050 55 8c 02 c0 43 af 68 c0 2a 4d a1 c0 3d 51 15 bf
       -2.0398152 -3.6356971 -5.0406694 -0.58327085
000060 f7 d8 ad c0 23 bd fc be 68 39 cd c0 47 66 b0 40
       -5.432735 -0.4936305 -6.4132576 5.512485
000070 48 89 e6 3f 8c 17 0c 40 16 d0 10 c0 57 9f 83 3f
       1.8010645 2.1889372 -2.2627006 1.0283002

running_var f4 [32]
000000 9d 5f 37 42 4e 86 9a 41 fb 47 e5 41 7d 3f a6 41
       45.843372 19.315578 28.660147 20.781
000010 b6 0a 88 41 f0 be ad 41 61 af 59 41 a0 bc 28 41
       17.00523 21.718231 13.605317 10.546051
000020 54 52 cc 41 b0 07 ad 41 50 18 ce 41 48 7f e0 41
       25.5402 21.628754 25.761871 28.06215
000030 d0 2d f7 41 97 f8 cc 41 72 51 d7 41 e9 14 59 42
       30.89737 25.621382 26.914768 54.27042
000040 bd 5b 69 41 0e 9e f7 41 4a 91 f3 41 b9 55 9b 41
       14.584897 30.952175 30.445942 19.416857
000050 1e 45 a5 41 3e 36 ec 41 1f 26 d4 41 d7 65 6e 41
       20.658749 29.526485 26.518614 14.899863
000060 31 ea 83 41 30 60 e2 41 39 ed 98 41 f4 6f 75 41
       16.489351 28.296967 19.115831 15.339832
000070 8a 96 a1 41 31 90 f3 40 b5 5a de 41 c6 fe 9f 41
       20.198505 7.6113515 27.79429 19.999401

weight f4 [32, 32, 3]
000000 d5 0a 20 3f 41 18 e2 3e 76 63 a2 3e 14 e3 61 bf
       0.6251653 0.4415913 0.31716508 -0.8823712
000010 ee ca 12 3f f1 e6 e2 be de 86 3a bf 57 cc f3 3e
       0.57340896 -0.4431682 -0.7286204 0.47616836
000020 49 41 cd be b5 d0 61 3f f1 30 8a 3e 19 9a 56 bd
       -0.4008887 0.88209087 0.26990464 -0.052393053
000030 82 4c 16 3e b6 20 08 3f 8a ea bd 3e a9 68 c0 3d
       0.14677623 0.5317491 0.37093002 0.09394962
000040 63 c5 65 3f 42 e2 fc 3e a2 a7 6e be 7a 85 06 3f
       0.89754313 0.4939137 -0.23306134 0.5254742
000050 d7 1f 54 3e a8 b9 34 3f 29 6e 21 3f 6d 89 f2 3e
       0.20715271 0.7059579 0.63058716 0.47370473
000060 7d f1 4c bf 07 0e 10 bf 7f 32 8b bf 5f db 52 be
       -0.8005598 -0.56271404 -1.0874785 -0.20591496
000070 7e 9b 57 3e 8b 85 58 3e bb 1f a6 3e 44 a6 52 3d
       0.2105541 0.21144693 0.32446083 0.051428095
000080 fd c7 37 3e e8 5c 53 bf 48 4f 47 be 9a 18 eb bd
       0.17947383 -0.8256364 -0.19463837 -0.11479302
000090 4d 61 93 3e 24 48 33 be d0 7d 43 be e7 df 24 3f
       0.28785172 -0.17507988 -0.19090962 0.6440415
0000a0 df 8a f4 3e 14 ca 7e 3e 54 40 35 3f 9d 56 19 3f
       0.477622 0.24881774 0.7080128 0.59897786
0000b0 11 07 28 3e 22 49 dd bf ec 65 6f bf 67 31 ab bf
       0.16408946 -1.7287943 -0.93514895 -1.3374451
0000c0 0a de 44 3f 87 a3 20 3e 50 5f 60 be 03 49 9e be
       0.76901305 0.1568738 -0.21911359 -0.3091508
0000d0 bc 03 e5 3e 1f 59 78 be 70 90 9f bf 87 c9 5e bd
       0.44729412 -0.24252747 -1.2465954 -0.05439141
0000e0 10 c0 de be ab 38 45 bf 34 f9 ba be 85 09 0d bf
       -0.43505907 -0.77039593 -0.36518252 -0.5509265
0000f0 2e 8a 81 be 8f 29 8c bd 0a 44 07 3e 10 17 35 bf
       -0.25300735 -0.06843864 0.13209549 -0.70738316
000100 28 5f 7d bd 1c 8f 76 be 33 87 c6 be 89 bf 5b bf
       -0.061858326 -0.2407803 -0.38775024 -0.85839134
000110 7c b4 a1 bf 06 ef 25 bf 2a de bf 3e 48 e7 cc be
       -1.2633204 -0.64817846 0.37474185 -0.40020204
000120 a8 01 b4 3d 8e de eb 3d a9 ab a7 3b 4b c3 99 bf
       0.087893784 0.11517058 0.005116899 -1.2012724
000130 b2 76 38 3e f3 1e c2 3d 69 6d 5e 3c 64 7a ad 3e
       0.18014029 0.09478559 0.01357589 0.3388244
000140 48 1c 3d be 82 1a 89 be 02 7c 71 be 15 55 25 3d
       -0.1846782 -0.26778036 -0.23582461 0.040364344
000150 5f 18 3d be cf 2d cd be d9 7c 84 bf 47 d6 8d be
       -0.18466328 -0.40074012 -1.03506 -0.27702543
000160 d0 c3 bb bd 03 ba 15 bd cd 44 f8 be 78 70 bf 3e
       -0.09168208 -0.036554348 -0.4848999 0.37390494
000170 8e 2a 84 be 16 fc c9 3d 31 17 81 be b3 54 5a bf
       -0.25813717 0.09862535 -0.25213006 -0.8528549
000180 92 bf ae 3d 82 e2 ec 3d 9f 1b 56 3e c6 b4 be 3e
       0.08532633 0.115666404 0.20908974 0.37247294
000190 1d 8b d0 be 58 bf 9c be d0 0f 82 be 4b 1f 84 bf
       -0.40731135 -0.30614734 -0.2540269 -1.032205
0001a0 09 18 af be 4c 66 d1 be 91 ac 0e 3d 60 80 34 3d
       -0.34198025 -0.4089836 0.03483254 0.04406774
0001b0 2a 16 01 3f 3f ce af be 2e f6 9e be 6c 8a 27 bf
       0.50424445 -0.3433704 -0.31047195 -0.6544559
0001c0 70 5b 01 bf e3 33 9d 3e 79 eb ca be 51 74 00 bf
       -0.5053015 0.3070365 -0.39632776 -0.50177485
0001d0 11 b7 32 bf df b8 5d 3d 0b 18 4a 3d 8a ef ba bd
       -0.6981059 0.054131385 0.049339335 -0.0912772
0001e0 23 2e 2c 3e 5f 7d b0 be 20 47 50 be a8 ee 0c 3f
       0.16814475 -0.3447065 -0.20339632 0.5505166
0001f0 f6 08 19 3e 10 95 3b bf 5f 94 63 bf 27 c2 26 be
       0.14944825 -0.73274326 -0.8889827 -0.16285
000200 8f c0 90 3e 51 44 36 3f ac 27 d0 3d 37 2a 32 bf
       0.2827191 0.7119799 0.10163817 -0.69595665
000210 10 a9 c3 bf 0d a7 48 be bc a9 4a 3f a6 b9 30 3e
       -1.5285969 -0.19594975 0.79165244 0.1725832
000220 43 1f 48 3e a1 c9 c1 3d 95 03 65 bf d0 92 25 bd
       0.19543175 0.09462286 -0.8945859 -0.040423214
000230 e7 f8 11 3f e2 fe ef 3d 78 d6 19 bf 9b 99 c4 3d
       0.5702042 0.11718537 -0.6009288 0.095996104
000240 ff d6 0d bd 84 77 b1 bc 6b df 63 3e 30 0b a9 be
       -0.034628864 -0.021663435 0.22253196 -0.33016348
000250 18 fa 93 bf ff 7f b4 3e 7d de 24 3f 92 ba 3b be
       -1.1560698 0.35253903 0.6440199 -0.1833289
000260 b6 49 f3 be b5 42 c3 3e 79 95 83 be bb 20 ea bd
       -0.47517174 0.3813683 -0.25699976 -0.11432024
000270 ef 47 a8 3f 91 f6 e5 3e a2 83 fb be 24 fe 3b 3f
       1.3146952 0.44914678 -0.49123865 0.7343466
000280 25 e0 bd bc bd aa a2 bf d3 d3 59 bd d2 d9 1e bf
       -0.02317817 -1.2708355 -0.053180527 -0.6205112
000290 26 84 55 be c2 99 4c bd ac 2d 2f bf 50 1b 5d bf
       -0.20851192 -0.049951322 -0.68429065 -0.863698
0002a0 fe 1e 05 3f e8 3b 2b 3e 90 aa 7c be 4a 1a 38 3f
       0.52000415 0.16722071 -0.2467444 0.71915114
0002b0 d5 5f f9 be d9 9e 18 be 76 6b cc 3e 72 0a 85 be
       -0.48705927 -0.14904346 0.39925736 -0.25984532
0002c0 6e 2b a9 bf ee 68 8a be 9c fb bf 3e d0 ec 87 3d
       -1.3216379 -0.2703318 0.3749665 0.06636965
0002d0 af 57 d1 bf 5d 0d 50 bf 85 d7 85 3c 12 bb a5 bd
       -1.6354884 -0.8127039 0.01633812 -0.080923215
0002e0 7a f2 26 3d 63 07 3c be a2 32 0d bf d5 36 a7 bf
       0.040758587 -0.18362193 -0.55155385 -1.3063608
0002f0 7e 97 eb be 78 a0 2e bf 1e 2c 54 bf 77 f1 18 3f
       -0.46014017 -0.68213606 -0.8287982 0.59743446
000300 db ce 61 3c 2e 4e c2 3c 36 93 9b 3e 47 be ff be
       0.013782228 0.02371892 0.3038575 -0.49949858
000310 0c 74 15 bf ed ed 86 bc 25 2c c2 be 2c 51 e1 bd
       -0.583802 -0.016470874 -0.37924305 -0.110018104
000320 6a 4f 46 bb 62 c7 c0 3e e6 39 d6 3c 50 c0 4d 3e
       -0.0030259737 0.37652117 0.026150655 0.20092893
000330 8e 98 b0 be 01 ae a1 bd 5d 0a f9 3e 8d 3c bc be
       -0.3449139 -0.07894517 0.4864072 -0.36764947
000340 2c 15 b1 3d 3d 6b 00 bf 3b 9b 11 be cb c8 e5 3e
       0.08646616 -0.5016363 -0.14219372 0.44879755
000350 e7 1f 45 3e 94 30 0d 3e 58 6d cb bd 94 67 86 3e
       0.19250451 0.13788062 -0.09932965 0.262509
000360 ea 4a 38 be 1b e6 26 3d 33 6b cc 3e 78 ad ae be
       -0.17997327 0.04074679 0.39925537 -0.3411672
000370 aa 12 03 3f ad a4 60 3f ad 5f 16 3f 87 ed 94 be
       0.51200354 0.87751275 0.5873974 -0.2908747
000380 ef e8 84 3e a8 91 48 bd 1b e5 e8 3e e0 15 fb 3e
       0.25958964 -0.048967034 0.45487294 0.49040127
000390 2c e9 5c 3f c7 1d 79 be a8 fd 86 3e 72 66 73 3e
       0.8629329 -0.24327765 0.263654 0.23769549
0003a0 54 64 99 3c 3a 30 5a 3f 16 ce 02 3f 3c df d7 ba
       0.018724598 0.8522984 0.5109571 -0.0016469727
0003b0 12 6a 19 3f 54 68 bc bc 02 7a e6 3e 8e 9c 0c 3f
       0.59927475 -0.022998966 0.4501496 0.54926383
0003c0 76 00 1b 3e f8 67 5c be 9c 8b 40 3f 22 4b 21 3e
       0.15136895 -0.21524036 0.75213027 0.15751317
0003d0 fc bc 55 3e 64 1d 2e be 94 51 a1 bd 3c 71 1a 3f
       0.20872873 -0.17003399 -0.07876888 0.6032903
0003e0 49 70 d0 3e 01 c8 03 3f dd 91 dd 3e 7a 55 a8 3e
       0.40710667 0.51477057 0.43275347 0.32877713
0003f0 2e f9 b4 be eb bb 4e be 55 8b f4 be d0 24 98 3d
       -0.3534636 -0.20188873 -0.47762552 0.074288964

bias f4 [32]
000000 76 4b 42 be 23 26 fc 3d 28 59 94 be b2 27 23 3f
       -0.18974099 0.123119615 -0.2897427 0.63732445
000010 ac 23 c6 bd db 30 35 3e 05 3f 4c bf ff 95 08 be
       -0.096747726 0.17694418 -0.7978366 -0.13338469
000020 1f 0f 41 3b dd fb de 3e 6b 23 1b bd ec d5 3e 3e
       0.0029458476 0.4355153 -0.037875574 0.18636292
000030 20 69 70 3e dd bc 34 3e 68 5a 25 3e cc 24 17 3e
       0.23477602 0.1765017 0.16147768 0.1476013
000040 89 49 1e 3e 8a 6f a4 be 20 a9 cb bc 00 e9 cc 3e
       0.15457739 -0.32116348 -0.024860919 0.40021515
000050 99 c0 ef be 02 1d 08 bf a6 23 60 3e e6 4a 04 bc
       -0.46826628 -0.5316926 0.21888599 -0.008074498
000060 f2 86 75 bd 83 8a 1b 3f ef f9 78 3e c6 71 b9 3e
       -0.059943147 0.6075823 0.24314092 0.36219615
000070 d7 f9 e0 bd 2b 5c 3b bf c2 7e a9 3d db 73 18 be
       -0.10985153 -0.7318751 0.0827613 -0.14887945

weight f4 [32]
000000 12 4e 83 3f 2c 02 24 3f a4 b3 4a 3f cb 4b 48 3f
       1.02582 0.64065814 0.7918036 0.7824065
000010 e3 ed a9 3f fc 34 23 3f 15 2f 84 3f 08 12 cc 3f
       1.3275722 0.6375272 1.0326868 1.5943003
000020 bc 1b 68 3f d6 82 d3 3f ce 33 7e 3f 67 97 a8 3f
       0.9066732 1.6524303 0.992978 1.3171204
000030 f6 39 88 3f bc 7a 79 3f 4d 78 79 3f b4 7e 5b 3f
       1.0642688 0.974529 0.9744919 0.8574021
000040 4e 7f 8f 3f ac 87 46 3f 34 40 7d 3f d4 cd 61 3f
       1.1210725 0.7755077 0.9892609 0.88204694
000050 04 62 81 3f 51 6c 8b 3f 1c cd b6 3f 37 13 11 3f
       1.0108037 1.089243 1.4281344 0.56669945
000060 48 20 61 3f 58 17 a1 3f 1a 46 c0 3f 18 b2 92 3f
       0.8793988 1.2585249 1.5021393 1.14606
000070 84 c1 47 3f 09 c8 67 3f 8c c1 b4 3f 2b d3 c6 3f
       0.78029656 0.90539604 1.4121566 1.5533193

bias f4 [32]
000000 cc 9e 13 3f bb bd aa bc 1f 76 93 bf 37 7d 0e 3f
       0.5766418 -0.020842424 -1.1520423 0.5565981
000010 33 8d b5 3e 0a ee fa be 05 46 75 bf cb 91 6d 3f
       0.3545929 -0.49009734 -0.95809966 0.9280059
000020 1a 30 46 be 62 48 b0 be a7 fd 9f 3f 2b 21 35 bf
       -0.19354287 -0.34430224 1.2499284 -0.70753735
000030 c8 3e e5 3e d1 45 a7 bd b2 13 5f 3f cd e6 07 bf
       0.4477446 -0.08167613 0.8713943 -0.5308655
000040 ed c2 3a bf 33 db 11 bf 10 1d 63 bf 82 38 cd be
       -0.72953683 -0.56975096 -0.8871622 -0.40082175
000050 dd 78 36 bd 68 cc 32 bf 53 2f 80 be 13 f7 a8 bf
       -0.044548858 -0.6984315 -0.25036106 -1.3200401
000060 a0 a1 91 bf 1e 73 2c be d1 0c 86 3f 32 21 83 3e
       -1.1377449 -0.16840789 1.0472661 0.25611264
000070 ec 06 c3 3c f7 11 69 bf 4d a6 d1 be 79 ea b5 be
       0.023807012 -0.9104304 -0.4094719 -0.3553045

running_mean f4 [32]
000000 89 ed 41 c1 0e 6e 0d c1 e8 79 23 41 71 16 ad c0
       -12.120492 -8.839369 10.217262 -5.4089894
000010 a5 9b de c0 67 7d 2a c0 54 45 00 41 15 04 c8 c0
       -6.9564996 -2.663904 8.016926 -6.2504983
000020 63 07 91 c1 a3 d6 fb 3f ed 52 13 c1 8a 07 d0 be
       -18.128607 1.9674877 -9.207746 -0.40630752
000030 c4 a0 18 c1 97 26 1e c1 f4 d3 db c0 ed 61 75 41
       -9.539249 -9.884421 -6.869623 15.336408
000040 73 76 35 3f 00 f2 62 c1 b9 2c 95 40 42 ed a5 3f
       0.70883864 -14.184082 4.6617093 1.296303
000050 7a b1 6a 40 47 ad c1 bf d2 5c a4 40 aa b3 fc 3f
       3.6670823 -1.5131005 5.1363306 1.9742329
000060 94 e9 3b 40 70 34 4b 40 9f d1 39 c1 b4 2c 7e c0
       2.9361315 3.1750755 -11.613677 -3.9714785
000070 a9 6c d3 40 11 59 b5 40 3f 7c 77 c1 7d 5b 7a 40
       6.607014 5.6671224 -15.4678335 3.911834

running_var f4 [32]
000000 56 92 5e 42 cb 89 45 43 e5 ef 3f 42 09 1f 7b 42
       55.642906 197.53825 47.984272 62.780308
000010 05 4e 2b 43 db cf c2 42 ed 32 7b 42 86 e4 94 42
       171.30476 97.40597 62.799732 74.446335
000020 35 14 31 43 44 db 80 42 82 85 70 43 fc fc 82 42
       177.07893 64.42825 240.52151 65.49411
000030 2f f6 3f 43 08 80 3a 43 45 09 29 43 22 92 9a 42
       191.96165 186.50012 169.03621 77.285416
000040 18 9c 74 42 03 bd c3 42 26 b7 63 42 05 01 b2 42
       61.152435 97.86916 56.928856 89.00199
000050 85 8a a2 42 1f e6 b2 42 aa f0 91 42 f3 ae b4 42
       81.270546 89.449455 72.97005 90.3417
000060 e6 ac c9 42 68 ee 67 42 9f 7b 50 43 99 b2 6c 42
       100.83769 57.98282 208.4829 59.17441
000070 a8 78 ee 42 eb 0a 7e 42 5c e2 c9 42 4f 22 ac 42
       119.23566 63.510662 100.94211 86.06701

weight f4 [64, 32, 3]
000000 ac 2c 35 bf 56 d7 42 bf da 3e b6 bf c5 3c 09 3f
       -0.7077129 -0.76109827 -1.4237931 0.5360835
000010 42 c2 93 3d 3a 94 3c 3f 42 d8 22 3f 23 42 63 3f
       0.07214786 0.73663676 0.63611233 0.8877279
000020 b4 e3 03 bf db 50 6a bf 9c 49 a1 bf 4b da 49 bf
       -0.5151932 -0.91529626 -1.2600589 -0.78848714
000030 7a 54 83 bf 48 e8 77 bf d9 af 68 be ff f5 61 be
       -1.0260155 -0.9683881 -0.2272333 -0.22066496
000040 be 67 f9 be 15 9e b8 be 5a d6 9c be 4e dc f1 3e
       -0.48711962 -0.36058107 -0.30632287 0.47238392
000050 3d 06 5f be cc 69 bd bf df bd d9 be 31 d1 bb bf
       -0.21779723 -1.4797912 -0.42527673 -1.4673215
000060 63 d3 f0 bd c6 59 da be 8b 74 09 be 30 0a a1 3d
       -0.11759069 -0.42646617 -0.13423364 0.07863271
000070 f1 fa 26 bf b3 c6 69 be ed 58 56 be 4e f1 a9 bb
       -0.65226656 -0.22829704 -0.2093236 -0.0051862365
000080 67 72 17 3f bc 83 5a 3f a7 55 d6 be d6 9c fe be
       0.5915894 0.8535726 -0.41862223 -0.4972903
000090 d5 c3 7e bd 05 ac 09 bf 1b 69 27 3e c6 c8 86 bf
       -0.06219848 -0.53778106 0.16348688 -1.0530021
0000a0 9e 86 ff be fe 86 f9 3e 59 b3 0f bf 39 e7 a7 3e
       -0.49907392 0.48735803 -0.5613304 0.32793596
0000b0 48 1f 67 be ab 0f 1f 3f 01 12 42 3f ac f4 8a 3d
       -0.22570527 0.6213328 0.7580872 0.06784949
0000c0 ac 31 2b 3f eb d1 25 bf f3 f0 00 bf 62 cc f8 be
       0.6687267 -0.64773434 -0.5036766 -0.48593432
0000d0 2f 83 a9 bd cf ee a4 3e 90 7b 2b 3e 89 b0 94 be
       -0.082769744 0.32213446 0.16746354 -0.29040936
0000e0 1f f4 02 3f 91 ab bd 3d 42 d5 9d be d7 33 59 bf
       0.5115375 0.09261239 -0.30826765 -0.84844726
0000f0 5b 00 22 be 11 64 b4 be 8e 12 9c 3e d8 56 0a 3f
       -0.15820448 -0.35232595 0.30482906 0.54038763
000100 1a 26 57 bf 88 94 12 bf 16 8f d1 be 18 b9 7b 3e
       -0.84042513 -0.5725789 -0.40929478 0.24582326
000110 fd a9 06 bf 44 bd 44 be 56 5f 24 bd 7e 2e 73 be
       -0.5260313 -0.19212824 -0.040129982 -0.23748204
000120 a8 e8 8c 3d 75 bf 90 bd 93 19 bc be 26 eb 72 3f
       0.06880313 -0.070677675 -0.36738262 0.9489006
000130 8a 39 5b 3e 14 8e 13 3f ab d5 73 bf a6 ee 9c 3e
       0.21408668 0.5763867 -0.95247906 0.30650824
000140 af 3f 58 3f e3 cc 35 be 99 7c fe 3d 9a b6 ad bd
       0.84472173 -0.1775394 0.12426109 -0.08482094
000150 5f c0 5a 3f de f6 08 bf 1a d7 20 bf 4f 6b 45 be
       0.85449785 -0.5350169 -0.6282822 -0.19279216
000160 76 bb 6d 3d df 39 54 3f f3 42 c7 bf 71 7e ae 3e
       0.058040105 0.82900804 -1.5567306 0.34080842
000170 bb fe 8b 3f b6 c0 07 3e 42 5d e4 be 76 6a 16 bf
       1.0937113 0.13257107 -0.446024 -0.58756196
000180 92 51 30 bf 29 ee 24 bd a8 cc 70 bf e8 52 2a 3e
       -0.68874466 -0.04026619 -0.9406228 0.16633189
000190 b2 fa 16 3e d1 54 83 3e 83 24 e6 3d 02 3b 4c 3e
       0.1474407 0.25650647 0.11237433 0.19944385
0001a0 63 5b 30 bf 36 37 3a bf 32 2d a6 be 1c be 82 be
       -0.68889445 -0.72740495 -0.32456356 -0.25535667
0001b0 26 86 41 bf af 88 8f be 89 37 84 bd 60 24 9b 3e
       -0.7559532 -0.2803397 -0.06455905 0.3030119
0001c0 0a a9 02 bf e3 c7 e3 3e 6e 19 0b 3e 92 80 32 bd
       -0.51039183 0.4448844 0.1358392 -0.043579645
0001d0 0e be 30 bf 08 73 12 3f b8 34 92 be f1 fa 1b bf
       -0.6904 0.57206774 -0.28555846 -0.6092978
0001e0 8b a0 13 be cb ac 24 be c4 39 53 3c 35 34 67 be
       -0.14416711 -0.1608154 0.01289219 -0.22578509
0001f0 54 75 2f bd a5 15 18 bf b1 c3 57 be e1 f8 42 3e
       -0.042836502 -0.59408027 -0.21070744 0.19040252
000200 4a 31 18 3f f3 8d d0 3f 4e 3a 41 bd f0 30 96 bf
       0.5945021 1.629332 -0.047174744 -1.1733685
000210 7f d8 76 bd 0b e5 bc 3c 1e c2 f7 3d 3b 75 51 bf
       -0.06026506 0.023058435 0.12097572 -0.81819504
000220 f2 6c 9a be c9 33 cf be 45 84 34 bd 50 ee 0b 3e
       -0.30161244 -0.40469196 -0.044071455 0.13665128
000230 6b fd b3 bd f5 bc 13 be 0e 0c 0d 3d 32 1f 4f be
       -0.0878857 -0.1442755 0.034435324 -0.20226744
000240 33 9e cf 3f 23 b7 03 bf c3 f5 84 bf 4f 37 3e be
       1.6220154 -0.5145132 -1.03875 -0.18575786
000250 04 1f df 3d 5b dc 8d 3e f9 e3 5e be d6 1f 6d be
       0.10894588 0.2770718 -0.21766652 -0.23156676
000260 a3 00 11 be 0d 53 8d 3f 50 89 94 be 69 31 5e bf
       -0.14160399 1.104097 -0.2901101 -0.86794144
000270 94 61 3f 3e a1 50 95 bd c5 01 37 bd f7 56 8d be
       0.18689567 -0.07290769 -0.044679422 -0.2760541
000280 e7 78 b2 be 50 4d 88 3e 6e 71 3d be e5 b7 ce be
       -0.34857866 0.26621485 -0.18500301 -0.40374675
000290 92 f4 1b bf 10 4f 22 3e 49 66 c2 be 21 37 06 bf
       -0.6092006 0.15850472 -0.37968662 -0.5242787
0002a0 43 ad 1b 3e e2 5d d4 be f6 36 99 be 71 2f 90 3f
       0.15202813 -0.41477877 -0.29924744 1.1264478
0002b0 d4 b9 13 3f f3 af 8e 3e c8 22 9b bd d3 7e cf 3d
       0.57705426 0.27868614 -0.07574993 0.10131612
0002c0 4d 4c 7b 3f db b4 60 be da 89 36 3e 0e eb a4 3e
       0.981633 -0.21943991 0.17826024 0.32210582
0002d0 60 55 b7 be 12 9a 42 be 8b 45 60 be e4 60 d2 bd
       -0.35807323 -0.19004086 -0.21901529 -0.10272387
0002e0 06 88 f7 bd 1f 5b 1a 3e e5 62 de bd 16 aa cd be
       -0.12086491 0.15073822 -0.108587064 -0.40168828
0002f0 06 31 c6 3e e8 39 c1 3d e5 a5 8b be 74 07 73 3e
       0.38709277 0.09434873 -0.27275005 0.23733312
000300 ef 33 87 3f d3 f0 4c 3f 6c 11 cd 3e f2 42 8d bf
       1.0562724 0.8005497 0.40052354 -1.1036055
000310 1a 6a b6 be 4f d7 66 bf 40 a8 ea 3e 69 ba dc bd
       -0.35627824 -0.90172285 0.4583149 -0.107777424
000320 3c cb f2 be 69 58 10 bf 23 77 c4 be c4 64 16 3f
       -0.4742068 -0.56384903 -0.38372144 0.58747506
000330 08 67 b5 be b7 cb ea be 5c 6f 87 bf b8 f1 7b be
       -0.3543017 -0.45858547 -1.0580859 -0.24603927
000340 ed 84 ff be b5 c1 84 be 75 6e 31 be 2d bb 0a be
       -0.49906102 -0.25929037 -0.17327292 -0.13547964
000350 e5 7e 04 be 7d 50 30 3e f1 f4 07 bd 21 72 7c 3e
       -0.12939031 0.17218204 -0.03319258 0.24652912
000360 ca 26 43 3f e8 54 11 3f 97 9d 67 be c0 27 10 3e
       0.7623106 0.5677018 -0.2261871 0.14077663
000370 46 39 9e be 53 28 77 be ae ac 98 bf 38 48 de bd
       -0.3090307 -0.24136476 -1.1927698 -0.108536184
000380 01 57 b3 bf 94 35 1c 3f 83 cd 6c 3e e8 f0 b5 be
       -1.4010926 0.61019254 0.23125271 -0.3553536
000390 14 68 40 3c 82 62 5e 3e be 91 d8 bd 12 f6 b0 3d
       0.011743564 0.21717265 -0.10574673 0.08640684
0003a0 d2 cf bd 3e da a7 ed be b5 36 b1 bf 80 d9 e1 be
       0.37072617 -0.46417123 -1.384482 -0.44111252
0003b0 d8 35 b9 be 9f b5 b5 bc 24 19 eb bd cc 30 e8 be
       -0.36173892 -0.02218133 -0.114794046 -0.4534973
0003c0 62 1a 16 3f fb 62 68 3e 04 a6 47 be ff 11 24 3f
       0.58634007 0.22694008 -0.19496924 0.6408996
0003d0 e4 29 43 3e ab fb 90 be c2 26 c6 3c dc 83 f0 be
       0.19058949 -0.28317007 0.024188403 -0.469756
0003e0 21 7b cb bd 2f a3 36 3e db 6c bf bc c4 7c b6 be
       -0.09935594 0.17835687 -0.023367336 -0.35642064
0003f0 f5 da 49 3e 14 bc 0e bf 2b 9a 3c be 0a ce df 3e
       0.19712432 -0.55755734 -0.18418185 0.43711883
