unet/checkpoints/one_loss/epoch_59.pth (torch, 508787 bytes, 85 tensors)

weight f4 [8, 1, 3]
0.88848275 0.114841394 2.8154027 0.5523899 -3.3591034 -0.542539 -1.1709388 1.615666
0.7481576 -3.690347 -0.30544293 0.7637708 0.78856164 -2.4499776 -0.21201748 0.83484954
3.5832534 -0.33776367 -1.3970464 0.7145475 -1.8361464 2.7891402 -0.045305245 -0.981758
00000000: 9b73 633f f731 eb3d 8f2f 3440 6d69 0d3f
00000010: 8dfb 56c0 d6e3 0abf 53e1 95bf 25ce ce3f
00000020: 4287 3f3f a52e 6cc0 0463 9cbe 7c86 433f
00000030: 2ddf 493f 6fcc 1cc0 1c1b 59be b3b8 553f
00000040: 0654 6540 5cef acbe 6bd2 b2bf 96ec 363f
00000050: d806 ebbf 4681 3240 fe91 39bd 7e54 7bbf

bias f4 [8]
0.17135167 0.022115758 0.29296535 0.47569954 -0.20440397 0.15354465 -0.3457163 0.11569793
00000000: d076 2f3e 1b2c b53c 8eff 953e e48e f33e
00000010: 464f 51be cf3a 1d3e ba01 b1be 09f3 ec3d

weight f4 [8]
1.2235893 1.8037858 1.8792124 1.8978789 0.27931416 2.730066 1.0222636 2.0898333
00000000: 939e 9c3f 74e2 e63f 088a f03f b2ed f23f
00000010: 4402 8f3e 67b9 2e40 89d9 823f d4bf 0540

bias f4 [8]
-1.5981096 0.3045024 1.4969903 1.897659 1.4595704 -0.15516526 -0.46366164 -0.095065445
00000000: db8e ccbf bde7 9b3e 619d bf3f 7de6 f23f
00000010: 34d3 ba3f a4e3 1ebe 0f65 edbe acb1 c2bd

running_mean f4 [8]
0.22001858 0.003242776 0.3125496 0.5159766 -0.21467891 0.14576858 -0.37227163 0.0751558
00000000: 8d4c 613e c184 543b 8006 a03e 0b17 043f
00000010: cad4 5bbe 5c44 153e 639a bebe 49eb 993d

running_var f4 [8]
778013.9 653855.4 113328.2 636456.0 226245.81 945642.06 348759.34 245174.86
00000000: def1 3d49 f6a1 1f49 1a58 dd47 8062 1b49
00000010: 74f1 5c48 a1de 6649 eb4a aa48 b76d 6f48

weight f4 [16, 8, 3]
0.60930794 -1.1523846 -3.263602 1.3495249 1.0270672 -1.0800701 -1.1715986 0.9766628
0.8108456 1.6215827 3.085196 0.6000115 1.5172117 0.95505536 -1.5912868 -2.4246225
-1.3290552 -0.040273055 0.648574 -1.146981 0.99615014 0.74111164 -0.653636 -0.5831764
0.77009976 1.3050252 -0.22078462 0.24157417 0.95032936 -0.6783256 1.2144411 0.71665424
0.5528473 -1.7250952 0.18476239 0.73320526 0.22667235 0.7940819 -0.7323019 3.702375
1.8957224 1.678796 0.39464906 -0.36873773 0.4579917 -0.053304005 2.0232956 0.7496483
-1.743773 0.39682305 -1.8171424 0.13033721 0.7984193 -0.041348975 -0.8196854 -1.3637637
0.72626966 -3.2147784 0.122421786 0.7922269 0.749788 0.99934775 -0.3152091 0.7918984
-1.3756629 -0.096738756 -1.0247594 0.20789705 1.4173706 1.3643893 0.0656347 -2.1486204
2.7564244 0.8455073 0.09762899 2.3199775 2.6072996 0.60270464 -0.15174103 0.124672025
-1.3559558 0.7305613 2.479513 0.77322054 0.9789872 1.5446066 0.097619005 -1.1828986
0.40459466 -2.2464573 0.08437689 1.5129479 -0.12257017 -0.4494933 -1.3654132 1.0147678
1.7852459 -1.598846 -1.6084487 -0.9876145 -1.9019614 -0.8844573 -0.38652366 -1.3548571
-1.9114976 -1.5332881 -0.7111159 -0.31549045 0.0147676505 -0.6494434 -0.23488943 1.3970478
0.23480405 -1.1100203 -0.097801514 -1.7638761 -1.1391056 2.0928123 1.1350468 0.20245554
1.832857 -0.37361783 -1.6716319 2.435056 1.4912702 2.5718555 0.060228277 -0.58889425
-1.3134886 0.31845355 1.8017796 0.8575282 1.6445643 0.8567156 1.5142857 -0.5234748
0.14658429 -1.2217932 -0.104761094 1.3587462 0.05519258 0.99181837 0.6385426 0.87453884
1.0233421 0.027557421 1.5721276 -3.0951638 0.8396623 0.10600344 -2.0089684 -0.6339305
0.093167126 -1.3518357 -2.106694 0.44899422 -2.2011864 0.48416102 0.28398934 -0.09955975
-0.38927537 -0.115684584 0.34424877 1.1938258 -1.4291089 0.68597955 -1.8567758 -1.3275034
1.234332 0.8071592 0.42893785 0.29145032 -2.1644511 0.38384837 -0.50828964 1.4918492
-2.7292008 -0.3118791 1.0139599 -1.0577166 0.55379665 -1.9101729 -0.37311524 1.7157974
1.343668 -0.34035292 -2.3128793 1.0919312 0.5334594 0.4799902 1.183113 0.19183579
1.2262092 -1.9979602 1.3506202 -0.4911509 0.67809165 0.4114554 -0.93177396 -3.243195
-0.058041364 -2.4087796 -0.11280462 0.17680576 -0.20994966 0.3603673 1.3608655 -0.19791743
-0.6077895 -3.5516982 -1.2443612 -1.1466593 0.615184 1.2675124 -0.21508999 0.39843804
-2.3201098 -0.5862339 -0.48217857 0.0132364435 -0.17732379 2.6955168 -0.5741675 -0.43470582
-2.0655892 -2.0060937 0.49656114 -0.6882609 0.25165242 0.27659363 3.0759172 -0.12896344
-1.4121742 -2.2558613 -1.6546453 1.2653459 -0.18141583 1.2282871 0.23866603 0.021964757
0.09556316 0.29539642 -0.22036701 1.932822 1.8341297 1.9951131 -0.055809777 -0.41030094
-0.48050055 0.5061067 1.680704 1.468982 1.4965115 0.8343177 1.4714772 -0.2282889
00000000: 9bfb 1b3f 5781 93bf dbde 50c0 3bbd ac3f
00000010: f076 833f bd3f 8abf f1f6 95bf 9306 7a3f
00000020: 9493 4f3f 0690 cf3f da73 4540 5b9a 193f
00000030: fe33 c23f 827e 743f 49af cbbf 042d 1bc0
00000040: 7b1e aabf 5cf5 24bd f208 263f 46d0 92bf
00000050: b203 7f3f 7eb9 3d3f b054 27bf 0c4b 15bf
00000060: 4225 453f 110b a73f 5d15 62be 385f 773e
00000070: c948 733f bfa6 2dbf ce72 9b3f a776 373f
00000080: 6787 0d3f ebcf dcbf 5a32 3d3e 57b3 3b3f
00000090: cc1c 683e f448 4b3f 2378 3bbf b6f3 6c40
000000a0: 08a7 f23f cae2 d63f 710f ca3e 31cb bcbe
000000b0: e37d ea3e 4d55 5abd ad7d 0140 f3e8 3f3f
000000c0: f433 dfbf 642c cb3e 1f98 e8bf 1e77 053e
000000d0: 3565 4c3f 8b5d 29bd e7d6 51bf cf8f aebf
000000e0: cfec 393f eebe 4dc0 46b8 fa3d 62cf 4a3f
000000f0: 1bf2 3f3f 41d5 7f3f 1663 a1be dbb9 4a3f
00000100: b915 b0bf f81e c6bd 512b 83bf f7e2 543e
00000110: 666c b53f 4fa4 ae3f 7c6b 863d ff82 09c0
00000120: 4269 3040 2b73 583f b5f1 c73d 837a 1440
00000130: ffdd 2640 da4a 1a3f 0062 1bbe 0c54 ff3d
00000140: f68f adbf 1106 3b3f 57b0 1e40 c8f1 453f
00000150: e89e 7a3f abb5 c53f 79ec c73d 3969 97bf
00000160: 0827 cf3e f5c5 0fc0 cacd ac3d 47a8 c13f
00000170: 1206 fbbd fc23 e6be dcc5 aebf e9e3 813f
00000180: f082 e43f fca6 ccbf a6e1 cdbf 4ed4 7cbf
00000190: 7973 f3bf cb6b 62bf 6ee6 c5be f56b adbf
000001a0: f4ab f4bf c942 c4bf b10b 36bf f787 a1be
000001b0: 04f4 713c ec41 26bf db86 70be 76d2 b23f
000001c0: 7970 703e 2515 8ebf 294c c8bd b1c6 e1bf
000001d0: 36ce 91bf a3f0 0540 3749 913f 8150 4f3e
000001e0: 0f9b ea3f d64a bfbe 09f8 d5bf f5d7 1b40
000001f0: f1e1 be3f 4899 2440 edb1 763d c6c1 16bf
00000200: 6520 a8bf 580c a33e b7a0 e63f f886 5b3f
00000210: 1581 d23f b751 5b3f 1dd4 c13f 7202 06bf
00000220: 311a 163e b863 9cbf fc8c d6bd 65eb ad3f
00000230: 9d11 623d cfe7 7d3f 8777 233f c7e1 5f3f
00000240: e0fc 823f 1ac0 e13c 7a3b c93f 2a17 46c0
00000250: 1cf4 563f 5518 d93d f092 00c0 4549 22bf
00000260: 68ce be3d f408 adbf 13d4 06c0 92e2 e53e
00000270: 3de0 0cc0 f4e3 f73e 0d67 913e fbe5 cbbd
00000280: 1a4f c7be 0aec ecbd 6041 b03e 49cf 983f
00000290: 0aed b6bf 5b9c 2f3f d4aa edbf a2eb a9bf
000002a0: 97fe 9d3f fca1 4e3f be9d db3e fa38 953e
000002b0: 5e86 0ac0 c687 c43e 451f 02bf eaf4 be3f
000002c0: 3aab 2ec0 9eae 9fbe 70c9 813f 4263 87bf
000002d0: 9ec5 0d3f 8c80 f4bf f608 bfbe 409f db3f
000002e0: 50fd ab3f bd42 aebe 3706 14c0 67c4 8b3f
000002f0: cc90 083f 47c1 f53e 3f70 973f 9a70 443e
00000300: 6cf4 9c3f 29bd ffbf 1fe1 ac3f 2178 fbbe
00000310: 6a97 2d3f 48aa d23e bd88 6ebf 8290 4fc0
00000320: c8bc 6dbd 7229 1ac0 1c06 e7bd 920c 353e
00000330: 0bfd 56be 1082 b83e d730 ae3f deaa 4abe
00000340: 1898 1bbf 064f 63c0 3a47 9fbf bbc5 92bf
00000350: b37c 1d3f d93d a23f 8d40 5cbe 1200 cc3e
00000360: ae7c 14c0 6d13 16bf 1ce0 f6be abdd 583c
00000370: 5e94 35be 5983 2c40 a4fc 12bf c391 debe
00000380: 9d32 04c0 d763 00c0 433d fe3e de31 30bf
00000390: 96d8 803e ae9d 8d3e d4db 4440 fe0e 04be
000003a0: 20c2 b4bf 0860 10c0 6bcb d3bf dbf6 a13f
000003b0: 12c5 39be 8338 9d3f de64 743e 6fef b33c
000003c0: 9eb6 c33d 333e 973e e4a7 61be b666 f73f
000003d0: c3c4 ea3f de5f ff3f cb98 64bd f712 d2be
000003e0: 2b04 f6be 3590 013f 4f21 d73f 9a07 bc3f
000003f0: b08d bf3f d895 553f 5d59 bc3f 91c4 69be

bias f4 [16]
-0.8613591 1.4452856 0.4311118 0.23866464 0.94475347 0.807928 0.6194016 -0.47412255
-0.09441549 -0.33875296 0.27877167 -0.13338217 0.40401116 2.40411 2.5152373 1.5571338
00000000: 0882 5cbf 1eff b83f b0ba dc3e 8164 743e
00000010: 5ddb 713f 5fd4 4e3f 1a91 1e3f 31c0 f2be
00000020: e95c c1bd 0771 adbe 29bb 8e3e 5695 08be
00000030: 8dda ce3e f0dc 1940 a6f9 2040 2950 c73f

weight f4 [16]
1.3804017 1.7822382 1.2393715 1.5749859 1.6714776 1.0616745 0.65976065 0.835002
1.1471167 1.1838259 0.97099954 1.7024169 1.7214981 1.9851395 1.4078135 1.5118697
00000000: 01b1 b03f 6220 e43f baa3 9e3f 2399 c93f
00000010: faf2 d53f f3e4 873f 13e6 283f b1c2 553f
00000020: b8d4 923f 9b87 973f 6d93 783f cce8 d93f
00000030: 0d5a dc3f 0d19 fe3f 3c33 b43f f284 c13f

bias f4 [16]
1.2981827 -1.2607855 0.43360615 0.27513123 0.69428176 0.1676525 0.49922654 2.0597367
3.4392421 0.8699829 -0.12913215 -0.3010652 -0.32630053 0.6741223 0.52213126 0.9027061
00000000: da2a a63f 6b61 a1bf a001 de3e 00de 8c3e
00000010: 73bc 313f 19ad 2b3e 9f9a ff3e bad2 0340
00000020: 8b1c 5c40 33b7 5e3f 383b 04be 3825 9abe
00000030: dd10 a7be 4793 2c3f 65aa 053f bf17 673f

running_mean f4 [16]
9.328833 13.614994 -5.2084713 11.80877 -12.537556 15.585658 -15.7689 -4.0134335
-12.662076 -5.5827527 15.055864 11.347152 2.5990465 9.114626 -3.1515508 6.643516
00000000: e642 1541 04d7 5941 ccab a6c0 b9f0 3c41
00000010: d499 48c1 db5e 7941 6a4d 7cc1 0c6e 80c0
00000020: dd97 4ac1 e9a5 b2c0 d2e4 7041 ef8d 3541
00000030: c756 2640 82d5 1141 02b3 49c0 af97 d440

running_var f4 [16]
241.453 315.10718 57.91013 300.77338 99.059654 211.38904 40.307163 71.60516
111.77883 111.40536 246.35492 121.98541 400.4481 115.46815 44.525272 445.40356
00000000: f873 7143 b88d 9d43 f9a3 6742 fe62 9643
00000010: 8b1e c642 9863 5343 893a 2142 d835 8f42
00000020: c38e df42 8bcf de42 dc5a 7643 88f8 f342
00000030: 5b39 c843 b1ef e642 e119 3242 a8b3 de43

weight f4 [16, 16, 3]
-2.5648727 0.3551787 0.109281965 1.5502753 1.0483271 -0.92955035 -2.0735853 -1.5739021
-1.0622748 -0.29639202 0.056998786 -0.00783766 0.013354245 0.8804194 1.2737443 -0.100018814
-1.0934819 -0.33994395 -0.4558233 -0.41514084 0.76934636 0.22328795 0.49258256 -1.1657373
-0.6552042 0.5884461 2.7074714 -0.017218055 0.12256795 0.3278299 -0.15201573 -0.8058746
-0.44804332 -0.6991436 -0.70447445 -2.278865 1.7785348 1.4978256 -0.49272758 -0.7165141
-1.5663079 -2.7647078 -1.6388013 0.08989795 -0.9012223 -0.116766825 0.88665754 0.6868602
-2.4693966 0.2488867 0.9231525 -1.6057014 -0.62077546 0.39364916 -1.3941485 0.57287854
-0.6312532 -0.4434771 0.5440981 1.0081626 3.2523496 0.32998848 -0.43812877 -0.0007175934
0.5367624 0.5531227 -0.2054708 0.47953302 0.21215019 -0.43107232 -1.4536784 -1.9791986
-0.99561316 0.8534884 -1.3543273 -0.56549567 1.1619235 -2.3257246 -0.060192678 0.6578775
0.5767533 -1.1104535 0.9685355 -1.078023 1.0929464 -0.02517833 -0.37228447 -4.3224277
-1.0084937 -0.7607921 -3.2366066 -0.2958808 -2.2775908 -0.5926718 1.3336554 0.41270006
-1.5686716 -2.5593011 -0.97923577 3.3992946 0.71363145 -1.5187576 -1.4727238 0.66642636
-0.7042763 -1.210312 -1.456945 -0.6855399 0.32407996 0.26540878 1.3362062 -0.06253662
-1.2367501 -0.07947108 -1.8683821 1.3138145 0.1335266 0.7457833 0.83030623 0.7142356
-1.928214 0.54542017 1.139374 -2.156664 -1.6819549 0.45800644 0.15189448 -0.67785436
0.17187901 -0.9194982 0.83003646 -2.0359354 2.3877072 1.4907283 -1.033558 0.23951305
-0.15322523 -0.6241892 0.3727052 0.3911723 -0.6092673 -1.4263446 -1.6302794 -1.0745713
-0.27419686 -0.29969856 0.8447422 -1.5080465 0.5954779 0.99320024 0.28819153 -0.57652485
-2.438502 -0.4908777 0.3861978 0.30794087 0.45498332 0.5863653 -0.77878827 -0.28768662
1.0544941 0.42556405 1.0908588 -0.8088589 -0.74500495 -0.4946438 -0.8801114 -0.033369713
1.5320344 0.79205024 -4.93586 1.3655483 0.31791744 -1.808058 -0.71429616 1.2075639
0.27464795 0.6617514 0.603628 -0.20850419 -1.8600551 0.1799073 1.3326116 0.25551495
0.48979136 2.7738473 -1.2724866 -0.74991566 -2.399453 0.7070352 0.86673474 0.19796288
0.5948479 1.0815008 -0.43351236 -0.304046 -1.5896412 -0.80223894 -2.2366927 -0.014694545
-1.1960667 1.3346704 1.1644715 -2.0411482 0.44238833 0.001978061 0.053749155 1.43052
0.98057204 -1.8459334 -1.5345266 0.8765563 -0.082911566 -0.79326475 -1.0693203 -1.2068005
-1.4273546 -0.19541493 -1.2562846 -0.14535 -0.3821686 -2.418954 1.4749882 0.4856231
-1.8616142 1.5707643 0.256887 -2.357992 0.13028122 -1.528595 -1.022647 -1.5013148
-0.46133965 0.16730401 -0.9338588 -2.4374382 -0.34094918 0.7267472 0.748528 -1.4019839
-1.4895754 0.49119988 1.4020926 1.7431102 0.88264275 -1.6126564 0.88520896 -0.18126209
-0.0710799 -0.6482229 1.6276951 2.279485 1.5721123 0.49083075 -0.18177459 -0.69400513
00000000: e026 24c0 fcd9 b53e 39cf df3d 6c6f c63f
00000010: 952f 863f 03f7 6dbf 9fb5 04c0 a075 c9bf
00000020: 9ff8 87bf b2c0 97be 8f77 693d 8769 00bc
00000030: c3cb 5a3c 2a63 613f 0e0a a33f aad6 ccbd
00000040: 37f7 8bbf 220d aebe ac61 e9be 578d d4be
00000050: e2f3 443f 99a5 643e c833 fc3e e136 95bf
00000060: 76bb 27bf 67a4 163f 3647 2d40 e10c 8dbc
00000070: e804 fb3d 52d9 a73e 03aa 1bbe cc4d 4ebf
00000080: ef65 e5be 13fb 32bf 7058 34bf edd8 11c0
00000090: 07a7 e33f c0b8 bf3f ca46 fcbe 786d 37bf
000000a0: c77c c8bf f9f0 30c0 3ec4 d1bf 6b1c b83d
000000b0: 81b6 66bf 7223 efbd fdfb 623f 12d6 2f3f
000000c0: 980a 1ec0 28dc 7e3e b953 6c3f a087 cdbf
000000d0: 24eb 1ebf 628c c93e 7573 b2bf 2ba8 123f
000000e0: cf99 21bf 6e0f e3be 034a 0b3f 790b 813f
000000f0: 7f26 5040 40f4 a83e 6a52 e0be e11c 3cba
00000100: 4369 093f 7399 0d3f f066 52be 5a85 f53e
00000110: e63d 593e 83b5 dcbe 2212 babf 6156 fdbf
00000120: 81e0 7ebf 377e 5a3f 995a adbf 53c4 10bf
00000130: e9b9 943f acd8 14c0 998c 76bd a96a 283f
00000140: 1ba6 133f 5723 8ebf f1f1 773f a8fc 89bf
00000150: abe5 8b3f c942 cebc 129c bebe 5451 8ac0
00000160: 5216 81bf 45c3 42bf 9024 4fc0 b07d 97be
00000170: 0cc4 11c0 57b9 17bf 38b5 aa3f 6c4d d33e
00000180: 3bca c8bf 97cb 23c0 32af 7abf 0b8e 5940
00000190: 8db0 363f a666 c2bf 3782 bcbf eb9a 2a3f
000001a0: 744b 34bf 81eb 9abf 2c7d babf 8b7f 2fbf
000001b0: cfed a53e a9e3 873e ce08 ab3f 3313 80bd
000001c0: d44d 9ebf bcc1 a2bd 2527 efbf 132b a83f
000001d0: 32bb 083e a8eb 3e3f f38e 543f 25d8 363f
000001e0: b7cf f6bf a8a0 0b3f 02d7 913f c806 0ac0
000001f0: 4c4a d7bf d27f ea3e 3a8a 1b3e dd87 2dbf
00000200: 0d01 303e 3c64 6bbf 457d 543f c44c 02c0
00000210: 32d0 1840 2fd0 be3f a14b 84bf e942 753e
00000220: 13e7 1cbe ddca 1fbf 37d3 be3e bc47 c83e
00000230: f1f8 1bbf 7692 b6bf ffac d0bf 8d8b 89bf
00000240: 8863 8cbe 1772 99be 0641 583f ab07 c1bf
00000250: 3d71 183f 5f42 7e3f d78d 933e 2297 13bf
00000260: 6b10 1cc0 5254 fbbe b8bb c53e 6daa 9d3e
00000270: 93f3 e83e 091c 163f ab5e 47bf a94b 93be
00000280: aaf9 863f 88e3 d93e 43a1 8b3f 6011 4fbf
00000290: a5b8 3ebf f441 fdbe fb4e 61bf aeae 08bd
000002a0: b419 c43f cec3 4a3f 91f2 9dc0 49ca ae3f
000002b0: 13c6 a23e 726e e7bf 1ddc 36bf 7491 9a3f
000002c0: a89e 8c3e 8a68 293f 5d87 1a3f 1f82 55be
000002d0: 4916 eebf 9f39 383e 0493 aa3f dbd2 823e
000002e0: efc5 fa3e b786 3140 d7e0 a2bf 79fa 3fbf
000002f0: a390 19c0 4200 353f 54e2 5d3f c8b6 4a3e
00000300: f447 183f 9e6e 8a3f 55f5 ddbe ebab 9bbe
00000310: 5d79 cbbf 885f 4dbf f925 0fc0 64c1 70bc
00000320: b718 99bf 7bd6 aa3f 670d 953f 2ca2 02c0
00000330: b980 e23e 5ba2 013b 1328 5c3d 481b b73f
00000340: c506 7b3f 8c47 ecbf 5e6b c4bf fe65 603f
00000350: 8acd a9bd 6613 4bbf 7ddf 88bf 7078 9abf
00000360: 8eb3 b6bf da1a 48be efcd a0bf a1d6 14be
00000370: 9aab c3be 24d0 1ac0 6acc bc3f 97a3 f83e
00000380: 6049 eebf ce0e c93f b186 833e 57e9 16c0
00000390: 7168 053e 00a9 c3bf 19e6 82bf 152b c0bf
000003a0: b634 ecbe be51 2b3e 5f11 6fbf fdfe 1bc0
000003b0: e490 aebe 1b0c 3a3f 889f 3f3f 3574 b3bf
000003c0: 68aa bebf 8d7e fb3e c577 b33f 3c1e df3f
000003d0: e0f4 613f 866b cebf 0e9d 623f c59c 39be
000003e0: 5792 91bd f0f1 25bf 5058 d03f 15e3 1140
000003f0: fa3a c93f 2b4e fb3e 1e23 3abe 52aa 31bf

bias f4 [16]
0.4433639 0.06866886 -0.5755627 -0.09076788 1.1547604 1.1243048 -0.43792534 0.36860356
0.53786844 1.3084223 -2.3304248 -0.57587624 0.660823 -1.3067933 -1.847756 -1.1488227
00000000: 9800 e33e 42a2 8c3d 1458 13bf 83e4 b9bd
00000010: 30cf 933f 38e9 8f3f c037 e0be 9bb9 bc3e
00000020: bfb1 093f 627a a73f ae25 15c0 a06c 13bf
00000030: b22b 293f 0145 a7bf 4583 ecbf 9f0c 93bf

weight f4 [16]
1.1808281 2.317785 2.0719857 1.5904775 2.139354 2.0888357 1.774228 0.7615821
1.6428254 1.5150676 1.949576 2.2770135 1.9525768 2.3524342 2.1249077 1.7386245
00000000: 6025 973f 9756 1440 6a9b 0440 c494 cb3f
00000010: 2deb 0840 7caf 0540 e719 e33f 0bf7 423f
00000020: 1a48 d23f bced c13f b58b f93f 97ba 1140
00000030: 09ee f93f 488e 1640 7dfe 0740 3f8b de3f

bias f4 [16]
1.7119375 -0.16230956 0.28480792 -0.3297478 0.6995863 0.8695773 0.19899388 1.4931735
0.42254362 1.0183358 0.07718609 0.46670896 -0.16592358 -0.85615677 0.4283873 -0.6559757
00000000: c520 db3f 7a34 26be 58d2 913e b4d4 a8be
00000010: 1618 333f 9e9c 5e3f 0dc5 4b3e 4f20 bf3f
00000020: a357 d83e d458 823f be13 9e3d 7af4 ee3e
00000030: dfe7 29be 172d 5bbf 9555 db3e 06ee 27bf

running_mean f4 [16]
-5.8701515 -29.51654 -16.493328 -12.231255 -30.936909 23.638784 -55.907917 -20.807499
-16.451813 15.471374 -13.410292 23.484062 -12.21053 -9.562117 9.099439 -46.223434
00000000: 48d8 bbc0 e021 ecc1 56f2 83c1 38b3 43c1
00000010: ca7e f7c1 3b1c bd41 b5a1 5fc2 c275 a6c1
00000020: 509d 83c1 bf8a 7741 8e90 56c1 5cdf bb41
00000030: 555e 43c1 6efe 18c1 4d97 1141 cce4 38c2

running_var f4 [16]
174.936 182.8754 708.8527 211.22348 203.93015 415.948 662.425 362.79868
616.69116 183.6336 207.83054 359.09656 373.67014 209.14511 204.39998 168.87646
00000000: 9eef 2e43 1ae0 3643 9336 3144 3639 5343
00000010: 1eee 4b43 58f9 cf43 339b 2544 3b66 b543
00000020: 3c2c 1a44 34a2 3743 9ed4 4f43 5c8c b343
00000030: c7d5 ba43 2625 5143 6566 4c43 60e0 2843

weight f4 [32, 16, 3]
-0.86461264 -1.3063079 -0.2833482 0.85458493 0.19751047 -2.1073532 1.032761 -0.80743736
0.6985777 -0.01328591 0.34514627 -1.4199747 -2.7079036 -0.9237533 -0.30738044 -1.166614
-1.3332733 -1.4751284 0.43013722 -1.2966672 -0.45246172 -1.0424244 0.4142132 -0.9714656
-0.37455407 -0.1040533 -0.19132023 0.80857724 -1.3558376 -2.8192248 -3.0820003 0.51983047
-0.99840796 -0.53710735 -2.0084546 -2.960692 -1.9913492 -2.1494787 -1.7186319 -0.6028584
-1.5205197 0.2052211 -0.6748307 -0.7238625 0.736301 -1.0932952 0.0905254 -0.06874408
-0.62536496 -0.0027723378 0.2173381 -1.8354958 0.73070437 0.5662117 -0.78066987 -0.3652077
0.06914965 -1.0826446 -0.25971636 0.9208054 -1.3102134 -1.8749177 0.6809484 -0.36123687
0.2579626 1.7087083 0.33453682 0.41256642 0.997786 0.75305593 0.98292285 1.0881897
0.41233054 1.7986537 0.6777726 -1.2960464 0.35019976 -0.3873969 -0.44584492 0.595404
-0.082673475 -2.1125853 -0.5842089 -0.5733401 0.5695532 0.9467654 2.8378239 0.2718098
1.3731235 3.2917655 -0.9980412 -0.1842553 -0.0022116746 -2.401522 -0.7024974 1.1125243
-0.581085 -1.0262632 -1.6466209 -1.6823115 -0.084056 1.709936 -1.2474304 -1.9424317
-1.2124695 -1.7751701 0.09697088 0.046945997 -0.5218459 -1.5412878 -1.2978562 -1.8895295
-0.16421035 1.3771199 0.11522886 -0.12683575 0.2764726 1.4749455 1.0146172 0.38595802
1.0830992 1.2660422 -0.24507678 -1.0821595 -2.1466002 0.56679565 -0.9165166 1.3731632
0.05213621 -2.2953434 -1.4368663 -0.85708535 -0.45386347 0.8691067 1.8049227 0.19230255
0.5059792 2.158778 -1.1702487 -2.2974417 0.6251545 -1.7008313 -1.4894292 0.36172333
1.8352523 0.71560884 -2.1820745 -0.40225315 -0.5226066 1.1876707 1.9536735 0.18231422
-2.0123992 0.6505523 -2.0235572 0.88140637 -2.4469514 -0.1479895 1.0609119 1.3459336
1.6400726 -1.4022459 0.75845146 -1.9180533 0.6608367 -1.9727572 -1.0938209 1.111522
-0.9825287 -0.51944995 -1.8165662 -0.20765878 0.2286659 1.1652353 -1.3569142 0.038691696
0.96013856 0.405851 0.16935068 2.6333213 -0.36320522 -0.62681043 -0.8349318 0.3734783
0.09387148 -1.8744854 0.3828862 -0.63736933 -2.0754414 -0.7239682 -0.3429054 -2.2907593
-1.3614061 -0.8916123 -2.291331 -1.1290793 -0.39961 -0.09161382 -0.793683 0.3166322
1.0231296 0.008462302 -0.2797649 0.72563934 -2.2359107 -2.9846165 -1.6054484 -2.6067724
-0.22109422 0.84718114 0.50864404 -0.6296345 -0.37965423 0.6815506 -1.2511636 -3.1092482
1.2370127 0.24428241 -1.1629388 -2.1680992 -3.6485891 0.9719062 -1.5270879 -0.21812552
0.39109138 -1.168697 0.024509767 -0.564565 -0.23729874 -0.15553918 0.49302354 -0.373408
-0.15196589 3.144431 0.16715644 0.6526802 0.5103364 -1.3144114 -1.4687473 1.1907418
-3.5627067 0.843652 -0.07915998 -0.17452471 -2.3529365 0.24575281 -2.7622442 0.29647642
1.0447308 1.1635958 -1.2796677 -0.3145455 -0.40072668 0.931322 -1.8998616 -0.48839504
00000000: 4157 5dbf 1935 a7bf 0413 91be 14c6 5a3f
00000010: 2f40 4a3e e0de 06c0 8331 843f 37b4 4ebf
00000020: fdd5 323f 25ad 59bc 03b7 b03e bbc1 b5bf
00000030: 4b4e 2dc0 197b 6cbf f860 9dbe 9c53 95bf
00000040: b3a8 aabf 02d1 bcbf f23a dc3e 31f9 a5bf
00000050: 10a9 e7be 2a6e 85bf c113 d43e f8b1 78bf
00000060: 8dc5 bfbe e619 d5bd 73e9 43be ebfe 4e3f
00000070: 168c adbf 2e6e 34c0 7e3f 45c0 9c13 053f
00000080: aa97 7fbf de7f 09bf 858a 00c0 fa7b 3dc0
00000090: 88e4 febf 0f91 09c0 21fc dbbf ee54 1abf
000000a0: 64a0 c2bf 7b25 523e b4c1 2cbf 0e4f 39bf
000000b0: 397e 3c3f 19f1 8bbf 6265 b93d b2c9 8cbd
000000c0: eb17 20bf 1cb0 35bb e18d 5e3e 87f1 eabf
000000d0: 710f 3b3f 40f3 103f fbd9 47bf 81fc babe
000000e0: 559e 8d3d 1994 8abf 8bf9 84be e7b9 6b3f
000000f0: 13b5 a7bf 4efd efbf a252 2e3f 0af4 b8be
00000100: ad13 843e f4b6 da3f 6948 ab3e e83b d33e
00000110: e76e 7f3f 46c8 403f d5a0 7b3f cd49 8b3f
00000120: fd1c d33e 493a e63f 8182 2d3f d9e4 a5bf
00000130: 624d b33e e358 c6be c945 e4be 666c 183f
00000140: b650 a9bd 9934 07c0 b78e 15bf 6bc6 12bf
00000150: 3dce 113f 385f 723f e89e 3540 a72a 8b3e
00000160: 83c2 af3f 49ac 5240 a17f 7fbf 6cad 3cbe
00000170: bef1 10bb 89b2 19c0 dfd6 33bf 3267 8e3f
00000180: fdc1 14bf 985c 83bf 79c4 d2bf fc55 d7bf
00000190: 8d25 acbd 2fdf da3f cdab 9fbf 9aa1 f8bf
000001a0: 3332 9bbf c638 e3bf ab98 c63d 724a 403d
000001b0: b197 05bf eb48 c5bf 2720 a6bf 1adc f1bf
000001c0: c226 28be 7745 b03f 1cfd eb3d 3be1 01be
000001d0: d18d 8d3e 04cb bc3f fade 813f 4a9c c53e
000001e0: ffa2 8a3f ac0d a23f 68f5 7abe 3484 8abf
000001f0: e661 09c0 8519 113f d5a0 6abf d0c3 af3f
00000200: c78c 553d e8e6 12c0 3ceb b7bf f269 5bbf
00000210: cb60 e8be c77d 5e3f b507 e73f f6ea 443e
00000220: da87 013f 6b29 0a40 b6ca 95bf 4909 13c0
00000230: 200a 203f d7b4 d9bf 9ea5 bebf cd33 b93e
00000240: 8ce9 ea3f 2432 373f 1ca7 0bc0 20f4 cdbe
00000250: 8cc9 05bf 9805 983f f911 fa3f 94b0 3a3e
00000260: 26cb 00c0 988a 263f f681 01c0 d9a3 613f
00000270: da9a 1cc0 8f8a 17be f6cb 873f 8d47 ac3f
00000280: e6ed d13f cb7c b3bf e029 423f c582 f5bf
00000290: 982c 293f 4f83 fcbf 5302 8cbf 5a46 8e3f
000002a0: 0087 7bbf acfa 04bf 3e85 e8bf 81a4 54be
000002b0: 6527 6a3e 6e26 953f 5daf adbf 2f7b 1e3d
000002c0: a4cb 753f b4cb cf3e 446a 2d3e 5688 2840
000002d0: 09f6 b9be a676 20bf 17be 55bf 8c38 bf3e
000002e0: b13f c03d 23ef efbf a909 c43e a32a 23bf
000002f0: 08d4 04c0 fb55 39bf 4c91 afbe cd9b 12c0
00000300: 8e42 aebf b440 64bf 2ba5 12c0 ac85 90bf
00000310: af99 ccbe 07a0 bbbd cf2e 4bbf 9e1d a23e
00000320: e9f5 823f 78a5 0a3c 583d 8fbe 80c3 393f
00000330: 2919 0fc0 f503 3fc0 557f cdbf 5cd5 26c0
00000340: 8666 62be dde0 583f 7f36 023f ba2f 21bf
00000350: 0a62 c2be 1a7a 2e3f 2126 a0bf ecfd 46c0
00000360: 6f56 9e3f 2b25 7a3e 2edb 94bf 23c2 0ac0
00000370: 7c82 69c0 d8ce 783f 9e77 c3bf 4c5c 5fbe
00000380: 213d c83e dd97 95bf b5c8 c83c 5587 10bf
00000390: 71fe 72be aa45 1fbe 956d fc3e 552f bfbe
000003a0: f29c 1bbe 5c3e 4940 0f2b 2b3e 0d16 273f
000003b0: 68a5 023f a23e a8bf e9ff bbbf 3a6a 983f
000003c0: 6303 64c0 94f9 573f a11e a2bd 9bb6 32be
000003d0: 8396 16c0 a0a6 7b3e 9cc8 30c0 c2cb 973e
000003e0: bdb9 853f b5f0 943f 27cc a3bf 1c0c a1be
000003f0: 0c2c cdbe 1e6b 6e3f aa2e f3bf ea0e fabe

bias f4 [32]
0.28367394 -0.13704899 0.71422625 0.28001 0.80681646 0.7296642 0.029914398 -0.15281044
-0.20462815 0.8708273 0.23412345 0.42303246 -0.116061606 0.9174152 0.4425043 -0.36673713
0.28819317 0.723216 1.693196 0.07894225 0.60258114 0.089769036 1.0816755 -0.41388667
-0.86460835 1.0382231 0.29148677 -1.0364525 0.99890566 -0.5086498 1.9514523 1.0138468
00000000: b63d 913e 9256 0cbe 88d7 363f 795d 8f3e
00000010: 868b 4e3f 46cb 3a3f 0a0f f53c 577a 1cbe
00000020: 0b8a 51be 8aee 5e3f 0fbe 6f3e b697 d83e
00000030: b5b1 edbd b9db 6a3f ec8f e23e f8c4 bbbe
00000040: 0e8e 933e af24 393f a6ba d83f 79ac a13d
00000050: c242 1a3f d4d8 b73d 5874 8a3f f4e8 d3be
00000060: f956 5dbf 7fe4 843f c13d 953e 7aaa 84bf
00000070: 48b8 7f3f e036 02bf 30c9 f93f bbc5 813f

weight f4 [32]
1.9831121 1.4713149 1.8050193 1.9462867 2.0146725 1.7438169 1.5893644 1.4729615
1.153305 1.3302066 1.890315 1.7640038 1.9833682 0.64462 2.2081711 1.2542971
2.2378607 2.1015847 1.2912533 0.92267334 2.0467062 0.09787598 1.6891577 1.9743116
2.0979748 1.4055334 1.5683504 1.7443343 1.2894334 1.9494874 1.9300503 1.5857159
00000000: 9ed6 fd3f 0c54 bc3f df0a e73f ec1f f93f
00000010: 65f0 0040 6435 df3f 4b70 cb3f 018a bc3f
00000020: 809f 933f 3644 aa3f d8f5 f13f e0ca e13f
00000030: 02df fd3f d105 253f ad52 0d40 cf8c a03f
00000040: 1c39 0f40 5d80 0640 ca47 a53f 5234 6c3f
00000050: 3cfd 0240 3473 c83d 5236 d83f 3eb6 fc3f
00000060: 3845 0640 85e8 b33f b5bf c83f 5946 df3f
00000070: 270c a53f ce88 f93f e30b f73f bdf8 ca3f

bias f4 [32]
-0.24209023 -1.1772686 0.39901677 0.5680929 -0.14489849 0.30002335 -1.1451122 -1.6326811
-1.7278905 -0.7972144 -1.2240139 0.70528257 0.109947376 1.360605 -0.42947793 -0.68174636
0.96895057 -0.3464445 1.7118447 -0.2699136 0.38660318 -1.1064947 -0.28475323 -0.08350651
0.15753388 -1.987473 1.6769342 -0.21516013 -0.38424242 -0.6270573 -0.4509906 0.7927465
00000000: 80e6 77be bdb0 96bf ed4b cc3e 896e 113f
00000010: 4560 14be a99c 993e 0993 92bf b2fb d0bf
00000020: 842b ddbf 3e16 4cbf 7dac 9cbf 668d 343f
00000030: 172c e13d 4e28 ae3f 88e4 dbbe ee86 2ebf
00000040: 250d 783f 2c61 b1be ba1d db3f 1e32 8abe
00000050: daf0 c53e 9ea1 8dbf 2dcb 91be 7605 abbd
00000060: 9050 213e 8465 febf c8a5 d63f f052 5cbe
00000070: 6cbb c4be d486 20bf 3de8 e6be 6ff1 4a3f

running_mean f4 [32]
-36.177807 3.7103317 -15.937935 -5.6244855 -30.281324 -21.395279 20.736494 12.2629595
21.314192 -15.520923 1.5384625 5.0871243 -6.277843 -9.306185 -13.904932 18.748978
-6.698009 -9.823233 -12.129308 13.078428 -22.57972 -1.8292805 21.26566 -20.90361
1.6522722 21.814955 -18.465666 3.4100773 11.331582 -13.583445 -10.2006645 -1.2043487
00000000: 13b6 10c2 1376 6d40 c801 7fc1 c9fb b3c0
00000010: 2740 f2c1 8829 abc1 57e4 a541 1535 4441
00000020: 7783 aa41 b355 78c1 57ec c43f b9c9 a240
00000030: 17e4 c8c0 22e6 14c1 9a7a 5ec1 e8fd 9541
00000040: 1756 d6c0 f62b 1dc1 a511 42c1 3e41 5141
00000050: 44a3 b4c1 dd25 eabf 1220 aa41 983a a7c1
00000060: a87d d33f 0785 ae41 afb9 93c1 b53e 5a40
00000070: 294e 3541 ca55 59c1 ec35 23c1 1928 9abf

running_var f4 [32]
515.3621 257.05225 341.7892 289.64108 345.92905 356.0218 306.32993 300.30084
218.97325 319.6552 197.27118 427.88937 451.4366 260.29626 224.01143 246.21811
393.6481 181.51405 781.64545 198.65173 189.90009 185.04056 241.38562 603.9693
325.3053 206.25215 446.66647 326.13846 342.289 371.71692 201.65294 474.2449
00000000: 2dd7 0044 b086 8043 05e5 aa43 0fd2 9043
00000010: ebf6 ac43 ca02 b243 3b2a 9943 8226 9643
00000020: 27f9 5a43 ded3 9f43 6c45 4543 d7f1 d543
00000030: e3b7 e143 ec25 8243 ed02 6043 d637 7643
00000040: f5d2 c443 9983 3543 4f69 4344 d8a6 4643
00000050: 6ce6 3d43 620a 3943 b862 7143 09fe 1644
00000060: 14a7 a243 8d40 4e43 4f55 df43 b911 a343
00000070: fe24 ab43 c4db b943 27a7 4943 591f ed43

weight f4 [32, 32, 3]
0.17768624 -0.2655542 0.1565617 0.5984975 -1.49027 -1.9063376 2.1459436 -0.29030085
-1.5920076 1.5519022 0.025670387 -0.81626713 -2.2081149 0.59970313 -1.4669453 0.2525405
0.9075338 -0.3824723 1.7639633 1.1974884 1.0079148 0.86035025 -0.9719335 -3.3755665
-1.179834 -0.8220179 0.17757365 2.43879 0.64320385 -2.2171583 0.08930499 -0.57710934
-0.1741325 2.4699852 1.9011502 -0.90556777 1.2263595 0.2947351 -1.0209405 1.424992
-0.28451163 -0.42264876 1.4059393 1.2127666 -1.0998192 0.20149444 0.21467607 0.3456705
0.56353843 -1.7030905 -4.1356177 -1.0289994 0.45007393 1.6490554 -0.74962956 0.22722678
-0.07759597 1.1008284 -0.33280748 -0.1533892 1.588496 0.98541063 -0.7036615 0.3732511
-0.5777926 -0.91578627 0.120824635 -1.5536529 -1.7840574 0.21474579 0.4523174 0.3865959
-0.647021 -0.17245497 0.18119453 0.95874906 0.4648684 0.18209745 0.107754834 -1.0982817
-1.9062382 1.1716181 -0.15190901 -1.192809 0.65729594 0.3831794 -0.10257352 0.5470115
1.1719646 2.0331614 0.11868919 0.8734736 -1.8644317 -0.69517565 -0.20885593 0.33324257
1.7232502 0.96944743 1.4448429 0.9168153 -1.0872493 3.2650473 -0.91328174 -0.76348865
0.0789008 0.6001919 -0.04104437 -1.1606427 0.026060287 0.43092415 3.169866 0.089767665
-0.30180204 0.052463423 0.6035519 0.52655137 -1.2721456 -1.4850125 -1.686481 0.2113091
1.4436691 0.57534695 -1.212876 -0.44396564 0.16215324 1.106164 -0.6810007 -2.247518
-3.1211414 -0.4655586 1.036954 -0.22515625 -1.5527304 -0.22055082 2.9024239 -0.6681292
-0.72050864 -2.7824023 0.87335473 -0.40528187 1.2806786 -0.42560202 1.0850317 -2.2606363
-0.32298768 -0.7955984 -1.0894277 0.37890208 1.2771084 3.4541597 0.1226812 -1.4805714
0.4390781 -1.2222477 -1.3013616 0.13659579 2.2396255 1.0297836 -1.6142762 0.11130364
-0.32692552 -0.6584024 0.6545356 -0.30227724 -3.071932 -2.812763 0.15085512 2.3915553
0.84386766 -1.2199384 -4.7587037 1.9460137 0.44337824 -0.69840837 -1.1585788 -0.78925693
0.80530655 0.765694 -2.6642656 -0.7631288 -0.99221796 -0.12181073 -0.5426609 1.3218627
-0.058067393 -4.518007 -1.1043246 -1.1258322 0.24984607 0.24385789 -0.65847147 0.18508436
1.058261 -0.29389 -1.2447405 -0.39268404 -1.0616523 0.7851218 1.5358952 -0.5856307
-0.4440082 -1.8238137 0.26729187 -1.4205292 0.49393585 -0.62986714 -2.1107097 -1.4030725
-0.84584075 0.83644265 -0.918694 -0.08952796 -1.0585872 -0.16357453 1.1270864 0.32178867
-1.201686 -0.10915736 1.0217166 -1.1194787 0.14891282 1.3902509 -0.27183196 0.7194009
0.53829485 -0.49775028 0.58987236 0.73725295 -1.050941 0.59423363 3.6076155 2.7713401
-0.9126359 0.41817024 -0.65287554 -2.403778 -1.1274284 -0.10165623 0.31189716 0.42752248
0.74031806 -0.71703464 0.102722876 1.7886747 -0.46375573 -2.6326182 1.1559203 -2.156558
1.5411148 -1.1926926 -0.55376554 3.011559 0.16698465 0.3337859 -0.55394375 -0.86231035
00000000: 62f3 353e b8f6 87be b651 203e 2237 193f
00000010: 2bc1 bebf df02 f4bf 2457 0940 50a2 94be
00000020: e8c6 cbbf bba4 c63f b44a d23c e2f6 50bf
00000030: c151 0dc0 2586 193f ddc4 bbbf fd4c 813e
00000040: 2354 683f 69d3 c3be 8dc9 e13f 4d47 993f
00000050: 5a03 813f ea3f 5c3f a2d0 78bf 4809 58c0
00000060: cd04 97bf c46f 52bf ded5 353e 2315 1c40
00000070: 02a9 243f ece5 0dc0 89e5 b63d 70bd 13bf
00000080: ca4f 32be 3d14 1e40 e458 f33f 4ad3 67bf
00000090: 59f9 9c3f 85e7 963e 2eae 82bf 2366 b63f
000000a0: 82ab 91be 6b65 d8be d2f5 b33f f03b 9b3f
000000b0: e0c6 8cbf 8f54 4e3e 0bd4 5b3e b9fb b03e
000000c0: 0e44 103f dffe d9bf fb56 84c0 41b6 83bf
000000d0: 1770 e63e 3f14 d33f b9e7 3fbf 23ae 683e
000000e0: a3ea 9ebd f2e7 8c3f be65 aabe 0f12 1dbe
000000f0: d653 cb3f df43 7c3f 2923 34bf c51a bf3e
00000100: 37ea 13bf f870 6abf e872 f73d 19de c6bf
00000110: fe5b e4bf 52e6 5b3e 2596 e73e e6ef c53e
00000120: 2ba3 25bf 0998 30be 0f8b 393e 9470 753f
00000130: 3b03 ee3e c177 3a3e 91ae dc3d 7f94 8cbf
00000140: 9dff f3bf 95f7 953f 098e 1bbe f7ad 98bf
00000150: 8c44 283f 1730 c43e 1112 d2bd f208 0c3f
00000160: f002 963f 511f 0240 5113 f33d f79b 5f3f
00000170: b3a5 eebf 08f7 31bf 54de 55be c59e aa3e
00000180: 7693 dc3f b52d 783f 9df0 b83f 68b4 6a3f
00000190: fc2a 8bbf 89f6 5040 d5cc 69bf fe73 43bf
000001a0: be96 a13d 2da6 193f 241e 28bd f18f 94bf
000001b0: 627c d53c 17a2 dc3e 16df 4a40 1cd8 b73d
000001c0: cc85 9abe e3e3 563d 6182 1a3f 12cc 063f
000001d0: abd5 a2bf e414 bebf 9cde d7bf 6a61 583e
000001e0: 26ca b83f f049 133f 853f 9bbf 774f e3be
000001f0: 800b 263e c896 8d3f 1056 2ebf 56d7 0fc0
00000200: c8c0 47c0 b25d eebe e9ba 843f 5c8f 66be
00000210: dfbf c6bf 13d8 61be 50c1 3940 840a 2bbf
00000220: 4173 38bf e112 32c0 2d94 5f3f 1b81 cfbe
00000230: 47ed a33f 82e8 d9be 52e2 8a3f 44ae 10c0
00000240: a45e a5be 56ac 4bbf 5e72 8bbf 74ff c13e
00000250: 4a78 a33f f410 5d40 4840 fb3d 5d83 bdbf
00000260: d8ce e03e 9d72 9cbf 0493 a6bf c4df 0b3e
00000270: 0656 0f40 f3cf 833f 9aa0 cebf 2af3 e33d
00000280: c862 a7be 0f8d 28bf a58f 273f 15c4 9abe
00000290: 899a 44c0 4f04 34c0 c479 1a3e 3e0f 1940
000002a0: b607 583f f126 9cbf 4d47 98c0 fa16 f93f
000002b0: 7902 e33e e4ca 32bf 4f4c 94bf be0c 4abf
000002c0: 9228 4e3f 8604 443f 5483 2ac0 695c 43bf
000002d0: ff01 7ebf e777 f9bd d3eb 0abf cc32 a93f
000002e0: 13d8 6dbd 8393 90c0 825a 8dbf 451b 90bf
000002f0: a6d7 7f3e e2b5 793e 9691 28bf c186 3d3e
00000300: 1975 873f c078 96be a853 9fbf e20d c9be
00000310: 39e4 87bf befd 483f 3798 c43f e5eb 15bf
00000320: 0b55 e3be ba72 e9bf 7bda 883e e7d3 b5bf
00000330: 29e5 fc3e f93e 21bf de15 07c0 e197 b3bf
00000340: 0589 58bf 1b21 563f 882f 6bbf 6f5a b7bd
00000350: c97f 87bf 1580 27be 5e44 903f 7cc1 a43e
00000360: d9d0 99bf e58d dfbd 9cc7 823f 144b 8fbf
00000370: 9a7c 183e bef3 b13f 8f2d 8bbe a82a 383f
00000380: b1cd 093f 20d9 febe e001 173f 9cbc 3c3f
00000390: 3c85 86bf b21f 183f 2ce3 6640 a35d 3140
000003a0: 82a2 69bf 691a d63e da22 27bf 80d7 19c0
000003b0: 934f 90bf 2431 d0bd fcb0 9f3e 3ae4 da3e
000003c0: 7c85 3d3f 958f 37bf 5f60 d23d 4bf3 e43f
000003d0: 6471 edbe d17c 28c0 32f5 933f 0c05 0ac0
000003e0: 4043 c53f 27aa 98bf 94c3 0dbf 62bd 4040
000003f0: 06fe 2a3e fce5 aa3e 42cf 0dbf 5fc0 5cbf

bias f4 [32]
-0.30860987 -0.74718183 0.34578738 -2.6957793 0.8579324 -0.24168219 -0.081321456 0.7625093
-0.74083906 -0.45268694 -1.4866879 -0.8380683 0.95585173 0.81985754 1.0855522 0.65700054
0.16424659 -0.05657867 0.33963946 -0.089992814 -1.4067645 -0.042035826 1.7624525 -0.08589227
-0.43095213 -0.023953712 0.17782909 -0.19435456 0.4030336 -0.085316025 0.2157202 1.240132
00000000: 1d02 9ebe 4f47 3fbf 0b0b b13e a687 2cc0
00000010: 75a1 5b3f 897b 77be dd8b a6bd cf33 433f
00000020: a1a7 3dbf 95c6 e7be ca4b bebf a58b 56bf
00000030: b3b2 743f 2fe2 513f 60f3 8a3f 3031 283f
00000040: 4230 283e 09bf 67bd 39e5 ad3e 274e b8bd
00000050: dc10 b4bf c22d 2cbd 0b98 e13f 49e8 afbd
00000060: c2a5 dcbe 933a c4bc d418 363e e204 47be
00000070: 6c5a ce3e 2bba aebd c2e5 5c3e a5bc 9e3f

weight f4 [32]
1.409732 2.2524233 1.2307633 2.1568005 1.7689105 1.5449547 2.353387 1.934398
2.1781175 1.1667576 2.112074 1.5675029 1.0693096 2.2328002 2.1746345 2.3017292
1.9960794 1.8571558 1.4633399 2.5969996 1.4043939 1.3535651 2.2477174 2.2237175
1.6741276 2.1727133 1.9762222 1.677079 1.17351 2.0302444 1.3716664 1.9541799
00000000: 1972 b43f b427 1040 a789 9d3f 0509 0a40
00000010: a96b e23f 13c1 c53f e59d 1640 5b9a f73f
00000020: 4766 0b40 5058 953f 382c 0740 efa3 c83f
00000030: 23df 883f 33e6 0e40 362d 0b40 884f 1340
00000040: 887f ff3f 48b7 ed3f b94e bb3f 3e35 2640
00000050: 2ec3 b33f 9f41 ad3f 9ada 0f40 6351 0e40
00000060: d049 d63f bc0d 0b40 d9f4 fc3f 86aa d63f
00000070: 9335 963f 86ef 0140 c492 af3f 9122 fa3f

bias f4 [32]
-0.60758597 -0.42852828 -2.1324959 0.86235934 -1.3423516 0.52926123 1.1293231 -1.1995115
-1.0090002 -2.0089307 -0.4103206 -0.8530502 -1.773971 0.35094842 -0.18016855 -0.021554664
-0.5222786 -0.8365517 -1.4056917 0.28133345 -1.5737617 0.045706645 0.27234283 -0.91990185
0.8227997 -0.045988537 -0.7156416 -0.37863618 -2.0932128 -0.4467326 -1.6312915 -0.39258736
00000000: c18a 1bbf 0f68 dbbe d07a 08c0 95c3 5c3f
00000010: 2dd2 abbf aa7d 073f a98d 903f 9889 99bf
00000020: eb26 81bf 5292 00c0 8b15 d2be 7f61 5abf
00000030: 7b11 e3bf 83af b33e 1b7e 38be 6893 b0bc
00000040: 0db4 05bf 4128 56bf b5ed b3bf f00a 903e
00000050: 0671 c9bf e436 3b3d 8570 8b3e b07e 6bbf
00000060: 00a3 523f 7a5e 3cbd 4a34 37bf 9adc c1be
00000070: 33f7 05c0 23ba e4be 29ce d0bf 3601 c9be

running_mean f4 [32]
-7.296395 -19.072325 15.222511 10.3830805 -32.168976 8.14853 -26.634958 -13.542567
-66.19243 23.541372 -19.955492 3.3782818 1.4663129 -39.75679 -15.578667 -2.9895816
-32.006153 -5.1559587 -27.183771 -43.20669 32.40106 -16.847713 -32.93047 -40.26958
6.360522 -9.641994 -50.881783 1.9458884 17.767435 3.4925141 29.680622 -17.608576
00000000: 117c e9c0 1f94 98c1 688f 7341 1921 2641
00000010: 08ad 00c2 6160 0241 6514 d5c1 5bae 58c1
00000020: 8662 84c2 bb54 bc41 d9a4 9fc1 c535 5840
00000030: 24b0 bb3f f406 1fc2 3842 79c1 4e55 3fc0
00000040: 4d06 00c2 9dfd a4c0 5d78 d9c1 a7d3 2cc2
00000050: af9a 0142 1ec8 86c1 cdb8 03c2 0d14 21c2
00000060: 6589 cb40 9c45 1ac1 f286 4bc2 df12 f93f
00000070: b523 8e41 5a85 5f40 ea71 ed41 5dde 8cc1

running_var f4 [32]
759.11707 489.45035 417.74957 529.3848 340.25467 599.6198 991.4599 775.18054
503.78928 313.8439 583.33374 707.9264 381.19455 915.88135 1153.4917 724.33826
712.7217 391.05637 268.0561 516.33575 448.4014 818.1899 565.45776 480.94827
555.8178 642.33997 514.05023 601.13995 284.1839 501.65756 269.74487 540.76337
00000000: 7ec7 3d44 a5b9 f443 f2df d043 a158 0444
00000010: 9920 aa43 abe7 1544 6fdd 7744 8ecb 4144
00000020: 07e5 fb43 05ec 9c43 5cd5 1144 4afb 3044
00000030: e798 be43 68f8 6444 bc2f 9044 a615 3544
00000040: 302e 3244 3787 c343 2e07 8643 7d15 0144
00000050: 6133 e043 278c 4c44 4c5d 0d44 6179 f043
00000060: 57f4 0a44 c295 2044 3783 0044 f548 1644
00000070: 8a17 8e43 2bd4 fa43 58df 8643 db30 0744

weight f4 [64, 32, 3]
-2.3826084 -1.736093 -0.7249159 0.30665064 1.3032438 2.3695104 0.7202689 1.2821966
0.55066925 1.0623511 1.8317076 0.47756997 -0.38572472 -0.3484009 1.9944469 1.2392342
-0.5662929 -3.8342292 -0.54407203 -0.33741653 -1.073169 1.594516 0.09289563 0.1627757
0.764479 -0.3202677 1.4884225 -0.76978594 0.45765764 0.6989586 -0.2730041 0.007475814
0.6988205 -0.54965645 0.60949916 -0.76031876 -0.7263718 -1.0894746 0.33415055 -0.839678
-1.6878848 0.2874668 -1.294025 -1.3399245 0.91367865 0.8505703 1.4976705 -0.27631566
-1.3091729 -2.0644395 0.9914743 -1.443792 -0.50701165 0.86146545 0.55157286 -1.0685371
-0.26207173 -1.2786099 -0.37941897 -0.008543623 0.039283633 0.5102186 1.4869546 -2.9688592
0.07613787 2.7609906 -0.7576766 -0.91291064 -0.232598 -1.4841785 -1.4313408 -1.7050629
1.3583978 -1.574994 -0.48731765 -5.0595026 -1.464298 -3.6892772 -0.49395826 0.027039025
-0.16395363 -1.1520818 -2.539258 -3.833224 -1.7109354 -0.78584975 -1.5670152 1.1837803
0.5623137 -0.24966313 0.72500235 1.2568235 1.9110252 -0.9921917 0.84700274 -0.83888215
-3.1141112 1.0758677 -0.17449507 1.1734055 -1.3549644 0.7293558 1.1245823 0.12254679
0.07177279 0.77572334 -0.11950587 -1.2901008 0.73463106 1.5300535 1.1036569 1.0886793
0.08212291 0.40976402 -2.2566843 -2.0395796 -0.9286488 -3.508194 -2.0247495 -1.7755926
0.20466752 0.77239215 -1.1468123 1.3926495 0.6606022 1.0613296 1.4652011 0.016454894
-0.47566128 -1.1663213 -3.3038483 -0.024274863 1.5739408 0.24032979 0.1436943 -3.5788312
1.0141445 -2.3332622 1.7675334 -0.16121495 0.06650049 -1.3525113 -0.52726734 -2.358305
-3.9856555 -2.5439537 -1.4020936 -0.80999345 -0.64709896 0.54482067 -0.2118515 0.8425327
0.17965363 -1.5134082 2.2468574 -0.94905555 -0.10087418 0.8610451 0.7041937 -1.1028886
1.0538908 -1.3307575 -0.7852013 -0.75150967 0.014221711 -1.2978094 -2.1806948 -2.1750772
-1.8027838 0.06109218 -2.566962 -2.0763936 -0.272195 0.936298 -0.79563093 -0.17632443
0.736976 -1.1202326 -0.4321176 0.5107122 2.5636125 0.7325148 0.6521617 0.8360686
-1.5669048 -0.8206279 2.4054232 -0.042847447 -1.7415141 0.8271551 -0.9829086 -1.7879043
-0.38842312 -0.16274886 0.5337576 -1.4784803 -0.2519607 -1.4999677 1.9342408 0.5755579
-1.6990638 2.33376 -0.3931452 0.22881627 -1.9731683 0.06964792 0.025598617 0.8264288
0.41641062 -0.81381947 0.7952295 0.1692929 0.43696538 -0.94381195 0.06095646 1.2298003
-0.7485238 0.14453043 -0.83865666 -0.15964721 -1.1951417 0.89489096 1.2705368 -0.016004266
-0.19416894 2.8053157 -0.032818917 2.033032 -0.26823077 0.8888808 0.57365257 -0.044185217
2.004023 -0.9844105 0.5108792 -1.0916288 -0.07848435 -1.1631284 0.33760384 -1.0439147
0.20704682 1.158521 -0.520366 1.2920352 2.2834337 -0.98024505 1.091382 0.7703856
-0.5427761 -1.8508759 2.369975 0.18209127 2.2416046 2.0962062 2.7592888 -0.8181021
00000000: a87c 18c0 4c38 debf 1794 39bf 5001 9d3e
00000010: b1d0 a63f 0fa6 1740 8b63 383f 051f a43f
00000020: a9f8 0c3f 1ffb 873f 6575 ea3f 0d84 f43e
00000030: b67d c5be 9a61 b2be 094a ff3f 3a9f 9e3f
00000040: 92f8 10bf 0364 75c0 4e48 0bbf dcc1 acbe
00000050: 9a5d 89bf 1a19 cc3f 1040 be3d acae 263e
00000060: e5b4 433f 21fa a3be a184 be3f b110 45bf
00000070: 1a52 ea3e f3ee 323f 32c7 8bbe acf7 f43b
00000080: e6e5 323f 49b6 0cbf 2308 1c3f 40a4 42bf
00000090: 81f3 39bf e773 8bbf c815 ab3e 23f5 56bf
000000a0: 9c0c d8bf d92e 933e 9ca2 a5bf a582 abbf
000000b0: d8e6 693f fabe 593f abb3 bf3f 3f79 8dbe
000000c0: fa92 a7bf c71f 04c0 42d1 7d3f 2dce b8bf
000000d0: 84cb 01bf 0089 5c3f e133 0d3f d3c5 88bf
000000e0: 442e 86be 7da9 a3bf 3443 c2be 8dfa 0bbc
000000f0: e0e7 203d b09d 023f 8754 be3f ca01 3ec0
00000100: 2cee 9b3d 12b4 3040 18f7 41bf 83b4 69bf
00000110: 2c2e 6ebe 90f9 bdbf 2d36 b7bf 803f dabf
00000120: fbdf ad3f 6799 c9bf b381 f9be 72e7 a1c0
00000130: 1e6e bbbf 1e1d 6cc0 19e8 fcbe f280 dd3c
00000140: 76e3 27be 6b77 93bf 3483 22c0 8b53 75c0
00000150: eeff dabf 732d 49bf f493 c8bf 1d86 973f
00000160: caf3 0f3f b1a7 7fbe c199 393f 98df a03f
00000170: 799c f43f 4600 7ebf 2cd5 583f fbc0 56bf
00000180: 994d 47c0 08b6 893f d6ae 32be 2732 963f
00000190: 796f adbf 10b7 3a3f 50f2 8f3f d0f9 fa3d
000001a0: 9dfd 923d ce95 463f 7ebf f4bd 0622 a5bf
000001b0: c810 3c3f cbd8 c33f a144 8d3f d859 8b3f
000001c0: 0e30 a83d 97cc d13e 846d 10c0 7988 02c0
000001d0: eebb 6dbf 4086 60c0 7f95 01c0 9e46 e3bf
000001e0: 5d94 513e 7ebb 453f bfca 92bf 5742 b23f
000001f0: 3a1d 293f a6d9 873f b68b bb3f 6acc 863c
00000200: e089 f3be 044a 95bf 4072 53c0 14dc c6bc
00000210: e476 c93f 0319 763e 9924 133e 920b 65c0
00000220: 7dcf 813f 2b54 15c0 893e e23f 8815 25be
00000230: 6931 883d 171f adbf fefa 06bf 78ee 16c0
00000240: fb14 7fc0 23d0 22c0 ce77 b3bf bb5b 4fbf
00000250: 47a8 25bf 5e79 0b3f 9aef 58be 39b0 573f
00000260: 1ff7 373e 5cb7 c1bf 83cc 0f40 4ef5 72bf
00000270: 1f97 cebd 746d 5c3f 0a46 343f 742b 8dbf
00000280: e5e5 863f 4356 aabf f402 49bf f062 40bf
00000290: 2e02 693c 9e1e a6bf 8190 0bc0 7734 0bc0
000002a0: 9fc1 e6bf cb3b 7a3d 1b49 24c0 a2e3 04c0
000002b0: 255d 8bbe 3ab1 6f3f 78ae 4bbf 648e 34be
000002c0: 76aa 3c3f c863 8fbf 853e ddbe 09be 023f
000002d0: 3a12 2440 1786 3b3f 12f4 263f 9708 563f
000002e0: 5690 c8bf ac14 52bf 74f2 1940 ce80 2fbd
000002f0: efe9 debf 70c0 533f e69f 7bbf 0cda e4bf
00000300: 65df c6be a3a7 26be 57a4 083f d83e bdbf
00000310: fe00 81be f1fe bfbf 3495 f73f c357 133f
00000320: ec7a d9bf 535c 1540 544a c9be d04e 6a3e
00000330: c790 fcbf 92a3 8e3d 31b4 d13c d690 533f
00000340: c633 d53e 7956 50bf 2994 4b3f 1e5b 2d3e
00000350: edb9 df3e a99d 71bf 7bad 793d 196a 9d3f
00000360: 419f 3fbf c9ff 133e 34b2 56bf 8f7a 23be
00000370: 67fa 98bf 9317 653f f3a0 a23f 611b 83bc
00000380: 39d4 46be 4b8a 3340 216d 06bd 321d 0240
00000390: 8b55 89be b18d 633f e5da 123f 8ffb 34bd
000003a0: ea41 0040 5402 7cbf fbc8 023f 7eba 8bbf
000003b0: 67bc a0bd 64e1 94bf 69da ac3e ff9e 85bf
000003c0: 1504 543e 6b4a 943f b536 05bf 6961 a53f
000003d0: c723 1240 57f1 7abf 68b2 8b3f fe37 453f
000003e0: 60f3 0abf 80e9 ecbf acad 1740 2276 3a3e
000003f0: 7376 0f40 3e28 0640 3098 3040 246f 51bf

bias f4 [64]
-1.6241487 -0.7464569 -1.3695992 -0.4548672 0.34545356 -0.46694648 0.7580553 -0.54449034
-0.5127801 -1.0540662 0.64661574 -0.63894874 1.1658678 0.27382097 0.7238285 -0.043154996
-0.283503 1.8770875 0.66915894 -0.86096656 -0.47619542 1.2972636 -0.73557943 0.21907899
1.2846128 -0.13970776 -0.9620725 0.62740517 -0.1365589 0.9003927 -0.542737 1.1952959
0.003859501 -0.7502093 0.6362371 -0.05071931 0.12046264 -0.50963044 -0.44766527 -1.7926499
-0.27595168 0.6159343 0.206589 0.58810246 0.36238155 -1.4199737 0.28638586 -0.7152753
-0.30666345 -0.5004168 -0.2884589 0.8215033 1.5391912 -0.48106822 0.8448876 -0.39732727
0.043949585 -0.5339169 -0.5863415 1.7204084 -1.0293181 -0.17646149 -0.2631796 1.4220625
00000000: 1be4 cfbf cd17 3fbf 074f afbf 5be4 e8be
00000010: 4adf b03e 9c13 efbe ea0f 423f b863 0bbf
00000020: 8e45 03bf a4eb 86bf 9c88 253f 2592 23bf
00000030: 283b 953f 4332 8c3e d34c 393f 4bc3 30bd
00000040: 4e27 91be 6744 f03f 004e 2b3f 4e68 5cbf
00000050: e3cf f3be bc0c a63f ef4e 3cbf 3e56 603e
00000060: 316e a43f 8d0f 0fbe 624a 76bf a09d 203f
00000070: 19d6 0bbe 2380 663f d0f0 0abf 75ff 983f
00000080: afef 7c3b b70d 40bf 6fe0 223f 0dbf 4fbd
00000090: 1eb5 f63d 2477 02bf 6234 e5be 8d75 e5bf
000000a0: 8a49 8dbe dfad 1d3f 118c 533e e28d 163f
000000b0: 138a b93e b3c1 b5bf 2ba1 923e 481c 37bf
000000c0: fe02 9dbe 511b 00bf e3b0 93be 0a4e 523f
000000d0: 3804 c53f 934e f6be 8e4a 583f 7b6e cbbe
000000e0: 7b04 343d c7ae 08bf 7a1a 16bf 5836 dc3f
000000f0: b2c0 83bf 52b2 34be 7abf 86be 2506 b63f

weight f4 [64]
2.2198524 2.5165117 1.6013389 2.2068257 0.94987863 1.8833637 1.3162268 1.0918219
1.7016472 1.6639451 1.8800147 1.8037472 1.786532 1.288409 1.6365423 2.1751416
1.8931899 1.8047781 1.9279479 1.4748925 1.897791 1.0679011 0.9568593 1.386257
1.3827395 1.4042178 1.9886831 1.7147628 1.0497963 1.7027663 1.5387503 1.5839261
1.847624 1.7458678 1.2832196 1.0797697 1.3945088 1.7692617 2.1987653 1.193888
1.0333209 1.5802343 0.9298463 1.815095 1.5762945 1.919533 1.1975363 2.2019389
1.6979985 1.6386361 1.3390266 2.1844509 1.9165735 1.6013408 1.3156083 1.381213
1.8785245 1.5928367 1.536022 2.11036 1.9159892 1.1805502 1.8154538 1.980974
00000000: 1012 0e40 870e 2140 acf8 cc3f a23c 0d40
00000010: 3f2b 733f 1012 f13f 1f7a a83f d2c0 8b3f
00000020: 93cf d93f 27fc d43f 52a4 f03f 30e1 e63f
00000030: 15ad e43f 96ea a43f 387a d13f 8535 0b40
00000040: 0c54 f23f f802 e73f ffc6 f63f 47c9 bc3f
00000050: d1ea f23f fcb0 883f bbf4 743f df70 b13f
00000060: 9cfd b03f 69bd b33f 2b8d fe3f 597d db3f
00000070: ba5f 863f 3ff4 d93f c5f5 c43f 17be ca3f
00000080: f17e ec3f 9978 df3f 8a40 a43f e535 8a3f
00000090: 447f b23f 2b77 e23f 92b8 0c40 52d1 983f
000000a0: dc43 843f 1e45 ca3f 680a 6e3f 0855 e83f
000000b0: 05c4 c93f 42b3 f53f df48 993f 91ec 0c40
000000c0: 0458 d93f d4be d13f 3965 ab3f 0bce 0b40
000000d0: 4852 f53f bcf8 cc3f da65 a83f 96cb b03f
000000e0: 7e73 f03f 13e2 cb3f 5e9c c43f 2310 0740
000000f0: 223f f53f 451c 973f ca60 e83f 8e90 fd3f

bias f4 [64]
-0.7439471 -1.7287133 -1.216415 -0.5180853 -2.099205 -1.1314719 0.058092877 0.20946994
-0.49015105 -0.65990686 -0.5242214 0.15511355 -0.2701279 -1.1553166 -1.4709051 -1.1296309
-0.12446754 -0.56205654 -1.0155594 -1.4706073 -0.54863775 -0.22254243 -1.2959521 -1.1881058
0.018474577 -0.3010347 -0.69397616 -1.0030502 -0.72049046 -0.075249545 -0.7246103 -1.8913714
-1.4580027 -0.068612024 -1.1749936 -1.9579566 -1.4938034 -1.1457318 -0.06767054 -1.95049
-0.4637634 0.31975684 0.34038758 -0.9126421 -1.4413941 0.63139474 -0.8381185 -0.11842702
-2.0409722 -0.1955965 -2.1871943 -0.554843 0.013803617 -0.6077738 -1.062724 -1.1982536
-1.2088385 -0.45012677 -0.22170806 -0.28199333 -0.14727205 0.7840738 -0.5399617 -0.57020915
00000000: 5173 3ebf 7a46 ddbf 7db3 9bbf 3da1 04bf
00000010: 6059 06c0 12d4 90bf ccf2 6d3d 4a7f 563e
00000020: 14f5 fabe a8ef 28bf 6033 06bf 16d6 1e3e
00000030: 344e 8abe 6ae1 93bf 9e46 bcbf bf97 90bf
00000040: d6e8 febd f0e2 0fbf dafd 81bf dc3c bcbf
00000050: 8673 0cbf 2ae2 63be c2e1 a5bf da13 98bf
00000060: ff57 973c 3821 9abe 6ca8 31bf f363 80bf
00000070: 1072 38bf 6f1c 9abd 1080 39bf 7518 f2bf
00000080: d59f babf 7684 8cbd 3166 96bf 529e fabf
00000090: f334 bfbf 57a7 92bf da96 8abd a8a9 f9bf
000000a0: 6572 edbe 2bb7 a33e 4847 ae3e eaa2 69bf
000000b0: 9a7f b8bf 16a3 213f ef8e 56bf de89 f2bd
000000c0: 4a9f 02c0 734a 48be fefa 0bc0 310a 0ebf
000000d0: 9128 623c 1097 1bbf 5707 88bf 6060 99bf
000000e0: 38bb 9abf 0477 e6be 7007 63be 6e61 90be
000000f0: 7cce 16be 10b9 483f ee3a 0abf 3af9 11bf

running_mean f4 [64]
-20.313116 -34.793724 10.749249 -14.822639 6.770181 -8.523808 -1.3797895 5.320367
-6.46645 -22.151016 2.7926161 -28.07696 -1.9771241 -12.187354 5.565088 11.591349
-21.651554 1.6741513 -1.816806 -0.17367597 -5.950131 -0.67852795 -7.2217946 2.189556
3.2199905 5.1793375 -15.796427 -8.033823 -12.998821 4.2833347 -5.242324 -15.890105
10.984906 0.67570853 -14.61383 22.170977 -6.254932 2.1563647 -22.207571 8.9987335
-19.087835 -3.129294 -11.610358 -16.112528 7.0000997 -16.347807 3.7927566 -8.873983
-3.0574765 -4.4983015 -9.482766 -22.769157 -25.409805 3.1293468 -2.2969341 -13.798
-22.188824 4.846896 -35.547504 10.094237 -22.942003 -4.859014 -12.659714 7.6424108
00000000: 4381 a2c1 c62c 0bc2 edfc 2b41 8829 6dc1
00000010: 53a5 d840 8461 08c1 f19c b0bf 7240 aa40
00000020: 29ed cec0 4835 b1c1 39ba 3240 9d9d e0c1
00000030: 6712 fdbf 67ff 42c1 3315 b240 2a76 3941
00000040: 6236 adc1 974a d63f 198d e8bf 1dd8 31be
00000050: 7967 bec0 02b4 2dbf f118 e7c0 af21 0c40
00000060: 5314 4e40 22bd a540 2abe 7cc1 8a8a 00c1
00000070: 2cfb 4fc1 1411 8940 1ec1 a7c0 df3d 7ec1
00000080: 2dc2 2f41 3cfb 2c3f 3fd2 69c1 295e b141
00000090: 6728 c8c0 e101 0a40 1ba9 b1c1 d0fa 0f41
000000a0: e3b3 98c1 5a46 48c0 07c4 39c1 75e6 80c1
000000b0: d100 e040 4fc8 82c1 86bc 7240 d6fb 0dc1
000000c0: b2ad 43c0 16f2 8fc0 69b9 17c1 3c27 b6c1
000000d0: 4847 cbc1 3847 4840 f800 13c0 9cc4 5cc1
000000e0: b682 b1c1 c619 9b40 a530 0ec2 ff81 2141
000000f0: 3989 b7c1 0b7d 9bc0 308e 4ac1 a18e f440

running_var f4 [64]
439.39334 243.591 361.8054 286.29486 186.39415 387.3179 522.0739 316.2567
251.9731 206.74423 388.66815 525.4074 284.12836 325.65726 259.44562 466.22723
326.7336 290.2177 412.37582 248.7895 428.02402 251.51158 253.66806 252.83768
200.42776 246.61946 329.33463 339.941 503.85138 311.2899 386.9226 385.1862
320.20023 275.17355 311.1469 235.38521 279.0739 378.9055 707.63666 256.5205
232.96744 376.63953 342.83337 322.67166 296.1247 578.13745 430.50125 399.46265
216.71994 281.00986 265.91916 455.79544 572.5862 397.90204 303.01028 313.597
298.47528 408.70685 320.70053 422.44427 319.54578 337.894 392.5817 327.9254
00000000: 59b2 db43 4c97 7343 17e7 b443 be25 8f43
00000010: e764 3a43 b1a8 c143 bb84 0244 dc20 9e43
00000020: 1df9 7b43 86be 4e43 8655 c243 135a 0344
00000030: 6e10 8e43 21d4 a243 0ab9 8143 161d e943
00000040: e75d a343 de1b 9143 1b30 ce43 1dca 7843
00000050: 1303 d643 f782 7b43 06ab 7d43 72d6 7c43
00000060: 826d 4843 959e 7643 d5aa a443 73f8 a943
00000070: faec fb43 1ba5 9b43 1876 c143 d597 c043
00000080: a119 a043 3796 8943 ce92 9b43 9d62 6b43
00000090: 7689 8b43 e773 bd43 bfe8 3044 a042 8043
000000a0: aaf7 6843 dc51 bc43 ac6a ab43 f955 a143
000000b0: f60f 9443 cc88 1044 2940 d743 38bb c743
000000c0: 4eb8 5843 4381 8c43 a7f5 8443 d1e5 e343
000000d0: 8425 0f44 76f3 c643 5181 9743 6acc 9c43
000000e0: d63c 9543 7a5a cc43 ab59 a043 de38 d343
000000f0: dcc5 9f43 6ff2 a843 754a c443 74f6 a343
