unet/checkpoints/one_loss/epoch_29.pth (torch, 508787 bytes, 85 tensors)

weight f4 [8, 1, 3]
00000000: 6680 3ebf 6a91 93bf faf6 953f 8ba8 79bf
00000010: 5c33 09c0 8186 2c3d 4d41 193f b40d 1f3e
00000020: 411f 6cc0 acdd 863e 38ad 913e 45d4 2d40
00000030: 0763 0bbf 76f4 b4bf ce75 8cbf 0ab0 e5bf
00000040: ebc6 77be ce0a 78bf 5bca 8e3f fb6e 9fbf
00000050: 893c 20bd abda 0a40 3cb1 743e 9e63 123f
-0.7441467 -1.1528752 1.1715996 -0.975228 -2.1437597 0.04212046 0.59865266 0.15532571
-3.6894076 0.26340997 0.28452468 2.716081 -0.5444798 -1.4137104 -1.0973451 -1.7944348
-0.24196975 -0.96891487 1.1155504 -1.2455744 -0.03912023 2.1695964 0.23895735 0.57183254

bias f4 [8]
00000000: d6aa 84be cbcd ca3d 82f1 353e e434 833e
00000010: 853c cabe 0461 103e 469c 553d b5eb 2dbf
-0.25911587 0.09902533 0.17767909 0.2562629 -0.39499298 0.14099509 0.052150987 -0.67937785

weight f4 [8]
00000000: fbc6 953f aa5d ad3f 5ae2 f83f 1dd0 f03f
00000010: 19cb 0640 2faa c93f e922 813f 279d f73f
1.1701349 1.3544209 1.9444077 1.8813511 2.106146 1.5755061 1.0088779 1.9344834

bias f4 [8]
00000000: bfee 943f fddf 6fbe 6c76 35bf 121c 063f
00000010: 4a5f 403e edf0 3cbe cf8d 1c3f c2e0 6cbe
1.163536 -0.23425288 -0.7088382 0.5238658 0.1878635 -0.18451281 0.6115388 -0.23132613

running_mean f4 [8]
00000000: 5378 74be 7468 2b3e 1bb0 703e 1cf3 293e
00000010: af65 a7be 6362 963e 1833 b7bc 52a1 59bf
-0.23874025 0.16739064 0.23504679 0.16596645 -0.32694766 0.29371938 -0.02236323 -0.8501178

running_var f4 [8]
00000000: bea4 bd47 cb59 1649 3f07 3c49 1c56 2c49
00000010: 71ce 0749 1b45 0549 8cbf 6c47 503a 0949
97097.484 615836.7 770163.94 705889.75 556263.06 545873.7 60607.547 562085.0

weight f4 [16, 8, 3]
00000000: 39d6 6dbf d38b e53c a89f c4bf f977 6c3f
00000010: bc32 d1bf 1cc2 05bf ca34 3bbf f185 99be
00000020: ad7e 87be 3d52 b1be e1c8 2c3f 92b4 30bf
00000030: 0dbd 5dbf 8f15 03c0 fdd0 a6be aae0 3fc0
00000040: 344b a13c 075b b2bf c86e 2e3f 9f1a 033e
00000050: 2cf8 21bf 88a1 4f3e 67a7 063f 8266 45bf
00000060: b8ab 0440 0104 13c0 4345 903e 33b9 463d
00000070: b883 00bf 6b74 b03e ced8 01bf 42d4 343e
00000080: e6ae 21bf a00f 7b3f fccf 15bf 765d 89bf
00000090: 0730 bebe be7a 173f bb70 a9be 5b9c 1ebf
000000a0: 4a33 ca3e bc8b 6cbf 124a a4be 0c81 5cbf
000000b0: f86c d53f 322d 39bf 0c00 a8bf 80fd 293f
000000c0: df21 c8be 8659 11bf 5916 4d3b 62d0 95bf
000000d0: 6ec6 43be 53bb a9bd 8a07 653f 17bc d33e
000000e0: dfab 853f ecf3 893f 6d4f cb3f 062d c63f
000000f0: 62ea 7cbf e6c7 f7be 58b6 b0be fff7 09bf
00000100: b0d8 91bf 702f b83e 2836 d4bc 1d19 18be
00000110: bc9a 11bf c0a4 163f 02a2 a23f 129a b23f
00000120: 692a a0bf 657a 993e db5d 9bbf c237 1abe
00000130: 196a 993e 466f 943e 003f a33b fc1c 8dbd
00000140: a283 3f40 5760 24be 18bb 23bf 1b6a 73bf
00000150: e35e 8e3d b341 6b3e 7d97 1a40 b8c4 133f
00000160: ed21 47bf cc60 eb3f 2a1b 413e 3354 0b3f
00000170: 0d5d 17be 7d1c 603f 2fbb a4bf d71e 09be
00000180: 369f 773f 2504 6ebf fa96 58bf 7fd3 973e
00000190: a4d6 51bf 3122 24bf d059 0e3f 170b 0bbf
000001a0: 9ea8 e3be 118d b03f 0cf4 ae3d 811e d9bf
000001b0: ac4f 88bf 583d 84bf 5a75 71bf ba5c c43e
000001c0: 0362 3cbf c95d ca3e 2d2d 23be a517 353f
000001d0: bd13 003e fb85 053f 725b c23f 7c1b 03bf
000001e0: 9534 e33e ca05 81bf d7fb 513e d150 7fbf
000001f0: 9b28 58bf 8a87 1f3f 4ca3 a7be 4215 c53f
00000200: e51f 023f ff7a 713f 0c72 c63e 8135 8a3f
00000210: b453 30bf 1920 4bbe 115b e83e f8e2 cf3e
00000220: 82f3 28be a356 b03e 0a22 6bbf 0433 5cbf
00000230: 57e5 e33f 1b8d a8bf 2b48 e13c 2feb d13f
00000240: 5cec bfbf 4c2c bcbe 91d4 bc3e 57ba 00c0
00000250: 74cd 263f ff8c 523f c949 613f c942 643f
00000260: 20ff 2abf 984c cf3e 2c02 e4be a1c7 86be
00000270: f7a9 79be b74f 3f3f cd9e 373d 668a 383a
00000280: 12b8 58bf 002d 463f e64e 18c0 0939 2e40
00000290: babd 9a3e d90a 423f 3b24 c33e a0a8 82be
000002a0: 9e0d f03f 9e98 7abd 1eb7 bdbf 1086 813f
000002b0: 9954 27bf 70c0 a9bf e6e7 cebf 1dde bbbf
000002c0: 0707 92bc 696b e2bd c02b 723c 15eb 613f
000002d0: 8184 9a3e 1b1c 10bf e047 9abf 826b 163e
000002e0: 565c 693f 05ed 2bbf b156 8bbf 3488 a2bf
000002f0: 42a5 edbd e8be cfbf 9199 983e 457d 833f
00000300: 35b9 2a3f 1ddb d5bf faa0 033e 01ef 673e
00000310: ae95 a7bf 12fa 3abf b273 e5bf 527b e13d
00000320: 5ec8 a6bf b40f da3e 7b46 7bbf 8cd5 813f
00000330: afbc 023b 6336 33bf e5b3 ddbe f16b 7cbf
00000340: ecd7 203e c393 c6bf a82b 823e 629c 52bf
00000350: 219f 113f e244 10bd 36f7 93bf 78a7 443f
00000360: 72f8 ee3e aea7 28be 091b 203f ecdc 1dbe
00000370: cf87 f03e 253a 873e 384e ac3f b902 f43e
00000380: f762 28c0 fcd5 053f 86ee 0240 cb45 e13e
00000390: 108f ef3e f0b8 013f e65a 88bf 8870 9c3f
000003a0: 0c93 acbe e514 9fbe dcf6 333c 0630 2e3e
000003b0: f3e5 d0bf 2b2d 2e3f acfd b43f 0136 093f
000003c0: 8060 d53f d776 bd3f cf77 333f c668 fe3f
000003d0: aa9a 8d3e c939 39bf 53b2 07bf baff 65bf
000003e0: 3dfa 3ebf 209b 7abf 30a0 6bbf 80a5 653f
000003f0: 9772 973f 49e1 023f e662 08bf 0dc5 0140
-0.92905 0.028020775 -1.5361223 0.92370564 -1.6343608 -0.5224931 -0.73127425 -0.29985002
-0.26463833 -0.34633055 0.67494017 -0.6902553 -0.86616594 -2.0481908 -0.3258132 -2.9980874
0.01968918 -1.3934029 0.6813779 0.12803124 -0.63269305 0.20276463 0.52599186 -0.7710954
2.0729809 -2.2971194 0.28177842 0.048516463 -0.50200987 0.3446382 -0.5072144 0.17659095
-0.631575 0.98070717 -0.58520484 -1.0731647 -0.37146017 0.59171665 -0.3309382 -0.6195733
0.39492255 -0.9240072 -0.3208776 -0.8613441 1.667388 -0.7233459 -1.3125014 0.66402435
-0.39088342 -0.56777227 0.0031293838 -1.1704218 -0.19118664 -0.082876824 0.8946463 0.4135444
1.0443076 1.0777564 1.5883614 1.548249 -0.9879514 -0.48394698 -0.34514117 -0.53894037
-1.1394253 0.35973692 -0.02590473 -0.1485333 -0.5687673 0.5884514 1.2705691 1.3953269
-1.2512943 0.29976192 -1.2138017 -0.15060332 0.2996376 0.28991145 0.0049818754 -0.06890294
2.9924092 -0.16052376 -0.6395736 -0.9508378 0.06951692 0.22974281 2.415496 0.57722044
-0.7778614 1.8388915 0.18858019 0.5442535 -0.1478159 0.8754347 -1.2869624 -0.1339067
0.9672731 -0.92975074 -0.8460537 0.29653546 -0.8196814 -0.6411467 0.55605793 -0.54313797
-0.44464582 1.379305 0.08542642 -1.6962434 -1.0649314 -1.0331221 -0.9431969 0.38351995
-0.73587054 0.39524677 -0.15935202 0.70739204 0.1250753 0.5215756 1.5184157 -0.5121381
0.44376054 -1.0079892 0.20506226 -0.9973269 -0.8443696 0.6231619 -0.32741773 1.5397112
0.5082992 0.943283 0.38758886 1.0797578 -0.6887772 -0.19836463 0.45381978 0.4060285
-0.16499141 0.344411 -0.91848814 -0.86015344 1.7804364 -1.3168062 0.027500233 1.6399897
-1.4994006 -0.36752546 0.36880925 -2.0113733 0.65157247 0.8224639 0.8800321 0.89164406
-0.6679554 0.40488124 -0.44532907 -0.2632418 -0.24381243 0.7473101 0.04482918 0.0007039666
-0.8465587 0.77412415 -2.3798156 2.7222311 0.30222875 0.757978 0.3811358 -0.25519276
1.8754156 -0.061180703 -1.4821508 1.0119038 -0.6536346 -1.3261852 -1.616452 -1.4677159
-0.017825617 -0.11055643 0.014780939 0.8824933 0.30179217 -0.56292886 -1.2053185 0.14689448
0.9115652 -0.6715854 -1.0885831 -1.2697816 -0.11603786 -1.6230135 0.29804662 1.0272604
0.66688854 -1.6707493 0.12854376 0.22649767 -1.3092554 -0.73037827 -1.7925932 0.110098496
-1.3029897 0.42590106 -0.9815442 1.0143294 0.001994889 -0.7000486 -0.4330131 -0.98602206
0.15707368 -1.5513843 0.25423932 -0.8226987 0.56883436 -0.03522194 -1.1559818 0.7681804
0.46673924 -0.16470215 0.6254125 -0.15416306 0.46978614 0.26411548 1.346137 0.47658327
-2.6310403 0.5227964 2.0458083 0.4399856 0.46788836 0.5067282 -1.065274 1.2221842
-0.33705938 -0.3107063 0.010984149 0.17010507 -1.6320175 0.6803767 1.4139915 0.5359803
1.6670074 1.4801892 0.7010469 1.9875724 0.27657062 -0.723538 -0.53006476 -0.8984333
-0.74600583 -0.9789295 -0.920413 0.8970566 1.1831845 0.5112501 -0.5327591 2.027652

bias f4 [16]
00000000: 8f70 c53f da51 183f fda3 9ebd d9e0 ed3a
00000010: dbdb 843f 7aa8 13c0 f36f b5be f6c4 073f
00000020: 6a9c 653d 1dca 9d3f cd34 113e 3d1e 583e
00000030: cadb af3f b6b4 c5be 3fa9 eabf c891 1dbd
1.5424975 0.59499896 -0.07746122 0.0018148675 1.0379595 -2.307158 -0.35436973 0.53034914
0.05605737 1.2327305 0.14180298 0.21105285 1.3738949 -0.38614434 -1.83329 -0.038469106

weight f4 [16]
00000000: fdc9 8d3f 226b 963f 86a1 c83f 04a9 ba3f
00000010: 4f38 c33f 0627 7c3f bc6e 873f 0fdf c83f
00000020: 6067 553f c5d8 e63f 3f6a 843f a77f dc3e
00000030: eaee 803f 017b 383f 1937 d33f 1cbe bc3f
1.1077267 1.1751444 1.5674293 1.458283 1.5251559 0.98497045 1.0580668 1.5693072
0.8336086 1.8034903 1.0344924 0.4306614 1.0072911 0.7206269 1.650119 1.4745517

bias f4 [16]
00000000: b010 153e 62d0 57be c51c 593f c8ab a73f
00000010: 9e8d 823e 90d5 23bf 8bad db3f 3688 303f
00000020: 20b4 0ebe 317c c23f 5a4d 3140 ec8d d23f
00000030: 4f7b 9abe c5f7 a53e 9c98 eebe 66da bfbe
0.14557147 -0.21075585 0.84809524 1.3099298 0.2549867 -0.63997746 1.7162336 0.6895784
-0.139359 1.519415 2.7703462 1.6449561 -0.30172202 0.32415596 -0.46600807 -0.37471312

running_mean f4 [16]
00000000: ce22 f7c0 48c1 cfbf 2bd5 1e40 6818 303e
00000010: 5f40 f7bf 3dc8 cdbb 1909 47bf e527 4dc0
00000020: cb68 a0c0 8c0d c440 20aa c740 824c 8fbf
00000030: d919 71bf f63d e6c0 5426 c640 5fdc 1b41
-7.7229986 -1.623086 2.4817607 0.1719681 -1.931652 -0.006279974 -0.77748257 -3.20556
-5.012792 6.1266537 6.239517 -1.1195223 -0.94180065 -7.1950636 6.1921787 9.741302

running_var f4 [16]
00000000: c486 ea42 e8ea 0442 07fe d342 ed5c 9642
00000010: 0133 2c42 82d6 f241 e059 fe41 f08a 6f42
00000020: acff 9442 ee4d 3942 2ff3 5942 684f f741
00000030: 0c3e 0342 8987 4a42 33eb 4843 dd63 8b43
117.263214 33.2294 105.99615 75.181496 43.04981 30.35474 31.793884 59.88568
74.49936 46.326103 54.487484 30.913773 32.810593 50.63236 200.91875 278.78018

weight f4 [16, 16, 3]
00000000: 60df ebbf 322d a1bf 4d8b 6f3f 6355 9dbf
00000010: aaed c63e a75c 07bf 76c6 8dbf d4fb a63e
00000020: baa3 9c3f 04ef 04bf b2db 42bf 2778 d73e
00000030: e3c9 0bc0 feb9 88bf 6c31 b03f 1721 8fbf
00000040: 430e 1a3f 022c 8b3e 9b82 5dbf 8762 99bf
00000050: e9d9 bd3f 42da 44bf f330 133f b0d5 d73e
00000060: 82cf 01bf 8c89 d63e ad11 b5bf 9b8a efbf
00000070: 395a 003f 33c1 6f3f 26c9 28bf 1778 ebbd
00000080: 7fbc 8cbe 7782 19c0 3898 933e 8738 0ebf
00000090: e1c9 1e3f 13c1 9fbe 512b 913c 8304 293f
000000a0: 1671 443d b3f5 a3bf ec67 2fbf b13e dd3e
000000b0: cccb 093f 9a21 a1bf 5c91 cf3e 3cc2 143f
000000c0: 1c9b 77bf 0e1b 953f faa1 853f ecd5 48bf
000000d0: edc9 d3bf d4aa d1bf 4337 63bc 7ebf d73e
000000e0: 6310 a03f dc8b 91bf 20b5 f1bf 51b8 20c0
000000f0: e4ec 073f ecc9 96bd bbcc d2bd fb09 babf
00000100: b127 243f d6f1 893d b7c0 25bf eba8 b6be
00000110: 7fe0 f03e 1a30 eabe 1a95 653e d5aa 7a3f
00000120: 011d d7bf 21dd 163f 5fd3 473f 1f9a 4e3d
00000130: e579 b9be ce0e 5e3f 74a3 ebbe 8040 0cc0
00000140: 25d3 a4bf a675 ee3d 55ba 84bf b08a 813f
00000150: 7a87 afbf fa99 343e a240 adbf c9bf b4be
00000160: 36ca 413f 488e 563f 00c9 49bf a491 2fbe
00000170: 584e a43c b489 afbf bd3a 49be ca03 debd
00000180: c80d 9dbd f65e 063f 9f83 e43c 92af c8bf
00000190: a149 e3be a32f 1b3e 5996 2c40 f3f4 2e3f
000001a0: a0ad 2abf c05c 89bf 703d c23c adac 063e
000001b0: 0de0 bc3f 8c5a fb3e b590 7cbe 783a bfbe
000001c0: c09c 1fbf c084 853d b5fe 0340 4589 07bf
000001d0: 3fd6 73bf 6e49 28bd 7091 9bbf 982c 6abf
000001e0: 998e 14be 74c6 8c3e 7b3d 13bf cf55 e93f
000001f0: e13b f33e 32de 59bf fe69 16bf bc17 43bf
00000200: 2362 20bf b888 4fbf 37be 34bf 1ca7 45bd
00000210: bae6 84be 1b34 df3e 3a38 f83e 6c41 4bbf
00000220: ae92 f3be 84d1 483f 60e6 c5be dc67 3fbe
00000230: c62c 083f a54a afbe 57c8 c7bd 44ad a93e
00000240: ea01 383e 8298 13bf 1e35 ff3e f82e babf
00000250: aea8 82be f684 ecbf 7a90 1f3f c967 5fbf
00000260: b5b4 62be 2a56 d8be 172b 33be 6bec abbf
00000270: b8b9 153f baca 5fbf ef1c 38be b33e 26c0
00000280: e61d 31be 2bad 24bf e65c 9e3d 4930 03bf
00000290: 6547 02c0 74ed 88bf a7ba 49bf ebc8 0e3f
000002a0: 52df a4bf 10cb 383d f579 023e 8eeb d73f
000002b0: dbd9 41bf d853 89bf 5694 a33e dc81 a03e
000002c0: a946 58bf d4d9 6dbf f09f 11bf a073 6cbf
000002d0: f60f ccbc 6528 f23e c279 fbbf 3225 09c0
000002e0: 7a9f 073f 7604 7e3f 755b 123f 9d92 5cbe
000002f0: 4838 b7bf 1025 343f d923 633e 7c11 74bf
00000300: 11e1 e2bd a15d e3bf d553 15c0 a603 a7bf
00000310: ff78 023e 13c7 d8be 146b dfbe 64d2 b0bf
00000320: 70de 60bd 3d11 67bd 2b21 1bbf 52aa de3e
00000330: c282 6e3e 08d2 27bf 5cb8 dabf 5b60 35c0
00000340: 5422 6abe 0d68 3a3f 30bc 853f 47d3 8cbf
00000350: bdd5 afbe c324 3fc0 8ac7 8bb9 e69f e1bf
00000360: 84ed b7bf fb75 1b3f 67d2 31bf 66a9 423e
00000370: be32 c7bf b65b 353f da36 4fbe 2391 d83e
00000380: 350f 01bf af04 adbf 7358 8abd 5649 88bf
00000390: 3039 e0be d397 00c0 150a a43f 58fb 54bf
000003a0: ee56 413e 4201 83bf 46d0 16bd 7046 3fbf
000003b0: 4751 613f 6b47 273f 6bcc 91bf 79c9 5c3f
000003c0: dafd 63be 4a8f f4bd 8476 483f b8cb 5cbd
000003d0: 32f8 96bf 98f1 873e 619c 50bf 10a6 c83e
000003e0: 9e91 c43f 0add ac3e 92f5 1bbe 86c5 d0bf
000003f0: 5832 31bf ce12 8fbf 858c 8d3f a8fb 2dbf
-1.8427544 -1.2591918 0.9357193 -1.2291683 0.38853198 -0.5287575 -1.107619 0.32614005
1.2237465 -0.5192721 -0.7611648 0.42083856 -2.1841972 -1.068176 1.3765082 -1.1181973
0.6017801 0.27182013 -0.86527413 -1.1983193 1.4832126 -0.76895535 0.57496566 0.42155218
-0.50707257 0.41901815 -1.4146019 -1.8714174 0.5013767 0.93654174 -0.6593193 -0.11497515
-0.2748756 -2.398588 0.2882707 -0.55555004 0.6202679 -0.3120199 0.01772085 0.6602251
0.04795941 -1.2809356 -0.6851795 0.43211892 0.53826594 -1.2588379 0.40540588 0.5810888
-0.96721053 1.1648881 1.0440056 -0.7845142 -1.6545998 -1.6380258 -0.013868156 0.42138284
1.2505001 -1.1370807 -1.88834 -2.5112498 0.5309584 -0.07362732 -0.102929555 -1.4534296
0.64123064 0.0673558 -0.64747185 -0.3567575 0.47046277 -0.45739824 0.22420159 0.9791692
-1.6805726 0.58931166 0.780569 0.05043995 -0.3622581 0.8674134 -0.46023142 -2.1914368
-1.2876936 0.116435334 -1.0369364 1.0120449 -1.3713219 0.17636862 -1.3535349 -0.3530257
0.75699174 0.83810854 -0.78822327 -0.17145401 0.020056888 -1.3713899 -0.19651313 -0.108405665
-0.07668644 0.5248865 0.027894793 -1.567858 -0.44392112 0.1515489 2.6966765 0.6834251
-0.6667118 -1.073143 0.023710936 0.13151808 1.4755875 0.4909252 -0.24664576 -0.37349296
-0.62348557 0.06519461 2.062421 -0.5294383 -0.9524879 -0.041085653 -1.2153759 -0.91474295
-0.14507522 0.27495158 -0.57515687 1.8229312 0.4750662 -0.8510467 -0.5875548 -0.7620809
-0.62649745 -0.8106799 -0.70602745 -0.04825507 -0.2595728 0.4359444 0.48480397 -0.793967
-0.47572845 0.78444695 -0.38652325 -0.18691963 0.5319332 -0.34236637 -0.09755009 0.33140004
0.1796948 -0.57654583 0.49845213 -1.4545584 -0.25519317 -1.8478076 0.6232983 -0.8726774
-0.22139247 -0.42253238 -0.17496906 -1.3431524 0.5848651 -0.8741871 -0.17979787 -2.5975769
-0.17296562 -0.64326733 0.07732563 -0.5124555 -2.0356076 -1.0697465 -0.78800434 0.55775326
-1.2880652 0.04511553 0.12741835 1.686876 -0.75723046 -1.0728712 0.3194911 0.31349075
-0.8448282 -0.92910504 -0.5688467 -0.9236393 -0.024909955 0.47296444 -1.9646533 -2.1428952
0.52977717 0.99225557 0.571708 -0.21540304 -1.4314051 0.7036905 0.22181644 -0.9533918
-0.11078084 -1.7762948 -2.3332417 -1.3047988 0.12741469 -0.42339382 -0.43636382 -1.3814206
-0.054899633 -0.056412924 -0.60597485 0.4348932 0.23292068 -0.6555486 -1.7087512 -2.834006
-0.22864658 0.7281502 1.0448055 -1.1001977 -0.34342757 -2.9866188 -0.00026660814 -1.7626922
-1.4369359 0.607269 -0.69461673 0.19009933 -1.556236 0.70843065 -0.20235768 0.4229823
-0.5041383 -1.3517054 -0.067551516 -1.064738 -0.4379363 -2.0092666 1.2815577 -0.8319602
0.18880817 -1.0234759 -0.03681972 -0.74716854 0.88014644 0.6534335 -1.1390508 0.8624492
-0.22264805 -0.11941393 0.7830584 -0.05390522 -1.1794493 0.2655151 -0.81488615 0.39189196
1.5356939 0.3376239 -0.15230396 -1.6310279 -0.69217443 -1.1177614 1.1058508 -0.6796212

bias f4 [16]
00000000: e458 bc3f f51c adbe 434b 843f b834 ebbf
00000010: 684d 613f b0f3 3e3f 12fe 6abf 1fb6 5abf
00000020: d7f7 fc3e e255 123e 4d38 9ebd cecc e53f
00000030: 64b4 1dbe 1513 3cbf 86b0 6abf 6dc5 ba3e
1.4714627 -0.33811155 1.0335468 -1.8375463 0.8800874 0.7459059 -0.9179393 -0.85434145
0.49407837 0.14290574 -0.07725582 1.7953126 -0.15400845 -0.73466617 -0.91675603 0.3647875

weight f4 [16]
00000000: d152 7c3f 396c c53f d07e f83f b778 e73f
00000010: 9915 b43f ab90 0940 3cbc 823f f92a a03f
00000020: c7e2 a13f c2f3 9c3f 8f69 0140 7c81 a43f
00000030: 630c ba3f 0638 a03f 4c50 a83f 72d7 913f
0.9856387 1.5423652 1.94137 1.8083714 1.4069091 2.1494548 1.0213695 1.2513114
1.2647332 1.2261889 2.0220678 1.2852015 1.453503 1.2517097 1.3149505 1.1393874

bias f4 [16]
00000000: 41d9 11be d0fa f0bd 57de 733f 9db1 903e
00000010: 9fe9 ed3e 226e 243f 0c11 983f 56f6 8bbf
00000020: 3010 66bd 5196 c33e bc24 ff3d 80eb 88bf
00000030: 3e8c 343f 2197 b1be cb1e 8bbf 9011 babf
-0.14243032 -0.11766589 0.9526114 0.28260508 0.464673 0.6423055 1.1880202 -1.0934551
-0.05616778 0.3820062 0.124581784 -1.0696869 0.7052649 -0.34685615 -1.0868772 -1.453661

running_mean f4 [16]
00000000: e493 61c1 490a adc1 2334 96c0 83fd bcc1
00000010: 44ea bac1 ae99 f940 c774 b7c1 2bf6 2341
00000020: 545d 3ec0 3583 08c0 07b0 62c1 96a4 ee40
00000030: afae bcc0 0184 1041 9cc7 a541 3106 7c41
-14.098606 -21.630022 -4.6938643 -23.623785 -23.364388 7.8000097 -22.93202 10.2476
-2.9744463 -2.1330082 -14.167975 7.457591 -5.8963237 9.0322275 20.722466 15.751512

running_var f4 [16]
00000000: f87e 2a42 30bd 8b43 52a3 b642 d3c6 7342
00000010: 9b03 0243 6b4b bb42 6eab ad42 9b78 9742
00000020: 42fe b742 7efc 5143 1f56 af42 5c8f 9d42
00000030: c149 a043 f8a4 bd42 c614 0043 d2a3 3d42
42.623993 279.47803 91.318985 60.944164 130.01408 93.6473 86.83482 75.73556
91.9966 209.9863 87.668205 78.78 320.5762 94.822205 128.08115 47.40998

weight f4 [32, 16, 3]
00000000: 35b1 ccbf fb83 3dbe c357 1cc0 ccfd c5bf
00000010: 6867 8b3e 4b7f 923f 74f9 533e d6c8 5dbf
00000020: 9925 9d3f 59db 713f e127 53be ac3f 2d3f
00000030: 7fdd 3c3d acff 05be bb22 90bf 3b58 45bc
00000040: 3bc7 a23e a892 363e 418a 13c0 2925 c1bf
00000050: c598 1a40 7af7 023f 313e 63bd 6639 3abd
00000060: 0447 893f 320f f3be 1f5c bcbf 60fa d7bd
00000070: aafc afbf c996 07c0 1998 7dbe 8e52 43c0
00000080: e6f3 5dbf 9ceb 7ebf 9c77 97bf 8a2a 38be
00000090: fed9 fbbd 0a94 c4be 225a 47bd bd09 6f3f
000000a0: f504 e4bd 070d 2f3f 2d32 71be 8bcd 91bf
000000b0: d761 fabe 30f1 ae3f 1ed7 923e f8a3 9dbf
000000c0: c3c3 0b3f 288a 48bf 30d0 9c3e d15e a63e
000000d0: 0609 8abf 2611 763e 827b 97bf ca0c 45bf
000000e0: ae84 f93b 2093 16bf 4298 1fbf 3965 8d3f
000000f0: d2c2 353f 3f32 dabf 85bf aabf 55df 28bf
00000100: cab3 f73e 78e5 47be 95a7 27be 6e7b 93bf
00000110: 2646 dc3f 5eed 5f3f ea28 da3f 37a3 b0bf
00000120: c36a 80bf 353b a53f b51c 8abf 74b9 f53e
00000130: d728 05bf 5467 76be fd53 0a40 e809 55bf
00000140: d088 f6bf 4f5b 1b3f 88b9 33be 66bf cebf
00000150: 750d 90bf 1386 7fbf 54ea 373d dacc d2bf
00000160: c549 e93f 1859 ecbe 3a01 893f f153 1b3f
00000170: e535 423f b29b d5bd c73a f33e b460 53bf
00000180: 9fd0 cebe 849c bebe e18b ff3e fc8a e13e
00000190: 6d91 1e3f a565 953e 1466 83bf 3397 2fbf
000001a0: efba 3e3f 0549 92bf 6058 eebd 0a8f 863e
000001b0: 60ae 0dbe 0288 f23e 8238 1c3e 67a4 ebbf
000001c0: 89df 583d 76b8 04bf f726 51bf 2284 0bbd
000001d0: f277 38be 7f7c 683f 49e5 683f 2001 d1bf
000001e0: 3da7 dabf e7b6 1dbe 1a31 83bf 866b 2abd
000001f0: 63b9 be3f 307a 2e3f 85b9 0540 99f4 0fbf
00000200: c22b c2bf 65ff 43bf 4f00 a03f 9ea9 11c0
00000210: 31f0 5fbf a58b f8be 3c89 06bf 3157 c7bc
00000220: 456f 41bc e253 43bf 122b 9e3f d9eb 2f3f
00000230: ba7e 863e 3752 49bf 00e5 87bf bb05 1ac0
00000240: 57b6 833e 5530 c0bb a030 8c3e 0744 02be
00000250: 1dd6 10bf 3f99 d2bf dab2 9fbf e9d0 bfbe
00000260: 0cea 09bf c8c0 92bf b2c6 9abf 2cf4 b5bf
00000270: 5ed1 a8bf bf4c a2bf a4b7 423f da61 1fbe
00000280: 37ea 8abf 0977 55bf 75b4 483e b10f b8be
00000290: 32c1 43bf f0b0 473f 756f 253f 6b92 823e
000002a0: 5345 913f c3e9 863f 566c 083d 5916 56c0
000002b0: ff5d f0bf 1ab3 48bf 06dd 1fbe 7585 60bf
000002c0: be32 4dbe 5ac5 703e 6681 b2be 84d5 9bbf
000002d0: 6ba8 e33f 4572 473f 54cf 7bbf a73c 323d
000002e0: 668f 0f3e f587 e4be 7ebb 3abf 41cd d4bf
000002f0: 7ece 4cbf 340d e53d 69e8 a03e 0da8 623f
00000300: 5940 f9be 1c6c 0bbf 8945 a3be 1670 dfbf
00000310: f214 22bf 9297 79bc 4134 49bf 1fe1 3cbf
00000320: c67b 053f a245 923f cc40 423e fa7f 053f
00000330: 63ad f73f 2a7e 1cbf 13ec e1bf dc59 023f
00000340: fc5c 1240 3049 0f3f 4d41 a3bf 597e 61bf
00000350: 3eea 873f 50c9 57bf 24f4 603e 9671 86bf
00000360: 7dbf 8a3e d13d 3d3d fa3f 85be fca4 993f
00000370: 516b debd f975 a9bf 415d 11bf e5cf 8abe
00000380: 6068 c53f b5a2 4c3e b04f 543e 8ba7 b23e
00000390: c173 81bf 6772 ec3e 29d3 8abe dd66 1f3e
000003a0: 79f0 a33f bb22 2fbe 11be 24bf 1315 9dbf
000003b0: ff4a 21c0 69fe ea3e 147f 4ebf 8c45 ed3d
000003c0: 10d0 a2bf 7793 ee3d eb5d cc3d a002 003f
000003d0: 9175 d63e 9fd3 163f 7f27 7dbf 7600 2a3f
000003e0: accd 273e 8c3c 18be 8dc5 ec3e 1070 04be
000003f0: 9a1a c7bf 0c74 8e3e d8b8 283d 1a2c 303f
-1.5991579 -0.18507378 -2.4428566 -1.5468078 0.2722733 1.1445097 0.20700628 -0.86634576
1.2277099 0.9447532 -0.20620681 0.6767528 0.046109673 -0.13085812 -1.1260599 -0.012044962
0.31792626 0.17829382 -2.3053133 -1.5089465 2.4155743 0.5115887 -0.055479232 -0.045464896
1.0724797 -0.4747253 -1.4715613 -0.10545802 -1.3748982 -2.1185782 -0.24765052 -3.0519137
-0.86700284 -0.9957826 -1.1833377 -0.17984977 -0.12297438 -0.38394195 -0.04866994 0.93374234
-0.11133758 0.68379253 -0.23554297 -1.1390852 -0.4890277 1.3667355 0.28679746 -1.2315664
0.54595584 -0.7833581 0.30627584 0.32494214 -1.0784004 0.24029979 -1.1834567 -0.7697264
0.0076146936 -0.58818245 -0.623417 1.1046516 0.710004 -1.7046584 -1.3339697 -0.6596578
0.48379356 -0.19521129 -0.16372521 -1.1522043 1.7208908 0.8747157 1.7043736 -1.3799809
-1.0032581 1.2908694 -1.0790011 0.47993052 -0.5201544 -0.24062854 2.1613762 -0.8321824
-1.9260502 0.606862 -0.17551243 -1.615216 -1.1254107 -0.99813956 0.044901207 -1.6468766
1.8225638 -0.46161723 1.0703499 0.6067496 0.75863487 -0.10430087 0.4750578 -0.8256943
-0.4039354 -0.37228787 0.49911407 0.4405135 0.6194065 0.2917911 -1.0265527 -0.68590087
0.7450399 -1.1428534 -0.1163795 0.26281005 -0.1383605 0.4736939 0.15255931 -1.8409547
0.052947555 -0.51843965 -0.8170008 -0.03406156 -0.18014506 0.90814966 0.9097486 -1.6328468
-1.7082287 -0.15401803 -1.024936 -0.04160645 1.4900326 0.68155193 2.0894482 -0.562326
-1.5169604 -0.76561576 1.2500094 -2.2759776 -0.8747588 -0.4854404 -0.52553153 -0.024333568
-0.011806314 -0.7629987 1.2356894 0.6871925 0.2626856 -0.78641075 -1.061676 -2.4065998
0.25725052 -0.0058651366 0.27380848 -0.12721263 -0.5657671 -1.6453017 -1.2476456 -0.37464073
-0.5387275 -1.1465082 -1.2091887 -1.421514 -1.3188894 -1.2679671 0.76061463 -0.15564671
-1.0852727 -0.8338476 0.19600089 -0.35949472 -0.7646667 0.7800436 0.64623195 0.25502333
1.1349281 1.0540088 0.033306442 -3.345114 -1.8778685 -0.7839829 -0.15611658 -0.8770364
-0.20038888 0.23512784 -0.34864348 -1.2174535 1.7785772 0.77908736 -0.9836323 0.043514874
0.14019546 -0.44634977 -0.7294234 -1.6625139 -0.8000258 0.11184159 0.31427315 0.88537675
-0.48681906 -0.54461837 -0.3188899 -1.7456081 -0.6331321 -0.015233891 -0.7859536 -0.7378101
0.5214199 1.14275 0.1897003 0.521484 1.9349788 -0.6113001 -1.7650169 0.50918365
2.2869253 0.5597105 -1.2754303 -0.88083416 1.061836 -0.84291553 0.21968132 -1.0503414
0.2709922 0.04620153 -0.26025373 1.2003474 -0.10860313 -1.3239127 -0.5678292 -0.27111736
1.5422478 0.19983943 0.20733523 0.3489345 -1.011345 0.46181032 -0.27114227 0.15566583
1.2807761 -0.17103092 -0.6435252 -1.2272056 -2.5202024 0.45897225 -0.80662656 0.11585531
-1.2719746 0.116492204 0.09978851 0.50004005 0.4188657 0.5891666 -0.9888839 0.66406953
0.16387051 -0.14866847 0.4624447 -0.12933373 -1.5554993 0.27822912 0.041191906 0.68817294

bias f4 [32]
00000000: b7c8 bbbe 42a7 943e 852c 4fbf b9f5 20bc
00000010: ff2a a33e 37be 91bf bd70 613f 9210 d23e
00000020: 243d 89bf ded8 023f 4673 a8be a851 72bf
00000030: 253e 5bbe 4b14 1cbf 7361 b73e 77b3 97be
00000040: 8c0e 82bf 97c7 943f b874 3a3f 0393 12bf
00000050: 182e 87bf a268 a23f b072 a83f 6454 8c3e
00000060: 5a0a 5d3e baff 71bd 6c77 393f c3ea f3bd
00000070: f9c3 4cbf 6386 90bf 1333 b2be d841 f7be
-0.3667657 0.29033858 -0.80927306 -0.00982421 0.3186874 -1.1386174 0.8806265 0.41028267
-1.0721784 0.51112163 -0.32900447 -0.9465585 -0.21410425 -0.60968465 0.35816535 -0.29629108
-1.0160689 1.162341 0.7283435 -0.5725557 -1.0560942 1.2688181 1.316 0.27408135
0.2158598 -0.05908177 0.7244785 -0.119100116 -0.7998653 -1.1291012 -0.34804592 -0.48292422

weight f4 [32]
00000000: 95b2 953f 4df1 9f3f 2e86 8e3f 34f3 763f
00000010: a3bb d43f f9e0 8d3f 1bd1 263f 7037 503f
00000020: bcf0 983f a6f4 c13f eef6 563f df0d d03f
00000030: 17c4 bb3f 7967 0b3f 60e7 c73f 7e9b 543f
00000040: 61bc e03f 3010 ba3f 41a8 da3f b8ee a93f
00000050: e558 b83f f80e cc3f d943 ed3f f274 0640
00000060: 8d80 553f 31c8 eb3f 3ff9 ca3f 3fa2 803f
00000070: 502e 1440 45eb 7d3f 8972 b13f 584c 0140
1.1695124 1.2495514 1.1134698 0.9646485 1.6619762 1.1084281 0.6516282 0.8133459
1.1948466 1.5152786 0.83970535 1.6254233 1.4669217 0.5445476 1.5617485 0.8304976
1.7557489 1.453619 1.7082597 1.3275976 1.4402128 1.5942068 1.853633 2.1008878
0.8339928 1.8420469 1.5857314 1.0049514 2.3153267 0.9918712 1.3863078 2.0202847

bias f4 [32]
00000000: 5231 b13d c6c3 8e3e dbf3 b1be 3ca1 b43e
00000010: d795 d2be 426c e3bf b710 11bf 9d68 67bf
00000020: 4e3f 023f ee79 1e3d 662e 57bf d75b 6abe
00000030: e890 ca3c 06e3 5dbe 18da 30bd d453 f63f
00000040: 9620 bebd 7ca8 abbe 9f18 fe3e c585 35bd
00000050: 1eef a6bd 7db4 033f 9bba 943f 0688 38bf
00000060: 2188 e2be 4234 ddbe 5c7a 993e d5a2 adbf
00000070: ca84 afbf c39a e4bf 37fd 473e b7d5 85bf
0.08651985 0.27883738 -0.3475636 0.35279262 -0.41129944 -1.7767413 -0.5666613 -0.90394
0.50877845 0.0386905 -0.84055173 -0.22886597 0.0247273 -0.21668634 -0.04317674 1.9244332
-0.09283559 -0.3352698 0.4962816 -0.044317026 -0.08151077 0.5144728 1.1619447 -0.72082555
-0.44244483 -0.43203932 0.29976165 -1.3565317 -1.3712399 -1.785973 0.19530188 -1.0455846

running_mean f4 [32]
00000000: a01a 07c1 8753 e5c0 0918 02c1 8f1b 68c1
00000010: 2cab 33be eab5 df40 6673 af40 f425 c2c0
00000020: 9c32 25c1 944f c340 5fe9 9a3f cf59 eec0
00000030: a41d 8140 6adf 1640 a2ae b040 ad80 c3c0
00000040: 53d5 1fc1 668b 2540 d161 823f ba61 8f40
00000050: b121 e0c0 f126 d8c0 6660 57c1 d6da 3abf
00000060: 246d cac0 3ab7 1fc0 871a 20c1 c0a5 5241
00000070: 087b c740 9f48 a740 4cc1 96c0 d6e3 6c40
-8.444 -7.166446 -8.130868 -14.506728 -0.17545766 6.9909563 5.4828367 -6.067133
-10.324856 6.103464 1.2102469 -7.448463 4.0348682 2.357386 5.5213175 -6.1094575
-9.989581 2.5866332 1.0186101 4.4806795 -7.0041127 -6.7547536 -13.461035 -0.7299017
-6.325823 -2.4955583 -10.006476 13.165466 6.2337685 5.227615 -4.711096 3.701406

running_var f4 [32]
00000000: 7146 ea42 2a45 5642 e54b ce42 1a50 df42
00000010: 6662 9442 2f74 3b42 c7da 9d42 bddf 3b42
00000020: f909 ea42 3df2 0243 e860 bb42 78d0 1a43
00000030: 9339 0943 ca0f 9f42 9dd1 f542 5328 1e43
00000040: ec44 5842 f5e9 1043 e256 e942 a58d 6e42
00000050: 6713 e442 f5ad 9842 6041 ba42 73c3 5642
00000060: d3b2 9e42 47ad f542 bebc ed42 ab53 ba42
00000070: aa09 cc42 1bcc 0742 9175 3143 2219 ad42
117.13758 53.567543 103.14823 111.65645 74.192184 46.86346 78.9273 46.968494
117.01948 130.94624 93.68927 154.81433 137.2249 79.53084 122.9094 158.15752
54.067307 144.9139 116.66969 59.638325 114.037895 76.33976 93.127686 53.69087
79.349266 122.83843 118.86864 93.163414 102.018875 33.94932 177.45924 86.54909

weight f4 [32, 32, 3]
00000000: 8ca7 0440 f340 f63e 0b33 903f 41a0 eebf
00000010: 66bb 423e 3271 ecbe 7cea 0fbf ec79 fa3e
00000020: bcdc 93bd 0ed9 c93f f847 2f3e e671 f43d
00000030: 04e1 8e3f 5342 8f3f e107 33be bc03 03bf
00000040: dd8a 433f 341a b03f 6d66 73bf abdc 4f3e
00000050: 14e6 ed3e ff90 c63f e5eb 323f f9c4 95bd
00000060: 2617 e1bf fc05 70bf 00d4 bdbf 9451 85be
00000070: dcf7 e03e 4387 5bbe 64f1 613f 7ba5 313e
00000080: cac0 c43e 14e7 14c0 0150 07bf abe2 f0bd
00000090: 35fe 043f ce2c b2be 0d92 67bf 3eff a03f
000000a0: 3ad8 273f cb1b 93be 8641 953f 27c9 833f
000000b0: af1f 763e 0715 14c0 0966 5ebf 6abd edbf
000000c0: 5e5b ba3f 47cb 3ebe 154d 73bf 8676 dfbe
000000d0: 2257 583f 9970 9cbe 7165 3ac0 20dc 8ebe
000000e0: 32c1 7cbf 20d2 b0bf f562 20c0 10d1 f6bf
000000f0: e34b 41bf 2f9e 40be 8a4f 95be 6964 96bf
00000100: db8f 623e 8091 42bf afef 283d 70b1 7ebf
00000110: 358d 09c0 7c97 95be ee66 ba3f 4e4f 75bf
00000120: e126 38be 2dd6 5c3c 528c 54bf 177a 36c0
00000130: 1ddd 5cbe 0830 80be 4109 f3bd 4d50 6f3f
00000140: ffc3 8cbd bb7e 263e 8a8c 19be 3592 013f
00000150: c3ed 1ebf 1470 16bf fc78 d8bf 28a4 23bf
00000160: dfc5 123d e9ac c03e be7a 33bf 5e76 453f
00000170: d79a e9be 948d 31be d2fb 88be af7e 95bf
00000180: c466 373e 10da 3c3f 36e9 823f 81eb ea3e
00000190: 985a 82bf eec0 d6bf 7c06 6d3c 5f24 1bc0
000001a0: 8ea0 fcbf 00d6 60bf bafa 473f a7e5 dabe
000001b0: ae18 5d3f 2a1b c5be 6ab6 ccbd 69a6 18be
000001c0: 68e9 99bf 004f 833f e77e 4cbd 037a 3dbf
000001d0: 4deb bebf 233b cfbe 2ec2 8a3e 759e 31be
000001e0: 1db3 1f3f 39da cdbe 1b2b 7abf 6cab 053f
000001f0: 3d92 983e 0166 6bbf c223 bebf a604 e03d
00000200: 3cd0 913f c1cd 25be e892 cdbe 4827 afbf
00000210: 5354 29c0 b004 44bf 911d 933f 2a49 fa3d
00000220: 586a 3b3e 702d 683e 338b 0fc0 4fab a2be
00000230: e03c 2f3f 73f0 a3bf cb07 74bf 189a 58bf
00000240: 273a 613d 7ca6 263e bd08 763f 3ce1 093e
00000250: c952 10c0 a261 4f3e 9037 e63e 0cad 73be
00000260: 2d38 56bf 141b 45bf 4f67 f5be dadc d4bf
00000270: 7b7b d63f af34 f23e e341 4bbf d121 af3f
00000280: 9764 153e a0b1 a8bf 9c9e dc3e 6f05 61be
00000290: 56b5 cebf c434 28bf ee57 45bf 7401 cdbf
000002a0: 067a c93f 01ed 653f e5b5 73be 02a3 d03e
000002b0: 8018 29bf 43b1 a7be 8871 a83f 9dd8 13bf
000002c0: 9334 9ebf a868 3fbf 05e3 cf3e 2056 bb3e
000002d0: 2da7 30c0 e762 26c0 526e 0ebf 6559 67bf
000002e0: 4d98 fb3e efd8 0abf f714 01bf 8786 9abf
000002f0: 99ba 13c0 af85 80bf b7bd dcbf 711e b63e
00000300: 61e6 0ebf 0a35 d63e 2a84 343e 077c 84be
00000310: d6cc 96be 670d 41bf fa48 0fbf 03ad ffbe
00000320: d989 22bf 8516 323f 43e2 013f ba67 113f
00000330: 2ed0 9c3e debd 053e f339 973e fe60 6f3f
00000340: 6ba3 fa3b 22e5 aebf 311a 613f 4d47 6c3f
00000350: 984d fcbe 3be3 ce3e a2aa 0c3e eb18 0ebf
00000360: 0787 d4bf 2b60 603f 01c1 373f 2a26 02bf
00000370: 1608 2a3f c33e 8e3f c5d5 403f b388 9fbf
00000380: 905f 5a3f 75a3 293f c0e6 533f 15c6 ad3e
00000390: 8294 d73f f0ed 5dbf 7a1a 723f 22c9 1e3e
000003a0: 8a69 aabe 0c3d a13f 020a 9c3f 4bc3 0ebf
000003b0: b740 cf3f a179 aa3e db67 323f 5696 913f
000003c0: f019 103f df93 2fbe 028a 253f 744a 7a3f
000003d0: 9f8e b43d 409a 54be 80bf c43e bb11 db3e
000003e0: 978d d1bd f9e2 40bf 3914 18bf 3edf b6bf
000003f0: e3ac f93e 1b81 bbbe 1c80 55bf cccc bd3e
2.0727262 0.48096427 1.1265577 -1.8642656 0.190168 -0.4618011 -0.5621717 0.48921144
-0.07219836 1.5769365 0.17117298 0.11935787 1.1162419 1.1192116 -0.17483474 -0.51177573
0.76383764 1.3757997 -0.95078164 0.20299022 0.46464598 1.5512999 0.69891196 -0.0731296
-1.7585189 -0.9375913 -1.4830322 -0.26038802 0.43939102 -0.21438317 0.8825896 0.17348282
0.38428336 -2.326604 -0.5285645 -0.117619835 0.5195039 -0.34799808 -0.9045723 1.2577894
0.6556431 -0.28732142 1.1660621 1.0295762 0.24035524 -2.3137834 -0.86874443 -1.857343
1.4559133 -0.18632232 -0.9503949 -0.43645114 0.84507954 -0.30554655 -2.9124415 -0.27902317
-0.9873229 -1.3814125 -2.5060399 -1.9282551 -0.7550642 -0.18810342 -0.29162246 -1.1749393
0.22125189 -0.76003265 0.041244205 -0.994895 -2.1492436 -0.29217136 1.4562662 -0.95824134
-0.17983581 0.013478798 -0.8302661 -2.8512018 -0.21568723 -0.25036645 -0.118669994 0.93481904
-0.06873321 0.16259281 -0.14995018 0.5061372 -0.62081546 -0.5876477 -1.6911922 -0.6392236
0.035833236 0.3763192 -0.70109165 0.7713374 -0.45625946 -0.17339164 -0.26754624 -1.1679286
0.17910296 0.73770237 1.022742 0.458828 -1.0183897 -1.6777627 0.014466878 -2.424095
-1.9736497 -0.8782654 0.78116953 -0.42753336 0.86365783 -0.38497287 -0.0999573 -0.1490723
-1.2024355 1.0258484 -0.04992571 -0.740143 -1.4915558 -0.40474805 0.27101272 -0.17345603
0.6238268 -0.40205553 -0.97722024 0.52214694 0.2979907 -0.9195252 -1.4854662 0.109383866
1.1391673 -0.1619177 -0.40151143 -1.3683863 -2.6457717 -0.7656965 1.1493398 0.12220986
0.18302286 0.22673583 -2.242871 -0.31771323 0.6845226 -1.2807754 -0.9532439 -0.8461013
0.0549871 0.16274446 0.96107084 0.13464826 -2.2550528 0.20252088 0.44964266 -0.23796481
-0.8367947 -0.7699444 -0.4793038 -1.6629899 1.6756433 0.4730582 -0.7939741 1.3682195
0.14589153 -1.3179207 0.4308976 -0.21974729 -1.6149089 -0.65705514 -0.77087295 -1.6016068
1.5740364 0.89814764 -0.23799856 0.40749365 -0.6605301 -0.32752427 1.3159647 -0.577524
-1.2359794 -0.7476907 0.4060289 0.36589146 -2.7602036 -2.5997865 -0.55637085 -0.9037078
0.49139634 -0.54237264 -0.50422615 -1.2072304 -2.308264 -1.0040797 -1.7245396 0.355701
-0.5582028 0.4183734 0.17628542 -0.25875875 -0.29453152 -0.75411075 -0.5597073 -0.49936685
-0.6349159 0.6956561 0.50735873 0.567989 0.30627578 0.1306071 0.295364 0.93507373
0.0076488755 -1.3663676 0.8793059 0.92296296 -0.4927795 0.40407738 0.13736966 -0.5550677
-1.6603707 0.8764674 0.71778876 -0.50839484 0.6641859 1.1112903 0.75326186 -1.2463592
0.85302067 0.6626504 0.8277397 0.33940187 1.6842196 -0.8669119 0.9457165 0.15506414
-0.33283645 1.2596755 1.2190554 -0.55766743 1.6191624 0.3329592 0.6968972 1.1374004
0.5628958 -0.17146252 0.6466371 0.97769856 0.08816265 -0.20761967 0.38427353 0.42786965
-0.10232084 -0.7534633 -0.5940586 -1.4286878 0.48764715 -0.36621937 -0.83398604 0.3707031

bias f4 [32]
00000000: b1b4 64bf 4ca3 4cbe 21a5 00bf b461 b33e
00000010: 834f f3be 18b6 f4be 2fc1 83bf e7a8 2ebe
00000020: 3488 05bf 493c 03be 9ab7 8bbe 25e0 d1be
00000030: c7a9 91bf f237 5b3f 2e1a cf3f 2103 e23e
00000040: c3ea 643d 9b26 5f3d 8245 65bd 2bbd 593f
00000050: 1530 73bf a8ff 58bf 11aa 333e 4c98 c83d
00000060: b86f 84be 30b7 fd3e 1968 a9bb 9a02 053f
00000070: 3a00 193e ad86 56bf 4c94 30bf 1159 7cbf
-0.89338213 -0.19984168 -0.50251967 0.3503548 -0.475216 -0.47795177 -1.029333 -0.17056619
-0.52160954 -0.12815966 -0.27288514 -0.4099132 -1.1379937 0.8563224 1.6179864 0.44143012
0.05588795 0.054480176 -0.05597449 0.8505427 -0.9499524 -0.847651 0.17545344 0.09794673
-0.25866485 0.49553823 -0.00516988 0.51957095 0.14941493 -0.8379925 -0.68976283 -0.98573405

weight f4 [32]
00000000: e93a b63f 0392 623f 0915 923f 14b6 923f
00000010: 0c66 e53f 6c7d fb3f 6ef5 743f bda9 0040
00000020: 047a bd3f 4828 0040 5beb 793f 96d4 b73f
00000030: 8b2f bd3f 9233 b33f 22cf 9b3f 1482 8b3f
00000040: bf39 a53f 36aa e23f de0a 843f 9e8f 8c3f
00000050: 7b39 823f 1a7f c83f 129c f63f ed9f 0f3f
00000060: 7925 813f 1c0a fc3f 4a3e f83f 6316 ea3f
00000070: e116 2f3f f71d 9f3f 7ba8 e33f 3f6c 0040
1.4236728 0.88504046 1.141267 1.1461816 1.7921767 1.9647651 0.95686996 2.01036
1.4802861 2.0024586 0.9762475 1.4361751 1.4780134 1.4000113 1.2172587 1.0899072
1.2908248 1.7708194 1.0315816 1.0981328 1.0173792 1.5663788 1.9266379 0.561034
1.0089561 1.9690585 1.9394009 1.8288082 0.68394285 1.243102 1.7785791 2.0066068

bias f4 [32]
00000000: 3d3a 9b3f 3759 9bbd b52c fcbf b7a4 4e3f
00000010: fbce 2f3f f22b 15bf ed5b b0bf ca39 8e3f
00000020: 8f00 45bf ef33 a3be e658 c63f da65 37bf
00000030: d628 973e 6a1f efbe c330 6e3f 61d8 b5bf
00000040: 3aa5 77bf f3b7 12bf 6f6f bcbf 609f 19bf
00000050: 8bb1 b2be 6415 85bf 459e 093d 77d2 14c0
00000060: a715 9cbf 2061 f6be f6ae 843f fdd7 65be
00000070: a012 10be 9d82 87bf 403c 09bf 2ae3 c9bd
1.2127148 -0.07585376 -1.9701144 0.80720085 0.686752 -0.5827018 -1.3778054 1.1111386
-0.7695398 -0.3187556 1.549588 -0.7163979 0.29523343 -0.46703655 0.93043154 -1.4206659
-0.9673649 -0.57311934 -1.4721507 -0.6000881 -0.3490108 -1.0397153 0.033598203 -2.3253458
-1.2194108 -0.48120975 1.0365894 -0.22445674 -0.14069605 -1.0586735 -0.5360756 -0.09857781

running_mean f4 [32]
00000000: d91c 02c2 5bf7 ddc1 3757 aa41 1596 6ec1
00000010: 7e9a 943e 60df 82c1 355c 5441 85a6 7cc1
00000020: b847 fdc1 d182 06c0 90b5 67c1 3a8c 5e40
00000030: 97ec afc1 6145 67c1 3b54 32c0 2826 cb41
00000040: d3a8 ca3f fd4d b9c1 af23 3d41 42eb 8abf
00000050: 3395 00c1 ce30 8ac0 1b29 0941 4b42 afc0
00000060: 4128 7740 f4da 9d3e 640a 69c1 425e 36c1
00000070: 02b6 7141 0ec7 6440 bd58 10c2 edbb 0141
-32.52817 -27.745779 21.292585 -14.911641 0.29024118 -16.35907 13.2725115 -15.790654
-31.660019 -2.1017344 -14.481827 3.4773088 -21.990522 -14.454438 -2.786391 25.393631
1.5832771 -23.16308 11.821212 -1.0853045 -8.036426 -4.3184576 8.5725355 -5.4768424
3.861832 0.3083111 -14.565037 -11.398012 15.1069355 3.5746493 -36.08666 8.10838

running_var f4 [32]
00000000: 2e9c 7143 3c87 3544 f235 1043 ffa0 1043
00000010: 806b e243 6d12 7043 25dd e842 cd6e 7743
00000020: aadd a643 645d 4943 f74b b443 71d3 7943
00000030: 7c20 1144 9b9d 1044 5d56 c843 a5f7 3243
00000040: bd03 4b43 a841 9f43 5c1c 1d43 10f3 9d43
00000050: fbbd 7343 6866 9d43 3d02 5243 e7c7 e342
00000060: fe43 8143 3850 3a43 56a0 0c44 3d18 8843
00000070: fe30 b143 f882 2e43 9c6d b243 1493 8843
241.61008 726.11304 144.21072 144.62889 452.83984 240.07198 116.43192 247.43282
333.73175 201.3648 360.59348 249.82594 580.50757 578.4626 400.6747 178.96736
203.0146 318.51294 157.11078 315.89893 243.74211 314.80005 210.00874 113.890434
258.5312 186.31335 562.50525 272.18936 354.38275 174.5116 356.85632 273.14905

weight f4 [64, 32, 3]
00000000: 2df4 fcbf e44c 39bf 6282 a7bf b3ff 0740
00000010: 362f 57be d031 243f 09e1 853f 87a7 9e3f
00000020: 6ab5 ffbf 4b11 c8bf 26c4 babf db7c 83be
00000030: 8bb4 a6bf bc63 15c0 8c40 aebf ccde 883f
00000040: 3053 42bf cd70 02c0 56a3 1b3d e7cc 0d3f
00000050: 48a2 a23d 3440 65c0 e93e c0bd 1e0b dcbf
00000060: ab1e f3bf 59a0 37be c1db 2b3f e2b8 973f
00000070: 23cd d1bf 0528 54be 7925 c93e 2633 643f
00000080: 01ab b83f 596a 8d3f e8ea 44bd cf40 1bbd
00000090: fbb6 d13e c9d1 76bf 2be8 da3e 0079 f9bd
000000a0: 4fbb 153f b0ca f73f 2bfa 51bf 1198 f03d
000000b0: 50be 6e3e 3416 253f ffcd b83f 461b d9be
000000c0: 3027 393f fb19 80bf 61eb 8dbd dc94 5d3e
000000d0: 0d17 8ebf 7996 7e3f 12fd a93e 7124 293e
000000e0: c8c5 a03f 80eb 273f 7565 903e ee50 a1bf
000000f0: 3b79 19bf bed2 41bf 038f 613d d4ca 34bf
00000100: e2eb 64be 2716 63bf 8655 39bf f801 c2bd
00000110: 0906 75bf 689b 8f3f ae72 f4be d9f9 b6be
00000120: f83b 4c3f 251a 1fbe 1948 afbf f0c4 c63f
00000130: 5a36 193f cc53 103f 79c0 bfbf 623d 883e
00000140: c332 0840 eb2d f3be ead4 21bd 0f45 c0bf
00000150: b106 bb3f d693 43bf 39ed f9bf d555 a53e
00000160: bccf 1d3d 9a7e 4c3d b6f1 1fc0 ad65 5a3b
00000170: 2f49 ce3f 4ecb 9fbf 37cf 673e 639a a8bf
00000180: 367a 9dbf 5720 003f ae02 5cbf 6cd9 8b3f
00000190: 8b83 2abf 81ca a83c 71d9 98be ab02 e1be
000001a0: 7c9c 46bf 5d5d febe 65ac 853e 7d7f 893c
000001b0: ffae 8bbf d46a d2be 6baa 993e 88ec 183f
000001c0: 1530 e4bd 7006 3740 4c55 75be 6496 31be
000001d0: 2d43 b2be 7cee 2c3f b65e 073f 406d f4bf
000001e0: 3786 43bf b740 6b3f 2a5a 23be 4a60 4ebf
000001f0: ef09 313f eafc a7bf b897 aabd 8d74 023e
00000200: d44d c23f f3bf 1e40 2e09 98bf d199 0ac0
00000210: b4bb 9b3f 7a9a b5be 1f7a bebe e402 31bf
00000220: aa4a 89bf cb97 e3be 44a9 a73c 0094 e5be
00000230: e49a 93be 774f 03bf 8b51 013f 85f1 1dbf
00000240: c33c 1c40 8b8e f4bf eadf 07c0 b7d5 81be
00000250: bd25 843f 135b 3e3f 2452 693f a6b8 98be
00000260: 5a66 4e3e 73ea 533f 0a3f 4ebf cf1b 81be
00000270: f271 c93d fec3 0a3f 174e fbbd 8a7f 003e
00000280: 12c5 813f 7ff0 eebd ef4b 9abf 4d51 f6be
00000290: 7d2d 4fbf 8477 c5be c1a4 d83e 703a ebbe
000002a0: e28f 883e bab7 a33f 36b4 2bbf df8c bd3f
000002b0: 290d 883f ef5f f7be 3641 babe 22e1 6abd
000002c0: 2ca7 8d3f 6a12 bfbe 50bf 2dbf d8f0 f4be
000002d0: 2081 77be 0dbf 9dbe d8af 51bf 5f52 173f
000002e0: cd60 873e eb20 4b3e 6ff7 103f de96 d3bf
000002f0: 0b39 f53f 6b83 44be e490 aabe 076c 2ebf
00000300: e1a7 2340 54c6 ba3f dcb6 a63e 0a2d b5be
00000310: 549c ecbe 49c3 86bf d8d6 42be 18cc 893e
00000320: fac0 bdbf 8e50 d13e 1f14 a2bf 5c50 263f
00000330: 82eb 9ebd 2d86 5e3d f510 88bf 466d 80bf
00000340: 8a95 84be 5500 2e3e b72e 75bf 4de1 3ebf
00000350: 05aa acbf ddc8 933f 793e c3be a42b d43e
00000360: 0223 573f 518c 0f40 1d0b 63bf 6a3b 873e
00000370: 375f 3abf b8cc 31bf 2dc0 1bc0 23e1 11bf
00000380: 9931 11c0 063c e5be f15d 303e 1182 76bf
00000390: 2bdd 303f 3216 463f a93a 12bf 1df1 803f
000003a0: 91de 173f 22c6 dfbe 9e4d 04c0 1e0d 5e3d
000003b0: 5239 9abf b56a b93e a883 a0be 75de b0bf
000003c0: 55ee 80be 1be6 9c3d a878 35bf 28a2 a83f
000003d0: 2015 3f3f 2871 30bf 7de1 bb3d c282 513d
000003e0: f487 023e 3455 3fbf ed92 31bf 8ef5 f4be
000003f0: 2fbd 803f 0628 0fbf c372 64be 1ed0 953f
-1.9762017 -0.7238295 -1.3086665 2.1249816 -0.21014103 0.6413851 1.04593 1.2394875
-1.9977238 -1.5630277 -1.459111 -0.25681195 -1.3023847 -2.3342123 -1.3613448 1.0692992
-0.75908184 -2.0381348 0.037997566 0.5539078 0.07941109 -3.5820436 -0.09386999 -1.7190893
-1.8993734 -0.17932262 0.6713219 1.1853297 -1.6390728 -0.20718391 0.39286402 0.89140546
1.4427186 1.104808 -0.048075587 -0.037903603 0.40959916 -0.96413857 0.42755255 -0.12181282
0.58488935 1.935873 -0.8202235 0.11747754 0.23314786 0.64487004 1.4437865 -0.4240362
0.7232542 -1.0007929 -0.069296606 0.21638817 -1.1100785 0.99448353 0.3320089 0.16517808
1.2560358 0.6559372 0.28202406 -1.2602823 -0.5995061 -0.7571219 0.055068027 -0.7062199
-0.22355607 -0.88705677 -0.72396123 -0.09473032 -0.95712334 1.1219301 -0.47743744 -0.35737494
0.79779005 -0.15537317 -1.3693877 1.552885 0.5984856 0.56377864 -1.4980613 0.2660933
2.1280982 -0.4749597 -0.03950969 -1.5021075 1.4611417 -0.76397455 -1.952552 0.32292047
0.03852819 0.049925424 -2.4991279 0.0033324764 1.6116084 -1.2483919 0.2263764 -1.3172115
-1.2302921 0.50049347 -0.8594159 1.0925727 -0.6660697 0.020604374 -0.29853395 -0.43947348
-0.77582526 -0.49680606 0.2610809 0.016784424 -1.091278 -0.41097128 0.3001283 0.5973592
-0.111419834 2.859768 -0.2395832 -0.17342526 -0.34816876 0.675514 0.5287889 -1.909584
-0.7637667 0.9189562 -0.15952364 -0.80615675 0.6915578 -1.3124058 -0.08329719 0.12739773
1.5180001 2.4804657 -1.1877801 -2.1656382 1.2166657 -0.3546942 -0.37202546 -0.69145036
-1.0725911 -0.44451746 0.020466454 -0.44839478 -0.2882911 -0.5129313 0.5051505 -0.61696655
2.4412086 -1.9106001 -2.1230416 -0.25358364 1.0324017 0.7435772 0.9114096 -0.29828376
0.20156232 0.82779616 -0.8056494 -0.2521653 0.098361865 0.5420531 -0.12270754 0.12548652
1.0138266 -0.11666965 -1.2054423 -0.48108903 -0.80928785 -0.38567746 0.42313197 -0.45943022
0.26672274 1.2790444 -0.67071855 1.4808615 1.0629016 -0.4831538 -0.36377877 -0.05734361
1.1066642 -0.37318736 -0.67870045 -0.4784 -0.24170351 -0.30809823 -0.8190894 0.59110063
0.2644104 0.19836776 0.56627554 -1.6530416 1.9158033 -0.19190757 -0.33313668 -0.68133587
2.5571215 1.4591775 0.32561386 -0.35385925 -0.4621302 -1.0528346 -0.19027269 0.26913524
-1.4824517 0.4088177 -1.266239 0.6496637 -0.07759763 0.05432718 -1.0630175 -1.0033348
-0.2589534 0.16992314 -0.95774406 -0.7456253 -1.3489386 1.1545674 -0.381336 0.41439545
0.8403779 2.2429392 -0.8868883 0.26412517 -0.72801536 -0.69453 -2.4336045 -0.56984156
-2.2686522 -0.44772357 0.17223336 -0.96292216 0.69087476 0.7737762 -0.5712076 1.0073582
0.59323984 -0.4370585 -2.0672374 0.05421173 -1.2048743 0.36214224 -0.31350446 -1.3817888
-0.25181833 0.07661077 -0.7088723 1.3174486 0.7464161 -0.6892266 0.09173868 0.05115009
0.12747175 -0.74739385 -0.69364816 -0.47843593 1.0057734 -0.55920446 -0.22309403 1.1704137

bias f4 [64]
00000000: 4004 243f 06b6 113f f37e b6bd cd97 a13f
00000010: 9f4c 043e d1f8 843e 3b33 423f 26e2 11be
00000020: ecb5 d73e 8c97 fc3e 6e0b 2b3f b7cc 2dbf
00000030: 91a0 96be c034 0c3e f24b fbbe 53e0 f23e
00000040: f7f1 4b3f b19a 46be ef2f 37bd b72d 8cbe
00000050: 4c41 1fbf 9b33 803f f5c3 38bf 548e 8e3f
00000060: 2af6 6abf f67b 943f d488 18be bc05 1fbf
00000070: 16f5 51be 06b6 803c 0a4f e2bd a250 b4be
00000080: 888c f7be 9516 67be dc38 ccbe 05cf 35bf
00000090: 4ed5 8e3e d52b 0a3f 5c55 81bf 5e74 afbe
000000a0: c246 1f3f 25df bb3f 8e16 81bf f5c0 b53e
000000b0: b271 8bbe 5c0b fc3d b8f1 f53e 86d5 35bf
000000c0: 0bfb 75bf 8192 ba3d 4595 7c3d 1529 f93c
000000d0: 6b75 b3be 6425 0f3f 2e12 313d 246f 26be
000000e0: c744 1f3f 00e9 39be 86e1 5ebe ecac 2b3f
000000f0: 423a 963f 0068 76bf 030a 233f 37bc bb3e
0.64068985 0.5691837 -0.089109324 1.2624451 0.12919854 0.25971082 0.7585942 -0.14246425
0.42130983 0.4933437 0.66814315 -0.67890495 -0.29419377 0.13691998 -0.4908138 0.4743677
0.79666084 -0.19394948 -0.044723447 -0.27378628 -0.6220901 1.0015749 -0.72174007 1.1137185
-0.91781867 1.160033 -0.14895946 -0.62118125 -0.20503649 0.015711796 -0.11050232 -0.35217768
-0.48349404 -0.22567208 -0.3988713 -0.7101901 0.27897114 0.5397313 -1.0104175 -0.3426847
0.6221734 1.4677473 -1.0085008 0.35498777 -0.2723518 0.12306854 0.4803598 -0.71028936
-0.96086186 0.09109975 0.061665792 0.030415097 -0.3505052 0.5591643 0.043230228 -0.16253334
0.6221432 -0.18155289 -0.21765718 0.6706073 1.1736529 -0.9625244 0.6368715 0.36667034

weight f4 [64]
00000000: 7dc0 0940 fa6a a53f 0faf 6f3f 3186 0340
00000010: 2ce5 1740 78c0 7f3f 4bee c63f 05df a33f
00000020: 9b89 d43f fa6e 903f 7413 d63f a856 b43f
00000030: 0de8 ef3f b022 d03f 08b2 803f 3a10 9f3f
00000040: b4e5 e93f 58f2 723f 4fd6 cb3d d09d 8c3f
00000050: ff5a ef3f a799 7b3f 1430 c53f 9929 4e3f
00000060: 60a6 b03f dd2a 1440 ae54 0240 2ae4 e63f
00000070: f2ce a03f f85e 873f 8387 f23d 5e87 2340
00000080: cd62 993f 2782 733f bc61 cb3f ae9c e03f
00000090: ed5f 0840 3f57 673f 9be7 683f 64bf 973f
000000a0: f829 983f 3605 943f 409d ae3f af8d f63e
000000b0: 14a6 a93f 2f05 2d3f 7eda db3f 5b2e ad3f
000000c0: 69b1 963f dcfe 613f 894a 033e 02ee b93e
000000d0: d58f 773f a28f 0640 29ba 323f afbd ea3f
000000e0: faf3 893f 9a2e 1a3f fc8e 943f 1684 803f
000000f0: d950 bd3f f4a8 a83f fac6 ac3f 9eaf d63f
2.1523736 1.2923272 0.93626493 2.0550654 2.3733625 0.9990306 1.5541471 1.2802435
1.6604494 1.1283867 1.6724687 1.4088945 1.8742691 1.6260586 1.0054331 1.2426827
1.8273225 0.9490104 0.099529855 1.098566 1.8699645 0.9828133 1.5405297 0.80532223
1.3800774 2.3151162 2.0364184 1.803838 1.2563155 1.0575857 0.11842253 2.5551372
1.1983277 0.9512047 1.5889201 1.7547815 2.1308548 0.903675 0.909784 1.1855283
1.1887808 1.156409 1.3641739 0.4815497 1.3253808 0.67586035 1.7176054 1.3529772
1.1772891 0.8827951 0.12821402 0.36314398 0.96703845 2.1025167 0.6981531 1.8339137
1.0777581 0.6022736 1.1606135 1.004031 1.4790298 1.317656 1.3498223 1.6772344

bias f4 [64]
00000000: 5124 97bd 90e5 8bbf 152a febe dd05 63bf
00000010: be41 863e 27fa a23e adc9 d5be fd7f e5bc
00000020: 6ed1 23bf b540 e9be c37f b7be 7a8c f3be
00000030: d6c2 bcbf 98cb e2be 1171 5ebf 7585 bc3e
00000040: 994e 68be 20bf 34bf 00b5 a2bf 5f52 7fbf
00000050: 0c4d 25bf 6095 0140 539e be3f a673 2d3f
00000060: 4972 81bf c8a7 a8bd d041 dcbe 6a6e 17bf
00000070: fbd7 03be dbbe 00bf c5b1 a8bf 4757 823e
00000080: 843e e4be 544c 49bf 0265 8ebe 1efe 18bf
00000090: 49f8 3dbf ce0d a9bf 43e2 cebf 183e a3bf
000000a0: 9bc4 eebe 36eb f8be 4e87 b8be ec1b 9ebe
000000b0: a673 75bf a368 04c0 bd38 bf3f da1d 44bf
000000c0: 9648 20be 2c4d 27bf 35a9 16bf 4dca 8fbf
000000d0: dafd f9be 0e0a f43e 977f 47be 7ff0 0a3e
000000e0: b608 9bbf b77a f6bd 678b 28bd 738a 80bf
000000f0: 77e2 1dbf 6246 0540 2874 863f b87b 03bf
-0.07379974 -1.0929432 -0.4964148 -0.8868082 0.26222032 0.31831476 -0.4175543 -0.028015131
-0.6399144 -0.4555718 -0.35839662 -0.47568113 -1.4746959 -0.44295955 -0.86891276 0.3682057
-0.22686233 -0.70604134 -1.2711487 -0.99735063 -0.6457069 2.0247421 1.4892067 0.6775459
-1.0113002 -0.08235127 -0.4301896 -0.59152853 -0.12875359 -0.5029122 -1.3179251 0.25457212
-0.44578946 -0.7863209 -0.27811438 -0.5976275 -0.7420698 -1.3207338 -1.61628 -1.2753325
-0.46634373 -0.48616952 -0.3604073 -0.30880678 -0.9587959 -2.0688865 1.493919 -0.7660805
-0.1565269 -0.6535213 -0.5885194 -1.1233612 -0.48826486 0.4766392 -0.19482265 0.13568304
-1.2112033 -0.12035125 -0.04114857 -1.0042251 -0.6167368 2.0824208 1.0504198 -0.51360655

running_mean f4 [64]
00000000: bded 9dc1 6f4f 38c0 063c 7dc1 cd90 c2c0
00000010: 36c9 bbbf 969d 4540 ee9b 3e40 bcc2 e0c1
00000020: e5e2 1ac1 e19c ed40 65b9 82bf 4d0f b3c1
00000030: 87c9 10c2 acda d240 bfdb 1741 a9f2 84be
00000040: bce4 c13f 9b4c a53f 9d56 dd40 cc83 8e3f
00000050: 486c 01c2 44c7 1f41 0972 a0c1 2009 5541
00000060: c972 e0c1 872a a7c1 b77c fbc0 cf39 dfc0
00000070: 4ecf 2bc1 e186 2bc1 8f62 3b41 06ec 50c1
00000080: 4e45 a6c0 aff2 5ec0 1613 41be a889 60c0
00000090: 8819 1341 ed89 a340 bdad 4041 a86b d6c1
000000a0: afb0 ebc0 bf23 8dc0 5195 e6bf 6b19 81c0
000000b0: 882a d140 170b 8941 ae86 d2c0 6dbf b7bf
000000c0: c42a 27c1 3b94 8b40 072d d640 2e1a 7241
000000d0: 6a20 a7c0 9ee7 49c1 6050 97c0 d2dd 0841
000000e0: 01a8 ef40 2cf3 39c1 ea2b d640 a7bb 2141
000000f0: 99e4 3a40 ec4e 0bc1 8162 7fc1 c8d4 23c1
-19.741083 -2.8798482 -15.827154 -6.080176 -1.467078 3.0877433 2.9782672 -28.095085
-9.680394 7.4254003 -1.0212828 -22.382471 -36.196804 6.5891933 9.491149 -0.25966385
1.5147929 1.2914003 6.916823 1.1133971 -32.355743 9.986149 -20.055681 13.314728
-28.056047 -20.895765 -7.858974 -6.9758067 -10.7381115 -10.720429 11.711562 -13.057623
-5.19596 -3.4835622 -0.18854937 -3.5084019 9.193733 5.1105866 12.042417 -26.802567
-7.365318 -4.4106135 -1.8014318 -4.034353 6.536442 17.130415 -6.5789404 -1.4355294
-10.447941 4.3618445 6.6929965 15.131392 -5.222707 -12.619047 -4.7285614 8.554155
7.4892583 -11.621868 6.6928606 10.108314 2.9202025 -8.706768 -15.961549 -10.239449

running_var f4 [64]
00000000: 6bfc 8243 d4fb e342 27ef 1543 359e 3643
00000010: 13c1 5d43 7d2c 9743 a564 0b43 1bed 7d43
00000020: 0552 2143 1e24 c442 708f 5043 01ca d542
00000030: e0bb c842 86e4 7543 1356 4743 f7fd 4b43
00000040: bfbc 5a43 06b6 2f43 88af 1b42 dbf7 0843
00000050: 135b 2b43 8c9b 1e43 4305 2443 5328 df42
00000060: c222 4343 9c92 2543 b94f 1543 5149 5243
00000070: 92de 2e43 350f a942 6925 9f42 0dee 7d43
00000080: e8a4 0843 bf09 b042 a255 5c43 72b5 3a43
00000090: d956 0a43 8195 0343 11e6 0843 1444 5d43
000000a0: 44a1 5543 637c 3543 21ca 3b43 6527 1743
000000b0: bc7f f642 f7b9 0e43 d943 5a43 4e30 0543
000000c0: 3210 6f43 278e 2543 8c46 1043 6bbf 0b43
000000d0: 4dd7 5043 c820 3543 94da 6b43 fe68 3b43
000000e0: 056a 1843 d911 3e43 41ed 4643 2fd3 2c43
000000f0: 5974 3e43 9e25 4243 3ae3 4c43 7ef8 9043
261.97202 113.99185 149.93419 182.618 221.7542 302.34756 139.39314 253.9262
161.32039 98.07054 208.5603 106.89454 100.36694 245.89267 199.33623 203.99205
218.73729 175.71103 38.921417 136.96819 171.35576 158.6076 164.02055 111.57876
195.13577 165.5727 149.31142 210.28639 174.86942 84.5297 79.57307 253.92989
136.64417 88.019035 220.3345 186.70877 138.33925 131.584 136.8987 221.26593
213.62994 181.48589 187.78957 151.15388 123.24948 142.72643 218.26503 133.18869
239.06326 165.55528 144.27557 139.74773 208.84102 181.12805 235.85382 187.41013
152.41414 190.06972 198.92677 172.82494 190.45448 194.14694 204.8876 289.94135
