unet/checkpoints/one_loss/epoch_91.pth (torch, 508787 bytes, 85 tensors)

weight f4 [8, 1, 3]
00000000: e432 303f e801 83bd a0f1 7d40 3161 0d3f
00000010: d794 8bc0 9b0c 29bf bede b9bf a08f 0040
00000020: ef1f 653f a12e 97c0 f3a9 adbe 77e8 573f
00000030: 54a8 723f bcae 4bc0 9cb3 13bf 74fb 673f
00000040: 5c9e 9440 26fe 05be bc5b b0bf 5545 9e3f
00000050: 4dff 16c0 7bf0 6540 cd29 83bd 203f 81bf
0.6882765 -0.06396848 3.9678726 0.5522643 -4.361919 -0.6603486 -1.45211 2.0087662
0.8950185 -4.724442 -0.33918723 0.8433909 0.947881 -3.18254 -0.5769594 0.9061806
4.644331 -0.13085231 -1.3777995 1.2364908 -2.3593323 3.5928028 -0.06404457 -1.0097389

bias f4 [8]
00000000: 85dc 1d3e 7bfa 46bd b857 23bd 90c0 e43e
00000010: 8110 0cbe 9d53 683e e159 abbe 7bd9 523e
0.15416153 -0.04857872 -0.039878577 0.44678164 -0.1367817 0.22688146 -0.3346701 0.20590775

weight f4 [8]
00000000: 1e73 be3f 87fc 0240 77a7 0a40 602e 0b40
00000010: 7927 393f 360d 4b40 331b 803f 069d 1e40
1.4878881 2.046663 2.1664712 2.1747055 0.72325855 3.1726813 1.00083 2.478334

bias f4 [8]
00000000: 3641 04c0 b587 a73e d5f7 d13f 40bd 1640
00000010: aa85 6640 b770 e6bd 8d50 1cbf 0a32 42be
-2.0664802 0.32720724 1.6403757 2.355301 3.6019082 -0.112519674 -0.6106041 -0.18964401

running_mean f4 [8]
00000000: fb4e 12be 0a2b bfbd 4dc3 e43d 0374 873f
00000010: 4b4d 75be e69c d93d f6ab c9bc 7c8b 74be
-0.14287941 -0.09334381 0.11170063 1.0582279 -0.23955266 0.10625629 -0.02461813 -0.23881334

running_var f4 [8]
00000000: 5195 9249 09c8 8e49 f389 3048 8185 8a49
00000010: f358 f048 d99e cb49 0365 b948 7809 dc48
1.2008101e+06 1.1696651e+06 180775.8 1.1347681e+06 492231.6 1.6680591e+06 379688.1 450635.75

weight f4 [16, 8, 3]
00000000: 5121 1f3f 8ae0 bebf 9d9b 66c0 ebfc b73f
00000010: 85e4 833f 6e55 a6bf 04ec a6bf 9444 9f3f
00000020: 9a1b 903f 860b eb3f c304 8340 9686 563f
00000030: 19e0 4240 3195 963f e444 dcbf d044 3ac0
00000040: 8007 e5bf 1b25 f8bd 696a c53e f1be 9ebf
00000050: 00a1 993f 310f 483f 2e24 21bf 30b6 62bf
00000060: cb69 383f fa22 f53f f46c 323e 02e6 af3e
00000070: f071 b73f cf69 6cbf 65c5 9a3f 4561 5b3f
00000080: f6aa 8b3e d69f 19c0 3626 39be 562b 833f
00000090: d317 e9be 33f3 603f 3466 d8bf fc7e 8d40
000000a0: 56ba 1140 ea17 0640 4682 03bf beb6 48bf
000000b0: 8cc4 a53f 5f1f 3abf f9b7 0840 1a19 313f
000000c0: 51ec ddbf 8546 9f3f 2be3 11c0 e78a 423e
000000d0: 6f03 6a3f 33f4 1d3d f554 88bf 56b1 06c0
000000e0: a8c8 773f 5b7e 82c0 037a 0e3f c031 433f
000000f0: 638a 233f f316 aa3f b9f2 6abf 9c8a 3a3f
00000100: 4e49 b4bf ca94 07bc 4027 d3bf 389d 6c3f
00000110: 7251 e23f 5b42 e93f 0f36 8abe 869a 12c0
00000120: 3661 8740 ee2c a83f 03fd 08bf b0b7 1b40
00000130: 89ca 5b40 ddf8 293f 0262 f1be f84d a83e
00000140: 207d d0bf 0dac 533f ad4d 3f40 0759 153f
00000150: b7e3 a93f dabe 0940 2006 df3e 2243 8fbf
00000160: f6e5 383f bdcd 25c0 e6a4 803e 2163 0040
00000170: 2005 c7be fd56 0cbf b5ae b9bf 018e ca3f
00000180: 0c6f 1a40 2432 10c0 0f0a 3bc0 a590 bebf
00000190: 4405 38c0 e274 81bf 8db4 11bf 1b64 b6bf
000001a0: 7e65 0cc0 a81f a6bf efdf 81bf e97e f8bc
000001b0: c0b8 373f 30d6 0bbf 76ee 003f cca3 e53f
000001c0: e619 a53d 105d 97bf 077e bb3e a2ee 29c0
000001d0: a279 90bf e646 2040 cb27 cb3f a830 f43e
000001e0: 9f77 1440 6aa1 0ebf f771 0fc0 1395 2240
000001f0: b7dd d63f 409a 4840 fc36 abbe 40da 01bf
00000200: dcfd 03c0 a640 3c3f 4e0b 1340 89ec 533f
00000210: bf39 df3f 69f4 b23f d908 1840 5ab9 68be
00000220: d38a 1f3d 123f e6bf 6777 b43e 4341 ac3f
00000230: ae6c 48be 63cb ab3f 0af9 a43f f437 ab3f
00000240: cc62 2a3f bd32 29bf 5171 983f 125d 86c0
00000250: 4299 a73f ec6e 6cbe 9866 26c0 91ba adbe
00000260: 108a 463e 2584 a8bf d61c 2dc0 5be4 073f
00000270: c5e0 1cc0 862d 903f d9fd a73e ceaa 4fbe
00000280: db94 23bf 8ff9 67be 545f 823f fe6f e73f
00000290: befa c9bf a268 3b3f e6e8 09c0 433a 00c0
000002a0: 1501 d53f b316 a13f e828 26bd 7a9c 873e
000002b0: da9d 35c0 26d9 123f 459c 58bf 50d8 fb3f
000002c0: f65d 58c0 5e24 37bf bb45 9e3f 36d9 49bf
000002d0: 0f29 f23e 9de5 34c0 3750 e9bd 4776 0740
000002e0: 2e60 bf3f 6d8c 73bf 9cfc 2ac0 9b30 8f3f
000002f0: 2d04 cc3e ef9b f63d ad10 c63f 5bf6 cc3e
00000300: 5244 af3f e83c 00c0 d82b b23f f7de aabe
00000310: 341a 4d3f 716d be3e 25a5 8fbf aba2 79c0
00000320: 21c1 cc3e 841a 3fc0 3081 bebd 5079 c93e
00000330: 505b d8be 13fc 953f c813 1340 8327 11be
00000340: d27a 52bf dee2 80c0 a3b2 8dbf 5da7 e5bf
00000350: 539e 8d3f b031 e63f 9ef9 b2be a54b 1e3e
00000360: 6d4e 5bc0 187e 87bf eb55 38bd e9a1 833e
00000370: aa9c 8abe d4c2 5040 9baa 00bf e139 2dbf
00000380: f753 1ec0 0b36 1fc0 f70f fb3e 14ae 51bf
00000390: 0b91 2b3f 5847 6a3f 7892 7740 bac0 683e
000003a0: be09 dcbf a6f3 3cc0 6eee c5bf a0cd b83f
000003b0: fb50 4bbe 5a86 d93f 16e3 b03e 25c8 0fbe
000003c0: 0735 0bbd ffd1 163f baaa 9a3d 72da fc3f
000003d0: ce33 0940 f44d 1840 406d 0dbf ce38 24bf
000003e0: 269e 9cbe 5261 133f 4244 f33f 15c4 fa3f
000003f0: 7433 ce3f 61b4 d43f 85b8 e93f 4c76 8b3c
0.6216021 -1.4912274 -3.603248 1.437406 1.0304114 -1.2994821 -1.3040776 1.2442803
1.1258423 1.8362892 4.0943313 0.8379911 3.0449278 1.176428 -1.7208524 -2.91045
-1.7892914 -0.12116452 0.38557747 -1.2402021 1.2002258 0.7814818 -0.6294583 -0.88559246
0.7203643 1.9151299 0.17424375 0.3435517 1.4331646 -0.9234895 1.209149 0.85695297
0.2727887 -2.4003806 -0.18080983 1.02476 -0.4552599 0.8787109 -1.690619 4.421751
2.276998 2.0952096 -0.51370656 -0.7840384 1.2950606 -0.7270412 2.1362288 0.69178927
-1.7337743 1.2443396 -2.2794902 0.189983 0.9141149 0.038562965 -1.0650927 -2.1045737
0.9679055 -4.0779243 0.55654925 0.7624779 0.63883036 1.3288254 -0.91776615 0.7286775
-1.4084871 -0.00827522 -1.6496353 0.92427397 1.7681105 1.8223375 -0.26994368 -2.2906814
4.2306166 1.3138711 -0.53511065 2.4330864 3.4342368 0.6639536 -0.47145087 0.32871985
-1.6288185 0.82684404 2.989116 0.5833897 1.3272618 2.1522737 0.4355936 -1.1192362
0.7222589 -2.5906823 0.25125808 2.0060503 -0.38871098 -0.54820234 -1.4506441 1.5824586
2.4130278 -2.2530603 -2.922489 -1.4887892 -2.8753214 -1.0113795 -0.56916124 -1.42493
-2.1936946 -1.2978411 -1.0146464 -0.030333953 0.7176628 -0.546237 0.5036386 1.7940612
0.0806158 -1.1825275 0.3661959 -2.65519 -1.1287119 2.5043273 1.5871519 0.47693372
2.319801 -0.5571505 -2.2413309 2.5403488 1.6786412 3.1344147 -0.33440387 -0.5072365
-2.0623693 0.73536146 2.297565 0.827828 1.7439498 1.3980838 2.37554 -0.22726956
0.038950752 -1.7987998 0.35247347 1.3457416 -0.19572708 1.3421444 1.2888501 1.337645
0.66557 -0.66093045 1.1909581 -4.198861 1.3093646 -0.23089188 -2.6000118 -0.339314
0.19388604 -1.3165327 -2.704885 0.5308282 -2.4512188 1.1263893 0.32810858 -0.2028
-0.6389901 -0.22653793 1.0185342 1.8081052 -1.5779645 0.7320653 -2.15484 -2.003556
1.6640955 1.2585052 -0.040566355 0.2648657 -2.8377595 0.5736259 -0.8461345 1.9675388
-3.380735 -0.71539867 1.236503 -0.7884706 0.4729695 -2.8265145 -0.11392253 2.116594
1.4951227 -0.9513615 -2.671668 1.1186708 0.39846936 0.12041461 1.5473839 0.40031704
1.3692725 -2.0037174 1.391963 -0.33373234 0.8011811 0.37192872 -1.1222273 -3.9005535
0.39991096 -2.9859934 -0.09301984 0.39350367 -0.42257166 1.1717552 2.2980824 -0.14175229
-0.8221866 -4.0276937 -1.1070141 -1.79417 1.1063942 1.7983913 -0.34956068 0.15458544
-3.4266617 -1.0585356 -0.045003813 0.25709465 -0.2707265 3.2618914 -0.50260323 -0.6766644
-2.4738748 -2.4876735 0.49035618 -0.8190625 0.67018193 0.9151511 3.8683147 0.2272977
-1.7190473 -2.9523711 -1.5463388 1.4437752 -0.1985511 1.6994126 0.34548253 -0.14041193
-0.033986118 0.5891418 0.07552095 1.9754164 2.143787 2.379758 -0.5524483 -0.6414918
-0.30589408 0.57570374 1.9005206 1.959109 1.6109452 1.6617547 1.8259436 0.017024182

bias f4 [16]
00000000: d743 63bf c953 883f 2137 b3be 6b09 193f
00000010: f6da a23f f902 ab3f 3403 353f 9ad2 31bf
00000020: 708d c03f 67ac ccbe b195 48be d565 a1bd
00000030: 8c5e 723f ef01 e13f 8e60 3540 1bf2 833f
-0.8877539 1.0650569 -0.35002998 0.59779996 1.2723072 1.3360282 0.7070801 -0.6946198
1.5043163 -0.39975283 -0.19588353 -0.07880751 0.9467552 1.7578715 2.8340182 1.030826

weight f4 [16]
00000000: 986c c33f 47a7 fe3f a210 a13f c311 e63f
00000010: 340e e53f 4935 9d3f 6427 513f b1fd 773f
00000020: dbd2 a23f 820d a73f 88fa 813f 051a e23f
00000030: 402b 0840 f180 0e40 41fd c63f 8a7e da3f
1.5267515 1.9894799 1.2583201 1.797417 1.789496 1.2281886 0.8170073 0.9687148
1.2720598 1.3050997 1.0154581 1.766419 2.1276398 2.22662 1.5546037 1.7069867

bias f4 [16]
00000000: d32f b83f 5cc6 cebf 148d 023f 3e23 963e
00000010: ff2e 303f 4260 653e 244d 213f 3ef9 5740
00000020: bb3a 6f40 a1b8 8d3f fd07 5abe 27d9 f1be
00000030: e405 2bbe 4b17 433f 805e 253f 0b64 8a3f
1.4389595 -1.6154284 0.5099652 0.29323763 0.6882171 0.224 0.6300833 3.3745875
3.7379596 1.1071969 -0.2129211 -0.47235987 -0.16701466 0.7620742 0.6459732 1.0811781

running_mean f4 [16]
00000000: 8533 b141 cf94 1741 be94 00c1 40de cc41
00000010: dad6 37c1 e1f8 0442 0193 bdc1 2a88 3ec1
00000020: 6bee d3c0 3e03 8d40 7241 ef41 fec1 b541
00000030: 437b 07c1 2487 ac3f d7b9 8dc0 0a61 0241
22.150156 9.47383 -8.036314 25.60852 -11.489954 33.243046 -23.69678 -11.908243
-6.6228538 4.406646 29.906956 22.719723 -8.467593 1.3478742 -4.4289355 8.148691

running_var f4 [16]
00000000: 9e28 0944 b6bb 1044 794e d942 f2f1 0c44
00000010: 4adb 2b43 40d2 f543 2d31 c142 b8b5 0d43
00000020: d8ac 7643 4f2a 8443 7c2e 1144 345a 5943
00000030: 47e6 5044 a39c 8f43 1819 c642 dd62 5f44
548.63464 578.933 108.65327 563.7804 171.8566 491.64258 96.59605 141.70984
246.67517 264.33054 580.7263 217.35236 835.5981 287.22372 99.04901 893.54474

weight f4 [16, 16, 3]
00000000: 3dc6 48c0 a1ee 3e3f 7ab4 2cbe 504a f63f
00000010: 16d0 a03f a098 a8bf 02b9 2ec0 b34e d6bf
00000020: dbf9 2cbf 4744 f63d 6341 633e 4749 8a3e
00000030: df22 c8bd 40fb 693f f1fe 0040 45c6 d33d
00000040: d345 bbbf 9dfe 8cbe 6519 57bf ede1 e73e
00000050: 0a4a ae3f 042e dc3e ba25 913f 6fe6 87bf
00000060: 9851 7fbf 1a10 b23e fa82 5640 ab23 83bd
00000070: 0f8e 8b3d 0260 4e3f bbc9 133d 519d 50bf
00000080: 9473 12bf feb0 2ebf 1eb6 5abf 0dba 29c0
00000090: 0b07 1c40 011f ed3f ec57 19bf 1d65 5cbf
000000a0: 327c c3bf 19ad 62c0 cd82 ffbf 67de 9f3e
000000b0: cc65 89bf b204 4e3e 6eb6 c03f 2fe0 903f
000000c0: 31f0 3dc0 f12c 783e b29f 5c3f 6885 eabf
000000d0: b446 8abf 9661 543f e0e0 a0bf 09a9 5f3f
000000e0: 8cc2 97be f9c6 eebe 52f2 3e3f 1725 8a3f
000000f0: e55f 8240 e4e5 863e 4f5e 1dbf 58be 39be
00000100: 5cc8 ca3e 7427 be3e bb74 3fbf 508b 0d3f
00000110: 4ca0 0cbd 047a 5fbf ecee f0bf 3afa 0dc0
00000120: 0284 29bf fef2 a13f 3b3e e1bf 0e50 9dbf
00000130: ab90 743f c223 21c0 7534 b3bb 50fc 1e3f
00000140: ec6d e73e 88e3 bbbf 656a a93f dcd1 a5bf
00000150: 0f06 bc3f 7569 65be f636 00be aa8b a2c0
00000160: cf8a 9abf 36dd 59bf 08f1 81c0 7bf4 c2be
00000170: f93b 18c0 26ae 47bf 22d2 ed3f b347 8c3e
00000180: 0866 fcbf 895d 49c0 b4c3 82bf bc0b 8640
00000190: edf2 193f 8ff7 0cc0 c576 cabf 275f 233f
000001a0: 2e8e 94bf b1ed 8dbf 8d0c b6bf a4f5 aebf
000001b0: 4c1e fa3e 1536 91be e07e a43f 33bc be3e
000001c0: 0bee a8bf 0386 abbe c187 39c0 025d 1040
000001d0: 099b 5c3e f861 0a3f a8c8 753f 28b5 9d3e
000001e0: 46bf 08c0 25ab 7c3f 0c83 993f b122 36c0
000001f0: b62d 09c0 fdd9 b53e a62e bd3e 8a19 aebf
00000200: 1b73 043e 76dc ecbf 019a 6d3f 2881 13c0
00000210: 06b6 5f40 4bd0 d53f d876 aabf 9920 be3e
00000220: 8508 f9bc df52 30bf bccd afbd ea04 9f3e
00000230: 2da7 5cbf 43cd b0bf f2a6 cdbf b23e bebf
00000240: 4e57 32bd a8b9 1dbf c6cc 553f f7ab 08c0
00000250: 864f 093f 66a0 ad3f 65be 2f3f 1b9f 26bf
00000260: b4b8 69c0 271f a1be 2206 0c3f 907a 253f
00000270: e23c 5a3f e610 2c3f c33d 8ebf be1e 60be
00000280: 27d6 a93f 8ba8 393f 1cf7 843f 9258 79bf
00000290: 6b99 bebf 0000 edbe 83b0 74bf 7a03 13bf
000002a0: 4473 a53f 6089 b03e b023 cbc0 65d9 973f
000002b0: 9691 823e 4082 f3bf f355 4dbf 680c b93f
000002c0: 9c30 9c3e 4bd5 0c3f 167c 883f 4b5f d1be
000002d0: a31e 23c0 6816 403e 3d88 e23f f4f6 843e
000002e0: 49cb b83e 0aaa 6940 7ef2 96bf 1ae7 38bf
000002f0: ab2f 3dc0 d1c2 153f 0c90 ac3f c44f 843e
00000300: dea0 113f a83a 893f 1180 e4be cf66 fabe
00000310: c64a 20c0 574f 20bf f3d0 35c0 500f 133f
00000320: a23f 92bf 92e6 cc3f 3782 e93f e0c2 25c0
00000330: afb6 9c3e a8c5 833d 35dc 5c3e c2d1 ce3f
00000340: 8df4 b73f 38b6 20c0 7879 1cc0 b512 813f
00000350: eabb a4be 2930 62be 3926 e4bf 7304 8ebf
00000360: 8d9a acbf 212e 62be 0d14 dbbf ec4a fdbe
00000370: a9ef 02bf b04a 43c0 6283 d73f 3ac1 663f
00000380: a4da 24c0 ec7e d63f b51c 8c3e ef53 33c0
00000390: 2423 e6bd da77 14c0 a7b5 84bf 715e d2bf
000003a0: 5585 67bf 432a 1b3e 1c8e b7bf 0b5a 35c0
000003b0: 3b1f ce3d ab85 293f e72b 973f 8c42 c5bf
000003c0: d079 0fc0 ed25 2d3f 7907 e23f 1d31 0040
000003d0: a569 543f 23f7 0ec0 82d2 823f 31ce 32be
000003e0: aeb5 c13d 3a72 78bf 6ee5 0440 19df 2540
000003f0: b33a 0340 9f34 183f 2c62 84bd e1b9 50bf
-3.1370995 0.7458287 -0.16865721 1.9241428 1.2563503 -1.3171577 -2.730042 -1.6742767
-0.6756875 0.120247416 0.22192912 0.2700903 -0.09772276 0.91399 2.0155604 0.10340551
-1.4630684 -0.27538005 -0.84023124 0.45289555 1.3616345 0.43003857 1.1339638 -1.0617198
-0.9973388 0.3477791 3.3517442 -0.064032875 0.06814205 0.80615246 0.036081057 -0.81490046
-0.5720761 -0.6823882 -0.8543414 -2.6519806 2.4379299 1.8525087 -0.59899783 -0.86091787
-1.5272276 -3.541815 -1.9961792 0.31224367 -1.0734191 0.20118979 1.5055673 1.1318415
-2.9677851 0.24235894 0.86181176 -1.8321962 -1.0802827 0.82961404 -1.2568626 0.873673
-0.29640615 -0.4663618 0.745885 1.0792569 4.074206 0.26347268 -0.6147203 -0.18139017
0.39605987 0.37139475 -0.7478749 0.552907 -0.03433256 -0.87295556 -1.8822913 -2.2183976
-0.6621705 1.265228 -1.7597116 -1.2290056 0.95533246 -2.5178075 -0.0054689 0.6210375
0.4520105 -1.4678812 1.3235594 -1.2954669 1.4689349 -0.2240351 -0.12520966 -5.079549
-1.2073611 -0.85103166 -4.0606728 -0.3807715 -2.3786604 -0.78000104 1.8579752 0.27398452
-1.9718637 -3.146334 -1.0215974 4.1889324 0.601363 -2.2026098 -1.5817496 0.63817066
-1.160589 -1.1088163 -1.422258 -1.3668714 0.4885124 -0.28361574 1.2851219 0.3725296
-1.3197645 -0.3350068 -2.8989108 2.2556767 0.21543516 0.5405574 0.960093 0.30802274
-2.1366744 0.98698646 1.1993117 -2.8458674 -2.143415 0.35517874 0.36949652 -1.3601544
0.12934534 -1.8504779 0.92813116 -2.304758 3.4954848 1.6704191 -1.3317518 0.37134245
-0.03039957 -0.6887645 -0.085841626 0.31058437 -0.8619259 -1.3812641 -1.6066573 -1.4862883
-0.04354029 -0.61611414 0.83515584 -2.135496 0.5363697 1.3564575 0.68649894 -0.65086526
-3.6518984 -0.3146908 0.5469686 0.6464014 0.8524915 0.67213285 -1.1112598 -0.21886727
1.3268479 0.725228 1.0387912 -0.9740077 -1.489057 -0.46289062 -0.95581836 -0.5742718
1.2925801 0.3447981 -6.3481064 1.1863219 0.25501698 -1.9024124 -0.80209273 1.4456911
0.30505836 0.5501296 1.0662868 -0.40893015 -2.548745 0.18758547 1.7697827 0.2596966
0.36092594 3.6510034 -1.1792753 -0.72227633 -2.9560344 0.5850039 1.348146 0.25842106
0.5688609 1.0721025 -0.44628957 -0.48906562 -2.5045638 -0.62621063 -2.8408782 0.5744524
-1.1425669 1.6007864 1.8242863 -2.5900192 0.30608127 0.06434184 0.21568377 1.6157763
1.4371506 -2.5111217 -2.4449139 1.0083834 -0.32174617 -0.22088684 -1.7824165 -1.1095108
-1.3484665 -0.2208791 -1.7115494 -0.49471223 -0.5114694 -3.0514336 1.683697 0.9013859
-2.5758448 1.6757483 0.27365652 -2.801998 -0.11237171 -2.3198152 -1.0367936 -1.6435071
-0.90437824 0.1515284 -1.4340243 -2.8336208 0.100645505 0.66219586 1.1810273 -1.5410933
-2.2418098 0.67635995 1.765853 2.0029976 0.829737 -2.233834 1.0220492 -0.17461468
0.09458481 -0.97049296 2.0765033 2.5917418 2.0504577 0.59455293 -0.06464037 -0.8153363

bias f4 [16]
00000000: 7906 3fbf 008b 3a3f 0aa3 093f d5c3 f5be
00000010: b9f0 e93f 5077 583f c798 05bf b3f2 123f
00000020: 9513 053f 46de 4ebe 28e7 e1bf 69d2 7bbf
00000030: 4fb6 8d3f decb 0ec0 b396 2cbe 7dc5 dbbf
-0.7461925 0.7286835 0.537644 -0.4800097 1.8276588 0.84557056 -0.52186245 0.5740158
0.51983005 -0.20201978 -1.7648668 -0.98367935 1.1071261 -2.231193 -0.16854362 -1.7169644

weight f4 [16]
00000000: 0e19 bd3f 43b7 3140 1eba 2240 3145 fc3f
00000010: 2e57 1e40 1d15 1f40 d555 0440 cad3 743f
00000020: c82c 0740 cb50 ef3f 21a9 0b40 80ce 2b40
00000030: 9c36 0b40 2c63 2e40 aef7 2040 a9eb e73f
1.4773271 2.7768104 2.5426097 1.9708616 2.474071 2.4856637 2.0677388 0.95635664
2.1121082 1.8696531 2.1821978 2.6844788 2.175208 2.724803 2.5151172 1.8118793

bias f4 [16]
00000000: f50f 0940 22a2 1cbe ee64 cd3e 9f78 09bf
00000010: de00 483f cd83 743f 3b0e bc3e 265f e43f
00000020: b692 0b3f 74a6 8d3f 0f4e 1a3e 99e7 003f
00000030: 2b77 87be ff12 82bf f6d6 ef3e 3872 2cbf
2.141599 -0.15296224 0.40116066 -0.5369968 0.78126323 0.9551361 0.36729607 1.7841537
0.5452074 1.1066422 0.1506884 0.5035339 -0.26458105 -1.0162047 0.4684369 -0.67361784

running_mean f4 [16]
00000000: 5bd5 dfbf 096a 30c2 68bf b5c1 7569 d1c1
00000010: ef4d 32c2 1102 0c42 58c4 97c2 1a82 b3c1
00000020: ac9c 15c2 f71b a241 e7c1 a7c1 0d5c 1642
00000030: 6dfe 76c1 d928 91c1 901c b341 4b8c 82c2
-1.7486986 -44.10355 -22.71846 -26.176493 -44.576107 35.002018 -75.883484 -22.438526
-37.403 20.263655 -20.969679 37.589893 -15.437116 -18.144945 22.388947 -65.27401

running_var f4 [16]
00000000: d0a2 9943 05b4 9743 978a 9444 54d8 d443
00000010: fd81 bf43 92ec 4044 e877 9b44 4463 1544
00000020: 3bee 7f44 19d9 c043 c226 c743 696e 3e44
00000030: 73c1 3244 89c4 b143 8526 d843 edf2 8843
307.27197 303.4064 1188.3309 425.69006 383.01553 771.6964 1243.7471 597.551
1023.72235 385.69608 398.3028 761.72516 715.02264 355.53543 432.30093 273.89786

weight f4 [32, 16, 3]
00000000: 5216 1a3e e97a d0bf a3df 453e bd02 163f
00000010: c790 ffbd 1f20 9dbf e145 d33f 1024 50bf
00000020: 4269 253f e0ec db3e 9e89 8fbd 34d3 1bc0
00000030: 569b 54c0 39cc 6cbf 1568 65bf 0960 a0bf
00000040: c33a d0bf d4c7 eabf 6e6f 923f 0b5b 92bf
00000050: bf86 b3bf 6ff1 a7bf 8829 273f 080a 73bf
00000060: 9d21 623e ed1a 65be 9991 17bf df1d 8a3e
00000070: 1595 acbf c388 7cc0 7f08 8fc0 e8bf 593f
00000080: ce2e c7bf 958c 18bf b23c 01c0 ccd7 55c0
00000090: cf8c 9ebf 9ae4 15c0 7495 0ac0 c307 a7bf
000000a0: 9597 96bf aaba 32bd 4ec2 37bf ce78 c4bf
000000b0: 66cd 8c3f 958c a2bf 7e34 583f 795e 63be
000000c0: b961 79bf eab5 25be 7ad7 2c3f 81f2 15c0
000000d0: 08dc 733f f140 253e d6e7 aebf 35eb 27be
000000e0: 0fc2 0a3e c449 40bf a0fc 33bf 5894 893f
000000f0: b83b d5bf 2d6f 27c0 ad3b bf3f 003d 9abe
00000100: 3296 593e e6a1 d93f 294e f33d 6923 c53f
00000110: af3f 813f d854 a33f d6bd d63f 79f5 953f
00000120: ace3 933e 3b87 0a40 5890 8c3f 2beb cabf
00000130: df65 003f 39ca 2bbe cbfe b6be 48a3 513f
00000140: e0c5 c0be cb6d 25c0 e38e 16bf 6c32 06bf
00000150: 04ee 243f af21 9b3f 8d56 4740 71dc 573d
00000160: 9391 df3f 908b 8140 45e2 02c0 68d7 a7be
00000170: 1de2 afbd 3caf 10c0 dcc0 b7bf e45c cb3f
00000180: 1f8d 1ebf f52c e7bf 60e0 9abf daff b4bf
00000190: 51a5 65be c236 ff3f c2b3 d8bf 69af 07c0
000001a0: 2e38 ebbf 6414 1bc0 d9f5 6b3e edf8 5d3e
000001b0: 9eb8 f8be a93a f8bf 1047 dfbf 5d13 03c0
000001c0: 3bd7 b63e 61f8 f93f 86fb 223e 71e3 613e
000001d0: c270 843e b920 e23f 5f82 5d3f 71ae 063e
000001e0: 5eb5 363f 7311 8e3f 7587 92bf 8101 4ebf
000001f0: ff75 36c0 5103 ce3d 5f23 97bf f9c4 ff3f
00000200: b27c 753e 4f2b 3ec0 ee50 13c0 51e7 8cbf
00000210: a73d 8dbf 1e7c a63f 909c 0940 330d 783e
00000220: 6b2a 583f b20b 1440 cb53 e6bf c650 45c0
00000230: b3f8 7e3f 6b99 10c0 4839 e1bf cf6a 37be
00000240: e478 1040 6234 8c3f a98a 2dc0 e234 ba3e
00000250: 525a 76bf 032f eb3f b291 1740 00c4 143f
00000260: f952 30c0 e542 8c3f bfce 0bc0 662a e13f
00000270: 3a96 44c0 755c dfbe 3925 a13f 33cf d73f
00000280: 0589 0340 90be fdbf ac40 283f f1d7 03c0
00000290: f4f3 43be 8160 27c0 9825 a6bf 8bbd b13f
000002a0: bfbc a7bf a6dc 1dbf d888 f1bf 60c8 9f3e
000002b0: 285f 08be 000d b83f 6e91 d0bf 12e3 0d3e
000002c0: 69e3 883f 7bae 073f 9057 183e 0f26 3e40
000002d0: a916 81bd fa3a 03bf a2fb acbf 3df1 c83d
000002e0: ab18 3f3e 94a5 17c0 3b01 3f3f 50ef 82bf
000002f0: 0e60 06c0 a7fd 4ebf 55e7 993e 07bd 05c0
00000300: 5a0a f4bf a20a bcbf 1992 27c0 fd89 b1bf
00000310: 39dc 443e ac16 85be 887b 7fbf bd83 a33e
00000320: 64a5 643f 442b 27bd 6e89 43bf c712 873f
00000330: 33d1 04c0 a313 55c0 4034 c7bf ecaa 66c0
00000340: 6f21 16bd d650 993f 6cad 4d3e 1c07 74be
00000350: 3393 87be 03f7 113e 3178 0cc0 8c31 52c0
00000360: 3f72 6d3f d5d0 2a3f a383 93bf bc29 14c0
00000370: 753d 8ec0 226d 473f 2518 dabf aa53 37bf
00000380: a465 603f e3de 93bf 9e4b 823e 34b7 08bf
00000390: a00e c03e 69fd 3bbe ba4c 503f 025c 3fbf
000003a0: babf d9be f9c5 8540 ce76 ee3d 38ba 8f3f
000003b0: 6bd1 463f 986f a2bf ed80 0ac0 d1fa dd3f
000003c0: b438 8bc0 2320 373f c03b f3bd 4a02 0d3e
000003d0: 5b76 3bc0 a5df ea3e 652b 6ec0 382b 953e
000003e0: 2d87 973f 7f26 463f c2f4 adbf c9e5 12bf
000003f0: c999 90bc d731 693f 4fb5 2bc0 368c cfbe
0.15047577 -1.6287509 0.19323592 0.5859793 -0.12478786 -1.2275428 1.65057 -0.81305027
0.64613736 0.4295416 -0.0700867 -2.4347658 -3.321981 -0.9249912 -0.8961194 -1.2529308
-1.6267933 -1.8342233 1.1440256 -1.1434034 -1.4025496 -1.3120555 0.65297747 -0.9493718
0.22083135 -0.22373553 -0.5920654 0.26975915 -1.3482996 -3.9458473 -4.469787 0.8505845
-1.5561159 -0.5958951 -2.0193295 -3.3412962 -1.2386721 -2.3420777 -2.165372 -1.3049244
-1.1765009 -0.043635048 -0.7178086 -1.5349367 1.1000183 -1.2699152 0.84455097 -0.22204007
-0.9741474 -0.16182676 0.6751629 -2.3429263 0.95257616 0.16138054 -1.3664501 -0.16398318
0.1355059 -0.7511256 -0.7030735 1.0748396 -1.665885 -2.6161606 1.4940087 -0.30124664
0.21248701 1.7002532 0.11880142 1.5401431 1.009756 1.2760267 1.6776683 1.1715537
0.28884637 2.1645038 1.098155 -1.5853018 0.5015544 -0.1677636 -0.35741267 0.8188977
-0.37650967 -2.5848262 -0.5881178 -0.5242069 0.64425683 1.2119654 3.1146576 0.052700464
1.7466301 4.0482864 -2.0450604 -0.3278153 -0.085880496 -2.2606955 -1.4355731 1.5887723
-0.61934084 -1.8060595 -1.2099724 -1.414058 -0.22426344 1.9938586 -1.6929858 -2.1200812
-1.837652 -2.4231195 0.23043002 0.21676989 -0.48578352 -1.9392902 -1.7443562 -2.0480568
0.35711083 1.9528924 0.15916261 0.22059418 0.25867277 1.7666236 0.86527056 0.13152482
0.71370494 1.1099075 -1.1447588 -0.80471045 -2.850952 0.10059226 -1.1807669 1.9981986
0.23973349 -2.9713933 -2.3018146 -1.1008092 -1.103444 1.3006628 2.1501808 0.24223785
0.84439725 2.3132138 -1.7994322 -3.083055 0.99598235 -2.259364 -1.7595606 -0.17911838
2.2573786 1.0953486 -2.7115881 0.3636847 -0.9623157 1.8373722 2.3682675 0.5811157
-2.7550642 1.0957915 -2.1844938 1.7591064 -3.071669 -0.43625227 1.2589484 1.6860107
2.055238 -1.982378 0.6572368 -2.060055 -0.1913603 -2.6152651 -1.2980223 1.3885969
-1.3104476 -0.6166481 -1.8869886 0.31207561 -0.13317549 1.4378967 -1.6294382 0.13856152
1.06944 0.5300061 0.14877152 2.971073 -0.0630315 -0.51261866 -1.3514292 0.098116376
0.18661754 -2.369481 0.7461125 -1.0229282 -2.0996127 -0.8085579 0.30059305 -2.0896623
-1.9065659 -1.4690745 -2.618292 -1.3870236 0.19224633 -0.2599386 -0.9979787 0.31936446
0.89314866 -0.040812746 -0.76381576 1.0552605 -2.0752685 -3.3293235 -1.556282 -3.6041822
-0.03665298 1.1977794 0.20085686 -0.23830837 -0.26479492 0.14254384 -2.194836 -3.284274
0.9275245 0.667249 -1.1524547 -2.3150473 -4.445002 0.779009 -1.7038618 -0.71612036
0.8765509 -1.1552395 0.25448316 -0.53404546 0.37511158 -0.18358387 0.81367075 -0.7474977
-0.42529088 4.1804166 0.11643754 1.1228704 0.77663296 -1.2690306 -2.164119 1.7342168
-4.350672 0.7153341 -0.11876631 0.13770404 -2.9290988 0.45873752 -3.7213986 0.29134536
1.1838127 0.7740249 -1.3590319 -0.57381874 -0.017651455 0.91091675 -2.6829412 -0.4053666

bias f4 [32]
00000000: 3909 81bc 3805 66bf 06d2 8b3f 34cc b8be
00000010: af8f 273e 74c3 413f 0ce0 57be 90de fabd
00000020: d7ee 94bd adbc cd3f b7f4 6dbe 6630 ed3d
00000030: 963d cf3d edd8 843f ce1e ec3e d116 9fbf
00000040: 1943 b93e 5773 473f f9c2 ea3f a030 d53e
00000050: 6d95 db3f d4d8 b73d f193 0540 f0de 00be
00000060: 9d52 82bf bdce da3f d62c a43f 9cc8 b7bf
00000070: d613 5d3f a297 10bf 454a 6a40 3570 9d3e
-0.015751468 -0.89851713 1.0923469 -0.36093295 0.16363405 0.7568886 -0.21081561 -0.12249482
-0.072721176 1.6073204 -0.23237883 0.11581497 0.101191685 1.03787 0.46117252 -1.2428838
0.36184004 0.7791037 1.8340751 0.4163866 1.7154976 0.089769036 2.0871546 -0.12585044
-1.0181462 1.7094342 1.2826183 -1.4358096 0.8635839 -0.56481373 3.660783 0.3074967

weight f4 [32]
00000000: 7de2 1440 6fb3 df3f 009e 0640 edd6 0b40
00000010: 1014 0e40 81b6 f33f 3828 fe3f afbe c03f
00000020: a513 a93f 61d2 cc3f 766f 0e40 4855 0840
00000030: 499e 0d40 128b 753f ac91 1240 2ee7 c83f
00000040: 17e8 2040 4e03 1340 cdde b93f dd02 9d3f
00000050: 96a9 0e40 3473 c83d 2335 fc3f 473b 1340
00000060: 5f06 1340 f111 c93f 8b33 db3f 4ba4 f73f
00000070: b55c c53f 196c 1540 76d9 0c40 3fc5 e43f
2.3263237 1.7476634 2.1033936 2.184993 2.2199745 1.9040071 1.9856024 1.5058192
1.320912 1.6001703 2.225553 2.1302052 2.212786 0.9591533 2.290141 1.569555
2.5141656 2.2970767 1.4521118 1.2266499 2.2291007 0.09787598 1.9703716 2.300493
2.2972639 1.57086 1.7125105 1.9347013 1.5418917 2.3347228 2.2007728 1.7872695

bias f4 [32]
00000000: b77b 8dbe 1cb1 cebf 897e ed3e ef1d 3f3f
00000010: 9249 6dbe 66a1 2c3e 13fe b5bf 179b e5bf
00000020: 896a 12c0 85be 52bf 4576 c2bf 5381 543f
00000030: 1701 15bd 721a b13f cdca 8cbe 727d 59bf
00000040: f6d7 823f 84d6 32bf 4ba8 dd3f ec13 66be
00000050: f136 fd3e 9ea1 8dbf 8d7e 6bbe 7b09 42be
00000060: aa34 2ebd 0f4e 1cc0 cd3c f23f 0d75 c9be
00000070: 76cd 0bbf 6e6a 52bf d689 1bbf 33e9 833f
-0.2763345 -1.61478 0.463856 0.7465505 -0.23172596 0.16858444 -1.4218162 -1.7937955
-2.2877524 -0.8232196 -1.5192343 0.83009833 -0.036377992 1.3836195 -0.27498475 -0.8495704
1.0222156 -0.69858575 1.7316984 -0.22468537 0.4945598 -1.1064947 -0.22997494 -0.18948929
-0.042530693 -2.4422643 1.8924805 -0.39347115 -0.54610384 -0.8219365 -0.60757196 1.0305542

running_mean f4 [32]
00000000: e117 3dc2 c958 af40 481d d5c1 5a57 fbc0
00000010: e65a 30c2 06c6 04c2 7456 fe41 0e95 b541
00000020: 02da e441 7480 bec1 e83f f53f ee1f e940
00000030: c033 d8c0 0917 30c1 75a0 a0c1 584b f041
00000040: e1df 53c1 d9ae 92c1 cba0 a7c1 b831 9841
00000050: 8277 09c2 09ad 53c0 8b2d 0a42 594e 07c2
00000060: c8c1 2a3e 2cbd dd41 52a7 bdc1 8c83 1c40
00000070: 3705 3f41 1e54 a7c1 590f 48c1 f49b 85bf
-47.27332 5.479588 -26.639297 -7.854413 -44.088768 -33.193382 31.792213 22.69778
28.60645 -23.812721 1.9160128 7.2851477 -6.756317 -11.005624 -20.078348 30.036789
-13.242158 -18.335375 -20.953512 19.024277 -34.366707 -3.3074362 34.544476 -33.82651
0.16675484 27.71737 -23.7067 2.445529 11.938773 -20.916073 -12.503747 -1.0438218

running_var f4 [32]
00000000: 444b 8044 e06f e543 3e01 3044 21f4 1044
00000010: 7369 0f44 64f8 2444 0cce 1a44 3b31 1e44
00000020: 6588 e443 2d8d 3c44 4979 e843 b229 4544
00000030: 0bde 7044 b1ce 0f44 86da e143 3db2 0044
00000040: 6fec 3a44 d4a3 b343 70e2 a344 9798 dd43
00000050: 519c d143 46da 6843 16fd 1244 2d65 8a44
00000060: 3fcb 1b44 c64c 0144 3247 6044 a70d 1844
00000070: 6903 2244 af2d 1644 2377 db43 a48e 5d44
1026.352 458.87402 704.0194 579.8145 573.64764 659.8811 619.2195 632.7692
457.06558 754.2059 464.94754 788.6515 963.4694 575.22955 451.7072 514.785
747.6943 359.2799 1311.0762 443.1921 419.22122 232.85263 587.95447 1107.1617
623.1757 517.1996 897.1124 608.2133 648.0533 600.7138 438.93076 886.22876

weight f4 [32, 32, 3]
00000000: f5fd 633f f698 013f cd53 1f3f ef92 ae3f
00000010: 4b25 7bbf ec7a 1bc0 d81e 4140 35d5 e6be
00000020: 3147 10c0 47b4 f53f 1a63 ffbd 586f 38bf
00000030: 69cb 3ac0 a599 9c3f 4459 01c0 c17a e63e
00000040: 6b49 c63f 57d8 7ebf 071b 0840 b979 8c3f
00000050: 825d c73f a146 823f a370 7abe f3fd 55c0
00000060: 4d74 c8bf 68dc 04c0 74d1 18bf 4c31 5a40
00000070: 3b48 9e3f 7bf0 38c0 2f6a 763e 6221 93bb
00000080: fa24 4fbf 2a71 2340 1953 0840 7322 9ebf
00000090: e21d b63f 0c75 a73e ed44 adbf 4a6c 4340
000000a0: f571 7fbf 210f b0be 1821 b63f c83f da3f
000000b0: 1564 c2bf 956f ea3f f4ca babc 4ee2 0d3f
000000c0: f37b f03e 6409 1dc0 de36 98c0 d086 25bf
000000d0: c289 a13e 4dc7 0540 1459 97bf a846 313f
000000e0: bbfa 92be 6bca 6e3f a447 8abe c214 f2be
000000f0: e0fe 1f40 7f02 613f 557f 4dbf c51a bf3e
00000100: 37ea 13bf f870 6abf cfb5 a33f 5fd7 d7bf
00000110: 4483 bbbf 5fb1 713c 92ae d73d 78b2 103f
00000120: 1e4e 89bf 54d5 2a3d 0636 053f 89fb 0540
00000130: 4818 af3d bb71 e53c 5c61 f0be a0bf 63bf
00000140: 4e4f 0bc0 ee2f d03f 2dcb 023e 1b24 bdbf
00000150: b03c 6d3f 5ff0 b03e 8a9f 18bd 6a1b e73f
00000160: 7f37 6d3f 9f5f 2d40 2767 07bf 53cd 223f
00000170: 0283 16c0 9e27 7cbf 1464 513e 4fc9 e43e
00000180: 6dda 2140 83c2 363f e37a f83f 59e2 073f
00000190: b529 c2be 9231 7f40 3b0d d2bf 38c8 0cbf
000001a0: c92f b03e b8f9 113f 1b7a c3be 7d9b 6abf
000001b0: 67b4 0c3f aa15 a53d cfde 7240 b22b a53e
000001c0: 8109 51bf 2add 173f 83bf 9b3f b7c7 6a3f
000001d0: b161 2dc0 79c6 e3bf 4be3 b6bf 91e5 33be
000001e0: 67be 0040 e659 0b3f 3d4e 2abf 1286 85bf
000001f0: 8dea 403f 71b0 9f3f 77a0 aebf b616 38c0
00000200: 3840 4cc0 2885 0fbf 48a0 9e3f 96ff 8fbd
00000210: e8ef 05c0 ba49 a9bd 3df5 5440 b039 39bf
00000220: 96b1 20bf 14a7 2bc0 0240 b43e 9ebc 41bf
00000230: 1510 7d3f 3771 43bf bfa0 793f 43da 02c0
00000240: 1fee 2fbf e719 17bf 20ac babf 866a 91be
00000250: 7933 973f a675 8b40 72a2 10bf 4a14 dfbf
00000260: 1ebe 8d3f c32e b2bf 1737 00c0 dc69 293e
00000270: 50d8 1240 93f9 903f f7a2 e2bf 2af3 e33d
00000280: c862 a7be 0f8d 28bf ac14 fe3e ed5d 36bf
00000290: 7aae 5bc0 d9f3 68c0 d930 e3be 21d1 3840
000002a0: ccce 713f de76 babf e524 b3c0 cf1a 3a40
000002b0: 1219 b0be 7d1f 89bf 94a7 b1bf 642f b6bf
000002c0: 75ac b13f f305 7b3f e94c 20c0 a5e1 2dbf
000002d0: 2531 79bf 1585 1ebf 9285 90bf f61e 2040
000002e0: 200b 783f bfa4 b8c0 201b 86bf 3b08 fbbf
000002f0: 9408 5f3e 604b 2e3f aa6a 50bf 56f1 e33e
00000300: 6f91 e23f 13a2 ff3e 7357 3b3e d63d 5dbe
00000310: 9759 0ebf 2b95 ca3f f577 0740 a3ec d1be
00000320: 94a3 22bd 2419 2ac0 0f9c ce3e b152 90bf
00000330: 3693 d53f 74f9 4cbf 7fd0 d6bf 4a13 cfbf
00000340: 64eb 85bf fc3e 8d3f acbc b13e 0f85 a0be
00000350: 2983 3dbf f0a0 13be ce7e e13f a601 ac3f
00000360: 8215 2cc0 438a c43d 3fd2 c83f 51f8 c2bf
00000370: a8de a23e 4ec1 843f e0d2 463f 754a 84bf
00000380: 3838 143f 7ffb febd b48b 1c3f 187b 643f
00000390: 2f90 b3bf c1b6 813f 5a5c 7f40 b587 7540
000003a0: 2038 16c0 945a 1f3f d525 cbbf 0ed0 34c0
000003b0: 185d 88bf fbf0 e9be 4756 95be e122 8b3f
000003c0: ecbf dbbd 8baa ebbe 092c 9cbe 5ca9 1540
000003d0: 6742 a13e ad70 72c0 7e63 f33f c16d 16c0
000003e0: 251f 3440 999e 9fbf d708 3ebf 96a3 8140
000003f0: 2486 fdbe b295 083f fb19 95bd 5fc0 5cbf
0.8905938 0.50624025 0.62237245 1.363859 -0.9810378 -2.4293776 3.0175076 -0.4508454
-2.2543452 1.9195641 -0.12470074 -0.720449 -2.9186652 1.2234389 -2.0210733 0.4501553
1.5491155 -0.9954886 2.1266496 1.0974647 1.5575411 1.0177804 -0.2445703 -3.3436248
-1.5660492 -2.0759525 -0.596946 3.4092588 1.2365793 -2.8896778 0.24063943 -0.0044900635
-0.80915797 2.553782 2.1300719 -1.2354263 1.422787 0.32706487 -1.353666 3.0534844
-0.9978326 -0.34386542 1.422885 1.7050714 -1.5186793 1.8315302 -0.022801854 0.5542344
0.46969566 -2.4536982 -4.7566977 -0.6465883 0.31550413 2.0902894 -1.182406 0.6924844
-0.28706917 0.93277615 -0.27007782 -0.47281462 2.4999313 0.87894434 -0.8027242 0.3732511
-0.5777926 -0.91578627 1.2789859 -1.6862601 -1.4649434 0.014751761 0.105313435 0.5652232
-1.0726964 0.04170735 0.5203556 2.0934775 0.08549553 0.028008332 -0.4694928 -0.8896427
-2.1767154 1.6264627 0.12772818 -1.4776644 0.92670727 0.3455839 -0.037261523 1.8055241
0.92662805 2.7089612 -0.52891773 0.6359455 -2.351746 -0.9849795 0.20448333 0.44684836
2.5289567 0.7139055 1.9412502 0.53079754 -0.37922445 3.9874005 -1.6410288 -0.5499301
0.34411457 0.57021666 -0.38179097 -0.91643506 0.5496277 0.08060773 3.7948492 0.322599
-0.81655127 0.59321845 1.216782 0.9171099 -2.7090876 -1.7794944 -1.4288114 -0.17568041
2.0116212 0.5443405 -0.6652563 -1.043154 0.75357896 1.2475721 -1.364272 -2.8763862
-3.1914196 -0.56062555 1.2392664 -0.07031171 -2.0927677 -0.08266015 3.3274682 -0.7235365
-0.62770975 -2.6820726 0.35205084 -0.7567843 0.98852664 -0.7634463 0.97510904 -2.0445716
-0.6872272 -0.590239 -1.4583778 -0.28401583 1.1812583 4.3581114 -0.5649787 -1.7428067
1.1073644 -1.392052 -2.0033624 0.16544288 2.2944527 1.1326164 -1.7705983 0.11130364
-0.32692552 -0.6584024 0.49625146 -0.7123707 -3.4325242 -3.6398833 -0.44373205 2.8877642
0.9445617 -1.4567525 -5.5982537 2.9078863 -0.34394127 -1.0712734 -1.3879266 -1.4233212
1.3880755 0.9805595 -2.5046942 -0.6792243 -0.97340614 -0.6192182 -1.1290762 2.5018897
0.96891975 -5.7701106 -1.0477028 -1.9611887 0.21780616 0.68083763 -0.81412756 0.44520062
1.7700633 0.4992834 0.18295078 -0.2160562 -0.55605453 1.5826772 2.1166966 -0.41000852
-0.03970678 -2.6577845 0.40353438 -1.1275235 1.668555 -0.80068135 -1.6782378 -1.6177762
-1.046246 1.1034846 0.34714258 -0.31351516 -0.7402826 -0.14416862 1.7616823 1.3438003
-2.6888127 0.09596684 1.5689162 -1.523203 0.31810498 1.0371492 0.7766552 -1.0335222
0.57898283 -0.12450313 0.6115067 0.89250326 -1.4028376 1.0133897 3.9900117 3.836408
-2.3471756 0.62247586 -1.587092 -2.8251987 -1.065341 -0.45691666 -0.29167387 1.0870019
-0.107299656 -0.4602855 -0.30502346 2.3384619 0.31495973 -3.7881272 1.9014738 -2.3504488
2.814401 -1.2470275 -0.7423224 4.051219 -0.49516404 0.53353417 -0.07280346 -0.86231035

bias f4 [32]
00000000: 1088 17bf 0db8 67bf 7353 263e db32 61c0
00000010: a70b 653f f870 2cbf 0006 4cbf 0749 063e
00000020: c208 a8bf c71a 67bf 4740 0dbf a17b 2bbf
00000030: adc5 743f 53ac 703f 4396 d73f 808c 533f
00000040: a2b3 0cbe 6760 5fbf 0433 143f 8020 4abd
00000050: 7d47 13bf e06c 143f 7b0b 0d40 d106 28be
00000060: 7f8c 8dbf a3a1 17be df4a 50bf 015c 083e
00000070: 1683 923f 26b6 45bf 2e08 213f af90 a23f
-0.5919199 -0.90515214 0.16242771 -3.518729 0.89470905 -0.67359877 -0.79696655 0.13113795
-1.3127673 -0.90275234 -0.55176204 -0.6698552 0.9561413 0.94012946 1.6842731 0.8263626
-0.137404 -0.87256473 0.57890344 -0.0493474 -0.5753096 0.5797863 2.2038257 -0.1640885
-1.1058501 -0.14807753 -0.81364244 0.13316347 1.1446254 -0.7723106 0.62903106 1.2700404

weight f4 [32]
00000000: 13a6 dc3f 47af 2240 89db c63f 0693 1740
00000010: 35e0 0140 2ec0 fd3f 8f1e 3140 db04 1740
00000020: 98f6 1f40 0209 b33f b11a 1540 f768 0040
00000030: f704 ad3f 5e54 3740 10e0 2240 c3c7 1e40
00000040: e369 1540 586f 0640 3154 d63f 36e7 3d40
00000050: 24bb ba3f 2e14 da3f 621d 3340 fe44 2240
00000060: 3d03 fc3f 224a 1840 caa2 1c40 7c83 0640
00000070: 51b0 b63f a787 1740 39bf d23f 3327 1e40
1.7238182 2.541948 1.5535747 2.3683486 2.0293095 1.9824274 2.7674901 2.3596714
2.499426 1.3987124 2.329754 2.0064065 1.351714 2.8645244 2.5449257 2.4809425
2.3345878 2.100546 1.6744443 2.967237 1.4588361 1.7037408 2.7986684 2.535461
1.9688488 2.3795247 2.4474359 2.1017752 1.4272557 2.3676546 1.6464607 2.4711425

bias f4 [32]
00000000: fd12 15bf 11df b5be cb70 25c0 8b46 7c3f
00000010: 50d2 bfbf aa05 f53e ea2b ae3f f993 98bf
00000020: 982b a2bf 6505 10c0 f4a7 a7be b205 74bf
00000030: 1585 0dc0 03cf 023f f57d 95be dfd1 3bbe
00000040: 0fb6 adbe fbf5 3fbf 2f8e cfbf 878e 713e
00000050: 790a ffbf 3b29 283d 44f9 863e abff 7bbf
00000060: 2595 7e3f 5eb1 27bd b709 80bf 8891 bebe
00000070: 565d 1cc0 052a d5be de10 01c0 9db7 c7be
-0.582321 -0.3552175 -2.5850093 0.9854514 -1.4986057 0.47855884 1.3607152 -1.1920158
-1.2669554 -2.2503293 -0.32745326 -0.9532119 -2.2112477 0.51097125 -0.2919766 -0.18341778
-0.33927962 -0.7498471 -1.6215266 0.23589526 -1.9925071 0.041054945 0.2636205 -0.98436993
0.99446326 -0.040940635 -1.0002965 -0.37220407 -2.4431968 -0.4163362 -2.0166545 -0.39007273

running_mean f4 [32]
00000000: c431 6ec0 a236 d1c1 90db c241 952d 5241
00000010: 6d50 1fc2 088d d640 d9a8 bfc1 8152 5fc1
00000020: 2347 aec2 a493 a241 abea c2c1 0b03 3340
00000030: df52 2ec1 57c7 46c2 379e b4c1 03c2 0ec0
00000040: 9835 25c2 1927 28c1 3e1d 0fc2 5c3e 4bc2
00000050: 5c11 0f42 6d31 79c1 346e 1cc2 10e7 57c2
00000060: 609a bc40 a215 0ac1 67dc 82c2 ae13 c3c0
00000070: afcf 9f41 c824 ff3f bba7 1342 708a c3c1
-3.7217875 -26.151676 24.357208 13.136128 -39.82854 6.7047157 -23.957445 -13.957643
-87.13894 20.32209 -24.364584 2.7970607 -10.895232 -49.694668 -22.577253 -2.2305915
-41.302338 -10.509545 -35.778557 -50.810898 35.766953 -15.574567 -39.10762 -53.975647
5.8938446 -8.630281 -65.43047 -6.0961523 19.976408 1.99331 36.9138 -24.442596

running_var f4 [32]
00000000: 4029 8b44 d891 5344 e376 3544 5dc4 8244
00000010: aaf4 0d44 2579 9544 846e cd44 6f40 9f44
00000020: 59b4 5e44 8b6b 1c44 b9be 8544 ebd5 9944
00000030: fb24 2a44 5f51 e044 d93e 0045 e738 9944
00000040: f228 9544 57ee 4544 c237 ea43 e0d9 7844
00000050: f089 4844 0af1 b344 eaab 8e44 f991 5344
00000060: 3920 8e44 0ac7 8e44 7ec0 5344 f476 7744
00000070: c7b6 0944 3083 7144 0bd8 ed43 8405 7744
1113.2891 846.2788 725.8576 1046.1364 567.8229 1195.7858 1643.4536 1274.0135
890.81793 625.68036 1069.9601 1230.6849 680.5778 1794.5428 2051.928 1225.7782
1193.2795 791.72406 468.4356 995.4043 802.1553 1439.5325 1141.3723 846.2808
1137.007 1142.22 847.0077 989.85864 550.8559 966.0498 475.68784 988.0862

weight f4 [64, 32, 3]
00000000: 3845 44c0 51fa f7bf 2a2c a4bd 3375 8a3e
00000010: e373 b13f 7fd7 2f40 6086 6a3e 1e75 ab3f
00000020: b6ac 0dc0 fcd5 7c3f 70a6 1040 c4d9 4b3f
00000030: 51f4 3abf 916c 21bd f6bc 1740 13fd 9f3f
00000040: 5858 bdbf 0ed9 93c0 b786 3abf 3a34 0abf
00000050: 691e 50bf aa2f ae3f 5939 55bf 4fc5 77be
00000060: cf75 353e 69f7 b7bd 6bc6 dc3f e339 023f
00000070: 3d2e 133f 0b76 9e3e 6325 0dbf eb2c 913e
00000080: a306 8a3f a378 c9be 660a 503f 8221 97bf
00000090: 8e11 e6bd 6326 7dbd 1094 adbb f678 5bbf
000000a0: 043e f1bf 65d5 6a3f 12cb 94bf 2bed 00c0
000000b0: e1b6 b43f b770 cc3f a544 c73f 1ade 52be
000000c0: eb54 8ebf 63fc 1dc0 0f35 d83f fd05 fabf
000000d0: 2e27 86be 234c c93f a322 53bf 6757 c9bf
000000e0: 7061 39be 6c34 c3bf 4ff6 cdbe 63cb 22bc
000000f0: 5bd1 343f 779e 113f 2b2f 923f 7d3e 82c0
00000100: d84e a83f a93e 0840 daf3 85bf 5d6a a5bf
00000110: a7c4 b2bd af82 8ebf f852 c9bf f6df 0ac0
00000120: 0f05 ec3f a129 20c0 9fd1 18bf 77f2 c4c0
00000130: bcea b4bf 0808 85c0 bcca 10be d18a 843e
00000140: 6cf9 8dbf 7e1c 6bbf 7f9f 32c0 789e c6c0
00000150: 3481 1ac0 0bc6 363f 1088 c6bf 9273 9f3f
00000160: 82a9 803f 9d0b bcbe 1c15 e13f 0772 573f
00000170: bb0a 0a40 c07b 27c0 0229 633f be04 5cbf
00000180: 2c17 4cc0 cab7 ca3f 9910 aabe 4c25 0140
00000190: 4c64 14c0 4eac a83f 3704 ae3f c10a 8dbf
000001a0: 6c17 4c3f c535 c83f 59b6 003e f623 07c0
000001b0: 2a3e ee3e daf0 cc3f 91df 903f 8c40 e23f
000001c0: 3056 293d 964f 2b3e 103d 1fc0 a8b0 32c0
000001d0: e653 4dbf 705d 80c0 52cf 36c0 e5e0 ebbf
000001e0: 7d02 873e 7be7 253f 6971 68bf 941a 0140
000001f0: 33db 7d3f c1fa a13f 697f dd3f de3b 52bd
00000200: c1c3 1ebf b99f 40bf 353c 3dc0 125b fabc
00000210: ecb6 6c3f cddb 573f e308 e0be 3d40 91c0
00000220: 995b 5e3f ceec 17c0 dc83 d33f 1282 8ebd
00000230: a741 a63e 5655 cebf 8d84 24bf 7784 58c0
00000240: 4824 a8c0 9212 3ac0 ea75 ddbf 764c 48bf
00000250: ae29 37bf 4452 0e3f d0f2 2bbe ba9e 4a3f
00000260: e161 813e d568 d1bf 9d49 2140 a906 87bf
00000270: 6cfe 9abe 20d1 473f 4ab5 b2be 9423 b5bf
00000280: 94c1 6d3f b8aa 79bf f8cf 89bf 38e9 3cbf
00000290: d5f7 61bf 8437 85be ec08 2ec0 b2b4 43c0
000002a0: 4961 c0bf 367b e13e 8ea2 56c0 77e5 2ac0
000002b0: c168 fcbe baf1 8d3f a4df 9cbf 5f15 c53e
000002c0: c9aa a43f 2786 0ac0 df0d 20bf 5df8 003f
000002d0: 3cef 0f40 2e8a ad3f 1ddf 573f 3e06 193f
000002e0: fc19 29c0 c2d1 d0bf 604e 1840 4ceb 543f
000002f0: 37b6 f9bf 1763 943f 84a4 a9bf b564 15c0
00000300: 41d7 b3be 51b5 54be a0b2 3f3f fcfe bcbf
00000310: 2d23 47bf 5e76 e5bf f75e 0340 fa3d 4f3f
00000320: 24e3 32c0 f081 0640 88c2 4bbf f496 7c3f
00000330: e052 f7bf 2ad3 493d d1ee 783d 8a90 ab3f
00000340: 5e10 6d3e 52f6 2cbf e98d 8d3f 8686 d83e
00000350: ff74 5a3f b8b7 52bf a3cc 2bbd 996d ed3f
00000360: f519 9ebf e7b3 f33e dfc6 83bf 71f3 b33d
00000370: 74c6 5dbf 2975 263f abe8 b43f d289 743f
00000380: affb 273f 3c9c 2c40 cda5 a3be 1d1f 1a40
00000390: 4b49 0fbe 06f1 d63f 53d7 a73f 4ed4 503f
000003a0: 8262 f13f a528 abbf afb3 a8be 222b 07c0
000003b0: 77c5 24bf 51fd e5bf 03d4 403f e9df d1bf
000003c0: c3b4 9f3d 3b70 3d3f 27b1 93be 59ae e63f
000003d0: dc22 1540 7d39 b6bf 03fe 7f3e 0988 2c3f
000003e0: e463 85bf e7e7 06c0 47a8 1540 a4bf d43e
000003f0: e14e 3c40 30f4 2340 7e9f 6f40 52d2 83bf
-3.0667248 -1.9373266 -0.08016236 0.2704254 1.3863491 2.7475278 0.22902822 1.3395116
-2.2136664 0.98764014 2.2601585 0.7962916 -0.7302905 -0.039410178 2.3709083 1.2499107
-1.4792585 -4.620246 -0.7286181 -0.5398594 -0.812964 1.3608296 -0.8329063 -0.24196361
0.17720722 -0.089827366 1.7248052 0.5086958 0.5749243 0.30949435 -0.5513517 0.28354582
1.0783275 -0.3934985 0.81265867 -1.1807101 -0.11233817 -0.061804187 -0.0052971914 -0.85731447
-1.8847051 0.91731864 -1.1624472 -2.0144756 1.411831 1.5971898 1.5567824 -0.20592538
-1.1119665 -2.4685295 1.6891192 -1.9533077 -0.26201767 1.572636 -0.82474726 -1.5729798
-0.18103576 -1.5250373 -0.4022698 -0.0099361865 0.7063195 0.56882423 1.1420645 -4.070128
1.3149061 2.1288245 -1.0465043 -1.2923084 -0.08728915 -1.1133631 -1.5728445 -2.1699195
1.8439044 -2.5025408 -0.59694856 -6.1545978 -1.4134135 -4.1572304 -0.14139837 0.2588716
-1.1091743 -0.9184035 -2.7909849 -6.2068443 -2.414136 0.7139594 -1.5510273 1.2457144
1.005173 -0.3672761 1.7584567 0.84158367 2.156905 -2.616928 0.8873445 -0.85944736
-3.1889143 1.5837338 -0.33215788 2.0179014 -2.3186216 1.3177583 1.3595036 -1.1018907
0.7972324 1.5641409 0.1256956 -2.11157 0.46531802 1.6011002 1.1318227 1.7675948
0.04134196 0.16729578 -2.488102 -2.7920322 -0.80206144 -4.011406 -2.8564038 -1.8428007
0.26369086 0.64806336 -0.9079805 2.0172472 0.99162596 1.2654649 1.7304507 -0.051326625
-0.62017447 -0.7524372 -2.9567997 -0.030561004 0.92466617 0.84319764 -0.4375678 -4.5390916
0.86858517 -2.3738284 1.6524615 -0.06958403 0.32471964 -1.6119792 -0.64264756 -3.383085
-5.254429 -2.9073834 -1.730161 -0.7824167 -0.71547973 0.5559428 -0.16791844 0.7914845
0.25269988 -1.6360117 2.520118 -1.0548908 -0.30272233 0.78053474 -0.34903938 -1.4151483
0.928735 -0.9752612 -1.0766592 -0.73793364 -0.88268787 -0.26018918 -2.7192945 -3.0579038
-1.5029689 0.44039315 -3.3536716 -2.6702554 -0.4929867 1.1089394 -1.225575 0.38492867
1.286462 -2.164438 -0.62521166 0.5037897 2.2489767 1.3557794 0.8432482 0.5977515
-2.642211 -1.6314013 2.3797836 0.83171535 -1.9508733 1.159274 -1.3253331 -2.3342717
-0.35125163 -0.20772292 0.74881935 -1.4765315 -0.7778805 -1.7926748 2.0526712 0.80953944
-2.7951136 2.1016808 -0.79593706 0.98667836 -1.9322166 0.049273647 0.060774628 1.3403485
0.23150775 -0.67563355 1.1058933 0.42290133 0.8533477 -0.8231158 -0.041943204 1.8549072
-1.2351671 0.47598192 -1.0295066 0.08786667 -0.8663094 0.6502252 1.4133505 0.955228
0.65618414 2.6970358 -0.31962433 2.408149 -0.13992803 1.6792305 1.3112587 0.8157395
1.8858187 -1.3371779 -0.32949588 -2.1120076 -0.6436381 -1.7967931 0.75323504 -1.6396457
0.077981494 0.73999375 -0.28846094 1.8021957 2.3302526 -1.4236294 0.24999242 0.67395073
-1.0421109 -2.1079042 2.3383958 0.4155246 2.9423144 2.561779 3.7441096 -1.029856

bias f4 [64]
00000000: 85f8 9ebf 11d8 d0be efba 65bf caba 7abf
00000010: b71d 9f3e 61ef 85bf cb28 2c3d fe70 ccbf
00000020: 432c d4be 859e 17bf 2385 a83f dd8c 48bf
00000030: 9c27 493f b8cd 69be 6c28 bf3f 3556 cf3e
00000040: 9bd1 94bf 8f11 d43f b24a 323d d674 adbf
00000050: d32e 41be ae6f aa3f 340d 98bf e518 91bd
00000060: 3bf0 4f3f fce9 32bf 6348 42bf 7910 b33c
00000070: 3568 bcbe 2abf a23f 99d2 cabe 1ec6 4f3f
00000080: 199e 91be 3eba a0be 8d9c da3e ec2c 05be
00000090: 2e4b 41bd a052 28be 29e3 41bf 2b6c dfbf
000000a0: afce d2be 7f34 923e 3a72 1bbe b14c 873f
000000b0: 9e76 e93e def9 02c0 2565 b43e 5b87 14bf
000000c0: be0f d4be f38f 13be 3aef b0be 8045 b1be
000000d0: 2f38 bc3f 2c6a d5be c905 503f 38ef 61be
000000e0: d6a1 e8be 4956 6bbf b710 a9bf 8659 2240
000000f0: 894a 93bf 6b80 47bd 3a90 3dbc 7de5 d93f
-1.2419592 -0.40789846 -0.89738363 -0.9794127 0.31077358 -1.0463678 0.04203109 -1.5971982
-0.4144002 -0.59226257 1.316563 -0.7833994 0.78576064 -0.22832382 1.4934211 0.40495458
-1.1626467 1.6567858 0.043528266 -1.355128 -0.18865518 1.3315332 -1.1879029 -0.070848264
0.8122594 -0.6988828 -0.75891703 0.02185844 -0.36798254 1.2714589 -0.39613798 0.8116168
-0.2844093 -0.31392092 0.42697564 -0.13005418 -0.047190838 -0.16437769 -0.75737244 -1.7454885
-0.41173312 0.28555676 -0.15180293 1.0570279 0.4559831 -2.0465007 0.35233417 -0.58019036
-0.4141826 -0.14410381 -0.34557515 -0.34623337 1.4704646 -0.41682565 0.8125883 -0.22063911
-0.4543597 -0.91928536 -1.3208226 2.536714 -1.1507121 -0.048706453 -0.011570031 1.7023159

weight f4 [64]
00000000: d254 2b40 0d61 3340 9dce e23f b673 1240
00000010: 2c9b 9c3f 73d5 0840 417d d03f d741 ae3f
00000020: a1ff e83f ef80 eb3f 7838 0340 d09e e83f
00000030: f9b7 f63f e0e1 cd3f 4f29 eb3f 518e 2040
00000040: 7928 0840 a502 f33f fc1b 0940 301f d93f
00000050: 49ad 0440 fd9f bb3f cdc2 ba3f f448 c03f
00000060: 6292 ba3f baa6 c83f 0249 0b40 a270 fa3f
00000070: 8b5b 943f b661 f83f 5524 ef3f 2588 e23f
00000080: 57a5 0940 9a94 0240 fc9c d23f 54a5 c33f
00000090: 55fe d03f f86b 0440 f26b 1240 c08e a73f
000000a0: d81a aa3f 5181 de3f 3e25 b53f 9713 0740
000000b0: 54ea e23f fc14 de3f 2c23 c13f a324 1a40
000000c0: 138e ee3f 6adb d73f 34a1 d33f 638d 1340
000000d0: b6cc 0540 71cb f33f cc85 c43f 8078 c53f
000000e0: 4880 0840 b028 e73f 4d92 e73f 3222 1840
000000f0: d659 0640 9174 bb3f 0a7f 1040 2bf0 0640
2.677052 2.8027985 1.7719303 2.2883124 1.2234855 2.138028 1.6288224 1.3613843
1.8203012 1.8398722 2.0503216 1.8173466 1.9274894 1.6084557 1.8371981 2.5086863
2.1274703 1.8985182 2.142333 1.6962643 2.0730765 1.46582 1.4590698 1.5022264
1.4575922 1.5675881 2.176331 1.9565623 1.1590437 1.9404819 1.8682963 1.7697798
2.1507165 2.04032 1.6454158 1.5284829 1.6327616 2.06909 2.2878385 1.3090439
1.3289442 1.7383214 1.415199 2.1105707 1.7727761 1.7350154 1.5088859 2.4084861
1.8637108 1.6863835 1.653357 2.3055046 2.0906196 1.904646 1.5353332 1.5427399
2.1328297 1.8059292 1.8091522 2.377087 2.0992332 1.4644948 2.2577538 2.1084087

bias f4 [64]
00000000: f5df 6fbf eb1d e6bf 8ce0 9cbf 5f9b 27bf
00000010: dd1d 28c0 5cc9 a8bf 81f6 183e fe29 09bd
00000020: b045 3bbf 671e 5bbf 15a5 26bf 069b 133f
00000030: 7318 43be 808d c5bf 6811 b3bf ee45 b5bf
00000040: 6de3 efbc 9170 1dbf 16c9 90bf 9a5f e8bf
00000050: 079f f9be d621 a5be fa44 10c0 5a29 c6bf
00000060: 6827 bcbd cf03 c0be e39b 71bf 3d6c b3bf
00000070: 3264 37bf d6d6 73bd b2aa 60bf c7ff 08c0
00000080: 74fe d8bf 4085 e8bd 9bfa c5bf a228 2bc0
00000090: 739a dcbf 3778 9cbf 74b3 78bd 7e36 0ec0
000000a0: 8fa3 0abf 5f8c 463e 40a6 0a3f 365c 95bf
000000b0: 545e d4bf c714 483f 99bb 8dbf 21c5 34be
000000c0: 9c0e 14c0 1cf4 8abe 1a37 21c0 d45f acbe
000000d0: c0bb 86be 737b 26bf 385a a9bf 5e76 abbf
000000e0: ea0b b3bf c3fd 13bf d673 46be 487f 29bf
000000f0: 159e ffbd 76c7 653f 9ee9 6bbf 1708 3abf
-0.93701106 -1.797788 -1.2256026 -0.6547145 -2.6268227 -1.318645 0.14937784 -0.033487312
-0.7315321 -0.85593265 -0.65095645 0.5765842 -0.19052295 -1.5433807 -1.3989687 -1.4161966
-0.02928325 -0.6149989 -1.1311367 -1.8154175 -0.4875414 -0.32252377 -2.25421 -1.548137
-0.09187204 -0.37502906 -0.9437849 -1.4017407 -0.7163726 -0.059531055 -0.8776046 -2.1406114
-1.6952653 -0.113535404 -1.5467104 -2.674355 -1.7234634 -1.2224187 -0.060718015 -2.222076
-0.5415582 0.19389485 0.5415993 -1.1668766 -1.6591287 0.78156704 -1.1072875 -0.17653324
-2.3133917 -0.27139366 -2.5189881 -0.3366686 -0.26315117 -0.6503212 -1.3230658 -1.3395498
-1.3988011 -0.57809085 -0.19380125 -0.6620984 -0.12481324 0.8975748 -0.92153347 -0.72668594

running_mean f4 [64]
00000000: 6b61 eac1 fe0b 4cc2 8144 8241 001d 91c1
00000010: 2156 99be e1b4 cfc0 3ecd c3c0 4412 dabe
00000020: cbf9 37c1 d128 d8c1 c4ab 8b40 0f5b 29c2
00000030: 91fc 45c0 e28b 48c1 4ac3 2c41 219f 6e41
00000040: f07d f3c1 0a30 a53e bc65 b4c0 cada 8c3e
00000050: f73d 34c1 304a 9d3f 43dd abc1 d04d b23e
00000060: 484b 8140 4f7c ab40 e50c b1c1 ddaa 66c1
00000070: 2f93 04c1 92af 4e40 5ba7 d5c0 86bf c4c1
00000080: a2c9 1041 8f37 7c40 9d5a 6ec1 8375 0d42
00000090: e72e fdc0 fcfb 2a40 e511 dac1 4b00 6141
000000a0: f2a8 e3c1 3876 dac0 8e03 8fc1 1dcb b3c1
000000b0: 9347 3b41 dabb adc1 560c fb40 575b a7c0
000000c0: cfd6 09c0 327c c6c0 aea6 3cc1 2098 d6c1
000000d0: 28d7 04c2 3f24 9f40 7d5b 503f 21fd 9ac1
000000e0: ca7f fec1 79c7 1440 f12c 37c2 e94d 2c41
000000f0: aae3 eec1 c93b 88c0 f3c2 92c1 ab0f 2341
-29.297567 -51.01171 16.28345 -18.13916 -0.29948524 -6.49083 -6.118804 -0.4259206
-11.498485 -27.01993 4.3647175 -42.338924 -3.0935404 -12.534151 10.797678 14.91385
-30.436493 0.32263213 -5.6374187 0.27510673 -11.265128 1.2288265 -21.483038 0.3482499
4.0404396 5.3589244 -22.131296 -14.416715 -8.2859335 3.229466 -6.676679 -24.593517
9.049227 3.940891 -14.897122 35.364758 -7.9119754 2.67163 -27.258738 14.062572
-28.457493 -6.826931 -17.876736 -22.474176 11.704974 -21.716724 7.845256 -5.2299
-2.1537359 -6.2026606 -11.790693 -26.82428 -33.210114 4.9731746 0.813896 -19.373598
-31.812397 2.3246748 -45.793888 10.769021 -29.861164 -4.257298 -18.34519 10.191325

running_var f4 [64]
00000000: 1eee 5644 a6ec 0444 be55 1f44 0480 fe43
00000010: 13f7 a343 0df9 1944 5a4b 7844 7d46 1644
00000020: 56d2 eb43 5456 b843 a6cf 3844 e517 9744
00000030: 3d95 0344 8a5a 0c44 8ec2 0044 b094 3f44
00000040: 331e 2144 b30c 1644 90b5 5244 700e d643
00000050: 89da 4444 03d5 e943 bc70 c243 2b05 d743
00000060: 5026 c543 fe4f dc43 8eff 1e44 39b4 3144
00000070: d633 4044 588d 2e44 cf93 2c44 7bb7 1744
00000080: 65a7 2144 d8a2 0b44 b177 e143 534b c643
00000090: e27e 0644 8d53 2444 7277 9544 b71f f743
000000a0: ebc3 d443 4739 4944 f1b1 7544 c648 0544
000000b0: 0d87 0b44 cc47 8444 e8df 1544 4877 3b44
000000c0: 6817 b343 fef5 0a44 235d 0044 e9d3 3244
000000d0: bf37 7d44 8291 4244 b50d 1e44 2a83 2744
000000e0: fe4e 0844 adba 4a44 31d3 1b44 5f70 3d44
000000f0: b6eb 0d44 3b35 1b44 e753 1f44 9646 2044
859.7206 531.69763 637.3397 509.00012 327.93027 615.8914 993.17737 601.1014
471.64325 368.67444 739.2445 1208.7467 526.33185 561.4147 515.0399 766.32324
644.47186 600.1984 842.8369 428.1128 787.4146 467.66415 388.88074 430.04037
394.29932 440.62494 635.99304 710.816 768.80994 698.2085 690.3095 606.8669
646.61554 558.54443 450.9351 396.58847 537.98254 657.3055 1195.7327 494.24777
425.5306 804.89496 982.78033 533.1371 558.11017 1058.2437 599.49854 749.8638
358.18286 555.8436 513.45526 715.3111 1012.87103 778.27356 632.2142 670.04944
545.23425 810.9168 623.29987 757.7558 567.683 620.8317 637.311 641.1029
