unet/checkpoints/one_loss/epoch_90.pth (torch, 508787 bytes, 85 tensors)

weight f4 [8, 1, 3]
00000000: a0c2 323f 28c5 2abd bb89 7c40 3633 103f
00000010: 4172 8ac0 6ff4 28bf e6f2 b8bf 0aa5 0040
00000020: 94f4 623f 595d 94c0 0ac2 babe b077 623f
00000030: 3cc2 753f 02d2 49c0 ff3c 14bf 9a94 5b3f
00000040: 81a4 9540 641e f1bd c85f b2bf 1228 a73f
00000050: b141 10c0 a489 6340 9d84 1fbd 4f0d 85bf
0.69828224 -0.04169193 3.9459064 0.5632814 -4.326447 -0.65997976 -1.4449127 2.0100732
0.88654447 -4.636395 -0.36476165 0.8846388 0.95999503 -3.1534429 -0.5790557 0.85773623
4.676331 -0.11773375 -1.393548 1.3059103 -2.2540095 3.555276 -0.03894483 -1.0394686

bias f4 [8]
00000000: 6c3d 1d3e cb96 38bd d5ce 0dbd d6d2 e23e
00000010: 8ec8 09be 909e 5e3e bd88 adbe c109 5a3e
0.15355462 -0.045065682 -0.03462108 0.4430148 -0.13455412 0.21740174 -0.33893386 0.21292783

weight f4 [8]
00000000: 4ca8 bb3f a0f1 0240 0b17 0840 61f6 0e40
00000010: 51c7 463f 6aa2 4d40 4861 8e3f f7f0 1a40
1.4660735 2.0459976 2.1264064 2.2337878 0.7764788 3.213038 1.1123438 2.4209573

bias f4 [8]
00000000: 9297 02c0 b322 b63e fdd9 cb3f 87df 1140
00000010: f97e 6240 12a0 fcbd e475 fdbe fe99 12be
-2.040501 0.35573348 1.59259 2.279268 3.5389998 -0.123352185 -0.49504006 -0.14316556

running_mean f4 [8]
00000000: 9639 7a3d 773e 99bd 0b0b 353d f5cd 3a3f
00000010: 0bc9 41be ba57 273e 0201 64be e95f 4737
0.061090074 -0.07482617 0.044199985 0.72970515 -0.18924348 0.16342059 -0.2226601 1.1883655e-05

running_var f4 [8]
00000000: afad 8e49 24bd 8a49 29e4 2b48 a960 8049
00000010: 8bab ec48 a9aa c949 0fc0 a048 e956 d648
1.1688219e+06 1.1365485e+06 176016.64 1.0516691e+06 484700.34 1.6520531e+06 329216.47 438967.28

weight f4 [16, 8, 3]
00000000: c2c9 113f 5eb8 b5bf 6ebb 6ac0 4fff b63f
00000010: 0dc6 8e3f 6003 a6bf 2a6e acbf bd7a 953f
00000020: 31e9 873f b13d e63f 72af 8040 a3e4 703f
00000030: d8cc 4240 7180 a73f 7568 d6bf 9b7f 36c0
00000040: f1a5 ecbf b0b3 00be 1572 d33e 0158 a7bf
00000050: eeb1 9e3f 57ba 423f 8f3e 19bf c66a 67bf
00000060: 6062 383f cd7b ea3f bcc5 0c3d 09b3 a93e
00000070: aa4e b63f 2867 6cbf 5ab8 b63f 1a44 673f
00000080: 9d1e 203e 2eac 15c0 2747 39be bb0d 7c3f
00000090: 9aeb 0bbf 270b 4a3f 1567 cabf 8580 8940
000000a0: add3 1640 4a99 0140 ca03 fabe 14aa 4ebf
000000b0: 6522 a73f bc47 69bf 5c43 0740 e877 523f
000000c0: d7e3 cbbf 4294 9d3f 8cb1 10c0 c344 863e
000000d0: bf34 7b3f c8d7 d03d 41cb 8dbf 5c5f 06c0
000000e0: 89d9 623f 6583 7ec0 a24c 213f 262e 5f3f
000000f0: 4623 373f 0906 b23f 6cd1 51bf 9d6b 2a3f
00000100: e53e bcbf 4960 83bd e048 ccbf 7886 733f
00000110: 54dc e93f 383d e63f 364c aebe 5ecb 17c0
00000120: 5749 8740 191b ab3f b7b0 ecbe a333 1f40
00000130: fb75 5640 f478 253f ffc3 dcbe aee0 563e
00000140: 5ae0 c8bf a0ef 693f 6171 4340 1ffb 1c3f
00000150: d526 af3f a00a 0940 74eb da3e 1257 8fbf
00000160: 2aae 1d3f 2611 29c0 deab 2e3e 94cc 0040
00000170: 8593 ebbe 3081 21bf 07fd b6bf 1b00 bb3f
00000180: 87ec 1540 6bca 0ec0 14c2 31c0 3374 c3bf
00000190: 4ef1 38c0 3cc6 8dbf 5382 18bf 368d b9bf
000001a0: eab0 08c0 f322 aebf bddf 79bf 6989 41bd
000001b0: cc13 2e3f 7270 05bf bb9e e13e 59b6 e53f
000001c0: 2c71 4d3d 93b9 98bf 1ae8 c63e cc7a 32c0
000001d0: ab8b 84bf f9f1 2040 7f95 ca3f d0fa d03e
000001e0: 8dc3 0e40 e26f 0fbf 6253 0ec0 b93b 2a40
000001f0: 2e57 d23f 6a8d 4340 5138 b0be 80a6 1dbf
00000200: c97e f2bf 60de 353f 2891 1b40 e844 653f
00000210: 5ecb f13f 374f b53f d231 1340 3ae2 8abe
00000220: a164 a1bd fd61 eabf 0bda 7d3e 38ca ab3f
00000230: 3cec 8fbe 71bc 9f3f a67c a23f 5b84 9a3f
00000240: 3056 2f3f 21f4 2abf d170 a53f 2212 86c0
00000250: 683a a23f e6e8 19be d636 23c0 b8f7 a8be
00000260: d484 823d ea1b a4bf bb16 2dc0 a293 013f
00000270: bf7a 24c0 bacb 8b3f aefe d33e a6d3 42be
00000280: be28 23bf 03b2 84be 8983 843f b142 ef3f
00000290: 8ce6 d3bf 6475 3b3f 09b6 05c0 9be7 00c0
000002a0: 50af d43f 4634 a63f ba29 2e3d 0ece 5a3e
000002b0: 31d0 34c0 58dd 153f 99fa 62bf 4f5c f33f
000002c0: 7ac2 55c0 5121 50bf d78c 943f e8e1 4abf
000002d0: 7811 cf3e f815 32c0 00a3 ecbd 0cb2 0c40
000002e0: b968 bf3f ceab 65bf 7da9 2cc0 8b12 933f
000002f0: 6c24 983e c708 6c3e 351f cd3f 1dac af3e
00000300: 2912 b33f af9f 07c0 0059 c33f 5471 bbbe
00000310: b16f 4f3f dfca cb3e 885f 80bf 9222 77c0
00000320: 1919 943e 03f4 3ec0 9db3 06be e35e ca3e
00000330: f1e1 08bf 8f84 903f e94b 1b40 f5ee 0fbe
00000340: ac47 3abf d6f5 83c0 c214 7bbf 0b5d e2bf
00000350: 72ed 8c3f 2e3e d43f 8e5d 8ebe 924f 6d3e
00000360: e9cf 54c0 4630 89bf 9544 0a3d dde0 8e3e
00000370: 1aa9 b6be 6e3f 4d40 2703 fcbe 7941 2fbf
00000380: 309e 1cc0 b06b 20c0 8aa1 023f 84ae 5ebf
00000390: 6613 223f c3aa 503f 3dee 7540 d0f4 5f3e
000003a0: 69be dbbf 4dc8 3cc0 6e85 d5bf 136b b73f
000003b0: 5b70 2cbe 723f d33f 6c54 b33e 2c76 eebd
000003c0: aedc f0bc 62a6 143f 5d33 e53d 3cb9 0340
000003d0: d48e 0140 1069 1540 1f30 14bf 644f 1fbf
000003e0: b5b5 84be 7cec 113f cafb fe3f e76f f13f
000003f0: 42a2 dc3f 5cb8 c43f 2825 e93f 77c0 19bc
0.56948483 -1.4196889 -3.6676898 1.4296664 1.115419 -1.296978 -1.3471119 1.1678082
1.0618039 1.7987577 4.0214167 0.9409887 3.0437527 1.3086072 -1.6750628 -2.8515384
-1.8488141 -0.12568545 0.41297975 -1.3073732 1.239805 0.7606558 -0.5986108 -0.903973
0.7202511 1.8319031 0.03436826 0.33144405 1.4242756 -0.92344904 1.427501 0.9033829
0.15636678 -2.338634 -0.18093549 0.9845845 -0.54656374 0.7892327 -1.5812708 4.2969384
2.3566697 2.024981 -0.48831016 -0.8072827 1.3057371 -0.9112508 2.1134863 0.8221421
-1.5928906 1.231087 -2.2608366 0.26224336 0.9812736 0.10197407 -1.1077653 -2.0995703
0.8861318 -3.9767697 0.6300756 0.8717979 0.715382 1.3908092 -0.8196018 0.66570455
-1.4706694 -0.06414849 -1.595974 0.9512706 1.8270364 1.7987432 -0.3404252 -2.3717875
4.2277026 1.3367645 -0.46228573 2.4875267 3.350951 0.64637685 -0.43118283 0.20984146
-1.5693467 0.91381264 3.053795 0.6132068 1.3683726 2.1412735 0.4275776 -1.1198447
0.6159388 -2.6416717 0.1705775 2.0124865 -0.46010986 -0.6308775 -1.4295968 1.4609407
2.3425615 -2.2311046 -2.7774706 -1.5269836 -2.889728 -1.1076121 -0.5957386 -1.4496219
-2.135798 -1.3604416 -0.9760702 -0.047250185 0.6799896 -0.521247 0.44066414 1.7946273
0.050156757 -1.1931633 0.38848954 -2.788745 -1.0355123 2.5147688 1.5826873 0.40816355
2.2306855 -0.56030095 -2.2238393 2.6598952 1.6432855 3.0555062 -0.34417966 -0.61582184
-1.8944942 0.7104244 2.4307346 0.8955827 1.8890188 1.41648 2.2999158 -0.27125722
-0.078805216 -1.8311154 0.24790208 1.3421087 -0.2810992 1.2479383 1.269429 1.2071642
0.68490887 -0.6677876 1.2925054 -4.1897135 1.2674074 -0.1503025 -2.550222 -0.33001494
0.06372991 -1.2821019 -2.7045124 0.50615895 -2.5699918 1.0921547 0.41405243 -0.1902605
-0.6373404 -0.25917062 1.0352641 1.8692228 -1.6554732 0.73226 -2.0892355 -2.014136
1.6616001 1.2984703 0.042520262 0.21367666 -2.825207 0.5854087 -0.8866363 1.9012545
-3.339995 -0.81300837 1.1605481 -0.79250956 0.40443015 -2.7825909 -0.11554527 2.198367
1.4953834 -0.8971528 -2.6978447 1.1490034 0.29715288 0.23050223 1.6025149 0.34311
1.3989917 -2.1191213 1.5261536 -0.366099 0.810298 0.39803216 -1.0029154 -3.861485
0.28925398 -2.9836433 -0.13154455 0.39525518 -0.5346976 1.1290454 2.4265082 -0.14055999
-0.7276561 -4.1237593 -0.9807855 -1.7684644 1.1009963 1.6581476 -0.27805752 0.23174885
-3.3251898 -1.0717857 0.03375681 0.27905932 -0.3567589 3.2069964 -0.49221155 -0.6845928
-2.447155 -2.5065727 0.5102774 -0.8698504 0.6331085 0.8151056 3.842666 0.21870732
-1.7167484 -2.9497254 -1.6681345 1.4329551 -0.16839735 1.6503737 0.35025346 -0.11643633
-0.029402103 0.5806638 0.111914374 2.0581808 2.0243425 2.3345375 -0.57885927 -0.62230515
-0.2591988 0.5700147 1.992059 1.8862275 1.7237017 1.5368762 1.8214464 -0.009384266

bias f4 [16]
00000000: 5fa3 41bf 3fd8 8f3f 6ca6 12bf d8c0 ef3e
00000010: 6c88 a63f 4ec1 a53f 7329 3b3f 8181 00bf
00000020: 4aa9 c23f a8b4 c3be 80c2 92be 4e4d f5bd
00000030: ee19 823f 1a90 e53f e178 3840 57d1 8e3f
-0.7563991 1.1237868 -0.5728519 0.46826816 1.3010383 1.2949617 0.7311012 -0.5019761
1.5207913 -0.38223767 -0.28664017 -0.11977635 1.0164163 1.7934601 2.8823779 1.1157635

weight f4 [16]
00000000: 8c14 bd3f 6695 0440 1c83 ad3f ca85 e43f
00000010: 01ec e53f 7ba6 993f 91d7 623f 12b1 6c3f
00000020: 66ac 9c3f 0dda a23f 8347 803f a19b dd3f
00000030: e236 0a40 82bd 0d40 8aac c53f 09e6 db3f
1.4771895 2.0716186 1.3555636 1.7853329 1.7962648 1.2003931 0.8861018 0.9245769
1.2240112 1.2722794 1.0021824 1.7313119 2.1595998 2.2146916 1.544328 1.7179576

bias f4 [16]
00000000: 6795 bd3f fec9 bebf 2309 e73e 349f 9e3e
00000010: f04d 213f ed26 8c3e 82ec f33e e7b7 5940
00000020: 9c60 7740 0aa0 8c3f 0b38 36be 70b8 febe
00000030: 45f2 25be 0f25 2f3f c838 1e3f 82a9 833f
1.4811219 -1.4905393 0.45124158 0.30980837 0.6300955 0.27373448 0.4764138 3.4018495
3.8652716 1.098634 -0.17794816 -0.4975009 -0.162057 0.6841592 0.6180539 1.0286105

running_mean f4 [16]
00000000: b2cb af41 e27a 1441 87a2 d8c0 578d ca41
00000010: bbef 3bc1 ea7e 0642 bc13 bbc1 76c0 3cc1
00000020: d76e d2c0 1266 7140 2262 eb41 3b04 b241
00000030: 38d4 0ac1 c349 503f 32f3 85c0 567f e740
21.97446 9.280001 -6.76984 25.319014 -11.746028 33.62394 -23.384636 -11.796988
-6.5760303 3.7718549 29.422916 22.252066 -8.676811 0.8136255 -4.185937 7.234294

running_var f4 [16]
00000000: ff34 1244 0106 1444 decd f942 3bae 1944
00000010: 64cb 3443 413d 0744 5a8f bc42 593c 1b43
00000020: a5c1 7243 abb8 8643 df61 1744 60fa 5b43
00000030: 79cf 5644 25f7 8d43 72af c242 d43a 6244
584.82806 592.0938 124.902084 614.72235 180.7945 540.9571 94.27998 155.23573
242.75642 269.44272 605.52924 219.97803 859.24176 283.93082 97.34267 904.9192

weight f4 [16, 16, 3]
00000000: 4042 46c0 d8c1 3f3f 6dcf 8cbe eccf f83f
00000010: b661 9a3f 07f9 a9bf ff12 30c0 cf0c e3bf
00000020: ee1e 5ebf ae73 0d3e bcec 543e 120a 633e
00000030: 4d14 25bd bb4a 743f a2e4 0640 6f5e d93d
00000040: fc60 bfbf e485 90be b59b 78bf aeb3 ae3e
00000050: 8fea a43f cd90 cf3e ed1e 883f 3a41 87bf
00000060: a332 82bf ac1e a73e 45f2 5540 53c7 adbd
00000070: 9fda a93b b20a 4b3f 44e1 6c3d 5a0a 51bf
00000080: 7191 12bf 0deb 28bf 32e7 60bf f97f 26c0
00000090: b479 1d40 7d2c eb3f 89b6 12bf 6059 53bf
000000a0: 4c81 c0bf 8eb1 61c0 2fc7 fabf fa00 253e
000000b0: dcab 71bf 43b9 313e 4b60 b93f fa4f 863f
000000c0: bd79 3cc0 a84d 8a3e fbf7 5f3f 05c0 ecbf
000000d0: 6bd3 91bf ccbc 5a3f 375f a6bf 96eb 513f
000000e0: 1e7e 9bbe d4eb f2be e329 3f3f a6e8 8c3f
000000f0: 1da5 8140 37dc 2a3e 8c3b 2bbf b81e 39be
00000100: f2b5 c23e c1b0 c73e bb95 48bf ce63 1b3f
00000110: db71 51bc f055 64bf dc27 f8bf ca8b 0fc0
00000120: 2f7c 23bf 0e99 9b3f 94bd d9bf abcb 9abf
00000130: fe08 593f ca09 23c0 3e15 78bc 77cf 1b3f
00000140: d270 fa3e 928b bbbf dc23 a93f d611 9ebf
00000150: e098 b33f d34d 88be ee26 9ebd 507d a4c0
00000160: 8645 95bf 5083 57bf 0746 80c0 27e2 d4be
00000170: fb6f 17c0 0ad8 3ebf 5d0d eb3f a68a a33e
00000180: 1dd0 ebbf 2349 47c0 ecd8 98bf 4974 8640
00000190: 70f0 143f cce9 09c0 452b c3bf 32c1 093f
000001a0: 554c a2bf 3a62 88bf 36e6 bdbf f231 b8bf
000001b0: 2f48 db3e 7b33 82be 82e5 a43f 0f14 cd3e
000001c0: 2c9c b0bf 3f6d bcbe e8a7 37c0 5d0e 0e40
000001d0: 0042 643e 1e52 093f c324 613f 2d7a 933e
000001e0: 90d3 05c0 7e85 763f 57b2 933f cbc5 32c0
000001f0: b9e8 0bc0 9cab a73e 9f9f e03e c275 acbf
00000200: 86ae cf3d 87c4 ebbf 7660 563f 3ee7 18c0
00000210: e680 5f40 6759 d43f d50a a5bf d3bb e03e
00000220: 6abd 82bc 7272 32bf 0dbb b9bd 4e2f 483e
00000230: 3d40 65bf e6c1 aabf 49e9 d0bf cfc8 c7bf
00000240: 090f 8a3d f007 14bf cb47 563f 21bd 0ec0
00000250: f792 043f 1d1b ad3f 5f34 193f 954d 26bf
00000260: e0cf 66c0 186d 69be 06ba 0b3f 4a33 243f
00000270: eaa7 463f 4095 173f 5d93 90bf 543c 0bbe
00000280: c65d a73f ced5 383f 4347 813f 946c 65bf
00000290: 4e20 d2bf 134c 01bf 807b 7fbf 9c74 10bf
000002a0: 702e a63f 0588 b23e 8700 cdc0 497c 9c3f
000002b0: 985e 5e3e 8801 e7bf ddfe 39bf b27a b53f
000002c0: 198a 963e 46e1 113f 63e8 893f f22a f9be
000002d0: 2ce3 27c0 af9d 113e 1189 e13f 1a2e 5b3e
000002e0: 5eee c43e 6832 5f40 2f78 a6bf 6016 3ebf
000002f0: c036 3bc0 92a3 293f 7658 b33f 885f 633e
00000300: 44cb 003f a8fb 853f e528 01bf 8da1 e6be
00000310: 2ba0 1cc0 4047 14bf 09cd 38c0 0620 ce3e
00000320: f542 99bf 4c47 c63f 9583 de3f 3e92 29c0
00000330: c02a 933e 6ff5 013c 81e9 1f3e 1540 c93f
00000340: a6a5 ab3f 427b 23c0 1877 17c0 f8d2 8c3f
00000350: b8bf abbe b9c8 8cbe a93e e1bf 17bf 86bf
00000360: ae38 abbf 8c10 9ebe d9f9 ddbf 8ce4 01bf
00000370: dbe4 0cbf 5af6 46c0 c14b d23f a83b 4f3f
00000380: 781b 26c0 6ef2 ce3f b554 153e 026e 2ec0
00000390: 4269 15be f129 15c0 8c33 7cbf b74e d7bf
000003a0: 1238 63bf 2aba 703e b877 bfbf 3aa1 36c0
000003b0: 18a1 903b 97a2 233f 2891 893f 7d26 cebf
000003c0: 506c 0cc0 906f 233f 8157 e13f b748 0140
000003d0: 0f06 553f 8abd 0bc0 d0ba 893f e0ed 40be
000003e0: cd51 523d 0bbe 78bf 557f 0340 a38f 2640
000003f0: 5e6b 0340 94f6 103f 93a2 91bd 5505 53bf
-3.0977936 0.7490516 -0.27502003 1.9438453 1.2061069 -1.3279122 -2.7511594 -1.7738284
-0.86765945 0.1381366 0.20793432 0.2217181 -0.040302563 0.9542653 2.1077046 0.10613715
-1.4951472 -0.2822715 -0.9711259 0.3412146 1.2884082 0.40540162 1.0634438 -1.056678
-1.0171703 0.32640588 3.342912 -0.08485284 0.0051835324 0.79313195 0.057832018 -0.8165642
-0.57253176 -0.6598366 -0.87852776 -2.6015608 2.4605532 1.8372952 -0.57309777 -0.8255825
-1.5039458 -3.526462 -1.9592036 0.16113654 -0.9440286 0.17355828 1.4482511 1.0493157
-2.9449303 0.27012372 0.87487763 -1.84961 -1.1392645 0.8544433 -1.2997807 0.820001
-0.30369657 -0.47445548 0.7467329 1.1008499 4.0514054 0.16685568 -0.66887736 -0.18078125
0.38029438 0.3900204 -0.7835347 0.60699165 -0.012783493 -0.8919363 -1.9387164 -2.242907
-0.63861364 1.2156084 -1.701098 -1.2093405 0.84779346 -2.5474725 -0.015141783 0.6086344
0.489142 -1.4651968 1.3214068 -1.2349193 1.4031029 -0.26621875 -0.07722269 -5.140297
-1.1661842 -0.8418474 -4.0085483 -0.4157879 -2.3662097 -0.745484 1.8363453 0.31941718
-1.8422886 -3.113839 -1.1941199 4.201695 0.5817938 -2.1548948 -1.524758 0.5381042
-1.2679545 -1.0654976 -1.483588 -1.4390242 0.4282851 -0.254299 1.288254 0.40054366
-1.379766 -0.36802098 -2.8696232 2.2196267 0.22290802 0.53640926 0.8794672 0.2880415
-2.0910378 0.9629744 1.15388 -2.7933223 -2.1860793 0.32748115 0.4387178 -1.3473437
0.101407096 -1.841935 0.8374094 -2.389114 3.4922423 1.6589783 -1.2893931 0.43893299
-0.01595946 -0.6970588 -0.0906888 0.19549295 -0.89551145 -1.3340423 -1.6321193 -1.5608157
0.06741149 -0.5782461 0.837033 -2.2302935 0.5178675 1.3523899 0.59845537 -0.6496213
-3.6064377 -0.22795522 0.54580724 0.6414076 0.77599967 0.5921211 -1.1294972 -0.13597232
1.3075492 0.7220124 1.0099872 -0.896188 -1.6416109 -0.50506705 -0.9979782 -0.5642793
1.2982922 0.348694 -6.4063144 1.2225429 0.21715772 -1.8047342 -0.72654516 1.4178069
0.29402235 0.56984365 1.0774044 -0.48665577 -2.6232405 0.14220308 1.7619954 0.21404305
0.3846311 3.4874516 -1.3005427 -0.7425289 -2.9252167 0.66265213 1.4011371 0.22204411
0.5031016 1.0467424 -0.50453025 -0.45045128 -2.4472759 -0.5792122 -2.8875144 0.40258807
-1.1973559 1.5490508 1.7383906 -2.649551 0.28743553 0.007932051 0.15616418 1.5722681
1.3409927 -2.554398 -2.366644 1.1001883 -0.33544707 -0.2749689 -1.7597247 -1.0527066
-1.3376672 -0.30872 -1.7341872 -0.5073936 -0.55036706 -3.108786 1.6429368 0.80950403
-2.5954266 1.6167734 0.14583094 -2.7254643 -0.14590934 -2.330685 -0.98516154 -1.6820897
-0.8875743 0.23508516 -1.495841 -2.8535905 0.004413735 0.6391997 1.0747423 -1.6105496
-2.1941109 0.63842106 1.7604829 2.0200632 0.8321237 -2.1834435 1.0760136 -0.18840742
0.051347543 -0.9716498 2.0546467 2.602517 2.0534282 0.5662625 -0.07111087 -0.8243001

bias f4 [16]
00000000: d926 38bf 4701 443f 14e0 133f adf7 16bf
00000010: ef31 fa3f 94bf 543f 8602 ecbe 2b4a 0e3f
00000020: 2631 143f 3f27 febd b1a7 dcbf 0d4b 6bbf
00000030: 1468 773f ab4d 0ec0 cc45 83be c3ff edbf
-0.71934277 0.7656445 0.5776379 -0.58971673 1.9546489 0.83104825 -0.46095675 0.5558192
0.57887495 -0.12409829 -1.7238675 -0.91911393 0.96643186 -2.2234905 -0.25639188 -1.8593677

weight f4 [16]
00000000: f404 b83f 9c32 2d40 0687 2740 fe9f f93f
00000010: c6bb 1f40 5673 1e40 a628 0440 0a04 553f
00000020: 096b 0140 81ca ef3f c6f7 0840 a0eb 2a40
00000030: d280 0940 35cb 2e40 6a5f 2040 ab2e e63f
1.4376512 2.706214 2.6176162 1.9501951 2.4958358 2.4757895 2.064981 0.8320929
2.022158 1.8733674 2.140123 2.6706314 2.1484876 2.7311528 2.5058236 1.7982992

bias f4 [16]
00000000: ca4f 0b40 05d2 1ebe 8912 e13e 44dc fbbe
00000010: bdb8 363f a970 753f de57 b63e d642 f93f
00000020: f28d d63e b293 973f dd2a 193e bd5e 133f
00000030: 1ff2 9cbe 3ec3 85bf 4473 093f 1586 2dbf
2.176745 -0.15509804 0.43959454 -0.49191487 0.7137564 0.9587503 0.35613912 1.9473522
0.4190517 1.1841948 0.14957757 0.57566434 -0.30653474 -1.0450208 0.53691506 -0.6778272

running_mean f4 [16]
00000000: 46a3 0bc0 f98e 2fc2 5e36 bac1 2d0a e1c1
00000010: bd37 37c2 bcbc 0e42 43b0 93c2 eff4 aec1
00000020: cb50 0ec2 f442 a441 5d3b 9ec1 2086 1b42
00000030: 21ad 81c1 c53c 76c1 157f a841 28d7 83c2
-2.1818404 -43.88962 -23.276546 -28.129969 -45.804432 35.68431 -73.84426 -21.869596
-35.5789 20.532692 -19.778986 38.88098 -16.209536 -15.389836 21.062052 -65.92023

running_var f4 [16]
00000000: 53ca a143 719d 9243 333b 9c44 9e57 d643
00000010: ac21 b143 c8a1 4244 90ef 9344 2530 1644
00000020: 2033 7644 7571 cb43 8225 b643 810f 4644
00000030: f2e7 3344 f615 a643 cd35 dc43 edaa 8643
323.58066 293.23 1249.85 428.6845 354.26306 778.52783 1183.4863 600.75226
984.7988 406.88638 364.29303 792.24225 719.62415 332.17157 440.42032 269.33536

weight f4 [32, 16, 3]
00000000: 6b54 92bc a38e d2bf 2a09 293e e406 0f3f
00000010: fef8 dfbd 3bae 97bf 049c cb3f cf20 56bf
00000020: f4ea 2c3f 8bb1 c13e 9da0 a1bd 4153 10c0
00000030: 7e47 58c0 8971 8bbf 77ab 57bf 354d a4bf
00000040: 6d8a d2bf ce70 e6bf e316 953f 5121 9ebf
00000050: 224f adbf 12fa 9dbf cdb7 1d3f 6af1 7cbf
00000060: f46d 8e3d 2dd6 28be 04c8 12bf b480 5a3e
00000070: c06d b3bf 90f5 7cc0 df07 8fc0 646d 593f
00000080: 7126 d1bf 52a8 22bf f628 00c0 b12e 4cc0
00000090: 13a1 a2bf 50ed 0ec0 06f7 02c0 4f1d 9bbf
000000a0: 830b 81bf 4a5f aa3d 44b0 45bf 476d bfbf
000000b0: 79f6 8d3f 2661 b5bf 44be 653f 533e 36be
000000c0: 4e02 86bf 5f84 9cbe 7166 093f ccf5 0fc0
000000d0: f634 573f a5b1 803d 59f1 b0bf adb1 63be
000000e0: a3eb 593e 51aa 1dbf 5729 2fbf 404f 923f
000000f0: d67b d6bf 47f2 24c0 4a1c c63f 055c 6abe
00000100: 5778 893e 76a9 e43f 3303 fa3d ed9d c63f
00000110: 0705 893f 91d6 953f d005 cf3f 69fc 853f
00000120: 19a1 863e 9bae 0240 56ad 873f dfb4 d2bf
00000130: 4d46 0f3f 8e51 febd c18e 77be 5cc6 603f
00000140: cfab c6be 8f22 25c0 c6fc f9be 48d2 eebe
00000150: 9d1a 2d3f 7c07 963f d720 4640 a09a ab3d
00000160: d998 e33f 9d6c 8240 03ea 04c0 5b6c 61be
00000170: 13d6 0ebd 4f7c 0ac0 eb51 aebf 2a54 d83f
00000180: f035 0fbf 6800 dfbf fb7d b7bf 8969 b5bf
00000190: 8102 37be 992d 0040 93f8 cbbf d127 08c0
000001a0: 6ad0 f1bf 21b4 1fc0 8f46 513e 670e 5f3e
000001b0: 23d3 15bf a4cb fcbf f8dc d2bf 6b4d f8bf
000001c0: 3a60 df3e ffb2 fa3f e7ca db3d 55d9 1f3e
000001d0: c1b5 7c3e 245e d43f 6069 493f 3c80 553e
000001e0: 86f1 573f 989d 963f 8200 9fbf 7cb3 5bbf
000001f0: 377c 37c0 852c 613e 6c36 99bf ea8e f13f
00000200: af6c 683e 2b28 46c0 21d6 10c0 1651 82bf
00000210: 1cb9 90bf 1b79 b03f d570 0940 58c3 803e
00000220: fe2c 583f 53c1 1340 df8f e6bf 2d29 46c0
00000230: e96c 6a3f b755 02c0 8318 e0bf 834b aabd
00000240: f6b0 1440 d3d2 8d3f 0fa3 28c0 0500 ce3e
00000250: 1256 7fbf 6dde da3f 2bd7 1a40 17d3 083f
00000260: 0bfb 2fc0 8342 8c3f 5d70 09c0 faa8 ca3f
00000270: b459 42c0 9719 d9be cbec 9a3f a161 e73f
00000280: 0703 0440 0894 f4bf 1c82 223f ba59 0bc0
00000290: ea2a 84be 8558 25c0 481d 9fbf ab6a ad3f
000002a0: 6900 a0bf b280 24bf 9acb ebbf fa48 a43e
000002b0: 0c27 9d3c 7f43 bb3f e12f dcbf 02dd b83d
000002c0: 3c14 893f 1786 113f 1748 813e 8eec 3e40
000002d0: 9e0a 793b d43c 0dbf 2c88 a9bf 8f16 003e
000002e0: abfd 1a3e d504 13c0 1acb 453f e763 87bf
000002f0: 1772 05c0 6e75 5bbf 541f 2b3e 48eb 07c0
00000300: d708 ecbf b295 acbf c891 26c0 2d86 a6bf
00000310: 4e92 d23c 5bef a0be e19a 72bf 8e6d c53e
00000320: a186 633f 7b6e f13c e185 46bf 76e7 943f
00000330: a9df 04c0 4153 53c0 ed38 b6bf 412b 66c0
00000340: a9d5 11be 72b2 903f 6feb 923e 88b1 aebe
00000350: fb1b b5be 5ad6 1f3e 93cd 0ec0 83c2 4ec0
00000360: 934e 7c3f 701f 343f 0187 87bf 3456 14c0
00000370: d2a7 8fc0 5e91 5c3f befb d7bf 4140 4cbf
00000380: 6a6b 613f f557 99bf 798e 9e3e 82eb 0dbf
00000390: 1283 923e 967e a6be f0bf 473f 75d9 52bf
000003a0: bf49 2abf d06d 8440 3552 333e 9c17 923f
000003b0: 9339 3b3f aa0c 96bf 6bf0 0cc0 c6a2 cd3f
000003c0: 5f53 89c0 131e 3c3f 4426 63bd 7f9e cd3d
000003d0: f5b6 3fc0 6aa7 bc3e 5ed0 69c0 987a be3e
000003e0: 63d0 9e3f 8a01 633f d351 a3bf 42fd 02bf
000003f0: 4bbc 843d 60e0 823f 4458 31c0 bbf1 c7be
-0.01786252 -1.6449779 0.16507402 0.5586989 -0.10936163 -1.1850046 1.5906987 -0.8364381
0.6754601 0.37830767 -0.07891963 -2.2550814 -3.3793635 -1.0894023 -0.8424601 -1.2836062
-1.6448494 -1.8003175 1.164761 -1.2353917 -1.3539774 -1.234194 0.6160858 -0.9880587
0.06954566 -0.16487952 -0.5733645 0.21338159 -1.4017868 -3.952488 -4.469711 0.8493254
-1.6339856 -0.63538086 -2.0025 -3.1903498 -1.2705406 -2.2332344 -2.046327 -1.2118319
-1.0081638 0.08318956 -0.77222085 -1.4955224 1.1090842 -1.4170272 0.8974345 -0.17797212
-1.0469453 -0.3056974 0.5367194 -2.2493773 0.84065187 0.06283883 -1.3823653 -0.22235747
0.21281295 -0.6158801 -0.68422455 1.1430435 -1.6756542 -2.5772874 1.5477383 -0.22886665
0.26849625 1.7864215 0.122076415 1.5516945 1.0704659 1.1706105 1.6173649 1.0467654
0.26294783 2.041907 1.0599773 -1.6461447 0.55966645 -0.12417899 -0.2417555 0.8780267
-0.38802955 -2.5802343 -0.48825663 -0.46644807 0.67618734 1.1721034 3.0957544 0.08379102
1.778102 4.0757585 -2.076783 -0.2201399 -0.034872126 -2.1638372 -1.3618749 1.6900685
-0.5594168 -1.7421999 -1.4335321 -1.4172832 -0.17872049 2.002783 -1.5935234 -2.1274302
-1.8891728 -2.4953692 0.20437072 0.21782838 -0.58525294 -1.9749646 -1.6473684 -1.9398626
0.43628103 1.9585875 0.1073206 0.1561025 0.24678709 1.659123 0.78676414 0.20849699
0.8435291 1.1766844 -1.242203 -0.85820746 -2.8669565 0.21989639 -1.1969733 1.8871739
0.2269771 -3.0962017 -2.2630694 -1.0180995 -1.1306491 1.3786958 2.1475117 0.25149035
0.8444365 2.3086746 -1.8012656 -3.0962632 0.91572434 -2.0364816 -1.750748 -0.08315184
2.3233008 1.1079963 -2.6349523 0.4023439 -0.9974071 1.7099129 2.4193828 0.534471
-2.7496974 1.0957798 -2.147483 1.5832818 -3.036725 -0.42402336 1.2103513 1.8076669
2.0626848 -1.9107676 0.6347978 -2.1773515 -0.2581399 -2.5835278 -1.2430811 1.3548177
-1.2500125 -0.64258873 -1.8421509 0.32086927 0.019183658 1.4629973 -1.7202111 0.09026529
1.07093 0.5684523 0.25250313 2.9831882 0.0038000713 -0.5517094 -1.3244681 0.12508605
0.15135829 -2.29717 0.77263033 -1.0577363 -2.0850885 -0.8572606 0.1671117 -2.1237354
-1.8440198 -1.3483183 -2.6026478 -1.3009697 0.02570453 -0.31432614 -0.94767576 0.38560146
0.888773 0.029471627 -0.77548033 1.1633136 -2.0761511 -3.3019564 -1.4236122 -3.59639
-0.14241661 1.1304457 0.28695247 -0.3411982 -0.3537291 0.15609112 -2.2312973 -3.230622
0.98557395 0.7036047 -1.0588075 -2.3177614 -4.489236 0.8615931 -1.6873701 -0.79785544
0.88054526 -1.1979967 0.30968073 -0.5543748 0.28615624 -0.32518452 0.7802725 -0.82363063
-0.6651878 4.138405 0.17511828 1.1413455 0.73134726 -1.1722615 -2.202174 1.60653
-4.291427 0.7348339 -0.055456415 0.10039996 -2.9955418 0.36846477 -3.6533427 0.37202907
1.2407345 0.88674223 -1.2759346 -0.5116769 0.064812265 1.0224724 -2.7710123 -0.39051613

bias f4 [32]
00000000: cfca d0bd a7f9 5dbf 31bf 923f 37df d4be
00000010: 6d3a 4b3e 7639 2c3f 8640 26be 5b85 1abe
00000020: 1716 b7bd 629f cc3f dddb b3be f97e cf3d
00000030: 1922 84bd d5db 803f be24 e63e cda4 9dbf
00000040: fbf8 d23e 3af1 443f ba02 f03f 0a68 d83e
00000050: 7e36 d63f d4d8 b73d 12d3 0340 1273 04be
00000060: 4ef6 87bf 2d7e d33f 4cad b23f 5a1e a8bf
00000070: a141 553f c3be 0abf 6f02 6e40 4785 9f3e
-0.10194933 -0.86709064 1.1464597 -0.4157655 0.19846506 0.6727518 -0.16235551 -0.15089934
-0.0893976 1.598614 -0.3512868 0.1013164 -0.06451816 1.0067087 0.44949907 -1.2315918
0.41205582 0.7693058 1.8750832 0.42266876 1.673538 0.089769036 2.0597577 -0.12934521
-1.0622041 1.6522881 1.3959136 -1.3134263 0.83303267 -0.5419733 3.7188985 0.3115637

weight f4 [32]
00000000: a4b4 1940 17cb da3f e685 0940 1221 0540
00000010: aa3c 1140 a41f f13f 4b43 fc3f 3158 c63f
00000020: cffa b33f 1b59 ce3f 59ae 1240 bda6 0240
00000030: 308b 0a40 0af0 823f 4ee5 1440 b2e9 d13f
00000040: d605 2640 11ee 1640 1548 b03f 6ab8 9b3f
00000050: 11d0 0b40 3473 c83d cf28 f83f c062 0d40
00000060: 1fc3 1440 d7e3 c93f eb77 db3f 4da2 f43f
00000070: 146a ca3f 22af 1740 84f5 0d40 9908 e13f
2.4016504 1.7093228 2.1487975 2.0801435 2.2693276 1.8837781 1.9708036 1.5495664
1.4060916 1.6120943 2.2918913 2.041427 2.1647453 1.0229504 2.3264956 1.6399443
2.5941062 2.3582804 1.3771998 1.2165654 2.1845744 0.09787598 1.9387454 2.2091522
2.3244092 1.5772656 1.7145971 1.911203 1.5813622 2.3700643 2.21811 1.7580749

bias f4 [32]
00000000: fe62 96be da0c d1bf b087 dd3e 1933 1b3f
00000010: e660 85be e43d aa3e 7835 b0bf d432 e5bf
00000020: a489 0bc0 2590 52bf 803c c0bf 87c7 4e3f
00000030: ba43 a1bd 5885 b13f e9e5 84be 2b7b 39bf
00000040: 643d 6c3f 5212 23bf 4350 d53f 59e0 64be
00000050: 7b39 e83e 9ea1 8dbf d9a0 a6be 5605 adbe
00000060: 10bc 2dbd 2f93 1bc0 f904 ef3f 080e 83be
00000070: 75ad e5be e3f2 4dbf b0d4 17bf a891 613f
-0.293724 -1.6332047 0.43267584 0.60624844 -0.2605049 0.33250344 -1.3766317 -1.7906137
-2.180276 -0.822512 -1.5018463 0.80773205 -0.07874246 1.3868818 -0.25956658 -0.72453564
0.92281175 -0.6369983 1.6665119 -0.22351207 0.45356354 -1.1064947 -0.32544592 -0.33793133
-0.04241568 -2.4308584 1.8673393 -0.25596642 -0.448589 -0.8044874 -0.5930891 0.8811288

running_mean f4 [32]
00000000: 5423 41c2 ae76 9640 0bf5 dac1 2e21 d8c0
00000010: 08fa 32c2 e000 00c2 8519 f641 4c2a b641
00000020: b3a7 ef41 5dc0 b6c1 b660 cbbe 7883 0a41
00000030: 28fe adc0 815c 31c1 79ac a0c1 3af2 ed41
00000040: b18c 60c1 935a 95c1 48f1 abc1 11e9 9941
00000050: 72b3 07c2 22e8 30c0 dd68 0942 bc18 00c2
00000060: 8ec6 56be 74c1 eb41 5d98 b4c1 7019 a93f
00000070: b442 4b41 3863 bfc1 d78d 51c1 d985 9bbf
-48.2845 4.7019873 -27.36965 -6.7540503 -44.74417 -32.000854 30.76246 22.770653
29.956884 -22.843927 -0.39722222 8.657097 -5.437275 -11.085084 -20.084215 29.743275
-14.0343485 -18.669226 -21.492813 19.238802 -33.92524 -2.7641683 34.352406 -32.024155
-0.2097418 29.46946 -22.574396 1.3210888 12.703785 -23.923447 -13.097129 -1.2150222

running_var f4 [32]
00000000: 9383 6544 6a24 d743 779a 3244 101a 1844
00000010: 5a07 0544 9c23 2044 b064 0c44 a1fe 1444
00000020: 0933 f343 f63c 3644 59dc ca43 8a56 3b44
00000030: c82a 5e44 30db 1044 64b1 dd43 bd34 0444
00000040: 3404 3e44 84fe b743 4edf 9b44 6c5a cf43
00000050: ca7d d643 b5b6 6143 6012 0f44 bc39 7c44
00000060: 2bf1 1a44 2be9 ff43 a29a 7344 7603 1344
00000070: dd20 1a44 96b5 0f44 3cb6 de43 5893 4144
918.05585 430.2845 714.4135 608.4072 532.11487 640.5564 561.57324 595.9786
486.3987 728.9525 405.72147 749.3522 888.66846 579.4248 443.38586 528.82404
760.0657 367.9884 1246.9783 414.70642 428.98273 225.7137 572.2871 1008.9021
619.76825 511.82162 974.41614 588.0541 616.5135 574.8373 445.4237 774.30225

weight f4 [32, 32, 3]
00000000: d601 573f 0017 b93e 866d 1b3f bca2 943f
00000010: 1425 84bf 2541 1cc0 7e57 4040 f72d 1abf
00000020: 43da 14c0 7e67 ec3f 34a2 63bd d9d0 57bf
00000030: f908 40c0 aab7 993f b260 04c0 f496 c23e
00000040: d32d c73f 3cf3 7cbf 7157 0540 0142 883f
00000050: b443 ba3f e6ea 673f 2af5 a8be 3f22 61c0
00000060: c183 d1bf f152 f7bf c71b 0cbf 2238 5540
00000070: 12ef 953f d445 41c0 7fdf 3f3e 3b7c 3c3c
00000080: b19d 49bf 7441 2640 0738 0a40 0fa5 9abf
00000090: f9c9 ad3f ea60 943e 0900 aabf 5c12 4840
000000a0: 199d 69bf f206 8dbe 1129 a93f 6a2d e43f
000000b0: 5028 bbbf 95e9 d83f 922f d1bc a92b 053f
000000c0: 3fac df3e 7751 17c0 20f3 9ac0 33da 4ebf
000000d0: bcf9 943e 4e4b fd3f 89a6 9abf b447 373f
000000e0: c4aa 85be e2a5 6a3f a821 81be 0a37 cebe
000000f0: 713b 1d40 7f75 683f 59ea 3fbf c51a bf3e
00000100: 37ea 13bf f870 6abf a66d 953f b243 e2bf
00000110: 6ea9 bcbf 57e4 9b3b 54f1 213e e683 353f
00000120: 5188 5cbf 5542 f33c 8a16 f63e 605c ff3f
00000130: a1d9 5b3e cf80 c7bb d021 c3be 7a1b 53bf
00000140: 108d 0fc0 ac45 c53f 7aba 083e d0bd c2bf
00000150: 2357 653f ae66 d13e a3db 2fbd f91d e33f
00000160: 89bf 553f a1b3 2a40 ab22 f8be 19f8 283f
00000170: 1de0 16c0 bad8 7ebf 93db 743e d07b ff3e
00000180: bc81 2040 720a 483f b072 0240 b8c1 1f3f
00000190: 7970 debe e692 7b40 e0d4 e1bf 5406 f6be
000001a0: b5a6 973e 3102 023f 7549 01bf 6264 56bf
000001b0: 7234 f33e 7fd6 223d e6d7 7340 c763 b43e
000001c0: 34a2 36bf 279c 163f 643e 933f 204a 6d3f
000001d0: 7f71 24c0 1b0a e0bf 410f b8bf d4bd 57be
000001e0: 817f fb3f 2583 223f 1280 19bf c062 87bf
000001f0: 7753 3d3f 4925 9e3f 389f abbf fa2b 3bc0
00000200: 050d 4cc0 3736 1ebf da30 9c3f cd09 03be
00000210: e330 02c0 d310 f6bd ff48 5340 9fea 51bf
00000220: 5a7c 2dbf b362 2bc0 887c ab3e b8b4 32bf
00000230: b9a5 823f 091a 39bf a7ee 853f 68b1 f5bf
00000240: ccb5 31bf 46fe 22bf 1316 bbbf f0a2 4ebe
00000250: 31ac 943f d215 9140 99ed f5be f115 d4bf
00000260: 0467 893f 812e aabf 22e4 f9bf fb97 7a3d
00000270: 84fb 0940 a531 843f 50af f5bf 2af3 e33d
00000280: c862 a7be 0f8d 28bf 40c7 cf3e cdbd 35bf
00000290: f793 54c0 72d9 65c0 ca39 d7be f8e5 3440
000002a0: 8ef7 5c3f 5894 c6bf 8c6b b6c0 adda 3840
000002b0: dfad 8ebe 943b 94bf c008 aebf 7984 bbbf
000002c0: 7347 ad3f 5b23 683f 5464 20c0 07d9 41bf
000002d0: 3b26 7cbf 23d9 33bf 5796 86bf 5993 1840
000002e0: e80c 823f 6ab9 b7c0 86db 87bf 6bdd 00c0
000002f0: 87f7 453e b96d 483f 5cac 50bf 603a 123f
00000300: 46c4 d63f 4eca 903e 1b21 48bc 48fc e3bc
00000310: e666 e9be 7b33 c23f 7d86 1040 9cf3 06bf
00000320: a0e8 06be cdde 2bc0 4a9b 023f b8ca 6dbf
00000330: a885 e23f 91ed 65bf 6ac9 ebbf df78 c7bf
00000340: c9b6 8bbf 46ee 823f b80f 9e3e c8ec 66be
00000350: 0c9c f6be ec2b 7b3d eb7b f83f d553 ba3f
00000360: a7da 27c0 10f2 5c3e d080 c73f 03b5 b8bf
00000370: cdee c73e 1633 913f d480 2f3f 3e10 84bf
00000380: 2978 f83e 55aa 6abe c974 1d3f 1c8b 843f
00000390: 1d19 b8bf 9e23 723f 2ca0 8040 5a0f 7340
000003a0: 3504 1cc0 30a3 1c3f 023c ddbf 8053 36c0
000003b0: 8ddb 76bf ab2f d1be 36c5 80be 6cce 833f
000003c0: 5541 d2bc 0b05 c9be b8e5 9fbe 808f 0240
000003d0: 1941 653e 47f6 72c0 015d de3f 25f5 1cc0
000003e0: ec73 2740 fc1f a0bf a625 49bf 8a97 8340
000003f0: e701 04bf e738 e73e 6a3b 2b3d 5fc0 5cbf
0.83987176 0.3615036 0.60713995 1.1612163 -1.0323815 -2.441476 3.00534 -0.60226387
-2.3258216 1.8469083 -0.05557461 -0.8430305 -3.0005476 1.2009175 -2.0684018 0.38005793
1.556086 -0.98808646 2.083462 1.0645143 1.4551911 0.905928 -0.32999545 -3.5177152
-1.6368333 -1.9322187 -0.54729885 3.331551 1.1713583 -3.019887 0.187376 0.011504228
-0.78756243 2.597745 2.1596696 -1.2081622 1.3577262 0.2898019 -1.3281261 3.1261206
-0.91255337 -0.2754436 1.3215657 1.7826359 -1.4621677 1.6946284 -0.025535379 0.52019745
0.436861 -2.3643472 -4.8421783 -0.80801696 0.29096782 1.9788606 -1.2082072 0.71593785
-0.26106846 0.9165937 -0.2522099 -0.40276366 2.456753 0.90804285 -0.7496696 0.3732511
-0.5777926 -0.91578627 1.1674087 -1.7676909 -1.4739206 0.004757445 0.15814716 0.70904386
-0.861455 0.029694716 0.4806407 1.9950066 0.21469738 -0.006088353 -0.38111734 -0.824638
-2.2429848 1.5411887 0.13352385 -1.5214176 0.89586085 0.4089865 -0.04293407 1.7743522
0.83495384 2.6672137 -0.4846395 0.66003567 -2.3574288 -0.9954945 0.23911886 0.4989915
2.5079184 0.7814094 2.03825 0.62404966 -0.43445185 3.930841 -1.7643089 -0.48051703
0.29619375 0.50784594 -0.5050271 -0.8374692 0.4750095 0.03975534 3.8100524 0.35232374
-0.7134125 0.5883202 1.1503415 0.9269123 -2.5694273 -1.7503084 -1.4379655 -0.21068507
1.9648286 0.6348136 -0.59961045 -1.0577011 0.7395548 1.2355129 -1.3407965 -2.924559
-3.1882946 -0.61801475 1.2202408 -0.12796707 -2.0342338 -0.12014928 3.3013303 -0.8199863
-0.6776787 -2.6778991 0.33493447 -0.69807005 1.0206825 -0.7230535 1.0463456 -1.9194765
-0.69418025 -0.6366924 -1.4616112 -0.20179343 1.1615049 4.5339136 -0.48032835 -1.6569196
1.0734563 -1.3295442 -1.9522746 0.061180096 2.1559763 1.032765 -1.9194126 0.11130364
-0.32692552 -0.6584024 0.40581703 -0.7099274 -3.321531 -3.5913968 -0.42036277 2.8265362
0.8631524 -1.5514021 -5.7006283 2.888347 -0.27867028 -1.1580682 -1.359642 -1.4649802
1.353743 0.9067895 -2.5061235 -0.7572178 -0.98495835 -0.702532 -1.051463 2.3839934
1.0160189 -5.7413836 -1.0613868 -2.0135143 0.19332705 0.78292423 -0.81513 0.57120323
1.6778648 0.28279346 -0.012214924 -0.027830258 -0.45586318 1.517196 2.2582085 -0.5271547
-0.13174677 -2.6854737 0.510182 -0.9288745 1.7697039 -0.8981562 -1.8420842 -1.5583762
-1.0915157 1.0228965 0.30871367 -0.22551262 -0.4816593 0.061321184 1.9412817 1.4556834
-2.6227205 0.21576715 1.5586185 -1.443024 0.39049378 1.1343715 0.6855595 -1.0317457
0.48529175 -0.22916539 0.61506325 1.0354953 -1.4382664 0.945856 4.019552 3.797812
-2.4377568 0.61186504 -1.7283938 -2.8488464 -0.9642876 -0.4085668 -0.2515046 1.029737
-0.025665918 -0.3926166 -0.3122995 2.0400085 0.22388114 -3.7962816 1.7372133 -2.4524624
2.6164503 -1.2509761 -0.7857307 4.1122484 -0.515654 0.451606 0.04180471 -0.86231035

bias f4 [32]
00000000: 1709 0dbf 94dd 61bf 03a4 353e 7f37 61c0
00000010: c9cb 653f 0887 47bf 9903 59bf 2094 da3d
00000020: 0db7 b3bf 34ea 5fbf aa32 05bf beda 27bf
00000030: 1c33 7b3f 905a 8f3f 3861 d83f b5b8 513f
00000040: 72cc 3cbe fac6 64bf 96cf 0e3f 66bf e5bb
00000050: f049 20bf e6a0 163f 6029 0f40 f445 17be
00000060: e13f 90bf eb6e cebc d0cf 22bf bcc8 253e
00000070: c634 a23f 2066 4fbf 5c76 103f e852 9f3f
-0.55091995 -0.88228726 0.17738347 -3.5190122 0.89764076 -0.77940416 -0.84771115 0.10672784
-1.4040238 -0.8746674 -0.5203043 -0.6556815 0.9812486 1.1199512 1.6904669 0.81922466
-0.18437365 -0.89366114 0.557855 -0.007011342 -0.6261282 0.5883926 2.2369003 -0.14772779
-1.1269494 -0.025199374 -0.63598347 0.16189855 1.2672355 -0.81015205 0.564306 1.2447176

weight f4 [32]
00000000: 894b de3f 85d5 2240 ee3e cc3f 25ab 1740
00000010: 86bc ff3f c0fb fd3f 434f 2e40 ad21 1540
00000020: 168d 2040 64bf b03f c3a9 1e40 d71b fb3f
00000030: e625 af3f 2211 2e40 e9ef 2240 1622 1f40
00000040: cdcd 1640 118c 0b40 0e42 d93f ba32 3e40
00000050: 02a4 c73f dd15 cf3f 8a9c 2b40 cc17 2440
00000060: 0ca7 f53f 7df8 1c40 9517 1f40 498f 0240
00000070: f545 b23f 309a 1540 cd0e d03f 2b0b 1540
1.7366802 2.5442822 1.5956705 2.3698208 1.9979408 1.9842453 2.7235878 2.3301804
2.5086112 1.3808408 2.4791114 1.9617871 1.3683441 2.7197957 2.545893 2.4864554
2.356311 2.180424 1.6973283 2.971846 1.5596926 1.6178547 2.6814294 2.5639524
1.9191604 2.4526665 2.4858143 2.0399954 1.3927599 2.3375359 1.6254517 2.3288066

bias f4 [32]
00000000: 437d 08bf 2c9e c1be b55d 20c0 cbc7 833f
00000010: 016c c0bf c0c1 0d3f ead1 a23f f4d3 9bbf
00000020: ebb5 9cbf 6cb4 15c0 3ea5 9abe ef4e 84bf
00000030: f87e 0fc0 3a2b cf3e 05e0 9dbe 7913 21be
00000040: d647 c3be e33b 40bf e3ef c5bf 30c4 843e
00000050: cc16 fabf 4371 1ebd c84e bb3e e79f 5abf
00000060: 455e 823f 9960 a2bd d40d 61bf 9336 e5be
00000070: d7c4 1bc0 0cd0 d2be e836 01c0 24a8 e8be
-0.53316134 -0.37815988 -2.5057194 1.0295347 -1.503296 0.55373764 1.2720311 -1.2174058
-1.2243017 -2.339137 -0.30204195 -1.0336589 -2.2421246 0.40462667 -0.30834976 -0.15730084
-0.38140744 -0.7509138 -1.5463833 0.2593093 -1.9538207 -0.038682234 0.36583543 -0.8540024
1.0185019 -0.07928581 -0.87911725 -0.447682 -2.4338892 -0.41174352 -2.0189762 -0.4544078

running_mean f4 [32]
00000000: bdc0 71c0 c522 d4c1 fbc2 af41 9e87 2741
00000010: 9fd7 18c2 a9b4 c040 ee4e cdc1 ec74 6dc1
00000020: d226 aac2 7637 b241 0d22 bcc1 07dd 3840
00000030: 02c3 23c1 1d0f 48c2 af7d b9c1 b413 83c0
00000040: 3511 1bc2 9e6f 1bc1 2120 14c2 6268 4ec2
00000050: 48e2 0842 cd1f 67c1 aac5 1ec2 2b51 50c2
00000060: 2955 cd40 9251 0ac1 0f4d 86c2 8cf8 b2c0
00000070: 4721 9c41 b70d 2340 a897 1642 c536 c2c1
-3.7773888 -26.516977 21.970205 10.47061 -38.210567 6.0220532 -25.66354 -14.841045
-85.07582 22.27708 -23.516626 2.8884904 -10.235109 -50.01476 -23.186369 -4.096155
-38.766804 -9.71475 -37.031376 -51.601936 34.220978 -14.445264 -39.69303 -52.079266
6.4166455 -8.644915 -67.150505 -5.59284 19.516249 2.547712 37.6481 -24.276743

running_var f4 [32]
00000000: 1448 9344 8395 4544 79a2 3844 6120 8444
00000010: 96ad 0e44 9ef7 9244 9afa dc44 c576 aa44
00000020: 859d 7044 3e41 1144 a2e0 6f44 24ab 9344
00000030: 3472 2844 ea6f e144 3a04 f944 e120 9844
00000040: 7e1b 8f44 1159 5c44 073c e743 b239 7b44
00000050: 355f 4f44 3e3f b744 26fa 9f44 b7f8 6444
00000060: 066f 8c44 a7e6 8f44 9ad0 7244 4095 8044
00000070: 4c00 1444 e47e 6b44 3264 ee43 50a5 6f44
1178.2524 790.3361 738.53864 1057.0118 570.7123 1175.738 1767.8313 1363.7115
962.46124 581.0194 959.5099 1181.3481 673.7844 1803.4973 1992.1321 1217.0275
1144.8591 881.39166 462.46896 1004.9015 829.4876 1465.9763 1279.8171 915.88617
1123.4695 1151.2079 971.2594 1028.6641 592.00464 941.98267 476.78278 958.583

weight f4 [64, 32, 3]
00000000: c74b 45c0 3895 f5bf 45db 06be 856d 943e
00000010: 80b7 a33f 210c 3040 7f5d 923e b2e5 a93f
00000020: ed08 febf 3d83 713f 7417 0d40 d56e 463f
00000030: 9a8a 54bf 216f 48b9 f62d 1e40 16a6 863f
00000040: ad65 bdbf 64b7 96c0 0c9a 44bf d692 19bf
00000050: 762b 6ebf 8c46 a33f 2d69 57bf b8bc 4fbe
00000060: faec 303e 4041 063c ea68 df3f acf8 113f
00000070: f483 0c3f a33d cb3e 58a2 12bf f6c5 b53e
00000080: 315b 8a3f c2bf 95be e49c 593f 2e15 a0bf
00000090: 69c2 e73c c212 01b9 ff09 913d 6e23 3cbf
000000a0: 6adf f5bf c769 613f 335b a4bf 8c2f eebf
000000b0: 11f2 b73f a658 b13f fb87 b73f d52d bfbe
000000c0: 9378 9fbf 2f62 25c0 b317 dc3f 484b 04c0
000000d0: dea9 a0be 3dc5 d33f 554e 53bf bd96 b6bf
000000e0: e029 babe 5cc3 c6bf 5cfa 19bf 913c 9c3d
000000f0: d058 3c3f d78d 163f b233 9d3f 7fc3 7bc0
00000100: 1132 a63f 56bc 0b40 2963 76bf 53cf 91bf
00000110: 2522 c8bd 65d6 88bf 21f5 c4bf dc47 06c0
00000120: e279 db3f 8c6c 1fc0 f05e 2cbf ae0f c3c0
00000130: 3324 b4bf a939 82c0 5bfa aebd e446 5f3e
00000140: 46f1 93bf 4a16 72bf 1d17 36c0 3828 c5c0
00000150: 9a68 0cc0 f622 363f 52ee c4bf c54a a83f
00000160: 9e69 893f 9f21 b1be a4b9 fc3f 1bf0 5f3f
00000170: c5bd 0940 99bc 23c0 c9e5 673f fa32 57bf
00000180: 0558 4cc0 c728 cd3f 2f17 03be 1fbf ff3f
00000190: edeb 0cc0 a400 a63f 5e6b a53f 72bf 80bf
000001a0: 215f 283f 14cb c43f 11f5 ce3d f96b 05c0
000001b0: c1a9 e33e 3d40 d03f 5d2a 943f 9a8e d43f
000001c0: 9827 06be bd4c 933d ae05 1bc0 a36f 2fc0
000001d0: ce74 7abf df22 85c0 4f06 33c0 7374 dabf
000001e0: 0cc9 aa3e 1a29 203f 97ed 6ebf eeba 0940
000001f0: f4a9 743f b9ec 8f3f 5278 e43f 6f41 4cbc
00000200: 8c13 14bf 7031 3ebf a2e1 38c0 2eac 2f3d
00000210: 6857 473f c86a 5a3f 5868 b8be a619 8cc0
00000220: 7f6d 603f 8f4c 11c0 dd1c d03f fff7 36be
00000230: 8ec7 b83e d741 cabf 479c 10bf 049d 4fc0
00000240: 83c0 a9c0 2388 45c0 adde e4bf 974b 46bf
00000250: 1af3 39bf 2046 183f 4290 81bd a740 613f
00000260: 951a b73e ef5a d0bf f669 1840 4400 92bf
00000270: 079e 88be b3c7 4e3f 7c07 c4be 09d8 abbf
00000280: 9e0e 8c3f 550d 4cbf 5cd7 7abf 4b3e 02bf
00000290: 2901 66bf d06f 33be e092 34c0 4606 4cc0
000002a0: c7a8 bbbf 35c2 dc3e 4c90 5bc0 f300 2ac0
000002b0: 8901 ebbe 5cf4 963f db8c 8bbf 7f71 a03e
000002c0: b33a 8a3f 555c 0dc0 b626 3bbf 23bc ed3e
000002d0: 59e3 1040 88f6 af3f 34f3 783f 8561 2b3f
000002e0: a5f9 23c0 074d e0bf 38ca 1940 6362 513f
000002f0: f068 f0bf 35e6 963f 9e5a a0bf 8ea4 11c0
00000300: deca babe 64fb 83be fa6e 4d3f 0bdf c0bf
00000310: baa9 3cbf 0059 ddbf cd15 0840 158d 4c3f
00000320: 6205 35c0 26e9 0440 100f 46bf 2f79 763f
00000330: 21be eebf 1049 ad3d 1183 153c 324e ac3f
00000340: c798 833e d40b 34bf 0abe 9d3f f62f cd3e
00000350: 9798 4b3f 3425 6dbf df7e 9e3d 4398 e73f
00000360: b3e0 8bbf 328c 113f 3ea5 85bf b95b 7cbd
00000370: ad58 65bf 9aed 093f c157 bc3f 68cc 603f
00000380: 923d 303f 9ef0 2c40 b5d2 a6be 3783 1a40
00000390: 8880 18be ac7a cd3f 971b a33f 6521 343f
000003a0: bf55 fc3f caeb adbf 0cef 50be 15f3 02c0
000003b0: 8ffe e2be 428c e2bf 6737 493f 1b0b cabf
000003c0: f13f 273e ffeb 273f dad2 86be 1c19 ed3f
000003d0: d050 1a40 b2f6 b7bf f8e9 4d3e 2cd6 253f
000003e0: 512d 7fbf 7b0f 01c0 ee0b 1040 76ea e53e
000003f0: f33d 4140 9f16 2440 dc0f 7140 d75c 7ebf
-3.08275 -1.9186163 -0.13169582 0.28989807 1.2790375 2.7507403 0.28586957 1.3273222
-1.9846474 0.9434088 2.2045565 0.77512866 -0.8302399 -0.00019114885 2.4715552 1.0519435
-1.4796654 -4.7098866 -0.76797557 -0.5998968 -0.93035066 1.2755904 -0.8414486 -0.20286834
0.172779 0.008194268 1.7453892 0.5702007 0.54888844 0.39695463 -0.57278967 0.35502595
1.080908 -0.29247862 0.8500502 -1.2506464 0.028290944 -0.00012309387 0.07081985 -0.7349156
-1.9208806 0.8805203 -1.2840332 -1.860826 1.4370748 1.3855178 1.4338373 -0.37339655
-1.2458671 -2.5841177 1.7194732 -2.0670948 -0.31379598 1.6544567 -0.825414 -1.4264752
-0.36360073 -1.5528369 -0.60147643 0.076287396 0.7357302 0.5881018 1.2281401 -3.9338071
1.2984029 2.18337 -0.96245056 -1.1391395 -0.097721376 -1.0690428 -1.5387307 -2.098136
1.7146571 -2.4910002 -0.67332363 -6.095664 -1.4073547 -4.0695386 -0.08543845 0.21804386
-1.1558006 -0.9456526 -2.8451607 -6.1611595 -2.1938844 0.71147096 -1.538523 1.3147818
1.0735357 -0.34595963 1.9744153 0.87475747 2.1522076 -2.558386 0.90585 -0.8406216
-3.1928723 1.6028069 -0.12801813 1.99802 -2.2018998 1.2968946 1.2923391 -1.0058424
0.65770155 1.5374475 0.101053365 -2.0847151 0.4446545 1.6269604 1.1575428 1.6606019
-0.13101041 0.07192371 -2.4222217 -2.7411888 -0.9783448 -4.1605067 -2.79726 -1.7066787
0.33356512 0.62562716 -0.93331283 2.1520343 0.9557183 1.1244117 1.7849219 -0.012466772
-0.57842326 -0.74294186 -2.8887715 0.042888813 0.77867746 0.85319185 -0.36017108 -4.378131
0.8766708 -2.2702978 1.6258808 -0.1786804 0.36089748 -1.5801343 -0.5648846 -3.2439585
-5.30475 -3.0864341 -1.7880455 -0.7745909 -0.7263657 0.59482 -0.06326343 0.87989277
0.35762468 -1.6277751 2.3814673 -1.1406331 -0.26683065 0.80773467 -0.3828696 -1.3425304
1.0941961 -0.79707843 -0.9798486 -0.508763 -0.8984552 -0.17523122 -2.8214645 -3.187883
-1.4660882 0.43116918 -3.4306822 -2.656308 -0.4589961 1.1793323 -1.0902361 0.3133659
1.0799164 -2.2087605 -0.73105943 0.464326 2.2638762 1.374711 0.972461 0.6694568
-2.562112 -1.7523507 2.4029675 0.8179075 -1.8782024 1.1789004 -1.2527654 -2.2756686
-0.364829 -0.25777733 0.8024746 -1.5068067 -0.7369648 -1.7292786 2.1263306 0.79902774
-2.8284535 2.0767303 -0.77366734 0.9627866 -1.8651773 0.08461201 0.009125487 1.3461363
0.25702497 -0.7033055 1.232362 0.40075654 0.7952971 -0.9263489 0.077390425 1.8093342
-1.0927948 0.56854546 -1.0441053 -0.06161091 -0.89588434 0.53878176 1.471428 0.878119
0.6884395 2.702186 -0.32582632 2.4142587 -0.14892781 1.6053061 1.2742795 0.70363456
1.9713668 -1.3587582 -0.20403689 -2.0460865 -0.44334838 -1.7699053 0.7860016 -1.5784639
0.16332985 0.65594476 -0.26332742 1.8523288 2.4111824 -1.437216 0.20108783 0.64779925
-0.9967852 -2.0165699 2.2507281 0.44905442 3.019406 2.5638807 3.766593 -0.9936041

bias f4 [64]
00000000: e31b 9cbf 254c 0abf 3257 64bf d7ac 79bf
00000010: 1a0f b13e 0902 82bf ce43 033e 662e c4bf
00000020: e3c2 dabe 25d0 02bf fffb b13f 1008 56bf
00000030: 5bbc 493f e647 5cbe 7264 b03f dbfb d93e
00000040: 8593 8cbf b730 e23f 9e18 773d 6463 afbf
00000050: e89c 49be a478 a63f 5786 93bf 2575 9ebd
00000060: b91d 323f 1917 32bf a24d 3abf aece a63a
00000070: b318 bcbe 6c20 a93f 8973 b9be 8cb7 523f
00000080: 0c08 89be a31a 8cbe 3f0c e83e 645c 09be
00000090: 158a 50bd 4d8d c6bd 4fcf 43bf e32f ddbf
000000a0: e537 d7be 1547 633e 80cf e5bd e13b 6d3f
000000b0: da74 d13e dc7e 04c0 cb80 bb3e 4f20 13bf
000000c0: b902 c3be 7758 3fbe 4f75 b3be c562 95be
000000d0: 3e50 c03f 643a dabe 59a8 443f b50b 8dbe
000000e0: 0aaf 00bf 51ed 64bf 2fa9 afbf 45b1 1f40
000000f0: 86bb 9bbf f765 04bd fecf 9b3c 0e74 df3f
-1.219601 -0.5402244 -0.8919555 -0.9752936 0.34581834 -1.0156871 0.12818834 -1.532666
-0.42726812 -0.51098853 1.3905028 -0.8360605 0.7880303 -0.21511802 1.3780653 0.42574963
-1.0982519 1.7671117 0.06032621 -1.3702207 -0.19688761 1.3005567 -1.1525372 -0.07737187
0.69576603 -0.69566494 -0.7277471 0.001272639 -0.36737594 1.3213019 -0.3622096 0.8231132
-0.26763952 -0.27364072 0.45321843 -0.1341415 -0.050912935 -0.0969492 -0.764882 -1.7280239
-0.42034832 0.22195084 -0.11221218 0.9266949 0.40909463 -2.070243 0.366217 -0.57471174
-0.38088015 -0.1868609 -0.35050437 -0.29176918 1.5024488 -0.42622674 0.7681938 -0.27547994
-0.5026709 -0.89424616 -1.3723506 2.4951947 -1.2166603 -0.032323804 0.019020077 1.7457292

weight f4 [64]
00000000: ef47 2a40 a3d3 3440 f4d5 e03f 7d30 0d40
00000010: 3fee 9f3f 09f9 0540 0312 ca3f e1aa ad3f
00000020: dc34 f33f 1ff2 e43f 0d5f 0740 9dde ed3f
00000030: 1bd2 0040 7700 c93f 05f0 ed3f afb0 2040
00000040: 2899 0a40 5576 f43f d75c 0740 9bf1 d73f
00000050: 3788 0240 ed92 b43f 7cc9 c13f 78ed c03f
00000060: aa62 c03f 59cc bf3f cf0e 0e40 28cd fa3f
00000070: aea2 8f3f 13ba eb3f fdd1 f13f 7b54 e03f
00000080: bfd4 0440 dc03 0140 70cd c63f 2b6c c43f
00000090: 4b35 d33f 03ad 0240 6d14 1140 eebb ac3f
000000a0: 4b1b b13f c440 dc3f 2022 b53f 2b4c 0640
000000b0: e607 f23f d006 db3f 7dc3 c83f c073 1340
000000c0: 81c4 ed3f b1a0 dd3f d287 ce3f ecc7 1240
000000d0: 2096 0140 230c f63f 0502 c93f 89b6 bb3f
000000e0: 0e33 0b40 12d5 ee3f 3e73 e63f 8a14 1840
000000f0: a4e2 0440 0761 b73f b7f6 0f40 1c9c 0240
2.6606405 2.8254173 1.7565293 2.2060845 1.2494582 2.093325 1.5786747 1.3567773
1.9000506 1.788639 2.1151764 1.8583561 2.0128238 1.5703267 1.8588873 2.510784
2.165598 1.9098612 2.1150415 1.6870607 2.039564 1.4107338 1.5139613 1.507247
1.503011 1.4984237 2.2196538 1.9593859 1.1221521 1.841616 1.8892208 1.7525781
2.075485 2.0158606 1.5531445 1.534551 1.6500639 2.0418098 2.2668717 1.3494852
1.3836454 1.7207265 1.4151039 2.098399 1.890866 1.7111454 1.5684658 2.3039398
1.8575593 1.7314664 1.6135199 2.2934523 2.024788 1.9222454 1.5703741 1.466508
2.1749911 1.8658774 1.8003919 2.3762536 2.076333 1.4326485 2.2494333 2.0407782

bias f4 [64]
00000000: 1a05 75bf d861 f2bf 74d2 a4bf bee1 1fbf
00000010: 4912 28c0 f2c3 b0bf f9fb 5d3d 03a8 c93d
00000020: e71f 34bf 8c9b 48bf 01d0 29bf a660 0d3f
00000030: a4ee 22be 4ef4 c1bf c17e b7bf 631a b2bf
00000040: 8964 9e3c eb2b 2fbf ebb3 9dbf d53a f0bf
00000050: e20b 14bf 9a57 b6be 86f2 07c0 dd56 c6bf
00000060: 3258 913b 72e1 e4be 9d3e 5abf 243c afbf
00000070: cfb2 45bf 3ea8 cfbd f020 55bf a5a7 09c0
00000080: fdc1 dfbf 06fd 04bd b0cd ccbf afed 2ac0
00000090: 4905 debf 9e86 a0bf 6ab9 953c 4f60 0bc0
000000a0: 36a9 0dbf f141 153e 341c 0e3f cf46 96bf
000000b0: 47f4 c6bf 7cb8 383f 15af 87bf d0ca 25be
000000c0: f740 13c0 9cfe 85be 6a8b 23c0 de88 d2be
000000d0: b4f0 3abe 8584 1abf 8b42 adbf 0195 b7bf
000000e0: 9a28 aebf 74c5 15bf e700 4dbe 0259 18bf
000000f0: fefa 02bd 334e 743f 1bf2 5cbf e12f 35bf
-0.9571091 -1.893611 -1.2876725 -0.6245383 -2.626116 -1.3809798 0.054195378 0.09846499
-0.7036118 -0.78362346 -0.66333014 0.552256 -0.15911347 -1.5152681 -1.4335557 -1.3914303
0.019335048 -0.6842639 -1.2320532 -1.8767954 -0.5783063 -0.3561371 -2.1241775 -1.5495259
0.0044355625 -0.4470325 -0.8525179 -1.3690228 -0.77225965 -0.101395115 -0.83253384 -2.1508572
-1.7481076 -0.032467864 -1.6000271 -2.670757 -1.7345363 -1.2541082 0.018276889 -2.1777532
-0.5533632 0.14575936 0.55511785 -1.1740359 -1.5543298 0.721565 -1.0600306 -0.16190648
-2.3008401 -0.26170814 -2.5553842 -0.41120046 -0.18255883 -0.6035846 -1.3535932 -1.4342347
-1.3606141 -0.58504415 -0.20019875 -0.59510815 -0.031977646 0.9543182 -0.86306924 -0.7077618

running_mean f4 [64]
00000000: 557a f0c1 f021 47c2 b918 8341 7fe2 88c1
00000010: 6ca4 e5bd 3435 96c0 9799 bfc0 c41a ffbf
00000020: 07d8 48c1 f01a d5c1 1379 9540 030c 2fc2
00000030: daa2 bcbf 9083 4bc1 deab 3541 cfae 5641
00000040: 5ae1 eec1 3c43 bfbd d206 c8c0 6a64 eb3f
00000050: ed52 4dc1 0f77 1b3f aca2 abc1 1937 f43e
00000060: 3893 7f40 2901 9140 2a87 aac1 286e 58c1
00000070: f9bc 26c1 b079 883f d057 cbc0 2dee cbc1
00000080: 8ba2 2941 0944 1140 659a 86c1 67c5 0a42
00000090: a3ac 0ec1 df42 423e 29ad e8c1 8d5a 5a41
000000a0: 4403 eac1 8618 f2c0 9a65 89c1 f78a b8c1
000000b0: cd9c 2341 1d09 b8c1 aeeb ed40 ac17 cdc0
000000c0: af80 19c0 aa4b e4c0 2592 26c1 7ac1 e8c1
000000d0: e5a2 08c2 0bce 7440 c249 b2be 72aa a3c1
000000e0: 46b1 f8c1 2898 1040 a1cd 36c2 b5aa 2441
000000f0: cda5 e5c1 2c5c 9fc0 6edd 99c1 aa6c 0c41
-30.059732 -49.783142 16.387072 -17.110594 -0.112130016 -4.6939945 -5.9874988 -1.9930043
-12.552741 -26.638153 4.6710296 -43.76173 -1.4737198 -12.71962 11.35446 13.417678
-29.860035 -0.09338996 -6.2508326 1.8390019 -12.832746 0.60728544 -21.45443 0.47698286
3.9933605 4.5313916 -21.315998 -13.526894 -10.421136 1.0662136 -6.3544693 -25.491297
10.602183 2.2697775 -16.825388 34.692776 -8.917148 0.18970822 -29.08455 13.647107
-29.251595 -7.5654936 -17.17461 -23.067854 10.225781 -23.00445 7.4350195 -6.4091396
-2.3984792 -7.1342363 -10.41068 -29.094471 -34.159077 3.8250759 -0.34821898 -20.458225
-31.08656 2.2592869 -45.70081 10.2916765 -28.705957 -4.9800014 -19.23312 8.776529

running_var f4 [64]
00000000: 48d3 5444 019f fa43 f1b7 2144 ef59 f543
00000010: de4a 9d43 8447 1a44 ef1b 8144 8294 2444
00000020: ec4f f643 59f1 ab43 608e 3744 04a5 8f44
00000030: 1cde 0944 5a47 0d44 c00c fe43 16b5 4544
00000040: 707c 2144 d01a 1344 8b5c 5644 45ad ea43
00000050: a77e 3e44 d9aa 0144 adac c243 4259 d743
00000060: 4efb c343 b673 e043 c5de 1344 a1f2 2344
00000070: 7cfe 3b44 8ebc 3244 2596 2d44 8b83 1b44
00000080: ebb7 1344 9a04 0244 9435 e943 ab48 c643
00000090: 4da1 0044 bff2 2444 e251 a044 e1f3 e143
000000a0: a67e d343 2230 4444 ff11 5844 b444 1044
000000b0: 0d08 0244 1730 8144 d3f5 1144 750e 3044
000000c0: c033 bb43 8454 0a44 4299 f843 7b95 3744
000000d0: d176 8944 93af 4644 abf5 1c44 f622 3044
000000e0: 3afe f143 e18e 4b44 bbe1 1444 ab08 3744
000000f0: 61b5 1144 180f 1e44 4725 1a44 7a4c 2744
851.3013 501.24222 646.8741 490.7026 314.5849 617.11743 1032.8729 658.32043
492.6244 343.88553 734.2246 1149.1567 551.47046 565.11487 508.0996 790.82947
645.94434 588.41895 857.446 469.35367 761.97894 518.6695 389.34903 430.69733
391.96332 448.904 591.4808 655.7911 751.9763 714.94617 694.346 622.05536
590.8737 520.0719 466.41858 396.56772 514.5203 659.7929 1282.5588 451.9053
422.98944 784.7521 864.2812 577.0735 520.1258 1033.5028 583.841 704.2259
374.4043 553.32056 497.19733 734.33563 1099.713 794.74335 627.83856 704.54626
483.98615 814.2325 595.52704 732.13544 582.83405 632.23584 616.58246 669.19495
