unet/checkpoints/one_loss/epoch_55.pth (torch, 508787 bytes, 85 tensors)

weight f4 [8, 1, 3]
0.694911 -0.06194862 2.8627443 0.42038742 -3.3542664 -0.49202803 -1.1629915 1.544404
0.7257607 -3.5940394 -0.33818066 0.7337855 0.6832197 -2.4294639 -0.1596601 0.7489328
3.5794184 -0.2201396 -1.5437845 0.6265874 -1.6679095 2.7315454 -0.10195608 -0.9150757
00000000: b0e5 313f d6bd 7dbd 3437 3740 053d d73e
00000010: 4dac 56c0 19eb fbbe e8dc 94bf 08af c53f
00000020: 74cb 393f be04 66c0 0426 adbe 5ed9 3b3f
00000030: 7ce7 2e3f 567c 1bc0 f07d 23be 0fba 3f3f
00000040: 3115 6540 466c 61be bb9a c5bf 0868 203f
00000050: 0f7e d5bf a4d1 2e40 59ce d0bd 6742 6abf

bias f4 [8]
0.16436252 -0.044986416 0.10920432 0.45690188 -0.18427905 0.12658705 -0.34128135 0.08683902
00000000: a64e 283e ad43 38bd 84a6 df3d 0bef e93e
00000010: a6b3 3cbe 09a0 013e 6ebc aebe a8d8 b13d

weight f4 [8]
1.1225696 1.8419913 1.8580362 1.8166528 0.3393727 2.684496 0.87486124 2.0897114
00000000: 5cb0 8f3f 5fc6 eb3f 21d4 ed3f 1488 e83f
00000010: 42c2 ad3e c8ce 2b40 e8f6 5f3f d5bd 0540

bias f4 [8]
-1.6383811 0.29800594 1.5070833 1.7704128 1.3702047 -0.06448833 -0.5774723 -0.12136722
00000000: 79b6 d1bf 3c94 983e 1be8 c03f e39c e23f
00000010: de62 af3f 7512 84bd 3ad5 13bf 618f f8bd

running_mean f4 [8]
0.1592017 -0.07778377 0.18830578 0.67476255 -0.2272515 0.0777344 -0.27119964 -0.09074532
00000000: c505 233e 194d 9fbd 3bd3 403e 3dbd 2c3f
00000010: 9eb4 68be 3733 9f3d aeda 8abe afd8 b9bd

running_var f4 [8]
719005.5 722973.75 110720.74 661519.7 249043.84 1.00004994e+06 384414.88 250468.02
00000000: d889 2f49 dc81 3049 5f40 d847 fb80 2149
00000010: f634 7348 1f27 7449 dcb3 bb48 0199 7448

weight f4 [16, 8, 3]
0.7260632 -0.92687875 -3.232522 1.3942004 1.0748246 -1.0107627 -0.96904135 0.9296492
0.8121379 1.624559 2.9880917 0.6994387 1.1380008 0.93460935 -1.3713034 -2.419582
-1.2237358 0.019341012 0.6777092 -1.1440438 0.98243916 0.60347396 -0.6607516 -0.5398118
0.98390657 1.1993518 -0.20144042 0.31860992 0.9394135 -0.64695144 1.1283007 0.82217836
0.46250212 -1.6286663 0.25297728 0.7988507 0.34805667 0.6258763 -0.6420188 3.4326189
2.0015724 1.6552249 0.37994307 -0.33172303 0.6632153 -0.023395568 1.8315996 0.85431457
-1.437786 0.50751317 -1.7301998 0.2590362 0.7495975 -0.10863187 -0.7764711 -1.3078107
0.7957314 -3.047305 0.20330517 0.86553913 0.92959607 0.9374829 -0.196538 0.8088903
-1.3808153 -0.08956541 -1.105858 0.18454866 1.2431011 1.222082 0.13206516 -2.0947864
2.4554064 0.86013824 0.16414882 2.224727 2.6361198 0.50570285 -0.21462947 0.16534044
-1.3250442 0.7177241 2.3378577 0.90293664 0.7409848 1.5827062 0.16553697 -1.0903482
0.3841677 -2.2179914 0.15206309 1.3815143 -0.06969548 -0.49182358 -1.3026083 0.86067516
1.8082488 -1.548666 -1.4518666 -0.99771595 -1.7957243 -0.77665967 -0.29716325 -1.2952253
-1.9798409 -1.4239575 -0.66719264 -0.4275822 -0.07619475 -0.7416268 -0.229167 1.3688679
0.326073 -1.0833722 0.05214973 -1.6606127 -1.2007807 1.8518773 1.2231392 0.30547008
1.6365952 -0.3392733 -1.5027754 2.2814982 1.6541219 2.360755 0.097790875 -0.5054725
-1.512851 0.41343185 1.6669209 0.9935208 1.4173216 0.96342 1.360732 -0.49828333
0.18404588 -1.20783 -0.0064524515 1.2169452 0.19309601 0.73062706 0.587846 0.84660745
0.7738705 -0.2530365 1.170851 -3.1162229 0.77375674 -0.1301812 -2.015621 -0.6999549
0.17002548 -1.1630445 -1.9974592 0.4417241 -2.095366 0.5043872 0.22731568 -0.18661262
-0.532015 -0.27752653 0.27727544 0.75883615 -1.5513828 0.71462345 -1.7594819 -1.186659
1.0904813 0.7914751 0.36966795 0.2245797 -2.088644 0.38410327 -0.44212556 1.595212
-2.7356868 -0.276481 1.0168731 -1.1285125 0.54998624 -1.864643 -0.39625713 1.4769795
1.3006209 -0.28071725 -2.1239944 1.1061573 0.4582849 0.4821286 0.9695558 0.3173263
1.3324883 -2.05545 1.172972 -0.39045584 0.75638574 0.5372649 -0.98153526 -3.1863418
-0.08693802 -2.1833184 -0.03133309 0.25365666 0.038747072 0.26999375 1.3121243 -0.24107867
-0.55496806 -3.470681 -1.2217696 -1.001906 0.32390404 1.3120314 -0.2331954 0.56878895
-2.5291164 -0.74402416 -0.73075545 0.03391048 -0.1086971 2.5525653 -0.49522942 -0.4837006
-1.8627447 -1.9827707 0.4493285 -0.5613658 0.27038968 0.36574042 2.967697 -0.07315424
-1.533873 -2.1837323 -1.6783458 1.0508609 -0.3849177 1.1126329 0.48750433 -0.3149085
0.08448447 0.31241593 -0.18765485 1.8174556 1.8339167 2.0576732 -0.0798383 -0.39079866
-0.89672965 0.48772323 1.547968 1.3944509 1.2602736 0.77932364 1.6842835 -0.14164728
00000000: 47df 393f ed47 6dbf a4e1 4ec0 2975 b23f
00000010: da93 893f ac60 81bf 1813 78bf 7dfd 6d3f
00000020: 45e8 4f3f 8df1 cf3f e53c 3f40 6a0e 333f
00000030: 03aa 913f 8f42 6f3f df86 afbf 6eda 1ac0
00000040: 60a3 9cbf 0b71 9e3c 5a7e 2d3f 0770 92bf
00000050: 2281 7b3f 457d 1a3f 0427 29bf 1b31 0abf
00000060: 4de1 7b3f 5c84 993f 6646 4ebe d720 a33e
00000070: 677d 703f 9c9e 25bf 286c 903f 487a 523f
00000080: 14cd ec3e 2378 d0bf 3d86 813e 7b81 4c3f
00000090: 7c34 b23e 6e39 203f 585b 24bf 07b0 5b40
000000a0: c319 0040 69de d33f e687 c23e 9ad7 a9be
000000b0: 7ac8 293f 10a8 bfbc db71 ea3f 5cb4 5a3f
000000c0: 5f09 b8bf 62ec 013f 3077 ddbf 65a0 843e
000000d0: 9fe5 3f3f 637a debd cfc6 46bf 5766 a7bf
000000e0: 0eb5 4b3f 0c07 43c0 3b2f 503e f993 5d3f
000000f0: 02fa 6d3f e1fe 6f3f 4241 49be 6f13 4f3f
00000100: 8ebe b0bf 126e b7bd c18c 8dbf 53fa 3c3e
00000110: f01d 9f3f 2f6d 9c3f 173c 073e fb10 06c0
00000120: 6125 1d40 0532 5c3f a116 283e ed61 0e40
00000130: 30b6 2840 be75 013f d4c7 5bbe 014f 293e
00000140: 0c9b a9bf c4bc 373f 769f 1540 db26 673f
00000150: 2eb1 3d3f 1e96 ca3f 8682 293e 8890 8bbf
00000160: a1b1 c43e 92f3 0dc0 6db6 1b3e 76d5 b03f
00000170: 81bc 8ebd 4dd0 fbbe debb a6bf 3555 5c3f
00000180: b274 e73f b03a c6bf c4d6 b9bf 506a 7fbf
00000190: 4bda e5bf 2bd3 46bf c825 98be f1c9 a5bf
000001a0: 6d6b fdbf 3d44 b6bf 23cd 2abf 0eec dabe
000001b0: fe0b 9cbd 41db 3dbf c1aa 6abe 1037 af3f
000001c0: 0af3 a63e f1ab 8abf f59a 553d f58e d4bf
000001d0: 2fb3 99bf 510a ed3f d38f 9c3f 9366 9c3e
000001e0: f47b d13f 3bb5 adbe f25a c0bf 1104 1240
000001f0: 44ba d33f 9c16 1740 9546 c83d a566 01bf
00000200: 1aa5 c1bf 57ad d33e aa5d d53f 6157 7e3f
00000210: cb6a b53f b1a2 763f 772c ae3f fe1e ffbe
00000220: 8676 3c3e 2c9a 9abf 166f d3bb dcc4 9b3f
00000230: f6ba 453e 600a 3b3f 137d 163f 44bb 583f
00000240: 611c 463f 008e 81be 72de 953f 3270 47c0
00000250: ec14 463f 384e 05be efff 00c0 3f30 33bf
00000260: 291b 2e3e a4de 94bf beac ffbf a929 e23e
00000270: 7a1a 06c0 851f 013f 71c5 683e 6117 3fbe
00000280: 2332 08bf f517 8ebe 0cf7 8d3e 1643 423f
00000290: b693 c6bf 90f1 363f b436 e1bf 71e4 97bf
000002a0: e494 8b3f 1d9e 4a3f 1e45 bd3e 39f8 653e
000002b0: 58ac 05c0 2fa9 c43e 485e e2be e82f cc3f
000002c0: 7e15 2fc0 eb8e 8dbe e628 823f 1973 90bf
000002d0: e6cb 0c3f 9fac eebf 37e2 cabe aa0d bd3f
000002e0: bf7a a63f 2cba 8fbe 86ef 07c0 9096 8d3f
000002f0: 52a4 ea3e 8fd9 f63e cf34 783f 9878 a23e
00000300: fa8e aa3f 7e8c 03c0 f223 963f d4e9 c7be
00000310: 7fa2 413f 318a 093f e545 7bbf 06ed 4bc0
00000320: 900c b2bd 7dbb 0bc0 2057 00bd 49df 813e
00000330: 40b5 1e3d 9f3c 8a3e b0f3 a73f 54dd 76be
00000340: 6312 0ebf a31f 5ec0 f262 9cbf 753e 80bf
00000350: c0d6 a53e a5f0 a73f c6ca 6ebe 279c 113f
00000360: 0bdd 21c0 5e78 3ebf ca12 3bbf b7e5 0a3d
00000370: 969c debd 3b5d 2340 b68e fdbe 9ba7 f7be
00000380: 6b6e eebf 6ecb fdbf 630e e63e abb5 0fbf
00000390: 8470 8a3e 5442 bb3e bfee 3d40 e4d1 95bd
000003a0: f355 c4bf 45c2 0bc0 09d4 d6bf 9c82 863f
000003b0: ef13 c5be c16a 8e3f 2b9a f93e b03b a1be
000003c0: 3206 ad3d fbf4 9f3e 9828 40be 63a2 e83f
000003d0: c8bd ea3f ebb0 0340 4382 a3bd c316 c8be
000003e0: 1390 65bf dcb6 f93e d123 c63f 5e7d b23f
000003f0: a550 a13f c181 473f 9a96 d73f fc0b 11be

bias f4 [16]
-0.45370856 1.4666749 0.1590216 0.24639158 1.0468732 0.7086367 0.8788932 -0.5980029
-0.6716492 -0.17739451 0.10256218 -0.1816597 -0.031453274 2.449662 2.3800054 1.2249584
00000000: 7d4c e8be 01bc bb3f 8fd6 223e 134e 7c3e
00000010: f1ff 853f 3769 353f 25ff 603f b816 19bf
00000020: 34f1 2bbf e8a6 35be 1f0c d23d 0005 3abe
00000030: 26d5 00bd 43c7 1c40 0252 1840 70cb 9c3f

weight f4 [16]
1.3628246 1.7959743 1.1013837 1.6059154 1.733868 1.034063 0.51965207 0.8789966
1.2682782 0.9790436 0.94005257 1.6834825 1.7294009 2.0250106 1.4933876 1.3860161
00000000: 0971 ae3f 7ce2 e53f 24fa 8c3f a38e cd3f
00000010: 63ef dd3f 2d5c 843f eb07 053f ec05 613f
00000020: f156 a23f 9aa2 7a3f 49a7 703f 5b7c d73f
00000030: 025d dd3f c699 0140 5327 bf3f fa68 b13f

bias f4 [16]
1.1344807 -1.2632715 0.29202625 0.22623193 0.68720263 0.1175594 0.39519837 1.6768848
3.0270987 0.95887375 -0.1560093 -0.19681136 -0.32888308 0.6275762 0.56888294 0.9332173
00000000: aa36 913f e1b2 a1bf 7784 953e 58a9 673e
00000010: 83ec 2f3f fcc2 f03d 7157 ca3e 29a4 d63f
00000020: fcbb 4140 c078 753f e7c0 1fbe eb88 49be
00000030: 5d63 a8be d5a8 203f 50a2 113f 54e7 6e3f

running_mean f4 [16]
9.37306 14.111221 -3.9850633 10.322801 -11.736479 13.900368 -15.042628 -3.991285
-11.896513 -5.060872 12.830098 11.155197 3.4884498 9.109012 -3.380165 6.0590906
00000000: 0ef8 1541 90c7 6141 470b 7fc0 312a 2541
00000010: 9ec8 3bc1 e867 5e41 9bae 70c1 3771 7fc0
00000020: 1e58 3ec1 aaf2 a1c0 1548 4d41 b07b 3241
00000030: c342 5f40 83be 1141 a054 58c0 12e4 c140

running_var f4 [16]
214.53664 282.0114 49.712723 294.017 90.90461 210.20032 44.556072 68.60208
117.1429 102.169304 238.99011 129.92699 377.2561 107.753525 42.42872 413.0342
00000000: 6189 5643 7601 8d43 d4d9 4642 2d02 9343
00000010: 29cf b542 4833 5243 6b39 3242 4434 8942
00000020: 2a49 ea42 af56 cc42 78fd 6e43 4fed 0143
00000030: c8a0 bc43 ce81 d742 02b7 2942 6184 ce43

weight f4 [16, 16, 3]
-2.2529697 0.1880298 0.10774428 1.4696983 1.068615 -0.8552011 -2.0925045 -1.5742128
-1.1397743 -0.13977332 0.027393993 -0.011370465 -0.08396273 1.0065919 1.2697225 0.03202003
-0.9805177 -0.24789532 -0.4336058 -0.498281 0.5863856 0.26809415 0.5593624 -1.0961919
-0.7160443 0.5553126 2.5150113 -0.20464505 0.0996566 0.29891658 -0.021944193 -0.6615843
-0.3786346 -0.59009063 -0.4689789 -2.2700891 1.7594739 1.5932692 -0.3714455 -0.3909041
-1.604631 -2.7071428 -1.6228273 0.2528633 -0.85529214 -0.16691764 0.8206496 0.59114844
-2.3937716 0.2917952 0.9627666 -1.4739717 -0.48965544 0.63749945 -1.3448071 0.6069011
-0.63982016 -0.44006002 0.6115534 1.122825 3.2878954 0.33934963 -0.424284 0.031512883
0.64151084 0.69160014 -0.09278144 0.4204878 0.21504177 -0.37135518 -1.3733298 -1.6195395
-0.90058666 0.79468364 -1.4046625 -0.36812675 0.98683566 -2.1471815 -0.07940665 0.7439622
0.6636806 -1.0647535 1.1129665 -1.0414853 1.1631482 0.05885735 -0.080228545 -4.287705
-0.609868 -0.543027 -3.1604435 -0.24085058 -2.10692 -0.50494826 1.3180258 0.36010796
-1.6718782 -2.2003834 -1.0151541 3.271551 0.8440805 -1.4774418 -1.5697287 0.7123396
-0.764934 -1.2485934 -1.3063351 -0.72003317 0.19843212 0.30984065 1.344281 -0.018912787
-1.1687536 -0.16339022 -1.702452 1.1542826 0.097262114 0.65755165 1.029022 0.7381632
-1.9161568 0.5852734 1.0659838 -1.9700167 -1.682468 0.4218412 0.25172827 -0.5586127
0.04243275 -0.8821951 0.8847478 -2.1907427 2.210498 1.5636691 -0.9102718 0.2517075
-0.11371389 -0.62334174 0.3602989 0.04105022 -0.64790905 -1.3871218 -1.3482981 -1.1014061
-0.25315663 -0.28833872 0.675014 -1.4804298 0.62563604 1.0177727 0.38271162 -0.4528809
-2.1729267 -0.5483654 0.3422038 0.17352931 0.5097051 0.5054748 -0.6384858 -0.2541561
0.96452934 0.30413517 1.1778027 -0.7584962 -0.3905324 -0.45201376 -0.7475889 -0.022155274
1.5688757 0.7360899 -4.7041297 1.5596086 0.2341294 -1.7650545 -0.6007582 1.0604087
0.20122544 0.821806 0.40591666 -0.23683392 -1.7981453 0.24295421 1.3373339 0.20946653
0.67184824 2.669444 -1.1440843 -0.8493351 -2.3937936 0.8399902 0.65905017 0.10264224
0.5340829 0.9786475 -0.5150882 -0.60149133 -1.5732287 -0.70874506 -2.153135 0.0668437
-1.2166712 1.2812893 1.0552881 -1.9578389 0.54254293 -0.04268087 0.11639622 1.3609341
0.96021825 -1.714176 -1.2343973 1.1674824 0.022962445 -0.8037869 -1.195973 -0.8935874
-1.2970033 -0.14542 -1.2894645 -0.0918057 -0.35021374 -2.277998 1.3848023 0.47432852
-1.7449255 1.5144953 0.22036703 -2.3284924 0.0447383 -1.51883 -0.9312066 -1.5515295
-0.39821425 0.16652668 -1.021266 -2.4028332 -0.5039637 0.6894083 0.70007384 -1.3944772
-1.4945824 0.4131628 1.436746 1.6916237 0.93659747 -1.5295247 0.89462423 -0.22258255
0.11465086 -0.6917835 1.5364981 2.3438416 1.5341445 0.49890804 -0.033018183 -0.7719971
00000000: a830 10c0 e28a 403e 08a9 dc3d 131f bc3f
00000010: 60c8 883f 76ee 5abf 98eb 05c0 ce7f c9bf
00000020: 20e4 91bf bd20 0fbe 5e69 e03c 304b 3abc
00000030: a7f4 abbd 01d8 803f 4486 a23f 6f27 033d
00000040: 3503 7bbf 45d8 7dbe 9401 debe b01e ffbe
00000050: 5e1d 163f a343 893e 6032 0f3f 0450 8cbf
00000060: ae4e 37bf f728 0e3f f2f5 2040 798e 51be
00000070: c218 cc3d 980b 993e 4fc4 b3bc 975d 29bf
00000080: 65dc c1be 2e10 17bf 011e f0be 2449 11c0
00000090: 7136 e13f 3ff0 cb3f 1b2e bebe 9524 c8be
000000a0: 8c64 cdbf d441 2dc0 ceb8 cfbf 4c77 813e
000000b0: 6df4 5abf 75ec 2abe 1816 523f 8155 173f
000000c0: 8e33 19c0 2e66 953e df77 763f 1bab bcbf
000000d0: 1eb4 fabe 2a33 233f a422 acbf df5d 1b3f
000000e0: 41cb 23bf 8c4f e1be c38e 1c3f bbb8 8f3f
000000f0: e16c 5240 3cbf ad3e c13b d9be a713 013d
00000100: 0e3a 243f b50c 313f 3204 bebd 2d4a d73e
00000110: e933 5c3e 4422 bebe 45c9 afbf 124d cfbf
00000120: d98c 66bf 6370 4b3f fbcb b3bf 1c7b bcbe
00000130: 43a1 7c3f 6c6b 09c0 f49f a2bd 4f74 3e3f
00000140: f9e6 293f d849 88bf b075 8e3f 644f 85bf
00000150: 0ae2 943f 6814 713d dd4e a4bd e134 89c0
00000160: 4f20 1cbf d103 0bbf b544 4ac0 89a1 76be
00000170: c7d7 06c0 4a44 01bf 12b5 a83f 1260 b83e
00000180: 1b00 d6bf 15d3 0cc0 92f0 81bf 1761 5140
00000190: a915 583f d01c bdbf dfec c8bf e35b 363f
000001a0: b7d2 43bf e9d1 9fbf fd35 a7bf 1854 38bf
000001b0: ca31 4b3e 6fa3 9e3e 6611 ac3f fdee 9abc
000001c0: b899 95bf c44f 27be f2e9 d9bf 88bf 933f
000001d0: 5c31 c73d 4e55 283f feb6 833f 43f8 3c3f
000001e0: a044 f5bf 7ad4 153f 2872 883f 8229 fcbf
000001f0: 1d5b d7bf 92fb d73e 87e2 803e 3e01 0fbf
00000200: f7cd 2d3d 8ad7 61bf d57e 623f 2135 0cc0
00000210: cd78 0d40 4f26 c83f 9307 69bf cedf 803e
00000220: d4e2 e8bd 5393 1fbf 1979 b83e 4724 283d
00000230: 5edd 25bf 358d b1bf 0895 acbf e0fa 8cbf
00000240: bf9d 81be 22a1 93be b8cd 2c3f b97e bdbf
00000250: af29 203f 6046 823f c7f2 c33e 01e0 e7be
00000260: 3b11 0bc0 ad61 0cbf 5635 af3e abb1 313e
00000270: 097c 023f cc66 013f ce73 23bf c020 82be
00000280: 65eb 763f 9bb7 9b3e 3dc2 963f cf2c 42bf
00000290: ddf3 c7be 596e e7be fc61 3fbf fa7e b5bc
000002a0: ebd0 c83f 6370 3c3f 3b88 96c0 41a1 c73f
000002b0: 9ebf 6f3e 4eed e1bf 4acb 19bf 79bb 873f
000002c0: 0b0e 4e3e e161 523f 4fd4 cf3e 9784 72be
000002d0: a029 e6bf fdc8 783e c22d ab3f 657e 563e
000002e0: 3ffe 2b3f 2cd8 2a40 5b71 92bf 066e 59bf
000002f0: ea33 19c0 9909 573f 83b7 283f 1836 d23d
00000300: a8b9 083f a488 7a3f d2dc 03bf 56fb 19bf
00000310: 8f5f c9bf 5170 35bf f7cc 09c0 5ae5 883d
00000320: e2bb 9bbf 4a01 a43f ae13 873f 779a fabf
00000330: 18e4 0a3f 23d2 2ebd 2461 ee3d 1733 ae3f
00000340: ddd0 753f 1f6a dbbf bb00 9ebf 1070 953f
00000350: bd1b bc3c fac4 4dbf a515 99bf 25c2 64bf
00000360: 3404 a6bf fbe8 14be 2c0d a5bf a004 bcbd
00000370: 374f b3be b8ca 11c0 3441 b13f 30db f23e
00000380: b859 dfbf fbda c13f e5a7 613e 0506 15c0
00000390: 823f 373d 0569 c2bf 8e63 6ebf 8598 c6bf
000003a0: bde2 cbbe f885 2a3e d8b8 82bf 05c8 19c0
000003b0: c403 01bf 107d 303f 0a38 333f 3b7e b2bf
000003c0: 7a4e bfbf 138a d33e 4be7 b73f 2087 d83f
000003d0: dac4 6f3f 77c7 c3bf 1806 653f aeec 63be
000003e0: 12ce ea3d b918 31bf f8ab c43f 8001 1640
000003f0: d95e c43f e070 ff3e 133e 07bd 9aa1 45bf

bias f4 [16]
0.56665236 -0.35068458 -0.5169951 -0.15573166 1.0540559 1.6045488 -0.19084086 0.42450213
0.6034192 1.2782307 -2.148539 -0.8272084 0.6359835 -0.8452392 -1.8223017 -1.4435658
00000000: 2110 113f ee8c b3be ca59 04bf 1f78 1fbe
00000010: 4eeb 863f db61 cd3f c96b 43be 5858 d93e
00000020: ae79 1a3f 109d a33f aa81 09c0 eec3 53bf
00000030: d1cf 223f 9961 58bf 2f41 e9bf c4c6 b8bf

weight f4 [16]
1.3041129 2.2568777 2.0865972 1.5709879 2.2024498 2.0084386 1.7481523 0.72839785
1.6302581 1.5344412 1.9756386 2.2207227 1.7452424 2.2342632 2.017391 1.6706386
00000000: 2ced a63f af70 1040 cf8a 0540 2216 c93f
00000010: f0f4 0c40 428a 0040 74c3 df3f 4878 3a3f
00000020: 4cac d03f 9268 c43f bae1 fc3f 5220 0e40
00000030: 1a64 df3f 2bfe 0e40 ef1c 0140 7cd7 d53f

bias f4 [16]
1.6971532 -0.1509123 0.15491633 -0.38462216 0.5024422 0.8413593 0.22278588 1.4967557
0.39747146 0.9399457 0.14065407 0.44566792 -0.2525096 -0.8238039 0.35169724 -0.68384737
00000000: 513c d93f c188 1abe 63a2 1e3e 32ed c4be
00000010: 0da0 003f 5363 573f fb21 643e b195 bf3f
00000020: 6181 cb3e 48a0 703f 9f07 103e 962e e43e
00000030: f048 81be d0e4 52bf a911 b43e 9f10 2fbf

running_mean f4 [16]
-5.496961 -23.890917 -15.921307 -8.970077 -27.846945 22.278751 -51.923035 -20.870712
-17.498072 13.663349 -10.557724 22.988182 -12.241263 -8.889556 8.669396 -39.753662
00000000: 1be7 afc0 9920 bfc1 acbd 7ec1 6f85 0fc1
00000010: 8bc6 dec1 e23a b241 30b1 4fc2 38f7 a6c1
00000020: 0dfc 8bc1 149d 5a41 70ec 28c1 cce7 b741
00000030: 37dc 43c1 9f3b 0ec1 d9b5 0a41 c003 1fc2

running_var f4 [16]
164.45421 135.19984 651.31244 184.87988 169.53348 363.31604 576.4398 320.1169
600.51074 170.74367 194.03886 303.9776 334.5086 174.44092 185.44954 154.15416
00000000: 4774 2443 2933 0743 ffd3 2244 40e1 3843
00000010: 9288 2943 74a8 b543 261c 1044 f70e a043
00000020: b020 1644 61be 2a43 f309 4243 22fd 9743
00000030: 1a41 a743 e070 2e43 1573 3943 7727 1a43

weight f4 [32, 16, 3]
-0.59700805 -1.1631793 -0.1974376 0.68079793 0.27694637 -2.3332512 0.96409696 -0.8223929
0.741283 0.026010267 0.46576327 -1.660943 -2.505179 -0.9424266 -0.20868717 -1.2266062
-1.2940673 -1.6114434 0.4047055 -1.1847187 -0.25180164 -0.7950236 0.56493443 -0.7312562
-0.13404362 0.14926906 -0.33699805 0.5655597 -1.3980596 -2.8690271 -2.7381372 0.5906348
-0.9412181 -0.8377972 -2.2863047 -2.9497066 -1.8578578 -1.7005147 -1.7583822 -0.6371433
-1.7538724 0.34712574 -0.6573883 -0.58002794 0.6562301 -0.9323392 0.19300511 0.05720503
-0.4750432 0.19755523 0.38131395 -1.7074579 1.050038 0.41994286 -0.64010715 -0.53772974
0.06248051 -1.157479 -0.2258684 0.9890578 -1.3006723 -1.7684488 0.80648273 -0.46081677
0.16677614 1.4805217 0.5852773 0.36662185 1.0249971 0.8901006 1.0114913 0.9986452
0.35070947 1.7404921 0.8280482 -1.3075688 0.2506776 -0.5019336 -0.6212568 0.7027513
0.09824415 -2.1176414 -0.66088945 -0.6197437 0.29653433 0.9718855 2.695548 0.17989679
1.2695184 3.1038454 -1.0633233 -0.24722563 0.0060790917 -2.3791752 -0.4700303 1.5786086
-0.6563163 -1.041447 -1.6939197 -1.6952053 0.11411863 1.4710385 -1.0940002 -1.9864593
-1.2274802 -1.5019327 0.39862207 0.005802574 -0.4205895 -1.356063 -1.5366904 -1.8214172
-0.13410354 1.3743604 0.38170946 -0.19701299 0.25644362 1.6047113 1.0339248 0.28083292
1.0649446 1.1646066 -0.14765662 -1.0380455 -1.9737881 0.36968383 -0.7336921 1.5140052
0.21424797 -2.2028265 -1.3136768 -0.798308 -0.5350893 0.92351294 1.6648918 0.20468512
0.57480997 2.1658752 -1.0853869 -2.0675762 0.7634999 -1.3232601 -1.2101688 0.89500624
1.8261168 0.5888212 -2.2128694 -0.45818305 -0.4906182 1.1088283 1.8817737 0.1143783
-1.9493226 0.6485792 -2.0127387 0.86645925 -2.3355308 -0.034148604 1.0505301 1.2422725
1.6437336 -1.2580942 0.7746317 -1.8759636 0.67333895 -1.8577359 -1.0746863 1.1940188
-0.979413 -0.57495105 -1.7956562 -0.072098605 0.39398593 1.0032355 -1.1982511 -0.0031127601
1.023093 0.4649764 0.18570048 2.5741882 -0.482587 -0.53126955 -0.8152263 0.27774447
0.28561917 -1.7215599 0.36832812 -0.6535197 -1.8998162 -0.7555547 -0.5829625 -2.504605
-1.362292 -0.88571554 -2.21083 -1.0201128 -0.39921674 -0.12979771 -0.72170526 0.3504658
1.023094 0.057322588 -0.1989128 0.5149728 -2.493533 -2.6250079 -1.499945 -2.5073714
-0.3959059 0.84122527 0.5885954 -0.781741 -0.48973957 0.83613265 -1.1575575 -3.1584687
1.1760467 0.10498277 -1.0981344 -2.2528107 -3.4251802 0.86795086 -1.3648509 -0.19250092
0.4069057 -1.2441499 -0.0058567566 -0.6063146 -0.22462118 -0.1974363 0.3773657 -0.22188888
-0.16029543 3.054183 0.09742092 0.5708953 0.5987445 -1.1305653 -1.227834 0.7865493
-3.441732 0.78894544 0.03654792 -0.23120163 -2.3847063 0.3412273 -2.6402104 0.20793344
1.0805995 1.2381766 -1.5556911 -0.36527485 -0.33549398 0.6501346 -1.9520422 -0.59102255
00000000: 85d5 18bf 0fe3 94bf 152d 4abe c648 2e3f
00000010: eacb 8d3e fd53 15c0 0fcf 763f 5788 52bf
00000020: b9c4 3d3f 7c13 d53c 8678 ee3e c899 d4bf
00000030: da54 20c0 df42 71bf 17b2 55be 6f01 9dbf
00000040: ffa3 a5bf c743 cebf 8f35 cf3e dda4 97bf
00000050: 25ec 80be ab86 4bbf 8b9f 103f 9b33 3bbf
00000060: bb42 09be fdd9 183e 028b acbe 85c8 103f
00000070: 9ef3 b2bf 249e 37c0 a43d 2fc0 d833 173f
00000080: abf3 70bf e179 56bf d152 12c0 fec7 3cc0
00000090: 49ce edbf 77aa d9bf ab12 e1bf d31b 23bf
000000a0: e47e e0bf 77ba b13e 9a4a 28bf b67c 14bf
000000b0: b2fe 273f c8ad 6ebf 22a3 453e d24f 6a3d
000000c0: dd38 f3be eb4b 4a3e 953b c33e fb8d dabf
000000d0: a567 863f c002 d73e 10de 23bf a8a8 09bf
000000e0: 90eb 7f3d 4628 94bf 0c4a 67be e432 7d3f
000000f0: 6e7c a6bf 885c e2bf a775 4e3f 2df0 ebbe
00000100: 5dc7 2a3e bc81 bd3f bcd4 153f dcb5 bb3e
00000110: 1b33 833f a2dd 633f 8c78 813f 36a7 7f3f
00000120: 3190 b33e 72c8 de3f f8fa 533f 6a5e a7bf
00000130: d058 803e b87e 00bf b00a 1fbf 82e7 333f
00000140: 3b34 c93d 7087 07c0 0d30 29bf 86a7 1ebf
00000150: 59d3 973e 7dcd 783f dc83 2c40 dd36 383e
00000160: 947f a23f 67a5 4640 fa1a 88bf b728 7dbe
00000170: 1e33 c73b 6844 18c0 d0a7 f0be d90f ca3f
00000180: 5804 28bf 234e 85bf 5cd2 d8bf 7dfc d8bf
00000190: 07b7 e93d fd4a bc3f 3308 8cbf 4c44 febf
000001a0: 121e 9dbf 553f c0bf 3118 cc3e 8523 be3b
000001b0: 8257 d7be 7993 adbf 45b2 c4bf 3324 e9bf
000001c0: 7052 09be 0beb af3f 6c6f c33e c6bd 49be
000001d0: 944c 833e 2e67 cd3f a657 843f 55c9 8f3e
000001e0: 1b50 883f d411 953f 4c33 17be adde 84bf
000001f0: 17a5 fcbf 3347 bd3e 3fd3 3bbf ecca c13f
00000200: d263 5b3e 1cfb 0cc0 9026 a8bf ea5d 4cbf
00000210: 9dfb 08bf 586b 6c3f 2d1b d53f fa98 513e
00000220: bf26 133f b39d 0a40 f5ed 8abf 2b53 04c0
00000230: bb74 433f 9660 a9bf d0e6 9abf 211f 653f
00000240: 32be e93f fcbc 163f a79f 0dc0 f896 eabe
00000250: 4f32 fbbe 16ee 8d3f f6dd f03f 2c3f ea3d
00000260: 6783 f9bf 4909 263f b6d0 00c0 46d0 5d3f
00000270: 5679 15c0 68df 0bbd c577 863f c902 9f3f
00000280: dd65 d23f 3b09 a1bf 434e 463f 931f f0bf
00000290: f15f 2c3f 4aca edbf 528f 89bf 9cd5 983f
000002a0: cfba 7abf fe2f 13bf 10d8 e5bf 6fa8 93bd
000002b0: 86b8 c93e 056a 803f 4b60 99bf 73ff 4bbb
000002c0: b6f4 823f 6311 ee3e 4428 3e3e 80bf 2440
000002d0: a515 f7be 4801 08bf acb2 50bf 8634 8e3e
000002e0: ad3c 923e 135c dcbf 8195 bc3e 114d 27bf
000002f0: 2d2d f3bf 086c 41bf 083d 15bf 734b 20c0
00000300: 965f aebf 41be 62bf 3d7e 0dc0 0e93 82bf
00000310: 2366 ccbe b1e9 04be adc1 38bf 4170 b33e
00000320: bff4 823f 17cb 6a3d ccaf 4bbe 42d5 033f
00000330: 0b96 1fc0 2100 28c0 33fe bfbf c678 20c0
00000340: 2eb4 cabe 8a5a 573f 30ae 163f 2e20 48bf
00000350: 25bf fabe ca0c 563f d82a 94bf 5a24 4ac0
00000360: b388 963f 3501 d73d ab8f 8cbf 0d2e 10c0
00000370: 2736 5bc0 0732 5e3f 6fb3 aebf f61e 45be
00000380: f255 d03e 4e40 9fbf 09ea bfbb 6f37 1bbf
00000390: 1803 66be be2c 4abe 1436 c13e d736 63be
000003a0: 7c24 24be bc77 4340 9f84 c73d 3226 123f
000003b0: 5247 193f 5db6 90bf aa29 9dbf 4c5b 493f
000003c0: 5645 5cc0 54f8 493f 46b3 153d 1fc0 6cbe
000003d0: 079f 18c0 58b5 ae3e 35f9 28c0 81ec 543e
000003e0: 1651 8a3f 927c 9e3f e320 c7bf 4e05 bbbe
000003f0: dec5 abbe 396f 263f 85dc f9bf 414d 17bf

bias f4 [32]
0.31592795 0.006686208 0.6564962 0.2807565 0.897652 0.43054253 0.42314142 -0.23083861
-0.15102299 0.74567014 0.23546761 0.34350222 -0.47558814 0.7622557 0.15104233 -0.3986634
0.66475326 0.67561734 1.6162825 -0.18058315 0.95001227 0.089769036 0.75069225 -0.5933836
-1.2556527 1.2705152 0.37190324 -0.8996417 1.1213689 -0.25612316 2.328275 1.091213
00000000: 4fc1 a13e fa17 db3b 2310 283f 51bf 8f3e
00000010: 85cc 653f 1270 dc3e fea5 d83e f560 6cbe
00000020: c5a5 1abe 3de4 3e3f 6c1e 713e 86df af3e
00000030: 4a80 f3be 3123 433f d7aa 1a3e 9c1d ccbe
00000040: 452d 2a3f 42f5 2c3f 58e2 ce3f caea 38be
00000050: 0134 733f d4d8 b73d 5e2d 403f fde7 17bf
00000060: 3ab9 a0bf 3ea0 a23f 1a6a be3e eb4e 66bf
00000070: 0489 8f3f 9322 83be 7502 1540 deac 8b3f

weight f4 [32]
1.9014518 1.4577627 1.8468829 2.0277305 1.9515812 1.8016772 1.5382924 1.4698923
1.0700396 1.3378242 1.8531234 1.9200461 2.0330787 0.7079928 2.16684 1.3059376
2.1680605 2.071115 1.1914542 0.8310775 1.9355983 0.09787598 1.5205913 1.8798352
2.0416656 1.2689773 1.4914366 1.6277049 1.3228278 1.7809242 1.9062017 1.5185696
00000000: c662 f33f f897 ba3f a966 ec3f 56c6 0140
00000010: 6acd f93f 5c9d e63f c4e6 c43f 6e25 bc3f
00000020: 0ff7 883f d33d ab3f 2633 ed3f 12c4 f53f
00000030: f61d 0240 043f 353f 82ad 0a40 f728 a73f
00000040: 81c1 0a40 268d 0440 9281 983f 7fc1 543f
00000050: afc1 f73f 3473 c83d bca2 c23f 719e f03f
00000060: a6aa 0240 d96d a23f 65e7 be3f a258 d03f
00000070: 6c52 a93f 53f5 e33f 6bfe f33f 7d60 c23f

bias f4 [32]
-0.2671703 -1.0291551 0.3627053 0.62246805 -0.19501558 0.22060677 -1.1515393 -1.7198853
-1.8450165 -0.7009867 -1.1132543 0.7181656 0.07068617 1.2056834 -0.24878375 -0.6541199
1.0941179 -0.5122895 1.5949043 -0.085035935 0.5258209 -1.1064947 -0.21529926 -0.07925693
0.067308985 -2.0461733 1.729425 -0.35973066 -0.40385404 -0.7522607 -0.5769785 0.7716717
00000000: 8cca 88be 5bbb 83bf 82b4 b93e 115a 1f3f
00000010: 2ab2 47be bee6 613e a465 93bf 3425 dcbf
00000020: 8029 ecbf dd73 33bf 1e7f 8ebf b3d9 373f
00000030: e9c3 903d d553 9a3f 2bc1 7ebe 6774 27bf
00000040: 0e0c 8c3f 6825 03bf d325 cc3f 5227 aebd
00000050: 339c 063f 9ea1 8dbf 6977 5cbe 7551 a2bd
00000060: 4bd9 893d 81f4 02c0 cc5d dd3f 9e2e b8be
00000070: f5c5 cebe 2894 40bf ddb4 13bf 478c 453f

running_mean f4 [32]
-32.66315 4.236108 -13.938767 -4.6341195 -29.085741 -21.979965 19.452187 12.832331
21.42413 -15.507005 -1.0264156 5.701246 -7.8762774 -7.9710975 -13.095345 19.57061
-7.816031 -10.143133 -9.851124 10.759073 -20.934237 -1.9930484 20.000992 -19.181108
1.5253147 20.796118 -16.480772 2.2591176 11.670062 -10.739248 -9.903626 1.6203039
00000000: 11a7 02c2 328e 8740 3105 5fc1 b54a 94c0
00000010: 99af e8c1 f8d6 afc1 149e 9b41 3a51 4d41
00000020: 9e64 ab41 b11c 78c1 9661 83bf 9b70 b640
00000030: 770a fcc0 3b13 ffc0 8886 51c1 9c90 9c41
00000040: ed1c fac0 464a 22c1 349e 1dc1 2a25 2c41
00000050: 5179 a7c1 361c ffbf 0802 a041 e972 99c1
00000060: 833d c33f 735e a641 9fd8 83c1 6295 1040
00000070: 93b8 3a41 f6d3 2bc1 4175 1ec1 1e66 cf3f

running_var f4 [32]
485.4128 196.44963 280.35098 282.25885 283.82913 292.39157 252.5807 249.66798
182.08015 303.30325 213.87225 351.6327 409.40253 265.87238 194.81102 203.11905
331.3039 170.16817 645.5705 189.12952 195.47295 176.3839 251.68448 535.6629
285.80252 198.17464 467.7524 285.17145 278.9262 339.34534 195.62703 384.52722
00000000: d7b4 f243 1b73 4443 ed2c 8c43 2221 8d43
00000010: 21ea 8d43 1f32 9243 a994 7c43 01ab 7943
00000020: 8514 3643 d1a6 9743 4cdf 5543 fcd0 af43
00000030: 86b3 cc43 aaef 8443 9fcf 4243 7a1e 4b43
00000040: e6a6 a543 0d2b 2a43 8364 2144 2821 3d43
00000050: 1379 4343 4762 3043 3aaf 7b43 6dea 0544
00000060: b9e6 8e43 b52c 4643 4fe0 e943 f295 8e43
00000070: 8e76 8b43 34ac a943 85a0 4343 7c43 c043

weight f4 [32, 32, 3]
0.17190316 -0.43891138 0.29210797 0.47498044 -1.4831307 -1.945302 2.2403097 -0.16809222
-1.5502136 1.5021771 -0.07276353 -0.7938651 -2.1629403 0.51897955 -1.273127 -0.0025901576
0.93246585 -0.43172812 1.8073065 1.1888018 1.0345854 0.94898003 -0.97601396 -3.5170677
-1.3019192 -0.58873004 0.022280563 2.3430402 0.49644455 -2.1530552 -0.097081244 -0.6455871
-0.2877796 2.5052 1.8844035 -0.87407464 1.2380301 0.10576596 -0.97186196 1.2406307
-0.3226382 -0.09660431 1.3339869 1.2431997 -1.1060946 -0.14036593 0.13018122 0.14458223
0.44786897 -1.6589669 -3.8939946 -1.2773489 0.32314813 1.7816745 -0.71146625 0.25688946
-0.002968015 0.92544574 -0.38440773 -0.23112962 1.4943255 0.5604471 -0.2619509 0.3732511
-0.5777926 -0.91578627 -0.010087734 -1.3662044 -1.7602232 0.49003336 0.34793746 0.4391159
-0.5792911 -0.36241314 0.15270257 0.8941823 0.57457405 -0.09198606 0.23667249 -1.0883611
-1.4869255 1.0274693 -0.36751717 -1.0243723 0.78038585 0.3282366 0.067823604 0.46194008
0.8055084 1.8377745 0.25162247 0.9023807 -1.768088 -0.6001659 -0.26892576 0.5147819
1.7986847 1.0109605 1.4630513 1.0382682 -1.3580428 2.9582188 -1.0729766 -0.7076343
0.075000934 0.5163338 8.8360684e-05 -0.9906595 -0.06688684 0.48887214 3.080835 0.27739948
-0.42851773 0.08377917 0.48909 0.54316854 -1.1225531 -1.2090833 -1.3519473 0.10983808
1.3070797 0.78418714 -1.0504684 -0.47158667 0.1945115 0.9962215 -0.5483717 -1.8340429
-3.1149948 -0.4598565 1.0737891 -0.20260201 -1.4582787 -0.20470244 2.9033394 -0.7120835
-0.90195894 -2.6277485 1.0856256 -0.1814483 1.2529082 -0.2680218 1.1108345 -2.231632
-0.31689322 -0.7656902 -1.0907931 0.27551433 1.2147356 3.514428 0.18745033 -1.4547575
0.2545777 -0.97738147 -1.3647221 0.13032532 2.0387414 1.3514762 -1.5119597 0.11130364
-0.32692552 -0.6584024 0.7686789 -0.17579462 -3.009069 -2.7359831 0.076695256 2.3325408
0.8227609 -1.1165459 -4.336872 1.8422011 0.5973964 -0.5080514 -1.2362366 -0.7506956
0.7315475 0.6696399 -2.664393 -1.0355382 -1.0627828 -0.1037168 -0.5877898 1.0763179
-0.17456104 -4.1238017 -1.4500968 -0.8827132 0.5107532 0.14195134 -0.6885723 0.07442607
0.79730266 0.0011987988 -1.0916463 -0.31355467 -1.057848 0.8930517 1.49389 -0.53257537
-0.36018515 -1.7675278 0.25346607 -1.5976195 0.3119625 -0.69030994 -2.1807108 -1.4713609
-0.8916881 1.0425729 -0.73999554 0.07821401 -0.816075 -0.05589488 1.355305 0.2613752
-0.9859823 -0.20737807 0.9162256 -0.9058952 0.22499397 1.4781238 -0.40925267 0.38107428
0.54596114 -0.40952665 0.57880056 0.83638144 -0.96956795 0.6424867 3.4886823 2.5043955
-0.84491915 0.5135064 -0.80655813 -2.4590647 -1.0647867 -0.10582406 0.09973734 0.35620221
0.7171724 -0.72091573 0.06518963 1.6531584 -0.47771984 -2.4997303 1.0073072 -2.2761204
1.5457582 -1.2584544 -0.8065135 3.0394478 0.20150702 0.3395204 -0.63834846 -0.86231035
00000000: 6207 303e feb8 e0be 2d8f 953e a330 f33e
00000010: 3ad7 bdbf a8ff f8bf 3c61 0f40 5e20 2cbe
00000020: 666d c6bf 5747 c03f 0c05 95bd be3a 4bbf
00000030: 9d6d 0ac0 d8db 043f d3f5 a2bf a2bf 29bb
00000040: 15b6 6e3f 780b ddbe d255 e73f a82a 983f
00000050: 4b6d 843f 5bf0 723f 0ddc 79bf a317 61c0
00000060: 4aa5 a6bf 03b7 16bf ba85 b63c 5ff4 1540
00000070: fb2d fe3e a8cb 09c0 88d2 c6bd 3245 25bf
00000080: d957 93be 3255 2040 2234 f13f 5bc3 5fbf
00000090: c577 9e3f d39b d83d f2cb 78bf fdcc 9e3f
000000a0: d630 a5be 7bd8 c5bd 15c0 aa3f 2b21 9f3f
000000b0: 8294 8dbf 16bc 0fbe 3a4e 053e 5d0d 143e
000000c0: 154f e53e 0759 d4bf 3537 79c0 2b80 a3bf
000000d0: ac73 a53e e90d e43f a722 36bf 0487 833e
000000e0: 0783 42bb 03ea 6c3f 17d1 c4be 3ead 6cbe
000000f0: 0f46 bf3f 7679 0f3f 6e1e 86be c51a bf3e
00000100: 37ea 13bf f870 6abf 0647 25bc c9df aebf
00000110: fe4e e1bf a7e5 fa3e dc24 b23e cdd3 e03e
00000120: 6c4c 14bf 378e b9be 105e 1c3e 22e9 643f
00000130: 4917 133f 3063 bcbd 465a 723e 6b4f 8bbf
00000140: 9353 bebf 1d84 833f 362b bcbe a21e 83bf
00000150: 5ec7 473f a10e a83e 1ae7 8a3d 6983 ec3e
00000160: cc35 4e3f 323c eb3f a9d4 803e 6c02 673f
00000170: b550 e2bf 79a4 19bf a3b0 89be bfc8 033f
00000180: 4d3b e63f 2767 813f 4445 bb3f f9e5 843f
00000190: 59d4 adbf 7553 3d40 4c57 89bf 8627 35bf
000001a0: 179a 993d 742e 043f 484e b938 dc9b 7dbf
000001b0: f8fb 88bd 734d fa3e 672c 4540 4e07 8e3e
000001c0: ad66 dbbe 6a94 ab3d 016a fa3e 180d 0b3f
000001d0: d2af 8fbf 3ec3 9abf 9c0c adbf caf2 e03d
000001e0: 634e a73f 7dc0 483f c075 86bf cf73 f1be
000001f0: 062e 473e 5f08 7f3f 1662 0cbf ebc1 eabf
00000200: 135c 47c0 5072 ebbe ec71 893f e776 4fbe
00000210: e0a8 babf 849d 51be 50d0 3940 1b4b 36bf
00000220: c8e6 66bf 082d 28c0 c8f5 8a3f 95cd 39be
00000230: 4c5f a03f 273a 89be d32f 8e3f 0fd3 0ec0
00000240: d43f a2be 4604 44bf 1c9f 8bbf 3710 8d3e
00000250: 757c 9b3f 63ec 6040 fbf2 3f3e 7e35 babf
00000260: 0258 823e ac35 7abf 37af aebf 0074 053e
00000270: bd7a 0240 2cfd ac3f e587 c1bf 2af3 e33d
00000280: c862 a7be 0f8d 28bf 24c8 443f 8103 34be
00000290: 9694 40c0 591a 2fc0 6712 9d3d 5948 1540
000002a0: 75a0 523f faea 8ebf a8c7 8ac0 3fcd eb3f
000002b0: f8ee 183f a80f 02bf 003d 9ebf 962d 40bf
000002c0: b246 3b3f 856d 2b3f 6a85 2ac0 848c 84bf
000002d0: 4409 88bf 7969 d4bd 6479 16bf c9c4 893f
000002e0: 21c0 32be 2ff6 83c0 c69c b9bf 7ef9 61bf
000002f0: b9c0 023f b15b 113e 4646 30bf b26c 983d
00000300: 071c 4c3f 0321 9d3a 11bb 8bbf 3d8a a0be
00000310: 9067 87bf 099f 643f ca37 bf3f dc56 08bf
00000320: 306a b8be 5a3e e2bf 4ec6 813e cc7e ccbf
00000330: 8cb9 9f3e 27b8 30bf c490 0bc0 8e55 bcbf
00000340: ac45 64bf 0773 853f 5970 3dbf ab2e a03d
00000350: 4bea 50bf 08f2 64bd a27a ad3f f8d2 853e
00000360: 5669 7cbf eb5a 54be c38d 6a3f bfe8 67bf
00000370: d264 663e 2933 bd3f 9189 d1be 2b1c c33e
00000380: 1cc4 0b3f 7aad d1be 462c 143f 181d 563f
00000390: 9b35 78bf 027a 243f 9246 5f40 0448 2040
000003a0: 9f4c 58bf 2875 033f 987a 4ebf 5161 1dc0
000003b0: ee4a 88bf 49ba d8bd 1743 cc3d 2360 b63e
000003c0: 9c98 373f ef8d 38bf 2482 853d b29a d33f
000003d0: b297 f4be 95fb 1fc0 71ef 803f f5ab 11c0
000003e0: 68db c53f 0915 a1bf ab77 4ebf 5086 4240
000003f0: db57 4e3e 9ed5 ad3e ce6a 23bf 5fc0 5cbf

bias f4 [32]
-0.32805616 -0.80204237 0.34770358 -2.1291788 0.79908526 -0.23147152 -0.36033314 0.69756883
-0.5590685 -0.28987658 -1.4688969 -0.8500052 0.9414921 0.78701425 1.1807706 0.69857156
0.15590942 -0.21370456 0.25176194 -0.41741404 -1.4041396 -0.042508084 1.696458 -0.2043245
-0.2943805 0.05272704 0.36909318 -0.4414676 0.32430282 0.08640839 0.2780524 1.4198227
00000000: faf6 a7be a652 4dbf 3406 b23e 7744 08c0
00000010: da90 4c3f df06 6dbe 967d b8be df93 323f
00000020: 1d1f 0fbf b46a 94be d004 bcbf f199 59bf
00000030: a005 713f c479 493f 7e23 973f 96d5 323f
00000040: b8a6 1f3e 5ed5 5abe f1e6 803e 4bb7 d5be
00000050: d9ba b3bf f51c 2ebd 8925 d93f 713a 51be
00000060: 0ab9 96be 4ff8 573d c8f9 bc3e 0b08 e2be
00000070: 050b a63e e2f6 b03d e25c 8e3e c0bc b53f

weight f4 [32]
1.3461353 2.107761 1.1154486 2.0274777 1.7094618 1.590436 2.3216462 2.0299263
2.148076 1.0916243 2.0800352 1.4660584 1.0672141 2.327417 2.0798674 2.075124
2.0659976 1.796077 1.4721013 2.5736911 1.2490845 1.2134345 2.2389183 2.1472204
1.7208163 2.0956318 1.9267215 1.7926455 1.1145253 1.9640797 1.38248 1.8885858
00000000: 294e ac3f 8ee5 0640 05c7 8e3f 32c2 0140
00000010: a5cf da3f 6893 cb3f da95 1440 50ea 0140
00000020: 147a 0940 58ba 8b3f 4c1f 0540 cda7 bb3f
00000030: 799a 883f 66f4 1440 8c1c 0540 d5ce 0440
00000040: 4e39 0440 dae5 e53f d16d bc3f 5bb7 2440
00000050: 00e2 9f3f d251 9b3f 704a 0f40 0f6c 0940
00000060: b543 dc3f d51e 0640 cf9e f63f 6875 e53f
00000070: c4a8 8e3f f766 fb3f 1bf5 b03f 2ebd f13f

bias f4 [32]
-0.5972137 -0.5073947 -2.310087 0.8678543 -1.3133079 0.5104548 1.0126816 -1.1094546
-0.93977034 -1.8699574 -0.25102165 -0.87189215 -1.6967824 0.36670035 -0.41703016 -0.030413417
-0.4295883 -0.85023564 -1.321838 0.19553198 -1.6981854 0.0761949 0.28876814 -0.9017027
0.89615065 -0.06925297 -0.76461214 -0.4146985 -2.0940268 -0.47249463 -1.5703993 -0.3722988
00000000: ffe2 18bf 9ee4 01bf 77d8 13c0 b32b 5e3f
00000010: 791a a8bf 2aad 023f 8d9f 813f 9c02 8ebf
00000020: ca94 70bf c45a efbf e985 80be 5334 5fbf
00000030: 2a30 d9bf 26c0 bb3e fa84 d5be 8f25 f9bc
00000040: fff2 dbbe 0ba9 59bf fd31 a9bf 8939 483e
00000050: 245e d9bf 120c 9c3d 6bd9 933e fdd5 66bf
00000060: 216a 653f 80d4 8dbd 9fbd 43bf 5d53 d4be
00000070: 8904 06c0 d1ea f1be d802 c9bf f39d bebe

running_mean f4 [32]
-6.737511 -17.246601 11.143454 8.979388 -31.167404 5.9518394 -28.144394 -15.586587
-62.38007 22.914562 -19.17324 0.42952353 1.101966 -37.015137 -14.589797 -2.9073946
-30.647585 -4.856899 -25.901293 -41.408787 27.84354 -15.599393 -30.376228 -35.664696
5.723652 -7.7383695 -46.33685 3.0507133 19.75984 1.6531974 29.808985 -22.20439
00000000: b199 d7c0 0af9 89c1 964b 3241 93ab 0f41
00000010: d856 f9c1 7875 be40 b827 e1c1 a962 79c1
00000020: 3185 79c2 0651 b741 cc62 99c1 82ea db3e
00000030: 390d 8d3f 800f 14c2 cf6f 69c1 c112 3ac0
00000040: 412e f5c1 b76b 9bc0 d935 cfc1 99a2 25c2
00000050: 92bf de41 1d97 79c1 8402 f3c1 a6a8 0ec2
00000060: 2828 b740 b9a0 f7c0 ef58 39c2 e33e 4340
00000070: 2714 9e41 f99b d33f cd78 ee41 97a2 b1c1

running_var f4 [32]
698.3106 437.91663 387.50644 507.9789 319.60986 584.1207 883.76306 678.86334
445.23254 310.75864 561.79474 617.9484 348.63516 900.8285 1187.3772 678.52057
747.5144 354.28757 249.50203 437.11584 365.7886 794.7702 508.32776 450.28363
480.81912 589.12024 393.23676 513.61847 237.51807 466.52847 240.05252 591.7252
00000000: e193 2e44 54f5 da43 d3c0 c143 4dfd fd43
00000010: 10ce 9f43 ba07 1244 d6f0 5c44 41b7 2944
00000020: c49d de43 1b61 9b43 dd72 0c44 b37c 1a44
00000030: 4d51 ae43 0635 6144 126c 9444 51a1 2944
00000040: ece0 3a44 cf24 b143 8580 7943 d48e da43
00000050: f1e4 b643 4bb1 4644 f429 fe43 4e24 e143
00000060: d968 f043 b247 1344 4e9e c443 9567 0044
00000070: a084 6d43 a543 e943 720d 7043 6aee 1344

weight f4 [64, 32, 3]
-2.0263946 -1.6080968 -0.8366315 0.22258541 1.3309574 2.074686 0.6635596 1.2144716
0.73775524 1.1511557 1.9065433 0.35365337 -0.35859206 -0.44527093 1.7823285 0.8388889
-0.7962191 -4.0501842 -0.41776463 -0.500757 -1.3773197 1.5733442 0.26533088 -0.10088295
0.644927 -0.48460203 1.315652 -0.713786 0.41889867 0.6361072 -0.38931474 -0.14569661
0.6352201 -0.2451822 0.5277621 -0.47394758 -0.99722564 -0.7986976 0.19494745 -0.684091
-1.8175802 0.39113915 -1.3930402 -1.3241224 0.8065866 1.1598758 1.8236115 -0.29783878
-1.4618238 -2.169158 0.30778265 -1.4658235 -0.45412308 0.90414935 0.74681956 -0.8040357
0.006643147 -1.4013246 -0.28175384 -0.07167781 -0.2479704 0.611543 1.3927313 -2.804985
-0.0537531 2.8267126 -0.64411116 -0.77268785 -0.20627648 -1.4511974 -1.2124406 -1.4369187
1.3994945 -1.3915464 -0.43867326 -4.788136 -1.4370823 -3.5241575 -0.48977646 -0.14849333
-0.5733444 -1.3440592 -2.4758983 -3.688932 -1.5173947 -0.5533266 -1.4124016 1.2940305
0.52725077 -0.34553894 0.48442495 1.0782328 1.6654736 -0.5755252 0.7883823 -0.82130766
-2.8632476 1.0448363 -0.22384949 0.90670943 -1.0581946 0.7130109 1.1789052 0.21250547
-0.14533725 0.43747795 -0.082919165 -1.1083944 0.68013096 1.3871199 1.1487998 0.8807846
-0.026955677 0.14093982 -2.2973568 -2.0447586 -0.9799736 -3.6059933 -1.9311538 -2.042558
0.2255772 0.6438105 -1.0989554 1.4809163 0.52351475 0.82431936 1.2335547 -0.10027387
-0.23249356 -1.1926091 -3.2153296 0.04540652 1.3375598 0.3820191 0.011288235 -3.5827293
0.7717008 -2.2780921 1.9669036 -0.25982428 0.01752887 -1.4259772 -0.45356384 -2.4763434
-3.8408802 -2.5560586 -1.508034 -0.9924115 -0.6147175 0.44191977 -0.5780537 0.67373437
0.07753824 -1.4538851 2.2053807 -0.7014113 -0.12714614 0.87246567 0.69872916 -1.1917626
1.0292099 -1.2343313 -0.7791198 -0.7788506 -0.10325585 -1.3965855 -2.129663 -2.3029249
-1.5674574 0.13377103 -2.3220704 -1.850768 -0.32541603 0.8745151 -0.77947056 -0.19394925
0.77850753 -1.4347253 -0.4651693 0.3725126 2.2800431 0.35675514 0.60503036 0.7961416
-1.6162958 -0.79877466 2.3916824 -0.16584831 -1.778324 0.4542602 -1.1583383 -1.5079323
-0.5376615 -0.17480646 0.41152433 -1.3451451 0.15686709 -1.2371525 1.8426942 0.53630954
-1.6110194 2.3456147 -0.34250057 0.46554258 -1.6519227 0.25614357 0.05568116 0.84110516
0.60614467 -0.8666267 0.7743654 0.23554316 0.1721557 -0.62560445 0.09096926 1.2035803
-0.44898745 0.2584326 -0.8435843 0.007643808 -0.67320067 0.7219518 1.3943434 -0.352847
-0.11564882 2.743892 0.120834276 2.0247545 -0.3862255 0.9670706 0.71164244 0.0123421475
1.7324041 -0.8993343 0.6732544 -1.0102987 0.30952716 -1.5297416 0.46535057 -0.8446564
0.2360193 1.1357598 -0.47965983 1.2399392 2.4918866 -0.7658021 1.0836288 0.84290105
-0.49940652 -1.7080399 2.1057258 0.15362082 2.2936509 2.2722192 2.63164 -1.0084361
00000000: 73b0 01c0 1ed6 cdbf 7b2d 56bf 6eed 633e
00000010: d05c aa3f a8c7 0440 0bdf 293f ce73 9b3f
00000020: 87dd 3c3f 1259 933f 9c09 f43f 0e12 b53e
00000030: 6199 b7be 8dfa e3be 5723 e43f 6cc1 563f
00000040: 04d5 4bbf 1c9b 81c0 3fe5 d5be 9c31 00bf
00000050: 034c b0bf 5863 c93f 73d9 873e b89b cebd
00000060: f019 253f c21d f8be 4967 a83f aeba 36bf
00000070: e379 d63e ecd7 223f 4354 c7be 7e31 15be
00000080: c99d 223f 0b11 7bbe 6b1b 073f 42a9 f2be
00000090: 2e4a 7fbf 7277 4cbf 4ea0 473e 9620 2fbf
000000a0: 78a6 e8bf 6443 c83e 244f b2bf d87c a9bf
000000b0: 767c 4e3f cf76 943f 1a6c e93f 537e 98be
000000c0: 0b1d bbbf 7cd3 0ac0 b095 9d3e 1ba0 bbbf
000000d0: d282 e8be 5576 673f 912f 3f3f 49d5 4dbf
000000e0: c2ae d93b 9b5e b3bf 0a42 90be d1cb 92bd
000000f0: f4eb 7dbe 158e 1c3f 0545 b23f e084 33c0
00000100: 362c 5cbd dce8 3440 78e4 24bf dfce 45bf
00000110: 243a 53be d6c0 b9bf 4131 9bbf f4ec b7bf
00000120: a322 b33f 311e b2bf c899 e0be 6938 99c0
00000130: 50f2 b7bf cc8b 61c0 fbc3 fabe a30e 18be
00000140: b3c6 12bf 220a acbf 1e75 1ec0 7617 6cc0
00000150: fd39 c2bf d0a6 0dbf 93c9 b4bf cba2 a53f
00000160: e8f9 063f 7bea b0be 8c06 f83e 8803 8a3f
00000170: 3d2e d53f 9f55 13bf 6cd3 493f 3841 52bf
00000180: 733f 37c0 32bd 853f cd38 65be 1c1e 683f
00000190: ec72 87bf e287 363f 5ee6 963f 099b 593e
000001a0: 4ad3 14be 1cfd df3e 86d1 a9bd dedf 8dbf
000001b0: 101d 2e3f 258d b13f df0b 933f 197b 613f
000001c0: 27d2 dcbc 8752 103e e507 13c0 53dd 02c0
000001d0: 8ddf 7abf 98c8 66c0 0c30 f7bf 45b9 02c0
000001e0: b6fd 663e c4d0 243f 92aa 8cbf aa8e bd3f
000001f0: 1005 063f 9806 533f 1fe5 9d3f 635c cdbd
00000200: cb12 6ebe 6aa7 98bf f6c7 4dc0 30fc 393d
00000210: 2935 ab3f 0298 c33e 4af2 383c 704b 65c0
00000220: 2f8e 453f 43cc 11c0 7fc3 fb3f b007 85be
00000230: b498 8f3c 6c86 b6bf 8539 e8be 697c 1ec0
00000240: fbd0 75c0 7796 23c0 4207 c1bf ae0e 7ebf
00000250: 205e 1dbf 4f43 e23e 54fb 13bf db79 2c3f
00000260: 5ecc 9e3d e818 babf f524 0d40 b18f 33bf
00000270: 9932 02be e959 5f3f eadf 323f ad8b 98bf
00000280: 26bd 833f 91fe 9dbf 6574 47bf c162 47bf
00000290: ce77 d3bd 50c3 b2bf 664c 08c0 1f63 13c0
000002a0: 72a2 c8bf 46fb 083e cd9c 14c0 f7e5 ecbf
000002b0: ee9c a6be 39e0 5f3f 628b 47bf a29a 46be
000002c0: 454c 473f 14a5 b7bf ac2a eebe f9b9 be3e
000002d0: 3aec 1140 9ca8 b63e 45e3 1a3f f0cf 4b3f
000002e0: c8e2 cebf 7f7c 4cbf 5311 1940 24d4 29be
000002f0: 1fa0 e3bf cb94 e83e 6e44 94bf ed03 c1bf
00000300: 2fa4 09bf 7700 33be 51b3 d23e b72d acbf
00000310: c4a1 203e 035b 9ebf 67dd eb3f 954b 093f
00000320: e235 cebf 8d1e 1640 3c5c afbe 995b ee3e
00000330: 3472 d3bf 4025 833e ee11 643d ab52 573f
00000340: 4c2c 1b3f 3fdb 5dbf d03c 463f 3a32 713e
00000350: 9549 303e 9d27 20bf 174e ba3d eb0e 9a3f
00000360: afe1 e5be 4751 843e 24f5 57bf e978 fa3b
00000370: e156 2cbf d5d1 383f d879 b23f 5da8 b4be
00000380: 4ad9 ecbd ed9b 2f40 f677 f73d 9495 0140
00000390: 59bf c5be f091 773f 332e 363f b836 4a3c
000003a0: 6bbf dd3f c63a 66bf 665a 2c3f 7851 81bf
000003b0: 587a 9e3e 93ce c3bf 6e42 ee3e 673b 58bf
000003c0: 0baf 713e 9460 913f f995 f5be 54b6 9e3f
000003d0: 127b 1f40 9b0b 44bf 59b4 8a3f 5dc8 573f
000003e0: 36b2 ffbe 0da1 dabf 36c4 0640 c74e 1d3e
000003f0: 2dcb 1240 0a6c 1140 ca6c 2840 6f14 81bf

bias f4 [64]
-1.7272185 -1.0658083 -1.3460336 -0.71740055 0.21538985 -0.57618004 0.83494097 -0.5317673
-0.1405677 -1.1420797 0.48578563 -0.60164404 1.3000265 0.23155583 0.6180777 0.05039921
-0.32960853 1.7858981 0.59713346 -0.76349926 -0.27374953 1.1356666 -0.6804608 0.3167569
0.898575 -0.13204809 -0.7227042 0.48659015 -0.1289697 0.6724237 -0.58974415 0.82375187
0.18355046 -0.59331447 0.5279742 -0.23317942 0.2634148 -0.45710245 -0.26048362 -1.7840683
-0.2905326 0.43939644 0.16108252 0.37821555 0.19051802 -1.3545204 0.34811398 -0.8856251
-0.30954438 -0.30165976 -0.18588652 0.7572985 1.3117524 -0.36006945 0.8175433 -0.3039393
0.33787128 -0.66450834 -0.20163825 1.3050159 -1.3139577 -0.032333665 -0.4382845 1.2590241
00000000: 7f15 ddbf 686c 88bf d44a acbf 90a7 37bf
00000010: 288f 5c3e 8980 13bf b1be 553f e721 08bf
00000020: fbf0 0fbe ab2f 92bf e5b8 f83e 5805 1abf
00000030: 4567 a63f f91c 6d3e 573a 1e3f 676f 4e3d
00000040: 73c2 a8be 4f98 e43f bddd 183f b074 43bf
00000050: e628 8cbe 865d 913f ae32 2ebf f62d a23e
00000060: 0309 663f 9d37 07be 2403 39bf 5822 f93e
00000070: a210 04be f623 2c3f 79f9 16bf 67e1 523f
00000080: a7f4 3b3e 75e3 17bf 5129 073f 96c6 6ebe
00000090: 4ede 863e 5509 eabe 1c5e 85be 5a5c e4bf
000000a0: b0c0 94be 92f8 e03e d1f2 243e 78a5 c13e
000000b0: 2817 433e ed60 adbf ff3b b23e 54b8 62bf
000000c0: 9a7c 9ebe 2673 9abe 0959 3ebe 51de 413f
000000d0: 81e7 a73f 065b b8be 854a 513f ef9d 9bbe
000000e0: 77fd ac3e 381d 2abf 427a 4ebe c30a a73f
000000f0: c42f a8bf 4e70 04bd d366 e0be b427 a13f

weight f4 [64]
2.2219615 2.4500597 1.51965 2.2852943 0.9311663 1.8208101 1.3676721 1.0884295
1.5581677 1.6708671 1.8255773 1.8599838 1.7734786 1.2686707 1.6987132 2.1160934
1.9404088 1.6772991 1.9350953 1.5153866 1.8502122 1.1895134 0.7176576 1.339673
1.4158847 1.3719234 1.9487108 1.5797448 0.98220325 1.7285002 1.4572917 1.5387934
1.796529 1.6859963 1.2584705 1.1142205 1.3568131 1.7926971 2.2548509 1.233848
1.0788903 1.5293114 0.9062283 1.79868 1.4790239 1.8039011 1.1333106 2.0937643
1.692427 1.5684415 1.3729118 2.1374798 2.0072744 1.497275 1.2460054 1.3075134
1.864138 1.6766121 1.6658794 2.280859 1.8546144 1.2470471 1.7562311 1.9163418
00000000: 9e34 0e40 c7cd 1c40 e483 c23f 4342 1240
00000010: ea60 6e3f 4e10 e93f e10f af3f a851 8b3f
00000020: 0a72 c73f f9de d53f 84ac e93f f313 ee3f
00000030: 5901 e33f cd63 a23f 6f6f d93f 136e 0740
00000040: 515f f83f bdb1 d63f 34b1 f73f 30f8 c13f
00000050: c1d3 ec3f fa41 983f 69b8 373f 687a ab3f
00000060: b63b b53f 309b af3f 5b6f f93f 1435 ca3f
00000070: ac71 7b3f 7f3f dd3f 8988 ba3f 2ff7 c43f
00000080: aaf4 e53f bace d73f 9015 a13f c79e 8e3f
00000090: 0dac ad3f 1977 e53f 7a4f 1040 bbee 9d3f
000000a0: 1419 8a3f 7ac0 c33f 94fe 673f 253b e63f
000000b0: a850 bd3f 3be6 e63f 5210 913f 3c00 0640
000000c0: 73a1 d83f b1c2 c83f 93bb af3f 78cc 0840
000000d0: 2f77 0040 b5a6 bf3f 1b7d 9f3f 995c a73f
000000e0: 139c ee3f 3a9b d63f 893b d53f 98f9 1140
000000f0: 0164 ed3f 3d9f 9f3f 2ecc e03f b04a f53f

bias f4 [64]
-0.6767234 -1.7127469 -1.1565522 -0.47111118 -1.9459573 -1.1622026 0.119572856 0.3260193
-0.58635646 -0.7706978 -0.5072588 0.26233461 -0.08628769 -1.1883199 -1.4515506 -1.0385959
-0.21513021 -0.6682176 -0.86036783 -1.3384593 -0.4991178 -0.11727794 -1.3948554 -1.2501519
0.01490626 -0.40218627 -0.5597157 -0.9527047 -0.71947056 0.043906394 -0.58826506 -1.9533775
-1.3127105 0.038857564 -1.2023987 -1.7480619 -1.5059444 -0.9944944 -0.029578518 -1.8990386
-0.44077307 0.22325267 0.3566994 -0.72241515 -1.3422875 0.54678774 -0.90174204 -0.15531106
-1.8928232 -0.20338532 -1.9816004 -0.38490546 0.09139457 -0.597074 -0.97265005 -1.1225655
-1.234465 -0.41381034 -0.068346076 -0.23713277 -0.26331058 0.93245804 -0.7076269 -0.80031633
00000000: bf3d 2dbf 4a3b dbbf e709 94bf 7c35 f1be
00000010: 2115 f9bf 0ec3 94bf 9de2 f43d 00ec a63e
00000020: 751b 16bf 734c 45bf b6db 01bf b950 863e
00000030: 9ab7 b0bd de1a 98bf 69cc b9bf b6f0 84bf
00000040: 184b 5cbe 4f10 2bbf 1141 5cbf a252 abbf
00000050: 5e8c ffbe 6b2f f0bd 9f8a b2bf fa04 a0bf
00000060: 6339 743c 5ceb cdbe 8749 0fbf 75e4 73bf
00000070: 392f 38bf 31d7 333d 8a98 16bf 4608 fabf
00000080: e606 a8bf 1c29 1f3d 33e8 99bf 7ec0 dfbf
00000090: c9c2 c0bf 2f97 7ebf a64e f2bc b213 f3bf
000000a0: 02ad e1be 599c 643e 4ea1 b63e 33f0 38bf
000000b0: 14d0 abbf 48fa 0b3f 91d8 66bf dd09 1fbe
000000c0: 0848 f2bf 3e44 50be 15a5 fdbf 5412 c5be
000000d0: 142d bb3d d7d9 18bf 98ff 78bf 3ab0 8fbf
000000e0: f302 9ebf f3de d3be 07f9 8bbd efd2 72be
000000f0: a5d0 86be 92b5 6e3f 0927 35bf 88e1 4cbf

running_mean f4 [64]
-20.807737 -36.682953 11.0465145 -14.0365305 3.9201283 -8.56246 -0.6820531 5.1812377
-3.7843769 -20.587383 2.3006828 -27.14024 -2.0305781 -10.175678 4.940943 12.59128
-21.69768 0.1058939 -1.8522677 -1.6380316 -3.4546156 -0.5320535 -4.1542306 1.6138722
2.5336378 6.276672 -15.857759 -6.3420324 -11.1702385 4.990943 -8.162494 -16.451538
10.671473 0.5378015 -12.341175 19.735485 -5.2852383 2.399455 -19.103994 7.5681944
-17.644596 -3.2015803 -10.322832 -15.440124 6.068266 -17.105553 5.3430104 -8.807852
-3.3554513 -5.896008 -10.290379 -23.768894 -24.602192 3.106166 -4.601044 -16.624271
-23.354706 3.8558931 -34.416084 9.415939 -22.65001 -5.20526 -11.03371 6.8983326
00000000: 3f76 a6c1 58bb 12c2 86be 3041 a195 60c1
00000010: 62e3 7a40 d6ff 08c1 089b 2ebf b3cc a540
00000020: 3b33 72c0 f6b2 a4c1 633e 1340 361f d9c1
00000030: fef4 01c0 94cf 22c1 341c 9e40 e275 4941
00000040: d994 adc1 e7de d83d 1c17 edbf 05ab d1bf
00000050: 6c18 5dc0 a834 08bf 75ef 84c0 5d93 ce3f
00000060: 1f27 2240 7fda c840 62b9 7dc1 eef1 cac0
00000070: 4cb9 32c1 ceb5 9f40 9399 02c1 c09c 83c1
00000080: 5abe 2a41 5cad 093f 7475 45c1 46e2 9d41
00000090: ac20 a9c0 ac90 1940 fbd4 98c1 a62e f240
000000a0: 2228 8dc1 b1e6 4cc0 522a 25c1 bf0a 77c1
000000b0: 3c2f c240 2cd8 88c1 f1f9 aa40 f6ec 0cc1
000000c0: b7bf 56c0 19ac bcc0 64a5 24c1 b226 bec1
000000d0: 4ad1 c4c1 6ccb 4640 c13b 93c0 82fe 84c1
000000e0: 70d6 bac1 f4c6 7640 12aa 09c2 b0a7 1641
000000f0: 3833 b5c1 7d91 a6c0 138a 30c1 24bf dc40

running_var f4 [64]
419.39178 238.835 324.44382 247.05142 165.32774 377.3004 517.7217 281.15488
218.64525 189.72517 305.17584 475.0357 250.1019 295.4495 234.7204 386.83926
314.33243 309.80212 382.54465 196.41713 400.13574 227.34782 260.41367 240.00386
182.61713 215.78812 333.67828 353.21884 485.78125 293.127 408.00345 311.56345
305.96793 247.16301 311.9572 208.5232 273.48883 358.96072 671.3232 225.46461
208.08696 365.23398 376.41986 276.30438 291.899 620.01373 354.81436 377.42822
207.4705 234.29495 278.18085 408.01883 468.70312 382.2511 312.5384 376.41803
277.31497 375.0341 309.83887 331.1674 305.47162 310.50015 321.77997 305.18994
00000000: 26b2 d143 c3d5 6e43 cf38 a243 2a0d 7743
00000010: e753 2543 74a6 bc43 306e 0144 d393 8c43
00000020: 2fa5 5a43 a5b9 3d43 8296 9843 9284 ed43
00000030: 161a 7a43 89b9 9343 6cb8 6a43 6d6b c143
00000040: 8d2a 9d43 ace6 9a43 b745 bf43 c96a 4443
00000050: 6011 c843 0b59 6343 f334 8243 fd00 7043
00000060: fc9d 3643 c2c9 5743 d2d6 a643 039c b043
00000070: 00e4 f243 4290 9243 7100 cc43 1fc8 9b43
00000080: e5fb 9843 bb29 7743 86fa 9b43 f085 5043
00000090: 92be 8843 f97a b343 afd4 2744 f176 6143
000000a0: 4316 5043 f39d b643 be35 bc43 f626 8a43
000000b0: 12f3 9143 e100 1b44 3d68 b143 d0b6 bc43
000000c0: 7378 4f43 824b 6a43 2617 8b43 6902 cc43
000000d0: 005a ea43 2420 bf43 ea44 9c43 8235 bc43
000000e0: 51a8 8a43 5d84 bb43 60eb 9a43 6d95 a543
000000f0: 5ebc 9843 0540 9b43 d6e3 a043 5098 9843
