unet/checkpoints/one_loss/epoch_16.pth (torch, 508787 bytes, 85 tensors)

weight f4 [8, 1, 3]
000000 02 84 1e bf 2e 99 74 bf e6 24 6a 3f 96 12 31 bf
       -0.6192018 -0.95546234 0.9146255 -0.69168985
000010 5d e9 ed bf d5 22 33 bd c0 28 8c 3e 2b 0b da 3c
       -1.8586842 -0.04373439 0.2737484 0.026616653
000020 ad 48 4e c0 d8 cd 8e 3d 59 a7 3c 3e 76 56 08 40
       -3.2231858 0.06972855 0.18423213 2.1302772
000030 97 27 b6 be c3 ef 63 bf 68 7c 87 bf 20 6c cc bf
       -0.3557708 -0.8903772 -1.0584841 -1.5970497
000040 fe 15 04 be 83 ff 2e bf 9c ca 86 3f 74 42 4c bf
       -0.12899014 -0.6835863 1.0530581 -0.797889
000050 ba 2c a5 bd de 47 c2 3f 07 26 44 3e 92 60 31 3f
       -0.080651715 1.5178182 0.19155131 0.6928798

bias f4 [8]
000000 31 3d c4 bd 66 10 36 3c 97 38 49 3e 51 80 97 3e
       -0.09581984 0.011112308 0.19650494 0.29590085
000010 6b 55 e2 be 60 79 c2 3d 93 16 f3 3d 5a a6 4a bf
       -0.44205794 0.09495807 0.1186954 -0.7916008

weight f4 [8]
000000 d0 0a 6d 3f 9f 57 9a 3f d1 ba ca 3f cb 96 d4 3f
       0.92594624 1.205799 1.5838262 1.6608518
000010 ed 53 ed 3f 68 65 bc 3f 3e 71 5d 3f dc 7a ca 3f
       1.8541237 1.4718447 0.8650092 1.5818744

bias f4 [8]
000000 75 df 7a 3f 67 0b b1 bd 58 0b e4 be a5 fb 07 3f
       0.9799722 -0.08644753 -0.44539905 0.53118354
000010 69 f1 3a 3e 68 4a 77 be 3e 57 06 3f 27 6e 0e be
       0.18256153 -0.24149477 0.5247687 -0.13909207

running_mean f4 [8]
000000 18 75 de bd a9 7b ab 3d 1e 65 d0 3e 05 c8 07 3e
       -0.108621776 0.08373196 0.40702146 0.13259895
000010 93 b3 ab be 5f 43 9c 3e a5 a4 be 3c 47 d0 7e bf
       -0.33535442 0.3052015 0.023271868 -0.99536556

running_var f4 [8]
000000 70 db 89 47 58 f5 e2 48 ae 47 32 49 56 88 cc 48
       70582.875 464810.75 730234.9 418882.7
000010 d7 c5 a5 48 08 54 bf 48 4f 8e 1f 47 1e 10 b7 48
       339502.72 391840.25 40846.31 374912.94

weight f4 [16, 8, 3]
000000 ae 99 66 bf a8 cb 42 be 25 1c c4 bf e7 4b e9 3e
       -0.90078247 -0.19023001 -1.5321089 0.4556572
000010 42 1d 85 bf d5 6a d8 be bb 2e e7 be 4e 5e cf be
       -1.0399554 -0.42269006 -0.4515284 -0.40501636
000020 a0 51 ca be b9 b9 85 be 86 8f 34 3e 7c bc 14 bf
       -0.395154 -0.26118258 0.17632875 -0.58100104
000030 99 d8 7c bf ef 33 9c bf 2e 19 2b be 30 13 05 c0
       -0.98768 -1.2203349 -0.16708824 -2.079296
000040 2b 11 ab 3d bb de 71 bf 1d e9 0e bd ae 7f 55 3e
       0.08352884 -0.94480485 -0.034890283 0.20849487
000050 bb cb b8 be 17 4f fd 3d bf e1 cd 3e df a9 40 bf
       -0.36092934 0.12368601 0.40211293 -0.752592
000060 ad c3 b8 3f 1a 10 c9 bf 38 6a 00 3e 3f 36 1f 3e
       1.4434716 -1.5708039 0.12540519 0.15548037
000070 e3 90 f7 be 0f bc d0 3e ed 94 14 bf 7e 0e 58 3e
       -0.48352727 0.40768477 -0.5803974 0.21099278
000080 c2 15 29 bf a7 fc 25 3f 10 b6 c9 be 09 09 5c bf
       -0.66048825 0.6483864 -0.39396715 -0.85951287
000090 c2 0c c1 be 15 1b 01 3f aa f4 85 be 65 9d f5 be
       -0.37705046 0.5043195 -0.26163226 -0.47971645
0000a0 e3 9c 8c 3e a1 c1 4b bf 7e 4b c5 be 5a 9f 66 bf
       0.27463445 -0.7959233 -0.38534158 -0.900869
0000b0 fe d0 9c 3f 46 d9 09 bf 4e 07 85 bf 97 00 df 3e
       1.2251279 -0.5384716 -1.0392854 0.43555138
0000c0 00 ad e6 be 53 d8 5b be 56 65 59 be 7c aa 7b bf
       -0.45053864 -0.2146924 -0.21230063 -0.98307014
0000d0 2b f2 8c 3e ba a1 d4 3c 4c 23 56 3f 2c 5c c4 3d
       0.2752851 0.025956023 0.8364761 0.09587893
0000e0 fb 23 b4 3e dd 88 4c 3f bb 20 90 3f 7f a2 b0 3f
       0.351837 0.79896337 1.1259989 1.379959
0000f0 d8 44 01 bf ad e7 16 be f1 58 fe bd f2 ec 98 be
       -0.5049567 -0.14736815 -0.12419308 -0.29868275
000100 6a bd 1b bf 82 78 b0 3e 41 5e ac bd de ba c7 bd
       -0.608359 0.3446694 -0.08416415 -0.09752439
000110 a4 ae b2 be 2a 0a f8 3e 13 38 59 3f 03 63 94 3f
       -0.34898865 0.48445255 0.8485119 1.1592716
000120 d8 15 7c bf 6b 07 c4 3d fc 18 83 bf 0c 9f 9d bd
       -0.9847083 0.09571727 -1.0242 -0.076963514
000130 bf 19 c6 3e 86 b3 13 be 5c 79 89 3d 78 d5 ad be
       0.38691518 -0.14423952 0.067126006 -0.33951926
000140 cb 38 0e 40 94 72 27 bd c3 f8 05 bf a3 66 80 bf
       2.2222164 -0.040880755 -0.52332705 -1.0031322
000150 87 f5 d5 3d 14 3b 25 3e fc c9 d8 3f 58 94 9d 3e
       0.10447221 0.16135818 1.6936641 0.3077724
000160 d1 23 0f bf 4c 5d a4 3f 41 03 9b 3e e3 b0 88 3e
       -0.55914026 1.2840972 0.3027592 0.26697454
000170 86 03 b3 be 7e 48 3a 3f 01 bb 33 bf c2 04 94 be
       -0.34963626 0.72766864 -0.7020722 -0.2890988
000180 c5 3d 0c 3f ea bf 4e bf 2f f0 9d bf fc 73 ea 3e
       0.5478175 -0.8076159 -1.2338923 0.45791614
000190 f2 96 19 bf 94 4c 01 bf 07 81 c4 3d b5 f0 27 bf
       -0.5999595 -0.50507474 0.095949225 -0.65601665
0001a0 bd 83 15 bf a8 f9 51 3f 93 11 8e 3b dc c3 88 bf
       -0.5840414 0.8202157 0.004335591 -1.0684772
0001b0 fd 48 d9 be a0 f8 2e bf ca 55 19 bf de ac ad 3e
       -0.42438498 -0.6834812 -0.5989653 0.3392095
0001c0 e3 05 95 be 58 46 08 3e d0 b2 58 be 6c b5 25 3f
       -0.29106054 0.13308084 -0.21161962 0.6472995
0001d0 21 04 f8 3d 09 41 e5 3e e3 da 89 3f c6 9b 95 be
       0.121101625 0.4477618 1.0769924 -0.29220408
0001e0 1e 49 28 3e 7d e0 5e bf 2b 90 01 3e e4 a5 12 bf
       0.16434142 -0.8706129 0.12652652 -0.5728438
0001f0 00 74 e8 be 4f 74 c7 3e a2 b6 c2 3c e3 38 60 3f
       -0.45401 0.38955924 0.023768727 0.875868
000200 d1 ac e8 3e e7 c8 1e 3f 50 0d 97 3e fe c1 43 3f
       0.45444348 0.620253 0.29502344 0.76467884
000210 4f 6f 00 bf 98 1d 52 be d5 cc 65 3e e5 8b f4 3e
       -0.50169843 -0.20519102 0.22441418 0.4776298
000220 8c 1d 8b bd aa f6 bb 3e 1f a8 8d bf 3c 32 14 bf
       -0.06792745 0.36711627 -1.1066931 -0.5788915
000230 46 a7 a4 3f a7 6a 7c bf 7e e2 e1 bc ae ad 7a 3f
       1.2863548 -0.9860024 -0.02757382 0.97921264
000240 79 7e bf bf ee e7 ca be c5 a7 5e 3e 21 a0 f5 bf
       -1.4960471 -0.39630073 0.21743686 -1.9189492
000250 64 0a ce 3e 53 44 0c 3f 49 35 23 3f 4c cc 35 3f
       0.40242302 0.54791754 0.6375318 0.7101486
000260 54 26 ed be 14 2b e0 3e 39 69 cd bd f4 27 32 3e
       -0.46318305 0.43782866 -0.10029835 0.17398053
000270 4f 64 d2 be 41 a9 db 3e 4f be e2 bd 33 47 78 be
       -0.41092154 0.42902568 -0.11071455 -0.2424591
000280 8c 64 61 bf 05 e4 a0 3e 9a 29 bb bf 29 cd e3 3f
       -0.8804405 0.31423965 -1.4622071 1.7796985
000290 0a df e3 3e 5d d6 d3 3e b1 54 74 3e 5d c0 7e 3d
       0.44506103 0.41374484 0.23860432 0.06219517
0002a0 3c dc 97 3f a6 35 9a be 87 5d 93 bf 15 51 0a 3f
       1.1864085 -0.30119056 -1.1512917 0.5402997
0002b0 3d 59 d9 be f8 1b 77 bf 0c 29 a2 bf ae fd 40 bf
       -0.42450896 -0.9652705 -1.2668777 -0.75387084
0002c0 4a df ad 3d f7 41 fb bb 72 af ed 3d 67 1a 1b 3f
       0.08489855 -0.0076677757 0.11605729 0.6058716
0002d0 c8 5e b9 3d cf 04 bc be 89 82 64 bf 0a 08 96 3e
       0.09051281 -0.3672242 -0.8926168 0.29303008
0002e0 34 e4 2b 3f 76 16 c0 be a0 b4 9f bf b6 b0 ce bf
       0.67145085 -0.37517136 -1.2476997 -1.6147678
0002f0 a8 70 05 be 79 7d 97 bf f5 3f a6 3b a4 09 40 3f
       -0.13031256 -1.1835166 0.0050735422 0.7501471
000300 f7 62 c0 3e 03 1f 7f bf e6 14 81 3e 13 1b 57 be
       0.37575504 -0.99656695 0.25211257 -0.21006422
000310 7c 03 9c bf d4 21 53 be 25 62 92 bf 29 b3 85 3d
       -1.2188563 -0.20618373 -1.1436201 0.06528313
000320 0a 53 56 bf f2 d3 23 3e c9 17 01 bf fe 5f 28 3f
       -0.8372046 0.1599882 -0.5042692 0.6577147
000330 d1 b2 e9 be a9 56 31 bf 78 9a 1d bf 87 24 4c be
       -0.4564424 -0.6927286 -0.61563826 -0.19935809
000340 ca df 85 be d4 37 a3 bf 25 e0 13 be e9 53 3a bf
       -0.261473 -1.2751412 -0.14440973 -0.72784287
000350 cc 45 6e 3e fb fb 71 be 7d 49 5e bf 67 72 ea 3e
       0.23268813 -0.23631279 -0.86830884 0.45790407
000360 e5 87 88 3e 6f 9a 4f be 23 a4 d5 3e 35 d7 bd bd
       0.2666618 -0.20273755 0.4172679 -0.09269563
000370 ab b1 fe 3e 44 96 7a 3b e3 0f 85 3f a7 bf a5 bd
       0.49744925 0.0038236538 1.0395473 -0.080931954
000380 ba 78 f3 bf eb b9 29 3f 27 6e b1 3f b5 d1 2b 3f
       -1.9021218 0.66299313 1.3861741 0.6711686
000390 73 8d d6 3e 9a b5 ae 3e 31 45 6a bf 43 88 76 3f
       0.41904792 0.34122926 -0.9151183 0.9630167
0003a0 ac 27 8f be 09 e7 36 be e5 6c 3c 3e 5d 1c 53 3e
       -0.27959955 -0.1786157 0.18400915 0.20616288
0003b0 db 7d 99 bf 66 8b 28 3f ba 44 80 3f c3 9a 24 3f
       -1.1991533 0.65837705 1.0020974 0.6429865
0003c0 a6 af b2 3f 0a 9e a3 3f aa ec 36 3f 3e 38 ba 3f
       1.3959854 1.2782605 0.7145487 1.4548414
0003d0 13 2e 49 3e 6f 34 99 be b4 64 cb be c6 23 0d bf
       0.19646482 -0.29922816 -0.39725268 -0.5513271
0003e0 54 8e 2f bf 50 ce 0c bf 3c d4 32 bf 5e fc c1 3e
       -0.6857655 -0.5500231 -0.69855094 0.37887853
0003f0 c1 3f 6d 3f 74 2a d5 3e 62 05 f0 be 90 61 ed 3f
       0.92675406 0.41633952 -0.46879107 1.8545399

bias f4 [16]
000000 1c aa 1b 3f 36 32 d7 3e 0b cf 96 be 8b 9f ac be
       0.6080644 0.42030495 -0.29454836 -0.33715472
000010 84 c9 f8 3e be 16 b7 bf f1 7f 70 be 70 39 9b bd
       0.48591244 -1.4303815 -0.23486306 -0.07579315
000020 6c 8f 3f 3f 69 e2 01 3f e0 14 67 3f 80 ec a0 bd
       0.7482822 0.507361 0.9026623 -0.07857609
000030 3f 96 a2 3e 67 a3 41 bf 93 b5 2d bf ef 60 d3 be
       0.31755254 -0.7563996 -0.67855185 -0.41284892

weight f4 [16]
000000 ce c5 8d 3f fb 9b 71 3f 87 a5 c7 3f 6b 73 ab 3f
       1.107599 0.9437863 1.559739 1.3394598
000010 fd 97 83 3f 4d 66 11 3f 90 14 5d 3f e2 9c 9a 3f
       1.0280758 0.56796724 0.863595 1.2079127
000020 35 d5 0a 3f 3a e1 d4 3f 83 73 63 3f 1b c7 a9 3e
       0.5423158 1.6631234 0.8884813 0.33159718
000030 e8 2d 77 3f 77 b0 1e 3f 62 23 cf 3f 9c 92 b6 3f
       0.9655442 0.61988014 1.6182673 1.4263492

bias f4 [16]
000000 5c fa a9 3e 81 d1 62 be da 36 45 3f 16 91 91 3f
       0.33198822 -0.22150232 0.7703682 1.1372402
000010 99 ad 4a 3d b0 19 c6 be 3d 43 86 3f 66 b4 36 3f
       0.049481962 -0.38691473 1.048927 0.71369016
000020 c4 39 b9 3b 57 fe ae 3f f5 08 17 40 69 f5 1e 3f
       0.005652638 1.3671368 2.3599217 0.62093216
000030 a9 a8 39 be 1e 8a 33 3c 2f d1 99 be 14 10 c1 be
       -0.18130745 0.010958223 -0.30042407 -0.3770758

running_mean f4 [16]
000000 54 4e d9 c0 a9 8e be bf b4 7d 07 40 27 c4 8d bf
       -6.7908115 -1.4887286 2.1170473 -1.1075486
000010 b2 61 fa bf fa 94 30 bf 8b e6 91 bf 35 8e 65 c0
       -1.9561064 -0.6897732 -1.1398481 -3.5868046
000020 bc 1c 54 c0 9e 96 7f 40 9c d3 a9 40 3f dc 35 bd
       -3.3142538 3.993568 5.307081 -0.044399496
000030 e0 3b 93 bf 78 21 a5 c0 c2 6a b5 40 b3 16 c5 40
       -1.1502647 -5.1603355 5.669282 6.159021

running_var f4 [16]
000000 4a 9d 4a 42 b1 6f 64 41 f4 3b 1b 42 ae 3e e8 41
       50.653603 14.277268 38.808548 29.030605
000010 1e e7 9c 41 0b 98 22 41 8a fb 81 41 39 e2 a3 41
       19.61285 10.16212 16.247822 20.48546
000020 e3 f9 11 42 55 81 d1 41 09 83 d2 41 97 49 5d 41
       36.49403 26.18815 26.313982 13.830466
000030 cd ae 4f 41 3a 54 0a 42 22 94 d9 42 90 16 f3 42
       12.980176 34.582253 108.78932 121.54407

weight f4 [16, 16, 3]
000000 40 08 91 bf 4b 81 ee be 3e 12 33 3f 46 5a 25 bf
       -1.1330643 -0.46583018 0.6994971 -0.6459087
000010 c7 aa b3 be cf 8b 61 be 8d 9d 57 bf 34 48 e7 3e
       -0.3509123 -0.22025989 -0.8422478 0.45172274
000020 78 45 8b 3f 91 16 fb be f0 38 4e bf 99 96 06 3e
       1.0880575 -0.49040654 -0.8055563 0.13143386
000030 44 70 59 bf 69 15 1b bf c8 f6 68 3f be 38 3b bf
       -0.8493693 -0.60579544 0.9100156 -0.73133457
000040 15 29 08 3f f1 9b a1 3e 6f 5e 11 bf cc d2 22 bf
       0.53187686 0.31564286 -0.5678472 -0.636029
000050 9c 43 21 3f 5b 37 8e be 14 c2 51 3f 22 43 17 3e
       0.6299379 -0.27776608 0.81936765 0.14771703
000060 22 f3 ea 3d 2d ab 8a 3e 21 f5 07 bf ea 50 9f bf
       0.11472155 0.27083722 -0.5310841 -1.2446568
000070 64 6b e8 3e 4d f7 20 3f 5c b0 de be 73 fb 61 be
       0.45394433 0.6287735 -0.43493927 -0.22068577
000080 25 76 af be c3 92 16 bf a7 59 a1 3e 23 76 df 3d
       -0.34269825 -0.5881769 0.31513712 0.10911205
000090 a7 33 5b 3e 8d 1f 40 be dd cc b4 bd 03 8d 25 3f
       0.21406423 -0.18762036 -0.08828137 0.6466829
0000a0 6e df ee 3e dd 60 00 bf 1e d5 2e bf 12 a3 75 be
       0.46654838 -0.501478 -0.6829394 -0.23987988
0000b0 70 6c 2d 3e 3f e6 7c bf fd 6c 58 be 7a 03 85 3e
       0.16935897 -0.9878883 -0.21135326 0.25979215
0000c0 5a ea 18 bf ae 4a 4d 3f 08 52 3f 3f a3 b7 70 bf
       -0.5973259 0.8019208 0.74734545 -0.9403021
0000d0 6e 73 b6 bf be 59 96 bf a0 22 c6 3c c4 b2 88 3e
       -1.4253976 -1.1746137 0.024186432 0.26698887
0000e0 3f 1c 34 3f 88 0f 92 bf ff 44 ae bf a8 4f c4 bf
       0.703556 -1.141099 -1.3614806 -1.5336809
0000f0 2e ee 49 3e 9e 22 5f bd 1a e6 62 3c 76 7a 82 bf
       0.19719765 -0.054476373 0.013848806 -1.0193622
000100 46 4e 9d 3e 47 0a b7 bd b4 f4 5b bf ca de 02 be
       0.3072378 -0.08937507 -0.8592026 -0.127803
000110 ca a8 b2 3e 2c 1f c9 be c7 e8 98 3e ee ce 6d 3f
       0.348944 -0.39281595 0.29865095 0.92893875
000120 f1 e0 ab bf 62 e1 9b 3e 5e 8a 09 3f f5 e0 63 bb
       -1.3428022 0.3044539 0.53726757 -0.0034771536
000130 6a 7b 82 be 79 19 c0 3e 91 1b 33 bf 32 0d e8 bf
       -0.25484782 0.37519434 -0.6996394 -1.8129027
000140 f5 70 84 bf e3 39 2b 3e 29 c2 b9 be 69 be 0e 3f
       -1.0346972 0.16721301 -0.36280945 0.5575929
000150 9b 73 b6 bf 8d 6c f7 bc 3e 77 56 bf 3f d6 2c be
       -1.425403 -0.030203128 -0.837757 -0.16878603
000160 de 3d 38 3f 2f d5 20 3f 1c 43 42 bf 93 37 72 be
       0.719694 0.6282529 -0.7588365 -0.23654012
000170 d9 14 10 be 8e d6 63 bf 5f 1b ab be ab e1 08 be
       -0.14070453 -0.8899926 -0.3341932 -0.13367335
000180 e3 f0 ab 3c c4 6c 3d 3f da e2 3b be 3d 59 7b bf
       0.020988887 0.7399409 -0.18348256 -0.9818304
000190 d6 7e 89 be 52 d2 7e bc 35 12 fd 3f 11 01 05 3f
       -0.2685458 -0.015553074 1.9771181 0.5195475
0001a0 b8 63 03 bf 78 11 08 bf 60 31 73 3b 31 2a 90 3e
       -0.51324034 -0.53151655 0.0037108287 0.2815719
0001b0 4b 7b 82 3f 99 ac 30 3f af 35 73 be 89 ab 4e 3d
       1.0193876 0.69013363 -0.23750947 0.050456557
0001c0 25 c6 ff be f7 4f 11 3e a0 b4 ba 3f 8a 50 f7 be
       -0.4995586 0.1419066 1.4586372 -0.48303634
0001d0 43 56 08 bf fb 5e 94 3d 42 2a 43 bf 90 32 3a bf
       -0.53256625 0.072446786 -0.76236355 -0.727334
0001e0 fc e2 39 bd 22 b5 d9 3c 49 20 f6 be 5d 6a ca 3f
       -0.045382485 0.026575629 -0.48071507 1.581371
0001f0 4a a8 e2 3e 56 98 21 bf 00 c6 cf be 32 48 fe be
       0.4426902 -0.6312307 -0.4058075 -0.49664456
000200 1c b3 db be ef ff 05 be 0c d4 93 be c7 69 a4 be
       -0.42910087 -0.13085912 -0.28872716 -0.32111952
000210 88 ee fc be 7a 67 db 3c 08 7e 41 3e d5 48 de be
       -0.49400735 0.02678274 0.18895733 -0.4341494
000220 8b 0d 2c be be b1 d2 3e 1a 66 4f be e3 39 b8 3b
       -0.16802041 0.41151232 -0.20253792 0.005622135
000230 d6 2b 96 3e 14 f7 25 be b4 09 49 bd 96 60 57 3e
       0.2933032 -0.16207534 -0.04908152 0.21032938
000240 1a a0 a5 3e c0 17 7f be 25 11 9d 3e d1 12 af bf
       0.3234871 -0.24911404 0.30677143 -1.3677617
000250 f0 aa 6a bc 21 40 92 bf e6 1b 19 3f 82 a7 3c bf
       -0.014322981 -1.142582 0.59808195 -0.73693097
000260 21 e3 69 be 93 8e 2c be 1d 59 59 be 11 c6 93 bf
       -0.22840549 -0.16851263 -0.212254 -1.154482
000270 7c 09 12 3f b2 98 42 bf 1c 6e 92 be f7 00 05 c0
       0.5704572 -0.76014245 -0.28599632 -2.078184
000280 f1 c1 16 bf 94 62 1c be f7 72 74 be b8 c7 0a bf
       -0.5888968 -0.1527198 -0.2387198 -0.54210997
000290 96 23 a7 bf c5 e5 41 bf e6 ef 42 bf 82 86 11 3f
       -1.3057735 -0.75741225 -0.76147306 0.5684587
0002a0 e3 3b 32 bf cd 09 1d 3d d9 7a c3 3e e2 27 8c 3f
       -0.6962263 0.038339425 0.38179663 1.0949671
0002b0 1d 0d 19 bf 82 52 5a bf a7 51 84 3e 93 c3 0f 3e
       -0.59785634 -0.85282147 0.25843546 0.1403945
0002c0 15 e4 1f bf f3 7a 50 bf 82 17 f0 bd b2 18 c8 be
       -0.624574 -0.81437606 -0.11723234 -0.3908134
0002d0 8f 1b 40 3e 43 66 84 3d 9d b2 b5 bf 39 ca a3 bf
       0.18760513 0.064648174 -1.4195133 -1.2796088
0002e0 49 21 e6 3d 50 a2 82 3f 75 24 b9 3e 40 da 6b be
       0.112368174 1.0205784 0.36160627 -0.23032475
0002f0 ef c7 89 bf df 98 06 3f ba 1e a1 3d f7 4e 43 bf
       -1.076414 0.5257701 0.07867189 -0.76292366
000300 1c 68 2a bf df 4f c3 bf 75 9d ef bf 0c 83 00 bf
       -0.6656511 -1.525875 -1.8719927 -0.5019996
000310 e1 ca b8 bd 12 c7 da be 5c d4 4e bf cd 35 6c bf
       -0.09023071 -0.42730004 -0.80792785 -0.92269593
000320 db 9c ae bd 36 9c ef 3c 0f d2 8b be b1 c1 66 3e
       -0.085260116 0.029249292 -0.273087 0.22534825
000330 ff 30 21 be 1d 17 a2 be b6 86 81 bf c9 7d ff bf
       -0.15741347 -0.3165826 -1.0119236 -1.9960262
000340 f6 d3 cc bd d0 71 70 3d 5c 5f 80 3f a3 8e 79 bf
       -0.10001366 0.05870229 1.0029101 -0.9748327
000350 6f fa 1d be 52 a6 23 c0 aa 55 4d 3e e9 2d a2 bf
       -0.15427564 -2.5570264 0.2005221 -1.2670261
000360 b6 4e 6d bf 63 fd 3b 3e 41 2e 97 bf b7 06 18 be
       -0.9269823 0.18358378 -1.181099 -0.14846312
000370 75 db 84 bf a0 02 2a 3f 30 2d fc bd fb 79 85 3d
       -1.0379473 0.66410255 -0.12313306 0.065174066
000380 1a 0f 50 bd b4 18 1b bf 89 8e 44 bf b7 89 cb 3d
       -0.050795652 -0.6058457 -0.7677999 0.099383764
000390 fb 3e 26 be 97 47 b5 bf 2c 7d 65 3f cf 2c 38 bf
       -0.16234963 -1.4162472 0.8964412 -0.7194337
0003a0 b1 5c 2f 3e 77 7e 80 bf 40 f5 28 be f1 c7 22 bf
       0.17125203 -1.0038594 -0.16499805 -0.63586336
0003b0 a2 fe 43 3f 5b 1b b3 3e 0e 15 4b bf 3a 85 2a 3f
       0.76560414 0.34981808 -0.79329 0.6660954
0003c0 17 49 fd be 64 a5 2d 3e a7 33 17 3f 1c 08 8c 3e
       -0.49469826 0.16957623 0.5906319 0.27349937
0003d0 e7 94 3a bf e4 b4 70 bc c9 2a 17 bf 89 78 89 3e
       -0.72883457 -0.014691565 -0.5904966 0.26849774
0003e0 53 82 96 3f f0 ac 75 3e b2 36 9f be 70 4c c4 bf
       1.1758522 0.23991752 -0.31096417 -1.5335827
0003f0 88 de db be 69 5f 2f bf 94 76 04 3f 9b a0 a4 be
       -0.42943215 -0.6850496 0.51743436 -0.32153782

bias f4 [16]
000000 90 a8 bf 3e 28 51 04 bf 05 87 f2 3e 53 56 98 bf
       0.3743329 -0.51686335 0.47368637 -1.1901344
000010 36 11 00 3f cf 9a 8d 3f 5e 7a 87 be 17 14 69 3e
       0.5002626 1.1062869 -0.26460546 0.2276157
000020 6a 13 c4 bc 60 4a 54 3f 10 85 9a be 04 74 c2 3f
       -0.023935039 0.8292599 -0.30179644 1.5191655
000030 79 ac 2a 3f 23 e3 93 3d 77 9b dc be c6 de c4 3e
       0.6666942 0.07221057 -0.4308736 0.38451213

weight f4 [16]
000000 18 f6 19 3f 66 11 ae 3f 18 42 f0 3f 8f 24 c4 3f
       0.60141134 1.359906 1.877017 1.5323657
000010 6c 3c 6a 3f c4 e2 ef 3f e4 d0 52 3f 66 53 8b 3f
       0.91498446 1.8741078 0.8234999 1.0884826
000020 cd 08 7c 3f 43 36 83 3f ea c1 00 40 43 23 86 3f
       0.9845093 1.0250934 2.0118356 1.0479511
000030 dd 67 a5 3f 02 4b 95 3f 9e ae 91 3f 49 a5 45 3f
       1.2922322 1.1663516 1.1381414 0.7720533

bias f4 [16]
000000 96 5d 41 be 7c 68 c0 bc eb 83 34 3f 1b b1 84 3e
       -0.18883356 -0.023487322 0.7051379 0.2591637
000010 94 43 8d 3e 63 a2 26 3f 57 31 72 3f 5e d9 91 bf
       0.2759062 0.6509153 0.94606537 -1.139446
000020 3e 42 94 bc 37 8a fe 3e 53 7c 3a 3e b1 3f 66 bf
       -0.018097993 0.49714825 0.18211488 -0.89940935
000030 cc 98 09 3f 5f 0f 0e be 3c 3c 86 bf 44 b9 64 bf
       0.53748775 -0.13873051 -1.0487132 -0.8934519

running_mean f4 [16]
000000 53 8a bd c0 f1 4e 87 c1 ef 82 11 be 37 11 52 c1
       -5.9231353 -16.913546 -0.14210103 -13.129203
000010 81 ac 5e c1 8c 7d c9 40 48 72 50 c1 bb 69 ff 40
       -13.917115 6.2965755 -13.027901 7.9816566
000020 6b 47 06 3f 45 8b 09 40 d8 b7 15 c1 be 31 a4 40
       0.52452725 2.1491253 -9.357384 5.131072
000030 12 1d 16 3e cd 7a 52 40 4b 44 09 41 a1 b4 ef 40
       0.14659527 3.2887452 8.579173 7.4907994

running_var f4 [16]
000000 b7 ae e5 41 b7 4b 06 43 d8 c6 58 42 b4 06 cc 41
       28.71031 134.29576 54.194183 25.503273
000010 6b 4e 83 42 10 2f 3f 42 84 37 41 42 8e 11 46 42
       65.65316 47.79596 48.304214 49.517143
000020 5c b9 0f 42 02 e0 d5 42 2c c7 11 42 da 08 09 42
       35.931015 106.937515 36.444504 34.258644
000030 b1 bf f1 42 6f 0a 2a 42 c8 0e 8b 42 d9 9a b9 41
       120.8744 42.51019 69.52887 23.20061

weight f4 [32, 16, 3]
000000 d6 47 b3 bf c6 5f 8d 3e e9 ec 7c bf 08 f8 8b bf
       -1.4006298 0.27612132 -0.98798996 -1.0935068
000010 6f b0 76 3e 91 37 f0 3e 86 3a 18 bd f0 13 f0 be
       0.24090742 0.46917394 -0.037165187 -0.4689021
000020 2d 5c 4d 3f a5 ec 2b 3f 30 d5 dc bd f6 1b fd 3c
       0.80218774 0.67157966 -0.1078285 0.030897122
000030 d5 92 8c 3e d8 9a d4 be 80 d8 d2 be 8a fd fd 3e
       0.27455774 -0.41524386 -0.411808 0.49607497
000040 aa 5b 97 3e dd 55 56 be 71 e5 97 bf 64 67 25 bf
       0.29562122 -0.20931192 -1.1866895 -0.64610887
000050 0a 97 c1 3f 22 a4 f0 3c 29 42 0a bd 58 4f d7 ba
       1.5124218 0.02937514 -0.0337545 -0.0016426845
000060 04 64 57 3f 95 60 26 3e 11 b1 0c 3e 60 d9 a1 be
       0.84136987 0.1624778 0.1373942 -0.31611156
000070 ff bf b9 bf 3f 9d cd bf 55 7d ce bf ce 1c 35 c0
       -1.4511718 -1.6063613 -1.6131998 -2.829883
000080 69 77 15 bf 4f bf 10 bf 3e 61 95 be 97 c9 91 be
       -0.5838533 -0.56541914 -0.29175752 -0.28474113
000090 57 5d f1 3b c5 9d 98 3e c5 0f 04 3f d3 bd 54 3f
       0.0073658633 0.2980787 0.5158656 0.8310215
0000a0 a0 b0 47 3e cf a1 11 3f 94 79 aa be 04 cb 92 bf
       0.19500971 0.56887525 -0.33295882 -1.1468205
0000b0 97 35 48 bf 7f 29 8f 3f 9e 52 0c 3f 2e 3a 25 be
       -0.7820677 1.1184539 0.54813564 -0.16135475
0000c0 e5 11 ef 3e 11 e0 95 bf 52 8a bd be da fe 24 3e
       0.4669334 -1.1709005 -0.37019593 0.16112843
0000d0 f6 a5 e2 be 6a 9f 46 3e c5 3b 81 bf 41 5b 51 bf
       -0.44267243 0.19396749 -1.0096365 -0.8177987
0000e0 7b ff 06 3e 63 80 5e bf f4 b3 a1 be f5 4d 3a 3f
       0.13183396 -0.8691465 -0.31582606 0.72775203
0000f0 40 74 cc 3e 3e d4 4e bf 9f 69 8c bf 31 d7 c3 be
       0.39932442 -0.80792606 -1.0969733 -0.38250116
000100 17 43 16 3d 20 9a b2 be 3a 61 57 bf 69 58 16 bf
       0.036685076 -0.34883213 -0.8413273 -0.58728653
000110 5d cb 9a 3f cf 44 57 3f a1 2a ac 3f ac e1 3f bf
       1.2093312 0.8408937 1.3450509 -0.7495372
000120 dc 5d 1d bf d0 89 e2 3e d5 32 21 bf 4b c5 bb 3e
       -0.61471343 0.44245768 -0.6296819 0.3667396
000130 fe 50 3c be 37 bf a1 bc 67 6a f5 3f fa 16 06 bf
       -0.18390271 -0.019744499 1.9173096 -0.5237881
000140 50 63 bc bf e4 74 3e 3f 3f 9f 35 3d a1 2b 98 bf
       -1.4717808 0.7439711 0.044341322 -1.1888314
000150 45 ed 7f bf 0a a2 50 bf 60 9e 58 be c7 1a 98 bf
       -0.9997142 -0.8149725 -0.21154165 -1.1883172
000160 06 eb 8f 3f c1 c4 ef bc 1a 29 49 3f d7 7b 12 3f
       1.1243598 -0.029268624 0.7857834 0.57220215
000170 e7 9f 30 3f 0c dd 33 bf a9 0c 82 3e af b6 7f bf
       0.6899399 -0.70259166 0.25400284 -0.9988813
000180 aa 6a 21 be 18 69 e5 bc 52 b2 60 be 42 31 e6 3d
       -0.15763345 -0.028004214 -0.21943024 0.11239864
000190 05 cd c2 3e 0a bb 11 3e 82 b1 50 bf 43 aa 02 bf
       0.38047042 0.14231506 -0.81520855 -0.5104105
0001a0 44 36 2e 3f a1 bf 2d bf 83 ec f3 3c 96 0c f9 3e
       0.6805155 -0.6787053 0.029775864 0.48642415
0001b0 8f e2 a7 3d b5 c4 28 3f 61 05 54 3e a4 9a 78 bf
       0.081975095 0.6592515 0.20705177 -0.9711096
0001c0 0f 49 d2 bd d9 41 e6 be 50 92 60 bf 44 cf bc bc
       -0.10267841 -0.44972113 -0.87723255 -0.02304805
0001d0 c2 0d 04 3f 1a f9 98 3f 4d 6b ed 3e 77 8f 38 bf
       0.5158349 1.195102 0.46370926 -0.7209391
0001e0 9e 96 22 bf 5c 60 cb bc cc 67 5d bf a2 c8 99 3e
       -0.63511074 -0.024826221 -0.86486506 0.30035883
0001f0 5a 33 89 3f fd a7 1e 3f b3 79 f7 3f 6a 01 c7 be
       1.0718796 0.6197508 1.9334015 -0.38868266
000200 e4 ab 68 bf a5 16 be 3b 39 61 6d 3f b7 58 42 bf
       -0.90887284 0.0058010393 0.92726475 -0.7591662
000210 e1 e3 10 bf f2 47 a5 be 8f 3c a3 be 8b 6a fc bd
       -0.56597716 -0.32281452 -0.3188214 -0.12325009
000220 86 26 69 3e 0d 8e 36 bf 8f 02 8f 3f e4 c4 3e 3f
       0.22768602 -0.713105 1.1172656 0.7451918
000230 75 b2 a7 3e 96 4c 80 bf 46 40 25 3e 44 31 cf bf
       0.3275334 -1.0023372 0.161378 -1.618691
000240 b7 52 a1 3e 61 78 86 be 62 34 d0 3d 93 de b3 be
       0.3150842 -0.26263717 0.10166241 -0.35130748
000250 97 9b 80 bf 78 ba 92 bf c8 27 0e bf 19 b2 09 be
       -1.0047482 -1.1463156 -0.5552945 -0.13446845
000260 de df eb be 5d 05 5c bf 5a 77 81 bf 2f 2a 9e bf
       -0.46069235 -0.85945684 -1.0114548 -1.2356623
000270 f1 e8 1f bf 53 39 89 bf 1b 87 48 be c1 88 08 be
       -0.62464815 -1.0720619 -0.19582789 -0.13333417
000280 fc 16 5c bf 00 12 02 bf f1 70 58 bd b6 ee 0c bd
       -0.8597257 -0.50808716 -0.052842084 -0.03440734
000290 1c f1 05 bf 3e ad af 3e 86 c4 bb 3e 42 de cd 3d
       -0.5232103 0.3431186 0.36673373 0.10052158
0002a0 cd 8e 59 3f df 12 b9 3e 22 26 5f be d5 06 01 c0
       0.8498352 0.3614721 -0.2179189 -2.016042
0002b0 d9 38 b0 bf 08 64 51 bf 7c 5a 08 bf 2f aa 13 bf
       -1.3767349 -0.8179326 -0.5326307 -0.57681555
0002c0 31 78 5c be de 23 1b 3e ab 99 c5 be d1 6e c1 be
       -0.21530224 0.15150401 -0.38593802 -0.3777986
0002d0 3d 6c 95 3f 25 13 e6 3e cf d1 c3 be f4 fa 91 3e
       1.1673657 0.4493648 -0.3824601 0.28511775
0002e0 41 63 8b 3e 1f b3 fb be 02 f7 3f bf 90 0f b7 bf
       0.27224162 -0.49160096 -0.7498628 -1.4301624
0002f0 0e af 2d bf 30 82 ea 3c b3 0e ac be b4 d6 6b be
       -0.6784524 0.028626531 -0.33604965 -0.23031121
000300 35 e2 66 bf 37 4f 3d be 46 4b d9 3c 59 fc 91 bf
       -0.90188915 -0.1848725 0.026525151 -1.1405135
000310 ab 8a c7 be b7 30 92 be 50 44 4a bf 8f ec 0e bf
       -0.38972983 -0.2855279 -0.79010487 -0.5582971
000320 b8 b6 fa 3e 05 8d 15 3f ce 40 44 3e d9 ee 19 3f
       0.48967528 0.58418304 0.19165346 0.6013008
000330 b3 b5 af 3f ab 7e 6f be 11 a1 aa bf 13 4b 2d 3f
       1.3727325 -0.23388164 -1.3330404 0.6769268
000340 23 92 dc 3f 98 83 d6 3e e3 6c 93 bf d9 2c 17 bf
       1.7232097 0.41897273 -1.1517605 -0.5905281
000350 f1 52 35 3f 75 4f 5e bf 69 58 1a 3e f0 2f 44 bf
       0.70829684 -0.8683999 0.15072788 -0.76635647
000360 2c 70 30 3e 3c 79 70 be a6 8e 14 be e6 8c 80 3f
       0.1723029 -0.23483747 -0.14507541 1.0042999
000370 85 0e 2c 3d 66 b1 5a bf 45 55 a4 be 31 f4 72 be
       0.042006034 -0.8542694 -0.32096305 -0.23725964
000380 72 2b d7 3f 55 1a 6a 3e 76 f3 71 3e be f0 b5 bc
       1.6810133 0.22861607 0.23628029 -0.022209521
000390 25 ce 59 bf 38 82 88 3e 29 12 f4 be e9 3b c6 be
       -0.85080177 0.2666185 -0.47670105 -0.38717583
0003a0 ab d1 2f 3f de 35 94 3d 63 18 95 be de fa 6c bf
       0.686793 0.07236837 -0.29120168 -0.9257029
0003b0 ac 9f a4 bf 88 a2 f5 3e ae 57 7b bf 06 4b 10 be
       -1.2861228 0.47975564 -0.98180664 -0.14091119
0003c0 96 26 c8 be 05 42 7a 3d 06 f7 ed 3d eb 80 24 3f
       -0.3909194 0.061098117 0.116193816 0.64259213
0003d0 77 ae ae 3e 0a 13 8b 3e dc 67 3e bf 2f 3a c5 3e
       0.3411748 0.27162963 -0.74377227 0.38520953
0003e0 5c d3 91 3e fb 07 95 3d 0e db db 3e 96 45 17 3f
       0.28481567 0.07276913 0.42940563 0.59090555
0003f0 c8 95 25 bf 83 08 3f 3e dd de 89 3e 36 99 15 3f
       -0.64681673 0.1865559 0.26927844 0.58436906

bias f4 [32]
000000 2c b9 6f 3d a3 a7 2d be 69 ae 90 bf 5c b0 4a be
       0.058526203 -0.1695848 -1.1303226 -0.19793838
000010 7a 21 5e be 35 21 31 bf 07 a6 bd 3e 67 ff c3 3d
       -0.21692458 -0.69191295 0.3704073 0.095701985
000020 a0 ea 52 bf 7d 80 af 3e 98 23 8a 3b 3f 69 03 bf
       -0.8238926 0.34277716 0.004215669 -0.5133247
000030 3c 1e b1 be be 43 09 bf 68 0d ad 3d 60 61 0e 3f
       -0.3459338 -0.5361899 0.08449823 0.5561733
000040 9d 9b a3 bf d4 e8 18 3f 4b 5b c1 3e 74 fd 8e be
       -1.2781864 0.5973027 0.37764964 -0.27927744
000050 7f 7e 90 bf 47 4b 6a 3f 96 44 99 3f ca a9 a3 3e
       -1.1288604 0.91521114 1.1974056 0.31965476
000060 ba d6 07 3f b1 b6 cf 3e 38 08 fc 3e 9d 5f 92 bd
       0.5306202 0.4056907 0.4922502 -0.07147143
000070 b2 d4 9c bf 1a d3 8e bf e5 e6 0b bd 6e de 88 be
       -1.225241 -1.1158173 -0.034155745 -0.267322

weight f4 [32]
000000 7f b2 28 3f 31 ec 98 3f 8b 33 89 3f c5 9a 11 3f
       0.65897363 1.194708 1.0718855 0.56876785
000010 b9 3d be 3f a6 31 84 3f b7 f4 10 3f f8 7b 44 3f
       1.4862586 1.0327652 0.56623405 0.7675166
000020 ee 2e 86 3f 60 aa bd 3f 9e bb 28 3f 41 aa bf 3f
       1.0483072 1.4817619 0.6591128 1.4973832
000030 08 1a ab 3f 86 db 03 3f d2 09 be 3f 17 13 63 3f
       1.3367319 0.5150684 1.4846747 0.88701004
000040 54 d9 df 3f 8a a2 b1 3f aa 00 c8 3f ba bb 92 3f
       1.7488198 1.3877728 1.5625203 1.146354
000050 01 3d b0 3f e1 9c c2 3f 57 cc c9 3f bc 70 c7 3f
       1.3768617 1.5204126 1.5765485 1.5581279
000060 57 71 5a 3f 65 2c c9 3f 92 57 c1 3f 63 dd 7d 3f
       0.8532919 1.5716673 1.5104849 0.99165934
000070 b4 56 09 40 f0 a9 66 3f e1 c2 a4 3f 65 df d1 3f
       2.145917 0.90103054 1.2871972 1.63963

bias f4 [32]
000000 fe 68 74 3e d4 fd 9e 3e 90 e8 6c be 37 59 25 3e
       0.23868176 0.3105303 -0.2313559 0.16147314
000010 d1 29 95 bd 40 90 bc bf 93 ea 1f bf 9c 8a 29 bf
       -0.072833665 -1.4731522 -0.62467307 -0.66227126
000020 e1 fc c5 3e db 3d fd bd 4c a8 cf be f2 3f 30 be
       0.38669494 -0.123653136 -0.40558088 -0.17211893
000030 39 0c a7 3e bb 17 8f be 20 67 14 3e 3a e4 d8 3f
       0.32626513 -0.27947792 0.14492464 1.6944649
000040 0c 06 5d bd 62 30 60 bd 92 1a 91 3e 82 01 84 be
       -0.053960845 -0.05473364 0.28340584 -0.257824
000050 ea 2b 8a bd 8f 0f c1 3e 34 be 86 3f be 92 c7 be
       -0.06746657 0.37707183 1.0526795 -0.38979143
000060 0b e5 10 be eb 24 ed be 34 65 af 3e 1c 0d 9a bf
       -0.14149873 -0.4631723 0.342569 -1.2035251
000070 16 9f 82 bf 00 28 b5 bf 5f 89 c8 3e 5c be 4a bf
       -1.0204799 -1.4152832 0.39167306 -0.79196715

running_mean f4 [32]
000000 1e 83 98 c0 33 e2 af c0 73 42 23 c0 14 8f 2c c1
       -4.7660055 -5.496362 -2.5509307 -10.784931
000010 47 63 a0 3e 23 9c ee 40 cf 20 83 40 d3 a4 a6 c0
       0.31325743 7.4565597 4.097755 -5.20762
000020 be a3 f4 c0 fe 78 ab 40 52 7c 72 be 69 65 94 c0
       -7.644988 5.3585196 -0.23680237 -4.637379
000030 dd 99 8a 40 ae 8c d3 3e ca e0 86 40 15 57 6b c0
       4.331282 0.41318268 4.21494 -3.67719
000040 47 26 de c0 8b f1 42 40 1d ac e4 bf 69 34 84 40
       -6.9421725 3.0459926 -1.7865025 4.1313977
000050 ee 9b 36 c0 e8 90 91 c0 28 86 e8 c0 8f 6d b6 3d
       -2.8532672 -4.5489388 -7.2663765 0.089076154
000060 95 e2 a5 c0 d9 9d 2b c0 fb a0 ff c0 50 4e 10 41
       -5.183909 -2.6815093 -7.988401 9.019119
000070 e3 28 8a 40 69 2a 44 40 84 71 16 c0 be 5b 07 40
       4.317491 3.0650885 -2.3506784 2.1149745

running_var f4 [32]
000000 6c 5d c6 42 51 97 cb 41 86 9e 20 42 1a 51 37 42
       99.182465 25.448885 40.154808 45.8292
000010 8e 59 00 42 9f 29 ed 41 bf 42 f2 41 d7 00 91 41
       32.087456 29.645323 30.28259 18.12541
000020 25 26 61 42 ff 87 66 42 1f bd 59 42 21 f0 93 42
       56.28725 57.63281 54.43469 73.969
000030 09 a8 99 42 fc ac 33 42 65 0b 50 42 9a b2 a3 42
       76.82819 44.91893 52.011127 81.84883
000040 4b cb 01 42 3b 3d 5c 42 5c 92 75 42 f6 b7 f7 41
       32.44853 55.059795 61.39293 30.964825
000050 d6 94 47 42 01 72 3b 42 6a 13 40 42 ac 57 ce 41
       49.895348 46.861332 48.01896 25.792809
000060 a3 03 24 42 04 8a a2 42 aa 8c 87 42 dc 43 15 42
       41.00355 81.26956 67.774734 37.31627
000070 de 3d 2b 42 25 91 97 41 6a a3 8e 42 6e 77 12 42
       42.810417 18.945871 71.31917 36.61663

weight f4 [32, 32, 3]
000000 c6 e5 83 3f 10 f6 b2 3e a0 02 24 3f 78 d0 cf bf
       1.0304496 0.34953356 0.64066505 -1.6235495
000010 76 4d b5 3e 36 d5 19 bf 77 cf 6a bf 76 4d da 3e
       0.3541066 -0.6009096 -0.91722816 0.42637223
000020 f3 12 cd be 59 25 bb 3f 25 3b ce 3e 70 80 36 3e
       -0.4005352 1.4620773 0.402795 0.17822433
000030 55 d7 d7 3e 1d 0f 31 3f dc b1 f5 3e 28 85 7d bd
       0.42156473 0.69163686 0.47987258 -0.061894566
000040 95 bd 45 3f 57 c3 d6 3e b0 64 19 bf 7b e9 ba 3e
       0.77242404 0.41945907 -0.5991926 0.36506256
000050 0b 6b fa 3d 1f 7c 98 3f 98 2c 02 3f 53 95 f3 3e
       0.12227448 1.1912879 0.50849295 0.47574863
000060 53 1f c4 bf 47 9f 2f bf bf 74 ad bf e5 be f8 be
       -1.5322059 -0.6860241 -1.3551253 -0.4858314
000070 fb 22 c9 3d 4d aa bf 3d b5 03 ed 3e f8 1f 4c 3c
       0.09821125 0.09358654 0.4629189 0.012458794
000080 f5 06 4d 3e 75 96 dd bf ee 0f c2 be 7f 95 cd bd
       0.20022185 -1.7311541 -0.37902778 -0.1003828
000090 0e 2b 07 3f c2 f9 2d be 1b 99 05 bf 0a b7 45 3f
       0.5280007 -0.16989806 -0.52186745 0.7723242
0000a0 4f 78 f8 3e 39 34 70 3e f8 6e 56 3f 7a cc 1f 3f
       0.48529288 0.23457421 0.83763075 0.6242138
0000b0 81 d0 eb 3d 2d eb 07 c0 c9 e0 72 bf 80 11 cb bf
       0.11514378 -2.123729 -0.94874245 -1.5864716
0000c0 e5 da 9e 3f 9a 88 7f 3d 23 33 d1 be e9 f8 8e be
       1.2410551 0.062386133 -0.40859327 -0.27924278
0000d0 de 5c 4b 3f 47 eb 6b be 50 50 15 c0 89 d1 b2 be
       0.7943858 -0.2303897 -2.333027 -0.34925488
0000e0 da 15 3a bf bf 31 93 bf 0f 50 e6 bf 5b a8 ad bf
       -0.7268959 -1.1499556 -1.7993182 -1.3567003
0000f0 7a 3c 2d bf 92 bf f0 bd d9 fe 09 3d 9a 40 78 bf
       -0.67670405 -0.11755289 0.033690307 -0.96973574
000100 c1 60 f0 3d c2 2f e7 be 05 6d a6 be 32 86 5a bf
       0.11737204 -0.45153624 -0.3250505 -0.85361016
000110 3f e3 ca bf c6 de 9b be 9b 66 6b 3f d1 94 10 bf
       -1.58506 -0.304434 0.9195344 -0.56477076
000120 65 c4 0c be de d0 ad bc 99 f4 ad be e2 77 f1 bf
       -0.13746794 -0.02121776 -0.33975676 -1.886471
000130 0b b3 19 3e 98 52 83 3d 6e 78 1c be 31 4c af 3e
       0.15009706 0.06412238 -0.15280315 0.34237817
000140 1c 38 71 be 70 aa a5 be 3f b0 ee be 44 b9 f9 3d
       -0.2355656 -0.32356596 -0.4661884 0.1219354
000150 32 25 a3 be 27 c9 e5 be 23 85 bc bf 1b c1 ba be
       -0.31864315 -0.4488003 -1.472813 -0.36475453
000160 ef 71 17 be 2c 49 3c 3e 6d ea 29 bf 2d 00 15 3f
       -0.14789556 0.18387288 -0.6637333 0.58203393
000170 77 75 a7 be 09 93 31 3e b5 35 a9 bd d5 c4 53 bf
       -0.32706806 0.17341246 -0.08262197 -0.82722217
000180 db 08 08 3e cc 36 cc 3e 35 36 1e 3f 16 14 da 3e
       0.13284628 0.39885557 0.61801463 0.4259345
000190 17 fc 15 bf 99 71 8b bf 3c 96 d3 bc ad a9 d7 bf
       -0.58587784 -1.0894042 -0.025828473 -1.6848656
0001a0 c8 70 99 bf 2e e8 4f bf 13 ce 4c 3d 3e f7 31 be
       -1.1987543 -0.81213653 0.050001215 -0.17379472
0001b0 6a b2 c3 3e 36 22 57 be 3a f1 1d be b2 88 26 bf
       0.38222057 -0.21009144 -0.15424052 -0.6505233
0001c0 22 b3 3c bf f3 8a 34 3f a8 8f 82 be 93 03 2b bf
       -0.73710835 0.7052452 -0.25500226 -0.6680233
0001d0 d8 f1 50 bf fd ec d2 b9 a5 26 73 3d e5 37 c2 be
       -0.81619024 -0.0004023089 0.059363026 -0.3793327
0001e0 19 01 af 3e 29 35 93 be 0d 0d 3a bf 34 a7 09 3f
       0.34180525 -0.28751495 -0.72676164 0.53770757
0001f0 1d 74 a7 3e b5 76 5e bf 8d d4 84 bf 3e e5 a0 be
       0.32705775 -0.8689988 -1.0377365 -0.31424898
000200 c8 40 0f 3f 37 ef d0 3e 8c 6e 86 be 73 b3 84 bf
       0.55958223 0.40807506 -0.26256216 -1.0367264
000210 8b f6 09 c0 19 f3 c1 be cf 2f 9d 3f ac 6f 4a bd
       -2.1556728 -0.3788078 1.2280215 -0.049422905
000220 45 d0 03 3c e4 07 21 3e 82 12 b9 bf d4 29 02 be
       0.008045261 0.15725666 -1.4458773 -0.12711269
000230 cc 28 2d 3f 98 cd f3 be d1 75 63 bf 39 97 c9 bd
       0.67640376 -0.47617793 -0.8885165 -0.098432966
000240 5a 9b 02 be b4 8e 89 bc bd a5 07 3f ca 94 d2 bd
       -0.12754574 -0.016791679 0.5298727 -0.102822855
000250 39 3e c5 bf 96 48 f9 3e e3 a5 35 3f 8e 5f 74 be
       -1.5409614 0.4868819 0.7095625 -0.23864576
000260 7c d0 2e bf c2 77 8a bd 7b 05 99 be af ee f7 be
       -0.6828687 -0.06761123 -0.29886994 -0.4842429
000270 3e bf de 3f 73 c4 1a 3f c2 8d 1f bf 67 8b 6d 3f
       1.7402112 0.6045601 -0.6232568 0.92790836
000280 48 68 67 3d 96 ff c6 bf 62 41 28 bd 2a fd 16 bf
       0.056495935 -1.5546749 -0.04107798 -0.5898005
000290 ae 8e 8c bf 5c a8 2f bf 2e 4d 99 bf d1 49 7f bf
       -1.0981042 -0.6861627 -1.1976678 -0.9972201
0002a0 02 08 74 3f ed 5e eb 3e 4f f5 bc be 13 28 80 3f
       0.9532472 0.4597086 -0.36905906 1.001223
0002b0 15 b4 01 bf e1 40 38 3d aa 64 3c 3f 69 cd a7 be
       -0.5066541 0.04498375 0.735911 -0.32773903
0002c0 97 b7 b0 bf 09 e7 0b bf 01 3b dc 3e 00 6f a8 3e
       -1.3806027 -0.54649407 0.43013766 0.32897186
0002d0 81 d8 11 c0 e8 0a c7 bf 4d ad f4 bd 15 fa ee be
       -2.2788393 -1.5550203 -0.11947117 -0.46675172
0002e0 7a ab 91 3e 65 11 cc be f4 89 f3 be 68 c6 91 bf
       0.2845114 -0.3985702 -0.47566187 -1.1388674
0002f0 37 2e aa bf 73 f3 d2 be b6 21 6c bf 9a 16 2b 3f
       -1.3295354 -0.41201362 -0.9223894 0.6683136
000300 16 d5 b5 bd 7a b9 51 3e d6 ad 81 3e bb c2 05 bf
       -0.088785335 0.2048091 0.2532794 -0.5225026
000310 eb b6 02 bf 3b 33 f4 be c8 53 2e bf 8d 84 d6 be
       -0.5106036 -0.47695336 -0.6809659 -0.41898003
000320 a5 e3 8d be d3 e0 28 3f 4a 77 a8 3e b8 3a 12 3f
       -0.27712741 0.65968055 0.3290351 0.5712085
000330 d8 4b 63 bd 19 27 6e bd 83 24 23 3f 99 fe 21 3e
       -0.055492252 -0.058142755 0.6372759 0.15819778
000340 30 9d cc 3e 52 27 3c bf 11 69 4a 3e 1f ec c6 3e
       0.39963675 -0.734975 0.19766642 0.3885202
000350 1a 68 36 bc a2 06 4e 3e 52 9e b5 be a8 de 04 3e
       -0.011133218 0.20119718 -0.3547235 0.12975562
000360 92 dc 6f bf 8e 3e 58 3d 8a ed 93 3d 1b 9e bf be
       -0.9369594 0.05279403 0.07223041 -0.37425312
000370 27 22 32 3f ef 70 b3 3f 22 94 31 3f a1 0b 03 bf
       0.6958336 1.401884 0.6936666 -0.5118962
000380 58 8a 26 3f 63 c4 e9 3e 60 3d 35 3f a7 27 15 3f
       0.65054846 0.45657644 0.70796776 0.5826363
000390 d3 9a 98 3f fc 89 01 bf db d3 20 3f 41 df 81 3e
       1.1922249 -0.5060117 0.62823266 0.25365642
0003a0 4b 74 34 be 7a ed bc 3f 12 81 21 3f 7b 2b 4a be
       -0.17622487 1.4759972 0.6308757 -0.19743149
0003b0 25 a3 90 3f 11 59 9a 3d 7d ab fd 3e 2a 2c 00 3f
       1.1299788 0.07536519 0.49544898 0.5006739
0003c0 3a e1 16 3f 27 65 b0 be 28 9c 8e 3f 56 15 98 3e
       0.5893742 -0.34452173 1.1141405 0.29703778
0003d0 a0 bc 85 3d e2 96 02 be 83 1d 58 3e 70 65 6c 3f
       0.06530118 -0.1275287 0.21105008 0.9234228
0003e0 8a ea e6 3e 5a 56 d0 3d 8b a8 f0 bd d5 da e1 be
       0.45100814 0.1017272 -0.11750897 -0.44112268
0003f0 a6 70 91 3c 8f a5 48 be b8 43 30 bf 09 12 93 3e
       0.01775391 -0.19594406 -0.6885333 0.28724697

bias f4 [32]
000000 6b f4 7d be d1 34 8d 3d d8 4d 6e be ee 4e 78 3e
       -0.2480027 0.068948396 -0.23271883 0.2424886
000010 c1 3b de bd 82 07 87 bd b5 37 7d bf 14 f8 c6 bc
       -0.10851241 -0.06593229 -0.9891313 -0.024288215
000020 ae c8 b8 be 5c ca fc 3d ff 91 e6 bd d1 1e 50 bf
       -0.36090606 0.123432845 -0.11258315 -0.8129702
000030 36 07 91 be e0 8e d4 3e e9 0c c2 3e 2a 19 80 3e
       -0.28325814 0.41515255 0.37900475 0.250192
000040 3a 19 fc 3d d9 c5 46 be bf 61 59 bb aa 7b d3 3e
       0.12309499 -0.1941141 -0.0033169833 0.41305286
000050 d9 6e 51 bf 8f d1 00 bf de d2 1b 3e 6b 45 17 3e
       -0.81809765 -0.5031976 0.15217158 0.14772575
000060 74 56 e6 3b 5a a7 eb 3e a7 26 a6 3e 63 5a fd 3e
       0.007029349 0.46026117 0.32451364 0.49483022
000070 3b 20 f0 bc 0e 4e 3a bf 1a 1a bb be e4 e4 65 bc
       -0.029312244 -0.7277535 -0.3654335 -0.014031623

weight f4 [32]
000000 1b 5a 95 3f 6c d3 77 3f a7 4e 81 3f e9 8e 85 3f
       1.1668123 0.9680698 1.0102128 1.0434238
000010 c0 2e b8 3f ff 87 8e 3f e2 27 6a 3f ad c8 e3 3f
       1.4389267 1.1135253 0.91467106 1.7795616
000020 a2 6f 8a 3f a0 92 df 3f 5a 8a 71 3f cb 7c b3 3f
       1.0815318 1.7466621 0.9435173 1.4022459
000030 f7 0d b7 3f fa 77 89 3f 08 bb af 3f e1 cf 6b 3f
       1.4301137 1.0739739 1.3728952 0.92114073
000040 27 22 9b 3f d8 af a6 3f 26 5a 7d 3f 76 c9 66 3f
       1.2119797 1.3022413 0.9896568 0.90151155
000050 eb 88 78 3f a0 ab aa 3f 52 6e dd 3f c5 8c fa 3e
       0.9708392 1.3333626 1.7299292 0.48935524
000060 a5 97 6f 3f 8f 74 bf 3f 13 1f e3 3f 56 fd c5 3f
       0.93590766 1.4957446 1.7743858 1.5467937
000070 3c a2 07 3f 26 75 8b 3f 7b 0f ca 3f e7 fc ee 3f
       0.52981925 1.0895126 1.5785974 1.867093

bias f4 [32]
000000 2b fc 69 3f e5 09 e8 39 50 42 a8 bf 35 d8 2d 3f
       0.914004 0.0004425786 -1.3145237 0.6790803
000010 ca 1f 43 3f 1d 77 81 be a8 59 93 bf 04 6c 98 3f
       0.7622038 -0.2528619 -1.1511736 1.1907964
000020 35 0b ec be 1b ab 65 be 48 4a b8 3f f3 66 15 bf
       -0.461023 -0.22428553 1.4397669 -0.58360213
000030 82 f3 a7 3e 6e df c6 be f3 c2 61 3f a8 5b 76 bf
       0.3280297 -0.38842338 0.88188094 -0.96233606
000040 8d 44 0b bf 14 13 2c bf 58 ab 80 bf e9 3b 03 bf
       -0.54401475 -0.6721661 -1.005229 -0.5126329
000050 24 bc e9 bd ce 47 46 bf 9f a5 42 bc ff e7 e2 bf
       -0.11412838 -0.77453315 -0.011880307 -1.772705
000060 47 85 91 bf 94 cb 8a be 5f e1 8b 3f 72 41 2c 3e
       -1.1368798 -0.27108443 1.0928153 0.1682184
000070 b5 02 39 be 51 ab 65 bf 2d b6 f9 be 3c b0 60 be
       -0.18067439 -0.89714533 -0.48771802 -0.21942228

running_mean f4 [32]
000000 e4 7b b8 c1 a8 4b 8b c1 a3 4d 8d 41 78 a9 66 c1
       -23.060493 -17.411942 17.662909 -14.416374
000010 ea 64 3e c0 8f 0a 31 c1 ff ee 6f 41 cc 85 1c c1
       -2.9749093 -11.065078 14.995849 -9.782665
000020 39 dd ca c1 03 2e 1b 3f f7 05 54 c1 2e 4a 3c be
       -25.358019 0.60617083 -13.251456 -0.18387672
000030 92 31 98 c1 3a 94 43 c1 bb 0e 10 c1 fd f9 9e 41
       -19.024204 -12.223688 -9.003596 19.872065
000040 0b 8f da 3f 93 50 8e c1 2b 6b fd 40 c2 51 ac 3f
       1.7074903 -17.789343 7.919332 1.346245
000050 f1 7d 5f be 65 25 96 c0 a2 75 e5 40 7d ca 84 c0
       -0.21825387 -4.692065 7.1706095 -4.149718
000060 c7 a1 51 3f 7a 3d a2 40 d3 4c 7b c1 df 65 0b c1
       0.8188748 5.0700045 -15.706256 -8.712371
000070 f6 e3 b0 40 c2 ee 9e 40 92 5b bd c1 65 17 a4 40
       5.5278273 4.9666452 -23.669712 5.127856

running_var f4 [32]
000000 bb 89 f1 42 73 3e d7 43 6f 4e e7 42 98 5a cf 42
       120.769005 430.48788 115.65319 103.67694
000010 66 3a 86 43 2b 0b 4e 43 c1 5c bb 42 1c 51 06 43
       268.45624 206.04362 93.68116 134.31683
000020 c1 fe 3d 43 bd ec 17 43 06 83 97 43 49 f0 fd 42
       189.99513 151.92476 303.02362 126.96931
000030 62 ec cc 43 d1 2f 97 43 22 6a 8b 43 f1 3e ca 42
       409.84674 302.37357 278.82916 101.12293
000040 97 53 04 43 04 89 1d 43 25 ca df 42 55 d5 20 43
       132.32652 157.53522 111.89481 160.83333
000050 a0 74 31 43 21 d1 2c 43 f1 d8 05 43 57 0d a6 42
       177.45557 172.81691 133.84743 83.026054
000060 38 6d 0d 43 a2 40 e3 42 3a 93 d3 43 43 ae 01 43
       141.42664 113.626236 423.1502 129.68071
000070 7d d3 4b 43 00 06 ef 42 6f 7c 37 43 ed 2a 20 43
       203.82613 119.51172 183.48607 160.16768

weight f4 [64, 32, 3]
000000 ab 0f a4 bf 68 96 3b bf aa f5 86 bf 0b 45 e4 3f
       -1.2817281 -0.73276377 -1.0543721 1.783357
000010 a3 04 6f 3e b5 b9 26 3f db 6c 89 3f 22 b3 4a 3f
       0.23341613 0.65127116 1.0736345 0.79179585
000020 9f e7 96 bf e8 d6 6d bf 09 70 6b bf c3 8b c0 bc
       -1.1789435 -0.92906046 -0.9196783 -0.023504144
000030 12 be c2 bf 66 a6 ee bf 9a 87 8e bf c2 a9 08 3f
       -1.5214255 -1.8644531 -1.1135132 0.5338403
000040 29 b6 06 bf 99 6d 80 bf 48 9a 67 3e 54 00 f2 3e
       -0.52621704 -1.0033447 0.22617447 0.47265875
000050 1f 42 ac bc e4 85 43 c0 b9 56 7a be 38 5f b5 bf
       -0.021027623 -3.055047 -0.24447145 -1.4169683
000060 e5 ef 7a bf 58 65 0e bf 62 56 34 3f 9c 24 0f 3f
       -0.980223 -0.5562339 0.7044431 0.55915236
000070 1d 38 9f bf 2d 5c 86 be 69 5a 68 bc f0 a7 ce 3e
       -1.2439 -0.262422 -0.014181712 0.403625
000080 97 a3 80 3f 16 79 8d 3f 7b ef c5 be 8d e1 1d be
       1.0049924 1.1052577 -0.38659272 -0.15418072
000090 18 f6 bd 3e 63 95 fd be 5f d4 f1 3e 84 49 ef be
       0.37101817 -0.49528036 0.4723234 -0.46735775
0000a0 06 37 54 be 33 af 1e 3f 8e 15 0c bf 0f 12 d5 3e
       -0.20724115 0.6198608 -0.5472039 0.4161534
0000b0 9f 5a 2d 3e 2e cf 3e 3f 8e 18 7a 3f cd 31 5a 3d
       0.169291 0.7453488 0.9769372 0.05327015
0000c0 18 49 4f 3f c3 65 59 bf f8 d6 01 be 01 ec 20 3f
       0.8097091 -0.849209 -0.1267966 0.62860113
0000d0 d4 9c a7 be 8b 63 94 3f 52 83 98 3e e5 2f 3e be
       -0.32736838 1.1592878 0.2978769 -0.18572958
0000e0 c5 09 73 3f ee 03 a5 3e 1a 2c 50 be f0 42 39 bf
       0.9493678 0.3222956 -0.20329323 -0.72367764
0000f0 4f b2 00 bf 36 3b 0f bf ba af de 3e 92 39 18 3e
       -0.5027208 -0.55949724 0.43493444 0.14865711
000100 ac e7 ce bd e4 3d 1e bf fa 16 2a be 91 9f ff 3d
       -0.10102782 -0.6181319 -0.16610327 0.12481607
000110 bd 99 79 bf 3b 45 d7 3e ff fa 14 bf 56 4b b3 be
       -0.9750021 0.42045006 -0.5819549 -0.35018414
000120 f5 c2 20 3e bb 16 df bd 98 73 15 bf 18 52 db 3f
       0.1569937 -0.10893007 -0.5837951 1.7134428
000130 4a af ed 3e a5 36 2b 3f fb e0 ac bf bd 95 bb 3e
       0.46422797 0.66880256 -1.3506159 0.3663768
000140 a7 ae c4 3f 8c 20 54 3e f7 3d 81 3e 5c 15 c9 be
       1.53658 0.2071554 0.25242588 -0.39274108
000150 0a 46 7e 3f ec ca f3 be fa fc 94 bf b0 1d d5 bd
       0.9932562 -0.47615755 -1.1639702 -0.10406053
000160 b5 33 00 3f 3f cc 23 3f 1f 14 04 c0 b5 dd 87 3e
       0.500789 0.6398353 -2.063728 0.26536337
000170 36 e5 c5 3f 2a 14 fe be 19 64 89 3e 1a e8 4c bf
       1.5460575 -0.4962476 0.2683418 -0.8004166
000180 66 79 87 bf 2d b0 7d bd b4 47 a8 bf a3 b8 68 3f
       -1.0583923 -0.061935592 -1.3146882 0.90906733
000190 bc d5 32 be 3f 1c f5 bd ff 3d 82 bd 89 00 25 3e
       -0.17464346 -0.11968278 -0.06359481 0.16113485
0001a0 25 35 19 bf 27 4c 55 bf f4 40 1f bf c2 53 2b bd
       -0.5984672 -0.83319324 -0.62208486 -0.041827925
0001b0 32 6d 5e bf 3c ab 12 bf ea 90 a4 bd 07 ee c5 3e
       -0.8688537 -0.5729253 -0.08035453 0.38658163
0001c0 bf 3c 2a bf 77 23 93 3f 13 d6 cb bc 63 62 9f bd
       -0.6649894 1.1495198 -0.024882352 -0.07782438
0001d0 07 d5 c3 be 2b 86 56 3e b7 e3 83 be 2a e3 ab bf
       -0.38248464 0.20949619 -0.2575967 -1.34287
0001e0 d2 f7 24 3d e8 af 67 be 8d 1f a4 be 62 56 42 bf
       0.040275402 -0.22625697 -0.3205532 -0.7591306
0001f0 37 f5 e7 3e b3 76 a4 be 22 3a 36 bc 9c 10 93 3e
       0.45304272 -0.3212181 -0.011122258 0.2872361
000200 00 ba 7b 3f 95 91 09 40 e2 a7 06 bf 77 30 f1 bf
       0.9833069 2.1495106 -0.5259992 -1.8842915
000210 5e c0 42 3f c1 55 72 be 0b 76 42 be 70 64 7b bf
       0.7607478 -0.23665525 -0.18990342 -0.9820013
000220 a8 e7 28 bf b7 a0 03 bf 0d b5 f4 3b f3 a0 84 be
       -0.6597848 -0.51417106 0.007467872 -0.25904045
000230 91 35 f9 be 55 6c 3a be 83 9b 8c 3e 6b 85 7f be
       -0.4867368 -0.18205388 0.27462396 -0.24953239
000240 03 6d 09 40 6c 50 9e bf bf 5e c7 bf 66 24 2b 3e
       2.1472785 -1.2368293 -1.5575789 0.16713104
000250 3e d4 33 3f 44 d3 82 3f d4 75 88 3e 09 8c a6 3d
       0.7024573 1.0220723 0.26652396 0.08132178
000260 44 99 e6 3e ea dd 85 3f 49 1d 01 bf 9e 97 66 bf
       0.45038807 1.0458348 -0.5043531 -0.900751
000270 da 49 0d 3e 21 fd 99 3e d1 d3 8f 3e 3f 58 b7 be
       0.13797703 0.30075935 0.2809129 -0.35809514
000280 6a a7 67 3d 26 72 14 3d 4f ba bc be 8b ad b9 be
       0.056556143 0.036241673 -0.36860892 -0.36265215
000290 bf 8f 16 bf 10 1c d2 3e 4b 5f 04 bd 7e 77 05 bf
       -0.5881309 0.41037035 -0.03231744 -0.52135456
0002a0 1f 1d 83 3e 6f e7 9f 3d c6 eb 3b bf 5b 4a be 3f
       0.25608155 0.07807814 -0.73406637 1.4866441
0002b0 4f 2d f6 3e 79 05 f4 3d 93 2a 1f be 4f 46 0a be
       0.48081443 0.11915106 -0.15543585 -0.13503383
0002c0 81 2f 73 3f 18 89 97 be dd b6 a2 3c db e9 2e be
       0.9499436 -0.29596782 0.019862587 -0.17081396
0002d0 b0 41 01 3b 86 20 87 be 21 a1 92 be bc 3f bc 3e
       0.001972299 -0.26392 -0.28638557 0.36767375
0002e0 c2 12 82 3e 68 dd 7e 3e 8b 15 9b 3e e8 42 09 bf
       0.25404936 0.24889147 0.30289873 -0.53617716
0002f0 58 fd 95 3f 0b 54 98 be f0 66 c3 be 06 88 64 be
       1.1717939 -0.2975162 -0.38164473 -0.22317514
000300 df 4e d4 3f bd 04 8b 3f 7d ce d3 3e 3c d3 43 bf
       1.658657 1.0860821 0.41368476 -0.76494193
000310 99 63 58 3d 93 57 80 bf bd 36 be bd 29 b4 a3 3e
       0.05282936 -1.0026726 -0.09287784 0.3197339
000320 c3 84 17 bf 04 46 a6 be b5 a6 38 bf 62 0b b0 3e
       -0.59186953 -0.32475293 -0.72129375 0.34383684
000330 8c de a1 be 04 5d 01 bf 7b 7b 71 bf 53 71 2f be
       -0.31615102 -0.50532556 -0.9432904 -0.17133074
000340 4f 3f 8f bf 49 41 d9 3d 3f 84 d0 be 52 2a 34 3d
       -1.1191195 0.10608155 -0.40725896 0.043985672
000350 f4 55 d6 be 34 b0 2e 3f 32 e3 ab be fc b8 e3 3e
       -0.41862452 0.68237615 -0.33571774 0.4447707
000360 7e 49 5e 3f 98 5b a2 3f 21 8c b1 be c9 0f 8c 3e
       0.8683089 1.2684202 -0.34677222 0.27355793
000370 65 ff e6 bd f2 5e 8d be b5 11 eb bf 2c d3 10 bf
       -0.112791814 -0.276115 -1.8364779 -0.5657222
000380 91 d4 fe bf 25 c6 4c 3f 6e 02 c5 3e e4 9a 2b bf
       -1.990862 0.79989845 0.38478416 -0.6703322
000390 a5 6e a8 3e ee 67 51 3f 45 78 bd be c3 56 67 3e
       0.32896915 0.8179921 -0.3700582 0.2259169
0003a0 f0 5f 9a 3e c6 11 e1 be 81 d1 e5 bf 8b 12 1b be
       0.3015132 -0.43958873 -1.795456 -0.15143792
0003b0 6b a6 19 bf ee a1 76 bd eb a1 4d 3e 41 77 04 bf
       -0.6001956 -0.060213022 0.20081298 -0.5174447
0003c0 e0 16 3f 3f b0 df ea 3e 62 5b 00 bf fe 5e 83 3f
       0.7464428 0.45873785 -0.5013944 1.0263364
0003d0 d3 0c 05 3f db cd 71 bf e6 12 25 3e 65 93 8e be
       0.51972693 -0.94454736 0.1612049 -0.27846828
0003e0 b7 e4 a4 be c6 50 da 3e f8 b1 96 be b2 ba 7d be
       -0.32205746 0.4263975 -0.29432654 -0.2477825
0003f0 52 fb 3c 3f f3 64 b5 be 95 3a cb bd 19 a6 6c 3f
       0.73820984 -0.3542858 -0.09923283 0.92440945

bias f4 [64]
000000 b7 2b 20 bd 2c 65 e3 3e be 32 dd 3d 26 bd 8c 3f
       -0.03910419 0.44413126 0.10800694 1.0995224
000010 93 1c ea bc db 46 7e 3e 9a 2c 32 3e 47 81 10 3e
       -0.028578078 0.24831717 0.17399827 0.14111815
000020 bd d1 f0 bc 25 bb 23 3f 22 82 15 3f 26 17 69 be
       -0.029396886 0.63957435 0.5840169 -0.22762737
000030 f8 55 d0 be bc e4 59 bd 64 5c 84 bd 4d a2 94 3f
       -0.4069059 -0.053196654 -0.064629346 1.161203
000040 bd 44 05 3f 28 36 43 be 23 1d 37 bd c2 ee 23 3e
       0.5205801 -0.19063628 -0.04470552 0.16009048
000050 11 98 96 be a0 ec 47 3e f7 4f a6 be d1 5c 82 3e
       -0.29412892 0.19523859 -0.32482883 0.25461438
000060 a7 b6 0c bf 77 a2 26 3f a7 0d a3 be 9b ea a4 bc
       -0.54966205 0.6509165 -0.31846353 -0.0201314
000070 73 a2 36 3e 27 a0 74 bd fc c9 ce bd 01 d0 cc be
       0.17835407 -0.059723046 -0.10097119 -0.40002444
000080 c3 0f c2 be 85 7e 38 be 21 6b b9 be 30 8a a7 be
       -0.3790265 -0.18017013 -0.36214545 -0.32722616
000090 a4 61 85 be 5e 89 bd 3e 6f 44 9e bf 70 7d 47 bf
       -0.26051056 0.37018865 -1.2364634 -0.7792578
0000a0 ce 92 9a 3e 59 d4 65 3f 70 8a 0b bf 70 88 91 3e
       0.30190128 0.8977714 -0.54508114 0.28424406
0000b0 0a b7 cf bd 3f bd 79 bd 02 41 63 3f dd d5 ed be
       -0.10142334 -0.060971495 0.8877107 -0.46452227
0000c0 46 b0 33 bf 0d b1 7a 3d 94 3b 7c 3d 2a e2 94 3d
       -0.70190847 0.061204005 0.061580256 0.072697
0000d0 7f 79 8c be 89 1e 88 3e ae 6b 42 be df fb 77 bd
       -0.27436444 0.26585796 -0.18986389 -0.060542937
0000e0 2c 5d fd 3e fe 0e d2 bd a5 0d 7b 3e 4a 2a d2 3e
       0.49485147 -0.10256766 0.24516924 0.4104789
0000f0 ff db 85 3f 57 a9 0d bf 97 c0 a8 3e c1 9e 28 be
       1.0457762 -0.5533652 0.32959434 -0.1646681
