unet/checkpoints/one_loss/epoch_30.pth (torch, 508787 bytes, 85 tensors)

weight f4 [8, 1, 3]
-0.63664067 -1.0834459 1.3031119 -1.0239702 -2.1451643 0.02200444 0.73841953 0.10216818
-3.6071262 0.15766135 0.36394095 2.7777078 -0.6208453 -1.2998664 -1.1735628 -1.6875747
-0.2258145 -1.1101141 1.2343155 -1.1664633 -0.005540292 2.095731 0.41233662 0.65703696
00000000: e2fa 22bf 5bae 8abf 5fcc a63f 7511 83bf
00000010: 5f4a 09c0 a842 b43c 1009 3d3f 8d3d d13d
00000020: 28db 66c0 fa71 213e 7856 ba3e f7c5 3140
00000030: b8ef 1ebf 0662 a6bf 4e37 96bf 7302 d8bf
00000040: eb3b 67be 3818 8ebf 0dfe 9d3f ab4e 95bf
00000050: 568b b5bb 7520 0640 c91d d33e 9333 283f

bias f4 [8]
-0.2864283 0.09740685 0.179096 0.26537296 -0.40172032 0.14281133 0.012315215 -0.6146853
00000000: bba6 92be 3e7d c73d f164 373e f7de 873e
00000010: 49ae cdbe 223d 123e c1c5 493c 045c 1dbf

weight f4 [8]
1.1817844 1.3100331 1.8706236 1.9312123 2.0224957 1.5376775 1.0864555 1.968667
00000000: b644 973f 2aaf a73f 9870 ef3f f731 f73f
00000010: 9270 0140 9ed2 c43f f910 8b3f 48fd fb3f

bias f4 [8]
1.3201797 -0.25207502 -0.7083518 0.6008794 0.19499157 -0.30743423 0.5208681 -0.27951592
00000000: a6fb a83f fa0f 81be 8b56 35bf 3bd3 193f
00000010: dfab 473e 0568 9dbe 9d57 053f b61c 8fbe

running_mean f4 [8]
-0.2671277 0.12491898 0.15557383 0.2620674 -0.38677916 0.18577757 -0.020764565 -0.672438
00000000: f6c4 88be 86d5 ff3d bf4e 1f3e b32d 863e
00000010: eb07 c6be 7a3c 3e3e 731a aabc e624 2cbf

running_var f4 [8]
83199.96 627553.06 688112.7 720942.8 559454.56 543343.6 60369.254 612889.1
00000000: fb7f a247 1136 1949 0bff 2749 ed02 3049
00000010: e995 0849 faa6 0449 41d1 6b47 92a1 1549

weight f4 [16, 8, 3]
-0.8300196 -0.0965307 -1.7219571 0.9779396 -1.7813619 -0.64133954 -0.9251047 -0.3402704
-0.005542962 -0.28326315 0.6987298 -0.70004904 -0.9039026 -2.2771146 -0.27744845 -2.9726686
0.117212065 -1.3788632 0.5057853 0.12628263 -0.49085292 0.079078004 0.64266825 -0.7095396
1.9355317 -2.4233027 0.45581877 0.039641086 -0.4588661 0.40858752 -0.48286232 0.26373884
-0.644924 0.944463 -0.7054277 -1.1382494 -0.3663391 0.6440575 -0.27605155 -0.5649975
0.43176296 -0.90563977 -0.2662359 -0.83016694 1.7816074 -0.67409915 -1.3832915 0.6111482
-0.3188018 -0.68210644 0.098085485 -1.1081384 -0.1109762 0.04332936 0.98497814 0.4346191
1.2557771 1.07545 1.5029764 1.6884044 -0.96925646 -0.39665887 -0.23291026 -0.5402759
-0.99044645 0.4816357 0.095657885 -0.21063219 -0.6387845 0.61093706 1.189181 1.4038379
-1.3052353 0.13680734 -1.3811208 -0.1808272 0.18178 0.30129692 -0.14570335 0.042307984
2.9464254 -0.09352472 -0.6582513 -1.0751115 -0.023495078 0.14977288 2.4357662 0.5089809
-0.8095832 1.7621188 0.24955621 0.6403274 -0.063649856 0.991745 -1.2135197 -0.110914305
1.0023069 -1.0255911 -0.96381533 0.33374786 -0.6949483 -0.5509631 0.64180684 -0.56734806
-0.29402447 1.4345686 0.091630414 -1.7880251 -1.0416242 -0.9631803 -0.8461696 0.47152224
-0.69724584 0.5525529 -0.23797497 0.6449802 0.085208245 0.46169358 1.4704543 -0.51836854
0.38678744 -0.9025857 0.25246358 -1.045872 -0.9152625 0.6397645 -0.37779272 1.5925121
0.44024885 0.9042618 0.4123438 1.1129603 -0.71300673 -0.22609289 0.4315661 0.36723074
-0.21678108 0.28863084 -1.1024858 -0.6671711 1.7927631 -1.4400741 0.070275575 1.6074785
-1.4666723 -0.64324385 0.2676784 -2.1203117 0.52815425 0.79032844 0.725201 0.9183474
-0.5149083 0.49942592 -0.5461888 -0.22548814 -0.38759872 0.6395507 0.08620697 -0.1365082
-0.927725 0.76618093 -2.3856447 2.7334085 0.47749743 0.8300807 0.5010417 -0.26063675
1.9186306 -0.15224518 -1.4156196 0.95319635 -0.7055097 -1.3343408 -1.7193197 -1.5871863
-0.050162394 -0.124791004 -0.059912525 0.84047705 0.24410605 -0.5442817 -1.1716484 -0.02528146
0.96065855 -0.718197 -0.94704795 -1.4777678 -0.052624613 -1.7021623 0.19164844 1.0642778
0.6012751 -1.8060552 0.31880778 0.18543485 -1.3742876 -0.6589719 -1.8297037 0.14732523
-1.3526362 0.37487426 -0.9697424 1.152809 -0.11933343 -0.6863999 -0.3352118 -0.9604696
0.14991428 -1.5512176 0.15297177 -0.7559964 0.5717977 -0.009309268 -1.1943523 0.75155866
0.78169835 -0.36238492 0.68641984 -0.014588598 0.5262941 0.3039634 1.2893203 0.4991806
-2.5314398 0.6634354 2.0238354 0.49032107 0.53518164 0.5749065 -1.0720398 1.2146019
-0.20725603 -0.30083555 0.07959818 0.07242885 -1.7507124 0.6091 1.3900428 0.69761485
1.7665569 1.2097291 0.71396387 2.0891662 0.16219576 -0.6712704 -0.587761 -0.7907872
-0.77078444 -0.9805045 -0.97863823 0.78833014 1.1655468 0.544995 -0.52344096 2.1379373
00000000: 2a7c 54bf e3b1 c5bd 1769 dcbf 405a 7a3f
00000010: ab03 e4bf d42e 24bf a9d3 6cbf ec37 aebe
00000020: bca1 b5bb de07 91be f5df 323f 6a36 33bf
00000030: 2966 67bf 3fbc 11c0 b90d 8ebe 3440 3ec0
00000040: e10c f03d 977e b0bf 257b 013f 3c50 013e
00000050: 1351 fbbe a6f3 a13d e885 243f 63a4 35bf
00000060: 81bf f73f 6417 1bc0 1461 e93e b15e 223d
00000070: 7ff0 eabe 6232 d13e bb39 f7be c708 873e
00000080: bd19 25bf 54c8 713f e996 34bf 28b2 91bf
00000090: cc90 bbbe f4e0 243f a156 8dbe ada3 10bf
000000a0: 0910 dd3e 02d8 67bf 1250 88be d285 54bf
000000b0: b60b e43f c391 2cbf b20f b1bf 3574 1c3f
000000c0: fd39 a3be 879e 2ebf 0be1 c83d 7bd7 8dbf
000000d0: 7d47 e3bd 217a 313d 8727 7c3f 6586 de3e
000000e0: 4ebd a03f 58a8 893f 8861 c03f a31d d83f
000000f0: 3121 78bf df16 cbbe 0780 6ebe 854f 0abf
00000100: e68d 7dbf f498 f63e 48e8 c33d f7af 57be
00000110: 6287 23bf 5f66 1c3f 1537 983f f6b0 b33f
00000120: f311 a7bf 3917 0c3e 91c8 b0bf c42a 39be
00000130: 8924 3a3e 9743 9a3e 4233 15be 234b 2d3d
00000140: 3c92 3c40 e389 bfbd 2883 28bf 419d 89bf
00000150: c078 c0bc 105e 193e 98e3 1b40 924c 023f
00000160: d840 4fbf 1c8d e13f aa8b 7f3e 7fec 233f
00000170: db5a 82bd 00e3 7d3f 9d54 9bbf 0a27 e3bd
00000180: 984b 803f 9246 83bf 9abc 76bf 00e1 aa3e
00000190: 22e8 31bf eb0b 0dbf 744d 243f b93d 11bf
000001a0: 608a 96be f29f b73f baa8 bb3d 02de e4bf
000001b0: f153 85bf fc92 76bf 929e 58bf 5d6b f13e
000001c0: b47e 32bf 1b74 0d3f b6af 73be 6c1d 253f
000001d0: a981 ae3d 1a63 ec3e d937 bc3f cdb3 04bf
000001e0: 0109 c63e db0f 67bf e842 813e 22df 85bf
000001f0: a54e 6abf 9bc7 233f 0c6e c1be 70d7 cb3f
00000200: 4c68 e13e b47d 673f ba1e d33e 7c75 8e3f
00000210: 9c87 36bf e584 67be 3bf6 dc3e ab05 bc3e
00000220: dcfb 5dbe 6cc7 933e 411e 8dbf bacb 2abf
00000230: 4379 e53f 5954 b8bf a4ec 8f3d dbc1 cd3f
00000240: ebbb bbbf a1ab 24bf 250d 893e 30b3 07c0
00000250: 1e35 073f f752 4a3f c6a6 393f d118 6b3f
00000260: 08d1 03bf c1b4 ff3e 07d3 0bbf 5de6 66be
00000270: 5773 c6be 98b9 233f 488d b03d cec8 0bbe
00000280: 637f 6dbf 6f24 443f 67ae 18c0 2af0 2e40
00000290: 8b7a f43e 2b80 543f 4544 003f 2e72 85be
000002a0: b095 f53f 29e6 1bbe 0633 b5bf ad04 743f
000002b0: 499c 34bf aecb aabf ab12 dcbf ec28 cbbf
000002c0: 1577 4dbd 6d92 ffbd d666 75bd 8129 573f
000002d0: f0f6 793e 0c56 0bbf 93f8 95bf 101b cfbc
000002e0: b8ed 753f c2db 37bf bc71 72bf 7f27 bdbf
000002f0: e88c 57bd 74e0 d9bf 7d3f 443e 413a 883f
00000300: 2aed 193f d12c e7bf c63a a33e a2e2 3d3e
00000310: a8e8 afbf 62b2 28bf bb33 eabf 6ddc 163e
00000320: 2f23 adbf 85ef bf3e 0a41 78bf 3f8f 933f
00000330: 1665 f4bd e7b7 2fbf e2a0 abbe 56e1 75bf
00000340: 2183 193e 4c8e c6bf a2a4 1c3e fb88 41bf
00000350: 5661 123f e685 18bc 89e0 98bf 2666 403f
00000360: 621d 483f 848a b9be 36b9 2f3f 0405 6fbc
00000370: 36bb 063f 17a1 9b3e 7308 a53f 9994 ff3e
00000380: 1c03 22c0 e7d6 293f 8586 0140 5d0b fb3e
00000390: aa01 093f 132d 133f 9a38 89bf 1378 9b3f
000003a0: ed3a 54be 1e07 9abe 5f04 a33d 9455 943d
000003b0: 5817 e0bf faed 1b3f ecec b13f e396 323f
000003c0: 891e e23f 67d8 9a3f 56c6 363f e6b4 0540
000003d0: a516 263e 60d8 2bbf 8177 16bf 0871 4abf
000003e0: 2152 45bf 5802 7bbf 0988 7abf 01d0 493f
000003f0: a330 953f cb84 0b3f 3a00 06bf f7d3 0840

bias f4 [16]
1.5139748 0.5689925 0.042651076 -0.08451106 1.1804755 -2.08538 -0.35532826 0.82852894
0.102760665 1.0963093 0.33775774 0.032501053 1.513186 -0.34138873 -1.7643917 -0.027794039
00000000: edc9 c13f 7ea9 113f e5b2 2e3d 2214 adbd
00000010: d219 973f de76 05c0 96ed b5be 791a 543f
00000020: 2f74 d23d dd53 8c3f 95ee ac3e d31f 053d
00000030: 14b0 c13f 81ca aebe 96d7 e1bf 53b0 e3bc

weight f4 [16]
1.1847364 1.2481798 1.6940563 1.4065418 1.6653126 1.0021304 1.090991 1.4619858
0.7970293 1.783115 1.0864036 0.42125124 1.0183369 0.73327625 1.6128825 1.4182721
00000000: 71a5 973f 5bc4 9f3f d6d6 d83f 9009 b43f
00000010: f728 d53f cf45 803f 98a5 8b3f 5a22 bb3f
00000020: 1d0a 4c3f 1d3d e43f 460f 8b3f 3eae d73e
00000030: dd58 823f feb7 3b3f ef72 ce3f f189 b53f

bias f4 [16]
0.34702578 -0.15831378 0.79534173 1.296943 0.19920234 -0.67292184 1.4717994 0.7703561
-0.26402837 1.5849057 2.6145754 1.5498128 -0.2231387 0.330693 -0.53952646 -0.37739977
00000000: 5dad b13e 021d 22be 849b 4b3f 3a02 a63f
00000010: b3fb 4b3e 9b44 2cbf ec63 bc3f 0f36 453f
00000020: ba2e 87be 31de ca3f 3455 2740 4460 c63f
00000030: 797e 64be 9850 a93e 681e 0abf 8b3a c1be

running_mean f4 [16]
-8.093091 -1.6381439 3.5167263 -1.2387509 -1.88033 0.17329973 -1.6386986 -2.8756874
-4.73119 6.781827 6.902768 -0.8645643 -1.2660551 -7.186809 6.0024657 9.575112
00000000: 4d7d 01c1 b3ae d1bf 0b12 6140 648f 9ebf
00000010: a7ae f0bf 7c75 313e e0c0 d1bf 430b 38c0
00000020: e965 97c0 ba04 d940 7ae3 dc40 1654 5dbf
00000030: 180e a2bf 57fa e5c0 3314 c040 a933 1941

running_var f4 [16]
115.173805 39.336708 95.88395 67.9223 35.655567 32.545982 33.414253 56.440094
70.46915 46.278637 47.582844 36.62358 37.969772 41.256386 182.5894 262.88333
00000000: fd58 e642 ca58 1d42 95c4 bf42 38d8 8742
00000010: 4d9f 0e42 162f 0242 32a8 0542 a8c2 6142
00000020: 34f0 8c42 531d 3942 d554 3e42 8c7e 1242
00000030: 0ce1 1742 8a06 2542 e396 3643 1171 8343

weight f4 [16, 16, 3]
-2.0760908 -1.2405599 1.0545608 -1.2532313 0.62769127 -0.61275786 -1.1767762 0.30197173
1.2020074 -0.65782803 -0.8481214 0.43855318 -2.3647437 -0.9778585 1.4081941 -1.1529924
0.687193 0.23113547 -1.0020263 -1.372801 1.4851832 -0.7558607 0.5435178 0.40708724
-0.41963327 0.4577971 -1.481999 -1.8206323 0.47532713 0.83205587 -0.5402913 -0.17038463
-0.2956354 -2.3176932 0.18805459 -0.6212115 0.47993731 -0.3591557 0.16994713 0.6357714
0.13005029 -1.2726083 -0.69062716 0.4004069 0.5318628 -1.3533115 0.34007108 0.543544
-1.0945189 1.0978748 0.8842704 -0.6420461 -1.495193 -1.8212978 0.003597631 0.5131625
1.3416338 -1.1528013 -1.9020277 -2.6164315 0.4367749 -0.00803161 -0.11496879 -1.3151976
0.74904794 5.8506947e-05 -0.61267936 -0.19613025 0.4258165 -0.40338323 0.25463653 1.0403483
-1.6252185 0.5903758 0.53237826 0.10742594 -0.309095 0.9936584 -0.4913552 -2.245388
-1.3101177 0.21224713 -1.2192371 0.902607 -1.4155359 0.22836855 -1.51446 -0.3082043
0.7872196 0.6535486 -0.74686486 -0.060187787 0.18486018 -1.349005 -0.056045845 0.051224135
-0.14632308 0.59041107 0.23407823 -1.8168497 -0.6624413 0.17952907 2.75374 0.70638365
-0.6753723 -1.1490881 -0.053200733 0.14237519 1.4028958 0.56694055 -0.15361391 -0.49258405
-0.74957985 0.0797611 2.0205314 -0.68030924 -0.7243706 -0.0353035 -1.1063483 -0.92534345
-0.22681697 0.21347617 -0.52002347 1.8131889 0.53412 -0.8821792 -0.5283811 -0.7886114
-0.688884 -0.83819383 -0.813645 -0.009518901 -0.34673882 0.32672784 0.58652425 -0.67724335
-0.5329159 0.7689435 -0.34890532 -0.19855383 0.5275164 -0.29264522 -0.10917137 0.35952425
0.24382097 -0.54559743 0.61001045 -1.5962963 -0.39076453 -1.6625464 0.5131526 -1.0598098
-0.29509786 -0.37748542 -0.119096264 -1.302051 0.585493 -0.968521 -0.1124715 -2.8852525
-0.2016808 -0.5944971 0.14150815 -0.4844596 -2.0731354 -1.1845626 -0.7689737 0.70302534
-1.3996644 0.027626256 0.21313192 1.6024907 -0.8342403 -1.1600032 0.3043329 0.39079618
-0.7763306 -1.0894078 -0.6013785 -0.920863 -0.050549187 0.39233246 -1.805374 -2.2060437
0.5852353 1.079638 0.60148114 -0.1460878 -1.4032859 0.7344204 0.31597823 -0.890775
-0.059997905 -1.9408318 -2.618959 -1.3392869 0.037315357 -0.44554716 -0.4655395 -1.6043603
-0.21966358 0.09342086 -0.5038441 0.3841117 0.23832813 -0.89779264 -2.0094414 -3.0485055
-0.38014898 0.67489266 0.8839124 -0.8303013 -0.47957277 -2.911713 -0.27573103 -1.6289098
-1.5271674 0.37343982 -0.8439681 0.13634278 -1.6125671 0.7996712 -0.13922654 0.38953492
-0.36348477 -1.2775939 -0.09815555 -1.267536 -0.6092946 -2.0456991 1.1367443 -0.9708377
0.08785695 -1.1873378 0.10564863 -0.6932355 0.89189345 0.70275754 -1.0214577 0.85475856
-0.22745937 -0.10312948 0.8411227 0.009382737 -1.1544051 0.3078182 -0.8094291 0.46786678
1.6381675 0.3378033 -0.17653136 -1.541549 -0.71046054 -1.1498382 1.1812576 -0.5763096
00000000: acde 04c0 abca 9ebf d9fb 863f e269 a0bf
00000010: 60b0 203f b3dd 1cbf 9aa0 96bf 0a9c 9a3e
00000020: 61db 993f 6b67 28bf 7c1e 59bf 0b8a e03e
00000030: f657 17c0 ef54 7abf b43f b43f 4195 93bf
00000040: e1eb 2f3f c7ae 6c3e 6642 80bf f1b7 afbf
00000050: 7c1a be3f 1680 41bf fc23 0b3f bd6d d03e
00000060: 2cda d6be 6264 ea3e 25b2 bdbf 7b0a e9bf
00000070: 145e f33e 9d01 553f 8850 0abf 4f79 2ebe
00000080: 865d 97be 1655 14c0 6291 403e b807 1fbf
00000090: 58ba f53e 42e3 b7be 9f06 2e3e eac1 223f
000000a0: e72b 053e d4e4 a2bf f1cc 30bf 2202 cd3e
000000b0: 2928 083f 5039 adbf cc1d ae3e b325 0b3f
000000c0: 3219 8cbf 2987 8c3f 8c5f 623f 225d 24bf
000000d0: 7c62 bfbf 4920 e9bf 3bc6 6b3b 9e5e 033f
000000e0: a8ba ab3f fe8e 93bf a575 f3bf 9d73 27c0
000000f0: f6a0 df3e 0497 03bc c274 ebbd 6558 a8bf
00000100: 9bc1 3f3f 5b65 7538 8ed8 1cbf 5ed6 48be
00000110: 9f04 da3e 3f88 cebe b85f 823e 222a 853f
00000120: 2907 d0bf de22 173f f149 083f 2202 dc3d
00000130: b341 9ebe 6660 7e3f e992 fbbe 70b4 0fc0
00000140: f0b1 a7bf 5057 593e f60f 9cbf 4111 673f
00000150: 4830 b5bf 72d9 693e d3d9 c1bf f4cc 9dbe
00000160: 3987 493f f64e 273f 8932 3fbf 7887 76bd
00000170: fd4b 3d3e 32ac acbf 5490 65bd 66d0 513d
00000180: b8d5 15be 2e25 173f 34b2 6f3e 888e e8bf
00000190: c195 29bf 78d6 373e 473d 3040 8fd5 343f
000001a0: 33e5 2cbf 5215 93bf 03e9 59bd cdca 113e
000001b0: 1792 b33f 0423 113f f74c 1dbe fa33 fcbe
000001c0: 77e4 3fbf ca59 a33d 6350 0140 bf28 2ebf
000001d0: 5a70 39bf 679a 10bd d29c 8dbf 4fe3 6cbf
000001e0: b542 68be 7f99 5a3e 4220 05bf 9316 e83f
000001f0: 17bc 083f 7fd6 61bf fc43 07bf 70e2 49bf
00000200: b45a 30bf df93 56bf 0a4b 50bf 2af5 1bbc
00000210: c087 b1be df48 a73e 7426 163f d25f 2dbf
00000220: 2d6d 08bf 7bd9 443f b8a3 b2be b251 4bbe
00000230: 510b 073f 98d5 95be 3d95 dfbd 9013 b83e
00000240: 34ac 793e 46ac 0bbf a529 1c3f 7053 ccbf
00000250: 4a12 c8be 52ce d4bf f85d 033f d9a7 87bf
00000260: 1117 97be c545 c1be bee8 f3bd 9ba9 a6bf
00000270: dfe2 153f fef0 77bf 7557 e6bd faa7 38c0
00000280: 6985 4ebe f630 18bf 83e7 103e 170b f8be
00000290: 40ae 04c0 bf9f 97bf 76db 44bf 78f9 333f
000002a0: 3428 b3bf 7550 e23c 413f 5a3e 6a1e cd3f
000002b0: c690 55bf fc7a 94bf 86d1 9b3e 7016 c83e
000002c0: 9abd 46bf b771 8bbf f1f3 19bf adbd 6bbf
000002d0: aa0c 4fbd cddf c83e 7f16 e7bf d22f 0dc0
000002e0: fbd1 153f 9431 8a3f abfa 193f 0a98 15be
000002f0: df9e b3bf fa02 3c3f e6c7 a13e d509 64bf
00000300: 5dc0 75bd 2d6d f8bf 069d 27c0 c16d abbf
00000310: fdd7 183d c21e e4be 315b eebe ae5b cdbf
00000320: 7def 60be 7053 bf3d edfb 00bf 4aaa c43e
00000330: 4a0c 743e bdd5 65bf b09a 00c0 b71a 43c0
00000340: e3a2 c2be c4c5 2c3f 1548 623f a08e 54bf
00000350: 908a f5be 8159 3ac0 9e2c 8dbe 1e80 d0bf
00000360: 397a c3bf 8133 bf3e 4b0e 58bf 719d 0b3e
00000370: 9968 cebf 40b7 4c3f 6791 0ebe 1f71 c73e
00000380: ad1a babe 3288 a3bf c705 c9bd 9f3e a2bf
00000390: bbfa 1bbf bcec 02c0 d680 913f d288 78bf
000003a0: 58ee b33d affa 97bf 4f5e d83d e277 31bf
000003b0: 2153 643f ebe7 333f 20bf 82bf 75d1 5a3f
000003c0: 1ceb 68be 8c35 d3bd d153 573f 0dba 193c
000003d0: 8cc3 93bf 599a 9d3e bf36 4fbf 3c8c ef3e
000003e0: 79af d13f 8ef4 ac3e a3c4 34be 7a51 c5bf
000003f0: bee0 35bf e62d 93bf 7333 973f 0789 13bf

bias f4 [16]
1.2419701 -0.53360426 0.8889118 -1.7257783 0.9104111 0.4929688 -0.86536866 -0.818157
0.16521451 0.24209028 -0.11820895 1.8634837 -0.21837182 -0.66464263 -0.8590278 0.6375593
00000000: e0f8 9e3f 4a9a 08bf b98f 633f 4ee6 dcbf
00000010: b410 693f 6866 fc3e cd88 5dbf bd72 51bf
00000020: fe2d 293e 84e6 773e 8917 f2bd a286 ee3f
00000030: dd9c 5fbe 0526 2abf 3fe9 5bbf 1637 233f

weight f4 [16]
1.1092659 1.6249161 1.9059873 1.8133384 1.4036555 2.1352868 0.93929446 1.166582
1.3352376 1.2314569 2.0542119 1.2250605 1.5161097 1.4321134 1.3151487 1.1473743
00000000: 6dfc 8d3f 40fd cf3f 64f7 f33f 791b e83f
00000010: fcaa b33f 8aa8 0840 9a75 703f 8f52 953f
00000020: 11e9 aa3f 61a0 9d3f 3578 0340 c8ce 9c3f
00000030: e20f c23f 7e4f b73f cb56 a83f 29dd 923f

bias f4 [16]
-0.1161792 -0.156679 0.97415906 0.23673682 0.41969523 0.71370053 1.2774462 -1.2776749
0.024895282 0.34863773 0.25288105 -1.1033036 0.7927447 -0.25501236 -1.1014491 -1.4357578
00000000: 5cef edbd 7670 20be 7d62 793f 236b 723e
00000010: 4be2 d63e 14b5 363f 5b83 a33f da8a a3bf
00000020: 31f1 cb3c a580 b23e a079 813e 0d39 8dbf
00000030: 51f1 4a3f fb90 82be 49fc 8cbf e9c6 b7bf

running_mean f4 [16]
-15.496937 -20.305265 -4.658081 -23.357569 -25.798422 9.022803 -22.333437 9.404672
-0.8706507 -1.9419332 -14.64569 6.9360433 -5.4731097 7.723259 20.593508 15.078162
00000000: 74f3 77c1 2f71 a2c1 000f 95c0 4ddc bac1
00000010: 2b63 cec1 675d 1041 e1aa b2c1 8979 1641
00000020: f7e2 5ebf 4491 f8bf bf54 6ac1 11f4 dd40
00000030: b723 afc0 f024 f740 81bf a441 2740 7141

running_var f4 [16]
58.891747 268.16742 121.2253 74.436966 186.64343 106.83844 98.62997 81.22903
99.77534 215.92105 86.41343 82.89423 289.6866 87.03903 121.254906 56.253853
00000000: 2691 6b42 6e15 8643 5b73 f242 badf 9442
00000010: b8a4 3a43 48ad d542 8b42 c542 4375 a242
00000020: f98c c742 caeb 5743 add3 ac42 d9c9 a542
00000030: e3d7 9043 fc13 ae42 8382 f242 f203 6142

weight f4 [32, 16, 3]
-1.2439694 -0.2509113 -2.5873892 -1.5836809 0.34244958 1.1287888 0.27009243 -0.9021332
1.3389734 0.84631205 -0.09998847 0.71750736 0.23066135 -0.009942734 -1.1060011 -0.059488915
0.32604837 0.18378654 -2.3300574 -1.53375 2.413449 0.3626552 -0.13274847 -0.22767979
1.1292295 -0.47327355 -1.6200397 0.018990984 -1.1007088 -2.0013435 -0.45156163 -3.252668
-0.9698578 -1.0421633 -1.3125018 -0.37398463 -0.15719561 -0.43944946 -0.21016261 0.955581
-0.1917982 0.697054 -0.03073178 -1.060576 -0.4070271 1.3922907 0.27666372 -1.4585776
0.48681787 -0.83036476 0.46753594 0.2934241 -1.0282056 0.35266387 -1.1256671 -0.6846088
0.0093701985 -0.6138352 -0.51055783 1.1791415 0.6788857 -1.6950783 -1.150513 -0.7449831
0.53062564 -0.0759585 -0.15000066 -1.2785393 1.639002 0.9473025 1.7184199 -1.407702
-1.077606 1.2460787 -1.0308042 0.4323951 -0.5054358 -0.25692508 2.3227217 -0.7580712
-2.0367057 0.49612668 -0.17511603 -1.7141904 -1.2747716 -1.1256058 0.083337724 -1.4976356
1.9128942 -0.50607544 0.99468917 0.5838439 0.6895613 -0.029052947 0.5720258 -0.90666586
-0.27374777 -0.16660881 0.42350632 0.49728882 0.6955185 0.2941626 -1.1291625 -0.6978097
0.7885628 -1.2045972 0.002760528 0.2516908 -0.13110948 0.45977855 0.20181493 -1.763943
0.15226194 -0.4006494 -0.77297497 -0.16126445 -0.23011221 0.9134686 1.0391766 -1.4835684
-1.6510695 -0.11580413 -1.0759958 -0.012031742 1.620239 0.69891846 2.1559749 -0.48461252
-1.684057 -0.8821877 1.3523577 -2.1797197 -0.9507103 -0.48883763 -0.62289006 -0.03794316
-0.03428637 -0.7029747 1.2284428 0.76643264 0.22405322 -0.624936 -0.83240986 -2.325775
0.2216806 0.16241609 0.5021545 -0.2064159 -0.5933823 -1.6461912 -1.3451347 -0.4481679
-0.59735554 -1.1048881 -1.0860039 -1.363756 -1.3417497 -1.0908829 0.6948393 -0.19312915
-1.1764529 -0.85261035 0.10654242 -0.2619077 -0.7562363 0.7014646 0.6170864 0.28568923
1.2156025 1.1206589 -0.03861898 -3.4844325 -1.9654835 -0.7976402 -0.2959758 -0.85628897
-0.15651795 0.20695585 -0.43021676 -1.264507 1.7631297 0.72541994 -1.051872 -0.025665684
0.059590064 -0.44569468 -0.79526865 -1.7893503 -0.61463016 0.25462556 0.26564407 1.0250634
-0.36025578 -0.5551593 -0.29165226 -1.7714012 -0.6968 -0.014933188 -0.72092986 -0.83344996
0.47586557 1.1693236 0.23309366 0.6557315 1.9368079 -0.6675052 -1.7846645 0.42852083
2.3639674 0.67698133 -1.2444625 -0.97251517 1.1310424 -0.6837705 0.17703162 -1.1108332
0.26689807 0.018678535 -0.1834008 1.2287159 -0.04803928 -1.3527243 -0.52348745 -0.24798492
1.5425909 0.35301483 0.082403004 0.36865634 -1.0394018 0.4593462 -0.1847667 0.10199514
1.3161781 -0.04707998 -0.5822719 -1.1653827 -2.5022173 0.6438028 -0.78508854 0.2007609
-1.3295437 0.20172676 0.087427884 0.40573287 0.31568447 0.5309551 -0.91877764 0.7418218
0.14649823 -0.11005706 0.5802752 -0.10550403 -1.6772211 0.39231375 0.17321709 0.6476484
00000000: 643a 9fbf 7277 80be c997 25c0 0eb6 cabf
00000010: 8d55 af3e 277c 903f 8e49 8a3e 34f2 66bf
00000020: 7b63 ab3f e8a7 583f c1c6 ccbd 90ae 373f
00000030: 7d32 6c3e d9e6 22bc 7291 8dbf a6aa 73bd
00000040: d0ef a63e 8a32 3c3e a91f 15c0 ec51 c4bf
00000050: f375 1a40 f1ad b93e 37ef 07be e424 69be
00000060: 988a 903f e950 f2be 765d cfbf fb92 9b3c
00000070: 07e4 8cbf 0316 00c0 1633 e7be b62b 50c0
00000080: 9a48 78bf 9b65 85bf 0f00 a8bf ea7a bfbe
00000090: e3f7 20be 85ff e0be de34 57be f5a0 743f
000000a0: bf66 44be 2272 323f 37c1 fbbc f4c0 87bf
000000b0: db65 d0be 9536 b23f dea6 8d3e acb2 babf
000000c0: 3140 f93e c992 54bf df60 ef3e af3b 963e
000000d0: 3e9c 83bf 5c90 b43e dc15 90bf 8642 2fbf
000000e0: 7685 193c 4e24 1dbf ebb3 02bf 1cee 963f
000000f0: 74cb 2d3f 53f8 d8bf 0344 93bf 36b7 3ebf
00000100: 15d7 073f 2190 9bbd c699 19be 2da7 a3bf
00000110: d1ca d13f 6b82 723f 2ff5 db3f 942f b4bf
00000120: feee 89bf 827f 9f3f 64f1 83bf e462 dd3e
00000130: 3e64 01bf af8b 83be 79a7 1440 f410 42bf
00000140: 6359 02c0 5104 fe3e 9e51 33be 976a dbbf
00000150: b72b a3bf da13 90bf f8ac aa3d 86b2 bfbf
00000160: b8d9 f43f 298e 01bf f3a3 7e3f cb76 153f
00000170: 1787 303f 7200 eebc 4870 123f 411b 68bf
00000180: ab28 8cbe 809b 2abe d2d5 d83e a49c fe3e
00000190: 800d 323f 7b9c 963e 6688 90bf a8a3 32bf
000001a0: 40df 493f 3e30 9abf f9e9 343b 9edd 803e
000001b0: 9041 06be 1868 eb3e 93a8 4e3e e2c8 e1bf
000001c0: 8eea 1b3e eb21 cdbe b0e1 45bf 8222 25be
000001d0: 89a2 6bbe 14d9 693f bd03 853f 92e5 bdbf
000001e0: 3f56 d3bf b72a edbd 3bba 89bf c920 45bc
000001f0: fe63 cf3f 52ec 323f 7efb 0940 221f f8be
00000200: 2e8f d7bf 0ed7 61bf 0f1a ad3f 8780 0bc0
00000210: c061 73bf ed48 fabe b975 1fbf 496a 1bbd
00000220: dd6f 0cbd 26f6 33bf 9d3d 9d3f ee34 443f
00000230: 356e 653e cefb 1fbf d018 55bf 7fd9 14c0
00000240: 3d00 633e 6750 263e 338d 003f b15e 53be
00000250: e7e7 17bf 65b6 d2bf 602d acbf 4376 e5be
00000260: 4bec 18bf f96c 8dbf 2d02 8bbf 8e8f aebf
00000270: 74be abbf 0da2 8bbf fde0 313f a6c3 45be
00000280: 0296 96bf ac44 5abf ea32 da3d c418 86be
00000290: b498 41bf 2f93 333f 60f9 1d3f dc45 923e
000002a0: dd98 9b3f c071 8f3f f02e 1ebd f100 5fc0
000002b0: f794 fbbf 2632 4cbf 248a 97be c135 5bbf
000002c0: 3e46 20be 3cec 533e 5f45 dcbe 5edb a1bf
000002d0: 3cae e13f 1fb5 393f bea3 86bf d740 d2bc
000002e0: b614 743d 1832 e4be ba96 4bbf 6e09 e5bf
000002f0: 6758 1dbf 485e 823e 8002 883e 4735 833f
00000300: 7273 b8be eb1e 0ebf 7253 95be 46bd e2bf
00000310: 7c61 32bf 55aa 74bc dc8e 38bf fa5c 55bf
00000320: a7a4 f33e 65ac 953f 1bb0 6e3e 05de 273f
00000330: 52e9 f73f 9fe1 2abf e36f e4bf 1567 db3e
00000340: 3e4b 1740 a64e 2d3f 8c4a 9fbf c1f6 78bf
00000350: ffc5 903f 950b 2fbf c747 353e c82f 8ebf
00000360: dda6 883e ba03 993c 6bcd 3bbe 9046 9d3f
00000370: d6c4 44bd 1226 adbf 4603 06bf c2ef 7dbe
00000380: 9e73 c53f 5cbe b43e e8c2 a83d 86c0 bc3e
00000390: 1e0b 85bf 6d2f eb3e 7b33 3dbe d4e2 d03d
000003a0: 8678 a83f f0d6 40bd c50f 15bf 432b 95bf
000003b0: 5424 20c0 43d0 243f 90fb 48bf 4494 4d3e
000003c0: 7d2e aabf 7691 4e3e 640d b33d 38bc cf3e
000003d0: 65a1 a13e acec 073f 0335 6bbf 09e8 3d3f
000003e0: a203 163e 9965 e1bd ea8c 143f 7f12 d8bd
000003f0: 2eaf d6bf 59dd c83e d25f 313e 49cc 253f

bias f4 [32]
-0.22574532 0.48678753 -0.5660844 -0.018290851 0.21957462 -1.1191013 0.84226227 0.42927676
-0.85995597 0.38618946 -0.33428517 -0.93527645 -0.13185196 -0.63182557 0.53606904 -0.2735065
-0.8143338 1.3655295 0.87797135 -0.5209432 -0.9932572 1.2973388 1.143114 0.3152624
0.15935498 -0.19375464 0.72938526 -0.04770616 -0.966761 -1.0207332 -0.19504078 -0.6600935
00000000: c829 67be 373c f93e e8ea 10bf b2d6 95bc
00000010: 2bd8 603e b63e 8fbf 809e 573f 2aca db3e
00000020: 1326 5cbf a0ba c53e 6d27 abbe 476e 6fbf
00000030: 3304 07be 52bf 21bf d23b 093f 0b09 8cbe
00000040: 2e78 50bf acc9 ae3f bbc2 603f 895c 05bf
00000050: 1b46 7ebf 330f a63f 8f51 923f 136a a13e
00000060: f42d 233e 9e67 46be feb8 3a3f 8967 43bd
00000070: a67d 77bf 63a7 82bf c5b8 47be e3fb 28bf

weight f4 [32]
1.2168287 1.292668 1.2162051 0.98093957 1.6303368 1.1489568 0.62761664 0.8585147
1.1746461 1.4575049 0.7760317 1.5902296 1.5173073 0.51069856 1.4992002 0.7532617
1.84114 1.4707588 1.609117 1.3082896 1.4426626 1.6542182 1.7996697 2.148827
0.795606 1.8178265 1.5642515 0.9771174 2.3544273 0.95291877 1.4258274 2.0522609
00000000: 0bc1 9b3f 2576 a53f 9cac 9b3f db1e 7b3f
00000010: e0ae d03f 0411 933f 7cab 203f 9fc7 5b3f
00000020: ce5a 963f 858f ba3f 03aa 463f a58c cb3f
00000030: 2037 c23f 24bd 023f cbe5 bf3f c2d5 403f
00000040: 7aaa eb3f d341 bc3f 8cf7 cd3f 0976 a73f
00000050: 2ba9 b83f 6cbd d33f 945b e63f 6286 0940
00000060: d6ac 4b3f 8aae e83f 6539 c83f 5e24 7a3f
00000070: f0ae 1640 7cf2 733f 8381 b63f 3e58 0340

bias f4 [32]
0.014412893 0.41863072 -0.25350934 0.40345785 -0.3675235 -1.7442324 -0.68229544 -0.9000349
0.69010323 -0.12997304 -0.90053225 -0.2331234 -0.03532465 -0.21701095 -0.15063888 2.032721
-0.04803209 -0.31060305 0.5403228 -0.11426902 -0.04244698 0.59460807 1.247439 -0.77635926
-0.42052487 -0.5463763 0.2984046 -1.4103819 -1.3849332 -1.8259015 0.31918755 -1.0843333
00000000: 0e24 6c3c c456 d63e facb 81be 0792 ce3e
00000010: 0a2c bcbe 0243 dfbf eaaa 2ebf b068 66bf
00000020: 9baa 303f a717 05be 4889 66bf e7b7 6ebe
00000030: 95b0 10bd 1e38 5ebe 1441 1abe 1a18 0240
00000040: 4cbd 44bd 5d07 9fbe 9852 0a3f e005 eabd
00000050: e2dc 2dbd 3c38 183f 15ac 9f3f 7bbf 46bf
00000060: 094f d7be 51df 0bbf 7dc8 983e 6587 b4bf
00000070: 7e45 b1bf 24b7 e9bf 8d6c a33e 6fcb 8abf

running_mean f4 [32]
-8.763483 -6.974956 -8.04778 -14.362239 0.41168258 7.768106 7.075226 -4.8150487
-12.13254 6.6499834 0.3747711 -8.734195 4.808269 1.8663647 6.1414933 -7.32654
-10.1626005 2.4667857 -0.13159353 4.8167367 -7.023182 -7.8666205 -14.962033 -2.0681915
-7.2732234 -3.7368183 -10.260188 13.147725 6.3978496 4.4537163 -4.1746516 2.6281517
00000000: 3a37 0cc1 d732 dfc0 b5c3 00c1 bbcb 65c1
00000010: 0fc8 d23e 5394 f840 4068 e240 e114 9ac0
00000020: e21e 42c1 aacc d440 ffe1 bf3e 43bf 0bc1
00000030: 57dd 9940 0ae5 ee3f 1d87 c440 0473 eac0
00000040: 039a 22c1 d1df 1d40 74c0 06be b522 9a40
00000050: e8bd e0c0 5bbb fbc0 7d64 6fc1 405d 04c0
00000060: 3fbe e8c0 0828 6fc0 bb29 24c1 155d 5241
00000070: 2fbb cc40 d884 8e40 bf96 85c0 a333 2840

running_var f4 [32]
91.42283 54.46968 107.10892 127.786446 82.24558 49.165592 65.33832 49.29839
144.59935 142.9892 96.86684 173.52567 146.66524 81.96949 144.31851 202.05258
58.213863 148.9241 139.87088 67.14758 125.557976 94.403145 123.93891 66.431526
85.63949 157.22258 136.3599 87.893555 101.42401 27.353312 181.70078 86.68629
00000000: 7dd8 b642 f4e0 5942 c437 d642 a992 ff42
00000010: bd7d a442 91a9 4442 38ad 8242 8d31 4542
00000020: 6f99 1043 3cfd 0e43 d2bb c142 9286 2d43
00000030: 4daa 1243 61f0 a342 8a51 1043 760d 4a43
00000040: ffda 6842 92ec 1443 f2de 0b43 904b 8642
00000050: af1d fb42 69ce bc42 b9e0 f742 f1dc 8442
00000060: 6b47 ab42 fb38 1d43 225c 0843 80c9 af42
00000070: 18d9 ca42 95d3 da41 66b3 3543 615f ad42

weight f4 [32, 32, 3]
2.2313912 0.61650324 1.2124957 -1.850865 0.27072328 -0.47327924 -0.6731764 0.49462366
-0.14010186 1.4905797 0.21794653 0.14270431 1.2083884 1.2245632 -0.20192167 -0.60121995
0.7978592 1.3101237 -0.9845344 0.17248806 0.39108783 1.6107193 0.7510807 -0.055392627
-1.8724191 -1.0245955 -1.3712924 -0.374207 0.43837404 -0.2794352 0.9559083 0.3028926
0.29811546 -2.4542124 -0.5826044 -0.2082758 0.40303227 -0.3614548 -0.95837736 1.1488998
0.6461342 -0.34906214 1.0843265 1.0454956 0.1536675 -2.3939607 -0.9389628 -1.7741762
1.5404754 -0.17227972 -0.850795 -0.4953604 0.863429 -0.40016425 -3.062019 -0.4028749
-1.070948 -1.2435815 -2.570164 -2.0054905 -0.6791953 -0.08965046 -0.32460433 -1.1001289
0.22652337 -0.7337379 -0.0132418275 -0.9332579 -2.046333 -0.3419118 1.3587592 -1.0614352
-0.30488876 -0.056633145 -0.93549055 -2.7747638 -0.17320865 -0.2741126 -0.19878948 0.8350039
-0.22139955 0.055079393 -0.28960475 0.40957522 -0.5819393 -0.6430203 -1.7436932 -0.83561504
-0.15047033 0.2562042 -0.81993675 0.7864477 -0.42361438 -0.14076091 -0.29516867 -1.252185
0.3100536 0.76596963 0.94907475 0.34248444 -0.9496532 -1.5874685 -0.06179023 -2.3928719
-2.010142 -1.1006559 0.86033684 -0.5893897 0.96266127 -0.37250283 -0.09672741 -0.22342272
-1.108517 1.0729156 -0.22067988 -0.6936518 -1.4329197 -0.5206919 0.2485687 -0.22129463
0.7548276 -0.31508368 -1.021896 0.7041745 0.36326474 -0.983247 -1.658002 0.26776913
1.1604277 -0.032228805 -0.49718043 -1.3557587 -2.8471236 -0.64041847 1.1902065 0.2715404
0.38271284 0.20383836 -2.3800826 -0.18726614 0.6515586 -1.1908848 -1.0285279 -0.8550209
0.047260303 0.2956805 0.94650996 0.055222053 -2.253465 0.27894285 0.51197183 -0.101643704
-0.92454046 -0.6663734 -0.41538578 -1.5265077 1.5791868 0.48911598 -0.751669 1.4163508
0.03103926 -1.2011483 0.4815314 -0.19381136 -1.638949 -0.41869923 -0.9527942 -1.4632822
1.5983264 1.061786 -0.30715883 0.41682002 -0.73657787 -0.3417584 1.4091622 -0.6914988
-1.2385753 -0.5222776 0.6007488 0.38589734 -2.9762642 -2.51684 -0.43618634 -0.84540325
0.7081014 -0.45587328 -0.5514463 -1.1391604 -2.379017 -0.9366452 -1.7245547 0.38478297
-0.5103717 0.736486 0.37160885 -0.13106127 -0.3507394 -0.90487623 -0.49172753 -0.69073725
-0.9051658 0.7842113 0.5529239 0.7187714 0.2936472 0.17377996 0.4767493 0.96351314
-0.17584392 -1.6960038 0.77535534 0.8819937 -0.8135926 0.59405726 0.29406783 -0.6194975
-1.7981857 0.75897044 0.47236067 -0.45259342 0.6648959 1.2203643 0.7270989 -1.2262497
0.7401012 0.6955718 0.93549293 0.47035426 1.6025589 -0.8691799 0.7856103 0.34550077
-0.3798326 1.3740591 1.2729157 -0.5894252 1.6025457 0.21771666 0.6620115 0.90877324
0.61544096 -0.25691923 0.7923525 0.9634152 -0.021256927 -0.35872516 0.43710083 0.38507393
-0.049915764 -0.9577964 -0.715495 -1.5558866 0.5176966 -0.23671362 -0.7635179 0.41671795
00000000: 1dcf 0e40 28d3 1d3f 0f33 9b3f 25e9 ecbf
00000010: 3e9c 8a3e a851 f2be 4a55 2cbf 503f fd3e
00000020: dd76 0fbe 51cb be3f 602d 5f3e 1421 123e
00000030: 79ac 9a3f 7dbe 9c3f 8ec4 4ebe 8de9 19bf
00000040: 8040 4c3f 22b2 a73f 720a 7cbf b6a0 303e
00000050: aa3c c83e 0d2c ce3f d346 403f 61e3 62bd
00000060: 6eab efbf f225 83bf 8286 afbf 0f98 bfbe
00000070: 9072 e03e 2112 8fbe 68b6 743f bd14 9b3e
00000080: 97a2 983e d111 1dc0 9025 15bf 4046 55be
00000090: 3f5a ce3e 9b10 b9be 3858 75bf 260f 933f
000000a0: 0d69 253f 46b8 b2be 36cb 8a3f cdd2 853f
000000b0: 035b 1d3e a736 19c0 de5f 70bf 3518 e3bf
000000c0: 4c2e c53f 186a 30be b3cd 59bf e19f fdbe
000000d0: af09 5d3f 54e2 ccbe 1ff8 43c0 9e45 cebe
000000e0: d314 89bf ae2d 9fbf 917d 24c0 f559 00c0
000000f0: bedf 2dbf a99a b7bd 8a32 a6be 06d1 8cbf
00000100: bef5 673e 3fd6 3bbf 40f4 58bc fde9 6ebf
00000110: 1ff7 02c0 100f afbe d2eb ad3f 1cdd 87bf
00000120: 611a 9cbe 28f8 67bd 4f7c 6fbf bb95 31c0
00000130: 9c5d 31be 7d58 8cbe 788f 4bbe d1c2 553f
00000140: 90b6 62be ee9a 613d 1347 94be d8b3 d13e
00000150: f9f9 14bf fa9c 24bf 5731 dfbf deea 55bf
00000160: e514 1abe 322d 833e 60e7 51bf a354 493f
00000170: fce3 d8be a123 10be 5920 97be 9947 a0bf
00000180: 58bf 9e3e 9616 443f 90f6 723f 1f5a af3e
00000190: 791c 73bf 2b32 cbbf c117 7dbd d024 19c0
000001a0: 2ba6 00c0 4be2 8cbf 093f 5c3f 3ee2 16bf
000001b0: f870 763f b1b8 bebe 0519 c6bd edc8 64be
000001c0: e3e3 8dbf 4c55 893f e8f9 61be 2a93 31bf
000001d0: ea69 b7bf 104c 05bf cb88 7e3e 0f9b 62be
000001e0: 623c 413f a652 a1be 7dcd 82bf c844 343f
000001f0: d6fd b93e 13b6 7bbf 6939 d4bf 0919 893e
00000200: e588 943f 5a02 04bd 6f8e febe 8089 adbf
00000210: 4637 36c0 77f2 23bf b058 983f 5807 8b3e
00000220: f0f2 c33e 01bb 503e 4653 18c0 b2c2 3fbe
00000230: 8bcc 263f ea6e 98bf cda6 83bf a6e2 5abf
00000240: 0594 413d 6f63 973e 7a4e 723f 8530 623d
00000250: c538 10c0 99d1 8e3e 9610 033f 932a d0bd
00000260: afae 6cbf 7297 2abf 72ad d4be 9b64 c3bf
00000270: cb22 ca3f 696d fa3e 616d 40bf fc4a b53f
00000280: 0c46 fe3c 3abf 99bf 498b f63e 7c76 46be
00000290: 15c9 d1bf bf5f d6be 52ea 73bf d54c bbbf
000002a0: f695 cc3f 9be8 873f ec43 9dbe 6f69 d53e
000002b0: 5e90 3cbf f5fa aebe 6d5f b43f 1106 31bf
000002c0: a389 9ebf fcb3 05bf acca 193f 5694 c53e
000002d0: 1d7b 3ec0 e813 21c0 d153 dfbe 596c 58bf
000002e0: 2246 353f 3968 e9be 962b 0dbf 02d0 91bf
000002f0: d141 18c0 fbc7 6fbf 35be dcbf 4602 c53e
00000300: b8a7 02bf 598a 3c3f 8443 be3e ed34 06be
00000310: 1d94 b3be f8a5 67bf b6c3 fbbe 28d4 30bf
00000320: f2b8 67bf 12c2 483f 6c8c 0d3f 6701 383f
00000330: ed58 963e 60f3 313e 7c18 f43e cca8 763f
00000340: 6e10 34be a716 d9bf b07d 463f 57ca 613f
00000350: 9b47 50bf 2314 183f 0f90 963e 6397 1ebf
00000360: f32a e6bf e34b 423f 42d9 f13e 53ba e7be
00000370: 9e36 2a3f e634 9c3f 2723 3a3f c0f5 9cbf
00000380: 4677 3d3f fe10 323f 777c 6f3f 46d2 f03e
00000390: a620 cd3f 9382 5ebf c21d 493f 7ae5 b03e
000003a0: 6b79 c2be 2be1 af3f e7ee a23f 92e4 16bf
000003b0: 3820 cd3f 1ef1 5e3e 9679 293f 5da5 683f
000003c0: 8a8d 1d3f eb8a 83be 9dd7 4a3f 61a2 763f
000003d0: 0223 aebc d3aa b7be aecb df3e 6928 c53e
000003e0: 7974 4cbd 2532 75bf ae2a 37bf 4b27 c7bf
000003f0: c487 043f 0e65 72be e975 43bf 0e5c d53e

bias f4 [32]
-1.0392351 -0.25553292 -0.5608942 0.35010618 -0.58692735 -0.29107964 -1.1286923 -0.28590024
-0.46802253 -0.12009191 -0.361817 -0.33393884 -1.1568265 0.80115527 1.6572481 0.44208673
0.13390094 0.06398088 -0.088563755 0.7147747 -0.93583816 -0.9199223 0.26906222 0.13082273
-0.14814459 0.6674377 -0.13588208 0.6941442 0.18409583 -0.95660925 -0.70396787 -1.0002166
00000000: a805 85bf 36d5 82be c396 0fbf 1e41 b33e
00000010: df40 16bf 6408 95be fd78 90bf 8461 92be
00000020: a6a0 efbe bff2 f5bd 1440 b9be 08fa aabe
00000030: e412 94bf 8318 4d3f b520 d43f 3159 e23e
00000040: 541d 093e 6808 833d ea60 b5bd 7afb 363f
00000050: 1793 6fbf 0780 6bbf 86c2 893e 65f6 053e
00000060: 37b3 17be 32dd 2a3f ac24 0bbe 6fb3 313f
00000070: 9e83 3c3e 58e4 74bf 3d37 34bf 1907 80bf

weight f4 [32]
1.4121308 1.0429081 1.0925366 1.0292336 1.8788382 1.9279557 1.077124 1.9857768
1.5392153 1.9987867 0.99430263 1.4847287 1.5292679 1.2962357 1.2218971 1.1575488
1.3394367 1.7943231 1.125501 1.0793082 1.0902115 1.6883336 1.9053814 0.61449105
1.0154011 2.1110637 1.7675853 1.8913556 0.6971411 1.1771545 1.8649077 1.9860549
00000000: b4c0 b43f 037e 853f 3dd8 8b3f edbd 833f
00000010: c57d f03f 41c7 f63f 33df 893f ef2d fe3f
00000020: 0205 c53f 3ed8 ff3f 9e8a 7e3f 970b be3f
00000030: 0dbf c33f 0deb a53f 2067 9c3f 8f2a 943f
00000040: a972 ab3f 61ac e53f 6b10 903f c526 8a3f
00000050: 0d8c 8b3f 511b d83f 8ae3 f33f 494f 1d3f
00000060: aaf8 813f ab1b 0740 3c40 e23f f117 f23f
00000070: d777 323f 00ad 963f 4cb5 ee3f 0c37 fe3f

bias f4 [32]
1.035924 0.003007955 -2.0002935 0.9093764 0.74775577 -0.3766229 -1.372002 1.0382135
-0.71580034 -0.3097425 1.5611036 -0.6945361 0.32814723 -0.63366896 0.991177 -1.4223384
-0.8636149 -0.62449 -1.3513705 -0.5957204 -0.31003082 -0.9649361 -0.031839076 -2.289935
-1.2576243 -0.36771885 1.2195687 -0.15507421 -0.16279344 -1.1348913 -0.4893387 -0.115597144
00000000: 2899 843f 1c21 453b cf04 00c0 e4cc 683f
00000010: ec6c 3f3f b7d4 c0be c39d afbf 2ee4 843f
00000020: b13e 37bf 9296 9ebe 3ed2 c73f 1ecd 31bf
00000030: ea02 a83e 2138 22bf c7bd 7d3f 2f0f b6bf
00000040: de15 5dbf 94de 1fbf b5f9 acbf 2281 18bf
00000050: 5cbc 9ebe 0d06 77bf b169 02bd 4c8e 12c0
00000060: d5f9 a0bf a545 bcbe d41a 9c3f c6cb 1ebe
00000070: 53b3 26be 1e44 91bf 9a8a fabe 32be ecbd

running_mean f4 [32]
-34.114483 -27.60465 19.411335 -15.42486 4.3296857 -16.767391 11.670191 -14.746551
-31.842926 -6.0736303 -15.289064 3.999088 -23.152128 -15.045258 -4.857968 25.628824
3.7363443 -21.815004 11.268247 -3.330207 -8.287875 -3.396578 6.7690883 -2.8778822
4.104379 0.21593978 -15.14462 -11.918218 16.190647 4.4406347 -34.676662 10.129123
00000000: 3b75 08c2 53d6 dcc1 6a4a 9b41 3acc 76c1
00000010: c98c 8a40 9e23 86c1 1ab9 3a41 dff1 6bc1
00000020: 50be fec1 2e5b c2c0 02a0 74c1 0ff1 7f40
00000030: 8f37 b9c1 60b9 70c1 7974 9bc0 d507 cd41
00000040: 4420 6f40 2185 aec1 bd4a 3441 1d22 55c0
00000050: 239b 04c1 8961 59c0 5f9c d840 392f 38c0
00000060: 1357 8340 511f 5d3e 5d50 72c1 05b1 3ec1
00000070: 7286 8141 ae19 8e40 e7b4 0ac2 e310 2241

running_var f4 [32]
241.44814 732.9209 168.42746 141.79825 402.6434 237.2522 110.35969 264.50284
347.43127 213.47365 300.05142 261.94717 622.5604 601.57117 455.96756 173.94385
200.12521 274.15778 149.9834 339.07486 221.68398 300.72147 198.60098 125.78269
281.65558 192.67827 592.8061 281.86868 368.42114 164.14659 339.92645 272.7174
00000000: b972 7143 f03a 3744 6e6d 2843 5acc 0d43
00000010: 5b52 c943 9040 6d43 29b8 dc42 5d40 8443
00000020: 34b7 ad43 4179 5543 9506 9643 3df9 8243
00000030: dea3 1b44 8e64 1644 d9fb e343 a0f1 2d43
00000040: 0e20 4843 3214 8943 c0fb 1543 9589 a943
00000050: 19af 5d43 595c 9643 da99 4643 bd90 fb42
00000060: ead3 8c43 a3ad 4043 9733 1444 31ef 8c43
00000070: e835 b843 8725 2443 96f6 a943 d45b 8843

weight f4 [64, 32, 3]
-2.033709 -0.64664245 -1.3504626 2.3456259 -0.1292372 0.61634547 0.8835216 1.4386963
-2.075725 -1.5601269 -1.5716358 -0.28556952 -1.4156255 -2.4086401 -1.3237286 1.1656728
-0.6376372 -2.1570015 -0.012436008 0.6952678 -0.08411892 -3.7432594 -0.121478066 -1.4492463
-2.0961113 -0.17628895 0.65913045 1.2110084 -1.8465554 -0.026326548 0.29918838 0.79664487
1.3847219 1.174228 -0.032387063 0.053889424 0.42357594 -0.79802686 0.37934992 -0.17806073
0.5508685 2.1628306 -0.62539196 0.18501128 0.22105095 0.6735287 1.5884666 -0.51556635
0.760422 -0.9426962 -0.061764706 0.10605098 -1.1389898 0.8753572 0.19079107 0.40022558
1.3641864 0.6283456 0.30749196 -1.1968638 -0.57719606 -0.6260991 0.19739789 -0.806038
-0.2945381 -0.93548894 -0.6208919 -0.06415129 -1.0440261 0.9769641 -0.52168524 -0.17802794
0.8378594 -0.16881931 -1.3060383 1.6667835 0.78586787 0.5472547 -1.5634904 0.15540731
1.957766 -0.28831974 0.039255556 -1.4628454 1.4938254 -0.88948333 -1.9070897 0.40812382
0.16608793 0.11478482 -2.729648 -0.028850585 1.7152979 -1.2953826 0.13121282 -1.1439537
-1.5029842 0.14604644 -0.8540797 1.2390411 -0.4421195 -0.040828597 -0.2127076 -0.3036426
-0.72216016 -0.7264855 0.039004512 0.20666105 -1.1528362 -0.5444553 0.3224276 0.7224062
0.017056327 2.5557816 -0.19284537 -0.11197656 -0.39170337 0.2836144 0.41788793 -1.6391816
-1.1602707 0.7141941 -0.13583612 -0.9868873 0.4766602 -1.3353273 0.03393896 0.06442578
1.3980125 2.7394133 -1.1626778 -2.4279428 1.32771 -0.09356028 -0.45029217 -0.73953503
-1.1738362 -0.36531144 0.16426006 -0.18939507 -0.24263875 -0.56086135 0.44427025 -0.49018794
2.684577 -1.8783509 -2.2269585 -0.37296706 0.8909876 0.69488686 0.8441478 -0.45697466
0.2379361 1.03236 -0.781406 -0.5120171 -0.11819199 0.4360558 0.01679688 0.07204659
0.8110906 -0.20319799 -1.094971 -0.3679052 -0.8849084 -0.39989045 0.35343084 -0.5978248
0.20442253 1.0758268 -0.90506476 1.7203076 1.192214 -0.64460784 -0.10833435 0.08250001
1.2113569 -0.27760658 -0.49583578 -0.57342374 -0.6541003 -0.655856 -0.8776054 0.4326925
0.46206445 0.40433356 0.31118616 -1.8942745 1.8794631 -0.54258424 -0.49844918 -0.4973891
2.606517 1.1883967 0.2374346 -0.36922866 -0.18677332 -1.1903273 -0.09363913 0.20111676
-1.4843158 0.4215619 -1.4385161 0.7080811 -0.16376685 0.06606351 -0.9767329 -0.9492707
-0.45296052 0.30164286 -0.89195555 -0.9815466 -1.5524188 1.1925987 -0.45590025 0.4186943
0.8534475 2.2212722 -0.8824688 0.23456413 -0.6916157 -0.58494514 -2.5127695 -0.74992365
-2.4694576 -0.4681238 0.24710697 -0.92238086 0.59617156 0.9611698 -0.660443 1.0277575
0.47541115 -0.5256433 -2.19852 0.14096373 -1.345237 0.41763562 -0.36983132 -1.3412218
-0.24829175 0.1432433 -0.6741384 1.136827 0.63349926 -0.48050392 0.28885427 0.15985523
0.214047 -0.6986837 -0.70822895 -0.4122847 1.0699244 -0.53119415 -0.05197644 1.1611917
00000000: 4a28 02c0 5c8a 25bf f5db acbf bc1e 1640
00000010: c256 04be d1c8 1d3f 792e 623f 3327 b83f
00000020: aed8 04c0 3db2 c7bf 5d2b c9bf 2b36 92be
00000030: 3733 b5bf 2927 1ac0 f06f a9bf c434 953f
00000040: 313c 23bf 500c 0ac0 66c0 4bbc 12fd 313f
00000050: 8a46 acbd 9091 6fc0 7ec9 f8bd e780 b9bf
00000060: b026 06c0 1785 34be c6bc 283f 5302 9b3f
00000070: ed5b ecbf c6aa d7bc 382f 993e ebf0 4b3f
00000080: 913e b13f 1a4d 963f 4ca8 04bd 28bb 5c3d
00000090: f2de d83e 7d4b 4cbf 273a c23e 8d55 36be
000000a0: b805 0d3f d16b 0a40 b019 20bf 9973 3d3e
000000b0: 2e5b 623e 606c 2c3f e052 cb3f 28fc 03bf
000000c0: 04ab 423f 8a54 71bf fdfc 7cbd 4231 d93d
000000d0: 6bca 91bf 6917 603f bc5e 433e 5eea cc3e
000000e0: a99d ae3f 42db 203f 966f 9d3e d532 99bf
000000f0: 1fc3 13bf 0848 20bf ac22 4a3e 8258 4ebf
00000100: b3cd 96be 347c 6fbf c6f2 1ebf c061 83bd
00000110: a6a2 85bf 521a 7a3f 2a8d 05bf f54c 36be
00000120: f47d 563f f8de 2cbe 432c a7bf 2959 d53f
00000130: a32e 493f e218 0c3f 7420 c8bf 1823 1f3e
00000140: 1498 fa3f a59e 93be 6fca 203d 853e bbbf
00000150: ac35 bf3f 2eb5 63bf 841b f4bf 9bf5 d03e
00000160: f412 2a3e 4e14 eb3d 8eb2 2ec0 1058 ecbc
00000170: e28e db3f 19cf a5bf a75c 063e 136d 92bf
00000180: c961 c0bf 338d 153e f8a4 5abf e698 9e3f
00000190: 7d5d e2be e33b 27bd 05d0 59be 0b77 9bbe
000001a0: 7ddf 38bf f4fa 39bf 32c3 1f3d f49e 533e
000001b0: 2390 93bf 6c61 0bbf 3b15 a53e 9def 383f
000001c0: b6b9 8b3c ed91 2340 4279 45be f753 e5bd
000001d0: 588d c8be e835 913e 68f5 d53e b4d0 d1bf
000001e0: c083 94bf 6dd5 363f a018 0bbe a5a4 7cbf
000001f0: ce0c f43e 01ec aabf 9403 0b3d aaf1 833d
00000200: 13f2 b23f 8c52 2f40 a0d2 94bf 6a63 1bc0
00000210: 67f2 a93f 889c bfbd b28c e6be 2b52 3dbf
00000220: 4440 96bf 1a0a bbbe ca33 283e c8f0 41be
00000230: 4b76 78be 9c94 0fbf 6477 e33e eaf9 fabe
00000240: 1cd0 2b40 cd6d f0bf 7d86 0ec0 8af5 bebe
00000250: c317 643f 1be4 313f 121a 583f 95f8 e9be
00000260: 85a5 733e 5f24 843f 390a 48bf 8d13 03bf
00000270: a40e f2bd b542 df3e 9c99 893c 2a8d 933d
00000280: a2a3 4f3f 2213 50be 0228 8cbf 125e bcbe
00000290: 5b89 62bf 71be ccbe e3f4 b43e 0c0b 19bf
000002a0: 2454 513e b1b4 893f 53b2 67bf 0a33 dc3f
000002b0: 789a 983f 0505 25bf 66de ddbd c4f5 a83d
000002c0: be0d 9b3f 7322 8ebe 30de fdbe e6cb 12bf
000002d0: 1e73 27bf 2ee6 27bf bfaa 60bf df89 dd3e
000002e0: b693 ec3e cf04 cf3e cb53 9f3e 9677 f2bf
000002f0: 3f92 f03f cde6 0abf bb34 ffbe c9a9 febe
00000300: 2dd1 2640 621d 983f 0e22 733e 8a0b bdbe
00000310: 8141 3fbe a55c 98bf dfc5 bfbd 8df1 4d3e
00000320: 0ffe bdbf f6d6 d73e 4c21 b8bf ce44 353f
00000330: 7fb2 27be 4e4c 873d 2b0b 7abf 6803 73bf
00000340: 71ea e7be ef70 9a3e 3357 64bf a346 7bbf
00000350: a9b5 c6bf 13a7 983f c26b e9be 195f d63e
00000360: 897b 5a3f 5329 0e40 7ae9 61bf 9431 703e
00000370: ba0d 31bf f7be 15bf 37d1 20c0 fffa 3fbf
00000380: 980b 1ec0 ecad efbe 9c09 7d3e 2721 6cbf
00000390: b39e 183f 390f 763f cb12 29bf 8f8d 833f
000003a0: 1769 f33e 8f90 06bf 8db4 0cc0 cc58 103e
000003b0: ba30 acbf 56d4 d53e 885a bdbe 28ad abbf
000003c0: 3140 7ebe 5fae 123e 5694 2cbf 8c83 913f
000003d0: 022d 223f 9c04 f6be b5e4 933e 17b1 233e
000003e0: 232f 5b3e efdc 32bf 7e4e 35bf fb16 d3be
000003f0: 48f3 883f 57fc 07bf 3fe5 54bd eea1 943f

bias f4 [64]
0.5861389 0.6120193 -0.1679989 1.2574381 0.33351243 0.16304806 0.75470936 -0.21736531
0.33989933 0.649167 0.48937926 -0.7845547 -0.3740637 0.17135751 -0.65682536 0.31481144
0.689205 -0.17300199 -0.044723447 -0.3155416 -0.6195414 1.0263922 -0.8414316 1.291073
-0.7635678 1.1549817 -0.323746 -0.7496196 -0.30247664 0.028254809 -0.11050232 -0.40024045
-0.5124013 -0.27685198 -0.47752112 -0.6630419 0.32962647 0.579824 -0.95864576 -0.36344865
0.55488396 1.3992344 -0.9714008 0.38803065 -0.26241657 0.15380925 0.38840568 -0.8948506
-0.94123644 0.18370299 0.06168193 0.030712707 -0.31892586 0.4717815 0.03901212 -0.23164232
0.6388168 -0.26214197 -0.40322667 0.5530718 1.1990323 -0.919261 0.780487 0.35082483
00000000: 330d 163f 4cad 1c3f e707 2cbe bbf3 a03f
00000010: 24c2 aa3e 12f6 263e a234 413f 0395 5ebe
00000020: 4907 ae3e cf2f 263f eb8f fa3e 94d8 48bf
00000030: 4785 bfbe 5878 2f3e b525 28bf f72e a13e
00000040: bd6f 303f 6f27 31be ef2f 37bd ab8e a1be
00000050: 449a 1ebf d260 833f 1068 57bf e141 a53f
00000060: 2e79 43bf 71d6 933f 09c2 a5be 12e7 3fbf
00000070: 38de 9abe a176 e73c 0a4f e2bd 51ec ccbe
00000080: bb2c 03bf 8bbf 8dbe a67d f4be 1dbd 29bf
00000090: cdc4 a83e 586f 143f cf69 75bf f115 babe
000000a0: e00c 0e3f 1d1a b33f b9ad 78bf f4ab c63e
000000b0: 775b 86be 2c80 1d3e 1cdd c63e ee14 65bf
000000c0: dff4 70bf a31c 3c3e 31a6 7c3d 3799 fb3c
000000d0: 404a a3be 588d f13e 2ccb 1f3d a533 6dbe
000000e0: 7f89 233f 7937 86be ba73 cebe 1d96 0d3f
000000f0: e479 993f b054 6bbf ffcd 473f 509f b33e

weight f4 [64]
2.0914986 1.298429 1.0858402 2.1618013 2.2477517 1.1456984 1.6477277 1.2776874
1.6604553 1.2177906 1.6741848 1.4970767 1.9517525 1.5655739 0.9735228 1.1894699
1.8836017 0.95588994 0.099529855 1.1170594 1.7480384 0.9637847 1.5791495 0.7844251
1.5588568 2.1969955 2.1130311 2.0008464 1.2312297 1.2304085 0.11842253 2.5021484
1.1561751 0.8984877 1.6003169 1.7421032 2.030809 0.9087616 0.9430639 1.2584002
1.1572562 1.0889789 1.3202341 0.4922155 1.2456672 0.7480045 1.8501298 1.405174
1.2904661 0.82599616 0.1120108 0.33329472 0.98970085 2.0651498 0.78107095 1.6848792
1.0741992 0.5973906 1.171664 1.0826753 1.5045696 1.4039236 1.3277167 1.7916722
00000000: 1ddb 0540 ec32 a63f d0fc 8a3f f45a 0a40
00000010: 2adb 0f40 3fa6 923f bee8 d23f 438b a33f
00000020: cd89 d43f 90e0 9b3f b04b d63f 36a0 bf3f
00000030: 07d3 f93f ba64 c83f ca38 793f 8d40 983f
00000040: dc19 f13f 34b5 743f 4fd6 cb3d cdfb 8e3f
00000050: b9bf df3f 98ba 763f 9221 ca3f 15d0 483f
00000060: 9f88 c73f 939b 0c40 e73b 0740 de0d 0040
00000070: ef98 9d3f 077e 9d3f 8387 f23d 3323 2040
00000080: 8cfd 933f 4a03 663f 2fd7 cc3f 3dfd de3f
00000090: c6f8 0140 9aa4 683f a36c 713f 4213 a13f
000000a0: f920 943f a963 8b3f 6efd a83f ac03 fc3e
000000b0: 0672 9f3f 397d 3f3f 0ed1 ec3f bedc b33f
000000c0: fe2d a53f 7c74 533f eb65 e53d 9ba5 aa3e
000000d0: 095d 7d3f 6a2b 0440 44f4 473f 1faa d73f
000000e0: 5c7f 893f 97ee 183f 16f9 953f 1b95 8a3f
000000f0: bd95 c03f c5b3 b33f 9ff2 a93f 8455 e53f

bias f4 [64]
-0.11564026 -1.1991029 -0.55475444 -0.83843327 0.27763197 0.33548367 -0.40342766 -0.0017170444
-0.7445635 -0.4147263 -0.37388647 -0.45693138 -1.4715819 -0.52720565 -0.8637279 0.2972522
-0.27175653 -0.6961629 -1.2711487 -1.0272801 -0.68951607 1.9100264 1.4509896 0.8350475
-0.9273309 -0.20392236 -0.62018824 -0.3093241 -0.17120504 -0.47776967 -1.3179251 0.3030233
-0.47448757 -0.8509292 -0.32583207 -0.6253441 -0.8277864 -1.3035669 -1.5582824 -1.2765458
-0.4689998 -0.51817787 -0.3679979 -0.3226359 -0.9556514 -2.005488 1.4961139 -0.8094591
-0.09536792 -0.7091846 -0.59729874 -1.14474 -0.5485119 0.34938306 -0.18024734 -0.023458019
-1.2242543 -0.1549351 0.09619561 -0.9323958 -0.61492354 2.0859044 0.9868116 -0.35347232
00000000: cdd4 ecbd 347c 99bf 6304 0ebf 90a3 56bf
00000010: c725 8e3e 84c4 ab3e 128e cebe 730e e1ba
00000020: b79b 3ebf 0157 d4be 0c6e bfbe e9f2 e9be
00000030: cc5c bcbf f3f6 06bf 461d 5dbf 7131 983e
00000040: ac23 8bbe bb37 32bf 00b5 a2bf ea7d 83bf
00000050: 2084 30bf bf7b f43f 07ba b93f acc5 553f
00000060: 8f65 6dbf 06d1 50be a8c4 1ebf ba5f 9ebe
00000070: 6050 2fbe 3a9e f4be c5b1 a8bf df25 9b3e
00000080: 09f0 f2be 7fd6 59bf 76d3 a6be 8d16 20bf
00000090: cfe9 53bf 48db a6bf cc75 c7bf da65 a3bf
000000a0: be20 f0be 4ea7 04bf 396a bcbe 8830 a5be
000000b0: 92a5 74bf ea59 00c0 a980 bf3f b638 4fbf
000000c0: 4250 c3bd 1f8d 35bf 92e8 18bf d786 92bf
000000d0: 476b 0cbf 56e2 b23e c292 38be 082b c0bc
000000e0: 5db4 9cbf 4fa7 1ebe 3402 c53d 7eb1 6ebf
000000f0: a16b 1dbf 757f 0540 af9f 7c3f 53fa b4be

running_mean f4 [64]
-19.5763 -2.8155508 -17.800898 -5.546131 -1.3597438 2.088643 1.8313426 -28.16796
-9.462638 7.152099 -0.071195394 -23.460651 -36.93907 6.062112 10.825691 3.0075212
3.158326 3.057322 6.8213496 -2.5577872 -33.981735 10.660947 -20.568472 14.616296
-28.692308 -21.53082 -8.947653 -8.564232 -9.649713 -11.114905 12.142813 -14.866266
-6.4438214 -1.0000994 2.8068159 -2.9886026 7.5720453 3.1192524 10.990758 -29.81092
-6.4084506 -5.827394 -3.4073372 -5.764797 5.92034 16.484955 -7.477591 -2.3377512
-10.972849 3.1744065 6.9895825 16.171883 -2.5910788 -14.655462 -1.6796154 8.506147
8.575877 -13.085725 7.913116 11.190547 1.2966434 -7.1601295 -17.040934 -10.673605
00000000: 439c 9cc1 fc31 34c0 3d68 8ec1 e879 b1c0
00000010: 160c aebf 54ac 0540 6f69 ea3f fb57 e1c1
00000020: f766 17c1 ffdd e440 e4ce 91bd 6aaf bbc1
00000030: 9cc1 13c2 d2fc c140 0836 2d41 3a7b 4040
00000040: 0322 4a40 2aab 4340 7f48 da40 c9b2 23c0
00000050: 4ced 07c2 3d93 2a41 3b8c a4c1 59dc 6941
00000060: d989 e5c1 1f3f acc1 9629 0fc1 1807 09c1
00000070: 3965 1ac1 a7d6 31c1 f648 4241 3adc 6dc1
00000080: c933 cec0 4203 80bf dfa2 3340 4445 3fc0
00000090: 324e f240 d5a1 4740 25da 2f41 c47c eec1
000000a0: 0712 cdc0 037a bac0 d011 5ac0 3879 b8c0
000000b0: 6d73 bd40 30e1 8341 6d48 efc0 b79d 15c0
000000c0: ca90 2fc1 7a29 4b40 a9aa df40 0460 8141
000000d0: 3cd4 25c0 c67c 6ac1 a3fd d6bf 2e19 0841
000000e0: cb36 0941 215f 51c1 3f38 fd40 7b0c 3341
000000f0: 69f8 a53f c81f e5c0 d553 88c1 16c7 2ac1

running_var f4 [64]
294.65042 133.23395 160.75758 179.8545 221.42053 306.85226 141.90347 263.65646
156.43904 101.138306 233.56792 119.29782 99.23053 238.03745 223.76488 246.67723
220.47383 204.88661 42.860626 128.4552 216.88187 174.42836 177.1931 100.81345
177.7255 180.04149 168.6963 211.36893 178.34949 84.697174 82.6269 262.75272
142.71556 120.144775 256.93756 217.44514 154.6349 151.3132 163.90056 188.19725
214.72366 170.44963 172.2609 156.3853 142.79346 168.52423 236.84734 141.01128
277.35693 166.49507 157.66675 162.91951 227.54382 191.50134 245.58151 173.45494
185.30042 179.65628 228.18394 180.86508 199.63525 205.41988 203.19312 277.88715
00000000: 4153 9343 e43b 0543 f1c1 2043 c1da 3343
00000010: a86b 5d43 176d 9943 4ae7 0d43 07d4 8343
00000020: 6570 1c43 d046 ca42 6391 6943 7c98 ee42
00000030: 0876 c642 9609 6e43 cfc3 5f43 5fad 7643
00000040: 4d79 5c43 f9e2 4c43 4871 2b42 8874 0043
00000050: c2e1 5843 a96d 2e43 6f31 3143 7da0 c942
00000060: bab9 3143 9f0a 3443 41b2 2843 725e 5343
00000070: 7859 3243 f464 a942 f940 a542 5960 8343
00000080: 2fb7 0e43 204a f042 0278 8043 f571 5943
00000090: 89a2 1a43 2e50 1743 8be6 2343 7f32 3c43
000000a0: 42b9 5643 1b73 2a43 ca42 2c43 a362 1c43
000000b0: 20cb 0e43 3486 2843 ebd8 6c43 e302 0d43
000000c0: b0ad 8a43 bd7e 2643 b0aa 1d43 65eb 2243
000000d0: 388b 6343 5880 3f43 de94 7543 7774 2d43
000000e0: e84c 3943 02a8 3343 172f 6443 76dd 3443
000000f0: a0a2 4743 7d6b 4d43 7031 4b43 8ef1 8a43
