unet/checkpoints/one_loss/epoch_69.pth (torch, 508787 bytes, 85 tensors)

weight f4 [8, 1, 3]
000000 4d 33 85 3f f2 10 80 3d 01 7a 3f 40 c7 9d 23 3f
       1.0406281 0.06253232 2.9918215 0.63912624
000010 d5 7f 68 c0 8a 8b f9 be 7f bb a9 bf 2f 62 d6 3f
       -3.6328022 -0.48739272 -1.3260344 1.6748713
000020 88 ab 49 3f 34 b0 82 c0 22 70 93 be 52 5e 41 3f
       0.7877736 -4.084009 -0.28796488 0.75534546
000030 98 1e 85 3f 56 73 20 c0 03 fb 91 be 6f 7a 6b 3f
       1.0399961 -2.5070395 -0.2851182 0.91983694
000040 36 82 77 40 20 58 99 be d8 56 cc bf f3 3d 71 3f
       3.8673224 -0.29950047 -1.5964003 0.9423515
000050 ea c3 da bf f7 79 43 40 54 f6 03 be ef 35 78 bf
       -1.7091038 3.0543191 -0.12886935 -0.96957296

bias f4 [8]
000000 2f b5 28 3e 2b f1 8d 3d 39 9f dd 3d 9c 5d cf 3e
       0.16475366 0.06930765 0.10821385 0.40501106
000010 42 bb 41 be 6a ce eb 3d 8b 40 aa be 24 13 04 3e
       -0.1891909 0.1151398 -0.33252367 0.12897927

weight f4 [8]
000000 2a 5f ac 3f 2e b7 ef 3f 01 35 f8 3f 58 76 ff 3f
       1.3466542 1.8727777 1.9391176 1.9957991
000010 68 2d 00 3f a2 4b 36 40 1e f5 82 3f 45 f3 11 40
       0.50069284 2.8483663 1.0231054 2.280473

bias f4 [8]
000000 e9 29 cf bf 1a aa e9 3e 0d b5 c1 3f d1 2d 02 40
       -1.6184665 0.4563759 1.5133377 2.0340464
000010 e0 4c 0f 40 2c fd d9 bd b4 9c 06 bf 06 1f 85 be
       2.239067 -0.10643992 -0.5258286 -0.26000232

running_mean f4 [8]
000000 f9 90 13 3e 81 49 64 3d f3 e4 0a 3e f8 64 fb 3e
       0.14410771 0.05573416 0.135639 0.4910047
000010 b8 d8 56 be 5b a5 c5 3d d0 e7 99 be 4d 6b 89 3d
       -0.20981109 0.0965068 -0.3005967 0.06709919

running_var f4 [8]
000000 d3 a2 51 49 7c 58 28 49 32 27 d3 47 52 74 39 49
       858669.2 689543.75 108110.39 759621.1
000010 58 f8 4f 48 4d 01 83 49 d5 ac 92 48 7e e3 86 48
       212961.38 1.0731936e+06 300390.66 276251.94

weight f4 [16, 8, 3]
000000 44 ce 55 3e 64 a9 d1 bf 5a b4 69 c0 d9 54 b5 3f
       0.20879465 -1.6379819 -3.6516328 1.4166518
000010 85 24 8b 3f 9b 13 96 bf 71 af a2 bf 0b 08 39 3f
       1.087052 -1.1724733 -1.270979 0.722779
000020 61 d3 57 3f 8d 55 d8 3f e4 ba 55 40 86 e8 4d 3f
       0.84306914 1.6901108 3.339532 0.8043293
000030 ea 3d 10 40 c7 2f 9c 3f 03 be b5 bf c8 e3 22 c0
       2.253779 1.220208 -1.4198612 -2.5451527
000040 1e 12 d7 bf ac 67 a8 be 8c 2c 1f 3f 8e bd a3 bf
       -1.6802404 -0.32891595 0.6217735 -1.2792222
000050 31 1e 86 3f 2a 1c 4b 3f 12 76 26 bf 8e d8 36 bf
       1.0477964 0.7933985 -0.6502391 -0.71424186
000060 1e 93 7f 3f 21 de bb 3f 64 73 c8 3d d6 2f 87 3e
       0.9983386 1.4677163 0.09787634 0.26403683
000070 4e 97 94 3f 1a 37 3e bf 71 87 82 3f 81 90 6a 3f
       1.1608675 -0.7430283 1.0197583 0.91626745
000080 7f ee 14 3f f1 54 f5 bf 6f 2e 40 3e cc dd 68 3f
       0.58176416 -1.9166547 0.18767713 0.90963435
000090 9f 9b 74 3d 60 90 43 3f 9f 3e 93 bf e0 c7 71 40
       0.059718724 0.76392174 -1.1503485 3.7778244
0000a0 d1 92 07 40 f5 d1 fd 3f 25 d6 b0 3e 4c a4 0b bf
       2.118336 1.9829699 0.3453838 -0.5454757
0000b0 63 0c 91 3f 96 47 a4 bd 71 64 f9 3f 5c 21 57 3f
       1.1331905 -0.080214664 1.9483777 0.8403528
0000c0 12 e2 e0 bf 09 41 0b 3f 42 cf f5 bf f9 cb 82 3e
       -1.7568991 0.5439611 -1.9203875 0.25546244
0000d0 e9 f7 57 3f 58 cb 2e be 83 c2 75 bf 8c 47 cc bf
       0.84362656 -0.17069757 -0.95999926 -1.5959334
0000e0 60 99 54 3f 49 ba 5b c0 7e 46 bd 3e 1b d9 5c 3f
       0.8304653 -3.433245 0.36967844 0.86268777
0000f0 c2 5a 66 3f 5f 4c 88 3f 75 20 1c bf 65 90 4b 3f
       0.89982235 1.0648307 -0.60987025 0.79517204
000100 f7 22 b3 bf 58 6b 8c bd 7a 90 9e bf 73 7b fd 3e
       -1.3995045 -0.06856412 -1.2387841 0.49508247
000110 44 c7 d6 3f 0c 1f ce 3f 94 b4 a4 bd 25 ee 08 c0
       1.6779561 1.6103225 -0.08042255 -2.1395352
000120 0f 74 51 40 b3 4c 9d 3f d9 80 76 bd 60 89 27 40
       3.2727087 1.2289032 -0.060181472 2.6177597
000130 6c 98 33 40 bb 6a 20 3f 96 1b bb be 12 85 aa 3d
       2.806178 0.6266286 -0.36544484 0.083261624
000140 c5 90 b0 bf 08 4b 4d 3f 73 78 38 40 be 1f 11 3f
       -1.379418 0.80192614 2.8823516 0.5668906
000150 bb bf b2 3f 43 1d c9 3f 39 ca 46 3e 71 17 76 bf
       1.3964761 1.5712055 0.1941308 -0.9612952
000160 e6 5c 0c 3f 6e 72 0c c0 cc 24 e9 bd d3 4b dd 3f
       0.5482925 -2.1944842 -0.113839716 1.7288765
000170 cd 6a ba be 18 6b 80 be 8d 58 a6 bf 88 dd a1 3f
       -0.36409608 -0.25081706 -1.2995774 1.2645731
000180 ba 98 f6 3f 2e 33 dc bf 48 5e f5 bf 6e 10 88 bf
       1.9265358 -1.7203119 -1.9169397 -1.0630014
000190 d1 04 19 c0 99 58 50 bf 9f 79 df be 5b cc ae bf
       -2.390919 -0.8138519 -0.43647477 -1.3656114
0001a0 14 2d 05 c0 48 d2 9a bf ad 74 33 bf 26 e0 c9 be
       -2.0808764 -1.2095423 -0.7009991 -0.39428824
0001b0 88 96 02 3f e7 76 30 bf b5 d3 c2 3d e7 8a cc 3f
       0.5101094 -0.6893143 0.09513036 1.597989
0001c0 58 ac 93 3e 0e 79 90 bf 0b 41 b1 bd f2 5d 06 c0
       0.28842425 -1.1286943 -0.08654984 -2.099484
0001d0 a6 43 56 bf b2 90 0f 40 20 b6 a1 3f 48 1d be 3e
       -0.83696973 2.2432065 1.2633705 0.37131715
0001e0 2b 13 18 40 e8 b4 b0 be b8 9a eb bf e0 33 1f 40
       2.37617 -0.3451302 -1.8406591 2.4875412
0001f0 61 d1 d4 3f 40 f6 27 40 be f5 9b 39 cb c4 1c bf
       1.6626397 2.624405 0.00029746996 -0.6123778
000200 e3 13 cd bf 8b 48 2d 3f dc 76 fc 3f b5 2c 61 3f
       -1.6021694 0.67688817 1.9723773 0.8795884
000210 a3 fc cd 3f 9e 60 88 3f 55 f6 d4 3f 20 28 80 be
       1.6092724 1.0654485 1.6637675 -0.25030613
000220 c0 3d 68 3e 01 e4 a4 bf f7 10 eb 3d 10 1c 98 3f
       0.22679806 -1.2882081 0.11477845 1.1883564
000230 2c 9c aa 3d fe 41 a2 3f 36 e1 69 3f c9 32 8d 3f
       0.08330569 1.2676389 0.9135927 1.1031123
000240 fc 9e 54 3f 9f 87 42 bf fa fa 98 3f 10 f1 4b c0
       0.8305509 -0.7598819 1.1951592 -3.1865883
000250 62 8a a1 3f 40 8a 3c 3e a6 49 0f c0 ad 35 8a bf
       1.2620356 0.18412113 -2.2388701 -1.079763
000260 b1 83 be bd f5 12 7d bf 55 8d 0a c0 b7 36 40 3f
       -0.09302462 -0.9885705 -2.1648762 0.7508349
000270 28 4b 1a c0 46 72 81 3f a2 de 03 3f d1 55 51 bd
       -2.4108372 1.0112998 0.51511586 -0.05110723
000280 ac 3c 2c bf b7 91 cb be 9b df 80 3f f5 60 f7 3f
       -0.6728008 -0.3975961 1.0068239 1.9326464
000290 d8 ce 9d bf f7 2d 44 3f 7c f3 dc bf 5c 6d e2 bf
       -1.2328749 0.76632637 -1.7261806 -1.7689624
0002a0 4b a8 9a 3f 77 64 6c 3f 30 de c4 3e cd 0b 94 3e
       1.2082609 0.923408 0.38450766 0.28915253
0002b0 de c7 18 c0 08 f1 cc 3e ed a9 1d bf 76 76 d1 3f
       -2.387199 0.40027642 -0.6158741 1.6364276
0002c0 44 3e 36 c0 a1 33 11 bf 84 2b 8b 3f f6 2f 6a bf
       -2.8475504 -0.56719404 1.0872655 -0.9147943
0002d0 fb 5c 0d 3f 37 81 0b c0 0d 83 9a be bd 7b f1 3f
       0.5522 -2.1797616 -0.3017811 1.8865887
0002e0 a9 27 b9 3f 85 40 1d bf dc 41 1d c0 38 bc 8d 3f
       1.4465228 -0.61426574 -2.4571447 1.1073065
0002f0 be 26 c9 3e 3a ad 82 3e 39 02 c6 3f 9c 56 a9 3d
       0.3928737 0.25522786 1.5469428 0.082684726
000300 dd 13 90 3f 5f 72 09 c0 20 aa cc 3f 05 3e d2 be
       1.1256062 -2.1476057 1.5989418 -0.41062942
000310 cb a0 23 3f 24 62 03 3f d3 cd 8b bf 3b 70 50 c0
       0.63917226 0.51321626 -1.0922188 -3.25685
000320 be 13 04 3d 68 b9 2e c0 9c e5 95 be da 0a 1e 3e
       0.03224539 -2.7300663 -0.2927674 0.15433827
000330 15 10 ab be a4 71 f5 3e 08 77 00 40 31 57 ac bd
       -0.33410707 0.47938263 2.007265 -0.08415068
000340 73 25 11 bf 6b 97 69 c0 e4 54 98 bf 25 7b 8a bf
       -0.5669777 -3.6498668 -1.1900907 -1.0818831
000350 66 b3 2d 3f 4d 6f c8 3f 05 21 80 be b2 91 9c 3e
       0.67851865 1.5658966 -0.25025192 0.30579907
000360 52 c8 1b c0 08 6c 46 bf 02 af 04 bf ba f7 fc bb
       -2.4341016 -0.7750859 -0.5182954 -0.007719961
000370 6b 4a 70 be ea f6 30 40 b5 91 f4 be 5e 56 05 bf
       -0.23465888 2.7650704 -0.47767416 -0.5208491
000380 75 ac 17 c0 46 a6 09 c0 f3 66 ba 3e 69 e7 51 bf
       -2.369901 -2.1507735 0.3640667 -0.8199373
000390 ae 11 11 3d 10 82 07 3f dc 5c 54 40 2e d9 e2 3d
       0.03541725 0.52932835 3.3181677 0.1107658
0003a0 6e 96 cd bf 91 86 1c c0 d7 5c d2 bf b3 c6 9d 3f
       -1.6061532 -2.4457133 -1.6434582 1.2326263
0003b0 07 ce 42 3d 06 4e c1 3f 5a 0f 8f 3e e4 f5 ae bd
       0.047559764 1.5101936 0.279414 -0.08542994
0003c0 ad 09 90 3e 4c 9b f0 3e 05 c2 0d 3d 54 b7 e7 3f
       0.28132382 0.46993482 0.03460886 1.8102822
0003d0 4a ad 0c 40 71 fa 04 40 e9 f8 7a be 61 c1 03 bf
       2.1980767 2.0777857 -0.24509014 -0.5146695
0003e0 99 0e c3 be 7a b1 46 3f 17 d3 d0 3f 9b 03 dc 3f
       -0.38097075 0.7761456 1.631442 1.71886
0003f0 11 1b 9c 3f a3 14 aa 3f de 22 c8 3f 8e 3b 19 3d
       1.219576 1.3287548 1.5635641 0.03741031

bias f4 [16]
000000 03 7f 0c bf 19 87 8f 3f ea c2 c2 3d 14 79 26 3e
       -0.54881305 1.1213104 0.09509833 0.16257125
000010 88 b3 5d 3f 86 08 95 3f dd 06 22 3f 4b 52 95 be
       0.8660207 1.1643226 0.6329172 -0.29164347
000020 fc 6a 6c 3f e2 f6 f1 3b 41 f5 a6 3e d5 03 c5 be
       0.92350745 0.007384167 0.3260899 -0.38479486
000030 39 ef ac 3e 94 96 9a 3f d6 14 11 40 02 25 76 3f
       0.33776262 1.2077203 2.2668967 0.9615022

weight f4 [16]
000000 6c 51 bc 3f 34 67 e5 3f e5 75 9a 3f bf 67 e0 3f
       1.4712348 1.792212 1.2067229 1.7531661
000010 d0 b1 d1 3f 9f 06 94 3f df 79 29 3f 2c 1d 66 3f
       1.6382389 1.1564521 0.66201586 0.8988826
000020 6d bd 94 3f df 36 99 3f 95 f2 8d 3f 4a 11 e1 3f
       1.1620308 1.196987 1.1089655 1.7583401
000030 c1 98 f3 3f 9c 89 00 40 8a e0 bd 3f 90 a1 c6 3f
       1.9030992 2.008399 1.4834149 1.5518055

bias f4 [16]
000000 04 fa a4 3f 0f b0 b2 bf 4c ab ce 3e 78 43 48 3e
       1.2888799 -1.3959979 0.40365064 0.19556987
000010 94 9e 23 3f 76 d0 21 3e a6 fe 3f 3f 7c ee 11 40
       0.63913846 0.15802178 0.7499794 2.280181
000020 be da 67 40 3d 33 61 3f 38 c7 91 be a2 ae a1 be
       3.622726 0.8796881 -0.28472304 -0.31578547
000030 e7 7d 85 be df 4f 55 3f 35 65 ff 3e 46 da 79 3f
       -0.26072618 0.83325 0.49881902 0.97598684

running_mean f4 [16]
000000 de 64 54 41 a5 20 5b 41 ef 2b 9f c0 80 ec 88 41
       13.274626 13.69547 -4.974113 17.115479
000010 bb 95 45 c1 c0 59 b2 41 e3 f7 86 c1 5a b6 c1 c0
       -12.349055 22.293823 -16.871038 -6.0535097
000020 82 e6 29 c1 5a 9a 66 c0 5e a9 a7 41 9d 5a 85 41
       -10.618776 -3.6031709 20.957699 16.669245
000030 e8 d1 37 be 2a 26 c8 40 a2 ec 9f c0 f8 91 00 41
       -0.17951167 6.2546587 -4.997636 8.035637

running_var f4 [16]
000000 a7 25 c3 43 2d b1 c3 43 64 91 99 42 ab 2d bb 43
       390.29416 391.3842 76.783966 374.35678
000010 4a fc f2 42 2f cb 91 43 cc a0 7f 42 53 6a c1 42
       121.49275 291.58737 63.90703 96.707664
000020 76 c5 08 43 9e 49 17 43 26 4d a9 43 46 42 2d 43
       136.77133 151.28757 338.60272 173.25888
000030 e0 0f 03 44 aa 00 27 43 53 18 7b 42 9c 0a 14 44
       524.24805 167.0026 62.773754 592.1658

weight f4 [16, 16, 3]
000000 88 60 35 c0 89 0e a1 3e 55 d9 ed bd 1e 9d d7 3f
       -2.8340168 0.31456402 -0.116137184 1.6844823
000010 19 e0 8c 3f 5b a1 80 bf 26 9b 14 c0 c3 c5 c0 bf
       1.1005889 -1.0049242 -2.3219695 -1.5060352
000020 25 79 69 bf 09 a1 5f be 8f b4 2a 3e 8b 53 d7 3d
       -0.91200477 -0.21838774 0.1667044 0.105139814
000030 81 5d 04 be 1d 10 61 3f 00 6f bc 3f 55 ed 96 bd
       -0.12926294 0.8791521 1.4721375 -0.07369486
000040 cb 1c 90 bf b2 a0 a0 be f4 ad 59 bf 4f a4 84 bd
       -1.1258787 -0.313726 -0.85031056 -0.06476652
000050 01 3c 67 3f a2 0d a6 3e 15 72 38 3f e6 6c 79 bf
       0.90325934 0.32432276 0.72049075 -0.9743179
000060 cb 66 76 bf ff 2c ff 3e 80 72 3f 40 d4 2b 40 be
       -0.962506 0.49839017 2.9913635 -0.18766719
000070 1f 52 17 bd 6a 98 d8 3e 79 12 44 bd ca 16 34 bf
       -0.03694355 0.42303783 -0.04786918 -0.70347273
000080 0f b8 02 bf 8c ad 20 bf 37 b4 23 bf e3 96 2b c0
       -0.510621 -0.6276481 -0.6394686 -2.6810844
000090 42 e0 02 40 1d b0 d7 3f 54 75 d3 be e0 fb 33 bf
       2.0449376 1.685062 -0.41300452 -0.70306206
0000a0 a4 a1 ca bf 1b 0b 3b c0 52 d5 d8 bf 00 8c 42 be
       -1.5830579 -2.9225528 -1.69401 -0.18998718
0000b0 37 68 8e bf df 3b 9e bc 03 1c 97 3f d8 0a 4b 3f
       -1.1125554 -0.019315658 1.1805423 0.7931342
0000c0 7b 28 20 c0 39 f7 cc 3e e0 3d 61 3f dd 77 d2 bf
       -2.5024707 0.40032366 0.8798504 -1.6442829
0000d0 af 5a 4c bf ed 44 33 3f 8e f6 8b bf 14 02 2e 3f
       -0.7982587 0.7002705 -1.0934618 0.6797192
0000e0 9f b7 09 bf f5 96 c6 be 5b b3 0b 3f 99 1f 7d 3f
       -0.5379581 -0.38787046 0.5457055 0.9887634
0000f0 a9 06 5b 40 c4 02 5a 3e 6b 66 21 bf 36 69 32 bd
       3.4222815 0.21290118 -0.630469 -0.04355737
000100 c6 93 cc 3e 68 4b eb 3e 37 89 a1 be cf 10 53 3f
       0.39956492 0.45955968 -0.3155 0.8244752
000110 18 c3 74 3e 24 67 04 bf 95 1b cb bf 0f 5f ff bf
       0.23902547 -0.5171988 -1.5867792 -1.9950885
000120 ec 33 5b bf 58 dc 72 3f 0b e2 bb bf 55 45 40 bf
       -0.856261 0.9486747 -1.4678358 -0.7510579
000130 80 58 63 3f ed b4 22 c0 ac b3 a7 3c 12 05 1d 3f
       0.88806915 -2.5422928 0.020471416 0.6133586
000140 a5 7f ea 3e 18 df b7 bf 2b f3 91 3f 24 b8 a3 bf
       0.4580051 -1.4364958 1.1402334 -1.279057
000150 d9 ae 97 3f 83 53 73 be 22 20 58 be 35 56 96 c0
       1.1850234 -0.23762326 -0.21106008 -4.6980233
000160 ec 52 5c bf e2 ef 3b bf 96 a2 6e c0 56 ea 6f be
       -0.8606403 -0.7341291 -3.7286735 -0.23429236
000170 f7 31 05 c0 6d fc 14 bf 17 03 d3 3f 5e f9 8d 3e
       -2.0811746 -0.5819767 1.6485318 0.27729315
000180 31 68 c9 bf 4d cf 3c c0 7e 17 94 bf ba 73 67 40
       -1.5734922 -2.9501526 -1.1569669 3.6164384
000190 11 3d 21 3f 12 c1 d3 bf d2 e4 bf bf 65 f0 12 3f
       0.62983805 -1.6543295 -1.4991705 0.5739806
0001a0 26 e9 44 bf be 4c 90 bf 39 db da bf 9e f3 6b bf
       -0.76918256 -1.127342 -1.7098151 -0.92168605
0001b0 36 10 c6 3e cd 54 7c 3e 5f 16 a3 3f 11 fb 33 3c
       0.38684243 0.24641724 1.2741202 0.010985152
0001c0 83 1a b6 bf d3 7b 18 be 6d b1 26 c0 91 5b bc 3f
       -1.4226841 -0.14890985 -2.6045792 1.4715444
0001d0 47 ab 36 3e ee 16 1f 3f ba 73 43 3f f7 44 23 3f
       0.17838775 0.6214436 0.7634846 0.63777107
0001e0 4e 51 05 c0 d1 fb 18 3f 0b e9 94 3f 40 4a 28 c0
       -2.0830874 0.5975924 1.1633619 -2.6295319
0001f0 3d 6d fc bf 2f 6b e7 3e 1b 0d 93 3e e4 b2 5e bf
       -1.9720837 0.45198962 0.28720936 -0.86991715
000200 a4 06 9b 3e 9f bc 85 bf 35 ac 3d 3f 5f b8 04 c0
       0.30278504 -1.0448188 0.7409089 -2.073753
000210 d8 c2 29 40 c7 2f c0 3f e6 bd 85 bf a8 b1 e0 3e
       2.6525173 1.501458 -1.0448577 0.4388554
000220 91 f4 1d be 91 a2 14 bf 95 3a 17 3e 97 da b2 3e
       -0.15425326 -0.58060557 0.14768441 0.34932396
000230 ce 73 3a bf 6d fb b2 bf ab 3f ef bf 25 a8 a3 bf
       -0.72832954 -1.3982979 -1.8691305 -1.2785689
000240 73 51 e9 3a e0 7a d8 be 8a c5 61 3f f4 cc e2 bf
       0.0017800763 -0.42281246 0.88192046 -1.7718797
000250 83 d5 1a 3f 78 f1 a7 3f 67 ae 89 3e 65 86 fb be
       0.60482043 1.3120565 0.2689087 -0.49125972
000260 8c 5a 26 c0 02 56 b3 be f1 c7 be 3e 6b 17 07 3f
       -2.5992765 -0.35026556 0.37261918 0.5277011
000270 ea 52 23 3f 6c 2d 82 3e 17 28 5a bf d7 ec b6 be
       0.6379839 0.2542528 -0.8521742 -0.3572757
000280 1c d2 91 3f a0 64 2a 3f 7a d0 5b 3f bb b5 c2 be
       1.1392245 0.6655979 0.85864985 -0.38029274
000290 a9 5a 8b bf 16 2c 16 bf 6a 53 70 bf 77 3d a5 bd
       -1.0887042 -0.5866102 -0.9387728 -0.08068364
0002a0 7f 07 af 3f db c0 fa 3e 81 ca b4 c0 fe be 85 3f
       1.3674163 0.48975262 -5.6497197 1.0448911
0002b0 1a b7 c2 3e 5c d5 f2 bf 65 87 5b bf 43 c5 9f 3f
       0.3803032 -1.8971362 -0.8575347 1.2482074
0002c0 0f 4d cc 3e 93 2c 9f 3e 97 6d 47 3f ef 37 3a be
       0.3990254 0.31088695 0.77901596 -0.181854
0002d0 95 a3 0d c0 15 21 38 3e c1 1a c9 3f 54 3d 86 3e
       -2.2131093 0.1798137 1.571129 0.26218665
0002e0 dd 03 27 3f 79 2b 31 40 80 5d 78 bf 07 13 83 bf
       0.6524027 2.7682784 -0.9701767 -1.0240182
0002f0 56 35 37 c0 43 68 23 3f b9 59 6f 3f aa b6 a2 3e
       -2.8626304 0.63830966 0.9349628 0.31779987
000300 c2 8d 2a 3f 62 50 89 3f 0c 34 cb be ed 92 f1 be
       0.66622555 1.0727656 -0.39688146 -0.47182408
000310 9a 10 f4 bf b8 d2 32 bf c2 a0 11 c0 48 e0 89 3d
       -1.9067566 -0.6985278 -2.2754369 0.067322314
000320 fe a0 93 bf a7 64 b6 3f b6 f1 a8 3f 0d b2 11 c0
       -1.1533506 1.4249467 1.3198764 -2.2764924
000330 23 0b 04 3f 24 71 58 bd 1a 8b 8b bd 7f c7 bc 3f
       0.51579493 -0.052842274 -0.06813641 1.4748381
000340 f7 bb 87 3f 17 0a 07 c0 bd 36 ed bf 5f 30 a0 3f
       1.0604237 -2.1099908 -1.853233 1.2514762
000350 59 83 c3 bd 7c cb d9 be ff a7 bd bf e0 a4 9f bf
       -0.09546537 -0.4253806 -1.4816893 -1.2472191
000360 23 e3 a2 bf d1 77 1b be 9e 7e b7 bf ce a0 4a be
       -1.2725567 -0.15182425 -1.4335515 -0.19787905
000370 c8 4f 80 be b9 ea 28 c0 20 ba cc 3f cb c6 0e 3f
       -0.25060868 -2.6393263 1.5994301 0.55772084
000380 4b c0 09 c0 e2 13 d1 3f b3 66 62 3e bf d5 24 c0
       -2.1523616 1.6334193 0.22109489 -2.575546
000390 b6 e7 fb bd 1b 53 00 c0 39 c8 8a bf 69 fc bd bf
       -0.12300055 -2.0050724 -1.0842353 -1.4842654
0003a0 02 ef 37 bf 1b bc 80 3e cb 72 b4 bf fd fa 11 c0
       -0.7184907 0.25143513 -1.4097532 -2.280944
0003b0 49 3c a7 be da 81 2d 3f c1 3e 58 3f 5f 89 b5 bf
       -0.3266318 0.6777626 0.84470755 -1.4182547
0003c0 cd 27 e1 bf 9b 0e fb 3e 63 d3 ca 3f 0d 32 e5 3f
       -1.7590271 0.4903458 1.584576 1.7905899
0003d0 c7 90 53 3f fa 59 f6 bf 79 1c 94 3f 57 ad 86 be
       0.8264279 -1.9246209 1.1571189 -0.26304123
0003e0 de e7 8e 3e a6 f4 39 bf fe b9 e5 3f 67 20 1d 40
       0.27911276 -0.7263893 1.7947385 2.4551027
0003f0 c3 fa c5 3f b0 7f f9 3e f2 b8 a6 bd f9 75 31 bf
       1.5467151 0.4873023 -0.08140744 -0.69320637

bias f4 [16]
000000 a3 29 00 3f fc 55 e8 3e 13 e1 bb be ab 85 ac be
       0.5006353 0.453781 -0.36695156 -0.3369573
000010 3c 2f b1 3f 43 9a 8b 3f 03 af f0 be 73 63 a6 3b
       1.384254 1.0906452 -0.47008523 0.0050777732
000020 2d 79 08 3e 17 ca 59 3f 0d 08 11 c0 17 84 14 bf
       0.13327475 0.8507399 -2.2661164 -0.58014053
000030 ed 8a 0b 3f 8d 94 d8 bf b0 d3 b3 bf 88 47 c0 bf
       0.5450886 -1.6920334 -1.4048977 -1.502183

weight f4 [16]
000000 f8 93 9e 3f 11 56 1f 40 dd df 10 40 a0 27 e3 3f
       1.2388906 2.489628 2.2636635 1.7746468
000010 69 15 11 40 ad 7d 11 40 ac 5b e7 3f 63 ec 5d 3f
       2.2669318 2.2732956 1.8074851 0.8668882
000020 33 8c f4 3f 4e 7f d3 3f 68 87 01 40 98 a8 1a 40
       1.9105285 1.6523225 2.0238895 2.4165401
000030 e1 bc fa 3f 3d 90 20 40 17 34 10 40 73 27 e8 3f
       1.9588891 2.5088036 2.2531793 1.8137039

bias f4 [16]
000000 d8 1b db 3f 6a 17 6f be 8a 96 8d 3e 1f 42 9d be
       1.7117872 -0.23348776 0.27653915 -0.3071451
000010 cd d4 1e 3f 9c 8e 56 3f 15 eb 56 3e d4 bb be 3f
       0.6204346 0.83811355 0.20988114 1.490107
000020 5f d6 01 3f b0 7d 78 3f 00 e8 4b 3e d5 05 e9 3e
       0.5071773 0.97066784 0.1991272 0.45512262
000030 2d e6 98 be 70 ba 46 bf 11 22 c3 3e 84 08 2f bf
       -0.2986311 -0.7762823 0.38111928 -0.6837237

running_mean f4 [16]
000000 1a 68 bc c0 4d 5d fd c1 7c ec a8 c1 cb a4 92 c1
       -5.8877077 -31.670557 -21.11547 -18.330465
000010 f1 d2 09 c2 ec 2a d2 41 94 c2 7c c2 eb 2b a2 c1
       -34.455997 26.270958 -63.190018 -20.271444
000020 ec ef a1 c1 1a 28 97 41 52 f5 86 c1 49 27 d9 41
       -20.24215 18.89458 -16.869785 27.144182
000030 55 e9 54 c1 03 13 20 c1 14 a9 50 41 02 fe 55 c2
       -13.306966 -10.004642 13.041279 -53.498055

running_var f4 [16]
000000 f4 6d 67 43 7a 0a 50 43 17 f8 6c 44 96 f9 8d 43
       231.4295 208.04092 947.8764 283.9499
000010 5d 2c 85 43 03 6e 09 44 61 d5 5d 44 38 20 fd 43
       266.3466 549.71893 887.33405 506.2517
000020 e1 35 40 44 d6 30 80 43 2f a6 83 43 10 b2 0a 44
       768.84186 256.38153 263.2983 554.7822
000030 d6 5f fb 43 3e 9b 95 43 81 85 82 43 83 0c 42 43
       502.74872 299.21283 261.043 194.04887

weight f4 [32, 16, 3]
000000 ec 39 15 bf 23 d9 c6 bf 6b b5 14 be 10 0b 5f 3f
       -0.58291507 -1.5535015 -0.1452233 0.87126255
000010 b1 38 90 3e 9e 62 01 c0 9c 8b 97 3f 47 77 71 bf
       0.28168252 -2.021644 1.183948 -0.9432263
000020 88 5c 13 3f f9 77 9a 3c 23 d4 90 3e d4 d1 da bf
       0.57563066 0.018856036 0.28286847 -1.7095284
000030 03 41 2e c0 28 88 63 bf 59 94 f9 be 12 28 9e bf
       -2.722718 -0.8887963 -0.48745993 -1.2355978
000040 d9 ac 92 bf b0 d2 cb bf f0 aa 22 3f ff cb a0 bf
       -1.1458999 -1.5923672 0.6354208 -1.2562255
000050 73 16 62 bf 18 21 a7 bf f7 56 0d 3f 91 21 6d bf
       -0.88315505 -1.3056974 0.5521082 -0.92629343
000060 3e 57 81 be af e8 1c 3c 20 6a 05 bf 09 b3 d8 3e
       -0.25261873 0.0095769605 -0.5211506 0.42324093
000070 71 80 9d bf 71 38 56 c0 c8 18 6d c0 42 5e 25 3f
       -1.2304822 -3.347195 -3.7046375 0.6459695
000080 c5 84 9d bf 5b 95 04 bf 99 33 fb bf 12 d9 3f c0
       -1.2306143 -0.517904 -1.9625121 -2.997624
000090 0e 4d e5 bf f9 91 01 c0 a1 c3 01 c0 19 a7 1d bf
       -1.791414 -2.0245345 -2.0275652 -0.61583096
0000a0 1e 56 93 bf e3 5c 03 be 0a b7 2f bf a0 93 87 bf
       -1.1510656 -0.12828402 -0.6863867 -1.0591927
0000b0 dd 78 71 3f a4 c8 93 bf d3 46 23 3e 10 ca 03 be
       0.9432505 -1.1545606 0.15944986 -0.1287005
0000c0 5f 4b 3e bf d1 c6 89 bc e2 06 07 3f ac 7f 00 c0
       -0.7433376 -0.016818436 0.5274488 -2.0077925
0000d0 75 8c 74 3f 9b 7d 38 3e 7f 13 5b bf c8 75 ea be
       0.9552682 0.18016665 -0.85576624 -0.45792985
0000e0 5c c3 06 3e 70 de 3d bf f6 29 a3 bd b9 c4 50 3f
       0.13160461 -0.7416754 -0.07966988 0.81550175
0000f0 6f 3e c2 bf 9b 9c f3 bf ea 0a 86 3f 42 2c e4 be
       -1.5175303 -1.9032167 1.0472081 -0.44565016
000100 18 dc f2 3d 34 6e da 3f 51 98 b0 3d 16 d2 46 3f
       0.11858386 1.7064881 0.08622802 0.77664316
000110 42 35 6f 3f 76 3e 53 3f 8a 02 98 3f bc 25 81 3f
       0.9344064 0.8251718 1.1875775 1.0089641
000120 01 79 10 3f 5d 4a e0 3f 08 7b 9a 3f 75 97 b7 bf
       0.5643464 1.7522694 1.2068796 -1.4343096
000130 fc b0 00 3e 60 5f f1 be 42 56 57 bd de 13 1d 3f
       0.12567514 -0.47143078 -0.052572496 0.6135844
000140 2a a9 a2 be 43 28 1a c0 63 7f 3b bf 8e c3 28 bf
       -0.31769687 -2.4087074 -0.7324125 -0.6592339
000150 35 44 ce 3e 10 8a 70 3f 2f 52 42 40 68 ad 5e 3e
       0.40286413 0.93960667 3.036266 0.21745837
000160 1a 9a 97 3f 72 f5 68 40 1e 77 b1 bf e3 9f 08 3d
       1.1843903 3.6399808 -1.3864477 0.033355605
000170 e0 f7 bc bc 3e 11 10 c0 fc 97 7b bf b4 96 61 3f
       -0.023067415 -2.2510524 -0.98278785 0.8812058
000180 50 ea 48 bf 77 0e bd bf 88 dc be bf 20 03 af bf
       -0.7848253 -1.4770039 -1.4911051 -1.3672829
000190 52 1f 99 be cc d8 da 3f 05 f9 b8 bf a3 d3 09 c0
       -0.29906708 1.7097411 -1.4450995 -2.1535423
0001a0 87 c6 ac bf c2 a2 10 c0 51 75 29 3e 29 a9 af 3e
       -1.3498086 -2.259934 0.16548659 0.34308746
0001b0 b8 5e 12 bf 3c 65 00 c0 85 29 93 bf dd 84 fe bf
       -0.5717578 -2.0061789 -1.1497046 -1.9884297
0001c0 f9 2a 1b be db 61 b9 3f 66 ed 28 bd 92 5a 84 3e
       -0.15153112 1.4482988 -0.041242026 0.2585035
0001d0 97 a4 70 3e 14 de c3 3f 6f 54 7a 3f 9b 07 b3 3e
       0.23500286 1.5302148 0.97785085 0.3496674
0001e0 dc cf 64 3f 49 11 a5 3f 26 1c 24 bf d1 2e 65 bf
       0.8937967 1.28959 -0.6410545 -0.8952456
0001f0 10 11 14 c0 e8 81 34 3e 93 c2 89 bf 65 ae b7 3f
       -2.3135414 0.1762768 -1.0762504 1.4350096
000200 53 df 3b 3e 19 7f 19 c0 3c 69 e0 bf 35 6c 7b bf
       0.1834691 -2.3983824 -1.7532115 -0.98211986
000210 7e 3a 46 bf 55 41 8a 3f 2a aa fe 3f 47 c4 67 3e
       -0.77433 1.0801188 1.989568 0.22633468
000220 aa 7d 36 3f 73 01 0e 40 e8 87 da bf c5 3a 18 c0
       0.712855 2.2188385 -1.7072725 -2.378587
000230 02 d5 4b 3f d7 74 f7 bf 4a e3 a2 bf 92 81 41 be
       0.796219 -1.9332532 -1.2725613 -0.18897083
000240 1c 52 f8 3f 9e 0c 13 3f 44 8b 10 c0 43 5b 92 be
       1.9400058 0.5744113 -2.2585 -0.28585252
000250 01 1a 07 bf 5e 31 9e 3f 35 c5 11 40 2f 0b 80 3e
       -0.52774054 1.2358816 2.2776616 0.25008532
000260 18 5c 0e c0 a7 4e 08 3f 48 72 11 c0 e7 2e ad 3f
       -2.224371 0.53245014 -2.2726002 1.3529938
000270 39 d8 21 c0 db bb 9f be 60 70 84 3f 03 e8 ca 3f
       -2.5288222 -0.3119801 1.0346794 1.5852054
000280 da 05 ea 3f 9e 02 dd bf 25 f0 3e 3f c5 fa f9 bf
       1.8283036 -1.7266424 0.7458518 -1.9529654
000290 1d 2d 0b 3e ad f1 20 c0 df 90 ab bf f3 66 91 3f
       0.13591428 -2.5147507 -1.3403586 1.1359543
0002a0 bb f3 96 bf 09 55 51 bf fa bb eb bf ff 54 24 bd
       -1.1793131 -0.8177038 -1.8416741 -0.04012012
0002b0 de 32 b5 bd 42 43 93 3f ae 88 be bf ec 0c 6d 3e
       -0.08847593 1.15049 -1.4885461 0.2314946
0002c0 8a 9b 87 3f 32 30 aa 3e 5e 60 55 3d 52 e9 31 40
       1.0594342 0.33239895 0.052093856 2.7798657
0002d0 cd 14 af be 21 15 fa be fc cf 66 bf d2 05 3d 3e
       -0.34195557 -0.48844245 -0.9016111 0.18459252
0002e0 ea 1d 1c 3d ba 04 f3 bf fb 2b 0b 3f 71 60 85 bf
       0.038114466 -1.8985817 0.54363984 -1.0420057
0002f0 e9 af ed bf 6e 68 45 bf a0 4f 92 bd f3 20 13 c0
       -1.8569309 -0.7711247 -0.071440935 -2.298886
000300 80 93 c0 bf b6 37 9f bf 23 1f 14 c0 62 86 9b bf
       -1.5045013 -1.2438877 -2.3144004 -1.2150385
000310 4e c2 10 bf 32 b0 0d bf 66 ef 4b bf 5a cd 77 3e
       -0.56546485 -0.5534698 -0.7966217 0.24199429
000320 ad 99 84 3f ce 12 e4 bd 28 e6 08 bf b5 0e 82 3f
       1.0359398 -0.11136399 -0.5347619 1.0160738
000330 97 bd 07 c0 52 96 43 c0 28 46 bc bf 11 44 41 c0
       -2.1209466 -3.0560498 -1.470891 -3.0197794
000340 37 5d 00 be 63 23 7a 3f 27 b6 21 3e 38 24 05 bf
       -0.12535559 0.97710246 0.15792142 -0.5200839
000350 ae f4 df be 83 e9 f6 3e d4 8f c1 bf 15 10 3b c0
       -0.43741363 0.4822503 -1.5122018 -2.9228566
000360 cf 5f 9c 3f b0 85 91 3e cb f6 8b bf ba f0 1b c0
       1.2216738 0.28422308 -1.093469 -2.4365678
000370 fc 8d 6c c0 59 96 82 3f ab 1d ce bf 33 d6 e0 be
       -3.696166 1.0202132 -1.6102804 -0.4391342
000380 62 db 13 3f 4c 41 90 bf 4b b3 f8 3e 93 fe 03 bf
       0.57756627 -1.1269927 0.4857429 -0.51560324
000390 bd ef 16 be 22 3d 9b be a5 2f 22 3f 30 61 41 bf
       -0.1473989 -0.30320078 0.6335395 -0.7553892
0003a0 68 95 cc be 97 09 61 40 e0 a9 af 3d 69 8e 36 3f
       -0.39957738 3.5162103 0.08577323 0.7131105
0003b0 df 4e 2f 3f 5a f7 b7 bf ea d3 e6 bf 89 eb b2 3f
       0.6847972 -1.4372361 -1.8033421 1.397813
0003c0 97 60 80 c0 fc 95 28 3f f5 52 fd bd ba ec 1c 3d
       -4.0117908 0.6585386 -0.123693384 0.038311698
0003d0 85 8e 13 c0 59 eb 9a 3d ed d2 44 c0 4f 52 13 3e
       -2.3055737 0.0756442 -3.075374 0.14386867
0003e0 c3 3b 93 3f c5 db 8a 3f c1 cd a3 bf 2e 4e 77 bd
       1.1502613 1.0848318 -1.2797166 -0.060377292
0003f0 d3 de 60 be 34 65 37 3f 6e e4 0d c0 3e 04 a3 be
       -0.2196 0.716388 -2.2170672 -0.31839174

bias f4 [32]
000000 92 a7 84 3e 46 61 09 bf 06 f0 63 3f 6f a7 36 bd
       0.25909096 -0.5366405 0.8903812 -0.04459327
000010 21 b3 b9 3e fb 5e b4 3e 71 7d 2f bf 21 1a 8e be
       0.36269477 0.35228714 -0.68550783 -0.2775431
000020 f2 da 04 3e 2c d9 7a 3f 8c 1a ba 3c cd 95 14 3f
       0.12974146 0.9798763 0.022717737 0.5804108
000030 bc 44 91 be d0 b7 4b 3f dc c2 80 3d 9e 6b 2d be
       -0.28372753 0.7957735 0.062871665 -0.16935584
000040 55 f1 e3 3e 99 ab 64 3f 3c 08 fd 3f 00 0f f5 3e
       0.4452006 0.8932434 1.9768138 0.47863007
000050 bf c0 af 3f d4 d8 b7 3d 62 0c bc 3f 02 17 ce be
       1.3730696 0.089769036 1.4691279 -0.4025193
000060 ea 0d 8c bf 8c 65 bd 3f 54 57 4a 3f 5d 47 af bf
       -1.0941746 1.4796615 0.790395 -1.3693653
000070 ff d6 74 3f ac 47 2b bf 53 f5 33 40 ab 29 25 3f
       0.9564056 -0.6690624 2.8118484 0.64516705

weight f4 [32]
000000 ba 33 08 40 38 4d d2 3f ce c9 f0 3f 8e 38 f9 3f
       2.1281571 1.6429815 1.8811586 1.9470384
000010 fd bd 02 40 0e 7b f4 3f 70 52 e1 3f db 13 be 3f
       2.042846 1.9100053 1.7603283 1.484981
000020 1b f3 9f 3f 85 74 af 3f 05 a0 03 40 bf 33 fc 3f
       1.2496065 1.3707434 2.0566418 1.9703292
000030 af 8f 04 40 08 64 49 3f e1 dd 0d 40 65 9c b6 3f
       2.0712698 0.7866826 2.2166674 1.4266478
000040 17 07 10 40 5f 71 0c 40 6e d5 b5 3f 64 a5 7d 3f
       2.2504327 2.1944196 1.4205759 0.9908049
000050 e5 8e fd 3f 34 73 c8 3d 20 1f de 3f 3d 2e 02 40
       1.9809233 0.09787598 1.7353249 2.0340722
000060 65 50 0c 40 4a 83 b4 3f fb 00 cf 3f 57 4c dc 3f
       2.192407 1.4102566 1.6172174 1.7210797
000070 17 b4 c3 3f e7 ca 04 40 4b e7 07 40 6a 92 bd 3f
       1.5289334 2.0748842 2.123492 1.4810307

bias f4 [32]
000000 39 39 a0 be 00 ff a8 bf c7 ca ae 3e bf f2 27 3f
       -0.31293657 -1.320282 0.34139082 0.65604776
000010 dc 66 77 be 3d d6 7e 3e 08 72 a0 bf 5e b6 d7 bf
       -0.24160331 0.24886413 -1.25348 -1.6852529
000020 83 2f ef bf 05 fc 64 bf b8 73 a2 bf e2 78 33 3f
       -1.8686374 -0.8944705 -1.2691565 0.7010633
000030 e7 4d 33 be b7 6a a1 3f e7 c7 8c be 62 05 3b bf
       -0.17510186 1.2610692 -0.27496263 -0.7305509
000040 84 9f 83 3f ab ea a1 be 73 84 ca 3f a6 96 d8 bb
       1.0283055 -0.3162435 1.582167 -0.0066097556
000050 67 8e f2 3e 9e a1 8d bf 19 17 a5 be 59 3d 43 be
       0.4737427 -1.1064947 -0.32244185 -0.19066371
000060 ed 7b a2 3c 18 84 0e c0 80 65 eb 3f 85 08 60 be
       0.019834483 -2.2268124 1.839035 -0.2187825
000070 13 5f be be 28 57 44 bf 6e 51 20 bf a6 19 41 3f
       -0.3718191 -0.7669549 -0.6262425 0.7542976

running_mean f4 [32]
000000 b6 b9 1c c2 d9 45 59 40 80 1e a1 c1 16 8d 0d c1
       -39.18136 3.3948882 -20.139893 -8.846945
000010 f8 18 04 c2 a5 58 cb c1 9e 67 a7 41 7e 35 88 41
       -33.024384 -25.418283 20.925594 17.02612
000020 9d 98 b6 41 5e 7d 80 c1 78 f7 02 40 b4 14 c0 40
       22.824518 -16.061214 2.0463543 6.002527
000030 1d 85 b3 c0 fa 81 29 c1 15 13 8d c1 59 8d b3 41
       -5.609999 -10.594233 -17.634317 22.444017
000040 2d 2d 17 c1 d7 c5 5c c1 22 ee 50 c1 23 91 7f 41
       -9.448529 -13.798301 -13.058138 15.972934
000050 ca e3 da c1 18 dc d7 bf b2 5b cb 41 18 e2 cc c1
       -27.361225 -1.6864042 25.419773 -25.610397
000060 9d 73 fe 3e 48 67 a8 41 de 37 91 c1 5a bd 18 40
       0.4969758 21.05043 -18.152279 2.386557
000070 ba 4a 13 41 cc 8a 78 c1 64 cd 02 c1 cf 4b 56 c0
       9.205744 -15.533886 -8.175144 -3.348377

running_var f4 [32]
000000 b2 f5 18 44 4b 09 a0 43 17 d9 e8 43 7d b4 ac 43
       611.839 320.0726 465.696 345.41006
000010 cc 36 ae 43 e1 ef cf 43 ec 47 da 43 e2 4e d7 43
       348.4281 415.87405 436.5619 430.61627
000020 73 96 8f 43 b4 fe c8 43 88 0b 8c 43 3d f9 0c 44
       287.17538 401.98987 280.0901 563.89435
000030 d0 ab 11 44 ab a3 a2 43 1c 2e ab 43 c6 8b 9b 43
       582.6846 325.27866 342.36023 311.09198
000040 4c 29 f5 43 a6 c0 8a 43 83 76 60 44 6c d0 71 43
       490.32263 277.50507 897.85175 241.81415
000050 f7 8c 84 43 9e f9 41 43 81 8c 9b 43 fe f6 3e 44
       265.1013 193.97507 311.0977 763.85925
000060 7f 07 c0 43 3c 4c 88 43 8f 82 19 44 86 b1 d0 43
       384.05856 272.59558 614.04 417.3869
000070 bd 4e ca 43 38 4e d3 43 95 38 80 43 48 e3 19 44
       404.61514 422.61108 256.44205 615.5513

weight f4 [32, 32, 3]
000000 da 1b 26 3f 7a a0 53 3e cc 1d b9 3e 24 56 64 3f
       0.6488625 0.20666686 0.36155546 0.8919394
000010 65 c8 bd bf b8 da d4 bf e6 34 0d 40 cc 3a d3 be
       -1.482678 -1.6629248 2.2063537 -0.41255796
000020 e5 48 ce bf 8a 32 de 3f 59 1e 43 be aa b2 95 bf
       -1.6115996 1.7359173 -0.19054545 -1.1695149
000030 1e 9b 0d c0 50 16 5f 3f ed 7c c9 bf 15 08 7f 3e
       -2.2125926 0.8714342 -1.5741249 0.24905427
000040 8d a8 8d 3f 67 f8 4f bf 34 0a 01 40 34 ae 97 3f
       1.1067063 -0.81238407 2.0162477 1.1850038
000050 03 00 99 3f 30 2a 9a 3f 63 3d 59 bf c4 15 58 c0
       1.1953129 1.2044125 -0.84859294 -3.3763285
000060 41 62 aa bf be 77 9b bf d4 45 5b be b2 fe 2a 40
       -1.3311235 -1.2145917 -0.21413356 2.6717954
000070 af 86 45 3f 8f d5 21 c0 45 e0 6c bc cf e2 2d be
       0.77158636 -2.5286596 -0.014457767 -0.16981052
000080 ff b6 dc be 46 2c 2a 40 11 a9 f6 3f 01 67 82 bf
       -0.43108365 2.6589522 1.9270345 -1.0187684
000090 e6 39 a6 3f fc a4 1b 3e 42 8d a3 bf c9 8a d9 3f
       1.2986419 0.15199655 -1.2777483 1.6995479
0000a0 da 1b 62 bf 49 8a 9e be b6 13 d1 3f e6 31 b9 3f
       -0.8832375 -0.30964878 1.633414 1.4468353
0000b0 41 28 80 bf 17 45 70 3f 5b 0d 86 be ac 5b 4d 3e
       -1.0012285 0.9385542 -0.26182064 0.20054501
0000c0 27 6a d1 3e a1 ae e5 bf 34 a4 8b c0 18 c9 6e bf
       0.409013 -1.7943918 -4.3637943 -0.93275595
0000d0 d0 1e 03 3f a2 9f d9 3f b7 b8 4c bf aa e7 aa 3e
       0.5121889 1.7001841 -0.7996935 0.3337987
0000e0 b9 9c 96 be 19 28 6c 3f 0a cc 9f be c4 e6 bf be
       -0.29416445 0.92248684 -0.31210357 -0.37480748
0000f0 f8 6e ef 3f 2a 78 ea 3e 98 ab 4e bf c5 1a bf 3e
       1.870574 0.45794803 -0.8073058 0.3732511
000100 37 ea 13 bf f8 70 6a bf 3e 8a fd 3e 9a c5 b6 bf
       -0.5777926 -0.91578627 0.49519533 -1.4279053
000110 dc 6c d2 bf 17 9d d6 3e 23 24 b3 3d 23 fd 9a 3e
       -1.6439471 0.41916725 0.08747127 0.30271253
000120 15 f5 36 bf 59 12 c9 be 00 c8 a9 3e b0 39 88 3f
       -0.71467716 -0.3927181 0.331604 1.0642605
000130 b4 de 8f 3e 0f 9d 60 3d 2b a6 d0 bd 9c 2e 9e bf
       0.28099597 0.054837283 -0.10187944 -1.2357974
000140 10 56 06 c0 d7 7e c3 3f bb 96 96 3d ee ec 7e bf
       -2.0990028 1.5273083 0.07352968 -0.99580276
000150 38 30 37 3f 08 77 c1 3d 42 4b 8d bd b8 74 86 3f
       0.7155795 0.094465315 -0.0689912 1.050437
000160 c4 27 78 3f 3c 8e 28 40 05 9a 94 be 8e 21 e4 3e
       0.9693568 2.6336813 -0.29023758 0.4455685
000170 86 a8 28 c0 2f b7 72 bf 60 7e 81 be cd fb ec 3e
       -2.6352859 -0.94810766 -0.2529173 0.4628586
000180 ee d3 0e 40 3b b9 7b 3f dd 46 d3 3f e5 14 db 3e
       2.2316852 0.98329514 1.6506001 0.4278938
000190 39 11 89 bf 00 6e 54 40 31 e4 ae bf d8 0b 38 bf
       -1.0708381 3.3192139 -1.3663388 -0.7189307
0001a0 d0 55 7c 3c 1c fc 1b 3f 20 f1 17 be 6a 92 88 bf
       0.015401319 0.60931563 -0.14838076 -1.0669682
0001b0 4e 73 a9 3e fa 43 63 3e f0 45 5f 40 ee 52 b1 3b
       0.33095783 0.221939 3.4886436 0.0054114973
0001c0 3f ff fb be 8a 71 9d 3e 19 ab 6c 3f 13 2a 10 3f
       -0.49218175 0.30750686 0.92448574 0.563142
0001d0 21 0c db bf 30 5a d4 bf 38 aa d7 bf 37 36 f6 bd
       -1.7113076 -1.6590023 -1.6848822 -0.120220594
0001e0 6f b8 d7 3f 50 ca 5c 3f 08 86 7b bf 49 39 05 bf
       1.685316 0.86246204 -0.9825139 -0.52040535
0001f0 66 95 d7 3c fd 20 ad 3f 96 c3 4d bf 31 06 19 c0
       0.026316356 1.3525692 -0.80376565 -2.391003
000200 62 c2 47 c0 66 29 d7 be a2 40 8e 3f 79 ea a6 bd
       -3.1212392 -0.42023772 1.1113474 -0.08150191
000210 62 4b bd bf 67 db 83 be 66 06 42 40 17 ba 5e bf
       -1.478863 -0.25753328 3.0316405 -0.870027
000220 41 0c 1b bf ec 4a 25 c0 32 66 3c 3f 4a 07 13 bf
       -0.6056557 -2.5826979 0.7359344 -0.57433
000230 71 4b 50 3f 52 12 3b bf 46 64 8e 3f e0 ff 01 c0
       0.81365114 -0.7307483 1.1124351 -2.0312424
000240 a4 0d f0 be fd 25 3d bf 45 20 a9 bf 70 f6 58 3e
       -0.46885407 -0.7388609 -1.3212973 0.21187758
000250 8e 35 9f 3f d7 e2 73 40 50 22 83 bd d3 87 c9 bf
       1.2438219 3.8107202 -0.06403029 -1.5744575
000260 fa 23 50 3f 4a 77 ba bf bf 6a ad bf a9 25 0a 3e
       0.81304896 -1.4567654 -1.3548201 0.13490929
000270 8b d4 0c 40 83 04 86 3f 84 b7 bc bf 2a f3 e3 3d
       2.2004726 1.0470127 -1.4743505 0.11130364
000280 c8 62 a7 be 0f 8d 28 bf b1 63 0a 3e ea 6c 0a bf
       -0.32692552 -0.6584024 0.13514592 -0.5407244
000290 d0 05 55 c0 f9 29 47 c0 5a e4 69 be 49 5f 28 40
       -3.3284798 -3.1119368 -0.22841015 2.6308157
0002a0 db 00 3f 3f 28 bf 9b bf 83 33 a9 c0 e5 e4 16 40
       0.7461068 -1.2167711 -5.287538 2.3577206
0002b0 86 4c f0 3e 39 d6 26 bf 27 ca af bf b2 77 77 bf
       0.46933383 -0.6517063 -1.3733567 -0.96667016
0002c0 21 ca a5 3f ca 69 4a 3f b6 c5 2e c0 11 fb 8c bf
       1.295231 0.7906767 -2.7308173 -1.1014119
0002d0 a9 0e 7e bf 3d 8a 03 bf d7 6d 2b bf 66 b2 e9 3f
       -0.9924112 -0.5138281 -0.6696448 1.8257568
0002e0 b7 db 06 3e 3e 8e 98 c0 b1 2d 9a bf 01 4b c4 bf
       0.13169752 -4.7673635 -1.2045194 -1.5335389
0002f0 cf ba 63 3e 4c 58 41 3d f2 6d 3e bf c1 1d c6 3e
       0.2223923 0.047203347 -0.74386513 0.38694575
000300 95 e0 cc 3f 02 4d 09 3f a7 2f 46 bf 92 fc bf be
       1.6006037 0.5363313 -0.7741646 -0.37497383
000310 3d 7d 8f bf f5 6f 9c 3f ea 99 e1 3f ea 14 06 bf
       -1.1210095 1.2221667 1.7625096 -0.5237566
000320 15 49 f8 be 12 74 13 c0 5a 51 b0 3e 66 da b4 bf
       -0.48493257 -2.3039594 0.34437066 -1.412915
000330 c0 8e 64 3f 84 c9 02 bf 01 c3 f2 bf 13 96 95 bf
       0.8928032 -0.5108874 -1.896576 -1.1686424
000340 a0 4f 8c bf d0 53 73 3f 8c 5a ed be 36 78 03 3d
       -1.09618 0.9504976 -0.46358144 0.032097064
000350 0f d6 7d bf 54 68 50 bd 32 1f a4 3f 76 40 83 3f
       -0.9915475 -0.050880745 1.282202 1.0254047
000360 66 c5 0a c0 3c 2e 09 be 50 01 a6 3f 63 74 97 bf
       -2.1682982 -0.13396543 1.296915 -1.1832393
000370 3f 35 95 3e 46 78 a7 3f 60 d1 a2 3e c3 c7 71 3e
       0.29142186 1.308358 0.31800365 0.2361136
000380 d2 d1 ef 3e 22 29 a7 be 9b b4 2b 3f b1 83 56 3f
       0.46839768 -0.3264857 0.6707246 0.83794695
000390 3c 60 94 bf 3e aa 34 3f 8c fb 70 40 e9 09 32 40
       -1.1591868 0.7057227 3.7653532 2.7818549
0003a0 76 2d d7 bf 7f 44 86 3e 36 1a 6b bf 0b d0 18 c0
       -1.6810749 0.26224133 -0.9183687 -2.387698
0003b0 cd 08 89 bf 8c c7 ca bd 5c 73 9f bc c7 ae 4e 3f
       -1.0705811 -0.09901342 -0.019464187 0.8073544
0003c0 1f 56 e5 3e a4 57 21 bf b1 3c 68 3e 09 5f 1b 40
       0.44792268 -0.63024354 0.22679402 2.4276755
0003d0 53 03 5d be 6a 78 50 c0 68 4d c5 3f 08 47 14 c0
       -0.215833 -3.2573495 1.5414248 -2.3168354
0003e0 84 79 e9 3f 9b bf 91 bf 00 63 0a bf 0e 3c 58 40
       1.8240209 -1.1386598 -0.5405731 3.3786654
0003f0 c2 bc 35 bf 33 c0 95 3e f7 ea a6 be 5f c0 5c bf
       -0.70991147 0.292482 -0.3260114 -0.86231035

bias f4 [32]
000000 e7 ad 0a bf 19 8f 59 bf 7f 7a 6d 3e 1f bb 38 c0
       -0.54171604 -0.84983975 0.2319126 -2.886421
000010 bf c2 7b 3f cf 8c f9 bd c7 b3 a5 be 76 83 4e 3f
       0.98344034 -0.1218506 -0.32363722 0.80669343
000020 43 b2 27 bf df f5 0c bf a9 2e b2 bf 96 e4 4c bf
       -0.6550638 -0.5506267 -1.392049 -0.80036294
000030 d2 69 5e 3f 9c b9 64 3f 33 e7 a7 3f f5 82 1b 3f
       0.8688022 0.8934572 1.3117431 0.607467
000040 4a 5c 48 3e c8 d3 c4 be 2e ac ff 3e 9b 2d 14 be
       0.19566455 -0.38442826 0.4993605 -0.14470522
000050 99 9c 8f bf aa b5 c5 3e 7e 4b dd 3f 31 a4 6a be
       -1.1219665 0.3861516 1.7288663 -0.22914197
000060 ba b6 4b bf a9 d9 a4 be 69 44 c3 bc 95 14 6d be
       -0.79575694 -0.32197312 -0.023836331 -0.23152383
000070 13 4f 93 3f cb a0 10 bf af 2a 91 3e ba 7b 9c 3f
       1.1508507 -0.5649535 0.28352877 1.2225258

weight f4 [32]
000000 b1 33 c8 3f e1 5a 18 40 92 c9 b2 3f af d3 05 40
       1.5640775 2.3805468 1.3967764 2.0910451
000010 b6 08 f0 3f df d5 da 3f 46 e2 1d 40 b1 5f 0b 40
       1.8752658 1.7096518 2.4669356 2.1777155
000020 e3 1e 11 40 2e b5 a3 3f 41 74 11 40 8c 57 e9 3f
       2.2675102 1.2789667 2.2727206 1.8229842
000030 1f 42 9a 3f ce 83 1d 40 bc 67 19 40 31 6d 0e 40
       1.2051429 2.4611697 2.3969564 2.2254145
000040 13 4b 0a 40 d8 d5 f7 3f 7f 73 c9 3f ca e1 2a 40
       2.1608322 1.9362135 1.5738372 2.670031
000050 af c9 ad 3f 03 fb b9 3f 68 59 10 40 1c 12 16 40
       1.3577174 1.4529728 2.255457 2.3448553
000060 6d 64 d5 3f a3 cb 12 40 54 85 0a 40 47 5b f2 3f
       1.6671273 2.293679 2.1643877 1.8934106
000070 f8 c6 a2 3f 93 e3 06 40 75 75 be 3f 89 e3 04 40
       1.271697 2.10764 1.4879595 2.0763876

bias f4 [32]
000000 ee 17 f1 be 0e 91 e1 be 55 95 14 c0 3e d0 56 3f
       -0.4708857 -0.4405598 -2.3216145 0.839115
000010 5a fd b8 bf 90 a2 fd 3e 34 4e 8d 3f 72 0b 8f bf
       -1.4452317 0.49538088 1.1039491 -1.1175368
000020 e2 71 87 bf c1 25 0a c0 49 ea de be fd d1 7f bf
       -1.0581629 -2.1585543 -0.4353812 -0.9992979
000030 13 a6 e8 bf 0a 25 b8 3e a3 73 6e be 3e 53 17 bd
       -1.8175682 0.3596576 -0.232863 -0.03694462
000040 36 17 e0 be 66 8f 41 bf 4c 5e b0 bf f4 1c 8a 3e
       -0.4376771 -0.75609434 -1.3778777 0.26975214
000050 32 98 d4 bf 1c 08 81 bc 6c 82 80 3e aa ea 56 bf
       -1.6608946 -0.015750937 0.25099504 -0.8395182
000060 dc 75 70 3f 3b bb f7 bd 0d 5c 4e bf ea 19 bb be
       0.9392984 -0.12096258 -0.8060921 -0.36543208
000070 22 f7 0f c0 26 4f 80 be 2c 99 d6 bf 9b 29 ad be
       -2.2494588 -0.25060385 -1.6765494 -0.33820805

running_mean f4 [32]
000000 a7 5a 26 c1 fe 1d b1 c1 75 24 51 41 26 6e fa 40
       -10.397132 -22.139645 13.071401 7.825946
000010 f5 fc e4 c1 c5 f8 0b 41 70 ff d1 c1 07 34 5f c1
       -28.623514 8.748235 -26.249725 -13.950202
000020 02 dd 88 c2 81 2d d3 41 c9 a9 a8 c1 22 93 40 40
       -68.431656 26.397219 -21.082903 3.0089803
000030 ce 7a 30 c0 ce 88 22 c2 70 f3 87 c1 8d 91 82 c0
       -2.7574954 -40.6336 -16.993866 -4.0802674
000040 a0 61 0a c2 b7 1b ea c0 8b 7f 05 c2 c2 ee 2a c2
       -34.595337 -7.315883 -33.374554 -42.733162
000050 89 f7 ee 41 6a ab 6a c1 cd cd 09 c2 ff 2f 30 c2
       29.870867 -14.666849 -34.450977 -44.04687
000060 21 05 fc 40 ad 54 04 c1 b1 9f 54 c2 96 c1 bc bf
       7.875626 -8.270673 -53.15595 -1.4746578
000070 7d 73 b3 41 aa 4d a7 3f f2 64 f5 41 c9 8b 9e c1
       22.43139 1.3070576 30.67429 -19.818254

running_var f4 [32]
000000 79 45 53 44 40 92 1d 44 79 fd d5 43 ac 41 20 44
       845.0855 630.28516 427.98026 641.0261
000010 7d d8 cb 43 f8 f5 3f 44 f1 41 91 44 40 a7 51 44
       407.6913 767.84326 1162.0607 838.6133
000020 6b 7d 1c 44 87 f9 bb 43 60 11 3e 44 1b 45 49 44
       625.95966 375.94943 760.2715 805.0798
000030 5d 9f e3 43 85 a3 89 44 6d 93 bc 44 cd b5 59 44
       455.24503 1101.11 1508.607 870.84064
000040 19 43 55 44 09 d9 fd 43 e8 03 b5 43 ad c6 30 44
       853.0484 507.6956 362.03052 707.1043
000050 6e 74 15 44 59 28 7d 44 2a d2 4e 44 57 17 16 44
       597.8192 1012.63043 827.2838 600.3647
000060 6b 10 34 44 73 54 52 44 f5 e5 0d 44 ce da 34 44
       720.25653 841.3195 567.5931 723.4188
000070 db 24 c2 43 80 c6 17 44 54 1e b1 43 27 18 25 44
       388.28793 607.10156 354.23694 660.3774

weight f4 [64, 32, 3]
000000 7e 14 1f c0 57 94 04 c0 5b 24 b8 be 5e 5c e1 3e
       -2.4856257 -2.071554 -0.35965237 0.44015783
000010 25 cc b9 3f a5 5c 21 40 88 81 f0 3e ef 9b 8b 3f
       1.4515425 2.5212796 0.46973825 1.0906962
000020 b0 e4 46 bf 48 ac 8c 3f a5 8f fe 3f f8 f4 4f 3f
       -0.776927 1.0990076 1.9887587 0.8123317
000030 d6 76 12 bf d5 66 45 be e0 a4 07 40 bc a8 94 3f
       -0.5721258 -0.19277509 2.1194382 1.1613994
000040 66 62 8d bf fe 08 80 c0 d9 21 cf be fe d4 b4 be
       -1.1045654 -4.0010977 -0.4045551 -0.3531875
000050 73 de 8d bf e7 92 97 3f 00 89 f4 be 11 8e 2d 3e
       -1.1083511 1.1841706 -0.47760773 0.16948725
000060 28 ca 06 3f d4 69 9b be 02 cc d1 3f dd f9 a5 bd
       0.52652216 -0.30354178 1.6390383 -0.08104298
000070 32 8a 59 3f ba 47 41 3f 4b 60 21 bf 08 72 03 3e
       0.84976494 0.7550007 -0.63037556 0.12836468
000080 5e 42 3d 3f e3 97 9c be e0 94 69 3f ff 5f 89 bf
       0.73929393 -0.3058463 0.9124279 -1.0732421
000090 45 0c 9e 3e 21 a7 3a bf 7e ab 6a 3d a4 a9 72 bf
       0.30868736 -0.7291127 0.057292454 -0.947901
0000a0 0c 59 f0 bf 45 76 f5 3e 7d 7a d2 bf 55 be e2 bf
       -1.8777175 0.47941795 -1.644363 -1.7714335
0000b0 fb e2 70 3f 30 cd 77 3f 23 67 a4 3f fb 21 ae 3c
       0.94096345 0.96797466 1.2843975 0.021256438
0000c0 a0 e2 9e bf b3 c3 0a c0 c9 47 61 3f 76 f9 c3 bf
       -1.241291 -2.1681945 0.8800016 -1.5310504
0000d0 7e 44 2e bf aa 13 8b 3f f2 41 8f 3e 2f d1 c3 bf
       -0.6807326 1.0865376 0.2798 -1.5298213
0000e0 76 3d a4 bc 2d 87 bc bf be 1b 1a bf 58 0c 3f be
       -0.020048838 -1.4728752 -0.6019858 -0.18657053
0000f0 8b c6 a9 3e 11 93 28 3f 85 40 af 3f 21 70 66 c0
       0.3315929 0.65849406 1.3691565 -3.6005938
000100 ea 70 2e 3f af 09 1f 40 b2 c6 71 bf 62 12 55 bf
       0.68141043 2.484966 -0.9444381 -0.83231175
000110 1e 4e 8e bd 49 ef c4 bf 19 c7 a6 bf 3f aa e4 bf
       -0.069484934 -1.5385524 -1.302951 -1.7864455
000120 38 bf bb 3f db 0a fa bf 32 bb 4d bf 58 03 a4 c0
       1.466773 -1.9534563 -0.8036376 -5.125408
000130 ad cb d8 bf 30 b2 68 c0 e5 27 c1 be dc a9 b1 3e
       -1.6937157 -3.6358757 -0.3772575 0.34699905
000140 fa dc 4b be 94 86 94 bf 90 12 3f c0 1c 77 8b c0
       -0.19908515 -1.160357 -2.985508 -4.3582897
000150 c8 64 e5 bf 7d 68 24 3e a1 93 a4 bf fa 0d aa 3f
       -1.7921381 0.16055484 -1.2857553 1.3285515
000160 3e 8c 59 3f 41 94 fd bd 72 20 9b 3f a4 11 df 3f
       0.8497962 -0.12381793 1.2119277 1.7427258
000170 67 e3 ef 3f 34 4d d6 bf eb 5d 6f 3f 98 3e 2f bf
       1.8741273 -1.674231 0.9350268 -0.68454885
000180 c2 9d 4a c0 5b f0 a7 3f 21 7e a7 be ea da b5 3f
       -3.1658788 1.3120226 -0.32713416 1.4207432
000190 95 62 ba bf 96 8a e0 3e 33 2d 97 3f e9 00 51 bf
       -1.4561335 0.43855733 1.1810669 -0.81642014
0001a0 51 fa b0 bd 2d 7f 94 3f d9 43 3e be 7c f6 cb bf
       -0.08641494 1.1601311 -0.1858057 -1.5934596
0001b0 bc 9d 03 3f df 6e be 3f bf 02 4e 3f 3b d8 b0 3f
       0.5141256 1.4877585 0.8047294 1.3815988
0001c0 e3 3a ad bc 9a a6 1b 3e 4c 83 1d c0 87 02 09 c0
       -0.021146243 0.15200272 -2.4611387 -2.1407793
0001d0 14 c1 66 bf 4b e6 60 c0 87 0d 0d c0 d6 0c fd bf
       -0.90138364 -3.514056 -2.2039506 -1.9769542
0001e0 b2 ea 2c 3e 07 93 2a 3f c2 89 a1 bf 76 65 9d 3f
       0.16886404 0.66630596 -1.2620165 1.2296588
0001f0 30 49 94 3f cc e3 6c 3f c6 91 a5 3f ee e3 24 be
       1.1584835 0.9253509 1.2935112 -0.16102573
000200 75 12 ca bd 74 a6 8a bf d3 79 49 c0 c8 28 2f 3a
       -0.09866802 -1.0832047 -3.1480606 0.0006681797
000210 2b 9b 97 3f 97 e6 10 3f ae ad c9 be 0d e8 71 c0
       1.1844229 0.5660185 -0.3939032 -3.7797883
000220 aa a8 6e 3f b2 fb 0b c0 3a 79 dc 3f 39 bd c1 be
       0.9322611 -2.1872373 1.7224495 -0.37839678
000230 97 d7 a1 3e 3b 41 aa bf 99 29 c3 be 5d 9c 21 c0
       0.31609794 -1.3301157 -0.38117674 -2.5251687
000240 5f 63 95 c0 71 e9 30 c0 dc 2e b9 bf 54 d1 83 bf
       -4.6683803 -2.7642481 -1.4467425 -1.0298257
000250 73 1f 76 bf fa 50 00 3f 6d c4 26 bf ac 1f 0b 3f
       -0.9614174 0.5012356 -0.6514347 0.543452
000260 70 4d 7a 3e 87 d4 d0 bf 49 ef 20 40 81 27 84 bf
       0.24443603 -1.6314858 2.5146048 -1.0324556
000270 a1 01 d9 be a0 b8 4c 3f d7 54 8b 3e 22 c2 94 bf
       -0.42384055 0.79969215 0.27213165 -1.1621745
000280 8d 24 98 3f 35 bd af bf 21 1e 85 bf f7 83 11 bf
       1.1886154 -1.3729616 -1.039982 -0.5684199
000290 5e 7f 60 be 18 1f 49 bf 4c ef 2b c0 29 6e 21 c0
       -0.21923587 -0.7856307 -2.6864805 -2.5223486
0002a0 32 2f c2 bf e3 44 c5 3e 95 f7 3e c0 01 5a 14 c0
       -1.5170653 0.3852912 -2.9838612 -2.3179934
0002b0 47 6e ac bd 37 d6 88 3f d7 e7 6a bf e2 89 dd bd
       -0.08419471 1.0690373 -0.9176001 -0.10817315
0002c0 fd 54 5b 3f 48 3f c9 bf d8 97 05 bf 0e aa eb 3e
       0.85676557 -1.5722437 -0.5218482 0.4602818
0002d0 88 e4 1e 40 77 f5 79 3f 5e ff 40 3f 22 f2 33 3f
       2.4826984 0.97640175 0.7538966 0.7029134
0002e0 24 a2 ff bf ea f9 93 bf 1b 11 17 40 54 03 4e 3e
       -1.9971356 -1.1560643 2.360419 0.20118457
0002f0 49 ac 05 c0 66 aa 49 3f fa 38 b7 bf b7 67 e9 bf
       -2.0886405 0.7877563 -1.4314263 -1.8234776
000300 24 68 9e be 16 9f 6a 3d ce 61 08 3f 97 23 c5 bf
       -0.30938828 0.057280622 0.5327424 -1.5401486
000310 8e 8d de be ae 4e fc bf 3d ca e7 3f f3 8f 68 3f
       -0.43467373 -1.9711511 1.8108593 0.9084465
000320 8a b8 e7 bf 2d 9f 0d 40 aa 18 f6 bd ee 17 e4 3e
       -1.8103192 2.2128403 -0.12016423 0.44549507
000330 34 4b f4 bf 8b 05 3b 3e 20 8d dc 3d 5f fe 81 3f
       -1.908545 0.18263833 0.10769105 1.0155753
000340 29 b3 0c 3f f3 01 27 bf 24 32 7a 3f 10 bb d6 3e
       0.54960877 -0.6523735 0.9773276 0.41939592
000350 af 6d b5 3e 42 9a 9d bf 78 05 91 3e c1 0f db 3f
       0.35435244 -1.2312701 0.28324485 1.7114183
000360 17 ee 43 bf 3b fc f5 3d fd c9 63 bf 68 9e 42 bd
       -0.7653517 0.12011 -0.88980085 -0.04751435
000370 f4 a2 98 bf f3 d1 9f 3f 12 d0 c3 3f 61 01 2a 3f
       -1.1924729 1.2485946 1.5297873 0.66408354
000380 0e d8 67 be 87 89 38 40 47 f1 6a bb 55 bb 0b 40
       -0.22641012 2.883394 -0.003584938 2.1833088
000390 d0 c2 cd be a2 aa ba 3f d9 0f a1 3f d8 67 41 3e
       -0.40187693 1.4583323 1.2582961 0.1888727
0003a0 ac 9d 05 40 f4 af 92 bf fc 43 20 3e 66 98 bb bf
       2.0877485 -1.1459947 0.15650934 -1.4655883
0003b0 0f dd 05 be 11 8d c0 bf 82 78 40 3f de f5 ac bf
       -0.13072608 -1.504305 0.7518388 -1.3512533
0003c0 c7 10 9b 3e 8f b2 95 3f 06 26 3c bf 5c e9 96 3f
       0.30286238 1.1695117 -0.7349552 1.1789966
0003d0 da a2 15 40 fb 50 9f bf 96 28 57 3f bf 66 fc 3e
       2.3380647 -1.2446588 0.84046304 0.4929714
0003e0 dd 28 53 bf ee 97 00 c0 1c 48 11 40 de 40 ed bc
       -0.8248423 -2.009273 2.2700262 -0.028961595
0003f0 37 a2 19 40 d9 97 06 40 a3 b7 4a 40 40 62 79 bf
       2.4005258 2.103018 3.1674583 -0.9741554

bias f4 [64]
000000 21 03 ef bf 3c d3 32 bf cb d3 99 bf 3d 4e 9e bf
       -1.867283 -0.6985357 -1.2017759 -1.2367626
000010 a8 4d c6 3e 07 81 26 bf b1 63 9d 3e 80 9f 84 bf
       0.38731122 -0.6504063 0.3074012 -1.0361176
000020 0f 9c 03 bf d9 a4 56 bf ef 5f 6d 3f 8c f7 54 bf
       -0.5141 -0.8384529 0.9272451 -0.83190227
000030 97 df 63 3f c8 6b 58 3e 70 a5 0d 3f 4c 1a ce bc
       0.89013046 0.21134865 0.5533056 -0.025159024
000040 24 58 3c bf fa c0 04 40 c8 23 36 3f 50 8a 86 bf
       -0.7357199 2.0742784 0.7114835 -1.051096
000050 f1 22 0c be 24 21 b5 3f 4c 5f 36 bf f7 5f 94 be
       -0.13685204 1.4150739 -0.7123916 -0.28979465
000060 35 9f 3b 3f ad 8e a2 be d6 15 9e bf fa 39 38 3f
       0.73289806 -0.31749478 -1.2350414 0.71963465
000070 77 e0 18 be 8e 9a 84 3f 8b 34 fc be 1a 83 9b 3f
       -0.14929377 1.0359666 -0.49258837 1.2149384
000080 c4 7e 1d 3e 1a e9 1d bf 47 dc 1b 3f dd 02 54 be
       0.15380388 -0.6168381 0.6088299 -0.20704217
000090 33 74 2c be 60 24 f9 be 62 cb c8 be ce b5 bb bf
       -0.16841201 -0.48660564 -0.3921767 -1.4664857
0000a0 41 ea a8 be f4 0f 31 bd a0 42 e4 3d 7a 1c ac 3e
       -0.32991222 -0.043228105 0.1114552 0.33615476
0000b0 97 9c a9 3e db 49 0a c0 9d 9c 6f 3e 28 4d 9b be
       0.3312728 -2.1607578 0.23399587 -0.30332303
0000c0 93 50 aa be 8f 25 19 bf 7f c0 86 be 94 9e c7 3e
       -0.33264598 -0.59822935 -0.26318738 0.38988173
0000d0 3b 74 ba 3f 5a 00 0f bf 32 2d 4e 3f 0f 80 08 bf
       1.4566721 -0.5585991 0.8053771 -0.533204
0000e0 8e 57 a5 be 41 66 44 bf a0 56 7b bf a5 3d 13 40
       -0.3229336 -0.7671853 -0.98179054 2.3006375
0000f0 9b b8 c5 bf 36 63 62 bd ec 7c 69 be 7c be b1 3f
       -1.5446962 -0.055270396 -0.2280156 1.3886256
