unet/checkpoints/one_loss/epoch_18.pth (torch, 508787 bytes, 85 tensors)

weight f4 [8, 1, 3]
-0.64311504 -1.0350399 0.9163098 -0.8610526 -1.7184218 -0.15457404 0.5467699 -0.08118292
-3.0891216 0.19815463 0.29561377 2.1626048 -0.49625364 -1.1376877 -0.83596784 -1.6225259
-0.3107974 -0.68153644 0.845485 -1.0799614 -0.047174487 1.6404299 0.25727972 0.63220984
00000000: 30a3 24bf 307c 84bf 4793 6a3f f16d 5cbf
00000010: 3ff5 dbbf a848 1ebe 1df9 0b3f 3b43 a6bd
00000020: 2bb4 45c0 0ce9 4a3e b05a 973e 1e68 0a40
00000030: f514 febe c09f 91bf fd01 56bf eeae cfbf
00000040: d620 9fbe 2c79 2ebf b471 583f 2d3c 8abf
00000050: 093a 41bd 9bf9 d13f 2bba 833e 81d8 213f

bias f4 [8]
-0.18159509 0.0684803 0.2188889 0.3734545 -0.4032001 0.10467498 0.13072968 -0.7490379
00000000: 10f4 39be 663f 8c3d 6924 603e 6e35 bf3e
00000010: 3e70 cebe d65f d63d 00de 053e f3c0 3fbf

weight f4 [8]
0.98597306 1.2082514 1.540385 1.6003904 1.9561247 1.4010295 1.083151 1.707074
00000000: bb68 7c3f fba7 9a3f 562b c53f 98d9 cc3f
00000010: 4b62 fa3f ef54 b33f b1a4 8a3f 6781 da3f

bias f4 [8]
0.9921354 -0.08484194 -0.6086751 0.52036726 0.15930054 -0.18771663 0.42600954 -0.15675642
00000000: 96fc 7d3f 9cc1 adbd 22d2 1bbf ca36 053f
00000010: ae1f 233e ca38 40be ec1d da3e c184 20be

running_mean f4 [8]
-0.20170824 0.17101116 0.45318234 0.14447471 -0.27783668 0.33277127 0.05306206 -0.9729182
00000000: 9b8c 4ebe 8d1d 2f3e 8407 e83e 2ef1 133e
00000010: 9c40 8ebe ff60 aa3e 9a57 593d 2b11 79bf

running_var f4 [8]
86988.44 491328.1 589728.9 486859.47 377588.72 432566.72 45159.89 411122.8
00000000: 38e6 a947 03e8 ef48 0efa 0f49 6fb9 ed48
00000010: 975e b848 d736 d348 e467 3047 5abe c848

weight f4 [16, 8, 3]
-0.7227673 -0.1994139 -1.8274093 0.50933576 -1.1164098 -0.48594463 -0.33957145 -0.46488506
-0.26634282 -0.09754481 0.2977216 -0.5687885 -1.0123862 -1.3276423 -0.15552078 -2.275558
0.15525821 -1.0187452 0.16208485 0.056229644 -0.29432243 0.2698474 0.41506338 -0.58704746
1.6709011 -1.5952258 0.21976753 0.25319204 -0.34056896 0.4261594 -0.43180585 0.14254083
-0.71729624 0.7590185 -0.3824991 -0.87842506 -0.23194887 0.6303536 -0.3064909 -0.44322053
0.4062966 -0.7896601 -0.273235 -1.0167601 1.2839836 -0.5472791 -1.0045259 0.5493528
-0.40290412 -0.3198542 -0.19668876 -1.1187158 0.14968987 0.059097525 0.8813937 0.13293327
0.46717575 0.79720193 1.2358294 1.334885 -0.6990853 -0.17187648 -0.084435746 -0.34744543
-0.70249206 0.34555867 -0.0902803 -0.002240872 -0.393846 0.58535486 0.9869481 1.1088889
-1.0716851 0.0052476367 -1.0510124 -0.14055948 0.33877295 -0.07912503 -0.027306177 -0.23184706
2.3296342 -0.011809237 -0.5112064 -0.9535921 0.09511118 0.13944905 1.7826906 0.48046985
-0.7049837 1.294389 0.21592288 0.27147248 -0.17623009 0.83082646 -0.8804294 -0.29386285
0.6935685 -0.74532574 -1.2868103 0.36692834 -0.6260275 -0.5959122 0.38584638 -0.5922783
-0.65696263 1.051946 -0.04518197 -1.0460811 -0.53394496 -0.76735044 -0.7046611 0.24181786
-0.3925407 0.16211674 -0.20908368 0.42466685 0.36411083 0.55894935 1.1247555 -0.20667405
0.3176748 -0.5807366 0.22142993 -0.70522696 -0.5344355 0.35536256 0.017548608 0.97656476
0.2673508 0.7694382 0.31795657 0.67833304 -0.5739832 -0.25314358 0.0791738 0.33951458
-0.12419954 0.22609822 -0.9040298 -0.68374985 1.576032 -1.1138623 0.053616505 1.1428998
-1.2725072 -0.27156252 0.30309835 -1.8813562 0.48857835 0.65114754 0.7853116 0.78541213
-0.6411316 0.28909525 -0.18912807 -0.0069703637 -0.33334577 0.559834 -0.06546855 -0.11602316
-0.8643929 0.4601591 -1.6034979 2.0485203 0.46364456 0.5637907 0.119609654 -0.015285138
1.3928082 -0.18222164 -1.350906 0.4673861 -0.5857999 -1.0006183 -1.4408398 -0.6683124
0.089999944 -0.0033779023 0.2757837 0.5237161 -0.02600211 -0.47806096 -1.0115432 0.21090968
0.5700956 -0.51902455 -1.0436498 -1.6570092 -0.19348922 -1.2748027 -0.032931387 0.7802467
0.5560959 -1.042545 0.16698843 -0.20236045 -1.3269384 -0.22985688 -1.2937523 0.24811938
-1.0227362 0.33330986 -0.42898703 0.56167996 -0.50098246 -0.69829595 -0.65320915 -0.35954466
-0.22857608 -1.5113205 -0.06873493 -0.74541545 0.41178337 -0.23513198 -0.792262 0.58409196
0.37279218 -0.18891959 0.47953823 -0.16975844 0.5371647 0.10375784 1.1321651 -0.06560087
-1.912049 0.5781348 1.533962 0.54922634 0.40686944 0.46258205 -0.85926205 0.85282904
-0.15270105 -0.15224862 0.26559725 0.26364723 -1.4049263 0.71571875 1.1371583 0.55738515
1.4108953 1.257081 0.77965903 1.4499273 0.17973441 -0.43922874 -0.5292699 -0.68091863
-0.7655541 -0.6267281 -0.7965385 0.52242243 0.9508169 0.3736876 -0.51854485 1.7769884
00000000: 4707 39bf 2833 4cbe 8ce8 e9bf d463 023f
00000010: 84e6 8ebf bccd f8be 4fdc adbe 6a05 eebe
00000020: 165e 88be 93c5 c7bd f76e 983e 209c 11bf
00000030: df95 81bf 2ff0 a9bf d740 1fbe bea2 11c0
00000040: 02fc 1e3e 3e66 82bf 92f9 253e 0e51 663d
00000050: 6eb1 96be 7029 8a3e 3083 d43e be48 16bf
00000060: 16e0 d53f 5c30 ccbf bd0a 613e 63a2 813e
00000070: 0e5f aebe 9131 da3e a815 ddbe 39f6 113e
00000080: baa0 37bf 094f 423f ecd6 c3be 77e0 60bf
00000090: 0184 6dbe db5e 213f 60ec 9cbe cded e2be
000000a0: 1c06 d03e 2a27 4abf 75e5 8bbe 3225 82bf
000000b0: 9359 a43f 7c1a 0cbf 4e94 80bf 63a2 0c3f
000000c0: 7349 cebe eec3 a3be c768 49be 1432 8fbf
000000d0: 4d48 193e 3f10 723d 04a3 613f a91f 083e
000000e0: a931 ef3e 6d15 4c3f a82f 9e3f 83dd aa3f
000000f0: 41f7 32bf 6300 30be a6ec acbd 5ee4 b1be
00000100: 85d6 33bf 11ed b03e e1e4 b8bd 98db 12bb
00000110: 2fa6 c9be d1d9 153f a1a8 7c3f 12f0 8d3f
00000120: fa2c 89bf 5ef4 ab3b 9387 86bf d3ee 0fbe
00000130: a673 ad3e 4e0c a2bd 34b1 dfbc 5169 6dbe
00000140: ba18 1540 887b 41bc 6cde 02bf 9d1e 74bf
00000150: a6c9 c23d bbcb 0e3e 352f e43f 2500 f63e
00000160: d079 34bf 8aae a53f e31a 5d3e 71fe 8a3e
00000170: a975 34be 0bb1 543f d263 61bf 3175 96be
00000180: b58d 313f abcd 3ebf 33b6 a4bf 08de bb3e
00000190: 5743 20bf b48d 18bf a88d c53e 8d9f 17bf
000001a0: b42e 28bf 2ba6 863f bb10 39bd fce5 85bf
000001b0: 9eb0 08bf 1471 44bf ab64 34bf 1a9f 773e
000001c0: 18fb c8be ee01 263e 081a 56be ef6d d93e
000001d0: bc6c ba3e 4e17 0f3f fdf7 8f3f 5da2 53be
000001e0: 45a6 a23e 27ab 14bf 87be 623e c189 34bf
000001f0: c4d0 08bf 15f2 b53e 19c2 8f3c 2600 7a3f
00000200: 34e2 883e e7f9 443f 34cb a23e 3ca7 2d3f
00000210: 90f0 12bf 099c 81be e025 a23d dbd4 ad3e
00000220: 545c febd 4b86 673e 7f6e 67bf 3b0a 2fbf
00000230: 6bbb c93f 0a93 8ebf fb9c 5b3d 8a4a 923f
00000240: 84e1 a2bf 3e0a 8bbe b52f 9b3e 48d0 f0bf
00000250: f126 fa3e 9bb1 263f 2e0a 493f c510 493f
00000260: 3321 24bf 4b04 943e caaa 41be a667 e4bb
00000270: 4cac aabe 4851 0f3f 6014 86bd 8d9d edbd
00000280: da48 5dbf f999 eb3e 6b3f cdbf f51a 0340
00000290: d262 ed3e 9654 103f e8f5 f43d 846e 7abc
000002a0: 8a47 b23f 4f98 3abe 7dea acbf 3b4d ef3e
000002b0: fbf6 15bf 4314 80bf 706d b8bf 8516 2bbf
000002c0: e451 b83d cc5f 5dbb 8533 8d3e 4212 063f
000002d0: 6102 d5bc 68c4 f4be 3f7a 81bf b5f8 573e
000002e0: c9f1 113f cbde 04bf 5196 85bf e118 d4bf
000002f0: 0a22 46be bc2c a3bf 10e3 06bd 3fbe 473f
00000300: 4d5c 0e3f 1d72 85bf 04ff 2a3e 9437 4fbe
00000310: 1ed9 a9bf 9a5f 6bbe ad99 a5bf 0213 7e3e
00000320: 05e9 82bf 97a7 aa3e 30a4 dbbe 42ca 0f3f
00000330: 6340 00bf 86c3 32bf b738 27bf 3d16 b8be
00000340: d90f 6abe f372 c1bf e6c4 8cbd 8cd3 3ebf
00000350: 45d5 d23e 70c6 70be afd1 4abf 0d87 153f
00000360: 9ede be3e 2374 41be 0986 f53e 28d5 2dbe
00000370: a083 093f fe7e d43d c9ea 903f c059 86bd
00000380: 06be f4bf a400 143f de58 c43f 199a 0c3f
00000390: 3151 d03e 8ed7 ec3e 99f8 5bbf 0153 5a3f
000003a0: aa5d 1cbe 10e7 1bbe 5dfc 873e c5fc 863e
000003b0: a0d4 b3bf 5839 373f 678e 913f cbb0 0e3f
000003c0: 3898 b43f 08e8 a03f bc97 473f 3897 b93f
000003d0: 4c0c 383e 97e2 e0be 3b7e 07bf af50 2ebf
000003e0: 5afb 43bf 4171 20bf f2e9 4bbf 7abd 053f
000003f0: bd68 733f fb53 bf3e 5bbf 04bf 5b74 e33f

bias f4 [16]
0.5640279 0.34259078 0.108869165 -0.53510576 0.4906284 -1.4577394 -0.5863836 0.15782548
0.46380967 0.44404045 0.8856483 0.18193227 0.40093923 -0.5079351 -0.8983542 -0.3800676
00000000: 2264 103f 0f68 af3e ccf6 de3d b1fc 08bf
00000010: a533 fb3e 3497 babf 3c1d 16bf 019d 213e
00000020: 7678 ed3e 4559 e33e d9b9 623f 744c 3a3e
00000030: e847 cd3e 0908 02bf 8afa 65bf 3898 c2be

weight f4 [16]
1.0736932 1.0372702 1.5626057 1.2639023 1.0841038 0.8387759 0.90510595 1.3647155
0.58420485 1.5327533 0.9232379 0.2675627 0.82170904 0.7360278 1.582953 1.3962959
00000000: c76e 893f 45c5 843f 7703 c83f 8dc7 a13f
00000010: eac3 8a3f 04ba 563f 06b5 673f ffae ae3f
00000020: 738e 153f 4331 c43f 5259 6c3f fafd 883e
00000030: 865b 523f 516c 3c3f 349e ca3f d3b9 b23f

bias f4 [16]
0.2963422 -0.18491387 0.7895053 1.2653272 0.036958527 -0.45029694 1.4556586 0.6416362
0.079830006 1.7690537 2.317518 0.88501346 -0.16648285 0.15936615 -0.36139753 -0.39220238
00000000: 2aba 973e 105a 3dbe 051d 4a3f 3ef6 a13f
00000010: d361 173d 528d e6be 0553 ba3f 4542 243f
00000020: ea7d a33d 5a70 e23f 3752 1440 3e90 623f
00000030: 7b7a 2abe e130 233e 1909 b9be c0ce c8be

running_mean f4 [16]
-6.8046646 -0.81439984 2.179415 -1.4926674 -2.0704288 -0.059660465 -1.0878615 -3.452844
-3.5160956 4.4359584 5.2706957 0.07978218 -0.46625033 -4.68149 5.7769537 6.1725154
00000000: d0bf d9c0 827c 50bf 897b 0b40 ba0f bfbf
00000010: e881 04c0 885e 74bd 0c3f 8bbf 65fb 5cc0
00000020: b607 61c0 5ff3 8d40 8aa9 a840 d764 a33d
00000030: 5db8 eebe c4ce 95c0 cedc b840 3f85 c540

running_var f4 [16]
64.314316 13.633127 53.823277 24.98329 26.026882 12.769054 16.656115 37.190857
46.61228 27.551233 30.1361 19.78035 12.543548 37.539402 121.436714 147.04227
00000000: eea0 8042 4a21 5a41 094b 5742 c7dd c741
00000010: 0e37 d041 0c4e 4c41 b93f 8541 70c3 1442
00000020: fa72 3a42 ed68 dc41 bc16 f141 283e 9e41
00000030: 5fb2 4841 5928 1642 99df f242 d20a 1343

weight f4 [16, 16, 3]
-1.4677484 -0.9749599 0.48536777 -0.9734561 -0.24025942 -0.35900387 -1.0770766 0.27432826
0.98645866 0.036577057 -0.38835505 0.3864157 -1.3633752 -0.8601709 0.67268676 -0.87125343
0.22683814 0.28436452 -0.63769007 -0.8017488 0.8980993 -0.64809394 0.7967016 -0.062191222
-0.3211181 -0.10299653 -0.8497128 -1.5113711 0.39383858 0.6358348 -0.38811573 0.08900627
-0.04315743 -1.2644309 0.23243226 -0.035471395 0.3406334 -0.3558568 0.008583047 0.07140615
0.091023885 -0.8453084 -0.34833857 0.16647065 0.5568519 -0.7205517 0.12833469 0.68000793
-0.76314706 0.73303944 0.7843783 -1.0545799 -1.6070946 -1.4089878 -0.010478583 0.27560183
0.7265264 -1.28354 -1.494538 -1.5520887 0.082226366 -0.064995736 -0.1054283 -1.1827581
0.21383235 -0.22388104 -0.8847972 -0.27347508 0.30543444 -0.4946221 0.27699795 0.76023954
-1.4921907 0.16570906 0.44060287 -0.05886557 -0.29183346 0.3735467 -0.709511 -1.8663148
-0.98709375 -0.021780293 -0.6647815 0.45237207 -1.396082 -0.09431392 -0.813035 -0.4123402
0.58501494 0.5361441 -0.65421116 -0.12103618 -0.04979832 -0.85080993 -0.22005962 -0.06288105
-0.08771633 0.57793486 -0.24107587 -1.1317973 -0.26169538 0.14435466 2.0651972 0.4662002
-0.5621597 -0.6527107 0.07932061 0.332802 1.0532889 0.62737685 -0.22144908 0.07303656
-0.5611864 0.18226063 1.6260127 -0.60481024 -0.67706555 -0.05252164 -0.81816494 -0.6899338
-0.12005469 -0.020601708 -0.47095466 1.6331325 0.37360334 -0.6646968 -0.5958394 -0.4378015
-0.40554363 -0.1361484 -0.39289093 -0.2958076 -0.4135349 0.11303573 0.32032531 -0.487948
-0.20648992 0.4848013 -0.31804302 -0.036684707 0.4184918 -0.26509273 -0.0550149 0.3196797
0.199507 -0.32519695 0.3637356 -1.4469184 0.020928713 -1.1740836 0.47792268 -0.83966506
-0.27556363 -0.20813285 -0.2658473 -1.2073314 0.42407408 -0.79977596 -0.22926559 -2.2613342
-0.71450406 -0.17086284 -0.41186222 -0.5869334 -1.3076558 -0.8678732 -0.6973489 0.6009845
-0.95056653 0.004468492 0.34649333 1.099824 -0.63678926 -0.92917675 0.33066612 0.22694889
-0.67564505 -0.9420988 -0.18011129 -0.4459672 0.2682543 -0.012268208 -1.1746228 -1.5647631
-0.018125394 1.0567019 0.43418387 -0.21301769 -1.1199447 0.58233446 0.09689439 -0.80201364
-0.57811874 -1.7144436 -2.0248675 -0.5107746 -0.2331677 -0.6825787 -0.661978 -0.84731036
-0.034513094 -5.4583248e-05 -0.41254812 0.3486026 0.07532947 -0.34151152 -1.2367398 -2.2909799
-0.13763869 0.23727751 0.8919054 -1.1353108 -0.1687008 -2.6075733 0.15184851 -1.4720968
-1.062952 -0.032180402 -1.2066756 -0.016823309 -1.0103894 0.5929774 0.06575646 0.17781627
-0.18580188 -0.9095021 -0.6755426 -0.29299393 -0.42126092 -1.4578913 1.0320213 -0.822608
-0.07705404 -1.0768026 0.009178329 -0.5626131 0.8928938 0.51758826 -0.7760354 0.80850875
-0.5108234 0.09284406 0.64956075 0.03731659 -0.88124824 -0.021000892 -0.65871435 0.25374684
1.2647827 0.19159769 -0.32018864 -1.5205258 -0.5561488 -0.7550216 0.67312557 -0.35786238
00000000: 2edf bbbf f996 79bf 2082 f83e 6b34 79bf
00000010: 9106 76be 5bcf b7be a5dd 89bf c174 8c3e
00000020: 8e88 7c3f d3d1 153d 79d6 c6be 47d8 c53e
00000030: 1483 aebf 2934 5cbf 3335 2c3f 770a 5fbf
00000040: 4248 683e 3a98 913e a83f 23bf 693f 4dbf
00000050: d6e9 653f 7ce9 25bf a3f4 4b3f 39bc 7ebd
00000060: 9769 a4be d8ef d2bd c786 59bf 9c74 c1bf
00000070: 36a5 c93e 12c6 223f 1bb7 c6be eb48 b63d
00000080: d8c5 30bd dfd8 a1bf b902 6e3e 744a 11bd
00000090: 8067 ae3e dd32 b6be e99f 0c3c 633d 923d
000000a0: bb6a ba3d 2266 58bf 6f59 b2be 4877 2a3e
000000b0: d98d 0e3f 1476 38bf 2b6a 033e 0015 2e3f
000000c0: 9b5d 43bf 79a8 3b3f 04cd 483f 79fc 86bf
000000d0: 47b5 cdbf b659 b4bf 5dae 2bbc af1b 8d3e
000000e0: a2fd 393f 0a4b a4bf 054d bfbf d8aa c6bf
000000f0: 4c66 a83d 7c1c 85bd cbea d7bd 9e64 97bf
00000100: def6 5a3e 1241 65be 1282 62bf ed04 8cbe
00000110: e761 9c3e 1c3f fdbe add2 8d3e 0f9f 423f
00000120: 1b00 bfbf a3af 293e b396 e13e 061d 71bd
00000130: 326b 95be 8341 bf3e 83a2 35bf 67e3 eebf
00000140: 2db2 7cbf 966c b2bc 1f2f 2abf 509d e73e
00000150: d1b2 b2bf a827 c1bd 1023 50bf 411e d3be
00000160: 8ac3 153f bd40 093f 627a 27bf d1e1 f7bd
00000170: 53f9 4bbd aece 59bf 4f57 61be c8c7 80bd
00000180: 9fa4 b3bd 8af3 133f 98dc 76be bcde 90bf
00000190: f0fc 85be b5d1 133e 312c 0440 cbb1 ee3e
000001a0: b3e9 0fbf 0c18 27bf d872 a23d 0665 aa3e
000001b0: 2cd2 863f c59b 203f 8cc3 62be 3194 953d
000001c0: e9a9 0fbf 88a2 3a3e 2f21 d03f d8d4 1abf
000001d0: 2b54 2dbf ee20 57bd 4273 51bf 809f 30bf
000001e0: 3cdf f5bd eac4 a8bc f820 f1be 7c0a d13f
000001f0: f048 bf3e 9229 2abf ee88 18bf 8527 e0be
00000200: 6aa3 cfbe 7c6a 0bbe 0029 c9be 1874 97be
00000210: d9ba d3be 477f e73d ae01 a43e 52d4 f9be
00000220: 1872 53be e037 f83e 89d6 a2be b442 16bd
00000230: 8f44 d63e 3cba 87be 4e57 61bd 0fad a33e
00000240: 904b 4c3e 3780 a6be 8d3b ba3e 9f34 b9bf
00000250: b172 ab3c 5f48 96bf 48b2 f43e 4af4 56bf
00000260: ad16 8dbe c720 55be 231d 88be d689 9abf
00000270: 3d20 d93e 1ebe 4cbf 99c4 6abe b3b9 10c0
00000280: bde9 36bf abf6 2ebe 9bdf d2be 4441 16bf
00000290: 4461 a7bf f02c 5ebf 7585 32bf 1fda 193f
000002a0: 5458 73bf 6e6c 923b 9367 b13e 08c7 8c3f
000002b0: 9f04 23bf 87de 6dbf 124d a93e 4a65 683e
000002c0: 13f7 2cbf 632d 71bf 186f 38be d055 e4be
000002d0: a158 893e 9800 49bc 0a5a 96bf 284a c8bf
000002e0: b57b 94bc 0242 873f 594d de3e 4f21 5abe
000002f0: 595a 8fbf df13 153f 9170 c63d c450 4dbf
00000300: 97ff 13bf e372 dbbf 6e97 01c0 20c2 02bf
00000310: 83c3 6ebe 7abd 2ebf 6477 29bf 55e9 58bf
00000320: 9a5d 0dbd 51f0 64b8 8239 d3be 0a7c b23e
00000330: 5646 9a3d 99da aebe 7d4d 9ebf 6a9f 12c0
00000340: 28f1 0cbe e0f8 723e ea53 643f dd51 91bf
00000350: e7bf 2cbe 7be2 26c0 2d7e 1b3e ab6d bcbf
00000360: d00e 88bf 99cf 03bd 5974 9abf 09d1 89bc
00000370: 7154 81bf 5ecd 173f 53ab 863d 7815 363e
00000380: d942 3ebe 21d5 68bf 5cf0 2cbf 4d03 96be
00000390: 83af d7be 2f9c babf 4619 843f 7096 52bf
000003a0: 82ce 9dbd abd4 89bf b460 163c 6a07 10bf
000003b0: b094 643f aa80 043f 42aa 46bf 6efa 4e3f
000003c0: 53c5 02bf 0725 be3d 9d49 263f 48d9 183d
000003d0: 7c99 61bf 100a acbc 81a1 28bf 1beb 813e
000003e0: 66e4 a13f 2f32 443e c4ef a3be 97a0 c2bf
000003f0: c55f 0ebf 1849 41bf f551 2c3f bd39 b7be

bias f4 [16]
0.55558026 -0.6112499 0.18794657 -1.0714892 0.91863245 0.98018414 -0.47026265 0.36953866
0.23610753 0.7244892 -0.212634 1.3470618 0.49508172 -0.15235986 -0.7386705 0.21005228
00000000: 823a 0e3f e07a 1cbf 1175 403e 8f26 89bf
00000010: 7f2b 6b3f 59ed 7a3f 44c6 f0be 2c34 bd3e
00000020: 2cc6 713e 2078 393f babc 59be 856c ac3f
00000030: 5a7b fd3e 3904 1cbe 8319 3dbf f217 573e

weight f4 [16]
0.6771156 1.4241325 1.83037 1.5714155 1.0883349 1.9442118 0.78082305 1.1020297
1.1251204 1.0299826 1.9404233 1.0468395 1.3629405 1.1651452 1.1801708 0.7268187
00000000: 7357 2d3f f949 b63f 9049 ea3f 2524 c93f
00000010: 8f4e 8b3f efdb f83f 05e4 473f 4f0f 8d3f
00000020: f203 903f 78d6 833f ca5f f83f d6fe 853f
00000030: d674 ae3f 7a23 953f d60f 973f ca10 3a3f

bias f4 [16]
-0.11852686 -0.085282244 0.77122027 0.45546412 0.35600868 0.5965328 0.9979537 -1.1907579
-0.010765763 0.6017305 0.22141491 -1.0509632 0.63410044 -0.02811024 -1.107463 -0.9725579
00000000: 36be f2bd 75a8 aebd b16e 453f 9832 e93e
00000010: c546 b63e 60b6 183f e579 7f3f c16a 98bf
00000020: e262 30bc 030b 1a3f 97ba 623e f685 86bf
00000030: 6854 223f 7247 e6bc 59c1 8dbf 8ef9 78bf

running_mean f4 [16]
-6.6866307 -20.249643 -0.9941576 -16.702444 -15.390805 6.339479 -13.9402685 9.203556
-0.3571692 2.6325066 -10.126164 7.432368 -1.6310155 4.8865433 11.027802 4.880385
00000000: e1f8 d5c0 45ff a1c1 1d81 7ebf 9b9e 85c1
00000010: bd40 76c1 03dd ca40 570b 5fc1 c441 1341
00000020: e2de b6be fd7a 2840 c504 22c1 f5d5 ed40
00000030: 1ec5 d0bf 905e 9c40 e171 3041 1d2c 9c40

running_var f4 [16]
21.738537 141.1219 46.982445 37.814983 87.40862 53.97421 73.876884 52.218136
32.97021 104.2655 44.709614 38.43804 135.13074 41.97677 61.891285 30.217688
00000000: 86e8 ad41 351f 0d43 06ee 3b42 8b42 1742
00000010: 37d1 ae42 97e5 5742 f7c0 9342 5fdf 5042
00000020: 7fe1 0342 f087 d042 a5d6 3242 8ec0 1942
00000030: 7821 0743 36e8 2742 ad90 7742 d3bd f141

weight f4 [32, 16, 3]
-1.3599558 0.3059533 -1.2829337 -1.2141495 0.2273378 0.5419281 -0.11920518 -0.6016023
0.9027184 0.63219357 -0.023252292 0.20493557 0.2517722 -0.34664258 -0.32772234 0.49238333
0.5106042 -0.09280809 -1.4310799 -1.0000298 1.6521438 0.06017519 0.0273224 -0.103289545
0.9106952 0.051806368 -0.16157703 -0.18396406 -1.3917384 -1.7396129 -1.4025466 -2.952705
-0.8277426 -0.5863509 -0.30621347 -0.33457145 0.058147684 0.026190555 0.3354157 0.76984143
0.11641946 0.64029473 -0.13317029 -1.1863256 -0.7267326 1.1041881 0.28513184 -0.11473426
0.5524655 -0.8667848 -0.1340181 -0.0041814414 -0.52228475 0.2234728 -1.0480402 -0.8702747
-0.04244586 -0.86245114 -0.31268686 0.77509433 0.48521474 -0.9311356 -1.2671363 -0.4949842
0.20775315 -0.12913696 -0.78680795 -0.70630884 1.1968672 0.87809056 1.365284 -1.0312688
-0.8204931 0.66153157 -0.73538107 0.44205612 -0.20579515 -0.11263938 1.9495857 -0.71234244
-1.5750697 0.6828578 0.044025633 -1.5120913 -1.0522267 -0.869501 -0.05040768 -1.2903516
1.2013532 -0.17838931 0.8474283 0.55980444 0.65968865 -0.355203 0.3676657 -0.82676464
-0.09673917 -0.10111758 0.11015763 0.06901974 0.39939404 0.10840164 -0.9443294 -0.5915628
0.6582014 -0.9796 0.08764491 0.4179959 0.10553077 0.5550238 0.15874468 -1.0624636
0.17400472 -0.26388216 -1.2045189 -0.16283908 0.18835813 1.2724046 0.4318976 -0.8074693
-1.0255101 0.10581623 -0.7136537 0.41218385 1.1933419 0.55719227 1.9443896 -0.5963903
-0.9789602 -0.08892568 0.96986014 -1.0116616 -0.7263024 -0.3755628 -0.28841963 -0.012388285
0.33052716 -0.65202695 1.220034 0.69660103 0.37489662 -0.6077284 0.41276452 -1.4455088
0.58573824 0.03672571 0.11640438 -0.40668595 -0.8757003 -1.1973628 -0.86689883 -0.14522406
-0.43771687 -0.8577836 -1.2103393 -1.1087215 -0.5805001 -1.0601071 0.13385075 -0.026465239
-0.6972554 -0.5262841 -0.1958185 -0.027803198 -0.57874143 0.45888704 0.50728303 0.20805636
0.93637353 0.45656863 0.011412188 -2.1839685 -1.577659 -0.8267441 -0.8313545 -0.91604674
-0.4406838 0.25267652 -0.18853167 -0.32424974 1.3276999 0.55425507 -0.41233477 0.01798683
0.26233906 -0.48586607 -0.8441462 -1.5868471 -0.69421905 -0.058748584 -0.35171887 -0.07818229
-0.76038605 -0.14274149 0.026794331 -1.2864565 -0.46472323 -0.16984628 -0.7173056 -0.54528713
0.5211817 0.67996496 0.21892509 0.534503 1.2799089 -0.41504183 -1.6017884 0.84773797
1.8949844 0.4933034 -1.0907737 -0.7176095 0.9217457 -0.81017977 0.11074387 -0.5764005
0.15012676 0.001266969 -0.20007828 0.9110001 -0.13989948 -1.0584444 -0.3051419 -0.19001594
1.5914189 0.38257265 0.3300906 0.15021048 -0.88443124 0.31258515 -0.20575589 -0.007132366
0.87491786 0.08170551 -0.4955925 -1.0145458 -1.4799333 0.5635002 -0.8434263 -0.022338308
-0.59697986 0.3967977 0.12033755 0.6555558 0.4394449 0.4022885 -0.6811307 0.52065754
0.24032173 0.11957469 0.43069234 0.38286197 -0.8239706 0.21841432 0.4025236 0.63358676
00000000: 0813 aebf e9a5 9c3e 2c37 a4bf 4069 9bbf
00000010: 3ecb 683e cdbb 0a3f d821 f4bd 9c02 1abf
00000020: 8e18 673f 70d7 213f 977b bebc a1da 513e
00000030: 49e8 803e 237b b1be 39cb a7be ab19 fc3e
00000040: f5b6 023f 2b12 bebd a02d b7bf fa00 80bf
00000050: 7379 d33f 437a 763d 3ad3 df3c 7889 d3bd
00000060: 5223 693f ea32 543d 7374 25be 1361 3cbe
00000070: 7c24 b2bf a3ab debf a686 b3bf 1ef9 3cc0
00000080: f0e6 53bf 181b 16bf 03c8 9cbe f34c abbe
00000090: 442c 6e3d 938d d63c 9bbb ab3e 5414 453f
000000a0: 536d ee3d 5bea 233f cb5d 08be 84d9 97bf
000000b0: 260b 3abf 0956 8d3f cdfc 913e ccf9 eabd
000000c0: 616e 0d3f 9ce5 5dbf 0a3c 09be 7904 89bb
000000d0: 74b4 05bf 0ed6 643e 2e26 86bf 53ca 5ebf
000000e0: b6db 2dbd 99c9 5cbf 7e18 a0be 956c 463f
000000f0: 116e f83e e75e 6ebf 8631 a2bf 926e fdbe
00000100: 3ebd 543e 7b3c 04be 3f6c 49bf a8d0 34bf
00000110: f232 993f 8bca 603f a0c1 ae3f 9e00 84bf
00000120: d60b 52bf 225a 293f ef41 3cbf 2e55 e23e
00000130: f7bb 52be 7aaf e6bd 068c f93f 135c 36bf
00000140: e29b c9bf c5cf 2e3f 3954 343d 358c c1bf
00000150: 5daf 86bf 9e97 5ebf 4978 4ebd 3e2a a5bf
00000160: f1c5 993f b0ab 36be 10f1 583f 584f 0f3f
00000170: 5be1 283f 2bdd b5be ae3e bc3e d9a6 53bf
00000180: 301f c6bd bc16 cfbd 539a e13d 395a 8d3d
00000190: 607d cc3e ae01 de3d 92bf 71bf a970 17bf
000001a0: e37f 283f 11c7 7abf 2d7f b33d 8f03 d63e
000001b0: 8420 d83d 0a16 0e3f f78d 223e cffe 87bf
000001c0: 4b2e 323e 901b 87be ad2d 9abf 4abf 26be
000001d0: f4e0 403e 27de a23f af21 dd3e 4fb6 4ebf
000001e0: ea43 83bf 2eb6 d83d 02b2 36bf c309 d33e
000001f0: 6dbf 983f 27a4 0e3f c2e1 f83f 09ad 18bf
00000200: 239d 7abf ab1e b6bd c148 783f 217e 81bf
00000210: f4ee 39bf c449 c0be bdab 93be 3cf8 4abc
00000220: db3a a93e 3deb 26bf 132a 9c3f 7254 323f
00000230: 73f2 bf3e 1794 1bbf df55 d33e 6f06 b9bf
00000240: f1f2 153f b36d 163d 6b65 ee3d 2439 d0be
00000250: e52d 60bf 2f43 99bf 15ed 5dbf 9eb5 14be
00000260: 6d1c e0be b597 5bbf 66ec 9abf 96ea 8dbf
00000270: a89b 14bf 97b1 87bf 2c10 093e a1cd d8bc
00000280: 547f 32bf 8eba 06bf a584 48be 88c3 e3bc
00000290: 6628 14bf 3ef3 ea3e 4ddd 013f ba0c 553e
000002a0: 2db6 6f3f 5dc3 e93e 30fa 3a3c 24c6 0bc0
000002b0: bbf0 c9bf 80a5 53bf a6d3 54bf 0a82 6abf
000002c0: 4fa1 e1be d15e 813e 720e 41be 1004 a6be
000002d0: 12f2 a93f a9e3 0d3f 8b1d d3be 1e59 933c
000002e0: 4e51 863e 70c3 f8be f719 58bf ce1d cbbf
000002f0: 57b8 31bf 5ba2 70bd 7f14 b4be 091e a0bd
00000300: a9a8 42bf d32a 12be c97f db3c 9baa a4bf
00000310: 34f0 edbe 2fec 2dbe 57a1 37bf f097 0bbf
00000320: 2a6c 053f 2f12 2e3f e62d 603e 30d5 083f
00000330: 0ed4 a33f 5d80 d4be 6707 cdbf 5b05 593f
00000340: d98e f23f 4392 fc3e 799e 8bbf 42b5 37bf
00000350: 87f7 6b3f f167 4fbf afcd e23d fc8e 13bf
00000360: d4ba 193e 6d10 a63a 52e1 4cbe 4d37 693f
00000370: cf41 0fbe 1b7b 87bf 8f3b 9cbe 8a93 42be
00000380: 9db3 cb3f 90e0 c33e a301 a93e c7d0 193e
00000390: 166a 62bf 290b a03e acb1 52be 9fb6 e9bb
000003a0: 9efa 5f3f 3855 a73d 4dbe fdbe a3dc 81bf
000003b0: 746e bdbf 8d41 103f c9ea 57bf d4fe b6bc
000003c0: acd3 18bf 1129 cb3e 8973 f63d 81d2 273f
000003d0: ecfe e03e c2f8 cd3e 955e 2ebf d049 053f
000003e0: e616 763e 93e3 f43d b583 dc3e 7c06 c43e
000003f0: bdef 52bf 01a8 5f3e 9317 ce3e be32 223f

bias f4 [32]
0.058401637 -0.06732226 -1.1660982 -0.13949525 -0.31644183 -0.7292022 0.5447439 0.1849522
-0.92801535 0.309709 -0.1498969 -0.44915637 -0.45212623 -0.54971063 -0.000661269 0.6480819
-1.568098 0.73105043 0.31211534 -0.3572121 -1.2895391 0.92612207 1.1918757 0.3920036
0.6159331 0.38019136 0.352316 0.14147276 -1.2576374 -1.044419 -0.050361726 -0.3910621
00000000: 8e36 6f3d 41e0 89bd b542 95bf d8d7 0ebe
00000010: aa04 a2be ffac 3abf 5674 0b3f 1c64 3d3e
00000020: 6a92 6dbf 2e92 9e3e 937e 19be d3f7 e5be
00000030: 177d e7be d6b9 0cbf 0359 2dba b2e8 253f
00000040: 6fb7 c8bf 1f26 3b3f 95cd 9f3e 81e4 b6be
00000050: 9e0f a5bf 5616 6d3f 628f 983f b2b4 c83e
00000060: cbad 1d3f 71a8 c23e c362 b43e 3cde 103e
00000070: 43fa a0bf 86af 85bf 1948 4ebd 4b39 c8be

weight f4 [32]
0.77554584 1.2104876 0.95586866 0.6028436 1.5678626 0.9770837 0.52951676 0.8825435
1.0594234 1.4858819 0.6002772 1.5011194 1.2695389 0.42097658 1.4676875 0.88539386
1.771056 1.3430414 1.5557525 1.1951226 1.3525575 1.565836 1.607506 1.6084514
0.9486019 1.7473716 1.565273 0.9956755 2.0837626 0.86975056 1.1352382 1.7508531
00000000: 2c8a 463f 42f1 9a3f cfb3 743f f553 1a3f
00000010: b9af c83f 2822 7a3f 698e 073f 5fee 613f
00000020: 309b 873f 6131 be3f c4ab 193f ae24 c03f
00000030: 4080 a23f 3e8a d73e 2fdd bb3f 2ca9 623f
00000040: f7b1 e23f c8e8 ab3f e622 c73f c7f9 983f
00000050: 9b20 ad3f 506d c83f c2c2 cd3f bce1 cd3f
00000060: 93d7 723f dfa9 df3f de5a c83f 97e4 7e3f
00000070: 5e5c 0540 f9a7 5e3f 7c4f 913f f41b e03f

bias f4 [32]
0.1622112 0.3672851 -0.26245293 0.2560593 -0.09980518 -1.6412452 -0.5055982 -0.6280791
0.40708277 -0.12739493 -0.594108 -0.041656572 0.3703934 -0.29890302 0.103147976 1.8255652
-0.07999577 -0.09167848 0.2844387 -0.14959662 -0.014822008 0.40818724 1.1805929 -0.50516677
-0.20123 -0.2482459 0.30214265 -1.2603574 -1.2016966 -1.6689452 0.37736195 -0.7532184
00000000: b11a 263e cb0c bc3e 3b60 86be 341a 833e
00000010: a966 ccbd 5314 d2bf e26e 01bf cbc9 20bf
00000020: 276d d03e d173 02be 7617 18bf 15a0 2abd
00000030: 34a4 bd3e d109 99be 3f3f d33d 1fac e93f
00000040: d2d4 a3bd edc1 bbbd f3a1 913e db2f 19be
00000050: 02d8 72bc ebfd d03e ab1d 973f 9c52 01bf
00000060: 3d0f 4ebe 2c34 7ebe 71b2 9a3e 6453 a1bf
00000070: 32d1 99bf ff9f d5bf 9635 c13e ecd2 40bf

running_mean f4 [32]
-5.250699 -6.544001 -3.8602612 -11.841547 0.8867639 8.552096 2.7837448 -4.2067714
-7.994153 4.7367244 0.621716 -5.521341 4.1556525 -0.029654196 4.7457123 -4.8753986
-7.9543104 1.31749 -1.2074134 4.584404 -3.774401 -5.812613 -9.4767885 -0.8790405
-5.698982 -2.3902166 -8.796597 10.194415 4.4245143 4.032286 -3.1476417 1.4987634
00000000: ba05 a8c0 7568 d1c0 850e 77c0 fa76 3dc1
00000010: f502 633f 63d5 0841 e028 3240 df9d 86c0
00000020: 1ad0 ffc0 3f93 9740 c828 1f3f d3ae b0c0
00000030: 1bfb 8440 5bed f2bc e0dc 9740 4403 9cc0
00000040: b689 fec0 83a3 a83f 868c 9abf 70b3 9240
00000050: c98f 71c0 ed00 bac0 eda0 17c1 cc08 61bf
00000060: 0f5e b6c0 4ff9 18c0 dcbe 0cc1 531c 2341
00000070: 9f95 8d40 7d08 8140 f672 49c0 7bd7 bf3f

running_var f4 [32]
115.262436 36.753677 56.112255 64.60141 43.82068 31.713612 56.999065 26.269154
59.029644 70.37473 68.26136 85.8831 79.874725 56.941517 53.428127 119.15706
32.73245 80.15281 68.389824 34.710327 67.3857 56.38097 60.323036 33.212105
38.663948 87.919365 72.788376 35.401596 42.624096 14.955505 93.58424 49.86215
00000000: 5e86 e642 c403 1342 f372 6042 ec33 8142
00000010: 6048 2f42 7ab5 fd41 0bff 6342 3a27 d241
00000020: 5b1e 6c42 ddbf 8c42 d185 8842 26c4 ab42
00000030: dcbf 9f42 1dc4 6342 67b6 5542 6a50 ee42
00000040: 07ee 0242 3d4e a042 97c7 8842 60d7 0a42
00000050: 7ac5 8642 1d86 6142 ca4a 7142 32d9 0442
00000060: e2a7 1a42 b7d6 af42 a693 9142 3c9b 0d42
00000070: 137f 2a42 c049 6f41 222b bb42 d772 4742

weight f4 [32, 32, 3]
1.2655432 0.54631656 0.80754954 -1.5678262 0.4364326 -0.6463649 -0.89969534 0.4501414
-0.41392928 1.4418589 0.3665646 0.35435444 0.5437114 0.7157651 0.40601745 -0.066002086
0.8506702 0.61512166 -0.59000313 0.44603083 0.2298511 1.1999589 0.49534264 0.55696535
-1.777379 -0.86585295 -1.4698297 -0.3876861 0.23576853 0.0682014 0.44176406 0.0039978814
0.22353026 -1.8419505 -0.29917428 -0.18199642 0.5160572 -0.1765359 -0.4392229 0.9661665
0.6398613 0.31005597 0.8353898 0.65349764 0.16518506 -2.2892706 -1.0391451 -1.660207
1.2891856 0.048057668 -0.43873423 -0.30361113 0.86762685 -0.24386437 -2.4698203 -0.37390924
-0.8152453 -1.1386088 -1.9577956 -1.4619728 -0.56473476 -0.060038123 0.020006927 -0.96585613
0.117372796 -0.4468209 -0.33614478 -0.99560815 -1.5746381 -0.22263479 1.0893984 -0.5074197
-0.04162962 0.12757051 -0.34728912 -1.8845057 0.25065526 0.08033502 -0.2038953 0.46470833
-0.23613426 -0.18951438 -0.33774734 0.25817293 -0.31125513 -0.35849014 -1.4332117 -0.28962892
-0.16305041 0.22094353 -0.6921911 0.62554675 -0.3520234 0.11368179 -0.072032526 -0.87224954
0.06223063 0.4726695 0.6378246 0.44343975 -0.6061074 -1.2321403 0.045997027 -1.7644659
-1.3517214 -0.84533155 0.2492696 -0.408378 0.56079364 -0.18696012 -0.1338196 -0.66970396
-1.0067723 0.72405577 -0.21416724 -0.7510845 -0.90878445 0.04356241 0.17568658 -0.5883859
0.44726685 -0.2139425 -0.71877503 0.5343703 0.20878038 -0.9610036 -1.1559697 -0.20829044
0.40910736 0.30464473 -0.36194634 -1.0722802 -2.4521763 -0.33999085 1.0302446 0.025990909
0.09809863 -0.008277845 -1.6254123 -0.09316219 0.46825352 -0.71608865 -0.912096 -0.2878834
0.021055754 0.15508541 0.6664065 -0.059529595 -1.6565447 0.51382804 0.77712125 -0.30302015
-0.6921415 -0.25802058 -0.29142144 -0.7073734 1.7182087 0.62658197 -0.5708804 0.9559216
0.15560384 -1.4999624 0.1682534 -0.2001892 -1.2243379 -0.70532393 -1.4911553 -1.1104219
1.1201481 0.4657949 -0.39036286 0.877329 -0.44666436 -0.12132932 0.94756156 -0.3816949
-1.1934757 -0.6984946 0.32441366 0.17167182 -2.52016 -1.711281 -0.30656448 -0.6540495
0.21099353 -0.6442884 -0.427116 -0.8213653 -1.5041734 -0.7096847 -1.2062387 0.60981756
-0.26026332 0.17209627 0.13922966 -0.32604572 -0.3383302 -0.41870096 -0.47758716 -0.20226347
-0.23193014 0.62413204 0.5487441 0.5232446 -0.06937777 0.0077173244 0.73633206 0.41033787
0.48583773 -0.81183237 0.48959026 0.64193827 -0.0162981 0.2312623 -0.24084513 0.047518473
-1.0808666 0.33186063 0.13283353 -0.57047874 0.66999155 1.4732691 0.697342 -0.56621236
0.4317956 0.33518958 0.7584616 0.53412586 1.3161452 -0.671643 0.43986726 -0.05746078
-0.273109 1.4131001 0.59055436 -0.35061595 1.0041255 0.2357268 0.6745103 0.74391365
0.45234984 -0.43847877 0.8048764 0.5592685 0.16559911 -0.15793864 0.120314546 0.96331894
0.5198561 0.21380755 -0.2603135 -0.69006974 0.13655184 -0.16124938 -0.46496117 0.42581114
00000000: 52fd a13f 67db 0b3f 91bb 4e3f 87ae c8bf
00000010: 1874 df3e 2c78 25bf 6f52 66bf ef78 e63e
00000020: 8aee d3be d58e b83f 5bae bb3e f26d b53e
00000030: ac30 0b3f 623c 373f 85e1 cf3e 1a2c 87bd
00000040: 86c5 593f 9d78 1d3f 720a 17bf 275e e43e
00000050: 165e 6b3e 4198 993f 8d9d fd3e 4895 0e3f
00000060: 2881 e3bf 8aa8 5dbf 6123 bcbf cb7e c6be
00000070: 4e6d 713e 2dad 8b3d e62e e23e a900 833b
00000080: 1ee5 643e 09c5 ebbf 5f2d 99be 455d 3abe
00000090: 531c 043f d4c5 34be d3e1 e0be b056 773f
000000a0: f3cd 233f a8bf 9e3e 1bdc 553f 9f4b 273f
000000b0: 4626 293e 6983 12c0 b502 85bf aa81 d4bf
000000c0: 0904 a53f 1ed8 443d c6a1 e0be eb72 9bbe
000000d0: cb1c 5e3f 95b7 79be 8911 1ec0 0871 bfbe
000000e0: eab3 50bf efbd 91bf 0c99 fabf ed21 bbbf
000000f0: 7592 10bf 89ea 75bd 91e5 a33c 5942 77bf
00000100: 2661 f03d b6c5 e4be 2b1b acbe 2de0 7ebf
00000110: be8d c9bf 60fa 63be 6871 8b3f 42e6 01bf
00000120: d283 2abd d8a1 023e e1cf b1be 7c37 f1bf
00000130: e355 803e b086 a43d eec9 50be 40ee ed3e
00000140: 2ecd 71be 0f10 42be 38ed acbe 3e2f 843e
00000150: d55c 9fbe 058c b7be 7b73 b7bf 3e4a 94be
00000160: b0f6 26be 053f 623e 7033 31bf d523 203f
00000170: 693c b4be 00d2 e83d ca85 93bd bf4b 5fbf
00000180: 8ce5 7e3d bd01 f23e 7948 233f 890a e33e
00000190: db29 1bbf c6b6 9dbf 6167 3c3d 05da e1bf
000001a0: 3505 adbf a667 58bf 8840 7f3e ec16 d1be
000001b0: 2c90 0f3f 7972 3fbe 0108 09be b871 2bbf
000001c0: eadd 80bf b85b 393f a84e 5bbe 1347 40bf
000001d0: 19a6 68bf 7f6e 323d 2fe7 333e 75a0 16bf
000001e0: 2900 e53e be13 5bbe a401 38bf 7ecc 083f
000001f0: 86ca 553e 5504 76bf d1f6 93bf 174a 55be
00000200: 8576 d13e 65fa 9b3e 0851 b9be 7a40 89bf
00000210: 75f0 1cc0 4813 aebe 0edf 833f e3ea d43c
00000220: efe7 c83d cc9f 07bc 830d d0bf d1cb bebd
00000230: edbe ef3e 9651 37bf 207f 69bf 7465 93be
00000240: 1e7d ac3c b6ce 1e3e 9e99 2a3f 4ed5 73bd
00000250: a809 d4bf 3c8a 033f 6bf1 463f 7525 9bbe
00000260: 2f30 31bf 461b 84be 3135 95be 6c16 35bf
00000270: 43ee db3f ad67 203f 3825 12bf 47b7 743f
00000280: 9d56 1f3e c5fe bfbf 9f4a 2c3e 66fe 4cbe
00000290: 1bb7 9cbf 1c90 34bf 2dde bebf 4e22 8ebf
000002a0: 0361 8f3f ab7c ee3e a4dd c7be a298 603f
000002b0: 31b1 e4be 827b f8bd 6593 723f 846d c3be
000002c0: d0c3 98bf 8bd0 32bf 8c19 a63e bdca 2f3e
000002d0: 4d4a 21c0 410b dbbf 05f6 9cbe ca6f 27bf
000002e0: b00e 583e 16f0 24bf f3ae dabe ff44 52bf
000002f0: c188 c0bf e6ad 35bf 0866 9abf 011d 1c3f
00000300: 3c41 85be 013a 303e 3892 0e3e 77ef a6be
00000310: 9e39 adbe f95f d6be 4e86 f4be 281e 4fbe
00000320: 187f 6dbe 1ec7 1f3f 7e7a 0c3f 5cf3 053f
00000330: ef15 8ebd 9ce1 fc3b 4280 3c3f ce17 d23e
00000340: b9bf f83e 3fd4 4fbf 93ab fa3e 1156 243f
00000350: 9883 85bc 06d0 6c3e 1ba0 76be bba2 423d
00000360: d659 8abf a3e9 a93e 8305 083e e50a 12bf
00000370: 9184 2b3f 1594 bc3f 0185 323f 4bf3 10bf
00000380: 5014 dd3e f89d ab3e 8a2a 423f 79bc 083f
00000390: 7277 a83f ccf0 2bbf 4836 e13e ff5b 6bbd
000003a0: f1d4 8bbe 77e0 b43f 922e 173f ef83 b3be
000003b0: 2f87 803f 5e62 713e b5ac 2c3f 2071 3e3f
000003c0: 669a e73e 4a80 e0be 610c 4e3f 382c 0f3f
000003d0: d092 293e abba 21be 7967 f63d 129c 763f
000003e0: 4a15 053f 5ef0 5a3e d047 85be 69a8 30bf
000003f0: 3fd4 0b3e 8f1e 25be 640f eebe eb03 da3e

bias f4 [32]
-0.27239168 -0.060854197 -0.47289214 0.3694957 -0.2840593 -0.21853709 -1.0624752 -0.084131695
-0.5264672 0.4387512 -0.09825987 -1.0253338 -0.17267172 0.46397457 0.6535926 0.078220025
0.023729585 -0.17971702 -0.12885661 0.5392079 -0.9672998 -0.5746982 0.11470589 0.19954078
-0.19934836 0.447693 0.11339065 0.3085244 0.016137678 -0.71519053 -0.57071733 -0.1260325
00000000: ec76 8bbe 4042 79bd eb1e f2be 8a2e bd3e
00000010: 3870 91be 30c8 5fbe 30ff 87bf 3d4d acbd
00000020: 8ec6 06bf ffa3 e03e 793c c9bd 233e 83bf
00000030: dbd0 30be 138e ed3e d851 273f d231 a03d
00000040: 8c64 c23c bd07 38be fdf2 03be 8709 0a3f
00000050: f6a0 77bf 6c1f 13bf ecea ea3d 6b54 4c3e
00000060: fa21 4cbe 0438 e53e 5b39 e83d e9f6 9d3e
00000070: 2a33 843c ba16 37bf 881a 12bf aa0e 01be

weight f4 [32]
1.2125297 0.8701178 0.94660383 0.9840766 1.54897 1.2163603 0.9275954 1.89166
1.1725878 1.7049235 0.9374781 1.3485949 1.3706787 1.1516095 1.1249804 1.0664104
1.2320225 1.439321 1.0369903 0.8683549 0.94622433 1.3377779 1.8188347 0.4745474
0.965548 1.5751089 1.7717196 1.5478873 0.6086423 1.0334724 1.6347017 1.9375913
00000000: 2c34 9b3f 0ac0 5e3f a154 723f 72ec 7b3f
00000010: a644 c63f b2b1 9b3f e476 6d3f ea21 f23f
00000020: 5b17 963f ef3a da3f 91fe 6f3f c29e ac3f
00000030: 6672 af3f f167 933f 5cff 8f3f 2380 883f
00000040: eab2 9d3f ac3b b83f 19bc 843f 824c 5e3f
00000050: c23b 723f 4e3c ab3f 93cf e83f e0f7 f23e
00000060: 272e 773f 2b9d c93f b5c7 e23f 2c21 c63f
00000070: fbcf 1b3f d348 843f e83d d13f fe02 f83f

bias f4 [32]
0.9810232 0.018783212 -1.6256956 0.715696 0.71711856 -0.26193947 -1.2867235 1.1032212
-0.44380403 -0.21296954 1.4440488 -0.71343136 0.38449788 -0.30317944 0.9280508 -1.0855452
-0.71858174 -0.57334065 -1.0363629 -0.5138869 -0.30034083 -0.80061483 -0.058255073 -1.8520819
-1.0211564 -0.43209386 1.0820427 -0.012875968 -0.11732405 -1.0535449 -0.5609375 -0.14454623
00000000: 5624 7b3f 40df 993c cb16 d0bf da37 373f
00000010: 1595 373f ee1c 86be 5bb3 a4bf 5a36 8d3f
00000020: 483a e3be b014 5abe 97d6 b83f 70a3 36bf
00000030: e8dc c43e 563a 9bbe bd94 6d3f 25f3 8abf
00000040: f9f4 37bf 74c6 12bf 8aa7 84bf 188e 03bf
00000050: 46c6 99be 18f5 4cbf df9c 6ebd 0511 edbf
00000060: 41b5 82bf 683b ddbe 6080 8a3f b9f5 52bc
00000070: 9747 f0bd 8fda 86bf 9a99 0fbf ed03 14be

running_mean f4 [32]
-25.063574 -18.668474 19.569422 -13.359294 -3.2104194 -16.959188 15.2594 -11.576468
-27.372747 0.21344449 -13.255945 0.054092254 -19.53181 -13.859806 -8.376691 20.102945
-0.14774092 -23.783745 9.795101 3.0784645 -3.1755452 -4.976476 7.9320135 -2.5740945
2.4769201 5.167973 -14.852692 -11.950119 8.36534 2.6758661 -24.589231 6.3145046
00000000: 3382 c8c1 0959 95c1 2d8e 9c41 abbf 55c1
00000010: 8377 4dc0 6bac 87c1 8126 7441 3739 39c1
00000020: 63fb dac1 3191 5a3e 5a18 54c1 d78f 5d3d
00000030: 2641 9cc1 c4c1 5dc1 ed06 06c1 d5d2 a041
00000040: 6549 17be 1c45 bec1 bcb8 1c41 9005 4540
00000050: 223c 4bc0 4b3f 9fc0 0ed3 fd40 f7bd 24c0
00000060: dc85 1e40 0960 a540 a0a4 6dc1 b033 3fc1
00000070: 6fd8 0541 6441 2b40 bfb6 c4c1 6c10 ca40

running_var f4 [32]
185.75049 412.22482 111.99555 103.3122 341.58823 155.6481 120.508865 158.86337
233.72115 140.04446 378.53625 120.13598 431.9558 375.22375 305.13647 113.11857
112.13809 213.77881 105.40149 187.51964 164.10461 199.55386 155.9952 71.96169
139.5587 105.9015 405.73077 158.41333 227.19977 114.46317 230.23929 161.41211
00000000: 20c0 3943 c71c ce43 b9fd df42 d99f ce42
00000010: 4bcb aa43 eaa5 1b43 8a04 f142 06dd 1e43
00000020: 9db8 6943 620b 0c43 a444 bd43 9f45 f042
00000030: 58fa d743 a49c bb43 7891 9843 b53c e242
00000040: b446 e042 60c7 5543 90cd d242 0785 3b43
00000050: c81a 2443 ca8d 4743 c5fe 1b43 63ec 8f42
00000060: 078f 0b43 91cd d342 8add ca43 d069 1e43
00000070: 2433 6343 25ed e442 423d 6643 8069 2143

weight f4 [64, 32, 3]
-1.3047625 -0.8534472 -0.9455665 1.8797258 0.06855214 0.43260753 1.1262336 0.6395417
-1.169136 -1.0565219 -1.1129029 0.035723392 -1.4635072 -1.6649697 -0.96580005 0.44484696
-0.6314606 -1.0280079 0.2123048 0.25905323 -0.15012544 -3.558497 -0.3105669 -1.5720158
-1.0915112 -0.60736245 0.94120985 0.6680474 -1.3758446 -0.32625932 0.059248902 0.4657432
1.0884776 1.2215635 -0.3836902 -0.16166179 0.44242844 -0.57605636 0.3367505 -0.33957833
0.018579723 0.8089537 -0.53386813 0.27281794 0.06934482 0.9009528 0.91295964 0.1176508
0.9591247 -0.9160043 -0.23803544 0.4220046 -0.8430328 1.0628487 0.32667482 -0.082763955
0.8998598 0.38746387 -0.13464187 -0.76239574 -0.49384043 -0.7204736 0.27597508 -0.13492735
-0.24107152 -0.85335624 -0.2326013 -0.14351751 -1.1097 0.6976475 -0.6418749 -0.30451444
0.2242126 -0.30234414 -1.0151604 1.682259 0.35303643 0.66466135 -1.5189676 0.27156445
1.4575824 0.124397635 0.12999734 -0.71675056 1.1662116 -0.4815567 -1.2852036 -0.1951914
0.42778108 0.3069493 -2.2348075 0.25908142 1.3551577 -0.77766556 0.28834513 -1.0090975
-1.2739195 -0.05515371 -1.2900971 1.0001506 -0.21613131 -0.16521801 -0.24482179 0.046723425
-0.62820673 -0.505352 -0.42448103 0.07213447 -0.90739477 -0.52319455 0.053356476 0.50142705
-0.42743048 1.7832587 -0.1447072 -0.17718323 -0.35528663 0.20504922 -0.06246074 -1.3832878
0.0053274813 -0.31292933 -0.18636988 -1.0265625 0.47290248 -0.56681305 0.07505267 0.36189
1.1120702 2.2135282 -0.5479061 -1.8062907 0.8980541 -0.30147713 -0.27990404 -0.9393118
-0.49346367 -0.48821467 0.0069104023 -0.2588882 -0.46426302 -0.34747922 0.3711185 -0.30735248
2.2397106 -1.2729943 -1.4674505 0.18527135 0.72194314 0.9269614 0.52057236 -0.03998894
0.36014864 1.0237206 -0.43988937 -0.72583807 0.19245385 0.2959188 0.22102939 -0.33182985
0.109185055 -0.18681873 -0.59783906 -0.4649416 -0.7417359 0.6083856 -0.038682893 -0.5309477
0.48039436 0.34698913 -0.83428144 1.5875075 0.71338636 0.24456283 -0.06499316 -0.0637324
1.0217361 -0.32081306 0.025643462 -0.21101153 0.07236607 -0.25159347 -0.3045233 0.35236922
0.27785927 0.2555294 0.28133523 -0.50459397 1.4363267 -0.31301442 -0.3967361 -0.1900821
1.9568918 1.1708041 0.5250668 -0.72631854 -0.038993753 -1.24498 -0.11454749 0.3104331
-0.7047409 -0.26532748 -0.83672047 0.18964705 -0.21337093 -0.4585484 -0.7661133 -0.27745435
-1.046533 0.27787992 -0.5004122 0.030050162 -0.5706299 0.84186465 -0.2779724 0.45947862
1.0742577 1.4659253 -0.22825815 0.05610192 -0.033696346 -0.25322863 -1.9637892 -0.68427503
-2.0689337 0.5869229 0.32759294 -0.788111 0.4725399 0.85462487 -0.46909216 0.29188696
0.34835944 -0.4156514 -1.6883672 -0.17340551 -0.64237636 -0.020941978 0.19501513 -0.52672595
0.55942786 0.4078211 -0.588363 1.1307745 0.74543643 -0.7761604 0.13935015 -0.032418326
-0.06853767 0.26481885 -0.31739715 -0.30932358 0.76374954 -0.21678548 -0.04854342 0.9493176
00000000: 7502 a7bf 847b 5abf a510 72bf db9a f03f
00000010: 1065 8c3d bc7e dd3e 6c28 903f 01b9 233f
00000020: 40a6 95bf 1c3c 87bf 9a73 8ebf b152 123d
00000030: 3454 bbbf ba1d d5bf ac3e 77bf fbc2 e33e
00000040: 67a7 21bf c395 83bf 6e66 593e a0a2 843e
00000050: 7cba 19be 6abe 63c0 a002 9fbe d037 c9bf
00000060: a4b6 8bbf 1b7c 1bbf 21f3 703f 2805 2b3f
00000070: ad1b b0bf 760b a7be faae 723d e575 ee3e
00000080: 3c53 8b3f 315c 9c3f 0b73 c4be ab8a 25be
00000090: fb85 e23e 6e78 13bf 906a ac3e 36dd adbe
000000a0: 8134 983c 9717 4f3f 95ab 08bf cbae 8b3e
000000b0: a804 8e3d d8a4 663f b9b7 693f e7f2 f03d
000000c0: 3289 753f 427f 6abf 90bf 73be fd10 d83e
000000d0: ffd0 57bf 6d0b 883f ec41 a73e 2680 a9bd
000000e0: 365d 663f aa61 c63e 8fdf 09be 5e2c 43bf
000000f0: a7d8 fcbe f570 38bf 9b4c 8d3e 652a 0abe
00000100: 74db 76be 8e75 5abf 092f 6ebe 41f6 12be
00000110: a60a 8ebf 0799 323f ea51 24bf 51e9 9bbe
00000120: fd97 653e dacc 9abe c7f0 81bf 4354 d73f
00000130: 31c1 b43e 3f27 2a3f 886d c2bf 7f0a 8b3e
00000140: 0f92 ba3f 30c4 fe3d 061e 053e f77c 37bf
00000150: 6c46 953f 9a8e f6be 8d81 a4bf 41e0 47be
00000160: 1f06 db3e 7528 9d3e 1607 0fc0 52a6 843e
00000170: cf75 ad3f 1715 47bf f9a1 933e 1b2a 81bf
00000180: cb0f a3bf dbe8 61bd e721 a5bf ef04 803f
00000190: 8751 5dbe e92e 29be 90b2 7abe 1061 3f3d
000001a0: 28d2 20bf c05e 01bf 9455 d9be 3dbb 933d
000001b0: 064b 68bf 14f0 05bf 528c 5a3d 865d 003f
000001c0: 2bd8 dabe d241 e43f 202e 14be 856f 35be
000001d0: 21e8 b5be 6cf8 513e d5d6 7fbd 930f b1bf
000001e0: 2792 ae3b 4638 a0be bfd7 3ebe 6666 83bf
000001f0: 4620 f23e a91a 11bf 37b5 993d a549 b93e
00000200: 5158 8e3f 72aa 0d40 9343 0cbf 8934 e7bf
00000210: e0e6 653f 365b 9abe 954f 8fbe bd76 70bf
00000220: 45a7 fcbe 46f7 f9be a870 e23b ff8c 84be
00000230: e2b3 edbe cce8 b1be 3e03 be3e 4e5d 9dbe
00000240: 6b57 0f40 7af1 a2bf 6bd5 bbbf c6b7 3d3e
00000250: 44d1 383f 584d 6d3f 3b44 053f 71cb 23bd
00000260: 6765 b83e 4709 833f 2e39 e1be 86d0 39bf
00000270: 9f12 453e ab82 973e 8755 623e 9ae5 a9be
00000280: 6a9c df3d 694d 3fbe fb0b 19bf d30c eebe
00000290: 67e2 3dbf 29bf 1b3f f471 1ebd 30ec 07bf
000002a0: 40f6 f53e 8fa8 b13e 7893 55bf 7233 cb3f
000002b0: 7da0 363f ae6e 7a3e 221b 85bd 2286 82bd
000002c0: 40c8 823f 9c41 a4be 3d12 d23c 6813 58be
000002d0: a934 943d dcd0 80be 7aea 9bbe bd69 b43e
000002e0: 9243 8e3e c0d4 823e 2c0b 903e 122d 01bf
000002f0: 8ed9 b73f 6d43 a0be fe20 cbbe e2a4 42be
00000300: 6e7b fa3f e9dc 953f c76a 063f 03f0 39bf
00000310: eab7 1fbd 815b 9fbf e097 eabd 16f1 9e3e
00000320: e669 34bf 01d9 87be 5033 56bf d632 423e
00000330: e97d 5abe dbc6 eabe 0020 44bf 7f0e 8ebe
00000340: cbf4 85bf 4746 8e3e 041b 00bf c22b f63c
00000350: cd14 12bf 7184 573f 6652 8ebe c840 eb3e
00000360: 4781 893f 71a3 bb3f 81bc 69be 20cb 653d
00000370: 2e05 0abd 2fa7 81be 725d fbbf a62c 2fbf
00000380: 6969 04c0 9440 163f 43ba a73e a4c1 49bf
00000390: c0f0 f13e b2c8 5a3f d92c f0be 3572 953e
000003a0: 2b5c b23e 43d0 d4be 6b1c d8bf 3791 31be
000003b0: c772 24bf 838e abbc 0cb2 473e 83d7 06bf
000003c0: aa36 0f3f edcd d03e f59e 16bf 38bd 903f
000003d0: ecd4 3e3f 73b2 46bf ceb1 0e3e 14c9 04bd
000003e0: 7a5d 8cbd 5696 873e e181 a2be a95f 9ebe
000003f0: 1785 433f 03fd 5dbe 77d5 46bd 7a06 733f

bias f4 [64]
0.06215092 0.4220726 0.008490317 1.2545711 0.071312584 0.3553808 0.17590626 0.256885
-0.23946527 0.617636 0.5416397 -0.16276594 -0.38206068 -0.035636377 -0.05514523 1.0447694
0.44942746 -0.15945706 -0.044723447 0.22267787 -0.42640746 0.29269534 -0.28105894 0.33746597
-0.46192268 0.8361083 -0.16264567 0.117163725 0.08624541 -0.03092778 -0.10528192 -0.3634162
-0.47950202 -0.06822744 -0.45686024 -0.4303528 0.029081503 0.32003728 -1.1502972 -0.5990652
0.23288982 0.8901332 -0.6334528 0.35440353 -0.34197894 -0.05989216 0.8965677 -0.7543018
-0.6954544 -0.04905217 0.061486952 0.0679821 -0.04664617 0.27040893 -0.07101763 0.028497847
0.5384848 -0.031518776 0.008915224 0.44927597 1.060136 -0.61375415 0.17135605 -0.15170927
00000000: f791 7e3d e619 d83e f81a 0b3c c995 a03f
00000010: 550c 923d 79f4 b53e c520 343e 6e86 833e
00000020: 6236 75be 651d 1e3f e6a8 0a3f 1dac 26be
00000030: 759d c3be 73f7 11bd f7df 61bd 01bb 853f
00000040: 5b1b e63e b648 23be ef2f 37bd ab05 643e
00000050: 1452 dabe 2adc 953e f5e6 8fbe 57c8 ac3e
00000060: 2181 ecbe 320b 563f 968c 26be 89f3 ef3d
00000070: 6fa1 b03d 415c fdbc 0c9e d7bd b011 babe
00000080: 4a81 f5be d4ba 8bbd 96e9 e9be 3457 dcbe
00000090: 553c ee3c eddb a33e f03c 93bf 565c 19bf
000000a0: ab7a 6e3e c5df 633f f629 22bf 6174 b53e
000000b0: dd17 afbe 7b51 75bd 7685 653f ec19 41bf
000000c0: 4d09 32bf eeea 48bd bed9 7b3d 333a 8b3d
000000d0: 0e10 3fbd 0a73 8a3e b171 91bd 5174 e93c
000000e0: 24da 093f d519 01bd 2911 123c 8007 e63e
000000f0: 89b2 873f fe1e 1dbf f677 2f3e ad59 1bbe

weight f4 [64]
1.6557388 0.92259 0.9056103 2.0686562 1.8424019 1.030379 1.4225031 1.3538853
1.5181412 1.1691601 1.6088442 1.4643109 1.7829803 1.4091021 0.9649375 1.3631816
1.7429974 1.0359335 0.099529855 1.0415901 1.5557885 0.95082957 1.5405262 0.6156332
1.0551082 1.8040324 1.6573676 1.4810303 1.1466163 0.9396955 0.2161593 1.986828
0.9814787 0.75455004 1.4303693 1.4870636 1.7477808 0.8898515 1.0170599 0.99703574
1.0603229 1.1140655 1.5231037 0.669164 0.9175041 0.56278694 1.6066322 1.3692237
0.9220539 0.9429314 0.1344687 0.38706514 0.92029685 1.736174 0.6534151 1.8750349
0.8843448 0.8035328 1.1325885 0.8835837 1.4351534 1.1873293 1.3517216 1.4109651
00000000: 40ef d33f dc2e 6c3f 14d6 673f dd64 0440
00000010: d3d3 eb3f 76e3 833f 9514 b63f 1d4c ad3f
00000020: 7352 c23f 0aa7 953f 9bee cd3f 8a6e bb3f
00000030: b338 e43f 755d b43f 2506 773f bc7c ae3f
00000040: 8a1a df3f 7899 843f 4fd6 cb3d d352 853f
00000050: 1424 c73f 9169 733f f62f c53f 239a 1d3f
00000060: c90d 873f 89ea e63f 9f24 d43f 6792 bd3f
00000070: 53c4 923f e28f 703f dd58 5d3e 6150 fe3f
00000080: 3042 7b3f 312a 413f 5716 b73f 1a58 be3f
00000090: 48b7 df3f 4fcd 633f 052f 823f bc3d 7f3f
000000a0: a9b8 873f b399 8e3f 10f5 c23f 554e 2b3f
000000b0: 8ce1 6a3f ce12 103f 20a6 cd3f b942 af3f
000000c0: b90b 6c3f f463 713f 2ab2 093e 672d c63e
000000d0: 9398 6b3f f33a de3f 3646 273f 2501 f03f
000000e0: 6c64 623f 53b4 4d3f a9f8 903f 8b32 623f
000000f0: 1bb3 b73f 68fa 973f 3705 ad3f 819a b43f

bias f4 [64]
0.19804183 -0.81693166 -0.42602792 -0.5801836 0.25027373 0.5037624 -0.27900788 0.02428024
-0.41836262 -0.3758709 -0.119603366 -0.45592108 -1.1218579 -0.22059382 -1.0295115 0.35753602
-0.2035985 -0.7492405 -1.2711487 -1.0863719 -0.45646575 1.4639256 1.7388289 1.0018172
-0.77808785 -0.0018937378 -0.39685488 -0.18941268 -0.024967154 -0.4685931 -1.1037298 0.36209822
-0.36790854 -0.69914234 -0.30914488 -0.6075373 -0.6318037 -1.066026 -1.1584175 -1.1460581
-0.22253868 -0.5371398 -0.067490354 -0.24526997 -0.8299521 -1.7799284 1.3613644 -0.53902864
-0.11389235 -0.6076173 -0.568019 -0.9864572 -0.5641745 0.7956595 -0.27238223 0.04824492
-0.9610984 -0.12945868 0.014892992 -0.9437877 -0.16456325 1.4834747 0.76633376 -0.21318439
00000000: 7acb 4a3e 6f22 51bf 5520 dabe ea86 14bf
00000010: e123 803e 93f6 003f 1fda 8ebe 5be7 c63c
00000020: a033 d6be 2772 c0be 9cf2 f4bd 7d6e e9be
00000030: 0a99 8fbf 59e3 61be 08c7 83bf f60e b73e
00000040: 207c 50be 3ace 3fbf 00b5 a2bf 3c0e 8bbf
00000050: e1b5 e9be ea61 bb3f f291 de3f 8c3b 803f
00000060: c430 47bf 4c37 f8ba 9030 cbbe 66f5 41be
00000070: eb87 ccbc 6feb efbe 0547 8dbf f064 b93e
00000080: 825e bcbe fefa 32bf 3d48 9ebe 9187 1bbf
00000090: e3bd 21bf 8a73 88bf 0647 94bf 08b2 92bf
000000a0: 2ee1 63be fe81 09bf 6238 8abd 0d28 7bbe
000000b0: be77 54bf b2d4 e3bf 3041 ae3f c8fd 09bf
000000c0: 6440 e9bd cf8c 1bbf b169 11bf 7688 7cbf
000000d0: bd6d 10bf 57b0 4b3f af75 8bbe 779c 453d
000000e0: 8b0a 76bf d190 04be bc01 743c 129c 71bf
000000f0: 4583 28be 80e2 bd3f 732e 443f 024d 5abe

running_mean f4 [64]
-15.959967 -3.7425816 -13.490877 -2.25328 0.56838447 3.4170418 0.8653792 -21.714563
-9.314267 5.877659 2.4296095 -22.039562 -29.449108 7.5138354 9.517238 3.5164216
6.5951276 5.2585583 6.297451 -1.9979602 -26.385435 7.3610096 -17.560883 13.048421
-22.446857 -16.25826 -9.420445 -3.739123 -7.600022 -10.757617 9.787706 -11.244095
-4.36241 6.849183 -0.47932714 0.7796688 5.501938 3.8431604 8.479251 -18.179745
-3.2904315 -2.2084548 1.8483014 -2.342293 3.5307927 14.9215355 -7.303917 -1.7950488
-3.1316483 3.3163955 5.892096 10.428966 -3.6970103 -13.249524 -1.599912 7.010983
7.730694 -4.996296 6.208739 9.604881 3.0206845 -6.553771 -13.53325 -9.4045725
00000000: 065c 7fc1 7586 6fc0 a2da 57c1 bd35 10c0
00000010: a581 113f d0b0 5a40 7e89 5d3f 6db7 adc1
00000020: 3d07 15c1 c815 bc40 b97e 1b40 0651 b0c1
00000030: c697 ebc1 5771 f040 9b46 1841 0d0d 6140
00000040: 490b d340 1c46 a840 b884 c940 29bd ffbf
00000050: 5f15 d3c1 648d eb40 b07c 8cc1 55c6 5041
00000060: 2a93 b3c1 eb10 82c1 25ba 16c1 cb4d 6fc0
00000070: 6133 f3c0 331f 2cc1 729a 1c41 d0e7 33c1
00000080: dd98 8bc0 822c db40 5e6a f5be 6098 473f
00000090: e00f b040 57f6 7540 03ab 0741 1e70 91c1
000000a0: 6e96 52c0 5357 0dc0 2495 ec3f 21e8 15c0
000000b0: 82f8 6140 9cbe 6e41 b0b9 e9c0 29c4 e5bf
000000c0: ed6c 48c0 d33f 5440 0d8c bc40 0bdd 2641
000000d0: d19b 6cc0 0dfe 53c1 ebc9 ccbf f959 e040
000000e0: d861 f740 a8e1 9fc0 fdad c640 98ad 1941
000000f0: e552 4140 7eb8 d1c0 3188 58c1 2179 16c1
