unet/checkpoints/one_loss/epoch_15.pth (torch, 508787 bytes, 85 tensors)

weight f4 [8, 1, 3]
0	0xbf202c92	-0.6256801
1	0xbf7d0d1e	-0.9884814
2	0x3f5abe5b	0.8544671
3	0xbf091672	-0.53549874
4	0xbff9309a	-1.9467957
5	0x3d9b11be	0.075717434
6	0x3e7cfe63	0.24706416
7	0xbe0a89e9	-0.13529171
8	0xc046245e	-3.0959697
9	0x3e4d2808	0.20034802
10	0x3e824e2c	0.25450265
11	0x3ffea16a	1.989301
12	0xbe990b25	-0.29891315
13	0xbf6c7ab5	-0.92374736
14	0xbf8295cb	-1.0201963
15	0xbfc65f90	-1.5497913
16	0xbe0ba96c	-0.13638848
17	0xbf2b5220	-0.6692219
18	0x3f78fdfa	0.9726254
19	0xbf58d88b	-0.8470542
20	0xbd2e4831	-0.042549316
21	0x3fc7b613	1.560244
22	0x3e5b48f3	0.21414547
23	0x3f16407d	0.5869215

bias f4 [8]
0	0xbdf62a26	-0.12019758
1	0x3ca215d8	0.019785807
2	0x3e47f10b	0.19525544
3	0x3e99765a	0.29973108
4	0xbed494c9	-0.41519764
5	0x3e04d957	0.12973534
6	0x3dfdea62	0.123982206
7	0xbf4c8190	-0.79885197

weight f4 [8]
0	0x3f67b47d	0.9050978
1	0x3f9ae28c	1.2100387
2	0x3fd12253	1.63386
3	0x3fbff249	1.4995815
4	0x3ff5d60f	1.920595
5	0x3fbed7cb	1.4909605
6	0x3f58416e	0.8447484
7	0x3fc950f6	1.5727832

bias f4 [8]
0	0x3f62a5ef	0.88534445
1	0xb9cd2d99	-0.0003913462
2	0xbedcad7f	-0.43101117
3	0x3f09446b	0.5362002
4	0x3e0bfa15	0.13669617
5	0xbe5700e5	-0.20996435
6	0x3f0fa29b	0.5610749
7	0xbe0dc6ee	-0.13845417

running_mean f4 [8]
0	0xbe08bf61	-0.13354255
1	0x3da75f5b	0.081724845
2	0x3f019b9d	0.5062807
3	0x3d403fd4	0.04693587
4	0xbe84b41b	-0.2591866
5	0x3ed3a89e	0.41339582
6	0xbbd62e47	-0.0065362784
7	0xbf88db7e	-1.0691984

running_var f4 [8]
0	0x479326c0	75341.5
1	0x48c33380	399772.0
2	0x49207bf2	657343.1
3	0x48c36004	400128.12
4	0x4894cdbd	304749.9
5	0x48aa139a	348316.8
6	0x47096b2c	35179.17
7	0x48aa0e6d	348275.4

weight f4 [16, 8, 3]
0	0xbf64eeb9	-0.8942676
1	0xbde8b492	-0.11362566
2	0xbfbaa4da	-1.4581559
3	0x3ec7cb0e	0.39022106
4	0xbf771fa7	-0.9653267
5	0xbea928b2	-0.3303886
6	0xbee3c90d	-0.44489327
7	0xbe7ecb48	-0.24882233
8	0xbede9b48	-0.43477845
9	0xbe921268	-0.28529668
10	0x3e054126	0.13013133
11	0xbf0df467	-0.55451053
12	0xbf82125d	-1.0161854
13	0xbf890fca	-1.0707943
14	0xbd91a241	-0.071110256
15	0xc005b99d	-2.089454
16	0x3d62ac7b	0.05534027
17	0xbf7112a9	-0.941691
18	0x3e166129	0.14685501
19	0x3e18a0a3	0.14905028
20	0xbe9d3c75	-0.30710188
21	0x3e519d25	0.20470102
22	0x3e90240b	0.281525
23	0xbf44bc12	-0.7684947
24	0x3fba567a	1.455764
25	0xbfb5bd32	-1.4198363
26	0x3e3ada6b	0.18247382
27	0x3e8acb91	0.27108434
28	0xbee0ef15	-0.43932405
29	0x3eca78c4	0.39545262
30	0xbf095f2e	-0.5366086
31	0x3e455655	0.19271214
32	0xbf25145f	-0.6448421
33	0x3f1c0277	0.6094126
34	0xbec25372	-0.3795429
35	0xbf4aed1f	-0.7926807
36	0xbe991333	-0.2989746
37	0x3f02bda8	0.5107064
38	0xbe8de2ba	-0.2771204
39	0xbecdefbe	-0.4022197
40	0x3ea8a23a	0.3293627
41	0xbf4ef2d1	-0.8083926
42	0xbecd155a	-0.40055352
43	0xbf56e8bb	-0.8394887
44	0x3f984733	1.1896728
45	0xbf10345e	-0.56329906
46	0xbf80e830	-1.0070858
47	0x3ed93783	0.42425165
48	0xbef0b43a	-0.47012502
49	0xbe6b168f	-0.22957824
50	0xbe909bd3	-0.28243884
51	0xbf8b5100	-1.0884094
52	0x3e8e71b4	0.27821124
53	0xbcbe9db1	-0.023268552
54	0x3f3da97c	0.7408674
55	0x3d145a13	0.036218714
56	0x3e00ad0f	0.12566017
57	0x3f5defb4	0.8669388
58	0x3f826277	1.0186299
59	0x3f97ee10	1.1869526
60	0xbf0646b2	-0.5245162
61	0xbe1f3b7d	-0.15550037
62	0xbe253a4c	-0.1613552
63	0xbeb336d3	-0.35002765
64	0xbf24e318	-0.6440902
65	0x3e83a137	0.25708935
66	0xbdb1cffb	-0.08682247
67	0xbd162ee1	-0.0366658
68	0xbea03334	-0.31289065
69	0x3f1f5bb1	0.62249285
70	0x3f61c3c1	0.8818932
71	0x3f8f4578	1.1193075
72	0xbf5d22f9	-0.8638149
73	0xbd5a08a4	-0.053230897
74	0xbf80f0f4	-1.0073533
75	0xbdb1b365	-0.08676795
76	0x3e902c7f	0.28158948
77	0xbddb811c	-0.10717985
78	0xbc3daf7d	-0.011577484
79	0xbe80fab5	-0.25191274
80	0x4011948d	2.2746918
81	0xbda1753f	-0.07883691
82	0xbef4ec30	-0.47836447
83	0xbf77866b	-0.9668948
84	0x3d6bd9a0	0.05758059
85	0x3dbfb95c	0.09361526
86	0x3fda5fc1	1.7060472
87	0x3eb04b85	0.34432617
88	0xbf11926c	-0.5686405
89	0x3f9c13a1	1.219349
90	0x3e41c6a4	0.18923432
91	0x3eaff268	0.3436463
92	0xbe9fc919	-0.31208113
93	0x3f2c8b58	0.6740012
94	0xbf2064b0	-0.62653637
95	0xbe99b816	-0.3002326
96	0x3f308a02	0.68960583
97	0xbf1ecb14	-0.6202862
98	0xbfa5b439	-1.2945625
99	0x3f01b616	0.50668466
100	0xbf09cbf0	-0.5382681
101	0xbef73460	-0.48282146
102	0x3d0d9d73	0.034573983
103	0xbf261805	-0.648804
104	0xbf19d36d	-0.60088235
105	0x3f4fc339	0.8115726
106	0xbc78fbc9	-0.015196749
107	0xbf8aa8f9	-1.0832816
108	0xbea78bed	-0.32723942
109	0xbf20c9fc	-0.62808204
110	0xbf142061	-0.57861906
111	0x3edeef13	0.43541774
112	0xbeaf0b44	-0.34188282
113	0x3dd1afe1	0.10238624
114	0xbdd50eee	-0.10403238
115	0x3ee5c6e1	0.44878295
116	0x3e2350be	0.1594877
117	0x3f037769	0.5135408
118	0x3f5625c5	0.8365138
119	0xbe80e10f	-0.25171706
120	0x3dd50239	0.104008146
121	0xbf594764	-0.8487456
122	0x3e9a0923	0.30085096
123	0xbf05e9b8	-0.5230975
124	0xbedb0247	-0.42775175
125	0x3ecb594e	0.39716572
126	0x3cb01007	0.021492017
127	0x3f554ced	0.83320504
128	0x3eadf894	0.33978713
129	0x3f0a500d	0.540284
130	0x3e8fd3f4	0.28091395
131	0x3f53d718	0.8275008
132	0xbef282cf	-0.47365424
133	0xbe3cf5da	-0.1845316
134	0x3e3aafef	0.18231176
135	0x3f0f82b4	0.5605881
136	0xbd3b68fa	-0.04575441
137	0x3ea92eda	0.33043557
138	0xbf9ba806	-1.2160652
139	0xbed82796	-0.42217702
140	0x3f9823e8	1.1885958
141	0xbf71e37b	-0.9448773
142	0x3d63d318	0.055621237
143	0x3f6c1089	0.9221273
144	0xbfa92552	-1.3214514
145	0xbeb67672	-0.35637242
146	0x3e77e2db	0.24207632
147	0xbfe82524	-1.8136334
148	0x3effad66	0.4993698
149	0x3f0de572	0.5542823
150	0x3f3fcdd8	0.7492347
151	0x3f231b1e	0.6371325
152	0xbefdfeed	-0.49608555
153	0x3efc9746	0.49334162
154	0xbe91e017	-0.2849128
155	0x3da85b48	0.082205355
156	0xbea2ba0f	-0.31782576
157	0x3eef9143	0.46790513
158	0xbdf5ad3a	-0.11995931
159	0xbcd64e85	-0.026160488
160	0xbf5a9a0b	-0.853913
161	0x3ee487fc	0.44634998
162	0xbfa5efb5	-1.2963778
163	0x3fe0d7b5	1.7565829
164	0x3ee9530a	0.45571166
165	0x3f13e7f4	0.5777581
166	0x3d9df4ad	0.07712684
167	0x3dbb4086	0.09143166
168	0x3f84f5f7	1.0387563
169	0xbee9f6de	-0.45696157
170	0xbf908229	-1.1289722
171	0x3ed995c8	0.42497087
172	0xbf0b3d93	-0.5439083
173	0xbf6d564a	-0.9270979
174	0xbfa1b1ef	-1.2632426
175	0xbf4637a5	-0.77428657
176	0xbd27ee58	-0.040998787
177	0x3d83dd98	0.0643875
178	0x3e299ee6	0.16564521
179	0x3f112a47	0.56705135
180	0xbd282725	-0.041052956
181	0xbeb7bb0b	-0.3588489
182	0xbf678a2f	-0.90445226
183	0x3e1c0470	0.15236068
184	0x3f12f79b	0.57409066
185	0xbefcb6b0	-0.4935813
186	0xbf9c68ea	-1.2219517
187	0xbfd73958	-1.6814375
188	0xbe234a0a	-0.15946212
189	0xbf88b56d	-1.0680367
190	0x3d8b94fd	0.06815527
191	0x3f4615d7	0.77377075
192	0x3ec473ed	0.38369694
193	0xbf7d9f0d	-0.9907082
194	0x3e97f0b6	0.29675835
195	0xbe4abd27	-0.19798718
196	0xbf9fcc39	-1.2484199
197	0xbe0cd0cb	-0.13751523
198	0xbf8d0120	-1.1015968
199	0x3d85ac0f	0.06526958
200	0xbf5fae87	-0.8737568
201	0x3ded1902	0.115770355
202	0xbefcc8ca	-0.4937194
203	0x3f1ed510	0.6204386
204	0xbefbe466	-0.49197692
205	0xbf224a91	-0.6339503
206	0xbf1a7e22	-0.60348713
207	0xbe30e09a	-0.17273179
208	0xbe7672cd	-0.2406723
209	0xbf99b04a	-1.2006924
210	0xbdce164a	-0.10062845
211	0xbf20c56a	-0.6280123
212	0x3e57c66f	0.2107179
213	0xbe736c14	-0.23771697
214	0xbf56fe59	-0.83981854
215	0x3edc9a04	0.43086255
216	0x3eae5acf	0.34053656
217	0xbe209c0e	-0.1568453
218	0x3eca690c	0.3953327
219	0xbd054102	-0.0325327
220	0x3eff1c37	0.49826214
221	0xbcee86af	-0.029116957
222	0x3f77da90	0.96817875
223	0xbdc64994	-0.09682003
224	0xbff8ff0b	-1.9452833
225	0x3f298deb	0.66232175
226	0x3fa610dc	1.2973895
227	0x3f1113ac	0.5667064
228	0x3edb1bfd	0.4279479
229	0x3ea1f2f5	0.31630674
230	0xbf7782f0	-0.9668417
231	0x3f64b7f8	0.89343214
232	0xbe5876cf	-0.21139072
233	0xbe71140d	-0.23542805
234	0x3e898e60	0.26866436
235	0x3de9e2f8	0.11420244
236	0xbf9191c2	-1.1372607
237	0x3f2f17e7	0.6839585
238	0x3f7c39b6	0.9852556
239	0x3f13ecb3	0.5778305
240	0x3f9c78c7	1.2224358
241	0x3fa1b95a	1.263469
242	0x3f60ba3a	0.8778416
243	0x3fa690f7	1.301299
244	0x3ea7ca3b	0.32771477
245	0xbe38331f	-0.17988251
246	0xbe535891	-0.20639254
247	0xbee6ebbf	-0.45101735
248	0xbf5bec00	-0.8590698
249	0xbee85dba	-0.45384008
250	0xbf105864	-0.56384873
251	0x3ed2a8c8	0.41144395
252	0x3f6fe70c	0.93711925
253	0x3f0536b0	0.5203657
254	0xbeff594e	-0.49872822
255	0x3fe6bc0c	1.8026137

bias f4 [16]
0	0x3e86ab87	0.2630274
1	0x3e624516	0.22096667
2	0xbdf4c279	-0.11951155
3	0xbe896401	-0.2683411
4	0x3eeb46d7	0.45952484
5	0xbf956732	-1.1672118
6	0xbe4d2c57	-0.20036446
7	0xbe18bb4b	-0.14915197
8	0x3f392bc5	0.7233241
9	0x3efdce49	0.49571446
10	0x3f730335	0.9492677
11	0xbdd4586d	-0.103684284
12	0x3e97366b	0.29533705
13	0xbf389028	-0.72094965
14	0xbf23b4d2	-0.63947785
15	0xbe92e488	-0.2868998

weight f4 [16]
0	0x3f951f0f	1.1650103
1	0x3f77632e	0.9663571
2	0x3fbd5046	1.4790123
3	0x3fa62ccc	1.2982421
4	0x3f7c8348	0.9863782
5	0x3f3072fe	0.68925464
6	0x3f458529	0.7715631
7	0x3f97fed8	1.1874647
8	0x3f15b1c9	0.58474404
9	0x3fcc849c	1.5977969
10	0x3f79fe17	0.97653335
11	0x3e72280a	0.23648086
12	0x3f7808d3	0.96888465
13	0x3f157c5d	0.5839289
14	0x3fcf6d39	1.6205207
15	0x3fb4f456	1.4137065

bias f4 [16]
0	0x3ec62dcf	0.38706824
1	0xbe2d3a54	-0.16916782
2	0x3f4b3645	0.79379684
3	0x3f9825f3	1.1886581
4	0x3d8c86bb	0.06861635
5	0xbe5269bc	-0.20548147
6	0x3f9ed735	1.2409426
7	0x3f27d4ce	0.6555909
8	0x3ccb76a9	0.024836855
9	0x3fa3383b	1.2751535
10	0x40070c87	2.1101396
11	0x3f362015	0.71142703
12	0xbe882bc6	-0.26595896
13	0x3d7d0a8c	0.061777636
14	0xbe95838c	-0.29201925
15	0xbe9b57b9	-0.30340365

running_mean f4 [16]
0	0xc0db0017	-6.843761
1	0xbfb8874f	-1.4416293
2	0x3fce3b10	1.6111774
3	0xbf24d4fd	-0.64387494
4	0xbffa6868	-1.9563112
5	0xbe931ed1	-0.2873445
6	0xbee5084a	-0.44732887
7	0xc0904670	-4.5085983
8	0xc0711d73	-3.7674224
9	0x40715e98	3.7713985
10	0x40ad2d54	5.411783
11	0xbd93c256	-0.07214801
12	0xbf5231af	-0.8210706
13	0xc09b033a	-4.844144
14	0x40b7b41a	5.740735
15	0x40c4ffec	6.1562405

running_var f4 [16]
0	0x42484b6b	50.07365
1	0x4140c29f	12.047515
2	0x4224608d	41.094288
3	0x41dd5cc2	27.670292
4	0x418e0d04	17.756355
5	0x410fb132	8.980761
6	0x4153ecf0	13.245346
7	0x41f465a9	30.549639
8	0x421f46a8	39.819
9	0x41b6d666	22.854687
10	0x41d84bc1	27.03699
11	0x4164c4b3	14.298022
12	0x416a508b	14.644664
13	0x4207d664	33.959366
14	0x42d8efcd	108.46836
15	0x42fa0ea0	125.028564

weight f4 [16, 16, 3]
0	0xbf8cadbd	-1.0990521
1	0xbf1964d9	-0.59919506
2	0x3f211c52	0.6293384
3	0xbf325093	-0.69654197
4	0xbf05b767	-0.52232975
5	0xbecce731	-0.40020135
6	0xbf4bf227	-0.7966637
7	0x3eff94fb	0.4991835
8	0x3f89a2e1	1.0752832
9	0xbefcca71	-0.493732
10	0xbf537161	-0.8259488
11	0xbbe724af	-0.0070539336
12	0xbf4cb172	-0.7995826
13	0xbf1d8edc	-0.6154611
14	0x3f6a7d66	0.9159759
15	0xbf3718f0	-0.71522427
16	0x3f03883a	0.5137974
17	0x3dff9812	0.12480177
18	0xbf35daa7	-0.7103676
19	0xbf331c16	-0.6996473
20	0x3ef6f882	0.4823647
21	0xbe8e9d3c	-0.27854335
22	0x3f4539b1	0.77041155
23	0x3e4cc01d	0.1999516
24	0x3def3365	0.116797246
25	0x3e428b3e	0.18998429
26	0xbf1e50f1	-0.61842257
27	0xbf923456	-1.1422222
28	0x3eeec85f	0.46637246
29	0x3f24eefe	0.64427173
30	0xbeae89d5	-0.34089532
31	0xbe3cf755	-0.18453725
32	0xbeafb458	-0.3431728
33	0xbf16a0cb	-0.588391
34	0x3e757358	0.23969781
35	0x3dd90c65	0.10598067
36	0x3d39fe51	0.04540855
37	0xbe2c4a86	-0.16825303
38	0xbe812057	-0.25219986
39	0x3f23e173	0.64015883
40	0x3ecda263	0.40162954
41	0xbf198fb3	-0.5998489
42	0xbf0f24e2	-0.55915654
43	0xbe56be44	-0.20971018
44	0x3e278674	0.16359884
45	0xbf56d970	-0.83925533
46	0xbe362e1a	-0.17791024
47	0x3e6f7fb6	0.23388562
48	0xbf285958	-0.6576133
49	0x3f2062bc	0.62650657
50	0x3f187e2c	0.59567523
51	0xbf749e94	-0.9555447
52	0xbfc37f90	-1.5273304
53	0xbfa4f45f	-1.2887076
54	0x3db4d04d	0.08828793
55	0x3e9b3485	0.30313507
56	0x3f2bf5ae	0.6717175
57	0xbf8c2e05	-1.0951544
58	0xbfa36500	-1.2765198
59	0xbfbd350e	-1.4781816
60	0x3e4dc108	0.20093167
61	0xbaed150f	-0.0018087941
62	0xbca0bfed	-0.019622767
63	0xbf75d96d	-0.9603489
64	0x3e54d481	0.20784189
65	0xbdd7e37f	-0.10541438
66	0xbf51e935	-0.8199647
67	0xbe0d5593	-0.13802175
68	0x3e4f02c0	0.20215893
69	0xbec663d2	-0.38748032
70	0x3e562fde	0.20916697
71	0x3f6dd29f	0.9289951
72	0xbfaab920	-1.3337746
73	0x3dd0abd6	0.10189025
74	0x3eda7754	0.42669165
75	0x3d82212c	0.06353983
76	0xbe468d85	-0.19389923
77	0x3ecadd18	0.39621806
78	0xbf406e00	-0.75167847
79	0xbfd9af60	-1.7006645
80	0xbf717a72	-0.9432746
81	0x3e2024ba	0.1563901
82	0xbea8a4b3	-0.32938156
83	0x3f0cd222	0.5500814
84	0xbfbd594f	-1.479288
85	0xbe2eb358	-0.17060602
86	0xbf546f8e	-0.8298272
87	0xbe1f6582	-0.15566066
88	0x3f1381c2	0.5761987
89	0x3f1660d2	0.58741486
90	0xbf2b33e9	-0.66876084
91	0xbe36e8a5	-0.17862184
92	0xbdb91577	-0.09037297
93	0xbf4773d5	-0.7791112
94	0xbe8e2616	-0.27763432
95	0xbd9bbdcb	-0.076045595
96	0x3dd2d196	0.102938816
97	0x3f413daa	0.75484717
98	0xbd7aa7ea	-0.06119529
99	0xbf7a113c	-0.9768255
100	0xbe5fe543	-0.218648
101	0x3cd255bb	0.025675645
102	0x3fece29f	1.8506659
103	0x3eebad9a	0.46030885
104	0xbefa71cd	-0.48914948
105	0xbf046966	-0.51723325
106	0xbd2e5bb6	-0.04256793
107	0x3e7e9234	0.2486046
108	0x3f75b05e	0.9597224
109	0x3f1a9fd8	0.6040015
110	0xbe72b9a4	-0.23703629
111	0xbd89c1a1	-0.06726385
112	0xbf07440c	-0.52838206
113	0x3e7cf15e	0.2470145
114	0x3fabcb60	1.342144
115	0xbf13c7e0	-0.5772686
116	0xbef8d0fb	-0.4859694
117	0x3c89db5d	0.016828233
118	0xbf3da018	-0.7407241
119	0xbf3858c6	-0.7201046
120	0xbd6141c0	-0.054994345
121	0x3ccb8cf4	0.024847485
122	0xbee5f70c	-0.44915044
123	0x3fc6ef21	1.5541726
124	0x3ee218f3	0.4415966
125	0xbf224b7b	-0.63396424
126	0xbeb980b9	-0.3623102
127	0xbf07e607	-0.5308537
128	0xbf0d52f1	-0.55204684
129	0xbd9e944b	-0.077431284
130	0xbe746e51	-0.23870207
131	0xbeb4a803	-0.35284433
132	0xbedd15c0	-0.43180656
133	0x3d5e2e51	0.05424339
134	0x3e8595ca	0.26090842
135	0xbee0e70e	-0.4392628
136	0xbe2134b6	-0.15742764
137	0x3ec8e2f4	0.39235651
138	0xbe6c0ae6	-0.23051032
139	0xbbc03cf7	-0.0058666426
140	0x3ea6e2c7	0.32594892
141	0xbe281d90	-0.16417527
142	0xbdd7bf45	-0.10534529
143	0x3e719c86	0.23594865
144	0x3e9b01f3	0.30274925
145	0xbe9930a3	-0.2991992
146	0x3e78f10a	0.24310699
147	0xbf8bee4b	-1.0932096
148	0xbe879711	-0.26482442
149	0xbf8b8079	-1.0898582
150	0x3efe816f	0.49708125
151	0xbf4c148e	-0.79718864
152	0xbe89be2e	-0.26902908
153	0xbe5023f3	-0.20326214
154	0xbe18aa35	-0.14908679
155	0xbf920aff	-1.1409606
156	0x3f03441f	0.5127582
157	0xbf4415f9	-0.7659603
158	0xbeb9b016	-0.36267155
159	0xc0002933	-2.0025146
160	0xbf551230	-0.83230877
161	0xbdcab44e	-0.09897672
162	0xbed222f7	-0.410423
163	0xbf27d1d2	-0.65554535
164	0xbf8ff084	-1.1245275
165	0xbf2973ec	-0.6619251
166	0xbf52c978	-0.82338667
167	0x3f02e13f	0.5112495
168	0xbf1b1350	-0.60576344
169	0xbdc97058	-0.09835881
170	0x3e9fb694	0.31193984
171	0x3f78f8ac	0.97254443
172	0xbf26e65b	-0.65195245
173	0xbf4ee33e	-0.80815494
174	0x3eab38bd	0.33441725
175	0x3e125d12	0.14293316
176	0xbf05479c	-0.5206239
177	0xbf64c8ae	-0.8936871
178	0xbe42279e	-0.18960425
179	0xbeaea505	-0.34110275
180	0x3e90b38d	0.28261986
181	0xbd901936	-0.070360586
182	0xbfab14e1	-1.3365747
183	0xbfa00e7a	-1.2504418
184	0x3c8c05f8	0.01709269
185	0x3f77d20f	0.968049
186	0x3ec712aa	0.38881427
187	0xbe49eda8	-0.19719565
188	0xbf847f12	-1.0351279
189	0x3f0a34b2	0.53986657
190	0x3dbd68ab	0.092484795
191	0xbf344fb6	-0.7043413
192	0xbf3815f7	-0.71908516
193	0xbfc0d5bc	-1.5065227
194	0xc001a53d	-2.0257103
195	0xbf0eb657	-0.5574698
196	0xbc2f44a0	-0.010697514
197	0xbf02feb5	-0.511699
198	0xbf351ea2	-0.70749867
199	0xbf6b2e1b	-0.91867226
200	0xbe2c47e0	-0.16824293
201	0x3dd5027f	0.10400867
202	0xbe94e794	-0.2908293
203	0x3e24ef87	0.16106997
204	0xbcc4a538	-0.024004564
205	0xbe8c914a	-0.27454597
206	0xbf691fd0	-0.9106417
207	0xc00b9212	-2.1807904
208	0x3bda67cc	0.0066652056
209	0xbd625670	-0.055258214
210	0x3f6ce3fc	0.92535377
211	0xbf5b83b3	-0.8574783
212	0xbe6698d6	-0.2251924
213	0xc022d1f4	-2.5440645
214	0x3d99e3ed	0.075141765
215	0xbf9cca6b	-1.2249273
216	0xbf7ee742	-0.9957162
217	0x3d7a629a	0.06112919
218	0xbf93963b	-1.1530222
219	0xbda25956	-0.07927196
220	0xbf679a78	-0.90470076
221	0x3f075a31	0.52871996
222	0xbcc0f189	-0.023552673
223	0x3ccd47c8	0.025058642
224	0xbc9e44d1	-0.019319924
225	0xbece9c1f	-0.40353486
226	0xbf42695f	-0.75942034
227	0x3d93a4e1	0.072091825
228	0xbe8f03f0	-0.27932692
229	0xbfbb4bcd	-1.4632508
230	0x3f2e78b3	0.6815292
231	0xbf351d3a	-0.7074772
232	0x3dd1d202	0.10245134
233	0xbf6c30d4	-0.92262006
234	0xbde81034	-0.113312155
235	0xbf1d372c	-0.6141231
236	0x3f3e2736	0.7427858
237	0x3eb68ca8	0.35654187
238	0xbf40e73d	-0.7535284
239	0x3f170d7b	0.59004945
240	0xbf0f9727	-0.56090015
241	0x3de9db99	0.11418838
242	0x3f0d197d	0.5511702
243	0x3e39240d	0.18080159
244	0xbf50a481	-0.81501013
245	0xbd864816	-0.06556718
246	0xbf0bec3d	-0.54657346
247	0x3e918f3a	0.28429586
248	0x3f8f3f87	1.1191262
249	0x3e3875bb	0.1801366
250	0xbebb72fb	-0.3661116
251	0xbfc97328	-1.5738268
252	0xbed793c2	-0.42104918
253	0xbf18c16c	-0.5967014
254	0x3f0675c8	0.5252347
255	0xbe43b136	-0.1911057

bias f4 [16]
0	0x3e59ec48	0.2128154
1	0xbf0b7a01	-0.5448304
2	0x3f207b04	0.62687707
3	0xbfb4571d	-1.4089085
4	0x3e8427f8	0.25811744
5	0x3f88bc1c	1.0682406
6	0xbecc7516	-0.3993308
7	0x3e969ba6	0.29415625
8	0x3d5287e9	0.051399145
9	0x3f35523e	0.70828617
10	0xbea67cc3	-0.3251706
11	0x3fbfad6f	1.4974803
12	0x3f38bdbf	0.7216453
13	0x3c586ea6	0.013209974
14	0xbf0f040b	-0.55865544
15	0x3ee63c03	0.4496766

weight f4 [16]
0	0x3f14597e	0.57949054
1	0x3fb05c4e	1.3778169
2	0x3fd8e448	1.6944666
3	0x3fc4188c	1.5319991
4	0x3f83d645	1.0299765
5	0x3ff09137	1.8794316
6	0x3f4073ee	0.75176895
7	0x3f8647cf	1.0490664
8	0x3f74bca9	0.9560037
9	0x3f89ab24	1.0755353
10	0x3ff7db43	1.9363788
11	0x3f7ae468	0.9800477
12	0x3fac58b1	1.3464566
13	0x3fa3e39d	1.2803837
14	0x3f978975	1.1838824
15	0x3f2ca09d	0.67432576

bias f4 [16]
0	0xbe7cd0ea	-0.2468907
1	0xbd45c5eb	-0.048284452
2	0x3f58513c	0.84498954
3	0x3ebcb530	0.36856985
4	0x3ea0022c	0.31251657
5	0x3f1279b8	0.5721698
6	0x3f75e268	0.96048594
7	0xbf97283e	-1.1809156
8	0xbdc0be68	-0.09411317
9	0x3eaa6242	0.3327809
10	0x3cb825d1	0.02247897
11	0xbf6bd435	-0.9212068
12	0x3f186d74	0.5954201
13	0xbd3337e8	-0.04375449
14	0xbf7be6ab	-0.98398846
15	0xbf4b2f25	-0.7936881

running_mean f4 [16]
0	0xc0d46b15	-6.6380715
1	0xc180f461	-16.119326
2	0xbc9f2851	-0.019428404
3	0xc1630367	-14.188331
4	0xc1657c77	-14.342887
5	0x40a17816	5.045909
6	0xc140d2da	-12.051477
7	0x41015c8b	8.0850935
8	0x3f11a6d2	0.5689517
9	0x40726465	3.7873776
10	0xc103c334	-8.235157
11	0x409b6859	4.8564878
12	0x3f128f8a	0.57250273
13	0x408747b2	4.227502
14	0x411b44c6	9.70429
15	0x41027b96	8.155172

running_var f4 [16]
0	0x41e82475	29.017801
1	0x4300adcd	128.67891
2	0x4223d79a	40.96055
3	0x41dfff27	27.999586
4	0x42916869	72.703926
5	0x423a6e33	46.607616
6	0x4239fcea	46.496986
7	0x42420a5b	48.510113
8	0x42103492	36.05134
9	0x42ac22bf	86.06786
10	0x4220a2a9	40.158848
11	0x41ec17b7	29.51158
12	0x42f98486	124.758835
13	0x42139104	36.891617
14	0x4277ff5a	61.999367
15	0x417931ed	15.574689

weight f4 [32, 16, 3]
0	0xbfa41600	-1.2819214
1	0x3e8aa56a	0.27079326
2	0xbf7e881c	-0.99426436
3	0xbf86d9f5	-1.0535265
4	0x3e311284	0.1729222
5	0x3eb68c30	0.3565383
6	0xbd9b6345	-0.075872935
7	0xbef8f890	-0.48627138
8	0x3f46c42f	0.776431
9	0x3f3db75a	0.741079
10	0xbc005a5d	-0.007834044
11	0xbca60eb7	-0.020270688
12	0x3eb50102	0.3535233
13	0xbe9c0abd	-0.30476943
14	0xbeb0df16	-0.345452
15	0x3efd0f00	0.49425507
16	0x3e1f7118	0.15570486
17	0xbe80f7f6	-0.2518918
18	0xbf8da290	-1.1065235
19	0xbf0bce3f	-0.5461158
20	0x3fc32914	1.5246911
21	0xbca79552	-0.020456944
22	0xbdc48718	-0.095960796
23	0xbd20e61b	-0.039281946
24	0x3f45a976	0.772117
25	0x3e4a7494	0.19771034
26	0x3dc4513f	0.09585809
27	0xbe9fbd1c	-0.31198967
28	0xbfb2e814	-1.3977075
29	0xbfb547d9	-1.4162551
30	0xbfcfa03d	-1.6220776
31	0xc038b8ec	-2.8862867
32	0xbee1e947	-0.4412329
33	0xbf06f219	-0.5271316
34	0xbead3528	-0.33829618
35	0xbebe95a3	-0.3722354
36	0xbd0ae406	-0.033908866
37	0x3e8107c6	0.25201243
38	0x3ecde262	0.4021178
39	0x3f4ad245	0.79227096
40	0x3e48e2e7	0.19617806
41	0x3eeb5e4d	0.45970383
42	0xbebaa8d5	-0.36456934
43	0xbf933a7b	-1.1502222
44	0xbf2b3c02	-0.6688844
45	0x3f64748c	0.89240336
46	0x3f1aacbd	0.6041983
47	0xbea7d12c	-0.32776773
48	0x3da1d5ff	0.07902145
49	0xbf818730	-1.0119381
50	0xbea651c4	-0.32484257
51	0x3dc41320	0.0957396
52	0xbf029e89	-0.51023155
53	0x3d90256a	0.07038386
54	0xbf72c6dc	-0.94834685
55	0xbf67554e	-0.9036454
56	0xbbdca271	-0.0067332317
57	0xbf6795d0	-0.9046297
58	0xbe536463	-0.20643763
59	0x3f1aad51	0.6042071
60	0x3e877c59	0.26462057
61	0xbf57445c	-0.84088683
62	0xbf8ebd47	-1.1151513
63	0xbea8a1fa	-0.32936078
64	0xbdb390a6	-0.08767824
65	0xbe983930	-0.2973113
66	0xbf6912a1	-0.9104405
67	0xbf31780f	-0.6932382
68	0x3f91ee8a	1.1400921
69	0x3f5c07d7	0.8594946
70	0x3fa44612	1.2833884
71	0xbf41b056	-0.7565969
72	0xbf324f7c	-0.69652534
73	0x3efcaf8a	0.49352676
74	0xbef10f52	-0.47082
75	0x3e8d75ca	0.27628928
76	0xbe4fe10e	-0.20300695
77	0xbdc135d4	-0.09434095
78	0x3fecd759	1.8503219
79	0xbef5d666	-0.48015136
80	0xbfbc8b1b	-1.4729952
81	0x3ece88fb	0.40338883
82	0xbd0f0001	-0.034912113
83	0xbf9418d6	-1.1570079
84	0xbf8de10a	-1.1084301
85	0xbf4fa89a	-0.8111664
86	0xbe059c93	-0.1304801
87	0xbf99fcac	-1.2030234
88	0x3f7f1191	0.9963618
89	0x3ce6bc10	0.028165847
90	0x3f2e7901	0.6815339
91	0x3f0fcae2	0.5616895
92	0x3f1d85cb	0.61532277
93	0xbf3257cd	-0.69665223
94	0x3efd4ebe	0.49474138
95	0xbf758dad	-0.95919305
96	0xbe8e9c93	-0.27853832
97	0xbdf611ee	-0.120151386
98	0xbdf9a253	-0.12189164
99	0x3cf12f78	0.02944158
100	0x3e984fd1	0.29748395
101	0x3e0558e2	0.13022187
102	0xbf50958f	-0.8147821
103	0xbf1ec718	-0.6202254
104	0x3f185d8c	0.5951774
105	0xbf470b4e	-0.77751625
106	0x3de235f1	0.11045445
107	0x3ef8748e	0.48526424
108	0x3d9aae62	0.07552792
109	0x3f0f4ed1	0.5597964
110	0x3e5c819c	0.21533817
111	0xbf601c93	-0.875436
112	0xbd850284	-0.064946204
113	0xbeb6447a	-0.35599118
114	0xbf935c0c	-1.1512465
115	0xbe61759d	-0.22017522
116	0x3ec15e75	0.37767377
117	0x3f9b0f98	1.2114134
118	0x3efd7aee	0.4950785
119	0xbf13f9c5	-0.57802993
120	0xbf0a88f9	-0.54115254
121	0xbde044d8	-0.10950631
122	0xbf212e6a	-0.6296145
123	0x3ed3c073	0.41357765
124	0x3f94d981	1.1628877
125	0x3f1c730c	0.6111305
126	0x3fdf5d1b	1.7450289
127	0xbeffa2c4	-0.49928868
128	0xbf8fbd7e	-1.1229703
129	0xbdc79eb6	-0.097470686
130	0x3f437b60	0.7636013
131	0xbf321c95	-0.6957486
132	0xbf21b495	-0.6316617
133	0xbec3f308	-0.38271356
134	0xbeaa79a7	-0.33295938
135	0xbe7b2692	-0.24526432
136	0x3e154784	0.14578062
137	0xbf2c0b33	-0.6720459
138	0x3f94c2ea	1.1621983
139	0x3f4e9427	0.8069481
140	0x3ea7f3f6	0.32803315
141	0xbf194f9f	-0.5988712
142	0x3ee21aed	0.44161168
143	0xbf9adfe9	-1.2099582
144	0x3eab4a71	0.33455232
145	0xbe18c168	-0.14917529
146	0xbe5455d6	-0.20735869
147	0xbef46e04	-0.47740185
148	0xbf853b52	-1.0408728
149	0xbf9afd58	-1.2108564
150	0xbf06a1d8	-0.52590704
151	0xbe0ffae7	-0.14060555
152	0xbea98f16	-0.33116978
153	0xbf638393	-0.8887264
154	0xbf5d6ca4	-0.864939
155	0xbfa0bcc3	-1.2557606
156	0xbed61147	-0.41810057
157	0xbf850798	-1.0392942
158	0xbe98d26a	-0.29848033
159	0x3d59d83d	0.053184737
160	0xbf446be3	-0.7672712
161	0xbf2e4327	-0.68071216
162	0xbebbe891	-0.36700872
163	0xbdc4f369	-0.09616739
164	0xbec0c313	-0.3764883
165	0x3ed66d80	0.41880417
166	0x3ec91f3a	0.39281636
167	0x3e5ec768	0.21755755
168	0x3f3e8959	0.74428326
169	0x3f0c2ed8	0.5475898
170	0xbdace5d3	-0.08442273
171	0xbfd80e8e	-1.6879442
172	0xbfa448a6	-1.283467
173	0xbf568fcc	-0.83813167
174	0xbf03fddc	-0.51559234
175	0xbf1a27fa	-0.6021725
176	0xbe03d6b3	-0.1287487
177	0x3e41edbb	0.18938343
178	0xbe9b677c	-0.3035239
179	0xbea0e53e	-0.31424898
180	0x3f76bdf6	0.9638361
181	0x3ee35f9a	0.44408876
182	0xbe9a7ac0	-0.30171776
183	0x3e8e420e	0.2778477
184	0x3e87fc02	0.26559454
185	0xbed90e7b	-0.4239386
186	0xbf3ce5d3	-0.73788184
187	0xbfb099d6	-1.3796947
188	0xbf251a8a	-0.6449362
189	0xbe858c7e	-0.2608375
190	0xbe893b4a	-0.26803046
191	0xbe84ad9e	-0.2591371
192	0xbf605500	-0.876297
193	0xbd64f690	-0.055899203
194	0xbd9f5e96	-0.07781713
195	0xbf843208	-1.0327768
196	0xbeafef50	-0.34362268
197	0xbe7dfe91	-0.2480414
198	0xbf4c7d37	-0.7987856
199	0xbf07a180	-0.52980804
200	0x3f097cca	0.5370604
201	0x3f1bd5ab	0.60872906
202	0x3dfab636	0.12241785
203	0x3f00aec4	0.5026667
204	0x3fa37b2e	1.2771966
205	0xbe6fc683	-0.2341557
206	0xbfbec5d6	-1.4904125
207	0x3f2faab0	0.68619823
208	0x3fcaf4eb	1.5855993
209	0x3ed635b1	0.41837838
210	0xbf8f0a68	-1.1175051
211	0xbf094ecf	-0.5363588
212	0x3f22fffa	0.6367184
213	0xbf57c7f0	-0.84289455
214	0x3e34819f	0.17627572
215	0xbf417edb	-0.7558419
216	0x3dbb278a	0.09138401
217	0xbd8d85ec	-0.06910309
218	0xbe5cc679	-0.21560086
219	0x3f7b0638	0.98056364
220	0x3c88f711	0.016719373
221	0xbf6afbc0	-0.9179039
222	0xbeb4dbdf	-0.35323998
223	0xbe80e086	-0.25171298
224	0x3fcffbdf	1.624874
225	0x3e76fc94	0.24119788
226	0x3e33a547	0.17543517
227	0xbd6d7694	-0.057974413
228	0xbf5b361e	-0.8562945
229	0x3e98e539	0.29862383
230	0xbf17a466	-0.5923523
231	0xbeb8cb48	-0.3609259
232	0x3f2d023e	0.67581546
233	0x3e0a9b0a	0.13535705
234	0xbe8d5d36	-0.27610177
235	0xbf68ecec	-0.90986514
236	0xbfb38d6e	-1.4027536
237	0x3e8d9f02	0.27660376
238	0xbf36620e	-0.7124337
239	0xbe86549b	-0.26236424
240	0xbe7bcd44	-0.24590021
241	0x3dceab0f	0.100912206
242	0x3e144254	0.14478427
243	0x3f3d25ce	0.7388581
244	0x3ec95636	0.39323586
245	0x3e9bb8c4	0.30414402
246	0xbf2ae61d	-0.66757375
247	0x3edc855b	0.43070492
248	0x3ed9d0f2	0.42542225
249	0x3d953661	0.072857626
250	0x3f0df6a2	0.55454457
251	0x3f2c5d81	0.67330176
252	0xbf0f5f82	-0.5600511
253	0x3db59730	0.08866727
254	0x3e63357a	0.22188368
255	0x3f181901	0.5941315

bias f4 [32]
0	0xbe21f172	-0.1581476
1	0xbeae6ecf	-0.34068915
2	0xbf8f7710	-1.120821
3	0xbe6f22ee	-0.23353168
4	0xbed1de29	-0.40989807
5	0xbf333368	-0.70000315
6	0x3eb91292	0.3614698
7	0x3e1ae1e4	0.15125233
8	0xbf232659	-0.6373039
9	0x3ecbfbdd	0.39840594
10	0x3d641326	0.055682324
11	0xbf082ba9	-0.5319162
12	0xbf07bd4e	-0.5302323
13	0xbee55b18	-0.44796062
14	0x3d588890	0.05286461
15	0x3f37a83a	0.7174107
16	0xbfa878bc	-1.3161845
17	0x3f46f269	0.7771364
18	0x3f0a7e91	0.54099375
19	0xbe751c87	-0.23936664
20	0xbf81add9	-1.0131179
21	0x3f831727	1.024144
22	0x3f985c45	1.1903158
23	0x3eeb26db	0.45928082
24	0x3f092440	0.5357094
25	0x3e9b8459	0.3037441
26	0x3ee10b43	0.43953905
27	0xbd3f7f1a	-0.046752073
28	0xbf8ffd09	-1.1249095
29	0xbf81ce47	-1.0141076
30	0x3d39e87f	0.04538774
31	0xbdfbb618	-0.12290591

weight f4 [32]
0	0x3f1d1097	0.6135344
1	0x3f99cbd7	1.2015332
2	0x3f868ea7	1.0512284
3	0x3f17e2d8	0.5933051
4	0x3fb9d725	1.4518782
5	0x3f844f59	1.0336715
6	0x3f190579	0.59773976
7	0x3f57bd99	0.8427368
8	0x3f90af33	1.1303467
9	0x3fb51cf1	1.4149457
10	0x3f1b41d6	0.6064733
11	0x3fb8d778	1.4440756
12	0x3fa629f5	1.2981554
13	0x3ec8892b	0.3916715
14	0x3fb8ab02	1.4427187
15	0x3f46b092	0.77613175
16	0x3fdd833b	1.7305673
17	0x3fa68115	1.3008143
18	0x3fbd69b0	1.4797878
19	0x3f9e9788	1.2389994
20	0x3faf8c27	1.3714646
21	0x3fce27d0	1.61059
22	0x3fc61d3b	1.547767
23	0x3fcd0a28	1.6018724
24	0x3f56acb0	0.8385725
25	0x3fc20534	1.5157838
26	0x3fd0f3aa	1.632436
27	0x3f82d571	1.0221387
28	0x40067eca	2.1014886
29	0x3f601d23	0.8754446
30	0x3f9c0393	1.2188591
31	0x3fcd4698	1.6037169

bias f4 [32]
0	0x3e48b724	0.19601113
1	0x3ecdb355	0.40175882
2	0xbe2be1cd	-0.16785355
3	0x3e544fa2	0.20733503
4	0xbd09d89a	-0.033653833
5	0xbfbd2034	-1.4775453
6	0xbf0612bf	-0.52372354
7	0xbf10a0d5	-0.5649541
8	0x3eb4ce52	0.3531366
9	0xbd619e70	-0.05508274
10	0xbee64f28	-0.44982266
11	0xbda85a25	-0.08220319
12	0x3e8bd862	0.27313524
13	0xbe754b6f	-0.23954557
14	0x3e0f9070	0.14019942
15	0x3fe39649	1.7780238
16	0xbc9d3f4d	-0.019195223
17	0xbe7d02d4	-0.2470811
18	0x3eb5f34d	0.35537186
19	0xbe696601	-0.22792818
20	0xbe010bf2	-0.12602213
21	0x3efee297	0.4978225
22	0x3f5b322c	0.8562343
23	0xbed6cbe5	-0.41952434
24	0xbe1f470e	-0.15554449
25	0xbf0a2d51	-0.539754
26	0x3ea99d26	0.33127707
27	0xbf8a89ad	-1.0823265
28	0xbf85f10f	-1.046419
29	0xbfb53b4c	-1.4158721
30	0x3ea66359	0.3249767
31	0xbf4ead23	-0.80732936

running_mean f4 [32]
0	0xc06ba1b5	-3.6817448
1	0xc0e5c860	-7.18071
2	0xc0809b95	-4.018992
3	0xc123115b	-10.191737
4	0xbee11512	-0.43961388
5	0x4103be70	8.233994
6	0x403e5bff	2.974365
7	0xc08b9845	-4.3623376
8	0xc0e8d3dd	-7.275862
9	0x40a60b28	5.188862
10	0x3dc8e10b	0.098085485
11	0xc093b788	-4.6161537
12	0x405ff7ee	3.4995074
13	0x3fb59eb7	1.4189061
14	0x405dc726	3.46528
15	0xc0727a4d	-3.7887146
16	0xc0e9a5ac	-7.3014736
17	0x400e83ca	2.2267938
18	0xc013e2ae	-2.3107104
19	0x40835136	4.1036634
20	0xc046ab26	-3.104196
21	0xc09dc325	-4.9300714
22	0xc0f20da7	-7.5641665
23	0xbfb80b58	-1.4378462
24	0xc0acbf4e	-5.3983526
25	0xbfe05220	-1.7525063
26	0xc10b645a	-8.712
27	0x410e5fad	8.898358
28	0x40737d65	3.8045285
29	0x4053561c	3.3021307
30	0xc077a1c3	-3.8692482
31	0x3f739b69	0.9515901

running_var f4 [32]
0	0x429b6dd4	77.71451
1	0x41e9660f	29.174833
2	0x42444b6c	49.073654
3	0x4224b761	41.17908
4	0x41facf5d	31.351252
5	0x41c777d3	24.933508
6	0x41e573d9	28.681566
7	0x4187fb44	16.997688
8	0x4265430b	57.31547
9	0x42525ccf	52.590633
10	0x425a0d9f	54.5133
11	0x42896720	68.701416
12	0x42744e22	61.0763
13	0x424f3a44	51.8069
14	0x42256d3b	41.35667
15	0x42b07d73	88.24502
16	0x41c30bcb	24.380758
17	0x42443fe1	49.06238
18	0x425c42aa	55.0651
19	0x41f35b7c	30.41967
20	0x423e94cc	47.64531
21	0x422e658f	43.59918
22	0x4256e862	53.726936
23	0x41ef4a68	29.911331
24	0x42098747	34.382107
25	0x428d6e36	70.715256
26	0x426f3111	59.797916
27	0x4204ada0	33.169556
28	0x4203cbf7	32.949184
29	0x4181d5d3	16.229406
30	0x428a27f3	69.078026
31	0x420f6459	35.847996

weight f4 [32, 32, 3]
0	0x3f928453	1.1446632
1	0x3f02b36b	0.5105502
2	0x3f26d3d8	0.65167
3	0xbfcce519	-1.6007415
4	0x3e93d917	0.28876564
5	0xbf2ad66b	-0.66733426
6	0xbf6fd182	-0.9367906
7	0x3eaf2aa1	0.3421221
8	0xbeef0961	-0.46686843
9	0x3fb0ae55	1.3803202
10	0x3f09edd4	0.5387852
11	0x3e14adad	0.14519377
12	0x3ee521b7	0.44752285
13	0x3f3aa8ff	0.7291412
14	0x3ee71792	0.4513517
15	0x3cda1073	0.026619172
16	0x3f547399	0.8298889
17	0x3ef58cc2	0.47958952
18	0xbf08c660	-0.53427696
19	0x3ebac9ed	0.36482182
20	0x3df9251b	0.121652804
21	0x3fa05453	1.2525734
22	0x3f26b593	0.6512081
23	0x3edbce12	0.42930657
24	0xbfcb7d3d	-1.5897595
25	0xbf5c731a	-0.8611313
26	0xbfb8f53c	-1.444984
27	0xbec0f06c	-0.37683427
28	0x3e245da2	0.16051343
29	0x3df04a59	0.11732931
30	0x3ee96cee	0.4559092
31	0x3dac91d2	0.084262505
32	0x3e787203	0.24262242
33	0xbfbfe92f	-1.4993037
34	0xbec75582	-0.38932425
35	0xbe8818eb	-0.2658151
36	0x3f06e4c4	0.5269282
37	0xbdb403c3	-0.0878978
38	0xbed386b4	-0.41313708
39	0x3f5759b1	0.84121233
40	0x3f063553	0.52425116
41	0x3e6a4085	0.22876175
42	0x3f5a8664	0.85361314
43	0x3f386121	0.72023207
44	0x3e597b9e	0.21238562
45	0xc00a2446	-2.158464
46	0xbf7a4bd0	-0.9777193
47	0xbfc68114	-1.5508142
48	0x3f99f6d1	1.2028447
49	0x3e1d2134	0.15344697
50	0xbeb86bb8	-0.36019683
51	0xbeb65ddf	-0.35618493
52	0x3f2ad664	0.66733384
53	0xbe8ccca5	-0.2749988
54	0xc00b04dc	-2.1721716
55	0xbec89747	-0.39177915
56	0xbf5b5c03	-0.85687274
57	0xbf87e409	-1.0616466
58	0xbfd014e4	-1.6256375
59	0xbf99d5b1	-1.2018338
60	0xbf131230	-0.57449627
61	0xbe09a17b	-0.13440506
62	0xbcc83d9d	-0.024443442
63	0xbf594a46	-0.8487896
64	0x3db896e9	0.09013159
65	0xbeddd8e9	-0.43329552
66	0xbef48fd1	-0.47765973
67	0xbf731b27	-0.94963306
68	0xbfcbee4a	-1.5932095
69	0xbea4bab3	-0.3217369
70	0x3f59322e	0.84842193
71	0xbefdf92e	-0.49604172
72	0xbd9c13be	-0.07620953
73	0xbc8e5a30	-0.01737699
74	0xbec888b3	-0.39166793
75	0xbfd38950	-1.652628
76	0x3e3e62c3	0.18592362
77	0xbcc7856a	-0.024355609
78	0xbdc8127c	-0.097691506
79	0x3e80646d	0.2507662
80	0xbeb25ee8	-0.34838033
81	0xbe84c16d	-0.25928822
82	0xbec161f0	-0.37770033
83	0x3e27d76b	0.16390769
84	0xbe77cf31	-0.24200131
85	0xbec6dcaf	-0.38840243
86	0xbfac9b66	-1.3484924
87	0xbe91f26f	-0.28505275
88	0xbd820b31	-0.06349791
89	0x3e8e379f	0.2777681
90	0xbf3e770a	-0.7440039
91	0x3ee76a07	0.4519808
92	0xbec7dd53	-0.39036044
93	0x3e05fe21	0.13085224
94	0xbdc61399	-0.09671707
95	0xbf3cfcae	-0.7382306
96	0x3cd580a0	0.02606231
97	0x3e9aa77f	0.30205914
98	0x3f087aea	0.5331255
99	0x3efbd2e3	0.4918433
100	0xbf1e3d2f	-0.6181211
101	0xbf8d8371	-1.1055738
102	0x3c81a3b3	0.015825128
103	0xbfcabdd2	-1.5839179
104	0xbf8df857	-1.1091412
105	0xbf7b1636	-0.98080766
106	0x3c105f6e	0.008811815
107	0xbe826268	-0.25465703
108	0x3edf689d	0.436345
109	0xbe7af515	-0.24507554
110	0xbe6d4f86	-0.23174867
111	0xbf1c3bee	-0.61028945
112	0xbf4e56e9	-0.80601364
113	0x3efba2ef	0.49147746
114	0xbe7f9c9b	-0.24962084
115	0xbf372034	-0.71533513
116	0xbf715dd1	-0.9428378
117	0xbe1cee3d	-0.15325256
118	0x3d15fa44	0.036615625
119	0xbeb37222	-0.35048014
120	0x3ec2a95d	0.3801984
121	0xbe188acb	-0.14896695
122	0xbf0ced96	-0.5505003
123	0x3efd29e8	0.49446034
124	0x3e734da0	0.2376008
125	0xbf783d0c	-0.9696815
126	0xbf8e40a2	-1.1113474
127	0xbea13612	-0.31486565
128	0x3f0f7bd3	0.56048316
129	0x3f0ab2b8	0.54178953
130	0xbe1d7126	-0.15375194
131	0xbf6e664d	-0.9312485
132	0xc0094766	-2.1449828
133	0xbea79164	-0.32728112
134	0x3f94ffe1	1.1640588
135	0xbd1c08ed	-0.03809445
136	0x3ca33cbb	0.01992642
137	0x3dbd73ab	0.092505775
138	0xbfb3d863	-1.4050411
139	0xbdf5ee69	-0.12008364
140	0x3f0a4113	0.54005545
141	0xbebf2be6	-0.3733818
142	0xbf52ff67	-0.82420963
143	0xbd1d287a	-0.03836868
144	0xbe7f9888	-0.2496053
145	0x3d128960	0.035775542
146	0x3f03b016	0.5144056
147	0xbe0bf701	-0.13668443
148	0xbfcd4938	-1.603797
149	0x3eb728d3	0.35773334
150	0x3f37cb9c	0.7179506
151	0xbe8440c8	-0.25830674
152	0xbf233b62	-0.63762486
153	0x3e1e2e5e	0.15447375
154	0xbe70f6b7	-0.23531614
155	0xbed2ebd8	-0.4119556
156	0x3fe3e2fe	1.7803648
157	0x3f120b4e	0.570485
158	0xbf2bb7f6	-0.6707758
159	0x3f6875ea	0.9080492
160	0xbcb359c3	-0.021893388
161	0xbfcf7c8d	-1.6209885
162	0xbda7e3aa	-0.0819772
163	0xbed39afa	-0.41329175
164	0xbf4c0b89	-0.797051
165	0xbf10b70c	-0.5652931
166	0xbf9d05f3	-1.226744
167	0xbf8ae3cc	-1.0850768
168	0x3f4fba6d	0.8114384
169	0x3ec4c6aa	0.3843282
170	0xbed7b7e9	-0.421325
171	0x3f8cef3a	1.1010506
172	0xbf033114	-0.5124676
173	0x3dcf0257	0.10107868
174	0x3f4053f3	0.75128096
175	0xbea3a2ab	-0.31960043
176	0xbfa86e53	-1.3158668
177	0xbf0ea30c	-0.5571754
178	0x3eb78ab6	0.35848016
179	0x3e55a73d	0.20864578
180	0xc019e1d3	-2.4044082
181	0xbfb14369	-1.3848697
182	0xbd3d5abe	-0.046229117
183	0xbeecbe30	-0.46238852
184	0x3e2ae2de	0.16688105
185	0xbf055c59	-0.52094036
186	0xbeec3142	-0.4613133
187	0xbf8ad962	-1.084759
188	0xbf9c825a	-1.222728
189	0xbf12895c	-0.57240844
190	0xbf7cd15f	-0.98756975
191	0x3f1945fe	0.59872425
192	0x3b73e775	0.0037216817
193	0x3e892f22	0.26793772
194	0x3e3b8071	0.18310715
195	0xbeffc814	-0.49957335
196	0xbf062873	-0.5240547
197	0xbecca1d3	-0.39967212
198	0xbf15a73a	-0.5845829
199	0xbed4ce07	-0.41563436
200	0xbdbf3f34	-0.09338227
201	0x3f224f73	0.6340248
202	0x3e9ef273	0.3104435
203	0x3ed5fddb	0.4179524
204	0x3da5218a	0.08063038
205	0x3ce48d6e	0.02789947
206	0x3f145798	0.5794616
207	0x3e6a8601	0.22902681
208	0x3ec0677b	0.3757895
209	0xbf138cf6	-0.57636964
210	0x3e8ccc1c	0.27499473
211	0x3eb41875	0.3517491
212	0x3de23972	0.11046113
213	0x3e60322f	0.21894144
214	0xbedeb499	-0.4349716
215	0x3cef5031	0.029213043
216	0xbf880132	-1.0625365
217	0x3d50de62	0.05099333
218	0x3e417996	0.18894038
219	0xbe996c51	-0.2996545
220	0x3f45abf8	0.7721553
221	0x3fae64e2	1.3624537
222	0x3f33ed5f	0.70284075
223	0xbebbbbf3	-0.3666683
224	0x3f18e271	0.5972052
225	0x3ec66b54	0.3875376
226	0x3f180d07	0.5939488
227	0x3edfa927	0.4368374
228	0x3f9a652d	1.2062126
229	0xbeb8c5d0	-0.3608842
230	0x3f1739c8	0.5907254
231	0x3e5146f1	0.20437218
232	0xbe58a123	-0.21155219
233	0x3faaf314	1.3355432
234	0x3f214ea5	0.6301063
235	0xbe00579b	-0.12533419
236	0x3f8d7040	1.1049881
237	0xbd2d6fea	-0.042343058
238	0x3efabe30	0.48973227
239	0x3f1c0ccd	0.6095703
240	0x3f14be5a	0.58102953
241	0xbe854db1	-0.26035836
242	0x3f81d0f1	1.0141889
243	0x3eaedb57	0.34151718
244	0x3dd0ddd3	0.101985596
245	0x3ded08a1	0.115739115
246	0x3e39ed35	0.18156894
247	0x3f4a2008	0.78955126
248	0x3eebdb9a	0.4606598
249	0x3e7e27ff	0.24819945
250	0x3da5c165	0.08093528
251	0xbea58cba	-0.32333928
252	0x3db3d2ee	0.08780466
253	0xbe4376ea	-0.19088331
254	0xbf49d3d4	-0.7883885
255	0x3e9d14f9	0.30680063

bias f4 [32]
0	0xbea887a9	-0.32916
1	0xbc1f9a43	-0.009741369
2	0xbe562705	-0.20913322
3	0x3e874330	0.26418447
4	0xbe5a8aa4	-0.2134195
5	0x3cbbe8d0	0.022938162
6	0xbf7143e4	-0.9424422
7	0x3e183c63	0.14866786
8	0xbee0a7d7	-0.43878052
9	0x3e45131d	0.19245572
10	0xbde3ba76	-0.11119549
11	0xbf2cbe31	-0.6747771
12	0xbe5f971c	-0.21834987
13	0x3ecf97ae	0.4054541
14	0x3e958826	0.29205436
15	0x3e375800	0.17904663
16	0x3e7977c1	0.24362089
17	0xbdf7b26b	-0.120945774
18	0xbe119408	-0.14216626
19	0x3eb3b46a	0.35098583
20	0xbf4766da	-0.77891314
21	0xbf119be0	-0.5687847
22	0x3ec4851d	0.38382807
23	0x3e01a384	0.12660033
24	0xbdaab69b	-0.083356105
25	0x3e8a2d55	0.2698771
26	0x3e962e2a	0.29332095
27	0x3f350361	0.7070828
28	0xbddb4e86	-0.107083365
29	0xbef91514	-0.48648894
30	0xbe49d5bb	-0.19710438
31	0x3d1404b7	0.03613731

weight f4 [32]
0	0x3f8951d7	1.07281
1	0x3f496cee	0.7868184
2	0x3f880b1e	1.0628393
3	0x3f8094b7	1.0045384
4	0x3fb9a24d	1.4502655
5	0x3f80bb2f	1.0057124
6	0x3f666b35	0.90007335
7	0x3fdbf89f	1.7185248
8	0x3f904213	1.1270164
9	0x3fdeb555	1.7399088
10	0x3f6a377e	0.91490924
11	0x3fb28625	1.3947188
12	0x3fb1ed69	1.3900577
13	0x3f927b1e	1.1443822
14	0x3f98a31f	1.1924781
15	0x3f6f0e1a	0.9338089
16	0x3f99f98b	1.202928
17	0x3f9590b5	1.1684786
18	0x3f8178f2	1.0115035
19	0x3f6975c8	0.91195345
20	0x3f7577de	0.9588603
21	0x3fa2d065	1.2719847
22	0x3fd81447	1.6881188
23	0x3edb2904	0.4280473
24	0x3f5b07f4	0.8555901
25	0x3fce7bc5	1.6131521
26	0x3fec0db1	1.8441678
27	0x3fcd9506	1.6061103
28	0x3f1a0de4	0.60177445
29	0x3f81ca9d	1.0139958
30	0x3fd656e4	1.6745267
31	0x3fecf94b	1.8513578

bias f4 [32]
0	0x3f726978	0.9469218
1	0xbcee8010	-0.0291138
2	0xbf98f188	-1.194871
3	0x3f13a29b	0.5766999
4	0x3f3ff3c3	0.74981326
5	0xbee3e2ea	-0.4450906
6	0xbf98a0b3	-1.1924042
7	0x3f8a2304	1.0791936
8	0xbec8f9ce	-0.39253086
9	0xbe8861e6	-0.2663719
10	0x3fb8bba5	1.4432265
11	0xbf0912a7	-0.53544086
12	0x3e9e6cdf	0.30942437
13	0xbe9c4378	-0.30520225
14	0x3f53067c	0.8243177
15	0xbf583c92	-0.8446742
16	0xbf02307f	-0.5085525
17	0xbf266ce2	-0.6500989
18	0xbf879c8f	-1.0594653
19	0xbf019873	-0.50623244
20	0xbe2640bf	-0.16235636
21	0xbf549832	-0.8304473
22	0xbd03e284	-0.032198444
23	0xbfe25866	-1.7683227
24	0xbf99d7ec	-1.2019019
25	0xbe473dbf	-0.19457148
26	0x3f8cbbe2	1.0994837
27	0x3e13b58a	0.1442472
28	0xbd4e2564	-0.050328627
29	0xbf742d91	-0.9538203
30	0xbed2d6de	-0.41179556
31	0xbe633238	-0.22187126

running_mean f4 [32]
0	0xc1ba1396	-23.259563
1	0xc18080d4	-16.062904
2	0x41898eb2	17.194675
3	0xc159fa76	-13.623648
4	0xc0091ed1	-2.142506
5	0xc14d898c	-12.846081
6	0x417e219f	15.883208
7	0xc1267d46	-10.405584
8	0xc1d2cc24	-26.349678
9	0x3e6d47e0	0.2317195
10	0xc13dfb49	-11.873849
11	0xbeb0cb1a	-0.34529954
12	0xc191192b	-18.13729
13	0xc1241a28	-10.256386
14	0xc10d4bc9	-8.831002
15	0x419da9d5	19.707926
16	0x400aecb4	2.1706972
17	0xc1a44816	-20.535198
18	0x40defd58	6.9684258
19	0x3fed935f	1.8560599
20	0x3ca8b800	0.02059555
21	0xc0930fda	-4.595685
22	0x40cb6e9b	6.3572516
23	0xc0041258	-2.0636196
24	0x400bb61d	2.1829903
25	0x4098cfc0	4.77536
26	0xc163e8fb	-14.24438
27	0xc0f3d319	-7.6195188
28	0x40daf2be	6.8421316
29	0x408906cf	4.282081
30	0xc1a3b20a	-20.461933
31	0x40b97fc2	5.7968454

running_var f4 [32]
0	0x4319f76d	153.9665
1	0x43ce88a1	413.0674
2	0x42bda51a	94.822464
3	0x42ac0c95	86.024574
4	0x43842075	264.25357
5	0x430d99a2	141.60013
6	0x42e6358d	115.10459
7	0x43116445	145.39168
8	0x4367cac8	231.79211
9	0x42f4e8a6	122.45439
10	0x438a3143	276.38486
11	0x42ec6b7f	118.20995
12	0x43c6f0eb	397.88217
13	0x438af82f	277.93893
14	0x439305b7	294.04465
15	0x42ade3f5	86.94523
16	0x42e033a1	112.10084
17	0x43537a44	211.4776
18	0x42a16e13	80.71499
19	0x431700e5	151.0035
20	0x4318cd25	152.80135
21	0x4316af9a	150.68594
22	0x42ea7f99	117.249214
23	0x429cc0e7	78.37676
24	0x43057194	133.44366
25	0x42f95eab	124.6849
26	0x43aac419	341.532
27	0x4303b805	131.71883
28	0x434e3d37	206.23912
29	0x42c9dd92	100.932755
30	0x432bd984	171.84967
31	0x431c8876	156.53305

weight f4 [64, 32, 3]
0	0xbf9e52ce	-1.236902
1	0xbf36e5a3	-0.7144415
2	0xbf9ad4ed	-1.209623
3	0x3fd0b15a	1.6304123
4	0x3d6b33dc	0.057422504
5	0x3f316832	0.69299614
6	0x3f78e78c	0.9722831
7	0x3f552ef5	0.83274776
8	0xbf87d669	-1.0612308
9	0xbf869212	-1.0513327
10	0xbf60a9e0	-0.8775921
11	0xbdf35ba2	-0.11882712
12	0xbfb498cf	-1.4109133
13	0xbfddd170	-1.732954
14	0xbf6b4ebe	-0.91917026
15	0x3f1e8788	0.61925554
16	0xbe93ce47	-0.28868315
17	0xbf989ca6	-1.1922805
18	0x3d458a31	0.048227493
19	0x3edc5614	0.43034422
20	0xbdada537	-0.08478778
21	0xc037db1c	-2.8727484
22	0xbe3b20a9	-0.18274178
23	0xbfac719a	-1.3472168
24	0xbf6caf4c	-0.9245498
25	0xbf13b1c9	-0.57693154
26	0x3ee61772	0.44939762
27	0x3f500f96	0.8127378
28	0xbf61a12a	-0.8813654
29	0xbf150ce4	-0.58222795
30	0xbdcb9f94	-0.099425465
31	0x3ee8ccae	0.45468658
32	0x3f883757	1.0641888
33	0x3fa16889	1.2610027
34	0xbea0947e	-0.3136329
35	0xbdc56427	-0.09638243
36	0x3e8c95d8	0.27458072
37	0xbf15877e	-0.5840987
38	0x3ee62f75	0.44958082
39	0xbee00275	-0.43751875
40	0xbe694f79	-0.22784223
41	0x3f05470c	0.52061534
42	0xbf3966db	-0.7242257
43	0x3e796394	0.24354392
44	0x3e30b2c7	0.17255698
45	0x3f56b682	0.83872235
46	0x3f6eb7e9	0.93249375
47	0x3ddf49fd	0.10902784
48	0x3f73133c	0.94951224
49	0xbf3e744d	-0.7439621
50	0xbd955efb	-0.07293507
51	0x3f31ba70	0.69425106
52	0xbe12962b	-0.14315097
53	0x3f46f5ae	0.7771863
54	0x3f0c62c8	0.5483823
55	0xbe358054	-0.17724735
56	0x3f495a82	0.7865373
57	0x3ec29907	0.38007376
58	0xbe30e0eb	-0.172733
59	0xbf3f7d28	-0.7480035
60	0xbe6589d8	-0.22415864
61	0xbf0cdd86	-0.5502552
62	0x3e4fceef	0.20293783
63	0x3eb396c0	0.3507595
64	0xbdb5cb87	-0.088767104
65	0xbef96016	-0.4870612
66	0xbeb7e6dd	-0.35918322
67	0x3d52c0cc	0.051453397
68	0xbf805426	-1.002568
69	0x3ea36aa5	0.319173
70	0xbf026c9d	-0.5094698
71	0xbe7bbcb2	-0.245837
72	0x3e308bc4	0.17240816
73	0xbded40b4	-0.11584607
74	0xbed80e00	-0.4219818
75	0x3fe49d72	1.7860548
76	0x3ef1b7fe	0.47210687
77	0x3f0f729d	0.5603426
78	0xbfb66b0a	-1.4251416
79	0x3ea55fa7	0.3229954
80	0x3fc7bfec	1.5605445
81	0x3dca2a7a	0.09871383
82	0x3bd9948f	0.006640024
83	0xbeb48696	-0.3525893
84	0x3f87a8b5	1.059836
85	0xbecf6480	-0.40506363
86	0xbf874961	-1.0569268
87	0xbdcf27e1	-0.10115028
88	0x3e984248	0.2973807
89	0x3f2f2f89	0.6843191
90	0xbfdf059f	-1.742359
91	0x3df2730a	0.11838348
92	0x3faccba8	1.3499651
93	0xbe93b213	-0.28846797
94	0x3ed652f5	0.41860166
95	0xbf37af93	-0.7175228
96	0xbf780077	-0.9687571
97	0xbe1689b1	-0.14700963
98	0xbfb18059	-1.3867294
99	0x3f394d0b	0.72383183
100	0xbe2b374e	-0.16720316
101	0x3e0866d9	0.13320483
102	0xbe2848de	-0.16434047
103	0x3e12473b	0.14284985
104	0xbf247e3a	-0.64255106
105	0xbf32c27c	-0.6982801
106	0xbeea8d46	-0.45810908
107	0x3ddcd8d5	0.10783545
108	0xbf4c6cb1	-0.7985335
109	0xbf17dc3d	-0.5932043
110	0xbe26463b	-0.16237728
111	0x3f076bb7	0.52898735
112	0xbf02e51a	-0.5113083
113	0x3f66d183	0.9016344
114	0xbdde0a50	-0.10841811
115	0xbd61feb5	-0.05517455
116	0xbecde9f9	-0.4021757
117	0x3e4d62f4	0.20057279
118	0xbe44c47b	-0.19215576
119	0xbf9e5226	-1.236882
120	0x3e6b5872	0.22982958
121	0xbe424208	-0.18970501
122	0xbeb8a6fb	-0.36064896
123	0xbf301db4	-0.68795323
124	0x3e9f2e88	0.31090188
125	0xbefde6de	-0.495902
126	0x3d456c34	0.048198894
127	0x3ec5eb2a	0.38655978
128	0x3f6c78c7	0.9237179
129	0x400b62ec	2.1779127
130	0xbec4ce33	-0.38438568
131	0xbfe4c059	-1.78712
132	0x3f2104a1	0.6289769
133	0xbe7cccf6	-0.24687561
134	0xbd982f3e	-0.07430886
135	0xbf5cc9b7	-0.8624529
136	0xbf2bf470	-0.6716986
137	0xbf13a107	-0.57667583
138	0xbe391002	-0.18072513
139	0xbe88a47c	-0.26687992
140	0xbe824ff3	-0.2545162
141	0xbe7a2f1d	-0.24432035
142	0x3e2421d4	0.1602853
143	0xbe387b92	-0.18015888
144	0x4008324b	2.1280696
145	0xbf8f93d7	-1.1216992
146	0xbfc20fc7	-1.5161065
147	0x3e90a23b	0.28248772
148	0x3f3f2712	0.7466899
149	0x3f4c8d70	0.79903316
150	0x3e53d7c9	0.20687784
151	0xbd021ae1	-0.031763915
152	0x3ea06c91	0.3133283
153	0x3f915208	1.1353159
154	0xbec98ebb	-0.39366707
155	0xbf86f44e	-1.0543306
156	0x3da363c6	0.07978015
157	0x3e4e0e8d	0.20122738
158	0x3df420b8	0.11920303
159	0xbe9f1bb4	-0.31075823
160	0x3dcf5fdd	0.10125706
161	0x3dd1cfe7	0.10244732
162	0xbeded1aa	-0.43519336
163	0xbe934a6d	-0.2876772
164	0xbf03224a	-0.51224196
165	0x3e753746	0.23946866
166	0xbe345773	-0.17611484
167	0xbf16d208	-0.5891423
168	0x3e217ccf	0.15770267
169	0xbdee41ca	-0.11633642
170	0xbf3c34fc	-0.7351835
171	0x3fbad7c0	1.4597092
172	0x3f1f788f	0.6229333
173	0x3e4317b9	0.19052018
174	0xbe35bae4	-0.17747074
175	0x3bb31e43	0.005466254
176	0x3f864a73	1.049147
177	0xbecb3099	-0.39685515
178	0xbcb0d82f	-0.02158746
179	0x3cbfde73	0.023421502
180	0xbe4488b0	-0.19192767
181	0xbeb3b82c	-0.3510145
182	0xbe823965	-0.25434414
183	0x3e357a24	0.17722374
184	0x3d734702	0.05939389
185	0x3e9f77a1	0.31145957
186	0x3ed826a0	0.4221697
187	0xbee8ccbd	-0.45468703
188	0x3f8b1c97	1.08681
189	0xbeb7c1e7	-0.35890123
190	0xbe81c37f	-0.25344464
191	0xbe1e6b3a	-0.15470591
192	0x3fd437da	1.6579545
193	0x3f805af0	1.0027752
194	0x3eddc933	0.43317565
195	0xbf72ef52	-0.94896424
196	0x3bd92742	0.0066269943
197	0xbf7e096d	-0.9923313
198	0x3d4b198a	0.049584903
199	0x3edd686b	0.43243727
200	0xbee2aa96	-0.44270772
201	0xbec764c0	-0.38944054
202	0xbf2057d9	-0.62634045
203	0x3f0b2c7a	0.5436474
204	0xbebe0133	-0.3711029
205	0xbed5b1b4	-0.4173714
206	0xbf8254db	-1.0182146
207	0xbe39f73d	-0.1816072
208	0xbf87e575	-1.06169
209	0x3cb4a0bc	0.0220493
210	0xbe96506b	-0.2935823
211	0x3b7178db	0.0036845717
212	0xbea0722f	-0.31337115
213	0x3f1deea5	0.6169227
214	0xbe9cc4a6	-0.3061878
215	0x3ef5d164	0.48011315
216	0x3f52b242	0.8230325
217	0x3f910f45	1.1332785
218	0xbee02f61	-0.43786147
219	0x3d98386d	0.07432637
220	0xbe8b17ec	-0.27166688
221	0xbeb4d061	-0.3531523
222	0xbfdba7c9	-1.7160579
223	0xbf051b97	-0.51995224
224	0xc000389b	-2.003455
225	0x3f4459cf	0.7669954
226	0x3f02fa7d	0.51163465
227	0xbf43ab9d	-0.76433736
228	0x3e50570f	0.2034571
229	0x3f338be6	0.70135343
230	0xbe9bf371	-0.3045917
231	0x3ae83b32	0.0017717837
232	0x3eaeebf2	0.34164387
233	0xbf037ae3	-0.51359385
234	0xbfe2727d	-1.7691189
235	0xbda72704	-0.081617385
236	0xbefb2f8c	-0.49059713
237	0x3d83ab15	0.06429116
238	0x3e35b975	0.17746527
239	0xbef287bb	-0.4736918
240	0x3f35d67c	0.710304
241	0x3f154491	0.5830775
242	0xbf192ec9	-0.59837013
243	0x3f81082f	1.0080622
244	0x3f0792f0	0.52958584
245	0xbf6ef010	-0.93335056
246	0x3e31887b	0.1733722
247	0xbeb3dea8	-0.3513081
248	0xbec04d55	-0.37559
249	0x3ee82256	0.45338696
250	0xbe06699b	-0.13126223
251	0xbed41681	-0.4142342
252	0x3f1177d5	0.56823474
253	0xbede2eff	-0.4339523
254	0xbe4b5b9c	-0.19859165
255	0x3f6fe17f	0.93703455

bias f4 [64]
0	0x3dcef6cf	0.10105669
1	0x3ec16016	0.3776862
2	0x3e22da92	0.1590369
3	0x3f4e6ccd	0.80634767
4	0xbcc000f0	-0.023437947
5	0x3e72d98b	0.23715799
6	0x3e18d386	0.1492444
7	0x3e9bcb69	0.30428627
8	0xbd9fca96	-0.07802312
9	0x3edd79b8	0.43256927
10	0x3f1ee3b4	0.620662
11	0x3d0162f1	0.0315885
12	0xbf1838ba	-0.5946156
13	0xbdd7a0eb	-0.105287395
14	0xbe23f7ac	-0.16012448
15	0x3f8e6f67	1.1127747
16	0x3ed79015	0.42102113
17	0xbe749f0f	-0.23888801
18	0xbd372ef4	-0.044722512
19	0x3e4a8053	0.19775514
20	0xbe6f22bb	-0.23353092
21	0x3e360500	0.17775345
22	0xbd1578fb	-0.03649233
23	0x3d8f50b2	0.06997813
24	0xbef2ce5a	-0.4742306
25	0x3f4298ac	0.7601421
26	0xbeb2001b	-0.34765705
27	0x3e07414a	0.132085
28	0x3e3ee315	0.18641312
29	0xbc72b320	-0.014813215
30	0xbddbc765	-0.10731391
31	0xbeaf2565	-0.34208217
32	0xbea82eaa	-0.32848102
33	0xbe418969	-0.18900074
34	0xbe79203d	-0.24328704
35	0xbee05cc0	-0.43820763
36	0xbdee3f7b	-0.11633202
37	0x3eb1c3c1	0.3471966
38	0xbfa9ba02	-1.325989
39	0xbf237ce4	-0.6386244
40	0x3e8d0a84	0.27547085
41	0x3f6683bc	0.9004476
42	0xbf1a141d	-0.6018694
43	0x3eb3d70d	0.35125008
44	0xbdb741a7	-0.08948069
45	0xbdfbeed5	-0.12301413
46	0x3f4fbf0b	0.81150883
47	0xbefd9f92	-0.49535805
48	0xbf301d91	-0.68795115
49	0x3d7d97b2	0.061912246
50	0x3d7d0045	0.061767835
51	0x3da961c3	0.082706
52	0xbe96ff43	-0.29491624
53	0x3d8028db	0.062577926
54	0xbdd526f3	-0.104078196
55	0xbe74d307	-0.23908626
56	0x3ee9a65e	0.4563474
57	0x3c79bc5c	0.015242662
58	0x3ed9f9c6	0.42573375
59	0x3e995226	0.29945487
60	0x3f772c99	0.96552426
61	0xbf140db5	-0.57833415
62	0x3f0b0f8d	0.54320604
63	0xbe10e71b	-0.1415066

weight f4 [64]
0	0x3fcfe9f6	1.6243274
1	0x3f691008	0.91040087
2	0x3f7d41a1	0.98928267
3	0x3ff0f2fd	1.8824154
4	0x3fdf9364	1.7466855
5	0x3f8c3db3	1.0956329
6	0x3fbf4c20	1.4945107
7	0x3f9ef73d	1.2419201
8	0x3f998752	1.1994421
9	0x3f9f7854	1.2458596
10	0x3fb7b678	1.435256
11	0x3fbcfd42	1.4764788
12	0x3fe7b3f2	1.810179
13	0x3fb1c34d	1.3887726
14	0x3f728d3a	0.94746745
15	0x3fb77f1f	1.4335669
16	0x3fda8fbe	1.7075117
17	0x3f78db82	0.9720994
18	0x3df7dcda	0.12102671
19	0x3f65de98	0.89792776
20	0x3fc81d59	1.5633956
21	0x3f82fb8b	1.0233015
22	0x3fc96090	1.5732594
23	0x3f163cbd	0.5868643
24	0x3f8a49cb	1.080377
25	0x3fdc3b30	1.7205563
26	0x3fd0f0af	1.6323451
27	0x3fafbaf9	1.3728935
28	0x3f9831ad	1.189016
29	0x3f6f970e	0.93589866
30	0x3eb641f6	0.355972
31	0x3fded141	1.7407609
32	0x3f78f796	0.97252786
33	0x3f497304	0.78691125
34	0x3fb21cef	1.391508
35	0x3fba76bc	1.4567485
36	0x3fd21257	1.6411847
37	0x3f669b54	0.9008076
38	0x3f83881f	1.0275916
39	0x3f855cff	1.0419005
40	0x3f5f530a	0.8723608
41	0x3f92337a	1.1421959
42	0x3fc114c4	1.5084462
43	0x3f416390	0.75542545
44	0x3f53cd98	0.82735586
45	0x3eeb309c	0.45935524
46	0x3fae2267	1.3604249
47	0x3fb0b49d	1.3805119
48	0x3f83cdee	1.029722
49	0x3f844b1b	1.033542
50	0x3e12aa81	0.14322855
51	0x3eea0249	0.45704868
52	0x3f7ef9a0	0.9959965
53	0x3fe922e2	1.821377
54	0x3f3a39c9	0.72744423
55	0x3fe11b91	1.7586538
56	0x3f400529	0.75007874
57	0x3f5d9cb7	0.8656725
58	0x3f920782	1.1408541
59	0x3f5bbe17	0.8583693
60	0x3fb4b91d	1.4118992
61	0x3f81b641	1.0133744
62	0x3fb2860a	1.3947155
63	0x3f9ae864	1.210217
