unet/checkpoints/one_loss/epoch_52.pth (torch, 508787 bytes, 85 tensors)

weight f4 [8, 1, 3]
0	0x3f2f195b	0.68398064
1	0xbcc67a00	-0.024228096
2	0x403012c9	2.7511466
3	0x3f05ae43	0.5221903
4	0xc048852e	-3.1331286
5	0xbf0a285a	-0.5396782
6	0xbf918a30	-1.1370296
7	0x3fbcf89c	1.476337
8	0x3f35f77f	0.71080774
9	0xc065336c	-3.5812635
10	0xbebea528	-0.3723538
11	0x3f1fae3b	0.6237523
12	0x3f5261e5	0.82180625
13	0xc00c8572	-2.1956449
14	0xbe0a809e	-0.13525626
15	0x3f31a72e	0.6939572
16	0x405ceed8	3.4520779
17	0xbea77a50	-0.32710505
18	0xbfbc21d3	-1.4697822
19	0x3f21cdc1	0.6320458
20	0xbfce244b	-1.6104826
21	0x40301c15	2.751714
22	0x3da8f514	0.0824987
23	0xbf42f1fd	-0.76150495

bias f4 [8]
0	0x3e213f41	0.15746786
1	0xbce1f227	-0.027581288
2	0x3c75db50	0.015005901
3	0x3eeafb00	0.45894623
4	0xbe2d8f19	-0.16949119
5	0x3e0b48af	0.13601945
6	0xbeaf203e	-0.34204286
7	0x3dd7c163	0.105349325

weight f4 [8]
0	0x3f937b9f	1.1522101
1	0x3fe6d571	1.8033887
2	0x3fef739f	1.870716
3	0x3fe15007	1.7602547
4	0x3eb14ea0	0.346303
5	0x40299dc5	2.6502545
6	0x3f7adcd2	0.97993195
7	0x4000dcc2	2.013474

bias f4 [8]
0	0xbfc4657d	-1.5343472
1	0x3eb3c0c8	0.35108018
2	0x3fb5c5a4	1.420094
3	0x3fd11cb2	1.6336882
4	0x3f9c0cf9	1.2191459
5	0xbd6c2dcf	-0.057660874
6	0xbf0e9280	-0.5569229
7	0xbdae93c0	-0.08524275

running_mean f4 [8]
0	0x3ef1cdcb	0.4722732
1	0xbd5cc985	-0.05390312
2	0x3d1386a7	0.036017086
3	0x3eb511ef	0.35365245
4	0xbe106548	-0.14101136
5	0x3e08b6b2	0.13350943
6	0xbf135562	-0.5755216
7	0x3e21177e	0.15731618

running_var f4 [8]
0	0x49232758	668277.5
1	0x491760c6	620044.4
2	0x47bee2a8	97733.31
3	0x49295a0e	693664.9
4	0x481f14d9	162899.39
5	0x49587f21	886770.06
6	0x48a595c1	339118.03
7	0x48975171	309899.53

weight f4 [16, 8, 3]
0	0x3f0bcd9f	0.5461063
1	0xbf532b7e	-0.8248824
2	0xc04fc988	-3.2466755
3	0x3fab3d25	1.3378035
4	0x3f907121	1.1284524
5	0xbf5fc63f	-0.87411875
6	0xbf65ddfd	-0.8979185
7	0x3f425dca	0.7592436
8	0x3f44ef0e	0.7692727
9	0x3fb3d1af	1.4048365
10	0x40357cc5	2.8357403
11	0x3f394390	0.7236872
12	0x3f82e677	1.0226582
13	0x3f8711f2	1.0552351
14	0xbfa24ee7	-1.2680329
15	0xc01ef5ad	-2.4837449
16	0xbfa7201d	-1.3056675
17	0xbd828f79	-0.063750215
18	0x3f2560a4	0.64600587
19	0xbf8b3cda	-1.0877945
20	0x3f768895	0.9630216
21	0x3f03f669	0.5154787
22	0xbf68c078	-0.90918684
23	0xbf18abda	-0.59637225
24	0x3f66389f	0.89930147
25	0x3f97ad3a	1.184974
26	0xbee5fd84	-0.4491998
27	0x3e8d7f2d	0.2763609
28	0x3f658e07	0.8966984
29	0xbf124218	-0.571321
30	0x3f811815	1.0085474
31	0x3f103077	0.5632395
32	0x3f0541b3	0.52053374
33	0xbfdf9a70	-1.7469006
34	0x3e37539c	0.17902988
35	0x3f4c8890	0.7989588
36	0x3e88d5a1	0.26725486
37	0x3f723242	0.9460794
38	0xbf20a946	-0.6275829
39	0x40664e84	3.5985422
40	0x3fce1dd1	1.6102849
41	0x3fc809e2	1.5628016
42	0x3e6c27aa	0.23062006
43	0xbeba8bc0	-0.36434746
44	0x3edf9ab8	0.4367273
45	0x3ddcbe1c	0.10778448
46	0x3ff05e5d	1.8778797
47	0x3f27b81b	0.655153
48	0xbfca1836	-1.5788639
49	0x3eb129a3	0.3460208
50	0xbfd74333	-1.6817383
51	0x3e588642	0.21144965
52	0x3f3061d3	0.6889927
53	0x3da0e8b1	0.07856882
54	0xbf4c9ca8	-0.7992654
55	0xbf99874f	-1.1994418
56	0x3f3a7bc6	0.72845113
57	0xc03bef76	-2.9364905
58	0x3dd1782a	0.102279976
59	0x3f530d9d	0.8244265
60	0x3f6bdb8d	0.9213188
61	0x3f67f20d	0.90603715
62	0xbcf84cec	-0.030310117
63	0x3f387a3a	0.720615
64	0xbfbaa4ae	-1.4581506
65	0x3bee74f2	0.0072771246
66	0xbf8dc53d	-1.1075817
67	0x3e909c29	0.2824414
68	0x3f8f0ab9	1.1175147
69	0x3f9eff13	1.2421592
70	0x3d62f432	0.055408664
71	0xc0028c4f	-2.0398138
72	0x40114116	2.2695975
73	0x3f4cbfd1	0.7998019
74	0x3c668b3c	0.014071282
75	0x4014f7ed	2.3276322
76	0x401bd8d4	2.4351091
77	0x3efee249	0.49782017
78	0xbe369b14	-0.17832595
79	0x3e98a3e8	0.2981255
80	0xbfa59aee	-1.2937906
81	0x3f158f56	0.5842184
82	0x4018dc42	2.3884435
83	0x3f2e4b9f	0.6808414
84	0x3f613bd3	0.8798191
85	0x3fbd8e6a	1.4809086
86	0x3db90bd4	0.09035459
87	0xbf87f3e0	-1.06213
88	0x3e897237	0.26844952
89	0xc00d302e	-2.2060657
90	0x3cf0fd84	0.02941776
91	0x3fb118a8	1.383565
92	0x3d1abfdd	0.03778063
93	0xbea21909	-0.31659725
94	0xbfb80f49	-1.4379665
95	0x3f42bc3c	0.7606847
96	0x3fd0907f	1.6294097
97	0xbfb5e0db	-1.4209245
98	0xbfb41f36	-1.4072025
99	0xbf5b3df9	-0.8564144
100	0xbfd12fea	-1.6342747
101	0xbf46249b	-0.77399606
102	0xbed79887	-0.42108557
103	0xbfa15311	-1.2603475
104	0xbffe1620	-1.9850502
105	0xbfaacf56	-1.3344524
106	0xbf1bec8d	-0.6090782
107	0xbec12e3d	-0.3773059
108	0xbd42bc8a	-0.047543086
109	0xbf494f84	-0.78636956
110	0xbef3bd14	-0.47605193
111	0x3fa73f6e	1.3066232
112	0x3e9b1016	0.3028571
113	0xbf722962	-0.94594395
114	0x3d0083b6	0.03137561
115	0xbfd0d1c4	-1.6314015
116	0xbf954838	-1.1662664
117	0x3ffe0056	1.9843853
118	0x3f8aebf0	1.0853252
119	0x3e7d44de	0.24733302
120	0x3fe56cf5	1.7923876
121	0xbe867ffa	-0.26269513
122	0xbfc40968	-1.531537
123	0x400823a9	2.1271765
124	0x3fc6ac84	1.5521398
125	0x401d9e3f	2.4627836
126	0x3ec24064	0.3793975
127	0xbef04531	-0.4692779
128	0xbfbea06c	-1.4892707
129	0x3edecc91	0.43515447
130	0x3fbc7332	1.4722655
131	0x3f5aa782	0.85411847
132	0x3f991134	1.1958375
133	0x3f68690c	0.9078529
134	0x3fb33f60	1.4003716
135	0xbedbab45	-0.42904106
136	0x3e772446	0.24134931
137	0xbf8d23df	-1.1026572
138	0x3cb74641	0.022372367
139	0x3fa32bc6	1.2747734
140	0x3e3ce5f5	0.18447097
141	0x3f3c995c	0.7367151
142	0x3f2a6e9b	0.6657502
143	0x3f64111a	0.89088595
144	0x3f816c70	1.0111217
145	0xbddb3835	-0.1070408
146	0x3f991e45	1.1962363
147	0xc03ee7e6	-2.982904
148	0x3f5121f3	0.8169243
149	0xbc787da2	-0.015166672
150	0xbfefa1a2	-1.8721201
151	0xbf65d2bf	-0.897747
152	0x3d843eb2	0.06457271
153	0xbf87e8c1	-1.0617906
154	0xbff76334	-1.9327149
155	0x3f07cdc6	0.5304836
156	0xc012df0e	-2.2948642
157	0x3f08aec5	0.5339168
158	0x3e8b92fa	0.27260572
159	0xbe2428e9	-0.16031231
160	0xbedfeed1	-0.4373689
161	0xbeb06769	-0.34453896
162	0x3e8cacd5	0.2747561
163	0x3f3c68a6	0.7359718
164	0xbfbbdad3	-1.4676155
165	0x3f3eb96e	0.74501693
166	0xbfd19820	-1.637455
167	0xbf8aa3e4	-1.0831265
168	0x3f8fbdfb	1.1229852
169	0x3f1e5d82	0.6186143
170	0x3f1376ce	0.57603157
171	0x3e724ac0	0.23661327
172	0xc000fec5	-2.01555
173	0x3e87beb3	0.2651268
174	0xbee9cd22	-0.45664316
175	0x3fc91648	1.5709925
176	0xc02514a5	-2.579385
177	0xbea402c7	-0.3203337
178	0x3f7665e2	0.9624921
179	0xbf7b20be	-0.98096836
180	0x3f0ef454	0.55841565
181	0xbfd95de2	-1.6981776
182	0xbec3aa1e	-0.38215727
183	0x3fc770af	1.5581263
184	0x3fa563ed	1.292112
185	0xbe9b1c2b	-0.30294928
186	0xc0095934	-2.1460695
187	0x3f84468e	1.0334032
188	0x3eaa1357	0.3321788
189	0x3f06bcd6	0.5263189
190	0x3f8b8927	1.090123
191	0x3d8c9fb6	0.068664
192	0x3f96fdc2	1.1796191
193	0xbfec9e10	-1.8485737
194	0x3f9c4bda	1.2210648
195	0xbf1c7b62	-0.6112577
196	0x3f339652	0.70151246
197	0x3ef2ae48	0.4739859
198	0xbf7caf71	-0.987052
199	0xc049a2c5	-3.1505597
200	0xbe42afd5	-0.19012387
201	0xc009439a	-2.144751
202	0xbe7cb7d6	-0.24679503
203	0x3dd4f848	0.103989184
204	0xbe35e366	-0.17762527
205	0x3e387bd3	0.18015985
206	0x3f687dbb	0.9081685
207	0xbe81e380	-0.2536888
208	0xbf0dcae4	-0.5538771
209	0xc0510fe5	-3.2665951
210	0xbfa32b17	-1.2747525
211	0xbf9380ed	-1.152372
212	0x3f089c52	0.53363526
213	0x3fa5df29	1.2958728
214	0xbe9689e6	-0.29402083
215	0x3ebed029	0.3726819
216	0xc01655bc	-2.3489828
217	0xbf26b825	-0.6512473
218	0xbf283113	-0.6569988
219	0x3dae0604	0.08497241
220	0xbe98a347	-0.2981207
221	0x40259cdc	2.587699
222	0xbef76e8e	-0.48326534
223	0xbef7e3e4	-0.48416054
224	0xbffa5c7c	-1.9559474
225	0xbfdaa296	-1.7080867
226	0x3f024b33	0.50895995
227	0xbf456996	-0.77114236
228	0x3e4c21b9	0.19934739
229	0x3db64f3d	0.08901832
230	0x4036797e	2.8511653
231	0x3d44b2f6	0.048022233
232	0xbfbe2b2a	-1.4856923
233	0xc0002eea	-2.0028634
234	0xbfce9e4e	-1.6142061
235	0x3f9748fc	1.1819148
236	0xbe902ae9	-0.28157738
237	0x3f733aa2	0.9501134
238	0x3f04c2ca	0.51859725
239	0xbea630a4	-0.32458985
240	0x3dba5919	0.09099025
241	0x3e953229	0.29139832
242	0xbe5f1863	-0.21786647
243	0x3ffbef94	1.9682488
244	0x3fc8a300	1.5674744
245	0x400b71f4	2.1788301
246	0x3d822d79	0.063563295
247	0xbe2b0d3b	-0.16704266
248	0xbf78ea16	-0.97232187
249	0x3ed8e137	0.42359325
250	0x3fd23411	1.642214
251	0x3f8d40c3	1.1035389
252	0x3fbf484f	1.4943942
253	0x3f088d2f	0.5334043
254	0x3fda37df	1.70483
255	0xbe5f0b41	-0.21781637

bias f4 [16]
0	0xbd306199	-0.043061826
1	0x3fe5daf6	1.7957447
2	0x3e8670af	0.26257846
3	0x3e2b2dc8	0.16716683
4	0x3f37df4e	0.7182511
5	0x3f66db47	0.9017834
6	0x3f6ce3bb	0.9253499
7	0xbf069b8a	-0.52581084
8	0xbf572dcb	-0.8405425
9	0xbe90ef9a	-0.283078
10	0x3e0aa14b	0.13538091
11	0x3ec9646d	0.3933443
12	0x3e135a3a	0.14389887
13	0x400c3f55	2.1913655
14	0x402bf3d6	2.6867576
15	0x3f836538	1.0265265

weight f4 [16]
0	0x3fa386c4	1.2775502
1	0x3fdcf98f	1.7263659
2	0x3f866398	1.0499144
3	0x3fc8288c	1.5637374
4	0x3fdfc3ab	1.7481588
5	0x3f86fc59	1.054576
6	0x3f4e1562	0.8050138
7	0x3f55a270	0.83450985
8	0x3f956e81	1.1674348
9	0x3f7bb48c	0.9832237
10	0x3f6c9f2a	0.92430365
11	0x3fde8343	1.7383808
12	0x3fdb70f0	1.7143841
13	0x3ff7e18d	1.9365708
14	0x3fadc402	1.3575442
15	0x3fb8d781	1.4440767

bias f4 [16]
0	0x3fa31535	1.2740847
1	0xbfa7f592	-1.3121817
2	0x3eaefc7d	0.34177008
3	0x3e1bff7b	0.15234177
4	0x3f16a046	0.5883831
5	0x3e5a2bfb	0.2130584
6	0x3ea31272	0.3185001
7	0x3fd84bd0	1.6898136
8	0x40472d06	3.112123
9	0x3f5c8b3d	0.8614996
10	0xbe54ce80	-0.20781898
11	0xbeb64243	-0.3559743
12	0xbea963f4	-0.3308407
13	0x3f226bb9	0.6344562
14	0x3eb6aaac	0.35677087
15	0x3f5e6ce1	0.86884886

running_mean f4 [16]
0	0x40f6cc39	7.7124295
1	0x41567180	13.40271
2	0xc072c279	-3.7931197
3	0x4111428f	9.07875
4	0xc137d35e	-11.489103
5	0x4154dfb4	13.304615
6	0xc15e1dae	-13.882246
7	0xc04530bd	-3.0810997
8	0xc15b00cc	-13.687695
9	0xc0b4d543	-5.651033
10	0x413fa27f	11.977172
11	0x412dfef0	10.874741
12	0x4081a4d2	4.0513697
13	0x4102e623	8.181186
14	0xc04907cb	-3.1411006
15	0x40b912f1	5.783562

running_var f4 [16]
0	0x435ef2e5	222.9488
1	0x437b30ec	251.1911
2	0x4232b57a	44.677223
3	0x438883af	273.02878
4	0x42989b8a	76.30379
5	0x43315a9f	177.35399
6	0x4216378a	37.554237
7	0x42779f16	61.905357
8	0x42c6ed19	99.46308
9	0x42c45876	98.172775
10	0x435c406f	220.2517
11	0x42d2a17c	105.3154
12	0x43afc8c1	351.5684
13	0x42bf9582	95.79201
14	0x42166e2a	37.607582
15	0x43c7f4ed	399.91348

weight f4 [16, 16, 3]
0	0xc010ef0c	-2.2645903
1	0x3e1fac98	0.15593183
2	0xbd6bf360	-0.057605147
3	0x3fb344eb	1.4005407
4	0x3f82842a	1.0196583
5	0xbf557fad	-0.8339794
6	0xc010d177	-2.2627847
7	0xbfb5dc26	-1.4207809
8	0xbf85db94	-1.0457635
9	0xbe35c94c	-0.1775257
10	0xbdb6cb72	-0.08925523
11	0xbd8679d7	-0.06566208
12	0xbcf38bb0	-0.029729694
13	0x3f7fe62e	0.999606
14	0x3f9c4446	1.2208335
15	0x3b56a343	0.003275112
16	0xbf880674	-1.0626969
17	0xbe90f4a4	-0.28311646
18	0xbf078b20	-0.5294666
19	0xbebcbd78	-0.36863303
20	0x3f5040a8	0.8134866
21	0x3e9d7072	0.3074985
22	0x3f3b9a98	0.73282766
23	0xbf867a1e	-1.0506017
24	0xbf4804dd	-0.7813242
25	0x3f102900	0.5631256
26	0x40168ab9	2.352217
27	0xbe417dbb	-0.18895619
28	0x3dd2a17e	0.102847084
29	0x3e99adda	0.3001545
30	0xbd95d2f5	-0.073156275
31	0xbf46f93c	-0.7772405
32	0xbee51860	-0.4474516
33	0xbf3604cf	-0.7110109
34	0xbf1fe183	-0.6245348
35	0xc007f8a8	-2.1245518
36	0x3fd3bc49	1.6541835
37	0x3fc303ef	1.5235575
38	0xbec4ca63	-0.3843566
39	0xbee34e20	-0.44395542
40	0xbfb9c696	-1.4513729
41	0xc02a4555	-2.6604817
42	0xbfd64f45	-1.6742941
43	0x3e89802b	0.26855597
44	0xbeba04a8	-0.36331677
45	0xbe3d25af	-0.18471406
46	0x3f3d4f1f	0.73948854
47	0x3f0808d6	0.5313848
48	0xc01df78a	-2.4682336
49	0x3e2f9bac	0.17149228
50	0x3f55c26f	0.8349981
51	0xbfbc4125	-1.470738
52	0xbf2bb80e	-0.6707772
53	0x3eae27ba	0.34014684
54	0xbfb9fcc2	-1.453026
55	0x3f2872d1	0.65800196
56	0xbecb17d8	-0.3966663
57	0xbeecca04	-0.46247876
58	0x3f06ff27	0.5273308
59	0x3f8ed824	1.1159711
60	0x404898e5	3.134332
61	0x3eadc69c	0.3394059
62	0xbe9818e2	-0.29706484
63	0xbca99d8d	-0.020705009
64	0x3f1d239a	0.6138245
65	0x3f34ba3f	0.7059669
66	0x3d7512f0	0.059832513
67	0x3f026c14	0.50946164
68	0x3e81dce4	0.2536384
69	0xbef53b30	-0.4789672
70	0xbf8ec4af	-1.1153773
71	0xbfdd95bc	-1.731132
72	0xbf874de4	-1.0570645
73	0x3f49f750	0.78892994
74	0xbfaff994	-1.374804
75	0xbf15647c	-0.5835645
76	0x3f60091b	0.87513894
77	0xc00838ec	-2.1284742
78	0xbdf34d96	-0.11880033
79	0x3f28c411	0.65924174
80	0x3f331ee5	0.69969016
81	0xbf74febb	-0.9570119
82	0x3f81f63d	1.0153271
83	0xbf33afae	-0.7018994
84	0x3f992e78	1.1967306
85	0xbd0d96e9	-0.034567747
86	0xbe4ef3cd	-0.2021019
87	0xc08aca17	-4.337169
88	0xbeacbb5a	-0.33736688
89	0xbf22dbf7	-0.6361689
90	0xc043d43e	-3.0598292
91	0xbec239bf	-0.37934682
92	0xbfed01eb	-1.851621
93	0xbefd9288	-0.49525857
94	0x3f96b7a9	1.1774799
95	0x3ecd5e42	0.40110976
96	0xbfd1dbc1	-1.6395189
97	0xc00841ef	-2.1290243
98	0xbf8b38c1	-1.0876695
99	0x4040df44	3.013627
100	0x3f3ecf3f	0.7453498
101	0xbfc8dbbd	-1.5692059
102	0xbfae1e49	-1.3602992
103	0x3f698076	0.9121164
104	0xbf3ad8f7	-0.7298731
105	0xbfa2dd90	-1.2723866
106	0xbfa9d446	-1.3267906
107	0xbf17c03c	-0.592777
108	0x3e90305d	0.28161898
109	0x3f02e49d	0.51130086
110	0x3f960be5	1.172238
111	0x3c98601a	0.018600512
112	0xbf95a421	-1.1690713
113	0xbc3f5f42	-0.011680426
114	0xbfe8249f	-1.8136176
115	0x3f8667a3	1.0500377
116	0x3d964db0	0.073390365
117	0x3f2451a4	0.64187074
118	0x3f9c73a7	1.2222794
119	0x3f3d51ca	0.73952925
120	0xbffc1639	-1.9694282
121	0x3f146c80	0.5797806
122	0x3f727a2c	0.9471767
123	0xbff7ffca	-1.9374936
124	0xbfca607f	-1.5810698
125	0x3edef728	0.4354794
126	0x3e9a65ca	0.30155784
127	0xbf0652c4	-0.5247004
128	0x3dd97e85	0.10619835
129	0xbf2a6704	-0.6656344
130	0x3f8410f9	1.031768
131	0xc0082ca1	-2.127724
132	0x4001a248	2.0255299
133	0x3fc31081	1.5239412
134	0xbf77183b	-0.9652135
135	0x3ec12231	0.37721398
136	0xbdaf8f67	-0.08572274
137	0xbf0d0de1	-0.550993
138	0x3ecc878b	0.3994716
139	0x3e45bdd6	0.19310698
140	0xbef0f5c3	-0.470625
141	0xbfb4c769	-1.4123355
142	0xbfaf407d	-1.3691555
143	0xbf93715d	-1.1518971
144	0xbe31cb98	-0.17362821
145	0xbed67e2a	-0.4189313
146	0x3f5c69b8	0.86098814
147	0xbfbe364a	-1.4860318
148	0x3f03f48a	0.5154501
149	0x3f76c975	0.9640115
150	0x3e920c20	0.28524876
151	0xbefc924c	-0.49330366
152	0xbfffe09a	-1.9990418
153	0xbf0f011c	-0.5586107
154	0x3ec2a4c6	0.38016337
155	0x3ec9eacb	0.39436945
156	0x3f106307	0.56401104
157	0x3ed3eeb5	0.41393057
158	0xbf2d148f	-0.67609495
159	0xbe5a7757	-0.21334587
160	0x3f8c5801	1.0964357
161	0x3ec531f4	0.38514674
162	0x3f9bb493	1.2164482
163	0xbf3e1d97	-0.742639
164	0xbf42260f	-0.7583932
165	0xbed32a13	-0.41243038
166	0xbf63a2b5	-0.88920146
167	0xbb2373eb	-0.0024940919
168	0x3fb9b701	1.4508973
169	0x3f494d2f	0.786334
170	0xc0927197	-4.576366
171	0x3fb0bf34	1.380835
172	0x3eee206a	0.46509105
173	0xbfd1b391	-1.6382924
174	0xbf0b00d7	-0.54298156
175	0x3f970ae2	1.1800196
176	0x3e9a5918	0.30146098
177	0x3f1c8a9f	0.6114902
178	0x3f01eafc	0.5074918
179	0xbe10eeb7	-0.14153562
180	0xbfe33ccd	-1.775293
181	0x3e40535f	0.18781804
182	0x3f9cfa6e	1.2263925
183	0x3e66f361	0.22553779
184	0x3ecb2292	0.39674813
185	0x401d1fee	2.4550738
186	0xbf89a117	-1.0752286
187	0xbf7c4b69	-0.98552567
188	0xc01c86a9	-2.445719
189	0x3f4bb0a0	0.79566383
190	0x3f2c83d7	0.6738867
191	0x3e901139	0.2813814
192	0x3f1ff30d	0.6248024
193	0x3f7b71c4	0.9822047
194	0xbede758b	-0.43449053
195	0xbf3a2933	-0.72719115
196	0xbfc97c90	-1.5741138
197	0xbf4743f0	-0.7783804
198	0xc002a2a4	-2.0411768
199	0x3e3b8da2	0.18315747
200	0xbf8f462f	-1.1193293
201	0x3fa1a235	1.2627627
202	0x3f7a3162	0.977316
203	0xbfee387f	-1.8610991
204	0x3f090a2a	0.53531134
205	0xbd40c81b	-0.047065835
206	0x3e1671b1	0.14691807
207	0x3fad11c5	1.3521048
208	0x3f687d21	0.9081593
209	0xbfd1130f	-1.6333941
210	0xbfabc2e3	-1.341885
211	0x3f9cef83	1.2260593
212	0x3e83528e	0.25648922
213	0xbf397a3f	-0.7245216
214	0xbf993cb4	-1.197165
215	0xbf5f0466	-0.87116086
216	0xbfa25a66	-1.2683837
217	0xbd3df5d7	-0.04637703
218	0xbf8d73c5	-1.1050955
219	0xbd51bbd5	-0.05120452
220	0xbe697e10	-0.22801995
221	0xc00b1a69	-2.173487
222	0x3fab49fa	1.3381951
223	0x3ed31a67	0.4123108
224	0xbfd1be4d	-1.63862
225	0x3fc1d368	1.5142641
226	0x3e6f5f78	0.23376262
227	0xc00dcf35	-2.215772
228	0x3c989b36	0.018628698
229	0xbfba2197	-1.4541501
230	0xbf761748	-0.96129274
231	0xbfb90e99	-1.445758
232	0xbf03d506	-0.5149692
233	0x3e29eabd	0.16593452
234	0xbf6eb02b	-0.9323756
235	0xc018019e	-2.3750987
236	0xbd85da4e	-0.06535779
237	0x3f48b6b2	0.7840377
238	0x3f3ddb56	0.74162805
239	0xbfa69039	-1.3012763
240	0xbfbece3d	-1.4906689
241	0x3ebccb8f	0.36874053
242	0x3fa1f8ce	1.2654054
243	0x3fd63105	1.673371
244	0x3f5851c1	0.84499747
245	0xbfbaf82b	-1.4606985
246	0x3f6d5182	0.92702496
247	0xbe15590a	-0.14584747
248	0xbd068c09	-0.03284839
249	0xbf162186	-0.586449
250	0x3fbfd96c	1.4988227
251	0x40126374	2.2873201
252	0x3fb79358	1.4341841
253	0x3f016820	0.5054951
254	0xbdb0332d	-0.08603511
255	0xbf3250f5	-0.6965478

bias f4 [16]
0	0x3ee01aa8	0.43770337
1	0xbd59c628	-0.053167492
2	0xbecbb980	-0.39789963
3	0xbe8f4c90	-0.279881
4	0x3fa5aa7b	1.2942652
5	0x3f91ad86	1.138108
6	0xbe519718	-0.20467794
7	0x3ee0b9e1	0.43891814
8	0x3f4620e5	0.77393943
9	0x3feb9fd0	1.8408146
10	0xbff34f7b	-1.900863
11	0xbf3c68d3	-0.7359745
12	0x3f29e77e	0.66368854
13	0xbed6de1e	-0.41966337
14	0xbfda0955	-1.7034098
15	0xbfa90ec4	-1.3207631

weight f4 [16]
0	0x3fa364cc	1.2765136
1	0x400a8b9d	2.1647713
2	0x40071c56	2.1111045
3	0x3fbd92c0	1.481041
4	0x400a08bd	2.1567833
5	0x3ff7f51c	1.9371676
6	0x3fd11cbe	1.6336896
7	0x3f310e72	0.69162667
8	0x3fbf2fee	1.4936502
9	0x3fc6271a	1.5480683
10	0x3ff0eb7e	1.8821867
11	0x400cd78c	2.200656
12	0x3fe51d9a	1.7899659
13	0x400e802c	2.226573
14	0x3ffff8ca	1.9997799
15	0x3fbe3b1c	1.4861789

bias f4 [16]
0	0x3fce7e00	1.6132202
1	0xbd58271a	-0.052771665
2	0x3e90a543	0.28251085
3	0xbeb0b281	-0.34511188
4	0x3f051a99	0.5199371
5	0x3f4cc760	0.7999172
6	0x3e7e3304	0.24824148
7	0x3fb977ac	1.4489646
8	0x3ebcc3e4	0.36868203
9	0x3f4e5981	0.8060532
10	0x3dbc25ff	0.09186935
11	0x3ec6c29c	0.3882035
12	0xbe40bae6	-0.18821296
13	0xbf405302	-0.7512666
14	0x3eeab7ac	0.45843256
15	0xbf834ee1	-1.0258447

running_mean f4 [16]
0	0xc0aaad38	-5.333645
1	0xc1b9db12	-23.231968
2	0xc165c17b	-14.359736
3	0xc10d1200	-8.816895
4	0xc1b942ad	-23.157557
5	0x419f6ca4	19.928047
6	0xc2473548	-49.802032
7	0xc19ff5f0	-19.995087
8	0xc16aaa83	-14.666629
9	0x41767609	15.403817
10	0xc1268891	-10.408341
11	0x419df98c	19.74685
12	0xc12b29fc	-10.69775
13	0xc0fc3eb9	-7.8826566
14	0x4105e5b8	8.368584
15	0xc2174b79	-37.823704

running_var f4 [16]
0	0x43246da0	164.42822
1	0x42fffc96	127.99333
2	0x4414ea8a	595.6647
3	0x4320cc5a	160.79825
4	0x431f84e7	159.51915
5	0x43a0f7c2	321.9356
6	0x44122684	584.6018
7	0x439587e8	299.06177
8	0x43f811d1	496.1392
9	0x4338d0e8	184.81604
10	0x4336b010	182.68774
11	0x438d3745	282.4318
12	0x43880011	272.00052
13	0x432f2211	175.13307
14	0x431f2ebc	159.18256
15	0x42e87dc4	116.245636

weight f4 [32, 16, 3]
0	0xbee00efe	-0.43761438
1	0xbf874fb9	-1.0571204
2	0xbe6149d2	-0.22000816
3	0x3f506e3b	0.814182
4	0x3eac43cc	0.33645475
5	0xc0123392	-2.2843976
6	0x3f74b25d	0.9558466
7	0xbf4b77ab	-0.79479474
8	0x3f283e31	0.65719897
9	0xbe5808b8	-0.21097076
10	0x3ebbc33a	0.36672384
11	0xbfcaeb97	-1.5853146
12	0xc025c335	-2.5900395
13	0xbf6316d8	-0.8870673
14	0xbeb72d36	-0.3577668
15	0xbf81441c	-1.009891
16	0xbf6ade92	-0.91745865
17	0xbfbbb19e	-1.466358
18	0x3e3ea182	0.18616298
19	0xbf96511b	-1.1743501
20	0xbe00ae3a	-0.12566462
21	0xbf4e940b	-0.80694646
22	0x3eb8ba47	0.36079618
23	0xbf12ee54	-0.5739491
24	0xbdd49b42	-0.103811756
25	0xbdb9d747	-0.09074264
26	0xbeb27524	-0.34854996
27	0x3eac7277	0.3368108
28	0xbf8f931d	-1.121677
29	0xc0377e44	-2.8670816
30	0xc02d757d	-2.710296
31	0x3ecef769	0.40423134
32	0xbf50f4f2	-0.81623757
33	0xbf831e18	-1.0243559
34	0xc01bc13b	-2.4336689
35	0xc0394da6	-2.8953643
36	0xbfc5bdde	-1.5448568
37	0xbfdeaa20	-1.7395668
38	0xbfd75f55	-1.6825968
39	0xbf243bf0	-0.6415396
40	0xbff1c521	-1.8888284
41	0x3e82217a	0.25416166
42	0xbf3b6942	-0.73207486
43	0xbf0debcf	-0.5543794
44	0x3efe42d8	0.49660373
45	0xbf1e24fa	-0.6177517
46	0x3e9a43ba	0.30129796
47	0xbc08bde6	-0.008346057
48	0xbf267691	-0.6502467
49	0x3cd7aa5f	0.026326356
50	0x3e89d26e	0.26918358
51	0xbfc32ad0	-1.524744
52	0x3f665d53	0.8998615
53	0x3eff22cb	0.49831232
54	0xbf29ea27	-0.66372913
55	0xbf259e66	-0.6469482
56	0x3db21e4a	0.086971834
57	0xbf456624	-0.7710898
58	0xbc05600f	-0.008140578
59	0x3f518dbd	0.818569
60	0xbf851bc9	-1.0399104
61	0xbfd9319b	-1.6968263
62	0x3f2cedee	0.6755055
63	0xbebee977	-0.37287495
64	0x3e4fe82f	0.20303415
65	0x3fd40b84	1.6566014
66	0x3f12c063	0.5732481
67	0x3e7e63ed	0.24842806
68	0x3f79cbf7	0.9757685
69	0x3f53adad	0.82686883
70	0x3f65e4f2	0.8980247
71	0x3f2e7e11	0.6816111
72	0x3deea1eb	0.11651977
73	0x3fc38ac5	1.5276724
74	0x3f677be6	0.9042343
75	0xbf9aa1d4	-1.2080636
76	0x3eba94e8	0.3644173
77	0xbec9c1db	-0.39405712
78	0xbf214ae0	-0.63004875
79	0x3f507ec4	0.8144343
80	0xbe3dc1cb	-0.18530957
81	0xbfeb0467	-1.8360718
82	0xbef54035	-0.4790055
83	0xbee739c1	-0.4516125
84	0x3f0f65fc	0.5601499
85	0x3f54ce2c	0.83127093
86	0x402d556b	2.7083385
87	0x3ee69b26	0.45040244
88	0x3fb24004	1.3925786
89	0x404b9a32	3.1812863
90	0xbf880198	-1.0625486
91	0xbe3414f2	-0.17586115
92	0x3e40d896	0.18832621
93	0xc01e02ec	-2.4689283
94	0xbeb9131c	-0.36147392
95	0x3fa31703	1.2741398
96	0xbf0c04ff	-0.54695123
97	0xbf833ee9	-1.0253574
98	0xbfca52b4	-1.5806489
99	0xbfd46818	-1.6594267
100	0x3e0f05c0	0.13967037
101	0x3fc3312e	1.5249383
102	0xbf6a0eaa	-0.91428626
103	0xbfdd8920	-1.7307472
104	0xbf71577e	-0.9427413
105	0xbfcf2454	-1.6182961
106	0x3e68a4ad	0.22719069
107	0xbc9e9ae0	-0.01936096
108	0xbf3b5225	-0.7317222
109	0xbfb4ee5f	-1.4135245
110	0xbfc441c6	-1.5332572
111	0xbfeb4431	-1.8380185
112	0xbe6dd2e0	-0.23224974
113	0x3fa1df64	1.2646298
114	0x3e94dd3b	0.29075035
115	0xbdc6c617	-0.097057514
116	0x3e040b33	0.12894897
117	0x3faef164	1.3667417
118	0x3f65499a	0.8956543
119	0x3eafbf77	0.34325764
120	0x3f61ae98	0.88157034
121	0x3f93cf75	1.1547686
122	0xbe5985b9	-0.21242417
123	0xbf8980ce	-1.0742433
124	0xbffbcf31	-1.9672605
125	0x3e85e3e5	0.26150432
126	0xbf56a2df	-0.8384227
127	0x3fb5d3c2	1.4205248
128	0x3df51dd9	0.119685836
129	0xc00da681	-2.2132876
130	0xbfbfa723	-1.4972881
131	0xbf3993f1	-0.72491366
132	0xbf0af8d8	-0.54285955
133	0x3f760829	0.961062
134	0x3fcdb799	1.6071655
135	0xbc80e04e	-0.015731957
136	0x3f122b71	0.57097536
137	0x3ffaa680	1.9582062
138	0xbf798cc1	-0.974804
139	0xc00185d2	-2.0237927
140	0x3f4b9d60	0.7953701
141	0xbfbc687d	-1.4719387
142	0xbf9d15be	-1.227226
143	0x3f63e286	0.8901752
144	0x3fddf6ee	1.7340982
145	0x3f094414	0.53619504
146	0xc007eaa0	-2.1236954
147	0xbec0b3d2	-0.37637192
148	0xbee7893f	-0.45221898
149	0x3f891c29	1.0711719
150	0x3feb22de	1.8370016
151	0x3da7da50	0.08195937
152	0xbff2aadd	-1.8958393
153	0x3f207085	0.6267169
154	0xc009b6cb	-2.1517818
155	0x3f5dcc1e	0.86639583
156	0xc0179622	-2.3685384
157	0xbe8cf467	-0.27530214
158	0x3f7d78b7	0.9901232
159	0x3f9fc6f4	1.2482591
160	0x3fbe8b02	1.4886172
161	0xbfa0565f	-1.2526358
162	0x3f53bc50	0.8270922
163	0xbfd98ab8	-1.6995459
164	0x3f03bd10	0.5146036
165	0xbfefa607	-1.8722543
166	0xbf906e02	-1.1283572
167	0x3f8c8068	1.0976686
168	0xbf88243c	-1.0636058
169	0xbea41fba	-0.32055455
170	0xbfc544e2	-1.5411646
171	0xbc9e56f4	-0.019328572
172	0x3e80b85f	0.25140664
173	0x3f4f2a31	0.80923754
174	0xbf93c560	-1.1544609
175	0xbda7e51f	-0.08197998
176	0x3f52e345	0.82378036
177	0x3ec3ae1c	0.38218772
178	0x3dd34d88	0.10317522
179	0x4022a40d	2.5412629
180	0xbef6e674	-0.48222697
181	0xbee21649	-0.44157627
182	0xbf235b12	-0.6381084
183	0x3e8158a2	0.25262934
184	0x3e656199	0.22400512
185	0xbfd563b0	-1.6671047
186	0x3edca822	0.43097025
187	0xbf52108a	-0.82056487
188	0xbff66c42	-1.9251788
189	0xbf30a7f5	-0.6900628
190	0xbf7214ac	-0.9456279
191	0xc02a1660	-2.6576157
192	0xbfa0fcea	-1.2577183
193	0xbf3a3256	-0.72733057
194	0xc001201e	-2.0175853
195	0xbf506c1f	-0.8141498
196	0xbf268528	-0.6504693
197	0x3cc3f237	0.023919208
198	0xbf2d270a	-0.67637694
199	0x3ea37fc9	0.3193343
200	0x3f859ab0	1.0437832
201	0x3df9db6c	0.122000545
202	0xbefe5c89	-0.49679974
203	0x3f0905c9	0.5352445
204	0xc01b49fd	-2.426391
205	0xc033b7e3	-2.8080986
206	0xbfcd6d5d	-1.6049
207	0xc0237a9d	-2.5543587
208	0xbebd1dcf	-0.36936805
209	0x3f8150c9	1.0102779
210	0x3f51dc3e	0.8197669
211	0xbf405a9b	-0.7513825
212	0xbe72ec1b	-0.2372288
213	0x3f753991	0.95790964
214	0xbf9f3ead	-1.2441002
215	0xc04716a7	-3.1107576
216	0x3f989bac	1.1922507
217	0x3e60ff0b	0.21972291
218	0xbf871e77	-1.0556172
219	0xc0054e4c	-2.0829039
220	0xc05bb4b3	-3.432904
221	0x3f3bed19	0.7340866
222	0xbfa4cfdc	-1.2875934
223	0xbea07bcb	-0.31344447
224	0x3ea67692	0.32512337
225	0xbf80938b	-1.0045027
226	0xbea1fb5e	-0.3163709
227	0xbf058a83	-0.5216448
228	0xbeb50560	-0.35355663
229	0xbe295fe2	-0.16540483
230	0x3ed114e3	0.40836248
231	0xbe8b7331	-0.27236322
232	0xbd72fa7d	-0.059320915
233	0x403237ac	2.784648
234	0xbd83006d	-0.063965656
235	0x3f27e2d4	0.6558049
236	0x3eda1925	0.4259731
237	0xbf4d8430	-0.8027983
238	0xbf739739	-0.9515262
239	0x3f9545f4	1.1661973
240	0xc059be00	-3.4022217
241	0x3f3ebed5	0.74509937
242	0xbbf6856b	-0.007523229
243	0xbef50b78	-0.47860312
244	0xc00eaa4e	-2.2291446
245	0x3dee87bd	0.11646984
246	0xc0200364	-2.500207
247	0x3e8ab662	0.27092272
248	0x3f8393d5	1.027949
249	0x3fa40a61	1.2815667
250	0xbfc04863	-1.5022091
251	0xbf13c37b	-0.57720155
252	0xbee0d2c3	-0.43910798
253	0x3f499e01	0.7875672
254	0xbff81104	-1.9380193
255	0xbf169dc4	-0.5883448

bias f4 [32]
0	0x3ec83726	0.39104575
1	0x3e2eb93f	0.17062853
2	0x3f09413d	0.5361517
3	0x3e8cc514	0.2749411
4	0x3f5d87bd	0.86535245
5	0x3f0bc951	0.5460406
6	0x3f0cc5ad	0.5498913
7	0xbeb6521f	-0.35609528
8	0xbf2f9209	-0.68582207
9	0x3f6f1f9f	0.93407625
10	0x3e48b01b	0.19598429
11	0x3df88973	0.12135591
12	0xbe847d51	-0.2587686
13	0x3f26ff5f	0.65233415
14	0x3abf9d38	0.0014618998
15	0xbf26ec95	-0.65204746
16	0x3e804e53	0.25059757
17	0x3f486d97	0.7829222
18	0x3ff18282	1.8867953
19	0xbea13237	-0.31483623
20	0x3f94e498	1.1632261
21	0x3db7d8d4	0.089769036
22	0x3ecbd502	0.3981095
23	0xbec173ca	-0.37783653
24	0xbf844d15	-1.0336024
25	0x3f831226	1.0239913
26	0x3e6155ae	0.2200534
27	0xbf5ae649	-0.8550764
28	0x3fa750bb	1.3071512
29	0xbec05030	-0.37561178
30	0x40157917	2.3355157
31	0x3f727b55	0.9471944

weight f4 [32]
0	0x3fe9d6e6	1.8268707
1	0x3fb2faa1	1.3982736
2	0x3fddd0ed	1.7329384
3	0x3ff95375	1.9478594
4	0x3fe87351	1.8160192
5	0x3fe827c4	1.8137136
6	0x3fc213ba	1.516227
7	0x3fbae15a	1.4600022
8	0x3f938c79	1.1527244
9	0x3fa1a821	1.2629434
10	0x3fe04562	1.7521174
11	0x3feef4c8	1.8668451
12	0x3ff7ef4f	1.9369906
13	0x3f405e32	0.7514373
14	0x4005c8af	2.0903738
15	0x3fa669f5	1.3001086
16	0x40054fea	2.0830026
17	0x40019800	2.0249023
18	0x3fa38c6f	1.2777232
19	0x3f7eaa28	0.9947839
20	0x3ff00a31	1.875311
21	0x3dc87334	0.09787598
22	0x3fcb1a2b	1.5867361
23	0x3fdfb1c1	1.7476121
24	0x3fffe358	1.9991255
25	0x3fa2fa99	1.2732726
26	0x3fc589e8	1.5432711
27	0x3fd51a7a	1.6648705
28	0x3fa423d0	1.2823429
29	0x3fea9ccc	1.8329101
30	0x3ffc8b60	1.9730034
31	0x3fbba34e	1.4659212

bias f4 [32]
0	0xbe6a4d97	-0.2288116
1	0xbf818c59	-1.0120956
2	0x3eab6151	0.33472684
3	0x3f202898	0.6256194
4	0xbdca6822	-0.09883143
5	0x3e0c899f	0.13724373
6	0xbf91583e	-1.1355054
7	0xbfd08498	-1.6290464
8	0xbfda47c7	-1.7053155
9	0xbf4e1445	-0.8049968
10	0xbf9ad425	-1.2095991
11	0x3f1e886a	0.619269
12	0x3dce85fb	0.100841485
13	0x3f94b52d	1.161779
14	0xbebbcc88	-0.36679482
15	0xbefef83d	-0.49798766
16	0x3f7e08cb	0.99232167
17	0xbed75f8b	-0.4206508
18	0x3fbe35f3	1.4860214
19	0xbdebef8c	-0.11520299
20	0x3e929b38	0.28634048
21	0xbf8da19e	-1.1064947
22	0xbdfef13d	-0.12448356
23	0xbe4e58ff	-0.20151137
24	0xbcb0e567	-0.021593763
25	0xc0004366	-2.0041137
26	0x3fd32b38	1.6497564
27	0xbea80b3b	-0.32821068
28	0xbee47bcf	-0.44625708
29	0xbf296a3d	-0.6617773
30	0xbeee53cc	-0.46548307
31	0x3f4d2ade	0.80143535

running_mean f4 [32]
0	0xc1fb3f25	-31.405832
1	0x4095e022	4.68361
2	0xc16951df	-14.582488
3	0xc0a59f01	-5.1756597
4	0xc1d5f136	-26.742779
5	0xc1acd16a	-21.602253
6	0x41a1ac9f	20.209288
7	0x4149db6e	12.616072
8	0x419c0571	19.502657
9	0xc168ccb7	-14.549979
10	0xbff4be70	-1.9120617
11	0x4083cdda	4.1188784
12	0xc0bb455d	-5.852217
13	0xc119fb19	-9.623803
14	0xc1490159	-12.562829
15	0x418328a5	16.394846
16	0xc0ebc081	-7.367249
17	0xc13343b5	-11.20403
18	0xc1319869	-11.0997095
19	0x412bf3f5	10.74706
20	0xc193bc4c	-18.466942
21	0xbfc6f6ea	-1.5544102
22	0x4198d928	19.106033
23	0xc1941611	-18.510775
24	0x3fec43bd	1.8458172
25	0x41a87755	21.058268
26	0xc1899e01	-17.20215
27	0x4059c65c	3.402732
28	0x41568eca	13.409861
29	0xc13dcb64	-11.862156
30	0xc1238d4f	-10.221999
31	0xbf9da90f	-1.2317218

running_var f4 [32]
0	0x43fc35a9	504.41922
1	0x4346397d	198.22456
2	0x43858be8	267.09302
3	0x435dca20	221.78955
4	0x4397a65d	303.2997
5	0x438912ca	274.1468
6	0x436549bd	229.28804
7	0x43866552	268.79156
8	0x433ddac2	189.85452
9	0x437f26c8	255.15149
10	0x432aba83	170.72856
11	0x43a6705c	332.8778
12	0x439fed44	319.85364
13	0x43712cb1	241.17458
14	0x4338ce04	184.80475
15	0x434b6596	203.39682
16	0x438b1c42	278.22076
17	0x4347e595	199.8968
18	0x443265a0	713.5879
19	0x43088bcc	136.54608
20	0x430fab87	143.67003
21	0x432742aa	167.2604
22	0x4354a5f3	212.64824
23	0x4404241d	528.5643
24	0x4386e89e	269.81732
25	0x432e7818	174.46912
26	0x43de63d5	444.77994
27	0x437b718c	251.44354
28	0x437cbddb	252.74162
29	0x439de0f9	315.7576
30	0x4334cee8	180.80823
31	0x43bd8bef	379.09323

weight f4 [32, 32, 3]
0	0x3ea1e7c4	0.31622136
1	0xbee8707b	-0.45398316
2	0x3ebef1c5	0.3729383
3	0x3eb08314	0.34475005
4	0xbfa46117	-1.284213
5	0xbfeb8a30	-1.8401546
6	0x4007fe8c	2.1249113
7	0x3e552387	0.20814334
8	0xbfcf3c2b	-1.6190237
9	0x3fb77739	1.4333259
10	0x3d275e63	0.0408615
11	0xbf7f31cb	-0.99685353
12	0xbff3300a	-1.8999035
13	0x3f2193c5	0.63116103
14	0xbfa45db8	-1.2841101
15	0x3e8b2700	0.27178192
16	0x3f6efcd4	0.93354535
17	0xbece111f	-0.40247437
18	0x3fd23f02	1.6425478
19	0x3f5c2037	0.85986656
20	0x3f6e4525	0.93074256
21	0x3f39b7a6	0.7254585
22	0xbf817532	-1.011389
23	0xc04d48a3	-3.2075584
24	0xbf8bd5a7	-1.0924577
25	0xbf04927f	-0.51786035
26	0xbd2645d6	-0.040593944
27	0x401236c1	2.284592
28	0x3f1299a9	0.57265717
29	0xc006fbad	-2.109111
30	0xbe87a2b6	-0.26491326
31	0xbf2cb451	-0.6746264
32	0xbea837eb	-0.32855162
33	0x4017080b	2.359866
34	0x3fd2d7dc	1.6472125
35	0xbf7f3f62	-0.9970609
36	0x3f9184df	1.1368674
37	0x3db85b24	0.09001759
38	0xbf9064e9	-1.1280795
39	0x3f9be2fe	1.2178648
40	0xbe9220a2	-0.28540522
41	0xbe9cbf5d	-0.3061475
42	0x3fafa51f	1.3722266
43	0x3f969eae	1.1767175
44	0xbf96a1dd	-1.1768147
45	0xbe8e9a21	-0.27851966
46	0x3e2c0f50	0.16802716
47	0x3e040929	0.1289412
48	0x3f0a3cf0	0.53999233
49	0xbfb6499c	-1.4241214
50	0xc07842dc	-3.8790808
51	0xbf857a42	-1.0427935
52	0x3e585d1b	0.21129267
53	0x3fd97b21	1.6990701
54	0xbf0ee38a	-0.5581595
55	0x3eb49f2c	0.35277689
56	0xbced51c8	-0.02896966
57	0x3f75caf8	0.9601283
58	0xbec7be1e	-0.39012235
59	0xbefb3447	-0.49063322
60	0x3fcec0ee	1.6152627
61	0x3f1c608a	0.61084807
62	0xbf1a808d	-0.603524
63	0x3ebf1ac5	0.3732511
64	0xbf13ea37	-0.5777926
65	0xbf6a70f8	-0.91578627
66	0x3d756955	0.059914906
67	0xbfa05933	-1.2527221
68	0xbfbd1fc2	-1.4775317
69	0x3ea19155	0.31556192
70	0x3ea29d5a	0.31760675
71	0x3ea91218	0.33021617
72	0xbf028c5b	-0.50995415
73	0xbeaf2798	-0.34209895
74	0x3e7bcf26	0.2459074
75	0x3f599c7c	0.850044
76	0x3f09bb60	0.53801537
77	0xbe682246	-0.22669324
78	0x3e06527c	0.13117403
79	0xbf5b08d8	-0.8556037
80	0xbfde9a51	-1.7390844
81	0x3f9472c8	1.1597528
82	0xbe9c3df0	-0.30516005
83	0xbf82ea35	-1.0227724
84	0x3f4a124d	0.78934175
85	0x3dbbe65f	0.09174799
86	0x3d979602	0.074016586
87	0x3f12d52b	0.5735652
88	0x3f836c81	1.0267488
89	0x3fd561dd	1.667049
90	0x3ec82b05	0.3909532
91	0x3f3e2d24	0.7428763
92	0xbfebdec2	-1.8427355
93	0xbf01ef51	-0.5075579
94	0xbe7e9b2e	-0.24863884
95	0x3e8e7187	0.2782099
96	0x3fe20d67	1.766034
97	0x3f6cbda8	0.9247689
98	0x3fd86ec1	1.69088
99	0x3f927f85	1.1445166
100	0xbf9318cc	-1.1491942
101	0x40379f18	2.8690853
102	0xbf667e6d	-0.9003666
103	0xbf576554	-0.8413899
104	0xbd898f3c	-0.06716773
105	0x3edc6520	0.43045902
106	0xbdb62584	-0.08893874
107	0xbf8ef6f3	-1.1169113
108	0xbdcaa73e	-0.0989518
109	0x3f06118f	0.5237054
110	0x40357c47	2.8357103
111	0x3e093147	0.13397704
112	0xbe8440ac	-0.2583059
113	0x3d02a539	0.03189585
114	0x3f053741	0.52037436
115	0x3ed04785	0.40679565
116	0xbf6438a9	-0.89148957
117	0xbf9de019	-1.2334014
118	0xbf9c447a	-1.2208397
119	0x3db3c1ad	0.08777175
120	0x3fa479e1	1.2849694
121	0x3f29f9e3	0.6639692
122	0xbf979337	-1.1841801
123	0xbf0ad5ee	-0.5423268
124	0xbdaa81e7	-0.08325558
125	0x3f6d97d1	0.9280978
126	0xbee33905	-0.4437944
127	0xc001eb23	-2.0299766
128	0xc04a3f01	-3.1600955
129	0xbeffbd67	-0.4994919
130	0x3f7a5cd8	0.9779792
131	0xbe8979f2	-0.2685085
132	0xbfca960d	-1.5827042
133	0xbeb3c2d7	-0.35109589
134	0x4030413a	2.753981
135	0xbf15c155	-0.58498126
136	0xbf5f4b7c	-0.87224555
137	0xc0203cdc	-2.5037146
138	0x3f921834	1.1413636
139	0xbedced26	-0.4314968
140	0x3fb4af8e	1.4116075
141	0xbea71345	-0.3263189
142	0x3f4d867c	0.8028333
143	0xc011f351	-2.2804759
144	0xbf007f3e	-0.50194156
145	0xbf6a701a	-0.91577303
146	0xbf88d2b8	-1.0689306
147	0x3e263119	0.16229667
148	0x3f9e60cb	1.2373289
149	0x40569913	3.353093
150	0x3e55a4e7	0.20863687
151	0xbfb22cb8	-1.3919897
152	0x3eb7ba6a	0.3588441
153	0xbf98ab62	-1.1927302
154	0xbfc58904	-1.5432439
155	0x3c890436	0.01672564
156	0x3ffa789d	1.9568058
157	0x3f926003	1.143555
158	0xbfd28bd9	-1.6448928
159	0x3de3f32a	0.11130364
160	0xbea762c8	-0.32692552
161	0xbf288d0f	-0.6584024
162	0x3f3b541c	0.73175216
163	0xbea50f52	-0.3223825
164	0xc03af6f2	-2.9213223
165	0xc01b767e	-2.4291072
166	0x3de5f5a5	0.112284936
167	0x400fa29d	2.2443001
168	0x3f5eb7e4	0.86999345
169	0xbf88f8a4	-1.0700879
170	0xc08606a3	-4.18831
171	0x3fcdb52a	1.6070912
172	0x3f10dba4	0.56585145
173	0xbf5a5f19	-0.8530136
174	0xbf8b7808	-1.0896006
175	0xbf59b243	-0.8503763
176	0x3f1b7483	0.6072466
177	0x3f3a46ef	0.72764486
178	0xc027f7f2	-2.6245084
179	0xbf8272a0	-1.0191231
180	0xbf84d418	-1.0377226
181	0xbe93cd70	-0.28867674
182	0xbeff4dac	-0.49863946
183	0x3f89b667	1.075879
184	0xbe8b0403	-0.27151498
185	0xc06f974f	-3.7436101
186	0xbf9be404	-1.217896
187	0xbf6a31b9	-0.9148212
188	0x3ee63e93	0.44969615
189	0x3e69006e	0.2275407
190	0xbf3f853d	-0.7481268
191	0x3d0ac5b8	0.033879966
192	0x3f4d4030	0.8017607
193	0xbe5fcf3f	-0.21856402
194	0xbf978207	-1.1836556
195	0xbeb54b77	-0.35409138
196	0xbf71d349	-0.9446302
197	0x3f3cafd7	0.7370581
198	0x3fab5b6b	1.3387274
199	0xbf22943d	-0.63507444
200	0xbe648b38	-0.22318733
201	0xbfd39816	-1.6530788
202	0x3d9eda45	0.07756475
203	0xbfc04cad	-1.50234
204	0x3e97a514	0.29618132
205	0xbf323f2c	-0.6962764
206	0xbff9b2de	-1.9507711
207	0xbfc08353	-1.5040077
208	0xbf6970dc	-0.91187835
209	0x3f89eded	1.0775734
210	0xbeae2132	-0.340097
211	0xb951ceff	-0.00020008905
212	0xbf16a9da	-0.5885292
213	0xbd3f345a	-0.046680786
214	0x3fb344fb	1.4005426
215	0x3f2fb811	0.6864024
216	0xbf72df7e	-0.9487227
217	0xbe741739	-0.23836984
218	0x3f8225d5	1.0167795
219	0xbf67bba4	-0.9052069
220	0x3e18f2f0	0.14936423
221	0x3fb2d938	1.397254
222	0xbf334f24	-0.70042634
223	0x3e5c684d	0.21524163
224	0x3f0f2745	0.55919296
225	0xbe2a52b1	-0.16633107
226	0x3f1e4a60	0.6183224
227	0x3f66104c	0.8986862
228	0xbf713295	-0.9421781
229	0x3f215f5b	0.63036126
230	0x405a04a8	3.4065342
231	0x400edcf9	2.232237
232	0xbf37bdd0	-0.71774006
233	0x3eff02b4	0.4980675
234	0xbf183171	-0.5945044
235	0xc009b5a5	-2.1517117
236	0xbf9018e4	-1.1257596
237	0xbecb369d	-0.39690104
238	0xbce432b1	-0.027856203
239	0x3eba08d4	0.3633486
240	0x3f39a7ac	0.7252147
241	0xbf174156	-0.5908407
242	0x3d649f52	0.055816002
243	0x3fc25397	1.518176
244	0xbebb3c2a	-0.3656934
245	0xc02089ce	-2.508411
246	0x3f354ee9	0.7082353
247	0xc01296b1	-2.2904475
248	0x3fa2ca73	1.2718033
249	0xbfac232e	-1.3448236
250	0xbf314e31	-0.69259936
251	0x403c0604	2.9378672
252	0x3e233be1	0.1594081
253	0x3c982555	0.018572489
254	0xbfa0f664	-1.2575192
255	0xbf5cc05f	-0.86231035

bias f4 [32]
0	0xbe9091c4	-0.2823621
1	0xbf2f4b3f	-0.6847419
2	0x3eabce44	0.33555806
3	0xc00551c5	-2.0831158
4	0x3f2f81dc	0.68557525
5	0xbeb41338	-0.35170913
6	0xbeefaa6e	-0.46809715
7	0x3f385ce1	0.7201672
8	0xbeb9a1dd	-0.36256304
9	0xbebb05c6	-0.36527842
10	0xbfaf2376	-1.3682697
11	0xbf501a9c	-0.812906
12	0x3f586856	0.84534204
13	0x3f7717c7	0.96520656
14	0x3f84b211	1.0366842
15	0x3f634135	0.88771373
16	0x3e209bdf	0.1568446
17	0xbef058d6	-0.46942776
18	0x3e98cad7	0.29842255
19	0xbe7d4a39	-0.24735345
20	0xbfa33c67	-1.2752808
21	0x3e332e08	0.17498028
22	0x3fca9ad8	1.5828505
23	0xbdaf3560	-0.08555102
24	0x3c201c30	0.009772345
25	0xbe2112a2	-0.15729764
26	0x3f5bc49a	0.85846865
27	0xbeb7e3c1	-0.3591595
28	0x3ea370e4	0.31922066
29	0xbe3c82aa	-0.1840922
30	0x3ed146b3	0.40874252
31	0x3faae126	1.334996

weight f4 [32]
0	0x3fb79c6d	1.4344612
1	0x4002de15	2.0448048
2	0x3f912f45	1.134255
3	0x3fff8c71	1.9964734
4	0x3fdf1c2f	1.7430476
5	0x3fc35e44	1.5263143
6	0x40110790	2.2660866
7	0x3ff739bb	1.9314493
8	0x40045ab1	2.0680354
9	0x3f86a2d7	1.0518445
10	0x3ff9c55f	1.9513358
11	0x3fbc37d7	1.4704541
12	0x3f8caffc	1.0991206
13	0x4011a700	2.2758179
14	0x4006b033	2.1045043
15	0x40090669	2.1410162
16	0x4001197d	2.0171807
17	0x3fe09826	1.7546432
18	0x3fb01dca	1.3759091
19	0x40235f48	2.5526905
20	0x3f9e277d	1.2355801
21	0x3f94c5fa	1.1622918
22	0x400930f7	2.1436136
23	0x4008ad8c	2.1355925
24	0x3fc97b0a	1.5740674
25	0x4002b5df	2.0423505
26	0x3ff9e615	1.952334
27	0x3fdf6426	1.7452438
28	0x3f8d7560	1.1051445
29	0x3ff58da4	1.918385
30	0x3fa74154	1.3066812
31	0x3ffc9451	1.9732763

bias f4 [32]
0	0xbf13448f	-0.5752649
1	0xbeef608d	-0.4675335
2	0xc0069aca	-2.1031976
3	0x3f5abe2e	0.8544644
4	0xbfa5e24a	-1.2959683
5	0x3eccf3b5	0.40029684
6	0x3f804174	1.0019975
7	0xbf82a691	-1.0207082
8	0xbf777fe0	-0.96679497
9	0xbfe936a8	-1.8219805
10	0xbe93de5a	-0.28880578
11	0xbf3e224f	-0.742711
12	0xbfd89e43	-1.6923298
13	0x3eccd9f1	0.40010026
14	0xbea2f6d7	-0.3182895
15	0xbdc7fa90	-0.09764588
16	0xbf010bde	-0.5040873
17	0xbf4703a9	-0.7773996
18	0xbf96e9d6	-1.1790111
19	0x3eb6d478	0.35708976
20	0xbfc7fb98	-1.5623655
21	0x3dc3de1e	0.0956385
22	0x3eb732b2	0.35780865
23	0xbf8315c0	-1.0241013
24	0x3f739500	0.9514923
25	0xbe270974	-0.163122
26	0xbf3e6448	-0.7437177
27	0xbe41861f	-0.1889882
28	0xc000f002	-2.014649
29	0xbe98d29a	-0.29848176
30	0xbfc48197	-1.5352048
31	0xbeb4b84c	-0.35296857

running_mean f4 [32]
0	0xc0e21ee0	-7.066269
1	0xc19a9967	-19.324903
2	0x4115db37	9.366019
3	0x4101a8e4	8.103733
4	0xc1f791f3	-30.946264
5	0x40f135c9	7.5378156
6	0xc1de10ea	-27.758259
7	0xc14449b5	-12.267995
8	0xc26877f5	-58.117146
9	0x41a3e98a	20.489033
10	0xc1a55d57	-20.670576
11	0x401929a3	2.3931663
12	0x4088df6c	4.277273
13	0xc2099ca4	-34.40297
14	0xc1678bee	-14.4716625
15	0x3e01f3f9	0.12690724
16	0xc1e2a124	-28.328682
17	0xc0992901	-4.7862554
18	0xc1ca4b86	-25.286877
19	0xc2131f30	-36.780457
20	0x41c31bd6	24.388592
21	0xc18a8c83	-17.31861
22	0xc1df1435	-27.884867
23	0xc1fd7311	-31.681185
24	0x40a59232	5.174096
25	0xc0bafdbc	-5.8434734
26	0xc2293304	-42.29982
27	0x405b9c4b	3.4314144
28	0x41989b3a	19.075794
29	0x3fdee51c	1.7413669
30	0x41ca9ce7	25.326612
31	0xc1647bfb	-14.280269

running_var f4 [32]
0	0x440b6341	557.55084
1	0x43c53c85	394.4728
2	0x43a5ee98	331.864
3	0x43de3bb4	444.46643
4	0x43971d9a	302.23126
5	0x43f15806	482.68768
6	0x444b8486	814.0707
7	0x44115f75	581.4915
8	0x43b636d6	364.4284
9	0x43930cad	294.09903
10	0x440031d8	512.7788
11	0x4405e5bb	535.58954
12	0x43a05225	320.64175
13	0x44321aea	712.42053
14	0x4481aaa5	1037.3326
15	0x4405dcd1	535.45026
16	0x44157f74	597.99146
17	0x43c1af85	387.37125
18	0x436cb97b	236.72453
19	0x43d92df2	434.35895
20	0x43ba88fd	373.07022
21	0x44272d60	668.709
22	0x4405e940	535.64453
23	0x43cfeb78	415.8396
24	0x43d4c682	425.55084
25	0x440203d9	520.0601
26	0x43c55034	394.6266
27	0x43ec36a8	472.427
28	0x4388641f	272.7822
29	0x43cc9473	409.15976
30	0x435b537c	219.32611
31	0x43d6a725	429.30582

weight f4 [64, 32, 3]
0	0xc007e797	-2.1235101
1	0xbfd3d511	-1.6549398
2	0xbf85b989	-1.0447246
3	0x3eac9087	0.33704016
4	0x3fa7185f	1.3054312
5	0x3fe83762	1.8141901
6	0x3f2ce705	0.6754001
7	0x3f918b72	1.137068
8	0x3f70cfbf	0.94066995
9	0x3fa9ce7d	1.326614
10	0x3fe4887d	1.7854153
11	0x3ee00b51	0.43758634
12	0xbe6ab4cb	-0.2292053
13	0xbecdbedd	-0.4018468
14	0x3fce6028	1.6123095
15	0x3f3d2187	0.73879284
16	0xbf774a70	-0.9659796
17	0xc06fd8c8	-3.7476063
18	0xbe927c87	-0.28610632
19	0xbeeaa6eb	-0.45830473
20	0xbfb153be	-1.3853681
21	0x3fbeb8d1	1.4900151
22	0xbe0a5a8b	-0.13511102
23	0xbe180383	-0.1484509
24	0x3ef6ab24	0.48177445
25	0xbf0383c0	-0.5137291
26	0x3f94753a	1.1598275
27	0xbf52496c	-0.8214328
28	0x3f3b0f98	0.7307067
29	0x3f1b1078	0.60572004
30	0xbe42f6e5	-0.19039495
31	0xbd3d339b	-0.046191793
32	0x3f26109b	0.6486909
33	0xbeb8f09b	-0.36121067
34	0x3ef59c40	0.47970772
35	0xbf0cac8f	-0.54950804
36	0xbf3e84b7	-0.74421257
37	0xbf2f8560	-0.6856289
38	0x3ea55fba	0.32299596
39	0xbf34a32b	-0.70561475
40	0xbfe792e8	-1.8091707
41	0x3eec39b5	0.46137777
42	0xbfa9f6eb	-1.3278478
43	0xbf9d1312	-1.2271445
44	0x3f6004c8	0.87507296
45	0x3fae89f2	1.3635848
46	0x3fd86450	1.6905613
47	0xbe273cda	-0.16331807
48	0xbfa4ce14	-1.287539
49	0xbfe6c76b	-1.8029608
50	0x3e9e2d5d	0.30893984
51	0xbfcb1b2f	-1.5867671
52	0xbf3d56b7	-0.7396044
53	0x3f2c711c	0.6736009
54	0x3f09eafd	0.5387419
55	0xbeee1dfa	-0.46507245
56	0xbdae8178	-0.08520788
57	0xbfc0084d	-1.5002533
58	0xbf153e5f	-0.58298296
59	0x3c8746d7	0.016513271
60	0xbede9187	-0.43470404
61	0x3ec0e890	0.3767743
62	0x3fa4930b	1.2857374
63	0xc03306a4	-2.7972803
64	0xbea6779f	-0.3251314
65	0x4021c476	2.527616
66	0xbf43aaa7	-0.7643227
67	0xbf02aea2	-0.5104772
68	0xbd2e9790	-0.04262501
69	0xbfd484ba	-1.6603005
70	0xbf95ed20	-1.171299
71	0xbfc49e3e	-1.5360792
72	0x3fab7459	1.3394881
73	0xbfac7934	-1.3474488
74	0xbf24f037	-0.6442904
75	0xc09e50a9	-4.947346
76	0xbfb3130a	-1.3990185
77	0xc05db1fc	-3.4639883
78	0xbee454c2	-0.44595915
79	0xbdd25c31	-0.1027149
80	0xbe71e3e9	-0.23622097
81	0xbfae6d48	-1.36271
82	0xc0231f37	-2.5487802
83	0xc05bc314	-3.4337816
84	0xbfbd2b3d	-1.477882
85	0xbef52979	-0.47883204
86	0xbfafd466	-1.3736694
87	0x3f95b9cd	1.1697327
88	0x3f1987b8	0.59972715
89	0xbe916f95	-0.28405443
90	0x3f2f5c82	0.6850053
91	0x3f53dca6	0.8275856
92	0x3fd297ba	1.6452553
93	0xbf21b371	-0.6316443
94	0x3f51ac2d	0.81903344
95	0xbf059109	-0.5217443
96	0xc0286583	-2.6311958
97	0x3f8174b2	1.0113738
98	0xbdc60422	-0.09668757
99	0x3f7ce54f	0.987874
100	0xbf89c518	-1.0763273
101	0x3f43a1cf	0.76418775
102	0x3fae8b91	1.3636342
103	0x3e8cb120	0.27478886
104	0x3dcac6f5	0.09901229
105	0x3eeed3ca	0.46645957
106	0x3e142d99	0.14470519
107	0xbf843761	-1.03294
108	0x3f319eea	0.6938311
109	0x3fbe7cf8	1.4881887
110	0x3f98bb14	1.1932092
111	0x3f60f7d9	0.87878186
112	0xbd91303b	-0.07089277
113	0x3e0eede3	0.13957934
114	0xc01fa7c8	-2.4946156
115	0xbff4dfca	-1.9130795
116	0xbf82eb8b	-1.0228132
117	0xc06bdb6e	-3.685268
118	0xc0011e69	-2.017481
119	0xbfcf6c7c	-1.6204982
120	0x3dcf6583	0.10126784
121	0x3f5f69f6	0.8727106
122	0xbf738c4d	-0.95135957
123	0x3fe07a42	1.753731
124	0x3f4c7449	0.7986494
125	0x3f6ccf2c	0.9250362
126	0x3f6d3433	0.92657775
127	0x3e3fc246	0.18726453
128	0xbde54444	-0.11194661
129	0xbf9d82e0	-1.2305565
130	0xc037e480	-2.8733215
131	0xbe19ff48	-0.15038788
132	0x3f89a4ef	1.0753459
133	0x3f216c1b	0.6305558
134	0x3eeeecb4	0.46664965
135	0xc05ac6ca	-3.4183831
136	0x3f575b2b	0.84123486
137	0xc007731a	-2.1164002
138	0x3fdeefa0	1.7416878
139	0xbdb41c23	-0.08794429
140	0x3d9975ee	0.074931964
141	0xbfaf0b4f	-1.3675326
142	0xbed97c81	-0.424778
143	0xc00ac20f	-2.1680944
144	0xc073d0d2	-3.8096204
145	0xc01821dd	-2.3770669
146	0xbfbbbe72	-1.4667494
147	0xbf694f25	-0.9113639
148	0xbee5a6ff	-0.4485397
149	0x3eb3c1ab	0.35108694
150	0xbef7a095	-0.48364702
151	0x3f43c158	0.76466894
152	0x3ca116e0	0.019664228
153	0xbfc109c5	-1.5081106
154	0x4004765f	2.0697248
155	0xbf35687c	-0.70862556
156	0xbe615a43	-0.22007088
157	0x3f53a06d	0.82666665
158	0x3f37cc64	0.7179625
159	0xbfae9e89	-1.3642131
160	0x3fa41804	1.2819829
161	0xbf9ba95a	-1.2161057
162	0xbf4b9310	-0.79521275
163	0xbf2e7ec4	-0.6816218
164	0xbea32a42	-0.31868178
165	0xbfb6d8cc	-1.4284911
166	0xc007b03f	-2.1201322
167	0xc009158e	-2.1419406
168	0xbfde21b7	-1.7354039
169	0xbdbd7644	-0.09251073
170	0xc0119a4c	-2.2750425
171	0xbfec6cb0	-1.8470669
172	0xbf0530bf	-0.52027506
173	0x3f5984d3	0.849683
174	0xbf2ac8f4	-0.6671288
175	0xbe8b357d	-0.27189246
176	0x3f4c8323	0.798876
177	0xbfa9a332	-1.3252928
178	0xbe7a2e99	-0.24431838
179	0x3e920b96	0.28524464
180	0x400b755d	2.1790383
181	0x3ecade20	0.39622593
182	0x3f79ddfb	0.9760434
183	0x3f5dad36	0.86592424
184	0xbfce677a	-1.6125329
185	0xbf4cd5f2	-0.80013955
186	0x4011b1d9	2.27648
187	0xbe8923ea	-0.26785213
188	0xbfb32928	-1.3996935
189	0x3f09a711	0.5377055
190	0xbf5b8780	-0.8575363
191	0xbfc6472f	-1.5490474
192	0xbeff0f26	-0.49816245
193	0xbdb90d17	-0.090357
194	0x3eeb373c	0.45940578
195	0xbfc3e63d	-1.5304638
196	0x3df08426	0.11743955
197	0xbf85b7fe	-1.0446775
198	0x3fc6442a	1.5489552
199	0x3ee19b7e	0.44063944
200	0xbfa6c2b5	-1.302817
201	0x4010f521	2.2649615
202	0xbe3e7908	-0.18600857
203	0x3daf839b	0.085700236
204	0xbfe5e559	-1.7960616
205	0x3d4ffb64	0.050776854
206	0x3e005c1c	0.12535137
207	0x3f2ba95a	0.67055285
208	0x3eccea31	0.40022424
209	0xbf797676	-0.9744638
210	0x3f51de05	0.819794
211	0x3ed02726	0.40654868
212	0xbd5ae38b	-0.053439658
213	0xbf522d7b	-0.8210065
214	0x3e8e74f0	0.2782359
215	0x3f9b1958	1.2117109
216	0xbf1fcdab	-0.624232
217	0x3dab6103	0.08368113
218	0xbf3ec387	-0.745171
219	0x3e40bf73	0.18823032
220	0xbf2f2e24	-0.6842978
221	0x3f53caec	0.8273151
222	0x3f824227	1.0176438
223	0xbed36bce	-0.41293186
224	0xbe74041d	-0.23829694
225	0x40394aa6	2.8951812
226	0x3c8b7106	0.017021667
227	0x4000b267	2.0108888
228	0xbeb8b579	-0.36075953
229	0x3f55e8cc	0.83558345
230	0x3ef02b3c	0.46907985
231	0xbe1f7680	-0.15572548
232	0x3fe927b2	1.8215239
233	0xbf502e28	-0.8132043
234	0x3f286f48	0.657948
235	0xbf7664c6	-0.9624752
236	0x3f3e03af	0.7422437
237	0xbfe2cde1	-1.7719079
238	0x3ed71619	0.42009047
239	0xbf5aa2d4	-0.85404706
240	0x3ec8e01e	0.39233488
241	0x3f8ca04d	1.098642
242	0xbf20d3f0	-0.6282339
243	0x3f5922ed	0.8481892
244	0x401fe8aa	2.4985757
245	0xbf4f5a91	-0.8099757
246	0x3f338c4e	0.7013596
247	0x3f5c64ff	0.8609161
248	0xbec359b3	-0.38154373
249	0xbfc64543	-1.5489887
250	0x40012238	2.0177135
251	0x3d433fd1	0.047668282
252	0x4008ea8f	2.1393163
253	0x40059c79	2.0876753
254	0x401ccf79	2.4501631
255	0xbf556cd8	-0.8336921

bias f4 [64]
0	0xc009d0a0	-2.1533585
1	0xbf8df438	-1.1090155
2	0xbfb4fb1c	-1.4139132
3	0xbecac5da	-0.39604074
4	0x3ed38d33	0.41318664
5	0xbf1248e8	-0.57142496
6	0x3f3a1f57	0.7270407
7	0xbf14da57	-0.5814566
8	0xbe0b877d	-0.13625903
9	0xbfa7a076	-1.3095844
10	0x3f294731	0.66124254
11	0xbee0ca84	-0.43904507
12	0x3fa44735	1.2834231
13	0x3df55dec	0.11980805
14	0x3f280160	0.656271
15	0x3d04e029	0.03244034
16	0x3e022e24	0.12712914
17	0x3fd2a828	1.6457567
18	0x3f0d1d24	0.5512259
19	0xbfa53365	-1.2906309
20	0x3b4e0d77	0.003144113
21	0x3f805f31	1.002905
22	0xbf26e55d	-0.6519373
23	0x3e7a6814	0.24453765
24	0x3f29be42	0.66305935
25	0xbeb60485	-0.35550323
26	0xbf58a380	-0.8462448
27	0x3ed00a02	0.40632635
28	0xbe1947bc	-0.1496877
29	0x3f040bea	0.5158068
30	0xbf380df4	-0.7189629
31	0x3f5d5795	0.86461765
32	0x3e3e39de	0.18576762
33	0xbf15eba8	-0.5856271
34	0x3f0e3f32	0.5556518
35	0xbe3064b2	-0.17225912
36	0x3e81c136	0.2534272
37	0xbef466a0	-0.47734547
38	0xbea3f5ef	-0.3202357
39	0xbfe653ee	-1.7994363
40	0xbed8db3b	-0.4235476
41	0x3e914c35	0.28378454
42	0x3d8a8216	0.06763093
43	0x3e94e2a4	0.29079163
44	0x3dd99398	0.106238544
45	0xbf93690c	-1.1516433
46	0x3ec33764	0.38128197
47	0xbf86726d	-1.050367
48	0xbe8b553d	-0.2721347
49	0xbea7e1a8	-0.3278935
50	0xbe5287cb	-0.20559613
51	0x3f118412	0.5684215
52	0x3fa1cbd3	1.2640327
53	0xbf0b4a1a	-0.54409945
54	0x3f35b567	0.70979923
55	0xbef59c2b	-0.4797071
56	0x3ed66292	0.41872078
57	0xbf3c86bb	-0.7364308
58	0xbe2ca516	-0.1685985
59	0x3f8d8a7e	1.105789
60	0xbf96c8c0	-1.1780014
61	0x3dc32369	0.09528238
62	0xbe51733f	-0.20454119
63	0x3fad692e	1.3547723

weight f4 [64]
0	0x4012e4dd	2.2952187
1	0x40151c95	2.3298695
2	0x3fbebac1	1.4900743
3	0x4011531d	2.2706978
4	0x3f62954a	0.8850905
5	0x3fea4558	1.8302412
6	0x3fa71bc2	1.3055346
7	0x3f7408c5	0.9532588
8	0x3fcaefa7	1.5854386
9	0x3fd922b9	1.6963722
10	0x3fdf195b	1.7429613
11	0x3fe0a5ec	1.7550635
12	0x3fe0ee33	1.7572693
13	0x3f9577d5	1.1677195
14	0x3fd9e2fe	1.7022398
15	0x4003e444	2.0608072
16	0x3fecf120	1.8511086
17	0x3fda44bb	1.7052225
18	0x3fec7038	1.8471746
19	0x3fc4f3e2	1.5386927
20	0x3fee8b2b	1.8636221
21	0x3f8a500e	1.0805681
22	0x3f3ca2f7	0.73686165
23	0x3fae9214	1.363833
24	0x3fb7f7c4	1.4372487
25	0x3fa01ff8	1.2509756
26	0x3ff01ddb	1.8759111
27	0x3fc52e4c	1.5404754
28	0x3f88bd68	1.0682802
29	0x3fcae785	1.5851904
30	0x3fb61bb1	1.4227201
31	0x3fbe326e	1.485914
32	0x3fcef4c1	1.6168443
33	0x3fd84198	1.6895018
34	0x3fa3f072	1.2807753
35	0x3f735049	0.9504438
36	0x3faf6014	1.3701196
37	0x3fd4c21b	1.6621736
38	0x400eb4c7	2.2297838
39	0x3f9d3886	1.2282875
40	0x3f8914dc	1.0709491
41	0x3fd7ec5f	1.686901
42	0x3f4aa0b4	0.79151464
43	0x3fe0eeb2	1.7572844
44	0x3fbdc591	1.4825917
45	0x3fe65530	1.7994747
46	0x3f892517	1.0714444
47	0x4006c5bc	2.1058187
48	0x3fc0e29b	1.5069155
49	0x3fbf10c5	1.4926993
50	0x3fb05e0d	1.3778702
51	0x400a7e06	2.1639419
52	0x3fece403	1.8507084
53	0x3fb44bed	1.4085671
54	0x3f985cc1	1.1903306
55	0x3f9f2966	1.2434509
56	0x3fe1f46c	1.7652717
57	0x3fc15e58	1.5106916
58	0x3fcdc9e2	1.6077235
59	0x400cb1a8	2.1983433
60	0x3ff8f75a	1.9450486
61	0x3f8d8ef3	1.105925
62	0x3fedcda8	1.8578386
63	0x3ff38fd0	1.9028263
