unet/checkpoints/one_loss/epoch_25.pth (torch, 508787 bytes, 85 tensors)

weight f4 [8, 1, 3]
-0.70426685 -1.0414653 1.132371 -0.9333245 -1.9936682 -0.13546038 0.456776 -0.048568215
-3.6022067 0.22957057 0.27217838 2.5280173 -0.65025777 -1.0066283 -1.1737558 -1.6842073
-0.08714611 -0.9504415 1.1176213 -1.0813675 -0.0863036 1.9201797 0.387287 0.63152635
00000000: d54a 34bf bc4e 85bf 88f1 903f 5bee 6ebf
00000010: 8530 ffbf 20b6 0abe 8bde e93e 77ef 46bd
00000020: 8e8a 66c0 8c14 6b3e f75a 8b3e 09cb 2140
00000030: 4b77 26bf 32d9 80bf a13d 96bf 1b94 d7bf
00000040: a979 b2bd 2250 73bf 370e 8f3f 406a 8abf
00000050: f1bf b0bd 73c8 f53f 7b4a c63e b6ab 213f

bias f4 [8]
-0.15043284 0.10984022 0.22566357 0.36426666 -0.33845103 0.1634244 0.009108701 -0.7637361
00000000: 110b 1abe e9f3 e03d 5a14 673e 2981 ba3e
00000010: 7449 adbe ba58 273e a93c 153c 3684 43bf

weight f4 [8]
1.1142954 1.3483491 1.7864453 1.8101274 1.9909818 1.5308582 0.94277173 1.8299655
00000000: 3ba1 8e3f b496 ac3f 3daa e43f 41b2 e73f
00000010: 7ed8 fe3f 29f3 c33f 7d59 713f 4f3c ea3f

bias f4 [8]
1.0354327 -0.15631084 -0.62644655 0.5721869 0.1775328 -0.2080598 0.83866286 -0.17171726
00000000: 0f89 843f f30f 20be cd5e 20bf d77a 123f
00000010: 29cb 353e a10d 55be 9cb2 563f a6d6 2fbe

running_mean f4 [8]
-0.11025156 0.20926905 0.2648126 0.2753979 -0.2417159 0.3565288 -0.10569893 -0.97746223
00000000: 92cb e1bd a04a 563e 8495 873e f400 8d3e
00000010: 5f84 77be f18a b63e ae78 d8bd f73a 7abf

running_var f4 [8]
92007.38 621193.75 844004.3 631285.25 486029.84 466089.38 54348.8 555098.75
00000000: b1b3 b347 9ca8 1749 450e 4e49 541f 1a49
00000010: bb51 ed48 2c95 e348 cd4c 5447 ac85 0749

weight f4 [16, 8, 3]
-0.86228734 -0.063220754 -1.4648799 0.8321637 -1.5003659 -0.6006775 -0.40326932 -0.4661093
-0.23173375 -0.33212408 0.5307158 -0.64680946 -0.83693516 -1.7933086 -0.3367454 -2.5771303
0.0034246088 -1.3152372 0.40243456 0.34353715 -0.619567 0.23108187 0.6091214 -0.8204321
2.096444 -1.8998423 0.39678544 0.1309096 -0.3405079 0.40876818 -0.35086647 0.14514622
-0.6509045 0.8733778 -0.5366263 -1.0565956 -0.22336313 0.67452776 -0.29931185 -0.37579516
0.3492638 -0.80208975 -0.3652438 -0.9574279 1.3998259 -0.66924566 -1.3568833 0.6328138
-0.4829947 -0.57839006 -0.10501199 -1.0830982 -0.06441124 -0.005276338 0.9254536 0.329951
0.976091 1.0588834 1.4945993 1.3749771 -0.8301592 -0.34558707 -0.18600614 -0.35254085
-0.9269282 0.3660853 0.009916627 -0.31925455 -0.588057 0.58685714 1.1319196 1.3272885
-1.2760568 0.15742476 -1.1846046 -0.22652026 0.27362835 0.02239069 0.065099545 -0.21404164
2.6613464 0.046164934 -0.7082416 -0.9967874 0.038050022 0.07295815 1.9938958 0.5083731
-0.84566027 1.6002176 0.3626581 0.49895647 -0.029790333 0.89082295 -1.1409326 -0.10692113
0.8368091 -0.71663475 -1.3107057 0.15726753 -0.822026 -0.5212828 0.64709556 -0.40445182
-0.5245582 1.2697102 0.086069785 -1.6648848 -1.0067445 -0.789153 -0.69914293 0.061817463
-0.5816827 0.2850106 -0.023254026 0.40000805 0.23921487 0.4815882 1.2466257 -0.42593306
0.42624414 -0.7173981 0.10660985 -0.8166885 -0.81715524 0.38178554 -0.40948102 1.2289392
0.54661715 0.89427716 0.34790787 1.0980891 -0.65384114 -0.30479425 0.27004623 0.4309837
-0.1983459 0.2273479 -1.070947 -0.8994585 1.7078978 -1.1485097 0.14116989 1.465509
-1.430707 -0.44158208 0.23115596 -1.9925704 0.50209194 0.7645562 0.65656734 0.9455821
-0.6163525 0.32619128 -0.4543779 -0.3606429 -0.33715525 0.6190167 0.090679556 -0.02763904
-0.91464955 0.6230029 -2.2072003 2.3866758 0.48096573 0.5939783 0.23718388 -0.23480749
1.5619239 0.11703289 -1.5463039 0.7895206 -0.63562787 -1.2976757 -1.5996969 -1.296899
-0.12938662 -0.04588527 0.22404793 0.6739005 0.21047232 -0.6157219 -1.250816 0.23650494
0.6464949 -0.68130136 -1.1464905 -1.4331666 -0.35758677 -1.4421529 0.21612373 0.9519106
0.6078473 -1.2813134 0.1568859 -0.031681824 -1.3885516 -0.6555331 -1.834544 0.09016832
-1.1825787 0.38223824 -0.80743325 0.86460894 -0.21855097 -0.82257473 -0.6208689 -0.6838395
-0.29699835 -1.6331111 -0.05182204 -0.64112103 0.508581 -0.12180196 -1.0457027 0.7353688
0.43873796 -0.2549782 0.5611165 -0.04393832 0.6122049 0.2239463 1.2929409 0.24996054
-2.3544476 0.60158455 1.7361808 0.46800464 0.55045384 0.58629686 -0.93639773 1.067898
-0.07553289 -0.24181536 0.20771484 0.04677082 -1.6281111 0.6987909 1.3256403 0.58152103
1.7834488 1.2335416 0.68506813 1.8571285 0.17678663 -0.58927673 -0.7046257 -0.80015445
-0.5806121 -0.87703127 -0.8020566 0.70930594 1.0611159 0.47015062 -0.4387363 1.9363205
00000000: ddbe 5cbf e279 81bd 2f81 bbbf ae08 553f
00000010: fd0b c0bf 00c6 19bf 5179 cebe e1a5 eebe
00000020: 9d4b 6dbe 2b0c aabe fedc 073f 4e95 25bf
00000030: 6241 56bf 238b e5bf e569 acbe b4ef 24c0
00000040: 676f 603b b159 a8bf e70b ce3e 1ae4 af3e
00000050: f19b 1ebf baa0 6c3e 61ef 1b3f d707 52bf
00000060: 232c 0640 082e f3bf 7627 cb3e 2b0d 063e
00000070: 0d57 aebe 104a d13e c5a4 b3be 36a1 143e
00000080: ada1 26bf b095 5f3f 5760 09bf 863e 87bf
00000090: 4eb9 64be daad 2c3f 673f 99be 3968 c0be
000000a0: b4d2 b23e c155 4dbf 3c01 bbbe ff19 75bf
000000b0: 7f2d b33f af53 2bbf 5aae adbf 1600 223f
000000c0: 154b f7be 5f11 14bf 8710 d7bd f6a2 8abf
000000d0: 0aea 83bd 22e5 acbb 87ea 6c3f 56ef a83e
000000e0: 1ae1 793f 7e89 873f 084f bf3f 40ff af3f
000000f0: 5085 54bf caf0 b0be 6578 3ebe 3c80 b4be
00000100: 2b4b 6dbf 886f bb3e 5979 223c 5575 a3be
00000110: e78a 16bf 453c 163f bee2 903f 97e4 a93f
00000120: d455 a3bf f533 213e 20a1 97bf edf4 67be
00000130: 0419 8c3e ae6c b73c e952 853d bb2d 5bbe
00000140: 8053 2a40 7117 3d3d 524f 35bf 762d 7fbf
00000150: 57da 1b3d 156b 953d fa37 ff3f bd24 023f
00000160: 317d 58bf eed3 cc3f 53ae b93e 3977 ff3e
00000170: db0a f4bc f90c 643f 140a 92bf 77f9 dabd
00000180: 1f39 563f 6075 37bf 34c5 a7bf bd0a 213e
00000190: 4c70 52bf ca72 05bf 0ea8 253f 4f14 cfbe
000001a0: 7249 06bf dd85 a23f 5b45 b03d f21a d5bf
000001b0: 01dd 80bf ee05 4abf 08fb 32bf 4f34 7d3d
000001c0: 28e9 14bf e9ec 913e 3a7f bebc dbcd cc3e
000001d0: bef4 743e bb92 f63e 6e91 9f3f e613 dabe
000001e0: ac3c da3e 67a7 37bf 4456 da3d 7f12 51bf
000001f0: 1631 51bf 6579 c33e 7fa7 d1be e14d 9d3f
00000200: 1aef 0b3f 59ef 643f fb20 b23e 2f8e 8c3f
00000210: 2262 27bf fe0d 9cbe 8043 8a3e e5a9 dc3e
00000220: 301b 4bbe e3cd 683e cb14 89bf ea42 66bf
00000230: 659c da3f 5e02 93bf d78e 103e cd95 bb3f
00000240: 6821 b7bf 0c17 e2be 26b4 6c3e 8c0c ffbf
00000250: 1989 003f f5b9 433f cc14 283f ab11 723f
00000260: 47c9 1dbf 8b02 a73e 38a4 e8be 30a6 b8be
00000270: 9d9f acbe e177 1e3f 34b6 b93d 456b e2bc
00000280: 7926 6abf 1e7d 1f3f c542 0dc0 4cbf 1840
00000290: 2441 f63e f60e 183f 55e0 723e 6071 70be
000002a0: 1fed c73f f1ae ef3d 49ed c5bf 061e 4a3f
000002b0: 82b8 22bf 3d1a a6bf dec2 ccbf c900 a6bf
000002c0: ed7d 04be 31f2 3bbd d26c 653e be84 2c3f
000002d0: 0e86 573e f39f 1dbf bd1a a0bf 5a2e 723e
000002e0: b180 253f c469 2ebf 33c0 92bf 0172 b7bf
000002f0: 9d15 b7be 7798 b8bf 8a4f 5d3e 6ab0 733f
00000300: e19b 1b3f 1402 a4bf b3a6 203e cdc4 01bd
00000310: 0fbc b1bf 04d1 27bf 56d2 eabf 2baa b83d
00000320: bd5e 97bf bbb4 c33e f2b3 4ebf 0357 5d3f
00000330: d3cb 5fbe 4294 52bf 44f1 1ebf 1b10 2fbf
00000340: 2b10 98be c909 d1bf 5943 54bd 8220 24bf
00000350: 5d32 023f 4e73 f9bd 96d9 85bf 2141 3c3f
00000360: 43a2 e03e 818c 82be 55a5 0f3f abf8 33bd
00000370: 76b9 1c3f 2e52 653e 167f a53f a8f5 7f3e
00000380: 45af 16c0 7201 1a3f 2c3b de3f 4e9e ef3e
00000390: 8bea 0c3f 8d17 163f c3b7 6fbf e2b0 883f
000003a0: fdb0 9abd 729e 77be 33b3 543e c292 3f3d
000003b0: f265 d0bf f6e3 323f 95ae a93f 90de 143f
000003c0: 0d48 e43f b1e4 9d3f a060 2f3f 63b6 ed3f
000003d0: 8e07 353e d7da 16bf 5a62 34bf ecd6 4cbf
000003e0: ffa2 14bf 1f85 60bf 9553 4dbf 1395 353f
000003f0: a5d2 873f 95b7 f03e 0ba2 e0be 5ad9 f73f

bias f4 [16]
1.329585 0.66925657 0.15076023 -0.2431253 0.33275035 -1.8775822 -0.21316972 -0.12922318
0.3775396 0.9441307 0.15116966 0.057342973 1.1068726 -0.05172013 -1.4788704 -0.08997023
00000000: d72f aa3f 6654 2b3f e460 1a3e d7f5 78be
00000010: 415e aa3e 9d54 f0bf 2a49 5abe 1553 04be
00000020: df4c c13e 8db2 713f 38cc 1a3e 77e0 6a3d
00000030: 00ae 8d3f 7dd8 53bd a04b bdbf 5042 b8bd

weight f4 [16]
1.0751358 1.131674 1.6289383 1.323172 1.401578 1.0092299 1.0608798 1.4114909
0.69173306 1.5940329 1.0287114 0.39622298 0.95091605 0.9040118 1.630934 1.4591352
00000000: 0d9e 893f b2da 903f 0d81 d03f b35d a93f
00000010: e866 b33f 722e 813f e9ca 873f bcab b43f
00000020: 6b15 313f 4509 cc3f d1ac 833f bddd ca3e
00000030: 3c6f 733f 516d 673f 72c2 d03f f1c4 ba3f

bias f4 [16]
0.3530801 -0.15666088 0.7223667 1.298462 0.2333755 -0.4899721 1.575618 0.68322104
0.030962683 1.7324852 2.6328228 1.346173 -0.09919074 0.19575073 -0.48223472 -0.38397965
00000000: eac6 b43e b66b 20be 06ed 383f 0134 a63f
00000010: fdf9 6e3e a0dd fabe daad c93f 93e7 2e3f
00000020: 74a5 fd3c 13c2 dd3f 2b80 2840 664f ac3f
00000030: 8424 cbbd e172 483e 78e7 f6be fb98 c4be

running_mean f4 [16]
-6.916657 -0.55613023 2.4707992 -0.70950276 -2.807085 -0.106742196 -1.338754 -5.00482
-4.8884773 5.1456656 5.4460416 -0.42666698 0.2143226 -5.0366774 6.369956 9.194612
00000000: 4155 ddc0 8d5e 0ebf 9321 1e40 f9a1 35bf
00000010: 48a7 33c0 a79b dabd 4b5c abbf 7c27 a0c0
00000020: 686e 9cc0 4ba9 a440 f945 ae40 1874 dabe
00000030: 6277 5b3e 762c a1c0 aed6 cb40 211d 1341

running_var f4 [16]
94.454994 26.354887 76.61073 44.338684 37.71952 27.597862 24.922764 55.551636
79.603905 34.401287 43.961098 26.420052 26.445332 47.05539 165.80579 211.44212
00000000: f5e8 bc42 cfd6 d241 b238 9942 d05a 3142
00000010: cae0 1642 6cc8 dc41 d261 c741 e034 5e42
00000020: 3335 9f42 eb9a 0942 2ad8 2f42 445c d341
00000030: 0a90 d341 b838 3c42 48ce 2543 2f71 5343

weight f4 [16, 16, 3]
-1.4937787 -0.87400407 0.9700128 -1.2939602 0.30058578 -0.5452211 -1.0407194 0.47466195
1.1158074 -0.50566065 -0.5658548 0.28584823 -1.6652626 -0.7401422 1.3367914 -1.1592399
0.45760217 0.21793811 -0.64424103 -1.1328974 1.7658426 -0.83659786 0.8152474 0.19109638
-0.29270077 0.18482561 -1.1971496 -1.5815691 0.52293223 0.7903999 -0.8152174 -0.27309442
-0.3230274 -1.9611348 0.17687607 -0.35024163 0.5900682 -0.24101613 0.24399373 0.4584607
0.21152404 -1.2166258 -0.72262156 0.17939141 0.39439464 -1.1432669 0.14140482 0.49736032
-0.93469393 1.0864598 0.86443275 -0.8984131 -1.5099301 -1.8159151 -0.012350513 0.3670794
1.0289267 -1.1895877 -1.5814296 -2.3116307 0.5373524 0.02374453 -0.13646775 -1.4340956
0.39089 -0.15672499 -0.7662131 -0.53954756 0.58110183 -0.51454973 0.23693314 0.6943508
-1.7310855 0.39005467 0.42478186 0.06475637 -0.36339527 0.65340495 -0.3322491 -2.0568657
-1.1584122 0.068691485 -0.9246118 0.75262994 -1.3831041 0.06328082 -1.1305159 -0.49676538
0.63646877 0.8427711 -0.6718337 -0.13880835 -0.0045466037 -1.0505866 -0.24704836 -0.0747357
0.10277422 0.54100364 -0.073121116 -1.5375261 -0.4658273 0.3642959 2.5796304 0.6835475
-0.5297376 -1.0166724 -0.016524566 0.18353258 1.3450814 0.47282997 -0.1632723 -0.25024492
-0.5829842 0.37651068 1.7922764 -0.49125642 -0.7288349 -0.0019138455 -1.1617123 -0.799381
0.009720465 0.11804033 -0.37257344 1.7056457 0.45380497 -0.694448 -0.6568652 -0.64696056
-0.63769436 -0.7327669 -0.66137195 -0.25799805 -0.35502407 0.2161032 0.45179865 -0.6166355
-0.26705328 0.7222663 -0.30345756 -0.12831534 0.47103605 -0.2744518 -0.12755156 0.35769424
0.08444898 -0.40549633 0.5464407 -1.5055784 -0.3355498 -1.4330543 0.48774812 -0.92212087
-0.22912115 -0.39974928 -0.20662527 -1.1964502 0.5029718 -1.0381879 -0.2450004 -2.5253396
-0.89415807 -0.40383467 -0.12510103 -0.848395 -1.5080851 -1.1439953 -0.7482429 0.65374637
-1.2017105 0.09543143 0.3478349 1.4812766 -0.7470503 -1.0570316 0.42035618 0.2810225
-0.8363348 -0.9585384 -0.4787456 -0.62204266 0.1635875 0.05758781 -1.4888316 -2.0009081
0.28964534 1.1830742 0.5819936 -0.13261601 -1.3204186 0.684019 0.2061404 -0.9207918
-0.3352091 -1.7468865 -2.141431 -1.1651466 0.019606562 -0.47675538 -0.6308778 -1.3203987
-0.098272376 -0.10266641 -0.429296 0.41440833 -0.051484518 -0.67605907 -1.4741929 -2.7086096
-0.24698327 0.6873434 0.9258367 -1.0628544 -0.26580185 -2.792385 0.09683416 -1.5511392
-1.351402 0.29885834 -1.0577272 0.16457759 -1.4130231 0.75290686 -0.09355104 0.2994615
-0.29707944 -1.1469272 -0.44056287 -0.41943735 -0.333888 -1.8404506 1.1788523 -1.0668508
0.13093835 -1.3163453 0.044446215 -0.59540457 0.9533387 0.65346646 -0.92860913 1.0003009
-0.4976017 -0.05343107 0.7192852 -0.06828504 -1.1579424 0.07702234 -0.77923185 0.39791286
1.4474913 0.27356383 -0.16721477 -1.5309129 -0.6590727 -1.0489149 0.8822318 -0.61617345
00000000: 2434 bfbf bbbe 5fbf c252 783f 7da0 a5bf
00000010: 61e6 993e 9c93 0bbf 4b36 85bf e406 f33e
00000020: c7d2 8e3f fa72 01bf dcdb 10bf b35a 923e
00000030: 5327 d5bf f679 3dbf fb1b ab3f f961 94bf
00000040: d54a ea3e 2b2b 5f3e fbec 24bf c802 91bf
00000050: 2107 e23f 472b 56bf 0eb4 503f c5ae 433e
00000060: e0dc 95be ed42 3d3e 333c 99bf db70 cabf
00000070: e3de 053f a657 4a3f 16b2 50bf 08d3 8bbe
00000080: d963 a5be 7706 fbbf 001f 353e df52 b3be
00000090: b60e 173f efcc 76be 7ed9 793e 5cbb ea3e
000000a0: c299 583e 65ba 9bbf bafd 38bf 62b2 373e
000000b0: 18ee c93e 9256 92bf 6dcc 103e 03a6 fe3e
000000c0: 1a48 6fbf 1d11 8b3f 774b 5d3f 67fe 65bf
000000d0: 6445 c1bf e86f e8bf ce59 4abc d5f1 bb3e
000000e0: dfb3 833f 6944 98bf 496c cabf c2f1 13c0
000000f0: ed8f 093f e383 c23c 34be 0bbe 7290 b7bf
00000100: bc22 c83e 847c 20be 8b26 44bf ca1f 0abf
00000110: 17c3 143f 88b9 03bf 9a9e 723e f9c0 313f
00000120: 3694 ddbf 3fb5 c73e 027d d93e fd9e 843d
00000130: f20e babe 8c45 273f 8e1c aabe b0a3 03c0
00000140: da46 94bf 1fae 8c3d 5cb3 6cbf 5bac 403f
00000150: 8e09 b1bf 6099 813d bfb4 90bf 0858 febe
00000160: 9eef 223f d9bf 573f 4bfd 2bbf c723 0ebe
00000170: adfb 94bb 9f79 86bf 3ffa 7cbe 080f 99bd
00000180: 4a7b d23d 377f 0a3f 86c0 95bd a8cd c4bf
00000190: ea80 eebe fe84 ba3e aa18 2540 f8fc 2e3f
000001a0: e29c 07bf 5222 82bf 875e 87bc f7ef 3b3e
000001b0: a12b ac3f c516 f23e db30 27be 1a20 80be
000001c0: 743e 15bf 02c6 c03e 5069 e53f f685 fbbe
000001d0: ed94 3abf 00da faba fdb2 94bf 3ca4 4cbf
000001e0: 9642 1f3c 21bf f13d f2c1 bebe 9952 da3f
000001f0: 2059 e83e 58c7 31bf 5128 28bf 359f 25bf
00000200: f03f 23bf 9d96 3bbf ac4f 29bf 5218 84be
00000210: b7c5 b5be 284a 5d3e 2752 e73e d3db 1dbf
00000220: 35bb 88be 72e6 383f ca5e 9bbe 1965 03be
00000230: a32b f13e f284 8cbe e09c 02be b323 b73e
00000240: 96f3 ac3d 379d cfbe 8ae3 0b3f cbb6 c0bf
00000250: 2fcd abbe 536e b7bf 1fba f93e 1d10 6cbf
00000260: bc9e 6abe f0ab ccbe 9395 53be 4825 99bf
00000270: c3c2 003f 57e3 84bf 63e1 7abe 2a9f 21c0
00000280: 8be7 64bf 6bc3 cebe 7c1a 00be 6a30 59bf
00000290: ef08 c1bf 706e 92bf d98c 3fbf ec5b 273f
000002a0: a6d1 99bf 8e71 c33d 6a17 b23e 799a bd3f
000002b0: b03e 3fbf d04c 87bf ed38 d73e 2ee2 8f3e
000002c0: 0a1a 56bf c662 75bf 251e f5be 303e 1fbf
000002d0: 7b83 273e 32e1 6b3d 0992 bebf e10e 00c0
000002e0: 654c 943e fa6e 973f 88fd 143f 7ecc 07be
000002f0: 7a03 a9bf df1b 2f3f 7816 533e 03b9 6bbf
00000300: 87a0 abbe fa99 dfbf 350d 09c0 8623 95bf
00000310: f19d a03c 4819 f4be 3581 21bf d302 a9bf
00000320: 0743 c9bd c442 d2bd afcc dbbe 542d d43e
00000330: 6ee1 52bd 3512 2dbf 5ab2 bcbf dc59 2dc0
00000340: 2fe9 7cbe bdf5 2f3f a203 6d3f 9d0b 88bf
00000350: 2e17 88be 70b6 32c0 fd50 c63d bb8b c6bf
00000360: befa acbf f603 993e 9b63 87bf 0787 283e
00000370: f1dd b4bf 81be 403f b097 bfbd 0553 993e
00000380: cc1a 98be 83ce 92bf 7591 e1be 7ec0 d6be
00000390: 5ef3 aabe e393 ebbf a2e4 963f 918e 88bf
000003a0: b414 063e 017e a8bf 3c0d 363d 6f6c 18bf
000003b0: 010e 743f 9449 273f 54b9 6dbf dc09 803f
000003c0: a6c5 febe 8ada 5abd 1323 383f 07d9 8bbd
000003d0: 7537 94bf e3bd 9d3d bd7b 47bf 3cbb cb3e
000003e0: 6547 b93f 8f10 8c3e 593a 2bbe f4f4 c3bf
000003f0: fdb8 28bf d842 86bf f1d9 613f 8bbd 1dbf

bias f4 [16]
1.238259 -0.9604673 0.5870318 -1.6048472 0.60340077 1.0830995 -1.2063718 -0.10157311
0.9918585 0.5851035 -0.3905121 1.6989636 0.19584543 -0.4097938 -0.5316829 0.43030804
00000000: 457f 9e3f 2fe1 75bf b747 163f a26b cdbf
00000010: 7978 1a3f 01a3 8a3f 646a 9abf 9005 d0bd
00000020: 70ea 7d3f 58c9 153f 34f1 c7be a477 d93f
00000030: b48b 483e 7ed0 d1be 5f1c 08bf 5651 dc3e

weight f4 [16]
0.9134146 1.591438 1.8812858 1.7884984 1.1902508 2.0514772 0.9836003 1.1766136
1.1931747 1.1229548 2.002687 1.0647776 1.3810289 1.1407511 1.3015487 0.9754377
00000000: 8ad5 693f 3eb4 cb3f f9cd f03f 84ed e43f
00000010: 235a 983f 674b 0340 3bcd 7b3f 469b 963f
00000020: f3b9 983f fcbc 8f3f 062c 0040 a24a 883f
00000030: 8ec5 b03f 2204 923f 2699 a63f 49b6 793f

bias f4 [16]
-0.14998804 0.017537432 0.92958033 0.5208022 0.37983558 0.752437 1.1693689 -1.2233819
0.07140572 0.5068069 0.30016106 -1.0738822 0.61951464 -0.15674827 -1.1976603 -1.3696351
00000000: 7796 19be a9aa 8f3c faf8 6d3f 4b53 053f
00000010: cf79 c23e b69f 403f e1ad 953f c797 9cbf
00000020: 2a3d 923d 19be 013f b6ae 993e f974 89bf
00000030: 8398 1e3f 9e82 20be ef4c 99bf 3450 afbf

running_mean f4 [16]
-11.057583 -22.520895 -2.99138 -21.625826 -20.643183 6.64697 -21.264557 7.528151
-1.3924787 1.008188 -13.517697 6.8140826 -5.173744 9.691216 17.184237 12.880798
00000000: dceb 30c1 cb2a b4c1 c572 3fc0 b101 adc1
00000010: 3d25 a5c1 fab3 d440 d01d aac1 9de6 f040
00000020: be3c b2bf 4e0c 813f 7d48 58c1 f70c da40
00000030: 508f a5c0 390f 1b41 5179 8941 c017 4e41

running_var f4 [16]
35.624004 211.7828 85.73622 57.81655 139.52466 75.300766 65.16677 60.044296
77.38144 168.16652 75.439514 57.274498 237.50166 77.38123 92.06187 45.725792
00000000: fb7e 0e42 66c8 5343 f278 ab42 2644 6742
00000010: 5086 0b43 fe99 9642 6355 8242 5c2d 7042
00000020: 4cc3 9a42 a12a 2843 08e1 9642 1619 6542
00000030: 6d80 6d43 31c3 9a42 ad1f b842 36e7 3642

weight f4 [32, 16, 3]
-1.5411092 0.39094988 -2.013777 -1.3933141 0.50759256 0.92812085 0.2430257 -0.6609291
1.1830187 0.88987744 -0.12930635 0.83529127 0.27824372 -0.20927331 -0.86111814 0.08046043
0.39996994 0.11814771 -1.7600915 -1.1140932 2.0695 0.50464594 0.1362989 -0.10215142
1.0418091 -0.44341776 -0.91505474 -0.20511276 -1.491069 -1.9255168 -0.73741096 -3.2879362
-1.0012014 -0.887268 -0.5636682 -0.07819645 -0.03812834 -0.24181983 0.029720597 1.0709217
0.007646196 0.93259054 -0.22443059 -1.318242 -0.5783575 1.2768197 0.19374664 -0.9535361
0.4633967 -0.8336908 0.29935533 0.15707044 -0.8867573 0.18514058 -1.1035099 -0.8790209
-0.1970903 -0.56122386 -0.5680511 1.061956 0.5004045 -1.4328351 -1.4746512 -0.5968119
0.3453594 -0.07791449 -0.5281755 -1.1148537 1.331595 0.96613747 1.6308818 -1.2087855
-1.0357903 1.1441602 -0.86657673 0.49180314 -0.35903367 -0.10625997 2.212925 -0.7795069
-1.4936836 0.4119992 -0.16508569 -1.6252848 -1.2654 -0.88062 0.003988404 -1.2515955
1.3940705 -0.46488148 0.9956529 0.6483196 0.7920455 -0.26240584 0.72642964 -0.77252096
-0.5851574 -0.54004794 0.21169454 0.24916546 0.32086435 -0.0032827756 -0.97950864 -0.5801859
0.55470943 -1.171125 0.06680584 0.20922326 -0.21671367 0.5469935 0.084625185 -1.6229311
-0.01878177 -0.49448308 -0.689144 -0.11264233 -0.15558161 1.0956384 0.8524088 -1.3649918
-1.3644025 -0.20564958 -0.76095384 0.03428965 1.4298699 0.75135946 2.1881027 -0.49404353
-1.1646035 -0.49697003 0.95248103 -1.8273282 -0.7446905 -0.61750454 -0.48803 -0.06365379
0.2858567 -0.89374685 1.2387931 0.7543576 0.39850286 -0.61334217 -0.39546835 -2.1403966
0.5395552 -0.2623521 0.20256536 -0.12106435 -0.711266 -1.665963 -0.9522465 -0.28144488
-0.49028748 -1.112369 -1.3940439 -1.267744 -1.1755358 -1.1002836 0.38745 -0.21943071
-1.1271901 -0.66115564 0.3418912 -0.1988475 -0.6310828 0.5400596 0.7504353 0.19007024
0.9558795 0.8649973 0.21530475 -2.989891 -1.6681467 -0.7368772 -0.23775443 -0.7808955
-0.07023647 0.06673716 -0.37034118 -1.0004792 1.7010055 0.7638555 -0.7921568 0.06589843
0.13633592 -0.60458297 -0.76787746 -1.594966 -0.8193243 -0.3207597 0.3147433 0.4758571
-0.58560145 -0.52214694 -0.39252594 -1.4950149 -0.5304622 -0.13158773 -0.6714781 -0.50041777
0.612809 1.041825 0.20472479 0.5534681 1.8007871 -0.38654774 -1.5753161 0.6287507
2.209294 0.43649057 -1.2185658 -0.8262328 1.0119971 -0.6613496 0.17510377 -0.8580834
0.17626236 0.05057735 -0.31167573 1.1975256 -0.0136990845 -1.1910472 -0.51073205 -0.42680556
1.6377538 0.21132307 0.1504766 0.20256677 -0.98102945 0.40936103 -0.28979588 0.18403757
1.2307849 0.19324856 -0.5336993 -1.1595206 -2.2321756 0.2828257 -0.9311477 0.09666221
-1.1460724 0.49859425 0.119610734 0.6417261 0.61713594 0.70555896 -1.058183 0.40430987
0.25821832 0.3698134 0.6514518 -0.07855172 -1.3270832 0.3518986 0.26462147 0.73910004
00000000: 1143 c5bf 952a c83e b9e1 00c0 1e58 b2bf
00000010: 96f1 013f 5499 6d3f bbdb 783e a632 29bf
00000020: 286d 973f 02cf 633f e268 04be a6d5 553f
00000030: f675 8e3e be4b 56be 3d72 5cbf 70c8 a43d
00000040: dcc8 cc3e 6df7 f13d ae4a e1bf 9b9a 8ebf
00000050: b072 0440 7a30 013f f091 0b3e c434 d1bd
00000060: 005a 853f a707 e3be 0741 6abf 1409 52be
00000070: 59db bebf 5677 f6bf f7c6 3cbf 8c6d 52c0
00000080: 5e27 80bf ff23 63bf 8f4c 10bf 7625 a0bd
00000090: 762c 1cbd 9e9f 77be 9c78 f33c f613 893f
000000a0: f18c fa3b 41be 6e3f 22d1 65be 27bc a8bf
000000b0: 3d0f 14bf d46e a33f 8565 463e f11a 74bf
000000c0: 5542 ed3e c36c 55bf 1a45 993e 13d7 203e
000000d0: 8702 63bf 7e95 3d3e d03f 8dbf 8407 61bf
000000e0: 0ad2 49be 5eac 0fbf cc6b 11bf 2dee 873f
000000f0: 821a 003f 2467 b7bf 5fc1 bcbf aac8 18bf
00000100: f3d2 b03e a291 9fbd 8236 07bf 87b3 8ebf
00000110: b471 aa3f c954 773f bcc0 d03f 7cb9 9abf
00000120: c794 84bf d773 923f f9d7 5dbf 9fcd fb3e
00000130: 43d3 b7be d49e d9bd 90a0 0d40 c48d 47bf
00000140: 0631 bfbf 8ff1 d23e 390c 29be 5509 d0bf
00000150: a1f8 a1bf 5070 61bf 28b1 823b 4834 a0bf
00000160: e770 b23f f204 eebe 1ce3 7e3f 46f8 253f
00000170: 7ec3 4a3f 0f5a 86be 4bf7 393f efc3 45bf
00000180: e0cc 15bf 9540 0abf 74c6 583e 3b25 7f3e
00000190: 5548 a43e d623 57bb 14c1 7abf 1087 14bf
000001a0: 7001 0e3f 6de7 95bf 80d1 883d 9f3e 563e
000001b0: 30ea 5dbe c407 0c3f f84f ad3d 35bc cfbf
000001c0: 3adc 99bc e32c fdbe be6b 30bf 06b1 e6bd
000001d0: c950 1fbe e13d 8c3f 7737 5a3f 0db8 aebf
000001e0: bea4 aebf ce95 52be dfcd 42bf 4e73 0c3d
000001f0: fa05 b73f 1859 403f e009 0c40 46f3 fcbe
00000200: ba11 95bf db72 febe ccd5 733f e4e5 e9bf
00000210: 09a4 3ebf c714 1ebf 11df f9be eb5c 82bd
00000220: cf5b 923e 98cc 64bf c690 9e3f 941d 413f
00000230: 9108 cc3e fe03 1dbf d47a cabe 42fc 08c0
00000240: 4a20 0a3f 0453 86be 4b6d 4f3e 96f0 f7bd
00000250: 8715 36bf 473e d5bf 6dc6 73bf 8b19 90be
00000260: f606 fbbe 1b62 8ebf 0870 b2bf 6f45 a2bf
00000270: f577 96bf 18d6 8cbf d95f c63e 72b2 60be
00000280: c447 90bf 7f41 29bf 5d0c af3e ae9e 4bbe
00000290: a48e 21bf 5941 0a3f 871c 403f c6a1 423e
000002a0: 85b4 743f 7770 5d3f d978 5c3e 605a 3fc0
000002b0: d585 d5bf fca3 3cbf e675 73be c4e8 47bf
000002c0: 23d8 8fbd 7ead 883d 5c9d bdbe b40f 80bf
000002d0: 8cba d93f 098c 433f caca 4abf c2f5 863d
000002e0: a59b 0b3e f3c5 1abf 9e93 44bf d927 ccbf
000002f0: 3dbf 51bf 9e3a a4be 0926 a13e 8ba3 f33e
00000300: fae9 15bf 6cab 05bf 29f9 c8be a65c bfbf
00000310: 5fcc 07bf efbe 06be fde5 2bbf 611b 00bf
00000320: 0de1 1c3f 865a 853f 60a3 513e 16b0 0d3f
00000330: 3180 e63f 96e9 c5be f5a3 c9bf cef5 203f
00000340: 1365 0d40 b17b df3e f7f9 9bbf fe83 53bf
00000350: 1f89 813f 354e 29bf 674e 333e 5bab 5bbf
00000360: 1f7e 343e 322a 4f3d f693 9fbe 8548 993f
00000370: 2072 60bc 3c74 98bf 56bf 02bf 4286 dabe
00000380: eba1 d13f 1365 583e 8a16 1a3e aa6d 4f3e
00000390: bf24 7bbf c597 d13e 2060 94be 5874 3c3e
000003a0: 5c8a 9d3f f3e2 453e 84a0 08bf 2c6b 94bf
000003b0: f7db 0ec0 88ce 903e b25f 6ebf d6f6 c53d
000003c0: 80b2 92bf bf47 ff3e 79f6 f43d 2948 243f
000003d0: 9ffc 1d3f 839f 343f 8a72 87bf b401 cf3e
000003e0: 3135 843e 2f58 bd3e 8cc5 263f b9df a0bd
000003f0: dddd a9bf 0e2c b43e 777c 873e a935 3d3f

bias f4 [32]
-0.16654854 0.23066092 -0.577822 0.028448991 0.18343157 -0.982299 0.6956722 0.50527656
-1.2162917 0.93230784 -0.13898617 -0.58728 -0.56808025 -0.4869359 0.40384546 -0.45133826
-1.4152316 1.0572003 0.44952205 -0.6958377 -1.3953356 0.9571589 1.7066246 0.12305447
0.6432429 0.27448553 0.1291309 0.005471707 -1.3746276 -1.2967411 -0.37133083 -0.6394026
00000000: b38b 2abe 6032 6c3e 25ec 13bf dc0d e93c
00000010: 7cd5 3b3e f277 7bbf 9317 323f ce59 013f
00000020: 72af 9bbf baab 6e3f 6452 0ebe fb57 16bf
00000030: b56d 11bf aa4f f9be d5c4 ce3e cf15 e7be
00000040: 4f26 b5bf 5752 873f c127 e63e 6b22 32bf
00000050: 5b9a b2bf 5e08 753f ad72 da3f fb03 fc3d
00000060: 91ab 243f 5e89 8c3e e43a 043e 014c b33b
00000070: ccf3 afbf 9dfb a5bf 131f bebe e4af 23bf

weight f4 [32]
0.96793896 1.3237729 1.0463687 0.7876883 1.6689515 1.037501 0.6116402 0.8273957
1.1981546 1.4283942 0.7227678 1.5526087 1.4548113 0.53955704 1.5592196 1.05686
1.738544 1.4228172 1.6632717 1.3723627 1.2913848 1.5577819 1.7174182 2.0249777
0.7482301 1.7860798 1.5889572 0.9840644 2.2214196 0.94208217 1.2489645 1.9750558
00000000: d9ca 773f 6471 a93f 69ef 853f f1a5 493f
00000010: 34a0 d53f d5cc 843f 7494 1c3f 34d0 533f
00000020: 215d 993f 9fd5 b63f 4f07 393f e2bb c63f
00000030: 4237 ba3f 6920 0a3f 8294 c73f 3047 873f
00000040: 9c88 de3f e01e b63f 16e6 d43f 95a9 af3f
00000050: 194c a53f 6665 c73f 5cd4 db3f 3c99 0140
00000060: 028c 3f3f 439e e43f f362 cb3f a5eb 7b3f
00000070: bd2b 0e40 4c2c 713f 12de 9f3f a1ce fc3f

bias f4 [32]
0.08038211 0.45874453 -0.09564347 0.3241613 -0.19781142 -1.921765 -0.58476263 -0.7766193
0.44291487 0.030082284 -0.7253335 -0.10848154 0.28528526 -0.17932542 0.028203318 1.6694838
-0.06784104 -0.3642587 0.5063391 0.034945343 -0.17607057 0.5291923 1.2991037 -0.6131701
-0.4803232 -0.54281074 0.4452356 -1.2668424 -1.1140873 -1.7025658 0.21192169 -0.8503729
00000000: 609f a43d 90e0 ea3e b9e0 c3bd 78f8 a53e
00000010: 148f 4abe 65fc f5bf 01b3 15bf 86d0 46bf
00000020: bdc5 e23e 1f6f f63c 75af 39bf 922b debd
00000030: e910 923e 15a1 37be a50a e73c a5b1 d53f
00000040: 3ef0 8abd 1e80 babe 709f 013f d922 0f3d
00000050: d84b 34be 2679 073f 0849 a63f b7f8 1cbf
00000060: ecec f5be a5f5 0abf ecf5 e33e e427 a2bf
00000070: 6a9a 8ebf aded d9bf 0002 593e 0ab2 59bf

running_mean f4 [32]
-6.4225287 -7.311696 -6.8612432 -13.840426 1.272602 9.103967 5.9109826 -6.0410986
-9.233057 6.8695097 0.7287256 -6.7129154 4.5701165 0.66171706 4.5205135 -6.542483
-8.878713 3.177831 -0.81979 5.5587745 -5.3667574 -6.7718077 -12.288231 -2.2563963
-6.289082 -0.7848931 -9.911334 11.39156 6.9134655 3.8781073 -4.0610857 0.915655
00000000: 5b85 cdc0 6af9 e9c0 4e8f dbc0 6372 5dc1
00000010: 9fe4 a23f d9a9 1141 c526 bd40 ae50 c1c0
00000020: 9aba 13c1 06d3 db40 c38d 3a3f 34d0 d6c0
00000030: 653e 9240 4a66 293f 0ca8 9040 055c d1c0
00000040: 350f 0ec1 9561 4b40 c2dd 51bf 7be1 b140
00000050: 7abc abc0 a6b2 d8c0 989c 44c1 cc68 10c0
00000060: 2940 c9c0 c1ee 48bf d394 1ec1 d443 3641
00000070: 1c3b dd40 e932 7840 6af4 81c0 5e68 6a3f

running_var f4 [32]
121.38237 51.924942 87.071075 102.88805 66.086655 31.58418 53.01758 48.048843
80.92885 108.06329 78.25772 115.57627 108.20316 78.15365 76.54522 152.33441
55.07807 109.1173 93.274536 61.292816 117.03023 75.71778 85.509094 54.954716
69.917046 104.741974 89.57402 60.28091 72.06642 25.015066 133.29233 77.89819
00000000: c6c3 f242 24b3 4f42 6424 ae42 aec6 cd42
00000010: 5e2c 8442 67ac fc41 0012 5442 0432 4042
00000020: 92db a142 6820 d842 f483 9c42 0d27 e742
00000030: 0568 d842 ab4e 9c42 2717 9942 9c55 1843
00000040: f24f 5c42 0f3c da42 908c ba42 d82b 7542
00000050: 7a0f ea42 816f 9742 a804 ab42 a1d1 5b42
00000060: 87d5 8b42 e47b d142 e625 b342 a71f 7142
00000070: 0222 9042 db1e c841 d64a 0543 e0cb 9b42

weight f4 [32, 32, 3]
1.9624128 0.53695035 1.0165167 -1.6510845 0.26528382 -0.43532485 -0.6575055 0.51983494
-0.08256901 1.5201323 0.28736663 0.14470267 1.1324886 0.9541399 0.017319677 -0.18183616
0.81959987 1.0504353 -0.6393629 0.35673472 0.43698975 1.5088905 0.7797701 0.18529
-1.6668231 -0.97575134 -1.5049981 -0.19926472 0.33612818 -0.17534809 0.7936593 0.065927595
0.21423781 -2.2293687 -0.29521066 -0.1629758 0.68199444 -0.17362323 -0.7741325 1.3256156
0.69573957 -0.0032230688 1.164482 0.8713989 0.13069813 -2.3131745 -0.89160496 -1.8113238
1.4095029 -0.23153147 -0.9102982 -0.26931185 0.99150765 -0.17944781 -2.8175392 -0.27818513
-0.8784106 -1.2757229 -2.4565988 -2.254964 -0.7093208 -0.11241379 -0.16871971 -1.1431739
0.22497576 -0.60606056 -0.1267029 -0.9403243 -1.936437 -0.17435904 1.2608231 -0.867232
-0.15660991 -0.07963815 -0.7177023 -2.5014052 -0.064976595 -0.14803708 -0.26234075 0.69204015
-0.10166048 0.014981029 -0.21880637 0.22984563 -0.40344238 -0.33582628 -1.5212768 -0.3641175
0.0245423 0.13900937 -0.63391876 0.8165112 -0.33968943 0.26093462 0.0155776 -0.96277696
-0.06019109 0.536786 0.5105926 0.43943197 -1.0003031 -1.5517268 0.07918469 -2.2617798
-1.761534 -1.1266611 0.39648828 -0.49806955 0.8045831 -0.30009174 -0.38803938 -0.49164203
-1.0854619 1.0022227 -0.19190577 -0.78384626 -1.0852568 -0.34069508 0.22938226 -0.17941104
0.51295453 -0.32880294 -0.7814358 0.5401196 0.29627177 -1.0339513 -1.3732924 0.18432814
0.92678803 0.12615463 -0.14811361 -1.1852263 -2.709485 -0.51862276 1.265767 -0.071525365
0.16113591 0.079447396 -2.0686326 -0.21795319 0.69511986 -1.016483 -0.8971339 -0.57494223
-0.35392094 0.22467744 0.697663 -0.11020877 -2.0900705 0.4191652 0.78339976 -0.21529523
-0.74304414 -0.6006352 -0.1037302 -1.2626922 1.7112017 0.48346007 -0.8974367 1.1749752
0.03809762 -1.251688 0.0939648 -0.25514343 -1.4014348 -0.87457186 -1.0297673 -1.5004759
1.2977387 0.69536597 -0.41011116 0.64737046 -0.5688679 -0.24831814 1.1218065 -0.3990025
-1.3145493 -0.84343475 0.37966663 0.27494505 -2.8451061 -2.3358624 -0.3254331 -0.8128327
0.45744804 -0.46775985 -0.5403184 -1.2355564 -1.9266938 -0.9720214 -1.6668724 0.5545109
-0.5311641 0.35119984 0.14751637 -0.3851554 -0.27564728 -0.7856525 -0.5768882 -0.38670877
-0.62451756 0.528159 0.620913 0.580188 0.12035316 0.10292713 0.5202516 0.6076898
-0.21143433 -1.4246109 0.7757747 0.69918525 -0.41776353 0.15763062 -0.08341474 -0.43240353
-1.3999006 0.9251693 0.38114175 -0.5459856 0.5802642 1.1459197 0.80124295 -0.8470346
0.47363627 0.697034 0.8018051 0.32957956 1.653115 -0.65687704 0.6630975 0.10027062
-0.31643924 1.1767342 1.0754627 -0.47388315 1.2123553 0.3794637 0.6256063 1.0525392
0.6590174 -0.35333186 0.42596817 0.8689394 -0.010755928 -0.25333688 0.37100074 0.46722355
0.05459247 -0.29277286 -0.4898146 -1.4030905 0.45890763 -0.142156 -0.5814828 0.6192854
00000000: 5830 fb3f 9475 093f 381d 823f bd56 d3bf
00000010: 48d3 873e e6e2 debe 4852 28bf e713 053f
00000020: f119 a9bd b293 c23f b821 933e f02c 143e
00000030: 63f5 903f 8342 743f ffe1 8d3c 4233 3abe
00000040: 4cd1 513f aa74 863f 49ad 23bf efa5 b63e
00000050: 1fbd df3e 5323 c13f 039f 473f a9bc 3d3e
00000060: 765a d5bf d7ca 79bf c7a3 c0bf 0d0c 4cbe
00000070: fe18 ac3e 738e 33be 422d 4b3f 0c05 873d
00000080: 2861 5b3e faad 0ec0 da25 97be 21e3 26be
00000090: 3097 2e3f 4aca 31be 8c2d 46bf c6ad a93f
000000a0: fd1b 323f 1f3a 53bb bf0d 953f 0014 5f3f
000000b0: bbd5 053e 0d0b 14c0 3940 64bf 75d9 e7bf
000000c0: 976a b43f 9616 6dbe 4e09 69bf 3ee3 89be
000000d0: 72d3 7d3f 2bc1 37be 9052 34c0 486e 8ebe
000000e0: 84df 60bf e34a a3bf ea38 1dc0 5551 10c0
000000f0: 0c96 35bf 3339 e6bd dcc4 2cbe 8653 92bf
00000100: 0c60 663e c926 1bbf 68be 01be 18b9 70bf
00000110: 2bdd f7bf 2d8b 32be a762 a13f eb02 5ebf
00000120: 595e 20be 5419 a3bd 57bb 37bf 0617 20c0
00000130: 7312 85bd 0897 17be 8751 86be 8b29 313f
00000140: 5f33 d0bd fd72 753c c70e 60be a75c 6b3e
00000150: 0090 cebe 6cf1 abbe 33b9 c2bf 9c6d babe
00000160: ef0c c93c 7958 0e3e 8048 22bf e106 513f
00000170: c6eb adbe 3999 853e 3139 7f3c 8d78 76bf
00000180: ef8a 76bd cf6a 093f 32b6 023f 3afd e03e
00000190: ef09 80bf fc9e c6bf 952b a23d 00c1 10c0
000001a0: f279 e1bf 6e36 90bf 8300 cb3e f902 ffbe
000001b0: 28f9 4d3f a0a5 99be 19ad c6be 81b8 fbbe
000001c0: 6af0 8abf d548 803f f282 44be 26aa 48bf
000001d0: b2e9 8abf 966f aebe 2fe3 6a3e 87b7 37be
000001e0: fd50 033f dc58 a8be 2d0c 48bf 4745 0a3f
000001f0: efb0 973e 8458 84bf 0cc8 afbf 84c0 3c3e
00000200: fb41 6d3f ae2e 013e 18ab 17be 7fb5 97bf
00000210: 3468 2dc0 76c4 04bf a704 a23f e47b 92bd
00000220: d000 253e 51b5 a23d 7a64 04c0 1f2f 5fbe
00000230: 60f3 313f 1d1c 82bf 91aa 65bf 6a2f 13bf
00000240: 2035 b5be d811 663e 0b9a 323f 23b5 e1bd
00000250: b7c3 05c0 d29c d63e e38c 483f 5a76 5cbe
00000260: 2438 3ebf 3ac3 19bf 8070 d4bd e69f a1bf
00000270: a808 db3f 1488 f73e 69be 65bf 9665 963f
00000280: 400c 1c3d 5037 a0bf 9e70 c03d 29a2 82be
00000290: 3762 b3bf f1e3 5fbf 6acf 83bf 980f c0bf
000002a0: 4d1c a63f 8103 323f 17fa d1be 12ba 253f
000002b0: 54a1 11bf 1c47 7ebe 5b97 8f3f 0e4a ccbe
000002c0: 2743 a8bf 57eb 57bf aa63 c23e 99c5 8c3e
000002d0: 3816 36c0 c57e 15c0 2b9f a6be ce15 50bf
000002e0: a136 ea3e 387e efbe 4f52 0abf b626 9ebf
000002f0: e79d f6bf 65d6 78bf 135c d5bf 6df4 0d3f
00000300: 5ffa 07bf 77d0 b33e 880e 173e 1733 c5be
00000310: a421 8dbe 8620 49bf f2ae 13bf b1fe c5be
00000320: 62e0 1fbf 6e35 073f 28f4 1e3f 3387 143f
00000330: b87b f63d 76cb d23d 352f 053f 8f91 1b3f
00000340: 3e82 58be a659 b6bf 2c99 463f cefd 323f
00000350: 1ae5 d5be ec69 213e 59d5 aabd ff63 ddbe
00000360: f12f b3bf e5d7 6c3f 0325 c33e b6c5 0bbf
00000370: 328c 143f 7fad 923f 421e 4d3f 42d7 58bf
00000380: 7480 f23e d270 323f 1943 4d3f a7be a83e
00000390: 4699 d33f 1829 28bf c2c0 293f af5a cd3d
000003a0: 5304 a2be 3a9f 963f c3a8 893f d0a0 f2be
000003b0: 752e 9b3f 1149 c23e bc27 203f 9bb9 863f
000003c0: 5db5 283f eae7 b4be 8018 da3e d072 5e3f
000003d0: a239 30bc 5fb5 81be cff3 bd3e ed37 ef3e
000003e0: 5b9c 5f3d 53e6 95be fbc8 fabe 7898 b3bf
000003f0: f1f5 ea3e 5891 11be 0fdc 14bf 7d89 1e3f

bias f4 [32]
-0.85476553 -0.31486407 -0.38423258 0.62759274 -0.4589014 -0.21467969 -1.0092219 -0.17971294
-0.28873995 0.0049303696 -0.046426196 -0.6964556 -0.51620394 0.73806417 1.3296026 0.51479274
0.032612883 0.16040382 -0.002366517 0.88651913 -1.2013348 -0.41765183 -0.1490356 0.26902023
-0.3549716 0.12851073 -0.32664514 0.22697896 0.076709144 -0.5479048 -0.61347634 -1.2228141
00000000: ead1 5abf dd35 a1be 22ba c4be eba9 203f
00000010: 20f5 eabe fed4 5bbe 2f2e 81bf ab06 38be
00000020: b9d5 93be f08e a13b 6529 3ebd ea4a 32bf
00000030: f125 04bf c6f1 3c3f 6b30 aa3f 75c9 033f
00000040: 1695 053d e640 243e 9117 1bbb ebf2 623f
00000050: 57c5 99bf 76d6 d5be ca9c 18be 05bd 893e
00000060: d6be b5be 5198 033e 083e a7be 2c6d 683e
00000070: af19 9d3d 7d43 0cbf c90c 1dbf 2c85 9cbf

weight f4 [32]
1.301689 0.92184514 1.1765815 1.0435703 1.6246238 1.7133886 1.009042 1.8837038
1.3431914 1.9130504 1.0053923 1.4754477 1.3367563 1.2193667 1.1266896 1.2376384
1.3703747 1.5657593 1.0146116 0.97550154 0.9647096 1.557133 1.9064988 0.58274466
1.032243 2.051886 1.8931394 1.7023336 0.6372939 1.1567403 1.7349929 1.965261
00000000: bf9d a63f 0bfe 6b3f 399a 963f b693 853f
00000010: acf3 cf3f 5150 db3f 4a28 813f 351d f13f
00000020: b2ed ab3f d6de f43f b2b0 803f 78db bc3f
00000030: d51a ab3f 3514 9c3f 5d37 903f ef6a 9e3f
00000040: 7068 af3f cd6a c83f cbde 813f 78ba 793f
00000050: 35f7 763f 2250 c73f 2708 f43f c12e 153f
00000060: 8a20 843f 1a52 0340 6452 f23f 11e6 d93f
00000070: b125 233f 1110 943f 3f14 de3f ac8d fb3f

bias f4 [32]
1.105634 -0.04543369 -1.7512333 0.6907366 0.7412406 -0.3075415 -1.2657989 1.106694
-0.63608176 -0.26480088 1.5543643 -0.5576997 0.3588496 -0.5579873 1.0187554 -1.21222
-0.75974566 -0.51872045 -1.2365068 -0.6347609 -0.30597228 -0.83327377 -0.11880089 -2.0654802
-1.1915321 -0.39468357 0.9242877 -0.050518043 -0.13571681 -1.1174682 -0.59059936 -0.09435736
00000000: 6a85 8d3f ad18 3abd 6a28 e0bf 1dd4 303f
00000010: f2c1 3d3f 1476 9dbe b305 a2bf 26a8 8d3f
00000020: 41d6 22bf fb93 87be 69f5 c63f 68c5 0ebf
00000030: 23bb b73e 41d8 0ebf 9466 823f 062a 9bbf
00000040: b17e 42bf ddca 04bf db45 9ebf b17f 22bf
00000050: 66a8 9cbe 6e51 55bf e24d f3bd d430 04c0
00000060: 2084 98bf f713 cabe 1e9e 6c3f 02ec 4ebd
00000070: 59f9 0abe 3309 8fbf 8531 17bf 6e3e c1bd

running_mean f4 [32]
-29.363588 -26.838638 20.852226 -13.244487 -1.5997995 -12.59622 16.339918 -14.4884815
-31.71607 -1.0964855 -14.066624 2.2148252 -21.981703 -18.602299 -7.4371405 25.610785
1.1442298 -21.591902 9.170692 -0.96296865 -6.881051 -3.3406272 7.2981677 -6.01711
3.7397656 1.4727116 -16.735926 -12.190863 16.849436 1.204088 -32.525116 7.5749254
00000000: a1e8 eac1 88b5 d6c1 5cd1 a641 6be9 53c1
00000010: 3bc6 ccbf 1e8a 49c1 27b8 8241 d2d0 67c1
00000020: 83ba fdc1 a359 8cbf e410 61c1 b2bf 0d40
00000030: 87da afc1 82d1 94c1 0efd edc0 e3e2 cc41
00000040: 1f76 923f 37bc acc1 28bb 1241 1d85 76bf
00000050: 9231 dcc0 d6cc 55c0 978a e940 2a8c c0c0
00000060: 5258 6f40 d081 bc3f 2de3 85c1 c60d 43c1
00000070: a5cb 8641 8e1f 9a3f b819 02c2 ca65 f240

running_var f4 [32]
241.80235 722.16437 123.05127 143.969 434.16006 228.97287 125.39524 217.89647
407.7218 178.82806 377.17798 215.23639 618.0355 617.0644 401.6049 158.57558
170.47343 290.11835 155.31981 301.5025 217.14119 313.0097 193.04639 85.66362
198.697 212.19238 579.27576 266.6078 317.05356 165.42947 320.6195 243.46065
00000000: 67cd 7143 858a 3444 401a f642 10f8 0f43
00000010: 7d14 d943 0ef9 6443 5dca fa42 7fe5 5943
00000020: 64dc cb43 fcd3 3243 c896 bc43 843c 5743
00000030: 4682 1a44 1f44 1a44 6dcd c843 5993 1e43
00000040: 3379 2a43 260f 9143 df51 1b43 52c0 9643
00000050: 2524 5943 3e81 9c43 e00b 4143 c653 ab42
00000060: 6fb2 4643 4031 5443 a6d1 1044 cc4d 8543
00000070: db86 9e43 f26d 2543 4c4f a043 ed75 7343

weight f4 [64, 32, 3]
-1.819383 -0.8116712 -1.0926316 2.1146574 -0.13701697 0.7247125 1.00836 1.0468992
-1.635176 -1.3893977 -1.6656508 -0.2270121 -1.2348756 -1.8910809 -1.1965756 0.88132745
-0.6910191 -1.9928268 0.1719016 0.43155316 -0.09310153 -3.6417682 -0.47626978 -1.4548995
-1.7559832 -0.37629774 0.82489896 0.99953043 -1.6250045 -0.23985891 0.19864504 0.7165724
1.2485806 1.4980528 -0.02271001 -0.02546561 0.47026742 -0.6545172 0.56026113 -0.12124798
0.2956832 1.4727364 -0.72885 0.08794838 0.14422812 0.60267496 1.3483764 -0.46922472
1.26225 -0.81529415 0.07724568 0.31704596 -0.9094441 0.9897203 0.22984967 -0.06795687
0.99991477 0.6703741 0.14772429 -1.1054673 -0.5087915 -0.7055078 0.009105847 -0.52131075
-0.423779 -0.64410585 -0.46345654 -0.208374 -1.1526898 1.2578961 -0.5207907 -0.70549804
0.62020004 -0.3014702 -1.3938098 1.8481975 0.6536863 0.46517488 -1.7025218 0.23149614
1.7191157 -0.21803671 -0.097262 -1.0395145 1.2552544 -0.7567479 -1.5462284 -0.0009324579
0.09211444 0.20977132 -2.4880602 0.027244074 1.3702253 -1.198328 0.05543421 -0.85161513
-1.2763578 0.031833887 -1.0100875 1.254152 -0.4057797 0.109280825 -0.58299696 -0.03983814
-0.33157167 -0.682529 -0.16310915 0.08787527 -1.1546469 -0.66720545 0.29300147 0.44689077
-0.20795439 2.1833277 -0.37960574 -0.4019603 -0.63169575 0.47211605 0.24282682 -1.5768751
-0.300766 0.47236103 -0.25201645 -1.2679107 0.55855304 -1.0640595 -0.05327359 0.07822828
1.2317982 2.4774585 -1.155941 -2.1047676 1.2653865 -0.14221612 -0.20905764 -0.99632937
-0.9582924 -0.41377732 0.12400105 -0.14489368 -0.19719568 -0.6726839 0.53785074 -0.26724324
2.4677315 -1.9296808 -1.911295 -0.1957062 0.75643027 0.8128243 0.2608673 -0.2629994
0.031421125 0.91157746 -0.6742569 -0.70231336 -0.30013856 0.4963106 -0.123780884 0.17317519
0.2706072 -0.021833956 -0.9411511 -0.37375277 -0.8524193 -0.40931505 0.24581394 -0.5545846
0.45756748 0.90899557 -0.60222346 1.6053793 1.0762365 -0.4063874 -0.0670034 0.009916721
1.0211705 -0.34342194 -0.30193776 -0.22388346 -0.26942208 -0.36258426 -0.47973555 0.4925533
0.10051788 0.23295566 0.20307346 -1.1741812 1.7398953 -0.32978722 -0.3428758 -0.33855543
2.3683364 1.6782283 0.29138285 -0.3143798 -0.3663256 -1.1306924 -0.27743128 0.36213458
-1.0183942 0.3719018 -1.0242082 0.27147672 -0.38929513 -0.29760212 -1.031677 -0.7708179
-0.6230795 0.06503993 -0.43184808 -0.39310506 -1.0217736 1.030023 -0.21357912 0.5054857
0.8990348 2.1169622 -0.5086977 0.17010812 -0.45319384 -0.38860983 -2.488455 -0.6695766
-2.2574384 0.0028781376 0.085505694 -0.7964788 0.8426524 0.7827038 -0.45224732 0.7090389
0.46310833 -0.4526595 -1.7311301 -0.0140718175 -1.0165875 0.2650031 -0.050342165 -1.16715
0.16449647 0.04826937 -0.6418575 1.1389569 0.768511 -0.92542034 0.053940542 -0.034191582
0.20022185 -0.43429717 -0.5554352 -0.27603164 0.8090788 -0.5177417 -0.015556248 1.2466426
00000000: 8be1 e8bf afc9 4fbf 5adb 8bbf 8c56 0740
00000010: 2d4e 0cbe c286 393f f111 813f cb00 863f
00000020: 724d d1bf c9d7 b1bf 0c34 d5bf dc75 68be
00000030: 6710 9ebf f00e f2bf 6429 99bf ad9e 613f
00000040: a1e6 30bf f314 ffbf f906 303e 89f4 dc3e
00000050: 04ac bebd bb12 69c0 a2d9 f3be 263a babf
00000060: 0fc4 e0bf 19aa c0be 942c 533f 3ae1 7f3f
00000070: 2600 d0bf 939d 75be 9b69 4b3e 4a71 373f
00000080: 7dd1 9f3f 32c0 bf3f 580a babc 419d d0bc
00000090: e4c6 f03e 708e 27bf 466d 0f3f dc50 f8bd
000000a0: ca63 973e a082 bc3f ea95 3abf 481e b43d
000000b0: 89b0 133e e848 1a3f 9997 ac3f 393e f0be
000000c0: 6891 a13f 1eb7 50bf fc32 9e3d d953 a23e
000000d0: 54d1 68bf 4f5e 7d3f b65d 6b3e f92c 8bbd
000000e0: 6afa 7f3f a39d 2b3f 0945 173e f47f 8dbf
000000f0: 2940 02bf 299c 34bf b130 153c 9f74 05bf
00000100: 90f9 d8be 1fe4 24bf 2d4a edbe fe5f 55be
00000110: 578b 93bf bd02 a13f 8a52 05bf 859b 34bf
00000120: 6ec5 1e3f 4d5a 9abe 5c68 b2bf bc91 ec3f
00000130: fc57 273f 672b ee3e 3cec d9bf 530d 6d3e
00000140: fc0b dc3f 0445 5fbe 4d31 c7bd d00e 85bf
00000150: 2dac a03f 3bba 41bf d0ea c5bf 3170 74ba
00000160: 7fa6 bc3d 4bce 563e 613c 1fc0 f72e df3c
00000170: 8b63 af3f d062 99bf fb0e 633d 7303 5abf
00000180: b15f a3bf 4064 023d 8c4a 81bf 0e88 a03f
00000190: 5bc2 cfbe a0ce df3d 4a3f 15bf 512d 23bd
000001a0: c3c3 a9be 38ba 2ebf 1606 27be f3f7 b33d
000001b0: 78cb 93bf facd 2abf 4a04 963e dece e43e
000001c0: fff1 54be a4bb 0b40 af5b c2be becd cdbe
000001d0: d0b6 21bf 32b9 f13e 98a7 783e 0bd7 c9bf
000001e0: 00fe 99be 4ed9 f13e 4d08 81be e64a a2bf
000001f0: 55fd 0e3f 1a33 88bf 6835 5abd 2636 a03d
00000200: 90ab 9d3f ae8e 1e40 e0f5 93bf 83b4 06c0
00000210: 2ff8 a13f 1aa1 11be 3513 56be 710f 7fbf
00000220: a752 75bf 9fda d3be 43f4 fd3d 025f 14be
00000230: aaed 49be 0335 2cbf 96b0 093f 1bd4 88be
00000240: 50ef 1d40 c8ff f6bf 51a5 f4bf 3567 48be
00000250: 6aa5 413f 4115 503f 6690 853e dba7 86be
00000260: 70b3 003d 245d 693f 1a9c 2cbf cfca 33bf
00000270: c3ab 99be 6c1c fe3e d580 fdbd d654 313e
00000280: 078d 8a3e 20dd b2bc 47ef 70bf 865c bfbe
00000290: 2738 5abf be91 d1be a6b6 7b3e 42f9 0dbf
000002a0: 4946 ea3e efb3 683f 512b 1abf 127d cd3f
000002b0: 1ec2 893f 0212 d0be 1439 89bd be79 223c
000002c0: b7b5 823f 00d5 afbe 9697 9abe b541 65be
000002d0: b1f1 89be a5a4 b9be e69f f5be f22f fc3e
000002e0: 51dc cd3d ee8b 6e3e 7df2 4f3e 924b 96bf
000002f0: e4b4 de3f dfd9 a8be 6b8d afbe 2357 adbe
00000300: d392 1740 2fd0 d63f 2230 953e 64f6 a0be
00000310: 078f bbbe 87ba 90bf 790b 8ebe b469 b93e
00000320: be5a 82bf ea69 be3e 4119 83bf fffe 8a3e
00000330: b151 c7be 4e5f 98be fe0d 84bf 5254 45bf
00000340: 2382 1fbf a833 853d 311b ddbe 1145 c9be
00000350: 7ac9 82bf cbd7 833f 7cb4 5abe 8367 013f
00000360: 2527 663f 4f7c 0740 033a 02bf d330 2e3e
00000370: 0609 e8be def7 c6be d942 1fc0 5f69 2bbf
00000380: df79 10c0 239f 3c3b 9c1d af3d 09e6 4bbf
00000390: 11b8 573f 475f 483f f68c e7be 9383 353f
000003a0: 891c ed3e fcc2 e7be ac95 ddbf 7b8d 66bc
000003b0: 8a1f 82bf 7cae 873e 9633 4ebd 2c65 95bf
000003c0: c371 283e 1ab6 453d c650 24bf 57c9 913f
000003d0: 23bd 443f 59e8 6cbf c2f0 5c3d 790c 0cbd
000003e0: f506 4d3e 335c debe 0031 0ebf 0554 8dbe
000003f0: ca1f 4f3f b88a 04bf a2df 7ebc fc91 9f3f

bias f4 [64]
0.2858402 0.42465535 -0.096399985 1.3949784 0.03184449 0.34115353 0.88715625 0.1506523
0.072703056 0.61338985 0.8451724 -0.46288863 -0.39195237 0.20681691 -0.24705817 0.8283998
0.3509636 -0.15629536 -0.044723447 -0.10276724 -0.6460189 0.7281622 -0.6840256 0.8082431
-0.5875085 1.0366517 0.15258871 -0.29483542 -0.2886731 -0.057695072 -0.10959594 -0.20159699
-0.46903434 -0.25911453 -0.37072095 -0.75713146 -0.043311793 0.8464783 -1.115449 -0.29242083
0.43535858 1.065795 -1.0451975 0.5530254 -0.3186616 0.037444115 0.5701622 -0.62937486
-1.0863566 0.034377478 0.061714496 0.050382134 -0.22534774 0.5509168 -0.0656248 -0.07428502
0.5929876 -0.046479728 0.06408898 0.66688037 1.4612081 -0.44338724 0.58946383 0.30172783
00000000: a659 923e 6d6c d93e 5b6d c5bd a78e b23f
00000010: 5e6f 023d adab ae3e ac1c 633f 9944 1a3e
00000020: 57e5 943d 1e07 1d3f 385d 583f bdff ecbe
00000030: fbad c8be d0c7 533e d1fc 7cbe 0212 543f
00000040: 80b1 b33e e40b 20be ef2f 37bd a177 d2bd
00000050: 7f61 25bf d768 3a3f 4d1c 2fbf 05e9 4e3f
00000060: f566 16bf 01b1 843f 3740 1c3e abf4 96be
00000070: f6cc 93be ab51 6cbd d673 e0bd 716f 4ebe
00000080: 4525 f0be a9aa 84be 23cf bdbe 5ed3 41bf
00000090: b567 31bd cdb2 583f 08c7 8ebf 2fb8 95be
000000a0: 52e7 de3e f86b 883f 08c9 85bf 1393 0d3f
000000b0: 9d27 a3be 005f 193d 26f6 113f b61e 21bf
000000c0: bc0d 8bbf 66cf 0c3d 57c8 7c3d 7f5d 4e3d
000000d0: 8fc1 66be e208 0d3f 4c66 86bd bf22 98bd
000000e0: 09ce 173f 8761 3ebd 1541 833d acb8 2a3f
000000f0: de08 bb3f a703 e3be 1ae7 163f 127c 9a3e

weight f4 [64]
1.9828334 1.1921322 1.0087038 2.0939198 2.2399645 0.88579553 1.5119215 1.2760638
1.5716501 1.1624652 1.6386307 1.537472 1.8208472 1.4134343 1.0297137 1.2051463
1.8640277 0.99719554 0.099529855 1.1598346 1.8117673 1.1030709 1.6255167 0.6646476
1.3774565 2.1476684 1.9044669 1.658409 1.1545055 1.0168829 0.14934489 2.1250114
1.126764 0.84466606 1.4356741 1.6596612 1.8785882 1.0213381 1.048254 1.1329135
1.0998324 1.1611844 1.3921027 0.6063075 1.1598369 0.6758307 1.5715936 1.3187284
0.9264236 0.892556 0.12045917 0.35403398 1.0251021 2.0090597 0.71454 1.7886444
1.0686889 0.665021 1.1984618 0.9638395 1.3885133 1.3062952 1.3430194 1.6084208
00000000: 7ccd fd3f ca97 983f 351d 813f c802 0640
00000010: 945b 0f40 7fc3 623f a586 c13f 0f56 a33f
00000020: d52b c93f a9cb 943f a7be d13f e2cb c43f
00000030: 8511 e93f 6aeb b43f a9cd 833f 3c42 9a3f
00000040: 7698 ee3f 3548 7f3f 4fd6 cb3d 7675 943f
00000050: fee7 e73f 6d31 8d3f ee10 d03f 5826 2a3f
00000060: 7f50 b03f 6673 0940 92c5 f33f bf46 d43f
00000070: d6c6 933f 3829 823f deed 183e 3000 0840
00000080: ce39 903f 093c 583f 2bc4 b73f c76f d43f
00000090: 9475 f03f 35bb 823f 302d 863f 4f03 913f
000000a0: 4fc7 8c3f b1a1 943f 6c30 b23f f836 1b3f
000000b0: 8975 943f 3e03 2d3f fb29 c93f 18cc a83f
000000c0: 192a 6d3f 8d7e 643f 4cb3 f63d f143 b53e
000000d0: 8c36 833f 6f94 0040 18ec 363f 4df2 e43f
000000e0: ccca 883f d13e 2a3f 3267 993f 2fbe 763f
000000f0: ceba b13f ae34 a73f 0fe8 ab3f bce0 cd3f

bias f4 [64]
0.0013565408 -1.0076805 -0.45151925 -0.8140186 0.23910359 0.4046858 -0.123197414 0.06581859
-0.6874941 -0.46975052 -0.33383188 -0.39515874 -1.455249 -0.33680084 -1.0822409 0.3341156
-0.20512636 -0.6973132 -1.2711487 -0.88259196 -0.5784626 1.5580409 1.338329 0.8497958
-0.7964877 -0.2492362 -0.22254263 -0.33752793 -0.27276787 -0.7804973 -1.2309194 0.35382628
-0.49990544 -0.725896 -0.42689404 -0.52908665 -0.7463857 -1.1169091 -1.3287532 -1.1888072
-0.48610833 -0.5233278 -0.1660499 -0.1571619 -0.8410167 -2.0213587 1.489911 -0.6937606
-0.20623465 -0.6683572 -0.58943444 -1.1104144 -0.4604296 0.63371587 -0.25860614 -0.013436553
-1.0953149 -0.07174106 0.06841894 -1.0327793 -0.4991979 2.0110424 1.1869748 -0.42517763
00000000: f5cd b13a adfb 80bf 882d e7be 8663 50bf
00000010: 92d7 743e fa32 cf3e ed4e fcbd e6cb 863d
00000020: 9dff 2fbf 2483 f0be 03ec aabe 3f52 cabe
00000030: 9945 babf 2971 acbe df86 8abf 3311 ab3e
00000040: a50c 52be 1e83 32bf 00b5 a2bf 8cf1 61bf
00000050: 2016 14bf e26d c73f 5d4e ab3f 388c 593f
00000060: 9ee6 4bbf c637 7fbe 37e2 63be 76d0 acbe
00000070: 3ba8 8bbe acce 47bf c48e 9dbf b828 b53e
00000080: 9bf3 ffbe 52d4 39bf db91 dabe 3972 07bf
00000090: 2213 3fbf e1f6 8ebf 9614 aabf d62a 98bf
000000a0: 31e3 f8be d0f8 05bf fc08 2abe 0def 20be
000000b0: df4c 57bf f15d 01c0 67b5 be3f 4b9a 31bf
000000c0: 2d2f 53be 7519 2bbf 2de5 16bf 0f22 8ebf
000000d0: 6ebd ebbe 343b 223f 0668 84be fd24 5cbc
000000e0: 4733 8cbf faec 92bd 3b1f 8c3d 1d32 84bf
000000f0: de96 ffbe ebb4 0040 caee 973f e2b0 d9be

running_mean f4 [64]
-18.699501 -3.5046325 -16.051538 -5.306803 -2.529854 1.2738987 1.8281642 -27.51113
-9.607739 4.9010544 0.94801253 -23.29164 -34.70028 8.848912 12.159049 1.6911865
5.1386385 3.4280312 6.5485053 -1.4256473 -30.349169 8.402308 -19.333492 13.413251
-27.1306 -18.495949 -9.834731 -7.2279034 -7.5846977 -9.569695 11.395903 -13.726424
-4.823532 0.24832429 0.8457761 -0.7166853 7.8324485 5.208829 10.751521 -27.636337
-6.9006357 -2.7655005 -1.6513216 -2.9224896 5.9725194 18.562117 -6.817962 -0.630838
-7.4616666 4.6551385 6.5289693 11.601128 -3.5197437 -12.874736 -2.29533 8.436354
6.371956 -8.836948 8.31583 11.203334 2.9917734 -7.598373 -14.142807 -8.835067
00000000: 9498 95c1 e64b 60c0 8d69 80c1 55d1 a9c0
00000010: 21e9 21c0 1d0f a33f 4901 ea3f cb16 dcc1
00000020: 4db9 19c1 70d5 9c40 f3b0 723f 4755 bac1
00000030: 16cd 0ac2 2595 0d41 778b 4241 cd78 d83f
00000040: ba6f a440 dd64 5b40 5b8d d140 9c7b b6bf
00000050: 19cb f2c1 db6f 0641 feaa 9ac1 ad9c 5641
00000060: 780b d9c1 b4f7 93c1 0f5b 1dc1 fc4a e7c0
00000070: d8b5 f2c0 791d 19c1 9e55 3641 6f9f 5bc1
00000080: 605a 9ac0 b948 7e3e c884 583f b078 37bf
00000090: 6ba3 fa40 baae a640 3b06 2c41 3817 ddc1
000000a0: 02d2 dcc0 f6fd 30c0 825e d3bf 120a 3bc0
000000b0: e11e bf40 377f 9441 bf2c dac0 997e 21bf
000000c0: f9c5 eec0 e5f6 9440 51ed d040 389e 3941
000000d0: 7b43 61c0 ebfe 4dc1 b0e6 12c0 4efb 0641
000000e0: 10e7 cb40 2464 0dc1 a40d 0541 db40 3341
000000f0: 3779 3f40 df25 f3c0 f048 62c1 6f5c 0dc1

running_var f4 [64]
232.13809 93.90899 157.91217 149.64656 190.32957 272.3314 106.84522 247.7982
126.68301 83.0274 168.88107 111.96567 88.58414 246.2831 181.42986 180.5199
163.94882 152.57727 36.76725 97.86704 143.03249 161.53589 167.34491 101.03308
145.85939 132.79129 140.3581 186.80435 135.51445 74.03484 75.35451 186.69359
86.433754 99.54198 211.6353 189.04561 111.24478 127.11781 148.45195 165.22153
186.95956 139.6225 145.54756 113.511375 98.313095 121.26131 185.52757 93.42334
252.70543 111.74814 137.14589 95.84558 140.2001 130.17647 158.63173 126.5334
146.0725 149.64757 153.61775 136.36064 169.11766 187.33434 141.53098 225.05241
00000000: 5a23 6843 67d1 bb42 84e9 1d43 85a5 1543
00000010: 5f54 3e43 6b2a 8843 c1b0 d542 57cc 7743
00000020: b35d fd42 070e a642 8ee1 2843 6cee df42
00000030: 142b b142 7948 7643 0b6e 3543 1885 3443
00000040: e6f2 2343 c893 1843 aa11 1342 edbb c342
00000050: 5108 0f43 3089 2143 4c58 2743 f010 ca42
00000060: 01dc 1143 92ca 0443 ac5b 0c43 eacd 3a43
00000070: b383 0743 d711 9442 82b5 9642 8fb1 3a43
00000080: 15de ac42 7e15 c742 a3a2 5343 ad0b 3d43
00000090: 547d de42 523c fe42 b373 1443 b638 2543
000000a0: a6f5 3a43 5c9f 0b43 2d8c 1143 d305 e342
000000b0: 4ea0 c442 ca85 f242 0f87 3943 c0d8 ba42
000000c0: 97b4 7c43 0c7f df42 5925 0943 f0b0 bf42
000000d0: 3a33 0c43 2d2d 0243 b9a1 1e43 1a11 fd42
000000e0: 8f12 1243 c7a5 1543 259e 1943 535c 0843
000000f0: 1f1e 2943 9755 3b43 ee87 0d43 6b0d 6143
